TrainedModels/SMB-1-2/scale_factor=0.750000,alpha=10/4/netG.pth (torch, 474370 bytes, 29 tensors)

channel.fc1.weight f4 [4, 64, 1, 1]
000000 4f 7a 40 3d 99 54 09 3d ff a4 38 3d c6 2e 48 3d
       0.046991643 0.033527944 0.045079228 0.04887273
000010 c8 f0 6b 3c 0f 5b 1e 3c 80 fa a3 3c c5 2c 0a bc
       0.014400668 0.009665265 0.020016909 -0.008433525
000020 7d 5b 89 3d ee 6d cb 3c 27 a9 84 3d f4 85 19 3d
       0.06706903 0.024832692 0.06477576 0.037481263
000030 1d 2f ab 3c 69 a6 df 3c 8b 91 2b 3c 24 4c 83 3d
       0.020896489 0.02730103 0.010471712 0.06411007
000040 09 f0 cd bc 6f fb d0 3c 01 a4 13 3d de dd 81 3d
       -0.025138872 0.025510518 0.03604508 0.06341146
000050 e6 a3 52 bc b6 18 1d 3c d5 ef da 3c 58 f5 cb 3c
       -0.012856459 0.009588411 0.026725689 0.024897262
000060 af 2b 94 3c 44 c1 aa 3d a8 af ee 3c b0 4e 0d 3d
       0.018087236 0.08337644 0.029136494 0.03449887
000070 25 bc 62 3d 60 5f 35 3d 4c ea 84 3d 2c 39 b3 3d
       0.05535521 0.04428041 0.06490001 0.08751139
000080 0b d2 78 3d 2a 67 2b 3c ac 63 7b 3d 25 f6 96 3c
       0.060747188 0.010461608 0.06137435 0.018427918
000090 1e 87 5d 3d e1 33 63 bc 3f 9e 94 3d c4 90 51 3c
       0.054083936 -0.013867349 0.072567455 0.0127908625
0000a0 20 cb 1e 3d ec d3 44 3c 68 ec 22 3d 04 5e e8 3c
       0.038767934 0.012013417 0.039776236 0.028365143
0000b0 24 97 26 3d 2d ad dd 3b ce 43 50 bd 1c 80 83 3d
       0.040671483 0.006765029 -0.050845914 0.06420919
0000c0 16 38 32 3d 60 7f 0c 3d c6 f7 05 3c 6a de 3f 3c
       0.04351052 0.03430116 0.00817675 0.0117107425
0000d0 83 32 08 bd 1d ed 2c 3d bd 07 9e 3d 72 c2 64 3d
       -0.033251297 0.042218316 0.0771632 0.0558495
0000e0 22 91 42 3d e7 c5 dd 3b fa 2f 10 3d e2 a8 cf 3d
       0.04750169 0.0067679766 0.035202004 0.10139634
0000f0 2d c7 ea 3c 09 34 1a 3d 80 46 91 3d 69 38 a9 3c
       0.028659428 0.03764728 0.07093525 0.020656781
000100 01 eb 5b 3c b2 04 a6 bc b1 e2 eb bb 55 59 0d bd
       0.0134227285 -0.02026591 -0.0071986546 -0.03450902
000110 37 20 85 bc 53 24 a4 bb bf d0 0d bc 16 34 1c bc
       -0.016250713 -0.005009213 -0.008655726 -0.009533903
000120 59 37 1d bc 3e da 1a bd b1 c3 b3 bc 84 8b 5c 3b
       -0.009595715 -0.03780579 -0.021943899 0.0033652494
000130 a4 95 1a bc be f2 bf bb 49 38 7c bd a8 56 2e 3b
       -0.009435091 -0.0058577945 -0.061577115 0.0026601944
000140 88 0b db bc 93 8c 4e bd ed cd 3d bd e7 d9 b1 bc
       -0.026738897 -0.05042703 -0.046338964 -0.02171035
000150 44 ba 4b 3d 81 12 9f ba a3 e0 07 bd 45 6c 1b bd
       0.049738184 -0.0012136252 -0.033173215 -0.03794505
000160 7e 72 66 3c ca eb 38 3b 10 65 b9 ba ff 5a 0a bd
       0.014065383 0.0028216713 -0.0014144499 -0.033778187
000170 c8 dc b8 3c 0d 87 5d bd 83 be a7 bc 5d 54 c2 bc
       0.022566214 -0.054083873 -0.020476585 -0.023721868
000180 a2 1c 57 bd 53 fa 41 bd 1b f8 ab bc 73 5e 38 3b
       -0.05251754 -0.04735787 -0.02099233 0.0028132468
000190 ff e5 62 bc d8 43 5b bb 5d 0f 30 bc 27 bc ff 3c
       -0.013848781 -0.0033457186 -0.01074585 0.031217648
0001a0 fb 78 f4 bb 92 fe 3e bd 21 22 69 bd 57 16 a6 bc
       -0.007460711 -0.046629496 -0.056917313 -0.020274324
0001b0 b6 19 e2 3b 5f 18 94 3b 65 b1 99 bb b1 7d 9e bc
       0.0069000376 0.004519507 -0.0046903365 -0.019347044
0001c0 96 9e 23 ba a6 c7 d5 bc 4a e6 51 bd a6 fc 0a bb
       -0.00062415877 -0.026096176 -0.05124501 -0.002120772
0001d0 69 1c ec bc f9 8a 3d 3c ad 0f c5 bb 07 3b b0 3b
       -0.02882214 0.011568778 -0.0060138316 0.0053781304
0001e0 45 a8 fe bc 64 92 99 bb f1 27 bd bb 40 8f 33 bd
       -0.031086097 -0.0046866406 -0.0057725837 -0.043837786
0001f0 49 77 10 bc bb 13 fc bb 8f 2b 97 bb 1d 52 c1 bc
       -0.008817502 -0.0076927817 -0.004613347 -0.023598725
000200 f3 a8 74 3c 23 c8 2d bd 4c 88 6a 3c 87 f7 35 3e
       0.014932859 -0.042427193 0.014314722 0.17770205
000210 b2 4f 0e 3e c0 ca ef 3d 9e c0 ef 3d db c0 52 3e
       0.13897589 0.11708593 0.11706661 0.20581381
000220 bf 8e 44 bc fa 63 de bd 00 24 ed 3d 4d ca f1 bd
       -0.011996924 -0.10858913 0.11579132 -0.11806164
000230 ce de 4d 3d bc 76 6a bc 8c fe 46 3e 1e dc 50 3d
       0.05026131 -0.014310535 0.1943304 0.05099117
000240 1f ab 2a bd bd 65 73 3b ef 8e c8 bd ca 00 01 3d
       -0.0416671 0.0037139498 -0.097928874 0.031494893
000250 71 25 2f bc ef 3d 3d 3d e5 54 2a bd 0e 31 e5 bd
       -0.010690079 0.046201643 -0.041584868 -0.11190997
000260 02 89 30 be 32 31 a2 3d 40 89 60 3d 9c cc cd bc
       -0.17239764 0.079195395 0.05481839 -0.02512198
000270 78 3d f0 3d 95 c0 d9 3c 17 7f c1 3d 39 de ad bd
       0.11730474 0.026581088 0.094480686 -0.08489651
000280 ed 68 30 3d 78 71 25 3e e0 95 d6 3c 79 f3 a1 bd
       0.043068815 0.16156566 0.026194513 -0.07907767
000290 cd fc b1 bc 3c f5 79 be 39 75 04 3d f6 18 a7 3c
       -0.02172699 -0.24409956 0.032338355 0.020397644
0002a0 76 b3 05 3d d9 14 4c bd 5e 9d a6 3c 1b 66 86 bc
       0.03264185 -0.04982457 0.02033871 -0.01640611
0002b0 2c d4 98 3d 36 b2 b3 3d 31 59 f6 bd ca 22 18 3d
       0.074623436 0.087742254 -0.12028731 0.037142552
0002c0 3a 00 89 3d d5 54 b6 bd 42 95 86 3b f1 28 a1 3d
       0.06689496 -0.08902899 0.0041071484 0.07869137
0002d0 7c f9 05 be 26 b5 0e bd f6 7f 64 3d 6d 6a cc 3d
       -0.13083452 -0.034840725 0.055786096 0.099812366
0002e0 0c 8c a9 3d 9c a1 a8 3c b9 74 59 3d e2 12 a3 3d
       0.08278665 0.020584874 0.05308983 0.07962586
0002f0 f9 fe 20 bd 9e 1a c7 3c a4 f6 a0 bc 02 7b 98 3d
       -0.03930566 0.024304684 -0.019648857 0.07445337
000300 c1 3b ef bc e2 fc f1 bc 39 8b 19 bd bc 10 e4 bb
       -0.029203298 -0.02953953 -0.03748629 -0.0069600027
000310 aa 53 f3 3b 8a d5 ca 3b 89 11 33 bb 59 e4 c1 bc
       0.007425745 0.0061900066 -0.0027323684 -0.023668455
000320 bc 95 43 3d da 3b f1 bc d8 05 3a 3d 56 76 6c 3b
       0.04775022 -0.029447485 0.04541573 0.0036081276
000330 a6 4a 18 bd 46 21 9c bc 80 9e 0d 3d ac 60 0b 3c
       -0.037180565 -0.019058835 0.034574986 0.008506935
000340 09 aa 77 3b ee 1e b4 bc 9b ea cb 3b 54 2c 22 3d
       0.0037790558 -0.021987405 0.0062230355 0.039593056
000350 94 83 08 3c c1 a8 ce 3c 34 db ff bc 8b 78 ff 3c
       0.008332152 0.025226953 -0.031232454 0.031185409
000360 2b 57 e2 3c 03 aa db 3b 3d 96 8a bb 39 db 82 bb
       0.027629456 0.0067036166 -0.0042293356 -0.0039934185
000370 17 20 c0 ba 2e 2d 0a bd f6 2b 92 3b 9b 8d c1 bc
       -0.0014658001 -0.033734493 0.004460807 -0.023627093
000380 d0 67 de bc 9c a0 1a 3c 9a 40 db bb 0f 35 10 bc
       -0.027149111 0.009437706 -0.0066910507 -0.008801713
000390 9d 13 48 3c ba 60 7f bc b4 ed a9 3c 8d 2a 9d bb
       0.012211707 -0.015587026 0.020743228 -0.004796332
0003a0 38 1f 17 3d b6 3b 39 bc 63 63 07 bb b3 94 1d bc
       0.036895007 -0.01130574 -0.0020658604 -0.009617972
0003b0 0e 8c 46 3c ae f8 41 bb 3b 25 a4 bc 89 b8 70 bd
       0.012118353 -0.0029597688 -0.020037284 -0.058769736
0003c0 0f 4b e6 bc cb 1f 49 bc f9 85 a4 3c b6 84 ce 3b
       -0.028111963 -0.012275646 0.020083414 0.0063024415
0003d0 75 99 c9 bc 3a 21 26 bc 39 67 d0 bc ef 03 a0 3b
       -0.024609307 -0.010139758 -0.025439845 0.0048832814
0003e0 81 82 60 3c 08 ff fb 3b 92 42 61 bc 3a 35 9b 3c
       0.01370299 0.007690314 -0.013748782 0.018946279
0003f0 59 e3 e6 bb e7 26 56 3b c8 23 16 bd 26 72 c4 3b
       -0.007046145 0.0032676996 -0.036655217 0.005995053

channel.fc2.weight f4 [64, 4, 1, 1]
000000 f1 dc 6a 3c 6c 7b b6 3b d8 11 57 bd b4 b9 d9 bc
       0.014334903 0.0055689123 -0.05250725 -0.026577808
000010 eb 39 85 bd f8 a4 bd 3c 04 33 a4 3d ed 5f 3d 3d
       -0.065051876 0.023149952 0.08017543 0.04623406
000020 9a 52 ee 3c 55 1d 4d 3c 42 d4 86 bc 88 18 0c bd
       0.029092122 0.0125192 -0.016458634 -0.034203082
000030 e7 31 c0 3b cb b0 e9 bc c3 a7 1f be 30 65 c1 3c
       0.005865324 -0.028526684 -0.1559134 0.02360782
000040 1e 64 27 bc d2 ac 36 bb 4a d0 17 be 86 40 0a bc
       -0.010216741 -0.0027874005 -0.1482555 -0.008438235
000050 c2 43 c4 bc 21 dd 5c bc e3 bd 11 be 2b 56 1f bc
       -0.02395809 -0.013480456 -0.14232592 -0.009725134
000060 ed fb aa bd c8 ba c0 3c 33 e6 0a 3e 14 10 97 bc
       -0.08348832 0.023526564 0.13564377 -0.018440284
000070 16 8e 19 3d d0 7b 82 bc 3c 0f 3d be d9 09 c6 bc
       0.03748902 -0.015928179 -0.18462843 -0.024174618
000080 0e 0f 25 bc 46 fd a3 bc ca 87 cc bd 59 ed f1 bc
       -0.01007439 -0.020018231 -0.09986837 -0.029532121
000090 91 8c f6 3c e1 1d 12 3c 2d a5 5e be 64 f0 40 bc
       0.030096324 0.0089182565 -0.21742697 -0.011776064
0000a0 47 c7 a4 bc 01 09 f3 bc 59 5e 9b bd 7b 47 91 bc
       -0.020114554 -0.02966738 -0.07586355 -0.01773428
0000b0 6f 91 35 3c 9b e2 19 3d 65 28 25 be 5a 08 ab bb
       0.011082037 0.037569623 -0.1612869 -0.0052195014
0000c0 9a 12 85 bd b4 59 a8 3c f7 f8 40 3e 35 5e 0e bd
       -0.064976886 0.020550586 0.18844973 -0.03475781
0000d0 9a 72 c1 bc a2 5c 8c bc f0 0d aa bd df 0f b6 3b
       -0.023614217 -0.017134015 -0.083034396 0.005556091
0000e0 90 89 04 bd d8 43 36 bc 33 a9 0b bc e7 9f 58 ba
       -0.032357752 -0.011124574 -0.008524227 -0.00082635734
0000f0 ef ef 80 3c 5f 5f d7 3b e4 02 71 bd 94 b5 13 3c
       0.01573941 0.0065726484 -0.058840647 0.00901546
000100 5c 19 30 3e a6 bc ce ba 54 3d 8f be 3b 87 56 3c
       0.17197174 -0.0015772774 -0.27976477 0.013093765
000110 4b db 1d 3c 45 db e8 3b 81 f7 39 3e 5f d2 74 bc
       0.009634803 0.007106217 0.18160821 -0.0149427345
000120 fd 62 ab bc 38 63 94 3a bf 8f eb 3d 11 6d c8 3c
       -0.020921225 0.0011321073 0.11502027 0.02446607
000130 4f 44 1e 3d 3b 33 bb bc 41 77 fe bb 95 02 90 bc
       0.038639363 -0.022851577 -0.007765681 -0.017579356
000140 f5 52 82 bc 00 f6 d6 bc 44 40 22 be 24 02 43 bc
       -0.015908698 -0.026240349 -0.15844828 -0.011902366
000150 e5 67 4e bc 79 95 8e 3b c6 2d 14 be 3b 4f 0c 3d
       -0.012598013 0.0043513146 -0.14470586 0.034255248
000160 b5 3e 84 3d 67 03 77 3c d2 0a d9 3c 59 bb 78 3c
       0.06457273 0.015076495 0.026494417 0.015181386
000170 17 a1 f8 3b 3a 2a 62 bd 63 27 c5 bd b9 b6 e9 3c
       0.007587563 -0.05521605 -0.09626653 0.028529512
000180 03 41 33 bd 66 17 2e bd f3 4f 48 be 79 69 cb 3c
       -0.043763172 -0.042502783 -0.19561748 0.024830567
000190 c1 9d a1 bc 41 0a 88 3b be 87 49 bd b9 82 03 3d
       -0.019728543 0.004151613 -0.04920172 0.03210709
0001a0 4d 71 bd 3c 6d c8 dd bc f9 47 2f bc 49 6a 1a bc
       0.023125315 -0.02707311 -0.010698312 -0.009424754
0001b0 d0 86 e7 3d 45 f3 7d 3b 8a e0 89 3d ea e6 39 bc
       0.1130501 0.0038749736 0.067322806 -0.011346558
0001c0 12 a2 bc bc ea 7e 94 bc 03 7b 40 3e 75 80 82 3c
       -0.0230265 -0.018126924 0.18796925 0.015930394
0001d0 2e 32 64 3e 0b bb b8 bc 41 35 1e be 2c 94 81 3c
       0.22284767 -0.022550127 -0.15450002 0.015817724
0001e0 b8 3d 93 3a b1 58 90 3c 4f 5f e6 bd 61 a4 06 bb
       0.0011233604 0.017620416 -0.112486474 -0.0020544755
0001f0 14 60 77 3c a9 55 0a 3d 36 81 95 bd 8e a8 32 bb
       0.01509859 0.0337731 -0.07300036 -0.002726111
000200 91 71 30 3c 02 67 87 3b a0 b5 9a bd 27 7b d9 bb
       0.010769264 0.0041321525 -0.075541735 -0.0066369954
000210 f7 b9 05 bc 80 59 a1 3c d9 9d ac bd 43 0c e1 3c
       -0.008162013 0.019695997 -0.084285446 0.027471667
000220 bd 9b 69 bd 6d b5 2b 3d 94 12 5b 3b c0 98 bf bb
       -0.05703329 0.041921068 0.0033427821 -0.0058470666
000230 a6 b7 4b 3c 15 14 aa ba ba 5c 2d be 0f 73 48 3c
       0.012433922 -0.0012975956 -0.16929904 0.012234463
000240 94 29 b1 bc ff 9e e9 3c 18 93 23 bd 36 bf 33 3c
       -0.021626271 0.028518198 -0.0399352 0.010970881
000250 61 9c 0d 3d 82 5c 2f 3b d5 3d 6e be e3 ee 35 bc
       0.034572963 0.002675802 -0.23265775 -0.011104318
000260 ea a2 1c 39 f6 55 4d bc 2e f8 b0 bc 31 85 8f 3c
       0.0001493801 -0.012532702 -0.021602716 0.017519565
000270 09 e4 ab bb 6e 11 f6 38 4c fa 06 be 44 49 79 bb
       -0.00524569 0.000117334406 -0.13181418 -0.0038038054
000280 7f ca 68 3c 63 0b ab 3b f7 b7 86 3d c3 d8 5b bb
       0.014208435 0.0052198633 0.06578057 -0.0033545948
000290 d5 fa a6 ba de 45 b1 3c 59 a5 83 bc 6a bc 28 bd
       -0.0012739549 0.02163976 -0.016070055 -0.04119531
0002a0 86 00 ae 3c 75 11 41 ba e1 ce 9e bd a1 ae 19 3c
       0.021240484 -0.0007364967 -0.07754303 0.009380014
0002b0 b9 5b 02 3c 1d 74 bc bb 9c 51 d2 bd 1a 09 86 3c
       0.007956439 -0.0057511465 -0.10269472 0.016361762
0002c0 73 18 8b 3c 6d 0a ea bb 03 1b 04 be 09 5a 96 3c
       0.016979432 -0.007142356 -0.12900929 0.018353479
0002d0 56 24 15 bd 93 cf 09 3d 3e 6f f2 bd c5 32 7c 3c
       -0.036411606 0.033645224 -0.11837624 0.015392964
0002e0 ec ce 13 bd 47 36 f0 bb 06 c6 fc bd 1d 0e cc 3b
       -0.036086008 -0.007330689 -0.123424575 0.0062272684
0002f0 b3 86 c3 bc 3d 69 6d bc ce a2 b4 bd fb a3 81 3c
       -0.02386794 -0.014490423 -0.08820115 0.015825262
000300 bb 4d d5 3e 17 c4 2c bc 79 0b 6d 3e 87 23 f1 3b
       0.41660866 -0.010544798 0.23148908 0.0073589715
000310 02 b5 68 3c 42 13 06 3d 3d 11 41 bd b3 17 32 bc
       0.014203312 0.03273321 -0.04713558 -0.010869908
000320 48 74 99 3c 18 78 6e 3c b0 39 17 be d3 d1 26 bc
       0.018732205 0.014555 -0.147681 -0.010181862
000330 d6 7d 9a 3d e1 66 a9 3b 6f f0 8b be c4 86 03 bc
       0.075435326 0.005169735 -0.27331874 -0.008027736
000340 5a a7 79 bc 6d da d7 bc 01 49 7a bd 89 d1 9b 3b
       -0.015237654 -0.02634927 -0.06110478 0.004755203
000350 19 22 45 bc 88 5b bc bc f1 ce 81 bd 98 aa 14 bc
       -0.012032055 -0.022992864 -0.06338299 -0.009073876
000360 d9 44 29 3c 9b 85 6b 3a cc d0 0e 3e a5 52 2d bc
       0.010331356 0.00089844473 0.13946837 -0.010578786
000370 64 31 e6 3d 11 f7 83 bd 9a 4f b8 bd 64 d1 b2 bc
       0.11239889 -0.064436086 -0.08999558 -0.02182836
000380 ec 2d 6a 3c 7b e7 ba bc 7c e7 d4 bd e5 ab 00 3d
       0.014293175 -0.022815457 -0.10395715 0.03141393
000390 62 cf 85 bd 67 71 e7 3b ac d1 1f 3d 8f 79 e9 3a
       -0.06533696 0.007063079 0.039018318 0.0017812717
0003a0 d0 bb 83 3c c2 f3 9f ba 83 e8 00 be f7 89 38 bb
       0.016080767 -0.0012203383 -0.12588696 -0.0028158405
0003b0 eb 20 2f bc aa b5 94 bc 7d d9 36 3d d8 52 8b 3c
       -0.010689001 -0.01815303 0.044641007 0.017007276
0003c0 ba 32 20 3d de 76 d5 3c 36 ae 5a 3d b2 79 97 bc
       0.039110877 0.026057657 0.053388797 -0.018490646
0003d0 6d 89 f5 bc c7 0e 64 39 24 8e 6a bc 2b ed b6 3c
       -0.029972756 0.0002174928 -0.0143161155 0.022329887
0003e0 5c b8 d3 bb 9a 8c 32 3d 12 f1 71 bd 81 6e ab bc
       -0.0064611863 0.04359112 -0.059067793 -0.020926716
0003f0 96 ab 5c 3d 40 eb 22 bd 85 48 5b be f8 f9 bb bb
       0.053874575 -0.039775133 -0.21414383 -0.0057365857

spatial.conv1.weight f4 [1, 2, 7, 7]
000000 0e ad 52 be 11 68 3d be 07 b4 30 be 45 74 1f be
       -0.20573828 -0.1849673 -0.17256175 -0.15571697
000010 87 7e fc bd 75 01 c8 bd 39 ac bc bd 25 78 3a be
       -0.12328821 -0.09765903 -0.09212536 -0.18209894
000020 62 fd 55 be 15 f4 39 be df 83 0a be 2e d4 06 be
       -0.20897439 -0.18159516 -0.13526867 -0.13166878
000030 c4 c6 a9 bd 2a 25 c3 bd 62 3b 56 be 56 20 2e be
       -0.08289865 -0.09528573 -0.2092109 -0.17004523
000040 b1 6a 49 be f2 70 0a be 8f c5 16 be 87 80 b7 bd
       -0.19669606 -0.13519648 -0.147238 -0.089600615
000050 f7 18 a4 bd 27 ce 63 be 53 8a 06 be 70 46 24 be
       -0.08012574 -0.2224661 -0.13138704 -0.16042495
000060 0a 97 0a be 3e 0c 9f bd 97 41 a0 bd 0d b3 a8 bd
       -0.1353418 -0.07766007 -0.0782501 -0.08237276
000070 78 58 35 be e7 4c 0f be 85 63 7a bd 22 5e c4 bd
       -0.1770953 -0.1399418 -0.061130065 -0.09588267
000080 72 65 76 bd e5 48 b0 bd 00 34 8b bd a4 5b 09 be
       -0.06015534 -0.086076535 -0.067970276 -0.13413864
000090 e7 b1 2d be 6c e8 10 be 8d ea 20 be 2f b3 01 be
       -0.16962396 -0.14151162 -0.15714474 -0.1266601
0000a0 f5 5f f0 bd 3a f3 03 be 87 cb 38 be 7a 91 13 be
       -0.11737052 -0.12885752 -0.1804639 -0.14410964
0000b0 f7 0c 1f be e6 6a ec bd 6c ab f9 bd b9 81 6f bd
       -0.1553229 -0.11543827 -0.12190899 -0.058473323
0000c0 4d be de bd fa 93 57 bd d8 58 8d 37 5b cc 11 3d
       -0.10876141 -0.052631356 1.6849881e-05 0.03559528
0000d0 da 78 3d 3c f3 9b d9 bc d8 a5 d5 bd 11 ce d1 bd
       0.011564458 -0.02656362 -0.10432023 -0.10244382
0000e0 b9 63 79 bc 48 61 cd 3d 07 4f d3 3d fb df 4c 3c
       -0.01522153 0.100283206 0.10317808 0.012504573
0000f0 e9 07 13 3d 6e a2 b2 bc ba eb b8 3c 56 de 5c 3d
       0.035896216 -0.021805968 0.02257334 0.053922974
000100 6e 8a 7a 3d b8 8e d7 3d cf a8 a0 3d 9d a0 52 3d
       0.061167173 0.10525268 0.07844698 0.051422704
000110 76 cc 5f 3c b7 d9 7b 3c f6 80 42 3d 45 de 9e 3d
       0.013659587 0.0153717315 0.047486268 0.07757238
000120 c7 38 b5 3d 40 8a 63 3d 1a 2b 60 3c cd 68 27 3b
       0.0884872 0.055551767 0.013682151 0.0025544644
000130 fe 4a f3 3c bc 09 1a 3c 39 c1 b1 3d 01 a5 d2 3d
       0.029698845 0.009401735 0.086794324 0.10285378
000140 d9 7f fc 3c cd 37 b9 39 22 8d 4c bd ed 18 5a 3c
       0.030822681 0.00035327525 -0.049939282 0.013311607
000150 11 ec 0b 3c 27 1d a5 3d e8 b8 74 3d d9 42 46 bc
       0.008540169 0.08062201 0.059746653 -0.012100899
000160 2c b6 ee bc 85 8b 57 bd 1f bc 4e bd 08 54 f3 bc
       -0.0291396 -0.05262329 -0.050472375 -0.029703155
000170 34 c9 02 3d cc d0 91 3d 1b f4 8c 3c 1a fc 72 bc
       0.031930164 0.07119903 0.017206242 -0.0148306135
000180 59 22 7c bd e9 21 27 bd
       -0.061556194 -0.040803824

head.conv.weight f4 [64, 3, 3, 3]
000000 4a a1 8d bc ce bf a1 bd b2 2f 28 bd 5d e2 9f bd
       -0.017288823 -0.07897912 -0.04106111 -0.07806847
000010 b0 9b ae bd b1 68 ff bc c5 25 b9 bc 6b 39 76 3c
       -0.08525789 -0.03117785 -0.022601018 0.015028338
000020 eb f2 9c bb 21 38 04 3d d4 89 1a 3d 34 b5 41 3c
       -0.0047897003 0.03228009 0.0377291 0.011822987
000030 1d 75 bd 3a c7 73 14 bc d1 b2 83 3c 16 ee 61 bd
       0.0014454458 -0.009060807 0.016076477 -0.055158697
000040 43 1a f1 3c 26 ee f3 3a 9e ec c7 3b e4 cd 5a 3c
       0.029431468 0.0018610402 0.006101205 0.013354752
000050 8b c8 7a bc 57 ba 3b 3b 65 51 f7 bc 60 9a 5e 3d
       -0.015306602 0.0028645003 -0.03019018 0.054346442
000060 c1 2d a3 3c 87 54 91 3c 5c 47 8f 3c 4c 1e 17 3d
       0.019919278 0.017740501 0.017490081 0.036894128
000070 40 e9 c2 3c 78 a2 29 3d ce b6 d5 3c 87 6a 1d 3c
       0.023792863 0.041414708 0.026088145 0.009607918
000080 27 c0 03 bc fa 96 dd 3c 31 08 4d bc b9 0f 2c bd
       -0.008041418 0.02704953 -0.01251416 -0.04200718
000090 5c af 9e 3b a5 c9 c2 bc 32 99 bb 3c a3 c4 8a bd
       0.004842682 -0.023777792 0.022900198 -0.06775787
0000a0 3c a9 d8 bc 4b ea f5 3c b5 cb 0a bd 4b e9 a6 3c
       -0.026447885 0.030018946 -0.033885676 0.020374915
0000b0 cf a6 30 3d 72 d6 3d bd 9d 3e 1a bd 05 f1 03 bd
       0.04312783 -0.04634709 -0.03765737 -0.032212276
0000c0 9d 09 08 bc 88 05 57 3c 34 6e c7 3c be bb dd bc
       -0.008303073 0.013123877 0.024344541 -0.027067062
0000d0 e8 ac 35 3d df 89 33 3d fa 00 0b bb 2e b2 df 3c
       0.04435435 0.043832656 -0.00212103 0.027306642
0000e0 3e 81 1e 3c 1d 74 8a 3a 76 f6 2f 3c 72 05 95 3d
       0.009674368 0.0010563169 0.010739913 0.07276429
0000f0 5d 75 fa 3b dc f0 3d bc a2 6c 03 3d 8e cf e3 3c
       0.0076433853 -0.01159307 0.032086022 0.02780893
000100 33 77 3a 3c 6d 99 8a bd b2 0c a7 3c 2b 24 43 3c
       0.011380958 -0.06767545 0.020391796 0.011910479
000110 9a 0e 93 bc 23 bb 1e 3a 6b 10 35 bc e9 aa 6d 3b
       -0.017951299 0.0006055107 -0.011051278 0.00362652
000120 04 9a 88 bb 7b 2e 09 3c 43 55 8b bd c3 a6 38 3c
       -0.0041687507 0.008372898 -0.06803372 0.011270228
000130 de cc 94 3c a2 9c cd bd 2d 22 ec 3c 02 cf 87 3c
       0.018164095 -0.10039641 0.02882489 0.016578201
000140 3a 2f 20 bd be a2 2d 3d 70 ac c4 3c c0 5a 10 3c
       -0.03910754 0.04239153 0.024008006 0.008810699
000150 ed 77 02 bc 72 87 bd 3c cf 70 e0 3c 04 35 21 3d
       -0.007963163 0.023135874 0.027397541 0.0393572
000160 85 59 97 3c 20 82 f9 3b 10 5f 38 3d 24 32 7a bb
       0.018475303 0.007614389 0.045012534 -0.0038176859
000170 7a b4 95 b9 fc 7e 85 3d 10 0a 91 bb d9 b8 3a 3d
       -0.0002855396 0.06518361 -0.0044262484 0.04558644
000180 6f df 87 3c ad c0 e9 3c 37 24 c6 3c eb ec c0 3c
       0.016586034 0.028534258 0.02418719 0.023550471
000190 1d a2 eb 3a 88 dc 3b 3c 5b e0 84 3d 0b c7 39 3c
       0.0017977391 0.011466153 0.06488105 0.011338959
0001a0 be c1 0d 3c 10 a0 72 3c 05 28 a1 bc 72 25 a7 bc
       0.008652149 0.01480867 -0.019672403 -0.020403598
0001b0 3c ff 95 3c 25 74 10 3d 27 c1 a2 3c 3a 96 1d 3d
       0.018310182 0.035267014 0.019867493 0.038473345
0001c0 ca 01 5e 3d 6e e0 07 bd ce a4 3a 3d 66 a4 92 3b
       0.054200925 -0.033173017 0.045567326 0.004475164
0001d0 de 2c 67 bc f3 2a bd 3c e4 f5 88 bc 36 6f 95 3c
       -0.014109818 0.023091769 -0.016718812 0.018241506
0001e0 59 ac 0b 3d 7f 0f b1 3b 10 0c 4e 3c 86 43 7d 3b
       0.03409991 0.0054034586 0.012576118 0.0038644983
0001f0 08 22 1c bd 0b 13 f0 bc 6c 9a f5 bb c1 e9 06 bc
       -0.038118392 -0.029305955 -0.007495215 -0.008234442
000200 fe 11 bd 3c 98 fc 8e 3c 3e f1 95 bc 6a 97 6a 3d
       0.023079868 0.01745443 -0.01830351 0.057273306
000210 80 59 f3 bb 73 f1 80 3c 5e 72 27 3d aa 50 f3 bc
       -0.0074264407 0.015740132 0.040880553 -0.02970155
000220 63 5d 4f 3c 23 d9 94 3b 1b 70 3b 3b 3a b9 5c 3a
       0.0126565425 0.0045424863 0.0028600756 0.0008419935
000230 db e4 78 3c db 9b 9b 3c ec 99 2f 3d ed 9b 3e 3c
       0.015191282 0.018995216 0.0428714 0.011633855
000240 fa bf f9 bb c1 f6 31 3d 1d 6c cc 3c 28 7f 2d 3d
       -0.0076217623 0.043448213 0.024953896 0.042357594
000250 b2 b1 4e bc a3 9e d0 3c a3 a9 c9 bc d1 31 0c bc
       -0.012615608 0.025466269 -0.024617022 -0.008556799
000260 2e b5 ba 3a 15 0f 6e 3c 08 52 ca bc 37 c9 62 3b
       0.001424467 0.014529963 -0.024697319 0.0034604797
000270 db 00 4f 3d c5 bb 74 bd 1e fa 8b bd 98 e3 c0 3c
       0.050537925 -0.059749383 -0.068348154 0.023546025
000280 f0 93 e3 bc 6b b9 21 bd b2 83 56 bd 59 76 56 bb
       -0.027780503 -0.03948347 -0.05237169 -0.003272435
000290 73 e5 e8 3c 3e 7c 0f bc eb 36 03 3d e8 d0 3d 3c
       0.028429722 -0.008757649 0.032034796 0.011585452
0002a0 a4 95 49 3d cb 87 14 bd dc ff 30 3b 95 d8 a9 3c
       0.049214974 -0.036262315 0.0027007973 0.020733157
0002b0 20 64 30 3c c7 e5 de 3c fb 14 3c 3d bb ca 16 bb
       0.010766059 0.027209176 0.045918446 -0.002300902
0002c0 4d 56 b8 3c 10 0a c1 bc 67 45 4f bd 23 60 32 bd
       0.022502089 -0.023564368 -0.050603297 -0.043548714
0002d0 bc a3 19 bd 70 81 86 3c c3 11 34 bd c8 66 8a bd
       -0.037509665 0.016419142 -0.04396225 -0.06757885
0002e0 3a 77 86 3d 1e 09 1f 3d 73 4c 0a bd 50 d8 09 3c
       0.065657094 0.038827054 -0.033764314 0.008413389
0002f0 6f 74 ef 3c 72 f7 2c 3d 0d a3 bc 3d 71 80 74 3d
       0.029230325 0.04222817 0.09210787 0.059692804
000300 73 cb 34 bd 66 e6 92 bb 02 0e 80 3d 6b 03 01 bd
       -0.044139337 -0.004483032 0.06252672 -0.0314974
000310 e9 e6 89 bb ca a1 d6 3c 08 fd 08 bd 92 84 02 bd
       -0.004208435 0.026200194 -0.033444434 -0.03186471
000320 4d 9d 98 bc a9 89 18 bd 10 43 06 3a c5 47 a3 3c
       -0.018629694 -0.037240658 0.00051216874 0.019931683
000330 18 42 e5 3c b5 a7 68 3d 90 a4 3b 3d 97 67 ae bb
       0.027985618 0.056800563 0.045811236 -0.0053224075
000340 c1 3d a7 3c c8 8b 5c bb 96 0d 42 bd 4e 7b f6 bc
       0.020415189 -0.0033652652 -0.047376238 -0.030088093
000350 3d 64 d6 3c 51 97 46 3c c6 69 b0 bb 68 2e 62 bc
       0.026170844 0.012121038 -0.005383703 -0.013805009
000360 67 d8 12 3d b4 a6 f6 3c e2 86 c5 bc ac 21 9f 3c
       0.03585091 0.030108787 -0.024112169 0.019425236
000370 dd ff 55 3c 7b 9e e3 bb 52 8e a1 bc 48 be 38 bd
       0.013061491 -0.0069463826 -0.019721184 -0.04510334
000380 49 7a 51 bc 4f ee 97 bc 3c 9f ae bc 8e b8 25 3d
       -0.012785503 -0.018546252 -0.021316163 0.04045921
000390 0e cc a0 bd 55 8d b2 bb d1 c2 36 3b c0 cb 2b 3b
       -0.0785142 -0.005448977 0.0027887116 0.0026213974
0003a0 68 05 6c bd 8f ba ed 3c d7 ff 3d 3d 41 08 3e 3c
       -0.057622343 0.029019622 0.046386566 0.011598648
0003b0 d0 40 81 bc de c5 2e 3c 41 b6 2f 3c 55 35 22 bd
       -0.015777975 0.010667292 0.010724605 -0.039601643
0003c0 99 e1 17 3d be 5b 6c 3d 6c e7 aa 3c 64 77 1c 3d
       0.03708038 0.05770468 0.020862304 0.038199797
0003d0 cb 69 d9 bc a6 f5 18 bd 09 ea 80 bc e4 16 78 bd
       -0.026539704 -0.037343644 -0.015736597 -0.060568705
0003e0 5b 5a 75 bd 0d 8c 82 3c fc e7 bb bb 07 e3 37 3d
       -0.059900623 0.015935922 -0.005734442 0.044894245
0003f0 b5 b7 af 3d 0c 7e c8 3b 6a 36 f0 bc 3d 7d 57 3c
       0.08579961 0.0061185416 -0.029322822 0.013152418

head.conv.bias f4 [64]
000000 76 0c 33 3d 31 9a 3b 3e b8 52 dc bc 9e cb cf 3d
       0.043713056 0.18320538 -0.026894912 0.10146259
000010 89 cc 32 be 61 d1 24 be f0 9b 20 3e 2b b0 0b be
       -0.17460836 -0.16095497 0.15684485 -0.13641421
000020 99 dd e0 bd 71 ba 3d bc 0f 12 62 ba 75 e2 df bb
       -0.109797664 -0.011580096 -0.0008623907 -0.0068324157
000030 30 d4 48 3d 35 d1 ba 3d 3f 04 be 3d 94 b0 38 bd
       0.049030483 0.09121934 0.09278154 -0.045090273
000040 2e e4 c6 3d bd 8b dc 3d 5b d7 78 bd 94 14 1a 3e
       0.097114906 0.107688405 -0.060752254 0.15046912
000050 14 7f 53 bc a0 56 a3 bc ca 6e b7 3c d2 a1 19 bd
       -0.012908716 -0.019938767 0.022391696 -0.03750784
000060 d6 06 fd bd cb 6b 11 3d 0e ab 3e be 88 5f 2d be
       -0.123548195 0.03550319 -0.1861994 -0.16930974
000070 50 d3 ce 3d ab 17 8e bd 6c 9c 63 3c 6c a2 35 be
       0.100988984 -0.06938108 0.013892274 -0.1773774
000080 59 d0 96 3d 8e aa 84 bd 0b 4a 20 be 75 fb 1b 3d
       0.07363958 -0.06477843 -0.15653245 0.038081605
000090 c6 bf fe 3d 95 1e a2 bc 09 09 2e 3e 1c 0b 0b 3e
       0.12438922 -0.019789973 0.16995634 0.13578457
0000a0 68 a7 2c be d8 0f 93 3d fd 68 6a be 92 ce 75 bd
       -0.16860735 0.07180756 -0.22891612 -0.060011454
0000b0 cb 57 d9 bd d3 af 15 3e a8 af 52 be 3f 2c 1f be
       -0.10612448 0.14617853 -0.2057482 -0.15544222
0000c0 b1 c8 25 3e c5 78 b8 bd 96 63 8d bd 16 3f 65 3d
       0.16189839 -0.0900741 -0.0690376 0.055968367
0000d0 c2 89 83 bd 86 bf e2 3a c5 0b f9 3d 70 0e 0e be
       -0.064227596 0.001729951 0.12160448 -0.13872695
0000e0 80 0c 1c be af e5 51 3e 93 e6 09 3e 9f 44 4e 3e
       -0.15239143 0.20497774 0.13466863 0.20143364
0000f0 7e da a9 bd 61 19 df 3d 4a 24 b6 bd af 67 c5 3d
       -0.08293627 0.108935125 -0.0889364 0.09638917

head.norm.weight f4 [64]
000000 88 da 89 3f 68 1c 73 3f 69 6a 86 3f 9c a1 68 3f
       1.0769815 0.9496522 1.0501224 0.90871596
000010 38 fa 69 3f 28 ca 7e 3f 7e f6 89 3f f3 06 5b 3f
       0.9139743 0.99527216 1.0778348 0.8555748
000020 2b 7f 77 3f b7 f5 88 3f 3e f3 73 3f 69 a0 86 3f
       0.9667842 1.0699986 0.95293033 1.0517703
000030 bc c6 82 3f f1 17 a3 3f 82 9b 5a 3f 34 6b 86 3f
       1.0216899 1.2741681 0.85393536 1.0501466
000040 33 ea 83 3f c0 08 84 3f b9 39 76 3f e8 4c 8b 3f
       1.0305847 1.031517 0.9618183 1.0882845
000050 65 30 8a 3f 03 24 83 3f a4 aa 89 3f 1d 93 71 3f
       1.0796019 1.0245365 1.07552 0.943651
000060 cb c8 82 3f 23 95 80 3f 62 4c 83 3f 0d 99 7d 3f
       1.0217527 1.0045513 1.0257685 0.9906166
000070 be 1b 56 3f 87 67 66 3f 55 f9 6a 3f 8b d1 83 3f
       0.8363608 0.9000172 0.917867 1.0298322
000080 9f 6f 83 3f 88 bf 83 3f 6d e6 83 3f 51 bf 68 3f
       1.0268439 1.0292826 1.0304695 0.90916926
000090 90 05 8c 3f 45 36 84 3f 44 69 90 3f 53 f4 71 3f
       1.0939198 1.0329062 1.1282125 0.94513434
0000a0 e1 e7 7d 3f d2 42 87 3f 37 52 92 3f ad a2 5e 3f
       0.99181944 1.0567267 1.143134 0.86966974
0000b0 04 43 57 3f 6d d8 69 3f 3a f3 84 3f 22 2d 5d 3f
       0.8408663 0.91345865 1.0386727 0.8639699
0000c0 c1 a1 61 3f dd 1e 80 3f 6a 99 79 3f 08 d0 82 3f
       0.8813744 1.0009419 0.97499716 1.0219736
0000d0 44 9c 78 3f af 2b 85 3f 73 b1 66 3f 6e c6 87 3f
       0.9711344 1.0403956 0.90114516 1.0607431
0000e0 1d 19 78 3f 73 c5 89 3f 3d 60 5f 3f fe 97 83 3f
       0.9691332 1.0763382 0.8725622 1.0280759
0000f0 cd 70 8b 3f d2 e3 7d 3f 1e 6d 87 3f 0d 35 81 3f
       1.0893799 0.9917575 1.0580175 1.0094315

head.norm.bias f4 [64]
000000 0a 82 41 bd b6 d9 26 3b 55 f5 7a bd 9c 8d 34 be
       -0.047243156 0.0025459356 -0.061269123 -0.17632145
000010 d7 21 b2 bd 6c 0f 9c bd a0 2e 06 be e6 be 02 be
       -0.08697861 -0.07620129 -0.13103724 -0.12768134
000020 4b 25 15 be 13 ca 85 bd 5a 23 08 be fd 10 76 bd
       -0.14565007 -0.06532683 -0.13294736 -0.060074795
000030 8d 6d 31 bd d9 68 24 3d 2b f4 6e be 1c 70 df bc
       -0.043317366 0.040139053 -0.2333533 -0.027275138
000040 da 55 17 bd d6 67 d0 bd 07 1e fe bd 65 64 14 3c
       -0.03694711 -0.10176055 -0.12408071 0.009057139
000050 d5 0f ca bd fa a6 9a bd 6c ee 86 bd 67 63 bf bd
       -0.09866301 -0.075513795 -0.06588444 -0.09345131
000060 27 5a d7 bd 94 0e 3d bd 75 95 fc bd d0 12 b3 bd
       -0.10515242 -0.04615648 -0.12333194 -0.087438226
000070 6c ac 60 be e0 40 d6 bd d9 5e f0 bd c0 97 ba bd
       -0.21940774 -0.10461593 -0.11736841 -0.09110975
000080 82 4e f4 bd 79 8c 1f be 00 8a 01 bd 9b 4d 45 be
       -0.11929037 -0.1558093 -0.031625748 -0.19267885
000090 37 28 78 3d 84 35 e8 bd c1 93 01 be a9 de 7b be
       0.060585227 -0.11338332 -0.1265402 -0.24596657
0000a0 d2 6a 31 bc 37 dd 9b bd 33 a4 01 bb 35 ca c0 bd
       -0.010828691 -0.07610553 -0.0019781708 -0.09413568
0000b0 b8 dd 4a be c6 af d9 bd 25 55 00 be 32 56 6f be
       -0.19811141 -0.10629229 -0.1253248 -0.23372725
0000c0 2f 8a 38 be 90 4c 9d 3c 4d a5 04 be a7 2f fe bd
       -0.18021463 0.019201547 -0.12953682 -0.12411433
0000d0 f7 5e 77 bd 98 54 f1 bd 53 f5 1b be db 5f 02 3e
       -0.0603933 -0.11783713 -0.15230303 0.12731878
0000e0 75 b0 75 bd 34 8c b4 bd bf f8 79 be 7f c7 86 3c
       -0.059982736 -0.08815804 -0.24411295 0.016452549
0000f0 24 28 0f be 8b 77 b5 bd 9b 1e 4c bd ac 65 3f be
       -0.13980156 -0.08860692 -0.049833875 -0.18691128

head.norm.running_mean f4 [64]
000000 9d e9 5a 3e 35 18 0f 3e 1e 9d 34 bd 4f 6c 78 be
       0.21378179 0.13974078 -0.04409515 -0.24260066
000010 ee a5 c6 be 72 c0 47 be bc c9 17 3e 7a 97 8f be
       -0.3879847 -0.19507006 0.1482305 -0.28045255
000020 20 d4 fe bd ce 90 b1 3d 03 89 14 bd 81 4e b3 3c
       -0.124428034 0.086701974 -0.036263477 0.02188802
000030 6d ac 3b 3e 27 db 0c 3e cf 41 bc be d2 99 5b bd
       0.18327494 0.13755475 -0.36768958 -0.05361349
000040 20 26 dd 3e 69 22 2c 3e ce 02 81 3d 04 82 25 3e
       0.4319315 0.16810001 0.06299363 0.16162878
000050 1d 44 73 3e 53 94 a7 ba cf 96 3c 3e 30 ef c4 bd
       0.23756452 -0.0012785293 0.18416904 -0.09615934
000060 b1 15 0c 3e 96 76 c4 3d 30 39 cd bd 51 22 16 3d
       0.1368015 0.09592931 -0.10020673 0.03665382
000070 5c 36 3c be 36 93 79 bd 7b 81 11 be ad 6b 3d be
       -0.18380111 -0.060931407 -0.14209549 -0.18498106
000080 cb 8f b6 3d c8 08 a8 3d c8 c4 86 bc 49 c8 80 bb
       0.08914145 0.082048 -0.016451254 -0.003930126
000090 d7 ab e8 3d 4c 34 03 3e 86 cb 7b 3e e9 ce 2e 3e
       0.11360901 0.12812918 0.24589357 0.17071117
0000a0 24 bc f8 bd 27 09 69 3e 20 e9 77 be 4a d6 4b be
       -0.1214526 0.22757398 -0.24210024 -0.19905964
0000b0 d9 5d 76 be 6f 5e 8d 3d 0c 65 76 be 8b 22 da be
       -0.24059238 0.069027774 -0.24061984 -0.4260448
0000c0 45 f7 07 be 96 3a 9b 3d 1d c5 d3 bd 9f ac e8 3b
       -0.1327792 0.07579534 -0.10340331 0.007100656
0000d0 e1 14 24 bd b4 49 d5 3c 2e 6a a3 3c 32 9b d3 bd
       -0.040058974 0.026036121 0.019948091 -0.103323355
0000e0 05 1f 24 be 1e 07 ab 3e 24 3a 58 3d d8 da bd 3e
       -0.16027458 0.33403867 0.052789822 0.37081027
0000f0 4c 02 d1 bd 4e 8c 96 3d 52 06 d0 bd 4b 01 af 3d
       -0.10205516 0.0735098 -0.101574555 0.085451685

head.norm.running_var f4 [64]
000000 cc 4f 88 3b 08 1d a8 3a 24 f6 1b 3b 49 fb 1f 3d
       0.004159903 0.0012826035 0.0023797834 0.039058004
000010 75 15 41 3c 36 e6 47 3a b4 d9 1d 3a 33 37 80 3b
       0.011784901 0.00076255517 0.0006021515 0.0039128303
000020 78 26 23 3a 55 a6 33 3b b9 26 c5 3a fd 7b 5b 3a
       0.0006223689 0.0027412374 0.0015041447 0.00083726627
000030 8e 02 18 3c 10 21 0a 3a 64 57 77 3d 1e cc bd 3a
       0.009277953 0.0005269209 0.060386077 0.0014480387
000040 9f bf 05 3d f9 a4 cd 3a 60 89 37 3c bb 4a 75 3a
       0.032653447 0.0015689424 0.011202186 0.0009357144
000050 d4 eb 07 3c d7 37 dc 3a fb dc 9a 3b 31 1a 86 3a
       0.008295972 0.001680131 0.00472605 0.0010231194
000060 50 35 6c 3c 8e 2b 3c 3b f6 3c f0 3a 02 c1 a7 3c
       0.014417008 0.0028712484 0.0018328715 0.020477775
000070 15 8b ae 3c 41 ae 25 3a 2a 39 c4 3b 17 78 f4 3a
       0.021306554 0.00063202163 0.00598826 0.0018651512
000080 e2 a5 b1 3a 66 ac bb 3b 70 31 c2 3b 2b 47 54 3a
       0.0013553465 0.0057273386 0.0059263036 0.0008097763
000090 08 e9 07 3a a5 fd a2 3b b3 50 c2 3a 99 64 26 3a
       0.00051845657 0.0049740844 0.0014825076 0.00063473877
0000a0 6c 64 9e 3b 2d 8b 93 3b 72 ee b8 39 f0 d3 29 3b
       0.0048337486 0.004502675 0.0003527287 0.0025913678
0000b0 c8 58 64 3b f9 c3 9f 3b 73 14 2b 3a 06 e7 b2 3c
       0.0034842957 0.0048756567 0.00065261795 0.021838676
0000c0 c8 fe f7 3c f6 dd e8 3b 71 96 1f 3a d4 37 88 3b
       0.030272856 0.007106538 0.0006087786 0.004157046
0000d0 79 7f 19 3b 63 72 96 3a 6e 11 30 3b e4 28 13 3a
       0.0023421927 0.0011478182 0.0026865858 0.0005613698
0000e0 dc 0a 48 3b 1d 99 39 3b 4d 6c c4 3a 1c b9 d4 3b
       0.003052405 0.0028320022 0.001498589 0.0064917933
0000f0 24 7a d0 39 a4 c1 05 3b ee 06 4e 3a 24 77 89 3a
       0.00039763853 0.0020409608 0.0007859309 0.0010487777

body.block1.conv.weight f4 [64, 64, 3, 3]
000000 8d b3 fc 3c be ee 20 3d 1a 86 0e 3c c5 84 84 3c
       0.030847335 0.039290182 0.0086989645 0.01617659
000010 a5 41 a4 bc e8 ae e1 bc 0f 26 8a bc 42 d0 67 bc
       -0.020050833 -0.027549222 -0.01686385 -0.014148774
000020 43 2f 7c bb 0f b4 db 3c 38 4b 4f 3d b0 78 69 3d
       -0.0038480319 0.026819257 0.050608844 0.056999862
000030 e1 5c 9c 3b 34 a3 89 3d 70 c3 8e 3d cd e7 48 bc
       0.004771814 0.06720582 0.069708705 -0.012262297
000040 67 c9 81 bc 5c 68 3d 3c f0 f3 5a bd d5 ae 70 bc
       -0.015843106 0.011560526 -0.053455293 -0.014690121
000050 e0 b3 a1 bd 3e c5 92 3c 6e 4e d4 bc 5e 1e c5 bc
       -0.078956366 0.017916318 -0.025916304 -0.024062332
000060 33 53 41 39 e3 16 68 bc 9f 9f 89 bc 73 9e 2c 3c
       0.00018436908 -0.014165613 -0.016799746 0.010535824
000070 66 49 43 bc c3 51 37 bb 0d 39 56 3c 01 18 38 3c
       -0.011919355 -0.0027972318 0.013075125 0.011236192
000080 fd fa c1 3c 87 09 54 3c 06 7e 9e bc 99 76 4b 3c
       0.02367925 0.012941725 -0.019347202 0.012418413
000090 f7 74 48 bc a0 77 85 3b 32 9e ec bc 7d ee cd bb
       -0.012234918 0.0040730983 -0.028884027 -0.0062845335
0000a0 bd d2 ac bb cf 71 a7 3b a4 9e a9 bc eb b7 e8 bb
       -0.0052741454 0.0051100026 -0.020705529 -0.007102003
0000b0 7a 2f cc 3a 76 e3 bc 3c bc ba 46 3d 9f 59 6b 3c
       0.0015578114 0.02305768 0.048517928 0.014364629
0000c0 03 f2 15 bd e9 9b 34 bc 83 67 5a bc e4 c2 fe bc
       -0.036607753 -0.0110235 -0.013330343 -0.03109879
0000d0 80 2e 04 ba 0f 8d 0b bd 21 ab 5b bc 19 15 44 3c
       -0.00050423294 -0.03407007 -0.0134074995 0.011967921
0000e0 8a d2 7a bb 7e c6 18 3c f8 60 3b 3c c8 27 1f 3c
       -0.0038272464 0.009324668 0.011436693 0.009714074
0000f0 dc 89 7d bd 24 f6 23 bb 0b f0 ae ba fd b3 09 3d
       -0.06189905 -0.0025018537 -0.0013346685 0.033618916
000100 fc 8f ed bc 9d 3b 7a bb c4 50 ce 3a 4b 56 95 bc
       -0.028999321 -0.0038182505 0.0015740623 -0.018229624
000110 06 b0 03 bb 6e cf bd ba cb bf a4 bc 68 41 ae bb
       -0.0020093932 -0.0014481375 -0.020110985 -0.0053178556
000120 a2 b3 af bc 38 a2 43 bd c9 1c 94 bd b1 0a 8d bc
       -0.02144796 -0.047762126 -0.07232053 -0.017217012
000130 39 f2 3b bb e7 5c 8f 3c e9 fc 52 3d d4 c9 45 3d
       -0.0028678312 0.017500354 0.051510725 0.04828818
000140 68 ed 5c 3d 23 7e 0c 3d a7 b0 70 3d 6b 99 0c bc
       0.053937346 0.03429998 0.05876222 -0.0085815
000150 5a 34 97 3b f9 60 02 bd c1 a0 20 bd ca 10 ed bb
       0.004614395 -0.03183076 -0.039215807 -0.0072346674
000160 04 cc 9a bc 5d 7f 8c 3c 4d 90 0a 3d da f4 9b 3c
       -0.01889611 0.017150575 0.033829022 0.019037653
000170 50 b6 c7 3b 16 9e e2 bb e4 70 06 3c 19 46 1d 3b
       0.0060947314 -0.006915818 0.008205626 0.002399808
000180 06 1d 40 bc e4 7d 61 bb bd a6 32 bc b0 cc af bd
       -0.01172567 -0.0034407312 -0.010904011 -0.08583963
000190 78 c4 2f bd 04 85 bf 3c ea 18 bb bd 47 33 b1 bc
       -0.042911977 0.023378856 -0.09135611 -0.021630896
0001a0 30 ac b4 bc 1f f2 0c 3d 2c 61 bb 3c c2 b0 2f 3d
       -0.022054762 0.034410592 0.022873484 0.04289318
0001b0 5e 05 33 bd 93 5e 3f bd cf 02 d2 bc 3b c4 78 bc
       -0.04370629 -0.046721052 -0.025636105 -0.015183504
0001c0 9e 7f f3 3c e8 7f 05 3d 5c ad 13 3c d1 7b 26 bb
       0.029723939 0.032592684 0.0090135 -0.002540339
0001d0 11 01 1a bd 93 5a a6 3c 41 5a cb 3c 7d b9 24 3c
       -0.037598673 0.020306861 0.02482331 0.0100539895
0001e0 89 2c 95 bc e7 0e 4e 3d c0 78 d6 3c c3 58 ab 3c
       -0.018209713 0.05030718 0.026180625 0.020916348
0001f0 55 0b 4b 3d 89 b8 67 3d 28 c4 e0 bc 94 0a 79 3c
       0.049571354 0.05657247 -0.027437285 0.015200276
000200 5a 96 8d ba 57 c4 22 bc 54 6f ba bc 46 d7 14 bd
       -0.0010802255 -0.009934506 -0.022758164 -0.036338113
000210 0f 62 5e bc 8b 2e b5 bc 5f 61 9d 3c ef 8b 43 3c
       -0.013573184 -0.02211692 0.01921147 0.011935218
000220 9b f3 c2 3c a4 1d db 3d 26 80 a9 3c d9 25 a5 bc
       0.0237978 0.10699013 0.020690989 -0.020159649
000230 fd a3 4c bd 79 16 82 3d 7c 8b 52 3c a9 79 9d bc
       -0.04996108 0.063519426 0.0128506385 -0.019223051
000240 26 cc 23 3c 60 dd 6b 3b a2 86 9e 3c fb 02 a1 3c
       0.009997403 0.0035990104 0.019351307 0.019654742
000250 cd 1a 41 3d 62 39 b8 3c ce cd 28 3d 20 67 e7 3c
       0.0471447 0.0224883 0.041211896 0.028247416
000260 c2 26 e4 bb 01 0c 0d bd ac ef 5e 3b 64 91 3a bd
       -0.006962628 -0.034435276 0.0034017367 -0.04554881
000270 11 e3 8b 3c 03 f3 60 bc 4e f2 bc bc 60 b9 df bc
       0.017076047 -0.0137298135 -0.023064759 -0.027310073
000280 78 11 ed bc 78 b8 4e 3a 69 18 8c bc 78 22 b7 3b
       -0.028938994 0.00078857644 -0.017101483 0.005588826
000290 68 86 d1 b8 07 84 c1 bc e4 e4 93 bb 2c e2 07 3d
       -9.990932e-05 -0.023622526 -0.00451337 0.03317468
0002a0 17 3c 68 3c 17 48 0e 3b 13 d7 02 3d 54 97 c8 bb
       0.014174483 0.002171045 0.031943392 -0.0061215553
0002b0 31 db 2b 3c ce 8e 2b 3d 67 fa fd bd ed 3f 54 bd
       0.010489271 0.041884236 -0.12401276 -0.051818777
0002c0 5b 79 c9 3c f2 de 19 3d c8 20 5c 3d e0 e7 33 ba
       0.024594 0.037566133 0.0537422 -0.000686286
0002d0 df de 8c bd 32 ae 35 bd 97 cc 79 bd 63 46 6f bd
       -0.06878447 -0.04435558 -0.060986128 -0.058416735
0002e0 eb 7d a3 bd ee 81 c2 bd e2 dc ad 3c 97 16 c9 bc
       -0.07983001 -0.09497438 0.02122349 -0.024546904
0002f0 a5 85 cd bc 7e 80 46 3c 53 2e 15 bc c6 2a 7d bc
       -0.02508814 0.012115596 -0.009105283 -0.0154520925
000300 61 4b 27 3d 5b 78 21 3d a3 d8 b4 3b cc e8 05 3d
       0.04084337 0.03942142 0.005518989 0.032692716
000310 a3 b7 07 3d a8 71 36 bc e9 00 91 3c 54 a8 e4 bb
       0.033134114 -0.011135496 0.01770063 -0.006978074
000320 2d 30 03 3d a1 0f 35 bd 86 68 8b bd 34 b2 45 bc
       0.032028366 -0.044204358 -0.06807046 -0.012066413
000330 b6 67 8f 3c bc 6e 0a bd 75 e2 2d 3c a8 f8 e9 bc
       0.017505508 -0.03379701 0.010613074 -0.028560951
000340 99 b8 1c bc bb 2d 07 bc ee 53 74 3c fc 13 86 3a
       -0.009565496 -0.008250649 0.0149125885 0.0010229344
000350 67 3e e1 3a 3e 0c c1 b9 88 2a 77 3d 7c 1c 06 3d
       0.0017184735 -0.0003682095 0.060343295 0.03274201
000360 86 f1 e6 3a 69 9b 7b 3d 8c 68 7c 3c 46 e1 64 bc
       0.0017619587 0.061427508 0.015405785 -0.013969725
000370 c5 6d fd 3c c4 89 a0 bb 24 ab 27 3c ad de 2a 3d
       0.030936131 -0.0048992354 0.010233674 0.041716266
000380 13 ce 1e 3c 2e 6a c6 bc 73 5a 7b 3b 38 96 eb bc
       0.009692687 -0.024220552 0.0038353472 -0.028758153
000390 8b be 67 3d df e6 8e bb 15 f3 75 3d 04 d4 1a bc
       0.0565782 -0.004361018 0.060046274 -0.0094499625
0003a0 1e 2c a4 bd f7 ee f0 bc c1 f6 83 3b 91 c3 ea 3c
       -0.08016227 -0.029410822 0.004027218 0.028657706
0003b0 47 f2 3a bc 3a e1 65 3d 64 2b 89 3c d6 c1 b9 bc
       -0.0114103025 0.056122996 0.016744323 -0.022675436
0003c0 9f 5d 52 3d 8f b4 c2 b9 20 e6 0e bc e1 5c 85 3c
       0.051358815 -0.0003713709 -0.008721858 0.01627964
0003d0 32 15 70 38 fc fc 65 bb f7 65 4e 3d 1e d2 6f 3c
       5.72402e-05 -0.0035093417 0.05039021 0.014637498
0003e0 5b 44 1a 3a 42 b9 22 3a 6f 75 04 bc 09 b6 1a 3d
       0.00058848195 0.0006207415 -0.008084639 0.03777126
0003f0 b2 3a 16 3b 34 df 91 bc 0c 16 cf 3c 2f d5 32 bc
       0.0022923169 -0.017806627 0.025279067 -0.010915085

body.block1.conv.bias f4 [64]
000000 42 00 95 bc aa 6d e3 3c 3b e1 a1 3c 5f 64 4f bc
       -0.0181886 0.027762253 0.019760719 -0.012658208
000010 57 1a 4f 3c 4d c0 1e 3b 87 50 60 bc 08 7f bd 3b
       0.012640557 0.0024223507 -0.013691074 0.0057829656
000020 31 a3 6e bc cc 4b 9c bc 28 43 0a bd 18 16 02 bc
       -0.014565275 -0.019079112 -0.03375545 -0.007939838
000030 9c ad d5 bc 16 17 fb 3c 1a a6 11 bd dd f6 f5 3b
       -0.02608376 0.030650657 -0.035558797 0.007506235
000040 44 ff 8b 3c a4 0e 63 3c 76 6b cc 3c 4c d5 03 bd
       0.017089494 0.013858471 0.024953585 -0.032185838
000050 07 c2 9f bb ac 61 4a 3c 2c ef 44 bc d8 5e 40 bd
       -0.004875425 0.012352388 -0.012019914 -0.04696545
000060 4a 2c 19 bd 73 7a e2 3b 0c 5b 9a 3c 91 29 96 3c
       -0.037395753 0.0069115697 0.018842243 0.018330367
000070 bd 6d 0a 3d 30 e4 09 bd 40 09 0f bd f7 6e 13 3d
       0.03379606 -0.033664882 -0.03492093 0.035994496
000080 81 2f 93 bc ad 63 cf 3c d9 fd 34 bc 56 f1 63 3c
       -0.017966988 0.025316084 -0.01104685 0.013912519
000090 89 6e 2b 3d d5 95 94 3b bc da 84 bc 4c e8 3c 3c
       0.04185346 0.004534463 -0.016217582 0.011529993
0000a0 be da 08 bd 8f c6 fe 3b 0b 25 89 bc 27 4f ed 3c
       -0.033411734 0.007775135 -0.016741296 0.028968407
0000b0 50 14 57 3c 45 b5 56 3c aa 63 39 bb e9 10 ef bb
       0.0131274015 0.013104741 -0.0028288164 -0.007295717
0000c0 e7 a1 02 3b 4d 4c eb bb e1 8e 84 3c 4b d5 18 3b
       0.0019932927 -0.0071807266 0.016181411 0.0023320492
0000d0 4f fd ae 3c 54 ed 08 3d cb 61 40 3d ec 83 34 3d
       0.021361021 0.03342946 0.046968263 0.044071123
0000e0 fb cb 1e 3d 1d 2e ca bb a5 eb 0f bd 83 84 ab 3c
       0.03876875 -0.006170048 -0.035136838 0.02093721
0000f0 d8 4c c0 bc 16 52 08 3d e8 81 af bb cc 1d 8c bc
       -0.023474142 0.03328141 -0.005356062 -0.017104052

body.block1.norm.weight f4 [64]
000000 4f 74 6f 3f e9 e9 75 3f 35 be 87 3f a0 bf 78 3f
       0.9353685 0.96060044 1.0604922 0.97167397
000010 52 de 7f 3f c0 30 7b 3f 79 b4 81 3f e8 43 88 3f
       0.9994861 0.9812126 1.0133201 1.0645723
000020 d9 ed 6c 3f 60 8e 7b 3f 8f e3 79 3f d3 96 7c 3f
       0.92550427 0.9826412 0.9761285 0.9866764
000030 85 79 7f 3f c4 bb 81 3f d2 ab 82 3f 8c 75 7e 3f
       0.997948 1.0135427 1.0208685 0.9939811
000040 08 3e 79 3f 28 07 70 3f dc 4d 7f 3f 09 49 75 3f
       0.9736028 0.9376092 0.9972818 0.9581457
000050 ba 58 71 3f 31 de 8a 3f 84 5b 7b 3f 16 2b 75 3f
       0.9427601 1.0849057 0.98186517 0.9576887
000060 7c a6 72 3f 75 81 7e 3f 2f eb 78 3f 90 24 82 3f
       0.94785285 0.99416286 0.9723386 1.0167408
000070 b1 f0 84 3f 5d 2a 83 3f f7 09 7c 3f 7e 02 83 3f
       1.0385953 1.0247303 0.98452705 1.0235136
000080 55 45 84 3f 87 6e 7a 3f 90 19 89 3f a4 d7 6f 3f
       1.0333658 0.978249 1.0710926 0.93688416
000090 be 26 73 3f 85 97 87 3f 26 19 72 3f 1b bf 78 3f
       0.9498099 1.0593115 0.94569623 0.97166604
0000a0 c0 9f 77 3f 89 ee 85 3f 4d 49 78 3f f6 12 86 3f
       0.96728134 1.046342 0.9698685 1.0474536
0000b0 1c cb 74 3f a5 58 83 3f 0f 1c 82 3f 08 89 78 3f
       0.9562242 1.0261427 1.0164813 0.97084093
0000c0 34 46 7d 3f dc aa 73 3f 8e 09 86 3f 72 13 7f 3f
       0.98935246 0.95182586 1.0471666 0.99639046
0000d0 9c 65 89 3f 3b fa 80 3f 80 af 6c 3f c8 10 82 3f
       1.0734134 1.0076364 0.9245529 1.0161371
0000e0 c5 b3 80 3f 4e 6d 87 3f 20 9c 84 3f 6f 46 77 3f
       1.0054861 1.0580232 1.0360146 0.9659185
0000f0 78 c5 8b 3f 37 64 81 3f a7 e6 83 3f 24 f4 79 3f
       1.0919638 1.0108708 1.0304765 0.97638154

body.block1.norm.bias f4 [64]
000000 eb 72 51 bd 7a 69 ed bd 62 c5 35 be b1 63 de bd
       -0.051134985 -0.11592384 -0.17751077 -0.108588584
000010 36 fe dd bd 9c f1 0f be b8 f7 d4 bd 55 bc f5 bd
       -0.108395025 -0.1405701 -0.10398811 -0.11998812
000020 15 8a 8a be 0a 5f 81 be 6b 37 fc bd c1 50 82 bd
       -0.27058473 -0.25267822 -0.12315258 -0.06363059
000030 c0 2f 02 be 6c b7 b5 bd 69 f3 d6 bd da 91 8a be
       -0.12713528 -0.088728756 -0.104956456 -0.270644
000040 a7 eb 73 be 35 d0 1b be 87 10 2c be f9 23 36 be
       -0.23820363 -0.15216143 -0.1680318 -0.1778716
000050 5b 12 04 be 53 14 2d be 7d 61 3d be cd 8c 84 be
       -0.12897627 -0.16902284 -0.1849422 -0.25888672
000060 a9 3a 21 be 7c d1 00 be 4b eb 09 be 19 9d 5f be
       -0.15745033 -0.12579912 -0.13468663 -0.21837272
000070 a2 25 3c be 46 77 84 be 55 57 1b 3b 56 9e ac be
       -0.18373731 -0.25872248 0.0023703177 -0.3371455
000080 81 64 6a be 23 ff 04 be e0 7b 34 bd fd 8d 3e be
       -0.22889902 -0.12987952 -0.04406345 -0.18608852
000090 c9 f6 0f be 43 06 c3 bd 01 26 cd bd 4d b4 30 be
       -0.14058985 -0.09522679 -0.10017014 -0.1725628
0000a0 67 6a 0c be b2 da e1 bd ee da 00 be b3 b2 17 be
       -0.13712464 -0.11028041 -0.12583515 -0.14814262
0000b0 cb 53 0f bd e7 53 1c be cf 9d a4 bd 72 81 f7 bd
       -0.03499202 -0.15266381 -0.08037912 -0.120852366
0000c0 89 2f 16 be 2d 4c ab bd 4d a7 18 be 9e b3 4f be
       -0.1466657 -0.08364139 -0.1490757 -0.20283362
0000d0 bf 05 02 be c5 c1 1d be bd 81 0c be d5 9f c0 bd
       -0.12697504 -0.15405948 -0.13721366 -0.094054855
0000e0 2b e9 ea bd 22 b5 6b bc 69 39 92 be c7 f6 52 be
       -0.114702545 -0.014386447 -0.28559425 -0.2060195
0000f0 e2 c0 8e be 62 05 20 be e0 02 4c bd eb 77 28 be
       -0.27881533 -0.15627053 -0.04980743 -0.16451995

body.block1.norm.running_mean f4 [64]
000000 df 00 f1 be fb 9e ec bd 1b 0e dc bf c0 94 e0 3e
       -0.47070977 -0.115537606 -1.7191805 0.43863487
000010 68 11 76 bf 78 75 9b 3f 32 ad a4 3f 22 a0 d8 3f
       -0.9612031 1.2145224 1.2865355 1.6923869
000020 0d 03 fb 3f ef 41 19 be 48 b4 90 bd 7b c0 f0 be
       1.9610306 -0.14966558 -0.07065636 -0.4702185
000030 4b 43 73 3e 47 36 93 bf c0 b1 54 3f d3 b4 a0 be
       0.23756139 -1.1500939 0.83083725 -0.31387958
000040 32 91 8d bf 2e cf 6c bf 34 96 02 bd e2 75 87 bc
       -1.1059935 -0.9250363 -0.031881526 -0.016535703
000050 a4 3f 9e 3f ac 56 f4 be dd 66 0e bf cf a5 5d bc
       1.2363172 -0.47722375 -0.55625707 -0.013528301
000060 16 dc 00 bf 72 c6 ba bf 80 5b 6c 3f 29 55 cd bd
       -0.50335824 -1.4591811 0.9232712 -0.10026009
000070 1e 8d 17 bf 38 e8 d4 bd 0a 01 fa 3e 02 06 e8 be
       -0.591997 -0.10395855 0.48828918 -0.45317084
000080 4f ea 2b 3e 28 63 fa be f2 4a de 3e c0 19 3f bf
       0.167886 -0.48903775 0.43416554 -0.74648666
000090 c3 e1 74 3f bc c5 b4 bf 5d 60 28 bf e3 72 a2 be
       0.95656985 -1.4122844 -0.6577204 -0.31728277
0000a0 d1 d7 80 bf a8 4f 90 bf 21 dd 5c bf 6b b3 8f be
       -1.0065862 -1.1274309 -0.86274916 -0.28066573
0000b0 11 f3 8f 3f 4b 2e 43 bf a5 97 38 bf c3 41 ed bf
       1.1246053 -0.7624251 -0.7210639 -1.8535694
0000c0 3b 25 8e bf e8 d8 00 bf cc 46 c5 3f 30 41 33 bf
       -1.1105112 -0.5033097 1.541223 -0.70021343
0000d0 52 7e 1d bf 6e 33 1a 3f ec 4f e7 be a5 ea 0b bf
       -0.61520875 0.60234725 -0.45178163 -0.54654914
0000e0 51 ea 61 3e 46 de ea be b7 e8 6a bf 72 d4 35 bf
       0.22062041 -0.45872706 -0.91761345 -0.7102729
0000f0 3c 0a 9a be a0 4b b5 be 89 ad 09 be d9 d2 c3 3e
       -0.30085933 -0.3540926 -0.13445105 0.38246801

body.block1.norm.running_var f4 [64]
000000 6a a2 f4 3e 11 31 a3 3f 4f 3d d7 3e 9c 3c 35 3e
       0.47780162 1.2749349 0.42038962 0.17698902
000010 ca db b7 3e de b2 3a 3f 69 22 76 3f d3 7c f4 3e
       0.35909873 0.7292918 0.96146256 0.47751483
000020 09 46 bb 3e e9 89 3f 3e 13 df e5 3e 6a 93 fb 3e
       0.3657687 0.18704952 0.44896755 0.49135906
000030 ab eb 95 3e 2d 7c a6 3f 46 ff 87 3f ce 76 53 3e
       0.29281363 1.3006645 1.0624778 0.20650789
000040 8f 9d 6c 3e d1 4d 95 3e e7 5f 90 3e 8f 47 cf 3e
       0.23106979 0.29160932 0.28198168 0.40484282
000050 53 aa 0c 3f a9 4b de 3e 89 f8 2d 3e ce 17 7c 3e
       0.54947394 0.434171 0.1698934 0.24618456
000060 58 e0 02 3f 0b 60 8a 3e 30 c2 e7 3e ae c9 e3 3e
       0.5112357 0.270264 0.4526534 0.44489807
000070 88 cd 9f 3e be ab f3 3e f8 df 82 3f 55 69 87 3e
       0.31211495 0.47591966 1.02246 0.2644755
000080 9f f4 61 3e 42 0e 01 3f 2a 75 a9 3e 4b bd 90 3e
       0.22065972 0.5041238 0.33097202 0.2826942
000090 d3 d3 f0 3e ef 89 df 3e e7 85 9a 3f e2 4e c1 3e
       0.4703661 0.43659922 1.2072114 0.37755495
0000a0 21 35 7a 3e 89 4a ff 3e 6f 39 85 3f 7d ee 47 3e
       0.2443433 0.49861553 1.0408152 0.1952457
0000b0 bc 21 89 3f 1b 35 c8 3e fc a6 90 3f dc 02 ac 3f
       1.071342 0.39103016 1.130096 1.3438373
0000c0 ae 3f 97 3e e4 ce d9 3e 4f c9 90 3e 5b d0 b7 3e
       0.2954077 0.42540658 0.28278586 0.3590115
0000d0 bb 56 01 3e 4e 76 c8 3e 23 20 f1 3e 4a dd 25 3f
       0.12630741 0.3915276 0.4709483 0.64790785
0000e0 53 80 1e 3f 5c 7c 90 3f 0d 23 86 3e 13 85 97 3e
       0.6191456 1.1287951 0.26198617 0.29593715
0000f0 94 1a 02 3e 78 83 cb 3e 14 33 02 3f 17 ba ba 3e
       0.12705451 0.3974874 0.5085919 0.364701
