TrainedModels/smk1/scale_factor=0.750000,alpha=10/4/netD.pth (torch, 465547 bytes, 25 tensors)

head.conv.weight f4 [64, 3, 3, 3]
000000 76 c2 26 3d 09 b5 19 bd 95 00 cd bb 61 03 15 bd
       0.040712796 -0.037526164 -0.006256173 -0.036380176
000010 74 81 87 bb 0e 18 58 3c 59 72 8a bc d3 90 9f 3c
       -0.004135305 0.013189329 -0.016900228 0.019478237
000020 0b 0e 2a 3d 64 2c b2 3c a0 6a c4 ba 30 7b e8 3b
       0.0415173 0.021749683 -0.001498539 0.007094763
000030 54 62 3d bd 0d e4 10 bd 17 c4 84 bd 75 ed 0b 3c
       -0.04623635 -0.035373736 -0.06482714 0.008540501
000040 f0 e6 75 bc 86 48 16 3d 23 c2 ef ba 41 b5 45 3d
       -0.015008673 0.036690257 -0.001829211 0.04826856
000050 23 30 dc bc c6 ec 31 3d dd 4e 87 bc 73 c9 58 bd
       -0.026878422 0.043438695 -0.016517097 -0.052926492
000060 e5 b4 d9 bc ef b3 4e bc b8 b3 16 3c a6 27 90 bb
       -0.026575515 -0.012616142 0.009198122 -0.0043992577
000070 ce 33 3b 3c ea 3c a4 bd fe 0f 4d bd 74 60 41 bb
       0.011425925 -0.08019431 -0.05006408 -0.0029506953
000080 e3 3b 65 bc 75 08 ae 3b 53 d9 57 3c 63 4d a6 39
       -0.013991329 0.0053110668 0.013174373 0.00031719645
000090 c1 ad 40 bd c8 65 5a bc 67 22 82 bd 4e 14 e1 bc
       -0.047040705 -0.013329931 -0.06354218 -0.027475502
0000a0 c6 74 b8 bc 4c e6 dd bc 2a 0b 9e bc 77 46 ca 3c
       -0.02251662 -0.027087353 -0.019292433 0.024691803
0000b0 ce 05 e1 bc 9e 21 06 bb 97 85 94 3c 05 9b 0d bd
       -0.027468588 -0.0020466815 0.018130107 -0.034571666
0000c0 08 54 49 bc 46 5e 8c 3b a4 e3 bb bd 52 93 1d bd
       -0.012288101 0.004283699 -0.091742784 -0.038470574
0000d0 80 17 ea 3c cf e5 d1 3c 25 82 37 3d 58 1b 81 bc
       0.028575659 0.025622277 0.04480185 -0.015760109
0000e0 8c c0 8c bd 20 be e5 3c a3 78 b1 bb c1 88 56 bb
       -0.06872663 0.02804476 -0.0054159923 -0.003273532
0000f0 60 c9 49 3c 06 c9 0c bc fb bb 34 bc 21 5e 10 bd
       0.012316078 -0.00859285 -0.011031146 -0.03524602
000100 19 57 3a 3d f6 75 29 3d 87 22 89 bd 07 d9 50 3d
       0.04549322 0.041372262 -0.06696039 0.050988223
000110 b9 21 92 bc 86 01 77 3b e3 64 89 3d da 7d 35 bd
       -0.017838346 0.0037690117 0.06708696 -0.044309475
000120 1f 8e e9 bb e7 42 98 bb 8e 39 ae bb 1e ec 05 3d
       -0.007127538 -0.0046466473 -0.0053169196 0.032695882
000130 f6 eb f6 bb a9 da 2c bd 5c 72 00 bc a0 e8 49 3b
       -0.007535453 -0.042200718 -0.007839765 0.0030808821
000140 d0 df 87 bb 6c cf 0f bd d9 87 b4 bc 7c ce b1 bc
       -0.0041465536 -0.035109922 -0.022037433 -0.021704905
000150 03 a5 5a bc 0d 78 0f bc 99 cd d8 bc d6 6c 58 3d
       -0.013345006 -0.00875665 -0.026465224 0.05283817
000160 ab 33 95 3d 69 4e e5 3a 57 a5 9f bd e4 22 73 3c
       0.072852455 0.0017494682 -0.07795208 0.014839862
000170 b3 a1 38 bc a2 3b a8 bc 02 28 86 3d fc 70 fa 3c
       -0.011269021 -0.020536248 0.065506 0.030571453
000180 fc 25 c6 3c 8c bf b1 3c 18 db b9 bb a0 e9 2e bd
       0.024188034 0.021697782 -0.00567187 -0.04270327
000190 13 83 6f 3d 00 cb 57 3d 8d 2c 3f 3d 95 d4 c7 3c
       0.05847461 0.05268383 0.046673346 0.02439336
0001a0 7e cb 46 3c da 3e 05 3d c5 28 b4 bc 6c 63 f1 3b
       0.012133477 0.032530643 -0.021992097 0.0073665883
0001b0 24 54 48 3b 6f 6a 8f 3b cc b0 4a 3d 75 3f 04 3d
       0.003056773 0.0043767015 0.049485013 0.03228708
0001c0 6b 90 60 bd de d3 fb 3b 0b 22 ab 3d 4b 74 6a 3d
       -0.054825228 0.0076851686 0.083561026 0.057239812
0001d0 36 b3 d2 3c 3e 22 5e 3c bf 4d c3 3c 9d 4b 9b bc
       0.02572022 0.013557969 0.023840783 -0.018956954
0001e0 50 c3 77 bd 20 cd 2c 3b 62 62 23 bc ba 31 cb bc
       -0.060489 0.0026367381 -0.009972187 -0.024803985
0001f0 65 2f 86 3d 8e 0f c8 3b cb 95 e0 bc c6 cd f7 b9
       0.065520085 0.00610537 -0.027415177 -0.00047264824
000200 cf a6 87 3d 30 02 99 bc 00 7e 94 bc 3f 2f 81 3d
       0.06623613 -0.0186778 -0.018126488 0.063078396
000210 42 d1 da 3c 3a 40 86 bd e6 06 36 3c 49 cf 0f bd
       0.02671111 -0.06555219 0.011110043 -0.035109792
000220 74 99 04 bc f8 4f 83 3d 21 49 30 bc a9 14 01 bd
       -0.008093227 0.06411737 -0.010759623 -0.031513844
000230 7c 3b 67 bc 31 8e 5d 3d 6f 6d e9 3b 8f e5 6a bd
       -0.014113303 0.054090682 0.007123641 -0.05734783
000240 e4 03 30 bc 1a 3b 2a bb 70 c2 db bc b2 5b 38 3c
       -0.010743115 -0.0025975169 -0.026826113 0.011252331
000250 d3 fa c0 3c 61 96 5d 3d e3 69 b0 bc 23 4a 2b bd
       0.023557102 0.05409849 -0.021534866 -0.04181875
000260 30 4c 03 bc 6d ef f1 3c f9 e2 76 3c 36 07 04 3d
       -0.00801377 0.029533112 0.015068763 0.03223344
000270 70 dc 3c bd f4 d2 74 3b 5a f8 a2 bc 4c d5 aa bb
       -0.046108663 0.0037357183 -0.019893814 -0.0052134153
000280 8e 8a 02 3c b4 53 b6 bc 73 a7 9d 3c 49 54 45 bd
       0.007967604 -0.02225671 0.019244885 -0.048176084
000290 e4 9e 9f 3d 0c ba 07 3c bb 2d 10 bc e8 27 4f 3c
       0.07793978 0.008284103 -0.0087999655 0.012643792
0002a0 ab c4 63 bd aa 97 dd 3b e9 cf 62 bc 99 8f 05 bd
       -0.05560748 0.0067624645 -0.013843515 -0.03260765
0002b0 06 38 88 3b 1e be 69 bc 69 86 6a 3d a3 d2 82 bc
       0.004157069 -0.014266519 0.05725709 -0.01596958
0002c0 de 60 98 bb ad 53 1a 3c 74 33 12 3c 42 7b ce 3c
       -0.0046502193 0.009419364 0.0089234 0.025205258
0002d0 33 46 6c 3d 3e 76 9a bc 7b 2d d4 3c a9 fc 13 3c
       0.057684135 -0.01885521 0.025900593 0.009032407
0002e0 7c 5d 89 3d 69 93 49 3c aa 61 d0 3d e1 1b 31 3c
       0.06707284 0.012303212 0.10174878 0.0108098695
0002f0 3d 0a 3a 3d 6f 17 38 3d 99 02 a7 3c ae 9a c1 3c
       0.04541992 0.044944223 0.02038698 0.023633327
000300 6c ae c1 bc 27 1a 54 bc 62 7b 25 bc 2e be 37 3b
       -0.023642741 -0.012945688 -0.010100218 0.002803694
000310 0b 9e 39 3d 10 af 97 3c d9 13 0f 3d 98 e5 0f bc
       0.045316737 0.018516093 0.034931038 -0.008782767
000320 e8 45 bf bd 2b 38 5b bd 4d d2 2f bc 38 d0 4d 3d
       -0.093395054 -0.053520363 -0.010731292 0.0502474
000330 aa 37 cf bc ef 6b a2 bc 8c e6 04 3d 9b 92 26 bd
       -0.025295097 -0.019826857 0.03244643 -0.040667158
000340 61 fb 37 bd eb f9 8c bd 77 f7 b3 3b 6f c9 fe bb
       -0.044917468 -0.068836056 0.0054921466 -0.0077754776
000350 69 3c de bc 47 5f e3 3b 5a 93 5d bc 1a 29 04 3b
       -0.027128415 0.006938848 -0.013523901 0.00201661
000360 87 d6 a2 bb 42 11 46 3c 03 ea 9b bd a8 00 33 3c
       -0.0049694213 0.0120890755 -0.076129936 0.010925449
000370 77 c5 a4 ba 78 6c 97 bc f6 de 36 bd 22 e7 19 bd
       -0.0012571056 -0.01848434 -0.044646226 -0.03757394
000380 19 cb 20 3d 05 b3 74 3c 06 31 76 3c 7b 1d 70 bd
       0.03925619 0.01493526 0.015026337 -0.058621865
000390 67 52 b3 bc 5e ff 75 3b 47 21 4e bd ee c7 e9 bc
       -0.021889878 0.0037536244 -0.050324704 -0.028537717
0003a0 6d 74 2e bb 56 3e 33 bc 51 c1 cf 3c 32 8b ab 3c
       -0.0026619688 -0.010940155 0.025360735 0.020940397
0003b0 7f a2 ac 3b 04 2b 8e bc 01 9b 54 3c 4f bd 8b 3d
       0.0052683945 -0.017354496 0.012976409 0.06823217
0003c0 b7 78 a0 bc 0a 7f 8b 3c 1c ec 5a bc 92 05 9e 3c
       -0.019588811 0.01702835 -0.013361957 0.019289766
0003d0 50 55 ee bc 07 85 1d 3c 8e 86 bc 3c 13 71 3b bc
       -0.029093415 0.009614236 0.02301338 -0.011440533
0003e0 c7 3b 7f 3c 31 dc f8 3c 34 7c c1 3c 9e 31 8f 3c
       0.015578217 0.030378433 0.023618795 0.017479714
0003f0 f4 b4 88 bc 20 6e 95 3c 0e 9d 62 bd 8b d5 11 bd
       -0.016687848 0.018240988 -0.05532556 -0.03560404

head.conv.bias f4 [64]
000000 54 47 95 bc 0b 8b 8a 3c 26 43 47 bd b8 52 06 be
       -0.018222488 0.016912004 -0.048648022 -0.13117492
000010 cc 74 38 3e 39 21 f7 3d 62 74 12 bd 95 6b 74 3d
       0.18013304 0.120668836 -0.035755523 0.05967291
000020 f2 1f f5 bd 16 9e 0e 3e df f1 ea bc 61 0a 5b 3d
       -0.11968984 0.13927492 -0.028679786 0.053476695
000030 ef b5 02 3e 57 6a 04 bd f9 30 3b be 70 d9 61 3e
       0.12764715 -0.032327976 -0.182804 0.22055602
000040 29 39 4f 3c d1 26 0a bd c8 c7 fa 3d 5f 36 9f 3c
       0.012647905 -0.033728424 0.122451365 0.019435106
000050 b7 c1 2a bd 27 77 54 be 2a 36 04 be c3 a5 c7 3c
       -0.041688647 -0.20748578 -0.12911287 0.024371034
000060 18 71 46 3d 96 f4 5e 3d df ec cd bd c9 6b de 3c
       0.0484477 0.054432474 -0.10054945 0.027151005
000070 01 77 58 3d 70 5d 33 be 35 0b 7b bd c2 e1 02 3e
       0.052847866 -0.17516112 -0.061289985 0.12781432
000080 b4 30 2f be 48 95 84 bd b8 5c d4 3d 02 d1 3e 3e
       -0.17108423 -0.06473786 0.10369247 0.18634418
000090 8f 47 60 3d 8f e0 b2 bd 45 85 21 3e ed 7e af 3d
       0.054755744 -0.087342374 0.15773495 0.08569131
0000a0 6b f1 95 bd a2 43 02 3e 17 bc 39 bd 86 b2 df bd
       -0.073214374 0.12721112 -0.045345392 -0.109227225
0000b0 f8 2f 34 3e 45 1a f5 3d 1a ae dc 3d d9 ef 6f 3e
       0.17596424 0.11967901 0.10775395 0.23431338
0000c0 bd 05 7a 3d 59 77 f7 3d 75 a5 ef 3c ab 43 85 3d
       0.06104063 0.12083311 0.0292537 0.06507047
0000d0 f2 52 17 be 85 96 05 be 9b ab 0f 3e 34 6f 10 3e
       -0.14777735 -0.130457 0.14030306 0.1410492
0000e0 51 78 3b be 92 7b 8f 3d 3f 83 de 3d 20 44 68 3c
       -0.18307616 0.07005991 0.10864877 0.0141763985
0000f0 d3 5f c3 bd 6a 89 44 bd fb f1 b2 bd 96 75 0b be
       -0.095397614 -0.04798261 -0.0873756 -0.13619074

head.norm.weight f4 [64]
000000 72 b4 67 3f f6 ae 80 3f 12 ae 78 3f af 2a 83 3f
       0.9050971 1.0053394 0.9714061 1.0247401
000010 cd 99 85 3f 49 a4 6b 3f 5a d4 81 3f 5a aa 62 3f
       1.0437561 0.92047554 1.014293 0.88541186
000020 c4 ba 75 3f b5 ef 86 3f ab 03 86 3f 84 ae 6e 3f
       0.95988107 1.0541903 1.0469869 0.9323504
000030 8d ad 89 3f a3 71 6d 3f 8b e8 83 3f c0 21 76 3f
       1.0756088 0.9275152 1.0305341 0.9614525
000040 29 b6 87 3f c8 b7 69 3f b2 c9 73 3f e6 ce 7c 3f
       1.0602466 0.9129605 0.9522964 0.987532
000050 5a 91 63 3f 0e a3 81 3f 36 42 7e 3f 10 3c 60 3f
       0.88893664 1.0127885 0.9931978 0.8759165
000060 34 6f 88 3f e8 83 77 3f 9e 78 71 3f 40 78 67 3f
       1.0658937 0.9668565 0.9432467 0.9041786
000070 27 e4 66 3f a7 fa 75 3f 04 fa 60 3f fd 30 7e 3f
       0.9019188 0.9608559 0.87881494 0.992935
000080 20 2f 7c 3f 60 58 87 3f 53 ad 81 3f 6a 7a 6d 3f
       0.9850941 1.0573845 1.0131019 0.92764914
000090 54 51 82 3f 84 e9 4c 3f d6 d3 75 3f 73 98 68 3f
       1.0181069 0.80043817 0.9602636 0.9085762
0000a0 1d e2 82 3f 31 45 85 3f 68 7e 58 3f f0 05 86 3f
       1.0225254 1.041174 0.8456788 1.0470562
0000b0 d1 e8 65 3f 68 a0 84 3f cf 28 67 3f 34 7d 7a 3f
       0.89808375 1.0361452 0.90296644 0.97847295
0000c0 a7 09 7c 3f b5 a2 53 3f 13 a8 7a 3f c1 2e 7c 3f
       0.9845223 0.82670146 0.9791271 0.9850884
0000d0 0a d0 84 3f 72 f1 7d 3f 83 02 81 3f 11 0c 72 3f
       1.0375988 0.9919654 1.0078892 0.9454966
0000e0 6d 08 77 3f c5 39 8d 3f ff 7d 7a 3f 56 9b 7f 3f
       0.9649723 1.1033255 0.97848505 0.998464
0000f0 04 b9 79 3f 2e c2 7b 3f 7c 10 90 3f c3 3c 6a 3f
       0.97547936 0.9834317 1.1255031 0.91498965

head.norm.bias f4 [64]
000000 fc 97 68 3e 00 9a 82 3e ef 89 4c 3e 87 ac ec 3d
       0.22714227 0.25508118 0.19974492 0.115563445
000010 7a e3 9d 3e 0e 57 c9 3e 56 ba 00 3e b9 87 42 3e
       0.30837613 0.3932423 0.12571082 0.18997087
000020 41 cb 95 3e 5f 29 64 3e f0 2b 86 3e 80 17 cc 3e
       0.29256633 0.22281407 0.26205397 0.3986168
000030 b8 83 a5 bb 91 c0 9a 3e d5 bd 6b 3e ab 7e 65 3e
       -0.0050511025 0.30225042 0.23021634 0.22411601
000040 77 57 e4 3d 12 74 20 3e 3f e8 d5 3d 18 1e 09 3d
       0.11149495 0.15669277 0.10444688 0.033475965
000050 9b bf a6 3e a9 5a ab 3d a3 00 12 3e f5 be 90 3e
       0.32568058 0.083669014 0.14258055 0.2827069
000060 db 34 16 3e f7 d9 a0 3e b4 f6 e5 3d c4 f2 c8 3e
       0.146686 0.31416294 0.112286955 0.39247715
000070 40 82 dd 3d 67 3b 8a 3d 7a f9 83 3e 6e b3 1e 3d
       0.10815859 0.06749611 0.25776273 0.038745336
000080 62 dd 9d 3e ac 6e d8 3d 0b 75 34 3e 65 4b 0f 3f
       0.30832964 0.10567984 0.17622773 0.5597442
000090 1a dc 4f 3e 42 95 8d 3e a1 5b 9e 3d 61 41 0c 3e
       0.20298806 0.27652937 0.077323206 0.13696815
0000a0 2f 4a 8d 3e f3 da 93 3e cd 32 17 3f 68 7b 53 3e
       0.2759566 0.28877982 0.5906189 0.20652544
0000b0 9a 56 9c 3e ba b9 13 3e 82 d5 ad 3e 03 42 63 3e
       0.30534822 0.14426318 0.33951956 0.2219315
0000c0 0f a2 6f 3e 0e d1 d5 3e a5 4c 89 3e a7 28 15 3e
       0.23401664 0.4176106 0.26816288 0.14566289
0000d0 0f 0c cc 3d 50 5d 7c 3e 80 b8 7d 3e 82 b4 e5 3e
       0.099632375 0.24644971 0.24777412 0.4486428
0000e0 6d 86 27 3e 8b b4 c5 3e 11 b2 80 3e 02 e2 40 3e
       0.16359873 0.38614306 0.25135854 0.18836215
0000f0 62 f9 69 be 2b 53 04 3e 5e 4c 11 3e 62 0d 3f 3e
       -0.22849038 0.12922351 0.14189288 0.18657449

head.norm.running_mean f4 [64]
000000 6b 09 75 3b 52 7a db 3d 00 d8 e3 bc f6 51 58 be
       0.0037389647 0.1071669 -0.027812958 -0.21125016
000010 81 13 fe 3d 22 50 06 3e c5 3b 37 be 56 03 08 3e
       0.12406064 0.13116506 -0.17893894 0.13282523
000020 ae 5e 03 be 6c e0 d1 3d 36 7f a8 bc cd d1 a0 3d
       -0.12829086 0.10247883 -0.020568471 0.07852516
000030 1f 70 30 3e 2e f0 66 3d f0 99 29 be 74 f5 8e 3e
       0.17230271 0.056381397 -0.16562629 0.2792164
000040 cc ad 73 3d c2 7b ef bd 70 52 70 3e ae d5 fb 3c
       0.059491917 -0.11693527 0.23468947 0.030741539
000050 6e d4 53 bc d0 9d da bd c6 9b 31 bd c8 49 90 3d
       -0.012929065 -0.106746316 -0.043361448 0.07045323
000060 14 a3 2d 3d e6 a8 b4 bd ae fd 18 be 75 e1 02 bc
       0.04239185 -0.08821277 -0.14940521 -0.007988323
000070 35 40 aa 3b b8 2f 42 be 45 87 95 bd 84 b9 fa 3d
       0.0051956424 -0.18963516 -0.07301191 0.122424155
000080 02 f2 4b be 18 01 db bd c5 7f 85 3a 20 6b 45 3e
       -0.19916537 -0.10693568 0.0010185173 0.19279146
000090 57 29 9a 3c 01 68 91 bd 40 07 d6 3d 5a 06 a7 3d
       0.01881854 -0.07099915 0.104506016 0.08155508
0000a0 94 73 16 be 93 86 19 3e 21 15 a0 bc 80 3a 55 bd
       -0.14692527 0.14992742 -0.019541325 -0.052057743
0000b0 73 67 21 3e e8 c3 25 3e 7d da 3f 3e 69 4b 93 3e
       0.15762119 0.16188014 0.1873569 0.2876847
0000c0 9a c3 29 3e 16 5a 11 3e e8 78 8f 3d a0 18 87 3d
       0.16578522 0.14194521 0.07005483 0.06596494
0000d0 db 75 ef bd 9d 9f 9b bd f5 f5 31 3e 17 6b 99 3d
       -0.11692401 -0.07598803 0.17378981 0.07491129
0000e0 1a 22 36 be 42 a8 7a 3d 0c ab ce 3d b2 4a 02 3c
       -0.17786446 0.06119562 0.10091218 0.007952379
0000f0 c4 f4 d1 bd 18 71 1a be 2b 2d c2 bd 16 30 fe bd
       -0.102517635 -0.15082204 -0.09481271 -0.124115154

head.norm.running_var f4 [64]
000000 c3 a6 06 3a da 13 3d 3b 2a 7d c5 3a 82 03 f7 3a
       0.0005136544 0.0028850944 0.0015067209 0.001884565
000010 48 f6 77 3b f8 69 1f 3a cd 38 3b 3b 81 ff 00 3a
       0.0037836004 0.0006081159 0.0028567791 0.00049208855
000020 1a 08 d5 3a 3e 45 7e 3b b7 75 cd 3a 20 27 43 3a
       0.0016253025 0.0038798596 0.001567534 0.000744449
000030 ac 0b 5b 3b 96 3c 2d 3a 33 2d b4 3a c6 04 3c 3a
       0.0033423705 0.0006608454 0.001374638 0.0007172342
000040 f6 cb 6d 3b d1 05 47 3a 34 53 07 3a 62 79 6f 3a
       0.00362849 0.0007592114 0.00051622395 0.0009135214
000050 d4 9a aa 3a 2e 36 4d 3a 47 44 ef 3a 37 4f 1c 3a
       0.0013016113 0.0007828203 0.0018254601 0.00059627317
000060 8a b0 0e 3b 41 f3 0b 3b 1e 1c 00 3a 73 ea 37 3a
       0.0021772706 0.0021354707 0.0004887002 0.00070158317
000070 47 a9 20 3a de 80 87 3b f1 ef 4c 3a 20 f4 18 3a
       0.000612874 0.004135235 0.00078177365 0.00058347173
000080 fe 78 b5 3a 6b 35 b1 3a 0d 3f 03 3b 08 2d 99 3a
       0.0013845263 0.0013519948 0.0020026595 0.0011686394
000090 35 e4 09 3b 05 e4 30 3a cb 47 32 3a 7f 58 ee 39
       0.0021040563 0.0006747845 0.0006800859 0.00045460832
0000a0 46 a3 c8 3a 9d a8 ac 3a 3e 87 1b 3a 93 c6 22 3b
       0.0015307448 0.0013172809 0.00059329334 0.0024837598
0000b0 13 54 07 3a 2d 82 04 3b 36 da 27 3a 25 58 b1 3a
       0.00051623693 0.0020219192 0.00064030604 0.0013530297
0000c0 d3 60 b6 3a 56 4c 08 3a 78 06 81 3a ac a1 fe 3a
       0.0013914354 0.0005199363 0.0009843847 0.0019426844
0000d0 87 99 42 3b 65 4a be 3a 60 c9 55 3a 1d fd d2 3a
       0.002969356 0.0014518021 0.00081553124 0.0016097162
0000e0 a0 42 85 3a 2b 44 13 3b 9e 38 01 3b ac cd 88 3a
       0.001016695 0.0022471051 0.0019717584 0.0010437272
0000f0 a6 fe 81 3a bd ee aa 3a 42 5d 45 3b 50 4d 52 3a
       0.000991781 0.001304112 0.00301154 0.0008022385

body.block1.conv.weight f4 [64, 64, 3, 3]
000000 f0 bd e8 bc 9b dd c1 3b 3e 1e 9d 3d 7e 26 7e bc
       -0.028410882 0.00591631 0.07671784 -0.015512107
000010 8a d7 95 bb 41 59 82 3d ea 2a 12 bd 89 a1 26 bc
       -0.0045728134 0.0636468 -0.035685457 -0.010170349
000020 a6 be f9 bc c5 3f 35 bd a9 87 e6 bc 51 f6 3c 3d
       -0.030486416 -0.04425027 -0.02814086 0.046133343
000030 e9 fa 25 bc 52 85 0a 3d 85 e4 44 3c c9 57 45 bc
       -0.010130622 0.03381855 0.012017374 -0.012044855
000040 a7 6a 1a bd 17 55 20 bd 6b 13 0c 3d 28 84 0c bd
       -0.037699368 -0.039143648 0.034198206 -0.03430572
000050 b6 70 c9 3c b3 83 05 bd 46 6b 51 3d b2 3c 29 3c
       0.024589878 -0.0325963 0.051127695 0.010329412
000060 6a 78 1c bd 07 0a be 3c e0 68 b9 bc 87 82 f2 bb
       -0.038200773 0.02319814 -0.022633016 -0.007400814
000070 9b 47 84 3c 35 08 41 bd 92 52 7e 3c ad c4 d1 3b
       0.016147425 -0.047126967 0.015522616 0.0064016194
000080 f8 f7 34 3d 04 ac fa 3c 04 1b d2 bc 4b 1e 83 3d
       0.044181794 0.030599602 -0.025647648 0.06402262
000090 78 35 36 bd d5 71 06 bc e3 7a ed bd 38 67 05 bc
       -0.044484586 -0.008205851 -0.115957044 -0.008142285
0000a0 b4 e0 8c bd 19 a2 7b bc 01 b6 64 3d 2c 28 60 bd
       -0.06878796 -0.015358471 0.055837635 -0.05472581
0000b0 ba c9 31 3d 2b 15 82 3c b7 e4 92 3d 0c a0 92 bc
       0.043405272 0.015879234 0.0717253 -0.017898582
0000c0 57 da 14 bd 66 64 41 bd 40 e5 0d 3d 29 51 73 3c
       -0.036341038 -0.047214888 0.034642458 0.014850893
0000d0 83 aa 8a bc 59 e1 22 bd ae fc 07 3c f0 4e 72 bc
       -0.01692701 -0.03976569 0.00829999 -0.014789328
0000e0 06 6f 32 bd 23 a1 ad bc e2 1d 7c bb 04 0b 25 bd
       -0.04356291 -0.021195 -0.003846996 -0.04029371
0000f0 5b 90 1e bc f7 84 ef 3c 5d d5 22 bb 74 3c 40 bd
       -0.009677972 0.029238207 -0.0024846413 -0.046932653
000100 ed b2 2e 3d 4a b6 b2 3d 75 65 ee 3b 22 81 48 3d
       0.042651106 0.08726175 0.007275278 0.048951276
000110 bf df 06 bd fb fa 4b bd ec 13 28 3d 9f 50 d9 3c
       -0.032928225 -0.0497999 0.041034624 0.026527701
000120 1a 56 16 bd 22 e8 86 3c 9d cb 41 bc b9 c1 86 3c
       -0.036703207 0.016468111 -0.01182833 0.016449796
000130 f6 a5 5c 3d 19 9d 17 3c 13 15 a9 bc 77 7c 96 3c
       0.05386921 0.009253764 -0.020639932 0.018369896
000140 a2 ae 1e 3d a1 5a b3 ba 88 44 49 bd ce 9e c5 3c
       0.03874076 -0.0013683626 -0.049137622 0.024123576
000150 1e c1 42 3d f9 00 06 bc 9b 8c 6d 3d b4 8a 83 3c
       0.047547452 -0.008178943 0.05799542 0.01605735
000160 fa ea 94 3c 5c 04 7d 3d d6 b7 9b bc 17 5c c9 3c
       0.018178452 0.061771736 -0.019008558 0.024580045
000170 2b 78 d8 3c b6 c6 3e bc 5a c4 b0 bb e4 b1 49 bc
       0.026424488 -0.011644056 -0.0053945007 -0.012310479
000180 03 9e 2f 3d 13 98 7f bd 09 d0 a0 bc a0 6d 69 bd
       0.0428753 -0.06240089 -0.019630449 -0.056989312
000190 b6 42 a5 3b 24 b5 77 3d e0 fa c1 bb 4f 96 2a bd
       0.005043353 0.060475484 -0.005919799 -0.04164725
0001a0 60 b1 19 bd 37 db 36 3d 9e fe c1 3c 95 92 8b bd
       -0.037522674 0.044642653 0.023680981 -0.06815068
0001b0 0e 63 cb bc 2c 37 95 3c 5a c2 93 bd 2c 91 1b bd
       -0.024827506 0.018214785 -0.07214804 -0.037980244
0001c0 7c 7f 55 3d 24 63 3c bd ec ee 82 3b 39 1c a5 3c
       0.05212353 -0.045992985 0.003995767 0.02015506
0001d0 8d 49 b9 bc 90 34 2d 3d 14 d1 f4 3c ef 8c bb 3c
       -0.02261808 0.042286456 0.029884852 0.02289435
0001e0 85 fb c9 bc 5f ac 4c 3d 8e f4 60 bc f6 60 f9 bc
       -0.024656067 0.049969073 -0.013730181 -0.030441742
0001f0 ab f3 cb 3b 74 fb 87 3c e2 19 84 3d 47 ad d0 3c
       0.006224116 0.016599394 0.06450249 0.02547325
000200 1f 53 c5 bb 0b 6e 5e bc 5e 5b 42 3d 86 11 8b bd
       -0.0060218717 -0.013576041 0.047450416 -0.06790452
000210 e8 62 62 3d 4e 36 04 bc 07 9e b9 bd 50 f5 ce bb
       0.055270106 -0.008069588 -0.090633444 -0.0063158646
000220 79 e3 50 3d 00 ef f3 3c cd c9 a9 bc 03 94 15 3d
       0.050998185 0.02977705 -0.020726109 0.036518108
000230 ab ac db b8 c8 75 0f bd 5b 93 2d bd 78 43 cd bc
       -0.00010474896 -0.035024434 -0.042376857 -0.025056586
000240 b8 bf 0c bd 59 78 f9 39 3b 16 93 bc fe e4 a4 bb
       -0.034362525 0.00047582647 -0.017954936 -0.005032181
000250 e9 35 78 bc e9 61 49 3c 91 6c 91 3d 9e 12 46 3b
       -0.015149572 0.01229141 0.071007855 0.00302235
000260 bc 67 11 bc 59 a1 97 3d 63 c8 08 3c 96 49 e6 bc
       -0.00887483 0.074038215 0.008348557 -0.02811126
000270 0a 65 89 3d c0 ea ee 3c 24 82 f1 3c fd a5 c9 bd
       0.06708725 0.029164672 0.029481001 -0.09846113
000280 3c 57 4b 3c f2 5a 47 3c bf a0 d6 bc 9d 71 b5 3b
       0.012410935 0.012167679 -0.026199697 0.0055372254
000290 9d 2d 1b 3c 6e f4 1a bc 70 19 84 bc 1f 63 05 bd
       0.009471324 -0.009457691 -0.01612541 -0.032565232
0002a0 26 94 a7 3d 3e 1b 0e 3b 7e 9f fc bb ac db 0c 3d
       0.08182554 0.0021683718 -0.0077094426 0.034389183
0002b0 98 ab e0 bc 05 6e d7 3d 76 5b e5 3c a8 16 79 bd
       -0.027425572 0.105190314 0.027997714 -0.060812622
0002c0 5d cd 3c 3d 3f a1 96 3c bb c2 09 3b 21 43 8e bc
       0.046094287 0.018387435 0.002102061 -0.017365994
0002d0 36 93 e9 bb 96 d9 73 bc 31 ed 44 3b 34 dc e5 3b
       -0.0071281446 -0.0148834195 0.0030048604 0.0070147756
0002e0 ee ed 2c 3d 60 7a d9 ba 2a 9f 05 bd 7b 33 66 3c
       0.042219095 -0.0016592257 -0.032622494 0.01405036
0002f0 27 f4 8f 3d 5a 29 ba bc 82 c7 c2 3c a7 3e b4 3b
       0.0702899 -0.022724796 0.023776773 0.005500633
000300 e1 3d c6 3d 22 6f ee bc 3e a7 55 bc e0 0d 81 3b
       0.09679771 -0.029105727 -0.013040362 0.0039384216
000310 59 ab d8 3b 03 ca c0 bc 4a d7 27 3c 58 61 a2 bc
       0.006612223 -0.023533827 0.0102442 -0.019821808
000320 b8 47 88 3d 84 55 f3 3c ef 0c 29 3c 26 28 f4 bc
       0.06654304 0.029703863 0.010318025 -0.0298043
000330 5b 35 db 3c 8a 42 b5 3c ec e3 6a bd 6e 69 f1 3c
       0.02675884 0.022126455 -0.05734627 0.029469218
000340 3f ed 4d bd ba 22 11 3d bd e8 8e 3d b9 95 71 bd
       -0.050275084 0.03543351 0.06977985 -0.058980677
000350 b7 34 49 3d 47 8b ce 3c 69 77 fc bb 86 5e 8b 3c
       0.04912254 0.025212897 -0.0077046645 0.017012846
000360 fe 4d ef bb 46 37 57 bc c1 33 94 3b 39 4f 67 bd
       -0.0073029986 -0.013135737 0.004522771 -0.056472037
000370 11 32 39 bd c6 05 1c 3c 55 08 26 3d c6 e0 9d bd
       -0.045213763 0.009522861 0.04053529 -0.07708888
000380 2c 7b a1 bc 45 70 b3 bc bd 2f 49 3c 1a 90 75 3c
       -0.019712053 -0.02190412 0.012279448 0.01498797
000390 26 25 80 3d e7 4c 3c bd ab 2f 99 bc 80 e4 b8 3b
       0.062570855 -0.045971777 -0.018699488 0.0056424737
0003a0 f8 5f 64 3b a6 5b 58 bd 7b a7 1a 3c c6 15 91 bd
       0.003484724 -0.052821778 0.0094393445 -0.07084231
0003b0 de 36 06 3d ee df 26 3b 7d 60 9c ba ba 3e d4 3c
       0.03276717 0.0025463062 -0.0011930611 0.025908817
0003c0 91 c4 69 bc 1c 4d c6 3b a3 c3 f0 bc d9 67 27 bd
       -0.0142680565 0.0060516726 -0.029390162 -0.04087052
0003d0 41 08 ad bb 1f fc 55 bd 23 92 a1 bc a3 1a da 3c
       -0.005280525 -0.052242395 -0.019723004 0.02662403
0003e0 60 61 bd 3c e0 0a de bc 68 7c 9a bc 7b a6 3d 3c
       0.023117721 -0.027104795 -0.01885815 0.011575337
0003f0 3b 60 ea 3c ef 2d 4e bc 8d f4 24 bd 0c d2 e4 bc
       0.02861034 -0.012584194 -0.040272284 -0.02793219

body.block1.conv.bias f4 [64]
000000 6b 76 33 3c 89 b6 0f bd 8f 32 20 bc 6a 04 7b 3c
       0.010953526 -0.03508619 -0.009777679 0.015320877
000010 af 77 66 bc 8a ff 62 bc a8 b1 84 bc 97 3a 17 bd
       -0.014066621 -0.013854871 -0.016197994 -0.03692111
000020 a2 f2 ce 3c e2 07 bb bc 5e b1 1d 39 7b 29 9c bc
       0.02526218 -0.022830907 0.00015038761 -0.019062748
000030 95 38 09 3d 2d 90 a1 bb da 8c 00 bd fd 5a 62 bd
       0.033501226 -0.004930517 -0.031384327 -0.055262554
000040 a4 00 6c 3d 71 a9 0d 3d 12 1d 47 bc a1 73 4d 3d
       0.0576178 0.03458542 -0.012152927 0.0501591
000050 60 4a 1a bd 7c 96 39 bc a5 9b b9 3c 02 3a 15 bd
       -0.037668586 -0.011327382 0.022657225 -0.036432274
000060 46 bb 38 3c d5 78 fe bc 60 ff 0a 3d 53 72 8f 3b
       0.011275118 -0.031063477 0.03393495 0.004377642
000070 36 ad 38 bd f6 a8 41 3b 7c 59 79 bc e4 91 d0 bc
       -0.04508706 0.0029550171 -0.015219089 -0.025460191
000080 60 da 2b 3d 42 91 53 3d 99 cd f0 3c 98 7e 20 bd
       0.041956306 0.0516522 0.029394912 -0.03918323
000090 b2 72 58 3d 3f 7c 3c bc 48 9c 94 3c 77 44 5d bd
       0.052843757 -0.011504232 0.018140927 -0.05402037
0000a0 a2 3a 5f 3c 9d 2c 3e bd d4 07 5f 3b 11 dd d9 3c
       0.013624819 -0.046429265 0.0034031766 0.02659467
0000b0 e1 1c 6a bc 15 90 06 3c b3 20 69 3c ef 19 f4 3c
       -0.014289112 0.008213063 0.0142289875 0.029797522
0000c0 ad 6c 33 3d a3 fa d6 bc ee c0 01 bc 85 08 78 3b
       0.043804813 -0.02624256 -0.007919533 0.0037846875
0000d0 d3 34 a3 3c 2a 77 34 bc 37 43 06 bb 99 5f 9e 3b
       0.01992265 -0.011014739 -0.002048684 0.0048331735
0000e0 4b 79 d0 3c 52 83 78 3c 10 a2 40 bd fa 83 5c bd
       0.025448462 0.015168028 -0.047029555 -0.0538368
0000f0 62 44 45 3c 8a 0c 3f bd f2 55 5c bd 15 53 51 3d
       0.0120402295 -0.046642818 -0.0537929 0.051104624

body.block1.norm.weight f4 [64]
000000 94 f1 84 3f 11 e0 86 3f d8 ef 64 3f 11 c6 64 3f
       1.0386224 1.053713 0.8942847 0.89364725
000010 d1 67 75 3f d9 89 6a 3f 38 19 82 3f 4d 73 84 3f
       0.95861536 0.9161659 1.0163946 1.0347687
000020 c5 82 7d 3f c2 29 81 3f 87 ba 6e 3f 60 1b 77 3f
       0.99027663 1.0090868 0.9325337 0.96526146
000030 e5 09 78 3f cf 3e 61 3f b0 f8 80 3f 38 87 79 3f
       0.968901 0.87986463 1.0075893 0.9747195
000040 43 53 7a 3f 98 89 82 3f be a8 7b 3f 70 0c 7b 3f
       0.977833 1.019824 0.98304355 0.98065853
000050 df 70 84 3f 48 e1 83 3f 35 67 7d 3f 6d df 51 3f
       1.0346946 1.0303125 0.98985606 0.81981546
000060 fc db 80 3f 29 6f 5f 3f dd 4c 71 3f 51 59 7f 3f
       1.0067134 0.8727899 0.9425791 0.9974566
000070 d2 40 80 3f 77 10 7a 3f e5 15 87 3f a0 b1 60 3f
       1.0019782 0.97681373 1.0553557 0.87771034
000080 94 09 6f 3f 75 e8 76 3f 39 32 84 3f 7c 6d 7e 3f
       0.9337399 0.9644845 1.0327827 0.9938581
000090 a1 2a 76 3f 5f 99 73 3f 38 a7 79 3f 3d 6e 6a 3f
       0.96158797 0.951559 0.9752078 0.9157446
0000a0 1b 9c 5e 3f 02 9f 69 3f d6 a1 83 3f 82 11 7d 3f
       0.8695695 0.9125825 1.0283763 0.9885484
0000b0 b6 0a 78 3f 5d b7 67 3f 7f 88 77 3f 47 09 82 3f
       0.96891344 0.90514165 0.9669265 1.0159081
0000c0 5d 04 84 3f 30 20 84 3f ad e7 74 3f 15 be 82 3f
       1.0313832 1.0322323 0.9566601 1.0214258
0000d0 4e c7 83 3f 1e 1f 7d 3f ac 1e 5e 3f f7 49 5e 3f
       1.0295198 0.98875606 0.8676555 0.8683161
0000e0 34 30 6d 3f bd c7 7e 3f 3c 2c 7c 3f f7 63 8b 3f
       0.9265168 0.99523526 0.98504996 1.0889882
0000f0 fb 4a 88 3f 8c 87 77 3f e6 a0 82 3f 83 de 79 3f
       1.0647882 0.96691203 1.0205352 0.9760515

body.block1.norm.bias f4 [64]
000000 e3 47 7d 3e 34 0e 95 3e 58 97 81 3e de b3 9c 3e
       0.24734454 0.291124 0.2531078 0.30605978
000010 c6 ac 16 3e 22 ac 04 3f 4e dc 7b 3e b4 34 72 3e
       0.14714345 0.51825154 0.24595758 0.23652917
000020 e0 18 a0 3e 57 65 24 3e 64 cb aa 3e 27 08 a7 3e
       0.31268978 0.16054283 0.333583 0.32623407
000030 ef 4a 91 3e b7 c1 98 3e 6b dd a2 3e 3d a7 a6 3e
       0.28377482 0.29835293 0.31809554 0.32549468
000040 16 27 78 3e 31 ad 97 3e 96 df eb 3d 75 0b 9a 3e
       0.2423366 0.29624322 0.11517255 0.30086866
000050 da 68 19 3e 94 66 64 3e 62 ac c6 3e e7 c4 cb 3e
       0.14981404 0.22304755 0.38803393 0.39798662
000060 47 ac 5c 3e ab 7a 72 3e d6 e6 2a 3e 8b d6 d0 3e
       0.21550094 0.23679607 0.1668962 0.40788683
000070 81 65 a3 3e 70 bd a6 3e a3 50 63 3e 93 72 eb 3e
       0.3191338 0.32566404 0.22198729 0.4598585
000080 8b 82 af 3e 5d 74 97 3e 0a 01 1a 3e b9 19 69 3e
       0.34279284 0.29580966 0.15039459 0.22763719
000090 21 37 b7 3e 6b 31 b7 3e 54 9c 92 3e 03 00 d8 3e
       0.35784248 0.3577989 0.28634894 0.4218751
0000a0 f3 f4 bd 3e a7 9e 9a 3e f8 2a 7a 3e 73 92 c2 3e
       0.37100944 0.30199167 0.24430454 0.38002357
0000b0 a7 38 06 3e cd c9 f4 3e 5a d3 4a 3e e8 23 c4 3e
       0.13107549 0.47810212 0.19807187 0.38308644
0000c0 5b 4c e0 3e ce c9 9b 3e 40 fc 26 3e a2 a2 7a 3e
       0.43808255 0.30427402 0.16307163 0.24476102
0000d0 fd f1 b6 3e 5b c1 fc 3e 8a 67 fa 3e ea 54 06 3f
       0.35731497 0.4936627 0.4890712 0.5247332
0000e0 20 18 5a 3e 71 18 93 3e c7 c2 8b 3e 22 24 df 3d
       0.21298265 0.28729585 0.2729704 0.10895564
0000f0 9e fd 65 3e 12 69 9c 3e 08 ce 64 3e 95 bb 83 3e
       0.22460029 0.30548912 0.2234422 0.2572905

body.block1.norm.running_mean f4 [64]
000000 c5 4a f4 be d6 85 e1 be b7 4c e2 bf 95 89 37 bf
       -0.47713295 -0.4404742 -1.7679662 -0.7169431
000010 98 e3 3c bf ba 30 9b bf 71 f4 fb be d1 d7 c5 3f
       -0.7378478 -1.2124245 -0.49209931 1.5456487
000020 4d e8 2e bf 95 52 80 ba 43 77 c1 bf 3a fd 5e bf
       -0.6832321 -0.0009790236 -1.5114521 -0.87105143
000030 fa d0 1a bf 4d 4b b1 3f 83 05 17 3e 25 e4 3e bf
       -0.6047512 1.3851105 0.14748196 -0.7456687
000040 60 b7 b6 3f 84 c8 d7 be 0e ba 93 be 60 eb 91 be
       1.4274712 -0.4214517 -0.28852886 -0.2849989
000050 4f f9 e6 3e 4c 52 9b bf ec 8d 75 bf d2 38 58 bf
       0.45112082 -1.213449 -0.9591968 -0.844617
000060 6d 28 9e bf e1 59 c8 bf 68 ef 52 be ad 4b d0 bd
       -1.2356087 -1.5652429 -0.20599139 -0.10170684
000070 4e 41 06 bf 60 8a 17 bf 26 55 7d 3d 06 85 af be
       -0.524434 -0.5919552 0.061848782 -0.34281176
000080 32 bf 26 bf 2f d9 0f 3f ed 0b 29 bf 03 e0 1b bf
       -0.6513549 0.5619077 -0.6603382 -0.6088869
000090 37 d1 48 bf 93 2b 9d be ab e8 9b 3f 2d 07 00 c0
       -0.78444237 -0.30697307 1.218038 -2.000438
0000a0 8d 79 4d bf 62 7c 37 bf b4 7a a0 3e fb 79 45 bf
       -0.80263597 -0.7167417 0.31343615 -0.7713925
0000b0 74 6f 27 3e 04 26 ce bf 13 ae 9d 3f 73 28 0e 3e
       0.1635111 -1.6105351 1.2318748 0.13882618
0000c0 e4 1a a2 be c6 45 3f 3d ec 48 61 bf 53 55 8a be
       -0.3166114 0.0466974 -0.88001895 -0.27018222
0000d0 3c fa cf be c5 53 3b be 39 d7 5e bf 35 dd 0b 3e
       -0.406206 -0.18293674 -0.87047154 0.13658603
0000e0 7a a0 67 be 75 e1 b4 3f 5e c9 8f be cc 01 ff 3d
       -0.2261981 1.4131304 -0.28083318 0.124515146
0000f0 ca 6f c5 be 88 d3 83 bf 44 e6 eb bd 67 fb 17 3e
       -0.3856185 -1.0298929 -0.11518529 0.14841996

body.block1.norm.running_var f4 [64]
000000 32 fc d0 3e b3 52 af 3e 1a ca e5 3e 1a a8 76 3e
       0.4081741 0.34242782 0.44880754 0.24087563
000010 27 bb a0 3e bc 77 56 3e ea 2e c7 3e b2 51 7e 3f
       0.31392786 0.20944113 0.3890298 0.9934341
000020 e5 76 58 3e 9c 91 a1 3e a7 aa ff 3e a9 1e b4 3e
       0.21139105 0.31556404 0.49934885 0.35179642
000030 7b f1 bb 3e 40 1a 8d 3e 7e 26 c8 3e f0 ee 95 3e
       0.36707672 0.2755909 0.39091867 0.29283857
000040 9c ae 26 3f 99 0b bd 3e fc 3d a3 3e 74 de 95 3e
       0.6511018 0.3692291 0.31883228 0.2927128
000050 12 7d ce 3e eb 29 fe 3e cd a4 74 3e 8f e4 6b 3e
       0.40329796 0.49641356 0.23890992 0.23036407
000060 46 d7 2d 3f ae 37 7e 3e e7 62 8d 3e dd 76 b6 3e
       0.67906606 0.24825928 0.2761452 0.3563756
000070 b9 be b4 3e 9c 32 ca 3e 8d 1a f0 3e c9 93 60 3e
       0.3530176 0.39491737 0.46895257 0.21931376
000080 64 de 83 3e 70 4a 09 3f ab c2 b6 3e 38 ea 53 3f
       0.25755608 0.5362921 0.35695395 0.82779264
000090 b0 49 ae 3e 9f 7b 5a 3e 2f 41 11 3f 5e 13 d8 3e
       0.34040594 0.2133622 0.5674009 0.42202276
0000a0 3a 59 56 3e c0 41 3d 3e 8e 0c 05 3f 1b 04 cc 3e
       0.20932475 0.18482113 0.5197228 0.39846882
0000b0 aa 91 9d 3e 47 c1 e5 3e 8a 7a 90 3e d4 35 68 3e
       0.30775195 0.4487402 0.2821849 0.22676784
0000c0 c8 36 ae 3e 02 77 23 3f 65 df b2 3e 5c d7 98 3e
       0.3402617 0.63853467 0.34936062 0.29851806
0000d0 71 3a 95 3e e3 21 b0 3e 42 47 84 3e bc d6 57 3e
       0.2914615 0.34400854 0.25835615 0.21078008
0000e0 51 31 5d 3e fe 16 06 3f f9 ad b6 3e bc 6c c6 3e
       0.21600844 0.52378833 0.35679606 0.38754833
0000f0 59 76 dd 3e 6d 38 1f 3f a5 57 9e 3e 89 ea 85 3e
       0.43254355 0.62195474 0.30926242 0.261555

body.block2.conv.weight f4 [64, 64, 3, 3]
000000 5b 85 70 bd ae 5e 63 3d a2 93 f2 bc c0 26 03 3d
       -0.058720928 0.055510215 -0.029611412 0.032019377
000010 e1 53 2a bc 8a 1d cc bb bc 0e 67 bb a7 06 92 3c
       -0.010395975 -0.0062291073 -0.0035256585 0.017825438
000020 6c 5a cd 3a 94 a2 e6 3c 3e 0f 4d bd 61 07 63 3d
       0.0015667207 0.028153695 -0.050063364 0.05542696
000030 65 4b 52 3d 12 32 58 bc 18 2b 48 3c 71 40 86 3d
       0.051341433 -0.013195531 0.012217306 0.0655526
000040 ec e9 07 3d 90 50 aa bc ee f5 9a 3d ed ac 1b 3b
       0.03318207 -0.020790368 0.075664386 0.0023754195
000050 50 fe ce 3c 2e 08 04 3d f6 70 2e bd c4 39 f0 3c
       0.02526775 0.032234363 -0.042588197 0.02932442
000060 39 cd d4 3c 07 4f 43 bd d0 12 92 3d 4e 36 18 3d
       0.025976764 -0.04768279 0.071324944 0.037161164
000070 69 d0 e7 3c ee 25 e9 3c 93 66 bb bc d7 e0 44 3c
       0.02829762 0.02846047 -0.02287606 0.012016497
000080 8a 58 09 bc a3 23 a1 3b cb a1 96 bd 17 23 26 3d
       -0.008382926 0.0049175783 -0.07355078 0.040560808
000090 40 98 98 bc d4 b0 12 3c ac 5e f1 bc b5 ba 23 bd
       -0.018627286 0.008953292 -0.029464088 -0.03997298
0000a0 e2 5d b0 3c 28 20 8b bc dd a0 33 3c 15 9e 87 bd
       0.021529142 -0.016983107 0.010963646 -0.06621949
0000b0 fc 3a 55 bc 07 92 50 3d df e7 c9 bc e9 5f e6 bc
       -0.013014551 0.050920513 -0.024646698 -0.028121905
0000c0 93 f0 b4 3c b7 05 e8 bc 12 c2 05 3b 4a bb 08 3c
       0.022087371 -0.028323038 0.0020409864 0.008345434
0000d0 59 e5 01 bd c5 d4 44 bd 73 d6 54 bd a9 60 11 bd
       -0.031712864 -0.048054475 -0.051962327 -0.035492573
0000e0 b6 64 8c 3d 66 5e 0e bd 8f 0e 27 bd 1d 7f b7 3c
       0.068551466 -0.034757994 -0.04078537 0.02239948
0000f0 38 ef 84 bc 47 56 51 ba 49 ce 47 bd 6f 06 25 bc
       -0.01622735 -0.00079855736 -0.048780713 -0.010072335
000100 7c ff 46 3c fa 0e b5 bc 75 2c 2b bb 6d 66 ff bc
       0.012145873 -0.022101868 -0.0026119028 -0.03117677
000110 20 c8 d2 bc 3c a0 99 3d 97 7f 24 3d bc 67 94 3c
       -0.025730193 0.075012654 0.04016074 0.01811587
000120 30 4b 0a 3d b2 62 aa 3c 1d 30 5b bc 97 0b 8b 3c
       0.03376311 0.020799015 -0.01337817 0.0169733
000130 47 7a ab bc 03 9c 90 3b 0f cd 68 3c 0c 4a 5e 3c
       -0.02093233 0.0044131293 0.014209046 0.013567459
000140 11 1e 66 3c 6d 9f c8 3c e2 a4 c3 ba 81 0c 1b bd
       0.014045254 0.024490083 -0.0014926458 -0.03785372
000150 93 c7 9c 3c 9a 15 5a bc 9c 4e 9a bd 24 f7 10 bd
       0.019138133 -0.013310814 -0.07534525 -0.03539194
000160 f4 8f 20 bc c4 ea 04 bd 45 b0 9d 3b a8 7d 25 3c
       -0.009799946 -0.032450452 0.0048122727 0.01010076
000170 4b e2 4a bd bc 51 bf bb fe e5 59 bd 60 ab 93 3c
       -0.049532216 -0.005838601 -0.053197853 0.018026054
000180 e2 3a 0a 3c df 23 aa 3c 7b d8 1d bc 4f 8f 6d 3d
       0.00843689 0.020769058 -0.0096341325 0.057997998
000190 6e b4 22 3c 4f 60 fe bc 04 97 d0 bc 8e 78 6f 3c
       0.009930713 -0.031051783 -0.025462635 0.014616145
0001a0 1d 14 16 3d 4d 19 cf bb 21 84 7a 3d b7 e1 a1 3c
       0.036640275 -0.0063201548 0.061161164 0.01976095
0001b0 0a f3 0c bd c1 96 24 bd d4 13 35 3c 26 ce e2 3c
       -0.034411468 -0.040182833 0.011052091 0.02768619
0001c0 9b 0d 56 3c f3 92 fa bb 97 42 96 bc 54 ff 21 bc
       0.013064767 -0.0076469122 -0.0183423 -0.009887535
0001d0 1d c7 06 bc 3a 57 cd 3c 99 3b 49 bd 9a 04 e9 bb
       -0.008226183 0.025066007 -0.049129102 -0.0071111443
0001e0 ea da 4c 3d 8b 9d 93 bc 22 1e 1c 3d 1b d4 42 bd
       0.05001346 -0.018019458 0.038114674 -0.04756556
0001f0 23 4a 2b bd ab 27 54 3d 39 d5 97 bb 7b e6 71 bd
       -0.04181875 0.051795643 -0.0046335724 -0.059057694
000200 6f be 29 3c 5e 5d d0 bc 2b d4 30 bd 8d 17 58 bd
       0.010360344 -0.025435146 -0.04317109 -0.052756835
000210 c9 79 87 3b 0f dd da bb cd ca 88 bc a6 f5 8c 3d
       0.004134391 -0.0066791843 -0.016698265 0.06882791
000220 ad 72 e2 bc a7 36 71 3c 5a d4 bb bb 77 a1 79 bc
       -0.027642572 0.014722503 -0.0057321014 -0.01523625
000230 2a 61 63 3c c5 be 55 3d cb d7 27 3c fd 81 b4 bc
       0.013878146 0.052183885 0.01024432 -0.02203464
000240 c3 1c e8 bc 16 6b 3a bc 34 3a 09 bd 9a 3b 03 bd
       -0.028334027 -0.01137807 -0.033502772 -0.032039262
000250 b3 a8 25 3b 90 ce b5 3c 68 d3 26 3c 15 2c 94 3d
       0.0025277555 0.022193223 0.010182239 0.072349705
000260 f1 58 1a 3d 36 af c1 bc a6 e4 1b bd ca 8c 4a 3c
       0.037682477 -0.023643117 -0.038059853 0.012362668
000270 1d e3 87 bd e2 91 af bb f7 0b 21 bd 46 73 6e bd
       -0.06635115 -0.0053579668 -0.03931805 -0.058215402
000280 36 6d 21 bd fb 2f 36 3c 1f 3a 66 bc 5d 45 f0 bb
       -0.039410792 0.011119838 -0.014051943 -0.0073324875
000290 ad cf 11 bb 38 2b bd ba d7 91 81 bd e7 06 81 bc
       -0.0022249029 -0.0014432436 -0.06326645 -0.015750362
0002a0 72 1a 7b 3c 33 b3 1b 3d 98 9d f3 3c a3 de 34 bd
       0.015326129 0.038012695 0.029738232 -0.044157635
0002b0 ef 67 0a bd 11 3b 67 bd b7 ae 86 bd ae 82 94 3b
       -0.033790525 -0.056452814 -0.06576293 0.00453218
0002c0 1a 21 5d bb 52 92 7b 3c 37 d0 46 3b 32 97 0f bd
       -0.0033741654 0.01535471 0.0030336508 -0.0350563
0002d0 29 a9 dc 3c 14 98 9c 3b 18 fd 9e bc 6c 40 7f bd
       0.02693613 0.0047788713 -0.019407794 -0.062317297
0002e0 47 34 8c 3c 61 d0 8e bc 96 da c1 bb 69 75 d7 bc
       0.017114772 -0.017433347 -0.00591595 -0.026301103
0002f0 2e 42 08 3d 07 f2 0b bc 35 be c3 3d 53 01 61 bc
       0.03326624 -0.0085415905 0.095577635 -0.013733226
000300 3b 73 d2 3a d8 02 f2 bb a1 fe 23 bd f0 ab 29 bd
       0.001605607 -0.007385593 -0.040037755 -0.041423738
000310 06 26 d2 3c 9d 08 2a 3d d0 82 40 3d 35 07 87 bd
       0.025652897 0.04151212 0.046999753 -0.065931715
000320 aa 58 d5 3c 26 73 62 3d 2d b5 57 3b a5 c6 00 3c
       0.026043255 0.055285595 0.0032914386 0.007859861
000330 22 62 79 bc 89 de 2d bd d8 21 e5 3c 67 7a 4e bd
       -0.015221151 -0.042448554 0.02797024 -0.0504097
000340 91 a0 12 3c f5 c8 a4 3c 6d 43 b1 bd e1 1c 88 bb
       0.008949415 0.020115355 -0.086554386 -0.0041538333
000350 72 e9 10 3c bd 6f ad bb df 9c 36 3c 91 8e fb 3c
       0.00884472 -0.0052928613 0.011145799 0.03070763
000360 ac 2c 82 bd 47 b7 fb bb 00 4c 50 3d 51 9b e9 bb
       -0.06356177 -0.0076817605 0.05085373 -0.007129111
000370 70 97 39 bc 13 dd c1 3d f9 42 a9 bc de 2b 91 3d
       -0.011327609 0.09465995 -0.020661818 0.07088445
000380 29 bd 29 3d 56 4b eb bc 3d bd 47 3d 08 01 20 bd
       0.041440163 -0.028722446 0.048764456 -0.039063483
000390 fc 01 12 3d 47 8e e4 3b 81 5c 2f bd f6 01 61 3d
       0.035646424 0.0069749686 -0.042812828 0.05493351
0003a0 de 3e 97 bb fa 10 6a 3d be 23 01 bc 6e 4b 2e bb
       -0.0046156486 0.057145096 -0.007882057 -0.0026595253
0003b0 98 61 2a bd 9f 47 63 bd eb 2e fe ba ff a5 2c bd
       -0.04159698 -0.055488225 -0.0019392645 -0.042150494
0003c0 34 13 6e bb 6a 63 c4 3b f0 56 b4 bd 62 6c a5 3c
       -0.0036327364 0.0059932964 -0.088056445 0.020193283
0003d0 07 23 24 3d e3 e4 b0 3b 40 9e 13 3d e5 39 4d bd
       0.040072467 0.005398379 0.03603959 -0.05010404
0003e0 5c 58 5c bd 50 93 5b 3d 9a c7 54 3d e9 d9 74 bc
       -0.053795204 0.053607285 0.051948167 -0.014944532
0003f0 1e fa ac bb 47 ef 8d bc db 62 12 bd 2d 88 a1 3c
       -0.0052788397 -0.01732601 -0.035738807 0.019718254

body.block2.conv.bias f4 [64]
000000 16 01 48 3c 0a c3 61 3d dc 8b 90 bd 80 02 bd bc
       0.01220729 0.055117644 -0.07057926 -0.023072481
000010 d3 6b ec bb a6 54 e2 3c 4e 7d d5 3c e8 3c 8b bc
       -0.007215002 0.027628254 0.026060726 -0.016996816
000020 36 35 c4 3c 8e 84 d8 bc 54 af 82 bc 61 91 24 bd
       0.023951154 -0.026430395 -0.015952744 -0.040177707
000030 7d 9d d8 ba 7a d8 07 3d 54 e8 ff bc 30 a0 1a 3c
       -0.0016526427 0.033165433 -0.031238712 0.009437606
000040 81 a7 0d 3d 58 56 03 3d 5a 35 64 bb de f7 38 bd
       0.034583572 0.032064766 -0.003482184 -0.04515826
000050 5f 06 98 3c b0 f6 c8 bc ca cc df 3b 07 36 b0 bb
       0.018557725 -0.024531692 0.0068298327 -0.0053775343
000060 c9 15 29 3a 5c d1 c3 3c 54 5d 76 bb 17 de 78 bb
       0.00064500846 0.023903541 -0.003759225 -0.0037974173
000070 47 83 14 bc 2f db ca 3c a6 56 cb bc b6 aa 83 3c
       -0.009064502 0.024762718 -0.02482159 0.016072612
000080 53 e8 21 3d 1b 7d f3 3c dc 9d 0e 3d eb c8 06 bc
       0.039528202 0.02972274 0.034818515 -0.0082266135
000090 2a f6 45 bc e0 47 e4 3b 55 86 8f b9 b4 5e 03 3d
       -0.012082616 0.006966576 -0.0002737517 0.032072738
0000a0 2f 6b d4 bb 16 60 3c 3d 37 85 9a bc f5 f8 33 bc
       -0.006482504 0.045990072 -0.01886235 -0.010984649
0000b0 7b 27 0e bd 4d ab 4b bd 91 66 9b bc 2d a5 94 bc
       -0.03470562 -0.049723912 -0.018969806 -0.018145168
0000c0 8d 02 90 3b 14 b6 3a bd 3a 0d 0b 3c 5a 9a 9c 3c
       0.0043948353 -0.0455838 0.00848704 0.01911657
0000d0 9e 04 12 bb ea aa 29 bc 55 83 40 bc 06 9c c4 bc
       -0.0022280584 -0.0103556905 -0.011750062 -0.024000179
0000e0 bd 37 1c bc af 24 2f 3c 61 b9 d1 bc 1e 43 03 bd
       -0.009534773 0.010689898 -0.02560109 -0.03204643
0000f0 6d ff 12 3d bb 84 3a bd 5b 84 0a bc 86 8e b3 bc
       0.035888124 -0.045536738 -0.008454408 -0.021918546

body.block2.norm.weight f4 [64]
000000 db 15 82 3f e0 38 6c 3f 49 80 7d 3f 50 98 7e 3f
       1.016292 0.92274284 0.9902387 0.9945116
000010 97 6d 78 3f 34 91 7a 3f e9 4c 80 3f 29 b8 67 3f
       0.9704222 0.9787781 1.0023471 0.9051538
000020 99 32 7a 3f b2 50 87 3f 26 a2 6e 3f ae 32 83 3f
       0.97733456 1.0571501 0.9321617 1.0249841
000030 23 0b 72 3f 31 14 6b 3f 9b 0c 7c 3f c9 01 76 3f
       0.94548243 0.91827685 0.98456734 0.96096474
000040 eb dd 80 3f 17 57 73 3f ca cf 5d 3f 73 5a 7d 3f
       1.0067724 0.95054764 0.86645186 0.9896614
000050 2a 24 7f 3f 4a 07 85 3f ed ba 83 3f e2 22 60 3f
       0.99664557 1.039285 1.029142 0.87553227
000060 9e 2e 7c 3f b8 d5 71 3f f0 a0 79 3f 96 5a 7f 3f
       0.9850863 0.94466734 0.97511196 0.997476
000070 cf 2e 82 3f d9 7f 73 3f 1e 95 64 3f d1 92 83 3f
       1.0170535 0.95116955 0.89290035 1.027918
000080 c1 1f 76 3f d6 37 7b 3f 07 c0 6c 3f de a8 5d 3f
       0.961422 0.98132074 0.9248051 0.86585796
000090 9a 59 85 3f 76 45 79 3f cc 87 84 3f 27 73 7c 3f
       1.0417969 0.97371614 1.0353942 0.9861321
0000a0 6b 87 81 3f 41 c5 6d 3f e3 58 6f 3f 74 0e 81 3f
       1.0119451 0.9287911 0.93495005 1.0082536
0000b0 29 56 81 3f e6 66 77 3f 8e 69 71 3f d0 f0 6b 3f
       1.0104419 0.96641386 0.9430169 0.92164326
0000c0 22 78 7e 3f 1c 5c 68 3f cc c9 76 3f dc 97 62 3f
       0.9940206 0.9076555 0.9640167 0.8851297
0000d0 32 da 78 3f cb 03 7d 3f c0 4d 7e 3f 29 70 84 3f
       0.9720794 0.9883391 0.9933739 1.0346729
0000e0 62 94 67 3f 6a 6c 61 3f 15 50 7f 3f d6 3c 74 3f
       0.9046079 0.8805605 0.9973157 0.9540533
0000f0 84 70 74 3f 80 14 70 3f aa c1 7f 3f b7 74 81 3f
       0.95484185 0.9378128 0.9990488 1.0113744

body.block2.norm.bias f4 [64]
000000 b5 eb ae 3e b6 8a a1 3e a9 9c e0 3e 71 ba 87 3e
       0.34164205 0.3155114 0.43869522 0.2650943
000010 cd 01 d3 3e 31 06 08 3e c8 ad 62 3e e7 45 e5 3e
       0.4121231 0.13283612 0.22136605 0.44779894
000020 ab 23 5a 3e 09 d0 6e 3e 00 67 b1 3e 8c 73 a2 3e
       0.21302669 0.23321547 0.34648895 0.3172878
000030 39 19 6c 3e ac b1 a6 3e ad 5c c8 3e 9e b0 bc 3e
       0.23056497 0.32557428 0.39133206 0.36853498
000040 24 e3 cb 3d 10 64 9a 3e 5d c3 ba 3e 17 ff 3e 3e
       0.09955433 0.30154467 0.36477175 0.18651997
000050 7e d6 9b 3e 9d f0 9f 3e a8 45 da 3e 0c a4 c6 3e
       0.30437082 0.3123826 0.42631269 0.38797033
000060 53 9a de 3e 65 71 4e 3e 18 ba d8 3e b9 6c 5f 3e
       0.43477115 0.20160444 0.42329478 0.21818818
000070 48 6e 08 3e 17 68 cc 3e bd 8e ea 3e 7b cf 41 3e
       0.13323319 0.39923164 0.45812026 0.18926804
000080 45 7f 65 3e e7 11 89 3e 99 d3 f8 3e f7 5e 59 3f
       0.2241183 0.2677147 0.48598936 0.8491053
000090 35 ce 70 3e 80 5f a1 3d d1 ad 40 3e a6 65 1f 3e
       0.23516162 0.07879543 0.18816306 0.1556612
0000a0 ba 1b ac 3e 3f 5f e9 3e 30 d9 bf 3e cc b6 8b 3e
       0.33614904 0.4558048 0.37470388 0.272879
0000b0 ef 8c 49 3e 56 98 4a 3e b5 84 94 3e 0a ae b7 3e
       0.19682668 0.19784674 0.29007497 0.3587497
0000c0 f1 d3 7d 3e f3 97 c4 3e 5a 10 86 3e 5d 2d f3 3e
       0.2478788 0.38397178 0.2618435 0.47495547
0000d0 e2 14 99 3e 7c 67 c0 3e e8 3d 17 3e ae 8e 9a 3e
       0.29898745 0.37578952 0.14769709 0.3018698
0000e0 3c 36 a7 3e ca 98 c5 3e 14 ec 80 3e 93 b7 0e 3e
       0.32658565 0.3859313 0.25180113 0.13937216
0000f0 64 6b 03 3f c5 e1 4e 3e 67 bb 86 3e de b8 53 3e
       0.5133574 0.20203312 0.26314852 0.2067599

body.block2.norm.running_mean f4 [64]
000000 c8 02 97 be 87 30 ad 3e a4 fb f1 be ff bc 00 3f
       -0.2949431 0.33826086 -0.472623 0.50288385
000010 eb 32 4a 3f 6a 07 fe be 7f 85 a3 3c be 8c 17 be
       0.78983945 -0.4961503 0.019961117 -0.14799783
000020 13 ab 36 3d 8a 18 d8 be 47 df 0e bf 46 18 2a 3e
       0.044596743 -0.42206222 -0.55809444 0.16610822
000030 c0 cf 8b be a3 48 55 bf e7 23 9a 3e a2 e4 10 be
       -0.27306938 -0.8331396 0.30105516 -0.14149716
000040 c5 1e a0 bf 2e af 95 be 2a 63 54 bf 43 db 1d be
       -1.250939 -0.29235214 -0.8296381 -0.15415673
000050 fa d4 59 bf 4d cb 24 be 03 30 d1 3e c0 bf 2c be
       -0.850906 -0.16093178 0.40856943 -0.16870022
000060 e2 b5 22 bf d4 7f 74 bf 37 88 e8 be b9 e9 8c be
       -0.6355878 -0.9550755 -0.45416424 -0.27522066
000070 4c 81 11 bd e3 ff ce be 4d 67 02 bf 00 f8 b0 bf
       -0.035523698 -0.404296 -0.50938874 -1.3825684
000080 39 e9 96 be 3b e0 77 3e e6 fc cc bc 4c 27 94 bf
       -0.2947481 0.24206631 -0.025022935 -1.1574492
000090 2f a7 d1 3f 7a df c1 be 6d e8 8a 3d e4 6a 4d be
       1.6379145 -0.37865812 0.06782613 -0.20060307
0000a0 bb cb b0 be 2e 41 f0 3d 5f 5b c3 3d 02 ab f4 3d
       -0.34530434 0.11731182 0.09538912 0.1194668
0000b0 ad 00 90 bd c1 53 9f bd 9a 4a aa bc bd f4 3d bf
       -0.07031379 -0.07779647 -0.020787526 -0.74201566
0000c0 de 35 e9 be 5f 85 1f be de 5d 25 bf 39 36 96 bf
       -0.4554891 -0.15578221 -0.64596355 -1.1735297
0000d0 4e 2d 3c bf c5 e0 01 bf 57 dc 65 bb 96 6a 13 bf
       -0.7350663 -0.50733596 -0.003507396 -0.5758451
0000e0 67 db 0b bf f4 4e b1 be 37 13 41 be 94 8a 51 bf
       -0.54631656 -0.3463055 -0.18854986 -0.8185208
0000f0 0f 2f b9 be 0e 49 68 be 66 6b 2c 3f fe 93 af bf
       -0.36168715 -0.22684118 0.67351377 -1.3717039

body.block2.norm.running_var f4 [64]
000000 6e ec 21 3f 18 a5 71 3e 2a 83 c9 3e d6 44 b1 3e
       0.6325139 0.23598135 0.39357883 0.3462283
000010 f6 7a dc 3e d8 ea b7 3e a8 b7 c7 3e 2a d8 40 3e
       0.43062562 0.3592136 0.39007306 0.1883246
000020 95 29 b6 3e c2 c9 24 3f d0 a1 af 3e ac ad a7 3e
       0.355786 0.6437036 0.3430314 0.3274969
000030 56 73 7c 3e 78 59 8a 3e fa 03 b9 3e 28 69 ca 3e
       0.24653372 0.27021384 0.36135846 0.39533353
000040 f9 56 ad 3e 34 51 8f 3e 6c 2a 4a 3e bd 92 a5 3e
       0.33855417 0.2799164 0.19742745 0.32338515
000050 10 4a e7 3e 20 45 e2 3e 43 58 00 3f 45 71 8e 3e
       0.45173693 0.44193363 0.50134677 0.27820793
000060 d5 8b bc 3e f8 42 87 3e ba 71 e8 3e 1c 67 8f 3e
       0.36825433 0.2641828 0.45399266 0.28008354
000070 04 e1 af 3e 02 f4 a6 3e f0 26 d1 3e 93 57 b8 3e
       0.3435136 0.32608038 0.4085002 0.36004314
000080 b1 05 81 3e a4 bc c2 3e 2e d7 7a 3e 33 24 fa 3e
       0.25199655 0.38034546 0.24496147 0.48855743
000090 02 8f 2f 3f e3 60 d7 3e e9 7c b0 3e 98 63 a5 3e
       0.6857759 0.42066106 0.344703 0.32302547
0000a0 f0 f0 ee 3e ec d0 0f 3f 62 ef 7c 3e 30 66 d2 3e
       0.46668196 0.56178164 0.24700692 0.41093588
0000b0 50 bb b7 3e d7 ec 94 3e ca be c2 3e 7f 32 a0 3e
       0.35885096 0.29086944 0.38036186 0.31288525
0000c0 eb 55 d7 3e 1c c5 62 3e c3 f6 76 3e 0e 35 8b 3e
       0.42057738 0.22145504 0.2411757 0.27188915
0000d0 2a 18 91 3e 27 b0 ff 3e b1 c1 e6 3e 06 20 16 3f
       0.28338748 0.4993908 0.4506965 0.58642614
0000e0 5b c1 77 3e 01 2f a6 3e ab a9 9f 3e ec bb 7c 3e
       0.24194853 0.32457736 0.31184134 0.24681062
0000f0 ef 31 f0 3e 49 5e 8a 3e 0a ac c3 3e 68 b2 af 3e
       0.46913096 0.2702506 0.38217193 0.343158
