TrainedModels/smk1/scale_factor=0.750000,alpha=10/4/netG.pth (torch, 474370 bytes, 29 tensors)

channel.fc1.weight f4 [4, 64, 1, 1]
0	0x3b05ad62	0.0020397534
1	0xba1d59a1	-0.00060024305
2	0xbc8a8b4d	-0.016912127
3	0x3bd85da4	0.0066029597
4	0xbb30ceb4	-0.0026978673
5	0xbc9162b1	-0.017747255
6	0x3c5e1e00	0.013556957
7	0xbb3c3f27	-0.0028724165
8	0xb97a8fd3	-0.00023895437
9	0x3b11cdfd	0.0022248023
10	0xbd415461	-0.04719961
11	0x3d031404	0.03200151
12	0x3b670944	0.0035253325
13	0xbc4a8ca4	-0.012362633
14	0x3b855f04	0.0040701646
15	0x3d00ab7d	0.031413544
16	0x3cede4bc	0.029039733
17	0x3c88ca1f	0.016697941
18	0x3bc8f01b	0.0061321384
19	0xbcbe35b4	-0.023218967
20	0xbcdbf9ae	-0.026852455
21	0xbae075b3	-0.0017124921
22	0xbbb6f8ca	-0.005583857
23	0xbcb072a5	-0.021539042
24	0xbb58906f	-0.0033045074
25	0xbd313145	-0.043259878
26	0xbaacbacf	-0.0013178232
27	0xbc0fe8a2	-0.008783491
28	0xbd7b7413	-0.061389994
29	0x3c3bcb10	0.011461988
30	0xbc97185b	-0.01844423
31	0x3d50902c	0.050918743
32	0x3c991e6b	0.018691262
33	0x3c83fff5	0.01611326
34	0xbc1257bf	-0.008932053
35	0xbbd530f2	-0.006506079
36	0xb6cce335	-6.106124e-06
37	0x3c89aaae	0.01680502
38	0xbd0d6626	-0.034521244
39	0x3c23e2d0	0.010002807
40	0x3c49e5ce	0.012322856
41	0xbc96bc42	-0.018400315
42	0x3d544be5	0.05183019
43	0xbcbcc354	-0.023042358
44	0x3cdc2d10	0.026876956
45	0x3ce14732	0.027499769
46	0xbcc865b7	-0.024462564
47	0xbd005540	-0.0313313
48	0x3c4bdba4	0.012442503
49	0xbaea3257	-0.0017867786
50	0xbb6c9cc7	-0.0036104189
51	0xbc8803aa	-0.01660331
52	0xbd0f9fd2	-0.035064526
53	0x3b675582	0.003529877
54	0x3cc28397	0.023744388
55	0x3cc39de5	0.023879
56	0xbd3acf82	-0.04560805
57	0xbb614e90	-0.0034379102
58	0xbc15194a	-0.009100268
59	0x3c918d7d	0.017767662
60	0xbc541c41	-0.012946189
61	0xbb9a28bc	-0.004704563
62	0xbccd774b	-0.025081297
63	0xbb973064	-0.004613923
64	0x3c8c7abf	0.017148374
65	0xbb61cb59	-0.003445348
66	0x3bb947be	0.0056543043
67	0xbc41309a	-0.011791373
68	0x3d069675	0.03285833
69	0x3d149d60	0.036282897
70	0x3d0647e9	0.032783423
71	0x3b900ce7	0.0043960693
72	0x3d23aaaf	0.0399577
73	0xbc8f6f53	-0.017509138
74	0x3ccd277b	0.02504324
75	0x3b924920	0.0044642836
76	0xbd0a9bf8	-0.03384015
77	0x3cc92c43	0.024557238
78	0x3cd21152	0.025643025
79	0x3d0df875	0.034660775
80	0x3ce5b95d	0.02804249
81	0x3cb12692	0.021624837
82	0x3c68bed9	0.014205658
83	0xbc44c41a	-0.012009645
84	0xbc97989e	-0.01850539
85	0x3cbd09ff	0.023076056
86	0xbc40b184	-0.011761073
87	0xbcfbd969	-0.030743318
88	0x3c34eb83	0.0110424785
89	0x3ccb5c0f	0.02482417
90	0x3c3a1651	0.01135786
91	0xbb361139	-0.0027781262
92	0x3cb29195	0.021797935
93	0xbc07c920	-0.008287698
94	0x3c95259f	0.018206416
95	0x3d0afbf8	0.033931702
96	0x3cfa8cf5	0.030584792
97	0x3bc8135f	0.006105825
98	0x3d35068b	0.044195693
99	0xbccabf0b	-0.0247493
100	0xba9f1b75	-0.001213892
101	0x3b9001ba	0.004394737
102	0x3cbd90cb	0.023140332
103	0xbce61d63	-0.028090185
104	0x3c9cf4c8	0.01915969
105	0x3ac48c1f	0.0014995373
106	0xbb189017	-0.0023279244
107	0x3a63fce5	0.0008697047
108	0xb9d73167	-0.00041044803
109	0xbbcf8761	-0.006333277
110	0xbc26a4c6	-0.010171121
111	0x3c1db2cd	0.009625149
112	0x3cc9f411	0.024652513
113	0x3d53b2fb	0.05168436
114	0x3d38f21c	0.04515277
115	0xbc9011c7	-0.017586602
116	0x39e95440	0.00044503994
117	0xbc68b378	-0.014202945
118	0xbb98e0ea	-0.0046654837
119	0x3d1e1cb4	0.038601592
120	0xbc02001f	-0.007934599
121	0xbc84efb1	-0.016227575
122	0xbcc22ab1	-0.023701997
123	0x3b252d47	0.002520399
124	0x3c876552	0.016527805
125	0x3d19c55e	0.03754174
126	0x3b95fe66	0.004577446
127	0xbbe05b38	-0.0068468116
128	0x3d5761af	0.052583393
129	0x3c344e1b	0.01100495
130	0x3d00d1d1	0.031450097
131	0x3ca44444	0.020052083
132	0x3db5cffb	0.0887756
133	0x3c23758c	0.009976756
134	0x3d8e7e52	0.069576874
135	0x3d841205	0.064487495
136	0x3cba74c9	0.022760766
137	0x3cd02f47	0.025413169
138	0x3d14ccd1	0.03632814
139	0x3ca1944d	0.019724036
140	0x3d0ae3df	0.03390872
141	0x3c47dc31	0.012198494
142	0x3caa58dc	0.020794325
143	0x3d39d0c4	0.04536511
144	0x3d8b8a3c	0.068134755
145	0x3d621926	0.055199765
146	0x3b6611ba	0.003510578
147	0x3c17bcee	0.009261353
148	0x3d2ce210	0.042207778
149	0x3cff3bd0	0.03115645
150	0x3d8038b1	0.06260813
151	0x3c8f4f64	0.017493911
152	0x3d0bcdc9	0.0341318
153	0x3cd50e67	0.026007844
154	0x3d2e9089	0.04261831
155	0x3cfebd81	0.031096222
156	0x3d1908cb	0.0373619
157	0x3cc88e48	0.024481907
158	0x3d41f097	0.047348585
159	0x3d084f50	0.033278763
160	0x3c8e81ad	0.017395819
161	0x3d2906a0	0.041266084
162	0x3d19932c	0.03749387
163	0x3c4cd5ef	0.012502178
164	0x3d1b34e0	0.037892222
165	0x3d403b88	0.046931773
166	0x3d2c02c9	0.041994844
167	0x3d47f58d	0.04881816
168	0x3d5bb606	0.053640388
169	0x3d67ef78	0.05662486
170	0x3dae8c7a	0.085228875
171	0x3ceaa63c	0.02864372
172	0x3d25ddbe	0.040494673
173	0x3cc6972d	0.024242008
174	0x3c823887	0.015896095
175	0x3d4c83ce	0.049930386
176	0x3d17f7d2	0.037101574
177	0x3d5150fc	0.051102623
178	0x3d62f445	0.055408735
179	0x3dbc563f	0.09196138
180	0x3cf6217e	0.030045267
181	0x3d296adf	0.041361686
182	0x3d857da5	0.065181054
183	0x3cdf300b	0.027244588
184	0x3c9231d0	0.017846018
185	0x3d0ef17e	0.034898274
186	0x3d70aea7	0.05876031
187	0x3bfc6318	0.0077022426
188	0x3cbeb981	0.023281815
189	0x3d768cce	0.060192876
190	0x3cbc09a4	0.022953816
191	0x3d11273f	0.03543782
192	0x3c52638a	0.012841115
193	0xbc31e733	-0.010858345
194	0xbce13be0	-0.027494371
195	0x3bb7d3bc	0.0056099575
196	0x3c059a04	0.008154396
197	0xbc4a60d0	-0.012352183
198	0xbc56b964	-0.013105724
199	0xbcabbaa4	-0.02096302
200	0xbd052552	-0.032506295
201	0xbce76e89	-0.02825095
202	0xbbbdf64a	-0.005797182
203	0xbcdc55b4	-0.026896335
204	0x3ad02f95	0.0015883321
205	0x3c7cf9e1	0.015440435
206	0x3c1dcb26	0.009630954
207	0xbd217a32	-0.039423175
208	0x3c25105c	0.010074701
209	0x3a0d1bee	0.0005382885
210	0xbc5b1ee5	-0.013374065
211	0xbc8692df	-0.016427455
212	0x3be1c39d	0.006889774
213	0xbb6ddfa5	-0.0036296633
214	0x3ca5bac7	0.020230664
215	0xbc5d6ef8	-0.013515227
216	0xbb884a23	-0.0041592284
217	0x3cb206e7	0.021731807
218	0x3c950887	0.018192543
219	0x3cd50e66	0.026007842
220	0xbc0c2db7	-0.008555821
221	0x3d664ec1	0.05622745
222	0x3c4fdfc5	0.012687628
223	0xbc12f5e6	-0.00896976
224	0x3b177ca0	0.0023115054
225	0xbcb95698	-0.022624299
226	0x3a26a092	0.00063563243
227	0xba32197d	-0.0006793959
228	0xbab444f3	-0.0013753459
229	0x3cb3da65	0.021954725
230	0x3cbe2475	0.023210743
231	0x3d1150d1	0.035477463
232	0xbd2d9e17	-0.042387094
233	0xbc10973b	-0.008825119
234	0xbd3f7b65	-0.046748538
235	0x3b86f5fb	0.0041186786
236	0x3c922fab	0.017844995
237	0x3b81bf2d	0.0039595575
238	0xbc3d980a	-0.0115718935
239	0x3c022654	0.007943708
240	0x3bc05dd8	0.005870562
241	0x3c360141	0.011108697
242	0xbbd527c0	-0.0065049827
243	0xbc333c32	-0.010939645
244	0x3b0d382a	0.002154837
245	0xbd138191	-0.036012236
246	0xbc703e5b	-0.014663304
247	0xbbb9bdd8	-0.005668383
248	0xbd16afa4	-0.036788598
249	0xba03f58c	-0.0005033843
250	0x3c4b9e3b	0.012427862
251	0xbb18f642	-0.002334014
252	0x3cab7a2b	0.020932278
253	0x3c91cb2d	0.017797077
254	0xbc734e93	-0.0148502765
255	0xbba41eea	-0.005008568

channel.fc2.weight f4 [64, 4, 1, 1]
0	0x3c88867e	0.016665693
1	0x3d922816	0.07136552
2	0x3da7e1e7	0.08197384
3	0xbb256bc5	-0.0025241238
4	0x3cb85d87	0.022505535
5	0x3d2d20ec	0.042267725
6	0x3d44fdfe	0.04809379
7	0x3be8e01e	0.007106795
8	0xba0d9824	-0.0005401394
9	0x3c9de3d7	0.019273682
10	0x3cc7cedd	0.024390632
11	0xbb9f62cf	-0.004864074
12	0xbb57c172	-0.00329217
13	0x3d611210	0.054948866
14	0x3d12a233	0.035799216
15	0x3b52a35e	0.0032140831
16	0x3ce8580b	0.028362295
17	0x3c6254e2	0.013814183
18	0x3c540540	0.012940705
19	0x3c796009	0.0152206505
20	0xbce6c5a2	-0.02817041
21	0x3cb808ea	0.022465188
22	0x3b3b6e92	0.002859984
23	0xbd009569	-0.03139249
24	0xbcc858e7	-0.024456454
25	0x3cff27b0	0.031146854
26	0xbbe2d54c	-0.0069223996
27	0xbc01a3d4	-0.007912595
28	0xbcbc96f8	-0.023021206
29	0x3d34d989	0.04415277
30	0xbca189e7	-0.019719077
31	0x3c5a6a8a	0.013331065
32	0x3c0f4f96	0.008747002
33	0x3c14551c	0.009053495
34	0x3d0c54b8	0.03426048
35	0x3d500064	0.050781623
36	0x3d0979b4	0.03356333
37	0x3d3552f5	0.044268567
38	0x3c7fe5c6	0.015618747
39	0x3cf9f0a2	0.03051025
40	0xbd61a877	-0.0550923
41	0x3c16e870	0.009210691
42	0xbcd08c34	-0.025457479
43	0xba22bca2	-0.0006207918
44	0x3cb3cb1e	0.02194744
45	0x3c9e1d1e	0.019300994
46	0x3c5424f8	0.012948267
47	0x3c28cef6	0.01030325
48	0xbd125669	-0.03572694
49	0x3d597969	0.0530943
50	0x3c9283f2	0.017885182
51	0x3bbc4ab7	0.0057462114
52	0x3c065502	0.008198978
53	0x3c6e24c6	0.014535135
54	0x3ce76c44	0.028249867
55	0x3cbcf0b2	0.023063991
56	0x39869196	0.00025666942
57	0x3d23e8e9	0.040017042
58	0xbb032c3c	-0.002001538
59	0x3d1071f4	0.035264924
60	0xbc020165	-0.007934903
61	0xbc5d77fb	-0.013517375
62	0xbc0e517a	-0.008686418
63	0x3cd4a7be	0.025958892
64	0x3c7fab83	0.015604856
65	0x3d949c2a	0.072563484
66	0x3d9f2d92	0.07772364
67	0x3bc1e960	0.005917713
68	0xbbbe7537	-0.005812313
69	0x3cbed47d	0.023294682
70	0xbc98d680	-0.01865697
71	0x3d300b42	0.042979486
72	0x3cf7d4a0	0.030252755
73	0xbc107cdf	-0.008818834
74	0x3dc74276	0.09729473
75	0xbc62bba0	-0.013838679
76	0xbc4bc060	-0.0124360025
77	0x3b62dd8b	0.0034616913
78	0xbb53ef19	-0.0032338558
79	0x3d1282ce	0.035769276
80	0xbd3d7a9b	-0.046259504
81	0x3ca070b2	0.019584987
82	0x3db7cdaf	0.08974778
83	0x3c1c6db6	0.0095476415
84	0x3cc931cf	0.024559883
85	0xbc8db379	-0.017297493
86	0x3d1f428d	0.038881827
87	0xbc5e4f7e	-0.013568757
88	0xbbb21fe5	-0.005435931
89	0x3c9bfb32	0.019040678
90	0x3d9c17fa	0.07621761
91	0xbcb58da0	-0.022162259
92	0xbd067f47	-0.032836225
93	0xbbd221cb	-0.00641272
94	0x3b78d030	0.0037965886
95	0x3c46e315	0.0121391015
96	0x3cc46a82	0.023976568
97	0x3c0098b3	0.007848906
98	0x3c92d881	0.017925503
99	0xbca21eff	-0.01979017
100	0xbadc5097	-0.0016808686
101	0x3c20cf9b	0.009815122
102	0x3cc74051	0.02432266
103	0x3bc8acde	0.006124123
104	0x3cde7a86	0.027158033
105	0x3cb23d69	0.021757798
106	0x3ab043db	0.0013447957
107	0xbccd1202	-0.025033
108	0x3cd734fc	0.026270382
109	0x3d30eb73	0.043193292
110	0x3dc7f4e1	0.09763504
111	0xbb4bfee0	-0.003112726
112	0xbba01bcd	-0.0048861266
113	0x3cb12528	0.021624163
114	0x3cc5e58e	0.024157312
115	0xbc47880b	-0.012178431
116	0xbbb058c0	-0.0053816736
117	0x3d236ee0	0.03990066
118	0x3c957b1c	0.01824718
119	0xbb9d0216	-0.0047915084
120	0xbc5bdcd9	-0.013419353
121	0x3d00b717	0.031424608
122	0x3dbf9a9b	0.093556605
123	0x3c0d6457	0.00862988
124	0x3af4f4ea	0.0018688713
125	0xbc884013	-0.016632115
126	0x3d16fbe6	0.036861323
127	0x3c5a99c6	0.0133423265
128	0xbb293676	-0.0025819815
129	0x3aeb9a98	0.001797515
130	0x3c731d08	0.014838465
131	0xbccb6e5b	-0.024832895
132	0x3c0793ef	0.008275016
133	0x3c1c6b7c	0.009547111
134	0xbbf6f70a	-0.0075367736
135	0xbc4957de	-0.012289016
136	0xbba34120	-0.0049821287
137	0xbcae4211	-0.021271737
138	0x3c9f49be	0.019444343
139	0xbb52a4a0	-0.0032141581
140	0xbc1392e9	-0.009007194
141	0xbba73701	-0.0051029925
142	0x3d6dc0c9	0.058045182
143	0x3c567b22	0.013090881
144	0x3cb88673	0.022525048
145	0x3cd477ac	0.02593597
146	0x3cdb7538	0.026789293
147	0xbbfa5293	-0.007639238
148	0x3bb39006	0.0054798154
149	0x3cc900e4	0.024536557
150	0x3d1f5673	0.038900804
151	0x3c985ffd	0.018600458
152	0x3cb313ab	0.021859964
153	0x3d249e68	0.04019013
154	0xb993f7fd	-0.0002822279
155	0xbb98e552	-0.004666009
156	0xbcd90be5	-0.02649493
157	0x3d1106c3	0.03540684
158	0xbb67b96a	-0.0035358318
159	0xbb0bf811	-0.0021357576
160	0x3d0136ed	0.031546522
161	0x3d044e2a	0.032301106
162	0x3a95df72	0.001143439
163	0x3ba55b0b	0.0050462536
164	0xbc274f0e	-0.010211719
165	0xbc45a5bf	-0.012063443
166	0x3d0ca76f	0.034339365
167	0x3ca0a14e	0.019608166
168	0xbb5409b2	-0.0032354412
169	0x3d3edf5b	0.046599727
170	0x3d82ab0c	0.06380281
171	0xbc1f9e00	-0.00974226
172	0x3b53c70a	0.0032314681
173	0x3cd85a9a	0.02641039
174	0x3d0b93c2	0.03407646
175	0x3ca8341c	0.02053266
176	0xbd05d04f	-0.03266936
177	0x3cd5fbfe	0.026121136
178	0x3ce5cdba	0.0280522
179	0x3d0c6576	0.03427645
180	0xba6794d8	-0.000883413
181	0x3cbb8ac3	0.022893315
182	0x3cbe075c	0.023196869
183	0xbc4ec9d7	-0.012621365
184	0xbc3450e1	-0.011005611
185	0xbc9195f1	-0.017771693
186	0xbcbc1a6e	-0.022961821
187	0xbaee62b5	-0.0018187376
188	0xba2123c3	-0.00061469915
189	0xbc05ab57	-0.008158526
190	0x3c948c88	0.018133417
191	0xbbf7e809	-0.0075655025
192	0x3b43ded0	0.0029887445
193	0x3d349285	0.044085044
194	0xbc38d9b9	-0.011282378
195	0xbc7d3e2a	-0.015456716
196	0x3b6e8a00	0.0036398172
197	0x3d8a4062	0.06750561
198	0x3dbb5ee8	0.09148961
199	0xbc26210d	-0.010139716
200	0x3b367013	0.0027837798
201	0x3d319c24	0.043361798
202	0x3d2c9494	0.042133883
203	0xbd209544	-0.03920485
204	0x3c11b10d	0.00889231
205	0x3c8f25b0	0.017474025
206	0x3d436cd0	0.047711194
207	0xbd099d08	-0.033597022
208	0xbb6174de	-0.0034401934
209	0x3cc01a41	0.023450019
210	0x3c8d8d94	0.017279424
211	0xbbe12054	-0.006870309
212	0x3c1bd436	0.009511044
213	0x3c959f99	0.018264579
214	0xbb9d7ca1	-0.0048061167
215	0xbc19d76b	-0.009389739
216	0x3c064dd8	0.00819727
217	0x3c499b82	0.012305142
218	0x3b6703fb	0.0035250175
219	0xbc59c937	-0.013292602
220	0xbbba811c	-0.0056916606
221	0x3d04dded	0.032438207
222	0x3d32988c	0.04360251
223	0x3ce18662	0.027529899
224	0xbc2556ce	-0.010091497
225	0x3c4c69b2	0.012476372
226	0x3d076996	0.03305968
227	0xbbe45bfb	-0.0069689727
228	0xbcbe1dd9	-0.023207592
229	0x3c98a216	0.018631976
230	0x3d4e7b68	0.050410658
231	0x3cf1636b	0.029466351
232	0x3d0e9ec6	0.034819387
233	0x3c7dd8c7	0.015493578
234	0x3d205af7	0.03914925
235	0x3b23a297	0.0024968737
236	0xb9e2410a	-0.00043154537
237	0x3d03089c	0.031990632
238	0x3c2eefd3	0.010677296
239	0xbc9790e8	-0.018501714
240	0xbcfb3426	-0.030664515
241	0x3d326295	0.043551046
242	0x3c93d7a9	0.01804717
243	0xbcc21d9b	-0.023695758
244	0xbd384014	-0.044982985
245	0x3bc7225f	0.0060770954
246	0x3cb38ed8	0.0219187
247	0x3c92c619	0.017916726
248	0x3c38c979	0.011278504
249	0x3c1922ad	0.009346646
250	0x3ca755cd	0.020426655
251	0x3a2810ad	0.00064111763
252	0xbc223139	-0.009899431
253	0x3d3e5d2a	0.046475567
254	0x3cd128b3	0.025532102
255	0xbb413ccb	-0.0029485698

spatial.conv1.weight f4 [1, 2, 7, 7]
0	0x3d0d7fc3	0.03454567
1	0x3cee581c	0.029094748
2	0x3ce0f6c8	0.027461424
3	0x3dc30392	0.09522165
4	0xbd1ea60b	-0.03873257
5	0x3c9aa48b	0.018877288
6	0x3bbd0cdd	0.0057693557
7	0x3c92105c	0.017830066
8	0x3d7448a0	0.059639573
9	0x3d245bc9	0.040126596
10	0x3d8ccbb2	0.06874789
11	0x3c5d8be4	0.013522122
12	0x3d0118ff	0.03151798
13	0xbc8b3ff5	-0.01699827
14	0xbc23d52a	-0.009999553
15	0x3da389b3	0.079852484
16	0x3df658ca	0.12028654
17	0x3df2112a	0.1181968
18	0x3dbd71b2	0.09250201
19	0x3d887e2e	0.06664692
20	0xbb09fa86	-0.0021053865
21	0x3db72cac	0.08944067
22	0x3d77e5e7	0.060521986
23	0x3dde52d4	0.10855642
24	0x3e17732d	0.1479003
25	0x3e0cf2c0	0.13764477
26	0x3d7a7c72	0.061153837
27	0xbb6efd9c	-0.003646708
28	0xbcf5c1c9	-0.02999963
29	0xba0cdb8c	-0.0005373291
30	0x3d596aa5	0.05308022
31	0x3dd82af2	0.10555066
32	0x3da29f72	0.07940568
33	0x3ccfa05c	0.02534502
34	0xbcca4a7a	-0.024693716
35	0xbd05715f	-0.032578822
36	0x3afc7b81	0.0019262881
37	0xbc2fec3f	-0.010737478
38	0x3d038fa0	0.032119393
39	0xbaf809d9	-0.0018923833
40	0x3d0f800d	0.035034228
41	0x3bb42a41	0.005498201
42	0x3c39ba99	0.011335992
43	0x3d452b43	0.04813696
44	0x3c76b615	0.01505806
45	0x3b1c0d40	0.0023811609
46	0x3ab6ec15	0.0013955856
47	0x3d48cfc8	0.04902628
48	0x3ceff2b2	0.02929053
49	0xbbbff904	-0.0058585424
50	0xbc7754e9	-0.015095928
51	0xbd70f309	-0.058825526
52	0xbce44b1c	-0.027867846
53	0xbcfa4b86	-0.03055359
54	0xbceb2c11	-0.028707536
55	0x3c0cf816	0.00860407
56	0xbc49ae5f	-0.01230964
57	0xbd5f3531	-0.054494087
58	0xbd41aa64	-0.047281638
59	0xbc9ef442	-0.01940358
60	0xbd25dbf8	-0.04049298
61	0xbd70d388	-0.058795482
62	0xbd0c6e01	-0.034284595
63	0xbdad0dfd	-0.08449934
64	0xbd960033	-0.07324257
65	0xbcf628b6	-0.03004871
66	0xbd0e0490	-0.03467232
67	0xbc69c2ab	-0.014267604
68	0xbd75ebea	-0.06003944
69	0xbaa9efd6	-0.0012965153
70	0xbd80c013	-0.06286635
71	0xbd0b1960	-0.033959746
72	0x3c852f7d	0.016257996
73	0x3ac47795	0.0014989252
74	0xbd40a123	-0.047028672
75	0xbc0fe4f8	-0.008782618
76	0x3cde2775	0.027118424
77	0xbd2a06ea	-0.0415105
78	0xbd6660d2	-0.05624468
79	0xbd4920de	-0.04910361
80	0xbcb633c8	-0.022241488
81	0xbd68b361	-0.056811694
82	0xbd2158a0	-0.03939116
83	0xbd3ea51d	-0.046544183
84	0x3c09aaed	0.008402568
85	0xbd888d70	-0.06667602
86	0x3c170861	0.009218306
87	0xbbd90840	-0.006623298
88	0xbd80a386	-0.062811896
89	0xbc2a240c	-0.010384571
90	0xbcb3aa54	-0.021931805
91	0xbd2662bb	-0.0406215
92	0xbcee4c89	-0.02908923
93	0xbd2c522d	-0.042070556
94	0xbb413b45	-0.002948479
95	0x3b4d6d3c	0.0031345626
96	0x3c199685	0.009374266
97	0xbbac1145	-0.005251082

head.conv.weight f4 [64, 3, 3, 3]
0	0xba9f287e	-0.0012142805
1	0x3ccb4574	0.024813391
2	0x3b380890	0.0028081276
3	0x3b863b54	0.004096428
4	0xbc88af28	-0.016685084
5	0xbd1241f4	-0.03570743
6	0xbbb2d42a	-0.005457421
7	0x3d8c468e	0.06849395
8	0x3c29af8f	0.010356798
9	0xbc0e623c	-0.008690413
10	0xbbf4b4bd	-0.0074678347
11	0xbcddabb6	-0.027059417
12	0x3c85ae0c	0.016318344
13	0xbc8e6385	-0.017381439
14	0x3d4e9a71	0.050440256
15	0x3cb88e03	0.022528654
16	0x3d5077f8	0.05089566
17	0x3dc49e64	0.09600523
18	0x3d6608b8	0.05616066
19	0xbd342dfe	-0.043989174
20	0xbd18c340	-0.03729558
21	0x3bcb65fc	0.006207226
22	0xbc00ede3	-0.007869217
23	0xbc513eda	-0.012771333
24	0xbd21a64a	-0.039465226
25	0xbcb19400	-0.021677017
26	0x3d89e34f	0.06732809
27	0x3c043caf	0.008071109
28	0x3d6ff834	0.058586314
29	0xbb7b1488	-0.0038311798
30	0x3c7590c5	0.014988129
31	0xbd8dccf0	-0.06923854
32	0x3c8e8d84	0.017401464
33	0xbcd344ad	-0.025789583
34	0x3d436a6c	0.047708914
35	0xbc9182fc	-0.017762654
36	0x3d82568c	0.06364164
37	0xbd00e7ef	-0.03147119
38	0xbd42dda3	-0.04757465
39	0x3d955902	0.072923675
40	0xbd652706	-0.05594542
41	0x3c19f19b	0.009395982
42	0xbd823dce	-0.063594446
43	0x3c7d4cb8	0.015460186
44	0xbb352e96	-0.0027646176
45	0x3ca7cfd2	0.020484839
46	0xbcd7f1d7	-0.026360435
47	0xbc8bcdbd	-0.017065877
48	0xbcf59e54	-0.029982723
49	0x3d41af01	0.047286037
50	0x3d25d139	0.040482733
51	0x3c533cc6	0.0128929075
52	0x3a41e264	0.00073961006
53	0x3b115cf3	0.0022180646
54	0xbc68d295	-0.014210363
55	0x3d7ef94b	0.062249463
56	0xbc7e9176	-0.01553761
57	0xbba03101	-0.004888654
58	0x3ca39ab5	0.019971231
59	0x3dd2cc21	0.10292841
60	0x3c29f766	0.010373926
61	0xbc1e2155	-0.009651502
62	0x3cc86773	0.024463391
63	0x3b919f24	0.00444402
64	0xbcfae5dc	-0.030627184
65	0xbd17c156	-0.037049614
66	0xbc91e175	-0.017807702
67	0xbd6a51a5	-0.05720677
68	0xbd4ff43c	-0.05077003
69	0x3bd505fd	0.006500958
70	0xba69491e	-0.000889914
71	0xbd8902f4	-0.066900164
72	0xbdaa3f23	-0.083128236
73	0xbca1dda6	-0.01975901
74	0x3c2d8590	0.010590926
75	0xbcb65438	-0.022256956
76	0xbca15d5a	-0.019697834
77	0x3c39765e	0.011319725
78	0x3a52b8f8	0.0008038427
79	0x3d03fca1	0.032223348
80	0x3ca5edc9	0.020254986
81	0x3d610d60	0.054944396
82	0xbcf64431	-0.030061813
83	0xbd5e7af4	-0.054316476
84	0xbd0fcd0e	-0.035107665
85	0x3b258a11	0.0025259296
86	0xbce7464d	-0.028231764
87	0xbd788317	-0.060671892
88	0x3cf4892a	0.029850561
89	0x3dbf81c9	0.093509264
90	0xbd3e875f	-0.04651582
91	0x3d0d3e71	0.034483377
92	0x3db80ab5	0.08986417
93	0xbc8abd27	-0.016935898
94	0xbcdab78b	-0.026698848
95	0x3c555bcf	0.013022377
96	0xbcfdfe81	-0.031005146
97	0x3bea1a74	0.0071442667
98	0xbc47d861	-0.012197585
99	0x3cffe28f	0.031235961
100	0xba6b15c5	-0.00089677825
101	0xbb003bb5	-0.0019566838
102	0xbc4a3677	-0.012342087
103	0x3b78b6df	0.0037950797
104	0x3b7d1540	0.0038617402
105	0x3c49cade	0.012316434
106	0xbd422ecc	-0.04740791
107	0x3c300a83	0.010744694
108	0x3ab98096	0.0014152701
109	0xbcddda06	-0.0270815
110	0xbc89b753	-0.016811049
111	0x3cc80621	0.024416985
112	0xbd62f172	-0.05540604
113	0x3cbb37a6	0.022853684
114	0xbd0267f6	-0.031837426
115	0xbc991c6d	-0.018690312
116	0xbd8d4c74	-0.06899348
117	0x3ca4fbe0	0.020139635
118	0xbbf57542	-0.007490785
119	0xbcf6db96	-0.030134004
120	0x3c3f54c0	0.011677921
121	0x3ceda383	0.029008633
122	0xbca1d64a	-0.019755501
123	0x3d7c4d65	0.061597247
124	0xbcce69e8	-0.025196984
125	0xbdafa71b	-0.08576795
126	0x376b1d90	1.4013975e-05
127	0x3d3083c9	0.04309443
128	0x3d445a65	0.04793777
129	0xbd692034	-0.056915477
130	0xbd18e131	-0.037324134
131	0x3adcf07b	0.0016856337
132	0x3c9c939a	0.01911335
133	0x3b32e44b	0.0027296718
134	0x3d20395b	0.0391172
135	0xbc207fde	-0.009796111
136	0xbcf732ff	-0.030175684
137	0x3d0a9205	0.03383066
138	0x3c02b04d	0.007976604
139	0xbcc63747	-0.02419628
140	0x3c42623e	0.011864243
141	0x3ceda5f7	0.029009802
142	0x3d50c1a0	0.050965905
143	0xbc920046	-0.017822396
144	0x3c027fd7	0.00796505
145	0xbd5845f1	-0.052801076
146	0x3d005810	0.031333983
147	0x3d3e05a3	0.046392094
148	0xbd06681f	-0.03281414
149	0x3d79bd6a	0.060971655
150	0xbca67d94	-0.020323552
151	0xbcb59f12	-0.022170577
152	0x3c8e4b18	0.017369792
153	0xbd96219a	-0.07330628
154	0x3c9939fb	0.018704405
155	0xbbfa15f5	-0.007632012
156	0xbd01739d	-0.031604398
157	0xbcee3e95	-0.029082576
158	0xbc457694	-0.012052197
159	0x3d1a1ba2	0.03762401
160	0x3cb7de8d	0.022444988
161	0x3d61406d	0.05499308
162	0xbd0f72c7	-0.03502157
163	0xbbcfc30e	-0.006340391
164	0xbd0379d3	-0.032098603
165	0xbdb2ddf8	-0.087337434
166	0x3c27ea37	0.010248712
167	0xba5fb646	-0.0008533936
168	0x3d620cdc	0.055188045
169	0x3d2b6429	0.041843567
170	0x3cce6156	0.025192898
171	0xbce23478	-0.02761291
172	0xbba510ca	-0.005037402
173	0x3c0b809b	0.008514549
174	0x3b164d74	0.002293435
175	0x3d2edff3	0.042694043
176	0x3d280fd3	0.041030716
177	0x3d3cde68	0.04611054
178	0xbd3520a2	-0.044220574
179	0x3c81a3b6	0.015825134
180	0x3d81405c	0.06311104
181	0x3c843663	0.016139215
182	0x3a0c44a6	0.00053508056
183	0x3d2d5470	0.042316854
184	0x3c844629	0.016146736
185	0xbd5ba696	-0.053625666
186	0xbd847a6d	-0.06468663
187	0x3c9bdc98	0.019026086
188	0xbb13ea9a	-0.0022570253
189	0x3aef604b	0.001826295
190	0x3cd566af	0.02604994
191	0xbd6f0146	-0.058350824
192	0x3d398363	0.045291316
193	0xbc5ebede	-0.013595311
194	0xbd15f891	-0.036614005
195	0xbd3b0ab1	-0.045664493
196	0x3d6bd26d	0.057573725
197	0x3d19e982	0.037576206
198	0xbd307ec2	-0.043089636
199	0xbcfe1965	-0.031017968
200	0x3cf774a9	0.030206995
201	0xbd400889	-0.04688314
202	0x3c803a6f	0.015652863
203	0x3cb22020	0.021743834
204	0xbcb2b044	-0.021812566
205	0xbc13a98c	-0.009012591
206	0xbd69ebe1	-0.057109717
207	0x3c5db8b0	0.013532802
208	0xbd4fde03	-0.050748836
209	0xbce3bf44	-0.027801163
210	0xbc440f0e	-0.01196648
211	0xbd8a8cb3	-0.067651175
212	0x3cef452b	0.029207787
213	0xbd24d700	-0.040244102
214	0xbc0118d0	-0.007879451
215	0xbb62cce7	-0.0034606995
216	0xbda0b1c5	-0.07846407
217	0x3cf88224	0.030335493
218	0x3c9e4d49	0.019323962
219	0xbd571fed	-0.05252068
220	0x3c9ae631	0.018908592
221	0x3cb6a177	0.02229379
222	0x3d9f6821	0.07783533
223	0xbcbf0721	-0.023318829
224	0xbd5f325b	-0.054491382
225	0x3c72f340	0.014828503
226	0xbc14fea4	-0.009093914
227	0xbc578b91	-0.013155834
228	0xbcfc8a6d	-0.030827725
229	0xbc8cdb78	-0.017194495
230	0x3d002f77	0.031295266
231	0x3cdd3c76	0.02700637
232	0x3d018d23	0.03162874
233	0x3d58da59	0.052942608
234	0x3d007e0a	0.0313702
235	0xbc794644	-0.015214507
236	0x3cd81e89	0.026381748
237	0xbd463b69	-0.0483965
238	0x3d5fbcc6	0.054623388
239	0xb9a92864	-0.00032264285
240	0xbc940419	-0.01806836
241	0x3a7194ab	0.00092155737
242	0xbc2fc9da	-0.0107292775
243	0xbd1040f0	-0.03521818
244	0x3b2d1ae0	0.0026413724
245	0x3cf2e4d4	0.02965013
246	0xbc4617e5	-0.012090658
247	0x3c033b13	0.00800969
248	0x3d40a14e	0.047028832
249	0x3bb3628f	0.0054743956
250	0x3d136ed4	0.035994366
251	0xbd5d2eb1	-0.053999607
252	0x3cf0380b	0.029323598
253	0xbd064bab	-0.032787006
254	0xbc8256a0	-0.015910447
255	0x3d50e246	0.05099704

head.conv.bias f4 [64]
0	0xbbd93eec	-0.0066298153
1	0x3dc21ce3	0.09478166
2	0xbd4c5af6	-0.049891435
3	0x3d576691	0.05258805
4	0x3e2596b5	0.16170771
5	0x3d5482e3	0.051882636
6	0xbdd71244	-0.10501531
7	0x3d54408d	0.051819373
8	0x3e2abeb8	0.16674316
9	0xbdc80ad2	-0.09767689
10	0x3e3f809c	0.18701404
11	0xbd07217c	-0.032990918
12	0xbd78a614	-0.06070526
13	0xbd372877	-0.044716325
14	0x3d621350	0.0551942
15	0xbce7ff98	-0.028320119
16	0x3e0bf875	0.13668998
17	0x3ca7fb67	0.02050562
18	0x3c962d76	0.018332224
19	0x3defb76d	0.117049076
20	0xbe214a23	-0.15750937
21	0x3dc4e9f5	0.09614936
22	0xbe23dab0	-0.16001391
23	0xbe2aca47	-0.16678725
24	0x3e0e2475	0.13881095
25	0xbe42446f	-0.18971418
26	0x3d45b035	0.048263747
27	0xbd753b68	-0.059871107
28	0x3d5fae41	0.05460954
29	0x3d4b11a9	0.04957739
30	0x3e0be4af	0.13661455
31	0x3bcb8b09	0.0062116426
32	0xbe0b76e5	-0.13619573
33	0x3e0d3ae7	0.13792
34	0xbe3ab3b6	-0.18232617
35	0x3d6ed136	0.058304988
36	0xbe4b01a8	-0.1982485
37	0x3e3d6e79	0.18499173
38	0xbc83963f	-0.016062854
39	0xbe2d97b0	-0.16952395
40	0xbdede448	-0.11615807
41	0x3da65e61	0.0812347
42	0x3d206609	0.03915981
43	0xbe10e37d	-0.1414928
44	0xbdad050f	-0.084482305
45	0xbbcd5b6d	-0.0062670023
46	0x3dd2136b	0.1025761
47	0xbd977a7c	-0.07396409
48	0xbe3b9226	-0.1831747
49	0xbc91fc4a	-0.017820496
50	0xbcedc7bb	-0.029025903
51	0xbcf49498	-0.029856011
52	0xbe501576	-0.20320687
53	0xbe39a9d0	-0.18131185
54	0xbdb00893	-0.085953854
55	0xbdf4e318	-0.11957377
56	0xbcd5ce2a	-0.026099283
57	0x3dc12cdb	0.094323836
58	0xbd7c4228	-0.06158653
59	0xbd6bb763	-0.057547938
60	0x3cc27bd5	0.023740688
61	0x3e3aed68	0.18254626
62	0x3e33cc46	0.17558393
63	0x3dc5f4f4	0.09665862

head.norm.weight f4 [64]
0	0x3f857ad5	1.042811
1	0x3f895daa	1.0731709
2	0x3f8f2403	1.1182865
3	0x3f7b9ebd	0.9828909
4	0x3f7cf605	0.98812896
5	0x3f83ddf9	1.0302116
6	0x3f860da7	1.0472916
7	0x3f6a2664	0.9146483
8	0x3f83ab73	1.0286697
9	0x3f6ab1b9	0.91677433
10	0x3f85b578	1.0446005
11	0x3f605ac2	0.87638485
12	0x3f8c45a7	1.0958756
13	0x3f7de521	0.9917775
14	0x3f8342ed	1.0254799
15	0x3f806470	1.0030651
16	0x3f88bfb5	1.0683504
17	0x3f734d57	0.95039886
18	0x3f818c86	1.0121009
19	0x3f71a178	0.94387007
20	0x3f809309	1.0044872
21	0x3f810288	1.0078897
22	0x3f79a0b6	0.9751085
23	0x3f81e1cb	1.0147032
24	0x3f7abfee	0.9794911
25	0x3f75d0b3	0.96021575
26	0x3f80d90c	1.0066237
27	0x3f5399c3	0.82656497
28	0x3f6fcf8f	0.93676084
29	0x3f80f83e	1.0075758
30	0x3f83ee7d	1.0307156
31	0x3f84c830	1.0373592
32	0x3f8779e6	1.0584075
33	0x3f6ca48e	0.9243859
34	0x3f7abe64	0.97946763
35	0x3f76c302	0.9639131
36	0x3f8405e3	1.0314296
37	0x3f81e828	1.0148973
38	0x3f865b3d	1.0496594
39	0x3f85bb00	1.0447693
40	0x3f87ee41	1.0619584
41	0x3f851d94	1.0399652
42	0x3f5e6a5a	0.8688103
43	0x3f6e2a89	0.93033653
44	0x3f813cb5	1.0096651
45	0x3f6e6a17	0.9313063
46	0x3f8a3e81	1.0800325
47	0x3f855624	1.0416913
48	0x3f85e6ab	1.0461019
49	0x3f6d9a0c	0.9281318
50	0x3f82ce13	1.0219139
51	0x3f7beb65	0.9840606
52	0x3f7e586d	0.9935368
53	0x3f5c248b	0.8599326
54	0x3f6b9a9f	0.9203281
55	0x3f80418f	1.0020007
56	0x3f82d501	1.0221254
57	0x3f86a81a	1.052005
58	0x3f82142c	1.0162406
59	0x3f742bda	0.9537941
60	0x3f8581a7	1.0430192
61	0x3f7bdf27	0.9838738
62	0x3f6a1a39	0.9144626
63	0x3f701941	0.93788534

head.norm.bias f4 [64]
0	0xbde6f91a	-0.11277981
1	0xbd012c5d	-0.03153645
2	0xbe425652	-0.18978241
3	0xbdd44b18	-0.103658855
4	0xbd52d174	-0.05146928
5	0xbe152a73	-0.14566974
6	0xbe13ab82	-0.14420894
7	0xbe3ac892	-0.18240574
8	0xbe30490d	-0.17215367
9	0xbe8acc82	-0.27109152
10	0xbe1b21ce	-0.15149614
11	0xbe93dce5	-0.28879467
12	0xbe129063	-0.14312892
13	0xbdae7cd3	-0.08519902
14	0xbd95863e	-0.07300995
15	0xbe01b28f	-0.12665771
16	0xbe6525a9	-0.22377647
17	0xbd542f75	-0.05180307
18	0xbd5fb8b7	-0.054619517
19	0xbe06a322	-0.13148168
20	0xbd3c337d	-0.04594754
21	0xbdbf007e	-0.09326266
22	0xbd48b8c1	-0.04900432
23	0xbe000523	-0.1250196
24	0xbe09754b	-0.1342365
25	0xbc88bf74	-0.016692854
26	0xbe1ea323	-0.15491919
27	0xbe81bb11	-0.25338033
28	0xbd7ae30f	-0.061251696
29	0xbd4ec40e	-0.05047994
30	0xbe0387f0	-0.12844825
31	0xbdc9a9a9	-0.09846813
32	0xbd7249ef	-0.05915254
33	0xbe75b24e	-0.23993799
34	0xbe0a97c1	-0.13534452
35	0xbd8c2486	-0.06842904
36	0xbdb71218	-0.08938998
37	0xbe02bd61	-0.12767555
38	0xbe0e8e04	-0.13921362
39	0xbe52c200	-0.20581818
40	0xbdb912c0	-0.090367794
41	0xbdb175ba	-0.08665033
42	0xbe6e8757	-0.23293816
43	0xbe5d4619	-0.21608771
44	0xbe3648e9	-0.1780125
45	0xbe2c5c9a	-0.168322
46	0xbdfa48a6	-0.12220888
47	0xbe4a236d	-0.19740076
48	0xbdcde117	-0.10052698
49	0xbe1ff48c	-0.15620631
50	0xbe0695b6	-0.13143048
51	0xbe425c7b	-0.18980591
52	0xbdc8f6bb	-0.09812685
53	0xbe6d38b6	-0.23166165
54	0xbe2c5458	-0.1682905
55	0xbd09d68d	-0.033651877
56	0xbc248f70	-0.010043964
57	0xbe1b13cd	-0.15144272
58	0xbd5f8126	-0.054566525
59	0xbdfd27db	-0.123611175
60	0xbdf2d871	-0.11857689
61	0xbdc1c205	-0.094608344
62	0xbe4f1071	-0.20221116
63	0xbe402964	-0.1876579

head.norm.running_mean f4 [64]
0	0xbc7d8a2d	-0.015474838
1	0x3d9baa18	0.07600802
2	0xbcf9023a	-0.03039657
3	0x3d64ac21	0.055828217
4	0x3e2c2ea4	0.16814667
5	0x3d4877ac	0.048942253
6	0xbdf5a3e7	-0.119941525
7	0x3df5ca5c	0.120014876
8	0x3e224001	0.15844728
9	0xbd21310e	-0.039353423
10	0x3e867268	0.2625916
11	0x3c13a6db	0.009011949
12	0xbd435ff5	-0.047698934
13	0xbd9d06ff	-0.0766735
14	0x3ce2b0c8	0.027672186
15	0xbde6be87	-0.11266809
16	0x3e6b0cf6	0.22954163
17	0xbc91d136	-0.017799955
18	0x3d04df05	0.03243925
19	0x3daf1ce5	0.08550433
20	0xbe5bacb5	-0.21452601
21	0x3d8af20e	0.067844495
22	0xbe3f016f	-0.1865289
23	0xbe35d894	-0.17758399
24	0x3dcf0b1a	0.10109539
25	0xbe3a56bc	-0.18197149
26	0x3c94e303	0.018174654
27	0x3bdf2ebe	0.006810992
28	0x3c07213e	0.008247672
29	0x3d2267d0	0.039649785
30	0x3e174ab6	0.14774594
31	0xbbf19a4d	-0.0073731304
32	0xbdf381ac	-0.11889967
33	0x3e31c863	0.17361598
34	0xbe318b1f	-0.17338227
35	0x3d425ff5	0.047454793
36	0xbe6e260e	-0.23256704
37	0x3e295b29	0.16538681
38	0xbcc1ff62	-0.023681346
39	0xbe37cd4f	-0.17949413
40	0xbe16e944	-0.14737421
41	0x3d3eb83d	0.046562422
42	0x3d9ef46c	0.077614635
43	0xbde3a931	-0.11116255
44	0xbda72e82	-0.081631675
45	0x3d8ca200	0.068668365
46	0x3dab5ff6	0.083679125
47	0xbcedcb9a	-0.029027749
48	0xbe5e50bc	-0.21710485
49	0xbd2c5451	-0.042072598
50	0xbd5081b6	-0.050904952
51	0x3bded7f0	0.006800644
52	0xbe52578f	-0.20541213
53	0xbdfb02ad	-0.1225637
54	0xbd8fa37c	-0.07013604
55	0xbe0a3150	-0.13495374
56	0xbd39f05c	-0.04539524
57	0x3d4b6b9b	0.049663167
58	0xbd98dc89	-0.07463939
59	0xbd103648	-0.035208017
60	0x3c8c0cce	0.01709595
61	0x3e372a5e	0.17887256
62	0x3e948bc6	0.2901289
63	0x3d9dc0ad	0.077027656

head.norm.running_var f4 [64]
0	0x3aae3c04	0.0013293033
1	0x3a337cb1	0.00068468886
2	0x3b55a204	0.003259779
3	0x3a4a1b3e	0.0007709748
4	0x3b02cb15	0.0019957472
5	0x3a3fd39c	0.0007317604
6	0x3a63c084	0.000868805
7	0x3ae10dd7	0.0017170262
8	0x3a2decf5	0.00066347356
9	0x3af1a8c7	0.001843714
10	0x3afab54e	0.0019127519
11	0x3a6939f0	0.0008896878
12	0x3a03a00a	0.0005021101
13	0x3ad7b86d	0.0016458161
14	0x3be29609	0.0069148582
15	0x3c1f51a5	0.009724055
16	0x3b31ca7a	0.0027128742
17	0x3b46bf8a	0.0030326569
18	0x3a4249d4	0.0007411514
19	0x3a81d28b	0.0009904666
20	0x3acf145a	0.0015798912
21	0x3acdade4	0.0015692082
22	0x3b11ee50	0.002226729
23	0x3b06668e	0.0020507905
24	0x3aa9d9df	0.0012958607
25	0x3aa67f26	0.0012702688
26	0x3a8b784d	0.0010640711
27	0x3b4d3f38	0.00313182
28	0x3acbe70f	0.0015556532
29	0x3a22a89e	0.00062049355
30	0x3a02f5fe	0.0004995762
31	0x3a96cf62	0.0011505897
32	0x3a71d144	0.00092246034
33	0x3a7bae38	0.0009600851
34	0x3aa4fdf7	0.0012587894
35	0x3a33a3fc	0.00068527437
36	0x3b73546f	0.0037129184
37	0x3b7b74aa	0.0038369098
38	0x3a3a68a5	0.000711093
39	0x3a2b278f	0.0006529027
40	0x3a30f5fb	0.0006750521
41	0x3a87b6c4	0.0010354151
42	0x3b3a6d7b	0.0028446603
43	0x3aaecdb5	0.0013336452
44	0x3a7266c9	0.00092468836
45	0x3b0d4644	0.0021556774
46	0x3a1c2200	0.0005955994
47	0x3a781512	0.0009463589
48	0x3a7fe20f	0.00097611634
49	0x3a71a711	0.0009218315
50	0x39e8d953	0.00044412407
51	0x3ab096d1	0.0013472681
52	0x3b4ea935	0.003153396
53	0x3aecd94d	0.0018070132
54	0x3a9e5a2f	0.001208132
55	0x3a6a26be	0.00089321646
56	0x3a3821ee	0.0007024099
57	0x3b878c94	0.0041366313
58	0x39d859e2	0.00041265698
59	0x3a4ea137	0.0007882299
60	0x39fdee88	0.0004843364
61	0x3afc5715	0.0019252027
62	0x3b80f0ef	0.0039349715
63	0x3acde73a	0.001570917

body.block1.conv.weight f4 [64, 64, 3, 3]
0	0x3daa8e76	0.083279535
1	0x3bde4edd	0.0067843036
2	0xbb907f05	-0.004409673
3	0x3c76e29d	0.015068677
4	0x3d15e722	0.03659738
5	0xbc10d5e3	-0.008840057
6	0x3cb7030f	0.022340326
7	0xbcc93ee4	-0.024566121
8	0xbc80e155	-0.015732447
9	0xbd32c45f	-0.043644305
10	0xbd25672c	-0.040381595
11	0x3d1b6b83	0.037944328
12	0xbcc0a73b	-0.023517242
13	0x3cb3e8d9	0.021961616
14	0x3d3f4e5d	0.046705592
15	0x3d3f1c2b	0.046657722
16	0xbc7bb8df	-0.015363901
17	0x3d10e7bf	0.03537726
18	0xbc240066	-0.010009861
19	0xbd1870b3	-0.037216853
20	0x3da722ef	0.0816096
21	0xbc065a66	-0.008200264
22	0xbcab9140	-0.020943284
23	0x3a2be538	0.00065572886
24	0x3d8208b0	0.06349313
25	0xbc362f15	-0.011119624
26	0xbd8c42c1	-0.0684867
27	0xbcc4d7c2	-0.024028663
28	0x3c32cea4	0.010913525
29	0x3c8bc416	0.017061274
30	0xbb0554c6	-0.0020344718
31	0xbd117b05	-0.03551771
32	0x3c89fc11	0.016843827
33	0x3d573dc8	0.052549154
34	0xbca62546	-0.020281445
35	0x3d97b1cd	0.0740696
36	0x3d1d7f21	0.038451318
37	0xbacf58bd	-0.0015819293
38	0xbd18ff75	-0.037352998
39	0xbb3f6eef	-0.0029210409
40	0x3d01c6ac	0.03168361
41	0x3d1b6527	0.037938263
42	0xbbb12adc	-0.0054067206
43	0x3cf26445	0.029588828
44	0x3d04b9f8	0.032403916
45	0xbc6d5668	-0.014485933
46	0xbd5837c0	-0.052787542
47	0xbca4c2de	-0.020112451
48	0x3cbb34ee	0.022852387
49	0x3c751099	0.0149575705
50	0xbc9210a0	-0.017830193
51	0x3cc95f51	0.024581583
52	0x3d5d26f4	0.053992227
53	0x3a14c6dd	0.0005675385
54	0xbd2ff57b	-0.042958718
55	0x3c318aec	0.010836344
56	0xbc12eed4	-0.008968074
57	0x3b9853cc	0.0046486612
58	0xbbe4bdb6	-0.006980623
59	0x3d08c483	0.033390533
60	0x3d799655	0.060934383
61	0x3cab41d6	0.020905416
62	0xbbfc0b81	-0.007691801
63	0x3c08c6b3	0.008348155
64	0xbb046a3b	-0.002020492
65	0xbc53bfbf	-0.012924134
66	0x3c91601f	0.01774603
67	0x3cc4c00e	0.02401736
68	0xbd1dac15	-0.03849419
69	0xbc9b03f0	-0.018922776
70	0xbb0fdace	-0.0021950486
71	0x3baaf6e8	0.005217422
72	0xbda7894a	-0.08180483
73	0xbb7d5df3	-0.0038660734
74	0x3b90841e	0.004410281
75	0x3c810362	0.015748683
76	0xbcef2ebd	-0.029197091
77	0x3c9aa152	0.018875752
78	0x3cfc7452	0.030817185
79	0xbd2b660f	-0.041845378
80	0x3cf60646	0.030032288
81	0xbc3921d5	-0.01129957
82	0x3ba03e8d	0.004890269
83	0x3ce0c20b	0.027436277
84	0xba5ac63d	-0.000834558
85	0xbd3e7b9a	-0.046504594
86	0x3c943e55	0.018096128
87	0x3c96abaf	0.018392412
88	0x3a671446	0.00088149717
89	0xbc229647	-0.009923524
90	0x3dae0d17	0.084985904
91	0xbd0ce44e	-0.034397416
92	0x390fb13b	0.00013703566
93	0x3ce27fca	0.027648825
94	0xbdc366ec	-0.09541115
95	0x3cb338b2	0.02187762
96	0xbb52a4a1	-0.0032141584
97	0xbc60e80e	-0.013727201
98	0x3c93aff5	0.018028239
99	0x3bcfa7e8	0.0063371547
100	0x3c8b6c72	0.017019484
101	0xbcffb181	-0.03121257
102	0xbc874781	-0.016513588
103	0xbd4912bd	-0.049090136
104	0x3b574c41	0.0032851847
105	0x3b9ea24c	0.0048411246
106	0x3d8d569b	0.06901284
107	0xbcb6224f	-0.022233156
108	0x3d26984a	0.040672578
109	0x3d399360	0.045306563
110	0xbd64d7a8	-0.05586973
111	0xbcf84100	-0.030304432
112	0xbbafefd5	-0.0053691664
113	0x3cec64c6	0.028856646
114	0xbd19178e	-0.03737598
115	0x3d01eea4	0.031721726
116	0x3d44f5d5	0.048086006
117	0xbd90ee69	-0.07076723
118	0xbdb96755	-0.09052912
119	0xbc8ea263	-0.017411416
120	0x3c6f0553	0.014588672
121	0xbce5bf8f	-0.028045444
122	0x3cdf4584	0.027254827
123	0x3c250bbd	0.010073599
124	0xbd559469	-0.052143488
125	0x3ce7c187	0.028290523
126	0xbb373d9e	-0.002796031
127	0xbd327a56	-0.0435737
128	0xbd146592	-0.036229677
129	0xba7af003	-0.00095725077
130	0x3cb048ef	0.021519152
131	0xbd42640a	-0.047458686
132	0xbb9148d3	-0.00443373
133	0x3d2e6470	0.042576253
134	0xbc35a731	-0.011087225
135	0xb9691669	-0.0002222896
136	0x3d231abe	0.039820425
137	0x3c68a379	0.014199131
138	0x3c9e7848	0.019344464
139	0x3d08b17c	0.033372387
140	0x3c9a0575	0.01880143
141	0xbd4523c1	-0.0481298
142	0x3d0c138e	0.034198336
143	0x3bbb4a63	0.0057156547
144	0x37b23224	2.1242602e-05
145	0xbce4a0d5	-0.027908722
146	0xbd029125	-0.0318767
147	0x3a8f3bfa	0.0010927909
148	0xbbd7a745	-0.0065812194
149	0x3c5125aa	0.0127653275
150	0xbcacb00e	-0.021080043
151	0x3cf9daf8	0.03049992
152	0xbca51c7f	-0.02015519
153	0xbc9714d0	-0.018442541
154	0xbd39bdbb	-0.045346957
155	0xbdb886b2	-0.09010066
156	0x3d9bf4dc	0.076150626
157	0xbdb853bc	-0.09000346
158	0xbd69afbd	-0.057052363
159	0x3d4e181c	0.05031596
160	0x3c49c593	0.012315172
161	0x3c3f5d2f	0.011679932
162	0x3d6e7917	0.05822095
163	0x3d81d5b9	0.063395925
164	0xbc96656f	-0.018358914
165	0x3cdcad6f	0.026938168
166	0xbd64e60d	-0.055883456
167	0x3d2075dd	0.039174903
168	0x3cda52c4	0.026650794
169	0xbb1c69fe	-0.0023866887
170	0x3c7302f4	0.014832247
171	0xbc70082e	-0.014650388
172	0x3bfbfe0c	0.007690197
173	0x3d830432	0.063972846
174	0x3bc28f62	0.0059375027
175	0xbd37d854	-0.04488404
176	0x3cd4848b	0.025942108
177	0x3d24528f	0.040117797
178	0x3c72073f	0.014772235
179	0xbd3bba8b	-0.045832198
180	0x3c3ed4bf	0.011647402
181	0xbc8f499b	-0.017491153
182	0xbc97ae4b	-0.018515727
183	0x3bf31ae0	0.0074189752
184	0xbcbd21c9	-0.0230874
185	0x3ccf66aa	0.025317509
186	0xbb1ee70d	-0.0024246604
187	0x3d849e19	0.06475467
188	0xbc28c952	-0.010301905
189	0xbdbbdd55	-0.09173075
190	0x3d262b99	0.04056892
191	0xbb55e0f2	-0.0032635299
192	0x3d69dbc5	0.057094354
193	0x3d049ac9	0.032374177
194	0x3cae4eec	0.021277867
195	0x3c8f5271	0.017495366
196	0xbd2cef84	-0.042220607
197	0x3cc8f0c0	0.024528861
198	0x3ba3b367	0.0049957517
199	0xba0e3008	-0.00054240273
200	0x3d8b9b18	0.06816691
201	0x3cfd2888	0.030903116
202	0x3d502040	0.050812006
203	0x3d0251f5	0.03181644
204	0x3cc94dd1	0.024573239
205	0x3c8b421e	0.0169993
206	0xbcab4a48	-0.020909443
207	0xbcaa2657	-0.020770235
208	0xbd114ca7	-0.035473492
209	0x3d07a8af	0.033119854
210	0x3cc643e6	0.024202298
211	0xbd4d430b	-0.050112765
212	0x3d4b4263	0.04962386
213	0xbc9b7e20	-0.01898104
214	0x3cf39f26	0.029738974
215	0x3d791ad8	0.060816616
216	0x3d05589d	0.03255521
217	0x3d09dd70	0.033658445
218	0x3d0f4cde	0.034985416
219	0x3da1ecad	0.079064704
220	0xbd636016	-0.055511557
221	0xbd09532b	-0.03352658
222	0xbc3542bd	-0.011063275
223	0x3d88e9dd	0.06685231
224	0x3d61a543	0.055089246
225	0xbb47a3b6	-0.003046257
226	0xbd37255e	-0.04471337
227	0xbcbf8317	-0.023377938
228	0x3c697406	0.014248854
229	0x3db2006e	0.08691488
230	0x3c8efe2d	0.017455185
231	0x3c06c1b7	0.008224896
232	0xbd5fefce	-0.054672055
233	0x3d2e599b	0.042565923
234	0x3c6f7121	0.014614374
235	0x3b85c4ef	0.004082314
236	0xbc8a2d3f	-0.016867278
237	0x3b72f088	0.0037069637
238	0xbc0ad4ca	-0.008473584
239	0xbbbf8286	-0.005844417
240	0x3d8767d0	0.066115975
241	0x3d4ee9b6	0.050515853
242	0xbdd47ec7	-0.10375743
243	0xbd1f2280	-0.03885126
244	0xbcea5d60	-0.028608978
245	0xbbd3537b	-0.0064491606
246	0xbbc84931	-0.0061122407
247	0xbcc2d855	-0.023784796
248	0xba0f138b	-0.0005457929
249	0x3d7bffda	0.061523296
250	0x3cd05578	0.02543138
251	0xbd032059	-0.03201327
252	0x3d7a1662	0.061056502
253	0xbc907c00	-0.017637253
254	0xbc9dd10e	-0.019264724
255	0x3c43ac8c	0.011942994

body.block1.conv.bias f4 [64]
0	0xbc9ff750	-0.019527107
1	0xbcdf47d5	-0.027255932
2	0xbc91df48	-0.017806664
3	0x3c5bc211	0.013412968
4	0xbc4224e4	-0.011849616
5	0xbaaecf84	-0.0013336991
6	0x3cf8f397	0.03038959
7	0x3ccb1038	0.024788007
8	0xbc18b400	-0.009320259
9	0xbd101a03	-0.035181057
10	0xbd1df923	-0.038567673
11	0xbb6f991c	-0.0036559766
12	0xbd1f3c71	-0.038876
13	0x3a83bf80	0.0010051578
14	0xbc4ed487	-0.012623913
15	0xbc543090	-0.012951031
16	0xbca11f8f	-0.019668369
17	0x3d0b86fb	0.034064274
18	0x3cbbf5d9	0.022944378
19	0x3c09ee25	0.0084185945
20	0xbc549138	-0.012974076
21	0x3cb754ba	0.022379268
22	0x3ccb3853	0.02480713
23	0x3c899470	0.016794413
24	0xbd1d1c08	-0.03835681
25	0x3cca3859	0.024685072
26	0x3bcc63c8	0.006237481
27	0xbd204eb7	-0.03913757
28	0x3c7f56e4	0.015584681
29	0xbd06aa0f	-0.032877024
30	0xbd1ddc04	-0.0385399
31	0x3bf7d1b2	0.0075628394
32	0x3cd85aa5	0.02641041
33	0x3b080683	0.0020755834
34	0x3bcecab5	0.0063107857
35	0xbc9c6a22	-0.019093577
36	0xbd1a4d51	-0.03767139
37	0xbbdc27b2	-0.0067185992
38	0x3c8f3fc8	0.017486468
39	0xba7fc6c0	-0.0009757094
40	0x3cb41c44	0.021986134
41	0xbc990c8e	-0.018682744
42	0xbce7c868	-0.028293803
43	0x3b6edf5c	0.003644905
44	0xbcbbd1cf	-0.022927193
45	0x3c49cce6	0.012316918
46	0x3c9f0467	0.019411279
47	0xbca367be	-0.019946929
48	0x3cd4763a	0.025935281
49	0x3b4b0f27	0.0030984373
50	0xbcbd6fe8	-0.02312465
51	0x3c31d362	0.01085362
52	0xbcdb63f3	-0.026781058
53	0xbcf26793	-0.029590404
54	0xbd21274e	-0.039344124
55	0xbd1cf901	-0.038323406
56	0x3c7e5015	0.015522023
57	0x3c249c70	0.010047063
58	0x3d1bad48	0.03800705
59	0xbcf113c5	-0.029428372
60	0x3c21690f	0.009851708
61	0xbd1ae758	-0.037818283
62	0x3c43686f	0.011926754
63	0x3c96fef6	0.018432122

body.block1.norm.weight f4 [64]
0	0x3f826930	1.0188351
1	0x3f7d0f3b	0.98851365
2	0x3f76184c	0.96130824
3	0x3f7fba18	0.9989333
4	0x3f88482b	1.0647024
5	0x3f804c81	1.0023347
6	0x3f7a7246	0.9783062
7	0x3f827fc3	1.019524
8	0x3f813ee3	1.0097317
9	0x3f7e7e7c	0.9941175
10	0x3f5f67f7	0.8726801
11	0x3f88e86b	1.0695928
12	0x3f816025	1.0107466
13	0x3f80d880	1.006607
14	0x3f7d6837	0.98987144
15	0x3f7e8af9	0.99430805
16	0x3f81f0b6	1.0151584
17	0x3f83c008	1.0292978
18	0x3f7b25f3	0.9810478
19	0x3f7c6fc8	0.98608065
20	0x3f7b9737	0.9827761
21	0x3f839b1e	1.0281713
22	0x3f7fa533	0.9986145
23	0x3f7417b8	0.9534869
24	0x3f8340d3	1.0254158
25	0x3f8b0596	1.086108
26	0x3f80520e	1.0025041
27	0x3f82a125	1.0205427
28	0x3f7bbcb1	0.98334795
29	0x3f78c096	0.9716886
30	0x3f82634a	1.0186551
31	0x3f807d81	1.0038301
32	0x3f82e10c	1.0224929
33	0x3f88624b	1.0654997
34	0x3f6faa8a	0.93619597
35	0x3f758b57	0.9591574
36	0x3f777ff4	0.96679616
37	0x3f7f4f6a	0.9973055
38	0x3f848904	1.0354314
39	0x3f77d76a	0.9681307
40	0x3f743eff	0.95408624
41	0x3f7431cc	0.95388484
42	0x3f80535d	1.002544
43	0x3f7525d1	0.9576083
44	0x3f785002	0.9699708
45	0x3f6e9a92	0.93204606
46	0x3f828182	1.0195773
47	0x3f842755	1.0324503
48	0x3f85aee7	1.0444001
49	0x3f807f9d	1.0038944
50	0x3f895213	1.0728172
51	0x3f835e05	1.0263067
52	0x3f823408	1.0172129
53	0x3f8101ca	1.0078671
54	0x3f7b76bd	0.98228055
55	0x3f832ddc	1.024837
56	0x3f845343	1.033791
57	0x3f821796	1.0163448
58	0x3f6b723b	0.91971177
59	0x3f70fe28	0.9413781
60	0x3f7e840a	0.99420226
61	0x3f734749	0.9503065
62	0x3f7ccd79	0.98751026
63	0x3f7ca7ef	0.98693746

body.block1.norm.bias f4 [64]
0	0xbe236c68	-0.15959322
1	0xbdd8777e	-0.10569666
2	0xbe3a8c49	-0.18217577
3	0xbd99f118	-0.07516688
4	0xbe0bb48f	-0.13643096
5	0xbe0db5f3	-0.1383894
6	0xbe2ad0c3	-0.16681199
7	0xbe204f68	-0.15655291
8	0xbe6b6180	-0.22986412
9	0xbe366682	-0.17812541
10	0xbe681768	-0.22665179
11	0xbdbef6db	-0.09324428
12	0xbd6fb326	-0.05852046
13	0xbdc9e899	-0.098588176
14	0xbd8eccd9	-0.06972665
15	0xbe4a26f3	-0.1974142
16	0xbe14fcba	-0.14549533
17	0xbe0d31a7	-0.13788472
18	0xbddebf03	-0.10876276
19	0xbe3d00e3	-0.1845737
20	0xbde0de5f	-0.10979914
21	0xbe117df7	-0.14208208
22	0xbe269c8e	-0.16270658
23	0xbdf5f264	-0.12009123
24	0xbe1fcab1	-0.15604664
25	0xbe124a7b	-0.14286225
26	0xbde02a76	-0.10945599
27	0xbe13d775	-0.14437659
28	0xbe38bf67	-0.18041764
29	0xbe8ead01	-0.27866367
30	0xbd781fd9	-0.060577247
31	0xbe26dfbd	-0.16296287
32	0xbe21dade	-0.15806147
33	0xbdd892c8	-0.10574871
34	0xbdc6551f	-0.09684204
35	0xbe24af48	-0.1608249
36	0xbe128a46	-0.1431056
37	0xbda38780	-0.07984829
38	0xbe474ce7	-0.1946293
39	0xbe219ee3	-0.15783267
40	0xbe070b63	-0.13187937
41	0xbe2cedde	-0.16887614
42	0xbbd916a8	-0.0066250153
43	0xbe55738d	-0.2084486
44	0xbd9b987b	-0.07597443
45	0xbe140240	-0.14453983
46	0xbe341326	-0.1758543
47	0xbe01745d	-0.12642045
48	0xbe12f461	-0.14351036
49	0xbe2fe40b	-0.17176835
50	0xbe0a5b5b	-0.13511412
51	0xbe761026	-0.24029598
52	0xbe0b8add	-0.13627191
53	0xbe030333	-0.12794189
54	0xbdf63ac3	-0.12022927
55	0xbdf9cf7b	-0.12197777
56	0xbdc8c657	-0.09803455
57	0xbdacd8e3	-0.08439805
58	0xbe141295	-0.14460213
59	0xbdf727e0	-0.120681524
60	0xbe53a020	-0.20666552
61	0xbe254344	-0.16138941
62	0xbda55994	-0.08073726
63	0xbe01fe32	-0.12694624

body.block1.norm.running_mean f4 [64]
0	0x3e8a693d	0.27033415
1	0xbe75cc4c	-0.24003714
2	0xbd91c862	-0.07118298
3	0x3e54b933	0.20773773
4	0xbf196e14	-0.5993359
5	0xbd6a304d	-0.05717497
6	0x3f1777bf	0.59167093
7	0x3ed3b6d4	0.41350424
8	0x3e97bb2b	0.29634985
9	0xbe864258	-0.2622249
10	0x3eb831c3	0.35975465
11	0xbfa779a1	-1.3083993
12	0xbdb38f3a	-0.08767553
13	0x3f0dba68	0.5536256
14	0x3d307e87	0.043089416
15	0xbe811629	-0.2521222
16	0x3ede25e9	0.43388298
17	0x3cc5762e	0.024104204
18	0xbe873281	-0.2640572
19	0x3dbed3c1	0.093177326
20	0x3d130cdc	0.035900936
21	0xbf0b13d4	-0.5432713
22	0xbf03aafb	-0.5143277
23	0xbda567f1	-0.08076466
24	0xbeef0cc1	-0.46689418
25	0xbddcf449	-0.10788781
26	0xbe96b3ef	-0.29434153
27	0x3e7a1712	0.24422863
28	0xbf0b290f	-0.54359525
29	0xbf43ba61	-0.76456267
30	0x3e966cde	0.29379934
31	0xbf0c2f76	-0.5475992
32	0xbed00ad1	-0.40633252
33	0xbe562411	-0.20912196
34	0xbd0fd8a4	-0.035118714
35	0x3f1cc804	0.612427
36	0xbf3efed9	-0.74607617
37	0xbd837c22	-0.06420161
38	0xbee097ea	-0.438659
39	0xbd7a99c8	-0.061181813
40	0x3e5b5ebb	0.21422856
41	0xbd836411	-0.064155705
42	0xbdbb1c2d	-0.091362335
43	0xbf2a50da	-0.6652962
44	0x3da72c22	0.081627145
45	0x3d41002b	0.0471193
46	0xbebac1ff	-0.36476132
47	0xbd735a18	-0.059412092
48	0x3e03a4cf	0.12855838
49	0x3ed99d68	0.42502904
50	0xbe9ee84c	-0.31036603
51	0xbe94df73	-0.29076728
52	0xbed6409a	-0.41846162
53	0xbd849a02	-0.06474687
54	0x3e3c105e	0.18365619
55	0x3ea1fa43	0.31636247
56	0x3ecef838	0.4042375
57	0x3e77ad17	0.24187122
58	0xbedc3261	-0.43007186
59	0x3e103b91	0.14085223
60	0xbeb298e3	-0.34882268
61	0x3e87db3a	0.26534444
62	0xbe6a2af1	-0.22867943
63	0x3edcef65	0.43151394

body.block1.norm.running_var f4 [64]
0	0x3e88c4df	0.267127
1	0x3e436164	0.1908012
2	0x3eeaaeca	0.45836478
3	0x3e7633d1	0.24043204
4	0x3e76697b	0.24063675
5	0x3e8cee7e	0.27525705
6	0x3e7c7b4d	0.2465641
7	0x3eef0db8	0.46690154
8	0x3e6b60ef	0.22986196
9	0x3e8716e1	0.26384643
10	0x3e6596ca	0.22420803
11	0x3ee74c2f	0.4517531
12	0x3e9c9cc5	0.30588356
13	0x3f442c58	0.76630163
14	0x3ece5d87	0.4030573
15	0x3e8187b1	0.25298837
16	0x3f07e2b2	0.53080285
17	0x3e6392c7	0.2222396
18	0x3e994ebb	0.2994288
19	0x3e7d3ded	0.24730654
20	0x3ea68b8a	0.32528335
21	0x3e8aef98	0.2713592
22	0x3e64aea3	0.22332244
23	0x3eb94031	0.36181787
24	0x3e8d32ee	0.2757792
25	0x3f04cf1e	0.51878536
26	0x3e85da75	0.26143232
27	0x3eab8acd	0.33504334
28	0x3ee2e453	0.44314823
29	0x3e7d3ecb	0.24730985
30	0x3f55549b	0.8333222
31	0x3e83c2e6	0.25734633
32	0x3e9ca4ae	0.3059439
33	0x3f095ce0	0.5365734
34	0x3ea0cacc	0.31404722
35	0x3f5c8842	0.8614541
36	0x3e8bd053	0.27307376
37	0x3ed6270b	0.41826662
38	0x3e8b3283	0.27186975
39	0x3edba53e	0.42899507
40	0x3e6fe8d7	0.23428665
41	0x3f0b3cfc	0.5438993
42	0x3ed9637a	0.42458707
43	0x3e935aa1	0.28780082
44	0x3ed63b92	0.41842324
45	0x3e8411f5	0.2579495
46	0x3e8b1494	0.27164137
47	0x3e681d1c	0.22667354
48	0x3e88c1bf	0.26710317
49	0x3e6eb910	0.23312783
50	0x3ef9ef30	0.48815298
51	0x3e48a095	0.19592507
52	0x3ecbda7c	0.39815128
53	0x3ebca4ea	0.3684457
54	0x3e9e4f93	0.30920085
55	0x3e70c7b8	0.23513687
56	0x3ee5f150	0.4491067
57	0x3ec90949	0.39264897
58	0x3ee281b4	0.4423958
59	0x3ea4b87d	0.32172003
60	0x3e61264a	0.21987262
61	0x3f06de18	0.5268264
62	0x3e9a44b8	0.30130553
63	0x3ea2bd54	0.3178507
