TrainedModels/SMB-1-1/scale_factor=0.750000,alpha=10/3/netD.pth (torch, 127051 bytes, 25 tensors)

head.conv.weight f4 [32, 3, 3, 3]
0	0x3d67fe18	0.056638807
1	0x3d76af2f	0.06022566
2	0x3c0dbb0a	0.008650551
3	0xbd090a80	-0.03345728
4	0xbcdede8d	-0.02720573
5	0xbce89dc5	-0.028395543
6	0xbd78e54d	-0.060765553
7	0xbd67cd45	-0.056592245
8	0xbdb2cf3c	-0.08730933
9	0xbd4f3f7a	-0.050597645
10	0x3c71df84	0.014762763
11	0xbcb79872	-0.022411559
12	0x3b7bff25	0.0038451639
13	0xbb60375a	-0.003421268
14	0x3d43a07d	0.047760475
15	0x3d46efa3	0.04856838
16	0x3cbeb049	0.023277419
17	0x3d3c6472	0.04599423
18	0xbddcc07d	-0.10778902
19	0xbdd0a958	-0.1018855
20	0xbe01d8f3	-0.12680416
21	0xbc27e1e6	-0.0102467295
22	0x3c21534e	0.009846522
23	0xb9b920f0	-0.0003531049
24	0x3d828fdc	0.06375095
25	0x3d8b6b79	0.06807608
26	0x3da54281	0.08069325
27	0x3d629f05	0.055327434
28	0x3c55de66	0.013053512
29	0xbce011bf	-0.027352212
30	0x3dc6c10b	0.09704789
31	0xbd490f4c	-0.049086854
32	0xbdc2b830	-0.09507787
33	0x3e86136b	0.2618669
34	0x3dcbbade	0.099477515
35	0xbd64ddd0	-0.0558756
36	0x3c1c81d3	0.009552437
37	0x3d326b64	0.043559447
38	0xbd29f206	-0.041490577
39	0x3cfb779e	0.030696686
40	0xbc75c774	-0.015001167
41	0xbd2fbff6	-0.042907678
42	0x38a28cea	7.751009e-05
43	0x3d8b8638	0.068127096
44	0xbc46f2e0	-0.012142867
45	0xbd54fea1	-0.052000646
46	0xbda445b2	-0.08021106
47	0x3d29bb9e	0.04143869
48	0x3d7e6903	0.062111866
49	0xbdc79ed0	-0.09747088
50	0x3c12a223	0.008949789
51	0xbde3028e	-0.11084472
52	0xbd8ee0bb	-0.06976458
53	0x3d9cce13	0.07656493
54	0xbddfb31e	-0.10922836
55	0x3ddfae60	0.10921931
56	0x3d3f3dad	0.046689678
57	0xbd29ef25	-0.04148783
58	0x3db1b0a8	0.08676273
59	0x3d1d172b	0.038352173
60	0xbd0584f0	-0.032597482
61	0x3b51730f	0.003195945
62	0x3d3e848f	0.046513136
63	0xbd9df479	-0.07712645
64	0x3d3d3c01	0.046199802
65	0xbc833edb	-0.016021183
66	0x3c4f924e	0.012669159
67	0x3cb54719	0.022128629
68	0xbc601f3b	-0.013679321
69	0x3cafb368	0.021447852
70	0x3d024edd	0.03181349
71	0xbc0539ba	-0.008131439
72	0x3ccad800	0.0247612
73	0xbc199663	-0.009374234
74	0x3a5c70ca	0.0008409141
75	0x3dd07502	0.101785675
76	0xbd81c037	-0.0633549
77	0xbdc755c9	-0.09733159
78	0x3e2e3152	0.17011002
79	0xbc476d8b	-0.012172113
80	0xbdb346a8	-0.08753711
81	0xbd2e1cac	-0.042507812
82	0x3d2b6839	0.04184744
83	0xbb9752f6	-0.004618044
84	0x3d0e6b0c	0.034770057
85	0x3dac493f	0.08412408
86	0x3d193409	0.03740314
87	0x3cafc057	0.02145402
88	0x3d916b21	0.07100511
89	0x3d90960a	0.07059868
90	0x39c0114c	0.0003663398
91	0xbd5d8a62	-0.05408705
92	0xbd734e05	-0.059400577
93	0xbb5654d7	-0.0032704377
94	0x3afda09d	0.0019350235
95	0xbd0e85fd	-0.03479575
96	0xbde49b7b	-0.11162468
97	0xbd0893b4	-0.033343986
98	0x3ceb6d79	0.028738724
99	0x3d727e94	0.059202746
100	0x3d8cdc41	0.068779476
101	0x3d8c9d7c	0.06865975
102	0x3d72e29e	0.05929815
103	0x3d29d923	0.041466843
104	0x3da77d31	0.08178175
105	0xbddb98f2	-0.107225314
106	0xbda7a04f	-0.08184873
107	0xbcdaa257	-0.026688738
108	0x3e25aef1	0.16180016
109	0x3b2cc927	0.0026365013
110	0x3e3e1543	0.18562798
111	0xbe08684b	-0.13321035
112	0xbc8b1e7b	-0.016982308
113	0xbe2a3ad5	-0.16624005
114	0x3d6c4e94	0.057692125
115	0x3cac82a2	0.021058384
116	0x3cadebf9	0.021230685
117	0x3d6e7396	0.0582157
118	0xbcf3017b	-0.029663792
119	0x3d97bd81	0.07409192
120	0xbe014eb9	-0.12627687
121	0xbce83dda	-0.028349806
122	0xbe24e106	-0.16101465
123	0x3cf98339	0.03045808
124	0x3ce679e0	0.028134286
125	0x3d5ba92a	0.053628124
126	0x3c3eb362	0.011639448
127	0xbcfcfce4	-0.030882306
128	0x3d9b1676	0.075726435
129	0xbd0f982c	-0.03505723
130	0x3cf2b983	0.029629475
131	0xbdb72b8d	-0.089438535
132	0x3d9d2382	0.07672788
133	0xbd39a244	-0.045320764
134	0x3ca280ad	0.019836748
135	0xbc60751c	-0.013699796
136	0xbd250749	-0.04029015
137	0xbcd046e7	-0.025424434
138	0xbd89f794	-0.06736675
139	0xbcd9f5a6	-0.026606392
140	0xbd041535	-0.032246787
141	0x3e0002a4	0.12501007
142	0x3dbb0d73	0.091334246
143	0xbc00b173	-0.007854807
144	0xbd87fb8a	-0.06639774
145	0x3d0d285b	0.034462314
146	0x3cf835b4	0.030299045
147	0xbd964d51	-0.07338966
148	0x3b43cf9b	0.0029878381
149	0x3dd65425	0.10465268
150	0x3d581762	0.052756675
151	0x3cf750ca	0.03018989
152	0x3dac4f16	0.08413522
153	0xbdb99572	-0.090617076
154	0xbc93902d	-0.018013084
155	0x3d8341c4	0.06409028
156	0xbcbe4ef4	-0.023231007
157	0xbcedb2af	-0.029015867
158	0xbc125daa	-0.008933464
159	0x3e26a8e5	0.16275366
160	0x3e29e06a	0.16589513
161	0xbc5c0695	-0.013429304
162	0x3ddd51b5	0.108066
163	0x3d522755	0.05130704
164	0xbc63ef71	-0.013912068
165	0x3e1998d1	0.14999701
166	0x3bc685bf	0.0060584242
167	0xbdf7764d	-0.12083111
168	0x3dc7e5fb	0.09760662
169	0xbd8bc075	-0.06823818
170	0xbca2c980	-0.019871473
171	0xbd3ed80b	-0.046592753
172	0xbd18f29d	-0.03734075
173	0xbc665902	-0.014059307
174	0x3c122655	0.008920272
175	0x3d3b8cbf	0.045788523
176	0xbc98b09b	-0.0186389
177	0xbe0464c2	-0.12929061
178	0x3caf86a0	0.021426499
179	0xbb736145	-0.0037136835
180	0xbca522eb	-0.020158252
181	0x3cc6fa1d	0.024289185
182	0xbc36091f	-0.011110573
183	0x3b9ac97c	0.004723726
184	0x3d3d1958	0.046166748
185	0xbc9f119d	-0.019417578
186	0xbec36517	-0.38163063
187	0xbd332395	-0.043735106
188	0xbc4f3e69	-0.012649157
189	0x3dfe4006	0.12414555
190	0x3dbc5cab	0.091973625
191	0x3e2c2107	0.16809474
192	0x3e148cd6	0.1450685
193	0x3d2c6bff	0.04209518
194	0x3ddff656	0.10935657
195	0x3cecf71a	0.028926421
196	0x3d0c4582	0.034245975
197	0x3d97b021	0.07406641
198	0x3dafa2e1	0.085759886
199	0x3c7f4a42	0.015581669
200	0x3daa270a	0.08308227
201	0x3dfb388b	0.12266644
202	0x3d67a2e3	0.056551825
203	0x3e0e00af	0.13867448
204	0x3d506ac7	0.05088308
205	0x3d556228	0.052095562
206	0x3d8f58d4	0.069993645
207	0xbd1302f9	-0.035891507
208	0xbc3ff19e	-0.011715321
209	0x3d1201ce	0.035646252
210	0xbc069c9c	-0.0082160495
211	0x3d3091f0	0.043107927
212	0x3d37285b	0.04471622
213	0xbd1e2f38	-0.03861925
214	0x3ceb277b	0.02870535
215	0xbb6e012c	-0.0036316616
216	0x3cf74a62	0.030186836
217	0x3d121011	0.035659853
218	0xbd82a13e	-0.06378411
219	0xbce4c6c8	-0.027926818
220	0x3be99e91	0.0071294983
221	0x3db5104f	0.08841001
222	0x3cb9790f	0.022640733
223	0x3d542386	0.05179169
224	0x3ccdbc98	0.025114343
225	0x3caffced	0.02148291
226	0xbc308a23	-0.010775122
227	0x3c9a3c3c	0.01882755
228	0xbd70ae85	-0.058760185
229	0x3c6a8719	0.014314436
230	0xba208643	-0.0006123522
231	0xbda02468	-0.07819444
232	0x3d1e5bf9	0.03866193
233	0xbcff12d2	-0.031136904
234	0x3dc508ff	0.096208565
235	0x3d02ebca	0.031963147
236	0x3d9ac01b	0.075561725
237	0xbd3d28e5	-0.04618158
238	0xbd014ecc	-0.031569287
239	0xba000db8	-0.0004884857
240	0xbe5d4a30	-0.21610332
241	0xbdfb7846	-0.122788
242	0xbd951f6f	-0.07281386
243	0xbca438a3	-0.020046538
244	0xbbb95e6e	-0.005657009
245	0xbbc739fd	-0.006079911
246	0xbcb41e8d	-0.021987224
247	0xbb9f25a6	-0.004856783
248	0xbb495b03	-0.0030724413
249	0x3d2bbc95	0.041927893
250	0x3d86e1e4	0.06586054
251	0x3d155f46	0.036467813
252	0xbbc3e05a	-0.0059776725
253	0x3d1257c9	0.03572825
254	0x3c1e94ab	0.009679
255	0xbd4f13e3	-0.050556075

head.conv.bias f4 [32]
0	0xbec13ac3	-0.37740144
1	0x3d99022d	0.07471118
2	0xbe270e91	-0.1631415
3	0xbef7eda8	-0.48423505
4	0xbd3f99d4	-0.04677756
5	0x3dc94bb2	0.09828891
6	0xbd6e5f37	-0.058196273
7	0xbfa00b16	-1.2503383
8	0x3f3035b9	0.68831974
9	0x3dd5637e	0.10419367
10	0x3cfdc4b2	0.03097758
11	0xbd22c5a5	-0.03973927
12	0x3f248e7a	0.642799
13	0xbafd8fc3	-0.0019345212
14	0x3cc2b5cf	0.023768334
15	0xbd93ce96	-0.072171375
16	0xbf5643e3	-0.83697337
17	0x3e68cf50	0.22735333
18	0x3d581bf4	0.052761033
19	0x3b20be43	0.0024527467
20	0x3c8db188	0.017296568
21	0x3f935552	1.1510413
22	0xbdc2acf2	-0.09505643
23	0x3e1d57b2	0.15365484
24	0x3ed4479f	0.41460893
25	0x3ede044a	0.43362647
26	0x3f4935fd	0.78598005
27	0x3f627a01	0.88467413
28	0x3d0d0f2a	0.03443829
29	0x3df71441	0.1206441
30	0xbbc7b529	-0.006094594
31	0x3b4f118a	0.0031596147

head.norm.weight f4 [32]
0	0x3f84d3f5	1.0377184
1	0x3f762515	0.9615033
2	0x3f6701f3	0.9023735
3	0x3f645273	0.8918831
4	0x3f74ff74	0.9570229
5	0x3f6988bb	0.9122426
6	0x3f8239c9	1.0173885
7	0x3f72ae4d	0.9479721
8	0x3f8111f9	1.008361
9	0x3f81dc5c	1.0145373
10	0x3f80c743	1.006081
11	0x3f665257	0.8996939
12	0x3f471bf6	0.7777704
13	0x3f724a11	0.94644266
14	0x3f82e8d7	1.0227307
15	0x3f88ebb3	1.069693
16	0x3f550c09	0.8322149
17	0x3f84bda0	1.0370369
18	0x3f70f840	0.941288
19	0x3f6c5439	0.92316014
20	0x3f6a7284	0.91580987
21	0x3f76d2a4	0.9641516
22	0x3f7e4271	0.9932013
23	0x3f8234be	1.0172346
24	0x3f79f4bd	0.97639066
25	0x3f801d59	1.0008956
26	0x3f7261fc	0.9468076
27	0x3f5c3d94	0.8603146
28	0x3f6d296a	0.9264132
29	0x3f72c857	0.94836944
30	0x3f81e80d	1.0148941
31	0x3f63b41f	0.8894672

head.norm.bias f4 [32]
0	0x3dbb1619	0.09135074
1	0xbd7df7cc	-0.062003896
2	0x3ebcf727	0.36907312
3	0xbdb4dfd3	-0.088317536
4	0x3e3434c4	0.17598253
5	0x3f53384a	0.82507765
6	0x3c412b7a	0.011790151
7	0x3c490c34	0.012270976
8	0xbecca872	-0.39972264
9	0xbb7f18e0	-0.0038924739
10	0x3eb2e2c0	0.34938622
11	0x3eeb9648	0.46013093
12	0x3ec2eb95	0.3807036
13	0x3ea1f89c	0.31634986
14	0xbe39d119	-0.1814617
15	0x3e44f5c3	0.19234376
16	0x3e929e4a	0.2863639
17	0xbea8b294	-0.32948744
18	0x3e098e78	0.13433254
19	0x3ede55fd	0.4342498
20	0x3efeb032	0.497438
21	0x3d27bfe0	0.04095447
22	0x3e9de04a	0.3083518
23	0x3e562bc7	0.20915137
24	0xbd9dbda7	-0.07702189
25	0xbe06b9a4	-0.13156754
26	0x3e85f405	0.26162735
27	0x3edc9e44	0.43089497
28	0xbd932f8f	-0.071868055
29	0x3d9b9619	0.07596988
30	0xbd4bb66b	-0.049734514
31	0x3ef07f26	0.46972007

head.norm.running_mean f4 [32]
0	0xbee8d4d0	-0.45474863
1	0xbe7f4324	-0.24927956
2	0xbe3a3b2e	-0.18186638
3	0xbeeaf7c0	-0.45892143
4	0xbdd5c9a8	-0.104388535
5	0x3eb5c514	0.3550192
6	0xbf16bda2	-0.58883107
7	0xbfa869c0	-1.3157272
8	0x3ea9569a	0.33073884
9	0xbed6783d	-0.4188861
10	0x3e6241c5	0.22095402
11	0x3ea11a36	0.3146531
12	0x3f10c9d8	0.5655799
13	0x3ea2c495	0.31790605
14	0xbe79a028	-0.24377501
15	0xbd9aad9e	-0.07552646
16	0xbf5b323d	-0.8562353
17	0xbe9f99f7	-0.31172153
18	0x3e1550d8	0.1458162
19	0x3e237e85	0.15966232
20	0x3d8821ff	0.06647109
21	0x3faaff7f	1.3359221
22	0xbd2cbad5	-0.042170364
23	0x3ee3cd69	0.44492653
24	0x3f286a23	0.6578695
25	0xbd310863	-0.04322089
26	0x3f5794e4	0.84211564
27	0x3f2f3601	0.6844178
28	0xbe642acf	-0.22281955
29	0x3e09615d	0.13416047
30	0x3dbc6f31	0.092008956
31	0x3e060693	0.13088445

head.norm.running_var f4 [32]
0	0x3d14ff9b	0.036376577
1	0x3da4ce6d	0.08047185
2	0x3cc4aaee	0.024007287
3	0x3cdcae69	0.026938634
4	0x3c61c0c9	0.013778874
5	0x3d94d0ee	0.07266413
6	0x3e662b30	0.22477412
7	0x3d535e4b	0.051603597
8	0x3e092e66	0.13396606
9	0x3e553656	0.20821509
10	0x3d58ad86	0.05289986
11	0x3dc4e454	0.09613863
12	0x3d4edae3	0.050501715
13	0x3dd20a16	0.1025583
14	0x3d93031c	0.071783274
15	0x3bfa2a3d	0.0076344297
16	0x3cf719be	0.030163642
17	0x3e4dd32b	0.20100085
18	0x3cfb226d	0.030656064
19	0x3cefca49	0.029271262
20	0x3d072ba2	0.033000596
21	0x3d940f0f	0.07229435
22	0x3c6ff86b	0.01464663
23	0x3da1a3c4	0.07892564
24	0x3d789f1d	0.060698617
25	0x3e00d4a8	0.12581122
26	0x3c68e65f	0.014215081
27	0x3d42855e	0.04749047
28	0x3d8824ea	0.06647666
29	0x3c2c3899	0.010511541
30	0x3ce0998d	0.027416969
31	0x3c90c88a	0.01767375

body.block1.conv.weight f4 [32, 32, 3, 3]
0	0xbe478759	-0.19485225
1	0xbe05c88d	-0.13064785
2	0xbde736ea	-0.11289771
3	0xbe1e2519	-0.15443839
4	0xbd922c39	-0.07137341
5	0xbcaccad5	-0.021092812
6	0xbd18bbf1	-0.03728861
7	0xbd2ce276	-0.042208157
8	0xbbd85f41	-0.006603152
9	0x3d85629f	0.06512951
10	0x3d357c2f	0.044307884
11	0x3deba1ff	0.11505508
12	0xbd686854	-0.05674012
13	0xbd453f7a	-0.04815624
14	0x3d787315	0.060656626
15	0xbd6d93e1	-0.058002356
16	0xbcb10612	-0.02160934
17	0x3d897cbc	0.06713244
18	0x3bee7b01	0.007277847
19	0x3cd82b4f	0.026387839
20	0xbc48c4c0	-0.01225394
21	0x3d2bd2ec	0.041949198
22	0x3d7a963a	0.061178423
23	0x3de9e55d	0.11420701
24	0xbd50072a	-0.050788082
25	0xbca2fb5c	-0.019895248
26	0x3e082d7c	0.13298601
27	0xbe1abd0f	-0.15111183
28	0xbdaeaf16	-0.08529489
29	0x3cbae2ff	0.022813318
30	0xbd9268a2	-0.071488634
31	0xbdf4e4d9	-0.11957712
32	0xbcdcbeac	-0.026946388
33	0xbdd62d1d	-0.104578234
34	0xbdacd088	-0.08438212
35	0x3cd67680	0.026179552
36	0x3d92bdeb	0.0716513
37	0xbe0afefa	-0.13573828
38	0x3c96fc23	0.018430775
39	0xbd3a47b6	-0.045478545
40	0xbda9560d	-0.08268366
41	0x3d4eff3a	0.05053637
42	0xba07bab7	-0.0005177664
43	0xbc4b735f	-0.012417643
44	0xbd1516fb	-0.03639887
45	0xbd832c18	-0.064048946
46	0xbd30ef0a	-0.043196715
47	0x3cb8a2f4	0.02253864
48	0xbe1258af	-0.14291643
49	0x3d5e113a	0.054215647
50	0x3e1e4e6b	0.15459602
51	0xbe28d0ab	-0.1648585
52	0xbd962884	-0.073319465
53	0x3bcaa0de	0.0061837276
54	0x3cca139c	0.024667554
55	0x3d7b7661	0.06139219
56	0x3db5227c	0.08844468
57	0xbc501995	-0.012701412
58	0xbd0e6e20	-0.034772992
59	0x3ca429cc	0.020039462
60	0xbd9f3f14	-0.07775703
61	0x3bc9c98c	0.0061580595
62	0x3d8cedf8	0.068813264
63	0x3d3d14e9	0.04616252
64	0x3c7b837b	0.015351172
65	0x3cb3087e	0.021854635
66	0xbd096baa	-0.033549942
67	0x3c953a85	0.01821638
68	0x3cf8d3a5	0.030374357
69	0xbba2db3f	-0.004969984
70	0x3dde94a7	0.10868197
71	0x3e3645df	0.17800091
72	0xbd53a418	-0.051670164
73	0x3d500c56	0.050793014
74	0x3cf39344	0.029733308
75	0xbd3bab23	-0.045817506
76	0x3d3bd835	0.045860488
77	0x3c432a5c	0.011911955
78	0xbd89a3e6	-0.06720714
79	0xbccf5395	-0.02530841
80	0xb990adc8	-0.00027595297
81	0xbdd04c01	-0.101707466
82	0xbcd59c82	-0.026075605
83	0x3ad571fc	0.001628458
84	0xbc414dda	-0.011798346
85	0x3d7f08a7	0.06226411
86	0x3c374fc6	0.011188453
87	0xbd41a067	-0.047272112
88	0x3b33b51d	0.0027421184
89	0xbc83e3a2	-0.016099755
90	0xbd90e4b9	-0.070748754
91	0xbd860b90	-0.06545174
92	0xbbb16424	-0.005413549
93	0x3da2dede	0.07952665
94	0x3d72306b	0.059128206
95	0x3d70f5ab	0.058828037
96	0x3d3fa9dc	0.04679285
97	0x3c54a539	0.012978845
98	0x3c781df4	0.01514386
99	0x3d838b1f	0.064230196
100	0x3d05b054	0.032638863
101	0x3da43875	0.08018581
102	0x3d588755	0.052863438
103	0x3d1a8095	0.03772028
104	0x3cf74708	0.030185238
105	0x3d8c1b60	0.06841159
106	0xbc0423a2	-0.008065136
107	0x3a6d0ea5	0.0009043015
108	0xbe076456	-0.13221869
109	0xbd045369	-0.03230611
110	0xbc807abb	-0.015683522
111	0xbc80bc64	-0.015714832
112	0x3c6acce3	0.014331075
113	0x3dc3e964	0.09566
114	0x3dac761a	0.084209636
115	0x3d9e1aa4	0.07719925
116	0x3df78cdc	0.12087414
117	0x3c613866	0.013746357
118	0x3d83be36	0.06432764
119	0x3e02d149	0.12775148
120	0x3d837764	0.06419256
121	0x3e134082	0.14380077
122	0x3e38fa63	0.18064265
123	0x3cd53b3b	0.02602922
124	0xbc0f274b	-0.0087373955
125	0x3bf45fb2	0.007457697
126	0xbcd88a2e	-0.026433077
127	0x3d9bfc68	0.07616502
128	0x3e084490	0.13307405
129	0xbdb0c3b3	-0.08631077
130	0xbda88a30	-0.08229482
131	0xbd5610b6	-0.05226203
132	0xb9d8e8fe	-0.00041372323
133	0x3aa1b6bc	0.0012337784
134	0xbc98f688	-0.018672243
135	0x3d34b582	0.04411841
136	0x3ca81779	0.020519005
137	0x3e1a6682	0.15078166
138	0x3df153ac	0.11783537
139	0xbd5a6977	-0.053323235
140	0x3d4a0151	0.04931766
141	0xbda42834	-0.08015481
142	0xbdca3e33	-0.09875145
143	0x3dd71925	0.10502843
144	0xbc793526	-0.0152104255
145	0xbc050352	-0.008118467
146	0xbd4451d4	-0.0479296
147	0x3cfda4ae	0.030962314
148	0xbc663ae8	-0.01405213
149	0xbd8f06b2	-0.06983699
150	0xbd4ddb0a	-0.05025772
151	0xbdcdecf2	-0.10054959
152	0x3cc57611	0.02410415
153	0xbb31a3c5	-0.002710567
154	0x3d1499ea	0.036279596
155	0x3d143c22	0.03619016
156	0xbb3fc8c7	-0.002926396
157	0x3c84ffe5	0.016235301
158	0xbd339985	-0.04384758
159	0x3d924824	0.07142666
160	0x3d900780	0.070326805
161	0x3d1011e9	0.03517333
162	0x3d5f522c	0.054521725
163	0x3c88b3e4	0.016687341
164	0x3d4eabe5	0.0504569
165	0x3e264f57	0.16241203
166	0x3dd9a6e5	0.10627536
167	0x3dbd967d	0.09257219
168	0x3d6614a5	0.056172032
169	0x3d579163	0.052628886
170	0x3cf423c1	0.029802205
171	0x3db6c363	0.08923986
172	0x3da83dbd	0.08214901
173	0x3deb2b31	0.114828475
174	0x3df328d4	0.11873022
175	0x3dee0812	0.11622633
176	0x3db97f14	0.09057441
177	0xbd8a654b	-0.06757601
178	0xbdaf9ecd	-0.08575211
179	0xbd12702a	-0.0357515
180	0x3c13a90c	0.009012472
181	0xbc8ca746	-0.017169606
182	0x3d83b33c	0.064306706
183	0x3c6700a6	0.014099276
184	0xbc990307	-0.018678201
185	0x3de5dab8	0.11223358
186	0xbd808cc4	-0.06276849
187	0x3c17e79b	0.009271528
188	0x3db80967	0.08986168
189	0xbd93141c	-0.0718157
190	0x3daed51a	0.0853674
191	0x3dd6d204	0.10489276
192	0xbe00a960	-0.12564611
193	0xbdecf953	-0.11570992
194	0xbcbe7d01	-0.023252966
195	0xbd62f3b2	-0.055408187
196	0xbdb32fee	-0.08749376
197	0x3d86c109	0.06579787
198	0x3d95c44f	0.073128335
199	0x3d47fdaf	0.048825916
200	0x3dce80ec	0.10083184
201	0xbc8ecd2a	-0.017431814
202	0x3d769b64	0.060206786
203	0x3e173a87	0.1476842
204	0xbdc3aba2	-0.09554221
205	0xbd94b1b9	-0.072604604
206	0x3c8e048c	0.017336152
207	0x3ccb4e9c	0.024817757
208	0xbd72acc5	-0.059246797
209	0x3d396fc1	0.045272592
210	0x3ce4b4e5	0.027918288
211	0xbc497948	-0.012296982
212	0x3e134c2e	0.14384529
213	0xbd8f314a	-0.06991823
214	0xbde7adb4	-0.11312428
215	0x3d49cade	0.049265735
216	0x3cbac9e0	0.02280134
217	0x3d06c75f	0.03290498
218	0x3d08ceed	0.033400465
219	0x3cdb4af8	0.026769146
220	0x3ce4aa1b	0.027913144
221	0x3d943c2f	0.072380416
222	0x3c00642e	0.007836385
223	0x3cf9b192	0.03048018
224	0x3c311711	0.010808722
225	0x3d7e10c5	0.06202771
226	0xbce9a62b	-0.028521618
227	0x3dec512f	0.11538922
228	0x3de48d3f	0.11159753
229	0x3d40daf6	0.047083817
230	0x3d2f0415	0.042728502
231	0x3ca58e39	0.020209419
232	0xbd8a684a	-0.06758173
233	0xbd4ca0f2	-0.049958177
234	0x3cbcefb4	0.023063518
235	0xbc28d4b5	-0.01030462
236	0x3cee55e9	0.0290937
237	0xbd9968cc	-0.074906915
238	0xbd476298	-0.04867801
239	0xbdbd1546	-0.09232573
240	0x3cc63c4f	0.02419868
241	0x3d11815c	0.035523757
242	0xba089cb8	-0.0005211341
243	0x3da2187a	0.07914825
244	0x3c4057eb	0.011739711
245	0x3d9548f2	0.07289304
246	0x3d167905	0.036736507
247	0x3c1ae0d9	0.009453022
248	0xbd4e3db3	-0.05035181
249	0x3d6b7521	0.05748475
250	0x3d4f18b8	0.050560683
251	0x3d92f1df	0.071750395
252	0xbcba2f6b	-0.022727689
253	0xbc6264b1	-0.013817952
254	0xbcf0192b	-0.029308876
255	0x3de36834	0.111038595

body.block1.conv.bias f4 [32]
0	0x3d7723f7	0.060337033
1	0xbc9e3d99	-0.019316481
2	0x3d7bcc3b	0.061474066
3	0x3cab402c	0.020904623
4	0x3dbcde40	0.09222078
5	0xbd8d0e98	-0.06887549
6	0x3cd98a22	0.026555125
7	0xbc34cf36	-0.011035731
8	0x3d1c6c9a	0.038189508
9	0x3c9bdcba	0.019026149
10	0x3e047397	0.12934719
11	0x3dc5b206	0.09653096
12	0x3de61d14	0.11236015
13	0x3ce917fc	0.02845382
14	0x3cc9d5d7	0.0246381
15	0x3e08a29b	0.13343279
16	0x3c21be0a	0.009871969
17	0xbce93f3d	-0.028472537
18	0xbdb8daa3	-0.09026077
19	0x3da3980e	0.079879865
20	0x3d6ec885	0.0582967
21	0x3c832976	0.016010981
22	0x3da486dd	0.08033536
23	0x3d577185	0.052598495
24	0x3dc967e6	0.0983427
25	0xbd4c6574	-0.04990144
26	0xbd6ee6b8	-0.0583255
27	0xbd48c581	-0.04901648
28	0xbaccd9c2	-0.0015628862
29	0x3e322b5d	0.17399354
30	0x3ce0810b	0.027405282
31	0x3d7f0a91	0.062265936

body.block1.norm.weight f4 [32]
0	0x3f6be5ca	0.92147505
1	0x3f606a48	0.8766217
2	0x3f6f43ff	0.9346313
3	0x3f79e9a7	0.9762215
4	0x3f7ad2f5	0.97978145
5	0x3f6e608b	0.9311606
6	0x3f7420a5	0.9536231
7	0x3f8764fb	1.0577692
8	0x3f3750d9	0.7160774
9	0x3f4a48f1	0.7901755
10	0x3f7dc6da	0.9913155
11	0x3f72d026	0.9484886
12	0x3f468924	0.7755301
13	0x3f8e7c28	1.113164
14	0x3f69f8fe	0.91395557
15	0x3f78f6c4	0.97251534
16	0x3f618b8c	0.88103557
17	0x3f86087a	1.0471337
18	0x3f5c9a98	0.8617339
19	0x3f622cd7	0.8834967
20	0x3f662498	0.8989959
21	0x3f73cba6	0.9523262
22	0x3f4a1805	0.789429
23	0x3f713a41	0.94229513
24	0x3f5fc5b1	0.8741103
25	0x3f6e929d	0.93192464
26	0x3f928d95	1.1449457
27	0x3f8b97cd	1.0905701
28	0x3f621535	0.8831361
29	0x3f4f2c7c	0.8092725
30	0x3f65b798	0.89733267
31	0x3f43a128	0.7641778

body.block1.norm.bias f4 [32]
0	0x3f34e047	0.7065472
1	0x3f293dc6	0.66109884
2	0x3edc49aa	0.4302495
3	0x3f59a54f	0.85017866
4	0x3e2833a2	0.16425946
5	0x3e929c83	0.28635034
6	0x3ead946b	0.33902296
7	0x3ebc1939	0.36737993
8	0x3f1c0021	0.60937697
9	0x3eb2fc7a	0.3495825
10	0x3ef46625	0.4773418
11	0x3f5ca7a3	0.86193293
12	0x3fd3444d	1.6505219
13	0x3eeb6717	0.4597709
14	0x3f7f5385	0.99736816
15	0x3ea00c70	0.3125949
16	0x3eeab1e9	0.4583886
17	0x3e94b89a	0.2904709
18	0x3f3d6587	0.73983043
19	0x3f6086ab	0.87705487
20	0x3f2e454b	0.6807448
21	0x3f039ace	0.5140809
22	0x3f337b06	0.70109594
23	0x3f0c70b1	0.54859453
24	0x3f40d80f	0.7532968
25	0x3ecba2ab	0.39772543
26	0xbdb3d5ca	-0.087810114
27	0x3c829a92	0.015942845
28	0x3f836a58	1.0266829
29	0x3f5b69c0	0.85708237
30	0x3f067eef	0.52537435
31	0x3ed44e32	0.41465908

body.block1.norm.running_mean f4 [32]
0	0x3feca680	1.8488312
1	0xbfec9893	-1.8484062
2	0xbed8bd4c	-0.42331922
3	0xbded7605	-0.11594776
4	0x3f2e374b	0.6805312
5	0xc075ef7d	-3.8427422
6	0xbf4c3451	-0.7976733
7	0xc08abc2e	-4.335471
8	0xbfd0a51f	-1.6300391
9	0xc0376744	-2.8656778
10	0xc0a37d18	-5.10902
11	0xbf875217	-1.0571927
12	0xbef96aad	-0.487142
13	0xbe8a67bd	-0.2703227
14	0x3fe2f55f	1.7731131
15	0xbf9bbba4	-1.2166638
16	0x3f74cdf8	0.95626783
17	0xbf1c62b0	-0.61088085
18	0xc011b640	-2.2767487
19	0x3edf3a41	0.43599132
20	0x3f9868dc	1.1907
21	0x3f8b49a7	1.0881852
22	0x4007f19f	2.1241224
23	0xc010272f	-2.2523916
24	0xbfc9daf7	-1.5769948
25	0xc07cf701	-3.952576
26	0xbf3b4042	-0.73144925
27	0xbf66c142	-0.9013864
28	0xc09098b0	-4.5186386
29	0xbf2b5eae	-0.66941345
30	0xbcece266	-0.028916549
31	0xc016187b	-2.3452442

body.block1.norm.running_var f4 [32]
0	0x3efa14fd	0.48844138
1	0x3f1bdd3f	0.6088447
2	0x40847c71	4.1401906
3	0x3f1dc55e	0.61629283
4	0x3f9899f5	1.1921984
5	0x3f21ceb1	0.6320601
6	0x40a3d646	5.1199064
7	0x3f88f27b	1.0698999
8	0x3efa1fe6	0.48852462
9	0x40149fb4	2.3222475
10	0x3fac3c8b	1.3455976
11	0x3fe9e130	1.8271847
12	0x3fd30c11	1.6488057
13	0x406d75e3	3.7103202
14	0x401be0e4	2.4356012
15	0x3f878f3d	1.0590588
16	0x3f1c9b6d	0.6117466
17	0x3f36c316	0.7139143
18	0x3f853124	1.0405622
19	0x4032a0d9	2.7910674
20	0x3f930721	1.148655
21	0x3f28f6d7	0.6600165
22	0x3fcabd02	1.5838931
23	0x3f039e33	0.5141327
24	0x3fcec33a	1.6153328
25	0x3e393a6e	0.18088695
26	0x3fcccbd7	1.5999707
27	0x3f0f9a49	0.56094795
28	0x403e8ba5	2.9772732
29	0x3f808eb2	1.0043547
30	0x3fe5f5a9	1.7965595
31	0x403a3619	2.9095519

body.block2.conv.weight f4 [32, 32, 3, 3]
0	0xbd8fad6d	-0.070155
1	0xbdd333a0	-0.10312581
2	0xbe55e0ea	-0.20886579
3	0xbdd24d93	-0.10268702
4	0xbdf86408	-0.121284544
5	0xbde593eb	-0.11209854
6	0x3dff66e7	0.12470799
7	0x3d77d419	0.060505006
8	0x3d10f2dd	0.035387862
9	0xbe375632	-0.17903975
10	0xbdaabad0	-0.08336413
11	0xbdf91879	-0.12162871
12	0x3c5e60cc	0.013572883
13	0x3d13834a	0.03601388
14	0xbc0fd0b8	-0.00877779
15	0x3bbb0cc7	0.0057083103
16	0xbc508cdc	-0.012728896
17	0xbb1a7a1e	-0.0023571323
18	0xbd2ea563	-0.042638194
19	0xbcdb9835	-0.026805976
20	0xbd06dd04	-0.03292562
21	0xbc6a9bfd	-0.014319417
22	0x3b005d97	0.0019587034
23	0xbd39e658	-0.04538569
24	0xbca54425	-0.020174095
25	0xbcfefcb3	-0.031126356
26	0xbdc9ddb9	-0.09856743
27	0xbe00e447	-0.12587081
28	0xbd05fa1e	-0.032709233
29	0xbd9eddf4	-0.07757178
30	0x3d9017e5	0.070358075
31	0x3daf526d	0.08560643
32	0x3dd602b0	0.10449731
33	0xbd8e1152	-0.06936897
34	0xbd8f0cd1	-0.069848664
35	0xbd932ef5	-0.07186691
36	0x3c361de9	0.01111553
37	0xbba92cc3	-0.0051628067
38	0xbb813bc3	-0.0039438917
39	0xbceb678b	-0.028735897
40	0x3d2f11bf	0.042741533
41	0x3ca1f647	0.019770755
42	0xbccf7a6a	-0.025326926
43	0xbbba3fc8	-0.005683873
44	0x3b3a90c5	0.0028467637
45	0xbd915957	-0.07097118
46	0xbd66b160	-0.0563215
47	0xbdf26972	-0.11836518
48	0x3cd83033	0.02639017
49	0xbac4a400	-0.0015002489
50	0xbbc71327	-0.006075281
51	0xbc415ae5	-0.011801456
52	0x3bf978bd	0.00761327
53	0x3ca41f56	0.020034473
54	0xbd8638c4	-0.06553796
55	0xbd9da127	-0.07696753
56	0xbd782f95	-0.060592253
57	0xbcd720c4	-0.026260741
58	0xbc2e74bd	-0.01064795
59	0xbc87c397	-0.016572757
60	0xbc3d2ef9	-0.011546844
61	0xbbddb423	-0.0067658587
62	0xbdb71afc	-0.08940694
63	0xbd22dfc6	-0.03976419
64	0xbd2337f5	-0.039848287
65	0xbcdfeaa7	-0.02733357
66	0xbc9085a4	-0.01764185
67	0x3ce9a778	0.028522238
68	0xbd08a411	-0.03335959
69	0x3c059284	0.008152608
70	0xbd5e8314	-0.054324225
71	0xbd1b18e4	-0.037865534
72	0x3dcbe54a	0.09955843
73	0x3d954c40	0.07289934
74	0x3d8c6af9	0.06856341
75	0xbcd4aa56	-0.025960129
76	0xbd807d59	-0.06273908
77	0xbd921d01	-0.07134438
78	0xbd3a917b	-0.045548897
79	0xbd57feb4	-0.05273314
80	0xbdbfec38	-0.09371227
81	0x3d35ec1c	0.044414625
82	0xbbe4d56b	-0.006983449
83	0x3d3ac16b	0.045594614
84	0x3bdc8cee	0.0067306673
85	0x3d1f2dd1	0.038862053
86	0x3d41bb36	0.04729768
87	0xbda29667	-0.07938843
88	0xbcd8aa7d	-0.026448483
89	0xbd465715	-0.04842289
90	0x3b9a4acd	0.004708624
91	0xbca565da	-0.020190168
92	0xbd9e49de	-0.07728933
93	0x3b9fc585	0.004875841
94	0x3ca44a0e	0.020054843
95	0xbc99e91b	-0.018787911
96	0xbca703da	-0.020387579
97	0x3d1eb649	0.03874806
98	0x3d55f58a	0.052236117
99	0x3d83eaaa	0.06441243
100	0xbc1d009e	-0.009582667
101	0xbccf915b	-0.025337866
102	0x3d01b6a1	0.03166831
103	0x3c134479	0.008988493
104	0x3cd7605f	0.02629107
105	0xbd8c12f9	-0.06839556
106	0xbd6cd36a	-0.057818808
107	0xbd820357	-0.06348293
108	0xbd4eef3a	-0.050521113
109	0xbd02a94e	-0.031899743
110	0xbd528292	-0.051394053
111	0xbe180885	-0.14847
112	0xbdf82a60	-0.121174574
113	0xbe2f1b04	-0.1710015
114	0xbd85d965	-0.06535605
115	0x3c9dc7d3	0.019260323
116	0x3db7e682	0.08979513
117	0xbdf7f54d	-0.12107334
118	0xbe07d2ba	-0.1326398
119	0xbe1df223	-0.15424399
120	0xbd54202d	-0.051788498
121	0xbdb99f83	-0.090636276
122	0xbdd2c185	-0.10290817
123	0x3d8e4dc2	0.06948425
124	0x3d02051c	0.031743154
125	0x3d408b9d	0.047008146
126	0x3e040ab5	0.1289471
127	0x3e015696	0.12630686
128	0x3e13195d	0.14365144
129	0x3cb7dd50	0.022444397
130	0x3d887de6	0.06664638
131	0x3d77a2ee	0.060458116
132	0xbdc60d82	-0.09670545
133	0xbda23256	-0.07919757
134	0xbd4cce95	-0.0500017
135	0xbdbd10c1	-0.09231711
136	0xbdebd340	-0.11514902
137	0xbde99716	-0.114057705
138	0x3d963e45	0.07336096
139	0xbc91f2a6	-0.0178159
140	0xbc503f1b	-0.012710358
141	0x3cfecf0b	0.031104585
142	0x3d79ac82	0.060955532
143	0x3dae3946	0.08507018
144	0xbd0d9169	-0.034562502
145	0xbd35cd5f	-0.04438531
146	0xbd8b47cc	-0.068008035
147	0x3cf9b22b	0.030480465
148	0x3d537b8c	0.051631495
149	0x3cd750ed	0.026283706
150	0x3c30915a	0.010776842
151	0x3c42dd97	0.011893651
152	0xbcd3e79e	-0.02586728
153	0xbd0a9d98	-0.0338417
154	0xbdc31692	-0.09525789
155	0xbdd2ff62	-0.10302617
156	0x3df00737	0.11720126
157	0x3dfcbda7	0.12340861
158	0x3d0fc1ae	0.035096817
159	0x3df4c6ec	0.11952004
160	0x3d92f04e	0.07174741
161	0x3d3e1e28	0.046415478
162	0xbc0a5d92	-0.00844516
163	0x3d1ed12a	0.038773693
164	0xbd21d7d6	-0.039512478
165	0x3c7bcbd2	0.015368419
166	0x3d711aae	0.058863334
167	0x3d86342e	0.06552921
168	0xbd734cf4	-0.05939956
169	0xbc63634f	-0.0138786575
170	0xbde127e9	-0.109939404
171	0xbdb80b64	-0.089865476
172	0xbb88de34	-0.0041768793
173	0xbc3660cb	-0.011131476
174	0xbd235787	-0.039878394
175	0xbd339937	-0.04384729
176	0x3ce0fa8a	0.027463216
177	0x3d33e36a	0.04391805
178	0x3d84964b	0.064739786
179	0x3df304b1	0.11866129
180	0x3da7037f	0.08154964
181	0x3d791b54	0.060817078
182	0x3c0e9355	0.008702119
183	0x3d4126d2	0.047156163
184	0x3d4fafbe	0.05070471
185	0x3d21aaaa	0.0394694
186	0xbd4a7021	-0.04942334
187	0xbbb3116b	-0.005464723
188	0xbd005cac	-0.03133838
189	0xbe13de27	-0.14440213
190	0xbdb55002	-0.08853151
191	0xbd94550b	-0.07242783
192	0x3cf22ce4	0.029562421
193	0x3d808aac	0.062764496
194	0x3dfc0a3f	0.12306642
195	0x3d22d97b	0.039758187
196	0x3dc5a0f4	0.0964984
197	0x3de7f7b7	0.11326545
198	0x3d46287e	0.04837846
199	0x3d0ce69f	0.034399625
200	0x3d8ee501	0.06977273
201	0x3cc41fbb	0.023940912
202	0xbc880ebe	-0.016608592
203	0x3c43d948	0.011953659
204	0x3c86fa53	0.016476786
205	0xbc4d49bd	-0.012529788
206	0xbc88a615	-0.016680757
207	0xbe36a8eb	-0.17837875
208	0xbdc2c3d6	-0.09510009
209	0xbe04785c	-0.12936538
210	0x3e16746d	0.1469285
211	0x3ddbe277	0.10736554
212	0x3dfdcece	0.123929605
213	0x3e10c5a2	0.14137891
214	0x3dc80bd4	0.09767881
215	0x3de0a3ba	0.10968728
216	0xbd9be8cd	-0.076127626
217	0xbd4558e9	-0.048180494
218	0xbd91ca84	-0.07118705
219	0x3d7d2f12	0.061812468
220	0x3ddef0d7	0.1088578
221	0x3df6d722	0.12052752
222	0xbe370b43	-0.1787539
223	0xbde79ca7	-0.11309176
224	0xbd85722f	-0.065159194
225	0x3d7b1e76	0.061308347
226	0x3d5caab0	0.053873718
227	0x3d12046d	0.035648752
228	0xbcbb9a1b	-0.022900632
229	0xbb8e7c91	-0.0043483456
230	0xbc08589c	-0.008321907
231	0xbd9f2108	-0.07769972
232	0xbd4ba00a	-0.049713172
233	0xbc5b983d	-0.013402996
234	0xbd8bdf95	-0.06829754
235	0xbde34800	-0.11097717
236	0xbdd830d6	-0.1055619
237	0xbce751ff	-0.028237341
238	0xbda3f032	-0.08004798
239	0xbe29b543	-0.16573052
240	0xbcda4b74	-0.026647307
241	0xbe2740a0	-0.16333246
242	0xbe51d155	-0.2049001
243	0xbd8669f8	-0.06563181
244	0xbd04da29	-0.032434616
245	0xbce95efe	-0.028487679
246	0xbd76ff39	-0.060301993
247	0xbd28ee66	-0.04124298
248	0xbcdd1268	-0.026986316
249	0xbdc9981b	-0.09843465
250	0xbd1509d6	-0.036386333
251	0xbd041503	-0.0322466
252	0x3b8dcb25	0.004327195
253	0xbd0fcdc5	-0.035108346
254	0xbc86fac1	-0.01647699
255	0xbda08a37	-0.078388624

body.block2.conv.bias f4 [32]
0	0x3dbc0029	0.09179718
1	0xbd0a4f86	-0.033767246
2	0xbd73e763	-0.05954684
3	0x3cf2d10a	0.029640693
4	0xbe1a622a	-0.15076509
5	0x3d59e6c7	0.053198602
6	0x3d26dafd	0.040736187
7	0xbdbba349	-0.091620035
8	0xbd8d32ab	-0.0689443
9	0xbccb401b	-0.024810841
10	0xbc9ce532	-0.019152258
11	0xbd085fcb	-0.03329448
12	0x3d8511d9	0.06497545
13	0xbd27754a	-0.04088334
14	0xbb3c0768	-0.0028690938
15	0xbca060ff	-0.019577501
16	0xbc25a34b	-0.010109733
17	0xbd348a63	-0.04407729
18	0xbdae9d70	-0.085261226
19	0xbde1d047	-0.11026054
20	0xbda89195	-0.082308926
21	0xbd70e63f	-0.05881333
22	0xbcc5f84f	-0.024166254
23	0xbd24fee3	-0.04028214
24	0xbcb59ab1	-0.02216849
25	0xbb6ffaf1	-0.0036618079
26	0xbdc155c3	-0.09440186
27	0xbdb67750	-0.08909476
28	0x3d643d97	0.0557228
29	0xbdc8fb8b	-0.09813603
30	0x3d887624	0.066631585
31	0xbcec8fb6	-0.02887712

body.block2.norm.weight f4 [32]
0	0x3f8fb378	1.1226645
1	0x3f374f3b	0.7160527
2	0x3f525839	0.8216587
3	0x3f735534	0.95051885
4	0x3f4a0113	0.7890789
5	0x3f72b70e	0.9481057
6	0x3f5e2240	0.8677101
7	0x3f878204	1.0586553
8	0x3f5fd691	0.8743678
9	0x3f8144f2	1.0099165
10	0x3f791db4	0.9731095
11	0x3f96c217	1.1777982
12	0x3f6768c8	0.9039426
13	0x3f87861e	1.0587804
14	0x3f4d0a71	0.8009406
15	0x3f6ff85f	0.9373836
16	0x3f8187ef	1.0119609
17	0x3f4923c6	0.7857021
18	0x3f4b239c	0.7935121
19	0x3f63b1c4	0.88943124
20	0x3f517478	0.8181834
21	0x3f5b1cdd	0.85590917
22	0x3f4cd8ab	0.8001811
23	0x3f707984	0.9393542
24	0x3f70356f	0.93831533
25	0x3f6bdfbe	0.9213828
26	0x3f3ad536	0.72981584
27	0x3f749e31	0.9555388
28	0x3f6186dc	0.88096404
29	0x3f81ee4c	1.0150847
30	0x3f8b076b	1.0861639
31	0x3f56354a	0.8367506

body.block2.norm.bias f4 [32]
0	0xbe4c84d7	-0.1997255
1	0x3f522339	0.82084996
2	0x3f1f1cc9	0.621533
3	0x3f0c9a9e	0.5492343
4	0x3f9f1a8f	1.242998
5	0x3ea1b080	0.3157997
6	0x3ee0f1ba	0.43934423
7	0x3f090287	0.5351948
8	0x3f45146f	0.76984304
9	0x3e39b779	0.18136396
10	0x3e27b02a	0.16375795
11	0x3d98e25b	0.07465049
12	0x3eff58b6	0.4987237
13	0xbe8045f3	-0.25053367
14	0x3f61027c	0.87894416
15	0x3f8507a9	1.0392963
16	0x3f1fe821	0.62463576
17	0x3efac917	0.48981544
18	0x3f65a4e0	0.89704704
19	0x3f0ae451	0.54254633
20	0x3f1805ae	0.59383667
21	0x3ec6f19a	0.38856202
22	0x3f254d4f	0.6457109
23	0x3e9734ac	0.29532373
24	0x3f31c2ec	0.6943805
25	0x3f36ee33	0.71457213
26	0x3f83df80	1.0302582
27	0xbe9ed63c	-0.31022823
28	0x3f6439bd	0.891506
29	0x3f1b9629	0.60776
30	0xbccb7d72	-0.02484009
31	0x3f1d54a5	0.6145728

body.block2.norm.running_mean f4 [32]
0	0xc01aae51	-2.4168894
1	0x40209bcd	2.5095093
2	0xbe6750a8	-0.22589362
3	0xbede24bc	-0.433874
4	0xbfe5e0dd	-1.7959248
5	0xbe95a7db	-0.29229626
6	0x3e8b75cc	0.2723831
7	0x3f086621	0.53280836
8	0x400dee33	2.2176635
9	0xbf896dc2	-1.073662
10	0x40155b63	2.3337028
11	0xc03bc695	-2.9339955
12	0x40133689	2.3002036
13	0xbf6360e6	-0.8881973
14	0x4015cba9	2.3405554
15	0x3f9fd72f	1.2487544
16	0x3ff419fb	1.9070429
17	0xc01b00d0	-2.4219246
18	0xbf531019	-0.8244644
19	0xc020ac20	-2.5105057
20	0x400f50a3	2.2392967
21	0x3e9c3211	0.30506948
22	0xbf8c2580	-1.0948944
23	0x3f831311	1.0240194
24	0xbe9205d0	-0.2852006
25	0xbf8f9257	-1.1216534
26	0xbd9251d2	-0.07144512
27	0x3f2ba137	0.6704287
28	0xbf9d23fa	-1.2276604
29	0xbfc73f87	-1.5566262
30	0xbf9f3551	-1.2438146
31	0xbfcab7ad	-1.5837303

body.block2.norm.running_var f4 [32]
0	0x3f7bb3d3	0.98321265
1	0x41010e18	8.065941
2	0x4015ee94	2.3426867
3	0x3ef0435a	0.46926385
4	0x3ef25bd7	0.47335693
5	0x400ca3b7	2.1974924
6	0x3f7a2c07	0.9772343
7	0x40a78e32	5.236108
8	0x408094ff	4.018188
9	0x3fbd0936	1.4768436
10	0x3fa98a29	1.3245288
11	0x3fb0d395	1.381457
12	0x40a04b81	5.009217
13	0x40972a04	4.723879
14	0x3fe0c252	1.7559302
15	0x40907ff5	4.5156198
16	0x40406453	3.0061233
17	0x410a4615	8.64211
18	0x3f4b0c6e	0.7931584
19	0x4092e14c	4.590002
20	0x3fa420ca	1.2822506
21	0x3f506cab	0.81415814
22	0x415e87ce	13.908155
23	0x3fce9c85	1.6141516
24	0x4022a137	2.5410898
25	0x404a94f0	3.1653404
26	0x40e40545	7.1256433
27	0x4093c2d8	4.6175346
28	0x409f3a29	4.9758496
29	0x40069b57	2.1032312
30	0x40bd0f5a	5.908124
31	0x41eaf63d	29.370234

body.block3.conv.weight f4 [32, 32, 3, 3]
0	0x3d77f6bc	0.06053804
1	0x3ca56906	0.02019168
2	0x3c716670	0.014733896
3	0x3d585b49	0.05282143
4	0x3d55d932	0.052209087
5	0x3da424f0	0.08014858
6	0xbca062e0	-0.019578397
7	0x3d2d827d	0.04236077
8	0x3dbdeeff	0.092741005
9	0x3df8e129	0.12152321
10	0x3d8fff93	0.07031169
11	0x3d828d35	0.06374589
12	0x3dcaedf9	0.09908671
13	0x3d528b17	0.051402178
14	0x3d204645	0.039129514
15	0x3d7f6761	0.06235445
16	0x3db1ea78	0.086872995
17	0x3d223339	0.03959963
18	0x3cc6c724	0.02426488
19	0xbcdaad15	-0.02669386
20	0x3bf436fd	0.007452844
21	0xbd67e935	-0.056618888
22	0xbdbed7e0	-0.09318519
23	0xbd87cb25	-0.066305436
24	0x3be00480	0.006836474
25	0xbbb958c5	-0.005656334
26	0xbcaec5d6	-0.02133457
27	0xbd2b0b36	-0.04175874
28	0x3ba69143	0.0050832345
29	0xbd482bd1	-0.04886991
30	0x3d17d239	0.03706572
31	0x3d04c53a	0.032414652
32	0x3d074093	0.033020567
33	0xbcd55e33	-0.026045894
34	0xbd64cf2b	-0.055861633
35	0xbd1117af	-0.035422977
36	0xbcad13e1	-0.021127643
37	0x3be7bc97	0.007072042
38	0x3d4c57c0	0.049888372
39	0xbc39c95b	-0.011339511
40	0x3cda3de5	0.026640842
41	0x3ced4631	0.028964134
42	0xbbe96aa7	-0.0071233097
43	0x3d2d1ae1	0.04226196
44	0x3c94d67a	0.018168677
45	0x3dae4e69	0.08511049
46	0x3d366ade	0.04453551
47	0x3d428267	0.047487643
48	0x3dd821f4	0.10553351
49	0x3db1fd46	0.08690886
50	0x3d998dc3	0.07497742
51	0xbc49b210	-0.01231052
52	0x3c0a50d6	0.008442124
53	0xbb1e2406	-0.0024130358
54	0xbdc58dd7	-0.096461944
55	0xbda9b1b8	-0.0828585
56	0xbdf263c4	-0.11835435
57	0x3b559151	0.0032587836
58	0x3ad1cefb	0.001600712
59	0x3cf956d6	0.030436914
60	0x3d051aac	0.03249614
61	0x3ca492ca	0.020089526
62	0x3d335b46	0.043788217
63	0xbdb625b3	-0.08893909
64	0xbca8b11a	-0.020592261
65	0x3c5690fa	0.013096089
66	0xbd5d87da	-0.054084636
67	0xbd297d22	-0.0413791
68	0xbd5bd11f	-0.05366623
69	0xbd3487d5	-0.044074852
70	0xbc9a8d53	-0.018866217
71	0xbc5d38ef	-0.013502344
72	0x3d38dee7	0.04513445
73	0x3d9fe7af	0.07807862
74	0xbc3c1062	-0.011478515
75	0x3df10970	0.11769378
76	0x3dde4310	0.10852635
77	0x3d57bde6	0.052671336
78	0x3e1a21b0	0.15051913
79	0x3e1ecbdf	0.15507458
80	0x3e34d596	0.17659602
81	0x3d8a253a	0.06745382
82	0x3d6a5b01	0.057215694
83	0x3d64fc19	0.05590448
84	0x3d4daac4	0.050211683
85	0x3d4b8790	0.04968983
86	0x3d88f018	0.06686419
87	0x3dd520db	0.10406657
88	0x3d95dbf9	0.07317347
89	0x3ddff895	0.10936085
90	0x3cba14fa	0.02271508
91	0xbc7fda16	-0.015615961
92	0x3cf4d6c0	0.029887557
93	0xbd725760	-0.05916536
94	0xbd853e13	-0.0650598
95	0xbd8df0af	-0.069306724
96	0xbd032c73	-0.032024812
97	0xbd76a7ff	-0.060218807
98	0xbce08f3a	-0.027412046
99	0xbe02df63	-0.12780528
100	0xbce9ebd2	-0.02855483
101	0xbd1dd744	-0.03853537
102	0x3cda75a1	0.026667418
103	0x3d5386c1	0.051642183
104	0xbbff114d	-0.007784045
105	0xbde3c417	-0.111213855
106	0xbc8a5def	-0.016890494
107	0xbdcb0b34	-0.09914246
108	0xbc56467a	-0.013078326
109	0x3cb393e0	0.021921098
110	0x3c5d29be	0.013498722
111	0xbda1d56b	-0.07902034
112	0xbdbde54f	-0.09272253
113	0xbd674e3e	-0.056471102
114	0xbd8bebee	-0.068321094
115	0xbd161691	-0.036642615
116	0xbc4380ae	-0.011932535
117	0x3b721c72	0.0036943224
118	0xbd1dfdb0	-0.038572013
119	0xbd822499	-0.06354637
120	0x3e18213a	0.14856425
121	0x3dc0fd08	0.09423262
122	0x3d4d2d79	0.050092194
123	0x3d5cb19d	0.053880323
124	0x3cb15509	0.021646993
125	0x3c492192	0.01227607
126	0x3cc2d201	0.023781778
127	0x3d373590	0.044728816
128	0x3db8a3a5	0.09015588
129	0x3d8c2090	0.06842148
130	0x3da1c03b	0.07897993
131	0x3d6f3550	0.058400452
132	0xbd15c0ff	-0.03656101
133	0x3c4ffb00	0.01269412
134	0xbc5436d2	-0.012952523
135	0xbd7da9f9	-0.061929677
136	0xbd7a73ca	-0.06114558
137	0xbdd913e0	-0.10599494
138	0xbdafa47d	-0.085762955
139	0xbd93d6c1	-0.072186954
140	0xbdab8225	-0.083744325
141	0xbc9ac956	-0.018894833
142	0xbc564b68	-0.013079502
143	0x3d3bac5e	0.04581868
144	0xbdba55c4	-0.0909839
145	0xbd8141aa	-0.063113526
146	0xbe1596fc	-0.14608377
147	0x390701a5	0.00012875216
148	0x3d4d51e2	0.050126918
149	0x3d2cbfce	0.042175107
150	0x3db2be3c	0.087276906
151	0x3e05fd87	0.13084994
152	0x3da2cd46	0.07949309
153	0x3deb9aff	0.115041725
154	0x3e131914	0.14365035
155	0x3e2fe73c	0.17178053
156	0x3c56d456	0.013112148
157	0x3d817824	0.06321743
158	0x3de54012	0.11193861
159	0x3cf6d2e1	0.030129852
160	0x3d913778	0.07090658
161	0x3de8f1e1	0.1137426
162	0x3d27c7ee	0.040962152
163	0xbb3afbc8	-0.002853142
164	0x3db0a1a7	0.08624583
165	0xbc525673	-0.012837994
166	0x3d8b29d1	0.06795085
167	0x3d3df88c	0.04637961
168	0xbdab2735	-0.083570875
169	0xbd8a5aa9	-0.06755573
170	0xbd35ec31	-0.044414703
171	0xbd842b9d	-0.06453631
172	0xbd5ac3a2	-0.053409226
173	0xbd052bfd	-0.032512654
174	0xbde25137	-0.11050647
175	0xbdc33a59	-0.09532613
176	0xbdb1ee5c	-0.086880416
177	0xbcb7cc3b	-0.022436252
178	0xbd476c78	-0.04868743
179	0xbd13fff2	-0.03613276
180	0xbe0f3e71	-0.13988663
181	0xbd9b8ce6	-0.075952336
182	0xbdac9ba8	-0.084281266
183	0xbd89a6ae	-0.06721245
184	0xbde11b1b	-0.10991498
185	0xbd79a34f	-0.06094676
186	0xbd1b32c7	-0.037890222
187	0xb94c1f4a	-0.00019466612
188	0xbca210a3	-0.019783324
189	0x3d33cf48	0.04389885
190	0x3d5613e2	0.052265055
191	0x3dba12c2	0.09085609
192	0xbdaea89d	-0.08528254
193	0xbdb7f119	-0.089815326
194	0xbd978938	-0.07399219
195	0x3b7023a3	0.0036642335
196	0x3cbe3cf7	0.02322243
197	0x3c466338	0.0121086165
198	0xbafccf3e	-0.0019287837
199	0x3d24c22f	0.04022425
200	0x3af5f821	0.0018765965
201	0x3d6fa9b9	0.05851147
202	0x3d23e7ac	0.04001586
203	0x3d24b808	0.04021457
204	0x3d8669f1	0.065631755
205	0x3dd63760	0.10459781
206	0x3da1ddc7	0.07903629
207	0x3da0047c	0.07813355
208	0x3da60901	0.08107186
209	0x3d56534c	0.05232553
210	0xbda124a2	-0.07868315
211	0xbced3825	-0.028957436
212	0xbdd5d267	-0.10440522
213	0xbd3c207c	-0.045929417
214	0xbd9cba36	-0.076527044
215	0xbd996d11	-0.07491506
216	0x3d915b6b	0.07097515
217	0x3d854cea	0.06508811
218	0x3e0c046f	0.13673566
219	0xbce616e7	-0.028087093
220	0xbd096e91	-0.03355271
221	0xbd455379	-0.04817531
222	0x3ca4a07f	0.020096062
223	0x3cfec706	0.031100761
224	0x3dbc92c0	0.09207678
225	0x3c141159	0.009037339
226	0x3c87854d	0.016543055
227	0x3ccf7761	0.025325479
228	0x3d3f3358	0.046679825
229	0x3cf773bd	0.030206556
230	0x3d59aacc	0.0531414
231	0x3d7d041e	0.061771505
232	0x3d3ad447	0.0456126
233	0x3de98097	0.1140148
234	0xbdf83f46	-0.121214435
235	0xbdba5b0c	-0.09099397
236	0xbdc038c8	-0.0938583
237	0x3d847e14	0.0646936
238	0x3d2752f8	0.04085061
239	0x3da83b8d	0.082144834
240	0xbb98d1da	-0.004663688
241	0xbc7be227	-0.015373743
242	0x3adcd86a	0.0016849164
243	0xbd310538	-0.043217868
244	0xbdb67c03	-0.08910372
245	0xbcd99c5b	-0.026563814
246	0xbc52214b	-0.0128253205
247	0x3c9d4b42	0.019200925
248	0x3d1d1387	0.0383487
249	0x3e305e57	0.17223488
250	0x3e135bcc	0.14390486
251	0x3e1f7a70	0.1557405
252	0x3d337ca4	0.04382004
253	0x3d84abf0	0.06478107
254	0x3c653487	0.013989574
255	0x3d8681e3	0.06567743

body.block3.conv.bias f4 [32]
0	0x3d54c276	0.051943265
1	0xbd6217bc	-0.055198416
2	0x3bc89cfc	0.0061222296
3	0xbc255bcb	-0.010092686
4	0xbd8e7cfe	-0.06957434
5	0xbb821a63	-0.0039704307
6	0xbde07fcc	-0.10961875
7	0x3c3c6a0f	0.011499896
8	0xbd535b0a	-0.051600493
9	0xbdc24cfa	-0.09487338
10	0xbde974c0	-0.113992214
11	0xbce57354	-0.028009094
12	0x3dab9bda	0.08379336
13	0x3d80bc05	0.06285862
14	0xbd9d5a99	-0.07683296
15	0x3b845892	0.0040388787
16	0xbb40ff22	-0.0029448946
17	0x3d090efd	0.03346156
18	0xbc91a67d	-0.017779583
19	0xbde14d16	-0.11001031
20	0xbd5265d9	-0.05136666
21	0xbd66eb54	-0.05637677
22	0xbd405a80	-0.046961308
23	0x3d796453	0.060886692
24	0x3d8d2f90	0.068938375
25	0x3c983a77	0.018582566
26	0x3d8aec79	0.06783385
27	0xbc7dfec8	-0.015502639
28	0x3bb4d0f1	0.005518072
29	0xbd3fa34b	-0.046786588
30	0xbdc03b5f	-0.09386324
31	0xbc63de84	-0.013908032

body.block3.norm.weight f4 [32]
0	0x3f89c2bd	1.0762554
1	0x3f5ee676	0.87070405
2	0x3f840276	1.0313251
3	0x3f7da972	0.9908668
4	0x3f76ca2e	0.9640225
5	0x3f888986	1.0666969
6	0x3fa3dca4	1.2801709
7	0x3fa0abee	1.2552469
8	0x3f7d46ec	0.98936343
9	0x3fa406f2	1.281462
10	0x3f938e01	1.1527711
11	0x3fb8a4a1	1.4425241
12	0x3f8c9eec	1.0985999
13	0x3f81b2c5	1.0132681
14	0x3f95a1dc	1.169002
15	0x3f91b6d6	1.1383922
16	0x3f87c5c0	1.0607224
17	0x3f80043e	1.0001295
18	0x3f917741	1.1364518
19	0x3fa61d0f	1.2977618
20	0x3f9e628d	1.2373825
21	0x3f956f29	1.1674548
22	0x3f8a7bbf	1.0819014
23	0x3f86f2e4	1.0542874
24	0x3fa65395	1.2994257
25	0x3f9786f7	1.1838063
26	0x3f750904	0.9571688
27	0x3f935ddc	1.1513019
28	0x3f91d91e	1.1394384
29	0x3f86d760	1.0534477
30	0x3f925d99	1.1434814
31	0x3f8e7125	1.1128279

body.block3.norm.bias f4 [32]
0	0x3e95f4b5	0.2928826
1	0x3e87ba2d	0.26509228
2	0x3e23de86	0.16002855
3	0xbed8eb98	-0.42367244
4	0xbf3fb31a	-0.7488266
5	0x3eb0b6e3	0.34514531
6	0xbf978b05	-1.18393
7	0x3f1ab2de	0.6042918
8	0xbee7fca1	-0.45309928
9	0x3f4a34e0	0.7898693
10	0xbf90de32	-1.1317809
11	0x3ea6520b	0.3248447
12	0x3f240e4f	0.64084333
13	0xbed79663	-0.42106923
14	0x3f3639fc	0.7118223
15	0x3eec0817	0.46099922
16	0x3c4005f6	0.011720171
17	0xbefb4a87	-0.49080297
18	0x3f9eaf0c	1.239717
19	0x3eaf2d31	0.34214166
20	0x3ec6bb6c	0.38814867
21	0xbee46772	-0.44610173
22	0x3f224d5b	0.63399285
23	0x3f0cc3c8	0.5498624
24	0x3f870109	1.0547191
25	0xbd8f9161	-0.07010151
26	0x3fca8add	1.5823628
27	0x3f8015bb	1.0006632
28	0x3f0358fd	0.5130766
29	0x3f923cfb	1.142486
30	0x3f11bdb5	0.56930095
31	0x3f20d37b	0.62822694

body.block3.norm.running_mean f4 [32]
0	0x3fbe7b2b	1.4881338
1	0x4020dd4f	2.5135076
2	0xc02fc4ee	-2.7463946
3	0xbee09942	-0.43866926
4	0xc05a0325	-3.406442
5	0xc0a08ff1	-5.017571
6	0xc010f4ab	-2.2649333
7	0xbe76cea7	-0.24102269
8	0xbfc5f004	-1.5463872
9	0x3f6fb6b8	0.9363818
10	0xc0b78099	-5.734448
11	0x3f35a901	0.70961004
12	0x3fb18140	1.3867569
13	0xc02aff17	-2.6718194
14	0x3fdce787	1.7258157
15	0x3fa90e3c	1.3207469
16	0xbf9a92bc	-1.207603
17	0xbfde4b9d	-1.7366825
18	0xbecd8493	-0.4014021
19	0x3e0e237c	0.13880724
20	0xbf1e88a7	-0.61927265
21	0xbffeaa5b	-1.9895738
22	0xbfd414b2	-1.6568816
23	0x3f2d2149	0.67628914
24	0x408aed2d	4.341452
25	0xbd73f0c5	-0.059555788
26	0x3ef4ddc1	0.47825435
27	0x3fc1493c	1.5100474
28	0x3fb0d677	1.381545
29	0xbed417df	-0.41424462
30	0x401632fd	2.346862
31	0x3f347ee9	0.7050615

body.block3.norm.running_var f4 [32]
0	0x3fbcc4a5	1.4747511
1	0x414db98f	12.857802
2	0x3ee02f3a	0.4378603
3	0x3f49f225	0.7888511
4	0x3f0f5080	0.5598221
5	0x3f8331ca	1.024957
6	0x404ad907	3.1694963
7	0x40bcd82e	5.901389
8	0x403ede52	2.9823194
9	0x3f6734aa	0.90314734
10	0x3f729a0d	0.9476631
11	0x3fc50d30	1.539465
12	0x3f98eaec	1.1946692
13	0x3fb6e187	1.4287575
14	0x3f8e00a7	1.1093949
15	0x3f8d1767	1.1022767
16	0x40129c3a	2.2907853
17	0x402fa3fd	2.744384
18	0x3f9cca1f	1.2249182
19	0x4017a80d	2.369632
20	0x3f72fed8	0.9492011
21	0x4162bc1a	14.170923
22	0x407163c0	3.7717133
23	0x409c3480	4.8814087
24	0x3ff4a0c4	1.9111562
25	0x40052c4b	2.0808284
26	0x4016c08e	2.3555026
27	0x404f8313	3.2423751
28	0x3f47f2e1	0.7810498
29	0x4078cca2	3.8874898
30	0x409c9112	4.892709
31	0x3f4e1c39	0.80511814

tail.weight f4 [1, 32, 3, 3]
0	0x3e1fe260	0.15613699
1	0x3e13b236	0.14423451
2	0x3c2d16f3	0.010564554
3	0x3de0543e	0.10953568
4	0xbc9358a8	-0.01798661
5	0xbdf3c594	-0.119029194
6	0x3da9185f	0.082566015
7	0xbb910527	-0.004425663
8	0xbdaf052f	-0.085459106
9	0x3c1193d3	0.008885342
10	0xbbe7e675	-0.007077033
11	0xbd6d29f0	-0.057901323
12	0x3d87d28f	0.06631958
13	0xbc807f6e	-0.015685763
14	0xbd6f7100	-0.058457375
15	0x3e37c241	0.17945196
16	0x3e103cea	0.14085737
17	0x3d5298a9	0.05141512
18	0x3c8f7b85	0.017514953
19	0x3d523c96	0.05132731
20	0x3bd15823	0.0063886805
21	0x3d566d9c	0.052350625
22	0x3d20123f	0.0390799
23	0x3d497f97	0.049193945
24	0x3d81ce9e	0.06338237
25	0x3db8e3ce	0.09027825
26	0x3da32f07	0.07967954
27	0xbda392f9	-0.07987017
28	0xbd9f5592	-0.07779993
29	0xbdd89d64	-0.10576895
30	0xbd33f61b	-0.043935876
31	0xbd4d8826	-0.05017867
32	0xbac45001	-0.0014977456
33	0xbce28fa9	-0.027656393
34	0x3ac45bcb	0.001498097
35	0x3ca10d0a	0.019659538
36	0x3d64bd9c	0.055844888
37	0x3d5aecf4	0.053448632
38	0x3d4315c7	0.04762819
39	0x3d8a2c10	0.067466855
40	0x3c56a53f	0.013100921
41	0x3c15593f	0.009115516
42	0x3e2fe853	0.17178468
43	0x3deccd89	0.1156264
44	0x3db3e710	0.08784306
45	0xbdc22a4a	-0.09480722
46	0xbb20202f	-0.0024433245
47	0x3dcd2f76	0.10018818
48	0x3cd13d0f	0.02554181
49	0x3daabd3c	0.08336875
50	0x3e18914b	0.14899175
51	0xbce9874e	-0.028506901
52	0x3c64f20c	0.013973724
53	0x3d7a5f9a	0.06112633
54	0xbeb5dfd9	-0.35522345
55	0xbeb9754c	-0.36222303
56	0xbe9268d8	-0.28595614
57	0x3a450db2	0.00075169944
58	0x3be6b779	0.0070409146
59	0x3db1e255	0.086857475
60	0x3e3e76e5	0.18600042
61	0x3e269f15	0.16271622
62	0x3e87914a	0.26478034
63	0x3e37d7e0	0.17953444
64	0x3e1825d6	0.14858183
65	0x3e333ea4	0.17504364
66	0x3dca9fc5	0.09893755
67	0x3e23e69b	0.16005938
68	0x3e18f6c5	0.14937885
69	0xbe82526a	-0.25453502
70	0xbe83bdbe	-0.257307
71	0xbe894a6c	-0.26814592
72	0xbd432eaa	-0.047651924
73	0xbd22d872	-0.0397572
74	0x3d61ac30	0.05509585
75	0xbd45a540	-0.048253298
76	0xbd19c3c9	-0.03754023
77	0xbcd8d108	-0.026466861
78	0xbdb55ca6	-0.08855562
79	0xbd18758a	-0.03722147
80	0x3c11f89e	0.008909373
81	0x3e88c808	0.26715112
82	0x3e83f328	0.2577145
83	0x3eb38187	0.3505976
84	0xbd0287b4	-0.031867698
85	0xbd37781f	-0.04479229
86	0x3d49fefe	0.049315445
87	0xbe1c72bd	-0.15278144
88	0xbdef9893	-0.11699023
89	0xbd7cdd0f	-0.061734255
90	0xbe2540e9	-0.16138043
91	0xbdd6e6ef	-0.10493266
92	0xbdb7fad4	-0.089833885
93	0x3d490cb4	0.04908438
94	0x3d4e9f6a	0.050444998
95	0x3d8fd39c	0.07022783
96	0x3e35035f	0.17677067
97	0x3e5d2add	0.21598382
98	0x3e50a05e	0.20373675
99	0x3ea9fe9d	0.33202067
100	0x3eaa02f8	0.3320539
101	0x3e876076	0.2644078
102	0xbda58d80	-0.080836296
103	0xbd8d25f1	-0.068920024
104	0xbddd4df1	-0.10805882
105	0xbea6fafd	-0.32613364
106	0xbe992fd8	-0.29919314
107	0xbea9ef9d	-0.33190623
108	0xbe515a8a	-0.20444694
109	0xbe3d1611	-0.18465449
110	0xbdf38f88	-0.11892611
111	0xbdda084b	-0.10646113
112	0xbd806d54	-0.06270853
113	0xbd1b9013	-0.037979197
114	0x3d726e03	0.059186947
115	0x3dd80825	0.105484284
116	0x3dd4ae01	0.10384751
117	0xbe17290e	-0.14761755
118	0xbe0fe3aa	-0.1405169
119	0xbe0dcd00	-0.13847733
120	0xbc57fbc8	-0.013182588
121	0xbcab0be7	-0.020879699
122	0xbd07df29	-0.033171806
123	0x3d5e4fe6	0.054275416
124	0x3db0b6a5	0.08628587
125	0x3cd9c7d8	0.02658455
126	0xbe440f02	-0.1914635
127	0xbe342794	-0.17593223
128	0xbe3a2827	-0.1817938
129	0xbd95ed1c	-0.07320616
130	0xbd5e9e5c	-0.054350242
131	0xbd71c877	-0.05902907
132	0x3e075d29	0.13219132
133	0x3e1cf519	0.15327872
134	0x3e3b9975	0.18320258
135	0xbe26ea3e	-0.16300294
136	0xbe0de50f	-0.1385691
137	0xbdd1be0b	-0.10241326
138	0x3db604f1	0.08887661
139	0x3d976db5	0.07393972
140	0x3cb2dc05	0.02183343
141	0x3ccfe5cd	0.025378132
142	0x3c8935c6	0.016749274
143	0x3cd5bca3	0.026090926
144	0x3cc2e847	0.0237924
145	0x3cab4f50	0.020911843
146	0xbc715b1f	-0.014731198
147	0x3d67e3d1	0.056613747
148	0x3d51e0c1	0.051239733
149	0x3c12b4a0	0.008954197
150	0x3e0993f4	0.13435346
151	0x3dbfcc14	0.09365097
152	0x3db37453	0.087624215
153	0x3be09c84	0.0068545956
154	0xbb5c2177	-0.0033589283
155	0xbc94128a	-0.018075246
156	0xbd0d5506	-0.034504913
157	0xbd7da800	-0.061927795
158	0xbd986d69	-0.07442743
159	0xbd880410	-0.066414
160	0xbd119f6c	-0.035552427
161	0xbdb72f08	-0.089445174
162	0x3cf85264	0.030312724
163	0x3ca1d9d4	0.019757189
164	0x3c59e4ae	0.01329915
165	0xbceebf69	-0.029144006
166	0x3c31a26d	0.010841948
167	0xbd3cac0c	-0.046062514
168	0x3eb10a89	0.3457835
169	0x3ea99f80	0.331295
170	0x3e832dc5	0.25620857
171	0xbe6cd5d2	-0.23128441
172	0xbe3c1729	-0.1836821
173	0xbe105652	-0.14095429
174	0xbe0aa484	-0.1353932
175	0xbd833c38	-0.0640797
176	0xbd41b809	-0.04729465
177	0x3e1a1d0d	0.15050144
178	0x3e5c1336	0.21491703
179	0x3e6809cb	0.22659986
180	0xbe329ba7	-0.17442189
181	0xbdd0c20d	-0.10193262
182	0xbe1b953e	-0.1519365
183	0xbd746fad	-0.059676815
184	0xbd6127ea	-0.054969706
185	0xbd669df8	-0.056302994
186	0x3e1870ae	0.14886734
187	0x3e4d5b11	0.2005427
188	0x3e5d6799	0.2162155
189	0x3ce7ec92	0.028311048
190	0xbc4ed2d5	-0.012623508
191	0x3b3a1ef2	0.0028399792
192	0xbc76e5cb	-0.015069435
193	0xbca89973	-0.020580983
194	0xbd130007	-0.035888698
195	0xbe2f8086	-0.17138872
196	0xbe2c6b0d	-0.16837712
197	0xbe666d25	-0.22502573
198	0x3dc8f3e0	0.098121405
199	0x3e07a8a9	0.13247932
200	0x3e23951b	0.15974848
201	0x3dad9176	0.0847501
202	0x3daa1bd3	0.08306088
203	0x3db2dabb	0.08733126
204	0xbe0d1542	-0.1377764
205	0xbda94ecc	-0.082669824
206	0xbd90134d	-0.07034931
207	0x3e06592e	0.13119957
208	0x3dd84a5c	0.10561058
209	0x3e083d6d	0.13304682
210	0x3cfd1bfa	0.03089713
211	0x3b451510	0.0030072369
212	0x3d8c0010	0.068359494
213	0xbb389c85	-0.0028169465
214	0x3ca2ac1a	0.019857455
215	0x3dd6ed78	0.10494512
216	0xbe94898c	-0.2901119
217	0xbe411f43	-0.18859582
218	0xbde1b766	-0.110213086
219	0xbdc628bc	-0.09675738
220	0x3dc8c7e1	0.09803749
221	0x3e4e0a29	0.20121063
222	0xbcec182d	-0.028820122
223	0x3e21cc42	0.15800574
224	0x3e9a8480	0.30179214
225	0xbe37a75a	-0.17934933
226	0xbe63de92	-0.22252873
227	0xbe1d02c3	-0.15333085
228	0x3c87743b	0.016534915
229	0x3b920f49	0.0044573885
230	0x3d12891a	0.03577528
231	0x3e0f8f19	0.14019431
232	0x3e50f368	0.20405352
233	0x3e6120de	0.21985194
234	0x3e728aa9	0.23685707
235	0x3e4e1252	0.20124176
236	0x3db032a9	0.08603413
237	0x3ea92ead	0.33043423
238	0x3eb16031	0.346437
239	0x3e714609	0.23561873
240	0x3dfbea20	0.12300515
241	0x3e42a1da	0.19007054
242	0x3e1a456d	0.15065546
243	0xbde214d6	-0.110391304
244	0xbe30f491	-0.17280795
245	0xbe4e8eaf	-0.20171617
246	0x3dded992	0.10881342
247	0x3d77f239	0.060533736
248	0xbc467c0c	-0.012114536
249	0x3d9370b8	0.07199234
250	0x3d3445a7	0.04401174
251	0xbc9917fd	-0.018688196
252	0x3e36f834	0.1786812
253	0x3e29a2f0	0.16566062
254	0x3e17b70e	0.14815924
255	0x3d40f49f	0.04710829
