TrainedModels/SMB-1-1/scale_factor=0.750000,alpha=10/4/netD.pth (torch, 468997 bytes, 27 tensors)

head.conv.weight f4 [64, 3, 3, 3]
00000000: 6cb4 8e3d 7229 9ebc b080 65bd 756c e63c
00000010: b913 a2bd 10c6 bdbd 8d3d 61bb 581f a23a
00000020: 667a 18bc a9e0 6dbd 26f5 9bbd 3e38 5cbd
00000030: 26cd b73d 0904 8c3d 87be 993b 0408 8e3d
00000040: b193 223c afdc 2d3d e77e fc3c 843b fc3c
00000050: 3da9 0c3d bcc7 d83a f3f3 1cbd 1c5f 0b3c
00000060: ea81 543d d83b 63bd 5397 213d 782d d93d
00000070: b963 32bb e50d e4bc 74e7 d6bc 86f9 103c
00000080: e393 8ebb 9f37 f3bc 1ec5 d53c efed 1dbd
00000090: 0257 0a3c 6f43 edba 99e0 1dbd bad5 70bb
000000a0: d7d4 dd3b 1bb3 e5bb 706a 7abc 9562 d23d
000000b0: f826 bdbc 4488 6e3c 20eb 8a3c 41e7 d43d
000000c0: c1da a5bb 6598 11bc 862a 3e3d efd1 99bd
000000d0: 20cf 8aba 73d0 c43c 74ff dfbb 4757 b1bd
000000e0: ef4e a2bd 8d1b bfbc 6627 1e3c 1e99 afbc
000000f0: b6e2 46bd 959f 8abc 82ea c63c 7192 5ebd
00000100: b14a 9fbd 2093 b6bc 66fe 123a e6de 32bd
00000110: 13bf 0fbd b009 533c 8459 013d eb84 343d
00000120: f1c1 103d 15d9 58bc 2244 3fbd 3adb f43c
00000130: 311a 593d c72e ce3c 8050 2f3d 6be0 2f3d
00000140: 66d8 433d 1ca3 833d c0a5 2dbc 3a10 bdbc
00000150: 1f91 adbc 842f cb3c 26d8 8d3d 67c1 013d
00000160: 4402 5d3c fc99 41bd cc31 05bc e59d c03b
00000170: cbdc 55bd 6bab e2bc cc66 42bd e243 4d3d
00000180: 5ab0 d7bc d78b 2dbd e8a5 1dbd 0371 65bc
00000190: 86c3 b2bc a795 20bd e305 67bb 0a5b 31bc
000001a0: 0f7b 843d f610 1a3a 3e7b 10bd 232b 7ebd
000001b0: 300a 2d3c 17f5 8b3d 0c8d 1c3d 5a80 1bbd
000001c0: a8d4 a5ba 1a03 0abd 0f34 3abd bdda d43c
000001d0: 1541 6d3d f4d6 eabc 740c 00ba f0c4 2dbd
000001e0: 99db 68bd bb8e b43b fbb5 a1bc ae85 163c
000001f0: 3268 683c 1b9a 90bc ea03 cabc ed01 7a3c
00000200: 6856 f2bc 5eee 51bd ec35 d53c 533b df3c
00000210: 3cec 4a3c 8ca4 223b 635f 9bbd edcb 823d
00000220: af23 983c 5e9d 85bd 70d9 46bb b88c 78bc
00000230: ef09 2038 3fc1 0a3e 1b07 003c 0b42 343d
00000240: 2aa5 d33c aa39 2d3c 8074 7bbd dec2 33bd
00000250: 24a9 c53b 1af9 c1bc d9a2 793d 00b0 4a3c
00000260: 5e1d 14bd 97ef ce3c 8f5b b3bb 0375 2bbd
00000270: 6f31 25bd 6a9d 703c 366c 983c 8188 563c
00000280: 8d08 02bc 5c21 3fbd 8eb4 f2bc 9f18 203c
00000290: 11da 8b3b 9c75 f63d 7783 943c cf7f c63b
000002a0: ff9a 17bb 4ef5 f13c 0cae 7dbc 5326 9bbd
000002b0: 4d01 61bd bb44 b7bb a1e6 82bb 3295 abbb
000002c0: 8ce2 4f3d 4dcb aabd 25c4 e33c 0ccf 23bd
000002d0: 407c eabb 3536 833d a325 c2bc 5cfb 5ebd
000002e0: a316 94bd e249 5ebd 39ba 81bc eb92 823d
000002f0: 5505 6c3c d261 7f3a 3e3b acbd 98e8 c43c
00000300: 7fdf 393a 3e92 e2bb 7025 213c d493 253d
00000310: defc a9bb 4528 e4bb 450a 193d c4c7 34bd
00000320: d345 5d3d 54a4 0cbd e44b feba 351f 563c
00000330: 9dc7 223c 2859 c4bc a7ae 65bc 4c92 25bc
00000340: 6142 dcbc 2c78 18bd 2fcf 56bd 8556 8e3d
00000350: 9569 4b3c 4d55 1ebd b27c f4ba 5d16 50bd
00000360: 9a79 73bc 2e19 51bd ca29 debc 3d65 ea3b
00000370: e6e4 98bc 6891 a03a 4e1c b53d fa97 383d
00000380: 945f 81bc bcc2 353d 2772 82bc 9a67 16bd
00000390: 337d 2dbc cd08 c53a f2dc 963c f097 213d
000003a0: 078a 20bc b213 50bd efdb f7bd 3ec3 25bc
000003b0: 2d6a c6bc b551 62bd 4020 b93b 2fb2 273d
000003c0: a786 483d 9494 033d f46d 15bc 9ccb 8cbc
000003d0: 9d55 d5bc bbf4 cc3c b23c 203d b692 aebc
000003e0: adbe 51bc 396b 45bd 6b8d 993d ebf5 86bc
000003f0: 8f98 2b3d 467b 713d f9c9 1fbd 81aa 0c3c
0.069680065 -0.019306872 -0.05603093 0.028127888 -0.07913918 -0.09266293 -0.0034368963 0.001236896
-0.009306526 -0.05807558 -0.07615118 -0.053764574 0.08974676 0.06836707 0.004691902 0.069351226
0.009922908 0.04244679 0.03082223 0.030790098 0.034341086 0.0016539018 -0.038318586 0.008506563
0.05188171 -0.055476993 0.039450955 0.106043756 -0.0027220084 -0.027838657 -0.026233412 0.0088485535
-0.0043511256 -0.029689608 0.02609497 -0.03855699 0.008443596 -0.0018101762 -0.03854427 -0.0036748485
0.0067697573 -0.0070098764 -0.015284166 0.10272709 -0.02308987 0.014558855 0.01695782 0.10395671
-0.005061478 -0.008886431 0.046427272 -0.07510745 -0.0010590293 0.024025178 -0.0068358723 -0.08659225
-0.07925212 -0.023328567 0.009652948 -0.021435317 -0.048556052 -0.016921798 0.024281744 -0.054338876
-0.07777918 -0.022286952 0.00056073663 -0.043669604 -0.035094332 0.012880728 0.03157951 0.044072073
0.035341207 -0.01323535 -0.046695836 0.029889692 0.053003494 0.02516879 0.04280138 0.04293863
0.047813796 0.06427595 -0.0105986 -0.023079026 -0.021187363 0.02480293 0.06925993 0.031678583
0.01348931 -0.04726599 -0.008129548 0.0058781975 -0.052212518 -0.02766963 -0.047461316 0.050113566
-0.026329208 -0.04236969 -0.0384883 -0.014003995 -0.021821748 -0.03920522 -0.0035251311 -0.010824928
0.06468784 0.0005877161 -0.035273783 -0.062052857 0.010561511 0.068338566 0.03822045 -0.037964202
-0.0012651877 -0.033694364 -0.045459803 0.025983209 0.057923395 -0.02866695 -0.0004884668 -0.042424142
-0.05685005 0.005510179 -0.019740095 0.009187145 0.014184998 -0.017651608 -0.02466007 0.015259248
-0.029582217 -0.051252715 0.026026689 0.027249968 0.012385424 0.0024817316 -0.07586553 0.06386552
0.018571703 -0.06524156 -0.0030342005 -0.015170269 3.8156224e-05 0.1355028 0.007814194 0.044008296
0.025835592 0.01057283 -0.0613904 -0.04388701 0.006032126 -0.023678351 0.06094632 0.012371063
-0.03616082 0.02526073 -0.005473561 -0.041859638 -0.040330347 0.014685968 0.018606286 0.0130940685
-0.007936609 -0.046662673 -0.02962711 0.009771495 0.004267939 0.12034151 0.018129094 0.0060577164
-0.0023133156 0.029535916 -0.015483391 -0.07575669 -0.05493288 -0.00559291 -0.0039947783 -0.0052362913
0.05075316 -0.08339558 0.02780349 -0.039992377 -0.007155925 0.064068235 -0.023699587 -0.054438934
-0.0723088 -0.05426968 -0.015835868 0.06375679 0.014405568 0.00097420544 -0.08409737 0.02403669
0.00070904935 -0.006914406 0.009835586 0.040424183 -0.005187615 -0.0069628083 0.03736331 -0.044135824
0.054021668 -0.034336403 -0.0019401279 0.013068964 0.009935287 -0.023968294 -0.014018691 -0.010105681
-0.02688712 -0.03722398 -0.05244368 0.06950096 0.012415309 -0.038655568 -0.0018652885 -0.050802577
-0.014860535 -0.051049404 -0.027119536 0.007153182 -0.018663835 0.0012250366 0.08843289 0.04506681
-0.015792646 0.044375166 -0.015923573 -0.036719896 -0.010588932 0.001503253 0.018415902 0.03945154
-0.009798533 -0.050800033 -0.12102496 -0.01011735 -0.02422055 -0.055253703 0.0056495965 0.040941413
0.04895654 0.032124117 -0.009120453 -0.017186932 -0.0260418 0.02501904 0.039120384 -0.021310192
-0.012801808 -0.04819796 0.074976765 -0.016474685 0.041893538 0.058955453 -0.039010976 0.008585573

head.conv.bias f4 [64]
00000000: 7cb1 053d e0e8 0b3e 3e43 dc3d 2306 593e
00000010: c6e5 13be 44ea 013e 489f 6dbe 1bd1 283e
00000020: 0e06 323e c960 8a3c 5dc5 0f3e 8c32 98bd
00000030: 178c 373e e40c 32ba ac23 203d f3ce ee3d
00000040: 4197 b93d a229 b73d fa5b 14bd 0379 f0bc
00000050: 86ff c43c e09c eebd 53a9 35be 590b a5bc
00000060: 00e9 ad3d 6463 2dbe e193 2cbe 1827 50bd
00000070: 93b4 1e3e 761a 693e f189 4d3d d75b 6dbe
00000080: 0c09 0c3e 005d e43d 7264 d53d bb57 ad3d
00000090: d892 45be d7f5 76bc b53e 033e 2995 2cbe
000000a0: 6d16 ce3d 6665 c43d 0979 853d fc7f e6bc
000000b0: be15 103c dc2d e73d 712c 74bd 9086 4b3e
000000c0: dc02 283e 3920 3a3d 57f6 adbd d3fd 02be
000000d0: 5bb3 013e 11a2 e23d 3a70 0c3e 72e2 a13c
000000e0: c1b9 34be b5fe 2abd cd32 24be 0612 a93d
000000f0: 2e32 18be a7d9 00be 83b8 373d 9a49 d9bd
0.032639965 0.13663054 0.10755013 0.21193747 -0.1444312 0.12687021 -0.23205292 0.16486017
0.17385122 0.016891854 0.14040132 -0.07431516 0.17924534 -0.0006792082 0.03909652 0.11660566
0.090620525 0.08943488 -0.03622053 -0.029354578 0.024047624 -0.11651015 -0.17740373 -0.020147013
0.08491707 -0.16932446 -0.16853286 -0.050818533 0.15498571 0.22764 0.05018038 -0.23179565
0.13675326 0.11150551 0.10419549 0.08463999 -0.19294298 -0.015073261 0.1281689 -0.16853775
0.10062871 0.09589653 0.06517226 -0.0281372 0.008794246 0.11288044 -0.059612695 0.1987555
0.16407341 0.045440886 -0.08494251 -0.12792139 0.12666075 0.11066068 0.13714686 0.019761298
-0.17648984 -0.041746814 -0.16035004 0.08255391 -0.14862892 -0.12583028 0.0448537 -0.106097415

head.norm.weight f4 [64]
00000000: 586d 853f f4e2 823f b05b 873f bf63 6f3f
00000010: b029 813f 50ec 7d3f 6cad 863f de68 813f
00000020: c172 763f 7bb2 683f 3f77 833f c343 8a3f
00000030: d1eb 813f 5ee0 7f3f 4526 893f d990 8b3f
00000040: 4dbb 743f d53c 7c3f b262 7d3f 1a59 843f
00000050: 3cda 793f 17b9 863f ac0a 6e3f 0a5a 743f
00000060: 606a 913f 3cb2 803f b520 7f3f d412 693f
00000070: f448 7d3f 825e 5c3f 0172 6c3f 5ec8 6a3f
00000080: 36cf 733f a522 703f d7ef 6a3f be4f 633f
00000090: e0ff 863f 8026 893f 3836 643f 2391 893f
000000a0: 099a 853f 707b 693f bb50 763f 2e63 7f3f
000000b0: c6a6 823f 420a 783f e184 903f 2bc4 823f
000000c0: 564c 813f d30c 883f a26d 8c3f b1bd 7e3f
000000d0: 6515 8d3f f58e 723f 1020 613f db77 8c3f
000000e0: 4b74 883f 0809 823f d81c 7c3f eba3 703f
000000f0: e512 833f 3ad5 743f 0d27 5c3f d58e 723f
1.0423994 1.0225511 1.0574856 0.93511575 1.0090847 0.9918871 1.0521674 1.0110128
0.9626885 0.9089734 1.0270766 1.0801929 1.015009 0.9995173 1.0714804 1.0903579
0.955983 0.9853032 0.9897872 1.0339692 0.97598624 1.0525235 0.92985034 0.9544989
1.1360588 1.0054393 0.9965928 0.91044354 0.9893944 0.8608171 0.92361456 0.91711986
0.95238054 0.93802863 0.91772217 0.8879355 1.0546837 1.0714874 0.8914523 1.0747417
1.0437633 0.91203976 0.96216935 0.9976071 1.0207145 0.9689065 1.1290551 1.0216116
1.0101421 1.0628914 1.0970957 0.99508196 1.1022154 0.94749385 0.8793955 1.0974077
1.066049 1.0159006 0.9848151 0.9400012 1.0240141 0.9563786 0.85997087 0.94749194

head.norm.bias f4 [64]
00000000: 59e7 b03c ed8b a7bd fe2a 2a3d d34a 22bd
00000010: af91 a8bc baa7 a7bb c124 10be 07e5 313d
00000020: c7a9 48be ea55 edbd 7c04 273d 418e 9b3d
00000030: 6587 2ebd 7ee8 dcbd 033e 653d 13e8 b6bc
00000040: 3d5e 7bbd 5426 a9bd bc16 fdbd 3331 fabc
00000050: 7b1f e93b e5a9 ab3d dea3 04be c68d 933b
00000060: 34ff a73d 377c 15be d63f ed3c 64d7 0fbe
00000070: bbae 91bd 0fa9 01be df62 20be 5d6e 20be
00000080: 69f5 04be dd76 82bd e8d4 42bd 00bf 07be
00000090: 10e6 97bd da7c e0bd 6771 a1bd 7bcc 333d
000000a0: b6a3 8d3b 244c debd 6fe0 97bd c35e 0ebd
000000b0: 7a65 f4bd 8a32 983d a482 d83d d9ac d03d
000000c0: e8b7 91bd 639c ab3d dbdf d4bd 0419 3a3d
000000d0: b2c9 ec3d 5634 12bd 2bd0 32be ffcf cabc
000000e0: 4d69 bbbc 9dcf 9d3c 2bb6 7bbd f3fa 24be
000000f0: 9bd7 a33d 0e4c 09bd 6446 07be a760 24be
0.02159469 -0.081809856 0.041544907 -0.03962214 -0.02057728 -0.00511643 -0.1407652 0.043431308
-0.19596015 -0.115886524 0.04077576 0.07595492 -0.04260959 -0.10786532 0.055967342 -0.022327458
-0.06136917 -0.08259264 -0.12357852 -0.030541038 0.0071143485 0.08382014 -0.12953135 0.0045029847
0.08202973 -0.14598165 0.028961103 -0.14047009 -0.07113405 -0.12662147 -0.15662716 -0.156671
-0.12984242 -0.063703276 -0.047566324 -0.13256454 -0.07416928 -0.109613135 -0.07882958 0.04389618
0.0043224944 -0.108543664 -0.07415854 -0.03475834 -0.119334176 0.074315146 0.10571793 0.10189218
-0.071151555 0.08379438 -0.103942595 0.045434013 0.11561908 -0.035694443 -0.17462222 -0.024757383
-0.02287736 0.019264037 -0.061453026 -0.16111355 0.08000108 -0.033519797 -0.13210446 -0.16052495

head.norm.running_mean f4 [64]
00000000: 5a91 ed3d 0b59 513e a7eb 793e 6080 f33d
00000010: c4d1 60be 0899 803d 5455 9fbe a250 bf3d
00000020: 744d ed3d 1c5a 6fbd 7f38 813e 673d e73d
00000030: b6b8 513e 51be 77bd c8b7 453e 03c1 583e
00000040: 3121 573e 2b66 123d ca36 85bd d90d 023d
00000050: b945 eabc 4e5c 203d c719 4dbe dd61 d1bd
00000060: 8cae 5b3e 836b d7bd 3f7d d2bd b436 6ebe
00000070: 907a 483e e012 4e3e 5b78 8cbd 4caf 92be
00000080: 7d3b df3d a242 843c 4328 a63d f9e7 033e
00000090: 8b04 88be d664 9b3d 82c3 693e 6de6 ffbc
000000a0: c6dd 3f3e b4da d93c aadb e6bb 8cb0 bdbc
000000b0: 7e86 97bd 4a1e 573e abb1 993d 7c3b 8b3e
000000c0: 1143 253e 0229 7b3e 2532 d53c 24c9 79bd
000000d0: efd6 723e 8a7d 3c3d af81 883c c158 023e
000000e0: 7dec 8dbe e464 88bd 04ee 37be f076 e13c
000000f0: 8fcb f0bb 3773 e1bc c8bb 02be 43ad 81be
0.11599989 0.20444123 0.244063 0.1188972 -0.21955019 0.062791884 -0.31119788 0.09341551
0.11587039 -0.058435544 0.25238416 0.112910084 0.20480618 -0.060484234 0.19308388 0.21167378
0.21008755 0.035741966 -0.06504591 0.031751487 -0.0285977 0.03915053 -0.20029365 -0.10223744
0.21453303 -0.10518553 -0.10277795 -0.23263055 0.19578004 0.20124388 -0.068588935 -0.28649366
0.10900018 0.016145054 0.08113148 0.1288146 -0.26565966 0.07587592 0.22828487 -0.031237805
0.18736944 0.026593544 -0.007045229 -0.023155473 -0.07398699 0.21007648 0.075045906 0.2719382
0.16138865 0.24527362 0.026024887 -0.06098284 0.23714803 0.04601816 0.0166634 0.1272917
-0.2771949 -0.06659868 -0.1796189 0.027522534 -0.007348485 -0.027520759 -0.12766945 -0.253275

head.norm.running_var f4 [64]
00000000: 26b7 883c 6660 2d3c 9249 0c3d a911 a73c
00000010: f6e7 4e3c 50df 373c 65fe 8b3c 27ca 1a3c
00000020: c64f 0e3c 82e4 833c 9168 e33c e3cf 3e3d
00000030: 6805 ca3b c684 233c 09a6 7d3d 6c02 ad3c
00000040: 915e b23c 54bb 3e3c c7e9 c43b 6c17 433c
00000050: 46ea 0f3c 71f4 873d 8f7e a73b 0cb0 593c
00000060: 6b53 1f3d 8170 623c f1e4 2a3c 0799 693d
00000070: f64f 493c 19fc bc3b fc94 c23c bf64 023c
00000080: 8d8b 8b3b eea8 be3c 3679 a63b b9e4 f83b
00000090: a7bd 413c cd60 c53c 2089 ac3c b8ea f73c
000000a0: 7c97 8e3c b6b9 823c 7335 273c 93b4 263b
000000b0: 4452 593c 522e ab3c 6e97 043d 1775 393c
000000c0: 772b 103b de0c 963d 5fb6 ea3c ce2c 083c
000000d0: 4988 c43c 3524 463c 727d bf3c 7df6 2b3d
000000e0: 84ba d33c 4e3c bd3b 4c37 a63b 1430 3a3c
000000f0: 7790 073d 9ff3 933c e6a1 3c3d 6f64 053d
0.016688894 0.010582065 0.03424985 0.020394163 0.012628546 0.011222675 0.017089078 0.009447611
0.008686012 0.016100172 0.027759822 0.046584975 0.0061651953 0.009980386 0.06192592 0.021119319
0.021773608 0.011641342 0.0060093137 0.01190744 0.0087838825 0.066384204 0.0051115225 0.013286602
0.038897913 0.013820768 0.01043056 0.057030704 0.012287131 0.005767357 0.023752682 0.00795859
0.004258579 0.023273911 0.0050803674 0.0075956252 0.011825002 0.02409401 0.02106148 0.03026329
0.017406218 0.015957695 0.010205614 0.002543722 0.013264243 0.02089611 0.032370977 0.01131942
0.0021998563 0.07326673 0.028651414 0.0083114635 0.023990767 0.012093593 0.023375247 0.041983116
0.025845774 0.005775011 0.00507251 0.011364002 0.033096757 0.018060504 0.046052836 0.032566484

channel.fc1.weight f4 [4, 64, 1, 1]
00000000: b993 153d 35b5 b1bc 9a81 353b b6de 89ba
00000010: f821 a73c 538c d13c aba6 ff3b f9a0 c1bc
00000020: 076b ddba 11f5 213d 3fee 273d af89 8c3d
00000030: f235 563b 0648 ca3c ad8a f33c 6a0c 5dbb
00000040: 1121 1f3d 1fc3 f43b a8ff b53c a5fd ff3c
00000050: 9723 d13c e2f8 633d 3631 683c 2e46 073d
00000060: b1d1 2f3d f973 ceba 1da0 ad3c 64f2 d13d
00000070: 52e7 9a3c 9314 013d 08f7 833d 79fe dc3c
00000080: 4393 953c abdc 223d ab7b 963c ac65 193d
00000090: 019f 913c e394 5a3c 83bf 313d f0b0 ea3c
000000a0: 706a 683c 7057 e03c a209 263d edec bd3c
000000b0: c079 a13c 58ad 7c3c 5613 043d ef35 f5ba
000000c0: 68fd c93b 9ad9 763d 47f7 1d3d b59e 7e3c
000000d0: 130f 313d baa4 393d a2f3 9c3d a468 38bb
000000e0: 2abe 393c c8c8 8c3c 0986 7a3c fd15 4f3c
000000f0: d556 cf3c 85e0 063d 1eca b93d 5c5e ad3d
00000100: 82df c8bc 2a68 1bbd 0a6c 03be 49a3 dabb
00000110: 220a c9bc b713 aebb e1e1 08bd f337 80bd
00000120: a09d 41bc 3c20 e8ba c68a 8ebb df49 573d
00000130: 6fdb 833b 3412 c4bc bde9 ad3b 9f59 d63c
00000140: 7a4b 8d3c 90de 2fbc 4ce9 11bc a2fa a53c
00000150: f0d7 033d 84a5 b73c d9f5 d73b d000 12bd
00000160: 8fe5 e0bc 65cd 37bd 32d6 053c 7b34 8e3d
00000170: 092b adbb 7e3b 83b9 ae2f 733c 386c 1e3d
00000180: fb7b 093c 0792 1c3d 4a1f 44bd 4a24 d83c
00000190: d79c 133d 15b8 18ba bbbe 04bc a74f a2ba
000001a0: f29b c63c 82f9 0fbd e1a9 9b3c b339 b33c
000001b0: 2472 7d3a 8642 51bc 01e8 213c 2715 57bd
000001c0: 285c 96bc 9774 443d 6080 143c 6544 03bd
000001d0: bda3 9e3a f756 cebc cc93 ec3b a7c4 983c
000001e0: 470b 88bc eb52 1abb d8cc 22bd d309 4abc
000001f0: 958e 87bd ddf3 ea3a 65b8 503d 2dad 863d
00000200: 3381 70bc efe5 2a3c 670c 92bc af08 2e3c
00000210: eba8 f5bc 35b6 b8bc 4dc7 5d3c a4a8 fabc
00000220: 8421 3dbc d3df 7dba cca2 c63b ba6c f0bc
00000230: 90df 0d3d 9f16 40bd c057 1e3d cfd8 1eba
00000240: f839 9b3b a462 b33c 56b7 b23b 9708 a13c
00000250: 48b3 c33b fffb a1bb e13a c33b 8608 d9bc
00000260: 6b19 b03c 6564 1a3c 20d6 683c 86ad 033c
00000270: f57c 143c ac78 24bc 7741 afbc 5ed3 4fbc
00000280: 4976 b5bb caec 13bd 2b0d 11bc 209a 863c
00000290: 1cf1 e93c 99d0 9abc 3a29 cbbc a48c c0bc
000002a0: ca05 86bc 8fd4 00bc 5d12 43bd 2bfe 4fbc
000002b0: c1a9 23ba 28bc 08bd 8c74 92bc 477f 44bd
000002c0: 4add 0e3d 057d 3fbd 8c73 d2bc 8215 a03c
000002d0: d37e 40ba 386f a83b 820b e0bb 98f7 1dbc
000002e0: 6f28 db3c c457 c4bb ee31 8bbc ee07 e4bb
000002f0: d165 09bd 18e2 9bbc 4bbc a6bc d997 cc3c
00000300: c572 8abc ca51 12bd 6bbf fd3a c79d 18bc
00000310: 82c4 0abd ffa3 bdbc 2eee 6b3c 6799 cd3b
00000320: 4a62 d13b e267 913b 521a aebc f67b 9b3c
00000330: e3f2 9ebc 0ed3 623b b74a 603c af4c 333c
00000340: 9313 353b af88 88bb e0e3 213d d725 003d
00000350: 365a 9e3b f021 d43a b8ef 83ba 647e 7dba
00000360: ab01 4fbc 1356 3f3b cc91 8a3c b1f3 fd3b
00000370: d48f ee3c a574 0dbc 04c8 023d 2319 a3ba
00000380: b87e 88bc 412a aebc 778b fdbc 6e19 9abc
00000390: ed92 51bc b956 e4bb 5fd8 fb3c 6b76 dbbc
000003a0: 77cd 133d 98e5 c3bb 3372 49bc 823a a6bb
000003b0: 5985 843c f33b c7bc 2ba6 02bd b982 10bb
000003c0: 76fb a2bc 457d 9bbc 47ab 863b 623d 64bb
000003d0: c988 3fbc 59c4 153d db23 123d 3010 f83c
000003e0: 0b1d bc3b 9abc 11bc e176 1fbd 78b1 843c
000003f0: 73cc eebc fe31 c5bc 40c1 1abc f838 13b9
0.036517832 -0.021692852 0.0027695657 -0.0010518644 0.02040194 0.025579607 0.007801851 -0.023636328
-0.0016892859 0.039540354 0.040998694 0.068621986 0.0032685963 0.024692547 0.029729212 -0.0033729323
0.038849894 0.0074695493 0.022216633 0.031248877 0.025529666 0.055657275 0.014171889 0.033025913
0.042924587 -0.0015751115 0.021194512 0.102513105 0.01890913 0.03151376 0.06443602 0.02697681
0.018258696 0.039761227 0.018369516 0.037450477 0.017776014 0.013341161 0.04339553 0.028648823
0.014185533 0.027385443 0.04053653 0.023184264 0.019711375 0.015422188 0.032245003 -0.001870809
0.0061642416 0.060266115 0.0385659 0.015540768 0.043227267 0.04532311 0.07663657 -0.0028138543
0.011336843 0.017185584 0.0152907455 0.01263952 0.02530996 0.032928962 0.09071754 0.08465263
-0.02452064 -0.037941135 -0.12834182 -0.006672297 -0.024540965 -0.005312409 -0.03341854 -0.062606715
-0.011817366 -0.0017709802 -0.004350039 0.052560683 0.0040239613 -0.023934461 0.005307405 0.026165782
0.017247904 -0.010734215 -0.00890572 0.020261113 0.032188356 0.022417791 0.0065905866 -0.035645306
-0.027453212 -0.044873614 0.008168744 0.069436036 -0.005284671 -0.00025030592 0.014842911 0.038677424
0.008391376 0.0382252 -0.047881402 0.026384491 0.036038246 -0.000582577 -0.008102114 -0.0012383357
0.024244282 -0.03515006 0.019001903 0.0218781 0.00096681924 -0.012772208 0.009881974 -0.052510407
-0.01835449 0.04796275 0.00906381 -0.032047648 0.0012103241 -0.025187952 0.007219767 0.018648459
-0.01660694 -0.0023547958 -0.039746135 -0.012331444 -0.06618992 0.001792546 0.050957102 0.065759994
-0.014679241 0.010430797 -0.01782818 0.0106221875 -0.029987773 -0.02254782 0.013536287 -0.030597992
-0.011543635 -0.00096845365 0.0060618874 -0.02934872 0.034637034 -0.046896573 0.038657904 -0.00060595287
0.004737135 0.021897621 0.0054539843 0.019657416 0.0059722997 -0.0049433704 0.0059579466 -0.026493322
0.021496495 0.00942335 0.014211208 0.008036977 0.009062995 -0.010038536 -0.02139352 -0.012684671
-0.0055377823 -0.03611449 -0.008853237 0.016430914 0.028557353 -0.018898295 -0.024799932 -0.023504563
-0.016360182 -0.007863178 -0.047624934 -0.012694876 -0.0006243252 -0.033382565 -0.01787784 -0.047972944
0.034879006 -0.046750087 -0.025689863 0.019541506 -0.0007343117 0.0051402114 -0.0068373093 -0.0096415505
0.026752679 -0.005991908 -0.016991582 -0.006958953 -0.033544365 -0.019028708 -0.020353457 0.02497475
-0.01690043 -0.03572253 0.0019359415 -0.009314961 -0.03387881 -0.023149488 0.014400048 0.0062743905
0.006389891 0.0044374326 -0.021252785 0.018980008 -0.019402927 0.0034610662 0.013689688 0.010943576
0.0027630075 -0.0041666846 0.03952396 0.031286087 0.0048325313 0.001618443 -0.0010065949 -0.0009670018
-0.012634675 0.0029195591 0.016915224 0.0077499975 0.029121317 -0.008633767 0.03192903 -0.0012443404
-0.016661987 -0.021260383 -0.030950291 -0.018810954 -0.0127913775 -0.006968346 0.030742822 -0.026789865
0.03608462 -0.0059782974 -0.012295294 -0.0050728926 0.016176866 -0.024320578 -0.03189675 -0.0022050573
-0.019895297 -0.018980632 0.0041097733 -0.0034826626 -0.011690327 0.036564205 0.035678726 0.030281156
0.005740767 -0.008895064 -0.03893173 0.016197905 -0.029150223 -0.02407169 -0.009445488 -0.00014040235

channel.fc2.weight f4 [64, 4, 1, 1]
00000000: 62b6 15ba 8e54 1cbd 19a5 1bbc b6f7 7137
00000010: 7cf3 263d 87ed 803c b336 9ebc 4436 433c
00000020: 97bd 083d cae8 6f3d 1411 cb3c 1c85 f0bb
00000030: 6ad3 90bc a4d5 f6bb 13d2 15bc f1dd 253c
00000040: f5d1 373d 0dfd a53c 524a 86ba 146c 94b7
00000050: 57a8 373d 3d30 2b3d 42ac 53bc fdcb 603c
00000060: d427 1d3d a3dd 223c 59ff 5abc afa8 4dbc
00000070: fe3c 05bc 95c8 493c 7496 f2bc b8e1 26bc
00000080: 2aea 823d 5019 243d 7ff2 e3bc 7277 e13c
00000090: 8e0f 1ebc 1a9d ef3c 1bb4 043d a576 833c
000000a0: 45be 403d 83cc 173d 6a05 bb3b d5b3 70bc
000000b0: 2e23 2a3c 64f8 dd3c 5a34 b6bc 311c 0f3c
000000c0: a872 d13b eab3 83bc cca7 b83c 0d92 40bc
000000d0: 3186 8c3d 058e 553d c09b b33c 2e2b d7bc
000000e0: 7505 1b3b 0758 9abc c54c c23b b7d3 59bc
000000f0: 2bf8 0a3e baa2 843d cc4f c4bb 3347 0fbc
00000100: 7958 46bd f3b8 cabc c951 8c3b e4f7 b6bb
00000110: fd70 f03c 17e7 00bd 8fa4 233b ea90 1f3b
00000120: d68a 583d f6cd 1f3d d907 5a3c 102d 043c
00000130: ea84 92bd e470 c1bc 47c3 dbbc ea9a 563c
00000140: 1167 633c 0750 f8bc d571 90bc a57e f0bc
00000150: b752 5bbc 6037 05bc ac43 acbc ea01 733a
00000160: c88f f13c ca30 113c f2b2 d9bc 528a 2f3c
00000170: 3d98 ab3c 702a 3d3d f716 0fbb ce2e 6cbb
00000180: 174c b93c fea5 d73b b91d 273a bb32 0b3d
00000190: 0ee1 3a3c e2b7 843d b403 e3ba 8499 9abc
000001a0: b20f c63c 5f50 5e3d 4f58 b8bc f63a 793c
000001b0: 3659 1a3d 575f 443d 2490 85bc d457 adba
000001c0: affd 88bc d9cf 8cbc 4f9b 13bc a21b f9bc
000001d0: 8804 b0bd 1809 95bd 6283 35bd 5b5d 133a
000001e0: a812 dc3c fe14 8d3c c6f4 9cbb 243b e3bb
000001f0: 27ad 41bd d885 aabd c585 983b 742c 56bc
00000200: aff8 fdbb 35bd 2abc f921 7bbc 3bf3 5fbc
00000210: d65c a03b 09a9 46bc 01f9 a73c f901 e93c
00000220: 09cc 2ebc aa8f 333d 05ca 8fba 71aa 06bd
00000230: e055 7bbc 69f9 ef3b bc72 33ba 634a 87bc
00000240: e682 f23d 3953 963d 1afb ec3c 51ee 983c
00000250: 4df4 dc3c 53f7 6a3d d0d8 d4bc ff92 6fbd
00000260: 83a6 73bd 686d 44bc 42e4 0f3c 57a6 7d3c
00000270: 4b97 8f3c 2c9d b2bc ec2d 563c 3156 82bc
00000280: 7790 473d 884c 7d3c 744d 133d 1506 e6bb
00000290: 1bf9 8dbb c16a 603c be60 d5bc 226d fa3a
000002a0: f66f de3c 3ca7 eb3c 1ef6 a3bb 3673 243c
000002b0: 3dde 3ebc a174 3ebd 4e24 e23a 0e7c 68ba
000002c0: 4c24 dc3c df55 75bb 9e4d 063b 1884 ce3b
000002d0: e50b 85ba 5304 29bb aad6 233c 63e9 61bb
000002e0: d5b6 bd3d 61d6 6d3d d9ce 3cbb 18c8 863c
000002f0: 6c78 973b fb9a 493c da64 18bd d6b7 f5bb
00000300: 2ddb 36bb 8c58 253b e014 49bd b318 27bd
00000310: 68bb 803d 57c2 be3d e516 6bbc ddf6 bc3c
00000320: 0fa7 e43d 229c f23d 95ac d03c e14f e9b9
00000330: 6ab8 483c 7089 ccbc e406 d53b ab83 3a3c
00000340: fcaa 073c 1877 ca3b 8c4e cb3c d518 5fbc
00000350: 84cd 50bd 632f 76bd 3976 b9bb aad2 833c
00000360: eb8a 09be 271e 82bd 0591 5ebc d1b8 f7bb
00000370: f751 1ebc 3f84 17bd 5308 543d 589a 713c
00000380: a3fa 1dbc f8b4 483c d2cf 813c fc0e 4f3c
00000390: 4603 0e3d d2c3 f3bb cac5 23bc 5b22 ee3b
000003a0: c18a 4a3c b492 5dbc 6420 a93b 703c 143a
000003b0: d0b7 5a3c e8fc 5f3d 4fdb 15bd 32a5 81bc
000003c0: 74c7 d43a b82c 383d 77bf 3fbd 0d07 913c
000003d0: 8dbb 5ebc 904a 3a3c d1a8 f53c 60d5 64bb
000003e0: 5ec4 82bc 0772 b73c 83be 183c f1fb 8abc
000003f0: 75de d53c adb5 8b3c c230 033b 0255 f8bc
-0.0005711076 -0.038166575 -0.009499812 1.4422394e-05 0.04075955 0.015738262 -0.019313192 0.011914793
0.033383932 0.058571614 0.024788417 -0.0073400866 -0.017678935 -0.007532792 -0.009144324 0.010123716
0.044877965 0.020262266 -0.0010245538 -1.7693303e-05 0.044838276 0.04179405 -0.012919487 0.01372051
0.03836806 0.009940538 -0.013366544 -0.012552424 -0.008132217 0.012315889 -0.029612757 -0.0101856515
0.063923195 0.040063202 -0.027825592 0.027522776 -0.009647263 0.029249717 0.032398324 0.016047785
0.047056455 0.037060272 0.0057074325 -0.014691313 0.010384364 0.027095981 -0.02224176 0.008734749
0.006391842 -0.016077 0.02254095 -0.011753571 0.068615325 0.052137394 0.021924853 -0.026265707
0.0023654376 -0.018840803 0.005929562 -0.013295106 0.13571231 0.0647635 -0.005990958 -0.008745003
-0.048424218 -0.024746394 0.0042822105 -0.00558375 0.029350752 -0.031470384 0.002496991 0.002434785
0.05286678 0.03901478 0.013307535 0.008067384 -0.071542576 -0.0236134 -0.026826514 0.013098458
0.013879553 -0.030311598 -0.017632404 -0.029357264 -0.01338642 -0.008130878 -0.021028362 0.00092699996
0.029487506 0.00886173 -0.026574586 0.0107141305 0.020946616 0.04618305 -0.0021833756 -0.003603864
0.02261929 0.006581067 0.00063749735 0.033983927 0.011406196 0.06480385 -0.0017319829 -0.01887203
0.024177406 0.054275867 -0.022503046 0.015211811 0.037682734 0.047942486 -0.016304083 -0.0013225027
-0.016722528 -0.017188953 -0.009009196 -0.030408684 -0.08594614 -0.07277125 -0.04431475 0.0005621516
0.026864365 0.017221924 -0.0047899215 -0.0069345403 -0.04728427 -0.0832631 0.0046546184 -0.013072122
-0.0077505927 -0.010421087 -0.015327924 -0.0136688305 0.0048938794 -0.012125262 0.020504477 0.028443323
-0.010668763 0.04383818 -0.0010970241 -0.03287739 -0.015340298 0.007323433 -0.0006845405 -0.016514963
0.11841373 0.07340092 0.028928328 0.018668326 0.02697196 0.057364773 -0.02598229 -0.058489796
-0.05948497 -0.011988975 0.008782448 0.015481553 0.017528197 -0.021803461 0.013072472 -0.01591024
0.048721757 0.015460141 0.035962537 -0.007019768 -0.004332674 0.013697327 -0.026047107 0.001910601
0.027152997 0.028766267 -0.0050037047 0.010037234 -0.011649665 -0.046497945 0.0017253251 -0.0008868583
0.026872776 -0.0037435216 0.002049304 0.006302368 -0.001015064 -0.002578993 0.00999991 -0.0034471385
0.09263388 0.058065776 -0.0028809814 0.016452834 0.0046225097 0.012305017 -0.037205555 -0.0074987216
-0.0027901635 0.002522978 -0.049092174 -0.04079504 0.06285745 0.09314411 -0.01434872 0.023066932
0.111646764 0.11846186 0.025472919 -0.00044500738 0.012250999 -0.024967879 0.0065010656 0.011383931
0.008280512 0.006178748 0.024817728 -0.01361676 -0.050977245 -0.060103785 -0.005659845 0.016091663
-0.13431899 -0.06353407 -0.01358438 -0.0075598736 -0.009663097 -0.036991354 0.05176575 0.014746271
-0.009642276 0.012250178 0.015846167 0.01263785 0.03467109 -0.007439115 -0.009995887 0.007267279
0.012362183 -0.013523746 0.005161332 0.0005654758 0.013349488 0.05468455 -0.036586102 -0.015825842
0.0016233758 0.044964522 -0.046813454 0.017703557 -0.01359452 0.011370316 0.029987724 -0.003491722
-0.015962776 0.02239324 0.009322765 -0.016965838 0.026107052 0.017054403 0.0020018076 -0.030313972

body.block1.conv.weight f4 [64, 64, 3, 3]
00000000: 0468 653d efd0 8a3c 1f40 f83c 7cac a43d
00000010: 4699 913d a2c5 ab3d ba05 8d3c 9eed aab9
00000020: ec9d 97bc 5168 863c 5f41 e93c 3f42 813b
00000030: 3ca1 c4bd 6051 bbbc dc34 08bd d542 7bbd
00000040: f34f d53c 8420 753c aeda 0bbb 58de dd3c
00000050: 2a7d 423c e0fa 963c 1609 f03c 39b8 45bc
00000060: 5b66 d43c b541 a53c abd2 b93c bf9f fabb
00000070: 5057 b53b 2750 9c3b 036b 1dbd 8487 5bbd
00000080: 69a8 40bd 17da 02bc 9280 1c3a 2626 543c
00000090: bde1 ad3c 0788 cd3c 7927 5dbd c3f4 21bd
000000a0: 3946 48bc e815 95ba 8e6a fe3c 007a 463c
000000b0: b16f cdbb e6f2 32bd f5bb aabb 5e66 8abd
000000c0: 3816 74bd 52be 66bd 0975 a1bd 7779 a2bc
000000d0: 21ab b43b 8415 893b ef56 80bd 55d3 8b3b
000000e0: f47b 53bd f614 6c3c c13b 423d c69e ae3d
000000f0: f726 cebd dc32 8ebd e467 1e3b 3686 94bd
00000100: 8391 c0bc 68d5 77b9 86d9 9abc c1fe 5f3c
00000110: 9b4d fb3a 85c5 48bd 1d3e 873c 0d0e f1bb
00000120: b447 343b 5250 03bd 0793 0dbd e9bb 8fbd
00000130: 0528 68bd 65cd 8bbd 0a32 27bd 5059 ccbc
00000140: 8f35 b03b 6f7c 03bd 05cb 9abb 77be febb
00000150: 537c dbbc 943a 663c 2f12 2bbd db5f c73c
00000160: 1fea a03b 6659 27bd cb6a 213b 2704 123d
00000170: 78ac 053c 857b 3d3c 8b0c 453c fa0a 0d3d
00000180: f2bf 213d d271 033d b6d0 0f3d fe1b 973c
00000190: d45e 583d c6f2 d43b e661 303c 4001 9c3d
000001a0: b1f6 5e3b 2a84 8cbc 0601 bb3c 1b6c 4c3d
000001b0: 60e1 46bc 14e5 66bc 9b14 c7bc e8e8 bebc
000001c0: c308 12bc 3cc7 45bd 6a5a e93c 79af 123d
000001d0: 6f8c 343c ec00 f8bc da6a 49bb 396b 2bbd
000001e0: 8070 95bd fa47 87bc 4d77 3cbd c8c2 113d
000001f0: e1ec cf3b da01 263d 2259 c93c be1d 91bc
00000200: 0c58 943c 271d 3c3c 1f43 813c 23b3 093d
00000210: c648 813d 7bd4 4a3d 1e25 503c 98b5 8fbd
00000220: 0bd3 cfbc 6d2c 64bd eb04 e0bd a026 283b
00000230: 5c48 fe3b 392c 09bd d475 90bd ef28 38bd
00000240: 2cb1 923c 9945 94bc 1181 1bbd 96c7 3b3c
00000250: cfdb c93a e7ca 36bc 181a a13b 7d1f 53bc
00000260: d1ee 11bd 8ffc 4a3c 8105 f3bc 6b34 743b
00000270: f25e a63c 90c4 58bc 5e38 dbbc 9bbc b83c
00000280: d3aa 523c 7016 4f3d 916c d9bc 7006 37bd
00000290: 19bb c3bc 5cde 5fbb 353b 8bbc b7a2 21bd
000002a0: 8d9e 02bd 4f4a 92bb d6da 79bc d246 2d3d
000002b0: 687f 943c 1270 c43c 5c88 01bd 4c10 c7bc
000002c0: add5 41bc e5dc c7bc 7c10 8f3c 5c08 b1bb
000002d0: 4e88 c13c 7510 80bd 5b63 213c 1db1 123c
000002e0: 2c72 1ebd 101f 2e3b 1856 24bc 3cb9 92bc
000002f0: 1168 dfbd 4e06 c33b d8fa 883b ff38 bdbb
00000300: b6e0 6c3c 8cba cd3c 58dc e7bb 110d b83c
00000310: ffe6 843c 1d7b 3139 da66 50bd 63a3 41bd
00000320: 797d 1dbd e2af 2f3b b0d4 a33c cdc7 e3bc
00000330: 4546 afbc e75f 39bd b11e 5fbd fd58 93bc
00000340: 82ff 3ebc 76f4 3bbd b119 8abd 41c3 47bc
00000350: 0dcd de3a e607 22bd 7350 8abc a54a 6bbc
00000360: a959 2fbd e233 07bd 903d df3c ff97 683c
00000370: 6d6b b8bc b15c 283d 0c02 fd3c 1ac0 333d
00000380: 90bf 10bc c734 ddbc a3e1 07bd 3017 abbc
00000390: 8ae0 ce3b b23d 2c3b 078d d9bb d022 e0bb
000003a0: ac76 97bb 29b6 b4bc 4c7e e1bc 416a 7a3c
000003b0: ab7f 0c3c 5924 53bb 45cc d3bc 8c5b 24bb
000003c0: d171 88bc b19f 0abd a549 c5bb 1d0c 1ebd
000003d0: 041b 6ebd b4ba 39bd 5862 0ebd 9b0f 1abd
000003e0: f1cb 49bd ddfa 3ebd 5427 f8bc 44ae 66bd
000003f0: 316f bfbc 7230 24bd 4349 b7bc a378 443c
0.0560074 0.01694533 0.030304013 0.08040711 0.07109313 0.08387305 0.017214645 -0.00032601965
-0.01850792 0.016407164 0.028473554 0.0039446647 -0.096010655 -0.022865951 -0.033253536 -0.061343033
0.0260391 0.014961366 -0.002134006 0.02708356 0.011870662 0.018430173 0.029301208 -0.012067848
0.025927713 0.020172933 0.022683462 -0.0076484377 0.00553409 0.004770297 -0.038432132 -0.053596035
-0.04703561 -0.007986567 0.0005970086 0.012948548 0.021225804 0.025089277 -0.053992722 -0.039540064
-0.012223774 -0.0011374326 0.031056669 0.012114048 -0.006269418 -0.043688677 -0.0052103945 -0.06757806
-0.059591502 -0.056333847 -0.07883651 -0.01983331 0.005513564 0.004183473 -0.06266581 0.004267136
-0.051631883 0.014409294 0.047420267 0.085263774 -0.10066026 -0.069432944 0.002417081 -0.07252161
-0.023506885 -0.00023635256 -0.018902551 0.013671578 0.0019172909 -0.049016494 0.01650911 -0.0073564113
0.0027508559 -0.03205902 -0.034564044 -0.07018263 -0.05667879 -0.06826285 -0.040819205 -0.024944931
0.0053774784 -0.03210109 -0.004723909 -0.00777417 -0.02679268 0.014052052 -0.041765388 0.0243377
0.004910722 -0.04085674 0.0024630304 0.03564849 0.008158796 0.011565094 0.012026916 0.034434296
0.039489694 0.03209097 0.03511115 0.018445965 0.05282481 0.0064986674 0.010765528 0.07617426
0.0034021551 -0.017152864 0.022827636 0.049907785 -0.0121386945 -0.014092702 -0.024301818 -0.023304418
-0.008913222 -0.048285708 0.028485496 0.035811875 0.01101981 -0.030273877 -0.0030733855 -0.041850302
-0.07296848 -0.016513813 -0.04601221 0.03558615 0.006345377 0.04052911 0.024578635 -0.017714377
0.01810839 0.01148156 0.015779076 0.033618104 0.063127086 0.049519043 0.012704162 -0.07017058
-0.025369188 -0.05570643 -0.10938438 0.0025657788 0.0077600908 -0.03348944 -0.07053724 -0.044960912
0.017906748 -0.018099593 -0.037964884 0.011461159 0.0015400591 -0.011156774 0.0049164407 -0.012885925
-0.035628144 0.012389316 -0.02966571 0.003726269 0.020308945 -0.013230458 -0.026760276 0.022550872
0.0128581105 0.050558507 -0.026541026 -0.044683874 -0.023892926 -0.0034159636 -0.016996006 -0.039461818
-0.031889487 -0.0044644247 -0.015249928 0.042303868 0.018127158 0.02397922 -0.031624183 -0.024299763
-0.011830729 -0.024397323 0.017463915 -0.005402608 0.023624565 -0.06253139 0.009850348 0.00895336
-0.0386831 0.0026568808 -0.010030292 -0.017910592 -0.10908521 0.0059516793 0.0041802935 -0.0057746167
0.014457872 0.025113367 -0.0070758276 0.022467168 0.016223429 0.00016925899 -0.050879337 -0.04727496
-0.03844974 0.0026807715 0.019998878 -0.027805233 -0.021395812 -0.045257475 -0.05447263 -0.017986769
-0.0116575975 -0.045887433 -0.067431815 -0.012192548 0.0016998366 -0.039558314 -0.016884064 -0.014361058
-0.042810116 -0.033008464 0.027251035 0.014196395 -0.022512162 0.041104022 0.030884765 0.043884374
-0.008834735 -0.027002705 -0.03317417 -0.02088508 0.0063133882 0.002628189 -0.006639126 -0.0068400875
-0.004622301 -0.022059517 -0.027526043 0.015284122 0.00857536 -0.003221771 -0.02585424 -0.002507898
-0.016655834 -0.0338437 -0.006020742 -0.03858577 -0.058131233 -0.04534407 -0.034761757 -0.03761254
-0.04926676 -0.04662596 -0.03029219 -0.056318536 -0.02336845 -0.040085264 -0.022373801 0.011991653

body.block1.conv.bias f4 [64]
00000000: fa61 14bd e19b 373d 4c38 b6bc 917c c73c
00000010: 4612 32bc 7ed4 fcbc 4dd3 ac3c c254 dabc
00000020: 461c 753c 2ddf 6dbd 284b b7bc 4179 98bd
00000030: ea5f 58bd 1630 8abc 1c95 a83c 7c56 ad39
00000040: 5c95 133d 57ab 323c 322a 98bc 4722 b23c
00000050: 09fe c53c 8781 8f3a c6b6 9239 a0af a83c
00000060: 7f0c 263d 372d 36bd 6066 eb3c 52c2 a63c
00000070: b972 123c f0e2 f5bb 4aed 363d 733b 61bd
00000080: d5f8 be3c 840c 80bc 457e 66bc 7aa0 88bd
00000090: c10c a4bc 1f32 e63c 1e8f 7dbd 9d04 a4bc
000000a0: 6a3c 2b3d 28f3 2b3c 62e2 6f3d 22de ed3c
000000b0: 2275 1fbc bdcb c0ba 75e2 333d 396c 133d
000000c0: effd 87bc 4a6e 0abd 99a9 94bc 9c04 efbc
000000d0: 8942 b9bb 831a a9bd c092 e33c e681 9b3c
000000e0: 9764 c6bc d57e c5bc bd3e 67bb c6f1 213d
000000f0: 262b 763c 292f 37bd d9d9 5dbd 1bb9 7bbc
-0.03622625 0.044826392 -0.022243641 0.02435139 -0.010868615 -0.030863043 0.02109685 -0.026651744
0.014960354 -0.058074165 -0.022374704 -0.07445002 -0.052825846 -0.016868632 0.020578913 0.00033061567
0.036031112 0.010905108 -0.018574808 0.02174486 0.024168985 0.0010948636 0.00027983467 0.020591557
0.04053926 -0.044476714 0.02873534 0.020356331 0.008938485 -0.0075038597 0.04465989 -0.054988336
0.023312012 -0.015630968 -0.014068191 -0.066712335 -0.020025613 0.028100071 -0.061904065 -0.020021731
0.041805662 0.010494985 0.058565505 0.029036585 -0.0097325165 -0.0014709156 0.043917138 0.03599188
-0.016600577 -0.033796586 -0.018147277 -0.029177003 -0.0056536836 -0.0825701 0.027779937 0.018982839
-0.024217887 -0.02410833 -0.0035285198 0.039537214 0.015024936 -0.04472271 -0.054162834 -0.015363957

body.block1.norm.weight f4 [64]
00000000: 92f4 7d3f 4caf 853f c978 8a3f 9157 883f
00000010: 3fff 7f3f 8154 8f3f c797 6d3f 7a7c 843f
00000020: cf8f 893f 0f90 7f3f 83e9 753f 2382 643f
00000030: 5aee 813f e5fb 853f a129 7f3f 774d 803f
00000040: 1c19 7b3f 4d9d 753f 0051 743f 3c8e 873f
00000050: 1ff5 7a3f 44c5 713f 9181 723f 8ee8 793f
00000060: 0085 803f dddc 753f 88fa 783f ca8f 743f
00000070: b0ce 893f 668e 6c3f 7201 803f 5bc1 753f
00000080: d1cf 6b3f 33ed 7f3f 88bf 873f 30ce 913f
00000090: b518 793f ab6e 7b3f ae26 873f 4933 7b3f
000000a0: c3c2 6d3f decf 8b3f aa4d 693f bf40 913f
000000b0: b429 8b3f ac51 713f d63d 653f cbaa 893f
000000c0: acce 893f d25a 803f 0bb4 7b3f 6cae 773f
000000d0: 661c 803f 7cdc 743f d84b 853f 88fd 863f
000000e0: fab9 823f d3fd 883f 0d16 8d3f 1543 7f3f
000000f0: 2211 773f 6157 783f 9470 823f 3989 853f
0.9920131 1.0444121 1.0818111 1.0651723 0.9999885 1.1197664 0.9280972 1.0350487
1.0747012 0.9982919 0.96059436 0.8926107 1.0150864 1.0467497 0.99672896 1.002364
0.9808519 0.95943147 0.95436096 1.0590281 0.98030275 0.9444163 0.9472895 0.97620475
1.0040588 0.96040136 0.9725728 0.95531905 1.0766201 0.9240478 1.0000441 0.9599816
0.9211398 0.9997131 1.0605326 1.1391048 0.97303325 0.9821574 1.0558679 0.9812513
0.9287531 1.0922811 0.9113413 1.1347884 1.0872102 0.94265246 0.8954748 1.0755247
1.0766196 1.0027716 0.983216 0.9675052 1.0008667 0.9564893 1.0413771 1.0546122
1.0213006 1.0702461 1.1022354 0.99711734 0.9651052 0.9700833 1.0190606 1.0432502

body.block1.norm.bias f4 [64]
00000000: 66e4 363c 6589 1d3c 10b8 66bd 85e6 9e3d
00000010: 4018 b23c e177 a03d 3ed2 78bc b41c 953e
00000020: 0d8f 863e 3b49 d1ba bc84 e73c d060 6d3c
00000030: b654 793d 1758 4ebd ff08 823e 0148 883d
00000040: 247b 2c3d b9a2 143e d7a1 4f3e 5ca6 343c
00000050: 0c4b 2b3e e65b 0f3e 4758 073e 5ec6 bf3b
00000060: 5d10 6dbd 8146 a2bd 4039 183e 20fc 4c3c
00000070: 6bc7 123e e55d 603e 83a3 6c3d f1b7 f6bb
00000080: 110a 0f3e 439e 3ebd d39f c03d 5b5a 2e3e
00000090: aaa3 3e3d 9cdb 813a ed97 903e d435 f8bd
000000a0: 013b e73e 8f8f dd3d dc39 b53d a208 aabc
000000b0: ad18 663d 59ff 483e 2bce 7e3e 34dd 0e3d
000000c0: 5eab 903d 3840 133e ae40 f83c d8f5 fdbc
000000d0: 4c48 083e f6ae 143d d99e 663d e4ad 273d
000000e0: 29a1 453d 8aec 243d 0e37 883d 23f1 553d
000000f0: c29f 9c3d 1865 c63d cd06 99bd 6cd0 26bc
0.011162853 0.009615277 -0.05632788 0.07758812 0.021740079 0.07835365 -0.015186844 0.2912346
0.26281014 -0.0015967259 0.028261535 0.014488414 0.060871802 -0.050376978 0.25397488 0.06654359
0.042109624 0.14515199 0.20276581 0.011025991 0.16727847 0.139999 0.13217269 0.0058525046
-0.057876933 -0.07923604 0.14865589 0.012511283 0.14333884 0.21910818 0.057773124 -0.0075292517
0.13968684 -0.04653765 0.09405484 0.17026655 0.0465428 0.0009907368 0.2824091 -0.12119642
0.45162204 0.10818397 0.088489264 -0.02075607 0.056175876 0.19628657 0.24883334 0.034878924
0.07063936 0.14379966 0.03030428 -0.031001016 0.13308829 0.03629967 0.056303833 0.04093732
0.048249397 0.040264644 0.06651126 0.05223192 0.07647659 0.09687251 -0.07472 -0.010181528

body.block1.norm.running_mean f4 [64]
00000000: b909 27bf 3e95 f83e 1c30 9bbf 159b 2ebf
00000010: 7eac 093e 853d b5be 3d09 48be ba16 f0bf
00000020: fefc 18c0 ee08 6b3f 7ce8 0ebe d904 70bf
00000030: caa8 a6be f617 8abf 0954 2ec0 df2f 23be
00000040: c6d4 193f e983 eb3e df08 eabf ecd9 94be
00000050: 08fc 18c0 e05f 66bf 680d fcbf 03c6 a23f
00000060: fcf3 413f f0a2 01bc e376 e5bf 6e82 453f
00000070: 351a 763f 419f 01c0 efc2 00bf c9d3 a83f
00000080: e177 febf e815 58bd 5cec 323d 3b6f 00c0
00000090: b6e7 d1bf fa3c c73e 36c7 7bbf 3276 bdbe
000000a0: 064c c7bf 03ed d5bf e80d 8cbf 4021 a5be
000000b0: 815c b1be 1332 90bf db0c d2bf 869c 07bf
000000c0: f876 f1be 6ddf febf f74e 81be f83a a43f
000000d0: d7f4 27bf cb79 e7bf 1702 a1be f9d2 a0be
000000e0: d1ee 803d cb09 9c3e 89c7 093d 1a6b 253f
000000f0: 9a04 e9bd 6e17 f7bf bb90 0dbf 9d04 a83e
-0.6524921 0.48551363 -1.2124057 -0.68205386 0.13444707 -0.35398498 -0.19534774 -1.8756936
-2.3904414 0.918105 -0.13955873 -0.93757397 -0.3255065 -1.0788562 -2.723879 -0.1593623
0.6009029 0.45999077 -1.8283957 -0.2907251 -2.3903828 -0.89990044 -1.9691591 1.2716678
0.75762916 -0.0079123825 -1.7926906 0.77152145 0.9613374 -2.025345 -0.50297445 1.3189632
-1.9880334 -0.052755266 0.04368244 -2.006789 -1.6398838 0.3891371 -0.98350847 -0.37004238
-1.5570076 -1.6712955 -1.0941744 -0.3225193 -0.34640887 -1.1265281 -1.6410173 -0.5297321
-0.47161078 -1.9911934 -0.25255558 1.2830496 -0.6560797 -1.8084043 -0.31446907 -0.3141096
0.062955506 0.3047622 0.033637557 0.6461655 -0.11377831 -1.9304025 -0.55298966 0.3281602

body.block1.norm.running_var f4 [64]
00000000: 2756 4940 aa25 9e40 5db7 0c3e 3579 033f
00000010: ccc1 d740 1782 0540 9271 8740 3756 e740
00000020: 99c8 6b40 9b0f ae3d 2ab0 9440 b9ab a53e
00000030: 35a1 953f 0ff2 1240 989b 803e 1e3c 3e3f
00000040: c087 993f 426c c93f 7983 0e40 a766 5b3f
00000050: 6651 3d3e 1b69 0040 0dfd ff3f 7b66 b63f
00000060: f42c 3d3f 35da b440 2941 1640 1c23 2e40
00000070: 7408 1e40 0fa5 1040 8c4c f140 b6cf 4e40
00000080: 2d32 0440 2cb7 fc3f 9ff1 1f40 8066 ad3f
00000090: bd71 793e 073d a83f cd40 2c3f 0505 503f
000000a0: 02f4 0440 52ff 4d40 772e 3140 a5c6 ad40
000000b0: 5233 213f f73e e63f 9419 5b3f 5e49 2a3e
000000c0: 5ef1 6340 9bcc 5b40 6fe2 1440 c436 ff3f
000000d0: 7c6e 8e40 2102 0540 c73a 7d3e 571b 583f
000000e0: de1c 973f e404 5b40 154c 763f 4f08 a03f
000000f0: 32db 6640 17fc ef3f d183 103e 77c6 873f
3.1458833 4.9420977 0.13741823 0.5135682 6.742407 2.086065 4.2326136 7.2292743
3.6841185 0.0849907 4.6465044 0.32357576 1.1689821 2.296024 0.2511871 0.7431048
1.1994553 1.5736163 2.2267745 0.8570351 0.18488082 2.0064151 1.99991 1.4250025
0.7389672 5.6516366 2.347727 2.720893 2.469266 2.2600744 7.540594 3.2314277
2.0655625 1.97434 2.4991224 1.3546906 0.24359794 1.3143624 0.6728638 0.8125766
2.077393 3.2187085 2.768461 5.4304986 0.62968934 1.7987965 0.85585904 0.1662955
3.561607 3.4343631 2.3263204 1.9938588 4.450987 2.078255 0.24729453 0.8441672
1.1805685 3.4221735 0.9620984 1.2502536 3.6071286 1.8748807 0.14112784 1.0607442

body.block2.conv.weight f4 [64, 64, 3, 3]
00000000: 3a5c 983d ac09 e63c 1858 dc3b 02c3 963c
00000010: 3636 43bc 81d7 0a3d 2ced 9e3c 4537 f03b
00000020: 23c3 40bc 6720 723c 33ab 2ebc 6559 7cbc
00000030: f3ed 8abc d5e2 0ebc d7ac 8abd f69c eab9
00000040: 236c 24bd c209 e8bd bee6 47bd a961 92bc
00000050: 6675 03bc fed4 99bd fea7 fcbc 33fc 9ebd
00000060: ec79 c33c dc84 ddbc 1617 3abd e632 5ebd
00000070: d1eb 1fbd 6a42 89bc ea6f 9cbc 8e84 82bd
00000080: 89c5 e33a 1d73 3dbd 655e d7bb bdb7 15bd
00000090: a9c9 52bd 316a 48bd f05e 4bbd 2177 b8bc
000000a0: b860 32bd 7d3c 45bd c447 62bd 7460 5abd
000000b0: d073 31bd 29e0 95bd 9bea eabc 730c c2bb
000000c0: 9fd6 673c 788f 31bd 60a7 373c b7d7 b0bd
000000d0: cce1 1dbd fe4b c13c b7ca d1bc 833c 0ebd
000000e0: f537 36bc d9f0 6bbc a837 b5bc 204a 2dbc
000000f0: 8c10 3dbd 715b 05bd 9293 21bd ee57 7a3c
00000100: f530 75bc 818d a33d 0bf7 76ba 9e23 c03c
00000110: 5a2c 49bd bbad ba3c 47c7 0cbd 2479 ef3c
00000120: fdac 9b3b 7e01 963c 59ff 7e3d 77a8 ec3c
00000130: 209a dc3b b96d c63c 084d 643d 648e 463d
00000140: 9de3 473d 9fd2 10bc 007a b3bc 684d 8c3b
00000150: 97e6 753b 5189 a3bc ce7d 4bbd d619 64bd
00000160: a6e8 2bbd b75c e5bc 04b3 f13b 7f1a 8d3a
00000170: 6635 39bb f37b 1fbd 30cd a8bb b1c9 c93c
00000180: 4727 b9bc 03b3 67bc 33fb 143d e0e7 29bd
00000190: d856 93bd e234 a8bc 70a9 36bc b72a 863c
000001a0: daba 3dbb ab05 993c 60e5 14bb 7b5e 23bc
000001b0: ee60 62bc e125 6ebd a507 89bc 9fe2 0dbd
000001c0: a0e6 bdbd 87b3 bfbc e1eb afbd 61ae 72bd
000001d0: 656d 1fbd bad6 a73d d97a 943c 5ca0 3e3d
000001e0: 1ec6 ad3c f12f 283d 31dd 5a3d 84a7 4d3c
000001f0: 3f7f a73b b0da e8bc df20 4bbb 0124 813d
00000200: ad7c 9c3c b0ff a13c bc22 f03b d1df 923c
00000210: 6c86 a13b b8bd 9ebc bcc4 80bb 2caf 25bd
00000220: 6ca2 34bd 9a2e 94bc dc36 52bd 934f 37bd
00000230: cf23 68bd 247e c1bd d807 72bd 9f36 9cbd
00000240: 732e 14bd 1592 d6bc 3735 2d3c d767 6abd
00000250: 5b3b 63bd 29a9 5ebd 9e91 b2bd 132d 56bd
00000260: a4be 95bd 0e45 ce3b ecb4 223d d386 7f3d
00000270: 7ca8 9a3c 2d92 93bc e28e 9f3d 4035 843d
00000280: b6b8 2d3d 7ea6 913d 3cf3 2bbd b7f6 c6bc
00000290: 3378 903b 7edc 883d 3219 ba3c 5cb2 24bc
000002a0: 5658 7e3b 2cb8 8cbc 364b 2a3d 94ec 24bd
000002b0: 9d77 f7bc 62ae aabd aa12 7cbd 2749 3dbd
000002c0: 3fd9 09bd d430 6fbc 5cf0 7abd 5fdc 27bd
000002d0: b47e dcbc 68ec 0fbd 919d 19bd c21a f2bc
000002e0: d7e8 36bd 7c59 16bd acd3 40bd 4ef4 fe3a
000002f0: 7891 53bd 9041 64bd df36 c53c 90bd 00bc
00000300: d5ba 9fbb c38f 8a3a 83ca c2bb eea4 ae3a
00000310: 9559 90bd 8ba7 8fbd 81d8 dbbc 4d25 aabd
00000320: ffd9 8ebc 2848 a5bd 71de c0bd 80e7 4bbd
00000330: 1d5e 50bd d19a 83bc 0f91 20bd 0742 aa3c
00000340: 1dd3 073d d370 ad3a 44b3 2cbc 22f5 213c
00000350: ce05 a5bc 4340 923b 0dae d93c 7ba0 1fbc
00000360: 3c88 babc 6749 a9bc c6e6 f0bc 615d 9dbb
00000370: 8bc9 75bc 5f48 23bc 51fa 7cbc 8bbe d1bc
00000380: 13fe 85bd 7a0e 353d 8eba 9cbc ca24 2dbd
00000390: 6227 20bc 658f e6bc a743 133c ec98 8dbd
000003a0: f30f b0bb cdce f3bc 4ea8 2abc a732 46bd
000003b0: b00d 08bc 501d 8fbb d22e d0bc ecc0 eabc
000003c0: 0929 9abc 4a0f 25bc 862c 1bbc 24fe 35bc
000003d0: 6d99 2839 a07c bebc e326 13bd 9345 84bc
000003e0: 7104 66bd 031a 3bbd 607b 68bc 7c4a 2ebd
000003f0: e09a d83c 5976 a3bc d8b9 e73c 10a0 67bd
0.07439466 0.028080784 0.006724369 0.018403534 -0.01191478 0.033896927 0.019400202 0.0073308074
-0.011765274 0.014778233 -0.010660934 -0.015402173 -0.016959166 -0.008721073 -0.06771248 -0.00044748903
-0.04014219 -0.11329986 -0.048804037 -0.017868834 -0.008023595 -0.07511328 -0.030841824 -0.07762947
0.023861848 -0.027040891 -0.045432173 -0.05424776 -0.03904325 -0.016755302 -0.019096334 -0.06372939
0.0017377596 -0.04625236 -0.006572532 -0.03655218 -0.05146185 -0.048929397 -0.049651086 -0.022517743
-0.04354927 -0.04815339 -0.055244222 -0.05331464 -0.043323338 -0.07318146 -0.028676322 -0.005921894
0.014150291 -0.043349713 0.011209339 -0.08634894 -0.038545415 0.023595806 -0.025609357 -0.034725677
-0.01112174 -0.014400684 -0.022121266 -0.010576755 -0.04615836 -0.03255791 -0.039447375 0.015279753
-0.014965286 0.07985974 -0.00094209675 0.023454484 -0.049114563 0.02278792 -0.034369733 0.029232569
0.0047508464 0.018311258 0.062255237 0.028888924 0.0067322403 0.024222242 0.055737525 0.048475638
0.048801053 -0.0088392785 -0.02190876 0.0042816885 0.0037521475 -0.019962939 -0.049680524 -0.0556887
-0.041969918 -0.027998311 0.0073760767 0.0010765343 -0.0028260588 -0.038936567 -0.0051514134 0.024632307
-0.022601737 -0.014141801 0.036372375 -0.0414809 -0.071942985 -0.020533029 -0.0111487955 0.01637779
-0.0028950484 0.01867946 -0.0022719726 -0.009971256 -0.013817055 -0.058141593 -0.016727278 -0.03463995
-0.09272504 -0.023401035 -0.08589912 -0.059248332 -0.038922686 0.08195253 0.018124985 0.04653965
0.021212634 0.041061345 0.0534336 0.012552146 0.0051116045 -0.02842459 -0.0030994934 0.06305695
0.019102419 0.019775242 0.0073283594 0.01792899 0.0049293544 -0.019377574 -0.0039297026 -0.04045026
-0.04410021 -0.018088628 -0.05132185 -0.044753622 -0.056674775 -0.094478875 -0.05908951 -0.07627606
-0.03617711 -0.026192704 0.010571769 -0.057227936 -0.055476528 -0.054360542 -0.087191805 -0.05228908
-0.073117524 0.006294853 0.03972332 0.062384438 0.018879168 -0.018014038 0.077909246 0.06455469
0.042412482 0.07111834 -0.041980013 -0.024287565 0.00440886 0.066826805 0.022717092 -0.01005229
0.0038809977 -0.017177664 0.041575633 -0.04026468 -0.030208403 -0.08334042 -0.061541237 -0.04621234
-0.033654448 -0.014599044 -0.06126438 -0.040981647 -0.026915886 -0.035137564 -0.037503783 -0.029553775
-0.044655647 -0.036706433 -0.047076866 0.001945147 -0.0516524 -0.055726588 0.024074016 -0.007857695
-0.004874567 0.0010571409 -0.0059445514 0.0013324299 -0.070483364 -0.07014378 -0.026836636 -0.08307896
-0.017437933 -0.08070403 -0.09417427 -0.049781322 -0.050871003 -0.016065033 -0.03920084 0.020783437
0.033160318 0.0013232477 -0.010540787 0.009885104 -0.02014437 0.004463227 0.026572252 -0.009742851
-0.02277004 -0.020664884 -0.029406916 -0.0048023914 -0.015001665 -0.009965985 -0.015440539 -0.025603553
-0.065426014 0.04420326 -0.019131925 -0.042271413 -0.009775015 -0.028144548 0.008988298 -0.06913933
-0.005372995 -0.029761696 -0.0104161035 -0.04838815 -0.008304045 -0.004367508 -0.02541295 -0.028656445
-0.018818395 -0.010074446 -0.009471064 -0.011107955 0.00016078884 -0.023252785 -0.035925757 -0.016146457
-0.05615658 -0.045679104 -0.014189571 -0.042551503 0.026441038 -0.019953893 0.02828686 -0.056549132

body.block2.conv.bias f4 [64]
00000000: 70a8 bebc e652 283c 6eba 4c3c dec0 953c
00000010: 6784 82bd df18 87bd cb83 e53c 6ed1 2fbc
00000020: 1647 cabc cd46 0dbd fe7f 6a3c 7357 3d3c
00000030: 3d1d 67bc 158f 5ebd 1e91 243d 4ba6 07bb
00000040: b1fc 19bd 0584 913d b2aa d1bb a930 1d3d
00000050: 582f 90bc 4e9a bf3c 6f00 1f3c e42b 18bd
00000060: efe6 a43b 5351 aebc 3d9f 5dbb 1c1b 303c
00000070: 2e50 783d bed5 40bd 28cc e53b 14f2 56bd
00000080: 87a6 0dbd 12c4 683b 8ea1 3d3d be28 f13c
00000090: e114 9c3c c5d3 223d d7e9 d03b e9cf 143d
000000a0: ec1f 413d c0f0 76bd 7ac1 9ebc d214 6dbc
000000b0: 4d1c 78bd d6f4 f73c 319b c0bc 11fb 843b
000000c0: bbb5 c1bc 681d 4b3b 8914 10bd 85d5 533d
000000d0: c377 1fba 0f95 37bc c75c a03a fd4d d63b
000000e0: 823f ee3c f388 75bc 45e8 63bc b588 153b
000000f0: e026 c13c 28a4 b43c b32f 2f3b 8288 0abd
-0.023273677 0.010273671 0.01249562 0.018280443 -0.0637291 -0.06596541 0.028016945 -0.010731084
-0.0246921 -0.03449135 0.014312742 0.011556494 -0.014106092 -0.054335672 0.040177457 -0.0020698484
-0.0375945 0.07105259 -0.0063985223 0.038376484 -0.0176007 0.023389008 0.009704693 -0.037151232
0.0050324122 -0.021279013 -0.0033816837 0.010748651 0.06062334 -0.04707884 0.0070128627 -0.052476957
-0.03458264 0.0035517258 0.04629665 0.029438373 0.019052925 0.03975274 0.006375532 0.03633109
0.047149584 -0.06028819 -0.019379366 -0.014470296 -0.060573865 0.030268114 -0.023511501 0.0040582498
-0.023646226 0.003099287 -0.035175834 0.0517173 -0.00060832145 -0.011204972 0.0012234681 0.0065400586
0.029083017 -0.0149862645 -0.013910358 0.002281708 0.023578107 0.022050932 0.0026731312 -0.03382159
