TrainedModels/SMB-1-2/scale_factor=0.750000,alpha=10/7/netG.pth (torch, 474370 bytes, 29 tensors)

channel.fc1.weight f4 [4, 64, 1, 1]
000000 40 95 49 3d 2a 77 26 bd 42 9e 94 3d ae 0d d1 3c
       0.0492146 -0.040640987 0.07256748 0.025519218
000010 54 8a c7 bc cb 4a f5 bc f0 f1 93 3c f9 4d ad bd
       -0.024357952 -0.02994289 0.0180597 -0.08462138
000020 0c e3 3d 3d 04 74 a8 3d 69 3e dc 3c 31 16 02 3e
       0.046359107 0.08225253 0.026885228 0.12703778
000030 11 fe 98 bc 59 3b 48 3d bc c8 17 3d 93 76 a5 bd
       -0.018675836 0.048884723 0.03705667 -0.08079257
000040 03 c2 85 bd a4 e3 a4 3d 5a 83 00 3e 0c d7 d3 3d
       -0.065311454 0.080512315 0.12550107 0.10343751
000050 24 78 bb bd 82 97 27 bd fb fa 72 3c 12 3b 2e bd
       -0.091537744 -0.040915973 0.014830346 -0.042536803
000060 dd b6 38 3d 2f af 6e bc 97 65 36 bb e4 5c 9b 3d
       0.045096267 -0.014568134 -0.0027831548 0.07586077
000070 58 3d b8 37 67 b0 e9 bb a0 cb e7 3d 5a 81 35 3e
       2.1963075e-05 -0.0071316245 0.11318135 0.17725125
000080 1b 22 49 3d 84 45 5c bd 9c 60 52 3d f7 15 ae 3d
       0.04910479 -0.053777233 0.051361665 0.08500283
000090 68 a8 08 3d 08 04 3b 3e a0 78 ba 3d 5e 4b cb 3b
       0.03336373 0.18263257 0.09105039 0.006204053
0000a0 cb d1 94 3d 12 f7 8c bd 7a 6f 26 bd 77 58 9b 3d
       0.07266577 -0.068830624 -0.040633656 0.07585233
0000b0 4e b7 89 3d c7 c9 9f bd 83 47 7d be 15 8a 47 3d
       0.06724416 -0.07802158 -0.24734311 0.04871567
0000c0 5d 83 fc bc ef 05 b9 3d db 82 8d bc 99 8c c2 bc
       -0.030824358 0.09034335 -0.01727431 -0.023748683
0000d0 a3 d9 1b bc 94 ba d4 3d 86 c2 42 3e 8f 7b 50 3d
       -0.009512338 0.103871495 0.19019517 0.050899085
0000e0 1f 2f 0f 3d 39 d3 cf bd d0 ad 98 3c a6 a1 ae 3d
       0.034957048 -0.101477094 0.018637568 0.08526926
0000f0 03 b6 11 3c 23 e1 09 bb 38 1f 06 3e 61 a6 f8 3c
       0.008893493 -0.0021038733 0.13097847 0.030352773
000100 01 eb 5b 3c b2 04 a6 bc b1 e2 eb bb 55 59 0d bd
       0.0134227285 -0.02026591 -0.0071986546 -0.03450902
000110 37 20 85 bc 53 24 a4 bb bf d0 0d bc 16 34 1c bc
       -0.016250713 -0.005009213 -0.008655726 -0.009533903
000120 59 37 1d bc 3e da 1a bd b1 c3 b3 bc 84 8b 5c 3b
       -0.009595715 -0.03780579 -0.021943899 0.0033652494
000130 a4 95 1a bc be f2 bf bb 49 38 7c bd a8 56 2e 3b
       -0.009435091 -0.0058577945 -0.061577115 0.0026601944
000140 88 0b db bc 93 8c 4e bd ed cd 3d bd e7 d9 b1 bc
       -0.026738897 -0.05042703 -0.046338964 -0.02171035
000150 44 ba 4b 3d 81 12 9f ba a3 e0 07 bd 45 6c 1b bd
       0.049738184 -0.0012136252 -0.033173215 -0.03794505
000160 7e 72 66 3c ca eb 38 3b 10 65 b9 ba ff 5a 0a bd
       0.014065383 0.0028216713 -0.0014144499 -0.033778187
000170 c8 dc b8 3c 0d 87 5d bd 83 be a7 bc 5d 54 c2 bc
       0.022566214 -0.054083873 -0.020476585 -0.023721868
000180 a2 1c 57 bd 53 fa 41 bd 1b f8 ab bc 73 5e 38 3b
       -0.05251754 -0.04735787 -0.02099233 0.0028132468
000190 ff e5 62 bc d8 43 5b bb 5d 0f 30 bc 27 bc ff 3c
       -0.013848781 -0.0033457186 -0.01074585 0.031217648
0001a0 fb 78 f4 bb 92 fe 3e bd 21 22 69 bd 57 16 a6 bc
       -0.007460711 -0.046629496 -0.056917313 -0.020274324
0001b0 b6 19 e2 3b 5f 18 94 3b 65 b1 99 bb b1 7d 9e bc
       0.0069000376 0.004519507 -0.0046903365 -0.019347044
0001c0 96 9e 23 ba a6 c7 d5 bc 4a e6 51 bd a6 fc 0a bb
       -0.00062415877 -0.026096176 -0.05124501 -0.002120772
0001d0 69 1c ec bc f9 8a 3d 3c ad 0f c5 bb 07 3b b0 3b
       -0.02882214 0.011568778 -0.0060138316 0.0053781304
0001e0 45 a8 fe bc 64 92 99 bb f1 27 bd bb 40 8f 33 bd
       -0.031086097 -0.0046866406 -0.0057725837 -0.043837786
0001f0 49 77 10 bc bb 13 fc bb 8f 2b 97 bb 1d 52 c1 bc
       -0.008817502 -0.0076927817 -0.004613347 -0.023598725
000200 01 cf b1 3c 6a c8 05 bd 6d 57 6f 3d fe 9b 3e 3e
       0.021705152 -0.032661833 0.058432985 0.18614194
000210 02 27 f7 3d 53 79 21 3e a6 d0 d5 3d c3 d2 40 3e
       0.12067987 0.15768938 0.10440187 0.18830399
000220 7f d8 fb 3c 89 e6 e7 bd c1 f7 d7 3d 18 60 00 be
       0.030742882 -0.11323268 0.10545302 -0.12536657
000230 70 21 a8 3d 87 44 c8 bc 5d cf 44 3e 85 48 c9 3d
       0.08209503 -0.024446739 0.19219728 0.09828285
000240 1c a4 03 3c b1 61 a4 3c 52 f3 b6 bd 1d 13 3f 3d
       0.008034732 0.020066114 -0.089331284 0.046649087
000250 b1 6d bb bc b7 37 42 3d 8b fa aa 3a 0e ca 9c 3c
       -0.022879453 0.047416415 0.0013044638 0.019139316
000260 79 4d 2a be 02 10 ee 3d 71 60 91 3d b2 fd 2e bd
       -0.16631116 0.11624147 0.07098473 -0.04272241
000270 42 8f f9 3d 36 f9 9e 3d 2e 59 a4 3d a6 5f af bd
       0.121855274 0.07762377 0.08024822 -0.08563165
000280 8c ba 80 3d d7 ae 2f 3e 22 15 d6 3c 1a 8c bc bd
       0.06285581 0.1715654 0.026133124 -0.0920641
000290 48 23 72 bd 44 ac 9e be 69 85 f3 3c 8c be b0 3c
       -0.059115678 -0.30990803 0.0297267 0.021575235
0002a0 50 13 db 3c 1a ad 73 bd a3 85 b7 3d 8d 3d 4c bd
       0.026742607 -0.059491254 0.08961036 -0.049863387
0002b0 7b be be 3d 75 19 e2 3d bb 86 0a be 0e a2 c0 3a
       0.09313675 0.11040012 -0.13527958 0.0014696734
0002c0 da a1 1f 3e 38 84 e6 bd 28 c0 1e 3c b3 43 cf 3d
       0.15589085 -0.112556875 0.009689368 0.101203345
0002d0 56 f4 bb bd c8 1e 6f bd 5f 6f 72 3d 76 40 f3 3d
       -0.09177463 -0.058378965 0.059188243 0.11877529
0002e0 d7 21 c5 3d 53 30 0a 3d 75 d1 7d 3d 61 0d a1 3d
       0.09625595 0.03373749 0.061967332 0.0786388
0002f0 e6 15 18 bd bf 9e 71 bc 8a 54 d2 bc 2b e3 6e 3d
       -0.03713026 -0.014747321 -0.025675077 0.058322113
000300 83 5d 24 bd bf b3 25 bd e3 46 46 bd 30 68 92 bc
       -0.040128242 -0.040454622 -0.048407447 -0.017871946
000310 d6 77 64 bb b2 a4 9a bb 9e 9d 5f bc 93 53 64 bc
       -0.0034861467 -0.0047193402 -0.013648419 -0.013935941
000320 95 dd 16 3d cb 3c 25 bd 51 46 0d 3d 30 c7 ef bb
       0.03683241 -0.04034118 0.034490887 -0.007317446
000330 1b 82 44 bd 21 83 f5 bc aa b9 c1 3c 34 a3 1e bb
       -0.04797564 -0.029969754 0.023648102 -0.0024206163
000340 64 27 6f 3c a0 5e 06 bd 14 ec 98 bb f1 0e eb 3c
       0.014596794 -0.032805085 -0.0046668146 0.028693648
000350 cb 8e 28 bb d1 59 6a 3c 8d b3 a6 bc 7d 76 b1 3c
       -0.0025719877 0.01430364 -0.020349288 0.021662945
000360 90 d8 88 3c 45 b1 8a bb 03 51 78 bc fc af de 3b
       0.016704828 -0.004232558 -0.015156033 0.0067958813
000370 83 b4 4a bc d9 36 36 bd b1 18 d4 bb 5e 86 0d bd
       -0.012372139 -0.0444859 -0.00647267 -0.03455197
000380 2a f4 1b bd 81 b1 c2 ba 55 5a 90 bc 03 98 a1 bc
       -0.03807465 -0.0014853926 -0.017621199 -0.019725805
000390 52 a4 a8 3a 1b 96 d7 bc 48 d1 20 3c 5e c7 80 bc
       0.0012866354 -0.026316693 0.009815522 -0.015720066
0003a0 ce c1 d4 3c e8 1f b6 bc 16 20 0f 3c 34 4b a8 bc
       0.02597132 -0.022232011 0.008735677 -0.020543672
0003b0 88 5d 9d 3a 41 41 63 bc 15 a1 fd bc 20 9b 8e bd
       0.0012006024 -0.013870538 -0.030960599 -0.069631815
0003c0 ac d8 1f bd 24 15 be bc 02 26 16 3c 3a 4d 88 3c
       -0.039024994 -0.02320344 0.009164335 0.016638387
0003d0 31 80 11 bd a1 97 ac bc 14 ab 14 bd 8e 3f c5 bb
       -0.035522643 -0.021068396 -0.036295965 -0.006019539
0003e0 68 d7 36 3b 56 b1 52 bb 6b 13 ca bc 28 b4 03 3c
       0.0027899388 -0.0032149157 -0.024667462 0.008038558
0003f0 08 b8 92 bc 51 14 fa bb 5d da 42 bd 73 4e 9a bb
       -0.017910019 -0.0076318164 -0.04757153 -0.004709059

channel.fc2.weight f4 [64, 4, 1, 1]
000000 91 1a 4f bd 6c 7b b6 3b 83 66 07 bb 8e b6 ae bc
       -0.050562445 0.0055689123 -0.0020660467 -0.021327283
000010 c9 12 da bd f8 a4 bd 3c ae e1 ee 3d 90 d8 1e 3d
       -0.10648114 0.023149952 0.11664139 0.03878075
000020 50 e6 1e bd 55 1d 4d 3c f9 26 4d 3d 59 54 fe bc
       -0.038793862 0.0125192 0.050085995 -0.03104608
000030 91 d8 d8 3c cb b0 e9 bc 72 5d 16 be d9 66 d7 3c
       0.026470454 -0.028526684 -0.14684084 0.026294159
000040 2b d6 15 3d d2 ac 36 bb e0 5a 95 bc 81 05 14 bc
       0.0365812 -0.0027874005 -0.01823181 -0.009034515
000050 23 e7 a9 bd 21 dd 5c bc b3 b0 d5 bd 47 d0 98 bc
       -0.08296039 -0.013480456 -0.10434093 -0.018654002
000060 fd e0 14 be c8 ba c0 3c 78 2b 34 3e 72 5f c5 bc
       -0.14538951 0.023526564 0.17594707 -0.024093363
000070 2b 9d 03 3d d0 7b 82 bc 4f 8b ea bd f1 e6 bd bc
       0.03213231 -0.015928179 -0.11452352 -0.02318141
000080 56 03 e9 bc 46 fd a3 bc 87 b8 08 be 4a 8c cd bc
       -0.028443974 -0.020018231 -0.13351642 -0.02509131
000090 79 5f d1 3c e1 1d 12 3c b8 79 67 be 35 17 d7 bb
       0.02555822 0.0089182565 -0.22605026 -0.006564046
0000a0 05 70 09 bd 01 09 f3 bc 1a e9 91 3d 42 ed b0 bc
       -0.033554096 -0.02966738 0.07124539 -0.021597508
0000b0 de 6c 50 3c 9b e2 19 3d 50 27 0c be f5 e1 08 bc
       0.012721268 0.037569623 -0.13686872 -0.008354654
0000c0 1f 17 07 be b4 59 a8 3c db f1 bd 3e 76 06 19 bd
       -0.13192414 0.020550586 0.37098584 -0.037359677
0000d0 75 dc 81 ba a2 5c 8c bc 9e eb 11 3d bd dd e6 b9
       -0.000990762 -0.017134015 0.035625093 -0.00044034226
0000e0 a1 08 bd bd d8 43 36 bc 39 9a 33 3d 0b 3e ef bb
       -0.092301615 -0.011124574 0.04384825 -0.0073010973
0000f0 dc ff 09 bd 5f 5f d7 3b 2c 54 55 3d eb ed 7b 3c
       -0.033691272 0.0065726484 0.052082226 0.015376548
000100 24 22 75 3e a6 bc ce ba a2 e7 cf bd 7d c2 32 3c
       0.23938805 -0.0015772774 -0.10151602 0.010910627
000110 d1 8e 36 bd 45 db e8 3b 5f 2d c2 3e 0e 41 92 bc
       -0.044569794 0.007106217 0.3792524 -0.017853286
000120 0f 77 d3 bd 38 63 94 3a f9 56 62 3e 9d cf e3 3c
       -0.10325443 0.0011321073 0.2210349 0.027808959
000130 27 23 1a bd 3b 33 bb bc aa 83 16 3e 3f 6a a3 bc
       -0.03763118 -0.022851577 0.14698663 -0.019948123
000140 41 b5 61 3d 00 f6 d6 bc 25 18 23 be 52 18 fb bb
       0.055104498 -0.026240349 -0.15927179 -0.0076628113
000150 11 de f5 3c 79 95 8e 3b ac d6 17 3c 56 28 0c 3d
       0.030013116 0.0043513146 0.00926749 0.034218155
000160 9b b9 b0 bd 67 03 77 3c 1c dc 7c 3e be ab 41 3c
       -0.086291514 0.015076495 0.2469334 0.011820732
000170 1a 06 3a bd 3a 2a 62 bd 9c cf a3 3d 19 d7 e4 3c
       -0.045415975 -0.05521605 0.07998583 0.027934598
000180 1b 13 87 3c 66 17 2e bd 5a 40 a6 be 4d 89 df 3c
       0.016488602 -0.042502783 -0.3247097 0.02728715
000190 69 31 90 bd 41 0a 88 3b 13 17 c2 bc ae 58 f6 3c
       -0.07040674 0.004151613 -0.023692643 0.030071583
0001a0 a5 68 a8 bd 6d c8 dd bc 68 7c 04 3e bd c5 62 bc
       -0.08223084 -0.02707311 0.12938082 -0.01384109
0001b0 83 bd 59 bd 45 f3 7d 3b d9 a9 ff 3d 71 d2 13 bc
       -0.053159248 0.0038749736 0.12483568 -0.009022341
0001c0 b8 4f 0d be ea 7e 94 bc aa ef 8e 3e 0e 6e 7a 3c
       -0.13799942 -0.018126924 0.27917224 0.015285028
0001d0 9e d4 c6 3e 0b bb b8 bc cb 59 14 3e 51 36 6a 3c
       0.3883409 -0.022550127 0.14487378 0.014295177
0001e0 f5 32 85 3b b1 58 90 3c 72 d7 9e bc 30 c7 26 3b
       0.0040649124 0.017620416 -0.019389842 0.0025448315
0001f0 b5 f3 6e 3c a9 55 0a 3d f0 7b 96 3d 00 dc c0 bb
       0.0145844715 0.0337731 0.07347858 -0.005885601
000200 5a 53 a3 bc 02 67 87 3b 5d 6c 1a bd 90 e9 54 bc
       -0.019937206 0.0041321525 -0.037701 -0.012995139
000210 04 82 6d bd 80 59 a1 3c 77 c2 84 bb cb c6 ce 3c
       -0.05798532 0.019695997 -0.0040515023 0.025241276
000220 ab c0 91 bd 6d b5 2b 3d 72 10 1e 3d cc de 1e bc
       -0.071168266 0.041921068 0.038589902 -0.009696674
000230 10 d7 84 3c 15 14 aa ba e8 e1 5b be 4d 0f 13 3c
       0.016215831 -0.0012975956 -0.21472895 0.008975816
000240 93 8a 87 bd ff 9e e9 3c dc 5e 2e bc fe fb d6 3b
       -0.06618228 0.028518198 -0.010642733 0.0065608015
000250 73 ff ad bb 82 5c 2f 3b 68 49 84 be a3 37 90 bb
       -0.005309993 0.002675802 -0.25837255 -0.0044011637
000260 a2 65 6a bd f6 55 4d bc f6 b1 39 3d b6 7e cc 3c
       -0.05722583 -0.012532702 0.045335732 0.024962764
000270 c7 10 7b 3c 6e 11 f6 38 6d 8b 59 be 8e 16 fd bb
       0.015323824 0.000117334406 -0.21244593 -0.007723636
000280 77 39 1d be 63 0b ab 3b 62 4c fe 3c c5 bc 0e bc
       -0.15353952 0.0052198633 0.031042282 -0.008711998
000290 d6 cf c9 bd de 45 b1 3c fb c8 bd 3d 70 d1 48 bd
       -0.09854095 0.02163976 0.092668496 -0.04902786
0002a0 0f 54 aa bd 75 11 41 ba aa 5d c9 3d 84 03 59 3b
       -0.08316814 -0.0007364967 0.09832318 0.0033113668
0002b0 fd 00 26 3d 1d 74 bc bb 0b 42 e7 bd 4a ac 64 3c
       0.040528286 -0.0057511465 -0.112918936 0.013957093
0002c0 47 a0 5b bc 6d 0a ea bb 2e c8 a0 bd 36 cb 7d 3c
       -0.013404912 -0.007142356 -0.07850681 0.015490344
0002d0 18 5b 66 bc 93 cf 09 3d 68 0b db bd 02 37 f1 3b
       -0.014059804 0.033645224 -0.10695535 0.007361294
0002e0 29 b8 bf bc 47 36 f0 bb 92 49 c6 bd 73 21 16 bb
       -0.023403244 -0.007330689 -0.09682001 -0.002290812
0002f0 54 a7 90 bd 3d 69 6d bc dc 0b 09 3e 97 4b 28 3c
       -0.07063165 -0.014490423 0.1338343 0.010271928
000300 ba ab 74 bd 17 c4 2c bc fc a3 a4 3e 0e 29 f1 3b
       -0.059734084 -0.010544798 0.3215636 0.0073596304
000310 c2 6d d9 bb 42 13 06 3d b3 4e 8f bd 3b ed 7f bc
       -0.0066353986 0.03273321 -0.069974326 -0.015620525
000320 84 32 71 3d 18 78 6e 3c b8 79 8a bd dd 7c 89 bc
       0.058886066 0.014555 -0.06761497 -0.016783172
000330 1f 51 6e 3e e1 66 a9 3b df 0c 14 bd 19 37 97 bb
       0.23273133 0.005169735 -0.036145087 -0.0046147224
000340 5f 38 87 bc 6d da d7 bc f0 00 a2 3d ef 9c b8 3b
       -0.016506372 -0.02634927 0.07910335 0.0056339423
000350 55 03 c4 ba 88 5b bc bc ed 25 f6 3c 63 44 57 bc
       -0.0014954606 -0.022992864 0.030047381 -0.013138863
000360 5a 6c f1 bd 9b 85 6b 3a 81 53 86 3e 34 83 59 bc
       -0.117882445 0.00089844473 0.26235583 -0.01327591
000370 df 5a 92 bc 11 f7 83 bd 1e d1 f4 3d 32 ac c0 bc
       -0.017865596 -0.064436086 0.119539484 -0.02351961
000380 a6 ab e4 3c 7b e7 ba bc 38 d6 b9 bd 96 0a 05 3d
       0.02791388 -0.022815457 -0.09074062 0.0324808
000390 14 80 9b bd 67 71 e7 3b 0f 2e f0 3d 92 e9 3d ba
       -0.07592788 0.007063079 0.11727535 -0.00072445825
0003a0 54 32 eb 3b c2 f3 9f ba f1 57 8b bd 8c 27 d6 b9
       0.0071776304 -0.0012203383 -0.06803883 -0.00040846725
0003b0 3e e7 a8 bd aa b5 94 bc f5 de 1d 3e 5a bc 69 3c
       -0.08247231 -0.01815303 0.15417083 0.014266098
0003c0 6c c2 14 3d de 76 d5 3c 8a e5 1d bb b1 96 9b bc
       0.036318228 0.026057657 -0.0024093115 -0.018992754
0003d0 a9 64 07 be c7 0e 64 39 e5 ce 05 3d fd ab 4c 3c
       -0.13221993 0.0002174928 0.032668013 0.012492177
0003e0 d3 66 7b bd 9a 8c 32 3d 2d a4 d1 3d 82 35 96 bc
       -0.061377358 0.04359112 0.10236392 -0.018336061
0003f0 77 7c 0d 3c 40 eb 22 bd 6e 5d 11 3d 7e 54 87 bb
       0.008635632 -0.039775133 0.035489492 -0.0041299453

spatial.conv1.weight f4 [1, 2, 7, 7]
000000 16 13 e4 bd 4f 46 52 be 93 bf 62 be bf f1 3d be
       -0.11136453 -0.20534633 -0.22143392 -0.1854925
000010 b1 a7 38 be 50 bf 1e be d8 05 94 3d aa 61 9b be
       -0.18032719 -0.15502667 0.07227677 -0.3034795
000020 42 4f a7 be e6 28 c0 be 50 a6 a6 be 72 26 b1 be
       -0.32677656 -0.37531203 -0.3254876 -0.34599644
000030 b1 62 5d be 6e d6 4b be e6 20 da be 94 ba c6 be
       -0.21619679 -0.19906017 -0.42603225 -0.38814223
000040 5d 62 f4 be c2 8e b3 be f9 64 ec be 49 df af be
       -0.47731295 -0.35069853 -0.46170786 -0.3435004
000050 76 9d 9d be bd 95 c2 be 7d 51 92 be 7f 18 c7 be
       -0.30784196 -0.38004866 -0.28577796 -0.38885877
000060 60 ad 7a be e5 c9 bb be 94 b7 94 be 65 3d 51 be
       -0.244802 -0.3667747 -0.2904631 -0.20433576
000070 cd c9 c3 be f9 88 88 be 5d 66 99 be 96 ba 98 be
       -0.382399 -0.26667002 -0.2996091 -0.29829854
000080 c8 ef b7 be 85 75 80 be 24 75 39 be b6 4d 5d be
       -0.35925126 -0.2508966 -0.18111092 -0.21611676
000090 7e ab 5e be 23 31 b7 be b6 65 b5 be 20 f0 88 be
       -0.21745107 -0.35779676 -0.35429162 -0.267457
0000a0 cf 3a 77 be 29 7c 2b be 90 1d 1d be db 13 84 be
       -0.24143527 -0.16746582 -0.15343308 -0.257964
0000b0 14 7f a8 be 9a 86 7b be 83 f0 7c be 68 66 67 be
       -0.32909453 -0.24563065 -0.24701123 -0.22597659
0000c0 1a 55 2f bd 11 0d 4a bd b4 44 3b bd 42 2b 30 bc
       -0.04280577 -0.049328867 -0.045719817 -0.010752501
0000d0 34 93 b9 3b c6 f4 17 bd 26 c9 4e bd 20 46 3a bd
       0.0056633 -0.03709867 -0.0504848 -0.045477033
0000e0 21 cf 1a 3c 58 67 a8 3d 8b 5d a6 3d 54 b5 73 3d
       0.009448797 0.08222836 0.08123311 0.0594991
0000f0 31 c8 24 3d 3d 86 20 3d cf 2c 83 3d 40 10 b0 3c
       0.04022998 0.03919052 0.06405031 0.021492124
000100 b5 c9 f4 3b 1b 07 62 3d d2 f1 89 3d bb f1 9f 3b
       0.0074703344 0.055182558 0.06735577 0.0048811114
000110 96 ff 3f bc d3 ee c8 3c d9 c6 fa bb c4 8b 67 3c
       -0.011718651 0.024527943 -0.007653099 0.014132444
000120 eb 9d 6c 3d dd 70 81 3d f9 fb 92 3a b7 32 c7 bc
       0.05776779 0.06320355 0.001121401 -0.024316175
000130 a0 c4 4b 3c 0d 06 22 3b 3d c5 9b 3d dc 9e a9 3d
       0.012437016 0.0024722845 0.076059796 0.08282253
000140 f3 e0 81 3d 0f f8 24 3d 75 9d bc bc 08 68 45 3d
       0.06341734 0.04027563 -0.0230243 0.048194915
000150 4d 79 db bc 4c 26 e1 3c 24 f9 9c 3b 74 d1 00 3b
       -0.02679124 0.027484082 0.004790442 0.0019656094
000160 82 3a 8e 3c bb 87 95 bc da a4 89 bc 85 09 14 bd
       0.017361883 -0.018253198 -0.01680224 -0.03614189
000170 00 8a b1 3a c2 8e 5c 3d 10 10 58 bc 87 b7 ae 3b
       0.0013545156 0.053847082 -0.013187423 0.0053319368
000180 05 11 cc bc 8b 9a 80 bc
       -0.02491046 -0.015698692

head.conv.weight f4 [64, 3, 3, 3]
000000 98 cf b0 3c a9 7f ed bd 1a 9c c9 bd da 59 68 be
       0.021583363 -0.11596615 -0.09844227 -0.22690526
000010 1d 6b 43 be f7 a1 a5 bd 2f f1 80 bd 4a bf b3 3d
       -0.19083829 -0.08087533 -0.06296002 0.0877672
000020 02 fa e5 3c 83 18 2e 3d f8 4d 0c 3d 8d b1 aa bc
       0.028073315 0.042503845 0.034254044 -0.020836616
000030 95 dd df bc 92 77 2e ba 0c 4d c8 3c 3b 0a dc bd
       -0.027327338 -0.00066553906 0.024450801 -0.10744139
000040 55 ce 30 3d 82 35 80 3b 09 25 52 3d 13 56 f1 3c
       0.043165524 0.0039126286 0.05130485 0.029459989
000050 17 66 35 bd 09 a1 1b 3d aa 39 46 3c 62 f8 8a 3d
       -0.044286814 0.037995372 0.012098709 0.067856565
000060 36 e0 a6 3c 06 fd 46 3d c1 fa 8c 3c 1c 2b d6 3d
       0.020370584 0.048581146 0.017209413 0.10457441
000070 fe c1 30 3d 3f 7a 40 3d 73 50 b4 3d d6 65 6e 3c
       0.043153755 0.046991583 0.08804407 0.014550647
000080 c1 28 ff bc 7a 4c 49 ba ed 72 e9 bc 8d 98 9a bd
       -0.031147363 -0.00076789374 -0.028497184 -0.07548628
000090 9f 52 74 bd 0a 49 17 bd 73 b1 62 3d 82 78 d9 bd
       -0.059649106 -0.03693489 0.05534501 -0.10618688
0000a0 ad d1 c9 bc 2f 58 67 3d b2 6f bc bd ea c4 1e 3d
       -0.024636114 0.056480583 -0.09200992 0.03876201
0000b0 db e7 ce 3d 5a 4f d2 bd 2f 68 32 bd 58 95 29 3c
       0.10102817 -0.10269041 -0.04355639 0.010350548
0000c0 e9 a8 16 bd f7 2a be 3b 71 22 5b 3d f6 16 a7 bd
       -0.03678218 0.0058034617 0.053499643 -0.08158676
0000d0 33 8b 34 3d d2 13 c4 3d 38 bf 8e 3d 23 4b 0a 3d
       0.044078063 0.09574093 0.06970066 0.033763062
0000e0 7e c0 39 bd aa d0 51 3d dc 6f 96 3c ca b5 5b 3d
       -0.04534959 0.05122439 0.018363886 0.053640164
0000f0 13 38 dd bc 9e ac 5b bd dd 96 0b 3c 9a 13 33 3d
       -0.027004277 -0.053631417 0.008519855 0.043719865
000100 88 c8 24 bc b1 8c 19 be da b8 6a 3d c9 86 89 3c
       -0.010057576 -0.14995076 0.057305194 0.016787903
000110 d8 ab 6d bd a6 dd a8 3b 8c f6 f8 bc ff 11 d1 bc
       -0.05802521 0.0051533757 -0.030391 -0.025521277
000120 0b 1a 40 3d bc 3f 58 3c 37 15 0a be 36 78 c7 3d
       0.046899837 0.013198789 -0.13484655 0.09739725
000130 b2 5a 75 3d d4 30 fb bd 0a 9e b2 3d 2b 5b 17 3d
       0.059900947 -0.122651726 0.0872155 0.03695218
000140 e8 1f 53 bd 5a 1e f1 bb 47 69 2d bd 77 2b bc bd
       -0.0515441 -0.0073583545 -0.04233673 -0.09187978
000150 38 7a 25 bc d6 b7 47 3c 4b 15 41 bc 7d f7 86 3c
       -0.01009994 0.012189826 -0.011784862 0.016475433
000160 74 ae 03 bd 23 91 b6 bd 97 a2 87 3d e5 8c 06 3b
       -0.032148793 -0.089144014 0.066228084 0.0020530757
000170 4b 11 5b bd 82 fa 4a 3e 9f ba 97 3d fa 05 87 3d
       -0.05348329 0.19822124 0.07408642 0.06592937
000180 42 45 af 3d f7 a5 37 3d 4c 91 71 3a 3e 17 8e 3d
       0.08558132 0.04483601 0.00092150713 0.06938027
000190 3c 9b e5 3c 0c 42 d4 bc fc 40 1a 3e 60 67 7c 3d
       0.028028123 -0.0259104 0.15063852 0.061622024
0001a0 b4 d5 a8 b9 3d 11 70 3d 80 47 0c bd a8 1d b3 bd
       -0.00032202678 0.05861019 -0.034247875 -0.08745891
0001b0 32 41 03 3d 53 5a 4d 3d e8 eb 22 3d 45 14 8b 3d
       0.032044597 0.050134968 0.03977576 0.067909755
0001c0 c7 50 a2 3d a6 57 0a bd a8 5f 96 3d bc 45 17 3d
       0.07925563 -0.033774994 0.07342464 0.03693174
0001d0 58 b0 03 bd 0b 5f 8d 3d 11 85 26 3d b8 26 9b 3d
       -0.032150596 0.06902894 0.040654246 0.075757444
0001e0 3d 8e bd 3d 57 2b 55 3d cb 87 66 3d bb f8 19 3d
       0.092556454 0.052043285 0.056281846 0.037590723
0001f0 e5 f9 31 bc 22 b0 10 bc 2c c3 52 3d 54 fb a4 3d
       -0.010862802 -0.008831056 0.05145566 0.080557495
000200 4b 28 03 3e 39 6d f9 3d d2 a1 95 3d e2 03 12 3e
       0.1280834 0.12179036 0.073062554 0.14259294
000210 9b eb 63 3d 9f 42 89 3d 81 b8 90 3d 84 e5 b2 bd
       0.055644613 0.0670216 0.07066441 -0.08735183
000220 a6 ca ac 3c 4c 25 3a 3d 0e 25 78 3b e8 de 48 3c
       0.021092724 0.045445725 0.0037863883 0.012260176
000230 0a 93 08 3d b9 a2 20 3d b6 41 8e 3d ee fb e7 3c
       0.033343352 0.039217684 0.06946127 0.028318372
000240 8b cb d3 bc 79 8b 4d 3d b5 ee 9f 3d a3 88 82 3d
       -0.025853893 0.05018184 0.07809202 0.06373718
000250 09 86 f8 bc af 3b b7 3c 06 71 6a bd 37 4a 13 bd
       -0.03033735 0.022367327 -0.057236694 -0.03595945
000260 40 fe 15 bd 97 c2 4c 3d fe 3d 51 3c 2c db 4a 3d
       -0.036619425 0.049990263 0.012771128 0.049525425
000270 88 78 06 3e a2 da 97 bd f4 e0 fd bd db 27 51 3d
       0.13131917 -0.07414748 -0.12396422 0.0510634
000280 4b 11 44 bd bd 01 0d be 99 31 d1 bd ba 2b c6 bb
       -0.047868054 -0.13770194 -0.10214538 -0.006047693
000290 13 76 ea bc 59 66 52 bc be 5c e1 3c 8e 09 7a bc
       -0.028620755 -0.012841784 0.027510043 -0.015261067
0002a0 8c 94 c4 3d da d2 cb 3a f7 45 70 bb 5c ec 27 3c
       0.095986456 0.001555051 -0.0036662796 0.010249224
0002b0 d6 14 6b 3d be 8b a7 3c b2 ce ab 3d 87 a5 11 3d
       0.057392918 0.020452376 0.083890334 0.03555825
0002c0 63 ed 90 3d 35 0e 60 bd c5 a3 d6 bd a9 20 d1 bd
       0.07076528 -0.05470105 -0.10480455 -0.102113076
0002d0 e3 d7 c1 bd 73 20 58 3d 1d bb 47 bd 5c 94 8f bd
       -0.09465005 0.05276532 -0.04876243 -0.07010719
0002e0 b9 f2 dc 3d e1 46 e8 3d d7 c4 2a bd 00 10 d1 3b
       0.10788483 0.11341644 -0.041691627 0.006380081
0002f0 4f b7 ad 3c c1 17 28 bd dc ec e0 3d ce 34 d2 3d
       0.021205572 -0.04103828 0.10982677 0.10263978
000300 dd 7b fd bd d1 93 84 3d 9e a3 5d 3e a3 c2 bc bd
       -0.12377141 0.06473506 0.21644446 -0.092168115
000310 96 2a b6 bc b8 45 d0 3b 33 3a fb bd 94 5b 78 bd
       -0.022237103 0.0063559674 -0.1226696 -0.06063421
000320 67 7a db bc 97 0e f0 bd e4 f3 67 bc 7d a3 67 3c
       -0.026791764 -0.11721533 -0.014157269 0.0141381
000330 e2 aa 8e 3c 35 b3 6e 3d 8b ea 32 3d af 13 58 bd
       0.017415468 0.058276374 0.04368071 -0.052753147
000340 0f 85 09 3d bd e5 27 3d 86 53 2f bd 2b 79 4e 3b
       0.03357416 0.04099058 -0.042804264 0.0031505327
000350 70 58 82 3d 3a fb 44 3d 66 ee d6 3c 1b 2e d0 ba
       0.06364524 0.04809115 0.026236724 -0.0015882881
000360 48 bd d7 3c 46 5f 70 bb c9 1e ba bd c3 c3 b6 3d
       0.026335374 -0.003667788 -0.09087903 0.08924057
000370 73 e7 b9 3d f2 c0 c5 3d 20 74 f8 bb 03 c9 21 be
       0.090773486 0.09655942 -0.0075822026 -0.15799336
000380 f3 77 db bc 51 30 62 3a d1 f0 81 bc 3d de 87 3d
       -0.026790595 0.00086284155 -0.0158619 0.066341855
000390 73 b5 13 be f0 e1 78 bc 0b da a7 3c c8 ac 5a 3c
       -0.14424686 -0.015190586 0.020489713 0.013346858
0003a0 02 d1 2c bd 78 4b 49 3d 8e 58 b8 3d 17 c3 24 3c
       -0.042191513 0.04914424 0.090012655 0.010056279
0003b0 02 22 0c bd b2 38 1e bd 7a a9 5e bc 37 75 aa bd
       -0.03421212 -0.038628288 -0.013590211 -0.08323138
0003c0 8a 9d 97 3d 04 da b9 3d 9c 68 7d 3c 46 84 e9 3d
       0.07403095 0.09074786 0.015466835 0.11402182
0003d0 e2 07 a7 3c d6 65 84 bc 82 c1 83 bd 1c 4f 19 be
       0.020389501 -0.01616184 -0.06433393 -0.14971584
0003e0 d5 9b 2a be ef 2f 0c bd 1c 37 e1 bb da 69 4d 3c
       -0.16661008 -0.0342254 -0.0068730246 0.012537444
0003f0 41 77 2a 3e 67 ca 4f 3d ec 3d f4 bc e8 f4 ff 3c
       0.16647054 0.050730135 -0.029814683 0.03124471

head.conv.bias f4 [64]
000000 27 44 23 3b ee 07 3f 3e 7e 15 36 bd 92 8c 5b 3d
       0.0024912448 0.18655369 -0.04445409 0.053600855
000010 12 52 34 be 17 03 0e be fa 2b 38 3e bd 2e 2c be
       -0.17609432 -0.13868366 0.17985526 -0.16814704
000020 78 ff 13 be d0 e4 b6 bc 9f 0b fe 3b 45 16 04 3c
       -0.14452922 -0.022325903 0.00775285 0.00806195
000030 47 56 7a 3d 95 90 12 3e 01 de 0d 3e e9 eb 6d bd
       0.061117437 0.14312966 0.13854219 -0.05808631
000040 16 e3 91 3d 9e 1c 05 3e bb 8c b7 bc 3c 05 cb 3d
       0.07123391 0.12999198 -0.022405973 0.09913108
000050 15 8a e1 3c a5 42 07 be c4 f1 b8 3c 70 b9 b9 bd
       0.027531663 -0.13209017 0.02257622 -0.090685725
000060 98 18 ca bd c3 52 44 3d 52 59 6d be a8 ca 4b be
       -0.09867972 0.04793049 -0.23178604 -0.19901526
000070 b9 5e 0a 3e 25 52 df bc fd 18 bb 3c ac 53 da bd
       0.13512696 -0.02726085 0.022839064 -0.106604904
000080 fa fa fd 3d ad 8a 5f bd 5e 1f 10 be 50 60 9a 3d
       0.124013856 -0.05457561 -0.14074466 0.075379014
000090 29 ce d8 3d d8 ed f9 3b e3 48 52 3e 1b 0d 20 3e
       0.10586197 0.00762723 0.20535617 0.1563
0000a0 63 5a 1a be 53 14 b3 3d b8 c0 63 be 8c 46 14 bd
       -0.15073542 0.08744111 -0.22241485 -0.03620009
0000b0 21 3e c4 bd 94 d7 41 3e 7e ac 94 be c1 d8 12 be
       -0.09582163 0.18929893 -0.2903785 -0.14340498
0000c0 57 e3 50 3e 8a 4b 27 be 9e d4 a1 bd 1a 0b bf 3d
       0.20399223 -0.1633741 -0.07901882 0.09328289
0000d0 a1 69 da bd b5 b1 50 bc 38 45 05 3e 0d 29 01 be
       -0.10664678 -0.012737681 0.13014686 -0.12613316
0000e0 fe c3 47 be 50 74 54 3e f4 ad f7 3d 6d b7 0d 3e
       -0.19508359 0.20747495 0.12093726 0.13839503
0000f0 a9 34 72 bd e9 68 26 3e 01 0e a4 bd 9c 70 d0 3d
       -0.059132252 0.16250958 -0.080104835 0.101777285

head.norm.weight f4 [64]
000000 7e 00 9e 3f b7 a8 57 3f 2d 31 89 3f e6 84 64 3f
       1.23439 0.84241813 1.0718132 0.89265287
000010 4f 36 59 3f 62 cd 50 3f ef 04 75 3f 77 bb 3f 3f
       0.84848493 0.8156339 0.95710653 0.74895424
000020 e9 46 72 3f 2d 3e 81 3f bb 15 74 3f 64 99 66 3f
       0.9463945 1.00971 0.9534566 0.90077806
000030 f9 c2 86 3f 2c 58 97 3f 1e c1 55 3f b2 14 8c 3f
       1.0528251 1.1823783 0.834978 1.0943816
000040 97 d0 87 3f 79 a6 81 3f 89 86 78 3f d9 2a 72 3f
       1.0610532 1.0128928 0.97080284 0.9459663
000050 49 29 87 3f 8b 3c 8c 3f 27 20 80 3f f2 ef 4f 3f
       1.0559474 1.0955976 1.0009812 0.812255
000060 7b 98 85 3f b7 5b 7c 3f f2 28 81 3f 33 8c 82 3f
       1.0437158 0.98577446 1.009062 1.0199035
000070 14 f8 4b 3f 44 35 85 3f 8a 6d 56 3f e6 80 87 3f
       0.7967541 1.040688 0.83760893 1.0586212
000080 31 3a 6a 3f c4 0e 84 3f 26 48 84 3f 9a 51 8e 3f
       0.91495043 1.0317006 1.0334518 1.1118653
000090 a0 da 8d 3f 1b fb 65 3f 7d b1 8d 3f b8 15 7f 3f
       1.1082344 0.8983628 1.106979 0.99642515
0000a0 43 75 7b 3f 7c 8b 92 3f ff cf 87 3f 51 79 40 3f
       0.982258 1.1448817 1.061035 0.75185114
0000b0 1c 6d 37 3f 3c ef 69 3f bd 35 83 3f 26 b4 55 3f
       0.7165086 0.9138067 1.0250775 0.8347801
0000c0 74 08 5b 3f f2 6e 81 3f 18 ae 5b 3f fa a2 82 3f
       0.85559773 1.0111983 0.8581252 1.0205986
0000d0 97 68 7b 3f 5b 40 6f 3f f0 cb 4f 3f b8 d9 98 3f
       0.98206466 0.93457574 0.8117056 1.1941442
0000e0 24 66 76 3f 57 cc 93 3f 30 c0 32 3f cf ff 85 3f
       0.96249604 1.1546735 0.69824505 1.0468692
0000f0 b6 78 8f 3f 62 1c 6e 3f 02 ad 89 3f 0b 82 6f 3f
       1.1208713 0.9301206 1.0755923 0.93557805

head.norm.bias f4 [64]
000000 ea 97 c0 3d 40 ff 50 be 91 89 63 be d8 a9 8d be
       0.09403975 -0.2040987 -0.22220446 -0.27668643
000010 c9 8a 7b be 17 fc aa be 69 26 93 bd fb c0 cd be
       -0.24564661 -0.33395454 -0.071850605 -0.40186295
000020 f4 c8 cb be 6e fa 25 be d6 2e 87 be e0 e3 ca be
       -0.39801753 -0.16208813 -0.2640292 -0.3962698
000030 6a 45 55 bd 77 d8 e2 3e 0e 2c c3 be 65 85 12 be
       -0.05206815 0.44305775 -0.3811955 -0.14308698
000040 4c 18 19 bd 98 00 77 be a5 9f 0e be af 94 65 be
       -0.037376687 -0.2412132 -0.13928087 -0.2242
000050 3c 97 b1 3c 3e 43 fe be d7 dc 78 bc 96 43 a4 be
       0.02167856 -0.49660677 -0.015189371 -0.32082814
000060 70 eb 0b be 5c 72 c5 bd 85 0f fd bd b2 60 e7 bd
       -0.13664031 -0.09640953 -0.12356476 -0.1129774
000070 2a 17 be be b3 d0 10 be cb a9 b1 be 35 e6 08 be
       -0.37127048 -0.14142112 -0.34699854 -0.13369067
000080 38 38 a5 be be d3 2f be 5a ce 60 bd c7 9a d0 be
       -0.32269454 -0.17170617 -0.054884292 -0.40743086
000090 83 c3 02 be 74 0b 8f be 11 ab 89 be 5b 7d 5c be
       -0.12769894 -0.27938426 -0.26888326 -0.21532194
0000a0 ab ce d3 bd 95 fc cc 3e f6 83 ad be 91 6e 92 be
       -0.10342153 0.40036455 -0.3388974 -0.2859998
0000b0 a0 d1 fd be 3a 24 9d be 07 6e b1 be c6 69 c3 be
       -0.49573994 -0.306917 -0.34654257 -0.38166636
0000c0 09 94 9f be 1f a2 17 3d 2b 58 21 bf 0e 9d 0f be
       -0.3116763 0.037019845 -0.6302516 -0.14024755
0000d0 96 79 0e be c8 ec 9e be 9e 29 cf be 42 3a a2 3e
       -0.13913569 -0.31040025 -0.4046144 0.31685072
0000e0 00 14 b1 be b6 32 55 3e bf 96 02 bf cf a5 e2 3c
       -0.3458557 0.20820126 -0.5101127 0.027666954
0000f0 19 e7 b4 be 15 bf de be fe f6 74 be 0c a1 a1 be
       -0.35332564 -0.4350516 -0.23922345 -0.31568182

head.norm.running_mean f4 [64]
000000 00 65 ba 3e 87 d3 0b 3e 8b e6 55 bd 1f 6e 70 be
       0.36405182 0.1365491 -0.052221816 -0.23479508
000010 4d 4e a7 bf a5 91 6c be c8 7e 2a 3e 45 a9 97 be
       -1.307077 -0.23102434 0.16649926 -0.2962133
000020 ca ed 44 be 7e f7 99 3e 2e b1 76 bd 31 05 ba 3d
       -0.19231334 0.30071634 -0.060227565 0.090830214
000030 c6 34 73 3f c3 4c 8d 3e 09 48 4c bf 2e 0f a4 bd
       0.950024 0.27597627 -0.79797417 -0.08010708
000040 27 6e 97 3f 0b a1 cb 3e 8b 13 31 3f 50 c7 a5 3d
       1.1830491 0.39771304 0.69170445 0.080946565
000050 01 b6 ea 3e 91 4f 2f be 33 eb 8d 3e 6a 0e d3 be
       0.45841983 -0.17120196 0.27718505 -0.41221935
000060 b4 16 69 3f f9 26 58 3f a5 32 a4 3e 4a 3a 7a 3f
       0.9105027 0.8443447 0.3206989 0.9774519
000070 34 db 40 be 13 fb 8b 3d 94 9f e9 bd bd 77 20 bd
       -0.1883362 0.06834998 -0.1140739 -0.03917669
000080 44 61 d5 3d 45 6f 60 3f 80 1c 53 3f 9c 77 28 3e
       0.104189426 0.87669784 0.8246536 0.16451877
000090 7d f7 45 3d f9 ef 03 3f 4f a5 e5 3e f5 35 8a 3e
       0.048331726 0.51538044 0.44852683 0.2699429
0000a0 ed 26 da bd 4c 16 62 3e 9e 81 99 be 2f 90 65 be
       -0.10651956 0.22078818 -0.29981703 -0.22418283
0000b0 5a f6 db be 43 35 54 3e f5 54 a2 be 36 b8 52 bf
       -0.4296139 0.20723443 -0.31705442 -0.82312334
0000c0 ec ad 1a bf c7 81 3e 3f 73 92 4c be 44 c4 ad 3e
       -0.60421634 0.74416775 -0.19977741 0.339388
0000d0 38 2a b3 be 47 9d 2e 3e 3c 60 85 be d3 c9 63 bb
       -0.34993148 0.17052184 -0.26049984 -0.0034757748
0000e0 2c 31 52 be 96 5a e5 3e b2 be 10 bd 07 60 a0 3f
       -0.2052657 0.44795674 -0.03533811 1.2529305
0000f0 fb 68 4e bd a1 c3 96 bd 6f f8 a4 bd 91 ef a3 3d
       -0.050393086 -0.07361532 -0.080551974 0.08004678

head.norm.running_var f4 [64]
000000 57 00 8b 3c 1e 6e d5 3b f8 87 2b 3c 77 3d a8 3d
       0.016967935 0.006513371 0.010469429 0.082148485
000010 61 1d c3 3e 0f d8 a2 3b 36 68 6e 3b f1 41 4e 3c
       0.38108352 0.004969604 0.0036378033 0.012588964
000020 16 8a c0 3a f4 b0 db 3c 4b c5 48 3c 69 15 3d 3b
       0.001468959 0.026817776 0.01225407 0.0028851873
000030 85 0d 94 3e ba a7 88 3b 54 ea a8 3e 27 80 63 3c
       0.28916565 0.004170385 0.32991278 0.013885534
000040 e9 80 96 3e 92 ce fe 3c 9d 7f 81 3e de 56 2b 3c
       0.29395226 0.03110436 0.25292674 0.0104577225
000050 ef a3 b1 3c 67 3b 57 3c d8 ff 66 3c 48 bf e1 3c
       0.021684615 0.013136721 0.014099084 0.02755703
000060 44 10 90 3e e1 61 5a 3e ec 04 ea 3c 13 88 c2 3e
       0.2813741 0.213264 0.0285668 0.3799444
000070 aa 13 98 3d 9f a4 b8 3b f8 dc 53 3c 7c cf b4 3c
       0.074256256 0.0056348587 0.012931101 0.022071593
000080 81 b3 6f 3c 46 44 76 3e de b5 74 3e a1 e8 b9 3b
       0.014630199 0.24049482 0.23897502 0.0056734835
000090 4e 04 82 3b 49 bb db 3c b3 1e 81 3c d0 f1 5a 3b
       0.0039677983 0.026822703 0.015761709 0.0033408292
0000a0 c9 2f a6 3c fc 87 07 3c 42 f2 7a 3b 43 e9 eb 3b
       0.020286458 0.008272167 0.003829137 0.007199438
0000b0 8e b2 ae 3c c1 ff 45 3c fb 45 65 3b 5d a6 4d 3e
       0.021325376 0.012084902 0.0034984339 0.20082994
0000c0 54 9e 98 3e a4 f4 4a 3e 58 fd fc 3b 51 74 e6 3d
       0.29808295 0.19819885 0.0077206306 0.11252654
0000d0 74 37 5e 3d 98 8c d5 3c ae d9 65 3d a9 23 c8 3b
       0.054252103 0.026068017 0.0561158 0.0061077666
0000e0 0b 14 26 3c 6a b2 68 3c 3e 75 fb 3b cc 45 8b 3e
       0.010136615 0.0142026935 0.0076738885 0.27201688
0000f0 70 e6 9a 3b c8 f3 52 3c 54 4b e0 3b 74 4a 2c 3c
       0.0047271773 0.012875505 0.0068449173 0.010515798

body.block1.conv.weight f4 [64, 64, 3, 3]
000000 39 89 32 3e 50 86 f0 3d 41 9d 83 3d 21 a0 d5 3c
       0.17435159 0.11744368 0.06426478 0.026077332
000010 d4 1f c5 bc f6 b5 74 bd 6a 82 f2 bc 80 47 08 3d
       -0.024063028 -0.059743844 -0.029603202 0.033271313
000020 94 bc 37 3d bc fc 6b bd b3 6b 0c 3d 55 5e ec bc
       0.044857576 -0.057614073 0.034282397 -0.028853575
000030 42 6c 9e bd a1 01 ae 3d f7 eb af 3c 61 6c 01 be
       -0.07735492 0.084964044 0.021474821 -0.12639
000040 1d f2 0d 3d 5d bf 65 3d ad 2b 25 be 01 c5 32 be
       0.034654725 0.0560907 -0.16129942 -0.17457964
000050 ed 74 2e be ea ad af 3d 6b d0 f5 bd c6 0f 2c 3d
       -0.17036791 0.08578093 -0.12002643 0.04200723
000060 d1 3b bc bb 51 85 31 bd 07 f3 16 bc 51 ed ca 3c
       -0.0057444354 -0.04334003 -0.009213216 0.024771364
000070 76 6c f6 3b 7a 65 80 3c e5 ce 41 3d 8d 53 2d 3d
       0.007520254 0.015673388 0.04731645 0.04231601
000080 0a 2e 49 3d b1 cc 0a 3d a5 36 1c 3b cb e1 15 3d
       0.049116172 0.033886615 0.0023836282 0.036592286
000090 89 e6 80 3c c3 a4 4f 3d 0d ea b1 3a 33 f8 08 3d
       0.015734928 0.05069424 0.0013573781 0.033439826
0000a0 6d a4 1e 3d ea 9e af 3c 5d 41 1b 3c 04 92 d8 3c
       0.038731027 0.02143808 0.009476033 0.026436813
0000b0 d5 23 82 3c 24 eb f9 3d 6e 00 1d bd fc 3d 43 3c
       0.015886227 0.12203053 -0.038330488 0.011916634
0000c0 15 b5 5b 3d 6e 9c 66 bc e9 61 24 be a1 a3 27 3d
       0.05363949 -0.014075382 -0.16052975 0.040927533
0000d0 d9 13 90 bd b1 fb 30 bd d1 dd 3f bd 7b 10 da bc
       -0.07035036 -0.04320878 -0.0468424 -0.026619187
0000e0 d6 f7 42 3d d5 6c e7 bd e8 0a b9 bd fb a2 36 3d
       0.047599636 -0.11300055 -0.09035283 0.044589024
0000f0 94 54 91 3c b1 ad 39 3d be c4 80 3c ca 9e ee 3c
       0.017740525 0.04533166 0.015718814 0.02912845
000100 3e e7 10 bd 86 48 69 3c fb fd 26 bd 88 6f 1e bd
       -0.03537678 0.014238482 -0.04076956 -0.038680583
000110 76 27 ee bb 93 43 80 bc 1e a9 82 3d 95 09 fa 3d
       -0.0072678877 -0.015657222 0.06379913 0.12208859
000120 0a a3 79 3d 74 25 d5 bc c7 64 c2 bc 87 8d 39 bb
       0.0609465 -0.026018836 -0.023729695 -0.0028313117
000130 83 ff a3 bc 06 69 c1 3d c4 be 9b bc e7 ad d2 bd
       -0.020019298 0.0944386 -0.019011863 -0.102870755
000140 13 b7 2c bd 96 4d 04 bd 67 56 02 3d 8c 45 e6 3c
       -0.04216678 -0.032300554 0.03182068 0.028109334
000150 12 07 cd bc 63 ea ae 3b b3 73 d2 bd 93 75 b2 3c
       -0.025027785 0.0053379997 -0.10275974 0.02178458
000160 7b ce 87 bd 2e 92 f9 bd b0 db 49 bd 2c 54 c2 bc
       -0.0663118 -0.12186085 -0.049281776 -0.023721777
000170 7e 4c 35 bd c5 55 b1 bd 7f cb c9 3c 18 0e 56 3d
       -0.0442624 -0.08658937 0.024633167 0.052259535
000180 a2 15 54 bd 42 af f0 bc 43 81 fb ba a3 d9 46 bc
       -0.051778443 -0.029380444 -0.0019188303 -0.01213685
000190 c8 4b 28 bd a5 cf 51 bd 40 07 14 bc 34 75 64 bc
       -0.041087896 -0.051223416 -0.009034932 -0.013943959
0001a0 40 ee 69 bd d6 cc ce 3d 6a 45 cd 3c 05 cf 9f 3d
       -0.05711198 0.10097663 0.025057513 0.07803158
0001b0 78 6f 60 bd 4c d8 a4 bd ce 74 9d bd 5e f0 63 bb
       -0.054793805 -0.08049068 -0.07688294 -0.0034780721
0001c0 8e c9 12 3d db 11 5e 3c b7 6c 48 3d 1f 15 43 3d
       0.03583675 0.013554062 0.048931804 0.047627565
0001d0 af 13 38 bc 01 22 71 3d 4b 39 6a bd 11 b1 81 3d
       -0.011235162 0.05887032 -0.057183545 0.06332601
0001e0 a8 cc ad bd e9 1e f5 ba 63 5c 0a 3e 93 09 0e bd
       -0.08486301 -0.0018701229 0.13511805 -0.0346771
0001f0 06 ae a3 bc c5 b6 2c 3d 3b 94 18 bc 91 20 26 3d
       -0.019980442 0.04216649 -0.009312685 0.0405584
000200 29 2f 77 3c 5a a0 ef 3c d7 70 27 3c e3 20 30 bc
       0.015086927 0.029251266 0.010219774 -0.010750028
000210 73 0a 60 bb ed 3a 1a bc d6 6f 02 3d 46 6d 25 bd
       -0.0034185916 -0.009413463 0.031844936 -0.040387414
000220 b1 e8 d2 bc 9a 9a c1 3c fe 01 86 bd 8d fa ad bd
       -0.025745722 0.02363329 -0.06543349 -0.084950544
000230 05 15 25 be 33 ca 76 3c 57 d9 6d bb ce 31 8c bd
       -0.161213 0.0150628565 -0.0036292875 -0.06845437
000240 47 9f 3d 3d 5d cb 32 3d d7 10 75 3d b3 c4 60 3d
       0.046294477 0.043650974 0.059830513 0.054875087
000250 bf 1b a3 3d dd 68 42 3d aa c4 f5 3d f7 05 e4 3d
       0.079642765 0.047463287 0.12000401 0.1113395
000260 d3 0b 38 3d b5 f6 08 be 30 6b 0a be 08 fa 38 be
       0.04493315 -0.13375361 -0.13517451 -0.1806413
000270 0c f3 1c bc be 48 0c 3c 19 43 c9 3c a5 28 17 3d
       -0.009579431 0.008562265 0.024568127 0.036903996
000280 62 5f 87 3c 92 fc 66 3d 14 57 90 bd d3 d2 3b bd
       0.016524974 0.056393214 -0.07047859 -0.045855355
000290 65 8d e0 bc 16 3f c7 bc d8 df 30 bc ae 90 27 3d
       -0.027411172 -0.024322074 -0.010795556 0.04090946
0002a0 a3 4f ee 3c a3 20 30 3c a0 32 4f 3d 11 6b 62 bb
       0.029090708 0.010749969 0.05058539 -0.003454868
0002b0 f9 28 e9 3c 81 4d 8a bb 4a 9a 00 be d1 27 16 bd
       0.02846192 -0.004220665 -0.12558857 -0.036659066
0002c0 e3 21 15 bd c8 7e c9 3d 81 52 ed 3d 47 50 1b 3d
       -0.03640927 0.09838635 0.11588002 0.037918355
0002d0 41 c6 dd bb 2a 32 ff 3c f9 45 a0 bd fb 28 87 bd
       -0.0067680185 0.03115185 -0.07825846 -0.06599613
0002e0 50 ff 98 3c 43 c2 9f 3c 88 df da bb a4 a8 9b bd
       0.01867643 0.01950181 -0.006679479 -0.07600525
0002f0 fa b1 8d bd c6 1d 77 bd 92 a9 35 bd c0 d9 1d 3d
       -0.06918712 -0.06033113 -0.044351168 0.03853774
000300 e0 cc 1f bd d7 2b 4a bc e4 f2 ff bc 97 da ff bd
       -0.039013743 -0.012339554 -0.031243749 -0.124928646
000310 9a 84 8b bd 55 24 64 bd 33 b0 20 3d ec 07 aa bd
       -0.06812401 -0.05569871 0.039230537 -0.08302292
000320 bd 68 9e bd 3d e6 70 bb 50 39 c7 bd 8c 56 da bc
       -0.07734821 -0.0036758326 -0.09727728 -0.026652597
000330 44 97 1e 3e 54 7d f7 3c 4b 45 19 ba 18 84 52 bd
       0.15487391 0.030211128 -0.0005846812 -0.051395506
000340 31 d7 c6 bb 54 b1 e2 bd 73 44 33 3d 26 f1 a3 3d
       -0.0060681333 -0.11068979 0.04376645 0.0800498
000350 20 5b 4b b8 d7 10 94 3d c5 0a 45 3e 6c 67 bb 3d
       -4.848384e-05 0.072297744 0.1924239 0.091505855
000360 bb 2c ac 3c a5 0c 8f 3d 0a cd 65 3b 50 00 03 3c
       0.021017423 0.06984834 0.003506484 0.00799568
000370 4a 52 53 3d e6 08 18 bb c1 1d 24 3d 66 3a 91 3d
       0.05159215 -0.0023198663 0.040067438 0.07091217
000380 68 ce 8f 3c d4 c0 20 bd 05 3b 26 bd 1a 35 b7 bd
       0.017554477 -0.039246395 -0.04058363 -0.08945675
000390 4b 84 8a 3d b6 52 7b b8 21 e7 75 3d 36 28 be 3c
       0.06763514 -5.9920094e-05 0.060034875 0.023212533
0003a0 49 3b 88 bd b7 86 10 bc 76 30 ba 3d ac ca 09 3e
       -0.06651933 -0.008821181 0.090912744 0.1345622
0003b0 35 da 8e 3d bf 6d ee 3d 50 73 17 3d 04 00 f7 3b
       0.069752134 0.11642026 0.036975205 0.0075378437
0003c0 0e 8f 1b 3e 9d 81 56 3d 58 2e 5d 3d 6f d9 2c 3c
       0.1519129 0.052369703 0.053999275 0.010549887
0003d0 97 c1 44 bc 85 79 ef bc f0 72 78 3d f2 f9 da 3c
       -0.012009046 -0.02923275 0.060656488 0.026730511
0003e0 c7 c3 d7 3b a7 04 12 3d 0e 0f 11 3d 92 c4 a8 3d
       0.006584618 0.035648968 0.035414748 0.08240618
0003f0 31 b5 d5 3c a1 a0 25 bb 94 f9 04 3d fa 49 e0 3c
       0.026087375 -0.0025272744 0.03246458 0.027379025

body.block1.conv.bias f4 [64]
000000 26 f5 8f bc dc 71 d5 3c a6 d9 1a 3d fe aa 65 bc
       -0.01757295 0.026055269 0.037805222 -0.0140178185
000010 52 59 47 3c e0 be c3 bb 8d 90 54 bc 7b 45 48 3c
       0.012167292 -0.005973682 -0.012973917 0.012223597
000020 7b 44 13 bd d3 bc a8 bc 8f 78 10 bd f8 69 03 bc
       -0.03595398 -0.02059785 -0.035271224 -0.00802087
000030 53 11 cd bc d4 58 d7 3c e4 96 14 bd 4d 58 12 3c
       -0.025032675 0.026287474 -0.036276713 0.008932185
000040 41 7a 00 3d 35 55 f7 3c 47 49 cf 3c 4b ef 06 bd
       0.03136659 0.030191997 0.025303496 -0.03294305
000050 3c ae 85 bc 80 b7 27 3c c4 11 0b bd e8 b3 17 bd
       -0.016318433 0.010236621 -0.03395249 -0.037036806
000060 63 b0 26 bd dd 73 b9 3c fc b6 4d 3c 0e 28 a4 3c
       -0.04069556 0.022638256 0.012555834 0.02003863
000070 de 7a 0e 3d be 50 09 bd cf 65 47 bd 1e 2d 27 3d
       0.034785144 -0.033524267 -0.048681077 0.04081451
000080 01 c1 b8 bc 03 5f 0d 3d 07 be a3 bb 77 44 ad 3c
       -0.022552969 0.03451444 -0.0049970183 0.02115081
000090 56 85 fb 3c 17 73 ea 37 90 ec 4a bc 2e 44 8d 3c
       0.030703228 2.7948567e-05 -0.012385502 0.017244425
0000a0 16 61 a0 bc b7 52 be 3b 11 f4 74 bc 78 f4 e1 3c
       -0.019577544 0.0058082 -0.014950768 0.027582392
0000b0 b0 cf 3d 3c 69 fb c7 3c b3 dc e2 3a 37 43 48 bc
       0.011585161 0.024411874 0.0017308205 -0.0122230565
0000c0 c3 f1 15 bb 9c 11 49 bc 97 57 7b 3c 21 e3 b3 ba
       -0.0022879697 -0.012272265 0.015340707 -0.0013724306
0000d0 d8 1f cf 3c b4 2f f7 3c 01 b6 30 3d 2d d8 0f 3d
       0.025283739 0.030174114 0.043142322 0.03511827
0000e0 87 1f 22 3d 32 c4 d3 bb 65 18 e3 bc d6 81 74 3c
       0.039580848 -0.0064625973 -0.027721593 0.014923533
0000f0 da 10 a0 bc 5f 82 1c 3d 93 77 2c bc 8f eb 7a bc
       -0.019539285 0.03821027 -0.010526556 -0.015314951

body.block1.norm.weight f4 [64]
000000 38 80 81 3f c4 d5 60 3f df 43 89 3f 3b 97 73 3f
       1.0117254 0.8782618 1.0723838 0.95152634
000010 3d 85 7c 3f a5 e3 6e 3f 15 ec 70 3f 4f 7d 89 3f
       0.98640805 0.9331611 0.9411023 1.0741366
000020 a0 70 5b 3f 21 e1 7b 3f e5 0b 78 3f 19 71 75 3f
       0.8571873 0.98390394 0.9689315 0.958757
000030 46 6a 80 3f d5 a0 86 3f 40 31 83 3f 39 cc 89 3f
       1.0032432 1.0517832 1.0249405 1.0765449
000040 2f 7b 64 3f 4d ee 47 3f 2b aa 6c 3f e3 f6 6c 3f
       0.89250463 0.78097993 0.92447156 0.9256422
000050 db f6 63 3f 69 dd 8f 3f 49 00 88 3f f0 96 62 3f
       0.89048547 1.1239444 1.0625087 0.8851156
000060 8d 77 79 3f b7 55 61 3f 53 a2 69 3f 61 fe 81 3f
       0.97448045 0.88021415 0.9126331 1.0155755
000070 8d 3b 7f 3f 06 a4 83 3f b5 44 88 3f c9 49 78 3f
       0.9970024 1.0284431 1.0645968 0.9698759
000080 21 a9 84 3f 21 f7 74 3f c3 d5 68 3f ad e5 63 3f
       1.0364114 0.9568959 0.90951174 0.8902233
000090 69 49 75 3f aa 00 80 3f 62 fd 74 3f 4c fb 68 3f
       0.9581514 1.0000203 0.9569913 0.9100845
0000a0 26 e2 7f 3f 19 df 84 3f 35 a1 81 3f 0c 84 87 3f
       0.9995445 1.0380584 1.0127321 1.0587173
0000b0 b8 25 6c 3f 75 e3 7e 3f 0a 94 6b 3f 49 5e 73 3f
       0.92245054 0.9956582 0.92022765 0.9506574
0000c0 ab 08 7a 3f ca b8 81 3f 2d aa 76 3f 4d a5 82 3f
       0.97669476 1.0134518 0.9635342 1.0206696
0000d0 68 7c 82 3f 64 da 64 3f 0b 94 75 3f 48 d2 84 3f
       1.0194216 0.8939574 0.9592902 1.0376673
0000e0 9f d4 79 3f 83 a5 7c 3f 84 00 89 3f a6 88 72 3f
       0.9759006 0.9869005 1.0703282 0.9473976
0000f0 4b 16 90 3f d3 80 89 3f 75 2f 80 3f c2 75 6b 3f
       1.1256803 1.0742439 1.0014483 0.9197656

body.block1.norm.bias f4 [64]
000000 46 0c b4 be 97 47 a9 be 10 58 3d bd 22 59 8e be
       -0.35165614 -0.3306243 -0.04622656 -0.27802378
000010 ae c2 b1 be 51 61 61 be 96 c5 2b be 65 1c b1 bd
       -0.3471884 -0.2200978 -0.16774592 -0.08647994
000020 4c f5 15 bf b8 00 23 bf 23 09 93 be 7b 69 96 be
       -0.5857742 -0.6367297 -0.28717908 -0.2937735
000030 fc 40 ad be e8 9a ab bd 38 37 33 be 8d 49 15 bf
       -0.33838642 -0.083791554 -0.17501533 -0.58315355
000040 35 21 ad be 08 41 27 bf c8 07 96 be 15 56 8d be
       -0.33814397 -0.65333605 -0.29302812 -0.27604738
000050 1e 94 6c be 46 7d 92 be ff 1b 06 bf bc 9a 30 bf
       -0.23103377 -0.286112 -0.5238647 -0.68986106
000060 dd ee b3 be e3 76 76 be ff cd 6a be a9 fe 75 be
       -0.35143176 -0.24068789 -0.22930144 -0.24022926
000070 30 d6 ff be 40 f0 01 bf c0 ec 0f bd 6b 07 24 bf
       -0.499681 -0.5075722 -0.03513789 -0.6407382
000080 75 3b 88 be 0d 3c 99 be f8 b6 c7 be ec 0f b4 be
       -0.26607862 -0.29928628 -0.39006782 -0.35168397
000090 d6 79 0e be 36 f0 c2 be 86 b6 bf be 88 53 0f bf
       -0.13913664 -0.3807389 -0.37443942 -0.55986834
0000a0 63 51 28 be e1 9b 5a be ae 9a 2b be e0 9d de be
       -0.16437297 -0.21348526 -0.16758224 -0.43479824
0000b0 aa 2b 04 be 71 1e da be c9 c3 38 be d1 fa 54 be
       -0.12907282 -0.4260135 -0.18043436 -0.20798804
0000c0 7c 8d a8 be 09 6d 44 be 6a c5 2e be 62 e6 07 bf
       -0.32920444 -0.19182219 -0.17067495 -0.5308591
0000d0 14 9f ff be 99 1d ea be 29 c9 85 be e8 b5 00 be
       -0.49926054 -0.45725706 -0.26130036 -0.12569392
0000e0 ee 51 b2 be ab e4 d8 bd 3c 53 91 be e0 d1 15 bf
       -0.34828132 -0.1059049 -0.28383815 -0.5852337
0000f0 65 bd 16 bf 5f 67 a5 be 72 ce 77 be 46 f5 b6 be
       -0.58882743 -0.32305428 -0.24199846 -0.35734004

body.block1.norm.running_mean f4 [64]
000000 d3 c6 2d 3f d4 7d a6 be ce 2a 82 c0 69 7c 04 40
       0.67881507 -0.32517874 -4.067725 2.0700934
000010 f8 6d e7 bf 63 4d 4a 40 70 06 1f 40 b4 d1 1f 40
       -1.8080435 3.1609733 2.484768 2.4971743
000020 e5 0e 65 40 4a 8d 53 bf 23 78 a7 bf f0 ff d2 3d
       3.579034 -0.82637465 -1.3083538 0.103027225
000030 f5 cf a9 3e af 7c a6 bf 88 92 52 be b6 12 8a bf
       0.3316647 -1.30068 -0.2056371 -1.078696
000040 5b 45 60 c0 bf ec 04 c0 69 ee b6 bf 7b 33 ae 3f
       -3.5042331 -2.0769498 -1.4291507 1.360946
000050 a2 61 58 40 46 19 d9 be d8 16 f0 bd c3 54 07 c0
       3.380959 -0.42402095 -0.11723107 -2.1145484
000060 8b d9 ba bf aa aa 43 c0 62 54 f9 3f 9c 07 72 3f
       -1.4597639 -3.0572915 1.9478877 0.9454286
000070 0a ee ca bf c4 13 a9 3f f4 7e 85 bf 34 30 48 3e
       -1.5853894 1.3209157 -1.0429368 0.19549638
000080 be 82 61 3f 3c 54 12 c0 b5 53 5e 3f 64 08 38 c0
       0.8809012 -2.2863913 0.86846477 -2.8755121
000090 85 52 4b 40 de d7 be be cc 8f 58 bf d7 8f 0a bf
       3.1769116 -0.3727407 -0.84594417 -0.5412573
0000a0 fc 46 58 c0 76 ab 02 c0 84 36 1c c0 87 92 a8 be
       -3.3793325 -2.0417151 -2.4408274 -0.32924291
0000b0 27 a7 0a 40 72 fa db bf 60 e1 3a c0 3d f0 e3 bf
       2.1664522 -1.7185805 -2.9200058 -1.780769
0000c0 81 b5 df bf 94 bb cf 3c 7b 14 46 40 ab 45 51 bf
       -1.7477266 0.025357999 3.095 -0.8174693
0000d0 0b 81 8b bf ec 6b ff 3f 2f c3 95 3d df d9 1c bf
       -1.0898756 1.995481 0.07312619 -0.61269945
0000e0 98 16 0a 3f 6d c9 6b bf 71 6a 3a c0 ac 70 2b c0
       0.53940725 -0.92104226 -2.9127467 -2.678752
0000f0 7c b4 4b be 24 7b ae bd fc e0 51 bf 54 38 df be
       -0.19893068 -0.08519581 -0.81983924 -0.43597662

body.block1.norm.running_var f4 [64]
000000 f0 43 03 40 1c 60 1b 41 9f 13 a3 3f e2 6d 67 40
       2.0510216 9.710964 1.2740363 3.6160817
000010 02 95 f2 3f 90 85 86 40 f4 e2 9a 40 34 3b aa 40
       1.8951724 4.203804 4.8402042 5.319727
000020 4e fd d3 3f 91 a7 9f 3f bd 52 55 3f f4 c8 99 3f
       1.6561677 1.2473012 0.83329374 1.2014451
000030 a9 57 b1 3f 08 75 5a 41 a9 4c 22 40 99 38 86 3f
       1.3854877 13.653572 2.535929 1.0486022
000040 ea 4e 0d 40 f6 39 a0 3f 07 86 de 40 78 3d 0c 40
       2.2079415 1.2517688 6.9538608 2.1912518
000050 a6 bc d2 3f 81 df 65 40 cf d7 62 3f 37 93 92 3f
       1.6463821 3.5917666 0.8861055 1.1451176
000060 53 8e d9 3f 59 82 a1 3f 4a f9 b1 40 21 45 e0 40
       1.6996559 1.2617904 5.561681 7.0084386
000070 c4 ed 89 3f a8 c3 cc 3f 75 80 91 41 25 a0 89 3f
       1.0775685 1.599721 18.187723 1.0751997
000080 05 4e 14 40 ca 44 d1 3f 92 f4 74 3f 4c 6f 8d 3f
       2.317262 1.6349118 0.95685685 1.104959
000090 54 29 a5 40 49 86 57 40 a2 e3 df 3f 4c a4 82 3f
       5.161295 3.367571 1.7491343 1.020639
0000a0 e6 d9 f8 3f 24 d4 3c 40 13 79 80 40 0b a8 2c 3f
       1.9441497 2.950448 4.0147796 0.67443913
0000b0 2c 4a af 40 ec d1 3a 40 05 8f 44 40 de 59 b6 41
       5.477804 2.9190626 3.0712292 22.79388
0000c0 21 aa de 3f ec d3 19 40 f6 1d 0d 40 b1 06 b3 3f
       1.7395669 2.4035597 2.2049537 1.3986417
0000d0 25 b7 2e 3f 09 9a 32 40 a0 57 e6 3f ec 66 36 41
       0.68248206 2.7906516 1.7995491 11.400127
0000e0 19 5d 4f 40 f4 64 53 40 21 df 5c 40 b3 3d a4 3f
       3.2400572 3.3030367 3.4511187 1.2831329
0000f0 11 0a 8b 3f 53 dc 8f 3f ba e1 64 3f ab ea d0 3f
       1.0862447 1.1239113 0.8940693 1.6321615
