TrainedModels/SMB-1-1/scale_factor=0.750000,alpha=10/1/netD.pth (torch, 128517 bytes, 27 tensors)

head.conv.weight f4 [32, 3, 3, 3]
0	0x3c83c22f	0.016083805
1	0x3c199f2a	0.009376327
2	0x3b41b353	0.0029556348
3	0xbd8f1f3a	-0.06988378
4	0xbdae54f1	-0.08512295
5	0xbd220bd6	-0.03956207
6	0xbca36df1	-0.019949885
7	0xbd420c98	-0.04737529
8	0x3b494b3f	0.0030715016
9	0x3c3540d4	0.0110628195
10	0xbc0a1147	-0.008426971
11	0x3d0608fa	0.032723404
12	0xbcb89954	-0.02253405
13	0xbc467d2f	-0.012114807
14	0xbce41056	-0.02783982
15	0xbd13ad58	-0.036053985
16	0xbd2f0a5e	-0.042734496
17	0xbcfc53eb	-0.030801734
18	0x3d169ef5	0.036772687
19	0x3c0038ef	0.007826074
20	0x3c1957ca	0.009359309
21	0x3d23dd41	0.040005926
22	0x3cb0b919	0.021572636
23	0x3c31e49a	0.0108577255
24	0xbda60cd2	-0.08107914
25	0xbcdbbd65	-0.026823709
26	0xbcdc49b6	-0.026890617
27	0xbdb6df81	-0.08929349
28	0xbd3d9f1f	-0.046294328
29	0xbca081e7	-0.019593192
30	0xbd7804c7	-0.06055143
31	0xbd323814	-0.04351051
32	0xbd111acc	-0.035425946
33	0xbcbfd621	-0.023417534
34	0xbd0b07db	-0.03394304
35	0xbcba6336	-0.022752386
36	0x3dac5be6	0.08415966
37	0x3ccf211b	0.02528434
38	0x3cf293ac	0.029611431
39	0x3de88ce5	0.113549985
40	0x3d371e6c	0.044706747
41	0x3ccddab5	0.025128702
42	0x3de14b0c	0.11000642
43	0x3d2d399b	0.042291265
44	0x3cc60242	0.024170998
45	0xbc7bf3d5	-0.015377958
46	0xbcc06b41	-0.023488643
47	0xbcbbb593	-0.02291373
48	0xbd9bcb42	-0.07607128
49	0xbd15231e	-0.036410443
50	0xbc756a1f	-0.0149789145
51	0xbd6e6717	-0.058203783
52	0xbb74ee2d	-0.003737341
53	0x3a985826	0.001162295
54	0xbd53acdb	-0.05167852
55	0xbcbd6a20	-0.023121893
56	0xbcfd44ca	-0.03091659
57	0x3d064d67	0.03278866
58	0x3d17054c	0.036870286
59	0x3bb03536	0.005377437
60	0x3b8ba48d	0.0042615593
61	0xbd250854	-0.040291145
62	0xbca677c8	-0.020320788
63	0xbd0136ba	-0.031546332
64	0xbbedfb20	-0.0072626024
65	0xbcc0f0f4	-0.023552395
66	0xbd4c56f8	-0.049887627
67	0xbcb23fee	-0.021759
68	0xbd04fca4	-0.0324675
69	0xbdbceeb5	-0.09225217
70	0xbce07729	-0.02740057
71	0xbc7d01d4	-0.01544233
72	0x3ddcc3f1	0.1077956
73	0x3d6bbac0	0.057551146
74	0x3d1b3374	0.037890866
75	0xbcf1a0c7	-0.02949561
76	0xbd177bdb	-0.036983352
77	0xbd1f8b91	-0.03895146
78	0xbdb5ca0d	-0.08876429
79	0xbcc79a78	-0.024365649
80	0xbbe80a0c	-0.007081276
81	0x3cd681f1	0.026185008
82	0xbcb6a2be	-0.022294398
83	0xbc0d26b8	-0.008615188
84	0x3d344b02	0.044016846
85	0xbc07f4f8	-0.008298151
86	0x3c41998d	0.0118163945
87	0x3bc784ac	0.0060888138
88	0xbc82882f	-0.015934078
89	0xbd6d426c	-0.057924673
90	0xbd4a7c90	-0.0494352
91	0x3c4b824d	0.012421203
92	0xba937767	-0.0011250795
93	0xbcfc50cf	-0.030800251
94	0x3cd988a7	0.026554419
95	0x3d7f1654	0.062277153
96	0xbc8c8471	-0.017152997
97	0x3cd5adf6	0.026083928
98	0x3e00187b	0.12509339
99	0xbc364d0f	-0.011126771
100	0xbd21b9b3	-0.039483737
101	0xbd93e524	-0.072214395
102	0xbca3e451	-0.02000633
103	0xbc11e89a	-0.008905554
104	0x3cd354c3	0.025797253
105	0xba2c3305	-0.0006568882
106	0x3dbb82c2	0.091557994
107	0x3e2221a7	0.1583315
108	0x3d23f86e	0.040031843
109	0x3c9d66ca	0.019214053
110	0x3cfea3f7	0.031084044
111	0x3c81dcec	0.015852414
112	0x3c75e863	0.015009019
113	0xbbb24a4d	-0.0054409862
114	0xbbc92ce0	-0.0061393827
115	0xbd7bc417	-0.061466303
116	0xbdba3757	-0.090925865
117	0xbcce50e5	-0.025185058
118	0x3c0acd98	0.008471869
119	0x3a8acbc3	0.001058929
120	0x3c1fe2b8	0.009758644
121	0xbca485aa	-0.020083267
122	0xbd35077c	-0.04419659
123	0x3c2cea69	0.010553935
124	0x3cda6a1a	0.026661921
125	0x3d681eb0	0.05666989
126	0x3b3d6eb1	0.0028905089
127	0xbd446f81	-0.0479579
128	0xbda5e200	-0.08099747
129	0xbc353c22	-0.0110617
130	0xbcf1f8ac	-0.029537521
131	0xbd91100a	-0.07083137
132	0x3ba74b20	0.005105391
133	0x3c2e0eb3	0.010623622
134	0x3da98d09	0.082788534
135	0x3de43670	0.11143196
136	0xbd203e25	-0.039121766
137	0xbd82a7c9	-0.06379659
138	0x3d28b6cf	0.041189965
139	0xbd5f0571	-0.05444855
140	0xbd144478	-0.03619811
141	0x3c265b78	0.010153644
142	0x3c8c4f66	0.017127704
143	0xbc9546a0	-0.018222153
144	0x3c97aefe	0.01851606
145	0x3c71a856	0.014749607
146	0x3ca9e573	0.020739293
147	0x3d276c97	0.040875044
148	0x3b4d0e7a	0.0031289146
149	0x3cbb2dd1	0.022848995
150	0x3d0a55ec	0.033773348
151	0x3ca22449	0.019792693
152	0x3ca7a886	0.0204661
153	0xbe20023d	-0.15625854
154	0xbd26e347	-0.040744092
155	0x3c1b2185	0.009468441
156	0xbd5b70b2	-0.05357427
157	0x3ca4453c	0.020052545
158	0xbb89c378	-0.00420421
159	0x3c4ea679	0.012612932
160	0x3d57a401	0.05264664
161	0xba273065	-0.0006377756
162	0x3c7ec045	0.01554877
163	0x3c9044fd	0.017611021
164	0xbcb21db7	-0.021742685
165	0xbc80c539	-0.015719043
166	0x3ce8499d	0.028355414
167	0xbb9617f9	-0.0045804945
168	0xbc015af0	-0.007895216
169	0x3d305f73	0.043059777
170	0xbccdf6c2	-0.025142077
171	0x3d0d08c3	0.034432184
172	0x3ccc709d	0.024956042
173	0x3bd63a1f	0.0065376903
174	0xbc9e7596	-0.019343179
175	0x3d123435	0.03569432
176	0xbbcd8b82	-0.006272734
177	0x3c2b7863	0.010465714
178	0xbc3b2099	-0.011421346
179	0xbd5f6690	-0.05454117
180	0x3daff8ad	0.08592353
181	0xbc2af484	-0.010434274
182	0xbdae4d80	-0.08510876
183	0x3d790573	0.060796212
184	0xbcbc0905	-0.02295352
185	0xbc144a4d	-0.009050918
186	0xbd6a0b7f	-0.05713987
187	0xbe3ef394	-0.18647605
188	0xbd4811e5	-0.04884519
189	0xbd061063	-0.03273047
190	0xbbc29e04	-0.005939247
191	0xbd128b85	-0.035777587
192	0xbb0cc4c5	-0.0021479588
193	0xbba2e8bb	-0.0049715913
194	0xbc8f12ba	-0.017464984
195	0x3d315cf0	0.043301523
196	0x3d1d8ffc	0.038467392
197	0x3d9085ad	0.07056747
198	0xbba086a1	-0.0048988615
199	0x3aaad070	0.001303209
200	0x3cc7b895	0.024380008
201	0x3b97c71b	0.0046318895
202	0x3a2dd410	0.0006631026
203	0x3c25b230	0.010113284
204	0x3c3895fa	0.011266226
205	0x3c89fb97	0.0168436
206	0xbb17f3e0	-0.0023186132
207	0x3d969a7e	0.07353686
208	0x3d7453f4	0.059650376
209	0x3d90159b	0.07035371
210	0xbceeb800	-0.029140472
211	0xbbf86924	-0.007580893
212	0xbb9c47df	-0.00476931
213	0xbd4371aa	-0.04771582
214	0xbd6c552f	-0.057698425
215	0xbd857bb9	-0.06517739
216	0xbd27928f	-0.040911254
217	0x3b989567	0.004656482
218	0x3d02452c	0.03180425
219	0xbdc58a48	-0.09645516
220	0x3d237719	0.039908502
221	0x3a0355c1	0.0005010032
222	0xbcff26ac	-0.03114637
223	0x3cfcdbc7	0.030866517
224	0xbb6515b7	-0.003495557
225	0xbd036328	-0.032076985
226	0x3d4ac596	0.04950484
227	0xbcadff4e	-0.021239903
228	0xbc177b28	-0.009245671
229	0x3d04d12e	0.03242605
230	0x3ccd2152	0.025040302
231	0x3d8e1441	0.06937457
232	0x3d6894ae	0.056782417
233	0x3cd05b7e	0.025434252
234	0xbc625ec5	-0.01381654
235	0x3d4cfddf	0.050046798
236	0xbd6ce925	-0.05783953
237	0x3c58d2df	0.013233869
238	0x3e623912	0.22092083
239	0xbb414f33	-0.002949667
240	0xbcaed876	-0.021343451
241	0x3bd459ea	0.006480445
242	0xbd5fd938	-0.054650515
243	0x3cd6aa7c	0.02620434
244	0x3b915268	0.0044348724
245	0xbcd821ea	-0.026383359
246	0xbd4f6d8a	-0.050641574
247	0xbe02a47f	-0.12758063
248	0xbb5d2e10	-0.003374938
249	0xbd7abd64	-0.061215773
250	0xbd89b038	-0.06723064
251	0x3d95fcba	0.073235944
252	0x3cf21c00	0.029554367
253	0xbd004a2c	-0.031320736
254	0xbcbc7f30	-0.023009866
255	0x3c814595	0.01578025

head.conv.bias f4 [32]
0	0xbf363eb6	-0.7118944
1	0xbe7eac95	-0.24870522
2	0xbf416464	-0.7554381
3	0xbd7a1b61	-0.061061267
4	0xbe544a0f	-0.20731376
5	0x3ecbf106	0.39832324
6	0x3e246f21	0.16058017
7	0x3f0cfd1c	0.55073714
8	0xbe05d960	-0.13071203
9	0xbd08e15b	-0.03341804
10	0x3ea97b14	0.33101714
11	0x3e3f36e0	0.18673277
12	0xbe4136c9	-0.18868555
13	0xbd91600b	-0.07098397
14	0x3f00e656	0.50351465
15	0x3d031c14	0.0320092
16	0xbf0506de	-0.51963603
17	0xbdd09cbe	-0.10186146
18	0xbf20bc1b	-0.62787026
19	0x3d3f911c	0.046769246
20	0xbc6f7b2f	-0.014616772
21	0xbf1d87f6	-0.61535585
22	0x3de76dac	0.11300215
23	0xbf1bede9	-0.609099
24	0xbd8f192f	-0.06987225
25	0xbecaf5bb	-0.39640602
26	0x3e12a36d	0.14320154
27	0xbe800bbf	-0.25008962
28	0x3dac9f8b	0.08428868
29	0x3e0e7b2a	0.13914171
30	0xbdb2aa8d	-0.08723936
31	0xbe53cb62	-0.20683053

head.norm.weight f4 [32]
0	0x3f777527	0.96663135
1	0x3f54441c	0.82916427
2	0x3f56cb29	0.8390375
3	0x3f70e8c7	0.9410519
4	0x3f65131b	0.8948228
5	0x3f673aab	0.90323895
6	0x3f824d55	1.017985
7	0x3f63b1cb	0.88943166
8	0x3f80aef0	1.0053387
9	0x3f808438	1.004035
10	0x3f78009d	0.96875936
11	0x3f7190e6	0.9436172
12	0x3f8411b0	1.0317898
13	0x3f7a30b4	0.97730565
14	0x3f665723	0.8997671
15	0x3f7f99a3	0.99843806
16	0x3f7125bc	0.94198203
17	0x3f8be726	1.0929916
18	0x3f615a7e	0.88028705
19	0x3f7b1904	0.98085046
20	0x3f82f65e	1.0231435
21	0x3f572a4f	0.8404893
22	0x3f5a3981	0.85243994
23	0x3f6a59fa	0.91543543
24	0x3f86764e	1.0504854
25	0x3f76e1b1	0.9643813
26	0x3f8d22ce	1.1026247
27	0x3f5817ee	0.84411514
28	0x3f8518ca	1.039819
29	0x3f7ca8ae	0.98694885
30	0x3f846892	1.0344412
31	0x3f7dc86e	0.99133956

head.norm.bias f4 [32]
0	0x3a335f2e	0.0006842491
1	0x3eafd8f3	0.34345207
2	0x3eb2ff94	0.34960616
3	0x3f0eb7d8	0.55749273
4	0x3eb078ae	0.3446707
5	0x3ea3a0eb	0.31958708
6	0x3cb58565	0.022158334
7	0x3e219ba1	0.15782024
8	0x3e2a8692	0.16652897
9	0x3eb239de	0.34809774
10	0x3d94fd28	0.07274848
11	0xbbb1388e	-0.005408353
12	0x3eab4dc7	0.33457777
13	0xbe40fd85	-0.1884671
14	0x3e73f3f8	0.23823535
15	0xbd4389c8	-0.04773882
16	0x3e905141	0.28186992
17	0x3e49307c	0.19647402
18	0x3e52702d	0.20550604
19	0xbe85e9fe	-0.26155084
20	0x3e5a48b9	0.21316804
21	0x3eb89487	0.36050817
22	0x3f397d9a	0.7245728
23	0x3c8ec78a	0.017429132
24	0x3ecd4023	0.40087995
25	0xbdbfc2ac	-0.093633026
26	0xbe41f4e4	-0.18941075
27	0x3e3ebe70	0.18627334
28	0xbd99dd08	-0.075128615
29	0xbc9cbfdc	-0.019134454
30	0x3eb9b01c	0.36267173
31	0x3e58f876	0.2118853

head.norm.running_mean f4 [32]
0	0xbf30e3d2	-0.69097626
1	0xbe99461a	-0.29936296
2	0xbf44b352	-0.7683612
3	0x3bd5776c	0.0065144803
4	0xbe972b86	-0.29525393
5	0x3ea18cca	0.31552726
6	0x3c7d5cad	0.01546399
7	0x3f109006	0.5646976
8	0xbcc43524	-0.02395112
9	0x3d220233	0.03955288
10	0x3e45b7d8	0.19308412
11	0x3e55420d	0.20825978
12	0xbe0a57b8	-0.13510025
13	0xbd45847b	-0.048222046
14	0x3eeaecee	0.45883888
15	0x3cff8842	0.031192902
16	0xbf14428f	-0.5791406
17	0x3d6f164f	0.058370885
18	0xbf253673	-0.6453621
19	0x3dcc008e	0.09961043
20	0x3d85b789	0.06529147
21	0xbf3176e8	-0.6932206
22	0x3ee7480c	0.45172155
23	0xbf5a147a	-0.85187495
24	0x3e46dec4	0.19420916
25	0xbf05246f	-0.5200872
26	0xbe40b964	-0.18820721
27	0xbe918c0a	-0.28427154
28	0xbd7a848b	-0.06116156
29	0xbdca0b26	-0.09865408
30	0x3d93a1fb	0.0720863
31	0xbe5dab37	-0.21647345

head.norm.running_var f4 [32]
0	0x3b7a161b	0.0038160149
1	0x3bf52f76	0.0074824644
2	0x3c4b2131	0.01239805
3	0x3ccdb8e4	0.025112577
4	0x3c376eac	0.01119582
5	0x3c1a69c8	0.009424634
6	0x3d217e46	0.039427064
7	0x3c20550c	0.009785902
8	0x3cc50311	0.024049314
9	0x3c58363a	0.013196522
10	0x3cfc0cf2	0.030767892
11	0x3bf91335	0.0076011666
12	0x3c1b9ad9	0.009497368
13	0x3b8e8197	0.0043489444
14	0x3bb38a8c	0.0054791626
15	0x3b66237e	0.003511637
16	0x3c0f0606	0.008729463
17	0x3d473619	0.048635576
18	0x3bcc4135	0.006233359
19	0x3c3b5cd6	0.011435708
20	0x3c0dd1f5	0.008656015
21	0x3c27cd2a	0.010241786
22	0x3e158298	0.14600599
23	0x3ddd5ce3	0.10808732
24	0x3db87085	0.090058364
25	0x3cf0b06e	0.029381003
26	0x3e16477a	0.14675704
27	0x3b721dab	0.0036943953
28	0x3cf32635	0.029681304
29	0x3dafb1cd	0.08578835
30	0x3d376060	0.044769645
31	0x3b8ef30a	0.0043624686

channel.fc1.weight f4 [2, 32, 1, 1]
0	0xbcec5c52	-0.028852616
1	0x3d090b72	0.03345818
2	0x3c979be5	0.018506953
3	0x3cf49dd6	0.029860418
4	0x3d1880a4	0.037232056
5	0x3c860d40	0.01636374
6	0x3d365ace	0.04452019
7	0xbcfb9b82	-0.0307138
8	0x3d484c36	0.048900805
9	0xba713836	-0.00092017965
10	0xbcdeee41	-0.027213218
11	0xbabaff82	-0.0014266821
12	0x3cae14e4	0.021250196
13	0x3c806136	0.015671354
14	0x3cb02542	0.02150214
15	0xbc853779	-0.016261803
16	0xbb8c22ca	-0.004276608
17	0x3d3d680c	0.046241805
18	0x3cd894fb	0.026438227
19	0xbceffed7	-0.029296322
20	0x3c11e41d	0.008904484
21	0xbaafa97f	-0.0013401954
22	0x3df7539d	0.12076495
23	0x3dc17ad5	0.094472565
24	0x3d98bf44	0.07458356
25	0xbdd2acc5	-0.102868594
26	0x3df4e042	0.11956836
27	0xbccdff36	-0.025146108
28	0x3d2888e9	0.041146193
29	0x3d914d3c	0.070948094
30	0x3d42d72d	0.04756849
31	0x3c524a26	0.012835061
32	0x3d50265a	0.050817825
33	0x3d938713	0.07203498
34	0x3da7c068	0.081909955
35	0x3cf0a417	0.02937512
36	0x3d53b0d7	0.05168232
37	0x3d2502da	0.040285923
38	0x3c219fef	0.009864791
39	0xbc9e4ad3	-0.019322788
40	0x3d50efd8	0.051009983
41	0xbbed5b53	-0.0072435527
42	0x3c86c8c7	0.01645316
43	0x3d62bf4a	0.05535821
44	0x3bbd540f	0.005777843
45	0xba97b5d3	-0.0011574574
46	0x3dac6607	0.08417898
47	0x3d00a938	0.03141138
48	0xbc2b32fb	-0.010449166
49	0xbbb2bd24	-0.005454676
50	0x3daf0ba1	0.0854714
51	0xbd6e7503	-0.05821706
52	0x3d7677f7	0.060173
53	0x3b365a34	0.0027824761
54	0x3e0853e5	0.13313253
55	0x3e213fa5	0.15746935
56	0x3e0609d7	0.13089691
57	0xbd861d9a	-0.06548615
58	0x3ce98f27	0.028510643
59	0xbd8205c4	-0.06348756
60	0x3cba1dc4	0.022719271
61	0x3da5ba89	0.080922194
62	0x3d249bfd	0.040187825
63	0x3d0d77a0	0.03453791

channel.fc2.weight f4 [32, 2, 1, 1]
0	0xbcbdf716	-0.023189109
1	0xbd3af216	-0.045641027
2	0xbd98df9f	-0.07464527
3	0xbd611c2f	-0.05495852
4	0xbcabe6d7	-0.020984096
5	0x3ba5c2d6	0.0050586266
6	0x3d11e7f3	0.035621595
7	0x3d6f3a1b	0.058405023
8	0xbdb2d80e	-0.087326154
9	0xbe1341bf	-0.14380549
10	0x3d45d4a6	0.0482985
11	0x3da74608	0.08167654
12	0x3cfb975f	0.030711828
13	0x3cfb4158	0.030670807
14	0x3cf5351a	0.029932547
15	0x3cf5c259	0.029999899
16	0xbca8dc44	-0.020612843
17	0x3b25163d	0.0025190257
18	0x3d1d35d4	0.038381413
19	0x3d1741a1	0.036927823
20	0xbb0996d1	-0.0020994435
21	0x3a96f7af	0.0011517907
22	0xbb86c598	-0.0041129105
23	0xbc0b3da8	-0.008498587
24	0x3d1adf46	0.037810586
25	0x3c8da89a	0.01729231
26	0xbca3af52	-0.01998106
27	0xbcdfa401	-0.027299883
28	0xbd871d75	-0.06597415
29	0xbd76dc2d	-0.06026857
30	0x3dc8917b	0.09793373
31	0x3d5e1508	0.054219276
32	0x3ad2ec74	0.0016092197
33	0x3ce73578	0.028223738
34	0x3d58e653	0.05295403
35	0x3c6c06ab	0.014405887
36	0xba4bf8c5	-0.0007780905
37	0xbd1b0db3	-0.03785486
38	0xbd6c9ca6	-0.05776658
39	0xbdb8a851	-0.09016479
40	0xbc8ab9be	-0.016934272
41	0xbd911d59	-0.07085676
42	0xbb8646a9	-0.004097779
43	0x3d09275e	0.03348481
44	0xbc8b7343	-0.017022735
45	0xbc8e6509	-0.017382162
46	0x3b5af77a	0.0033411668
47	0x3d2e5c99	0.042568777
48	0x3d358c8e	0.044323497
49	0x3d9f1882	0.07768346
50	0x3cf71b9b	0.03016453
51	0x3cbfcef8	0.02341412
52	0x3dd0b3e4	0.101905614
53	0x3e1724ee	0.14760181
54	0xbe2b0d21	-0.16704227
55	0xbe159151	-0.14606215
56	0x3cd8952e	0.026438322
57	0x3d448db4	0.0479867
58	0xbccd439c	-0.025056653
59	0xbccc7a8c	-0.024960779
60	0xbc19f7f4	-0.009397496
61	0x3d70e37b	0.058810692
62	0x3cd9189a	0.026500989
63	0xbc934a85	-0.01797987

body.block1.conv.weight f4 [32, 32, 3, 3]
0	0xbc5fc6e1	-0.013658256
1	0xbd601189	-0.054704223
2	0xbd820839	-0.063492246
3	0x3d54a43d	0.051914442
4	0xbb20622b	-0.0024472575
5	0xbd57e317	-0.052706804
6	0x3d6cfac4	0.057856336
7	0xbc74435b	-0.014908637
8	0xbdf43d8a	-0.119258
9	0xbd10b8c6	-0.035332464
10	0xbd9fb708	-0.07798582
11	0xbcccb8bf	-0.024990438
12	0x3d288c54	0.041149452
13	0xbd29cff6	-0.041458093
14	0xbc46acd5	-0.012126167
15	0x3e06ddad	0.131705
16	0x3cfc2464	0.030779071
17	0x3e18132e	0.14851066
18	0x3d4bf63b	0.04979537
19	0x3cb2d512	0.021830115
20	0x3b66e487	0.0035231428
21	0x3d1ab4ce	0.037770085
22	0x3d3023d4	0.04300292
23	0xbcccf222	-0.025017802
24	0x3d8ada24	0.06779888
25	0xbca879c0	-0.020565867
26	0xbdac5125	-0.084139146
27	0x3d84d5b7	0.06486075
28	0x3d82e86c	0.06391987
29	0x3d913ae9	0.07091314
30	0xbd297948	-0.04137543
31	0xbd1d8010	-0.038452208
32	0xbdb2d003	-0.08731081
33	0xbd998dd5	-0.074977554
34	0xbe0a46cf	-0.13503574
35	0xbd8ba841	-0.06819201
36	0x3cadee8e	0.021231916
37	0x3d6267c5	0.055274744
38	0xbd2dc539	-0.042424414
39	0x3b977ebb	0.0046232617
40	0xbcc6b532	-0.024256323
41	0xbdc4cdeb	-0.09609588
42	0x3ca02522	0.019548956
43	0xbd8c25ba	-0.06843133
44	0xbd0e40e5	-0.034729857
45	0x3de0d2f4	0.10977736
46	0xbd540df4	-0.05177112
47	0xbddad5c9	-0.106853075
48	0x3c4043ee	0.011734946
49	0xbdb655b5	-0.08903066
50	0xbda5db65	-0.08098487
51	0x3c343958	0.011
52	0x3c050e5c	0.008121099
53	0xbd887d02	-0.06664468
54	0xbd99f32a	-0.07517083
55	0xbc4b27f8	-0.012399666
56	0xbc30a482	-0.010781409
57	0x3d2159b6	0.039392196
58	0x3b86cc4d	0.00411371
59	0x3acb7323	0.0015521984
60	0xbd26ceea	-0.040724672
61	0xbcbd6d5c	-0.023123436
62	0xbd63ac57	-0.055584278
63	0xbc3fc60e	-0.011704935
64	0x3cdb51fe	0.026772495
65	0x3b9e5c46	0.004832777
66	0xbcdc9d04	-0.02693034
67	0xbd5b83fb	-0.053592663
68	0xbd63fb71	-0.055659715
69	0xbcb8429f	-0.022492705
70	0xbd3fb078	-0.046799153
71	0xbe1a54ae	-0.15071365
72	0xbdae5e76	-0.08514111
73	0xbda7d699	-0.08195228
74	0xbd5af1b3	-0.05345316
75	0xbd459836	-0.048240863
76	0xbc203c02	-0.009779932
77	0x3b4a1466	0.0030834912
78	0xbd8935ec	-0.06699738
79	0xbc6c69cb	-0.01442952
80	0x3cea3ef7	0.028594477
81	0x3a84c0a0	0.0010128208
82	0xbbcb9dac	-0.0062138643
83	0x3d5355a8	0.05159536
84	0xbd7e2ddd	-0.062055457
85	0xbd39c067	-0.045349505
86	0x3b271f4b	0.002550083
87	0xbda09579	-0.0784101
88	0xbddfd58c	-0.10929403
89	0xbd91ab98	-0.07112807
90	0x3d2643bd	0.040591944
91	0x3d34688a	0.04404501
92	0xba63020e	-0.0008659669
93	0x3d5564d1	0.0520981
94	0x3cd201d9	0.025635647
95	0x3c9d885e	0.019230064
96	0x3d398a2c	0.045297787
97	0xbc80b314	-0.015710391
98	0x3b827655	0.0039813914
99	0x3b2a2119	0.002595967
100	0xbdca02ee	-0.0986384
101	0xbe5247e7	-0.20535241
102	0x3c6ce094	0.0144578405
103	0xbbab8160	-0.0052339286
104	0x3c132eee	0.008983357
105	0xbcbb50d4	-0.02286569
106	0x3d714fc1	0.05891395
107	0x3ce3c983	0.02780605
108	0x3c45ef0e	0.012080921
109	0xbbb4609d	-0.0055046813
110	0x3c21e289	0.00988067
111	0xbc7877dd	-0.015165296
112	0xbd0bc113	-0.034119677
113	0x3c98747f	0.018610237
114	0xbd090613	-0.03345306
115	0xbcb7eebe	-0.022452708
116	0xbce8e62c	-0.028430067
117	0xbda4852b	-0.08033212
118	0x3d35af14	0.04435642
119	0xbdfb554f	-0.12272131
120	0xbd3edbf9	-0.0465965
121	0x3bf3422c	0.00742366
122	0xbe08665a	-0.13320294
123	0xbd9df2ca	-0.07712324
124	0x3d480dcb	0.04884128
125	0xb8971fef	-7.206189e-05
126	0xbd070cc2	-0.03297115
127	0xbbd9ed16	-0.0066505773
128	0xbdcbdca9	-0.09954197
129	0x3cd89daa	0.026442368
130	0x3d0d87bb	0.03455327
131	0xbd4a7cac	-0.049435303
132	0x3ced5eca	0.028975863
133	0x3da3c32b	0.0799621
134	0xbbed16cb	-0.007235383
135	0xbcffc723	-0.031222885
136	0xbcffdb60	-0.031232536
137	0xbc1d8981	-0.009615303
138	0x3d40eac2	0.047098882
139	0xbd243ed0	-0.040098965
140	0xbd4bc0de	-0.04974448
141	0x3e1eb4ba	0.15498629
142	0xbcb7566b	-0.022380074
143	0x3e047425	0.1293493
144	0x3d873ffb	0.06604
145	0x3d13d4bd	0.036091555
146	0xbdc9ea64	-0.098591596
147	0xbdcfb345	-0.10141615
148	0x3d2c741c	0.042102918
149	0xbd0dcf65	-0.034621615
150	0xbdcfb507	-0.1014195
151	0x3a6e35cc	0.0009086996
152	0xbdc695fb	-0.09696575
153	0x3c1cc1e6	0.009567713
154	0xbd199eab	-0.037504833
155	0xbd273248	-0.040819436
156	0xbccc090c	-0.024906658
157	0xbc292504	-0.010323767
158	0x3c059d4b	0.008155177
159	0xbdba42d7	-0.0909478
160	0xbd44a5a7	-0.04800954
161	0xbcf2bd69	-0.029631333
162	0x3d80c13f	0.06286859
163	0x3d217765	0.039420504
164	0xbd21934c	-0.039447114
165	0x3c345448	0.011006422
166	0xbd08e666	-0.03342285
167	0xbdfde658	-0.1239745
168	0xbcff7dcd	-0.031187916
169	0xbd3c556b	-0.0459799
170	0xbc238eb1	-0.009982751
171	0xbc59a4d6	-0.013283929
172	0xbd95d07f	-0.07315158
173	0xbc9a700e	-0.01885226
174	0x3dd114c1	0.102090366
175	0xbd1c2cb4	-0.03812857
176	0xbe0f19e0	-0.13974714
177	0xbb883a48	-0.0041573383
178	0xbd6387f8	-0.05554959
179	0xbdc3e5dc	-0.095653266
180	0xbc948e25	-0.018134186
181	0xbd99ba55	-0.07506243
182	0xbd004847	-0.03131893
183	0xbc9c4530	-0.01907596
184	0xbd8c9f07	-0.068662696
185	0xbcb283d7	-0.021791382
186	0x3cc1f2f1	0.023675414
187	0xbc67d32b	-0.014149467
188	0x3cb09ed5	0.021560112
189	0x3d44f839	0.048088286
190	0x3c9e19b6	0.01929937
191	0x3dd8351d	0.105570056
192	0x3c975f76	0.018478137
193	0xbd327de0	-0.043577075
194	0x3b438815	0.002983575
195	0xbc50fc0c	-0.012755405
196	0xbd1d3e5b	-0.038389545
197	0x3bd1a8bf	0.00639829
198	0xbcb6a621	-0.022296013
199	0x3b02422f	0.0019875874
200	0x3ca40f6d	0.020026887
201	0xbcd9069a	-0.026492406
202	0xbbb1005a	-0.0054016532
203	0x3d797977	0.060906854
204	0xbc76568d	-0.015035284
205	0xbbd0b1e4	-0.0063688625
206	0x3b9b85d8	0.00474618
207	0x3d506567	0.050877955
208	0x3ddbc3bd	0.107306935
209	0x3dac5115	0.08413903
210	0x3cbe16d2	0.023204241
211	0x3c3b9fc0	0.011451662
212	0xbc70e5a5	-0.014703189
213	0x3cd8842e	0.026430216
214	0x3c953e17	0.018218083
215	0xbd018300	-0.031619072
216	0xbd58c9ec	-0.052926943
217	0xbcf9c37c	-0.030488722
218	0xba902476	-0.0010997194
219	0xbd78d5b3	-0.060750674
220	0x3bd3e807	0.006466869
221	0xbb64ffc2	-0.0034942483
222	0xbcafb7d3	-0.021449959
223	0xbb016e5c	-0.0019749617
224	0x3c73e155	0.014885266
225	0xbcbc55c0	-0.022990108
226	0xbba75efd	-0.005107759
227	0x3b884457	0.0041585374
228	0xbcf9bd24	-0.030485697
229	0xbce946d9	-0.028476166
230	0xbdb52448	-0.08844811
231	0xbd3a837c	-0.04553555
232	0xbd568f77	-0.052382912
233	0xbd0239fd	-0.031793583
234	0x3cfc4e9b	0.0307992
235	0xbc73a484	-0.014870767
236	0x3daa525c	0.0831649
237	0xbd32c5f0	-0.0436458
238	0xbce2e166	-0.027695369
239	0x3b9b795a	0.004744691
240	0xb9fd1066	-0.00048268138
241	0xbd4bb13e	-0.04972958
242	0xbd0ab57f	-0.033864494
243	0x3db56c5f	0.08858561
244	0x3ce1372c	0.027492128
245	0x3c342d19	0.01099708
246	0xbbd93eba	-0.006629792
247	0xbcc035fa	-0.023463238
248	0xbc4010f9	-0.011722797
249	0xbb6831ab	-0.0035429995
250	0xbce1f1af	-0.027581064
251	0xbdc29778	-0.095015466
252	0x3d9b9bc0	0.07598066
253	0x3dcb3810	0.099228024
254	0xbca83775	-0.020534256
255	0xbc10d606	-0.00884009

body.block1.conv.bias f4 [32]
0	0xbbfeac98	-0.0077720396
1	0x3c64307b	0.013927574
2	0xbd9332ad	-0.071874
3	0x3da8f412	0.08249678
4	0x3c9aaf84	0.01888252
5	0x3db958fb	0.09050175
6	0x3e497914	0.19675094
7	0x3cd2dafe	0.02573919
8	0x3dab87f5	0.08375541
9	0xbceef372	-0.029168818
10	0xbc326809	-0.010889062
11	0x3d68839c	0.056766137
12	0xbd896c7f	-0.06710147
13	0xbd7740fd	-0.060364712
14	0xbb9c216a	-0.0047647255
15	0xbddc46d3	-0.10755696
16	0x3d9a7df2	0.075435534
17	0x3d8ca251	0.06866897
18	0x3d8a5a20	0.06755471
19	0x3bef8cf7	0.0073105055
20	0xbaf6a641	-0.0018817858
21	0x3d640841	0.055671934
22	0x3d70f9d5	0.05883201
23	0x3da35317	0.079748325
24	0xbd49d703	-0.049277317
25	0x3cb71790	0.022350103
26	0xbbd381d6	-0.0064546866
27	0xbceda843	-0.029010898
28	0x3d66f00c	0.05638127
29	0x3dcc8fc4	0.099883586
30	0x3d6c9b71	0.057765428
31	0xbd025419	-0.031818483

body.block1.norm.weight f4 [32]
0	0x3f72e9e3	0.9488813
1	0x3f64ae83	0.89328784
2	0x3f70e5dc	0.9410074
3	0x3f730fef	0.9494619
4	0x3f56aec6	0.83860433
5	0x3f7583aa	0.9590403
6	0x3f6ec70b	0.93272465
7	0x3f6e29b2	0.9303237
8	0x3f84ae3e	1.0365674
9	0x3f84e4c7	1.0382317
10	0x3f1d3955	0.61415607
11	0x3f6e3640	0.9305153
12	0x3f8222e3	1.0166897
13	0x3f5fa478	0.87360334
14	0x3f743cac	0.9540508
15	0x3f86428d	1.048906
16	0x3f42b94d	0.76063997
17	0x3f2fec48	0.6871991
18	0x3f77a3ef	0.9673452
19	0x3f891a4b	1.0711149
20	0x3f6e674d	0.93126374
21	0x3f4ee95a	0.80824816
22	0x3f6e9500	0.93196106
23	0x3f67f626	0.9060997
24	0x3f7a8c3c	0.9787023
25	0x3f5f013f	0.87111276
26	0x3f6f8a4a	0.9357039
27	0x3f827337	1.0191411
28	0x3f712dca	0.94210494
29	0x3f7bcb5b	0.9835717
30	0x3f31f60e	0.69516075
31	0x3f728955	0.947408

body.block1.norm.bias f4 [32]
0	0x3f48ca8f	0.7843408
1	0x3f204943	0.6261179
2	0x3e85b0c7	0.26111433
3	0x3eb3909d	0.3507127
4	0x3f37580b	0.7161872
5	0x3ef1122f	0.47084185
6	0x3f4e6ad9	0.80631787
7	0x3da45729	0.08024437
8	0x3e6176dc	0.22017998
9	0xbe0c4338	-0.13697517
10	0x3f876ff9	1.0581046
11	0x3f2c8f67	0.67406315
12	0x3dde72b3	0.10861721
13	0x3eeaeb6f	0.45882747
14	0x3eff9bbb	0.499235
15	0x3df0d75d	0.11759827
16	0x3f969e14	1.1766992
17	0x3f98ab7e	1.1927335
18	0x3e51e114	0.20496017
19	0xbd3fe785	-0.046851654
20	0x3e9d4ad7	0.3072116
21	0x3f140354	0.5781758
22	0x3eeebb23	0.4662715
23	0x3f1937e9	0.5985094
24	0x3f4ae70d	0.79258806
25	0x3f88b174	1.0679154
26	0x3eb47e2b	0.3525251
27	0x3d4cdfe2	0.0500182
28	0x3eeb669a	0.45976716
29	0x3ec84727	0.39116785
30	0x3f86cad5	1.053065
31	0x3eacc95e	0.3374738

body.block1.norm.running_mean f4 [32]
0	0xbf5861be	-0.8452414
1	0xbfc711d8	-1.555232
2	0xbdbfc4d6	-0.09363715
3	0x3fc1ecdc	1.5150409
4	0xbfc1008c	-1.5078292
5	0xbe9e8f75	-0.30968824
6	0xbf2e1ba4	-0.68010926
7	0xbf19a141	-0.6001168
8	0x3ea23026	0.3167736
9	0x3df7b03c	0.12094161
10	0xbfddb853	-1.7321876
11	0x3f58e05b	0.8471734
12	0xbeae7746	-0.34075373
13	0xbe0efe48	-0.13964188
14	0xbfa76681	-1.3078157
15	0xbf72c8eb	-0.94837826
16	0x3d419bf2	0.04726786
17	0xbf84d478	-1.037734
18	0xc00dc391	-2.2150614
19	0x3f278573	0.65438
20	0x3ed5386d	0.41644612
21	0xbf8c6fd7	-1.0971631
22	0xbe675180	-0.22589684
23	0x3f402dc8	0.75069857
24	0x3f054e7c	0.5207288
25	0xc006507e	-2.0986629
26	0xbdd6aa5e	-0.10481714
27	0x3c053ef9	0.00813269
28	0xbe975eb2	-0.29564434
29	0x3e1d7e56	0.15380225
30	0xbf1e70a9	-0.61890656
31	0xbfaced77	-1.3509969

body.block1.norm.running_var f4 [32]
0	0x3e2d815f	0.16943882
1	0x3e1078c8	0.14108574
2	0x3e33d616	0.17562136
3	0x3d7d9699	0.0619112
4	0x3df27b23	0.11839893
5	0x3e810f10	0.25206804
6	0x3d78a325	0.06070246
7	0x3dbd13f7	0.092323236
8	0x3e31f396	0.17378077
9	0x3dedcf37	0.11611789
10	0x3dc2a485	0.09504036
11	0x3e90f60c	0.2831272
12	0x3db314c4	0.08744195
13	0x3dcc7c83	0.09984686
14	0x3e6336c9	0.22188868
15	0x3da01784	0.07816985
16	0x3d074c39	0.033031676
17	0x3db22527	0.086984925
18	0x3e1e1b73	0.15440159
19	0x3eb57257	0.35438797
20	0x3de8aa9f	0.113606684
21	0x3e85c02f	0.26123187
22	0x3df64269	0.120243855
23	0x3e34ba05	0.17649086
24	0x3e9836b5	0.29729238
25	0x3d8850a2	0.066560045
26	0x3e1e75bb	0.15474598
27	0x3dc28ac0	0.09499121
28	0x3e2a1278	0.16608608
29	0x3e729607	0.23690043
30	0x3e6181a0	0.22022104
31	0x3d8edd2d	0.0697578

body.block2.conv.weight f4 [32, 32, 3, 3]
0	0x3d2c2c26	0.04203429
1	0xbcb77b3c	-0.02239763
2	0x3c4a9040	0.012363493
3	0xbcb1a6d1	-0.02168599
4	0xbd6af3ff	-0.0573616
5	0xbb148b04	-0.0022665868
6	0xbdb4b3b8	-0.08823341
7	0xbdc0ffa2	-0.09423758
8	0xbd3dbd64	-0.046323195
9	0xbbf2b3d0	-0.007406689
10	0xbd4d439f	-0.050113317
11	0xbd2f6510	-0.04282099
12	0x3bb2ce16	0.0054566963
13	0xbbea3195	-0.007147024
14	0xbd90365f	-0.070416205
15	0x3b8a8ba2	0.0042280713
16	0xbce95f43	-0.028487807
17	0xbd8786f7	-0.066175394
18	0xbd3d60b7	-0.046234813
19	0x3ca103cd	0.019655133
20	0xbd0fb469	-0.035084162
21	0xbdbf8990	-0.0935241
22	0xbd091484	-0.03346683
23	0xbd6ec645	-0.058294553
24	0xbd153ed7	-0.036436882
25	0xbca038b9	-0.019558297
26	0x3c6ee8da	0.014581883
27	0xbd19f2f2	-0.037585206
28	0x3b99fe69	0.0046995175
29	0x3d665c00	0.05624008
30	0xbdd6aa23	-0.1048167
31	0xbdd94e6e	-0.106106624
32	0xbd6e284f	-0.05814391
33	0x3c02619d	0.007957843
34	0x3ccdc589	0.025118606
35	0x3cfdbb43	0.030973082
36	0x3c833d71	0.016020508
37	0x3cd678a6	0.026180577
38	0xbd10939e	-0.03529703
39	0x3d4c0fbd	0.049819697
40	0x3cb759b5	0.022381643
41	0xbb243bb2	-0.0025059995
42	0xbd303635	-0.043020446
43	0xbd082ef8	-0.033247918
44	0xbcd7b825	-0.026332924
45	0xbd257111	-0.04039103
46	0x3cec8214	0.02887062
47	0x3d831e16	0.06402223
48	0xbcbc16b6	-0.022960048
49	0x3c814ddb	0.015784195
50	0x3d9805f2	0.07423009
51	0xbc56847a	-0.013093108
52	0x3c081041	0.0083046565
53	0x3d1aa847	0.037758138
54	0x3d339d36	0.0438511
55	0x3d26ca96	0.040720545
56	0x3d5108c4	0.05103375
57	0xbc900711	-0.017581495
58	0x3c5afb77	0.013365618
59	0x3cfbe8d3	0.030750668
60	0xbd26ca9d	-0.04072057
61	0xbcc97237	-0.024590595
62	0x3b8b4811	0.0042505343
63	0x3d9c6a0e	0.07637416
64	0x3cb2c16a	0.021820743
65	0x3d5de071	0.054169122
66	0x3cdd2ca1	0.02699882
67	0x3c41811c	0.011810567
68	0x3ca3ff84	0.0200193
69	0x3ae38757	0.001735906
70	0xbc4f6bd8	-0.012659989
71	0x3d7d68f3	0.061867665
72	0xbcc87a1e	-0.024472293
73	0x3d04abc7	0.032390382
74	0x3b578779	0.0032887144
75	0x3cbc08be	0.022953387
76	0x3d7a957a	0.06117771
77	0x3d791211	0.060808245
78	0x3cf40361	0.029786767
79	0xbb5a2222	-0.0033284505
80	0xbd5a13f0	-0.05324167
81	0x3c67462d	0.014115852
82	0xbba89e74	-0.005145842
83	0x3d2135ac	0.039357826
84	0xbd0cccea	-0.03437511
85	0xbbdf04c1	-0.0068059866
86	0x3ca505ef	0.02014443
87	0xbdafda55	-0.085865654
88	0xbd8c846d	-0.06861196
89	0xbd8e37d6	-0.069442436
90	0x3c638735	0.013887216
91	0x3d9a4613	0.07532897
92	0x3cba0a55	0.022710005
93	0xbb98d282	-0.0046637664
94	0xbc1eefaf	-0.0097007
95	0xbca636f3	-0.020289874
96	0xbcbe15be	-0.023203727
97	0xbd02fc44	-0.03197886
98	0xbdafe6e6	-0.08588962
99	0xbd4d7a6a	-0.05016557
100	0xbceacfe3	-0.028663581
101	0xbce84874	-0.02835486
102	0xbdabc008	-0.083862364
103	0xbd868d76	-0.0656995
104	0xbd39641a	-0.04526148
105	0x3cce9c80	0.02522111
106	0xbce253fe	-0.027627941
107	0x3c1fd96b	0.009756426
108	0xbdc72ac3	-0.09724953
109	0xbcd23dab	-0.025664171
110	0x3cb7eb53	0.022451079
111	0x3c5eb64b	0.013593267
112	0x3cf255f4	0.029582001
113	0x3ccfdf39	0.025374996
114	0x3c3d533f	0.011555492
115	0x3d8234fb	0.063577615
116	0x3da6b799	0.08140487
117	0x3cbbf3d5	0.022943417
118	0x3d1a4eed	0.037672926
119	0x3d9b09d6	0.075702354
120	0xbd7c8f2a	-0.06165997
121	0xbd581a37	-0.052759375
122	0x3c8a983b	0.016918292
123	0xbda6ae01	-0.08138657
124	0xbd4e7bc9	-0.05041102
125	0xbcae8019	-0.021301316
126	0x3d536b24	0.05161585
127	0xbb5a6bdb	-0.0033328447
128	0xbd9994f2	-0.07499112
129	0x3dea2fcc	0.11434898
130	0x3d4e1f1b	0.050322633
131	0x3ca5871c	0.020206027
132	0x3d795ee9	0.06088153
133	0x3d7de9b5	0.06199046
134	0xbd37554b	-0.044759076
135	0xbdd9dcfb	-0.10637852
136	0xbd8d3ee4	-0.06896761
137	0xbd720a0d	-0.059091616
138	0x3c4be007	0.012443549
139	0x3d0ac331	0.033877555
140	0x3b029020	0.001992233
141	0xbd98facd	-0.074697115
142	0xbda07b7b	-0.07836052
143	0xbda2beb1	-0.07946528
144	0x3d851c71	0.064995654
145	0x3d8e812f	0.069582336
146	0x3d7406fd	0.059576977
147	0xbc341443	-0.010991159
148	0xbbbf7020	-0.0058422238
149	0x3c283988	0.010267623
150	0x3d118d57	0.035535183
151	0x3d0a2ee2	0.033736117
152	0x3c1883bf	0.0093087545
153	0x3c267f63	0.010162207
154	0xbcda5cc0	-0.026655555
155	0xbbf4f8e1	-0.0074759577
156	0x3d1f8b82	0.038951404
157	0x3cd97dae	0.026549187
158	0xbcb737ff	-0.022365568
159	0x3dc305e2	0.095226064
160	0x3d61c6bb	0.055121165
161	0xbc6ae56a	-0.014336923
162	0xbda10d7e	-0.078639016
163	0xbcb53c65	-0.022123525
164	0xbd971c85	-0.073784865
165	0x37a28c4a	1.9377232e-05
166	0xbcb9e8fc	-0.022694103
167	0xbcdcdbce	-0.02696028
168	0x3b350a1e	0.0027624439
169	0xb9c6572c	-0.0003783045
170	0xbc9e8334	-0.019349672
171	0xbc3d839b	-0.011567022
172	0xbb988edd	-0.0046557025
173	0x3bea2097	0.0071449983
174	0x3d5865bd	0.0528314
175	0xba0c28a9	-0.0005346635
176	0x3d45321b	0.048143487
177	0xbd3f19a4	-0.046655312
178	0xbd81b5f2	-0.063335314
179	0xbd07c088	-0.033142596
180	0xbd6645c2	-0.05621887
181	0xbcb051ff	-0.021523474
182	0xbc46bf08	-0.012130506
183	0xbd3dfc0c	-0.04638295
184	0xbc88fc34	-0.016721822
185	0xbd14b97f	-0.036309715
186	0xbc1f9182	-0.009739282
187	0x3c001903	0.007818463
188	0x3d182ea0	0.03715384
189	0xbcffebce	-0.03124037
190	0xbce47500	-0.027887821
191	0xbcdddc11	-0.027082475
192	0x3db5c95c	0.08876297
193	0x3d35de3a	0.044401385
194	0x3c90d86e	0.017681327
195	0x3c2735b3	0.010205674
196	0x3b57c77e	0.0032925303
197	0xbd780b28	-0.060557514
198	0xbc2c556b	-0.010518412
199	0xbd049dae	-0.032376938
200	0x3d2f296e	0.04276412
201	0x3d78b115	0.060715754
202	0x3d91cc25	0.071190156
203	0x3dcc0453	0.09961762
204	0x3dba8786	0.0910788
205	0x3ddfa3dd	0.10919926
206	0x3ca0a2e5	0.019608924
207	0x3c99c51a	0.018770743
208	0xbb4a2e39	-0.0030850305
209	0xbbdc4234	-0.006721759
210	0xbcbfd217	-0.023415608
211	0xbcd12104	-0.025528438
212	0x3c4b76d0	0.012418464
213	0xbd7e3e94	-0.062071398
214	0x3b853c6f	0.004066042
215	0xbcefa33c	-0.02925264
216	0x3c95e45a	0.018297363
217	0x3d067f4f	0.032836255
218	0x3d6a89e5	0.057260413
219	0xbd47fc71	-0.04882473
220	0x3c385050	0.011249617
221	0x3d6e07d9	0.058112953
222	0xbd8c7554	-0.06858316
223	0xbcb567c7	-0.022144211
224	0x3d758c14	0.059948042
225	0xbd803e1f	-0.06261849
226	0xbd7a8f57	-0.061171856
227	0xbda90b0f	-0.082540624
228	0xbd52ec99	-0.05149517
229	0xbccaeff7	-0.024772627
230	0xbdb9116f	-0.09036528
231	0xbd8ec06d	-0.06970296
232	0xbd45e3e9	-0.048313055
233	0xbda0083d	-0.07814071
234	0xbc3be05a	-0.011467064
235	0x3b685f17	0.0035457069
236	0x3ca60fca	0.0202712
237	0xbd19842d	-0.03747957
238	0xbd5640b3	-0.052307796
239	0xbd348cd4	-0.044079617
240	0x3cf79163	0.030220693
241	0x3d22f6d6	0.039786182
242	0x3c71c027	0.014755285
243	0x3cfebccc	0.031095885
244	0x3cb50e9c	0.022101693
245	0xbc9e8721	-0.019351544
246	0x3c870b9b	0.016485026
247	0x3b3fb95a	0.0029254765
248	0xbbff7393	-0.00779576
249	0x3d3edb13	0.046595644
250	0x3d18b248	0.037279397
251	0x3cf217c1	0.029552342
252	0x3dedc31e	0.11609481
253	0x3da9005d	0.082520224
254	0x3d7d0c63	0.06177939
255	0x3e3b8ad3	0.18314676

body.block2.conv.bias f4 [32]
0	0xbca1f7e6	-0.019771527
1	0x3cafdb42	0.021466855
2	0xbdd2fe39	-0.103023954
3	0xbcb06e66	-0.021537017
4	0xbcb32543	-0.021868354
5	0xbd0ba1eb	-0.034089964
6	0xbd6c2111	-0.057648722
7	0xbcd01a46	-0.025403153
8	0x3cfeb968	0.031094268
9	0xbbd97cf4	-0.00663721
10	0xbd6b689b	-0.057472806
11	0x3c18d1fe	0.00932741
12	0x3c6b7f9e	0.014373688
13	0xbda87ecc	-0.082273096
14	0xbc835cb0	-0.016035408
15	0xbd9369c2	-0.07197906
16	0xbcee19ba	-0.029065002
17	0xbd74003b	-0.059570532
18	0xbd5b6b32	-0.053569026
19	0x3b872dca	0.0041253315
20	0x3d158a2d	0.036508728
21	0xbd5b8dac	-0.053601906
22	0xbca0864c	-0.019595288
23	0xbd71def5	-0.05905052
24	0x3d55bec8	0.052183896
25	0xbd759785	-0.059958953
26	0xbd095b12	-0.033534117
27	0xbd5bb287	-0.053637054
28	0xbdbdfd3e	-0.09276818
29	0xbc001162	-0.007816644
30	0xbb90f695	-0.004423926
31	0xbe0027f8	-0.12515247

body.block2.norm.weight f4 [32]
0	0x3f46bda8	0.7763314
1	0x3f539b30	0.8265867
2	0x3f6886cd	0.9083069
3	0x3f5db46d	0.8660343
4	0x3f45cc58	0.7726493
5	0x3f66e6de	0.90196025
6	0x3f3e948b	0.7444541
7	0x3f7c9497	0.9866423
8	0x3f6847b9	0.9073444
9	0x3f69fd87	0.9140248
10	0x3f6b4a5e	0.9191035
11	0x3f743dbc	0.954067
12	0x3f56070b	0.83604497
13	0x3f54629e	0.8296298
14	0x3f849011	1.0356466
15	0x3f82983b	1.0202707
16	0x3f4de0ee	0.8042134
17	0x3f78fe61	0.9726315
18	0x3f2e9197	0.681909
19	0x3f67175f	0.90270036
20	0x3f65b230	0.8972502
21	0x3f7dad11	0.99092203
22	0x3f60e2af	0.8784589
23	0x3f7bbe21	0.9833699
24	0x3f876ae1	1.0579492
25	0x3f80cd0d	1.0062577
26	0x3f72af88	0.9479909
27	0x3f6d4e5d	0.926977
28	0x3f68b842	0.90906155
29	0x3f74fb72	0.95696175
30	0x3f742f2a	0.95384467
31	0x3f81c7d8	1.0139112

body.block2.norm.bias f4 [32]
0	0x3f27ce87	0.6554951
1	0x3fbaec4c	1.4603362
2	0xbd05c73d	-0.03266071
3	0x3f4fc5a9	0.8116098
4	0x3f33fd5b	0.70308465
5	0x3f4b0ac3	0.79313296
6	0x3f55ba07	0.8348698
7	0x3ea4c008	0.32177758
8	0x3ea5aac2	0.3235684
9	0x3f26c1a9	0.6513925
10	0x3f15d811	0.58532816
11	0x3ec496c6	0.3839628
12	0x3f703171	0.9382544
13	0x3f81c670	1.0138683
14	0x3e6f3c04	0.23362738
15	0x3d8f2f93	0.06991496
16	0x3f5d609a	0.8647553
17	0x3f05249e	0.52009
18	0x3f51e8dd	0.81995946
19	0x3f07edf9	0.5309749
20	0x3eb6d205	0.35707107
21	0x3e2658df	0.16244839
22	0x3ef36bc8	0.47543168
23	0xbe314ff1	-0.17315651
24	0x3ea5ffde	0.32421774
25	0x3ee16c12	0.44027764
26	0x3cf8ad1e	0.030355986
27	0x3eff8ed7	0.49913666
28	0x3f1e25f7	0.6177668
29	0x3e71b32e	0.23603508
30	0x3f903b2c	1.1268058
31	0x3ebd71a8	0.37000775

body.block2.norm.running_mean f4 [32]
0	0x3f41acc3	0.7565424
1	0x3e36ef80	0.178648
2	0x3f1644ee	0.5869893
3	0xbfd7a832	-1.6848204
4	0xbf3de9a8	-0.74184656
5	0xc025a3b7	-2.5881174
6	0x4001f4fc	2.0305777
7	0x3f6cb93f	0.92470163
8	0xbe2c9ac2	-0.1685591
9	0xc01c0d41	-2.438309
10	0xbf3af440	-0.73028946
11	0x40206df3	2.5067108
12	0x3e5a53c8	0.21321023
13	0x3f284248	0.6572614
14	0xbea4698d	-0.3211178
15	0xbfa57ca7	-1.2928666
16	0xbfcc83e1	-1.5977746
17	0xc0035c90	-2.0525246
18	0x3f1d5833	0.61462706
19	0xbf441271	-0.7659064
20	0xbe2c08df	-0.16800259
21	0x3f168397	0.5879454
22	0x3ddfc0f9	0.109254785
23	0xbf920424	-1.1407514
24	0x3f43e14d	0.76515657
25	0xbf14761f	-0.5799274
26	0xbfe88f21	-1.816868
27	0x3f246217	0.64212173
28	0xbe84cf9e	-0.2593965
29	0xbfb503ab	-1.4141744
30	0x3e200289	0.15625967
31	0xbf866cc6	-1.0501945

body.block2.norm.running_var f4 [32]
0	0x3f587fc1	0.84569937
1	0x3fd97672	1.6989272
2	0x3f529c2a	0.8226954
3	0x3f6a1091	0.9143153
4	0x3fa57274	1.2925553
5	0x4034e156	2.8262534
6	0x3f86a35a	1.0518601
7	0x3f97a9cd	1.1848694
8	0x3f3a9f55	0.7289937
9	0x3fb20781	1.390854
10	0x3f494c9b	0.78632516
11	0x3feafcb7	1.8358372
12	0x3f3e7cf0	0.7440939
13	0x3fae98fa	1.3640435
14	0x3f1dfb76	0.61711824
15	0x3f035983	0.5130846
16	0x3fe66258	1.7998762
17	0x400b36a2	2.1752095
18	0x3f7bd265	0.9836791
19	0x3f17c49c	0.5928438
20	0x3f409bcd	0.75237733
21	0x3fa2ec5c	1.2728381
22	0x3f0688b9	0.5255237
23	0x3f010323	0.5039541
24	0x3f144b23	0.5792715
25	0x400a0c96	2.1570182
26	0x3f098891	0.5372401
27	0x3fed72ff	1.8550719
28	0x3fc0f354	1.5074258
29	0x3f4340b1	0.76270586
30	0x3fb1ee83	1.3900913
31	0x3fa89bca	1.3172543

body.block3.conv.weight f4 [32, 32, 3, 3]
0	0x3c35a70f	0.011087193
1	0x3d241fae	0.040069275
2	0x3b098b3c	0.0020987531
3	0xbc915411	-0.017740281
4	0xbc2ff119	-0.0107386345
5	0xbc9aff79	-0.018920647
6	0xbb49eabe	-0.0030810083
7	0xbc22ae79	-0.009929293
8	0x3c01096f	0.007875784
9	0xbc36d304	-0.0111587085
10	0x3c515210	0.012775913
11	0x3d97f3d5	0.07419554
12	0x3b0493a2	0.0020229598
13	0x3cab83a5	0.020936796
14	0x3d385f41	0.045012716
15	0xbc861476	-0.016367178
16	0x3b3fae84	0.0029248307
17	0x3d9fb65a	0.07798453
18	0xbd512e07	-0.051069286
19	0xbd6a9dcb	-0.05727939
20	0xbd9d438a	-0.07678898
21	0x3c6458fb	0.01393723
22	0xbc369f24	-0.0111463405
23	0x3c75c13b	0.014999683
24	0xbc85140f	-0.016244916
25	0xbc8f3b60	-0.017484367
26	0xbba680eb	-0.005081286
27	0xbbbbec23	-0.005734937
28	0x3c7a2d1f	0.015269547
29	0x3df5f8c4	0.12010339
30	0xbcd44ba1	-0.025914969
31	0x3bdb4866	0.00669198
32	0x3de57855	0.11204592
33	0xbd71d79b	-0.059043508
34	0xbcda5642	-0.026652459
35	0x3d8a485f	0.06752085
36	0x3b9ee81f	0.0048494483
37	0x3d0681c7	0.03283861
38	0x3d13403d	0.035949934
39	0x3d4d8675	0.050177056
40	0x3ccd549c	0.025064759
41	0x3d3774bf	0.044789072
42	0xbbf2fd2a	-0.0074154334
43	0x3d360d73	0.04444642
44	0x3ca186fa	0.019717682
45	0x3db472d1	0.08810962
46	0x3d505e88	0.050871402
47	0x3d3a8695	0.045538504
48	0x3bcbe009	0.0062217754
49	0xbc46145c	-0.012089815
50	0xbc9a9ea3	-0.018874472
51	0xbdbe7f96	-0.09301679
52	0xbd2ba379	-0.041903947
53	0xbdce2d93	-0.10067286
54	0xbd21e052	-0.03952057
55	0xbcb4a786	-0.022052538
56	0xbbb1b859	-0.0054235873
57	0xbc77f62d	-0.0151343765
58	0x3ca9794e	0.020687725
59	0x3d86dde2	0.065852895
60	0xbc1a04a9	-0.009400525
61	0xbd109643	-0.03529955
62	0xbd42a5b4	-0.047521308
63	0x3c64d665	0.013967131
64	0x3c0ef520	0.008725435
65	0xbcb1f60d	-0.021723771
66	0xbdcc5611	-0.09977353
67	0xbd39a189	-0.045320068
68	0xbd7c871b	-0.061652284
69	0x3bd77e29	0.0065763188
70	0x3d3bc7f5	0.04584499
71	0xbbf13324	-0.0073608328
72	0x3cc6604b	0.024215838
73	0x3ccc864a	0.024966378
74	0xbbd67a2c	-0.0065453257
75	0xbd4449c0	-0.047921896
76	0xbd116b14	-0.03550251
77	0xbce29f6a	-0.027663905
78	0x3be560d0	0.0070000663
79	0xbd03ca7a	-0.03217552
80	0xbcdae061	-0.02671832
81	0x3d26d93d	0.04073452
82	0x3d674125	0.05645861
83	0x3c85848d	0.016298557
84	0x3d32b77c	0.043632016
85	0x3d86052b	0.065439545
86	0x3db51635	0.08842126
87	0xbd7d7d76	-0.061887227
88	0xbc6273ae	-0.0138215255
89	0x3d954662	0.07288815
90	0x3d07f142	0.033189066
91	0xbb8bc793	-0.0042657345
92	0x3d159270	0.036516607
93	0x3c8b95e8	0.017039254
94	0x3c51437e	0.012772439
95	0x3d8f05fd	0.06983564
96	0x3cfe06ca	0.031009097
97	0x3d579438	0.052631587
98	0x3d7a0019	0.06103525
99	0xbcb5ad28	-0.022177294
100	0xbcd7f18c	-0.026360296
101	0xbc90ee29	-0.017691689
102	0xbca15c50	-0.019697338
103	0xbb163449	-0.0022919348
104	0x3d3a7a7f	0.045526978
105	0x3d25b1c5	0.040452737
106	0x3d36caa4	0.044626847
107	0x3db8d6b6	0.09025328
108	0xbdaff615	-0.08591858
109	0xbd619c6d	-0.05508082
110	0xbce35b12	-0.027753387
111	0x3a3cf9e8	0.000720887
112	0x3d2bc91b	0.041939836
113	0x3d1cbe5c	0.03826748
114	0x3d529c93	0.051418852
115	0x3d0195c7	0.03163698
116	0x3dbc420b	0.09192284
117	0xbd39c7e5	-0.04535665
118	0x3c8aec53	0.016958391
119	0x3ddc883a	0.10768171
120	0xbdaf1c49	-0.08550317
121	0xbd4e5734	-0.050376132
122	0x3c9418e8	0.018078282
123	0xbdbf4639	-0.09339566
124	0xbd9486da	-0.072522834
125	0x3c8d965d	0.017283613
126	0xbdaee81b	-0.08540364
127	0xbd2da2c7	-0.042391565
128	0xbcbc5d52	-0.022993717
129	0xbcbad07c	-0.022804491
130	0xbc8c640d	-0.017137552
131	0x3ca2067d	0.019778484
132	0xbd03c65d	-0.032171596
133	0x3cc64bc5	0.024206052
134	0x3d0a4f4b	0.033767026
135	0x3d4b1c10	0.04958731
136	0x3d843425	0.06455258
137	0x3df0102d	0.11721835
138	0xbd6123f8	-0.054965943
139	0xbbc721cd	-0.0060770274
140	0x3d4a6e91	0.04942185
141	0xbce2e15d	-0.027695352
142	0xbd06727f	-0.032824036
143	0x3d53658e	0.051610522
144	0xbb913385	-0.0044311904
145	0xbd06fdb1	-0.032956783
146	0xbcb1d5d6	-0.02170841
147	0x3da52ea0	0.08065534
148	0x3d5a9d0d	0.05337243
149	0x3d27c56c	0.04095976
150	0x3e006367	0.12537919
151	0x3d9c14c3	0.076211475
152	0x3d578446	0.05261638
153	0x3c898c44	0.016790517
154	0xbd4efbbd	-0.050533045
155	0xbd815989	-0.063159056
156	0x3c8bd8f5	0.017071227
157	0xbcb5f470	-0.022211283
158	0xbd51e12e	-0.05124014
159	0x3ba1f7ab	0.0049428544
160	0xbd008a00	-0.031381607
161	0xbd93fb73	-0.072256945
162	0x3d0e624b	0.03476171
163	0x3daf3687	0.08555322
164	0x3da2ebc4	0.07955125
165	0xbd819340	-0.06326914
166	0x3ccb6a90	0.024831086
167	0x3d2eea2c	0.042703792
168	0x3b9a5b7c	0.004710613
169	0x3d90271d	0.0703871
170	0x3db91534	0.09037247
171	0x3b9b5649	0.0047405106
172	0xbd29ff94	-0.041503504
173	0xbd4b19e4	-0.049585238
174	0xbd016c16	-0.03159722
175	0xbd24b7bc	-0.040214285
176	0xbd7a483c	-0.061104044
177	0xbd500acc	-0.050791547
178	0xbd651124	-0.05592455
179	0xbd6c35c1	-0.05766845
180	0xbb5f31e2	-0.0034056832
181	0x3d085004	0.033279434
182	0x3d3d5447	0.04622295
183	0x3b8c9f61	0.0042914604
184	0x3bbc9b8b	0.005755847
185	0x3c61d9a8	0.013784803
186	0xbd70a0fb	-0.058747273
187	0xbd29646a	-0.041355528
188	0x3c110f0c	0.008853685
189	0xbdf9accf	-0.12191164
190	0xbdd621a5	-0.10455636
191	0xbd6f2235	-0.05838223
192	0xbc4e5659	-0.012593829
193	0x3d13b186	0.03605797
194	0x3ce44e07	0.027869238
195	0x3d739c11	0.05947501
196	0x3d65635d	0.056002963
197	0x3db70850	0.08937132
198	0x3d6b9487	0.057514694
199	0x3d31568b	0.043295424
200	0x3d8d317e	0.068942055
201	0x3d705fb8	0.058685035
202	0xbd454920	-0.04816544
203	0x3d1f3766	0.03887119
204	0x3d92ea75	0.071736254
205	0x3da8a63e	0.08234833
206	0x3d4d6603	0.050146114
207	0xbd518e4a	-0.051161088
208	0xbcc617ea	-0.024181325
209	0xbad76c6c	-0.001643551
210	0xbd8d483e	-0.06898545
211	0xbd9e2db2	-0.077235594
212	0xbccb429b	-0.024812033
213	0xbd8aeff1	-0.067840464
214	0xbd66b3d9	-0.05632386
215	0xbc671ad5	-0.014105518
216	0x3d9855d2	0.07438244
217	0x3d2ea73e	0.042639963
218	0x3deddeca	0.11614759
219	0x3c440a6e	0.011965377
220	0x3d83f58c	0.06443319
221	0x3db91402	0.09037019
222	0xbcdb6b07	-0.026784433
223	0xbc90ea29	-0.017689781
224	0x3d20de00	0.039274216
225	0xbd320b16	-0.043467604
226	0xbc7c2faa	-0.015392223
227	0x3d207a7b	0.039179306
228	0xbb8cbdd3	-0.0042950897
229	0x3c8157e2	0.015788976
230	0x3d0d3d44	0.034482256
231	0xbcd470ce	-0.025932696
232	0xbd62e21a	-0.05539141
233	0xbcbad299	-0.022805499
234	0x3d54c978	0.051949948
235	0x3d922130	0.07135236
236	0x3d81a8cc	0.063310236
237	0xbc0ce50a	-0.008599529
238	0x3cfa7f8d	0.0305784
239	0x3d1293f7	0.03578564
240	0xbbbd0f8e	-0.0057696765
241	0x3c55eb07	0.013056523
242	0x3c43dcc2	0.011954488
243	0xbc3b11ea	-0.011417845
244	0xbcf337c4	-0.029689677
245	0x3cca8eec	0.024726354
246	0x3d3cd3b3	0.04610033
247	0x3d0b3b60	0.03399217
248	0x3d5bc66a	0.05365602
249	0xbd8c72d6	-0.06857841
250	0xbd2362eb	-0.039889257
251	0xbd1421a5	-0.0361649
252	0xbda48770	-0.08033645
253	0xbdbc32ef	-0.09189402
254	0xbd3227ac	-0.043494865
255	0xbd8d8b20	-0.069113016

body.block3.conv.bias f4 [32]
0	0xbd06dd45	-0.032925863
1	0x3c4a2d97	0.012339971
2	0xbbb0a4c5	-0.005390736
3	0x3b38ce54	0.0028199153
4	0xbcbe558a	-0.023234148
5	0x3ce05a24	0.027386732
6	0x3c110b60	0.00885281
7	0xbc05651f	-0.008141785
8	0x3c8c6173	0.017136311
9	0x3db6626a	0.0890549
10	0xbd5a8c3f	-0.053356405
11	0x3cd58225	0.026063034
12	0xbd1ea099	-0.038727377
13	0xbbd6d9aa	-0.0065567093
14	0xbd67215b	-0.056428295
15	0x3d52c33e	0.05145573
16	0xbd84d003	-0.064849876
17	0x3cd9d92e	0.026592817
18	0xba8d8b2d	-0.0010798924
19	0xbd441ea2	-0.047880776
20	0xbd728570	-0.059209287
21	0x3ca1e5cc	0.019762896
22	0x3db51ca1	0.08843351
23	0x3d29d03b	0.04145835
24	0x3d26adcc	0.04069309
25	0xbd588ff8	-0.052871674
26	0xbde3942f	-0.11112248
27	0xbdeef323	-0.116674684
28	0xbddaacee	-0.10677515
29	0x3d94ce79	0.07265944
30	0x3dd429cf	0.10359537
31	0x3cfc884a	0.030826706

body.block3.norm.weight f4 [32]
0	0x3f8c5eeb	1.0966467
1	0x3fa5d450	1.2955418
2	0x3f88cb80	1.0687103
3	0x3f719fd8	0.9438453
4	0x3f8bf6ec	1.093473
5	0x3f9ac4aa	1.2091267
6	0x3f913ed1	1.1347295
7	0x3f98d42a	1.1939747
8	0x3f75bccb	0.959912
9	0x3f81999d	1.0125004
10	0x3f9589dc	1.1682696
11	0x3f862057	1.0478619
12	0x3f898f12	1.0746787
13	0x3f9b3169	1.2124454
14	0x3f8aab85	1.0833594
15	0x3f89722a	1.0737965
16	0x3f8a943a	1.0826485
17	0x3f7f13b5	0.99639446
18	0x3f832af7	1.0247487
19	0x3f95e776	1.1711261
20	0x3f8b6efa	1.0893242
21	0x3f876196	1.0576656
22	0x3f814c9f	1.0101508
23	0x3f845d8d	1.034105
24	0x3f818bdf	1.012081
25	0x3f8dd079	1.1079246
26	0x3f8cf24a	1.1011441
27	0x3f937099	1.1518737
28	0x3f9bc258	1.2168684
29	0x3f89534a	1.0728543
30	0x3f9a5265	1.2056395
31	0x3f854186	1.0410621

body.block3.norm.bias f4 [32]
0	0x3ec4d234	0.38441622
1	0x3eac96b1	0.33708718
2	0x3eed6039	0.46362475
3	0xbf0dd701	-0.55406195
4	0xbca7517e	-0.0204246
5	0x3ee6103b	0.44934258
6	0x3f65ebc9	0.89812905
7	0x3f444847	0.76672786
8	0xbf2344c9	-0.6377683
9	0x3e16f86c	0.14743203
10	0x3dee971f	0.11649918
11	0x3ec89cf4	0.39182246
12	0x3f46204b	0.77393025
13	0x3f05dd5b	0.52290887
14	0x3ef363cc	0.47537076
15	0xbd8f4cf4	-0.069970995
16	0x3f072d29	0.52803284
17	0x3e006315	0.12537797
18	0xbdb1e4d9	-0.08686227
19	0x3fefa7a9	1.8723041
20	0x3e1dc84c	0.15408438
21	0x3f1ee28b	0.6206443
22	0x3caf7959	0.021420168
23	0x3e0ec496	0.13942179
24	0x3f130813	0.57434195
25	0x3dc7a151	0.097475655
26	0x3f1b10b8	0.60572386
27	0x3e44cbc7	0.1921836
28	0x3f3f7045	0.74780685
29	0x3ea10deb	0.3145593
30	0x3f0c1933	0.5472595
31	0xbd896419	-0.06708545

body.block3.norm.running_mean f4 [32]
0	0x3eaa3630	0.33244467
1	0xbfb98f05	-1.4496771
2	0xbf86a415	-1.0518824
3	0x3db7f87e	0.08982943
4	0xbf536a82	-0.82584393
5	0xbfef27f4	-1.8684068
6	0xbfe8281b	-1.8137239
7	0x400107ea	2.016108
8	0xbfd55ca2	-1.6668894
9	0xc0614fb7	-3.5204904
10	0xbe6fac25	-0.23405512
11	0xbe46bd14	-0.19408065
12	0x3f8a4b65	1.0804259
13	0x3fda51ae	1.7056177
14	0x3fb03318	1.3765593
15	0xbeacbe02	-0.33738714
16	0xc003039c	-2.0470953
17	0x3e655905	0.2239724
18	0xbf563134	-0.8366883
19	0x3fc3191b	1.5242037
20	0x3e9f9dcd	0.3117508
21	0x3ff6420c	1.9238906
22	0xbeab5798	-0.33465266
23	0xc030edea	-2.7645211
24	0x3ecd5061	0.40100387
25	0x3e5e411e	0.21704528
26	0x3f6af36c	0.9177768
27	0xbf49f4ac	-0.78888965
28	0x3e5264da	0.20546284
29	0x3fa9d6c9	1.3268672
30	0x40227f3b	2.5390155
31	0x3f2b1ce6	0.6684097

body.block3.norm.running_var f4 [32]
0	0x3ee0cd17	0.4390647
1	0x3f172993	0.5904781
2	0x3f8c3b58	1.095561
3	0x3fa5d9d8	1.2957106
4	0x3f71f170	0.9450903
5	0x3f744c7b	0.954292
6	0x3f9584ec	1.168119
7	0x3f4ba54e	0.7954911
8	0x3f900d37	1.1254033
9	0x3f36d4ea	0.7141863
10	0x400e95b8	2.227888
11	0x3fd9df94	1.7021356
12	0x3f3662c6	0.71244466
13	0x3f33ecd4	0.70283246
14	0x3f837ab5	1.0271822
15	0x3f842025	1.032231
16	0x3f93f61a	1.1559479
17	0x3ee81117	0.4532554
18	0x3fa98ff0	1.3247051
19	0x3f9cefb9	1.2260658
20	0x3f9c1a8b	1.21956
21	0x40081b0e	2.1266513
22	0x3fdc6479	1.7218162
23	0x3f8a1a02	1.0789187
24	0x3f879157	1.0591229
25	0x3fc9cdba	1.5765908
26	0x3fc3e539	1.5304328
27	0x3faa8a11	1.3323385
28	0x3f10abd2	0.56512177
29	0x3f07e60e	0.5308541
30	0x3f516f82	0.8181077
31	0x3f9e6861	1.2375604
