TrainedModels/SMB-1-3/scale_factor=0.750000,alpha=10/0/netD.pth (torch, 128517 bytes, 27 tensors)

head.conv.weight f4 [32, 3, 3, 3]
0	0x3b60541b	0.0034229818
1	0x3aad3b70	0.0013216566
2	0x3b045d4c	0.002019721
3	0x3ab985ba	0.0014154234
4	0xbac1abf6	-0.001477598
5	0xbaf920b7	-0.0019006942
6	0xba92c9f7	-0.0011199106
7	0xbb44d9bd	-0.0030037009
8	0xbb5290b3	-0.0032129704
9	0x3b84c931	0.004052304
10	0x3b98dd8e	0.0046650833
11	0x3bd7d7f6	0.006587024
12	0x3b5eeea0	0.0034016743
13	0x3b9f3a20	0.004859224
14	0x3bd59f2e	0.00651922
15	0x3b87e3fc	0.004147051
16	0x3b8e1be2	0.00433682
17	0x3bb9b925	0.005667823
18	0x3c0279fd	0.007963655
19	0x3c0789ad	0.008272571
20	0x3bcc5eb6	0.0062368764
21	0x3c087c1b	0.00833037
22	0x3c0db3f7	0.008648864
23	0x3c064893	0.008196014
24	0x3c3027bb	0.01075166
25	0x3c22667c	0.0099121295
26	0x3b9a344f	0.0047059427
27	0xbc2bae16	-0.010478517
28	0xbbdaae96	-0.0066736443
29	0x3c2bba54	0.010481436
30	0xbc2b0973	-0.010439265
31	0xbb843937	-0.004035141
32	0xbbfcd1af	-0.007715426
33	0x3c215864	0.009847734
34	0x3b605442	0.003422991
35	0x3c1733f3	0.009228694
36	0x3c3ac854	0.011400301
37	0x3c8d0e7c	0.01721882
38	0xbccc3ac0	-0.024930358
39	0x3c85fc48	0.016355649
40	0xbb1aa7ec	-0.0023598624
41	0xbb5e9064	-0.0033960575
42	0x3d1825c9	0.03714541
43	0x3c84ed38	0.016226396
44	0xbc744794	-0.014909644
45	0x3c508d73	0.012729037
46	0xbcbe03e0	-0.023195207
47	0xbddad286	-0.106846854
48	0x3cc279af	0.023739664
49	0x3cd2923f	0.025704501
50	0xbc2a90c3	-0.01041049
51	0x3d82dc01	0.06389619
52	0x3d094015	0.03350838
53	0xbce21b09	-0.027600782
54	0x3a0c54fb	0.0005353239
55	0x39645d0f	0.00021778441
56	0x3980c017	0.0002455718
57	0x38552f86	5.0827417e-05
58	0xb844c8e5	-4.691714e-05
59	0x380c4bcc	3.3449192e-05
60	0xb9a69a7a	-0.0003177708
61	0x3470ef4c	2.2438797e-07
62	0xb9e2ca6a	-0.0004325689
63	0x393d0857	0.00018027551
64	0x37610b54	1.3413683e-05
65	0x39dc5d87	0.00042031353
66	0xb91ccd70	-0.00014953851
67	0x38e3cc0f	0.000108622124
68	0xb93b1b2e	-0.00017843835
69	0x3a16d5a2	0.00057538797
70	0xb9d8ebe9	-0.00041374497
71	0x3a14ace7	0.00056715164
72	0x3a05990b	0.00050963525
73	0x385c975f	5.2593063e-05
74	0x395083c3	0.00019885511
75	0xb8f61ee2	-0.000117359465
76	0x38269fb4	3.972622e-05
77	0xb9b0f90e	-0.00033754896
78	0xbb3f420f	-0.002918366
79	0xbae4f3b1	-0.0017467645
80	0xbb1ec4ea	-0.0024226257
81	0xbb686436	-0.003546012
82	0xbafd3b67	-0.0019320071
83	0xbb2eebf7	-0.002669094
84	0xbba1b703	-0.004935147
85	0xbb92973f	-0.0044735963
86	0xbbf0b8b7	-0.0073462385
87	0xbb6f3ea1	-0.0036505836
88	0x3a0a8d06	0.00052852964
89	0xbbb52a63	-0.0055287345
90	0x3b429ebd	0.0029696666
91	0x3bca6c8a	0.0061774896
92	0x3b6c36d4	0.0036043422
93	0x3af30f84	0.0018544053
94	0x3b0dbff2	0.00216293
95	0x388edcfd	6.81225e-05
96	0x3b8e766c	0.004347613
97	0xba41c8cb	-0.0007392286
98	0x3ae7df9a	0.001769054
99	0x3c3de099	0.011589193
100	0x3bb4b363	0.0055145486
101	0x3c37cebb	0.011218722
102	0x3ba30d57	0.0049759555
103	0x3b8552eb	0.0040687225
104	0x3bd7aefc	0.006582139
105	0x3c118dc9	0.008883902
106	0x3c58ef5a	0.01324066
107	0x3c553fb4	0.013015676
108	0xbac7d7a4	-0.0015246761
109	0xbab9fdb5	-0.001418999
110	0x39062b09	0.00012795268
111	0xbac29ab1	-0.0014847127
112	0xbaf3e1ff	-0.0018606781
113	0xb8a9de45	-8.099949e-05
114	0x3a6aa010	0.0008950243
115	0x39c9b921	0.0003847564
116	0x3a860619	0.0010225206
117	0x3b1b30c8	0.00236802
118	0x3abd0664	0.001442146
119	0x3b4cbaef	0.003123935
120	0x3ada25bf	0.0016643329
121	0x3b137080	0.0022497475
122	0x3b2fde8d	0.0026835531
123	0x3aa3a760	0.0012485795
124	0x3a02d026	0.0004990123
125	0x3ad20be9	0.0016025278
126	0x3bfe2472	0.0077558095
127	0x3bc43503	0.005987765
128	0x3bbad50b	0.005701666
129	0x3bac7df3	0.0052640378
130	0x3bafade7	0.005361307
131	0x3b850448	0.0040593483
132	0xbafb3a8b	-0.0019167227
133	0xb6c6cbb2	-5.924573e-06
134	0xbac483db	-0.0014992909
135	0x3dd2c372	0.102911845
136	0x3d712e67	0.058882143
137	0xbd82432d	-0.06360469
138	0x3c03dd17	0.008048317
139	0x3cbaff40	0.02282679
140	0x3c363c40	0.011122763
141	0xbb8244fb	-0.0039755083
142	0x3d446e32	0.047956653
143	0x3c6304de	0.013856141
144	0x3cb1f5a3	0.021723574
145	0x3cc02d74	0.023459174
146	0xbd81b9da	-0.063342765
147	0xbd32262d	-0.04349344
148	0xbc9e0943	-0.019291526
149	0xbd39858f	-0.045293387
150	0x3d21194b	0.039330762
151	0x3d79fa1c	0.06102954
152	0x3d9fd912	0.07805075
153	0xbd902c47	-0.07039695
154	0xbd0aae11	-0.03385741
155	0xbcf8d42f	-0.030374615
156	0xbbd62841	-0.0065355604
157	0x3cdb43c7	0.026765717
158	0xbd60fe36	-0.054929934
159	0xbdbb1eee	-0.09136759
160	0xbda1ea28	-0.0790599
161	0xbd434b35	-0.047679145
162	0xbad1178e	-0.0015952454
163	0x385613db	5.1040068e-05
164	0xbae2be6a	-0.001729918
165	0xbb12564e	-0.0022329274
166	0xba76421f	-0.0009394008
167	0xba981dc9	-0.0011605556
168	0xbb9e7fe1	-0.0048370217
169	0xbb366b48	-0.002783494
170	0xbb0115bb	-0.001969679
171	0x3ba60813	0.0050668805
172	0x3b60d188	0.0034304578
173	0x3b90399f	0.0044014
174	0x3b9cb221	0.004781977
175	0x3b560aa1	0.0032660144
176	0x3b5e2f62	0.0033902754
177	0x3bd9322a	0.0066282945
178	0x3b396375	0.002828804
179	0x3bd7fd3c	0.006591467
180	0x3c5a7815	0.013334294
181	0x3c14312b	0.009044926
182	0x3c02bd7c	0.007979747
183	0x3c368ae2	0.011141511
184	0x3bf4990a	0.0074645327
185	0x3b200957	0.002441963
186	0x3b39e6de	0.0028366367
187	0x3a34ac7e	0.00068921584
188	0xbbce13b7	-0.0062889713
189	0xbd03c2b5	-0.03216811
190	0xbd132c99	-0.035931204
191	0xbd904c17	-0.07045763
192	0xba887790	-0.0010411609
193	0x3c845f35	0.01615868
194	0xbaa37402	-0.0012470486
195	0xbcd83c0b	-0.026395818
196	0xbc4ba0d1	-0.012428478
197	0xbca1821f	-0.019715367
198	0x3ca87b94	0.02056674
199	0x3c73e7b1	0.0148867825
200	0xbad9cf45	-0.0016617557
201	0x3c068129	0.008209505
202	0xbc0fb86c	-0.008771997
203	0xbb7baa02	-0.0038400893
204	0x3dafaf80	0.08578396
205	0x3d5d1761	0.053977374
206	0x3d57c021	0.052673463
207	0x3d9def43	0.07711651
208	0x3c0ddac2	0.008658113
209	0x3da3c792	0.079970494
210	0x3d8806e0	0.06641936
211	0xbbe6dbbf	-0.0070452387
212	0x3cea7ea1	0.028624834
213	0x3d5c466b	0.053778093
214	0x3c9f78cb	0.019466778
215	0x3d410ec8	0.047133237
216	0x3d26eaad	0.040751148
217	0x3c095621	0.008382351
218	0xbd03b0ae	-0.032150917
219	0x3c3fb84e	0.0117016565
220	0xbcbdc507	-0.023165239
221	0x3d0cfe15	0.034422
222	0xbcaec370	-0.021333426
223	0xbc4065ca	-0.011743018
224	0x3d7b72a0	0.06138861
225	0xbb9e5bb0	-0.0048327073
226	0xbc6730a6	-0.01411072
227	0xbd62eb84	-0.055400386
228	0xbc5701ec	-0.013123017
229	0xbc7382d9	-0.0148627395
230	0xbb3ea39a	-0.0029089213
231	0xbcf6d123	-0.030129021
232	0xbd557e75	-0.052122552
233	0xbd9e9e73	-0.077450655
234	0xbe0268e2	-0.12735322
235	0xbd836060	-0.064148664
236	0xbdab3b10	-0.08360875
237	0xbd1e7004	-0.038681045
238	0x3d74f449	0.05980328
239	0xbcad825d	-0.021180326
240	0x3bf7dc4d	0.0075641037
241	0xbbdc7d69	-0.0067288172
242	0xbd838236	-0.0642132
243	0x3ae74228	0.0017643617
244	0x39f3a94c	0.00046474708
245	0x3a73bb78	0.00092976494
246	0x3a05c4c3	0.0005102867
247	0x3988cea0	0.0002609389
248	0x3b89ce62	0.004205511
249	0x3b5629cf	0.0032678728
250	0xbb9353a2	-0.004496054
251	0xbb7bdc11	-0.003843073
252	0xbb6dae81	-0.0036267343
253	0x3ba6ddc3	0.005092354
254	0x3a89112c	0.0010457388
255	0xbb81154b	-0.003939306

head.conv.bias f4 [32]
0	0x3cf8440c	0.030305885
1	0x3cc50a5f	0.024052797
2	0x3c0b2170	0.008491859
3	0xbcca193c	-0.024670236
4	0x3b3a5f42	0.0028438126
5	0xbf88d01c	-1.068851
6	0x3d1de60e	0.038549475
7	0x3e90b8ad	0.28265896
8	0xbf50f746	-0.8162731
9	0x3d4b7e76	0.04968115
10	0x3d24d075	0.040237863
11	0xbf5c0b7f	-0.8595504
12	0x3cba5a6a	0.02274819
13	0x3cfc8cf4	0.03082893
14	0x3eca43e9	0.39504936
15	0x3eecf5a8	0.4628117
16	0xbe582a75	-0.21109946
17	0xbb454258	-0.0030099358
18	0x3deea9d9	0.116534896
19	0x3e32c85f	0.17459248
20	0xbf29aea7	-0.66282123
21	0x3e97b36a	0.2962907
22	0xbd1978f5	-0.03746887
23	0xbd1028f1	-0.035195295
24	0x3e93d986	0.28876895
25	0x3e9d4e84	0.30723965
26	0xbf662c05	-0.8991092
27	0xbf78a7b3	-0.9713089
28	0xbd126e4f	-0.03574973
29	0x3cfab564	0.030604072
30	0xbe5c4968	-0.21512377
31	0x3c583fbc	0.013198789

head.norm.weight f4 [32]
0	0x3f8c0eff	1.0942076
1	0x3f75a174	0.9594948
2	0x3f8c27a3	1.0949596
3	0x3f7abefd	0.97947675
4	0x3f87195b	1.0554613
5	0x3f75a904	0.9596102
6	0x3f7bfc2d	0.98431665
7	0x3f4d3060	0.8015194
8	0x3f81afe3	1.0131801
9	0x3f7aa12d	0.97902185
10	0x3f766950	0.96254444
11	0x3f733023	0.94995326
12	0x3f53165b	0.82455987
13	0x3f7a803b	0.97851914
14	0x3f746dbc	0.9547994
15	0x3f578bd9	0.84197766
16	0x3f77d6a0	0.96811867
17	0x3f82c722	1.021702
18	0x3f4c4cd9	0.7980476
19	0x3f5decce	0.8668946
20	0x3f59eb74	0.851249
21	0x3f63c0e8	0.88966227
22	0x3f3c9ab8	0.7367358
23	0x3f6fa724	0.9361441
24	0x3f6ff0fb	0.9372708
25	0x3f6c205b	0.9223687
26	0x3f6528c0	0.89515305
27	0x3f4912c4	0.7854426
28	0x3f638422	0.88873494
29	0x3f5e12ac	0.8674724
30	0x3f449cdf	0.76801866
31	0x3f875766	1.0573547

head.norm.bias f4 [32]
0	0xbe5c7412	-0.21528652
1	0x3e59c992	0.21268299
2	0xbeb68b8d	-0.35653344
3	0x3e069c47	0.13145553
4	0xbe897db1	-0.26853707
5	0x3e9e35c9	0.3090041
6	0xbe2cfddf	-0.16893719
7	0x3e573692	0.2101691
8	0x3e87b3a6	0.26504248
9	0x3e0d2d84	0.13786894
10	0x3e731466	0.2373825
11	0x3eabcb41	0.33553508
12	0x3e218ce0	0.15776396
13	0x3da6f595	0.0815231
14	0x3e4e852e	0.20167992
15	0x3ec48316	0.3838126
16	0x3d3d061e	0.046148412
17	0x3db3f66d	0.08787236
18	0x3dcff0c3	0.101533435
19	0x3ee8f5d1	0.45500043
20	0x3eecffd6	0.46288937
21	0xbaa2f4cc	-0.0012432574
22	0x3eb0d4f9	0.34537485
23	0x3d64952d	0.055806328
24	0x3e0c8273	0.13721637
25	0x3dc00442	0.09375812
26	0x3f2d7281	0.67752844
27	0x3f3be71d	0.73399526
28	0x3e079166	0.13239059
29	0xbdab5edf	-0.083677046
30	0x3f58a6b2	0.84629357
31	0xbe54b3ff	-0.20771788

head.norm.running_mean f4 [32]
0	0x3db9e7c0	0.09077406
1	0x3cb95309	0.022622602
2	0x3b6686d5	0.003517558
3	0x3d2fbfee	0.042907648
4	0x3cee8b1b	0.029119065
5	0xbfb12566	-1.3839538
6	0x3dabc87d	0.083878495
7	0x3f1fa4d2	0.6236087
8	0xbf8f4370	-1.1192455
9	0x3d8f8e24	0.07009533
10	0x3d0809d1	0.033212487
11	0xbf95685f	-1.1672477
12	0xbb3587cf	-0.0027699356
13	0xbbd5c229	-0.00652339
14	0x3f4bc94d	0.79604036
15	0x3f4ce008	0.80029345
16	0xbeabf71d	-0.3358697
17	0x3cb869a4	0.02251131
18	0x3de344f3	0.110971354
19	0xbcc743e4	-0.024324365
20	0xbf238b0d	-0.6388405
21	0x3e9368ec	0.28790987
22	0x3ba9fa05	0.0051872754
23	0xbe01c706	-0.12673578
24	0x3f06c3f0	0.52642727
25	0x3f2eaf0a	0.6823584
26	0xbfa36b9a	-1.2767212
27	0xbf96bb13	-1.177584
28	0x3e6f1beb	0.23350494
29	0x3c1609d1	0.009157614
30	0xbebda9b5	-0.3704354
31	0x3bde6559	0.006786984

head.norm.running_var f4 [32]
0	0x3a5b8b4e	0.0008374945
1	0x3b0eaf84	0.0021772096
2	0x36d41915	6.3210123e-06
3	0x3a7895af	0.0009482754
4	0x391bd422	0.00014860978
5	0x3c9b6803	0.018970495
6	0x39f78673	0.00047211684
7	0x3cccc704	0.024997242
8	0x3ca2c895	0.019871036
9	0x3980a8cc	0.00024539826
10	0x3b6ebb32	0.0036427495
11	0x3cade911	0.021229299
12	0x3ac343aa	0.0014897485
13	0x3ac58a95	0.0015071208
14	0x3d07fdc1	0.033200983
15	0x3cdd8b86	0.027044069
16	0x3b5ba245	0.0033513468
17	0x39266e62	0.00015872114
18	0x3b1c720e	0.0023871693
19	0x3bfa9cfe	0.0076481095
20	0x3bd8fe54	0.006622115
21	0x3ae50ccf	0.0017475131
22	0x3b044de3	0.0020188026
23	0x3ae6007d	0.0017547753
24	0x3c4590f3	0.012058484
25	0x3cecf241	0.02892411
26	0x3cf05c9a	0.02934103
27	0x3c571e3b	0.013129766
28	0x3c7bf07e	0.015377162
29	0x3b6a195b	0.003572068
30	0x3c0702cd	0.008240414
31	0x37229792	9.691243e-06

channel.fc1.weight f4 [2, 32, 1, 1]
0	0x3bc75d50	0.0060841218
1	0x3cf070b1	0.02935061
2	0x3cab5b0f	0.020917444
3	0x3d5036cf	0.05083352
4	0xbb80ec2f	-0.0039344053
5	0x3d80b1ea	0.062839344
6	0x3b545704	0.0032400498
7	0x3d73439f	0.05939066
8	0x3d7f6a36	0.06235715
9	0x3d35fd88	0.04443124
10	0x3d114233	0.035463523
11	0x3d680623	0.056646477
12	0x3cf36d33	0.029715156
13	0x3cad5b7a	0.021161783
14	0x3d757805	0.059928913
15	0x3c71c891	0.014757291
16	0x3db6f73e	0.089338765
17	0x3cdcd76c	0.02695819
18	0x3c7a5ebc	0.0152813755
19	0x3d1dd543	0.03853346
20	0x3d1a3a17	0.037653055
21	0x3cc68dad	0.024237478
22	0x3c9496d6	0.01813833
23	0x3d38d2a3	0.045122754
24	0x3d174929	0.036935005
25	0x3d600040	0.05468774
26	0x3d665f18	0.056243032
27	0x3d6fbbb9	0.058528636
28	0x3d55060c	0.05200772
29	0xbbc33a86	-0.0059579043
30	0x3d54fdaa	0.051999725
31	0x3c792e04	0.015208725
32	0x3d28c66c	0.041204855
33	0xbc949cbc	-0.018141143
34	0xbc7ac97b	-0.015306826
35	0x3cc79c89	0.024366634
36	0xbd26cc13	-0.040721964
37	0xbca2c421	-0.019868912
38	0xbb6dd78a	-0.0036291801
39	0x3c9d266d	0.019183362
40	0xbd252276	-0.040316068
41	0x3bff772f	0.00779619
42	0xbcc505a6	-0.024050545
43	0xbaa84640	-0.0012838319
44	0xbb4260bf	-0.0029659716
45	0xbcb54e15	-0.022131959
46	0xbd35814b	-0.044312757
47	0xbc8b60e5	-0.017013976
48	0xbd11cc8c	-0.03559546
49	0xbaefa6de	-0.0018283983
50	0xbbf6df6b	-0.0075339577
51	0xbd34f97b	-0.044183236
52	0xbd3fdb8a	-0.04684023
53	0xbcc33ab2	-0.023831699
54	0xbb956066	-0.0045586107
55	0xbd404460	-0.046940207
56	0xbcd9b32a	-0.02657469
57	0xbc64a0f3	-0.013954389
58	0x3c620627	0.013795412
59	0xbc9341ff	-0.017975805
60	0xbca75143	-0.02042449
61	0xbbc2e911	-0.005948194
62	0xbd152a35	-0.036417205
63	0xbc9233a1	-0.017846884

channel.fc2.weight f4 [32, 2, 1, 1]
0	0x3daee6f2	0.08540143
1	0x3b863bd3	0.004096487
2	0x3d1948d7	0.03742298
3	0x3d1a4c11	0.0376702
4	0x3df133da	0.11777468
5	0x3c1769bb	0.009241517
6	0x3d1da133	0.03848381
7	0xbceb6e07	-0.028738989
8	0xbd2f35bd	-0.04277586
9	0xbc9ed8dd	-0.019390518
10	0x3ca0e3da	0.019639898
11	0x3b574560	0.0032847747
12	0xbdc832c5	-0.097753085
13	0x3be84de6	0.0070893643
14	0xbe074675	-0.13210471
15	0xbc3be73e	-0.011468707
16	0x3cde3cc6	0.027128588
17	0xbbc5a2b9	-0.006031361
18	0xbcd4033e	-0.025880452
19	0x3bea46c5	0.0071495497
20	0x3db12acd	0.08650742
21	0x3d4fbbc9	0.050716195
22	0x3d3cc81b	0.046089273
23	0xbc3e79ea	-0.011625746
24	0xbe158164	-0.1460014
25	0x3c64c018	0.013961814
26	0xbdedad8c	-0.11605367
27	0x3c607461	0.013699622
28	0x3d4dc032	0.05023212
29	0x3c7c0ea6	0.015384352
30	0xbd0f3d13	-0.034970354
31	0x3c757ca8	0.014983334
32	0xbc5e74e4	-0.013577674
33	0x3b35139e	0.00276301
34	0x3c112efb	0.008861299
35	0x3c5377ac	0.01290695
36	0xbe1253c1	-0.14289762
37	0xbd0bb8ce	-0.03411179
38	0x3d013bf3	0.031551313
39	0x3ca530d6	0.020164888
40	0x3d9786ce	0.07398759
41	0x3c591c77	0.013251415
42	0xbe069903	-0.13144307
43	0x3bfa94dd	0.0076471404
44	0xbdcbae59	-0.099453636
45	0xbc213182	-0.009838464
46	0xbd7a302a	-0.06108109
47	0x3d476dad	0.04868858
48	0xbd29ecb6	-0.04148551
49	0xbce1259d	-0.027483756
50	0x3c4e9cb8	0.012610607
51	0x3cb7c482	0.02243257
52	0x3c7f5527	0.015584267
53	0xbc6b7bf9	-0.014372819
54	0x3d3136cd	0.043265153
55	0x3b88f531	0.0041796197
56	0xbcb22add	-0.021748954
57	0x3c36fde8	0.011168934
58	0xbdee0e3b	-0.11623808
59	0xbd0a4be9	-0.0337638
60	0xbc42b2a1	-0.011883409
61	0x3ce74f56	0.028236073
62	0xbd3e415d	-0.046449054
63	0xbd0120b9	-0.031525347

body.block1.conv.weight f4 [32, 32, 3, 3]
0	0xbd278bd4	-0.040904835
1	0xbd672e73	-0.05644078
2	0xbd0df98f	-0.034661826
3	0xbc120624	-0.008912597
4	0xbcfd9d82	-0.030958895
5	0xbd28ea7c	-0.041239247
6	0xbc0789db	-0.008272613
7	0xbd6025fc	-0.054723725
8	0xbd1e9bbb	-0.038722735
9	0x3b7fee2d	0.0039051876
10	0x3bc6d409	0.006067757
11	0x3d032a8f	0.03202301
12	0x3cbf7bea	0.023374517
13	0xbb837cd9	-0.0040126857
14	0x3c6b6ab6	0.014368704
15	0x3d2b7ad9	0.041865204
16	0xbc43217e	-0.011909841
17	0x3b50ec19	0.0031879006
18	0x3c07a8fa	0.008280033
19	0x3be34f24	0.0069369245
20	0x3a3e1ec1	0.00072525075
21	0x3bf5aa49	0.007497106
22	0x3d597524	0.05309023
23	0x3cd99bd1	0.026563557
24	0x3d3d7d30	0.046261966
25	0x3d49d370	0.04927391
26	0x3d876f2d	0.06613002
27	0xbcd6acb7	-0.026205404
28	0x3b19070e	0.0023350152
29	0xbd44df81	-0.048064712
30	0x3d5a8fef	0.053359922
31	0x3d6955c0	0.056966543
32	0x3cc49b7b	0.02399992
33	0xbd30415a	-0.043031074
34	0x3a2f9283	0.0006697552
35	0xb9f87728	-0.00047391024
36	0xbd114bee	-0.035472803
37	0xbd7520ad	-0.059845615
38	0xbce9685c	-0.028492145
39	0x3d8e7f51	0.069578774
40	0x3cc9083d	0.024540061
41	0x3cf601a1	0.030030074
42	0x3db7685e	0.08955453
43	0x3dd0bd5a	0.10192366
44	0x3d824032	0.063599005
45	0xbd457513	-0.048207354
46	0xbc06f4f4	-0.008237112
47	0xbceed679	-0.029155003
48	0xbc33aeae	-0.01096694
49	0x3cb953c4	0.02262295
50	0x3cc8aa4a	0.024495263
51	0xbbb18fe0	-0.0054187626
52	0x3d766e8b	0.060164016
53	0x3dc37cd4	0.095452935
54	0xbd830127	-0.06396704
55	0xbd3c6647	-0.045995977
56	0xbd06da82	-0.03292323
57	0xbd8cd51c	-0.06876585
58	0xba53e078	-0.00080824597
59	0xbc1ac530	-0.009446427
60	0xba6bd8de	-0.00089968543
61	0x3db85c46	0.09001975
62	0x3d383a45	0.044977445
63	0xbd09c2e3	-0.033633124
64	0xbd394662	-0.045233138
65	0xbd871e6c	-0.065975994
66	0xbd8b9e54	-0.06817308
67	0xbb4f8fa5	-0.0031671312
68	0xbd2428c0	-0.040077925
69	0xbd9d4a45	-0.076801814
70	0xbd8fc9b1	-0.070208915
71	0xbd0e7701	-0.03478146
72	0xbcd03e3a	-0.025420297
73	0xbce41e3e	-0.027846452
74	0xbd336c51	-0.04380447
75	0xbbcccc4c	-0.00624994
76	0x3c88e480	0.01671052
77	0x3bc70eab	0.0060747466
78	0x3c45dc62	0.012076469
79	0x3c3fcf04	0.011707071
80	0x3ca6f81f	0.020381985
81	0xbb5eed56	-0.0034015975
82	0xbd53c71d	-0.05170356
83	0xbda0cafe	-0.07851218
84	0xbc853840	-0.016262174
85	0x3c1853bb	0.009297307
86	0xbd056211	-0.032564227
87	0xbd5a8597	-0.053350057
88	0xba75721b	-0.00093630113
89	0xbd8b494e	-0.06801091
90	0x3dd444aa	0.10364659
91	0x3d417e14	0.047239378
92	0xbcfb3f43	-0.030669814
93	0x3dad1c51	0.084526666
94	0xb989cb7c	-0.00026282284
95	0xbbb1a7fb	-0.005421636
96	0x3d08cfee	0.033401422
97	0x3bbd5ad3	0.0057786494
98	0xbd0c7752	-0.03429348
99	0xbd2d56fd	-0.042319287
100	0x3c5e8f81	0.013584019
101	0xbb3c9142	-0.0028773104
102	0xbd1373d5	-0.035999138
103	0x3ac2d6e8	0.0014865072
104	0x3d0d97e1	0.03456867
105	0xbc03f861	-0.008054824
106	0x3ba170e3	0.004926787
107	0x3d1477de	0.036247127
108	0xbcda9521	-0.026682438
109	0x3ce11ad3	0.027478611
110	0x3c717294	0.01473679
111	0xbd48584a	-0.048912324
112	0xbccaeaa9	-0.024770098
113	0xbd4fda28	-0.05074516
114	0x3cbe7ab7	0.023251874
115	0xbc918ca7	-0.017767264
116	0xbd96751d	-0.07346556
117	0xbcc5b4ad	-0.024134004
118	0x3c1944f3	0.009354818
119	0x3c92af2b	0.017905792
120	0x3d2e9dd0	0.04263097
121	0x3d28fd07	0.04125693
122	0x3d9ffc77	0.07811826
123	0x3d157f34	0.036498263
124	0x3cd85fc3	0.02641285
125	0x3d2d277f	0.042273995
126	0xbdbf6c4c	-0.09346828
127	0xbc94610c	-0.018112682
128	0xbc86a42b	-0.016435703
129	0xbd4c8353	-0.049929928
130	0x3cae545a	0.021280456
131	0x3a6d0a09	0.0009042328
132	0xbda0bf6a	-0.07849009
133	0xbd886b73	-0.06661119
134	0xbd0efd23	-0.03490938
135	0xbdb18ad4	-0.086690575
136	0xbd3253c1	-0.043536905
137	0xbb13812d	-0.0022507415
138	0xbd328b91	-0.043590132
139	0xbce12888	-0.027485147
140	0x3be84471	0.007088237
141	0xbdc90ea9	-0.09817249
142	0xbd83261c	-0.06403753
143	0xbc234083	-0.009964111
144	0xbd12acf4	-0.035809472
145	0xbd0bb5b6	-0.03410884
146	0xbcc4653d	-0.023974055
147	0xbb5490ed	-0.0032435015
148	0x3ce351a1	0.027748885
149	0x3c6d16b3	0.014470744
150	0x3cf0f449	0.02941336
151	0x3d393eca	0.045225896
152	0x3c4d8748	0.012544461
153	0xbc693eec	-0.014236193
154	0xbc49518a	-0.012287507
155	0xbd5a57b8	-0.05330631
156	0x3c941d9f	0.01808053
157	0xba751eae	-0.000935058
158	0xbcde7935	-0.027157405
159	0xbd9c21e3	-0.07623651
160	0xbd72b8d9	-0.059258316
161	0xbd8c76b9	-0.06858582
162	0x3d890b71	0.066916354
163	0x3cd96594	0.026537694
164	0x3d7cbd16	0.061703764
165	0x3db3a40b	0.08771523
166	0x3c05ada1	0.008159072
167	0x3b6af66c	0.0035852445
168	0xbd47532f	-0.048663314
169	0xbdbf0185	-0.09326462
170	0xbd83a123	-0.06427219
171	0xbcc466e5	-0.023974845
172	0xbcb4a275	-0.022050122
173	0xbc69de3d	-0.014274177
174	0xbd3588a8	-0.04431978
175	0xbd37dca3	-0.04488815
176	0xbd3cd373	-0.04610009
177	0x3d14321e	0.036180608
178	0x3ce12671	0.02748415
179	0x3c93f3ce	0.018060591
180	0xbd7f4720	-0.06232369
181	0xbd31aeaa	-0.043379463
182	0xbc7a6215	-0.015282174
183	0x3b8cbdb4	0.0042950753
184	0x3c9895c6	0.018626105
185	0x3ccf30d2	0.025291834
186	0xbc103a4b	-0.008802961
187	0x3c51435d	0.012772408
188	0xbb1cfb2d	-0.0023953423
189	0xbd52b17f	-0.051438805
190	0x3d33e02b	0.043914955
191	0xbc378f9d	-0.011203674
192	0xbce9375a	-0.028468776
193	0x3ce2e791	0.02769831
194	0x3ccbe6d4	0.02489034
195	0xbbbf8ad9	-0.0058454094
196	0x3ceb4ae3	0.028722232
197	0xbc253f1a	-0.010085845
198	0xbcd64322	-0.026155058
199	0xbdca28f6	-0.09871094
200	0xbd2604a3	-0.040531766
201	0x3cfc0fcc	0.030769251
202	0x3d4a2934	0.0493557
203	0x3b881df9	0.0041539636
204	0xbcd98e1a	-0.026557017
205	0x3ae76ee3	0.0017656948
206	0xbbf51400	-0.007479191
207	0xbd3c1841	-0.045921568
208	0xbcfe6065	-0.031051824
209	0xbd2e593f	-0.04256558
210	0xbd8187da	-0.0632474
211	0xbca5fdff	-0.020262716
212	0xbd855c4c	-0.06511745
213	0xbcf8f06d	-0.030388081
214	0xbd1c9f0f	-0.038237628
215	0x3be68f97	0.00703616
216	0xbd9edf3f	-0.077574246
217	0xbd515404	-0.051105514
218	0xbd619e5b	-0.05508266
219	0xbcdc6f02	-0.026908401
220	0xb9d6799d	-0.0004090787
221	0x3c0771bb	0.008266862
222	0xbde579d7	-0.1120488
223	0xbd4dbe7a	-0.05023048
224	0xbcaae275	-0.020859936
225	0xbdb386db	-0.08765956
226	0xbd7abc63	-0.061214816
227	0xbd0077b0	-0.031364143
228	0x3b3437c9	0.002749907
229	0xbd0d7e4e	-0.03454428
230	0x3c27993b	0.010229404
231	0xbdcb971e	-0.09940933
232	0xbd90b18e	-0.07065116
233	0xbd37c475	-0.04486509
234	0xbcfaa0d3	-0.030594265
235	0x3c1ece76	0.009692779
236	0x3b35e358	0.0027753916
237	0xbce6ddf8	-0.028182015
238	0xbc9f1879	-0.01942085
239	0xbc048449	-0.00808818
240	0xbc0b6157	-0.008507094
241	0x3c8dd3ce	0.01731291
242	0x3db65493	0.0890285
243	0xbc85c5ec	-0.016329728
244	0xbbb1902b	-0.0054187975
245	0x3d44a9ba	0.048013426
246	0xbcc34f98	-0.023841664
247	0x3c2db686	0.010602599
248	0x3d008e3e	0.031385653
249	0xbc381a00	-0.011236668
250	0x3d22886f	0.039680894
251	0x3c97c7ac	0.018527828
252	0xbd724c1b	-0.05915461
253	0xbd2a5e1e	-0.041593663
254	0xbd86ce55	-0.065823235
255	0xbc5e6513	-0.013573903

body.block1.conv.bias f4 [32]
0	0x3cb0732d	0.021539295
1	0xbddb0e70	-0.10696113
2	0x3d2bfcd1	0.04198915
3	0xbd8c8e7a	-0.06863113
4	0xbc0973c7	-0.00838942
5	0xbbc44b83	-0.005990447
6	0xbdf32a5e	-0.11873315
7	0xbdcab7c8	-0.09898335
8	0xbcadcd50	-0.021216065
9	0x3c6d2640	0.014474452
10	0x3bb553ea	0.005533685
11	0x3d678132	0.056519695
12	0xbdc07340	-0.09396982
13	0xbd2a6f53	-0.041610073
14	0xbd58a24c	-0.052889153
15	0x3db4f3f7	0.08835595
16	0xbbbbbe8d	-0.0057295025
17	0x3d8a3829	0.06748993
18	0xbd7b84f6	-0.0614061
19	0xbc4d5100	-0.012531519
20	0xbd280f22	-0.041030057
21	0xbd730a3f	-0.059335943
22	0xbd419d96	-0.047269426
23	0xbce574c9	-0.028009789
24	0xbbd46424	-0.0064816643
25	0x3b21d72f	0.002469491
26	0xbd21cea8	-0.039503723
27	0xbd01da60	-0.0317024
28	0xbdd6eae1	-0.10494018
29	0xbd1166b9	-0.035498355
30	0x3ccc64b3	0.02495036
31	0xbccb21ca	-0.024796385

body.block1.norm.weight f4 [32]
0	0x3f6359e7	0.88809055
1	0x3f734510	0.95027256
2	0x3f593516	0.8484663
3	0x3f6aebbd	0.9176596
4	0x3f870663	1.0548824
5	0x3f6b85e6	0.9200119
6	0x3f67ed1d	0.9059618
7	0x3f6c79e9	0.9237352
8	0x3f67cf12	0.9055034
9	0x3f6a6437	0.91559166
10	0x3f634b81	0.88787085
11	0x3f6a9ef4	0.91648793
12	0x3f6bf74c	0.9217422
13	0x3f6b964c	0.9202621
14	0x3f71a462	0.94391453
15	0x3f759e73	0.959449
16	0x3f81b7b3	1.0134186
17	0x3f807afb	1.0037531
18	0x3f813ae0	1.0096092
19	0x3f581978	0.8441386
20	0x3f7cff1b	0.9882676
21	0x3f590516	0.84773386
22	0x3f6c1ae4	0.9222853
23	0x3f74541f	0.9544086
24	0x3f7ae376	0.9800333
25	0x3f699c73	0.9125435
26	0x3f8b3d77	1.0878133
27	0x3f606492	0.8765346
28	0x3f78a6e5	0.9712966
29	0x3f617aab	0.880778
30	0x3f7c0769	0.98448807
31	0x3f71fe38	0.9452853

body.block1.norm.bias f4 [32]
0	0xbcb94ffc	-0.022621147
1	0x3dda0c87	0.10646921
2	0x3e02690d	0.12735386
3	0x3f14c41e	0.5811175
4	0x3e4b0bbd	0.19828697
5	0x3ef7c7f6	0.48394746
6	0x3f307303	0.68925494
7	0x3f498fb0	0.78734875
8	0x3ed59693	0.41716442
9	0xbdda1dd2	-0.10650219
10	0x3e834697	0.25639793
11	0x3e1b39bd	0.15158744
12	0x3e8a282b	0.2698377
13	0x3f281d5f	0.65669817
14	0x3eea3739	0.45745257
15	0xba97ff38	-0.0011596447
16	0x3bef912a	0.007311006
17	0x3ec8882d	0.39166394
18	0x3eb411e8	0.3516991
19	0x3f188414	0.59576535
20	0x3e98c4c2	0.29837614
21	0x3ecbaf57	0.3978221
22	0x3ec84e98	0.39122462
23	0x3eb4b1be	0.35291857
24	0x3ebf1da1	0.37327293
25	0xbca08600	-0.019595146
26	0xbc2ea888	-0.010660298
27	0x3f5012d4	0.8127873
28	0x3f222a9a	0.63346255
29	0x3f84bf30	1.0370846
30	0x3df31ba3	0.11870506
31	0x3ebd6d43	0.36997423

body.block1.norm.running_mean f4 [32]
0	0xbeeb5a3e	-0.45967287
1	0xbed4f77d	-0.4159507
2	0xbea4df5b	-0.32201657
3	0x3c036d28	0.00802163
4	0xbe92bf22	-0.28661448
5	0x3e811bf6	0.25216645
6	0x3f00bf3a	0.5029179
7	0x3e9a93d1	0.301909
8	0xbe264dcd	-0.16240616
9	0xbecfcabf	-0.4058437
10	0xbf902c24	-1.1263471
11	0xbd60f1dc	-0.054918155
12	0x3f47ad9f	0.779993
13	0xbeed1d37	-0.46311352
14	0x3edd6e80	0.43248367
15	0xbf3a433b	-0.72758836
16	0xbecbbc45	-0.39792076
17	0xbe003d9a	-0.12523499
18	0xbe3592a1	-0.17731716
19	0xbe007bcd	-0.12547226
20	0x3f7d5997	0.9896483
21	0xbf21c43b	-0.6319005
22	0xbf166678	-0.58750105
23	0xbeadab6d	-0.3391985
24	0xbf185ac0	-0.59513474
25	0xbf0564e4	-0.5210707
26	0xbb96dd6f	-0.0046040337
27	0x3f2a7a11	0.6659251
28	0x3d15a076	0.03652998
29	0xbe38314c	-0.17987555
30	0xbf45056c	-0.769614
31	0xbe5d6904	-0.21622092

body.block1.norm.running_var f4 [32]
0	0x3ea10535	0.31449285
1	0x3d78a498	0.060703844
2	0x3d8863b4	0.06659642
3	0x3d2c2bf4	0.042034104
4	0x3e1d1239	0.15338983
5	0x3e02afe6	0.12762412
6	0x3ebd6572	0.3699146
7	0x3dbf75c9	0.093486376
8	0x3d9c8092	0.0764171
9	0x3e25a66d	0.16176768
10	0x3de3ce95	0.11123387
11	0x3d1e452d	0.03864019
12	0x3e152e46	0.14568433
13	0x3d0297cf	0.031883057
14	0x3d7b5d79	0.06136844
15	0x3d1cf8ba	0.03832314
16	0x3de2a223	0.110660814
17	0x3d27e344	0.04098822
18	0x3e3df2b3	0.18549614
19	0x3d868a75	0.06569377
20	0x3f2b6510	0.66951084
21	0x3dc110cd	0.094270326
22	0x3d324b0c	0.0435286
23	0x3df26034	0.118347555
24	0x3f24db12	0.64396775
25	0x3d06a191	0.032868925
26	0x3d31c450	0.04340011
27	0x3ecfb406	0.40567034
28	0x3f078932	0.5294372
29	0x3e0f76fa	0.1401023
30	0x3ea2e7a4	0.31817353
31	0x3d93d6a8	0.07218677

body.block2.conv.weight f4 [32, 32, 3, 3]
0	0xbc448b14	-0.011996049
1	0x3c4b0181	0.012390495
2	0x3d31b5ca	0.04338626
3	0x3b9ca8ea	0.0047808783
4	0xbc07b92a	-0.008283893
5	0xbc374a8a	-0.011187205
6	0x3c0fc370	0.008774623
7	0xbc56e5a8	-0.013116278
8	0xbcdb0a33	-0.026738262
9	0x3db4afee	0.088226184
10	0x3d339f3d	0.043853033
11	0x3d339667	0.043844607
12	0x3d7f2fd7	0.062301483
13	0x3cd77fa6	0.026305985
14	0x3c96a09e	0.018387135
15	0x3ca81479	0.020517575
16	0xbc3d4c36	-0.011553815
17	0xbcef3edc	-0.029204778
18	0x3c2a524e	0.0103955995
19	0x3b3d4baf	0.0028884222
20	0x3aaaed54	0.00130407
21	0x3d48b26a	0.048998274
22	0x3cb7d6e8	0.022441342
23	0x3cc1ead6	0.023671549
24	0x3d41ec49	0.04734448
25	0x3d4dd940	0.050256014
26	0x3c87c515	0.016573468
27	0xbd028708	-0.031867057
28	0x3cddd502	0.02707911
29	0xbb0fc674	-0.0021938356
30	0xbc589389	-0.013218769
31	0x3d133faa	0.035949387
32	0x3d1ac6f4	0.037787393
33	0x3d95bfe2	0.07311989
34	0x3dfdf2c7	0.12399822
35	0x3dc790b3	0.09744396
36	0x3d90ebaf	0.07076203
37	0x3d40bd2a	0.0470554
38	0xbccce60f	-0.025012044
39	0x3cfaf5b2	0.030634735
40	0x3d533148	0.05156067
41	0xbd5b19e0	-0.053491473
42	0x3d4787f5	0.048713643
43	0x3dc931ab	0.098239265
44	0xbc047648	-0.008084841
45	0x3afec98e	0.001943873
46	0x3d422055	0.047394115
47	0xbd0f09f1	-0.03492159
48	0xbb4aebf7	-0.00309634
49	0x3d708887	0.058723953
50	0xbcb74607	-0.022372259
51	0x3c9af66f	0.018916337
52	0x3d837acd	0.06419907
53	0xbc600221	-0.013672383
54	0xbc15218e	-0.009102238
55	0x3c8864e8	0.016649678
56	0x3c1a9846	0.009435719
57	0xba91ade0	-0.0011114441
58	0x3d383945	0.04497649
59	0xbbc0db89	-0.0058855456
60	0x3c36ad1d	0.011149672
61	0x3d6741dc	0.056459293
62	0x3d1e89a0	0.03870547
63	0xbcbb0653	-0.022830164
64	0x3c5d19cb	0.013494919
65	0x3d3a5b39	0.045497153
66	0xbd38239a	-0.044955827
67	0x3d09df08	0.033659965
68	0x3cd0dee5	0.02549691
69	0x3ca29cf8	0.01985024
70	0x3d9690a2	0.07351805
71	0x3e0384ad	0.1284358
72	0x3d17f94e	0.03710299
73	0xb9d96da3	-0.0004147115
74	0xbd097f97	-0.033568945
75	0x3c179302	0.009251358
76	0xbcbcdf89	-0.023055809
77	0xbd64cba2	-0.055858262
78	0x3ca5fff4	0.02026365
79	0xbd0f33cd	-0.03496151
80	0xb9d06366	-0.0003974691
81	0x3cb89599	0.022532271
82	0x3c4fc81e	0.012681989
83	0x3d13a6b9	0.03604767
84	0x3cfce6e5	0.030871818
85	0x3c55bbaa	0.013045231
86	0x3c1dbc7d	0.009627459
87	0x3d20cb57	0.03925642
88	0x3d800849	0.0625158
89	0x3da10efe	0.07864188
90	0x3d2210fc	0.03956698
91	0x3c67f29f	0.0141569665
92	0xbc5a9971	-0.013342247
93	0xba42ef7d	-0.0007436199
94	0xbc2ca8ec	-0.010538321
95	0xbc8f8143	-0.017517691
96	0x3c3e8bed	0.011630041
97	0xbcd0576a	-0.025432307
98	0x3bf73efe	0.007545351
99	0x3c5f6aee	0.013636334
100	0x3cc56916	0.02409796
101	0x3d00f884	0.031487003
102	0xbd54985f	-0.051903125
103	0xbcc0ddf0	-0.023543328
104	0x3cf910db	0.030403545
105	0xbdfd2e9d	-0.123624064
106	0xbd8b70a9	-0.068085976
107	0xbceac82d	-0.028659904
108	0xbc4c1380	-0.012455821
109	0xbca208e7	-0.019779636
110	0xbce24692	-0.027621541
111	0xbce5977e	-0.028026339
112	0x3c197557	0.009366355
113	0x3cce2e76	0.025168639
114	0xbd4286cc	-0.047491834
115	0xbd0f1b8e	-0.034938388
116	0xbbd09847	-0.006365809
117	0xbd8125e8	-0.06306058
118	0xbc94f742	-0.018184308
119	0xbcfe4333	-0.031037902
120	0x3c88a0b7	0.016678197
121	0xbce9661a	-0.028491069
122	0xb9f0b225	-0.00045909095
123	0xbb89547b	-0.004190979
124	0xbce6e392	-0.028184686
125	0x3b3ebdcd	0.002910483
126	0xbd49140e	-0.04909139
127	0x3d0d1966	0.03444805
128	0x3b0e908c	0.0021753637
129	0x3ca8085d	0.0205118
130	0xbc453078	-0.012035482
131	0xbcf85a73	-0.030316567
132	0x3d6ff9bf	0.058587786
133	0x3d94fd7c	0.07274911
134	0x3d9973ea	0.07492812
135	0x3d28aae6	0.041178606
136	0x3c1f5946	0.009725874
137	0x3d2bb408	0.041919738
138	0x3da74d4e	0.081690416
139	0xbb90090d	-0.00439561
140	0x3d868730	0.06568754
141	0x3d0999cb	0.033593934
142	0x3cb5f5ee	0.022211995
143	0x3da12213	0.07867827
144	0x3cac8d1f	0.021063386
145	0x3b98818c	0.004654115
146	0x3c57bcef	0.013167604
147	0xbcd358a3	-0.025799101
148	0x3cd32308	0.02577354
149	0x3cda55ac	0.02665218
150	0x3d3b88a9	0.045784626
151	0x3c85b007	0.016319288
152	0x3d822af1	0.06355847
153	0x3d62108b	0.055191558
154	0xbb6ab782	-0.0035814946
155	0xbd73b52b	-0.059498947
156	0x3c6934fd	0.014233825
157	0xbd56f712	-0.05248172
158	0xbd63ffea	-0.05566398
159	0x3d252b8a	0.040324725
160	0xbd012407	-0.0315285
161	0xbcb4a7f5	-0.022052744
162	0xbc8337ac	-0.016017757
163	0xbd3837cf	-0.0449751
164	0xbd26c861	-0.04071844
165	0xbd8aa34d	-0.067694284
166	0xbd2dced7	-0.042433586
167	0xbd3b553b	-0.04573558
168	0x3c0beef7	0.00854086
169	0xbc8711cc	-0.016487978
170	0x3d3b8245	0.04577853
171	0x3c5b034f	0.013367488
172	0x3d10f5b4	0.03539057
173	0x3b530544	0.0032199183
174	0xbd4edc05	-0.050502796
175	0xbce92816	-0.028461497
176	0xbbfaefd5	-0.0076579847
177	0xbd144e20	-0.03620732
178	0x3bd88751	0.006607928
179	0x3d0afcc4	0.033932462
180	0xbbf1f9c8	-0.0073845126
181	0x3b8d1b36	0.0043062223
182	0x3d25baf6	0.040461503
183	0xbd11683e	-0.035499804
184	0x3c64b554	0.013959248
185	0xbce29bce	-0.027662184
186	0xbdcd8d5d	-0.100367285
187	0xbc912cfc	-0.017721646
188	0xbd60ff7a	-0.05493114
189	0x3d9306bf	0.07179021
190	0x3d6f35ba	0.058400847
191	0x3d127447	0.035755422
192	0x3dae37d1	0.0850674
193	0x3da52be2	0.080650106
194	0x3d95fbf8	0.0732345
195	0x3ce4b2c1	0.027917268
196	0x3d35453b	0.044255476
197	0x3cf8590b	0.030315896
198	0xbd1de7de	-0.038551204
199	0xbcd9738d	-0.026544357
200	0xbccfb9fb	-0.025357237
201	0xbcbe2a61	-0.023213567
202	0xbc05de12	-0.0081706215
203	0xbd25453b	-0.040349226
204	0x3a13ae19	0.00056335476
205	0x3c755432	0.014973687
206	0xbd107f90	-0.035277903
207	0xbc5fb003	-0.013652804
208	0xbc796ae8	-0.015223242
209	0xbc0271a8	-0.007961668
210	0x3a7a23ff	0.0009542107
211	0x3ab12697	0.0013515529
212	0x3c4f0f4b	0.0126379235
213	0xbc0ecdcf	-0.008716061
214	0xbcb9145e	-0.02259272
215	0xbc6513f6	-0.01398181
216	0x3d9d3396	0.07675855
217	0x3d99452c	0.074838966
218	0x3cdf78c9	0.027279275
219	0x3d70ef98	0.058822244
220	0x3ce90fb7	0.028449876
221	0x3d3356e0	0.043784022
222	0x3d60eb20	0.054911733
223	0x3dd30469	0.103035755
224	0x3c3ba569	0.011453011
225	0xbc83ef20	-0.016105235
226	0x3d850eaf	0.06496941
227	0x3d963b01	0.07335473
228	0xbccd5606	-0.025065433
229	0xbc6c89b7	-0.014437131
230	0x3d54e7b7	0.051978793
231	0xbc33725b	-0.010952557
232	0xbb46e969	-0.0030351526
233	0x3cfad1f1	0.030617686
234	0x3dc3e009	0.09564216
235	0xbada95fa	-0.0016676777
236	0xbd08dbcd	-0.033412743
237	0x3d91b0ab	0.07113775
238	0x3ae28f9d	0.0017285232
239	0xbd89398e	-0.06700431
240	0x3d8c42f7	0.0684871
241	0xbc45e811	-0.012079255
242	0xbdd99540	-0.1062417
243	0xbd52ae76	-0.05143591
244	0x3c19acde	0.009379594
245	0xbce507d8	-0.027957842
246	0x3bae5c90	0.005321093
247	0xbca8cfa7	-0.020606829
248	0xbd86b58e	-0.065775976
249	0x3d532c41	0.051555876
250	0x3d6feb91	0.058574263
251	0x3d3f7846	0.04674556
252	0xbd4063ff	-0.046970364
253	0x3c2beabb	0.010492976
254	0x3d20bbeb	0.039241713
255	0xbc4000e3	-0.011718961

body.block2.conv.bias f4 [32]
0	0x3d473359	0.048632953
1	0xbd3c233c	-0.04593204
2	0xbcf2e4e7	-0.029650165
3	0x3d0a2a71	0.03373188
4	0xbcfca1e4	-0.030838914
5	0xbc39e8cc	-0.011347007
6	0x3c601f8a	0.0136793945
7	0xbd41ecb9	-0.047344897
8	0x3cd1e467	0.025621606
9	0x3af61f1f	0.0018777585
10	0xbd73e4e1	-0.059544448
11	0x3c9cc547	0.019137038
12	0x3d0ec106	0.03485205
13	0xbca654fe	-0.0203042
14	0x3d37321e	0.04472553
15	0x3d0c2bf1	0.034221593
16	0xb90a3a55	-0.00013182436
17	0xbc94974d	-0.018138552
18	0x3d52d13b	0.05146907
19	0xbca765a0	-0.0204342
20	0x3d1b4be6	0.03791418
21	0xbc27fffe	-0.010253904
22	0x3ca80b29	0.020513134
23	0xbd87f97a	-0.06639381
24	0x3c23b874	0.0099927075
25	0x3cb59522	0.022165839
26	0xba01ffed	-0.00049590954
27	0xbc1b521a	-0.009480024
28	0xbd5ff817	-0.054679956
29	0x3d43b203	0.047777187
30	0xbc8a88d0	-0.01691094
31	0xbd113796	-0.0354534

body.block2.norm.weight f4 [32]
0	0x3f5e98c4	0.8695185
1	0x3f6faf94	0.93627286
2	0x3f747e62	0.95505345
3	0x3f35316e	0.7077855
4	0x3f68db9e	0.9096011
5	0x3f73063b	0.9493138
6	0x3f7dcd36	0.9914125
7	0x3f669e54	0.9008534
8	0x3f69cb71	0.9132605
9	0x3f82dda9	1.0223895
10	0x3f5d5cbb	0.8646962
11	0x3f70581b	0.9388444
12	0x3f3e7345	0.7439464
13	0x3f5ad3a2	0.85479176
14	0x3f7cd495	0.98761874
15	0x3f609cc0	0.8773918
16	0x3f59ae12	0.85031235
17	0x3f6f7524	0.9353812
18	0x3f66b9b3	0.90127105
19	0x3f36b6f3	0.7137291
20	0x3f4a4b18	0.79020834
21	0x3f6cea3f	0.9254493
22	0x3f718d66	0.9435638
23	0x3f782fc2	0.9694787
24	0x3f5f4537	0.8721499
25	0x3f80389c	1.0017276
26	0x3f72a774	0.94786763
27	0x3f7b3b5b	0.98137444
28	0x3f5abc97	0.85444015
29	0x3f19e7fd	0.6011961
30	0x3f7b5f11	0.98191935
31	0x3f38f327	0.7224602

body.block2.norm.bias f4 [32]
0	0x3ec41b94	0.3830229
1	0x3e71dd3f	0.23619555
2	0x3ecc2980	0.39875412
3	0x3f4ab8e0	0.79188347
4	0x3ec14265	0.37745968
5	0x3f086baf	0.5328931
6	0x3f2143f0	0.6299429
7	0x3e118c6c	0.14213723
8	0x3f5ff787	0.8748707
9	0x3ec2013d	0.3789157
10	0x3f0bf4e1	0.5467053
11	0x3ef17f29	0.47167328
12	0x3f7c8d80	0.9865341
13	0x3f30b70b	0.690293
14	0x3dcd977b	0.10038658
15	0x3e7943c6	0.2434226
16	0x3ee6fb32	0.45113522
17	0x3ea335c3	0.31876954
18	0x3ea90888	0.3301432
19	0x3f47b79b	0.78014535
20	0x3f642f2c	0.8913448
21	0x3f07ce8b	0.53049535
22	0x3e4a2da8	0.19743979
23	0xbc442520	-0.011971742
24	0x3f683e7a	0.9072033
25	0x3ef3d55a	0.47623712
26	0x3e636c16	0.222092
27	0xbba18496	-0.0049291356
28	0x3e1db3c7	0.15400611
29	0x3fa0eab3	1.2571625
30	0x3eefac93	0.4681135
31	0x3f475523	0.77864283

body.block2.norm.running_mean f4 [32]
0	0x3f1abb34	0.604419
1	0x3f7c73cb	0.98614186
2	0xc04e36ed	-3.2221024
3	0x3f43ee96	0.7653593
4	0x3f44a3c5	0.7681239
5	0xc002fe30	-2.0467644
6	0xbf138a26	-0.5763267
7	0xbef42cdb	-0.47690472
8	0xbfb1e7c2	-1.3898852
9	0xbea0d1c2	-0.31410033
10	0xbf4f754b	-0.8103835
11	0xbd1980d4	-0.037476376
12	0xbfaf5f84	-1.3701024
13	0xbfaf6c7d	-1.3704983
14	0xbe329e3a	-0.17443171
15	0x3f53a242	0.8266946
16	0xbf5fae29	-0.8737512
17	0x3f6f3d0e	0.9345254
18	0xbfbafe80	-1.4608917
19	0x3eb76934	0.3582245
20	0x3eda3a32	0.42622524
21	0xbf897eda	-1.0741837
22	0xbca0841f	-0.01959425
23	0xbf91c9e0	-1.1389732
24	0x3e0c9a20	0.13730669
25	0xbef9fb9f	-0.48824784
26	0xbdc9a4be	-0.09845875
27	0xbf1a8c25	-0.60370094
28	0x3ed3d4a1	0.4137316
29	0xbfbb4404	-1.4630132
30	0x3ef57c33	0.4794632
31	0xbf3369c9	-0.7008329

body.block2.norm.running_var f4 [32]
0	0x3f125005	0.5715335
1	0x3fd2e8cf	1.6477298
2	0x4045fec5	3.093675
3	0x401096a4	2.2591944
4	0x3ef6f318	0.4823234
5	0x3ffd57c1	1.9792405
6	0x3fefd3cd	1.8736511
7	0x3f9eaac0	1.2395859
8	0x40050587	2.0784624
9	0x3f7172e8	0.9431596
10	0x4015ab46	2.3385787
11	0x3f2fbe2e	0.68649566
12	0x3f86c996	1.0530269
13	0x3f7f61ec	0.9975879
14	0x3fbe0d8e	1.4847887
15	0x3f986857	1.1906842
16	0x3facdc2b	1.350469
17	0x3fc5020b	1.5391248
18	0x3f8425a4	1.0323987
19	0x400aed31	2.170727
20	0x3fd82a59	1.6887923
21	0x3f64df59	0.894033
22	0x3f0dcbb3	0.55388945
23	0x3f82537d	1.0181729
24	0x3f366330	0.712451
25	0x3f51c8bb	0.81946915
26	0x3fb9f2b7	1.4527196
27	0x3f22d66b	0.63608426
28	0x3e98f420	0.29873753
29	0x3fd82e14	1.6889062
30	0x3f9b9bc3	1.215691
31	0x3fb1280a	1.3840344

body.block3.conv.weight f4 [32, 32, 3, 3]
0	0xbd27327d	-0.040819634
1	0x3ba4e216	0.0050318344
2	0x3c945f88	0.01811196
3	0xbce77b3c	-0.028257005
4	0xbc8da391	-0.017289909
5	0x3d06fc65	0.032955546
6	0xbd6161af	-0.0550248
7	0xbc8977db	-0.016780784
8	0x3cd4f248	0.025994435
9	0x3d15e5d8	0.03659615
10	0xbc93fc59	-0.018064665
11	0xbd190cd7	-0.03736576
12	0xbb955927	-0.004557747
13	0xbbd54a60	-0.0065091103
14	0xbd01600e	-0.031585746
15	0xbd0545ba	-0.0325372
16	0xbd2d4a59	-0.04230723
17	0xbd709661	-0.058737163
18	0xbd72883d	-0.05921196
19	0xbd95e534	-0.07319108
20	0xbd95c934	-0.07313767
21	0xbc81603e	-0.015792962
22	0xbcfd6264	-0.030930705
23	0xbd14c75d	-0.03632294
24	0xbd98e35c	-0.0746524
25	0xbd8af6c8	-0.06785351
26	0xbd929e71	-0.071591265
27	0x3d3643e9	0.044498358
28	0x3d85c9c1	0.06532622
29	0x3d927bbf	0.07152509
30	0x3d677cfc	0.05651568
31	0x3d50a94a	0.050942697
32	0x3d42c49f	0.047550794
33	0x3d00fb4b	0.03148965
34	0x3d309dae	0.043119125
35	0xbc6d11bb	-0.014469559
36	0x3b12cddd	0.0022400536
37	0xbd33317d	-0.043748368
38	0x3ca45fd0	0.020065218
39	0xbd26ae90	-0.04069382
40	0xbd2a7fd1	-0.0416258
41	0xbaedada6	-0.0018133416
42	0xbcdd4de3	-0.027014678
43	0xbcc60a1d	-0.024174744
44	0x3b5c33e7	0.0033600272
45	0xbc46850e	-0.012116684
46	0x3d3a8889	0.045540366
47	0x3d55d183	0.05220176
48	0x3d11667e	0.035498135
49	0x3be3bfe1	0.006950364
50	0x3cb73f91	0.022369178
51	0xbd4adec5	-0.049528856
52	0xbd5edddd	-0.054410804
53	0xbd11a1ff	-0.035554882
54	0xbd3ab9cc	-0.045587346
55	0xbdf4eed0	-0.11959612
56	0xbdf79afb	-0.12090107
57	0xbdb38694	-0.08765903
58	0xbdd44b67	-0.10365944
59	0xbdc43b86	-0.09581666
60	0xbdce7222	-0.10080363
61	0xbd7ddb8d	-0.061976958
62	0xbdff00c7	-0.1245132
63	0x3d0892d3	0.033343147
64	0x3cfd2e06	0.030905735
65	0x3cdda147	0.027054442
66	0x3dbe9e50	0.093075395
67	0x3d134f51	0.035964314
68	0xbc89a637	-0.01680289
69	0x3dba4af7	0.0909633
70	0x3d7997a1	0.06093562
71	0x3d37b884	0.044853702
72	0xbc04b705	-0.008100276
73	0x3d524729	0.051337395
74	0xbc73e32c	-0.014885705
75	0x3d323f9b	0.04351769
76	0x3d001e97	0.031279173
77	0x3d34e918	0.044167608
78	0x3d4b1699	0.049582098
79	0x3df00a61	0.117207296
80	0x3d24a96a	0.04020063
81	0x3c3f0acf	0.011660292
82	0x3d5bf665	0.053701777
83	0x3d218673	0.03943486
84	0xbcf4d242	-0.029885415
85	0xbb88c591	-0.0041739424
86	0xbcaf0e98	-0.021369264
87	0x39eab03e	0.0004476327
88	0x3cca74b2	0.024713848
89	0xbc57d25b	-0.013172711
90	0xbd3955c2	-0.0452478
91	0x3c0a24da	0.008431638
92	0x3d3b145b	0.04567371
93	0x3ce93454	0.028467335
94	0x3d5bc7ba	0.05365727
95	0x3d830ae7	0.06398564
96	0xbbafc909	-0.0053645414
97	0x3dab813c	0.08374259
98	0x3d41ab75	0.047282655
99	0x3d96409c	0.07336542
100	0x3d428e63	0.04749907
101	0x3db77600	0.089580536
102	0xbd5bd70c	-0.05367188
103	0x3b1acf94	0.0023622261
104	0xbd1914dc	-0.03737341
105	0xbd41bf7e	-0.04730176
106	0x3d061499	0.032734487
107	0xbc7fbb92	-0.015608685
108	0xbc31701c	-0.010829952
109	0x3cd1fe67	0.025634004
110	0x3c24e70d	0.010064852
111	0x3cd7b67b	0.02633213
112	0x3c6f18d3	0.014593321
113	0xbb427265	-0.0029670235
114	0x3ca9a044	0.020706303
115	0x3d2e6476	0.042576276
116	0x3cdc7207	0.026909841
117	0xbda83a6f	-0.0821427
118	0xbded163e	-0.11576508
119	0xbdabf39b	-0.083960734
120	0x3cfe1830	0.031017393
121	0x3c8c5597	0.017130656
122	0x3d672e0c	0.056440398
123	0x3caa794b	0.02080979
124	0x3beda520	0.0072523504
125	0x3d422326	0.0473968
126	0x3c58f8f4	0.013242949
127	0x3acf812f	0.0015831346
128	0x3c48d874	0.012258638
129	0xbd051aea	-0.03249637
130	0xba6422c4	-0.000870269
131	0x3c7bbbdb	0.015364612
132	0xbde998c7	-0.11406093
133	0xbde4d568	-0.111735165
134	0xbda303c2	-0.07959701
135	0xbad768ad	-0.0016434394
136	0x3c7ded72	0.015498506
137	0x3c5801a5	0.013183986
138	0xbbc0eed2	-0.0058878446
139	0x3cd7a00d	0.026321435
140	0x3b5c381b	0.0033602777
141	0xbd9b4276	-0.07581036
142	0xbd131738	-0.035910815
143	0xbd23a767	-0.03995457
144	0x3d8519d1	0.06499065
145	0x3d32e4b3	0.043675136
146	0x3d1ed836	0.038780414
147	0x3c53eeee	0.012935383
148	0xbb0a5f71	-0.0021114016
149	0x3d0abbc1	0.033870462
150	0x3cfdab45	0.030965457
151	0x3cb067d4	0.021533884
152	0x3d409571	0.04701752
153	0xbddb2302	-0.107000366
154	0xbdf7ce4a	-0.120998934
155	0xbd30ac3a	-0.043132998
156	0xbd76bbba	-0.060237624
157	0xbc56ad70	-0.013102874
158	0x3ca5937f	0.020211933
159	0xbd925c0e	-0.07146464
160	0xba368835	-0.00069630455
161	0xbd53227c	-0.05154656
162	0x3d0f53ad	0.03499191
163	0x3d658ed9	0.056044433
164	0x3ddb315b	0.10702773
165	0xbd21970f	-0.0394507
166	0x3c24fe3d	0.010070381
167	0x3da84507	0.08216291
168	0xbc587bd5	-0.013213118
169	0x3cee28fe	0.029072281
170	0x3db1a7ef	0.08674609
171	0x3d42ae29	0.047529373
172	0x3cc058c9	0.023479836
173	0x3c87dfae	0.016586151
174	0x3b199958	0.0023437347
175	0xbc367009	-0.01113511
176	0x3d117e12	0.03552062
177	0x3c4e3fea	0.0125884805
178	0xbc90cd49	-0.017676013
179	0xbb9b128e	-0.0047324365
180	0x3db10e67	0.08645325
181	0x3d340d60	0.043958068
182	0xbc0bc9a6	-0.008531963
183	0x3d66081d	0.05616008
184	0x3d27248b	0.040806334
185	0x3c59b3bf	0.013287484
186	0xbbfa7d45	-0.007644328
187	0x3c668463	0.014069649
188	0xbd7a0ddc	-0.061048374
189	0xbd8c9f55	-0.06866328
190	0xbd5f6598	-0.054540247
191	0x3cdc870f	0.02691987
192	0xbdfe18e3	-0.124070905
193	0xbd8ef284	-0.0697985
194	0xbcf55932	-0.029949758
195	0xbd6e49d5	-0.05817588
196	0xbc463c5b	-0.012099351
197	0x3cbe52e1	0.02323288
198	0xbce5cba7	-0.02805121
199	0xbd5c4182	-0.05377341
200	0x3cb468e4	0.022022672
201	0xbd7d06a0	-0.061773896
202	0xbd58d69d	-0.052939046
203	0xbcee6944	-0.029102929
204	0xbc83327b	-0.016015282
205	0xbd21a37d	-0.039462555
206	0x3ab9a58e	0.0014163719
207	0x3c340326	0.010987079
208	0x3d31e4fb	0.043431263
209	0x3c258a6c	0.010103803
210	0xbd194dd0	-0.037427723
211	0xbcd6727e	-0.026177641
212	0xbc9b4a0e	-0.01895621
213	0xbd8952a6	-0.06705217
214	0xbd8b44f8	-0.06800264
215	0xbd1dbccd	-0.038510133
216	0x3d9ce328	0.07660514
217	0x3da51dd6	0.080623314
218	0x3d8f6663	0.070019506
219	0x3bc484b5	0.005997265
220	0x3cd3fd4c	0.025877617
221	0x3ce8b96a	0.028408725
222	0xbc662b97	-0.014048479
223	0x3ba90cdc	0.0051590037
224	0x3d0a22c0	0.033724546
225	0xbda4da24	-0.080494195
226	0xbcf3af10	-0.029746562
227	0x3d0bfe62	0.034178145
228	0xbc0c62e8	-0.008568503
229	0xbc0149b4	-0.007891107
230	0x3c394fb6	0.0113105085
231	0xbd12d320	-0.035845876
232	0xbba899b9	-0.0051452783
233	0xbcfb0adf	-0.030644832
234	0x3d5a9976	0.053369008
235	0xbd82c477	-0.06385129
236	0xbda03a0c	-0.078235716
237	0xbb6fd8dd	-0.0036597766
238	0xbd5ff6fd	-0.054678906
239	0xbd1cc459	-0.03827319
240	0x3db3fbbd	0.0878825
241	0x3ce11818	0.02747731
242	0x3ced3eea	0.028960664
243	0x3d11a5f0	0.03555864
244	0x3c4cf81f	0.012510329
245	0x3c038400	0.008027077
246	0xbba1210f	-0.004917271
247	0xbd39b395	-0.04533728
248	0xbcb19ec6	-0.021682154
249	0xbd093ac4	-0.03350331
250	0xbda02664	-0.078198224
251	0xbcda91d6	-0.026680868
252	0x3a6608c3	0.00087751093
253	0xbd5b3bd4	-0.053523853
254	0x3cbae0f8	0.022812352
255	0x3d1360b0	0.03598088

body.block3.conv.bias f4 [32]
0	0x3d8e7092	0.06955065
1	0x3d1383a2	0.036014207
2	0xbcc91411	-0.024545701
3	0x3c0f904c	0.00876243
4	0xbd4f9f8d	-0.05068927
5	0xbd003bb9	-0.031306956
6	0xbd4550ad	-0.04817264
7	0x3dda4dcd	0.106593706
8	0xbcfda131	-0.030960651
9	0xbc5d85be	-0.013520656
10	0xbd303dc2	-0.043027647
11	0x3acb3c11	0.0015505572
12	0x3b06225d	0.002046726
13	0x3c953c54	0.018217243
14	0xbd41f915	-0.047356684
15	0xbcf8f92d	-0.030392254
16	0xbc6c5919	-0.014425539
17	0x3d1f23ad	0.038852382
18	0xbd1fce8e	-0.039015345
19	0x3dbc778e	0.09202491
20	0xbc938ea2	-0.018012349
21	0xbcf721f7	-0.030167563
22	0xba71daef	-0.0009226044
23	0x3cbce0e1	0.02305645
24	0x3d15ce52	0.036573716
25	0xbca9b849	-0.020717757
26	0x3c1e8723	0.009675774
27	0x3cd0f75f	0.02550858
28	0x3c7b2c46	0.01533038
29	0xbcb9d054	-0.022682346
30	0xbd1be752	-0.0380624
31	0xbc503105	-0.012707

body.block3.norm.weight f4 [32]
0	0x3f99e334	1.2022462
1	0x3f8d22a4	1.1026196
2	0x3f932f19	1.1498748
3	0x3f9d8442	1.2305987
4	0x3f97930d	1.1841751
5	0x3f82cac0	1.0218124
6	0x3f84f053	1.0385841
7	0x3f7cdd44	0.98775125
8	0x3f6b5cf6	0.9193872
9	0x3f7a9f86	0.97899663
10	0x3f823b32	1.0174315
11	0x3f667c6e	0.90033615
12	0x3f7f2b2e	0.9967526
13	0x3f947edf	1.1601218
14	0x3f8f6f30	1.1205807
15	0x3f94b393	1.1617302
16	0x3f9225e1	1.141781
17	0x3f76c7cd	0.9639862
18	0x3f8af0a6	1.085469
19	0x3f7eccdf	0.9953136
20	0x3f8090f8	1.0044241
21	0x3f7f0932	0.99623406
22	0x3f904277	1.1270283
23	0x3f87eab2	1.0618498
24	0x3f87734e	1.0582063
25	0x3fa26c99	1.2689391
26	0x3f706e41	0.93918234
27	0x3f7c9f9b	0.9868104
28	0x3f8808ba	1.0627663
29	0x3f964848	1.1740808
30	0x3f825357	1.0181683
31	0x3f8a3f7d	1.0800625

body.block3.norm.bias f4 [32]
0	0x3f47ae4f	0.7800035
1	0x3f317b8d	0.6932915
2	0x3e90b02f	0.28259417
3	0x3eaf3e21	0.34227088
4	0xbe702720	-0.23452425
5	0xbe20383c	-0.15646452
6	0xbbea1841	-0.0071440046
7	0x3e85a0d3	0.26099262
8	0xbf16c32f	-0.58891577
9	0xbebf0cbc	-0.37314403
10	0xbe6d0164	-0.23145062
11	0xbf2f98b7	-0.685924
12	0x3e8eba14	0.2787634
13	0x3ea5ba15	0.32368532
14	0x3e816528	0.2527249
15	0x3f17557f	0.5911483
16	0xbcc8ed71	-0.024527283
17	0x3e8969ce	0.26838535
18	0x3f1d7c7c	0.61518073
19	0xbe9ed21f	-0.31019685
20	0xbd9dc87f	-0.07704257
21	0xbe5fc502	-0.21852496
22	0x3e8e61b8	0.27808928
23	0x3f67d5b0	0.90560436
24	0x3eccfa8b	0.400349
25	0x3d918426	0.071052834
26	0xbe9c59f3	-0.30537376
27	0x3da4fa6c	0.08055577
28	0xbeb79d9d	-0.35862437
29	0x3f1d3e01	0.61422735
30	0xbe9eb60c	-0.30998266
31	0x3f4929a3	0.7857916

body.block3.norm.running_mean f4 [32]
0	0x3eb0371f	0.34417054
1	0x402ddf75	2.7167637
2	0x3f7aa9de	0.97915447
3	0x3fa07b5c	1.2537646
4	0xbfb5f105	-1.4214178
5	0xbf83d53d	-1.029945
6	0xbfd5f0ce	-1.6714113
7	0x3fdf8dea	1.7465184
8	0xbedd7865	-0.43255916
9	0xbf65852e	-0.8965634
10	0xbee3e57d	-0.44511023
11	0xbf8a3082	-1.0796053
12	0x3f9e712d	1.2378289
13	0x40088a7a	2.133452
14	0x4009a075	2.1504185
15	0x3e493ff7	0.19653307
16	0xbf55515a	-0.8332726
17	0x3fc9ba91	1.576006
18	0xbfa3b3b9	-1.2789222
19	0xbfa3d3a4	-1.2798963
20	0x3e027b9c	0.12742466
21	0xbfd10ef9	-1.6332694
22	0xbf580086	-0.843758
23	0x3e34a97b	0.17642777
24	0xbf65d964	-0.89784837
25	0xbd0e7c3d	-0.03478645
26	0xbf6d5d43	-0.9272043
27	0x3f03f991	0.51552683
28	0xbe9e65cd	-0.30937043
29	0x3e3c0c0b	0.18363969
30	0xbfc33d5c	-1.52531
31	0x3f86f2b5	1.0542818

body.block3.norm.running_var f4 [32]
0	0x3fa3132a	1.2740223
1	0x3edfbcef	0.43698832
2	0x3f9812a0	1.1880684
3	0x3f8f7842	1.1208575
4	0x3f304904	0.68861413
5	0x3f631433	0.88702697
6	0x3eb5d898	0.3551681
7	0x3f7998ff	0.9749908
8	0x3ed1cde0	0.40977383
9	0x3ee3ba89	0.44478253
10	0x3fd29b9e	1.6453741
11	0x3f0e6831	0.55627733
12	0x3f609c91	0.877389
13	0x3f903d53	1.1268715
14	0x3f137f76	0.57616365
15	0x3f27b8bd	0.65516263
16	0x3ea90d8d	0.3301815
17	0x3f6fdf06	0.9369968
18	0x3f83e099	1.0302917
19	0x3f5f54a6	0.8723854
20	0x3f346f27	0.70482105
21	0x3f036e9a	0.5134064
22	0x3ef1cb01	0.47225192
23	0x3f2e4ecd	0.6808899
24	0x3f787420	0.9705219
25	0x3e9f045f	0.31058022
26	0x3ee9b964	0.45649254
27	0x3f1e95e9	0.61947495
28	0x3faa407c	1.3300929
29	0x3f31e374	0.6948769
30	0x3f6a48da	0.9151741
31	0x3ec26dcc	0.37974393
