TrainedModels/SMB-1-3/scale_factor=0.750000,alpha=10/0/netG.pth (torch, 131586 bytes, 29 tensors)

channel.fc1.weight f4 [2, 32, 1, 1]
00000000: 60bf 003e c46b f03d 4ea3 1b3e 9d82 013e
00000010: 295e 103e 1ff0 1e3e a6cc 0b3e 7c42 b93d
00000020: 4abd 0c3e 8ee1 1b3e f037 273e 3ae4 143e
00000030: 1db2 103e 9253 d93d e4a7 233e d866 0e3e
00000040: 7179 173e 0a21 113e 1797 2d3e 0923 263e
00000050: ffd8 143e 0431 0c3e c179 093e 0453 e23d
00000060: 1c87 193e 5d23 0a3e 7d36 303e 9fe9 0d3e
00000070: d7d6 183e cc62 063e b1dc 013e f291 353e
00000080: a17d 0bbd 02a4 91bc d051 d4bb 2be7 c73a
00000090: e02a 963c 408b ff3a b22e 763c 0ee7 eabc
000000a0: 85da 363a c99a 37bd b8e1 8cbb f746 9c3c
000000b0: de2f 98bc 02b1 5c3b e728 d0bb c3c1 2d3c
000000c0: 8c96 c3bb fa32 a53c b94e dbbc 42b7 7a3c
000000d0: a448 e8bc 366f 0e3c 7911 463d 686a d33c
000000e0: 844e 8abc 8215 5bbc 4472 673a 5a41 c63a
000000f0: cbb7 a23c d178 b7bc a67f 80bc 8e26 f03c
0.12573004 0.11739305 0.15199015 0.12647481 0.14098419 0.15521286 0.13652286 0.09045884
0.13744083 0.15222761 0.16329932 0.14540187 0.14130445 0.10611643 0.15982014 0.1390642
0.1479242 0.1417276 0.16952167 0.16224302 0.14535902 0.13690573 0.13425352 0.1105099
0.14992946 0.13490053 0.17208286 0.1385865 0.14925705 0.13123626 0.12681843 0.17731455
-0.034055356 -0.0177784 -0.0064794794 0.0015251389 0.018330991 0.0019496456 0.0150257815 -0.028674629
0.0006975311 -0.04482535 -0.0042993687 0.019076807 -0.018577512 0.003367484 -0.006352532 0.010605278
-0.0059688743 0.02016591 -0.026770936 0.015302481 -0.02835495 0.008693507 0.048356507 0.025807574
-0.016883142 -0.013371827 0.00088289776 0.0015125677 0.01986303 -0.022396477 -0.015685868 0.02931526

channel.fc2.weight f4 [32, 2, 1, 1]
00000000: e251 a23c 6adc bbba 07ad 613d abcd 3bbc
00000010: 2f45 c43d a92e 5f3c 99b0 243d 39da 06bd
00000020: 2e72 90bd 1a15 1dbc 6375 69bc 25cb 473c
00000030: cc0a b5bc 6990 203d f3b4 0ebd fdcd 413c
00000040: d395 b73d c6ce 853c 3cbb 8f3d 6ae1 4b3c
00000050: f54b ed3c 1286 95b9 818a bf3b 63c7 d63a
00000060: 979e 5a3d 7d5d 563c 38f5 c23d 7d04 cebb
00000070: cca8 853d 9f30 dcbb 7ae2 8a3d 54ea adbb
00000080: 5daa cb3d 698b cf3b 63d4 793e edc5 dd39
00000090: 7940 913e d8a5 18bd 15ae db3c 3b27 2e3c
000000a0: 96ac d1bc aa52 a5bc be5d e7bc c58b 1ebc
000000b0: 98db 443e 4389 bebc 0868 ce3d 5834 b53c
000000c0: 81fb fd3d 0d51 093c 0903 ef3c 4397 5aba
000000d0: dced 173c e6ec c6bc a34a 863d 7814 d1bc
000000e0: 6c48 b23d 2cbf 83bc 759b 523e c2c5 143c
000000f0: 52a1 1bbd a972 e63c 135a 1b3e cadd 253b
0.019814435 -0.0014332656 0.055096652 -0.011462609 0.09583508 0.0136219645 0.04020748 -0.032922957
-0.07053028 -0.009587551 -0.014249179 0.0121944295 -0.022099875 0.03920022 -0.034840535 0.011828897
0.089641236 0.016333949 0.07018134 0.01244388 0.028966883 -0.00028519385 0.0058453684 0.0016386326
0.0533739 0.013083813 0.09519428 -0.006287156 0.06526336 -0.0067196633 0.06781478 -0.005307475
0.099446036 0.0063337577 0.24397425 0.0004229987 0.283695 -0.037267536 0.026816407 0.01062947
-0.02559499 -0.020181019 -0.028242942 -0.009676878 0.19224393 -0.02325881 0.10078436 0.022119686
0.12401486 0.00838114 0.029176252 -0.000833858 0.009273019 -0.024282884 0.065572046 -0.025522456
0.087052196 -0.016082369 0.20567115 0.009080352 -0.037995644 0.028130846 0.1517108 0.0025309199

spatial.conv1.weight f4 [1, 2, 7, 7]
00000000: bec3 25be bb08 163d e277 6d3e d3a2 863e
00000010: 304d 3a3d 182f debd 26c3 7fbe 5d21 5abe
00000020: 4ce1 87bd e97d bd3c 6468 e73c 93a3 aebd
00000030: bc3a 12be 7915 57be 52b7 12be 9310 91bd
00000040: 1371 dfbd 7284 cdbd 5943 47be b049 4bbe
00000050: fc7f 29be aaaa 0dbe b9b0 39be 22b3 6bbe
00000060: 8263 a6be b646 a6be 5e11 6abe 99fd 3cbe
00000070: c673 22bd 6ed4 33bd fd30 68bd 4345 84bd
00000080: f33a d3bd c4b0 e0bd 3a0a fbbd a4fd 4d3d
00000090: b9ef 043e 250b 413e ca3a 433e 6a16 0e3e
000000a0: be68 343d 5ef9 4cbc 56d8 693e 6145 a73e
000000b0: 9459 003f 6f34 073f aebc d13e 580c 8b3e
000000c0: bc52 b93d b139 e9bc 79f6 0c3e d177 613e
000000d0: 8cf0 913e fe2b 5f3e 8c58 a13d a601 283c
000000e0: 0a62 3fbd 0674 ca3c 8c27 ee3d 822b f93d
000000f0: c05e 953d 83ee 8e3c b95a 4dbd 8f26 91bd
00000100: a7c4 a2bc e1e0 32bc 6c46 fdbc bbed 15bd
00000110: a2a8 39bd 5f28 40bd bcbd 1fbd 9bfa 71bd
00000120: e87e abbd c8cc 9abd a25c b6bd 6db5 66bd
00000130: 5f93 93bc 3347 62bc 72f4 58bd 2413 f4bc
00000140: 889a 34bd 3980 00bd 5d99 02bd 5b39 0c3d
00000150: 0877 2ebd 1d61 84ba 137d 2f3d cb66 ab3d
00000160: 6992 4f3d 8ee1 21ba e188 31bc 3118 95bd
00000170: 4e6d 853c 37e4 bb3d c5de 303e 63cf b93d
00000180: d8d3 01bd d5a1 bdbd
-0.16187951 0.03662942 0.23190263 0.262961 0.045483768 -0.10848826 -0.24976787 -0.2130179
-0.06634769 0.023131328 0.02824802 -0.08527293 -0.14280218 -0.21004285 -0.14327744 -0.070832394
-0.10910239 -0.100350276 -0.19459285 -0.19852328 -0.16552728 -0.13834634 -0.1813382 -0.23017552
-0.32497793 -0.32475823 -0.22858188 -0.18456115 -0.03966119 -0.04390376 -0.056687344 -0.06458523
-0.10313978 -0.10971215 -0.1225781 0.05029072 0.12982072 0.18851908 0.19065395 0.13875738
0.044045202 -0.012510626 0.22836432 0.3267012 0.50136685 0.5281438 0.40964264 0.27157855
0.090489835 -0.028469892 0.13765897 0.22018363 0.28503835 0.21794125 0.07878217 0.010254299
-0.046724357 0.024713527 0.11628637 0.121665016 0.07293463 0.017447716 -0.050135348 -0.070874326
-0.019869162 -0.010917873 -0.030917369 -0.03660367 -0.045326836 -0.0469135 -0.038999304 -0.059076887
-0.08373815 -0.0755859 -0.08904387 -0.056325365 -0.018014608 -0.0138109205 -0.052967496 -0.029794283
-0.044092685 -0.031372283 -0.03188454 0.034234386 -0.042593986 -0.0010099743 0.04284389 0.083692156
0.050676737 -0.0006175273 -0.010835857 -0.07280005 0.016287472 0.09174388 0.1727248 0.09072759
-0.03169617 -0.09259383

head.conv.weight f4 [32, 3, 3, 3]
00000000: 3725 8bbd a799 323c dd12 673d 4ae2 5dbc
00000010: ebdd 9f3d a496 9ebd 3fa1 dabc f8bd 263c
00000020: acc5 fe3c a715 43bd 9ef9 91bb 4647 723d
00000030: 8e8d cdbb d5f3 173d 9882 66bd 0d6a f2bc
00000040: 880c 4bbc 65b7 85bb 0bd1 6dbd 4c52 523c
00000050: 9aa8 593d e6c2 c4bb 6ee6 253c f2f5 5dbd
00000060: 8f8a 10bd fc96 09bd 71eb 623c c968 d33c
00000070: 2d90 dbba c930 43bb 7716 09bd 2282 b1bc
00000080: 78f2 c43c 3b4f 06bd 64c7 8fbb 98ec cf3d
00000090: 66ca 103c 2c25 933c d4ea 47bb 342e 133d
000000a0: 8356 003c 66e0 2dbc b48e 50bd 5fad 9cbd
000000b0: 0602 fa3d e97a 0ebc f21b bbbc 2474 9dbb
000000c0: 958c 0ebd d6ac 92bb f689 aabc b0e2 c2bc
000000d0: 4ef3 80bc 5487 eb3d 3f14 f238 8ef1 59bd
000000e0: 326d 233d b250 b3bb 5c7c a1bc 3192 c2bc
000000f0: cab8 813d 40d5 97bb 7261 dfbd a0bd 1d3c
00000100: 2803 0bbc 3da4 65bb a3fa 033c fc18 4bbc
00000110: 21a8 5b3b 9023 833d 942c 1abd f82f c7bd
00000120: 29ef 53bc 3fbf 25bd ac19 793b 97c2 5d3c
00000130: 1756 93bb 2274 9a3a cb78 963d 14a5 c13c
00000140: c9b9 95bd 0631 8abd 24bd 383c 481e 41bc
00000150: 91ee e8bb 9c7b 7e3c a485 1cbd ed3d 2fbd
00000160: 2595 fc3c cdda a53d 99f4 35bd d79a cb3b
00000170: eac8 2fbd 4753 37bd c672 813c b8b0 a7bb
00000180: 52e4 08bd 5ac7 0b3d 88a7 993d 975f 87bd
00000190: 6f1e 343c 2940 2bbd d922 2bbd bb21 fdbb
000001a0: 3847 1a3b 7d11 0ebd 0594 183d 3de5 be3d
000001b0: fd2d 7e3c e609 5a3b a0b1 b939 9dee c2bb
000001c0: 2c8c 08bd b51e dcbc 700f aabd b5a4 10be
000001d0: 800d 353d 0818 d93c 07de c1b9 9c7b 69bb
000001e0: 1454 03bb 7792 d5bb 6654 723c 37a4 9fbd
000001f0: 03de 06be 27c8 ce3c 601f 17bd 3a84 f4bb
00000200: fc7b d6bb 29e8 373c f703 053d 6573 5bb9
00000210: fe64 cabd 7eb3 f5bd 6f85 e93b 5555 a93b
00000220: 89f4 9bbd c1a4 4abc 1565 143c 0164 a93b
00000230: c9da 9fbc 140b ca3d 8393 a6bd be59 10bd
00000240: 40d8 1dbc 4a36 eebb d527 db3c 4500 82bb
00000250: ee5c 55bc f5f8 303c c999 dc3d 4ff0 34bd
00000260: caed 6fbd 255e 04bd 593b cb3b 87a1 d0bc
00000270: f01c 86bd d874 b3bb 184a 83bc 8632 093e
00000280: 0614 c9bc b811 77bb 4bb8 ae3a 5a67 babc
00000290: 81da 8cbd 80ca 963c 5392 333c a838 7ebd
000002a0: ccd7 bbbd 8170 f53c c278 8ebd d865 a03c
000002b0: 95f4 8b3c e6e9 73bd 41b3 253c 40cd 223d
000002c0: e6f4 a8bd cae5 97bd 354a dc3c 5bb8 ebbd
000002d0: 6d99 ba3c 031f 67bb 06d3 aabc aa1e 823c
000002e0: 9831 723c ed2f b13b 6c4f 86bd 36fb 16bb
000002f0: a3ca 98bd f000 923c 5a7c 9abb 5c2c 1bbc
00000300: 9047 8f3c aa3a 0c3d 1b36 ea3a 9ae4 e03c
00000310: 648e 3c3d 2651 54be 232e 0abd 1dc8 f4bc
00000320: fd5b 02bc 33f8 85bc b36c 34bc 0c47 42bc
00000330: 9765 a2bc ad4b 503d f08f 60be 9fd4 643c
00000340: 1369 013d 64ea a93c 29f6 4eba f3e6 6bbc
00000350: 6dba 8b3c a82f cb3c b2a2 aa3c d9b9 4cbe
00000360: b1bb b7bd f6b9 c4bc 5865 ac3c 5664 0f3d
00000370: 413b 6ebc 10f8 e1bc f4c2 8c3c 927e bebc
00000380: 5dff 8bbc 91a1 a3bd ad58 d8ba 0b63 fd3c
00000390: b17d 813c ef49 bfbc 8c41 103c 137e 6b3d
000003a0: 5bfd babc 1899 64bc 5ad6 1ebd 07a5 c9bb
000003b0: e841 ce3c cae9 ae3c 9c49 9cbc aea1 15bd
000003c0: aed9 853d d95c 00bc 5958 6abc 1668 7e3d
000003d0: d8c1 2abb ab03 61bd 3a2c 9dbc e419 c43b
000003e0: 8e6f 8cbc 1227 c7bd c3cf 00bd e70e 793c
000003f0: 99eb 663d 918f 223d e180 a4bc 8cb7 61bc
-0.067942075 0.010900891 0.056414474 -0.013542721 0.07805999 -0.07743576 -0.026688216 0.010177128
0.031100117 -0.04762807 -0.0044548055 0.059150003 -0.006272978 0.03709777 -0.056276888 -0.029591585
-0.012393124 -0.0040807 -0.058060687 0.012837004 0.053139307 -0.006004679 0.0101257395 -0.05418963
-0.03528839 -0.033591256 0.013850079 0.025806801 -0.0016751342 -0.0029783717 -0.03346869 -0.021668497
0.0240414 -0.032790404 -0.004387783 0.101525486 0.008837318 0.01796206 -0.0030504959 0.035932735
0.007833126 -0.010612583 -0.050917342 -0.076502554 0.12207417 -0.008696296 -0.022840474 -0.004805105
-0.03480204 -0.00447617 -0.020817738 -0.023789734 -0.015741017 0.11500421 0.0001154323 -0.05320888
0.03989906 -0.005472266 -0.01971262 -0.02375135 0.06334074 -0.0046335757 -0.10907258 0.00962773
-0.008484639 -0.003504052 0.008055362 -0.012396093 0.003351696 0.064032674 -0.03764017 -0.09725946
-0.012935438 -0.04046559 0.0038009686 0.013535163 -0.0044963467 0.0011783878 0.07347258 0.023638286
-0.07310826 -0.06747632 0.011275563 -0.011787005 -0.0071085175 0.0155324 -0.038213387 -0.042783666
0.030832836 0.080983736 -0.04442272 0.0062135267 -0.042916216 -0.044757154 0.015801799 -0.005117502
-0.03342087 0.034125663 0.07502657 -0.06610029 0.010993584 -0.041809235 -0.04178128 -0.0077249683
0.0023540985 -0.034684647 0.037250537 0.093210675 0.015513894 0.003327006 0.0003541829 -0.005948855
-0.033336803 -0.026870111 -0.08303726 -0.14125331 0.044202328 0.026500717 -0.00036977252 -0.0035626655
-0.0020039128 -0.006517704 0.01479063 -0.07794993 -0.13170628 0.025241924 -0.036895156 -0.0074620517
-0.006545542 0.011224785 0.032474484 -0.00020928455 -0.09882544 -0.11997126 0.007126502 0.005167643
-0.07615001 -0.012368382 0.009057303 0.005169392 -0.019513505 0.09865394 -0.081336044 -0.035241835
-0.009634078 -0.0072696554 0.026752392 -0.0039673173 -0.013022644 0.0108015435 0.1077152 -0.04417449
-0.058576383 -0.032316346 0.006202143 -0.025467647 -0.06548488 -0.0054765753 -0.016026542 0.1339818
-0.02454568 -0.003769977 0.001333007 -0.02275436 -0.06877614 0.018407106 0.010960179 -0.06206575
-0.09172019 0.029960873 -0.069566265 0.019579813 0.0170844 -0.059549235 0.010113538 0.039746523
-0.08249836 -0.07416876 0.026890853 -0.115097724 0.022778237 -0.0035266287 -0.020852577 0.015883762
0.014782332 0.0054073245 -0.06558117 -0.0023037917 -0.07460525 0.017822713 -0.004714531 -0.009471025
0.017490178 0.034235634 0.0017868908 0.027452756 0.04603423 -0.2073408 -0.033735406 -0.029880578
-0.007956502 -0.016353702 -0.011012244 -0.011857759 -0.019823832 0.05085342 -0.21929908 0.013966708
0.031594347 0.020741649 -0.0007894957 -0.014398324 0.017056668 0.024802998 0.020829532 -0.1999277
-0.08971346 -0.024014454 0.021044418 0.035007797 -0.014540494 -0.027584106 0.017182805 -0.023253713
-0.01708954 -0.07989801 -0.001650592 0.030931016 0.015807005 -0.023350684 0.00880469 0.05749328
-0.022825887 -0.013952516 -0.03877864 -0.006153706 0.02517791 0.021351714 -0.019078068 -0.036531143
0.0653566 -0.007834637 -0.01430329 0.062110983 -0.0026055481 -0.05493514 -0.019186128 0.0059845317
-0.017143037 -0.09724249 -0.031448137 0.015201307 0.056377027 0.039687697 -0.020080986 -0.013776671

head.conv.bias f4 [32]
00000000: 56bc c6bd e990 d6bd a74b 823c 6b01 3a3e
00000010: 0c17 d0bd 6cda a2bd 6ae4 80bd df17 323e
00000020: 66bf 093e ca1a e03d 0929 61bd 30f8 0dbe
00000030: 96a2 0d3e db59 45be 24bd 9b3d d1af b33d
00000040: ed1b cc3d 40bb 123e c906 0cbe 7da8 f0bd
00000050: e1a5 0dbc 1cd1 e1bd b33e 5d3d 8a31 9b3d
00000060: 4d47 34be 489e c2bd cf1c 273e c480 90bc
00000070: c700 0abe 15ec ff3d 9089 363e 5656 14be
-0.09703891 -0.10476858 0.015905214 0.18164603 -0.10160646 -0.07951817 -0.062935665 0.17391919
0.13451919 0.109426096 -0.054970775 -0.13864207 0.13831553 -0.19272558 0.07604435 0.08773769
0.09966264 0.14329243 -0.13674463 -0.117508866 -0.008645506 -0.110262126 0.054014873 0.07577808
-0.17605324 -0.09502846 0.16319583 -0.017639525 -0.13476859 0.12496201 0.17825913 -0.1448606

head.norm.weight f4 [32]
00000000: 4f3a 5f3f 47ee 6f3f 73ab 523f 3d1b 663f
00000010: 2953 773f 07f3 6c3f 1330 623f dfe1 953f
00000020: 3222 5d3f 8df7 483f 85ae 813f ad7b 903f
00000030: f07e 873f 5909 533f 4b5d 913f 0036 8e3f
00000040: 2066 763f 8b21 673f 878a 683f 82ed 6a3f
00000050: 2663 633f 3c56 813f fe74 8b3f 0b58 803f
00000060: f5fc 973f ff70 653f 17bc 703f 6026 7c3f
00000070: 816e 613f ef7d 903f a65d 743f ef74 8c3f
0.87198347 0.9372296 0.8229286 0.8988531 0.9661127 0.9255833 0.88354605 1.1709555
0.863803 0.7850273 1.0131384 1.1287743 1.0585613 0.8243614 1.1356596 1.111023
0.9624958 0.9028556 0.90836376 0.9176866 0.88823164 1.0104442 1.0895078 1.0026869
1.1874071 0.89625543 0.94037 0.98496056 0.8805924 1.1288432 0.95455396 1.0973185

head.norm.bias f4 [32]
00000000: e7bf 9bbc c6a0 79bc abed f8bd 965c d0bc
00000010: 5903 e6bc a694 c5bd 342d 9f3c 02cc 7d3c
00000020: 0274 5fbc 0763 80bd d9b4 bfbc ac6e 933c
00000030: b9fb 5abc 537b 13be 2222 d73c 118b dfbc
00000040: f484 3f3c 815c 78bc 4df1 c3bc 3df4 58bc
00000050: 202d 91bd a542 f0bc ee46 fbbc 44c3 3fbd
00000060: c6c3 cebc a047 d6bc 201c 243c b0ce 873c
00000070: 5ebf b53c 8ee1 0dba d89d 873c d682 37bc
-0.019012405 -0.015236085 -0.121547066 -0.025434773 -0.028077768 -0.09647493 0.019430734 0.015490534
-0.013638498 -0.06268888 -0.023401665 0.017997108 -0.013365679 -0.14402513 0.026261393 -0.027287992
0.011689413 -0.015158773 -0.023918772 -0.013241825 -0.07088685 -0.029328654 -0.03067347 -0.04681708
-0.025239836 -0.0261572 0.010016471 0.016578048 0.022185978 -0.00054123334 0.016554758 -0.011200627

head.norm.running_mean f4 [32]
00000000: 4974 c5bd a836 d7bd 7c04 893c 6972 3a3e
00000010: d83b cbbd 51c6 a1bd 274c 78bd bcec 333e
00000020: b267 0a3e ce22 e23d 75c7 5abd 0dcc 0bbe
00000030: 2156 0b3e 15d6 44be 3b2a a13d eee8 b53d
00000040: 0c14 c73d 4cf0 123e b83d 0bbe dbe6 eebd
00000050: 77df e6bb 99f0 debd 13fd 673d f388 9f3d
00000060: a477 31be 1e00 c0bd cd7b 273e 27e1 a2bc
00000070: 618e 08be e20c fb3d 90c0 373e f66f 16be
-0.0964132 -0.10508472 0.016725771 0.18207707 -0.09923524 -0.07899154 -0.0606195 0.17570776
0.13516119 0.11041795 -0.053412873 -0.13652058 0.13607074 -0.19222291 0.07869383 0.088823184
0.097206205 0.14349478 -0.13597763 -0.11665126 -0.007045682 -0.10885734 0.056637835 0.07789793
-0.17330796 -0.09375022 0.1635582 -0.019882752 -0.13335563 0.122583166 0.1794455 -0.14691147

head.norm.running_var f4 [32]
00000000: fb87 b83d fa52 d03d 6320 c93d 835c d03d
00000010: c38c 2b3e ae8a f23d 4af2 023e 994a 9a3e
00000020: 712d 823d b259 a03d 8016 193e 08d2 583e
00000030: 4837 7d3e 7b69 af3d 5baa d33e 4c43 293e
00000040: 42a6 313e 8efb d83d 31b2 bd3d 3d99 e13d
00000050: 5e1a b23d 5808 fb3d 6af7 603e bc18 003e
00000060: 020e b33e 9414 de3d 203d 013e 17cc 3f3e
00000070: 6192 f63d 78e7 973e f346 e33d e3fb 8b3e
0.09010311 0.101720765 0.098206304 0.10173895 0.16752915 0.11842857 0.12787738 0.30135038
0.063563235 0.07829608 0.1494999 0.2117387 0.2472812 0.08565041 0.41340908 0.16529578
0.17348579 0.10594855 0.09262503 0.11015556 0.086964354 0.12257451 0.21969381 0.12509435
0.34971625 0.10843769 0.12620974 0.18730198 0.12039638 0.29668784 0.11097517 0.27340612

body.block1.conv.weight f4 [32, 32, 3, 3]
00000000: f4e8 f63c ca4c 8e3c 5cac 673d a525 25bd
00000010: ff00 6f3d 4dfa 373c 8fcc fd3c c46d 4fbd
00000020: 035e 2dbd 5069 2e3c 7dfe dbbc c122 423d
00000030: ae25 20bd cdc0 7b3d 819a 403c f06b 13bc
00000040: a266 043b 4cb4 1ebd 7393 673c 4867 4bbc
00000050: 3f85 3c3b 5f43 e1bc d11a 9dbc dd78 30bd
00000060: 2d38 52bc 6d2e 26bd 9081 79bd 367d 0bbb
00000070: 9823 c33c 4c5e 313d fb53 abbd 3ee2 2e3d
00000080: e5a8 853d e618 26bd 73e4 9f3b 59a7 52bd
00000090: 51e2 233d 8082 88bc 34b4 953d f394 1bbd
000000a0: 92d0 41bd 9ded 54bd eeb3 7cbc 1fe3 cbbd
000000b0: 74f0 d6bd 38d1 2b3c ae4a 0cba 37bc 47bd
000000c0: 592e 15bd 246a c0bd e689 7bbd bba0 8ebd
000000d0: a256 6abd 7aea c8bc 2de8 c23c 7d69 e5bc
000000e0: 73dd 34bc 9737 56bd 4bcc 62bd 9b81 193c
000000f0: c7e1 95bd caca 5dbd 0598 01be 1f85 9ebc
00000100: 12a9 823d c2d9 753d a08b 293c bd44 20bd
00000110: b685 8abd 87c4 18be 9bb7 b0bd cb5e fbbd
00000120: b6c8 213d cb98 d1bb ab90 cebb 07b3 4ebc
00000130: 1d02 0b3d 32e3 26bd 6ae5 ea3c 76d7 4bbd
00000140: 96f2 60bd 3d86 60bc a276 14bc fce2 2ebc
00000150: 7a92 00bd 3640 4c3d f3cc 103c df33 07bb
00000160: ca2d 14bd 3f63 47bd 2f4f dabb e368 1dbd
00000170: 8e4d b1bc 731e 513d 2cff 2abc 7cb0 943d
00000180: baec 01bd 5360 793b 3c8a d33c 26db dcbc
00000190: 5b10 00bd 5507 aa3c a137 56bc 2d60 90bb
000001a0: bfd7 bf3d cff9 64bd 1807 9a3c 881a fbbb
000001b0: 1383 2bbd cfd1 fbba b99a 5d3c 5dd9 46bd
000001c0: 8c26 093c 9214 69bd 74fa 1d3d ba45 83bc
000001d0: e677 4bbc 11a8 f13c 68dd ffbb d76d e73c
000001e0: 8995 26bd 5ba4 7a3d 1af1 0abd ffbf 923c
000001f0: 5159 2fbc 3741 0bbd a7c6 d93c 08d1 52bd
00000200: 1463 1bbd c6f3 3bbc 1c6b c83c 4613 833d
00000210: a419 93bd b94f 363c afe2 0c3d efb3 8fbc
00000220: e9f8 973c dbee 7b3c 2377 e3bb 61dd f03b
00000230: 93a9 22bd e5ab 23bd f137 993c b8b2 0fbd
00000240: 0a17 5c3d d983 d7bc 3d75 27bc fa79 9fb9
00000250: 7249 50bd d4e1 e0bb 356d 143b 4a15 0b3c
00000260: e637 073d 9870 61bd 155f b93c e773 ca3c
00000270: 5e27 75bd 8892 ab3c 0a49 1bbd 1750 903b
00000280: e2fb 73bc 28d0 f53c 2dbb 483d 5e37 56bb
00000290: a5d9 1dbb 0363 25bd fc6f 823c 9d21 d6bc
000002a0: 2c98 b53c b9e9 19bd 5e8c 04be 7924 803c
000002b0: d7ac 66bc 4874 093d efae d4bc 93ba 153c
000002c0: 7955 f6bc ffc7 aa3c 223d 14bd 32b1 90bb
000002d0: b379 93bc a99e 483d 3925 d53a 52d0 fcbb
000002e0: 549d 88bd dd4d 84bd 7924 72bd 915a 46bd
000002f0: cef4 9ebd ae67 9c3a 7361 893d 004f d2bc
00000300: e885 8fbd b727 09bd 6943 a53c 7066 0fbe
00000310: e67d d1bb 08b8 a4bd f805 8bbc 6e46 a63c
00000320: 3e91 293d 0b48 49bd 060a 12bd dc88 4dbd
00000330: 0304 04be 5770 b1bd fe84 04be df89 2cbd
00000340: ed79 f3bc 2fdf bebc 1438 f8bc c2b4 e5bc
00000350: b617 353d db28 04be c083 12bc fe90 633a
00000360: 4af1 25bd b769 9dbd d56d 213d 6581 cdbc
00000370: ee68 bcbc 43de 33bb 6f6b 18bd 4876 5b39
00000380: eff1 3ebc 9a8a f4bc 8448 aabb dd07 04bc
00000390: 246a 9bbc 467f 0a3d 9a8d 5dbb 3f78 dcbc
000003a0: 97d9 c9bb 205c 9739 cd61 4d3c 9791 873d
000003b0: 3095 e7bb 1605 bf3c 47c5 2b3d eac0 c53b
000003c0: 3fc6 01bc 0f06 03bd f3a3 eabc 3a03 053d
000003d0: 150c 6eba 3461 173d 54ba 033c 5623 3b3d
000003e0: e0a5 a23c bc6a 503d c28d 363c b099 a03c
000003f0: b36f 48bd 2031 1c3d 0d68 e5bc b8e6 e5bc
0.030140378 0.0173706 0.05656086 -0.040319104 0.05835056 0.01122911 0.03098133 -0.05064179
-0.042325985 0.010645226 -0.026854748 0.047396425 -0.039098434 0.061463166 0.011755587 -0.008997902
0.0020202775 -0.038746163 0.014134276 -0.012414761 0.0028765944 -0.027497945 -0.019177826 -0.043084014
-0.012830776 -0.04057162 -0.060914576 -0.0021284348 0.023820683 0.04330282 -0.083656274 0.04269623
0.06526355 -0.04055109 0.004879528 -0.051429126 0.040010754 -0.01666379 0.07309762 -0.037983846
-0.04731805 -0.05198442 -0.015423758 -0.09955429 -0.104950815 0.010486893 -0.00053517043 -0.04876348
-0.036421154 -0.09395245 -0.061410807 -0.06964251 -0.057211526 -0.02452587 0.02379235 -0.028004402
-0.011039126 -0.05229911 -0.05537061 0.009369279 -0.07318454 -0.054148473 -0.12655647 -0.019350586
0.06379904 0.060022123 0.010348231 -0.039128054 -0.067637846 -0.14918719 -0.0862877 -0.1227394
0.039498053 -0.006396388 -0.006303867 -0.012615926 0.033937562 -0.040744014 0.028673846 -0.049766026
-0.054918848 -0.01370388 -0.009061487 -0.0106742345 -0.03138969 0.049865924 0.008837926 -0.0020630283
-0.03617648 -0.048678633 -0.0066622715 -0.038430106 -0.021643426 0.05105443 -0.010436814 0.07260224
-0.0317199 0.0038051798 0.025822751 -0.026959967 -0.031265598 0.02075545 -0.013074786 -0.0044059963
0.09367322 -0.0559023 0.01880221 -0.007663075 -0.04187305 -0.0019212308 0.013525658 -0.048547138
0.008371007 -0.056904383 0.03856893 -0.01602446 -0.012418723 0.029499086 -0.007808376 0.028250618
-0.04066995 0.061191898 -0.03392134 0.017913816 -0.010702447 -0.03399774 0.026583983 -0.05146888
-0.037936285 -0.011471694 0.024465136 0.064001605 -0.07182625 0.011127406 0.03439587 -0.017541854
0.018551307 0.015376772 -0.0069416924 0.007350609 -0.0397125 -0.039958853 0.018703433 -0.03508255
0.05373291 -0.026307987 -0.010220823 -0.00030417723 -0.050851293 -0.0068628583 0.00226481 0.008488962
0.033012293 -0.05503902 0.022628346 0.02471347 -0.059851997 0.020943895 -0.037911452 0.0044040787
-0.0148915965 0.030006483 0.04900663 -0.003268681 -0.0024086025 -0.040377628 0.015922539 -0.026139075
0.022167288 -0.03757641 -0.12944171 0.015642392 -0.014079294 0.03355816 -0.025962321 0.009138721
-0.030070053 0.020847319 -0.036191113 -0.0044156546 -0.018002367 0.048979435 0.0016261704 -0.0077152634
-0.06670633 -0.06460164 -0.059116814 -0.048426215 -0.077615365 0.0011932754 0.0670804 -0.025672436
-0.070079625 -0.03348514 0.020173745 -0.1400392 -0.006393182 -0.08042914 -0.01697062 0.020297255
0.04139828 -0.04914097 -0.03565409 -0.050179347 -0.12892155 -0.08664005 -0.12941357 -0.04212367
-0.029721225 -0.023299782 -0.030300178 -0.028040294 0.044212066 -0.1290621 -0.008942544 0.00086809683
-0.040513314 -0.07686179 0.039411385 -0.025086114 -0.022999253 -0.002744571 -0.03721183 0.00020929531
-0.011654361 -0.029851247 -0.005196633 -0.008058515 -0.01897151 0.033812784 -0.0033806325 -0.026912807
-0.006159972 0.00028869603 0.012535525 0.06619566 -0.007067345 0.023317855 0.041936185 0.00603496
-0.007920801 -0.0319882 -0.02864263 0.03247378 -0.000908078 0.036957934 0.00804003 0.045687996
0.019854486 0.05088304 0.011142196 0.019604534 -0.04893465 0.038132787 -0.028003717 -0.028064117

body.block1.conv.bias f4 [32]
00000000: 91ff 48bd b996 81bc 396b 68bc 8fea 87bc
00000010: aaf7 bcbc 31de 123d ec48 d8bc f1bb f6bc
00000020: 9412 233d 6612 f43c b063 513c f636 e039
00000030: 8b0d bfbc 9d5d b4bb 9034 613c 4253 c3bc
00000040: b8a2 12bc 163d 313d 1945 46bd cf36 a4bc
00000050: bc3a 453c 09ad d6bc b42e 16bd 6116 b23a
00000060: 958d 823c 2c87 7d3b ca65 103d 378c c7bc
00000070: f51e 073d 68fd 0abc 0db2 743c a2bb 6b3c
-0.049071852 -0.01581894 -0.01418572 -0.016591338 -0.023067314 0.03585643 -0.02640196 -0.030118914
0.03981264 0.02979393 0.012780115 0.00042765558 -0.023321887 -0.0055043236 0.013745442 -0.023843411
-0.008949928 0.043271147 -0.04840574 -0.020045666 0.012037929 -0.026205556 -0.036665633 0.0013586992
0.015936652 0.0038685305 0.035253324 -0.024358852 0.032988507 -0.008483268 0.014935029 0.014387997

body.block1.norm.weight f4 [32]
00000000: 34d1 4d3f b922 883f 3f7b 533f b338 573f
00000010: dda4 563f 5f63 a53f 6edc 753f 38fe 873f
00000020: f553 6b3f 97c6 7c3f 51a0 823f 038e 853f
00000030: d965 853f 5a63 503f e8eb 803f 0aee 763f
00000040: 3662 693f 87bc 773f 1503 663f 5614 553f
00000050: 76c2 793f 59ee 823f 4e40 813f 99a6 6c3f
00000060: 055a 7c3f 92ac 733f 0d05 843f e8b9 623f
00000070: 4093 643f 584b 643f a67d 803f 6829 803f
0.80397344 1.0635597 0.82609934 0.8407089 0.8384531 1.2920951 0.96039474 1.0624456
0.91924983 0.98740524 1.0205175 1.0433964 1.0421706 0.814016 1.0071993 0.9645697
0.91165483 0.96772045 0.8984845 0.83234155 0.9756235 1.0228988 1.0097749 0.9244171
0.9857486 0.95185196 1.0314041 0.8856492 0.89287186 0.89177465 1.0038345 1.0012636

body.block1.norm.bias f4 [32]
00000000: 6dd2 0fbe d721 70bd 74ce 34be 978b ddbd
00000010: 2b3d 10be 1fb4 bebe 15b0 49bd 92cb 583d
00000020: 7007 ebbc 67cb bd3c 33ff 87bc 0ce6 abbd
00000030: 0b75 9fbd 608e 63be a849 eb3c d2ff dabc
00000040: b506 54bd 3534 2cbd 6ed9 7fbd 91c1 3bbe
00000050: b45b 6ebc 14a1 5f3d a4d8 39bd a241 1dbd
00000060: ab9f 9cbd 94b2 6fbc d1f1 0abe 1226 03be
00000070: 2bbf 12be 7050 a6bd 63b4 2bbd 850e 773b
-0.14045115 -0.058626022 -0.1765688 -0.1081764 -0.14085834 -0.37246796 -0.04924019 0.052928515
-0.02869007 0.023168279 -0.01660118 -0.08393487 -0.07785996 -0.2222228 0.028721645 -0.026733313
-0.05176421 -0.042041976 -0.062463216 -0.18335558 -0.014548231 0.054596975 -0.04537262 -0.03839267
-0.07647642 -0.014629979 -0.13568808 -0.12807491 -0.14330737 -0.08120811 -0.041920077 0.0037697863

body.block1.norm.running_mean f4 [32]
00000000: f449 88bf 1148 2cbf 5fb3 1cbf 6334 04bf
00000010: 630e 93bf 3ab3 a5bf 6314 783f 0c51 94bf
00000020: c21d c1bf beb4 933d 8d27 f13f c60d 3dbf
00000030: a396 1abf 0bbc 07bf e2e2 10bf 9370 cfbf
00000040: a197 aabf 5c1b 91bf ed68 79bf 88c0 28bf
00000050: 352a b4bf e47f bbbf dda7 fe3f 4e2d 30bf
00000060: 78e8 72bf 3404 86bf ce8b 3ebf ac3b a8bf
00000070: d3b3 85bf 3935 5abf c9bc e43f cebe 50bf
-1.0647569 -0.67297465 -0.612112 -0.51642436 -1.1488765 -1.2945321 0.9690611 -1.1587234
-1.5087206 0.07212208 1.8840195 -0.7384914 -0.60386103 -0.53021306 -0.56596196 -1.620623
-1.3327523 -1.1336474 -0.9742573 -0.6591878 -1.407538 -1.4648404 1.9894978 -0.6881913
-0.9488597 -1.0470033 -0.74432075 -1.314321 -1.0445503 -0.8523746 1.7870113 -0.81541145

body.block1.norm.running_var f4 [32]
00000000: 24a5 b03f 9f6b d53e cd25 883f fd69 b33f
00000010: 6495 943f a76a 383f 1b55 9c3f 529d 753f
00000020: aa5f 1140 df47 763f 376e d33f d684 133f
00000030: 2e6e 403f 08e3 be3f 3d48 8d3f d9e5 963f
00000040: a19e ac3f 5ee0 8c3f cd54 8f3f d196 973f
00000050: 7d70 9b3f 3a81 e53f aeb7 c93f 28ae 8c3f
00000060: a884 2c3f d076 a03f d632 be3e 027c 943f
00000070: c04a b43f 1065 a83f 69c8 0040 a48e 6f3f
1.3800397 0.4168367 1.0636536 1.401672 1.160809 0.7203774 1.2213472 0.95943177
2.2714639 0.96203417 1.651801 0.57624567 0.7516812 1.4913034 1.103767 1.1788894
1.348591 1.1005971 1.1197754 1.18429 1.2143704 1.7930062 1.575918 1.0990648
0.6738992 1.2536259 0.3714816 1.1600344 1.4085312 1.3155842 2.012232 0.9357703

body.block2.conv.weight f4 [32, 32, 3, 3]
00000000: 308f 1bbd 4f8a 093d 4eac 823d 325f 07bd
00000010: 0b7a 6ebc 87da ae3c 2a8e 52bb c118 1cbd
00000020: 2eb1 6dbc b00c 4f3d fe49 bc3c 0ab4 cd3c
00000030: d3aa 54bd 339a d7bc d0f8 dd3c 4c2e 34bc
00000040: 9cbb c4bc f9c3 833d 7a87 75bd c768 36bd
00000050: c622 003c 7e17 213c 5f86 cfbc 5560 723b
00000060: 4adf 5f3d 5da1 2d3d cf28 d43b fe7d a9bc
00000070: 1043 223c 96a1 0b3d a324 843c 97d3 a6bd
00000080: 9c32 20bd 01bd c7bc 3576 53bd 870d 9cbd
00000090: 3cc0 ce3d 931d 103d d393 003d 1074 a43d
000000a0: 4241 203d fbd5 53bc d248 b73c 5dec 1d3b
000000b0: 9615 f8bc 1d8e c5bd 8106 1bbd fa10 84bd
000000c0: 20e7 15bd 2dfa 04bc 8fe1 afbc 19d0 373d
000000d0: 3d13 793d 2bc2 893d 632e 583d 53fd e5bc
000000e0: fa52 a1ba cdde b03d 7767 77bb ce9d d03b
000000f0: 3dcf 733c cd6d 913c 54ec b2bc e301 bebd
00000100: 3a0e 743c 7d4f f83c 49ee 74bd 6a19 093d
00000110: 640a 383d cdf7 793d f96e 853d 732b cc3d
00000120: 8b4f 3ebd 42cd 763d 91cf 443d d42e 573c
00000130: 3eed f03c 9680 793d aaee cebc 2d3a 5a3c
00000140: 15f7 25bc 130c 91bc 0053 0cbd d1cb 6abd
00000150: ccf2 b9bc 4ae0 c33c 8243 de3b 6e3c 613d
00000160: a706 c23c 618d b83d 6235 a1bc a7a6 62bd
00000170: da8b 67bc 8628 593c 6201 90bd 282c e1ba
00000180: 6069 3b3b eaef d13c 3ecc 9bbc 1b19 6e3d
00000190: 7bd6 033c e586 283d f614 b83c b35d 013d
000001a0: 7c68 843c 09a7 903b 3bc6 c93c abe0 1c3d
000001b0: d649 16bd 26d9 1d3d cc4c 2b3d 9567 9fbd
000001c0: 989e 083c 6812 54b9 bbe7 a7bd c880 43bb
000001d0: 8d4c 193d 6170 0f3d 1fd3 ac3c ff2d bc3c
000001e0: 4253 ef3c 3987 00bc b885 953b 32e5 63bb
000001f0: c4c9 073c fa29 ad3c 0929 313d ed10 403d
00000200: cd21 f23d 564b 87bb 3fb3 82bb f8a5 fa3c
00000210: cdcf 923a 24f6 e2bc ea4a 893d 778b 40bd
00000220: 4b52 8e3c dd84 9e3c 76eb a8bd 99b5 39bd
00000230: 06bf 6cbd 0759 f5bc 320b b6bc 3c95 cd3c
00000240: a00e ddbd 5880 12bc e739 303c 676a 84bb
00000250: 546c 103d ad17 903c e922 fe3c 18b5 ca3d
00000260: cf05 c93d 2e59 d33b 014a df3c b237 c23d
00000270: cdbd 57bd ecab fcbc 3d3f a2bc 667b a0bd
00000280: 2d52 cfbb 3b67 09bc a596 793b e64a 333d
00000290: 3a08 b33d a79e 9e3c a3b7 6dbc cc0f a2bb
000002a0: 5f48 1fbd 73b8 4e3d 9990 1a3d 9b4a 573d
000002b0: b83b 403c 6ab8 a33c a8b2 403d 9d33 043d
000002c0: 8434 be3c a295 cc3d 2ee4 143d b75a f73d
000002d0: 8b68 2cbd e8b2 963c c781 0e3e f056 88bd
000002e0: 5024 e8bc 86bf 8b3d c39a e7bc 8263 60bc
000002f0: 8703 9a3d a978 acbd e9cd 31bd e1ed d83d
00000300: bcdb 843c 6c84 563a 76d0 c83d e29a 4b3c
00000310: 9937 f13c c8be 5d3d 47d9 89ba 65bc a4bd
00000320: 939d 54bb 0dfb 3bbd f9bf 7fbd fff1 4ebc
00000330: c5d6 413c 2254 95bc 032a 363c b390 9a3b
00000340: 097e 6fbb d0cf bb3b bddb 233c c634 67bb
00000350: e471 8cbc 9ff4 c9bb 1ac9 f8ba 8914 90bb
00000360: e147 5d3d 7831 2a3d abb3 553c 243d a73c
00000370: b7b8 a53c bc21 813b 3530 c13c 4b8c 293d
00000380: 15a2 833d 9e0f 633c 6f7f 833d 129d 5b3d
00000390: 47d9 4cbc a3b9 143d 4d1e 7d3a dece 5ebc
000003a0: 37d2 073d ec62 133d 3f33 babd 51e4 5a3c
000003b0: 06fb 0d3c 8d2d 04bd 2612 293c ae33 953c
000003c0: fe34 4f3c 4616 e0bc 19af 723c b1c7 6d3c
000003d0: 36bf 0c3c 0fcc a839 1e8b 033d c074 bc3c
000003e0: 4ad7 523d 3aac 823d 7fc5 c13d 8e36 b63d
000003f0: 1f00 46bd dd90 c53c 1178 46bd c7a1 d03c
-0.03797835 0.033579167 0.06380521 -0.03304977 -0.0145554645 0.021344436 -0.0032128193 -0.038109545
-0.014507575 0.05054921 0.022984501 0.025110263 -0.051920723 -0.026318645 0.027096182 -0.010997366
-0.02401524 0.06433863 -0.059943654 -0.044533517 0.007820791 0.009832261 -0.025332628 0.0036983688
0.054656304 0.042390216 0.0064745913 -0.02068996 0.009903684 0.034089647 0.016130751 -0.08145826
-0.039110765 -0.024382116 -0.051626403 -0.07619768 0.100952595 0.035184454 0.031390976 0.0802995
0.039124735 -0.012929435 0.02237359 0.0024097182 -0.03028373 -0.096462466 -0.037848 -0.064485505
-0.03659737 -0.008116287 -0.02146986 0.04487619 0.060809363 0.06726488 0.052778613 -0.028074896
-0.0012308054 0.08636246 -0.003775088 0.006366468 0.014880952 0.017752552 -0.021841206 -0.092777036
0.01489597 0.03031134 -0.05979756 0.033471502 0.044931784 0.061027337 0.06515307 0.09969225
-0.046462577 0.060254343 0.048049513 0.013133723 0.02941 0.060913645 -0.025260288 0.013319534
-0.01012971 -0.017705953 -0.034258842 -0.05732328 -0.022698782 0.02391066 0.00678295 0.05498927
0.023684813 0.09011341 -0.019678775 -0.055334713 -0.014132464 0.01325429 -0.07031514 -0.0017179297
0.0028596744 0.025627095 -0.019018289 0.05812941 0.008046742 0.04114427 0.022470932 0.0315835
0.016163103 0.0044144434 0.024630656 0.038300198 -0.03669151 0.038537167 0.041821286 -0.077834286
0.008338593 -0.00020224752 -0.08198496 -0.0029831398 0.03742652 0.035019282 0.021096764 0.022971151
0.029214505 -0.00784474 0.0045630597 -0.0034774062 0.008287851 0.02113818 0.043252025 0.04689114
0.11822853 -0.004128854 -0.003988653 0.030596718 0.0011200845 -0.02770526 0.06703742 -0.047008004
0.017373225 0.019350464 -0.082480356 -0.0453392 -0.05779936 -0.029949678 -0.022222135 0.025095575
-0.10793805 -0.008941732 0.0107559925 -0.0040410045 0.03525956 0.017589414 0.031022506 0.09897822
0.09815561 0.00644984 0.027256967 0.09483279 -0.052671243 -0.030843697 -0.019805545 -0.078360364
-0.006326935 -0.0083864285 0.0038084176 0.0437726 0.087418035 0.01936276 -0.014509114 -0.004945731
-0.038887378 0.050468873 0.037735555 0.052561384 0.011732988 0.019985396 0.04704538 0.032275785
0.0232184 0.09989478 0.03635042 0.12077849 -0.042091887 0.018395856 0.13916694 -0.06657207
-0.028337628 0.068236396 -0.028272038 -0.0136955995 0.07520204 -0.084214516 -0.04340926 0.10592247
0.016218059 0.00081831845 0.09805386 0.012427064 0.029445456 0.05413702 -0.0010517024 -0.08043746
-0.0032442554 -0.045893718 -0.06243894 -0.012630939 0.01183099 -0.018228594 0.011118415 0.0047169565
-0.0036543629 0.0057315603 0.01000112 -0.0035279258 -0.017144151 -0.0061631943 -0.0018980831 -0.004396979
0.054023627 0.041551083 0.013043324 0.020414896 0.02022968 0.003940789 0.023582557 0.04139356
0.06427399 0.013858704 0.064207904 0.05361659 -0.012502975 0.03630985 0.0009655699 -0.013599126
0.03315946 0.03598301 -0.09091806 0.013360099 0.008665806 -0.032270003 0.010319268 0.01821312
0.012646912 -0.02735437 0.014812254 0.014512942 0.00859051 0.00032195493 0.032115094 0.02300489
0.051474847 0.06380506 0.094614975 0.08897124 -0.04833996 0.024116928 -0.048454348 0.025467766

body.block2.conv.bias f4 [32]
00000000: 75fd 0bbd 1b4f 0bbd f578 2f3c 4ab0 fbbc
00000010: a397 9b3c 35af b9bb ee91 17bd 53f0 953c
00000020: f14d 58bd 9aac cc3c f72e 79bd d0fa de3c
00000030: d782 fcbc e46c 383c d2bb 463b 06ec 42bd
00000040: 6866 073d 5db8 d1bc 2f37 ca3c c855 723c
00000050: 0d1f b7bc ce60 a93b 5cfc 24bd 361f e93c
00000060: b9ac bdbc 05b8 163d e00e 303c 326c 02bd
00000070: f4eb f8bb 73e8 ae3c e0e0 3dbd 3883 1dbc
-0.034177262 -0.034010988 0.010709991 -0.03072371 0.018993204 -0.0056666383 -0.037004404 0.018303072
-0.052808706 0.024984647 -0.060835805 0.027219206 -0.030824108 0.01125643 0.0030324352 -0.04758837
0.033056647 -0.025600607 0.024684517 0.01479096 -0.022353673 0.0051690107 -0.04027973 0.028457265
-0.02315365 0.03679659 0.010745734 -0.031841464 -0.007596487 0.021351075 -0.046357036 -0.0096138045

body.block2.norm.weight f4 [32]
00000000: 395f 843f e045 783f bd6e 683f 525b 8e3f
00000010: bfff 6f3f 6a09 7e3f f299 753f f3dc 753f
00000020: 1e7a 803f 2c77 853f eaec 9b3f aacd 653f
00000030: 5dd2 8a3f 3e71 823f 3bef 643f 5cd7 523f
00000040: bfaa 883f 838d 783f a946 783f 0a06 773f
00000050: 2557 a13f 5f64 5f3f 8551 783f bbdb 6e3f
00000060: 6088 7d3f e938 803f 33a8 843f dc8f 753f
00000070: 484d 783f 5fae 7c3f e058 703f fe73 7f3f
1.034156 0.9698162 0.90793973 1.1121619 0.9374961 0.99233115 0.95938027 0.96040267
1.0037267 1.0426993 1.2181675 0.89766943 1.0845448 1.0190809 0.89427537 0.8235986
1.0677108 0.9709093 0.9698282 0.9649359 1.2604719 0.8726253 0.9699939 0.9330403
0.99036217 1.0017368 1.036383 0.95922637 0.9699292 0.9870357 0.9388561 0.99786365

body.block2.norm.bias f4 [32]
00000000: 9eb4 1abe 8bda 1cbd 7b32 efbd 23ef f9bd
00000010: 226e 39bd 72ca 24be 3846 1ebd 8d99 13be
00000020: 9b47 0cbd a334 713d d103 b8bd c25c f7bd
00000030: 9b1c 8d3b ff19 12bd 838b 87bd d6ff 19be
00000040: 1d0c e2bd cb27 30bc d089 bbbd 449b f2bd
00000050: 2747 8dbe e1e1 39be d717 043b 0c6b 01be
00000060: 55f9 86bd 045b 443d 5be3 43bd 1361 98bd
00000070: 3800 533b 2b97 1a3b 6d15 bcbd de7d 8e3b
-0.15107962 -0.038294356 -0.1167955 -0.12203815 -0.045271046 -0.16092852 -0.038641185 -0.14414044
-0.034247976 0.05888809 -0.08985103 -0.12078239 0.0043063886 -0.035669323 -0.066184066 -0.15039
-0.11037467 -0.010751675 -0.09157145 -0.11846021 -0.27593347 -0.18152572 0.0020155811 -0.12638491
-0.06590525 0.04793836 -0.047824245 -0.074403904 0.0032196175 0.0023588638 -0.09183774 0.0043485006

body.block2.norm.running_mean f4 [32]
00000000: ba86 193f bf7a 25bf 9c22 0dbf 201c 983f
00000010: 73e6 d03d e107 113f 3b4c 13bf 5bf4 393d
00000020: 3a3f 2ebf 5537 82be e5bd b13e 5244 9dbe
00000030: 2159 fa3e 5a23 32bf 9527 88bf 7b87 abbe
00000040: c042 12be dd75 dfbe 378a 033e b272 9ebf
00000050: 9ad1 423e e3ea 66bf 7c1a 6bbe fd5d b3be
00000060: e2ea 2ebf 0c17 d8be 273d 82be e008 b2bb
00000070: 708d 0cbf 04ab debd 327e 35bf 5f15 853e
0.599712 -0.6464042 -0.55130935 1.1883583 0.10200205 0.5665265 -0.57538193 0.04539905
-0.68065226 -0.2543284 0.3471519 -0.30716187 0.48896125 -0.6958519 -1.063708 -0.335018
-0.14283276 -0.4364461 0.12845694 -1.2378752 0.19025269 -0.9020216 -0.22959322 -0.35032645
-0.6832715 -0.42205083 -0.2543728 -0.005433187 -0.54903316 -0.108724624 -0.70895684 0.25992867

body.block2.norm.running_var f4 [32]
00000000: cf54 373f c9b2 0240 e5b3 e13f 87a6 663f
00000010: 6b8a 383f f595 513f f1a0 e13f 0619 a43e
00000020: 025c 1740 9f02 d63f bf51 4f3f 4a15 783f
00000030: 5986 923f 3872 c33f 75be 0a3f d4d2 ea3e
00000040: d939 bf3f 1535 1140 1837 e83e 010c e73e
00000050: 2f6d 593f f904 f63e 5d8e 8d3f 1f93 063f
00000060: b0e2 0e40 e5f3 383f 86a1 313f 0c8e 293f
00000070: ede1 0c40 ed77 2b40 eb4b 9b3f 172d 973f
0.7161378 2.0421622 1.7633024 0.9009785 0.7208621 0.8186944 1.762724 0.3205034
2.3649907 1.671955 0.8098411 0.96907485 1.144725 1.5269232 0.54196864 0.45863974
1.4939529 2.2688649 0.45354533 0.45126346 0.84932226 0.4805067 1.1059071 0.5256824
2.232586 0.72247154 0.6938709 0.6623237 2.2012894 2.6791947 1.2132543 1.1810635

body.block3.conv.weight f4 [32, 32, 3, 3]
00000000: 1308 c03c a4f4 18bd 8337 633d e4cf 153d
00000010: 252d 52bd 72c3 753d 68b5 73bd a8a8 4ebd
00000020: 2374 1fbd c704 61bb 8122 8c3c d605 b4bc
00000030: 18d4 76bc e8b1 e039 c38f ce3b 67c4 983b
00000040: 3dc6 fdba c290 febb 5051 09bd 2474 8dbd
00000050: 8124 12bd 6f00 cbbc 4b94 23bd ce72 003d
00000060: 6ba2 c0bc dfda aabb 8d16 8fbc e209 d93d
00000070: 204e 403c ff89 d63c 205b ba3d eecc 0e3b
00000080: 93f4 b13b a358 2ebd 4c84 89bd 32ab bebd
00000090: b1f8 edbc 72a8 853d c3a0 3c3d bb65 c33c
000000a0: 305f 11bd 1e8f 803d fc9f 933d edb0 b93c
000000b0: f4c2 dd3d 031b 0abc bf21 8cbc 7317 79ba
000000c0: f6a5 0bbd 7336 afbd 9939 ffbc add5 1bbe
000000d0: 75f3 06be edec f3bd 95e6 d63b 4650 053d
000000e0: ea58 cf3c eb7f c23c cd69 353c af2d 193d
000000f0: cf16 233d 735f 943c 36e1 0a3d bc8e ad3c
00000100: 0d67 ea3c 2009 3abd 6704 f23a 8e80 62bb
00000110: f529 89bc 3b7e 3cbd 54e7 babc 5224 eabc
00000120: a73d 6dbc b64d 87bd e446 8dbd 4707 0bbd
00000130: 3a56 e8bc 9db9 5d3b 4400 9c3b 4f9c 563b
00000140: ca6a 253c 2b90 243c 3546 1cbd 2b15 30bd
00000150: 06df c33a a8a4 03bd f555 7e3c 3a8d 903d
00000160: 3a9a 8c3d eed1 963d 1f6b bc3d fc84 843b
00000170: 9f65 7a3d d7fb a43c d02e 5e3d 835e feba
00000180: e919 a43d 0073 8f3b 18ae d23b 850e baba
00000190: 4cdd b63b 5dd2 2e3d 4551 0c3c a7d8 11bc
000001a0: 06fa d0bb 8563 223d cae3 59bc 1782 033d
000001b0: 29f9 743d ae4f fa3c 0231 b93d 3d1c a03c
000001c0: 90ac b03c 1dd5 543d 15fa f93c d0ed 4bbc
000001d0: 452b e93b 58b8 7cbc 5b4d fd3a 1c65 d43c
000001e0: 5126 863b 75e4 7b3c dca1 0e3c bbc6 393d
000001f0: 37d3 b7bc cd38 5bbc 0574 83bd 2201 49bd
00000200: b0f0 89bd 1a5f 3cbd 91dc 9bbb abc9 c8bc
00000210: 0f52 783d 9fe1 843d ab19 b73d 3b54 d3bc
00000220: c54e 9bbb 2d33 00bb 51b3 88bc d432 1e3d
00000230: 3cc4 213d c6e5 563c 1585 163d 5111 f43c
00000240: 1b40 8cbc d3e1 9fbc 7c01 43ba 5535 94bd
00000250: f2b8 8abd 924e 56bd ec37 46be 2432 40be
00000260: a98a 1cbe de75 783a 5015 093d 8360 133d
00000270: 6d8e ce3c 72af 603c 1aec 7dbc f37e 7f3c
00000280: 64ff f83c caac 17bd 0444 6c3d dc01 56bd
00000290: d962 0abd fb84 4c3d c00e 723c a433 b33b
000002a0: 5913 5b3d 2bb7 a6bc c969 ea3b 12f0 8bbc
000002b0: aa4a c13b 5b21 d33b eff7 5b3c e344 30bc
000002c0: 08f5 543d ef0d 3c3d 4d5c 813d 95a2 a63d
000002d0: 0271 803d f0c3 aa3c 88f8 d03d edad ed3c
000002e0: a37d bb3c 56d2 843d fc34 b73c c80a f7bc
000002f0: 4111 b23c bebc 3cbc 38f7 d6bb 3dfa 71bd
00000300: 3c5f 533d 6faf 113d 82f2 633c a30b 1d3d
00000310: c1c4 463d 7686 163d 5181 bd3d 2a95 8e3d
00000320: e545 623d 3995 493a 01fb a43c 47e6 6fbd
00000330: cd4f e2bc c2f3 95bd 8b1b 4cbd 0e46 a73c
00000340: 2418 bdbc 17d6 3cbd 0d28 a83d 51d4 b23c
00000350: 24c9 a73c 0cde eb3d 2b48 923d c344 3c3d
00000360: 0528 0ebd 9ffd 73bd f3c3 00bc 5d19 0abd
00000370: f40a febc 75fa 2ebc cd7d 783c 3fbe c03b
00000380: a152 ed3b 1ad0 eebb 77f9 5fbd 06a9 62bd
00000390: 8083 8b3d 995b 6c3d eb41 443c 83c1 d03d
000003a0: 6f7d d13d 2f32 f63d 0e8a 8c3c 5d59 08bd
000003b0: fdf9 663d 1617 d13c a55f 04bc f25e 503d
000003c0: 6eab 8c3d 7c1a 633d 9a8c c53d 2d20 943d
000003d0: bb12 d7bb 87d0 813b d607 973b 469d 1fbd
000003e0: bd6c 21bd 6863 7f3d 7adc 24bb 68fb 003d
000003f0: a695 a03c beba 1e3b e951 463c e5ae cd39
0.02344135 -0.037342682 0.055472862 0.036575213 -0.051312584 0.060000844 -0.059499174 -0.050453812
-0.038929116 -0.0034335123 0.017106296 -0.021975439 -0.0150652155 0.0004285716 0.006303759 0.004662085
-0.0019361448 -0.0077687213 -0.03352481 -0.06906918 -0.035679344 -0.02478048 -0.039936345 0.031359486
-0.023514947 -0.0052140797 -0.017466808 0.10597588 0.011737376 0.026188849 0.09099412 0.0021789628
0.005430767 -0.042565 -0.06714687 -0.09309997 -0.02904925 0.06526269 0.04605175 0.02385222
-0.03549117 0.062772974 0.07208249 0.022667373 0.108282 -0.008429292 -0.017105935 -0.00095020904
-0.03409382 -0.08555307 -0.031155394 -0.1521823 -0.13178809 -0.119104244 0.0065582492 0.032547258
0.025310952 0.023742637 0.011072588 0.037397083 0.039816674 0.01811192 0.033906184 0.021186225
0.028613592 -0.04541886 0.0018464447 -0.0034561488 -0.01674364 -0.04601882 -0.022815384 -0.028581772
-0.014480031 -0.06606619 -0.06898287 -0.033942487 -0.028361429 0.0033832558 0.004760774 0.0032746976
0.010096261 0.010044138 -0.038152892 -0.042988937 0.0014943785 -0.03213945 0.015523423 0.07058187
0.06865354 0.0736426 0.09200119 0.0040441733 0.06113207 0.020139618 0.054243863 -0.0019406829
0.080127545 0.0043777227 0.006429445 -0.0014195001 0.00558058 0.042681087 0.008564298 -0.008901752
-0.0063774614 0.03964569 -0.013298938 0.032106485 0.05980793 0.030555572 0.090425506 0.019544715
0.02156666 0.051961053 0.030514756 -0.012446836 0.007115754 -0.01542481 0.0019325422 0.025927119
0.004093923 0.015374293 0.0087055825 0.04535554 -0.022439582 -0.013380242 -0.06418613 -0.049073346
-0.067353606 -0.045989133 -0.004756518 -0.024510225 0.060625132 0.06488346 0.08940443 -0.025797
-0.0047396147 -0.0019561753 -0.016687067 0.038622692 0.039493784 0.013116306 0.03674801 0.029793413
-0.017120412 -0.019516861 -0.0007438881 -0.07236735 -0.06773557 -0.052321024 -0.1935727 -0.18769127
-0.1528727 0.0009478013 0.03346759 0.035980713 0.025214398 0.013713704 -0.0154981855 0.015594232
0.030395217 -0.03703002 0.057682052 -0.052247867 -0.033785675 0.049931508 0.0147740245 0.0054688025
0.05348525 -0.020351013 0.007153724 -0.017082248 0.005898793 0.0064431853 0.013425811 -0.010758611
0.051991493 0.045911726 0.06316433 0.08136479 0.062715545 0.020845383 0.102036536 0.029013598
0.022887057 0.06485431 0.022364132 -0.030156508 0.021736743 -0.011519609 -0.0065602325 -0.059076536
0.051604494 0.035567697 0.013912799 0.038341176 0.048527483 0.036749326 0.09253181 0.069620445
0.055242438 0.00076897774 0.02013922 -0.05856922 -0.027625943 -0.07321884 -0.049830955 0.020419147
-0.0230828 -0.04610261 0.08210764 0.021829756 0.020481654 0.115169615 0.07142671 0.045964014
-0.034706134 -0.059568044 -0.007859218 -0.033715595 -0.031011082 -0.010679831 0.015166712 0.005882054
0.007242516 -0.0072879912 -0.054681268 -0.055336975 0.06812191 0.05770454 0.011978607 0.101931594
0.10229003 0.120212905 0.017155673 -0.03328835 0.05639075 0.025523704 -0.008079444 0.050871797
0.06868635 0.05544518 0.09645958 0.072326995 -0.006563512 0.003961626 0.0046090884 -0.038968347
-0.03941034 0.06235066 -0.0025155828 0.03148976 0.019602608 0.0024220194 0.01210449 0.00039230954

body.block3.conv.bias f4 [32]
00000000: f11f 09bc 523d 4d3d 0dba ac3c d689 01bd
00000010: a5f5 17bd 4175 eabb 6402 f83c 5920 b4bc
00000020: 1cef 3bbd 5955 81bd 0949 dabc cfc7 de3c
00000030: 6319 cbbb 052e 4c3c a148 34bd 2761 47bb
00000040: 79bf 183d a9fa 063d 84f6 ccbc 3fd2 18bd
00000050: a7ba 043d 8271 7e3c e617 8abc 9818 8dbc
00000060: d02c 00bd a2a8 723c 5a5c 3ebc 0ed4 ec3c
00000070: a67f 2f3d d4c3 33bd 4f1d 68bd c2ac 84bc
-0.008369432 0.050107308 0.02108481 -0.03162559 -0.0370995 -0.007155091 0.030274577 -0.02198808
-0.04588233 -0.06315107 -0.026646154 0.027194886 -0.0061980947 0.012462144 -0.044014577 -0.0030422898
0.037291978 0.032953892 -0.025019892 -0.03730988 0.032404568 0.015529992 -0.016857099 -0.017223641
-0.031292737 0.014810713 -0.011618698 0.02890971 0.042846344 -0.043887928 -0.056668576 -0.016195659

body.block3.norm.weight f4 [32]
00000000: dcb9 7c3f 081f 863f df4d 883f 2463 843f
00000010: 1af4 743f 2e8a 803f 02f1 813f fcfe 7a3f
00000020: 1216 853f 9c13 863f 36ec 843f 2b75 7a3f
00000030: e4f0 7d3f 9bd2 833f 77be 873f 6a85 8a3f
00000040: 5290 813f 62c9 a23f be73 a93f b1e8 813f
00000050: c8a2 723f 31db 803f ffed 923f fc75 843f
00000060: 4350 893f bc95 833f 48a6 7e3f a52c 7f3f
00000070: 1909 8d3f b934 9b3f da8c 673f 3085 913f
0.987211 1.047822 1.0648764 1.0342755 0.9568497 1.0042169 1.0151675 0.98045325
1.039736 1.0474734 1.0384586 0.97835034 0.99195695 1.0298647 1.0605 1.0821965
1.0122168 1.2717707 1.3238447 1.0149137 0.94779634 1.0066892 1.1478881 1.0348506
1.0727619 1.028007 0.99472475 0.996775 1.1018401 1.2125465 0.904493 1.1368771

body.block3.norm.bias f4 [32]
00000000: b9d1 133e 753f ec3b b8f0 c23d eabb c33c
00000010: 2b19 71be d645 65bc 9bba d0bc bda9 e6bd
00000020: 0c62 343e caaa 183d dbac 4f3d 698e f03d
00000030: c384 773c f99a 0a3e f7dc 263d e9ff 9f3d
00000040: 93bf 293e 323b 9d3d a5d9 3c3e d337 433a
00000050: 4bc3 2dbb ad93 9b3d b442 a73d 90de 0a3e
00000060: 04d3 773d 266b afb8 1c2f bf3d e101 a53c
00000070: 5fc1 61bd 59e4 003e 7690 1c3c da24 963d
0.14435472 0.007209713 0.0951857 0.023893315 -0.23544757 -0.013993701 -0.025479605 -0.11262844
0.17615527 0.037272252 0.050701957 0.117459126 0.015107336 0.1353568 0.040738072 0.07812483
0.16576986 0.07677306 0.184424 0.0007446978 -0.0026514109 0.07596526 0.081670195 0.13561463
0.060503975 -8.364608e-05 0.09335157 0.020142497 -0.055116054 0.12587108 0.009555927 0.07331248

body.block3.norm.running_mean f4 [32]
00000000: 7a02 893e d284 0fbf f1d6 3b3e a73b fbbe
00000010: 1857 28be 21d7 4f3f 3c6b 4b3f ea5d f5be
00000020: c587 59bf ae6f 33bf 86c0 f7be 5b7f a43e
00000030: ea33 62bf 6589 17bf 80a2 51bf fc11 2ebf
00000040: 4d83 7fbf 453a 0c3e c051 b7be bcd0 11bf
00000050: ae3e af3f 4d6a 353f de13 41bf b608 a5bf
00000060: 5f5e 80bd 5be4 80bf 15f4 803e 70dd 92bf
00000070: 61c3 6abe 498a 89bf 2f58 293f acf2 61bf
0.26759702 -0.5606204 0.18343712 -0.4906895 -0.16439474 0.81187636 0.794605 -0.47923213
-0.8497279 -0.70092285 -0.4838907 0.32128415 -0.88360465 -0.5919402 -0.8188858 -0.6799619
-0.99809724 0.13694103 -0.35804558 -0.5695913 1.3691003 0.7086533 -0.7542094 -1.2893283
-0.06268 -1.0069689 0.2518622 -1.1473827 -0.22926094 -1.0745326 0.6615018 -0.8826091

body.block3.norm.running_var f4 [32]
00000000: f615 8d40 1a8a 1240 143d ab40 09d4 793f
00000010: b4c9 e43f 387f f03f 2450 0b40 7e2f 1640
00000020: 123e 1d40 11bc 533f 1ee6 da3f a3a7 a440
00000030: fa55 9840 3066 7840 6830 4f3f 7bd1 463f
00000040: 46c5 9a40 1804 3340 5b34 3a3f 5560 5440
00000050: 9088 5940 f9f5 5c40 bf07 8b3f 8175 9540
00000060: 52b0 9c3f 15ea 9d40 6d35 6340 4e12 c740
00000070: 624a 9c3f ab82 d23e e43c 6240 14fb 793f
4.408931 2.289679 5.351206 0.97589165 1.7874055 1.8788824 2.1767664 2.3466487
2.4569135 0.8270884 1.7101476 5.1454635 4.760495 3.881237 0.8093324 0.7766339
4.836581 2.7971249 0.7273614 3.3183796 3.39896 3.452513 1.0861739 4.6705937
1.2241309 4.9348245 3.5501359 6.2209845 1.22102 0.41115317 3.5349665 0.9764874
