TrainedModels/birds/scale_factor=0.750000,alpha=10/5/netG.pth (torch, 474370 bytes, 29 tensors)

channel.fc1.weight f4 [4, 64, 1, 1]
000000 51 08 8f bd 84 ed ed 3b f8 34 80 3e 11 b6 e5 3d
       -0.06984008 0.00726098 0.25040412 0.11216367
000010 c7 29 0b 3b ee 89 83 bd 26 33 73 bd ab ec ed bc
       0.0021234618 -0.064227924 -0.05937495 -0.029043516
000020 49 67 81 3d 1b 33 94 3b bd 36 80 3c 74 7f cb bb
       0.06318528 0.004522694 0.015651101 -0.006210262
000030 25 44 a6 bb d8 f0 81 bd 43 75 e9 3d f8 f1 89 3a
       -0.0050740414 -0.063447654 0.11399319 0.0010524383
000040 ab 35 55 3d 2d d6 29 bd a8 ea 61 bd 4f 78 21 bd
       0.052053135 -0.04146402 -0.055155426 -0.039421376
000050 00 e5 0d ba 67 34 56 bd 6a 23 23 bd ba 31 ef bc
       -0.0005412847 -0.05229607 -0.039828695 -0.029198516
000060 57 85 44 bd f2 06 f6 bc c9 a5 0a 3e 99 4a b1 3d
       -0.047978725 -0.030032609 0.13539805 0.086568065
000070 02 7e 28 bd 4b 7d 1e bd 2a cd d8 bc a2 f5 8f bc
       -0.041135795 -0.038693707 -0.026465017 -0.017573182
000080 6e 6c e9 bc 3a 03 e2 3d 87 13 3d 3d a9 cf 71 bd
       -0.028494086 0.11035772 0.0461612 -0.05903593
000090 11 03 7f 3e c5 73 69 bd 5c 13 c2 3c be d0 ac 3e
       0.24903513 -0.056995172 0.023690872 0.33753008
0000a0 28 3e e4 3e bf e7 10 bd ca 8e 4d bd 71 57 14 bd
       0.4457867 -0.03537726 -0.050185002 -0.036216203
0000b0 33 5b 3d 3c a6 68 a5 3e ce dc 13 3d e1 c8 fe bc
       0.011557388 0.32306403 0.036099248 -0.031101646
0000c0 f9 4d 0b bc 60 53 87 bd 56 f8 79 bb a8 69 21 bd
       -0.008502477 -0.066076994 -0.0038142405 -0.039407402
0000d0 f1 c8 0e 3d 93 de dd bc d8 bb 1a bd cc a3 34 bd
       0.0348596 -0.02708367 -0.037776798 -0.04410152
0000e0 ba 5a 72 bc 89 8f 72 3e 84 da f9 bc c6 6e ea 3e
       -0.014792139 0.23687567 -0.030499704 0.45787638
0000f0 bd 3d 00 3c 2f 00 99 3b b7 17 8e 3e c8 4e f0 3e
       0.00782722 0.0046692113 0.27752468 0.46935105
000100 8f e7 57 3b 40 2a 96 3c 46 5e de 3a 13 e8 be bc
       0.0032944416 0.018330693 0.0016965352 -0.023304021
000110 65 29 ec bc 45 5d 94 3b e6 9e f4 3c e9 ad 18 3c
       -0.028828332 0.00452772 0.029860925 0.009318807
000120 a9 e1 53 39 09 65 65 3c 8d 12 a5 bc 5c b9 94 bc
       0.00020206593 0.014001139 -0.020150447 -0.018154792
000130 c6 a6 ff 3b 70 c8 b8 3c 19 e4 71 3c e6 31 89 bb
       0.0078018634 0.022556514 0.014763855 -0.0041868566
000140 dc 12 55 3c 07 0c 8c 3c 4e 33 24 bd 80 fa 64 3c
       0.013004985 0.017095579 -0.04008799 0.0139757395
000150 a4 ae 32 bc e4 cb 95 ba 18 9f d2 bc 8f be 8c b9
       -0.010905895 -0.0011428562 -0.025710627 -0.00026844858
000160 4a 19 9d bc 6e 71 85 b9 0c 85 57 bc 2f a4 c4 bc
       -0.019177098 -0.00025452249 -0.013154279 -0.02400407
000170 54 70 0f 3d 6f 6b 70 bb 04 0b 30 bc 6b 40 ef 3b
       0.035019234 -0.003668513 -0.010744814 0.0073013804
000180 bd 53 87 39 ad ac 0b bd 95 96 8c 3c 42 e1 81 3c
       0.00025811596 -0.034100223 0.017161647 0.015854482
000190 21 1a d2 3c b2 41 9a bb df 84 01 3b 22 7c db 3b
       0.025647225 -0.0047075385 0.0019763035 0.0066981474
0001a0 15 8f dd bc fb aa 19 3c e7 96 b8 bc 18 ff a4 bc
       -0.027045766 0.009379144 -0.022532893 -0.02014117
0001b0 67 37 9b bc 0a 62 03 3c 53 fc b5 bb 0d 41 26 bd
       -0.018947316 0.00801898 -0.005553761 -0.04058938
0001c0 87 59 f2 3b 98 99 b5 bc 44 35 ce bc cd e5 b1 3c
       0.0073959264 -0.022167966 -0.025171883 0.021716023
0001d0 65 90 11 3d 97 dc 47 3c 3b 40 19 bc 69 11 85 bc
       0.035538096 0.012198589 -0.009353693 -0.016243653
0001e0 6d 4e 3f bd c7 3c 5a 3c 9e f0 47 3d 77 0b c4 bc
       -0.046705652 0.0133201545 0.048813455 -0.023931248
0001f0 57 08 e5 bc a9 b6 84 3c 5b 24 1f bc f6 5f 18 bc
       -0.027958078 0.01620038 -0.009713258 -0.009300223
000200 8d 63 ca bc ae f7 0f 3b 93 29 8a 3b b4 58 a1 bc
       -0.024705673 0.0021967697 0.004216382 -0.019695617
000210 60 62 3a 3b e8 1d 8c 3c 91 5f 49 bd 63 39 c6 bb
       0.0028439984 0.017104104 -0.049163405 -0.0060493215
000220 48 e0 31 bc 18 5e 7f bc a5 0c 66 3b 16 65 00 bd
       -0.0108566955 -0.015586399 0.0035102752 -0.031346403
000230 37 ca 26 3c 17 6d 53 bc 00 d1 f7 bb ae 13 be 3b
       0.010180048 -0.012904427 -0.0075627565 0.005800686
000240 54 fd 9f 3c a5 c4 80 bb 20 dd a8 bc 8f 7a 5c 3c
       0.019529976 -0.003929692 -0.020613253 0.013456955
000250 e9 fc a4 bc 02 5e 3a 3c 43 19 0a bc 9d 44 6c bb
       -0.020140128 0.011374952 -0.008428874 -0.003605164
000260 7a 31 b3 3c 38 b9 98 3c 6d 5b 0d 3b 77 ff d9 bc
       0.021874178 0.018643007 0.0021569387 -0.026611073
000270 8c dd f6 bc 91 e8 07 3d 2f c8 e5 3b 8a e0 e4 bb
       -0.030134939 0.033180777 0.007012389 -0.006984775
000280 50 af 52 3c 0b 81 84 3c 37 fd 1d 3c 96 9e af 3c
       0.012859181 0.016174814 0.009642891 0.021437924
000290 e3 22 17 3b a8 65 21 3c af 0c ab bc e2 a4 28 3c
       0.0023061566 0.009850897 -0.020880071 0.010293217
0002a0 18 a9 e4 bc d5 1a 03 3d 70 a8 1b bc 2e 57 0d bc
       -0.027912661 0.03200801 -0.009500608 -0.008626742
0002b0 f8 97 8c ba a7 68 be ba bb 2c 89 3c 8d d5 be 3c
       -0.0010726443 -0.0014527038 0.016744962 0.023295188
0002c0 32 57 06 3d 01 02 f2 bb 5b 13 27 bc e8 55 9e bc
       0.032798 -0.007385493 -0.010197486 -0.019328073
0002d0 65 7d ea bc ba c5 80 3c 97 89 2c 3a d8 b4 7f 3b
       -0.028624246 0.015719283 0.0006581782 0.0039017703
0002e0 d7 c4 4a bc 61 b3 de b9 00 88 d2 b9 37 78 ad bc
       -0.012376032 -0.00042476787 -0.0004015565 -0.021175487
0002f0 95 0e 5d bc 30 b6 a6 3c 60 6e 38 bc a1 29 ce bc
       -0.013492246 0.020350546 -0.011256784 -0.025166335
000300 d6 1f 0d bd d3 3e b5 bb 72 ec c1 3b ef 8c ce 3c
       -0.03445419 -0.005531171 0.005918079 0.025213687
000310 d8 cb b1 bc 7b bc c1 ba 90 a7 62 bc f9 de bf 3c
       -0.021703646 -0.0014780903 -0.013833895 0.023421751
000320 15 4e bb bb 82 26 bf bc c4 07 86 3c 4f 34 38 bc
       -0.005716095 -0.023333792 0.016361125 -0.01124294
000330 35 d6 0f 3c 68 48 e3 bb c1 d5 ee 3c 4a c8 19 bd
       0.008779098 -0.0069361217 0.02915466 -0.037544526
000340 9d 69 26 bd 63 3b 57 bc 14 f4 aa bc 2d cc 4e bc
       -0.040628064 -0.0131367175 -0.020868339 -0.0126219215
000350 33 94 6c bc df d0 dc bb f7 40 b9 bb a8 d1 a3 bc
       -0.01443963 -0.0067387666 -0.0056534964 -0.019997433
000360 36 fb 23 bc 86 fd 8d bb 56 30 03 3d 49 21 50 bc
       -0.010008624 -0.004333201 0.03202852 -0.012703248
000370 87 31 b6 bc 4c 8d 33 bc 69 0f 79 3c 94 3d 9d bb
       -0.022240413 -0.010958981 0.015201428 -0.0047986005
000380 ae ae e4 3c a5 dc 0b 3d 06 be 8f 3b 36 3b 0b bb
       0.027915325 0.03414597 0.004386666 -0.002124501
000390 08 62 24 bc 4c 8e a9 bc 04 4e 80 bb 07 51 4c bd
       -0.010033138 -0.020697735 -0.00391555 -0.04988196
0003a0 43 6a 2c 3a 2a 31 a0 bb dd 38 03 bc 84 c4 8b 3c
       0.00065771135 -0.0048886733 -0.008009163 0.01706148
0003b0 4c c9 5e bc 8a c4 1d bc b5 6f 60 bb d3 30 63 bc
       -0.013597798 -0.009629378 -0.003424627 -0.013866621
0003c0 8d 08 12 bd e2 e0 e3 3b 96 0a e6 3c 92 8c a1 3c
       -0.035652686 0.0069542984 0.02808122 0.01972035
0003d0 1c 07 76 bc b3 19 14 bc 9a ea 1e 3d 39 80 76 3c
       -0.015016343 -0.00903933 0.038797952 0.015045219
0003e0 76 8f 18 3c ed 15 33 bb 2f d0 83 3c 07 22 ef bb
       0.0093115475 -0.0027326301 0.01609048 -0.0072977575
0003f0 3a 3d 13 3d b1 23 ca bc 64 69 3d 3c 46 96 be bb
       0.035947062 -0.024675222 0.011560772 -0.005816254

channel.fc2.weight f4 [64, 4, 1, 1]
000000 55 dc 8a bd 59 37 50 3c 00 5f 5b bb b1 31 f3 bc
       -0.06780306 0.012708508 -0.0033473372 -0.02968678
000010 2d 0c 27 be 14 21 03 3c 75 72 e6 3b 59 ad 0a bd
       -0.16313238 0.008003492 0.0070326873 -0.033856723
000020 0e 73 89 bd cc 5d 74 bc b8 25 e6 3c 38 f1 f7 3c
       -0.06711398 -0.014914941 0.028094158 0.03026639
000030 8a 0f fa bd 36 da ab bc 64 e7 75 bc 12 fa 93 3c
       -0.12209995 -0.020978075 -0.015008781 0.018063579
000040 02 be 13 be ea 44 6c 3c 57 05 cb 3c 2e ab 23 ba
       -0.14427951 0.014420727 0.02478282 -0.00062434643
000050 7b dc 12 be cf 3a a8 3c 98 81 15 bc 35 f0 82 bc
       -0.14341919 0.020535855 -0.009125136 -0.01598368
000060 13 39 e0 bd d9 6e 91 3c ed 30 a8 bc bd 9d f0 ba
       -0.10948386 0.017753052 -0.020531142 -0.0018357557
000070 17 7e 27 be af 8d d1 bc 99 e1 e3 3b 76 ab d0 3c
       -0.16356693 -0.025580255 0.0069543836 0.025472384
000080 42 7d 89 bd c5 61 74 bc 94 e8 0f bc bf 2a 26 bb
       -0.06713344 -0.014915888 -0.008783478 -0.0025355069
000090 8a 7a 05 be be 31 97 bb 62 21 36 bc 77 44 fc 3c
       -0.13035026 -0.004614084 -0.0111163575 0.030794365
0000a0 a1 b2 ad bd b9 57 26 bc ee 51 07 3c f0 25 9c 3c
       -0.084813364 -0.010152751 0.00825928 0.019061059
0000b0 8f 17 7b 3e 06 a9 89 bb ca bd ab 3b 71 a0 8e 3c
       0.24520706 -0.0042010574 0.0052411305 0.017410489
0000c0 00 16 90 bd 8c fc 7f 3c 81 9f 61 bc 97 30 11 3b
       -0.07035446 0.015624177 -0.013770939 0.0022154206
0000d0 dd cd 14 be 65 e2 fc 3c 1c f1 83 3b bd 04 6e 3c
       -0.14531656 0.030869672 0.004026545 0.014527497
0000e0 00 7c 99 bd f0 2f 15 bc 0a b2 6b bc 4f 7d 68 bb
       -0.07494354 -0.0091056675 -0.01438571 -0.003547508
0000f0 9d c7 a1 bd 30 b3 4a 3d 9a dc 1f 3c b6 80 76 3c
       -0.07899401 0.049487293 0.009757185 0.0150453355
000100 1d b8 7e bd 17 cf 14 bd a7 55 bd bc cb e8 fc bc
       -0.062187303 -0.03633031 -0.023112131 -0.030872723
000110 ea f1 ca bd 6b 07 44 bc 73 84 1a bb 7c 8f 15 bb
       -0.09909423 -0.011964659 -0.002357748 -0.002282112
000120 40 fb 9d bd 8a 54 af 3b 5d 1f 6b 3b 7a 5b de 3b
       -0.07713938 0.005350654 0.0035876848 0.006785807
000130 16 66 91 bd 5d b0 f6 bc f3 22 09 bb 18 92 5b 3c
       -0.070995495 -0.030113393 -0.0020925372 0.013401531
000140 8e 92 22 be fc 16 bf bc a1 a6 23 bb 5e 90 7a 3c
       -0.15876219 -0.02332639 -0.0024971145 0.015293209
000150 38 9a 2c be c9 6b 35 3d b0 78 c0 3b 49 90 0a bd
       -0.16855705 0.044292245 0.005873762 -0.033829007
000160 2c c5 34 be 1e 85 fc bb 52 6a 98 3c 26 b2 ac 3a
       -0.1765334 -0.0077062985 0.018605385 0.0013175651
000170 8d d1 fb bd 34 d8 97 3c d2 18 8d bc 8c 5b 18 bc
       -0.12295828 0.01853571 -0.01722375 -0.00929917
000180 f5 8b ee bd f2 8c be bc bf a1 20 3b ad 2a 9c bc
       -0.116477884 -0.023260567 0.002451047 -0.019063318
000190 df 95 e6 bd 6f 45 3e bb 50 90 af 3c f2 57 ff bc
       -0.112590544 -0.0029033085 0.021431118 -0.031169865
0001a0 ab e4 8a bd 03 f3 e9 3c ca bb db 3b e0 3b bf 3a
       -0.06781896 0.02855826 0.006705736 0.0014589988
0001b0 e4 99 9b bd 42 f0 d5 3b aa f0 1e ba 8b 2c 41 bb
       -0.07597712 0.006528885 -0.00060630834 -0.0029476013
0001c0 c9 ee eb bd 0f c3 0f 3d f9 36 87 3c 08 80 69 bb
       -0.11520154 0.03509813 0.016505705 -0.003562929
0001d0 0c c8 ce bd f3 1b 42 bc 09 16 24 bd 60 2e f9 bc
       -0.1009675 -0.011847484 -0.040060077 -0.030417621
0001e0 9f f1 46 be e9 2c af 3b bc cf 03 bc de b9 63 b9
       -0.19428109 0.00534593 -0.008045133 -0.00021717648
0001f0 bb 81 5c bd 12 fc e8 3c 11 1e a6 bc ac 58 11 3d
       -0.053834658 0.028440509 -0.020278009 0.035484955
000200 48 7b 71 bd be 18 46 3c 8a f1 fe 3c 53 f1 c7 ba
       -0.05895546 0.01209086 0.031121034 -0.0015254415
000210 2d 19 8c bd 99 10 ca b9 37 bc 35 3b 95 9e f1 3c
       -0.068407394 -0.0003854081 0.0027730593 0.029494563
000220 7b a7 da bd 00 2c b7 bb ba 5c 13 bd 2f ea 25 bd
       -0.106764756 -0.005589962 -0.035977103 -0.040506538
000230 94 c6 86 bd 8d a0 3d 3d f4 ec 0c bd dc c0 ba 3b
       -0.065808445 0.04629569 -0.034405664 0.00569926
000240 a7 42 f0 bd 57 38 2e bc 8e c1 30 bd 81 dd 08 ba
       -0.11731463 -0.01063355 -0.043153338 -0.0005220995
000250 51 41 2b be 90 41 e2 bb 92 6b 42 bc 9f 20 1e 3b
       -0.16724135 -0.0069047883 -0.011866467 0.002412833
000260 f4 3e 14 be 78 0b a3 bc 49 c5 16 3c ee 7a 7f bb
       -0.1447714 -0.01990293 0.00920231 -0.0038983184
000270 ac f1 b1 bd ee 1f 69 bc e5 00 27 bd d5 d0 08 bc
       -0.086886734 -0.014228804 -0.040772337 -0.008350571
000280 a9 61 db bd 4b 28 03 bc a9 09 70 bc ae 80 8d bc
       -0.107119866 -0.008005212 -0.014650741 -0.017273273
000290 6c d9 e2 bd 77 b2 9e bc 45 da 75 3b 33 c7 8c bc
       -0.11076626 -0.019372208 0.0037514132 -0.01718483
0002a0 f7 31 cf bd fb 32 14 bc c5 a1 8d bc 3e 2c c2 bc
       -0.10116952 -0.009045358 -0.017289052 -0.023702737
0002b0 2f a1 1a be e9 d1 80 bb 25 45 98 3b 91 fd e6 3c
       -0.15100549 -0.0039312732 0.0046469145 0.028197082
0002c0 b6 6b a6 bd db 69 c1 3b 1c ec 2f 3c 59 9e 28 bc
       -0.08126013 0.0059025115 0.010737445 -0.010291659
0002d0 0f 41 16 be 26 1f 96 3a dd 66 2d 3d 7d 7d 0d bc
       -0.14673255 0.0011453375 0.042334426 -0.008635876
0002e0 38 91 a7 bd 3d bd 9f 3b 99 bf 7d bc 64 ab e5 bc
       -0.08181995 0.004874854 -0.015487575 -0.028035827
0002f0 bd 0a 07 be bc 54 c4 bc ef d2 a6 bc 9e d6 a6 3c
       -0.1318769 -0.023966186 -0.020364253 0.02036601
000300 dd f7 3b be e5 2d 7c bc 72 d7 40 bd f1 9c 80 3c
       -0.18356271 -0.0153918015 -0.047080465 0.015699835
000310 58 a5 14 be d0 a3 7d 3c 8e 81 0b bd e8 37 2f bc
       -0.14516199 0.0154809505 -0.0340591 -0.010694481
000320 61 9f e9 bd 17 5e a1 3c a4 4c e1 3c 91 4a 04 3d
       -0.11407352 0.019698186 0.027502365 0.032297675
000330 25 3a 9d 3e 1d 23 bd 3c 17 67 a4 3c c3 7e 4c bc
       0.30708423 0.023088032 0.020068688 -0.012481394
000340 f0 59 15 be c9 fa 4c 3c b9 4e 26 bd 56 29 b0 3c
       -0.1458509 0.012510964 -0.04060242 0.021504086
000350 54 f1 05 be 86 88 e9 3c 63 02 b2 bc ff f2 45 3c
       -0.1308034 0.028507482 -0.021729654 0.012081861
000360 3c f3 c4 bd 4c 7a 68 3c 43 be 1d bb 2c 24 bc 3c
       -0.09616706 0.014189314 -0.0024069704 0.022966467
000370 07 02 d9 bd 4e 22 b2 bc 7c f2 6a bc 74 e2 19 3d
       -0.1059609 -0.021744873 -0.014340039 0.03756948
000380 55 7a 39 be 4b 8c e1 bb 57 de 39 bc c8 39 9c bc
       -0.18113072 -0.0068831793 -0.011344514 -0.019070521
000390 ee d6 f1 bd 48 41 83 bc 28 82 de 3c 3d d1 da 3b
       -0.11808573 -0.01602234 0.027161673 0.006677775
0003a0 91 67 ee bd 00 9c 2c bc da 0b 10 3d 43 c0 21 bc
       -0.116408475 -0.01053524 0.035167553 -0.009872499
0003b0 60 02 2e be 19 e4 89 3c c8 a2 a6 ba 86 58 89 bb
       -0.16993093 0.016832398 -0.0012713308 -0.004191461
0003c0 df c8 9c bd af 4c f0 ba 13 4d ad 3c b2 01 7a bc
       -0.076555006 -0.00183334 0.021154916 -0.015259193
0003d0 e2 7c 90 bd 1e 62 45 bc b1 97 a1 3b 75 6d 18 bc
       -0.070550695 -0.012047319 0.004931413 -0.00930344
0003e0 67 ee 20 be fd 5e a1 3b a7 77 8b 3c 81 ee 90 bc
       -0.15715943 0.0049246536 0.017024828 -0.017691853
0003f0 92 0f b7 bd 60 de 92 bc 29 5d 61 3c ab d7 ab 3b
       -0.08938517 -0.017928302 0.013755121 0.0052442155

spatial.conv1.weight f4 [1, 2, 7, 7]
000000 9f 5f f1 3b c3 b5 c5 bc 98 9c 71 3c 61 81 4e 3d
       0.0073661353 -0.024134522 0.0147468075 0.050416354
000010 82 54 a4 3c 7a 78 38 3d 88 1c b9 3c 59 d4 04 bd
       0.020059828 0.04503677 0.022596613 -0.032429073
000020 80 27 17 3c ca ac 3e 3d a3 36 2b 3d 6e 0c 5e 3c
       0.009225726 0.046551503 0.041800153 0.013552768
000030 bb fe 03 3d 55 79 3e 3c eb 09 a5 bc 25 e2 1b 3d
       0.03222535 0.0116256075 -0.02014633 0.038057465
000040 f9 82 9d 3c dc 71 47 3d f8 0a 87 3d fb b7 81 3d
       0.019227492 0.04869257 0.06593889 0.063339196
000050 00 3a 34 3d 3c fb b6 bb 0a ce ad 3c d8 0b 2d 3b
       0.044000626 -0.0055841487 0.021216411 0.0026404765
000060 c4 71 ac 3d 26 20 a6 3d e4 a4 5b 3d 62 b3 8f 3d
       0.084201366 0.081116006 0.05362405 0.070166364
000070 b8 e2 02 bb b1 13 01 3d bb 07 33 3d d7 05 73 3d
       -0.001997156 0.03151292 0.043708544 0.05933174
000080 be a1 f8 3c 70 58 62 3d 11 70 93 3d b3 14 71 3d
       0.030350562 0.05526012 0.07199109 0.05885763
000090 40 20 9c 3b 27 37 4e 3d 9a f4 0a bc fd 5d 12 3d
       0.0047645867 0.050345566 -0.008481169 0.035734165
0000a0 78 8b 37 3d a2 49 48 3d 5a b0 54 bd 9c 0f 16 bd
       0.044810742 0.048898347 -0.051925994 -0.03663598
0000b0 40 31 2a 3d f8 8a 03 3c 68 93 68 3c db 42 9f 3c
       0.041550875 0.008028738 0.014195301 0.019441059
0000c0 d1 dc 14 bd cf 77 14 bd e8 c4 fe bc e0 d8 19 bd
       -0.0363434 -0.03624707 -0.031099752 -0.037560344
0000d0 df d7 6d bc 60 9b 9e 3c 48 2e 5a bd ac f0 c4 bc
       -0.0145168 0.019361198 -0.053266793 -0.024040543
0000e0 4a 42 34 3c 4f 01 29 3c da 50 8a 3c ad 75 00 3d
       0.011002133 0.010315253 0.016884256 0.031362224
0000f0 14 ce 08 3b 4b c2 f2 3c e8 aa 39 bd 78 cd 09 bd
       0.0020874785 0.029633662 -0.045329005 -0.033643216
000100 90 87 99 3d ab 91 9a 3c f5 d8 90 bc 11 82 98 3d
       0.074965596 0.018868288 -0.017681578 0.07446683
000110 a1 10 04 3d 81 67 1a bb 2b ec 28 bd 5d fb 67 3d
       0.03224242 -0.0023560228 -0.041240852 0.056636203
000120 16 b2 58 3b b5 5c b0 3d 04 7a 80 bc 8a e8 fd 3c
       0.0033065132 0.086114325 -0.015683182 0.030994672
000130 0f bb 2a bd 1a f4 16 bd 77 3c e5 3c 77 70 d0 bc
       -0.0416823 -0.036853887 0.027982933 -0.025444252
000140 94 4c b2 3d d0 ce 8d 3d d0 aa b7 3c b8 8e 00 3c
       0.08706012 0.06924212 0.022420317 0.007846527
000150 ed da 1b 3d 9c c3 06 ba 1f e8 00 3d e5 e3 38 3c
       0.03805058 -0.00051408424 0.031471368 0.011284803
000160 8d d1 66 3c 17 e5 87 3d 6d f6 a7 3d 47 63 fa bc
       0.014088047 0.06635492 0.08201299 -0.030564917
000170 58 22 29 3c 59 9e 12 bd c1 b8 47 bd 21 72 ed ba
       0.01032313 -0.035795543 -0.04876018 -0.0018115678
000180 46 d0 40 3d 2b 39 71 3c
       0.047073625 0.014723103

head.conv.weight f4 [64, 3, 3, 3]
000000 82 a2 8f 3d 69 e3 17 3e 4e d5 da 3c 00 1e 40 3d
       0.07013418 0.14832844 0.02671304 0.04690361
000010 48 d1 4c bd 1f 49 d4 bd 27 0a 2e bd b8 28 ce bc
       -0.050004274 -0.10365509 -0.04249015 -0.0251659
000020 58 81 65 bd 91 12 b8 3d b2 e9 65 3d 6c 89 47 3c
       -0.056031555 0.08987916 0.056131072 0.01217876
000030 ad 20 18 3d 4c cd 14 3d 4c 4d 3a bb de 84 4a bd
       0.037140537 0.0363286 -0.002842742 -0.04944312
000040 7c 89 89 3c 2b c4 2e 3c 00 2b 28 3b 09 5a 12 3d
       0.01678919 0.010666887 0.0025660396 0.035730395
000050 8d cf 59 3d 9b f0 fb 3c 2e c0 66 bc bc 35 0b bc
       0.05317645 0.030754378 -0.014083905 -0.008496698
000060 2e 72 18 bd c5 2a 3d bd 08 04 bc bd 79 a7 b2 ba
       -0.037218265 -0.046183366 -0.091804564 -0.0013630233
000070 fa a6 c5 bc 40 92 fd bc e4 7a 2e bd 69 5f 2a 3a
       -0.024127472 -0.030953526 -0.042597666 0.00064992026
000080 6d 59 19 bd ee 76 2b 3a 8d e7 c1 bc 0a ff 8b bc
       -0.0374388 0.0006540854 -0.023669982 -0.017089386
000090 ca 0d 92 3d 68 cf b2 3c ca b6 9c 3b 69 ae 4c 3d
       0.07131536 0.021827415 0.0047825323 0.049971018
0000a0 12 fe 41 3d bf 29 3b 3c 5a de 34 bc 3e 48 91 bc
       0.04736144 0.011423527 -0.011039341 -0.017734643
0000b0 26 45 03 bc 8d 2b 1e 3e 02 27 0d 3e 2e 8c bf 3d
       -0.008012092 0.15446301 0.13784412 0.09352909
0000c0 d7 4a c1 3d 57 12 aa 3d e4 f4 8d 3d 58 c7 93 3d
       0.09438103 0.08304279 0.06931475 0.07215756
0000d0 d9 5c 5d bc e7 f7 87 bb 14 5f 78 bb 09 c2 98 bd
       -0.013510906 -0.0041494253 -0.0037898468 -0.07458884
0000e0 fb 39 46 bd e3 bc c5 3c 7c 10 89 3c 24 1c b7 3c
       -0.04839514 0.02413792 0.016731493 0.022352286
0000f0 fe 59 63 bd 2d 81 5c 3d 31 24 83 3d 3e 94 95 bd
       -0.055505745 0.05383413 0.06403387 -0.073036656
000100 35 35 31 bc 5b 7f 23 bd 09 c8 25 bd 1a 61 0e 3d
       -0.010815908 -0.039916378 -0.04047397 0.034760572
000110 6e 24 de 3d 03 d1 5c bd cf 91 eb 3d ed de 15 3e
       0.10846792 -0.053910267 0.1150242 0.1463582
000120 6e 37 ad 3a c2 48 7c bd f8 c9 9f bd d8 ac 06 bd
       0.0013215372 -0.061592825 -0.07802194 -0.03287968
000130 30 c6 0f bd 7e 67 11 bd b6 71 b1 bc bf e6 08 3d
       -0.035101116 -0.03549909 -0.021660667 0.03342318
000140 83 45 dc 39 1e 57 8f 3b 76 44 0d bd 54 63 d5 bc
       0.0004201346 0.004374399 -0.034489118 -0.02604834
000150 c5 5c 02 bc 73 88 47 bd 75 22 49 bd ff 34 3b 3b
       -0.007956688 -0.048714112 -0.049105126 0.0028565524
000160 ef 7d 0b bd 9d 79 9b 3d 40 ae 82 3d 18 1a df 3c
       -0.034055647 0.07591555 0.06380892 0.027234122
000170 99 cb 40 3d 95 b3 94 bc e3 8a 04 bd c0 18 15 3d
       0.047069166 -0.018152038 -0.032359015 0.036400557
000180 f0 44 4d bd 1e 7e 0d bd bf 1a e2 3d 14 46 00 bd
       -0.050114572 -0.034544103 0.11040258 -0.03131683
000190 5f 28 b1 3c c0 70 d7 3d 93 80 37 bd 3e d1 aa bd
       0.021625696 0.10519552 -0.044800352 -0.08340691
0001a0 87 54 02 3c 79 3c 22 be 8d f8 e9 bd 69 14 ea ba
       0.007954723 -0.15843381 -0.114243604 -0.0017858866
0001b0 5e a4 40 3c 48 01 63 3c fc 61 84 bd 03 b6 f2 3d
       0.011757938 0.013855286 -0.064640015 0.11851122
0001c0 60 f8 c3 bc 51 f5 cc bc 72 9e 40 3d e1 66 35 bd
       -0.023922145 -0.02501932 0.047026105 -0.044287566
0001d0 36 36 a4 3c b2 ed 9c 3d 5a 4d b9 3c 83 e1 fe bc
       0.020045381 0.07662524 0.022619892 -0.031113392
0001e0 0e 1f be 3d 4a 3a cc 3b e3 5a 1b 3d 2c d1 dd 3c
       0.09283267 0.0062325345 0.037928473 0.02707728
0001f0 3b 91 29 3d cc b8 cf 3a d3 1f 73 bd 2c 16 b1 bd
       0.04139827 0.001584792 -0.05935652 -0.08646807
000200 c6 75 64 bd a0 b7 d3 bd 25 02 17 be a6 ca 6d bd
       -0.05577638 -0.10337758 -0.14746912 -0.05805459
000210 0f d4 b0 bd 85 22 d7 bd df 1f 23 bd 82 a5 b2 bc
       -0.08634197 -0.10504631 -0.039825317 -0.021807436
000220 b5 56 7c 3d 7c f1 d4 3c 3a e3 0f 3d ed e0 c5 3c
       0.061606128 0.025994055 0.03512881 0.024155105
000230 8c 1f 84 3d 81 33 5f bd 14 f4 19 bd 37 39 c9 3d
       0.064513296 -0.054492477 -0.037586287 0.09825366
000240 6c 00 24 3d e9 a6 ca 3c 47 21 b6 bc 87 ea 8f bd
       0.040039465 0.024737792 -0.022232665 -0.070271544
000250 04 6e a4 bd 0d 49 55 bd 7f a4 56 bd 54 6b 66 bd
       -0.08028796 -0.05207162 -0.05240297 -0.0562547
000260 d0 ab 34 bb 85 35 e6 3c ec d8 de 3d 42 3b b8 3d
       -0.0027568229 0.028101692 0.10881218 0.089956775
000270 42 15 81 bd 33 68 e1 3c 7a 7e a4 3b 84 41 82 bd
       -0.06302883 0.027515506 0.00501996 -0.06360152
000280 64 dd c3 bc 80 82 18 3c 6e fe 1e 3c 86 03 03 3d
       -0.023909278 0.009308457 0.009704215 0.031985782
000290 e8 0b f5 3d 42 68 2e bd 6a a8 be bd 44 3a 24 bd
       0.119651616 -0.042579897 -0.09309466 -0.04009463
0002a0 8d 10 5a 3d 9d 74 43 3d 2a 53 45 bd 62 de a8 b8
       0.05323844 0.047718633 -0.048175015 -8.052286e-05
0002b0 63 6c 3e bc f8 f4 77 3d 69 c5 a8 3c 11 3c d5 bd
       -0.011622521 0.060536355 0.020601945 -0.104118474
0002c0 6e 1c 0c bd 97 97 91 3c 41 e7 be 3b 6f 42 cc bd
       -0.0342068 0.017772479 0.0058259075 -0.09973609
0002d0 b4 58 46 3c 5d a2 f7 3c a8 e8 1a 3d cf 1e 29 3c
       0.012106109 0.030228788 0.037819535 0.010322287
0002e0 cc 70 ba 3b e9 88 fe bc b9 02 64 3d 9f cb 8f 3d
       0.005689716 -0.031071143 0.05566666 0.070212595
0002f0 5c 86 a2 bd 23 06 ca 3d bb 0c 37 3d fd 10 2a 3d
       -0.07935783 0.09864452 0.044689875 0.041520108
000300 32 30 da 3d fc 0e da 3d 40 f2 c6 3d da a7 92 3c
       0.10653724 0.10647389 0.09714174 0.017902303
000310 08 68 7c bc 0c 93 91 bb e6 a3 16 3d 36 84 4e bc
       -0.015405662 -0.004442578 0.0367774 -0.012604764
000320 b8 2a cd 3b ae b4 22 3d 93 ed 99 3d ba 0c a0 3d
       0.006261196 0.03972309 0.07516017 0.078149274
000330 1b 04 fc 3b 10 8c 03 bc 87 59 c5 bc 30 cf 52 bd
       0.007690919 -0.008028999 -0.024090542 -0.05146712
000340 80 47 0c bd 19 b2 4c bd f1 ae 2b bd 75 3b 91 bd
       -0.034247875 -0.049974535 -0.041914884 -0.07091419
000350 9d c6 88 bd eb 61 40 bd 74 00 17 bd fa e5 91 bd
       -0.066785075 -0.04696838 -0.036865667 -0.07123943
000360 0f 30 36 bd 10 92 7c bd f0 a7 e0 bb 32 08 9c bc
       -0.044479426 -0.061662734 -0.006855957 -0.019046877
000370 48 23 12 3d 38 15 a2 3d 41 68 56 3d 36 fd 0c bd
       0.035678178 0.079142034 0.052345518 -0.03442117
000380 ac a4 19 bc b7 03 36 bc 84 06 95 bb 65 8a 7e bc
       -0.00937764 -0.011109284 -0.004547896 -0.0155359255
000390 02 fc ac 3a e7 ac 07 bc 0e f5 41 bc c6 29 14 3e
       0.0013197663 -0.008280969 -0.011838211 0.1446906
0003a0 96 ee 22 bc 17 68 1e bd 1e d9 80 bc a1 2c 06 bd
       -0.009944579 -0.038673487 -0.01572853 -0.032757405
0003b0 29 98 5f bd e4 ac bf 3d 2d 51 69 3d d9 60 f3 3c
       -0.05458847 0.09359148 0.05696218 0.029709266
0003c0 ea f0 18 3e 18 98 ad bc b2 8d d3 bc 87 8f f9 3d
       0.14935651 -0.021190688 -0.025824402 0.12185579
0003d0 e3 b9 5f bc bb 60 10 3d e3 f5 b9 3a c4 be 87 3d
       -0.013655159 0.0352485 0.001418766 0.066281825
0003e0 56 d4 2e 3d f8 5c b2 bd cb 33 c9 3c 6f b9 c4 3c
       0.042682968 -0.08709139 0.02456083 0.024014203
0003f0 11 69 3c 3d 76 9f 5c bd c1 17 77 bd 78 d0 65 bc
       0.045998637 -0.05386301 -0.060325388 -0.014026754

head.conv.bias f4 [64]
000000 58 ed 14 3d 5a 7e c1 3d f3 61 36 be 57 aa aa 3d
       0.03635916 0.09447928 -0.17810802 0.08333271
000010 93 a5 9c bd 57 19 3f 3d ed 69 26 3d c0 27 33 bd
       -0.07648768 0.046655025 0.040628362 -0.04373908
000020 d3 25 af bc 98 55 35 3e f3 9e 07 3e dc d3 87 bd
       -0.02138034 0.17708433 0.13244228 -0.06632206
000030 e1 2e 28 bc 70 a2 db 3d 96 a4 0d be b5 a8 9e 3d
       -0.010265083 0.10724342 -0.13832316 0.07747022
000040 48 a3 e3 bd a3 7d 71 3b ff 9e 04 be 15 c4 bd bd
       -0.11115128 0.0036848567 -0.12951277 -0.09265915
000050 e6 ef 29 3e db ca ee bc 27 36 15 3d 0f 0a e9 bd
       0.1659542 -0.029149463 0.036428597 -0.11378872
000060 85 e5 c0 bd 0a 12 ea bd d3 32 30 3e 35 a7 a7 39
       -0.094187774 -0.11429222 0.17206888 0.000319773
000070 14 c4 0a bd fd ae 9f bd ac 56 2a bd 4f 16 0c 3e
       -0.0338784 -0.07797048 -0.041586563 0.13680385
000080 8f cf 24 be 25 7e 8d 3d 89 fe ac 3d ff 6f 2d bd
       -0.16094802 0.06908826 0.08446986 -0.042343136
000090 63 58 f0 bb 29 66 52 3c b3 29 4b 3d c7 df 05 be
       -0.0073347553 0.01284174 0.049600314 -0.13073646
0000a0 89 6a ad bd a1 e2 3a 3e a2 b7 f6 3d 9b de a5 3d
       -0.084675856 0.18250515 0.12046744 0.08099099
0000b0 d1 f2 ce bc cf ad 87 3d 8f b8 e5 3d 6f f2 09 be
       -0.025262268 0.06624948 0.112168424 -0.13471387
0000c0 75 6b ab bc ce 2c 33 3c e1 5b 13 bd 6f 86 1a be
       -0.020925263 0.010935975 -0.035976294 -0.15090345
0000d0 92 81 c6 3d fb 77 fe 3b d4 e4 2c 3e 2c 51 24 bd
       0.09692682 0.0077657676 0.16884166 -0.040116474
0000e0 b2 f4 14 bc 10 4c 28 3e 34 fa ce 3b 4a 81 15 be
       -0.009091543 0.16435266 0.0063164476 -0.14600101
0000f0 5f de 8c bd 0b b1 24 be ef de 4f 3d 74 ea cf 3d
       -0.068783514 -0.16083162 0.050749715 0.1015214

head.norm.weight f4 [64]
000000 85 95 34 3f 17 71 5f 3f a7 20 90 3f fd c4 9c 3f
       0.7054065 0.87281936 1.1259965 1.2247616
000010 0e 1f 76 3f d0 24 81 3f 01 05 a2 3f dd 6d 63 3f
       0.96141136 1.0089359 1.2657777 0.88839513
000020 3d bd 86 3f 04 97 8d 3f a8 06 8e 3f 62 28 68 3f
       1.0526501 1.1061711 1.1095781 0.9068662
000030 e1 91 64 3f 92 65 81 3f 28 c0 80 3f 72 45 50 3f
       0.89285094 1.0109122 1.0058641 0.81355965
000040 16 46 80 3f 5c 08 67 3f f7 68 80 3f d2 f8 5c 3f
       1.0021389 0.9024713 1.0032033 0.8631717
000050 ba ca 87 3f 8d ca 35 3f 15 58 73 3f 08 1e 82 3f
       1.0608742 0.7101219 0.9505628 1.0165415
000060 81 02 7d 3f 35 a8 85 3f 88 14 61 3f e8 81 71 3f
       0.98831946 1.0441958 0.87921953 0.94338846
000070 7c e7 44 3f 77 0a 76 3f 8a b5 69 3f de 20 7e 3f
       0.7691572 0.9610972 0.9129263 0.992689
000080 db e9 77 3f b5 67 af 3f 11 37 76 3f d3 93 67 3f
       0.9684121 1.3703524 0.96177775 0.90459937
000090 c8 da 51 3f ea 61 a6 3f da 34 59 3f 7d b7 5a 3f
       0.8197446 1.2998631 0.8484627 0.8543623
0000a0 b5 cf 44 3f 1d 8c 83 3f ed b5 68 3f d7 86 70 3f
       0.76879436 1.0277134 0.90902597 0.9395575
0000b0 5e 8a 4e 3f 7b 5d 83 3f 44 ad 61 3f dc 7f 7f 3f
       0.8067988 1.0262903 0.8815501 0.9980447
0000c0 f5 76 95 3f ca 9a 97 3f 46 e0 80 3f a5 4f 86 3f
       1.1676928 1.1844113 1.0068443 1.0493056
0000d0 56 44 79 3f a6 df 89 3f b7 d0 89 3f 87 a2 59 3f
       0.973699 1.0771377 1.076682 0.8501362
0000e0 7f ce 66 3f ff 93 5b 3f 5c fc 60 3f bc d2 7d 3f
       0.9015884 0.857727 0.8788507 0.9914968
0000f0 84 66 89 3f 45 8e 9c 3f 65 f2 53 3f 01 2f 93 3f
       1.073441 1.2230917 0.8279174 1.149872

head.norm.bias f4 [64]
000000 23 b5 a7 be 10 87 74 be 18 16 bd 3a 6c c3 ea bc
       -0.32755384 -0.23879647 0.001442614 -0.028657638
000010 4b b3 47 be 80 3f 49 bd ec f6 4a be a6 b1 59 be
       -0.19501989 -0.049132824 -0.19820756 -0.21259174
000020 81 b1 12 be 1e 56 6e be 6e b3 fa bd 6a 77 84 be
       -0.14325525 -0.23275039 -0.12241255 -0.25872356
000030 10 5e a7 be 45 74 60 bd 3a c0 ef 3c 4c 38 b9 be
       -0.32688951 -0.054798383 0.029266465 -0.36175764
000040 22 98 8b bd 9c 02 a2 be 57 15 8b be 48 55 42 be
       -0.068161264 -0.31642616 -0.27164719 -0.18977845
000050 7d 38 99 3c e7 39 bc be 03 7d 14 be 6a 20 bf bd
       0.018703694 -0.36762926 -0.14500813 -0.09332354
000060 ad 2c 09 be 8c df 4d be f4 a7 91 be 98 a6 fa bd
       -0.13395949 -0.20104808 -0.2844845 -0.122388065
000070 85 5c 90 be 30 a1 e4 bd 08 5d 35 bd ea c1 3f be
       -0.28195587 -0.111635566 -0.044278175 -0.18726316
000080 bf 5c f9 bd c4 0c c2 3d cf d2 8a be fc a6 85 be
       -0.12175893 0.09475091 -0.2711396 -0.2610396
000090 69 68 e1 bd 12 16 38 3e 18 27 78 be 7e ad 80 be
       -0.11006243 0.17977169 -0.24233663 -0.25132364
0000a0 b5 51 70 be c5 8f 01 be b5 cd 5e be 76 1c 4c be
       -0.23468669 -0.126525 -0.21758159 -0.19932732
0000b0 e6 87 5a be a1 1e 8e bc 5d f5 29 be a4 f6 a2 bd
       -0.21340904 -0.01734859 -0.16597505 -0.07957199
0000c0 0d 49 47 bc 3c d9 a5 be 02 6e 09 bb f8 c9 48 be
       -0.012163413 -0.323923 -0.002097011 -0.19608295
0000d0 46 83 4e be 3e 69 ea bd 22 23 9a bd ed 1b a5 be
       -0.20167264 -0.114458546 -0.07526232 -0.32247868
0000e0 70 f0 3b be bc 7d 82 be f4 10 a4 be 67 39 85 bd
       -0.18353438 -0.25486553 -0.32044184 -0.06505089
0000f0 bf 25 00 be 11 49 a0 bd 06 5a 48 be 19 df 63 3d
       -0.12514399 -0.07826436 -0.19565591 0.055632684

head.norm.running_mean f4 [64]
000000 3d fe cf 3d b9 10 4a be d6 4e 99 bd a4 e4 0b 3e
       0.10155914 -0.19732942 -0.0748574 0.13661438
000010 69 8a 71 3e 05 59 9a 3d fd 92 2e 3b 04 13 d6 3e
       0.23587956 0.075365104 0.0026637905 0.41811383
000020 66 42 9a bd 9f 87 9c 3e 55 23 b9 3d bc 7d 8a bb
       -0.07532196 0.3057222 0.09039942 -0.0042264145
000030 1c 6b 4a 3e 22 11 2e 3d b2 1d 74 bd c4 7a e4 3e
       0.19767421 0.042496808 -0.059598632 0.44624913
000040 bb c5 cc bd 46 72 d1 be 50 c2 98 bd f8 2f 07 3e
       -0.099986516 -0.40907496 -0.07458937 0.13201892
000050 9a 00 3e 3e 0b 0d 52 be 4e 4b e2 bd a4 b4 22 3d
       0.18554917 -0.20512788 -0.110495195 0.039723054
000060 e7 e8 c9 bb ac 92 61 be 48 7b b1 3e 8c 8f 81 bd
       -0.0061617973 -0.22028607 0.3466437 -0.063262075
000070 e8 ed c3 3d 92 b8 c9 3d 50 d3 35 3e 7a 6f a6 bd
       0.095668614 0.09849657 0.1775639 -0.08126731
000080 f1 54 00 be 24 38 a3 3d bb 5b 43 bb e1 80 65 bd
       -0.12532403 0.07969692 -0.0029809314 -0.05603111
000090 fc 64 2b 3e 70 db c4 3d f7 f2 47 3e d3 ee 09 3e
       0.16737741 0.09612167 0.19526277 0.1347001
0000a0 c0 30 87 3d 0f a8 4e 3e 83 a3 03 3f c9 cb a5 3e
       0.06601095 0.20181297 0.51421374 0.32382038
0000b0 31 fc 14 3d 1b 4d c2 3e 43 03 b7 3e 5e 00 cb 3d
       0.03637332 0.37949452 0.35744676 0.099121794
0000c0 bb df ae 3d 22 12 0f b9 f0 ba fb bc fe 94 19 bd
       0.08538767 -0.00013644298 -0.030728787 -0.037495606
0000d0 2d fa c8 bd 6d 5c c4 3d 1f b5 38 3e 7a 67 86 3e
       -0.09813342 0.09587941 0.18037842 0.2625082
0000e0 73 8e 8d 3d dd a7 d4 3d 52 86 e2 3e d5 d8 0c be
       0.06911936 0.1038358 0.44243103 -0.1375459
0000f0 2e 6b e4 3c 45 e7 e5 bd 6f 33 ee 3c 29 33 89 3e
       0.027883139 -0.11225752 0.02907726 0.26796845

head.norm.running_var f4 [64]
000000 da c4 3a 3c ee 27 d5 3c b3 c7 dd 3b c1 56 a3 3b
       0.011399472 0.026020017 0.006768191 0.004984707
000010 db b5 8f 3c 27 bb 56 3b da 95 1f 3b 70 8d ad 3d
       0.01754277 0.003276536 0.0024350793 0.08474243
000020 fb 2b a2 3b 48 2d 4d 3c ad 96 d6 3a 1d 7e 95 3c
       0.0049490905 0.012523003 0.0016371809 0.018248612
000030 f9 c1 6c 3d b9 54 8e 3c 74 05 fb 3b 2e 8c aa 3d
       0.057802174 0.017374383 0.007660562 0.083275184
000040 5a ec d4 3a 07 27 52 3d 76 f4 8e 3c 2b 7b 06 3d
       0.0016244755 0.05130675 0.017450552 0.032832306
000050 22 7b 8b 3b 38 5f 42 3d d8 03 2e 3c 0f 00 b4 3c
       0.004256622 0.04745409 0.010621034 0.021972684
000060 f4 ca 86 3b d6 a2 1d 3c 66 75 91 3c d5 5f 9e 3c
       0.0041135494 0.009621343 0.017756175 0.019332806
000070 81 ef bf 3c 9a 18 89 3c 70 ad 8d 3c a8 48 47 3c
       0.023429634 0.016735364 0.017294616 0.012163319
000080 41 a5 18 3c 79 d1 0f 3b 27 6a 25 3b 09 97 00 3c
       0.009316743 0.0021944924 0.0025240274 0.00784851
000090 3c 75 01 3d 13 5b 30 3b de 9e 39 3c 61 77 e6 3d
       0.031605944 0.0026909753 0.011329381 0.112532385
0000a0 76 aa cc 3b 69 3d 3d 3b f2 35 27 3d 39 24 90 3c
       0.0062459065 0.0028875715 0.04082293 0.017595397
0000b0 22 56 85 3c 92 dd a0 3c 04 6a bf 3c 84 d7 3a 3c
       0.016276423 0.019636903 0.023365982 0.011403922
0000c0 28 dc b4 3b bb 4b dc 3b b7 ef 2d 3b d4 48 53 3c
       0.0055194087 0.006722895 0.0026540586 0.012895782
0000d0 57 d1 04 3d ff a4 a5 3b 41 de e3 3a cd 12 a9 3d
       0.032426205 0.0050550695 0.0017384962 0.08255539
0000e0 e0 91 c3 3b 6b 78 95 3c 2e 8e 05 3e 3f 04 7f 3b
       0.0059683174 0.018245896 0.13042518 0.0038912443
0000f0 c4 ca 33 3c 9e 53 cd 3a e9 9f 75 3c 89 8f bd 3b
       0.010973636 0.0015665179 0.014991739 0.005784933

body.block1.conv.weight f4 [64, 64, 3, 3]
000000 48 69 c3 3c da ce a2 3d 91 64 1e 3d 50 01 22 3c
       0.023853913 0.0794961 0.038670126 0.009888008
000010 cc b8 b8 3d 4c 57 61 3d 5d 8c 89 bd 11 cd 20 3d
       0.09019622 0.055014893 -0.06716225 0.039258067
000020 de 9e 47 bd 67 87 3a 3d f6 ce 7b 3d 2f 43 ba 3c
       -0.048735492 0.045539286 0.06147667 0.022737114
000030 1b 80 10 3d 7e 59 a5 3c dd 49 5f 3c 98 49 e3 bb
       0.03527842 0.020184275 0.01362845 -0.0069362633
000040 02 02 01 bd 52 3a 0d bc ba 73 b0 bc cf 58 d5 3c
       -0.031496055 -0.008619862 -0.021539558 0.026043324
000050 16 09 7e 3c d4 e5 be 3d 6f e7 03 3d 29 56 b3 bc
       0.015505096 0.0932118 0.032203134 -0.02189167
000060 8b cc 2e bc 76 f0 f6 3c ed f0 0d 3c 59 89 c1 bc
       -0.010668884 0.030143958 0.008663398 -0.023625063
000070 ab 84 82 3d 52 28 32 3d dc 79 00 be d0 52 02 3e
       0.06372961 0.043495484 -0.12546486 0.12726903
000080 43 22 f2 3d ff 04 89 bd 70 c0 e4 bc 1d bc 02 3c
       0.11822941 -0.06690406 -0.027923793 0.00797942
000090 65 9c d2 3b 04 a7 64 bc 7f 31 4c 3a f5 cb 30 3d
       0.006427335 -0.013955835 0.0007789358 0.04316326
0000a0 28 67 d7 bc c3 07 80 3d 85 e2 33 3d ee c7 1c 3d
       -0.026294306 0.062514804 0.043917198 0.038276605
0000b0 cd b8 78 3c 6b da c7 ba 39 a9 ff 3b 25 de 7b bc
       0.015180779 -0.0015247589 0.0078021553 -0.015372788
0000c0 c1 f6 50 bd 41 b0 86 ba 22 a2 8c 3c 82 5f 9a 3b
       -0.051016573 -0.0010275916 0.017167155 0.0047110924
0000d0 e0 4f 02 3d 83 87 7a 3c 85 40 ec 3d 4d 10 4b 3c
       0.031814456 0.015291098 0.115357436 0.012394023
0000e0 de 7a 16 bd 33 fb 8a 3d bd 7c d1 3d a9 c6 fa 3d
       -0.03673827 0.06786194 0.1022887 0.12244923
0000f0 51 e1 8a bd 8f 63 12 bd 8d c7 2f bd 64 fa 19 3d
       -0.06781257 -0.035739478 -0.042914916 0.037592307
000100 65 f0 b4 3d d5 28 d1 3d 42 57 c4 3c 87 c9 59 bb
       0.08834914 0.10212866 0.023967389 -0.0033231692
000110 1e bf e7 bc 1e 87 ad 3c 53 a4 14 3d 51 e2 8c 3d
       -0.028289374 0.021182593 0.036289524 0.06879104
000120 35 88 27 3d bd 7a e2 bc 1c 75 45 3a e8 92 04 3c
       0.04090138 -0.027646417 0.0007532404 0.008091666
000130 35 6b 4e bc 9c 8f c9 bb 8e fa 3b 3b dc eb 74 bc
       -0.012598802 -0.006151153 0.0028683278 -0.014948811
000140 1c c6 84 3c 4c a8 7b bd 15 7a 5d 3d 7f 0d c4 3d
       0.016207747 -0.061439797 0.054071505 0.09572887
000150 05 eb 2b be 56 70 bc bc 82 10 8d bc e3 48 ba 3d
       -0.16788872 -0.023002785 -0.017219786 0.09095933
000160 f4 d3 dc bd 20 37 78 3d ff 18 e8 bd 08 96 41 bb
       -0.10782614 0.060599446 -0.113328926 -0.0029538888
000170 5e f5 7e 3d 2d 25 85 3c a1 bb 43 bc ce a0 6b 3d
       0.06224572 0.016253078 -0.01194659 0.057526402
000180 cf bc 0c 3c 67 f7 39 bd 24 5b 07 3d e8 8c 83 bd
       0.008589937 -0.045401957 0.033045903 -0.0642336
000190 ef 68 19 3e 8e 20 33 bd be 4d cb 3b 47 20 34 3d
       0.14981435 -0.04373222 0.006204336 0.043976095
0001a0 14 bb a5 bb 61 07 bb bc b5 d6 65 3d df 39 48 3d
       -0.005057702 -0.022830667 0.056112964 0.048883315
0001b0 be 14 02 bd 53 5a a4 ba 60 37 43 bc 1f 66 0f 3c
       -0.031758063 -0.0012539126 -0.011915058 0.008752375
0001c0 5d a2 60 3d b5 3d bb 3d 88 5b e6 bd c1 33 46 3b
       0.05484234 0.09142629 -0.11247927 0.003024325
0001d0 2a 19 02 bc c9 63 0e bd 56 ea 90 bc c1 91 e9 3c
       -0.00794057 -0.03476313 -0.017689865 0.028511884
0001e0 a2 25 cf bd 18 de c4 bd f7 4a a1 bd 5d 24 d8 3c
       -0.101146 -0.096126735 -0.078756265 0.026384527
0001f0 4b 0e 87 3d 05 8a dd 3c d2 0f c8 3d 50 af 3d 3d
       0.06594523 0.027043352 0.097686425 0.04630977
000200 1e 49 4d 3d 0a 79 f0 3d da f6 ef 3d ff 16 02 3e
       0.050118558 0.11741836 0.11717005 0.12704085
000210 1c 33 4e 3b 74 cc 55 bd 74 61 51 bd be 60 fa bb
       0.003146357 -0.052196935 -0.05111833 -0.007640927
000220 b5 a7 b7 3d 00 de 50 bd 7d 57 c7 bb 89 b0 ab bc
       0.089675345 -0.050992966 -0.0060834275 -0.020958202
000230 02 f3 10 bd 82 a6 57 bd b9 87 28 bc e3 70 5f 3d
       -0.035388 -0.05264903 -0.010286265 0.054551017
000240 b1 ab 2a bd 08 50 b8 3d 99 c6 2b bd 98 de e1 3d
       -0.041667644 0.0899964 -0.041937444 0.110287845
000250 00 6a 48 bd b7 7a 2a 3d 98 76 cf 3d cb 7e 60 3c
       -0.048929214 0.041620936 0.10130042 0.013702105
000260 be ff b0 bd 80 94 23 bd e3 2b 79 3d c2 8a 1c 3d
       -0.08642529 -0.039936543 0.06083287 0.038218267
000270 f6 79 59 3d 7d 57 ac 3c 99 ef 85 3c 61 24 9b 3c
       0.053094827 0.021037811 0.0163496 0.018938245
000280 4c cb 28 3d 53 a7 db bc 71 fd ed bd 76 5a 8a 3d
       0.041209504 -0.026813185 -0.11620606 0.06755535
000290 05 20 67 bd 44 3e 0a be a4 81 b9 3d fd 30 a1 bb
       -0.05642702 -0.13500315 0.0905793 -0.00491917
0002a0 09 cb 25 be 77 e8 4c bd b0 54 a5 bd bd e4 4e 3d
       -0.16190733 -0.050026383 -0.080727935 0.05051111
0002b0 92 c6 b7 bb 92 ea fa 3c da 23 88 bd 3f f8 92 3d
       -0.005608388 0.03062943 -0.06647463 0.071762554
0002c0 f1 93 ca 3d 1d 20 ea 3a 7d 45 f0 3d a3 2b 26 3d
       0.09891499 0.0017862354 0.11732004 0.04056896
0002d0 e7 db dd 3d 0a 4c 1d 3d eb b5 ee 3d dd e6 9e 3d
       0.10832959 0.038402595 0.11655792 0.077588774
0002e0 fb 67 1b bc f1 07 21 bd a0 e0 3a bc 36 95 8d bc
       -0.00948524 -0.039314214 -0.011406094 -0.017283063
0002f0 46 6a 2d 3d 4c 02 1b 3c cc 65 3f 3d 64 99 3f 3d
       0.04233768 0.009460997 0.04672794 0.046777144
000300 e7 22 87 bd b7 c3 38 3c 15 e6 6a 3c e0 7e e7 bc
       -0.06598454 0.011277131 0.014337082 -0.02825874
000310 dc b9 09 bd 72 36 c0 3b ce 00 59 bd d8 e4 d7 3c
       -0.033624515 0.0058658654 -0.052979283 0.026354238
000320 db ad 32 3d 57 e5 ad bc cf d4 ee 3b 02 d3 2d 3d
       0.043622833 -0.021227522 0.0072885524 0.04243756
000330 dc 0f d5 bd 4f 76 5c bc a1 55 b4 3d d5 ff 52 bc
       -0.104034156 -0.013455941 0.08805395 -0.012878378
000340 84 b5 8a 3c a3 76 92 bc 4d c0 ce bd cb 67 9d 3b
       0.016932257 -0.017878836 -0.10095272 0.004803633
000350 ac 22 d0 ba 7d 0f 02 bd 36 ba 97 bd 97 16 6f 3c
       -0.0015879474 -0.031753052 -0.07408564 0.014592788
000360 33 9f b5 3c dc b9 6d bd c2 ec ec bc 8f c2 da bd
       0.022170639 -0.058038577 -0.028921489 -0.1068164
000370 43 42 a7 ba 51 2f 56 3c 46 4d 44 be 94 67 4b bd
       -0.0012760836 0.013072805 -0.19170102 -0.049659327
000380 fd cd 64 3d e4 b6 0e 3d ee 6a 6b 3d 4f d2 97 bc
       0.05586051 0.034842387 0.057475023 -0.0185329
000390 6b e0 a1 bd 7d 7b d3 3c ab c3 84 3c d0 8a f4 bd
       -0.079041325 0.02581572 0.016206583 -0.11940539
0003a0 72 77 a1 bd bc 2a 63 3c 2a 5c 8a bd 40 3d 42 bb
       -0.078841105 0.013865169 -0.0675586 -0.0029638559
0003b0 c8 00 69 bd 49 4a 1c bd 58 75 7e bd f1 6a de 3d
       -0.05688551 -0.03815678 -0.062123626 0.10860241
0003c0 17 b4 83 bd 58 56 30 bd 4c 63 a1 bc fd 07 4b bc
       -0.06430834 -0.043051094 -0.019700669 -0.012392041
0003d0 26 dd 2b bc 98 c9 8c bd 88 10 3f bd 18 9f 43 3d
       -0.010489738 -0.068743885 -0.046646625 0.047759145
0003e0 f0 3f 90 bc bb 14 63 bd 5f 55 14 bc aa c6 9c bc
       -0.017608613 -0.055439692 -0.009053557 -0.0191377
0003f0 c5 af 96 bc 26 e2 ca 3c 8d 06 84 3d de 82 92 bd
       -0.01839436 0.02476604 0.06446562 -0.07153867

body.block1.conv.bias f4 [64]
000000 9a 52 e7 ba 8a e2 2e bc 25 70 2c 3d 0d 5b f3 bb
       -0.0017648519 -0.010674128 0.042099137 -0.0074266256
000010 77 83 44 3c 54 69 3d 3c 6e 9b 5c 3c af d5 d4 3c
       0.011994234 0.011560757 0.013464792 0.025980799
000020 87 54 0a 3d 4d e5 cd bc 02 5a a8 3c a6 f3 1e bc
       0.033772018 -0.025133753 0.020550732 -0.009701645
000030 92 b5 03 bc 69 fa d2 bc 9a 22 d9 bc 23 ae 88 3c
       -0.008038895 -0.02575417 -0.026505757 0.016684597
000040 54 17 ba 3b 64 9d 0a bd 51 0e 91 3c 4d b1 bc bb
       0.0056790505 -0.033841506 0.017707022 -0.0057584406
000050 45 0e 04 bc 6c 67 9a 3b 5e f5 4d 3c 09 f2 2c 3c
       -0.008060043 0.004712036 0.012570707 0.010555753
000060 f6 2c 8e bb 52 c6 c1 3b 7b 9a 04 bc 91 f7 05 3d
       -0.004338856 0.005913534 -0.008093472 0.0327068
000070 10 27 8c 3b 5e 12 0b 3d b8 31 c6 3c 0b e5 b2 3c
       0.0042771176 0.033953063 0.02419363 0.021837732
000080 3a 23 1c bd c4 ad 20 bd 9c 6a 09 3d 0a c5 91 3c
       -0.038119532 -0.039228216 0.033548936 0.01779415
000090 30 7a c3 bc 2b b3 09 bc 46 87 ed bc 62 ba 99 3c
       -0.023861974 -0.008404533 -0.028995167 0.018765632
0000a0 6b 6d ad 3b b2 69 2b bd b8 31 02 bd 2f e7 d1 bb
       0.0052925847 -0.041848846 -0.031785697 -0.006405733
0000b0 88 f4 4a 3c ba 8f 1d bd c2 db 65 3c 63 76 55 bc
       0.012387402 -0.038467146 0.014029445 -0.013028714
0000c0 3d b9 84 bc ac 57 be b9 65 a8 ab 3c 62 36 1a 3d
       -0.01620161 -0.00036304945 0.02095432 0.03764952
0000d0 10 01 58 3b 36 94 1c 3c 40 54 02 3b 2c ab 1f 3b
       0.0032959618 0.009556821 0.0019886643 0.00243635
0000e0 e7 f2 09 bc cc 96 1d 3d a3 9e a6 3c 7f e1 9b bb
       -0.008419729 0.03847389 0.020339316 -0.004757106
0000f0 de 0b 8c 3b 63 51 fa bc 7d 8d a4 3c 83 e4 7b 3c
       0.0042738756 -0.030556386 0.020086998 0.015374306

body.block1.norm.weight f4 [64]
000000 4c c9 98 3f cc d6 87 3f 2e 1c 83 3f f0 3c 6d 3f
       1.1936431 1.0612426 1.0242975 0.9267111
000010 a0 06 6f 3f 99 0d 81 3f a4 47 84 3f 5e bd 73 3f
       0.93369484 1.0082275 1.0334363 0.95210826
000020 26 99 99 3f 8b 70 86 3f bc a8 4b 3f ab 4a 72 3f
       1.1999862 1.0503095 0.79554343 0.94645184
000030 2d 61 64 3f b3 2a 7d 3f b6 01 65 3f 49 3b 70 3f
       0.8921078 0.9889328 0.89455736 0.9384046
000040 49 38 80 3f d7 7d 8e 3f 29 c7 8c 3f 4f 61 64 3f
       1.0017177 1.1132153 1.0998279 0.8921098
000050 d0 d5 78 3f 8e 6d 91 3f e5 4c 8f 3f 39 48 95 3f
       0.9720125 1.1361558 1.1195341 1.1662666
000060 22 c4 8f 3f e1 93 69 3f 26 ba 7f 3f 71 b3 6c 3f
       1.123173 0.9124127 0.99893415 0.92461306
000070 0f c9 60 3f b1 45 5a 3f 3d d7 86 3f d4 01 92 3f
       0.8780679 0.8526259 1.0534436 1.1406808
000080 73 00 8d 3f 93 21 81 3f 4e 9d 67 3f 53 31 88 3f
       1.1015762 1.0088371 0.904744 1.0640053
000090 d5 f9 88 3f 57 0d 89 3f 26 80 73 3f d4 b0 84 3f
       1.0701243 1.0707196 0.95117414 1.0366464
0000a0 94 f0 76 3f 38 18 7f 3f 33 e0 88 3f b4 15 52 3f
       0.96460843 0.9964633 1.069342 0.82064366
0000b0 5f a7 74 3f d0 9d 83 3f 6c 08 84 3f 69 f3 5a 3f
       0.9556789 1.0282536 1.031507 0.85527664
0000c0 b1 10 73 3f 19 7b 90 3f 37 89 88 3f 11 82 4b 3f
       0.94947344 1.1287566 1.0666875 0.7949534
0000d0 ef 16 66 3f bb 73 72 3f ae 62 62 3f 14 7d 72 3f
       0.89878744 0.9470784 0.88431823 0.94722104
0000e0 5e b3 82 3f b1 a5 88 3f a8 89 7f 3f bc 85 68 3f
       1.0210989 1.0675565 0.9981942 0.9082906
0000f0 58 58 6b 3f 32 76 81 3f 21 2e 79 3f 51 4d 91 3f
       0.91931677 1.0114195 0.9733601 1.135172

body.block1.norm.bias f4 [64]
000000 87 97 50 be fb 1d 6b be 5e cd b9 bd b4 1d 1d be
       -0.20370303 -0.22960655 -0.09072374 -0.15343362
000010 bf 56 72 be 66 fa 00 be b1 68 84 bd c2 17 80 be
       -0.23665904 -0.1259552 -0.06465281 -0.25018126
000020 f5 66 c3 bd 9b e8 28 bd f1 a1 47 be ef 6d 42 be
       -0.09541122 -0.041237455 -0.1949537 -0.18987249
000030 5c 7b 33 be a3 bf ff bd 91 85 ab bd 56 2d 2b be
       -0.17527527 -0.12487724 -0.08375085 -0.16716513
000040 ea da 40 be 2a e1 8e bc b2 71 52 bd 3b 27 d9 bd
       -0.18833509 -0.017441351 -0.05137796 -0.10603186
000050 9e 0b 73 bd d4 1d da bd b9 be d7 3b ad 15 9f be
       -0.05933725 -0.106502205 0.006584015 -0.31071225
000060 92 d3 d9 bd b3 b0 87 be 6b 87 2a be 55 c1 78 be
       -0.10636057 -0.26501998 -0.1665322 -0.242925
000070 6a 80 84 be fe 7d 8e be 3e f7 1d be 37 d7 7b bd
       -0.25879222 -0.278305 -0.15426347 -0.06148454
000080 08 01 ac bd 59 ba eb bd 4a 46 f4 bd 39 98 e3 bd
       -0.08398634 -0.11510152 -0.11927469 -0.111130185
000090 02 00 36 bd 95 d3 f6 bd e8 69 0c be 72 fa 4e be
       -0.0444336 -0.12052075 -0.13712275 -0.20212725
0000a0 ae a0 6f be 13 ed 7e be 27 93 4e 3c 5c 43 32 be
       -0.23401138 -0.24895124 0.012608326 -0.17408508
0000b0 c1 27 ed bd a9 c9 30 be 1f 49 12 be 28 64 8e be
       -0.11579848 -0.17264427 -0.14285706 -0.27810788
0000c0 21 a5 4c be 38 9c 06 be 1a 13 a8 bd 5c 92 96 be
       -0.19984867 -0.1314553 -0.08206768 -0.29408538
0000d0 b0 26 41 be 33 15 fe bd 56 07 9f bd f4 1d 54 be
       -0.18862414 -0.12406387 -0.07765071 -0.20714551
0000e0 0e 54 20 be 96 b5 c9 bd da 93 14 be 73 35 5e be
       -0.15657064 -0.09849088 -0.14509526 -0.21700077
0000f0 e5 e1 97 bd f6 06 28 be a4 7c 2c be 52 23 ea bd
       -0.07416133 -0.16408905 -0.16844422 -0.11432518

body.block1.norm.running_mean f4 [64]
000000 6d 23 dc 3e 4a 48 00 3f ef 6a fe bf 70 af 95 be
       0.42995778 0.50110304 -1.9876384 -0.2923541
000010 ce f3 16 40 71 c2 60 3f db 60 8b bf 6b dc ce bf
       2.3586307 0.87796694 -1.0888933 -1.6161016
000020 9d 38 eb 3e 33 94 df bf 09 d1 27 c0 56 8f e9 3f
       0.4594163 -1.7467102 -2.6221335 1.8246868
000030 54 35 32 40 82 21 ee bf 26 d2 68 3f 16 9a 04 3e
       2.784505 -1.8603976 0.9094566 0.12949404
000040 af ce 39 3d 17 19 80 bf 22 3a 0d c0 02 f7 85 bf
       0.045363124 -1.0007657 -2.2066731 -1.0466006
000050 d5 7a 1a 3f 88 d4 ff 3e 29 49 17 c0 9c 65 8b be
       0.60343677 0.49966836 -2.3638403 -0.2722596
000060 04 ea 8c bf 67 5f 2e 40 92 f4 5d bf a2 87 1c 3e
       -1.1008916 2.724573 -0.8670131 0.15286115
000070 2e 82 df 3f 8a 88 41 40 69 fc b4 3e c9 33 04 3f
       1.7461603 3.0239587 0.35348824 0.5164152
000080 c4 f8 d0 be 4c 57 ea bf 0a b2 89 bf 72 7e a9 bf
       -0.40814793 -1.8307891 -1.0757458 -1.3241713
000090 81 fd 6a bd 17 82 0e c0 de 0f dd 3e 86 53 16 bf
       -0.057370666 -2.22669 0.43176168 -0.58721197
0000a0 d1 2e ac bf 5f fd a1 3f b2 05 a8 bf 95 be 73 3f
       -1.3451787 1.2655448 -1.3126738 0.9521268
0000b0 79 c4 bd be ff 91 9f bf 06 e0 3b bf 3f 37 3d 40
       -0.3706396 -1.246643 -0.7338871 2.956497
0000c0 1c 0e 28 40 25 65 91 bf 7b f8 2a bf 80 c6 ce bf
       2.6258612 -1.1358992 -0.667854 -1.6154327
0000d0 e0 46 ab bf b9 cc 68 bf 82 5f fd bf 24 df 4b 3f
       -1.3381004 -0.9093738 -1.9794772 0.7963736
0000e0 ed 50 5c 3f 33 31 82 bf db 11 dd bf 47 4d ee bf
       0.8606098 -1.0171264 -1.7271074 -1.8617333
0000f0 47 ba 9f bf 80 29 d2 bf 5e 97 33 3f 8b aa 4d bf
       -1.2478722 -1.6418915 0.70152843 -0.8033835

body.block1.norm.running_var f4 [64]
000000 33 9a db 3f ac 9a ba 40 d2 5f 49 40 e2 d5 2a 41
       1.7156433 5.831381 3.1464734 10.6772175
000010 17 4d f8 3f bb d9 fa 3f d3 7c 15 40 08 d0 53 40
       1.9398526 1.9597696 2.3357437 3.3095722
000020 e7 b8 b4 3f 70 52 02 40 f0 a0 70 40 76 ff 6c 40
       1.4118928 2.0362816 3.7598228 3.703092
000030 04 76 de 40 40 91 88 40 1c 7e bf 40 12 05 f5 3f
       6.951906 4.2677307 5.984144 1.9142172
000040 73 83 87 40 86 2c 1e 40 73 63 79 3f 9e 22 69 40
       4.234796 2.4714675 0.9741737 3.6427379
000050 74 c4 4d 40 6c 2b 3e 40 8c 38 94 40 67 ab 6b 3f
       3.2151155 2.9714003 4.6319027 0.92058414
000060 79 c1 87 3f 48 ef 4e 40 04 bc 15 40 19 b5 36 40
       1.0605918 3.2333546 2.3396006 2.8548033
000070 f4 fd a0 40 d4 00 db 40 0c d4 b8 3f 77 70 48 3f
       5.031 6.843851 1.4439712 0.7829661
000080 32 f3 38 40 18 2d 02 40 5d 22 f7 3f 58 7a ed 3f
       2.8898435 2.0340023 1.9307362 1.8552961
000090 58 89 8c 3f ac 9f b2 40 02 96 31 41 81 3c ac 3f
       1.0979414 5.581991 11.099123 1.3455964
0000a0 a4 f0 c5 3f 31 fc 35 40 ae 02 f1 3f 40 fd ae 40
       1.5464063 2.8435175 1.8828943 5.4684143
0000b0 93 d7 5d 40 88 39 8d 3f 46 39 ab 3f 94 b9 f2 3f
       3.4662826 1.1033182 1.3376853 1.8962884
0000c0 5c 75 37 40 3c 17 48 40 c2 29 dd 3f e5 b2 cf 3f
       2.866538 3.126418 1.7278368 1.6226469
0000d0 b3 09 2c 40 d0 ff 12 40 3d 7f d5 40 c9 ff 30 40
       2.688092 2.2968636 6.671782 2.765612
0000e0 a9 37 21 40 42 f6 4c 40 ae 36 14 40 b4 1c a9 40
       2.5190222 3.2025304 2.3158374 5.284754
0000f0 07 d4 ba 3f e2 ed 0a 40 9d 1e 60 40 c7 5c e1 3f
       1.4595956 2.1707692 3.5018685 1.7606438
