TrainedModels/SMB-1-2/scale_factor=0.750000,alpha=10/2/netG.pth (torch, 129419 bytes, 26 tensors)

head.conv.weight f4 [32, 3, 3, 3]
0	0xbc2828c2	-0.010263624
1	0xbcf78ec0	-0.030219436
2	0xbdbb5e9c	-0.09148905
3	0xbbe887fd	-0.007096289
4	0xbcf3ceb5	-0.029761652
5	0x3c891716	0.016734641
6	0xbbfd250e	-0.0077253645
7	0xbd0a299d	-0.03373109
8	0xbb8c599f	-0.0042831446
9	0x3daab75f	0.083357565
10	0x3d95985c	0.07304451
11	0xbd980029	-0.074219055
12	0x3da1d387	0.07901674
13	0x3c491d9d	0.012275127
14	0x3df98e59	0.12185354
15	0x3d6617a6	0.056174897
16	0x3b09a835	0.00210048
17	0x3d518b9a	0.051158525
18	0xbcbab792	-0.022792611
19	0xbcb25568	-0.02176924
20	0xbde5baa3	-0.11217239
21	0x3db87529	0.090067215
22	0x3d91026d	0.07080541
23	0x3de01010	0.10940564
24	0x3d4b1ad2	0.049586125
25	0xbc5c4ffa	-0.013446802
26	0x3d71fc75	0.059078652
27	0xbe237986	-0.15964326
28	0x3cf04707	0.029330743
29	0xbc55fd5a	-0.013060892
30	0x3d4fd3ed	0.050739218
31	0xbd00c41f	-0.031437036
32	0x3cd3ced6	0.025855463
33	0x3dfd4b1a	0.1236784
34	0x3daa3563	0.08310964
35	0x3d9de4bf	0.077096455
36	0xbd91fa18	-0.0712778
37	0x3d1e34d8	0.038624614
38	0xbd234ce2	-0.039868243
39	0xbae7f2ec	-0.0017696298
40	0xbd5b2ddc	-0.05351053
41	0xbbcf8364	-0.0063328017
42	0x3c54c904	0.012987379
43	0xbd083bec	-0.03326027
44	0xbca914e0	-0.020639837
45	0xbda6ae16	-0.08138673
46	0x3d22fcb6	0.039791785
47	0x3d0cb20d	0.03434949
48	0x3d2279d8	0.03966698
49	0xbb87211d	-0.0041238205
50	0xbcc238f7	-0.023708804
51	0x3d16c2f2	0.036807008
52	0xbca27170	-0.019829482
53	0x3cc7760f	0.024348287
54	0x3e372c5d	0.17888017
55	0xbd6fd6b9	-0.058554385
56	0xbae53394	-0.0017486685
57	0x3d6bdd60	0.057584167
58	0x3d14de4a	0.036344804
59	0xbba506ad	-0.005036196
60	0x3c25341a	0.010083223
61	0xbc667c15	-0.014067669
62	0x3bbdf61d	0.0057971613
63	0x3e8361b5	0.25660482
64	0xbcd1415c	-0.025543861
65	0x3cc6ee5e	0.024283584
66	0xbbffc534	-0.007805491
67	0xbcd0dfca	-0.025497336
68	0x3d1c06bc	0.03809236
69	0x3d99fa6b	0.075184666
70	0x3cc2c88a	0.023777265
71	0xbd2cd76d	-0.042197634
72	0x3e20e59e	0.15712592
73	0xbdd607b8	-0.10450691
74	0xbce25cc8	-0.027632132
75	0x3d0c222f	0.034212288
76	0xbc599f24	-0.013282571
77	0xbca59016	-0.020210307
78	0x3d0ec1f1	0.034852926
79	0xbcb69e4b	-0.022292277
80	0xbc6fd834	-0.014638949
81	0x3d94d48f	0.07267105
82	0xbd41211e	-0.047150724
83	0xbd9cce9c	-0.07656595
84	0x3bf8a3f7	0.0075879055
85	0xbd1b82cc	-0.037966534
86	0x3e034414	0.12818938
87	0x3cd4463c	0.025912397
88	0x3d802e39	0.06258816
89	0xbd0ddef4	-0.034636453
90	0xbc72f96d	-0.014829976
91	0xbd87b00d	-0.06625376
92	0xbdc22dc2	-0.09481384
93	0xbdabea01	-0.08394242
94	0x3b963637	0.0045840996
95	0x3dd37f9f	0.10327076
96	0xbd99c4e7	-0.07508259
97	0x3d07d692	0.033163615
98	0xbcedceae	-0.029029217
99	0x3d3bd72e	0.04585951
100	0xbc8164e9	-0.015795188
101	0xbce0c3f0	-0.02743718
102	0xbcdce485	-0.026964435
103	0xbcc01312	-0.023446593
104	0x3dba5312	0.09097876
105	0x3cb66c32	0.022268388
106	0x3d449054	0.047989205
107	0xbdb93ed2	-0.09045185
108	0xbd29d7ee	-0.041465692
109	0xbd5a11d6	-0.053239666
110	0xbc62fe5f	-0.013854592
111	0x3ce5425f	0.02798575
112	0x3ca65720	0.020305216
113	0x3dbe249a	0.09284325
114	0xbd97f3cf	-0.0741955
115	0x3e017533	0.12642364
116	0x3df3d1c6	0.119052455
117	0x3d643d5f	0.05572259
118	0x3d3d3df2	0.046201654
119	0x3df935f1	0.12168492
120	0xbcd9e66f	-0.026599137
121	0xbd445066	-0.047928236
122	0x3bf15b13	0.007365593
123	0x3d1efb72	0.038814016
124	0x3e2e8b57	0.17045341
125	0x3dfc80f6	0.12329285
126	0x3b5eeb03	0.003401459
127	0x3aa926fb	0.0012905294
128	0x3d0090bf	0.03138804
129	0xbdf30a66	-0.11867218
130	0xbdf859a8	-0.121264756
131	0xbdaba670	-0.08381355
132	0xbcb5fb3e	-0.022214528
133	0x3e0233e0	0.12715101
134	0x3c6b305f	0.014354794
135	0x3cd703f0	0.026246995
136	0x3de8d9d4	0.113696724
137	0x3e21d68d	0.15804501
138	0xbd4ba33f	-0.04971623
139	0x3d6982d4	0.057009533
140	0x3e0f4f0d	0.13994999
141	0x3c24599b	0.010031129
142	0x3aadf3d8	0.0013271524
143	0x3d97c050	0.074097276
144	0x3da23cf9	0.07921786
145	0x3dfcc6f0	0.12342632
146	0x3d1ff1a1	0.039048795
147	0xbd640bcc	-0.055675313
148	0xbc93931d	-0.018014485
149	0x3d17fa68	0.03710404
150	0x3dd247b5	0.10267583
151	0xbd93f865	-0.07225112
152	0x3c154516	0.00911071
153	0x3c760e5f	0.015018075
154	0xbc9356b4	-0.01798568
155	0xbbd4601e	-0.0064811846
156	0xbd9c989c	-0.076462954
157	0x3c932005	0.017959604
158	0xbd57e0a0	-0.052704453
159	0x3e4353ce	0.19074938
160	0x3cf99203	0.030465132
161	0x3ce6f007	0.028190626
162	0xbb6fedde	-0.0036610286
163	0xbb834183	-0.0040056123
164	0x3cc7de8b	0.024398109
165	0xbcfa8add	-0.030583793
166	0xbcf6b0df	-0.030113636
167	0x3d02607d	0.0318303
168	0x3dc98280	0.09839344
169	0x3e853a7e	0.26021188
170	0x3e2b448e	0.1672537
171	0xbc8d4834	-0.017246343
172	0xbcf7c2fc	-0.030244343
173	0xbb711822	-0.0036788066
174	0xbcec3561	-0.028834047
175	0xbce7efe8	-0.028312638
176	0xbc9cf636	-0.019160371
177	0x3ae9996c	0.0017822213
178	0x3e491550	0.19637036
179	0x3cfd47ed	0.030918086
180	0x3d080bb9	0.033214305
181	0x3ceca1ac	0.028885685
182	0x3c042ddc	0.008067574
183	0xbcfe291b	-0.03102546
184	0xbccdf967	-0.025143338
185	0xbcd40668	-0.025881961
186	0xbd9c4928	-0.07631141
187	0x3e09582b	0.1341254
188	0xbc994135	-0.018707851
189	0x3cc09fa2	0.023513619
190	0x3d7aff6f	0.061278757
191	0x3cdb201d	0.026748711
192	0xbc7b5829	-0.015340843
193	0x3cd68281	0.026185276
194	0xbd5449de	-0.051828258
195	0xbe262d08	-0.16228116
196	0x3deb29c2	0.11482574
197	0x3da87fd8	0.08227509
198	0x3d51b4b8	0.051197737
199	0x3d5dee8d	0.054182578
200	0xb9186cb9	-0.00014536352
201	0xbd32f714	-0.043692663
202	0xb9e1974b	-0.00043028066
203	0xbd9054db	-0.07047435
204	0xbe388369	-0.18018879
205	0x3d2da22d	0.04239099
206	0xbd2831c5	-0.04106309
207	0x3c453e93	0.012038845
208	0x3d54cc6a	0.051952757
209	0x3cffb28d	0.03121307
210	0xbbbf5403	-0.0058388724
211	0x3c13a5ee	0.009011729
212	0x3c6f383d	0.014600811
213	0xbe56f8a4	-0.20993286
214	0x3cc260dc	0.023727827
215	0xbcb3b03e	-0.021934625
216	0xbd2187e5	-0.03943624
217	0x3cd7e873	0.026355958
218	0xbd60e917	-0.05490979
219	0x3ca23dc9	0.019804852
220	0x3d4bfcc3	0.0498016
221	0xbccbb4e2	-0.024866525
222	0xbd72f32d	-0.05931394
223	0x3df11d45	0.11773161
224	0xbe3a696c	-0.18204278
225	0x3bc72b00	0.006078124
226	0x3d4cd454	0.05000718
227	0x3c6ececd	0.014575672
228	0xbbddb01b	-0.006765378
229	0x3cdfb6b8	0.027308807
230	0x3cbbe557	0.022936506
231	0x3d9bd18d	0.07608328
232	0x3dfc8df3	0.12331762
233	0xbcd5673c	-0.026050203
234	0xba7e6908	-0.0009704982
235	0x3beb6361	0.0071834777
236	0x3d16e2a5	0.03683724
237	0xbd375b3c	-0.044764742
238	0xbc6c1b64	-0.014410827
239	0x3cbd13c3	0.023080712
240	0xbce7eb69	-0.028310494
241	0x3d6b256e	0.057408743
242	0xbe042a20	-0.12906694
243	0xbc36bf16	-0.011153957
244	0xbd02ef85	-0.031966705
245	0xbc98197e	-0.018566843
246	0x3d1a41c4	0.037660375
247	0x3d9fbc47	0.07799583
248	0x3a44a63b	0.0007501577
249	0xbd8714db	-0.06595775
250	0xbd7513b2	-0.059833236
251	0xbe49183b	-0.1963815
252	0xb9b24422	-0.0003400157
253	0xbc77d1d2	-0.015125709
254	0xbd70d967	-0.05880108
255	0x3cdaea8a	0.026723165

head.conv.bias f4 [32]
0	0xba0e70bf	-0.00054336706
1	0x3d81f67d	0.06345842
2	0x3b36d6b2	0.0027898964
3	0xbc9d0be6	-0.019170713
4	0xbdef52d5	-0.11685721
5	0x3e8bec81	0.27328876
6	0x3dcc5c8f	0.09978592
7	0x3e4354a6	0.1907526
8	0x3e357e88	0.17724049
9	0xbe13856a	-0.14406362
10	0x3d45f5ea	0.048330225
11	0x3dd20917	0.1025564
12	0x3d9eb4b7	0.07749312
13	0xbd713117	-0.058884706
14	0xbd76bad7	-0.060236778
15	0x3d41cd84	0.047315136
16	0x3e3fe047	0.18737899
17	0x3d964037	0.07336467
18	0x3dd94d7e	0.106104836
19	0x3e03ba93	0.12864141
20	0x3d939fae	0.07208191
21	0x3e6038cf	0.21896671
22	0x3de1064e	0.10987531
23	0xbe478f09	-0.19488157
24	0xbc503fb7	-0.012710503
25	0xbde3b9be	-0.11119412
26	0xbdbba658	-0.09162587
27	0x3d37bbfd	0.044857014
28	0xbd358a88	-0.044321567
29	0x3da2fa09	0.07957847
30	0x3c09379e	0.008375077
31	0xbbfc2364	-0.0076946486

head.norm.weight f4 [32]
0	0x3f844c17	1.0335721
1	0x3f801d65	1.000897
2	0x3f88b266	1.0679443
3	0x3f909efc	1.1298518
4	0x3f662364	0.8989775
5	0x3f7db7a3	0.9910833
6	0x3f610056	0.8789114
7	0x3f70dafb	0.9408414
8	0x3f7f0025	0.99609596
9	0x3f6bc667	0.9209961
10	0x3f4116fb	0.7542569
11	0x3f806867	1.0031861
12	0x3f8279a2	1.0193369
13	0x3f9a6be9	1.2064182
14	0x3f6e485e	0.93079174
15	0x3f775404	0.9661257
16	0x3f883055	1.063975
17	0x3f6d3edc	0.9267404
18	0x3f4bfcac	0.7968242
19	0x3f5f95e8	0.87338114
20	0x3f779025	0.9670432
21	0x3f60265e	0.87558544
22	0x3f6a5d0a	0.91548216
23	0x3f62db4f	0.8861589
24	0x3f590146	0.8476757
25	0x3f8864b6	1.0655735
26	0x3f715cf4	0.9428246
27	0x3f810e01	1.0082399
28	0x3f7d0bdc	0.9884622
29	0x3f695747	0.911488
30	0x3f8dec23	1.1087688
31	0x3f82edac	1.0228782

head.norm.bias f4 [32]
0	0x3da34ebf	0.07974004
1	0xbcc72ab5	-0.024312356
2	0xbd92cc52	-0.07167877
3	0xbe043e51	-0.12914397
4	0xbcb34823	-0.021884983
5	0xbe86ca0f	-0.26326033
6	0x3ce15624	0.027506895
7	0xbe5e1dfa	-0.21691123
8	0xbdbd10fc	-0.09231755
9	0xbe102198	-0.14075315
10	0xbe77da99	-0.24204482
11	0xbe97fa2e	-0.2968306
12	0x3d7b371d	0.061331857
13	0x3d0cc28a	0.034365214
14	0xbda6bbea	-0.081413105
15	0xbd8f7e3a	-0.07006498
16	0x3da7bbe2	0.08190133
17	0x3d266b5d	0.040629733
18	0xbe724511	-0.23659159
19	0xbe093996	-0.13400874
20	0xbdf17cb2	-0.11791362
21	0x3d13fb3f	0.03612828
22	0x3e48bee7	0.19604073
23	0xbea2d493	-0.31802806
24	0x3e6a417c	0.22876543
25	0xbcfee690	-0.0311158
26	0xbe087aa5	-0.13328035
27	0xbdcd4bd0	-0.10024226
28	0x3d5191f1	0.05116457
29	0xbd35eb2f	-0.04441374
30	0xbe47f4a2	-0.19526914
31	0xbe8d68c4	-0.27618992

head.norm.running_mean f4 [32]
0	0xbe64b504	-0.22334677
1	0x3b1ffb4c	0.002441126
2	0xbeb30c94	-0.34970534
3	0x3cc675eb	0.02422615
4	0xbee5a4c1	-0.4485226
5	0xbeab7990	-0.33491182
6	0xbeb37cab	-0.35056052
7	0x3e91480c	0.2837528
8	0x3e30ae07	0.17253886
9	0x3dca3049	0.09872491
10	0x3d1b6108	0.037934333
11	0xbe8f72f3	-0.28017387
12	0xbf4fe203	-0.8120424
13	0x3f3e0492	0.74225724
14	0xbe492536	-0.19643101
15	0xbd1aedd7	-0.037824478
16	0x3e131728	0.14364302
17	0x3e4aeee3	0.1981769
18	0xbdd129be	-0.1021304
19	0xbdb7d5e9	-0.08976347
20	0x3de82c44	0.11336568
21	0x3e419d3b	0.18907635
22	0x3d3d836f	0.046267923
23	0xbe65a6a4	-0.2242685
24	0xbc7a2ba9	-0.015269198
25	0x3e933e01	0.28758243
26	0xbd923572	-0.071391
27	0x3e31f835	0.1737984
28	0xbf660fd8	-0.89867926
29	0xbf053ddf	-0.5204753
30	0x3e9789a4	0.295972
31	0xbf0d2679	-0.5513683

head.norm.running_var f4 [32]
0	0x3d3fdd3a	0.046841837
1	0x3bb00353	0.00537149
2	0x3d37f558	0.044911712
3	0x3b7f9cd5	0.0039003391
4	0x3d2e7650	0.0425933
5	0x3dc85aef	0.09782969
6	0x3d6db7db	0.058036666
7	0x3ca40b49	0.020024912
8	0x3b4e0cde	0.0031440775
9	0x3c89f32d	0.016839588
10	0x3b483f2b	0.003055523
11	0x3d25ed7e	0.040509693
12	0x3e5c6df7	0.21526323
13	0x3e2442c6	0.16041097
14	0x3bda7532	0.006666803
15	0x3bc4a888	0.006001536
16	0x3bb6b48b	0.0055757216
17	0x3ba56260	0.0050471276
18	0x3d10dabf	0.035364863
19	0x3c706337	0.014672092
20	0x3b55abbd	0.0032603585
21	0x3c4de918	0.012567781
22	0x3af97303	0.0019031469
23	0x3b2a85d5	0.0026019712
24	0x3a9579be	0.001140408
25	0x3d3e1c40	0.04641366
26	0x3c340260	0.010986894
27	0x3bc57524	0.006025927
28	0x3e804b38	0.25057387
29	0x3da7a250	0.081852555
30	0x3d34c310	0.04413134
31	0x3d98b380	0.07456112

body.block1.conv.weight f4 [32, 32, 3, 3]
0	0x3cbad731	0.02280769
1	0xba7167d6	-0.0009208893
2	0xbd0721b7	-0.032991137
3	0x3cfa8d04	0.03058482
4	0x3c48f6e6	0.012265896
5	0xbc2be157	-0.010490737
6	0x3d1d4ccb	0.038403314
7	0xbc3fe2c9	-0.011711785
8	0xbc38e786	-0.011285668
9	0xbd3ab191	-0.045579497
10	0xbc5db5f6	-0.013532152
11	0x3c8a5683	0.016886955
12	0xbd21f353	-0.039538693
13	0xbd5d9bf0	-0.05410379
14	0x3d3353e2	0.04378117
15	0xbd8b8268	-0.068119824
16	0xbdf4791d	-0.11937163
17	0xbd47a540	-0.04874158
18	0x3e29732e	0.16547844
19	0x3ddbe3f4	0.10736838
20	0xbc800dee	-0.015631642
21	0x3cc185f2	0.02362344
22	0x3cc9234d	0.024552966
23	0xbc2fa506	-0.010720497
24	0x3dbceab4	0.092244536
25	0x3d2d7437	0.04234716
26	0xbd01f8a6	-0.03173127
27	0xbca8d319	-0.020608472
28	0x3da2ef86	0.07955842
29	0x3d48a61c	0.04898654
30	0xbd79a55f	-0.060948726
31	0x3c41e64b	0.011834691
32	0x3c8d1ac6	0.01722468
33	0x3c29f19b	0.010372545
34	0x3d764fcd	0.060134698
35	0x3cd0cfbd	0.025489682
36	0x3d2905e1	0.041265372
37	0x3c876679	0.016528355
38	0x3d1c7e68	0.038206488
39	0x3be23341	0.0069030826
40	0x3d66ad51	0.05631763
41	0x3db6108c	0.08889875
42	0xbc50d74e	-0.012746645
43	0x3d673d03	0.05645467
44	0x3d9b62ef	0.075872295
45	0x3d8f9bc9	0.070121355
46	0x3d33f4d1	0.043934647
47	0x39f6a967	0.0004704699
48	0x3e1f6750	0.15566754
49	0x3d59b69f	0.053152677
50	0x3d396c5b	0.04526935
51	0x3dc99858	0.098435104
52	0xbd5a3f6b	-0.053283136
53	0x3bf171c8	0.0073683
54	0x3cc73d95	0.024321357
55	0x3d1ab29f	0.037768003
56	0x3cabcbf4	0.020971276
57	0x3c8f9f55	0.01753203
58	0x3d34d880	0.044151783
59	0x3d85843e	0.06519364
60	0xbcd81779	-0.02637838
61	0x3c8b3306	0.016992103
62	0x3bdd1d19	0.0067478535
63	0x3d176199	0.03695831
64	0x3c071d15	0.00824668
65	0x3c6beea5	0.014400159
66	0xbc6e8f1b	-0.014560486
67	0x3c9923f9	0.01869391
68	0xbd36387c	-0.04448746
69	0x3dfd1930	0.1235832
70	0x3dc745e8	0.097301304
71	0x3d03de4c	0.03219442
72	0x3b0d6a7e	0.0021578367
73	0x3dbe2874	0.092850596
74	0x3df9b9dd	0.12193654
75	0x3c728af2	0.014803635
76	0x3cf4702a	0.02983864
77	0x3e259075	0.16168387
78	0x3b80ddad	0.003932676
79	0x3d975a49	0.073902674
80	0x3dc40167	0.0957058
81	0x3bf9d206	0.0076239137
82	0x39b7532f	0.00034966457
83	0x3da4cca5	0.08046845
84	0x3d2f247c	0.042759404
85	0x3b177d74	0.0023115547
86	0x3d7aa931	0.06119651
87	0x3db3956f	0.087687366
88	0xbb099718	-0.00209946
89	0x3cc0fa6d	0.023556912
90	0x3a01d569	0.000495276
91	0x3cfbdc81	0.030744793
92	0xbbec4de4	-0.0072114337
93	0xbd30602f	-0.043060478
94	0xbc3aae94	-0.011394162
95	0xbdc61789	-0.09672458
96	0x3d92599a	0.071459964
97	0x3bb29e6c	0.0054510143
98	0xbce61993	-0.028088367
99	0x3d31434e	0.043277077
100	0x3bb89476	0.0056329323
101	0x3d4d8dd9	0.050184105
102	0x3d7a1d61	0.061063174
103	0xbda7c70a	-0.081922606
104	0x3a7ae0d2	0.0009570244
105	0x3dab26ad	0.08356986
106	0xbe0f6d70	-0.14006591
107	0xbcb40874	-0.021976687
108	0xbda7590b	-0.081712805
109	0xbd5bef58	-0.053695053
110	0x3d8f7e27	0.070064835
111	0xbd6d50c1	-0.05793834
112	0x3a091444	0.0005229155
113	0x3ddd44b3	0.10804119
114	0xbcdb980a	-0.026805896
115	0xbc0ac4aa	-0.00846974
116	0x3cac639b	0.02104359
117	0x3e2ed9e7	0.1707531
118	0x3d94041a	0.07227345
119	0x3b7ca68d	0.003855142
120	0x3dbfb327	0.093603425
121	0xbba6d3f0	-0.005091183
122	0x382f7ad6	4.183765e-05
123	0x3d969214	0.07352081
124	0x3cc0dda9	0.023543196
125	0xbc31955e	-0.010838835
126	0x3caaf0c4	0.02086676
127	0xbcd14a94	-0.025548257
128	0x39d59233	0.00040735453
129	0x3dcfca1a	0.1014597
130	0xbd9a52f0	-0.0753535
131	0xbcae2a40	-0.02126038
132	0x3d8396cc	0.064252466
133	0xbcc6dca9	-0.02427514
134	0x3ccc69ea	0.024952848
135	0xbd5c09f2	-0.053720422
136	0xbd3e3519	-0.046437357
137	0xbc64a463	-0.0139552085
138	0x3c00cd63	0.007861468
139	0xbbcb43fc	-0.0062031727
140	0xb9505ecd	-0.00019871742
141	0x386b234b	5.6061235e-05
142	0x3c588721	0.013215811
143	0x3ca6d433	0.020364856
144	0xbd332cd7	-0.043743934
145	0xbd6999b4	-0.05703135
146	0xbcd414b5	-0.02588878
147	0xbe036fe2	-0.12835649
148	0xbd369bf3	-0.04458232
149	0x3cf9e93c	0.030506723
150	0xbdc55060	-0.09634471
151	0x3d12da9c	0.035853013
152	0x3caa7722	0.02080876
153	0xbcd38cc1	-0.025823953
154	0xbd204547	-0.039128568
155	0x3ced3607	0.028956426
156	0xbdce5267	-0.10074311
157	0xbd89a3d7	-0.06720703
158	0xbd8338d1	-0.06407321
159	0xbd3e78d3	-0.046501946
160	0xbd44ccca	-0.048046865
161	0xbcffba33	-0.031216716
162	0xbd02df97	-0.031951513
163	0xbd99afc6	-0.07504229
164	0xbd8f80c2	-0.070069805
165	0x3bf3ad4c	0.00743643
166	0xbdab75fd	-0.08372114
167	0xbd47eb4c	-0.04880838
168	0x3a7b5035	0.0009586842
169	0xbcd83c9b	-0.026396086
170	0x3b4ca7fb	0.0031228054
171	0x3d8b28c6	0.06794886
172	0xbd096d90	-0.033551753
173	0x3d061bb1	0.032741252
174	0x3de7f1ff	0.11325454
175	0x3ce7b6d0	0.028285414
176	0x3ca9a30f	0.020707635
177	0x3d8faed8	0.07015771
178	0x3da5d3dc	0.080970496
179	0x3cff6f48	0.031180993
180	0x3d89a082	0.067200676
181	0x3d4d74bc	0.050160155
182	0x3ccc85ee	0.024966206
183	0x3d617224	0.055040494
184	0xbd292f57	-0.041304912
185	0xbc09b420	-0.008404762
186	0x3d93e1ff	0.0722084
187	0x3ae06f45	0.0017123005
188	0x3d2792d0	0.040911496
189	0x3d89dbd7	0.06731384
190	0x3d142fd2	0.036178418
191	0xbd60e77b	-0.054908257
192	0x3d9833bc	0.074317425
193	0x3d79a402	0.060947426
194	0x3d1254bb	0.035725337
195	0x3c4b9fe8	0.012428261
196	0xbdd93cc2	-0.10607292
197	0xbd132d32	-0.035931773
198	0xbd9bbb95	-0.07604138
199	0xbcca1454	-0.024667896
200	0xbdf83f8a	-0.12121494
201	0xbd860ade	-0.065450415
202	0x3ccbae58	0.024863407
203	0xbdcb5d03	-0.0992985
204	0x3d1187b8	0.035529822
205	0xbd380b83	-0.044932853
206	0xbda2ed2a	-0.07955392
207	0x3cbb6d53	0.022879278
208	0xbda0a978	-0.078448236
209	0xbd66c3c2	-0.056339033
210	0x3d24afde	0.040206783
211	0xbd87938c	-0.06619939
212	0xbb871651	-0.0041225334
213	0x3dbb7aac	0.09154257
214	0xbdc5ae95	-0.096524395
215	0x3cfc513c	0.030800454
216	0xbb6c2994	-0.0036035525
217	0xbd0808bc	-0.033211455
218	0xbc5df513	-0.0135472
219	0xbca2b298	-0.01986055
220	0xbcd21bd1	-0.02564803
221	0xbd8f6b16	-0.07002847
222	0x3db5859e	0.08863376
223	0x3d1c40a6	0.03814759
224	0x3c97b199	0.018517302
225	0x3d2b5181	0.041825775
226	0xbcab64fe	-0.02092218
227	0xbbd71626	-0.0065639196
228	0x3cc21320	0.02369076
229	0x3cf6f1f2	0.030144665
230	0xbcf2ec07	-0.029653562
231	0x3e47d050	0.19513059
232	0x3dfdfb43	0.1240144
233	0xbbea8211	-0.0071566184
234	0xbdec22af	-0.11530053
235	0x3ba829e2	0.005131946
236	0xbd56f2bd	-0.052477587
237	0x3cd8faba	0.026486743
238	0x3d1f1084	0.03883411
239	0x3d9d7c14	0.07689682
240	0xbd086574	-0.03329988
241	0xbd2bcbbe	-0.04194235
242	0x3c45f0a7	0.012081302
243	0x3d421685	0.047384758
244	0x3d358a51	0.044321362
245	0x3e0621c9	0.13098826
246	0x3d8fcfbf	0.07022046
247	0x3d55058c	0.052007243
248	0x3dd17790	0.10227883
249	0xbccb913a	-0.024849523
250	0xbd161d76	-0.03664919
251	0xbb0a1df3	-0.002107498
252	0xbd77c8c5	-0.060494203
253	0xbd00a59a	-0.03140793
254	0x3c841ea3	0.01612789
255	0xbd753136	-0.059861384

body.block1.conv.bias f4 [32]
0	0xbd8d11d5	-0.06888167
1	0xbd3e4329	-0.046450768
2	0x3d8e0724	0.06934956
3	0x3cc3d62b	0.023905834
4	0xbb83ad17	-0.0040184367
5	0x3d6efe7a	0.058348157
6	0xbdac39e0	-0.08409476
7	0x3d235a8b	0.03988127
8	0xbdc40bae	-0.0957254
9	0x3ca3a993	0.01997832
10	0xbdbf76ab	-0.09348806
11	0x3da28d49	0.07937104
12	0xbc3fcea7	-0.011706985
13	0xbc0ba2e6	-0.008522725
14	0xbcc78db3	-0.02435956
15	0xbda9d9df	-0.08293509
16	0xbc9c70e1	-0.019096794
17	0x3d48f9cc	0.04906635
18	0x3cd9265a	0.026507545
19	0xbc9150ce	-0.017738726
20	0x3afc01c6	0.0019226603
21	0x3d00338d	0.031299163
22	0xbc453149	-0.012035676
23	0xbd7db207	-0.06193736
24	0xbd29f8c8	-0.041497022
25	0x3cd3d16b	0.025856694
26	0x3b97acaa	0.0046287375
27	0xbd91f42d	-0.07126651
28	0xbbab595b	-0.005229158
29	0x3dfaacfe	0.12240027
30	0x3bc94d6a	0.0061432617
31	0xbd46dea7	-0.04855218

body.block1.norm.weight f4 [32]
0	0x3f542da5	0.8288215
1	0x3f82bedf	1.0214499
2	0x3f610a8a	0.87906706
3	0x3f5afe76	0.85544527
4	0x3f4c33f5	0.7976678
5	0x3f56e9a5	0.83950263
6	0x3f661e73	0.8989021
7	0x3f8d30bb	1.1030496
8	0x3f67e172	0.9057838
9	0x3f5261fb	0.82180756
10	0x3f685fd9	0.9077125
11	0x3f4fc864	0.81165147
12	0x3f462d94	0.77413297
13	0x3f59cd3d	0.85078794
14	0x3f85ed6c	1.046308
15	0x3f72baa8	0.94816065
16	0x3f63a9d2	0.88931
17	0x3f2c34bb	0.6726796
18	0x3f61b47d	0.8816603
19	0x3f838d53	1.0277504
20	0x3f5e66ea	0.86875784
21	0x3f4dc223	0.80374354
22	0x3f5baa8f	0.85807127
23	0x3f77c8ac	0.96790576
24	0x3f60e6d6	0.8785223
25	0x3f8444f9	1.0333549
26	0x3f7257f0	0.9466543
27	0x3f51cf3a	0.8195683
28	0x3f500039	0.8125034
29	0x3f48b9ca	0.7840849
30	0x3f60c4db	0.8780038
31	0x3f6e887b	0.93177

body.block1.norm.bias f4 [32]
0	0xbe75368d	-0.2394659
1	0xbf161821	-0.5863057
2	0xbe353018	-0.17694128
3	0xbdc7159c	-0.097209185
4	0xbedc18ce	-0.42987674
5	0xbe92f785	-0.28704467
6	0x3d6e8432	0.05823154
7	0xbf67bfa7	-0.90526813
8	0xbf100101	-0.5625153
9	0xbe76a017	-0.24084507
10	0xbf02c046	-0.51074636
11	0xbe406c85	-0.18791397
12	0xbeda3313	-0.42617092
13	0xbe11946f	-0.14216779
14	0xbec71baa	-0.38888294
15	0xbd9e5f55	-0.07733027
16	0xbf0cc889	-0.5499349
17	0xbec7f4a4	-0.39053833
18	0xbe9f6d2c	-0.3113798
19	0xbf5588cb	-0.83411855
20	0xbe14ddc5	-0.14537723
21	0xbe7ba34a	-0.24574009
22	0xbe3c4a6c	-0.18387765
23	0xbee85f65	-0.4538528
24	0xbe984b2b	-0.2974485
25	0xbdefcbe9	-0.11708815
26	0xbef1ce3a	-0.4722765
27	0xbeab655f	-0.33475778
28	0xbda6e495	-0.08149067
29	0xbe7c8138	-0.24658668
30	0xbd889b0f	-0.066702
31	0xbeafa1f7	-0.34303257

body.block1.norm.running_mean f4 [32]
0	0x3f2d26cb	0.6763732
1	0xbf854242	-1.0410845
2	0xbee45425	-0.44595447
3	0x400a36a5	2.1595852
4	0xbf982a21	-1.1887857
5	0xbf84bdcf	-1.0370425
6	0x3d3c0fa0	0.04591334
7	0xbf6767d0	-0.9039278
8	0xbfd32926	-1.6496933
9	0xbf9c31c6	-1.220269
10	0xbf2c4449	-0.67291695
11	0x3fe0835e	1.754009
12	0x3fee3e67	1.8612794
13	0x3f2c5bf0	0.67327785
14	0xbff5c8c9	-1.92019
15	0xbf128e2c	-0.5724819
16	0xbf9ecdd0	-1.2406559
17	0x3d934910	0.0719167
18	0xbee33414	-0.4437567
19	0xbe59e93e	-0.21280381
20	0xbf6797a0	-0.90465736
21	0xbe113931	-0.14181973
22	0x3efde26e	0.49586815
23	0xbfea7549	-1.8317043
24	0xbf368967	-0.7130341
25	0xbf6edd8f	-0.9330682
26	0xbe1ab0a1	-0.15106441
27	0x3eb8f00f	0.3612065
28	0xbf29b1ab	-0.66286725
29	0xbeb03410	-0.3441472
30	0xbec41eca	-0.3830474
31	0xbf8bbe46	-1.0917442

body.block1.norm.running_var f4 [32]
0	0x3eb69825	0.35662952
1	0x3fd0572f	1.6276606
2	0x3f51bf86	0.81932867
3	0x40962761	4.692307
4	0x3e8353fb	0.2565001
5	0x3e8e3307	0.27773306
6	0x418522ba	16.641956
7	0x3e2a33c3	0.16621308
8	0x3ee744cb	0.45169672
9	0x3f607aef	0.8768758
10	0x3f0487cb	0.51769704
11	0x3fef52bc	1.8697124
12	0x3f304e02	0.6886903
13	0x3e907369	0.2821305
14	0x408f6c17	4.4819446
15	0x3f296bd7	0.66180176
16	0x3ed36b05	0.41292587
17	0x3f3ae74b	0.73009175
18	0x3ec647c1	0.3872662
19	0x40f01d8f	7.503608
20	0x3ea59d18	0.32346416
21	0x3fa3966c	1.278028
22	0x3f6ef7de	0.93346965
23	0x3f7e519e	0.9934329
24	0x3f0895ea	0.5335375
25	0x40121567	2.2825563
26	0x3fbe26ac	1.4855552
27	0x3e71710c	0.2357828
28	0x3f03b801	0.5145264
29	0x3d8d4e5d	0.06899712
30	0x3eb26b16	0.34847325
31	0x3f4cfb62	0.8007108

body.block2.conv.weight f4 [32, 32, 3, 3]
0	0x3d98c2f4	0.07459059
1	0x3d87f671	0.06638802
2	0x3d7f2de6	0.06229963
3	0x3dd241ca	0.102664545
4	0x3d945d71	0.07244385
5	0x3c971654	0.018443264
6	0x3d5dfdcf	0.05419713
7	0x3cdd0d74	0.026983954
8	0xbc2c838d	-0.010529411
9	0x3dd1b0b9	0.10238785
10	0x3dbc0b02	0.09181787
11	0x3d48a126	0.048981808
12	0x3d692432	0.056919284
13	0x3d2525b0	0.040319145
14	0xbcdd88e3	-0.027042812
15	0x3d36cf04	0.04463102
16	0xbb8f2493	-0.0043683737
17	0x3b0aea3a	0.0021196739
18	0x3d7b94c6	0.06142118
19	0x3d7d9e82	0.061918743
20	0x3d79590a	0.06087593
21	0x3db16945	0.08662657
22	0x3ca00d90	0.019537717
23	0x3ba3619a	0.0049860002
24	0x3d409302	0.047015198
25	0xbcc92be1	-0.024557056
26	0xbc7351e9	-0.014851072
27	0x3ce3a5cf	0.027789025
28	0x3d26534e	0.04060679
29	0x3c8b6cd5	0.017019669
30	0x3c5e343b	0.013562257
31	0x3d0047e4	0.03131856
32	0x3b232670	0.0024894737
33	0xbd2c8eba	-0.042128302
34	0x3d493c98	0.049130052
35	0xbbd64705	-0.006539228
36	0x3e04ae70	0.12957168
37	0x3c94c360	0.018159568
38	0xbd5d18c3	-0.053978693
39	0xbb8d8dbc	-0.0043198746
40	0xbdb656c0	-0.08903265
41	0xbd1aa740	-0.03775716
42	0xbd6d52e8	-0.057940394
43	0xbd329798	-0.043601602
44	0xbc3015d3	-0.010747391
45	0x3dbaca79	0.0912065
46	0x3d4f8351	0.050662342
47	0x3de7c4ee	0.11316858
48	0x3c2905ab	0.010316293
49	0x3c3b19db	0.011419739
50	0x3dd78bad	0.10524688
51	0x3d0b5ee8	0.034026057
52	0x3c7f6e17	0.015590212
53	0x3d6d2fcf	0.057906922
54	0x3d0e72dc	0.034777507
55	0x3ccdd00d	0.02512362
56	0xbc8d224e	-0.017228272
57	0x3cf7df9d	0.030257994
58	0x3cecf8e5	0.028927276
59	0x3b0cc3ad	0.0021478937
60	0x3dac072a	0.08399804
61	0x3d9e4fa8	0.07730037
62	0x3cfb6463	0.030687517
63	0xbdb62591	-0.08893884
64	0xbd91b8c4	-0.07115319
65	0xbd5b73ea	-0.05357734
66	0xbd1a86c6	-0.037726186
67	0xbdb52c49	-0.08846337
68	0x3d377d64	0.044797316
69	0x3ccfda52	0.025372658
70	0x3d9ed049	0.07754571
71	0x3e84d9c3	0.2594739
72	0x3dbc7f03	0.09203913
73	0x3dab35a7	0.08359843
74	0x3d2c4269	0.04205552
75	0x3c6f6acd	0.014612866
76	0x3ce3f861	0.027828397
77	0xbcf80da7	-0.030279947
78	0x3caea7c7	0.021320237
79	0x3d2e6cb6	0.042584144
80	0xbc77322e	-0.015087647
81	0xbde9b769	-0.11411936
82	0xbd1dd8a2	-0.038536675
83	0xbe20c5c0	-0.15700436
84	0xbd6e787e	-0.05822038
85	0xbca15306	-0.019692909
86	0xbd9007fa	-0.070327714
87	0xbe122c9e	-0.14274833
88	0xbde8e465	-0.11371688
89	0xbe091ddd	-0.13390298
90	0xbdcf315d	-0.10116837
91	0xbdae2539	-0.085031934
92	0xbdffb124	-0.12484959
93	0x3d3b0d69	0.045667086
94	0x3daf826a	0.085697964
95	0x3da9cef1	0.08291424
96	0x3cf2c1ba	0.029633392
97	0x3d2fd9c4	0.042932287
98	0x3c25ca29	0.0101189995
99	0xbd62dc08	-0.05538562
100	0xbd050bc1	-0.032481913
101	0xbbd77c55	-0.006576101
102	0xbd4a6c1c	-0.049419507
103	0xbd0cda29	-0.03438774
104	0xbd204f99	-0.03913841
105	0x39bc9bb6	0.00035974168
106	0x3c86d22a	0.016457636
107	0x38923677	6.9719674e-05
108	0xbd84ae4c	-0.06478557
109	0xbd526709	-0.051367793
110	0x3c221478	0.009892575
111	0xbc9ae706	-0.018908989
112	0xbb83b92b	-0.0040198765
113	0x3c333d52	0.010939913
114	0x3b89fe21	0.0042112027
115	0x3ca0e44b	0.019640109
116	0xbb353744	-0.002765135
117	0xbdc643af	-0.09680878
118	0xbd8bdc62	-0.06829144
119	0xbcdbad27	-0.026815964
120	0xbd460446	-0.04834392
121	0xbcd47836	-0.025936227
122	0x3be51b04	0.006991746
123	0xba8ef884	-0.0010907804
124	0x3c932095	0.017959872
125	0x3d8791ef	0.066196315
126	0xbbe90a6d	-0.0071118386
127	0x3d7076ff	0.058707234
128	0x3d034ccd	0.032055665
129	0xbc827d6d	-0.015928948
130	0x3d6fdd6f	0.058560785
131	0x3d4a72d1	0.049425904
132	0x3db828e3	0.089921735
133	0x3dbf5065	0.09341506
134	0x3d98af29	0.07455284
135	0xbcc933a4	-0.024560757
136	0x3c18d49d	0.009328035
137	0x3ca770a6	0.020439457
138	0xbd4aaae6	-0.049479388
139	0x3c3c1c3c	0.011481341
140	0x3d220d7c	0.03956364
141	0x3c137756	0.00900062
142	0x3d9a91f8	0.075473726
143	0x3d825cef	0.06365382
144	0xbca1d27d	-0.019753689
145	0x3c58a03a	0.013221795
146	0x3da97a3e	0.08275269
147	0x3d9749ec	0.07387146
148	0x3d8c915c	0.068636626
149	0x3d99ab2d	0.07503352
150	0x3d98a650	0.074535966
151	0x3d85edfc	0.065395325
152	0x3d5c6db0	0.053815544
153	0x3ca0f1f1	0.019646617
154	0x3d7a4078	0.06109664
155	0x3cc91710	0.02454713
156	0xbc252c95	-0.01008143
157	0x3c81f5d8	0.015864298
158	0xbd176922	-0.036965497
159	0x3c8f0bf9	0.017461764
160	0x3ce6fca8	0.028196648
161	0xbd5afcdb	-0.053463798
162	0xbda7f10e	-0.082002744
163	0xbb79d143	-0.0038119114
164	0xbda19c4c	-0.078911394
165	0xbc95e82a	-0.018299181
166	0xba6e3c50	-0.0009087967
167	0xbda17259	-0.07883138
168	0xbd050f60	-0.032485366
169	0xbc0bf159	-0.0085414285
170	0xbd6ea2c2	-0.058260687
171	0x3dc2dabe	0.09514378
172	0x3d2cdeeb	0.04220478
173	0x3cba1287	0.022713913
174	0xbc422186	-0.011848813
175	0xbd065e26	-0.03280463
176	0x3bb51818	0.005526554
177	0x39f709a9	0.0004711871
178	0xbd105320	-0.035235524
179	0x3c036c10	0.00802137
180	0xbd11e400	-0.03561783
181	0xbcc9cb97	-0.024633212
182	0x3cc27db9	0.02374159
183	0xbd0846a2	-0.033270486
184	0xbccbeb2f	-0.024892418
185	0x3cdda4fb	0.027056208
186	0xbcbc2a66	-0.022969436
187	0x3a21c29e	0.0006170663
188	0x3d1ec947	0.03876617
189	0xbc01ccf6	-0.007922402
190	0x3d8893d8	0.06668824
191	0x3d60d328	0.054888874
192	0x3cf51d39	0.029921161
193	0xbbd0b0c5	-0.006368729
194	0x3d1d8690	0.038458407
195	0x3d9a4e86	0.075345084
196	0x3d095f0b	0.033537906
197	0x3d354889	0.044258628
198	0x3d0f2098	0.034943193
199	0x3c5e83a4	0.01358119
200	0x3d213032	0.039352603
201	0xbd82d75e	-0.06388734
202	0xbd5c47b6	-0.053779326
203	0xbc15250b	-0.00910307
204	0xbd05f587	-0.032704856
205	0xbd849ee0	-0.064756155
206	0x3ce1d0f4	0.027565457
207	0x3e034e26	0.1282278
208	0x3e1d7c0c	0.15379351
209	0x3dae9319	0.085241504
210	0x3da241b4	0.07922688
211	0x3d923db6	0.07140677
212	0x3d944c5f	0.07241129
213	0x3d452592	0.048131533
214	0x3d7f58f4	0.06234069
215	0x3d3ac851	0.045601193
216	0x3dc69fe8	0.096984684
217	0x3d910217	0.07080477
218	0x3d3274df	0.04356849
219	0x3db2a4f7	0.08722871
220	0x3b092ee4	0.002093249
221	0xbc69db9f	-0.014273553
222	0xbbea28b2	-0.0071459645
223	0xbcc8f885	-0.024532566
224	0xbc7f882e	-0.015596433
225	0x3d67b977	0.056573357
226	0x3d9cbba3	0.07652976
227	0x3ccd4130	0.025055498
228	0x3d9e31d1	0.077243455
229	0x3be22a6e	0.0069020307
230	0xbbdc7c8e	-0.0067287153
231	0x3de2cce6	0.110742375
232	0x3dd25fcb	0.10272177
233	0x3d972659	0.07380361
234	0x3c480c48	0.012209959
235	0x3d9679f3	0.07347479
236	0x3d5ac163	0.053407084
237	0x3c4ee353	0.0126274405
238	0x3d80926f	0.0627793
239	0x3db624c1	0.08893729
240	0x3c8592d5	0.016305367
241	0x3d10d176	0.035356008
242	0x3d80304e	0.062592134
243	0xbd4ce82a	-0.050026096
244	0xbd7c9862	-0.06166876
245	0xbd186a14	-0.03721054
246	0xbcb79d09	-0.022413747
247	0xbd9594f4	-0.07303801
248	0xbc7857a9	-0.015157619
249	0xbce47a89	-0.02789046
250	0xbd287357	-0.04112562
251	0xbd5ec00e	-0.054382376
252	0xbd1780bc	-0.036988005
253	0xbd38f1d4	-0.0451525
254	0xbc94cc76	-0.0181639
255	0x3c96f7c0	0.018428683

body.block2.conv.bias f4 [32]
0	0xbd156b4e	-0.036479287
1	0xbd89c5be	-0.067271695
2	0xbc4e9873	-0.012609589
3	0xbdadab3f	-0.08479928
4	0xbd488e1d	-0.048963655
5	0xbce1f0bb	-0.02758061
6	0xbcf1da37	-0.029522998
7	0x3d9d6de6	0.07686977
8	0x3de1e61e	0.110302195
9	0xbcc0091e	-0.023441847
10	0x3d4187df	0.047248717
11	0x3bcd848f	0.0062719057
12	0x3d3c58f1	0.04598326
13	0xbd2cdc59	-0.042202327
14	0xbd67064b	-0.056402486
15	0xbdae2d37	-0.08504718
16	0x3d1d260c	0.038366362
17	0x3bb70483	0.0055852546
18	0xbd137ed1	-0.036009613
19	0x3c4892c1	0.01224202
20	0xbcd3233b	-0.025773635
21	0x3db2ce52	0.08730759
22	0x3d5d1911	0.053978983
23	0x3b9d37d6	0.004797916
24	0x3cf9f470	0.030512065
25	0x3d07872f	0.033087905
26	0xbc1f4d26	-0.009722983
27	0x3d2396e2	0.039938815
28	0x3c7d9e5a	0.0154796485
29	0x3dc944ed	0.098276
30	0xbd87726c	-0.06613621
31	0x3d9dc9db	0.077045165

body.block2.norm.weight f4 [32]
0	0x3f692cc4	0.9108393
1	0x3f61ffc3	0.88280886
2	0x3f628968	0.88490915
3	0x3f858d76	1.0433795
4	0x3f634eab	0.8879191
5	0x3f7a3c19	0.9774795
6	0x3f77a944	0.96742654
7	0x3f58678c	0.84533
8	0x3f60fc76	0.87885225
9	0x3f8fd332	1.1236327
10	0x3f89cb92	1.076525
11	0x3f6bca3b	0.92105454
12	0x3f64c13c	0.8935735
13	0x3f89eb50	1.0774937
14	0x3f74fad3	0.9569523
15	0x3f68fe44	0.9101298
16	0x3f77f336	0.96855485
17	0x3f48c59c	0.7842653
18	0x3f772b1b	0.9655015
19	0x3f6aa700	0.9166107
20	0x3f86810c	1.0508132
21	0x3f50d363	0.8157255
22	0x3f7cf726	0.9881462
23	0x3f8513bb	1.0396646
24	0x3f681b0a	0.9066626
25	0x3f5944ca	0.8487059
26	0x3f839db1	1.0282499
27	0x3f3a6f31	0.72825915
28	0x3f86d1a0	1.0532722
29	0x3f88cc07	1.0687264
30	0x3f7d8e2f	0.9904508
31	0x3f736245	0.9507182

body.block2.norm.bias f4 [32]
0	0xbf02e38f	-0.51128477
1	0xbdaafd22	-0.083490625
2	0xbf5a7059	-0.8532768
3	0xbd18fe91	-0.03735215
4	0xbd38c11a	-0.04510603
5	0xbde03768	-0.10948068
6	0xbdf5faee	-0.12010752
7	0xbf06e28b	-0.5268943
8	0xbf043fb6	-0.51659715
9	0x3aec9ee6	0.0018052727
10	0xbd804006	-0.062622115
11	0xbe8f296f	-0.279613
12	0xbe931013	-0.287232
13	0xbf0d3493	-0.55158347
14	0xbc9fa5af	-0.019488184
15	0xbec8d07a	-0.39221555
16	0xbe5a22fd	-0.2130241
17	0xbec00378	-0.37502646
18	0x3cf126e9	0.0294375
19	0xbcaa2b03	-0.020772463
20	0xbd93dd42	-0.07219936
21	0xbea4b81c	-0.32171714
22	0xbee7b630	-0.45256186
23	0xbe2317ef	-0.15927099
24	0xbeccdef8	-0.40013862
25	0xbeb1b442	-0.34707838
26	0xbf10d678	-0.56577253
27	0xbe6c8451	-0.2309735
28	0xbeef0bd8	-0.46688724
29	0xbf811314	-1.0083947
30	0xbe3be4f7	-0.18349062
31	0xbf177f05	-0.5917819

body.block2.norm.running_mean f4 [32]
0	0x3e76f2d2	0.24116066
1	0x3e15f79e	0.1464524
2	0x3edb8552	0.42875153
3	0xbefb2b7a	-0.49056607
4	0x3d28a273	0.04117055
5	0xbee1e511	-0.44120076
6	0xbe0785e6	-0.13234672
7	0x3e957918	0.2919395
8	0x3ea1c865	0.315982
9	0xbcb4e5de	-0.022082265
10	0xbd865c76	-0.06560604
11	0xbe2a7299	-0.16645278
12	0x3dd652fe	0.10465048
13	0xbd61630e	-0.055026107
14	0xbe9d735b	-0.30752072
15	0xbec93d6e	-0.3930468
16	0xbe848c62	-0.25888354
17	0x3e85ef03	0.26158914
18	0xbf27eaa9	-0.6559244
19	0xbe6f19bc	-0.2334966
20	0xbea3590a	-0.3190387
21	0x3ece248d	0.4026226
22	0x3ea3d10a	0.31995422
23	0xbdab08c8	-0.08351284
24	0xbe3903ed	-0.18067904
25	0xbe18229e	-0.14856955
26	0xbd761578	-0.060079068
27	0x3d5d0560	0.053960204
28	0xbd02c160	-0.031922698
29	0x3e8b57f5	0.27215543
30	0xbe75cba2	-0.24003461
31	0x3ebfb768	0.37444615

body.block2.norm.running_var f4 [32]
0	0x3eb92437	0.36160442
1	0x3f4437b4	0.76647496
2	0x3ee1a641	0.44072154
3	0x3f802750	1.0011997
4	0x3f87ae50	1.0600071
5	0x3f149d3b	0.58052415
6	0x3f0f209d	0.5590914
7	0x3e7eb667	0.24874268
8	0x3fab5ef0	1.3388348
9	0x3eea35e3	0.45744237
10	0x3f6b62a6	0.919474
11	0x3e43cdfd	0.19121547
12	0x3ee9785f	0.45599648
13	0x3d9da136	0.07696764
14	0x3ec53d57	0.3852336
15	0x3e9cd420	0.3063059
16	0x3e6565a4	0.22402054
17	0x3ecbfab3	0.39839706
18	0x3f792201	0.9731751
19	0x3f2f5e68	0.6850343
20	0x3f09b41f	0.5379047
21	0x400f70c6	2.2412581
22	0x3ed0d082	0.4078408
23	0x3eac4d03	0.33652505
24	0x3e82bb22	0.25533396
25	0x3e8ee8ba	0.2791193
26	0x3f91e4e4	1.1397977
27	0x3f85ae2f	1.0443782
28	0x3f273c96	0.6532682
29	0x3e40fdc7	0.18846808
30	0x3f3b7096	0.7321867
31	0x3e9cf44d	0.30655137

body.block3.conv.weight f4 [32, 32, 3, 3]
0	0xbd1fcc80	-0.039013386
1	0x3bd29189	0.0064260405
2	0x3c48365f	0.012219994
3	0x3be42096	0.0069618924
4	0x3d650f50	0.055922806
5	0x3bdca619	0.0067336676
6	0xbd7fa9e0	-0.062417865
7	0x3db3896b	0.08766445
8	0xbc57477c	-0.013139602
9	0x3bb87ea9	0.0056303334
10	0x3b4fd277	0.003171114
11	0xbcd35894	-0.025799073
12	0xbd3d60b0	-0.046234787
13	0xbd42d6ad	-0.047568012
14	0xbc7db38d	-0.015484703
15	0xbd38473b	-0.044989806
16	0xbd052b12	-0.03251178
17	0xbd3dff6d	-0.04638617
18	0xbe44c815	-0.1921695
19	0xbe116baf	-0.14201234
20	0xbe2e1f8a	-0.17004219
21	0xbe00313b	-0.1251878
22	0xbdfba1f3	-0.12286749
23	0xbde7370b	-0.112897955
24	0xbd9d2eec	-0.07674965
25	0xbdcc9548	-0.09989411
26	0xbd9b7f62	-0.07592656
27	0xbd4fa56f	-0.05069488
28	0xbd046e6d	-0.032331873
29	0xbc3011a4	-0.010746393
30	0xbcf6791c	-0.030087046
31	0xbd2f75b8	-0.042836875
32	0xbd3301c3	-0.043702852
33	0xbe278a90	-0.16361451
34	0xbe193898	-0.14962995
35	0xbd8e7888	-0.06956583
36	0xbcc88a48	-0.02448
37	0x3cb483a3	0.022035426
38	0xbc8593e5	-0.016305873
39	0x3ce678b4	0.028133728
40	0xbc1dc149	-0.009628602
41	0xbc74350e	-0.014905227
42	0xbcfaf561	-0.030634584
43	0xbcf013b5	-0.029306272
44	0xbdb577dc	-0.08860752
45	0xbd2070d7	-0.039170112
46	0xbd9c6822	-0.07637049
47	0xbd90e33d	-0.07074592
48	0xbdc75d92	-0.09734644
49	0xbdb706c3	-0.089368366
50	0xbd5840d0	-0.052796185
51	0xbe150b03	-0.14554982
52	0xbd8b1db7	-0.06792777
53	0xbdb8b41d	-0.09018729
54	0xbc8831dd	-0.01662534
55	0xbd9b0a64	-0.07570341
56	0xbd08433c	-0.033267245
57	0xbd8f60ff	-0.070009224
58	0xbdd7a3db	-0.105293
59	0xbdb958d2	-0.09050144
60	0xbda886b8	-0.082288206
61	0xbd9b5e61	-0.07586361
62	0xbdb9adfe	-0.090663895
63	0x3de16880	0.1100626
64	0x3ce9c665	0.028536985
65	0x3cc1f2b8	0.023675308
66	0x3dc039ee	0.09386049
67	0x3d6ac8f7	0.05732056
68	0x3d2174c5	0.039418
69	0x3d8d8505	0.06910137
70	0x3ccd6a53	0.025075113
71	0x3de6d2b7	0.112706594
72	0xbcf023fa	-0.02931403
73	0xbdd25ecd	-0.10271988
74	0xbd8d01fe	-0.068851456
75	0x3c595a6f	0.01326619
76	0xbd85825c	-0.06519005
77	0x3b6f4f22	0.0036515673
78	0xbc98c6a2	-0.018649403
79	0xbd25e3d8	-0.04050049
80	0xbc512487	-0.012765056
81	0xbc0dd6a2	-0.0086571295
82	0x3ccfafbe	0.025352355
83	0xbdaba83b	-0.08381697
84	0xbd088bea	-0.033336557
85	0x3bc4290f	0.00598634
86	0xbdfc3f05	-0.123167075
87	0xbd0475bf	-0.032338854
88	0x3be94bbb	0.0071196235
89	0xbe24c77e	-0.16091725
90	0x3d317daa	0.043332733
91	0xbd29acd6	-0.041424595
92	0xbd1ac341	-0.037783865
93	0xbd8f637b	-0.07001396
94	0xbcb7203a	-0.022354234
95	0xbddf511d	-0.10904143
96	0xbe3275a7	-0.17427693
97	0xbddbd46a	-0.10733874
98	0xbdc45c04	-0.09587863
99	0x3d9583a0	0.07300496
100	0x3dbe7159	0.09298963
101	0x3cfee449	0.031114714
102	0x3cc8c7e0	0.02450937
103	0x3b46da0d	0.003034237
104	0xbdb3309a	-0.087495044
105	0xbd7191c1	-0.058976892
106	0xbdc81625	-0.09769849
107	0xbdc3195a	-0.0952632
108	0x3c9493dc	0.018136911
109	0xbdae63cb	-0.08515128
110	0xbc1a145e	-0.00940427
111	0xbced2438	-0.028947935
112	0xbdf2e04e	-0.11859189
113	0xbd85fa10	-0.06541836
114	0x3be99b69	0.007129122
115	0xbdafeec7	-0.08590465
116	0xbd05b71f	-0.03264534
117	0xbc42f86d	-0.01190005
118	0xbc511e61	-0.012763591
119	0xbc41d23b	-0.011829908
120	0x3d040aa3	0.032236706
121	0x3d8936a7	0.06699877
122	0xbcbe2665	-0.023211667
123	0xbd4c928f	-0.049944457
124	0x3be8162e	0.007082722
125	0xbcce5879	-0.025188671
126	0xbc6313be	-0.013859687
127	0xbd366b53	-0.044535946
128	0x3c3b8e92	0.011447566
129	0xbb492a53	-0.0030695393
130	0xbd2b1b36	-0.041773997
131	0x3b8da903	0.0043231263
132	0xbd2fa325	-0.042880196
133	0xbd538400	-0.051639557
134	0xbe1c780e	-0.15280172
135	0x3d18ab1a	0.03727255
136	0x3cc86314	0.024461307
137	0x3d364a70	0.044504583
138	0xbcdeec2d	-0.027212227
139	0x3a9a9924	0.0011794907
140	0x3ceafe00	0.02868557
141	0xbd0c78d4	-0.03429492
142	0xbd54c351	-0.05194408
143	0xbc55aaf4	-0.013041247
144	0x3cb42d65	0.021994302
145	0x3cc9d5f5	0.024638155
146	0x3d8f3fb2	0.06994571
147	0x3a972205	0.0011530524
148	0xbc930b9e	-0.017949875
149	0xbb859035	-0.0040760287
150	0xbdb3bec0	-0.08776617
151	0xbcff4003	-0.031158453
152	0xbc1a3cf1	-0.009413944
153	0x3c4ced84	0.0125078
154	0xbc8f67c1	-0.017505528
155	0x3dce10c8	0.100617945
156	0x3ca64b58	0.020299599
157	0x3ce6e901	0.028187277
158	0x3d36f1c2	0.044664152
159	0xbd236807	-0.03989413
160	0x3a844e32	0.0010094105
161	0x3ce131ae	0.02748951
162	0x3d89e74c	0.067335695
163	0x3aa7d035	0.0012803139
164	0xbcb4751e	-0.022028502
165	0x3d2e202a	0.042511143
166	0xbc9db64c	-0.019251965
167	0xbc993bba	-0.018705238
168	0x3d5504cc	0.052006528
169	0x3d0c6f87	0.03428605
170	0x3c7e8f4e	0.015537096
171	0xbd84ff9f	-0.06494068
172	0x3a6a40c0	0.000893604
173	0x3c39bcb6	0.011336496
174	0xbd1d8488	-0.03845647
175	0x3be3d87e	0.006953298
176	0xbd64f51d	-0.05589782
177	0xbd2e5d39	-0.042569373
178	0x3d1c92f5	0.038226087
179	0x3d390984	0.04517509
180	0x3df50877	0.11964505
181	0x3db25665	0.08707885
182	0xbcdad377	-0.026712162
183	0x3d2c0ddf	0.042005416
184	0x3d340c38	0.043956965
185	0x3ca357cf	0.019939331
186	0xbde19c41	-0.11016131
187	0xbce12ab4	-0.027486183
188	0xbd8595ab	-0.065226875
189	0x3c8e8f6d	0.017402375
190	0xbc8de2fb	-0.017320147
191	0x3d1c4eb3	0.03816099
192	0x3d2aba6c	0.041681692
193	0x3c4f79c7	0.012663311
194	0x3d5a30e6	0.05326929
195	0x3b446672	0.0029968289
196	0xbd145988	-0.036218196
197	0x3d18a0d3	0.03726275
198	0xbd45ba39	-0.0482733
199	0x3c5a08a7	0.013307727
200	0x3ca3478d	0.019931579
201	0x3b40608d	0.0029354424
202	0xbc41c56f	-0.011826857
203	0xbad4cdf2	-0.0016235693
204	0x3d09358d	0.033498336
205	0x3d69cf99	0.057082746
206	0x3d8cedd6	0.06881301
207	0x3d422de5	0.04740705
208	0x3d94f2b2	0.07272853
209	0x3daf438d	0.08557806
210	0xbd515e63	-0.051115405
211	0xbcbf1197	-0.023323817
212	0xbda17bd3	-0.07884946
213	0x3c274bc2	0.010210933
214	0xbbbece5a	-0.005822939
215	0xbca2f6eb	-0.01989313
216	0x3d9f5c63	0.07781293
217	0x3d8d6581	0.06904126
218	0x3d59a083	0.05313159
219	0x3de5d09f	0.11221432
220	0x3dab7a23	0.08372905
221	0x3db7cea5	0.08974961
222	0x3ca54069	0.020172315
223	0x3d4a4bd1	0.04938871
224	0x3d8b083e	0.067886814
225	0x3c0bc966	0.008531904
226	0x3d355d2e	0.044278316
227	0x3c83f886	0.016109716
228	0xbd83d510	-0.06437123
229	0x3c6bfe59	0.014403903
230	0x3c8ddb2b	0.017316421
231	0xbd7333be	-0.059375517
232	0xbd8faa30	-0.070148826
233	0xbcea85e9	-0.028628306
234	0xbe02b6e7	-0.12765084
235	0xbd92198b	-0.07133778
236	0xbc83b5f4	-0.016077973
237	0xbd461c32	-0.048366733
238	0xbc6d0465	-0.01446638
239	0xbb1c97de	-0.002389423
240	0xbd2b0619	-0.041753862
241	0xbcd84d38	-0.026404008
242	0x39f8fc47	0.00047490207
243	0xbcbe7327	-0.023248268
244	0x3d17c1ae	0.03704994
245	0x3d476474	0.048679784
246	0xbd59363b	-0.053030234
247	0xbc89a44d	-0.016801978
248	0xbd1dfe08	-0.03857234
249	0xbda1c767	-0.07899361
250	0xbd5ece29	-0.05439583
251	0xbd13d835	-0.036094863
252	0xbd87993f	-0.06621026
253	0xbd50f650	-0.051016152
254	0x3be8fb84	0.007110061
255	0xba01e355	-0.00049548346

body.block3.conv.bias f4 [32]
0	0x3d80a9e3	0.06282403
1	0xbd3036c4	-0.04302098
2	0x3dcd35ce	0.10020028
3	0xbd3d1081	-0.046158317
4	0x3cadb9d6	0.021206778
5	0x3cca4042	0.024688844
6	0x3cbbd458	0.022928402
7	0x3cb07eb6	0.021544795
8	0xbc6fb21d	-0.014629868
9	0x3d034f5e	0.032058112
10	0x3d87d189	0.066317625
11	0xbbb3351f	-0.005468979
12	0x3d6633c9	0.05620173
13	0xbb8ccff5	-0.0042972513
14	0x3d50cf6f	0.050979074
15	0xbcf6a3df	-0.030107437
16	0xbd18faad	-0.037348438
17	0x3d4c0a51	0.049814526
18	0xbaaabcfd	-0.0013026294
19	0x3d97cc1a	0.07411976
20	0x3d3010b5	0.042984683
21	0xbd115b3d	-0.035487402
22	0x3d991d6f	0.07476317
23	0xbbaf9314	-0.0053581093
24	0x3d0fe35c	0.035128936
25	0x3d29fb87	0.04149964
26	0x3c0c177f	0.008550524
27	0xbcf7f7bd	-0.030269498
28	0xbd3d1cff	-0.04617023
29	0xbd0a3d02	-0.033749588
30	0x3d8bcff6	0.06826775
31	0xba0261fe	-0.00049737084

body.block3.norm.weight f4 [32]
0	0x3f7f7082	0.9978105
1	0x3f7ed1a4	0.99538636
2	0x3f82bbbb	1.0213541
3	0x3f784242	0.969761
4	0x3f8d1091	1.1020681
5	0x3f7b02e5	0.9805129
6	0x3f75855e	0.9590663
7	0x3f70acdd	0.9401377
8	0x3f79fcc2	0.976513
9	0x3f81f1a2	1.0151865
10	0x3f69997f	0.9124984
11	0x3f5fe613	0.8746044
12	0x3f7de038	0.99170256
13	0x3f691eab	0.9106242
14	0x3f6f9185	0.9358142
15	0x3f708a03	0.9396059
16	0x3f6acb7e	0.91716754
17	0x3f7a741a	0.97833407
18	0x3f8a7a02	1.0818484
19	0x3f859528	1.0436144
20	0x3f897acd	1.0740601
21	0x3f80f4dd	1.0074726
22	0x3f7849b4	0.9698746
23	0x3f77e0f5	0.9682763
24	0x3f8f937e	1.1216886
25	0x3f8c0792	1.093981
26	0x3f837eb3	1.027304
27	0x3f832a32	1.0247252
28	0x3f7906be	0.9727591
29	0x3f878fc6	1.0590751
30	0x3f720cb9	0.94550663
31	0x3f6b5b15	0.91935855

body.block3.norm.bias f4 [32]
0	0xbdbf2217	-0.09332674
1	0xbe96b1f2	-0.29432636
2	0xbec8f7dd	-0.39251605
3	0xbda98c56	-0.0827872
4	0xbdd33b5e	-0.10314058
5	0xbec8399a	-0.39106447
6	0xbe1c8593	-0.1528533
7	0xbd28ce18	-0.04121217
8	0xbf0adb84	-0.54241204
9	0xbdb2c151	-0.087282784
10	0xbdd17c84	-0.102288276
11	0xbe1b55a9	-0.15169396
12	0xbe911b10	-0.2834096
13	0xbe8addd4	-0.27122366
14	0xbdd860fc	-0.10565373
15	0xbe0fc62a	-0.14040437
16	0x3cb56826	0.022144388
17	0xbdd6e08e	-0.10492049
18	0xbe9d2d0a	-0.30698425
19	0x3cb92a40	0.022603154
20	0x3d500759	0.050788257
21	0xbf11a403	-0.5689089
22	0xbcfad341	-0.030618312
23	0xbe3e2aa4	-0.18570954
24	0xbe7510fd	-0.23932262
25	0x3d5d5f5b	0.054046016
26	0xbb4b48bf	-0.0031018702
27	0xbec8fef8	-0.39257026
28	0xbee36aa9	-0.44417313
29	0xbe34a6a9	-0.17641701
30	0xbeacfa02	-0.3378449
31	0xbc98cfd1	-0.018653782

body.block3.norm.running_mean f4 [32]
0	0xbf595742	-0.8489877
1	0xbf5bfaa2	-0.8592931
2	0xbf5617e1	-0.83630186
3	0x3e6721d1	0.22571494
4	0xbefe043e	-0.49612612
5	0xbf5c2fa5	-0.860102
6	0xbf25bb64	-0.6473906
7	0xbf72f7a7	-0.9490914
8	0xbf2c3c14	-0.6727917
9	0xbfa0d6eb	-1.2565588
10	0xbe674a50	-0.22586942
11	0xbccd2f58	-0.02504699
12	0xbe868f53	-0.26281223
13	0xbf14d3bd	-0.58135587
14	0xbda198f1	-0.078904994
15	0xbe84a0dc	-0.25903976
16	0x3f000a7b	0.5001599
17	0xbf97b74e	-1.1852815
18	0xbd839b94	-0.064261585
19	0xbf6b55c8	-0.91927767
20	0x3e5c9471	0.21541001
21	0xbf336112	-0.7006999
22	0xbf6e94c1	-0.9319573
23	0xbf64d0e4	-0.8938124
24	0xbf51a802	-0.81896985
25	0xbf728043	-0.9472696
26	0xbfc3ef8c	-1.5307479
27	0xbf721a7d	-0.9457167
28	0xbf1c6709	-0.6109472
29	0xbf2d2f6a	-0.67650473
30	0xbee21d83	-0.4416314
31	0xbf9e4f5f	-1.2367972

body.block3.norm.running_var f4 [32]
0	0x3faea08e	1.3642747
1	0x3ebbf101	0.3670731
2	0x3f249023	0.64282435
3	0x3f8efd0a	1.1170971
4	0x3fbd0e37	1.4769963
5	0x3f10a09c	0.5649507
6	0x3fa9ea85	1.3274695
7	0x3f547ece	0.8300599
8	0x3e4a2359	0.19740047
9	0x3fd10136	1.6328495
10	0x3f5c60a5	0.8608497
11	0x3f2885a5	0.65828925
12	0x3fa1748b	1.2613691
13	0x3e732a24	0.23746544
14	0x3f5affcc	0.85546565
15	0x3ee9a490	0.45633364
16	0x3f260498	0.6485076
17	0x3f90aaad	1.1302086
18	0x3f63ff27	0.89061207
19	0x4022007b	2.5312793
20	0x3ff4e56a	1.9132512
21	0x3f1ed90d	0.62049943
22	0x3f82a7b7	1.0207433
23	0x3f76c6d3	0.9639713
24	0x3f5cc6cf	0.8624086
25	0x3ff80f0f	1.9379596
26	0x3fdb8b6e	1.7151926
27	0x3eea124e	0.4571709
28	0x3e5a296e	0.21304867
29	0x3f717df9	0.94332844
30	0x3ed7e668	0.42167974
31	0x3f09138c	0.5354545
