TrainedModels/starry_night/scale_factor=0.750000,alpha=10/6/netD.pth (torch, 468997 bytes, 27 tensors)

head.conv.weight f4 [64, 3, 3, 3]
000000 35 dd 01 be 00 23 5c bd 5c ff c2 3c 21 1b a5 3b
       -0.1268204 -0.053744316 0.023803405 0.0050386344
000010 18 4f 87 3d 53 ed 07 3d e4 19 87 3d b9 5a 7e 3c
       0.06606883 0.033185314 0.06596735 0.01552456
000020 75 18 f8 3c f0 f2 99 bd 63 b3 4c bd 30 a8 ca 3b
       0.0302851 -0.0751704 -0.049975764 0.0061846003
000030 da 56 01 bc 75 b1 9f bc 1b 59 62 bd f2 b5 27 3d
       -0.007894242 -0.019493798 -0.05526076 0.040945
000040 ea 63 f8 bc 94 bc d7 bd 5a 1d d7 3d 94 3a b4 3d
       -0.03032108 -0.10534015 0.10503645 0.088002354
000050 a7 3e 78 3b 51 6a fd bc 84 91 21 ba e6 4c ac bc
       0.003787914 -0.030934485 -0.0006163346 -0.021032762
000060 40 1c b5 bc bd f3 10 bd e3 fe b4 3c a5 80 55 3d
       -0.022108197 -0.035388697 0.022094196 0.052124638
000070 82 cf 84 3c 3b 9c 67 bd 74 39 cf 3d 1e 4a c4 3c
       0.016212229 -0.056545477 0.1011838 0.023961123
000080 a7 46 47 bd 60 de db 3c 05 45 ea bb 17 ca 79 bd
       -0.048651364 0.026839435 -0.007149341 -0.060983744
000090 17 cf 17 3b 8d fe 3a 3d fd 4f 7d bc d7 39 30 3d
       0.0023164207 0.045652915 -0.015460965 0.04302391
0000a0 04 a7 ca 3a aa ba bb bc 87 05 2c 3a 0c 14 82 bc
       0.0015461151 -0.022916157 0.0006562103 -0.0158787
0000b0 e5 36 84 bd 35 e3 d9 bb 8b f4 9f 3d 07 52 ec 3d
       -0.06455783 -0.0066493996 0.07810315 0.11539083
0000c0 36 0a 3b 3c b5 c6 53 bc ca ee 3b bb 60 53 d6 bb
       0.011416009 -0.012925793 -0.0028676265 -0.006540701
0000d0 43 d8 d3 bc 35 8e af bd fe 95 8a 3d b8 58 32 3d
       -0.025859958 -0.08572046 0.0676689 0.04354164
0000e0 af 46 0f 3d 5f 35 6c 3d 2d 07 8d 3c 79 22 b8 3d
       0.03497952 0.057668086 0.017215336 0.0899095
0000f0 37 f2 6d 3c 57 a7 e4 3b 7f 0b 48 3d b7 c1 8a bd
       0.014523081 0.0069779563 0.04883909 -0.067752294
000100 22 45 34 bd 6d 9d af bd 58 17 1a bd 67 f0 1c bd
       -0.044011243 -0.085749485 -0.03761992 -0.038315203
000110 73 df 4a 3c 7f d8 50 3c 16 fd 83 3c bf 22 66 bc
       0.012382376 0.012746929 0.016111892 -0.01404637
000120 11 77 3e bd b8 7b 9c 3d 7d 2e 8e ba 47 06 e0 3d
       -0.04650027 0.07640785 -0.0010847595 0.10938697
000130 43 a4 3e 3c 25 da 5d 3d 09 91 0c 3d ac a1 72 bb
       0.011635843 0.054163117 0.034318004 -0.0037022633
000140 ac c4 b4 3d 30 80 03 bd b4 90 4e 3c 6b d4 95 3d
       0.08826575 -0.03210467 0.012607742 0.07315906
000150 ce a2 d7 3d d5 17 67 3c 1f d0 48 bc d0 b6 0c 3d
       0.105290994 0.014104803 -0.012256651 0.03435403
000160 d2 b4 1c bd 39 32 b5 bc ec bb 54 bd c2 c4 13 bd
       -0.03825838 -0.022118675 -0.05193703 -0.036076315
000170 92 61 cb 3a 7f 8f b4 3d d0 ce 49 bd 8b 8c 2b bd
       0.0015516749 0.08816432 -0.049269497 -0.04188208
000180 f5 15 9a 3c fb 4f 15 bd df 00 d7 3c a7 7b 20 3d
       0.018809298 -0.03645323 0.026245533 0.039180424
000190 62 1c 99 bc 85 f0 ae bd 77 04 b8 3d c7 02 80 3a
       -0.018690292 -0.08541969 0.089852266 0.0009766453
0001a0 0c 18 0a bd 5f 80 5f 3d 77 c5 4f bd dd 2b 0c bd
       -0.03371434 0.054565784 -0.050725427 -0.03422152
0001b0 23 71 1b 3d cf a4 b4 bc a4 de 78 3d f6 d3 79 3c
       0.037949692 -0.022051243 0.0607592 0.015248289
0001c0 d4 2c 3b 3d 88 8a cc bc 0e ee 59 bc b4 6e 82 bd
       0.04569705 -0.0249684 -0.013301386 -0.06368771
0001d0 be 7f 0f bd 4b 65 83 3d ce 9a fc bc 08 83 1d 3d
       -0.035033934 0.064158045 -0.030835535 0.03845504
0001e0 fe b8 15 3d d7 cf dd 3c 5c 43 de bc 05 11 9c 3c
       0.036553375 0.027076645 -0.027131729 0.019051084
0001f0 95 95 8b bc 33 b4 26 bd df e6 1d 3d 69 bf 0f be
       -0.0170391 -0.040699195 0.038550254 -0.14037861
000200 a2 96 16 bd b7 fe 64 bc 14 8c 86 3c 1f b3 90 bc
       -0.03676475 -0.013976744 0.016424216 -0.017663537
000210 b5 d9 57 3d 83 dc 8f 3d 48 22 c4 3d 56 cd 4c bd
       0.052697856 0.07024481 0.09576851 -0.05000051
000220 df c8 b2 3d e6 22 86 3d 75 23 b2 bd 66 78 6a 3d
       0.08729719 0.06549625 -0.08698169 0.057243727
000230 36 11 9c 3c 05 df 57 bd 9a dc 86 bd 21 9f 4f bd
       0.019051176 -0.052702922 -0.06585045 -0.050688867
000240 53 75 7f bd 9a 01 9c 3d 25 4f 2a 3d 75 14 09 bd
       -0.06236775 0.07617493 0.041579384 -0.033466775
000250 b6 b8 ab 3d ad e5 36 3d 9f f6 80 3c 3b 09 ed bc
       0.0838484 0.04465263 0.015742598 -0.028935065
000260 29 d2 41 3b 65 be c6 bc a8 55 27 3d 0a 89 44 3c
       0.0029574728 -0.024260709 0.040853173 0.011995563
000270 ab f6 cb 3b f9 5a 17 3d 5e 1c 3e bd eb 51 1c 3d
       0.0062244735 0.036951993 -0.04641377 0.03816406
000280 4f 70 c1 3a 25 3d 72 bd 7d 7c 27 be 5d b3 89 bd
       0.0014758202 -0.059140343 -0.16356082 -0.06723664
000290 52 a2 69 bc 0c 75 1b bd cf ea 33 bd 71 bf 45 bc
       -0.014259892 -0.03795342 -0.043925103 -0.012069569
0002a0 35 4f 65 3b 9e 33 0b 3a b3 c5 ce bc 7c 0e 70 3c
       0.0034989838 0.0005310121 -0.025240755 0.014651891
0002b0 cc a8 87 ba 54 5b 27 bc 2f 97 45 bc e3 d2 2a 3c
       -0.0010349988 -0.010214645 -0.012059971 0.010426256
0002c0 1d 20 c7 3c 31 e8 9c 3c cf cb 04 bc 44 29 74 3c
       0.024307305 0.019153686 -0.008105232 0.014902417
0002d0 ed 39 73 bc bb 54 31 bc aa 44 31 bd 2c be 4f bc
       -0.014845354 -0.010823424 -0.043278374 -0.012679618
0002e0 d2 07 6e 3d 56 3d ee 3d 52 2b 0d bd 2b 3d c6 3c
       0.058112927 0.11632793 -0.03446514 0.024199089
0002f0 c6 51 ae 3d ab 6c 8f 3d 07 64 1d 3c 3f ff 97 3d
       0.08511691 0.07003149 0.009606368 0.07421731
000300 99 fa ad 3d 97 7a 49 3c c9 26 1f 3d 64 ba 26 3c
       0.08495063 0.012297294 0.038855348 0.010176275
000310 5a fc 85 3b 1b 9c 04 bc 23 85 8d bc 8a 79 e5 bd
       0.0040889205 -0.008093859 -0.017275399 -0.11204822
000320 0a ad 2d 3d d8 94 cd bd 09 35 00 be 05 fe 97 bd
       0.04240135 -0.10038155 -0.12520231 -0.07421497
000330 99 5d d4 bd 0a 00 1d bd d1 0b 6b bc 58 55 32 3c
       -0.10369415 -0.038330115 -0.014346079 0.010884605
000340 ed 08 29 3d 76 99 b8 3c 37 b1 ad bc 03 d2 43 bc
       0.041268278 0.022534113 -0.021202667 -0.011951926
000350 9b 7a 97 3c 4f 44 4b 3d e3 f7 ec 3c 64 df 26 3c
       0.01849108 0.04962569 0.028926795 0.010185096
000360 72 f0 fb bd d0 90 9e bc 02 55 ef 3c ef d8 0b 3b
       -0.12301721 -0.019356161 0.02921534 0.002133902
000370 7d f4 9e bd b8 59 96 bb ab e4 32 3b 09 6e 27 bd
       -0.07761476 -0.004588332 0.0027296941 -0.040876422
000380 29 c2 d4 3b f5 d1 45 bd df 89 0b 3c a9 e5 18 3d
       0.0064928723 -0.048295934 0.008516758 0.037328396
000390 b8 20 2d 3d 2b d1 a2 bd 45 16 b5 bc a4 24 c6 3c
       0.04226753 -0.07950052 -0.022105346 0.024187393
0003a0 18 7a e7 bc db bb 9a 3c 79 60 3c bd 0e 02 1e bb
       -0.028256461 0.018888405 -0.04599044 -0.0024110111
0003b0 94 41 21 bc d5 cb b9 3d 15 52 a1 bc 44 b3 ea 3c
       -0.009842295 0.09072081 -0.01969246 0.028649934
0003c0 c8 4e 02 3e 17 4b 5e bc dc 13 b4 bc d3 b2 4f bc
       0.12725365 -0.0135677075 -0.021982126 -0.012676912
0003d0 22 d5 e8 3b bb 97 53 3d 4d 65 21 bd 23 8d a9 bd
       0.0071054855 0.051658373 -0.03940325 -0.08278873
0003e0 3f f3 7d bc 97 06 20 3d e0 ea 9a bc 3c 71 03 bd
       -0.015499889 0.039068785 -0.018910825 -0.03209041
0003f0 4e 7b cc 3a 0d 58 2e bd ee 0a d3 ba 25 9e bf 3c
       0.0015600713 -0.04256444 -0.001610128 0.023390839

head.conv.bias f4 [64]
000000 65 e0 dd 3d 77 3b d9 bd 09 7a 2e be 2e 1a 50 3d
       0.108338155 -0.10607045 -0.1703874 0.050806217
000010 a5 b7 3a 3e f7 26 f3 3d 52 94 3d 3e 77 93 b6 bd
       0.18234117 0.11872666 0.18513611 -0.089148454
000020 0b 39 cc 3c 45 55 ef 3d b9 5a ba 3d 36 87 f3 3d
       0.024929544 0.11686186 0.09099335 0.11891024
000030 c1 61 2d be 81 6e 77 3e b1 be cb 3d f3 32 71 3d
       -0.16931821 0.24163248 0.09948481 0.05888648
000040 61 1a 31 be e5 8b 06 3e 6c 90 73 3e 98 ad c3 3d
       -0.17295219 0.13139303 0.23785561 0.09554595
000050 51 53 2a be 21 dd 00 be c8 51 05 3e c7 45 fa 3d
       -0.16633345 -0.12584354 0.13019478 0.1222034
000060 57 b5 02 3e 45 ad 0a be c7 ef 05 3e c3 bf de bd
       0.12764488 -0.1354266 0.13079749 -0.108764194
000070 b0 ab f6 bd 6f f5 02 bd 8d a6 10 3e 49 26 d2 3c
       -0.120444655 -0.031972345 0.14126034 0.025653021
000080 92 3e 72 be 19 45 a5 bd 27 f8 06 3e 46 e7 d9 bd
       -0.23656681 -0.0806982 0.131806 -0.10639815
000090 b5 ac c6 bd 57 ab 39 3e 21 7a 85 bd 04 c9 01 be
       -0.0970091 0.18131767 -0.06517435 -0.12674338
0000a0 85 1e fd bc a3 ec 80 bc b5 29 0d be e0 03 48 bd
       -0.030898342 -0.015737837 -0.13785441 -0.04883182
0000b0 f7 0b 1b be 38 15 bc bc 47 ce f6 bc d5 43 5d 3d
       -0.15141283 -0.022959337 -0.030127658 0.054019768
0000c0 bd 67 1f 3c 96 11 03 3e aa 34 c2 3d fd 56 f1 3d
       0.009729323 0.12799677 0.09482701 0.1178417
0000d0 2f 5f 41 3e 0c 3e 27 3e 65 52 24 3c 6e 0e 1f 3c
       0.18883966 0.16332263 0.01002941 0.00970803
0000e0 a5 49 0e 3b af 77 c2 bd 70 cf 87 3d ab 24 76 3d
       0.0021711376 -0.09495484 0.066313624 0.060093563
0000f0 48 bf a8 bd 8a 20 c7 bd b9 f7 44 bd fb 57 06 be
       -0.08239609 -0.09723003 -0.04808781 -0.131195

head.norm.weight f4 [64]
000000 5c 6c 69 3f fc 72 88 3f 1e 29 53 3f 6f b9 8b 3f
       0.9118097 1.066009 0.82484615 1.0915965
000010 23 7b 81 3f 49 dd 88 3f a9 2a 8d 3f fe 0b 68 3f
       1.0115703 1.0692531 1.1028644 0.906433
000020 f7 f5 8b 3f 5d c9 7e 3f c3 c7 56 3f a4 c3 84 3f
       1.0934438 0.99526006 0.8389856 1.0372205
000030 a2 7b 6b 3f 5e d1 68 3f 4b 16 69 3f 32 87 85 3f
       0.91985524 0.9094447 0.9104964 1.0431883
000040 6d 34 70 3f da 4a 88 3f 0b aa 80 3f 0c 0e 73 3f
       0.93829995 1.0647843 1.0051893 0.9494331
000050 ca 18 5e 3f 7f 53 3b 3f 0d 14 99 3f ad 60 8e 3f
       0.86756575 0.7317428 1.1959244 1.1123253
000060 f7 54 54 3f 67 0f 7f 3f 33 1e 81 3f 71 42 5c 3f
       0.82942146 0.9963288 1.0087341 0.8603888
000070 b4 a5 5d 3f b6 95 89 3f 80 60 59 3f 7b a6 79 3f
       0.8658097 1.0748813 0.8491287 0.97519654
000080 3d 28 8f 3f 91 34 63 3f 18 7c 7b 3f af 18 65 3f
       1.1184155 0.88752085 0.9823623 0.8949079
000090 3d 1b 4b 3f b1 e6 76 3f ba 21 92 3f 1f cf 87 3f
       0.7933844 0.9644576 1.1416543 1.0610083
0000a0 42 88 57 3f 66 2b 81 3f 54 2b 89 3f d7 ae 86 3f
       0.8419229 1.0091369 1.0716348 1.0522107
0000b0 15 0b 86 3f db 74 83 3f 55 17 4f 3f 11 ca 87 3f
       1.0472132 1.0270036 0.80894977 1.0608541
0000c0 78 08 5d 3f c8 0f 53 3f 1c f1 7e 3f f2 54 6c 3f
       0.8634105 0.82445955 0.99586654 0.92317116
0000d0 9d b0 8d 3f d3 ff 73 3f 59 e4 63 3f 7b ef 81 3f
       1.1069523 0.9531223 0.89020306 1.0151209
0000e0 55 11 87 3f 40 0d 76 3f 8f 84 60 3f 63 6e 51 3f
       1.0552164 0.9611397 0.8770227 0.8180906
0000f0 bf 48 82 3f 92 0c 84 3f 14 3f 42 3f bd 60 92 3f
       1.017845 1.0316336 0.758775 1.1435772

head.norm.bias f4 [64]
000000 4d 98 86 3e e0 59 04 3e 89 a9 ad bd f9 e3 1d 3f
       0.2628807 0.1292491 -0.08479602 0.61675984
000010 04 78 88 3e 8a 97 1a 3e a5 da 1d 3d 2d 95 49 3e
       0.26654065 0.1509687 0.038538594 0.19685812
000020 a0 4f a3 3e ec be 86 3d 71 47 42 be be a4 15 3e
       0.31896687 0.06579384 -0.18972565 0.14613625
000030 4e 77 ff 3d d4 34 54 bc fb 9f c6 bc 2f d4 03 3d
       0.124739274 -0.012952048 -0.024246207 0.032184776
000040 98 7d b9 3d 02 84 4f 3e 6d 8b 19 3d 04 61 5c 3d
       0.09057158 0.202652 0.037486482 0.05380346
000050 f2 cc e8 3e 11 c2 97 bd 5b 90 e6 3e e3 05 20 3f
       0.4546886 -0.07410062 0.4503201 0.6250898
000060 e0 2c 07 3d fb 0a e4 3d d3 32 37 3d 9f 23 d7 3d
       0.03300178 0.11134907 0.044726204 0.10504841
000070 e0 e8 e7 bc 10 44 8e 3d 8b b2 ce 3e 64 12 21 3d
       -0.028309286 0.06946576 0.40370592 0.03932418
000080 43 84 06 3f 87 ab 50 3c 09 88 81 bd f5 27 4e 3f
       0.52545565 0.012736208 -0.06324775 0.8052972
000090 5d e6 a1 bc 97 63 e7 3c 6f a6 d2 3d 00 09 19 3e
       -0.019763166 0.02824573 0.10285651 0.1494484
0000a0 9c 20 9d bc c9 34 fa bc cf dd a3 3d 8d 71 59 3e
       -0.019180588 -0.030542748 0.08001291 0.21234722
0000b0 f2 17 1a bc cb 8c b9 3e 1e 0d b0 bc 4e a7 0c 3f
       -0.009405123 0.3624023 -0.02149063 0.54942787
0000c0 97 ad a3 bd 21 19 04 3e ec ea ca 3d c2 46 cb bc
       -0.07992094 0.12900211 0.09908089 -0.024814013
0000d0 4f 23 f1 3e 42 2b 05 3e 05 9e 91 3e 4b 6f 17 3e
       0.4709725 0.13004783 0.28440872 0.14788549
0000e0 db ff 2e 3e 5a 82 08 3d 9f 33 57 3e b3 ab ab bd
       0.17089789 0.033327438 0.21015786 -0.083823584
0000f0 fa e1 04 3f 9b 2f ed 3e b6 0f 89 bd 13 25 ac 3e
       0.5190731 0.46325383 -0.0669245 0.33622035

head.norm.running_mean f4 [64]
000000 c8 e5 1e 3e 3d 99 00 be c8 e1 9c be 02 0b ba 3c
       0.15517342 -0.12558456 -0.30641007 0.022710327
000010 82 da 1a 3e 0e d1 e1 3d 5f 1d 98 3e 9d 13 9c bd
       0.15122417 0.11026202 0.29709908 -0.076209284
000020 2f 80 e9 3d cb ef a3 3d 9e 94 f5 bc 06 8a d6 3d
       0.11401402 0.08004721 -0.029978093 0.10475545
000030 34 70 15 be b3 a4 3b 3e 47 11 1a 3c ac 8a 3f 3e
       -0.14593583 0.18324547 0.009403533 0.18705243
000040 27 82 1a be ef 98 7b 3e e8 27 5d 3e a6 3b ad 3d
       -0.15088712 0.24570058 0.21597254 0.08458643
000050 43 a3 25 be 35 a8 4c be 89 49 17 3e 82 60 47 3d
       -0.1617556 -0.19986041 0.14774145 0.04867602
000060 12 c8 fa 3d 86 1b 77 be f2 d4 ab 3e c1 f1 ae bd
       0.12245192 -0.24131593 0.33560902 -0.08542205
000070 f2 c7 2a be 81 24 7e bd 54 59 5c 3e a0 c4 04 3d
       -0.16677836 -0.06204653 0.21518451 0.03241408
000080 b7 89 8c be 93 cb c2 bd cd 9f 23 3e 32 1e 04 be
       -0.27448818 -0.09511485 0.15978928 -0.12902144
000090 33 75 35 be 0b 71 b3 3e 4b 05 b7 3c c0 5e 0a 3c
       -0.17720489 0.35047182 0.022341391 0.008445442
0000a0 83 5c ff bd 48 e3 3a 3e b1 71 2e bb 8d 69 45 3c
       -0.12468817 0.18250763 -0.0026618058 0.012049091
0000b0 89 ad 3f bd 0b 24 8d 3c 9c 65 fd bd 70 10 84 3d
       -0.046796355 0.0172291 -0.12372896 0.06448448
0000c0 87 d5 ab bc 29 7a 81 3d dd d0 08 3e 59 ce 9d 3e
       -0.020975841 0.06322128 0.13360925 0.30821493
0000d0 74 ef 2d 3e 6b e4 f6 3d d8 21 08 bd 6c 95 73 3d
       0.16985875 0.12055286 -0.0332354 0.05946867
0000e0 6d 25 85 3d fb 17 18 be da 53 04 3d b7 d7 eb bd
       0.06501279 -0.14852898 0.03230653 -0.11515754
0000f0 4b 03 86 bd 4f ae 0b be c1 bc e8 bd 02 88 04 be
       -0.06543597 -0.13640712 -0.11364127 -0.12942508

head.norm.running_var f4 [64]
000000 78 89 7c 3b 9f eb 74 3b 45 57 97 3c d2 a1 1f 3b
       0.0038534086 0.0037371886 0.01847423 0.0024357927
000010 cc 3a 52 3b 8d 1b 62 3b b2 3b f9 3b 51 4f 7c 3b
       0.0032078503 0.0034501285 0.007605993 0.0038499425
000020 ae 65 b6 3b 65 9f b1 3b 5f 6a 22 3d 45 30 95 3b
       0.0055663204 0.0054206126 0.039652225 0.0045528733
000030 31 a8 3f 3b e6 ff c3 3b b4 2a 2f 3c 32 28 05 3d
       0.0029244537 0.005981433 0.010691334 0.032509036
000040 ac 74 d9 3b 74 58 93 3b 74 3c 8e 3b ce 79 88 3b
       0.006636223 0.0044966284 0.0043407027 0.004164911
000050 8b 98 e0 3a 18 4e 63 3c 44 96 a5 3b 37 bb 34 3b
       0.0017135305 0.0138735995 0.0050533134 0.002757741
000060 2c d9 bf 3b 1f 11 1e 3c 97 b0 b6 3c 71 7b 87 3b
       0.0058547463 0.009647637 0.022301001 0.0041345884
000070 9f 44 b8 3d c9 7f 6e 3b 03 04 14 3b 29 19 0f 3c
       0.089974634 0.0036392084 0.00225854 0.008734026
000080 d8 8c c6 3b b5 f2 ee 3b b4 5b 3c 3c c9 04 97 3a
       0.0060592704 0.0072921165 0.011496473 0.0011521812
000090 ce 63 48 3c fe 69 ab 3c 9b 47 02 3c b6 9c 11 3c
       0.012230827 0.020924564 0.007951642 0.00888746
0000a0 70 0a 53 3d 6c f4 7c 3c fb 9b 42 3c d8 ac a2 3b
       0.051523626 0.015439134 0.011878009 0.0049644522
0000b0 f5 d8 fc 3b 83 3e c0 3a e4 82 32 3c 61 9f 7f 3b
       0.007716293 0.0014667067 0.010895465 0.003900491
0000c0 09 11 42 3b ad 05 75 3b 5c e6 71 3b c2 f4 b6 3c
       0.0029612205 0.0037387416 0.0036910987 0.022333506
0000d0 0d f3 8a 3b 0d 72 b4 3b 12 fb 0e 3b 8a ce 3a 3c
       0.0042403997 0.00550676 0.002181713 0.011401782
0000e0 0d 91 dc 3b e9 b1 13 3c 63 62 c5 3b 50 6d 9a 3c
       0.0067311586 0.009014585 0.0060236915 0.018850952
0000f0 7e 1a 61 3b b5 9f 24 3b 01 14 52 3c 79 77 4c 3b
       0.0034348066 0.0025119607 0.012822152 0.003119914

channel.fc1.weight f4 [4, 64, 1, 1]
000000 2c 14 06 3d cf c3 0f bd ee 69 9d bb de 16 34 bc
       0.03273408 -0.035098847 -0.0048038876 -0.01099178
000010 6a 30 bb bc a8 da 83 bc 6d d1 15 bb 20 5e 98 3b
       -0.022850234 -0.016095474 -0.0022860423 0.0046498924
000020 37 fd d1 bc 90 8d 8a 3c eb d8 bf 3c 6f 07 83 bc
       -0.025633438 0.016913205 0.023418864 -0.015994756
000030 27 fc 79 bc 38 b4 2d bd d7 0a 54 ba b3 6c d9 bc
       -0.015257872 -0.042408198 -0.00080887735 -0.02654109
000040 ee 10 82 bc 2f ba 37 3b 7b a1 08 3d 84 15 44 3a
       -0.015877213 0.0028034558 0.033357125 0.0007480013
000050 dc 4c bf bc 3d d9 12 bc 22 2c d6 3b 01 dc 3d bb
       -0.02335208 -0.008962926 0.0065360228 -0.0028970244
000060 22 0e 1d ba fd 02 f3 bb 21 d8 45 bd 82 da a6 3c
       -0.00059911807 -0.0074161277 -0.04830182 0.020367865
000070 07 7d 88 bb fe ee be 3b 3e 5c 6e bb a4 e1 13 3b
       -0.004165295 0.00582683 -0.0036370899 0.0022564912
000080 17 1f 0f 3d 7f 1c 81 bc d6 45 1d 3b 9a 1f 97 bc
       0.03494176 -0.015760658 0.0023997924 -0.018447686
000090 5d f2 74 3c 17 a5 d4 bc 44 44 de bb 90 17 ff 3c
       0.014950362 -0.025957627 -0.0067830402 0.031139165
0000a0 9c 30 23 bc d8 26 8d 3c 3e 68 48 bc 52 41 0e 3c
       -0.00996032 0.017230436 -0.0122318845 0.008682566
0000b0 9e 29 ce b9 ae 32 98 3b af 13 ea bc a4 a8 40 bc
       -0.0003932239 0.0046447134 -0.028573839 -0.011758957
0000c0 eb 47 81 bc 2f 64 98 bb c9 4b 2d bd 77 00 23 bb
       -0.015781363 -0.0046506147 -0.042308602 -0.0024872103
0000d0 10 12 1e bc 04 db 29 bd f2 33 87 3c 37 86 10 3d
       -0.009647861 -0.041468635 0.016504262 0.035284247
0000e0 10 8d 58 3b ef 8f 95 3c d3 d9 0e 3d 8a 5f 2f bc
       0.0033043064 0.01825711 0.034875702 -0.010703931
0000f0 42 55 88 ba 09 1e 0e 3d 29 82 02 bd 84 4b 25 3c
       -0.0010401385 0.034696613 -0.03186241 0.010088805
000100 f6 60 93 3c 06 c3 34 bd b9 e8 c2 bb 6a 4d 6c 3c
       0.01799057 -0.0441313 -0.005948153 0.014422754
000110 35 5a bc bc 67 c3 43 ba 2a dc c8 bc d6 f6 03 bd
       -0.022992233 -0.0007467777 -0.024519045 -0.032217823
000120 d7 33 46 3c ab 82 93 3c af d2 07 bc 89 a6 7a 3c
       0.0120973205 0.018006643 -0.008289977 0.015298494
000130 f8 41 2f bc 80 8d ec 3b 8b 94 80 3c b3 d6 8b bc
       -0.0106968805 0.0072190166 0.01569583 -0.01707015
000140 f0 43 a0 bc ab 4c 7a bc 10 7a 11 3c d4 5b 9f 3b
       -0.019563645 -0.015277068 0.0088792 0.0048632417
000150 de e9 f6 3c 38 40 7c 3c 27 5b 26 3c e5 1c b2 ba
       0.030140813 0.01539617 0.010153568 -0.0013588934
000160 5e ce e9 bc 7d 81 58 3c 0b 28 33 bc 67 ee f2 3a
       -0.028540786 0.013214466 -0.01093484 0.0018534184
000170 bd f3 39 bc 80 2e 26 3d 8c c9 64 bc c4 98 8f 3c
       -0.011349616 0.04057169 -0.013964068 0.017528899
000180 f2 04 bd bc 5c 0d fb bc 42 06 8f bb e6 ad 9c 3b
       -0.023073647 -0.030646019 -0.0043647597 0.0047814725
000190 eb 76 94 3a d8 d0 94 bb c4 4a ab bc 2d 78 17 ba
       0.0011326944 -0.0045414977 -0.020909674 -0.00057781005
0001a0 96 48 af bb 93 8a 45 3d ca 53 9e 3c 17 56 a6 3b
       -0.005349229 0.048227858 0.019327063 0.0050761807
0001b0 9b e8 cb bc ae 41 16 3c 50 4f 5e 3c 69 81 42 bb
       -0.024891188 0.009170933 0.013568714 -0.0029679185
0001c0 5b f9 8a 3c 3f a8 81 bc de bb bb ba bc 93 30 bc
       0.016964605 -0.015827296 -0.0014322957 -0.01077741
0001d0 ff 08 8d bc 05 07 3a 3b ee 7f ae 3b 04 f6 c6 bc
       -0.017216204 0.0028385532 0.005325309 -0.024287231
0001e0 4a 4e 3f bb fd e6 7a 3b 99 ad 39 bc b0 9a 83 bb
       -0.002919095 0.0038284652 -0.011332893 -0.004016243
0001f0 b5 cd ca bc a8 b3 18 3b c1 2f a0 bc 55 c2 f8 3c
       -0.024756292 0.0023300443 -0.01955402 0.030366102
000200 a6 f6 72 3c e8 f8 54 bc 91 f4 8e bb 44 a7 ce 3b
       0.014829313 -0.012998797 -0.0043626507 0.0063065607
000210 54 e9 1b bc 1a 10 a4 bb 15 39 27 3c 09 3c 5e 3d
       -0.009516079 -0.0050068023 0.0102064805 0.054256473
000220 68 d9 81 ba 01 a8 f7 bc 07 e4 46 bc 32 4e 54 bb
       -0.0009906711 -0.030231478 -0.012139327 -0.003239524
000230 3e 89 b0 3c 4c 37 f7 3c bf bd 46 3a 2c e1 f5 bc
       0.021549817 0.030177735 0.0007581375 -0.030014597
000240 94 16 b6 3c 22 fb 03 3b 8b 2c d3 3b 60 c3 59 3d
       0.022227563 0.00201387 0.006444519 0.05316484
000250 e6 d9 e6 bb 9d 25 36 bc 90 92 15 3b c8 28 14 bd
       -0.0070450185 -0.011117366 0.0022822954 -0.036171705
000260 4e c2 88 bb ed 4d 32 bc 4b e6 8b 3c 54 bf 2d bc
       -0.0041735535 -0.010882837 0.017077586 -0.010604698
000270 23 7b 46 3b 7b 77 aa 3c 4f 3b 92 bc 8c 7f 4d bc
       0.0030285798 0.020808926 -0.017850546 -0.012542617
000280 1f 4e 30 bd 51 d9 76 bc 59 39 83 3b 42 8a e7 3b
       -0.043043252 -0.015066461 0.004004639 0.007066042
000290 87 b2 17 bd 1a cc ca bc 58 c6 1e 3c 6b 95 c3 bb
       -0.03703549 -0.024755526 0.0096908435 -0.0059687397
0002a0 78 b5 52 3b 6d 05 8d bc 2c bf 90 bb 52 37 2d bc
       0.003215162 -0.017214501 -0.0044173207 -0.010572271
0002b0 05 8f b3 bb e5 b9 bf 3c 69 2a 92 3b 2a 5a b2 bc
       -0.0054796957 0.023404071 0.004460622 -0.02177151
0002c0 15 72 48 3a 28 5c c4 ba 08 85 21 3c 7f 6a 93 bc
       0.0007646394 -0.0014981078 0.009858377 -0.017995117
0002d0 59 7d 91 3b 6c 0e b6 ba d6 f3 00 bc c1 6f d5 ba
       0.0044399914 -0.0013889796 -0.007870635 -0.0016283916
0002e0 18 1c 27 bc e2 34 34 bd 50 3e 72 bc ec d0 64 3c
       -0.010199569 -0.043995745 -0.014785364 0.0139658265
0002f0 cb 7b cd 3c 60 c1 15 bd 6d c5 d1 bc b9 81 9e 3c
       0.025083443 -0.03656137 -0.025606835 0.019348966
000300 07 af 68 bc 09 8e 41 3c 9d db 0f 3d 00 90 d9 3c
       -0.014201886 0.011813649 0.03512155 0.026557922
000310 d9 d8 01 bc 77 1d 4f bc 78 c6 46 3d 43 7b 22 bd
       -0.007925236 -0.012641302 0.04852912 -0.039668333
000320 2b 3e 9a 3a 34 3c 51 bc 90 fe 23 3c 6e e4 33 bc
       0.0011767795 -0.012770701 0.010009423 -0.010979755
000330 0d 48 97 3c 90 f1 00 bd 80 6e 0a bb e9 c6 e5 bc
       0.018466974 -0.031480372 -0.0021122992 -0.02804895
000340 1c cb f5 3c d7 f4 08 bd e5 d7 48 3c b6 1d 1e 3c
       0.030004077 -0.033436622 0.0122585045 0.009650638
000350 5b c2 01 3c 62 ad 04 bd 0d 01 81 bc 2e f0 1d bd
       0.007919873 -0.032391913 -0.015747571 -0.03855913
000360 4a e1 a5 bb bd 3d 0a bd 15 08 d6 3b 0a b3 5f 3d
       -0.005062257 -0.033750284 0.006531725 0.054614104
000370 24 b3 ad bc 01 f5 8f 3b fb bf 57 3c 1e a7 71 3c
       -0.021203585 0.0043932204 0.01316833 0.0147493165
000380 58 a8 14 bd 4f 9a c5 3c 3d 10 04 b9 09 f9 0e bd
       -0.036293358 0.024121432 -0.0001259455 -0.034905467
000390 b1 bb 1b bd 8e d5 4e 3c 22 37 19 3d 19 21 38 bc
       -0.038020793 0.012624158 0.037406094 -0.01123836
0003a0 d4 ae 76 3b 0a 40 4c bc 26 4a 63 bc e6 89 44 3c
       0.0037640827 -0.01246644 -0.013872659 0.011995768
0003b0 38 fc 3e bc 54 f2 cb bc c3 e5 7f bb 46 f4 e6 bb
       -0.011656813 -0.024895824 -0.003904686 -0.0070481626
0003c0 98 39 29 3c be a3 25 3d 25 4e d0 bc 25 16 1d bc
       0.010328673 0.04043936 -0.025427887 -0.009587799
0003d0 40 31 27 ba 84 ee 3a 3c 03 20 6d bb 64 1f 00 3a
       -0.0006377883 0.011409406 -0.003618241 0.000488749
0003e0 90 a6 b7 3c 83 dc f7 bc f9 9b a1 bc f4 61 02 bc
       0.02241829 -0.030256515 -0.019727694 -0.007957924
0003f0 94 c2 95 bb d4 f7 85 bd d5 f3 08 bc a5 19 bc bb
       -0.0045703147 -0.0654141 -0.008358915 -0.0057403618

channel.fc2.weight f4 [64, 4, 1, 1]
000000 1c 90 81 3c b8 d4 6f bc a1 3e f7 bc 4f 92 96 3c
       0.015815787 -0.014638118 -0.030181231 0.018380312
000010 6d 80 84 3d b5 74 f1 3c 97 ab 81 3a 17 69 10 3d
       0.06469808 0.029474596 0.0009893057 0.03525647
000020 ec 4c e1 ba dc 16 91 bb 69 5e b9 bc 74 95 ec bc
       -0.0017189062 -0.004427774 -0.022628026 -0.028879859
000030 04 fe a6 3c 6a 6f 32 3a 6a 39 aa ba 6e 4f e7 3c
       0.020384796 0.0006806763 -0.0012987081 0.028236117
000040 2f 8d 07 3b 78 22 6f 3c 5a cd 7d bc 97 8d b8 3c
       0.0020683517 0.01459562 -0.015490854 0.022528453
000050 20 ae d1 bb 20 20 14 3c 8c 4d 7a 3c fd 5c e6 3c
       -0.006398931 0.009040862 0.015277278 0.028120512
000060 77 c4 f4 ba aa ce 45 bc 5d 37 a5 3c e4 7d 1f bc
       -0.0018674274 -0.012073198 0.020168 -0.0097346045
000070 eb 36 ef 3a 89 53 4b 3c 33 23 9f bc 20 d9 8b bc
       0.001825062 0.012410053 -0.019425964 -0.017071307
000080 4e dc e5 3c fc da 79 bb 02 b2 12 bc bb 35 02 3d
       0.028059151 -0.003812491 -0.008953573 0.031789523
000090 eb 90 80 bc c4 52 52 bb bc 5b ca 3c 26 36 bb bc
       -0.015694102 -0.003209279 0.024701945 -0.022852968
0000a0 67 0f 01 bc 27 de e8 bb 6b f5 e3 3a 5b 14 0e 3d
       -0.007877207 -0.0071065607 0.0017391866 0.03468738
0000b0 7b 1e 68 bb c0 12 d0 3c 3a c4 2c bc e9 b3 02 3d
       -0.0035418558 0.025399566 -0.010544831 0.031909857
0000c0 8d b2 c3 bc cc 07 ea bb 3d 7b 6b 3b ac 64 5d 3c
       -0.02388885 -0.0071420427 0.003593161 0.013512772
0000d0 23 94 8c 3a 1b db 62 bd cb c3 a6 3c c4 e1 2e bc
       0.00107253 -0.055384737 0.020357033 -0.010673944
0000e0 59 ea 81 3c f6 34 2b 3b 3e 19 7c 3c 40 dd 81 bc
       0.015858816 0.0026124096 0.015386878 -0.01585257
0000f0 dd 64 f5 3b e2 fb 50 bb c9 a0 1d bc 01 fd 73 bc
       0.0074888305 -0.0031888415 -0.009620854 -0.014891864
000100 9d c7 33 3b d4 5b 78 3a 7a 72 be bc e4 dd c9 3b
       0.0027432211 0.00094741327 -0.023247946 0.0061604846
000110 49 e7 c5 3b 18 73 d4 3c 3b cf 31 bd 9c a5 24 bc
       0.006039534 0.025933787 -0.04341052 -0.01004925
000120 c7 94 75 bc 44 a7 a0 bc eb d2 00 bd ae 50 a5 bc
       -0.014989085 -0.019611008 -0.031451147 -0.020180073
000130 2d 8a b5 bc e5 0a 10 3c 62 ff 93 bc 74 0b a0 3c
       -0.022160614 0.00879166 -0.018066112 0.019536711
000140 99 1d 8e bc ed 6b 29 bd d9 ad 3b bb 05 e5 73 3c
       -0.017348098 -0.04136269 -0.0028637557 0.0148861455
000150 4b 69 37 3c f9 8d 4a 3c 0b 79 e1 bc 04 e2 dc bb
       0.011194537 0.0123629505 -0.027523538 -0.0067408103
000160 14 d5 b5 bc 1e d8 23 3d f3 9d 77 3c b3 50 37 3c
       -0.02219633 0.040001027 0.015113342 0.011188674
000170 02 29 c8 3b be ce fa bb 00 22 d9 3c 6d d7 36 3c
       0.006108404 -0.00765404 0.02650547 0.01115976
000180 50 f7 38 bc 9a 21 1b 3c a0 88 2c bc 8d 2c 88 3c
       -0.011289433 0.00946846 -0.010530621 0.016622806
000190 ce 5b 3d 3c f4 b5 1d bc 50 fa e8 3a d6 5e 1b bd
       0.0115575325 -0.009625901 0.0017774794 -0.03793224
0001a0 c1 b4 4b 3c 3d 3c 60 3b 90 0e ee 39 b8 af 83 3c
       0.012433232 0.0034215592 0.00045405747 0.016075
0001b0 73 84 b9 3c 31 95 13 3b 22 7b 19 3c 22 1c 89 bc
       0.022646165 0.0022519345 0.009367736 -0.016737048
0001c0 fd 8f 04 3d 24 9a 54 3b bd 59 84 3c b2 f1 a7 bc
       0.03236388 0.0032440508 0.016156072 -0.020500991
0001d0 8e 25 4b bc 20 46 88 3c 0f bf d4 3b d2 c8 84 bc
       -0.01239909 0.016635 0.0064925025 -0.01620904
0001e0 5b 00 81 3c a7 99 92 bb 0f 95 58 bb 45 6b d4 bc
       0.01574724 -0.004473883 -0.003304783 -0.025930056
0001f0 a2 49 93 3c 7a 3a 1e 3d ae a0 63 bb fe b8 53 3a
       0.017979447 0.038629986 -0.0034733224 0.0008076577
000200 9a c2 99 bc fb fd 87 3a 86 b2 0b bd b7 d5 1f b9
       -0.018769551 0.0010375375 -0.0341058 -0.00015243037
000210 59 b1 fa bb 27 8a 2c 3c 97 80 03 3c c7 72 e6 3b
       -0.007650536 0.010530985 0.008026264 0.0070327255
000220 b8 1d c5 bc 6a 47 27 3d b4 24 05 3c 20 0a 30 bc
       -0.024062023 0.04083959 0.0081264265 -0.0107446015
000230 50 3c ac bc e7 cd 38 bc fb f5 91 bc ed 2d 8c bb
       -0.021024853 -0.01127956 -0.017817488 -0.0042779357
000240 4d c5 80 bc ac 03 4d bc ab 35 01 3c b7 bd 69 3b
       -0.01571908 -0.0125130825 0.007886331 0.0035666057
000250 47 7a c3 bc 81 b7 eb 3c 10 ff 68 bc bb 07 aa 3c
       -0.023862017 0.028774025 -0.014220968 0.02075564
000260 bb 36 dc 3b 60 35 91 bc a3 ed ef 3a ed 8d 84 bc
       0.0067203916 -0.017725646 0.0018305074 -0.016180957
000270 15 78 33 3c 73 f6 a3 3c df 69 a0 ba 59 68 9f 3c
       0.010953923 0.020014977 -0.0012238583 0.019458937
000280 fe 27 a1 3a 60 7b 39 3c e7 1b 0f bc eb 4c 7b bc
       0.0012295244 0.011320919 -0.00873468 -0.015338163
000290 2c be 60 3c 70 e8 6e bc 32 eb ca 3c 81 c9 d8 bc
       0.0137172155 -0.014581785 0.024770353 -0.026463272
0002a0 b9 cd 1a 3d 42 77 91 3c 3d f0 6e bc 1b 29 3c 3c
       0.03779385 0.017757062 -0.014583644 0.01148441
0002b0 6e 83 0a 3c a4 f7 e0 3c 1f bc e2 3c 44 df 05 bc
       0.008454187 0.027461834 0.027677594 -0.008170906
0002c0 2b f2 a0 3c 16 97 ab 3c fb 71 5c 3b 87 6a 9e 3c
       0.019646725 0.020946067 0.0033637274 0.019337906
0002d0 4b 20 6d bc 78 68 c1 3c cb a9 45 bc c9 99 35 3c
       -0.014473031 0.023609385 -0.012064408 0.0110840285
0002e0 d7 60 af 3b 18 e6 de 3c 62 cb 00 bd 73 4d 17 bc
       0.0053521204 0.027209327 -0.03144396 -0.009234774
0002f0 97 3c 8a bc d0 b9 d9 3b 8a 14 99 bc 30 e9 fc bc
       -0.016874595 0.006644465 -0.018686552 -0.030872911
000300 04 5a 94 3c 24 43 3c 3a b4 d5 df 3a e5 a0 4c 3c
       0.018109329 0.00071816356 0.0017077238 0.012489532
000310 55 5b 1d bc 90 a6 b5 bb e8 2a 1f bd fa a0 07 3c
       -0.009604295 -0.0055435374 -0.038859278 0.008278126
000320 ee 4f b3 3b 01 b9 ee bc 78 c2 df bc b4 0a 0f 3c
       0.005472175 -0.029140951 -0.02731441 0.008730579
000330 a6 de d7 3c dc 61 7e 3b e5 b3 95 3c fb 82 19 3c
       0.026351284 0.0038815653 0.018274257 0.009369607
000340 45 6c 64 ba 03 03 99 3c cb a3 4e bb a7 fc 08 bd
       -0.0008713643 0.018678194 -0.0031530734 -0.033444073
000350 af a5 ce 3c cd 01 24 3a 28 22 cb bc 80 9c 07 3d
       0.025225488 0.0006256372 -0.02479656 0.033108234
000360 67 71 85 bb e6 83 d6 bb 37 31 56 3a 6a c7 eb bb
       -0.0040723565 -0.0065464852 0.0008170786 -0.007195403
000370 39 d5 e7 3c 2d 98 8e bc ec 20 33 bc 50 f2 5c 3b
       0.028299915 -0.017406547 -0.010933142 0.0033713765
000380 a6 f2 54 bb 1e ab 50 ba 41 54 b8 bc 75 75 f9 bc
       -0.0032493263 -0.0007960069 -0.022501113 -0.030451516
000390 c2 70 7c 3b b2 30 df 3c 40 25 53 bb 87 e4 36 bd
       0.0038519357 0.0272449 -0.0032218248 -0.044651534
0003a0 f8 17 4a 3c d9 99 fe bb b0 de 31 bc 6c c5 96 3c
       0.012334816 -0.007769805 -0.0108563155 0.018404685
0003b0 80 8c e8 bc 9f 60 07 3b 02 68 b8 3c fd 08 98 bc
       -0.028387308 0.0020656956 0.022510532 -0.018558973
0003c0 af bf fc 3b 50 80 4c ba 85 07 33 3c c4 25 38 3d
       0.00771328 -0.00078011025 0.010927086 0.04495789
0003d0 f2 77 9a 38 01 19 8d 3b 05 af 63 3c 8f bd 01 3d
       7.365634e-05 0.004305959 0.013896708 0.031674918
0003e0 63 ec 18 3c d0 fa c4 bc 95 2c 00 bd f7 c8 21 bd
       0.009333703 -0.024045378 -0.031292517 -0.039498296
0003f0 29 be 0e 3d 36 47 8d bb d7 e8 47 bc 98 d5 9a 3c
       0.03484932 -0.0043114675 -0.012201509 0.018900678

body.block1.conv.weight f4 [64, 64, 3, 3]
000000 40 61 49 3d 41 ee c8 bc 77 d9 9c bd 52 58 09 3e
       0.04916501 -0.02452767 -0.076586656 0.13412598
000010 b6 77 a0 3c 4d 20 e1 bc f8 bd a4 3a 20 e6 c0 bc
       0.019588333 -0.027481223 0.0012568822 -0.023547232
000020 2a fd 3c bb e4 ac 33 bd 32 55 6c bd 22 2a 14 3d
       -0.002883742 -0.043866053 -0.057698436 0.036172993
000030 bc fb 84 bb de de 02 bd b4 26 97 3c dc aa 4e bd
       -0.0040583294 -0.031950824 0.018451072 -0.050455913
000040 a8 fb 37 bb e0 ed af bc 26 42 51 3c 7c c7 db 3c
       -0.0028073583 -0.021475732 0.012772119 0.02682852
000050 b3 ef c6 3d 0e 4e dc 3c f8 74 9a 3d 4f d0 d0 3b
       0.09713688 0.026892688 0.07541841 0.0063724886
000060 06 cf 1a bd 8e 8d 23 3c c0 9a af 3c 9b 3c 92 bd
       -0.03779509 0.00998248 0.021436095 -0.07140466
000070 ed 4a db bd 87 ee 26 3e 42 3d 1e 3c cf 9e 25 3c
       -0.1070765 0.16301928 0.00965816 0.010108664
000080 77 75 6b 3b f1 66 e7 3b 3d cf b7 ba 69 a8 ba 3c
       0.0035928169 0.007061832 -0.0014023554 0.022785382
000090 97 66 28 bd dc 69 a9 3c fd 4b 70 3d 5e 65 77 3d
       -0.041113462 0.02068036 0.058666218 0.060399406
0000a0 67 9e 68 bd 27 6b 62 3d 5c e7 e9 3c 21 3b b5 bc
       -0.05679169 0.05527797 0.028552704 -0.022122921
0000b0 65 f5 66 bc 91 5b 15 be af bc ba bd bf 79 37 3e
       -0.014096593 -0.14585711 -0.0911802 0.17917536
0000c0 ff c4 f9 3b 78 e4 10 bd d1 82 0d 3d de 9e 15 3c
       0.0076223607 -0.035374135 0.034548584 0.009132115
0000d0 57 24 db 3c c7 6f 13 3d d1 6f 91 bd e6 07 3d be
       0.026750727 0.03599527 -0.071014054 -0.18460044
0000e0 52 dd d3 bd f8 84 a5 bd 8e ef 24 bc ae 24 36 3d
       -0.10344948 -0.080820024 -0.01006688 0.044468574
0000f0 53 bb c7 3c 7d f8 c4 3b 5a af 11 bd 97 6e f0 3d
       0.024381315 0.0060110674 -0.03556762 0.11739843
000100 74 cb 25 3c fb 7e ff 3d 84 aa 25 bd 68 2b 21 bd
       0.010119308 0.124753915 -0.04044582 -0.039348036
000110 c6 47 a3 bc 7b d1 8e bd be 28 ff 3c ca 02 84 3c
       -0.019931685 -0.06973549 0.031147357 0.016114611
000120 c0 55 8a bd 6f 53 eb bc 95 2f 14 be c7 e9 fd bc
       -0.06754637 -0.028726308 -0.14471276 -0.030995263
000130 67 37 ea bc a1 cc 06 3d 32 c6 7a 3d bf 30 63 3d
       -0.028590871 0.032909993 0.06122417 0.05546641
000140 92 6f c5 3c 0d a7 c6 3d df 97 a6 3d 21 7a df 3c
       0.024101052 0.09699831 0.08134436 0.027279915
000150 44 91 64 bd 9e cf 74 3c 56 a7 9d 3d 23 53 d3 3c
       -0.0558026 0.014942078 0.076979324 0.025796479
000160 6d 99 1e 3d 62 38 79 3c c7 63 aa bc b9 7b 19 bc
       0.038720537 0.015211197 -0.02079953 -0.009367877
000170 52 c9 31 bd 68 6e 8c 3d d9 c0 71 bc f7 d1 29 3d
       -0.043404885 0.06856996 -0.014755451 0.041460004
000180 ce 30 2a bc 96 d0 dd 3b a9 92 15 3d f5 b4 02 3c
       -0.0103876125 0.00676925 0.03651682 0.007977714
000190 50 d0 67 3d e8 e9 33 bd db c9 88 bc 6a 1d 09 3c
       0.056595147 -0.043924242 -0.016697815 0.008368829
0001a0 15 05 12 3d ae cc 8b 3d 1c f2 ae 3d 1f ab c0 3d
       0.035649378 0.06826149 0.085422724 0.09407639
0001b0 4a c7 54 bd 8d 58 d9 bc 2d 6c 43 bd 6a 88 83 bd
       -0.05194787 -0.026531482 -0.047710586 -0.06422503
0001c0 0a ee 22 3d 2a 35 b4 bc e6 d9 0c 3d c0 5c f5 3d
       0.039777793 -0.021998007 0.03438749 0.11980581
0001d0 fc 47 7f 3d 41 4d 8c bc b4 12 99 bd ea 22 83 bb
       0.06232451 -0.017126681 -0.074742705 -0.004001965
0001e0 09 c1 9d 3c 6a e1 a6 3c 15 57 52 3d be 5f 0a bc
       0.019257085 0.020371158 0.05135258 -0.008445678
0001f0 f2 5c 07 bd ab 90 d3 bc 7c fa 16 3d ea 41 08 3c
       -0.033047624 -0.025825819 0.036859974 0.008316496
000200 ee 0d 72 3c df db 24 3d b2 7a 12 3d ed 5e 23 bc
       0.014773829 0.040248748 0.035761543 -0.009971363
000210 88 11 d6 3d cb c3 b7 3d e5 39 31 3d a4 da 94 bd
       0.104525626 0.089728914 0.043268103 -0.07268265
000220 09 ef d0 bd ec 0a 17 3b 3c 13 2e 3d 20 0a a8 bd
       -0.10201842 0.0023047281 0.042498812 -0.08205056
000230 9d 97 c7 3c 74 6b 9a bd 69 7e 13 bc e3 46 2b 3c
       0.024364287 -0.07540026 -0.0090023065 0.010453912
000240 bf 02 79 3d 4f dc 12 3d 76 7e f9 3d ba 7e 00 bd
       0.060793635 0.035854634 0.12182324 -0.031370856
000250 d4 81 c8 3b 66 50 e3 3b a3 90 42 3c 51 fc 0f bc
       0.0061189923 0.0069370745 0.011875304 -0.008788184
000260 3a f5 39 bd 42 2b c0 bd 24 6f f2 bb ca 0e c2 3d
       -0.045399882 -0.09383251 -0.007398503 0.09475477
000270 f6 77 d9 3c 2d 63 15 bc c4 0e 82 bd 5a 8e 34 bd
       0.02654646 -0.009117884 -0.063504726 -0.04408107
000280 85 c5 83 3b 20 da 97 3c 73 05 79 bd dc a0 52 bc
       0.004021349 0.018536627 -0.060796212 -0.012855735
000290 0a ec fa bb 74 f8 39 ba 87 cc 9a 3d 92 b2 02 be
       -0.0076575326 -0.00070942123 0.07558542 -0.12763432
0002a0 4a 29 a6 3d d2 ac 69 bc 50 9a d6 bc 24 ec e4 3c
       0.08113344 -0.014262395 -0.026196629 0.027944632
0002b0 e1 7e 1d 3d 1e 43 9c 3d dd f9 e6 bc fe 69 27 3d
       0.03845108 0.07629989 -0.028195316 0.040872566
0002c0 80 24 77 3c e4 b4 93 bd 5e 9a 3d bd df d3 97 3d
       0.015084386 -0.072122365 -0.046289794 0.07413458
0002d0 71 2c 30 3c 88 ab 06 bd b0 c1 8d ba 39 b7 0b bd
       0.010752783 -0.03287843 -0.001081517 -0.03411028
0002e0 2f d5 bf 3c 5d 14 ea bc e1 6f a0 3d 2a 89 87 3c
       0.023417084 -0.028574163 0.07833839 0.016544897
0002f0 56 d7 d5 bd 81 f6 10 bd 8b f0 b7 3d a5 d7 66 bc
       -0.10441463 -0.035391334 0.08981427 -0.0140895
000300 57 40 9b 3c 71 8f ad bc 46 ea b8 3d 20 b6 05 3c
       0.018951578 -0.021186562 0.09029059 0.008161098
000310 48 24 42 3d 0a 72 8f 3c 4b 1f ba 3d a5 79 6e bd
       0.04739788 0.017510433 0.09088 -0.058221478
000320 ce c8 30 bc aa 70 e3 bc 7d 39 08 3c 0d 02 03 3d
       -0.010790063 -0.027763683 0.0083144875 0.031984378
000330 b1 0b 9f 3c e2 85 54 bd dd 19 ca 3b 28 c7 61 bc
       0.019414755 -0.051885493 0.006167634 -0.013780393
000340 63 38 f8 bd 66 c5 8e 3c f7 70 83 bd a8 81 93 bd
       -0.1212013 0.017428111 -0.06418031 -0.07202464
000350 d1 3d 0e bd 46 87 02 3e a9 01 83 bc cf 3d bc bd
       -0.03472692 0.12746915 -0.015992003 -0.091914766
000360 c5 73 9e bd a0 6d 65 3d ba 0b 13 bd 14 90 63 bb
       -0.07736925 0.05601275 -0.035899855 -0.0034723328
000370 bb f4 a9 bd 9d c9 4d 3a 33 75 c6 3c 9a 12 87 bc
       -0.08298632 0.0007850172 0.024225807 -0.016488362
000380 5a 7a 3c 3d 7d 11 93 bc 90 f9 c8 3c 49 65 5b bc
       0.04601512 -0.017952675 0.024533063 -0.0133908475
000390 0d 77 a7 3b d3 47 19 bc 42 56 ac bb 33 f5 3a 3d
       0.0051106275 -0.009355503 -0.005259306 0.045643996
0003a0 e5 1b 33 3c 22 db 6d 3d 55 33 af bc 9b 29 f5 bb
       0.010931944 0.05807031 -0.021386782 -0.0074817664
0003b0 af 6a 9b ba 97 76 54 3b 02 ad d3 3c 0a 7c cf 3d
       -0.0011857356 0.0032419318 0.025839332 0.101310804
0003c0 a6 9b 63 3c 54 eb 4c 3d b7 29 f6 3c 1c 72 ca bd
       0.01389209 0.050029114 0.030049188 -0.09885046
0003d0 e3 25 fa bc 7d e4 86 bd 5b 1b f2 bc 31 be 52 3d
       -0.030535644 -0.065865494 -0.02955406 0.051450912
0003e0 01 f5 8a 3b 29 38 18 3d 8c b4 a7 3d ef 3f be bc
       0.0042406325 0.037162933 0.081887335 -0.023223845
0003f0 73 1d 81 3c ec da a1 bc d3 1b bb 3b 8f 1b 14 3d
       0.015761113 -0.01975771 0.005710104 0.036159094

body.block1.conv.bias f4 [64]
000000 0e 8d c6 bc 3c 94 04 3d d1 57 1e bb c3 c9 94 bc
       -0.024237182 0.03236793 -0.002416123 -0.018162614
000010 a5 22 20 3d b8 a1 1f 3c af f8 14 bd 2f 73 51 3d
       0.03909554 0.009743147 -0.036369976 0.05113524
000020 57 81 10 bd 48 a3 1f bd b5 32 1a bd 8a ac 6c 3c
       -0.035279598 -0.038974077 -0.037646014 0.014445433
000030 44 5b 8f 3c 40 b4 21 bd 5c 35 07 3c ab 39 8e bc
       0.017499574 -0.03947854 0.008252468 -0.017361483
000040 5a 5b f6 bc 7d a7 25 3b c1 37 dc 3c 47 a5 cd bc
       -0.030072857 0.0025276833 0.026882054 -0.025103224
000050 0f b0 48 3c 91 a2 2f 3d 88 0e 1c 3c 57 52 ef ba
       0.012249007 0.042879645 0.009524949 -0.0018258792
000060 52 43 f6 3c bd d1 ad 3c af fc 9b bb 35 6b 90 3c
       0.030061398 0.021218175 -0.004760347 0.017629245
000070 a7 db 82 bc ec da 0c 3c 0b c1 26 bc 5e 13 2d 3a
       -0.015973879 0.008597117 -0.010177861 0.0006602312
000080 02 c2 ce 3b 4d 9b 0a bd b6 0f 93 3b 1b ce e8 3b
       0.0063097486 -0.033839513 0.004487957 0.007104648
000090 bc ce 36 3d e2 bb c7 3c 51 fb cc bc da 99 ce 3c
       0.04463075 0.024381582 -0.02502218 0.025219847
0000a0 24 91 06 b9 7d b8 07 bd 8c ff 2e 3b ea da f0 bc
       -0.00012833305 -0.033134926 0.002670261 -0.029401261
0000b0 37 70 2d bc 18 38 17 bd 5b 49 de bc 99 30 d8 3c
       -0.010585836 -0.03691873 -0.027134588 0.02639036
0000c0 da 34 ce 3c 24 18 ff bc e2 53 91 3c 64 67 0c bd
       0.025171686 -0.03113944 0.017740194 -0.03427829
0000d0 1e af c7 3c af ad 07 bd bf 59 59 bc cd d1 cb bc
       0.024375495 -0.033124622 -0.013266026 -0.024880314
0000e0 3c f2 e8 b9 cb c8 a8 ba ec fb fa 3c 67 2f 09 bd
       -0.00044430967 -0.0012877224 0.030637704 -0.033492472
0000f0 33 83 98 3c 11 a2 f9 3c 67 fb 92 bc 85 c1 b9 bc
       0.018617248 0.030472787 -0.017942144 -0.022675285

body.block1.norm.weight f4 [64]
000000 03 c0 72 3f da 42 66 3f dc 4f 6e 3f 2b 8d 70 3f
       0.94824237 0.8994576 0.93090606 0.93965405
000010 1d 8e 91 3f 34 65 76 3f 41 b4 82 3f 25 1c 5f 3f
       1.1371495 0.96248174 1.0211259 0.8715232
000020 5e 32 88 3f a0 43 56 3f 46 26 81 3f 26 eb 81 3f
       1.0640371 0.8369694 1.0089805 1.0149887
000030 b7 ee 75 3f de 04 8f 3f c9 1b 53 3f 03 96 8d 3f
       0.96067375 1.117336 0.8246427 1.1061405
000040 e0 38 69 3f d8 d7 77 3f 64 3b 7f 3f a2 41 7b 3f
       0.9110241 0.96813726 0.997 0.9814702
000050 c1 2c 77 3f fa 8b 6a 3f b7 3d 65 3f bc 3d 88 3f
       0.96552664 0.9161984 0.89547294 1.064384
000060 47 0f 7b 3f ee 57 71 3f d3 df 62 3f 78 0e 5c 3f
       0.98070186 0.94274795 0.8862278 0.8595958
000070 14 21 56 3f 56 4c 87 3f cb 96 76 3f 46 3e 7c 3f
       0.83644223 1.0570171 0.9632384 0.9853252
000080 ee 03 82 3f 8a 18 7a 3f 8a fd 78 3f 1d db 6b 3f
       1.0157449 0.97693694 0.9726187 0.92131215
000090 a2 58 71 3f df 8d 62 3f 15 4d 77 3f d6 46 86 3f
       0.9427587 0.8849773 0.9660199 1.0490367
0000a0 74 61 6b 3f 70 83 68 3f cf 81 6b 3f 52 02 63 3f
       0.91945577 0.9082556 0.9199495 0.88675416
0000b0 63 21 71 3f 0d b1 81 3f e3 a1 79 3f b2 67 70 3f
       0.9419157 1.0132157 0.97512645 0.93908226
0000c0 c2 ab 72 3f 0b 93 87 3f 7d 7a 7c 3f 8a 8d 81 3f
       0.9479333 1.0591749 0.986244 1.0121319
0000d0 88 3d 6a 3f e6 7c 70 3f 90 d5 88 3f da b6 88 3f
       0.9150014 0.9394058 1.0690174 1.0680802
0000e0 8d 06 86 3f c8 94 6c 3f c0 a5 7d 3f b8 09 8a 3f
       1.0470749 0.9241452 0.9908104 1.0784216
0000f0 91 1c 87 3f b4 20 81 3f 8a f8 71 3f 32 c5 83 3f
       1.0555593 1.0088105 0.94519866 1.0294554

body.block1.norm.bias f4 [64]
000000 28 90 74 3e bc 53 1e 3e 79 52 2e 3e eb 17 9e 3e
       0.23883116 0.1546163 0.17023648 0.30877623
000010 0a 98 9b 3e 87 cd 76 3e cf 37 9a 3e 64 09 ab 3e
       0.30389434 0.2410184 0.30120704 0.33405602
000020 c7 67 ef 3c 3c c9 b1 3e 04 53 5d 3b 32 d7 85 3e
       0.02922429 0.34723842 0.0033771405 0.26140743
000030 02 7e da 3e 53 2d 4a 3e da 8f 8a 3e d2 da 86 3e
       0.4267426 0.19743852 0.27062875 0.26338822
000040 66 a1 5b 3e 13 42 4c 3e 03 64 de 3d c3 5a e6 3e
       0.21448287 0.1994708 0.108589195 0.4499112
000050 91 c1 db 3d c9 dc 63 3e e6 d5 39 3e 24 a9 3b 3e
       0.10730279 0.22252192 0.18148002 0.18326241
000060 d4 69 64 3d 0e 83 2a 3e 97 e0 00 3e c3 ba 47 3e
       0.055764988 0.16651556 0.12585674 0.19504838
000070 82 91 d8 3e 9f 57 23 3e 2c 83 ab 3e b0 52 84 3d
       0.42298514 0.15951394 0.33498514 0.06461084
000080 b2 64 f4 3d 3d 67 db 3d 2e e5 68 3e b9 1e d3 3e
       0.119332686 0.107130505 0.22743675 0.41234377
000090 6c b4 69 3e f8 23 c8 3e 46 19 a7 3c c8 b8 9e 3d
       0.22822732 0.39089942 0.020397794 0.07750088
0000a0 92 92 b0 3e ba 89 bb 3e 21 dd 60 3e ed 94 b1 3e
       0.34486824 0.36628515 0.21959354 0.34683934
0000b0 21 a6 b9 3d 6e fb da 3e f2 4e 8b 3e ab cc 33 3e
       0.0906489 0.4276995 0.27208668 0.17558543
0000c0 b3 44 58 3e 8d 49 fe 3c d8 ef ff 3e 75 b5 d1 3d
       0.21119957 0.031040931 0.49987674 0.10239688
0000d0 18 0c 8f 3e 2a 23 b0 3d e1 d2 9a 3e ba 2e 11 3e
       0.27938914 0.08600457 0.30239013 0.14177981
0000e0 21 ca a0 3e 52 bd 72 3e df b1 00 3e a1 22 72 3e
       0.31404212 0.23705032 0.12567852 0.23646022
0000f0 15 11 12 3e 8d 1d 44 3e 22 fd 63 3c 88 a4 a1 3e
       0.14264329 0.19151898 0.013915332 0.3157084

body.block1.norm.running_mean f4 [64]
000000 ba 11 09 3f ac 0f 27 bf 58 62 4b bf e3 43 1b bf
       0.53542674 -0.6525829 -0.79446936 -0.6065046
000010 dc 2b c9 3f c4 d7 b9 3c ae 5f 2b 3f ea 78 ab be
       1.571651 0.022685893 0.6694287 -0.33490688
000020 f6 b8 15 bf f0 bd 6c bf 23 89 55 bf ae df 17 be
       -0.58485353 -0.9247732 -0.8341238 -0.14831421
000030 6e 84 53 bf 50 0a 88 3f 11 08 90 be ed a6 46 bf
       -0.82623947 1.0628147 -0.28131154 -0.7759846
000040 63 cf 14 3e 18 36 64 be 99 cc 65 bf 6d 53 33 be
       0.14532237 -0.2228626 -0.89765316 -0.17512293
000050 1d 63 90 bd 70 58 68 3d ca ee e5 bd 6b 6c 03 3c
       -0.07050154 0.056724966 -0.11227186 0.008021454
000060 3e 16 bb be 9e 4a b0 be 39 8d 77 bf f7 4b 01 3f
       -0.36540407 -0.34431928 -0.96699864 0.5050654
000070 77 db 83 3f 77 f5 d9 be aa 05 6a bf 71 44 3e be
       1.030135 -0.42570087 -0.9141489 -0.18580796
000080 de 15 41 be fa 86 47 3d 1f ff 38 bf 77 65 1c 3f
       -0.18855998 0.048712708 -0.72264284 0.61092323
000090 76 1a 42 bf 3f 5b e7 3d 34 bb 7f bf e2 52 b7 bf
       -0.75821626 0.11296701 -0.99895024 -1.4322169
0000a0 60 87 a1 3e 31 55 73 bd 03 cb 90 be 48 1a 21 be
       0.31548595 -0.059407417 -0.28279886 -0.15732682
0000b0 b7 ba 1e bf f1 cf 46 3f 7c ed b6 bd 00 ef e4 be
       -0.62003654 0.77661043 -0.08932015 -0.44713593
0000c0 be 1a 03 bf a6 1e 46 bf f7 b7 18 bf 7d f1 a1 bf
       -0.5121268 -0.77390516 -0.5965571 -1.2651821
0000d0 16 1f d5 3e 71 83 02 bf 0b a1 7c bf 9f f6 d2 be
       0.4162528 -0.50981814 -0.9868323 -0.41203782
0000e0 e3 4b d1 3e d0 70 62 bf 0f 32 1b 3f 13 8a b0 3e
       0.4087821 -0.8845339 0.6062326 0.34480342
0000f0 f9 77 87 bf 13 a8 03 bf fa 55 0f bf bc 5a d1 be
       -1.0583488 -0.51428336 -0.55990565 -0.40889537

body.block1.norm.running_var f4 [64]
000000 de f7 28 3e cd fb 2c 3e 72 c5 5e 3e dc 2a 4c 3e
       0.16500804 0.1689293 0.21755007 0.19938225
000010 94 c7 67 3e 89 54 36 3e d9 78 77 3e 51 66 c2 3d
       0.22634727 0.17805685 0.24167193 0.094921716
000020 11 3c 1a 3f df 41 10 3e 35 91 c5 3e f1 ad 29 3e
       0.60247904 0.14087628 0.38587347 0.1657026
000030 37 cd 2b 3e 92 da 2b 3f bf 71 e8 3d 5e 48 7b 3e
       0.16777502 0.67130387 0.1134982 0.24539325
000040 15 2c f1 3d b4 54 45 3e e3 f5 84 3e 8e 48 53 3e
       0.11775986 0.19270593 0.25968847 0.20633146
000050 dd 84 16 3e 3a cf 11 3e d1 14 1c 3e 05 65 63 3e
       0.14699121 0.14239207 0.15242316 0.22206505
000060 76 bd 43 3e 13 35 f7 3d 69 be 1d 3e 56 2d 03 3e
       0.19115242 0.1207067 0.15404667 0.12810263
000070 04 aa 2b 3e 4d b8 34 3e 35 30 61 3e 57 0a 58 3e
       0.16764075 0.1764843 0.21991046 0.21097694
000080 6f 4b 12 3f ad 6b 7a 3e 8f 94 1e 3e 36 7e bf 3d
       0.5714635 0.24455138 0.15486358 0.09350245
000090 36 25 1b 3e 8e 4a eb 3d 9b 17 23 3e 6d 13 31 3f
       0.15150914 0.114888296 0.15926974 0.69170266
0000a0 2e 94 1f 3e 88 91 0b 3e 7d 32 ef 3d 1c 71 02 3e
       0.1558387 0.13629735 0.11679552 0.1273846
0000b0 25 73 3f 3e ca d2 31 3e 08 45 2f 3e e9 ae 17 3e
       0.18696268 0.17365566 0.17116177 0.14812817
0000c0 15 70 da 3d 62 55 98 3e 6d b5 4a 3e a0 09 f0 3e
       0.10665909 0.29752642 0.19795771 0.46882343
0000d0 a9 27 2b 3e 74 c8 68 3e 3c a1 87 3e 63 8c 82 3e
       0.16714348 0.22732717 0.264902 0.25497732
0000e0 83 6f 9f 3e 46 3c 10 3e ae 06 ae 3e 41 5b a3 3e
       0.31139764 0.14085492 0.3398947 0.3190556
0000f0 f1 d3 de 3e 84 d1 18 3e 5c 6f 80 3e c9 bd 0e 3e
       0.43521073 0.14923674 0.2508496 0.13939585
