TrainedModels/starry_night/scale_factor=0.750000,alpha=10/7/netG.pth (torch, 474370 bytes, 29 tensors)

channel.fc1.weight f4 [4, 64, 1, 1]
00000000: 0b6d 1b3b 891c e1bb b43b a03b ba5c 37bd
00000010: c0d6 e5bb 085e 023b cedd 15bd 38b4 37bc
00000020: b01d f7bb 043e 37bc 67a4 88bb e3e0 a5bb
00000030: 4045 a9bc af1a 8fba fb6e 963c c985 ee3c
00000040: 94e4 67bb b962 bdbb addd 243d d201 c13c
00000050: 0b7e 0dbc ea32 0a3c 76f1 1fbd 1c55 6bbc
00000060: b4a1 d73b 6e7c 153d b8d3 dabc 34e5 8e3c
00000070: 9698 06bd 4d14 4cbb c84a 30bc bf8f 61bc
00000080: 8337 66bc c46f 43bc cc51 4d3c 0518 973c
00000090: 5d99 5cbc 0182 ccba dd53 1cbd 7809 b3bb
000000a0: 2186 d33c 2d78 9f3b 152a cbbb 7bf4 9bbb
000000b0: 0772 debc 1cda c9bc 60f4 75bc a11d 1bbd
000000c0: 3291 edbc 2e8c f0bc c667 a6bc ffff b7bc
000000d0: 8305 a13c 78a7 733c bfc8 bc3c 7b42 d23c
000000e0: 80b6 99bb 8335 f73b 142e 74bc 4f71 0d3d
000000f0: b034 f139 5c90 c13c fd7f e6bc 6f80 dcbc
00000100: 7fb0 913a 9ab9 94ba 51f3 f7bc 6ced 47bc
00000110: 21f7 3a3d 1e6e af3c d3ef 953b 5ad6 c1bc
00000120: f32a 0fbc bc03 69bc a8b4 afbc ce56 3abb
00000130: 5984 583c bfad ba3c 57af f73c 8549 4bbc
00000140: 351b cbbc fb53 4638 387b 003d b657 e53b
00000150: d48c a4bc 9a98 cf3a 6301 b1bc 8163 e6bc
00000160: 0a36 21bc 3d06 18bb 9b92 d9bc 7f19 edbc
00000170: 9bce 0cbc 1487 2a3c 904d 963b 4896 2d3b
00000180: 3c14 a6bb 9c86 37ba d2f6 353b f97c 15bc
00000190: f6a4 be3c d968 7f3c a635 acbc 15c0 763c
000001a0: 8cd5 d6bc dde8 72bc c398 03bc a6e8 a3bb
000001b0: ed5c 5abd f0c9 4e3c 0af8 133d 9c42 44bc
000001c0: 78b1 2ebd 7d8a 313c 50d4 6e3c 12fe 41bc
000001d0: 052b cb3b af03 beba 4094 4c3b 4ce1 bfbc
000001e0: c401 55bc b910 8fbc fe29 c1bc fc8f 59bc
000001f0: f2eb 443b 949d 55ba c611 e13b d488 99bc
00000200: 0b16 9d3d 3361 2ebe 481e 663c aa76 19bd
00000210: 77d7 213d 9362 f0b9 7cd6 73be c75e 11be
00000220: 7d03 c13d 4445 893b 0996 ed3c b0eb 5a3e
00000230: aff6 223e b568 5ebe 4396 82be 6895 1d3e
00000240: 0a45 be3b 7418 eb3d 9359 58be 4d03 cf3d
00000250: d919 453e 6204 9a3e ed6e 483d dd6a 3e3d
00000260: fa84 8e3e 16cb 7e3b c1cd 3d3d 82f5 24be
00000270: 7de8 d2bd 6009 153e 1ea4 593e ba94 943d
00000280: 166b 233e d71d 54be 3861 9a3e abfb 9f3e
00000290: 725c 583e f93d 4d3d 9452 1d3e 8beb 89bd
000002a0: dd0d 863d 6ad8 ec3d 9279 c13d 5660 4ebd
000002b0: 4dd3 54bd 29de 093e 5420 933d 9f81 2e3e
000002c0: 85bc 003d d2f6 963f e3ad 013e 65c9 0b3d
000002d0: 0292 cf3d 11a3 e43d 798d 6dbd 8460 b9bc
000002e0: 1198 af3b 1533 ed3d 8f90 e4bd fb5f 5d3d
000002f0: f3dc 1cbe 93b8 053e 8909 cc3c ebc3 dbbc
00000300: cfe0 5dbb 44bb 5fbc a783 b23c 0e5c 31bc
00000310: 3332 3fbc 8eba 0f3b 582c c23c bddb 33bb
00000320: eccf 5fbc db10 f93c aba8 d93b f237 403c
00000330: 1561 36bb a0c9 06bd fdc4 a23c d57f 3dbc
00000340: c213 1cba d86e 93bb a286 243a 66e9 bebb
00000350: 77f8 4a3c b8aa 6dbc 0469 e7bb 791b 3d3b
00000360: 2bee b3bb 8e29 833c 87f5 e9bc 8a8f e4bc
00000370: 7056 593b e981 2c3c cb02 a0bc 5e8b ebbb
00000380: 732c 9f3c 0f02 ddbc 5e69 35bc 4c3e 083b
00000390: 339b 41bc 8e23 213d 805c 1f3d d906 f33c
000003a0: 653f a9bc d9a2 d5bc d4f5 b8bc 53ea 7abc
000003b0: b514 b5bb a5f7 f2bb cf5b 68bc b707 e3ba
000003c0: cf01 e2bb be14 acbc f8b5 723c a60f e33b
000003d0: e0dd 263c d24e d9bc e7c2 88bb 7096 003d
000003e0: 54a0 243c 6b28 56bc 2bc4 05bc 24c8 063d
000003f0: 260e c4bb c5b2 843b ee92 98bc 1210 593c
0.0023716118 -0.0068698567 0.0048899297 -0.044766165 -0.0070141256 0.0019892473 -0.036588483 -0.011212401
-0.007541381 -0.011184219 -0.004169989 -0.005062209 -0.020662904 -0.0010917987 0.018363466 0.029116528
-0.0035384046 -0.005779591 0.04025047 0.023560438 -0.008636008 0.00843499 -0.039048634 -0.014363553
0.006580556 0.03649562 -0.026712283 0.017443277 -0.03286036 -0.003114003 -0.010760017 -0.013767182
-0.014051321 -0.0119285025 0.012531709 0.01844407 -0.013464299 -0.0015602709 -0.038165916 -0.0054637752
0.025820794 0.004866621 -0.006200085 -0.004759369 -0.027153982 -0.024640135 -0.015011877 -0.037870053
-0.028999899 -0.029363718 -0.020313155 -0.022460936 0.019655949 0.014871471 0.023044942 0.025666466
-0.004690945 0.007544221 -0.014903564 0.034531888 0.00046006357 0.023628406 -0.028137201 -0.02691671
0.0011115222 -0.0011346817 -0.03026739 -0.012202602 0.045645837 0.021414813 0.0045757084 -0.023661781
-0.008738267 -0.014222082 -0.021448448 -0.0028433087 0.013215148 0.022787927 0.030234976 -0.012407665
-0.024793247 4.728509e-05 0.03136751 0.0069989813 -0.020086683 0.0015838325 -0.021607107 -0.028123619
-0.009839544 -0.0023197078 -0.026559165 -0.028942822 -0.00859418 0.010408182 0.004586883 0.002648728
-0.00506833 -0.00070009544 0.0027765525 -0.009124034 0.023272019 0.0155889625 -0.021021675 0.015060444
-0.026224874 -0.014826027 -0.008032027 -0.005002099 -0.053311277 0.012621388 0.03612522 -0.011978772
-0.042649716 0.010836241 0.014576986 -0.01184036 0.0062001967 -0.0014496947 0.0031216294 -0.02342286
-0.013000909 -0.017464029 -0.023579594 -0.013278957 0.003004786 -0.0008148786 0.006868574 -0.018742003
0.0767022 -0.17029266 0.014045306 -0.037466682 0.039512124 -0.0004584981 -0.23812288 -0.14196311
0.094244935 0.0041891653 0.029002206 0.2137897 0.15914415 -0.2171963 -0.25505266 0.15389025
0.00580657 0.114792734 -0.2112792 0.101080514 0.19248141 0.3008147 0.048933912 0.04648863
0.27835828 0.0038878373 0.0463388 -0.16109279 -0.1029825 0.14554358 0.21254012 0.0725493
0.15958819 -0.20714508 0.30152297 0.31246695 0.21129015 0.05010793 0.15363532 -0.067343794
0.06545613 0.11564715 0.09447016 -0.05038484 -0.051959325 0.13463654 0.071839005 0.17041634
0.031429786 1.1794074 0.12663989 0.03412761 0.10135271 0.11163915 -0.057996247 -0.02262903
0.005358704 0.11582009 -0.11160385 0.054046612 -0.1531866 0.1305869 0.02490689 -0.02682682
-0.003385592 -0.013655487 0.021791292 -0.01082517 -0.011669683 0.0021931264 0.023702785 -0.0027444207
-0.013660412 0.030403545 0.0066424212 0.011732088 -0.0027828861 -0.03290713 0.019869322 -0.011566122
-0.0005953872 -0.0044992976 0.00062761654 -0.005826163 0.01238834 -0.014506035 -0.0070620794 0.0028855486
-0.0054910383 0.016011026 -0.02855946 -0.027900476 0.0033163093 0.01052902 -0.019532582 -0.0071882447
0.019430375 -0.02697852 -0.011072485 0.0020789085 -0.0118167875 0.03934055 0.038906574 0.029666351
-0.020660112 -0.026078628 -0.022578157 -0.015314656 -0.00552615 -0.0074147754 -0.014182045 -0.0017321025
-0.0068971883 -0.021005984 0.014813893 0.0069293557 0.010184735 -0.026526842 -0.004173625 0.03139347
0.010047991 -0.01307116 -0.008164446 0.032905713 -0.005983132 0.0040496313 -0.018624749 0.01324846

channel.fc2.weight f4 [64, 4, 1, 1]
00000000: 588a d73c 3d05 c2ba 37e0 033e d300 583c
00000010: 7c87 20bc 9011 ce39 7371 9e3e b22e 813c
00000020: 4cb9 0a3b 8dba 8dbb d989 ea3d 61ac e5ba
00000030: 2197 46bd 4bf3 02bc 4209 513e aa8a 4239
00000040: 3d21 a3bc 0782 bc3c cd39 5d3f 69f1 62bc
00000050: b1d5 94bc ad26 b33c 4bdc 743f ebf5 963b
00000060: 6b55 833c 2f37 e33a 089c 743f a52b bcbb
00000070: 99fb e4bc 16d2 68bc 33c1 b53e 81a5 35bc
00000080: 8f18 cd3b f872 b5bc 1203 683f 268f 6c3c
00000090: 321b 143c d369 c53c ad1e 4b3d 6164 a63c
000000a0: 8d32 6fbb 3b7e 57bc 619e 433d 5726 8c3a
000000b0: ed15 2e3c 7dc4 fc3c f2f9 5b3d 612d d9bc
000000c0: 4cd9 8fb9 1a3a f43b bc26 933d 8056 fdbb
000000d0: 6ef9 e53b 7410 303c 4354 433f c495 8cbc
000000e0: 583b bdbc a946 8abc bf6f 573d 7011 1c3c
000000f0: 9327 8e3c 038b 01bc 7183 773f 9040 bc3a
00000100: 31f5 aebc fe21 d1bc 15d7 653d 7ee4 10bc
00000110: b2e6 f63b 5650 773c b271 1f3f 204f cfba
00000120: 0a6a 95bc 5542 e93c 2c7a cc3e 1df3 fbba
00000130: 3944 64bc 5e31 d5bb c86a 453d 653e 3ebc
00000140: d110 0bbc 0e4c 4bbd 911c 8c3d fa4d 8cbc
00000150: 7130 a1bc 9131 9f3b af06 593d f096 3dbd
00000160: a71b 3c3c 5b27 b2bc 6daf 663d ef49 b7bc
00000170: 2910 dabb b3d7 c6bb 7479 633f 79a7 993c
00000180: b0dd a5bc 9b45 e3bc 257a c53d 3e29 283d
00000190: 2373 043d 10e2 153c e1af 5c3e 97f0 febb
000001a0: 4ad5 7d3b e7a4 43bd 74a6 6b3f 4292 eab8
000001b0: 25da 04bb 1d16 e8bc 8a3d 5f3d 7e2e 05bc
000001c0: eb86 51bb ed6f ac35 4006 043e f204 15bb
000001d0: 625a fc3c 863a 01bd 6090 7e3d a446 143c
000001e0: cdd0 85bc a45c b83c 4a98 553d 24bb 27bc
000001f0: 996b c5b8 2e26 033d 7bf8 503d 8dc5 b0bc
00000200: 6100 c6bb 6b9f 083d 6303 613d 0c61 cdbc
00000210: bba1 45bc 4d44 2a3c 805d 6d3f cffd 993c
00000220: fa12 653c 8745 103d bf40 473d 2960 57bc
00000230: 9b02 cebc f19c 593c e088 b63d c1c7 c43c
00000240: da94 c5bb 874d 083c 0cc5 793d ca6b a1ba
00000250: 3789 7cbb 6afc cbbc 1988 fd3e 0b37 a53c
00000260: d7b4 8abb cd3f 34bd 5612 773d 377c 6bbc
00000270: f38a d13b b9d5 e5ba 5311 853d 8b49 a0bc
00000280: 41ea b33c 0ad8 16bd a513 683f 8e1e 2e3d
00000290: 6e86 943c 3568 8f3a 8100 893d 25fb 2b3a
000002a0: 17ae 1abc c73b 2cbd 88c0 4d3f 4ec6 b23b
000002b0: 7fae 01bc 219d 02bc a1f2 6d3f 74af 4cbc
000002c0: 1590 b9bb 1750 9d3c bf20 2d3f 7d8e 34bd
000002d0: 3783 ecba 788c 25b9 dd1e 773f d2e7 403c
000002e0: 0aa3 56bb 5d92 b9bc bcec 613d c29e 53bd
000002f0: 474e 9dbc 4995 fcbc 10ac a43d ca4b 673c
00000300: 41da f73a 0b5b 5ebc 2aab cb3e 459d 1bbc
00000310: 32cc 5bbc e639 7cbb 7acc 683f b5ca 9fba
00000320: 43b1 7d3c fff6 9c3b 9e18 533d 9c2a 35bb
00000330: aa53 39bc b8c1 c6bc 41eb 8d3d 5edf 55bd
00000340: 0d93 50bb 8aa9 863c 8d94 1a3f 0031 c33c
00000350: b8df 5fbb 9a09 44bd 3b7b 583d 8053 b9bc
00000360: 0681 793c 4fa0 9aba 19e4 bf3d 2bef 523c
00000370: 599a 86bc cc31 a73b d505 643f b46b d9bc
00000380: 0ca5 34bc 602e 4bbb 564f 573d 495e 97bc
00000390: df96 553c 3360 6bbc cc7e 423f 82f1 5bba
000003a0: 13a0 36bd 5e4e 233b c9d4 773d d276 c03c
000003b0: 818d 503c e2a5 bbbc 926a 8a3d 17c0 f53c
000003c0: 2ef5 0ebb 9423 2d3c 5858 853e a5bf f3bc
000003d0: ca76 983c 77e5 25bc be5f 7c3f db8c 493c
000003e0: dcd2 8d3c 77ad 9ebc 1402 7b3d 6522 ec3c
000003f0: eebb 68bc 7168 35bb edec 3a3d 490f 483d
0.026311085 -0.0014802587 0.128785 0.01318379 -0.009797927 0.00039304467 0.3094593 0.015769336
0.0021167574 -0.004325217 0.114520736 -0.0017522686 -0.04848397 -0.007992576 0.20413688 0.00018552938
-0.01991331 0.02301122 0.8641632 -0.013851502 -0.018168302 0.021869028 0.9564864 0.0046069524
0.016031941 0.0017335172 0.95550585 -0.0057425075 -0.027952002 -0.014210245 0.35498962 -0.0110868225
0.006259031 -0.022149548 0.90629685 0.014438426 0.009039687 0.024098312 0.0495898 0.020311536
-0.0036498636 -0.013152654 0.047758464 0.0010692579 0.010625345 0.030855412 0.053705163 -0.026510896
-0.00027436984 0.0074532153 0.07185122 -0.007731259 0.0070182597 0.01074611 0.7630045 -0.017161258
-0.023099586 -0.016879397 0.052596804 0.009525642 0.017352855 -0.007906678 0.9668494 0.0014362503
-0.02135715 -0.025528904 0.05611332 -0.008843539 0.0075348252 0.015094837 0.6228286 -0.0015816428
-0.01823904 0.028474012 0.3993696 -0.0019222234 -0.013932281 -0.006506129 0.048197538 -0.011611556
-0.008487896 -0.04963308 0.06841386 -0.017127026 -0.019676419 0.0048582037 0.05298489 -0.046286523
0.011481202 -0.021747282 0.056319643 -0.022374121 -0.0066547585 -0.006068194 0.888572 0.018756615
-0.02024731 -0.027743151 0.09642438 0.041054957 0.032336365 0.009148136 0.21551467 -0.0077801454
0.0038731867 -0.047764685 0.9205086 -0.00011185232 -0.0020271626 -0.028330857 0.054502048 -0.00812876
-0.0031971287 1.2847573e-06 0.12893009 -0.0022738543 0.030804817 -0.031549953 0.062149405 0.009050045
-0.016334916 0.022505112 0.052147187 -0.010237489 -9.413734e-05 0.032018833 0.05101822 -0.021578575
-0.0060425256 0.033355158 0.05493487 -0.02507069 -0.012062485 0.010392261 0.92720795 0.018797783
0.013981575 0.035222556 0.04864573 -0.013145485 -0.025147727 0.013282047 0.089128256 0.024021031
-0.0060297074 0.008319265 0.060978934 -0.0012315449 -0.0038533935 -0.024900634 0.49517897 0.020167848
-0.0042329836 -0.044006158 0.06032022 -0.014372877 0.006394738 -0.0017535008 0.06497445 -0.019566318
0.021962287 -0.036827125 0.90654975 0.042509608 0.018130507 0.001094109 0.06689549 0.0006560556
-0.00944092 -0.042049196 0.80371904 0.0054557687 -0.007915138 -0.007972033 0.9294835 -0.012493003
-0.005662928 0.019203229 0.6762809 -0.0440812 -0.0018044476 -0.00015787955 0.9653147 0.01177402
-0.0032750987 -0.0226528 0.055157408 -0.051665075 -0.019202365 -0.030832903 0.08040631 0.014117191
0.0018909649 -0.013571511 0.39779025 -0.009497945 -0.013415383 -0.0038486659 0.90937006 -0.0012191149
0.015484157 0.0047901864 0.05153715 -0.0027643805 -0.011311451 -0.024262294 0.06929637 -0.052214973
-0.003182593 0.016438264 0.6038292 0.023827076 -0.0034160446 -0.04786072 0.052851897 -0.022622824
0.0152285155 -0.0011797043 0.09369678 0.012874405 -0.01643102 0.005102372 0.890714 -0.026540615
-0.011025678 -0.0031002983 0.052565895 -0.018477576 0.013036459 -0.014366197 0.75974727 -0.00083901745
-0.044586252 0.0024918537 0.060505662 0.023494158 0.01272905 -0.022906248 0.06758608 0.029998822
-0.002181362 0.0105675645 0.26043963 -0.02975447 0.01861133 -0.010125509 0.9858359 0.012301649
0.01731246 -0.019369824 0.06128128 0.028824994 -0.014204962 -0.002768066 0.045636106 0.048842702

spatial.conv1.weight f4 [1, 2, 7, 7]
00000000: a831 163e 78a2 2a3e 7832 e43d a73f 0b3e
00000010: 4190 083e ef22 0f3e 72c7 f43d e3aa 683e
00000020: 9368 9b3d d51d 593e 770b 643e 1e7d 853e
00000030: 638e 073e a9bd 4b3e 4041 083e 78b1 0a3e
00000040: a75a 763e 9a80 823e 2bf0 823e 1c0e 2d3e
00000050: dc02 133e a658 6b3e ff70 793e e84a 813e
00000060: 5214 c53e 8d52 883e 116f 2e3e ea45 663e
00000070: 25dc 3f3e b709 133e d776 533e db76 2a3e
00000080: 5a61 883e 7563 3f3e 4c07 da3d ac4d ce3d
00000090: ace7 f03d 7b83 383e d3c6 723e 475f 2c3e
000000a0: 2904 ef3d 4f25 053e 97a2 8f3d 19d7 c03d
000000b0: a0d3 d53d 1302 4b3e ab74 ee3d 7a35 b53d
000000c0: 7479 973d f96f 85bd f74f 21bd d045 67bd
000000d0: bc7b f6bc 6494 3cbd 51c7 5bbd 4cf8 70bd
000000e0: f39b 57bd e087 33bd cde7 06bd 925c 0dbd
000000f0: 17cd faba 3eef 61bd c1bb 30bd 4d3c 6dbc
00000100: 042f 3bbd 61db 4bbc 91c5 38bc 6eaf 65bd
00000110: 12d2 0cbc 7928 0ebd a856 51bd f091 ecbb
00000120: f6d3 efbc 9dbe 02be 77c5 6fbd db36 91bc
00000130: 2a17 013b 4989 babc b43f a1bc 2639 b7bb
00000140: 846f 5fbd 1499 43bd 9197 d43b c2fc 52bd
00000150: 47de 14bd c877 34bd fa80 c43b d996 0cbb
00000160: bf73 1cbd fcd4 ddbd b167 d5bc 7a60 1ebd
00000170: c6e9 15bd 090b 63bd 2629 5abd 14cc 91bc
00000180: 4aad b2bc 40a1 e4bc
0.1466738 0.1666354 0.11142439 0.135985 0.13336278 0.1397817 0.11952104 0.22721438
0.07588305 0.21202786 0.22269998 0.2607202 0.1323791 0.19896568 0.13306141 0.13544261
0.24058019 0.2548874 0.2557386 0.16899914 0.1435656 0.22983035 0.24359511 0.2525246
0.38492066 0.2662548 0.17034556 0.22487608 0.18736322 0.14359175 0.20650803 0.16646902
0.26636773 0.18690284 0.10645923 0.100734085 0.11762938 0.18018906 0.23708658 0.1683322
0.11670715 0.13002513 0.070134334 0.094160266 0.10440755 0.1982501 0.116433464 0.088480905
0.07396212 -0.06515498 -0.0393829 -0.056463063 -0.030088298 -0.046039954 -0.05365688 -0.058830544
-0.05263896 -0.043830752 -0.032935906 -0.03451211 -0.0019134608 -0.0551598 -0.043147806 -0.014479709
-0.045699134 -0.012442441 -0.011277572 -0.056075506 -0.008595007 -0.034706566 -0.051108032 -0.0072195455
-0.029275876 -0.12768026 -0.058537927 -0.017726352 0.0019697645 -0.02277054 -0.019683696 -0.0055915294
-0.05454971 -0.04775341 0.0064877947 -0.05151058 -0.036344793 -0.044059545 0.0059968205 -0.0021452217
-0.03819632 -0.10831639 -0.02605042 -0.038666226 -0.036599897 -0.055430446 -0.0532619 -0.017797507
-0.021811146 -0.027908921

head.conv.weight f4 [64, 3, 3, 3]
00000000: 4488 b83b 3b1c bd3d cfb2 1b3d b4a8 8bbc
00000010: 2739 a13c 1199 76bd 5dad 66bc 4892 33bc
00000020: c9cb 93bd c347 803d b1c8 f23d da0b 473d
00000030: 8853 713c d2ba d93c e8ad 9b3c 6f40 63bc
00000040: a4e0 8bbd 3d80 2dbd c964 ab3d fdb4 babc
00000050: 2d93 93bd c42e eb3c d47c 23bd 6ed8 ccbc
00000060: 1ff1 8dbc eebb 87bd 5bc6 0fbd 5ef9 afbc
00000070: b6aa 8fbd d722 6cbe 1b7d 58bc 956f f5bc
00000080: e455 39bd a031 57bd ec34 3a3d 5c1c 64bd
00000090: 0984 943d 4ee5 aa3d 01d4 87bd b909 303d
000000a0: 9a4a 8d3c a524 e1bc ab8f 9bbc 1b31 be3d
000000b0: 0b8d 31bd 0793 bebd d445 8b3c 5de7 7e3c
000000c0: 8848 e93a 96d1 423d 5c79 1b3d db50 9bbc
000000d0: 628d 4e3c 8193 e5bd eb27 433c caae 303d
000000e0: 6d17 eebd cd4e 79bd 9c05 d2bd 4f6d e0bd
000000f0: 7aac 8bbd bcc5 56bc 5baa 9a39 0e74 013e
00000100: 2311 cd3d 2bf3 97bb 4928 143b c452 7cbd
00000110: 30ba 3ebc e242 483c 90de 923d bd88 e83d
00000120: e222 fb3c f401 8c3c 0b47 b5ba 0338 b5ba
00000130: 9ce3 14bd 7c1e 10bd 0b9e afbc 60f1 9f3b
00000140: 0ddd c8bc d390 703d ca95 2f3d f86c 223b
00000150: 699b dbbc e276 01bd abcc 513d 78c4 0bbd
00000160: c584 23bb bd7e 093e b415 653d 907b 943d
00000170: 667d 93bc 549e b2bc d0f3 933b 96f3 76bc
00000180: d4b4 18bc 2ebd b2bc cdc9 df3d b5aa b83c
00000190: 9387 263d 5992 98bd f2d3 33bc 878f ecbc
000001a0: a569 4bbd bfa9 bcbd 2d97 bbbd 4f63 073c
000001b0: da2a c93d fb4e d5bd 641c dcbd 3b8a d7bc
000001c0: 731b 8bbc 92aa db3c 3871 533d 7f39 f8bc
000001d0: 63ad 86bd 6846 913d 6262 89bd 2093 1e3e
000001e0: c0ad ee3a 28ee 3a3e a7d0 a73d ffdd 773d
000001f0: 8656 a73d 6cb1 06bd cade 57bd 992a 17bd
00000200: 6cd5 943d d146 2dbb 1f96 f13c 7261 8e3c
00000210: 271e 0bbd 2b9a 09bd abdb 2bbd 6530 3f3d
00000220: 1d95 a4bc 48e1 243d 3612 3abd b10a 063d
00000230: 3a34 67bd 6075 1fbd 5dc4 b93b d1e3 2ebd
00000240: b151 153d 112d c0bc feb6 ac3d 99d4 1d3c
00000250: 5ba2 703d ebba 5a3c 3419 3b3c ca89 d23c
00000260: 5073 7ebd 50ad bfbd 8bf8 debd 3b98 643c
00000270: 82bd 3fbd dc0d 0b3d adb2 4e3d 05a5 bb3d
00000280: c925 f93c 0570 8ebd ee60 213d 9994 6c3d
00000290: fc59 01bd 460e 9a3c 4ff7 85bc f550 44bd
000002a0: 6a69 cc3d 4a2a 15bd af9e acbd 1ae1 1a3c
000002b0: 9f49 2e3d 5b0c 02bd 69fb b2bc 7843 c23b
000002c0: e409 31bd 2f55 f53d 6368 a43c 6093 93bd
000002d0: 9661 713d 629b 193d fffc b7bc 8422 f23c
000002e0: ec2a 4a3d 086e 293c a5ef 373d a6af 01bd
000002f0: 4bee fdbd 959a 0f3b 0b8a b43c 73d5 7fbd
00000300: ce45 53bd 6c39 c13c 6d98 31bd f64a 903d
00000310: ccd2 363c 0a17 50bd e1cd 95bc 675f e23c
00000320: 376e 683c c8f1 a6bd bcde 6bbd 1150 46bd
00000330: 403c bf3d c522 c73c bbe2 98bc c3fa 953b
00000340: 9d34 2d3c 70c8 bb3d d072 5bbd f6b2 293c
00000350: 47d6 1abd 6cf5 dd3d d205 29bd f705 b0bd
00000360: e09d 963d ccdf b6bd 58ac d8bb 46a9 b1bc
00000370: a608 0cbd ad55 473d 339a 993c 45fc 78bd
00000380: 5abd d83d 51f9 923d ee2f 38bd 4ba3 703b
00000390: 7f41 49bd 240d afbb 5d91 ae3d d2ba 06bd
000003a0: f446 afbd e1e5 9a3d 64ae bf3d e941 27bc
000003b0: ea23 9e3d d11e 2e3d ccdc 8539 7ce3 503d
000003c0: d321 b2bb 589c 6cbd c614 08be 69fc b7bd
000003d0: bb41 4f3c 9968 563d bd7b 8f3d 0539 003d
000003e0: 9ca4 c8bb a956 02bd 187f 1b3d 171c 623d
000003f0: 2632 02be 278d b73c 0d6a 26bd 2f18 023d
0.0056314785 0.092339 0.038012322 -0.017048217 0.019680573 -0.06020457 -0.014079419 -0.010960169
-0.07216603 0.062636875 0.11854685 0.048595287 0.014729388 0.02657834 0.019003823 -0.013870343
-0.06829956 -0.042358626 0.083688326 -0.02279138 -0.07205806 0.028708823 -0.039913967 -0.025005545
-0.01732689 -0.066276416 -0.035101276 -0.021481212 -0.070149824 -0.23060165 -0.013213421 -0.029960433
-0.045247927 -0.05253756 0.045460626 -0.055691108 0.07251746 0.08344518 -0.066322334 0.042978022
0.017247487 -0.027483294 -0.018989405 0.0928671 -0.0433474 -0.09305387 0.01700107 0.015558091
0.0017798105 0.047563158 0.037957534 -0.018959453 0.0126069505 -0.11209775 0.011911373 0.04313544
-0.11625562 -0.060866166 -0.10254976 -0.10958349 -0.06820007 -0.013108667 0.00029500094 0.12641928
0.10013034 -0.004637142 0.002260702 -0.06160237 -0.01164107 0.012222977 0.07171357 0.11354206
0.030656282 0.017090775 -0.0013830377 -0.0013825897 -0.036349878 -0.035185322 -0.021437665 0.004881069
-0.024519468 0.058731865 0.04286746 0.0024784189 -0.026807504 -0.031607516 0.051220577 -0.034122914
-0.0024950963 0.13427253 0.0559289 0.0725013 -0.01800413 -0.021804012 0.0045151487 -0.015072724
-0.009320457 -0.021818724 0.10927162 0.022542337 0.040656637 -0.074497886 -0.010975825 -0.028877033
-0.049661297 -0.09212064 -0.09159694 0.008263423 0.098226264 -0.10415455 -0.107476026 -0.02631103
-0.016980862 0.026814733 0.051621646 -0.030300854 -0.0657604 0.07093507 -0.06708218 0.15485811
0.001820974 0.18254912 0.08194094 0.060514446 0.081708 -0.032884046 -0.052702703 -0.03690586
0.072672695 -0.0026439915 0.029490529 0.01738045 -0.033964302 -0.03359429 -0.04195754 0.046677012
-0.020090634 0.040253907 -0.045427524 0.03272504 -0.05644629 -0.038930297 0.0056691603 -0.04269773
0.03645486 -0.02345899 0.084333405 0.009633207 0.058748584 0.013350229 0.011419583 0.025700469
-0.06212169 -0.093592286 -0.108872496 0.01395231 -0.046811588 0.033948764 0.050463367 0.09162334
0.030413525 -0.0695496 0.03939908 0.0577589 -0.031579956 0.018805634 -0.016353277 -0.04792877
0.09981044 -0.036417283 -0.08428704 0.009453082 0.04255068 -0.031750064 -0.021848397 0.005928453
-0.043222323 0.11979138 0.020069307 -0.07205844 0.058930956 0.0375017 -0.022459505 0.029557474
0.04935734 0.010341175 0.044906277 -0.031661652 -0.123989664 0.0021912206 0.02203848 -0.06245942
-0.051580243 0.023586951 -0.043358255 0.07045548 0.011158656 -0.05080322 -0.018286647 0.027633382
0.0141864335 -0.08151585 -0.057585463 -0.0484162 0.09337664 0.024308572 -0.018662801 0.0045770123
0.010571626 0.0916909 -0.05357629 0.010357609 -0.037802007 0.10837826 -0.041265316 -0.08594888
0.07354331 -0.089294046 -0.006612342 -0.021687161 -0.034187935 0.04866569 0.018750286 -0.060787458
0.10582991 0.071764596 -0.044967584 0.0036718424 -0.049134728 -0.0053421427 0.085238196 -0.03289301
-0.08558455 0.07563377 0.09359434 -0.010208585 0.07721694 0.042509858 0.00025532243 0.050998196
-0.005436161 -0.05776629 -0.13289174 -0.0898369 0.012649949 0.052345846 0.07006023 0.031304378
-0.0061231386 -0.031820927 0.037963003 0.05520257 -0.12714443 0.022406174 -0.04062848 0.031761345

head.conv.bias f4 [64]
00000000: 7f6a 243e 1857 f43c f198 983c 351e cf3d
00000010: 254e ebbc 9e10 09bd 50db 8abd 1f97 493e
00000020: fd0f c33d f079 f5bc a00a 50bb 9f7b 023d
00000030: 66da 09be acd4 e5bd 437e 82bd 2aa0 74bd
00000040: 2b48 9a3d 4705 b03d 725c 143d aa0f 4bbe
00000050: 7e12 683b 5ffc ba3d 9578 80bd c0bd ac3d
00000060: c2b6 5e3d e895 0f3e 2f4b 54be ad44 433e
00000070: 5b0b 88bc a84d a43d 6e78 34be 3fdc 233e
00000080: db9f 413e 02f8 c1bd ccd5 06b9 350f e73c
00000090: 3abf 9e3d b880 573d bbde 673b 196e 34bb
000000a0: a9ef 103e 7b93 0bbe 7a3e ae3d 97b5 e3bd
000000b0: 086d 11be 5750 0e3e db39 53be 268e bf3d
000000c0: 9492 cabd 341e 01be 9dce 44bc 8f78 523d
000000d0: d89a 23bc d50a 36be ad9e 89bd 087d 25be
000000e0: 5e31 03be 53c1 b6bd 7b64 de3d 2838 8d3a
000000f0: 62f6 1a3d 0cb2 243e d30e 0bbe 06c6 8ebc
0.1605625 0.029826686 0.018627616 0.101131834 -0.028723786 -0.033463113 -0.06780112 0.19686554
0.09524534 -0.02996537 -0.0031744614 0.031856176 -0.13462219 -0.112222046 -0.06371739 -0.059723057
0.07533296 0.085947566 0.036220975 -0.19830194 0.0035411413 0.09130167 -0.06272999 0.084346294
0.05437351 0.14022028 -0.20731805 0.19069166 -0.016606977 0.08022624 -0.17624065 0.16001986
0.18908636 -0.09471132 -0.00012858881 0.028205493 0.07751317 0.05261299 0.003538056 -0.0027531444
0.14153923 -0.13630478 0.0850801 -0.1111862 -0.14201748 0.13897835 -0.20627539 0.093532845
-0.09891239 -0.12609178 -0.012012151 0.051384505 -0.009985648 -0.1777757 -0.06719718 -0.16160977
-0.12811801 -0.089235924 0.10859009 0.0010774182 0.037832625 0.16083544 -0.13579874 -0.01742841

head.norm.weight f4 [64]
00000000: 7daa 843f 820b 7b3f 558e 773f 4f4d 7e3f
00000010: f007 573f 2396 5d3f 735b 8e3f 3448 773f
00000020: 71d9 793f 4a4a 7c3f 2334 733f 00ae 693f
00000030: ba54 6f3f ccf9 823f aa7f 7f3f fbcf 813f
00000040: 64f3 883f 5323 8b3f f766 853f 5f3e 573f
00000050: 67d6 683f 2f68 663f 4239 7d3f 4377 6e3f
00000060: 47f2 7d3f f91e 7c3f 448e 7e3f 510f 623f
00000070: 1ace 693f 0bd3 8d3f d60f 813f 329f 6d3f
00000080: c21f 5f3f 9fa2 853f 06e0 853f 8dc4 813f
00000090: a954 883f 3d4c 813f 8597 6d3f 7905 803f
000000a0: 6046 813f 109f 813f 9dc5 843f 8748 783f
000000b0: cf92 633f 038c 6f3f a37e 733f 6e38 5e3f
000000c0: 187f 833f 2221 813f e053 7d3f 1032 6c3f
000000d0: d5e7 653f 5874 7f3f f592 7b3f f803 6d3f
000000e0: a571 803f 4d94 803f 049d 823f 7005 783f
000000f0: c625 683f 12e1 7e3f 3ec7 6f3f 4b74 6b3f
1.0364529 0.98064435 0.96701556 0.99336714 0.83996487 0.86557215 1.1121658 0.9659455
0.97597414 0.98550856 0.9500143 0.9128113 0.9348866 1.0232482 0.99804175 1.0141596
1.0699277 1.0870155 1.0422047 0.84079546 0.9095215 0.9000272 0.98915493 0.9315073
0.9919781 0.9848476 0.9943583 0.8830462 0.9133011 1.108003 1.0082958 0.9282104
0.87157834 1.0440253 1.0458992 1.0138108 1.0650836 1.0101391 0.92809325 1.000167
1.0099602 1.0126667 1.0372807 0.9698567 0.8889589 0.93573016 0.9511511 0.86804855
1.0273161 1.0088236 0.9895611 0.9226389 0.8980687 0.997869 0.98271114 0.9258418
1.0034682 1.0045258 1.0204167 0.96883297 0.9068264 0.9956218 0.93663394 0.91974324

head.norm.bias f4 [64]
00000000: a63d 29be 4578 b8be b301 acbe fd88 29be
00000010: 954f babe a1ea 43be 1167 84be d433 d6be
00000020: 5e5c f5be 4098 a9be de45 23be 7b9f b7be
00000030: 0ffb 1ebe 35ff ffbd 1f8c b3be a092 11be
00000040: 8939 48be ca1d 94be b694 70be 1a3d 5bbe
00000050: 91f4 a6be bd92 9fbe f499 8ebe 1e88 acbe
00000060: caa9 e5be 7d35 adbe 5d9d 56be d1c0 90be
00000070: d588 a6bd 942b 8cbe 6ed8 97be f6ba cdbe
00000080: b563 b3be 9e87 b5be e932 60be e050 0fbe
00000090: 4377 7fbe 5d26 97be 8b13 9dbe 6a1b 78be
000000a0: c62b b5be feed 99be d300 2dbe 8c2b f1bd
000000b0: 1a55 e0be db24 22be a2bb cbbc f6a9 b1be
000000c0: 40c3 b7be 4139 f9bd 13bc c4be 2e31 31be
000000d0: 5ea2 b9be 42f8 92be d30d 58be 1643 8fbe
000000e0: f10f 9ebe c088 b6be 0aee 9fbe 67bd 97be
000000f0: 13f3 8dbe e6ff 9cbe b6f7 86be 9aaf a9be
-0.16527423 -0.36029258 -0.33595046 -0.16556163 -0.3638884 -0.19132473 -0.25859883 -0.41836417
-0.47922033 -0.3312397 -0.15944621 -0.3586386 -0.15525459 -0.12499849 -0.3506784 -0.14216089
-0.19553198 -0.28928977 -0.23494229 -0.21410027 -0.32608464 -0.3116664 -0.27851832 -0.336976
-0.448561 -0.3382987 -0.20958467 -0.28272107 -0.081315674 -0.27376997 -0.2965731 -0.40181702
-0.35037008 -0.3545503 -0.2189442 -0.13995695 -0.24947838 -0.29521456 -0.30678973 -0.24229208
-0.3538496 -0.30064386 -0.16894846 -0.11775884 -0.43814927 -0.15834372 -0.024869744 -0.34699982
-0.3589115 -0.121691234 -0.3842474 -0.17303917 -0.3625669 -0.2870503 -0.21099024 -0.2798087
-0.30871537 -0.35651207 -0.31236297 -0.2963669 -0.27724513 -0.30663985 -0.26360863 -0.33141786

head.norm.running_mean f4 [64]
00000000: 162e 153e 9e56 393e 53a7 bd3d f350 b43c
00000010: 2dc0 bebd 3969 01bd 9d77 a7bd 2c36 793e
00000020: 96f1 8e3d 8827 823c 22c6 e73d 746f 9d3c
00000030: 3055 21be bd66 cbbd 385f 74bd 115b 5f3d
00000040: 9723 c93d 3887 1c3d c21e 223e 2248 6dbe
00000050: 0b0a c0bc 55f6 003d ff95 acbd 1da0 2a3d
00000060: bb2e 6d3d 563b 203e 8520 5dbe 2995 793e
00000070: c600 053d ff1b a53d 4a4a 66be 4990 4f3e
00000080: aa0e 493e af18 c2bd 2fbf 233d 7253 a73c
00000090: 1d79 ae3d c5fd 2c3d 2931 c73c 218e b2bc
000000a0: a33d 583e bd7e 0fbe d826 f03d 84e6 95bd
000000b0: 67d1 21be 7e3e 1a3e ab05 56be 2df9 fe3c
000000c0: c3d2 22be f464 16be 7e2c c9bb 4422 843d
000000d0: 52f7 f5bb ce3e 5abe 290b 87bd 6936 1ebe
000000e0: a535 2dbe 0ee2 03be b37f 2b3e 28d8 7abd
000000f0: d157 913c fbbb eb3d 7d2c 74be c9ae 1a3c
0.14568362 0.18099448 0.0926043 0.022011256 -0.09313998 -0.03159449 -0.08177111 0.24337071
0.069796726 0.01588799 0.11317088 0.019218184 -0.15755153 -0.09931705 -0.05966112 0.054530207
0.09821241 0.038214892 0.15832046 -0.23172048 -0.023442289 0.03148492 -0.08427047 0.041656602
0.057905894 0.15647635 -0.21594436 0.24373306 0.03247144 0.080619805 -0.22489277 0.20269884
0.196345 -0.09477364 0.03997725 0.020425532 0.08519194 0.0422342 0.024315434 -0.021796288
0.21117263 -0.1401319 0.11726159 -0.07319358 -0.15802537 0.15062901 -0.209006 0.031124676
-0.15900712 -0.14686948 -0.006139337 0.06451848 -0.0075062895 -0.2131302 -0.065939255 -0.15450443
-0.16914995 -0.12879202 0.16747932 -0.0612413 0.01774207 0.11510464 -0.23845096 0.009441086

head.norm.running_var f4 [64]
00000000: 8dca ac3b 3786 853c f7ec 563b 44d5 f63b
00000010: 8173 303c 1df3 663a d04c 863b 3f5e 5d3b
00000020: 634f 2b3b 4584 a43b 67ba 243c e2c6 d33a
00000030: 8c85 373b 1e28 a33a 7755 a33a deac ee3b
00000040: fc39 cd3b 1efa 6b3b a40e 5b3c 1ad6 bf3a
00000050: 1cf0 0a3b 2fea 0e3b bd7e f43a 51be 413b
00000060: 58d4 b53a e3db 9f3b 8a77 963a 0a7e 183c
00000070: b1a1 503b e925 0e3b 0c0c 9f3b 5804 a13b
00000080: 3375 b33a 7750 763b e9a3 423b 50ef 9d3b
00000090: fab1 a83a eac0 213b 08d9 ce3a 202b b93a
000000a0: 6560 a33b 5d13 d53a 830f d53a 75e6 283b
000000b0: 6bfb a63a 7f0d 2a3b 4230 f53b b551 283c
000000c0: fe44 773b bd26 e03b d4dc 253b 0fd1 733a
000000d0: 0fdc f33b aa0b ba3b 498e 233b 8b0d 4a3b
000000e0: e267 353b 487f 553b 1600 8e3b da3d b13b
000000f0: 50d0 bb3a 1148 ef3a 3db1 8a3c 23af d03b
0.0052731694 0.01629935 0.003279505 0.0075327475 0.010769726 0.00088100304 0.004098512 0.00337781
0.0026139847 0.0050206506 0.010054207 0.0016157294 0.0028003184 0.0012447869 0.0012461384 0.007283791
0.006263016 0.0036007236 0.01337019 0.0014635951 0.0021200245 0.0021807065 0.0018653494 0.00295629
0.0013872487 0.0048785075 0.0011479717 0.009307394 0.0031834657 0.0021690077 0.004853731 0.004913848
0.0013691544 0.0037584582 0.002969975 0.004819788 0.0012870424 0.0024681636 0.0015781233 0.0014127232
0.0049858564 0.0016256381 0.0016255233 0.0025772129 0.0012739723 0.0025947986 0.0074825594 0.010273387
0.0037730332 0.0068405555 0.0025308626 0.00093008665 0.0074420045 0.00567766 0.0024956635 0.0030830826
0.0027680327 0.0032577086 0.0043335063 0.0054089846 0.001432905 0.001825573 0.016930217 0.006368534

body.block1.conv.weight f4 [64, 64, 3, 3]
00000000: ffb6 113e 4924 e03b 66b9 853b 54cb 103d
00000010: ceca 193d 9645 13bd 471a 21bb a798 f03c
00000020: e4d3 79bd 54cd dfbd 682b 4ebc c439 b33b
00000030: 68b2 60bd a7a2 543d 0aa6 40bb 48f0 f5bd
00000040: d372 93bb c9e0 07be 766d 34be 9dab f3bd
00000050: 0d4a 6bbd c713 28bd 90ba 7cbd bf18 5bba
00000060: fffb 573d 5d9e 4fbc 49c2 f5bd 8578 4d3d
00000070: cb7e 22bd 9ed1 cc3d c3db 35bc 36a2 d43c
00000080: 0d5b 0cbd eda1 a93b 730f 17bd 3118 87bd
00000090: 2ca9 f73d efa3 843d 5187 cabc f99a 6fba
000000a0: e760 01bd d8be abbc cb0f c0bc 18d5 5dbc
000000b0: 6b5c 9bbd 7e40 093e 82f6 dc3c 7a7b fe3b
000000c0: 1d6e c43c 6298 9bbd 11c6 bdbc c0e9 12be
000000d0: ab18 21bd aade 7e3d 4b8c dd3d 2ce0 033c
000000e0: d775 60bd 1e89 ae3d 365b fcbb 59c0 3dbd
000000f0: cf1f 46bd 445f 963d b3fc 55bc da2d 0dbd
00000100: 1c99 8a3d 4148 b3bb bc4b 7b3d 49f2 e6bc
00000110: 454d d7bd 3774 1fbd 08e7 bc3d 17bf aabb
00000120: 152a c8bc 5d28 463d f1cb 2b3d c517 613d
00000130: 18c1 973d 1155 9bba f048 6f3c 8e79 ed3a
00000140: f113 063e 4709 5c3d bb13 313e 9b98 a43d
00000150: 86c2 85bd b72b 86bd 55d9 283d 6211 a53c
00000160: 776a 6abd f95e 043d c506 a63c ce89 a53d
00000170: db73 9e3d b88e bcbc 8f47 013d 2cd4 36bc
00000180: 1d71 4bbd 1c0d 56bd e410 02be 2ecb 15bc
00000190: 66a5 6abd f487 8f3d a7c8 22be ce0f 8cbd
000001a0: 6530 9abb 956f ef3c 6ca5 4bbd 5346 c63c
000001b0: ead2 3a3d f2a4 99bd 7e0d b1bd 0c8a 77bc
000001c0: d9f2 a63c bab0 973d b3b8 df3d dd48 a1bc
000001d0: d396 183b 721d 3b3c d058 193d 3be7 9e3d
000001e0: fa1b dcbb c1bd a2bd a947 163d b4fd b6bc
000001f0: c1ec 49bd af6c 9bbd 2442 36bc e1d1 823d
00000200: 9b26 dcbb 6a72 d03a dd69 483d 9428 a2bd
00000210: 25b7 0f3d c236 843d b112 c63d 089a 96bd
00000220: 5e94 2a3d a58b c3bc c338 693d 9071 5e3d
00000230: 404f 31bd e505 933d 0af8 8dbc 9432 e5bc
00000240: 0386 e23d d081 3a3e d1e5 e4bc 3fc1 a0bc
00000250: 68b2 473d 47e9 46bd b984 b7bd f9bc 123d
00000260: 642f 273c 3670 a3bd 4cce 90bd 2cde f33c
00000270: 4cb8 70bc cc93 abbd 1ef0 9bbd 16df 923d
00000280: 6f90 2f3d 91e4 1f3b 1aa9 d1bd 39b8 13bd
00000290: 4c04 cdbd 17b5 d3bd f021 41bc 11ee 9abd
000002a0: 2be1 01be 11c0 8f3d a6ea 41bd cc93 adbd
000002b0: b9ba 1cbb 0ace b13b 1afc 67bd e7af e5bd
000002c0: bf72 7bbd aeff 1bbb 7283 91bd 2404 fabb
000002d0: 6747 d6bd 545e dcbb d5b7 73bd 839d 973c
000002e0: a966 80bd 79f8 2a3c 9c7f 853d 0db0 aabb
000002f0: fd50 603d 3c22 2f3c 221e 073c c038 31be
00000300: d6a4 6b3d bbb1 4e3d eb65 63bd fbd0 98bd
00000310: 1733 42bc df23 47bc d68e d23c 3314 b73b
00000320: 793b 623d d415 8c3d 5c4a 8ebc 0b19 0abd
00000330: a50f cf3d 5880 c5bd 7e56 92bd 3e7c 133d
00000340: d1c7 383b bf3a 4b3c 53bb 503d 3253 6b3d
00000350: 08dd 58bd acf7 bbbd a43a 7cbd f9f6 92bc
00000360: 28ff 103e e02f bebd cc91 3a3d 996c 7b3c
00000370: c63b afbd 166b 963d 19ba 18bd b36c 673b
00000380: 5294 253d 2bf3 593d 52ca 2b3e 687c 24bd
00000390: 34f4 973d 8628 babc ed04 2ebd 3506 9dbd
000003a0: 2d2a e53b 68a7 a23d c015 8ebd f9b3 5bbd
000003b0: 10cb fdbc a9dd 7dbc a72f 863d 05f0 c83c
000003c0: 8688 b4bb 946b c8bc 8305 bc3c 640f cabd
000003d0: 38f2 c4bc 75f4 69bd f03a ccbd 54cb 03bd
000003e0: 92fb 0cbd b5f1 c0bd 2af6 1a3d c02f 22bd
000003f0: 2b87 84bd e719 af3c 53b3 033d 6be7 5fbd
0.14229964 0.006840263 0.004080939 0.03535016 0.037546925 -0.035955034 -0.0024582313 0.029369665
-0.06099309 -0.10927835 -0.012583591 0.0054695327 -0.05485764 0.05191293 -0.0029395842 -0.12008721
-0.004499772 -0.13269342 -0.17619881 -0.11897967 -0.057443667 -0.041034486 -0.061701357 -0.00083578745
0.052730557 -0.012672034 -0.119999476 0.050163765 -0.0396717 0.10000919 -0.011099759 0.025956254
-0.03426652 0.0051767738 -0.036879968 -0.06596411 0.12092814 0.0647658 -0.024722727 -0.0009140219
-0.031586554 -0.020965025 -0.02344503 -0.013539575 -0.07585987 0.13403508 0.026973013 0.0077661844
0.023978287 -0.07597424 -0.023165734 -0.14346981 -0.039330166 0.062224068 0.108177744 0.008049052
-0.05479988 0.08522247 -0.007701303 -0.046326015 -0.04837018 0.07342389 -0.0130607365 -0.034467556
0.067674845 -0.00547126 0.061351523 -0.028191702 -0.10512785 -0.03892919 0.09223753 -0.005210768
-0.024434129 0.048378337 0.04194254 0.05495431 0.074098766 -0.0011850913 0.014604792 0.0018117891
0.13093545 0.053719785 0.17292683 0.0803692 -0.06531243 -0.06551307 0.04122289 0.02014989
-0.05723044 0.032317135 0.0202669 0.08082925 0.077369414 -0.023017272 0.031562384 -0.011158984
-0.04966842 -0.052258596 -0.12701756 -0.00914268 -0.057286642 0.07008353 -0.15896855 -0.06838952
-0.004705476 0.029228011 -0.049718305 0.024203455 0.0456113 -0.07502164 -0.086451516 -0.0151085965
0.02037947 0.07406755 0.109239005 -0.019688064 0.0023283258 0.0114205945 0.037438214 0.077589475
-0.0067172023 -0.07946349 0.036689434 -0.022337772 -0.04929805 -0.07589089 -0.011124168 0.063876875
-0.0067184693 0.0015903239 0.048929084 -0.07917896 0.03508677 0.06455757 0.09671534 -0.07353598
0.0416454 -0.023870299 0.056938898 0.05430752 -0.04328847 0.07178859 -0.017330188 -0.02797822
0.11060717 0.18213582 -0.027941616 -0.019623397 0.048754126 -0.048562314 -0.08960862 0.03582475
0.01020417 -0.07980387 -0.07070598 0.029769026 -0.014692377 -0.083777994 -0.07614158 0.071714565
0.042862352 0.002439771 -0.10237332 -0.03606436 -0.10010585 -0.103372745 -0.0117878765 -0.07564939
-0.12683551 0.07019056 -0.04734292 -0.08475456 -0.0023915006 0.005426173 -0.056636907 -0.11215191
-0.061388727 -0.002380352 -0.07105149 -0.007629888 -0.10462838 -0.006725112 -0.059501488 0.018507725
-0.06269581 0.010435217 0.0651848 -0.005208975 0.054764736 0.010689314 0.00824693 -0.17306805
0.057530247 0.050462466 -0.05551712 -0.07461735 -0.011853001 -0.012154548 0.025702875 0.0055871247
0.0552325 0.06840101 -0.017369442 -0.03371529 0.10110406 -0.0964362 -0.07145403 0.03600716
0.0028195272 0.012404143 0.050959896 0.057452388 -0.052945167 -0.09178099 -0.06157936 -0.017940031
0.14159834 -0.09286475 0.0455492 0.015345716 -0.08556323 0.07344644 -0.03728685 0.0035312593
0.040424652 0.05321042 0.16776398 -0.040157706 0.07419625 -0.022724401 -0.042485166 -0.076671995
0.006993553 0.079420865 -0.06937742 -0.053638432 -0.030980617 -0.015494742 0.06552058 0.024528513
-0.005509439 -0.02446536 0.022951847 -0.09866217 -0.02404128 -0.057117898 -0.09972179 -0.03217633
-0.034419604 -0.09421102 0.037832417 -0.03959632 -0.06471094 0.021374656 0.03215344 -0.054664057

body.block1.conv.bias f4 [64]
00000000: d810 d93c b595 ea3c 4882 b83b af30 05bc
00000010: 24a8 c0bc 67e0 023d 255d 273d 955f c539
00000020: 3fed fb3c cb5c dbbc c65c 813c a55c a6bc
00000030: 870c 2abc dcb9 e3bc dabd 77bc 337b 89bc
00000040: 9079 3e3c ef76 e2ba 5319 f6bc 4a27 063b
00000050: 403f 55bc 20ba ec3c 96fc cbbc eb66 08bd
00000060: ea13 dabc 8a7b ac3c 5635 6fbc 8f66 0abd
00000070: 9a06 8139 49dd 0dbd 2280 0d3d a19d 683c
00000080: bb48 7abb c687 db3c 5fa7 04bd f34e ebbc
00000090: 5f41 0a3d 51cf c33c ed44 003b b6ac 29bc
000000a0: 1960 d9b9 8b30 c7bc bd46 59bc 2575 91bc
000000b0: a292 753c 00fd 953c 56b4 96bc fdaf e13a
000000c0: f07f a73c 71ed 1b3d fe06 90bc 27a5 a3bb
000000d0: 3a54 87bc 99f3 d33c a910 b6bc 9cb5 843c
000000e0: f927 103d 521e ff3b 98e0 143c c08f e6bc
000000f0: a862 d8bb 2580 84bc 8ec4 91bc 6c41 043d
0.02649729 0.028635839 0.005630765 -0.008129283 -0.023517676 0.031952288 0.040860314 0.00037645982
0.030752776 -0.026777646 0.015791308 -0.020307848 -0.010378963 -0.027798586 -0.015120948 -0.016782379
0.011625662 -0.0017277877 -0.030041372 0.0020470195 -0.013015568 0.028897345 -0.024900716 -0.033301275
-0.026620824 0.021055002 -0.014600119 -0.033789214 0.00024609716 -0.034634862 0.034546025 0.014197738
-0.0038190323 0.02679814 -0.03238618 -0.02872417 0.03375375 0.023902567 0.0019572333 -0.010356119
-0.00041461064 -0.02431514 -0.013261494 -0.017756054 0.014988573 0.018309116 -0.018396538 0.0017218586
0.020446748 0.03806824 -0.01758146 -0.004994053 -0.016519655 0.025872992 -0.022224741 0.01619988
0.03519437 0.007785597 0.00908675 -0.028144717 -0.0066035576 -0.016174385 -0.01779392 0.032288954

body.block1.norm.weight f4 [64]
00000000: 817a 733f bf09 703f 1fe2 823f d30f 813f
00000010: 5363 803f 7f0b 8b3f 6a60 773f 8093 6b3f
00000020: 956c 793f e9a1 733f fa4f 6f3f 6e0a 7b3f
00000030: 1b6b 793f a832 813f e692 833f a634 713f
00000040: 4e6d 7c3f fdb9 883f 16bc 803f 0dd1 893f
00000050: a895 7c3f 2350 833f 518c 813f ce46 793f
00000060: 243b 653f d1d4 773f 0e44 6f3f 2acb 713f
00000070: 04b7 6b3f 04ef 693f 73de 843f 8ede 773f
00000080: e7cd 743f 3de7 643f 141a 823f 81e9 883f
00000090: cc5b 713f 82a0 723f bf53 863f 6ab6 7f3f
000000a0: b7a2 803f 6a37 773f d983 763f a7c6 753f
000000b0: 09a2 853f 5506 6e3f 3cfa 723f dfda 753f
000000c0: 93a6 813f 1b60 853f 5073 7b3f ec6c 843f
000000d0: f70d 833f 1cd0 6c3f 444c 883f c85a 7b3f
000000e0: 61c8 7b3f e21f 8b3f 655b 753f 1196 7a3f
000000f0: d147 803f b539 6f3f 3633 803f 65be 6b3f
0.951088 0.9376487 1.0225257 1.0082954 1.0030311 1.0862883 0.9663149 0.9202194
0.9743131 0.9516893 0.9348141 0.9806279 0.97429055 1.0093584 1.0279205 0.9422096
0.98604286 1.0681759 1.0057399 1.0766922 0.9866586 1.0258831 1.0120946 0.97373664
0.89543366 0.9680911 0.9346322 0.9445063 0.92076135 0.91380334 1.0380386 0.96823967
0.9562668 0.8941534 1.0164208 1.069626 0.94280696 0.94776165 1.0494307 0.99887717
1.0049657 0.9656893 0.96294934 0.96006244 1.0440074 0.9297841 0.9491308 0.96037096
1.012896 1.0419954 0.9822283 1.034574 1.0238637 0.9250505 1.0648274 0.98185396
0.9835263 1.0869105 0.9584258 0.97885233 1.0021917 0.9344743 1.0015628 0.92087394

body.block1.norm.bias f4 [64]
00000000: 0b64 87be f948 0ebe 5775 5fbe 734f 1cbe
00000010: d20e 9bbe 3c0e 72be 9432 54be f5b4 17be
00000020: e69c 65be 7e7e 80be b652 b9be 04d9 94be
00000030: adcc 66be 09d1 c2be 74e4 63be a452 58be
00000040: 4266 1dbe 7db1 44be 7db2 b1be d56c c6be
00000050: a3e3 74be de36 64be 0a52 97be 5808 75be
00000060: 0913 50be c2b6 a6be 7d4c 90be 2279 03be
00000070: 3399 48be b8f6 18be 093e 21be fa9e 8cbe
00000080: bbd2 33be 0edc 81be 41ed babe 928a 57be
00000090: b733 8fbe cb2b 81be 1c5d a7be e6b6 59be
000000a0: 6542 44be cba3 ebbc b8b7 5abe 5043 12be
000000b0: e360 73be b6f0 85be 78a8 2bbe f95c 08be
000000c0: df30 c4bd 85d2 2cbe 81c2 29be 32ce 26be
000000d0: f539 a2be 69b6 d7bd f36a 89be 4a8e f2bd
000000e0: ffb0 9ebe 01fe f0be a9a9 88be 82a2 98be
000000f0: 42bb 36bd 2aa2 5abe 1b99 74be 1b87 33be
-0.26443514 -0.13895024 -0.21822105 -0.15264682 -0.30284745 -0.23638242 -0.20722419 -0.14815123
-0.22423133 -0.25096506 -0.36195916 -0.2907182 -0.22539015 -0.38050106 -0.22255117 -0.21125275
-0.1537104 -0.19208331 -0.34706488 -0.38754907 -0.23914962 -0.22286555 -0.29554778 -0.23928964
-0.20319761 -0.32561308 -0.28183356 -0.12839177 -0.19589691 -0.14937866 -0.15746321 -0.2746504
-0.17560856 -0.253632 -0.36509135 -0.21048954 -0.27969143 -0.25228724 -0.32688224 -0.21261176
-0.19165953 -0.028764626 -0.21359146 -0.1428349 -0.23767428 -0.2616021 -0.16763484 -0.13316716
-0.09579634 -0.16877182 -0.16578104 -0.16289595 -0.31684843 -0.10532839 -0.26839408 -0.11843546
-0.30994412 -0.4706879 -0.2669194 -0.29811484 -0.044612177 -0.21350923 -0.2388653 -0.17532007

body.block1.norm.running_mean f4 [64]
00000000: aa38 9dbe a40c 28bd d75b 1cbe 08ca f33d
00000010: 254b 9fbe 77e7 84bf f5c8 013f 0b2a babe
00000020: a5a1 1dbf d699 7ebe d0c3 013f dfe6 30be
00000030: c019 e7be e924 4abf 9ffc b4bc 8b9b 183e
00000040: a7f8 f1be 4a7d 0dbe 1ff7 08bf fa5d bcbe
00000050: 03f6 dfbe cf14 3bbf 0906 b0be 6716 3ebd
00000060: a384 b4be 4b4d cc3e 5aec 7bbc 0f50 8dbf
00000070: 1c08 5ebe 371d 91be 1215 a53e cf6e acbe
00000080: 3b87 0bbe 932c 4f3d 74a4 25bf c874 5dbd
00000090: 60a1 563e a8d7 3bbe 3464 cc3e 33f3 c23e
000000a0: 5f44 133f 80bd 62be c0bf 04bf ed91 38be
000000b0: 1f79 02bf a73c 093f 5550 ebbe 9c47 08bf
000000c0: e5dd 0b3f 6401 00bf 6384 623d e612 36bf
000000d0: f8d7 373e 46f3 413e fbc2 81bf 2eff cd3d
000000e0: e3b6 12be a847 92bd 1fc4 8cbe fc1e a83d
000000f0: 5238 293d 9b94 cc3d 4a88 d8bd 40f8 a43e
-0.30707294 -0.04102768 -0.15269409 0.11903769 -0.31112018 -1.0383137 0.5069726 -0.363602
-0.61574775 -0.24863371 0.5068941 -0.1727557 -0.45136833 -0.7896257 -0.022093115 0.14903085
-0.4726002 -0.13817325 -0.53502077 -0.36790448 -0.4374238 -0.73078626 -0.34379604 -0.046408083
-0.35257444 0.3990272 -0.015376175 -1.1040057 -0.21682781 -0.28342602 0.32242638 -0.3367829
-0.13625805 0.05057962 -0.6470406 -0.05406645 0.20959997 -0.18343985 0.399202 0.3807617
0.575262 -0.22142601 -0.5185509 -0.18024416 -0.50966066 0.53608173 -0.45959726 -0.5323427
0.5463546 -0.5000212 0.055302035 -0.71122587 0.1795348 0.18940458 -1.0137628 0.10058437
-0.14327578 -0.071425736 -0.2749338 0.08209035 0.041313477 0.09989282 -0.1057287 0.3222065

body.block1.norm.running_var f4 [64]
00000000: d708 263f dba8 0e3f 07e6 213f 8b62 403f
00000010: f0db 0d3f 1f26 4c3f 7372 593f 7ee7 133f
00000020: 21aa 3c3f 02a7 373f 8b01 f93e 55d2 143f
00000030: f04f fe3e 1811 173f 6194 0c3f d001 323f
00000040: d12c 513f 9ad1 613f fc9c 4a3f 0a18 703f
00000050: 34de 173f 0d92 363f 4e40 263f 0e99 283f
00000060: 95c3 093f 3654 043f 9e30 0e3f 8e5f 3f3f
00000070: 83e1 043f 071d 293f 2f9a 1e3f 710d 223f
00000080: e495 103f 4ab0 e93e b5eb 303f 648d 693f
00000090: 3e8b 053f 372d 133f 970e 4d3f 9b17 273f
000000a0: e35f 4b3f 9372 283f 70f6 183f 07fe 1b3f
000000b0: c9f1 1f3f af56 d83e a86a 253f 1299 243f
000000c0: c411 683f 6b10 1a3f 5c33 1a3f 5ee1 563f
000000d0: c503 2c3f a689 2a3f dc1e 223f 37c1 543f
000000e0: b96d 523f a9c8 4a3f 08cb 013f c32a 333f
000000f0: f3a1 2f3f 2cef e43e bc5c da3e a9f9 493f
0.6485724 0.55726403 0.6324162 0.75150365 0.55413723 0.7974567 0.8494026 0.57775104
0.73697096 0.7173921 0.4863399 0.5813344 0.49670362 0.5901046 0.5491391 0.69534016
0.8170901 0.8821045 0.7914579 0.9378668 0.5932343 0.71316606 0.6494187 0.6585854
0.5381406 0.51690996 0.55542934 0.7475518 0.51906604 0.6605992 0.61954015 0.6330176
0.56478715 0.4564231 0.6910966 0.9123137 0.5216559 0.5749087 0.8010039 0.65270394
0.79443187 0.65799826 0.59751034 0.6093449 0.6247831 0.42253634 0.6461587 0.64296067
0.9065211 0.601813 0.6023462 0.83937633 0.6719325 0.66616285 0.6332834 0.8310732
0.82198673 0.79212433 0.50700426 0.69987124 0.6860649 0.44713724 0.42648876 0.78896576

body.block2.conv.weight f4 [64, 64, 3, 3]
00000000: 3c8d 543d ee60 24bb 45db 753d 1826 d0bc
00000010: 766e d93c 4a20 3ebd ae78 d2bc e33d a3bc
00000020: d4c6 16bd 1cf0 85bd 14f1 e33d d31c f03c
00000030: ec16 e2bd 5bf6 2b3d 2500 d33d 7cf8 a43c
00000040: d99d de3b 33bc af3d c586 9c3b df23 983d
00000050: c75b 413c f77d 61bc 2da8 d4bd 7a4a da3c
00000060: 6028 09bc f77b 843d c51b 09be d5e6 5e3d
00000070: 3556 3ebc d9a2 a13c 5ad1 d83c 205b fe3b
00000080: 0fc8 b43c be5d 98bc 2bb3 2bbd f0fd 1bbc
00000090: 0188 213c cd38 533d 782f 303d 91ee 493d
000000a0: 9185 3fbe 7fea 343c 14a6 90bc 42a4 6e3d
000000b0: 979b 28bb de28 d73c b3dc 2fbd 6014 10bd
000000c0: 8da5 98bd f927 44bd 2a8d c73c 5494 e43d
000000d0: b449 3b3e 7bb9 09bd c8db 063d 53d9 04bd
000000e0: 3101 983d e86c ccbd bb18 abbd 3c2d f8bc
000000f0: c653 13bd e977 213d f9f1 393d c1b9 9ebd
00000100: 5de1 3c3c 2e0d 73bd f670 8fbd 5a6f 543d
00000110: ca1c 933c a7e8 59bc 488a ff3c c926 b83d
00000120: 24ad 123e 1e7d 09bb 4cce 72bd e692 babd
00000130: f375 02bd e9ea 643c ef44 b4bd 894a 823d
00000140: 54b9 97bc 0907 d13d 8caa 31bd 39ce 22bd
00000150: 650b f0bc cc24 94bd cb92 21bd f149 30bd
00000160: efe2 573d c74c 21bd b35c 8cbc eda5 40bc
00000170: fce3 92bb a030 95bc 51af 1b3d 9443 133d
00000180: 216c 13bd 3e0d 1abc 6f95 173d c78c 83bd
00000190: dd2d ba3d 025f c0bb da42 1b3d 02e8 08bd
000001a0: 7027 80bd 9310 ec3d d76b 1f3d 44e2 c7bc
000001b0: 3184 d63c 9827 b8bd 6b84 e7bb dbf9 803c
000001c0: 3400 b73c 0d72 923c 95fe 4abd 653b 08bd
000001d0: 3eb8 e3bd c6f5 8cbc 427c 39bd 95e7 50bd
000001e0: 1d96 933d f0f3 a7bc 2d41 563d bb14 123d
000001f0: cf92 47bc 93af ef3d d9e8 3abd 51fc 903d
00000200: e6cb 9dbd a203 c7bb 5949 55bd f80f 7cbc
00000210: ffef 483d 509a b23d 6fa2 913d 17db 9abd
00000220: d978 f43d a67c c33b d560 6e3d b71e 60bb
00000230: 1440 16be 6049 b83d d9aa 963d cd02 123e
00000240: 4eb7 2c3d 391f b33d 8c57 8fbb 60f8 70bd
00000250: c6f2 dfbd f144 e9bd 2cc4 803d dc63 0b3e
00000260: ee7e ec3b 82ea 253d c85b f4bb 2c8c 913d
00000270: 27e2 84bd 2d87 8dbd 081e fcbd 49cc 693a
00000280: 6508 d03c 0457 ba3d 5769 053d 075c 343d
00000290: 0e97 383d 4834 87bd f9f6 5b3d 2b71 f03c
000002a0: cde0 acba 89d8 1e3d 7552 3ebd 8b95 7c3d
000002b0: 96bf 51bd 3c44 823c ad72 aabd b77e 7bbd
000002c0: 930d 53bd 2d7f c03b 630b f23d 87e1 663d
000002d0: 91a0 9b3d 08e8 ed3b 674e 593d f4a0 f7bd
000002e0: abe5 b13b ac60 02be 86c3 68bd 1a58 0a3d
000002f0: 08b8 4ebd 5f7d 52bc 9f94 013c f2db ef3c
00000300: 289f c1bc defe 513a 1554 e6bc e4d7 6c3d
00000310: 8562 b33c 08f2 99bc 712b 15be c17b 873d
00000320: d9a2 5b3c fe45 853d f014 d1bc c3f8 a53d
00000330: 9eb5 ccbd bceb 183d 5e98 9cbc 4753 68bd
00000340: fd8a aabd bc10 05bd cadb d23d a960 113e
00000350: 602d 51bd e37c 5a3d 7908 ab3d ff52 c63b
00000360: 0509 31be d995 a4bd 1ed2 edbd b368 bebd
00000370: 825f f3bc 1080 f23c 536e 5e3d 9724 343d
00000380: 39f0 f93c 222b 52bb f528 c03d 3454 62bd
00000390: 54bd 723d 19bb d1bb cb66 fdbd c8f5 d43d
000003a0: 4443 92bc befd 91bd 1b71 3c3b 0462 223d
000003b0: 6662 94bc 02b8 723c 94f8 0ebd 800b 883d
000003c0: 171c 813c 763f 373d 3025 c3bc 5447 65bd
000003d0: 2230 f03b c35c 8b3d 220c 22be 4b0a d33c
000003e0: 9963 09bd fbb2 c23b a26e 6ebc 42c7 11bc
000003f0: 6081 1bbd c828 4eba 36c7 e53c 3e38 6fbd
0.051892504 -0.0025082189 0.060023565 -0.02540879 0.02654193 -0.046417512 -0.02569231 -0.01992697
-0.03681071 -0.06539938 0.111299664 0.02931062 -0.11039528 0.04198299 0.10302762 0.020138018
0.0067937193 0.08580818 0.004776808 0.07428717 0.011801667 -0.0137629425 -0.103836395 0.026646841
-0.008371443 0.06468957 -0.133895 0.054419357 -0.011617233 0.019730972 0.026467014 0.007762328
0.022068052 -0.018599387 -0.041918915 -0.009520993 0.009859086 0.05156784 0.04301402 0.04929978
-0.18703295 0.011042236 -0.017657317 0.058262117 -0.0025727504 0.026264604 -0.042935085 -0.03517568
-0.07453451 -0.047889683 0.024359304 0.11161104 0.18289834 -0.033624154 0.032924443 -0.03243382
0.07422102 -0.0998171 -0.08354326 -0.030295007 -0.035968564 0.039420996 0.04539678 -0.077502735
0.01152834 -0.05933874 -0.070039675 0.051864006 0.017958064 -0.013300098 0.031193867 0.08991773
0.1432386 -0.0020979117 -0.05927877 -0.0911005 -0.031850766 0.013972023 -0.088022105 0.06361873
-0.018520989 0.1020642 -0.043375537 -0.03974745 -0.029302308 -0.07233581 -0.039446633 -0.043039266
0.052706655 -0.03937986 -0.017134046 -0.01175831 -0.0044827443 -0.018211663 0.03800899 0.03595312
-0.03599179 -0.009402571 0.037007745 -0.064233355 0.09090779 -0.005870701 0.03790555 -0.033424385
-0.06257522 0.11526599 0.038921203 -0.024399884 0.02618608 -0.08991927 -0.007065346 0.01574414
0.022338964 0.01787665 -0.049559195 -0.033259768 -0.11119126 -0.017207038 -0.045284517 -0.051002104
0.07206366 -0.02050206 0.05230825 0.0356643 -0.012180998 0.1170341 -0.045632217 0.070793755
-0.07704906 -0.006073431 -0.052071903 -0.015384667 0.049057003 0.08720839 0.0711106 -0.07561319
0.11937112 0.005965787 0.058197815 -0.0034197995 -0.14672881 0.0899837 0.07356805 0.14258881
0.042167 0.087461896 -0.00437445 -0.05883062 -0.10934977 -0.11390103 0.06287417 0.13612312
0.0072172796 0.040506847 -0.0074572302 0.07106814 -0.06488448 -0.06910548 -0.123104155 0.00089186855
0.025394628 0.09098628 0.032571163 0.044033077 0.045065932 -0.06601769 0.05370233 0.029350838
-0.0013189554 0.038780723 -0.046465356 0.061666053 -0.0512081 0.015901677 -0.08322654 -0.06140014
-0.051526617 0.0058745355 0.11818578 0.056367423 0.07598985 0.0072603263 0.053053286 -0.12091246
0.00542899 -0.1273219 -0.05682709 0.033775426 -0.050468475 -0.012847274 0.007908969 0.029279683
-0.023635462 0.00080106955 -0.028116265 0.057823077 0.021897564 -0.018792167 -0.14567353 0.06615401
0.013405525 0.065074906 -0.02552268 0.08104088 -0.09995578 0.03733419 -0.019115623 -0.056720044
-0.08327291 -0.032486662 0.10295828 0.14197029 -0.051068664 0.053341758 0.083512254 0.0060523744
-0.17288597 -0.08036394 -0.11612342 -0.092973135 -0.029708628 0.02960208 0.054304432 0.043980207
0.030510055 -0.0032069166 0.09382812 -0.055256084 0.05926259 -0.0064004776 -0.12373122 0.103984416
-0.01785434 -0.071284756 0.002875394 0.039644256 -0.018113326 0.014814379 -0.03490503 0.066428185
0.015760465 0.044738255 -0.023821443 -0.055976227 0.0073299566 0.06804802 -0.15824941 0.025761744
-0.03354225 0.0059417463 -0.014552744 -0.008897604 -0.03796518 -0.0007864353 0.028049093 -0.058403246
