TrainedModels/trees3/scale_factor=0.750000,alpha=10/6/netD.pth (torch, 466779 bytes, 25 tensors)

head.conv.weight f4 [64, 3, 3, 3]
0	0xbc268f3b	-0.010165985
1	0x3dfedafd	0.124441124
2	0x3de9e8f3	0.11421385
3	0xbc22268c	-0.009896886
4	0x3c956c0b	0.018239995
5	0x3dd2997e	0.102831826
6	0x3d6dc698	0.058050722
7	0x3d9e35e2	0.07725121
8	0x3e2aa932	0.16666105
9	0xbce7007c	-0.028198473
10	0xbcc928f0	-0.024555653
11	0x3df82616	0.12116639
12	0xbb87ca47	-0.0041439864
13	0x3bb1a10f	0.005420811
14	0x3d25685c	0.040382728
15	0x3d938723	0.0720351
16	0x3d036fd5	0.032089073
17	0x3d8e1293	0.069371365
18	0xbd6d26a8	-0.057898194
19	0x3a5ef11c	0.0008504556
20	0x3d5cf5b2	0.05394525
21	0xbcba83dd	-0.022767955
22	0xbbd7669d	-0.0065735118
23	0x3d5e195b	0.0542234
24	0xbc8360d2	-0.016037378
25	0xbc21d205	-0.009876733
26	0x3d37f7e2	0.044914134
27	0x3dc40d31	0.095728286
28	0x3e16779b	0.14694063
29	0x3db7fcfe	0.08983801
30	0xbd908f74	-0.070586115
31	0x3d643e78	0.055723637
32	0x3dbdb112	0.09262289
33	0x3d3da9e2	0.04630459
34	0x3d99f046	0.07516532
35	0x3de32f10	0.11092961
36	0xba846849	-0.001010188
37	0xbb8a05c5	-0.0042121136
38	0x3dca0d44	0.098658115
39	0xbc1f0567	-0.009705878
40	0x3cf95811	0.030437501
41	0x3db30682	0.08741476
42	0x3d392b24	0.045207158
43	0x3c134f80	0.008991122
44	0x3cb09876	0.021557074
45	0xbbe6fee7	-0.0070494297
46	0x3c0b8a5d	0.008516875
47	0x3d99ae48	0.07503945
48	0xbd66d982	-0.056359775
49	0x3c53696d	0.012903553
50	0x3d6e5387	0.058185127
51	0xbda340e9	-0.07971365
52	0xbd404bf8	-0.04694745
53	0xbd4c7248	-0.049913675
54	0x3dd1cfb6	0.10244696
55	0x3c4e88a2	0.012605818
56	0xbdc0dab1	-0.09416712
57	0x3d0197e6	0.031639002
58	0x3c8d8aa0	0.017278016
59	0xbd0b44f6	-0.034001313
60	0x3d4ce3df	0.050022002
61	0x3d3e9198	0.046525568
62	0xbd03ff2a	-0.032225765
63	0xbd0d78e9	-0.034539137
64	0xbdb6b58f	-0.08921348
65	0xbe0cf584	-0.13765532
66	0xbc54fbf2	-0.012999522
67	0xbc3672bc	-0.011135753
68	0xbcaede22	-0.021346156
69	0x3d86af6d	0.065764286
70	0x3a10c719	0.0005522832
71	0xbdfdea5c	-0.12398216
72	0xbdaedabb	-0.08537813
73	0xbd08cac5	-0.0333965
74	0xbc516cdf	-0.012782305
75	0xbc89b503	-0.016809946
76	0xbc5a7e9c	-0.01333585
77	0x3c886a15	0.016652146
78	0xbdba5aa1	-0.09099317
79	0xbc804f72	-0.015662882
80	0xbd087cb8	-0.033322066
81	0x3d71c48b	0.05902533
82	0x3de596cd	0.112104036
83	0x3ca2c710	0.019870311
84	0xbd490923	-0.04908098
85	0x3c63e058	0.013908468
86	0x3cb0b929	0.021572666
87	0xbdac526b	-0.084141575
88	0xbdbbdf08	-0.09173399
89	0xbd09c764	-0.03363742
90	0x3c83c757	0.016086264
91	0x3de12f68	0.1099537
92	0x3de2a82b	0.11067232
93	0xbd02c9c9	-0.03193072
94	0x3ce91a5a	0.028454948
95	0x3d96cb88	0.07363039
96	0xbd66335b	-0.05620132
97	0xbda52560	-0.08063769
98	0xbcd16061	-0.025558652
99	0xbbd0673a	-0.006359962
100	0x3d15f8a8	0.03661409
101	0x3da4e8d2	0.080522195
102	0xbb93bbc3	-0.004508467
103	0x3cb45d15	0.022017041
104	0x3d63cd64	0.055615798
105	0xbc63d4f7	-0.013905755
106	0xbc49fffd	-0.012329099
107	0x3b5bfdc7	0.003356801
108	0xbd216170	-0.039399564
109	0x3dcbcea5	0.09951524
110	0xbd5eecc8	-0.05442503
111	0x3c89daaf	0.01682791
112	0x3d2a8d4c	0.041638657
113	0xbd5b8063	-0.053589236
114	0x3be59e17	0.007007371
115	0x3cf398e5	0.029735992
116	0xbda027e3	-0.07820108
117	0xbd092447	-0.033481862
118	0x3d8d7ef0	0.06908977
119	0x3dad0882	0.08448888
120	0x3cb3cad4	0.021947302
121	0x3ba31d2a	0.004977842
122	0x3d02328b	0.031786483
123	0x3c872cf1	0.016500922
124	0x3cc870f5	0.024467925
125	0x3d4ca225	0.04995932
126	0xbdd7af0e	-0.10531436
127	0xbd8437bb	-0.06455942
128	0xbd6dbd87	-0.058042075
129	0xbd9cdbbe	-0.076591
130	0xbd0b32a3	-0.033983838
131	0xbc240594	-0.010011096
132	0xbdf57b4d	-0.119864084
133	0xbdcc44d6	-0.09974067
134	0xbd5a813c	-0.053345904
135	0x3cd649f0	0.026158303
136	0x3d74f542	0.05980421
137	0x3d499044	0.049209848
138	0x3c993951	0.018704088
139	0x3d118ceb	0.03553478
140	0x3c16b9e8	0.009199597
141	0xbdd72b38	-0.1050629
142	0xbd41366b	-0.047171038
143	0xbdba3413	-0.090919636
144	0xbe1de9f0	-0.15421271
145	0xbd82f04a	-0.06393488
146	0xbd50c77f	-0.050971504
147	0xbde822a0	-0.11334729
148	0x3cb0d5f5	0.021586398
149	0xbd220014	-0.039550856
150	0xbd0c64ca	-0.034275807
151	0xbd47a4c4	-0.048741117
152	0xbe17406f	-0.14770673
153	0xbd82c87d	-0.06385896
154	0xbd4889fb	-0.048959713
155	0xbd320b20	-0.04346764
156	0xbce407af	-0.027835695
157	0xbc0fc581	-0.008775116
158	0x3b236edb	0.0024937901
159	0x3d802351	0.06256736
160	0x3be2d4e1	0.00692235
161	0x3d6b0fba	0.057388045
162	0xbdd99d98	-0.10625762
163	0xbdb36610	-0.08759701
164	0xbcf5bf5d	-0.029998476
165	0xbda223a7	-0.079169564
166	0xbd552b1a	-0.052043058
167	0x3d62d280	0.05537653
168	0x3d462561	0.04837549
169	0x3d8bf5f6	0.06834023
170	0x3dd55f54	0.10418573
171	0xbc83c99f	-0.016087351
172	0xbd5c37f3	-0.053764295
173	0xbd99e43c	-0.075142354
174	0xbbafbbed	-0.0053629787
175	0xbc6f1488	-0.014592297
176	0x3c947b00	0.018125057
177	0x3d19736f	0.0374636
178	0x3d5b38fd	0.053521145
179	0x3d9e00ca	0.07714994
180	0x3bd7b26e	0.00658255
181	0xbb129cae	-0.002237122
182	0xbd0ffada	-0.03515134
183	0x3c781fad	0.015144271
184	0x3c804edd	0.015662605
185	0x3bf15540	0.007364899
186	0xbc9dd1fe	-0.019265171
187	0x3b9b65b1	0.004742347
188	0x3c3edb7c	0.011649009
189	0xbe02bd75	-0.12767585
190	0xbda825d2	-0.08210339
191	0x3c584710	0.013200536
192	0xbc8aa001	-0.016921999
193	0xbbb15f98	-0.005413007
194	0x3d025995	0.031823713
195	0x3dd1ea98	0.10249823
196	0x3dae77e7	0.08518963
197	0x3e24ed10	0.16106057
198	0xbd9f6252	-0.07782425
199	0xbd684f66	-0.056716345
200	0x3d21d9b4	0.03951426
201	0xbd48a317	-0.04898366
202	0xbd7d984a	-0.061912812
203	0x3cfd868b	0.030947944
204	0x3da1ba7f	0.078968994
205	0x3d1db89f	0.038506147
206	0x3d96aadf	0.0735681
207	0x3b9656c2	0.004587979
208	0x3cca5f8a	0.02470376
209	0x3d0cf8a6	0.034416817
210	0xbc9e9248	-0.019356862
211	0xbc05cf1e	-0.008167056
212	0xbb189a0d	-0.002328518
213	0x3d06b684	0.032888904
214	0x3cd10e73	0.025519585
215	0x3b2ca20f	0.0026341712
216	0xbc56bb49	-0.013106176
217	0xbd66c1f4	-0.056337312
218	0xbd773507	-0.060353305
219	0x3d86144e	0.065468416
220	0xbcd42126	-0.025894713
221	0x3d7d06b2	0.061773963
222	0x3e163885	0.14669998
223	0x3db86a41	0.09004641
224	0x3e1c382a	0.152558
225	0x3d5c9988	0.053857356
226	0xbb35f72a	-0.002776573
227	0xbd8a2a2f	-0.06746327
228	0x3d1f841c	0.03894435
229	0xbc56142e	-0.013066335
230	0xbd0a05d4	-0.033696964
231	0x3dfaf6b7	0.12254088
232	0x3da8f6d5	0.082502045
233	0x3e0017bf	0.12509058
234	0xbd10da3a	-0.035364367
235	0xbcb76f6b	-0.022391995
236	0xbcab7f51	-0.020934733
237	0xbd1e4f4a	-0.038649835
238	0xbd146eed	-0.0362386
239	0xbd1cce04	-0.03828241
240	0xbc44350a	-0.011975536
241	0xbbbb53f6	-0.005716796
242	0x3d31fc75	0.043453652
243	0x3cd61dcb	0.026137253
244	0x3cbe6794	0.02324275
245	0x3d95128b	0.072789274
246	0xbd17b9bf	-0.037042376
247	0xbbd80744	-0.006592663
248	0x3d0d5e66	0.034513853
249	0x3b83653e	0.0040098717
250	0x3c0a79ce	0.008451892
251	0x3df22032	0.11822547
252	0xbd8ce465	-0.068795
253	0xbd2d29f8	-0.042276353
254	0xbcce4880	-0.025181055
255	0xbd0d50fb	-0.034501057

head.conv.bias f4 [64]
0	0x3d76770f	0.060172137
1	0x3d778a9f	0.060434934
2	0xbce72a6b	-0.028218469
3	0xbdebaacf	-0.115071885
4	0x3d1d88ce	0.038460545
5	0x3dab1eb7	0.08355468
6	0xbd82cab8	-0.06386322
7	0x3d7534a5	0.05986466
8	0xbd621412	-0.05519492
9	0xbe266e17	-0.16252933
10	0x3d7871e3	0.060655486
11	0x3e14f94a	0.14548221
12	0x3c2e8f52	0.010654287
13	0xbd656751	-0.056006733
14	0x3d17d99c	0.037072763
15	0xbe7919fc	-0.24326319
16	0xbdb6d079	-0.08926482
17	0x3dad0d22	0.084497705
18	0x3d886609	0.06660087
19	0x39b54d17	0.00034580447
20	0xbd004d0d	-0.03132348
21	0xbdbc41a6	-0.09192209
22	0x3e4be1a4	0.19910294
23	0x3dd2ee4d	0.102993585
24	0x3e8cc2bc	0.2749232
25	0xbe3e755c	-0.18599457
26	0x3e2ac378	0.16676128
27	0x3e1b07c5	0.15139683
28	0x3c6e993a	0.014562899
29	0x3da35be9	0.07976515
30	0xbdce9ec0	-0.10088873
31	0x3e1753ad	0.14778014
32	0xbdae52aa	-0.08511861
33	0xbe0bfb08	-0.1366998
34	0xbe03c78e	-0.12869093
35	0xbd789477	-0.060688462
36	0x3e3ef73a	0.18648997
37	0xbe2a1404	-0.16609198
38	0xbe77d1f0	-0.24201179
39	0xbcc10df4	-0.023566224
40	0x3c51de95	0.012809415
41	0x3e3ff5e8	0.1874615
42	0x3dc67e83	0.09692099
43	0xbdc0cce3	-0.09414079
44	0xbd3fbe91	-0.046812598
45	0x3df9f4ef	0.122049205
46	0x3e596e2a	0.2123343
47	0xbe0c3260	-0.13691092
48	0x3e23c980	0.15994835
49	0x3e2ac0fc	0.1667518
50	0x3d68e074	0.05685468
51	0x3dd39cff	0.10332679
52	0xbe003458	-0.12519968
53	0xbdba076e	-0.09083448
54	0x3c7590f4	0.014988173
55	0xbe9a5377	-0.30141804
56	0xbd849204	-0.06473163
57	0xbdc7230a	-0.0972348
58	0x3da81e18	0.08208865
59	0x3e6aeb72	0.22941378
60	0xbdca55fb	-0.09879681
61	0x3e365a41	0.17807867
62	0x3d2d3441	0.04228616
63	0xbe3d0a68	-0.18461001

head.norm.weight f4 [64]
0	0x3f5d81f9	0.8652645
1	0x3f5e3066	0.867926
2	0x3f8b7692	1.089556
3	0x3f82a5f3	1.0206894
4	0x3f76fa10	0.96475315
5	0x3f76ac94	0.96357083
6	0x3f6f238b	0.9341361
7	0x3f835701	1.0260926
8	0x3f7d928b	0.9905173
9	0x3f8afa4f	1.0857638
10	0x3f8f8df9	1.1215202
11	0x3f6d61d0	0.92727375
12	0x3f6a9bb4	0.91643834
13	0x3f95d130	1.1704464
14	0x3f99b156	1.2007244
15	0x3f8251e4	1.0181241
16	0x3f516db7	0.81808037
17	0x3f412acc	0.7545593
18	0x3f6ad1eb	0.9172656
19	0x3f78aed5	0.9714177
20	0x3f47c1df	0.780302
21	0x3f7c1084	0.984627
22	0x3f57d180	0.84304047
23	0x3f694014	0.911134
24	0x3f6dd144	0.9289744
25	0x3f82f42e	1.0230768
26	0x3f95e564	1.171063
27	0x3f6bf5b7	0.92171806
28	0x3f823cc1	1.0174791
29	0x3f623781	0.8836594
30	0x3f782b7c	0.9694135
31	0x3f8a49ac	1.0803733
32	0x3f6562b2	0.8960372
33	0x3f3b0bad	0.7306469
34	0x3f67932a	0.9045893
35	0x3f5a84c5	0.8535884
36	0x3f75c89a	0.9600922
37	0x3f717388	0.9431691
38	0x3f78f328	0.97246027
39	0x3f6da615	0.92831546
40	0x3f467cb5	0.7753404
41	0x3f644ab9	0.8917652
42	0x3f4919c6	0.7855495
43	0x3f771689	0.9651876
44	0x3f795939	0.9740177
45	0x3f1f2b7f	0.62175745
46	0x3f744982	0.95424664
47	0x3f6c6f18	0.92357016
48	0x3f5ec158	0.8701377
49	0x3f3ec265	0.7451537
50	0x3f3fc167	0.74904484
51	0x3f4990af	0.78736395
52	0x3f605be9	0.87640244
53	0x3f678519	0.90437466
54	0x3f6e2271	0.93021303
55	0x3f86b836	1.0524967
56	0x3f81c63d	1.0138623
57	0x3f4c5edc	0.79832244
58	0x3f8f14ef	1.1178263
59	0x3f7fcddb	0.99923486
60	0x3f8098f1	1.0046674
61	0x3f80d405	1.0064703
62	0x3f6be565	0.92146903
63	0x3f579076	0.84204805

head.norm.bias f4 [64]
0	0x3d73f9db	0.059564453
1	0x3df77fc4	0.12084916
2	0x3ddb3d03	0.107049964
3	0x3f05718c	0.52126384
4	0x3f1a3fdc	0.6025369
5	0x3e81a3bc	0.25320232
6	0x3f228d73	0.63497084
7	0x3ed23930	0.41059256
8	0x3e5b2d62	0.21404031
9	0x3d0e3998	0.034722894
10	0xbe3f3c44	-0.18675333
11	0x3dad06fb	0.08448597
12	0x3b7a87a5	0.0038227823
13	0xbd7db4ee	-0.061940126
14	0xbbf5bccf	-0.0074993144
15	0xbdbf01da	-0.09326525
16	0x3f18d46b	0.59699124
17	0xbb972f25	-0.0046137744
18	0x3e7e7ed5	0.2485307
19	0x3ec6a92f	0.38800952
20	0x3eb46e63	0.35240468
21	0x3cdc4f41	0.02689326
22	0x3f367528	0.71272516
23	0x3eab29b7	0.33430263
24	0x3ecc9338	0.3995607
25	0x3eee9b09	0.46602657
26	0x3e86aa2e	0.26301712
27	0x3f11b40b	0.5691535
28	0x3e2616be	0.16219613
29	0x3eee70d2	0.4657045
30	0xbbe53ddc	-0.0069958996
31	0x3ed6b570	0.419353
32	0x3e3ac497	0.18239056
33	0x3f1a5640	0.6028786
34	0x3e446818	0.19180334
35	0x3e1bceb2	0.15215567
36	0x3e91cae7	0.28475115
37	0x3e405978	0.1878413
38	0x3f1542b9	0.58304936
39	0x3efdd506	0.49576586
40	0x3e9808b1	0.2969413
41	0x3d70bb7c	0.05877255
42	0x3d99387c	0.07481477
43	0xbe3644e7	-0.17799722
44	0x3ee4db63	0.4469863
45	0x3d93a1b2	0.07208575
46	0x3e0fa549	0.14027895
47	0x3f107bf0	0.56439114
48	0x3f29364a	0.66098464
49	0x3e78fb0b	0.24314515
50	0xbdfb64e1	-0.122751005
51	0x3ed45ccf	0.41477057
52	0x3d926ad2	0.071492806
53	0x3e4e53ed	0.20149203
54	0x3e1c84f6	0.15285096
55	0x3ef7e58a	0.48417312
56	0x3ebb0658	0.36528277
57	0x3ebbbfd3	0.36669788
58	0xbda83a2b	-0.0821422
59	0x3f138bcf	0.57635206
60	0xbe4951bd	-0.19660087
61	0xbe524c0b	-0.2053682
62	0x3f030575	0.511802
63	0x3ea8d43f	0.3297443

head.norm.running_mean f4 [64]
0	0x3b8cfba0	0.004302457
1	0x3dbf6844	0.09346059
2	0x3eb0c000	0.34521484
3	0xbe9a12ae	-0.30092376
4	0x3eb95cb9	0.36203554
5	0x3ec76acf	0.38948676
6	0xbda9fe9f	-0.08300518
7	0x3c4e2f6a	0.012584547
8	0xbc1bde46	-0.009513443
9	0x3ee4230f	0.44557998
10	0x3e2d1028	0.16900694
11	0x3f481acd	0.78165895
12	0x3e5be738	0.21474922
13	0x3e69ede1	0.2284465
14	0x3dab2d52	0.083582535
15	0xbdcdad58	-0.10042828
16	0xbe285270	-0.16437697
17	0x3da5bc04	0.08092502
18	0x3efbb1d8	0.49159122
19	0xbe158d78	-0.14604747
20	0xbd71f23f	-0.059068915
21	0x3e513af7	0.2043265
22	0xbf3609b3	-0.7110855
23	0x3d930ebd	0.071805455
24	0x3ea513d0	0.32241678
25	0xbe260644	-0.16213328
26	0x3e8bb9b7	0.27290127
27	0x3d7086c6	0.05872228
28	0x3e90ae74	0.28258097
29	0x3dbece68	0.093167126
30	0xbe0d2754	-0.13784534
31	0x3e84db07	0.25948355
32	0x3e8b4d12	0.27207237
33	0xbe7d7abf	-0.24753855
34	0xbdaa4d9e	-0.083155856
35	0x3e77d1ad	0.24201079
36	0x3eee0fc1	0.46496394
37	0x3e5b4314	0.21412307
38	0xbe82ecab	-0.25571188
39	0xbcdc3e9e	-0.026885327
40	0x3d8ac388	0.06775576
41	0x3e9328f0	0.2874217
42	0x3e5abed4	0.21361858
43	0x3d973374	0.07382861
44	0xbe1f3374	-0.15546972
45	0x3dd656d8	0.10465783
46	0x3eed62fe	0.46364588
47	0xbd1546c9	-0.03644446
48	0xbf0ae5ee	-0.54257095
49	0x3e6a6e6a	0.22893682
50	0x3d14af56	0.036300026
51	0x3d89f7b9	0.067367025
52	0x3c05c8b1	0.008165524
53	0x3c705649	0.0146690095
54	0x3e8b2adb	0.27181134
55	0xbec2108e	-0.37903255
56	0xbe5f8361	-0.21827461
57	0xbe682452	-0.22670105
58	0xbee3f2cc	-0.44521177
59	0x3debb707	0.11509519
60	0xbf26db31	-0.6517821
61	0x3d1e62c6	0.038668416
62	0xbe040130	-0.12891078
63	0xbea7e280	-0.32789993

head.norm.running_var f4 [64]
0	0x3dfd0027	0.12353545
1	0x3dd385c1	0.10328246
2	0x3d0b9180	0.034074306
3	0x3c4f30f2	0.012645947
4	0x3c2efde7	0.010680652
5	0x3d8523dd	0.06500981
6	0x3bd37d66	0.0064541576
7	0x3c81db07	0.01585151
8	0x3d476cfa	0.048687913
9	0x3d8291c5	0.063754596
10	0x3de35fd5	0.11102263
11	0x3d859361	0.06522251
12	0x3ba5675c	0.005047722
13	0x3d96b800	0.07359314
14	0x3df35652	0.11881699
15	0x3d1dba0f	0.038507517
16	0x3c01be44	0.007918898
17	0x3b2bd639	0.0026220216
18	0x3d198fa0	0.037490487
19	0x3bfef84e	0.007781065
20	0x3b3ead92	0.0029095155
21	0x3cac10e1	0.021004142
22	0x3dd599b0	0.10429704
23	0x3c466ea4	0.01211134
24	0x3bd2b5ad	0.006430349
25	0x3be4296a	0.0069629448
26	0x3d2d6d4a	0.042340554
27	0x3bc3bff8	0.005973812
28	0x3cbb68b8	0.022877082
29	0x3c09405f	0.008377164
30	0x3bcfd5b1	0.0063426127
31	0x3c4ea657	0.012612901
32	0x3d098fe1	0.03358448
33	0x3be1a7ae	0.006886444
34	0x3d27eb16	0.04099568
35	0x3ce53cb0	0.02798304
36	0x3cb2af92	0.021812234
37	0x3d08ebaa	0.03342787
38	0x3bfb05ea	0.007660617
39	0x3bd6a0f2	0.006549948
40	0x3b5617f8	0.0032668095
41	0x3b7d385f	0.0038638336
42	0x3d2b8105	0.04187109
43	0x3de8ea3c	0.11372802
44	0x3c00117e	0.00781667
45	0x3b26d9d9	0.0025459437
46	0x3d6fc463	0.0585369
47	0x3c45bf5d	0.01206955
48	0x3d3e35d8	0.04643807
49	0x3b3b45d4	0.0028575556
50	0x3b09524f	0.00209536
51	0x3bc1cea8	0.005914528
52	0x3d28721d	0.041124452
53	0x3b93ab38	0.004506495
54	0x3cb00424	0.02148635
55	0x3c031899	0.00800147
56	0x3c02bc27	0.007979429
57	0x3b701cde	0.00366383
58	0x3dbce38e	0.0922309
59	0x3c938988	0.018009916
60	0x3e63a229	0.22229828
61	0x3dbb35e3	0.091411375
62	0x3c4d744c	0.012539934
63	0x3c3bc2b7	0.011459998

body.block1.conv.weight f4 [64, 64, 3, 3]
0	0x3c9307a7	0.017947985
1	0xbca98f1c	-0.020698123
2	0xbcd26bda	-0.025686193
3	0x3c068033	0.008209276
4	0xbd034af0	-0.032053888
5	0xbd8651c3	-0.065585636
6	0xbd9009a6	-0.0703309
7	0xbb9265d4	-0.0044677053
8	0xbce20f66	-0.027595233
9	0xbd292724	-0.041297093
10	0xbc492d76	-0.012278905
11	0xbda473c8	-0.08029896
12	0x3c8470fe	0.01616716
13	0x3c50d7c9	0.01274676
14	0xbd750eec	-0.059828684
15	0xbb9e45ed	-0.004830113
16	0x3bd47137	0.006483223
17	0x3cfb1483	0.03064943
18	0xbac03ca8	-0.0014666514
19	0xbd2b4f30	-0.041823566
20	0x3cf60cbb	0.030035367
21	0x3ca28430	0.019838423
22	0xbd6aa42a	-0.057285465
23	0xbd9c835a	-0.07642241
24	0xbafa2d9c	-0.0019087079
25	0xbd18bbbd	-0.037288416
26	0xbdb50f84	-0.0884085
27	0xbd303124	-0.043015614
28	0xbd1cf304	-0.038317695
29	0xbd729ed7	-0.059233513
30	0x3de74b54	0.112936646
31	0x3de1efc6	0.11032061
32	0x3df6d9fd	0.12053297
33	0x3bcaa58c	0.0061842855
34	0xbd5ac80f	-0.053413447
35	0x3d8720b3	0.06598034
36	0x3c8186f0	0.015811414
37	0x3d289f10	0.04116732
38	0x3c89167d	0.016734356
39	0xbd0c0483	-0.03418399
40	0x3c345f5f	0.011009066
41	0x3ddb0115	0.10693566
42	0x3d8d397b	0.06895729
43	0xbd9292e7	-0.07156926
44	0x3e073e87	0.13207446
45	0x3bb38fd0	0.0054797903
46	0xba11fa7f	-0.0005568638
47	0xbced5f47	-0.028976096
48	0x3cde9272	0.02716944
49	0xbb5ef02c	-0.0034017665
50	0x3cf18ddf	0.029486595
51	0x3d844ce7	0.064599805
52	0xbc5d9996	-0.013525387
53	0x3d11dcd7	0.035611
54	0x3d423d61	0.047421817
55	0xbc448ccf	-0.011996462
56	0x3ba04dc9	0.004892085
57	0xbd129c8e	-0.035793833
58	0x3d0eab6d	0.034831453
59	0x3de0a523	0.10968997
60	0x3c78c734	0.0151842125
61	0x3d8509dc	0.06496021
62	0x3de787c0	0.11305189
63	0x3dcdcffc	0.100494355
64	0x3d2cd3ad	0.042194057
65	0x3e166270	0.14685988
66	0x3d812459	0.06305761
67	0xbc2bd118	-0.010486864
68	0x3cba21ed	0.022721255
69	0x3da5e33f	0.080999844
70	0x3d3d1521	0.04616273
71	0x3d0968f5	0.03354736
72	0xbd8197ca	-0.063277796
73	0x3d36d521	0.04463685
74	0x3ccc79cb	0.02496042
75	0xbcfd900a	-0.030952472
76	0x3d1d2d98	0.03837356
77	0x3d754f52	0.0598901
78	0xbde7defe	-0.11321829
79	0xbb71f210	-0.0036917962
80	0x3d9d815e	0.076906905
81	0xbd686595	-0.0567375
82	0xbe3d55ea	-0.18489805
83	0xbe0af2bd	-0.1356916
84	0xbdc2c7b0	-0.095107436
85	0xbded4454	-0.11585298
86	0xbd970ddb	-0.073756896
87	0xbd1eb293	-0.03874452
88	0xbdcc9153	-0.09988656
89	0xbdb9e9d1	-0.090778
90	0xbd169e1e	-0.036771886
91	0x3d233136	0.039841853
92	0x3d0dd12e	0.034623317
93	0x3d5ac79a	0.05341301
94	0x3d67fdcf	0.056638535
95	0x3db9416d	0.09045682
96	0xbdf244ce	-0.1182953
97	0xbd867230	-0.06564748
98	0x3d97775d	0.073958136
99	0x3c0eadf8	0.00870847
100	0x3cbd9ff3	0.023147559
101	0xbd3af1c5	-0.045640726
102	0xbd385b94	-0.04500921
103	0xbd0810fc	-0.033219323
104	0xbce61d7b	-0.02809023
105	0xbddc6762	-0.10761906
106	0xbcac1857	-0.0210077
107	0x3c86831e	0.016419943
108	0xbc1a3955	-0.009413083
109	0x3c6ce992	0.014459984
110	0x3b54edf2	0.003249046
111	0xbb29a10e	-0.002588335
112	0x3d74b7d5	0.05974563
113	0x3d900f6c	0.070341915
114	0xbcf0aec3	-0.029380208
115	0x3c2a37b5	0.010389258
116	0x3cfd9ec8	0.030959502
117	0xbdb10c69	-0.08644945
118	0xbdb77a60	-0.08958888
119	0xbcb62583	-0.022234684
120	0xbd65a3a0	-0.056064248
121	0xbd2d8f25	-0.04237284
122	0xbc06e996	-0.008234402
123	0xbc80d02e	-0.015724268
124	0x3c61b086	0.013774997
125	0xbcbd1825	-0.023082802
126	0xbd9bcff0	-0.0760802
127	0xbd47dc11	-0.048793856
128	0xbd2d8ff8	-0.042373627
129	0xbc99993b	-0.018749824
130	0x3d3174db	0.043324333
131	0x3cfaf25f	0.03063315
132	0xbc99ed87	-0.01879002
133	0x3d3a6ed5	0.045515854
134	0x3c8e80c8	0.017395392
135	0xbde7b9a9	-0.11314709
136	0xbc4e7322	-0.012600692
137	0x3c874a13	0.016514814
138	0xbdecac45	-0.11556295
139	0x3d57631a	0.052584745
140	0x3d91ae78	0.071133554
141	0xbdbc6f1c	-0.0920088
142	0x3c450e1a	0.012027288
143	0x3dd38fbc	0.103301495
144	0x3dac7cda	0.08422251
145	0xbbac6a0e	-0.005261666
146	0x3dc9a9e1	0.09846855
147	0xbc07091d	-0.008241919
148	0xbcd1a855	-0.025592962
149	0x3be4e255	0.0069849887
150	0x3c5ff424	0.0136690475
151	0x3c8c12c9	0.017098801
152	0xbb8c6a9c	-0.0042851698
153	0xbd2083aa	-0.039188065
154	0x3d038a2e	0.0321142
155	0x3d353071	0.04423565
156	0x3d275c65	0.0408596
157	0x3c7f3191	0.015575782
158	0x3d0ba29f	0.034090634
159	0x3cc67074	0.024223544
160	0xbdbb346e	-0.091408595
161	0xbcc41e42	-0.02394021
162	0xbd2b83ca	-0.04187373
163	0xbdee0720	-0.11622453
164	0xbe0ce792	-0.13760212
165	0xbd2065e0	-0.039159656
166	0xbbf6835f	-0.007522985
167	0xbcfb0ba7	-0.030645205
168	0x3bad0a93	0.0052808016
169	0xbd87c40d	-0.066291906
170	0x3c964442	0.018343095
171	0x3bcb208b	0.006198948
172	0xbd67c8b6	-0.056587897
173	0xbbdb2765	-0.006688046
174	0xbbdebdf7	-0.006797548
175	0xbc37d42f	-0.011220022
176	0x3cd9a2fc	0.026566975
177	0xbd72da10	-0.05928999
178	0xbda34aa8	-0.07973224
179	0xbbc2ab4c	-0.0059408303
180	0x3d9c3057	0.076264076
181	0x3d4e9c4b	0.05044202
182	0x3d389cb9	0.045071337
183	0x3c393f56	0.011306604
184	0xba48537b	-0.0007641834
185	0x3d2092d7	0.039202537
186	0x3d088c9e	0.033337228
187	0xb9b3d411	-0.00034299542
188	0xbcb6333b	-0.022241225
189	0x3d9936f4	0.074811846
190	0x3dafc909	0.08583266
191	0xbaddc7e1	-0.001692053
192	0xbd8b88a4	-0.068131715
193	0xbd00e4bd	-0.03146814
194	0xbc76b4c3	-0.015057745
195	0xbe11e7af	-0.14248537
196	0xbd93e7ed	-0.07221971
197	0xbd222a8c	-0.039591357
198	0xbdd22f73	-0.102629565
199	0xbd417802	-0.04723359
200	0x3cd63cc3	0.02615202
201	0xbe0eb29a	-0.13935319
202	0xbd89486e	-0.06703268
203	0xbcdb1c58	-0.026746914
204	0xbdc98bc8	-0.09841114
205	0xbd99426e	-0.074833736
206	0xbb76d2fc	-0.0037662378
207	0xbb572746	-0.0032829805
208	0xbe0e3aba	-0.1388959
209	0xbdd380bf	-0.10327291
210	0xbce2d358	-0.027688667
211	0xbd6d21ef	-0.05789369
212	0x3d1afdca	0.03783969
213	0x3d8e5059	0.06948919
214	0x3cd31bb9	0.025770055
215	0x3d559c18	0.052150816
216	0x3d800d94	0.0625259
217	0x399e6d8f	0.00030217736
218	0x3c964995	0.018345634
219	0x3cd2f088	0.02574946
220	0x3c5112e1	0.012760849
221	0x3c90ce08	0.017676368
222	0x3bdc839b	0.006729556
223	0x3d58f9a7	0.052972462
224	0x3d574657	0.052557316
225	0x3cd0b4d5	0.025476852
226	0xbdb9a2ff	-0.09064292
227	0xbe1464fd	-0.14491649
228	0x3b915746	0.0044354526
229	0xbba58d04	-0.0050522108
230	0xbc11d501	-0.008900882
231	0x3d44fed9	0.048094604
232	0xbcd080ff	-0.025452135
233	0xbd079d86	-0.03310921
234	0x3dd0a836	0.10188334
235	0x3d29d8fc	0.041466698
236	0x3e202b58	0.15641534
237	0x3de49132	0.11160506
238	0x3d96d804	0.073654205
239	0x3e3bc268	0.18335879
240	0xbd330253	-0.04370339
241	0xbcf62633	-0.030047512
242	0x3c84e1b5	0.016220907
243	0xbce796d2	-0.028270159
244	0xbd2bc4ac	-0.041935608
245	0x3db36689	0.087597914
246	0xbdca0a1c	-0.098652095
247	0xbc7f3bb6	-0.015578201
248	0x3d98ee81	0.07467366
249	0x3cddb676	0.027064543
250	0x3bd668fb	0.0065432764
251	0x3cac8834	0.02106104
252	0x3cccb5f9	0.024989115
253	0xbd6ee773	-0.058326196
254	0x3ca22986	0.01979519
255	0xbbd70071	-0.006561332

body.block1.conv.bias f4 [64]
0	0xbc8ef983	-0.01745296
1	0xbd448391	-0.047977034
2	0xbc9524dd	-0.018206054
3	0x3e093656	0.13399634
4	0xbdb0efe7	-0.08639508
5	0xbc1fac9f	-0.009745746
6	0xbd6dfd7b	-0.058103066
7	0xbce62291	-0.028092654
8	0xbdd1e4dd	-0.1024873
9	0x3cbbb6a8	0.022914246
10	0x3bfca96e	0.0077106273
11	0xbcde4130	-0.027130693
12	0x3d61e8f9	0.05515382
13	0x3bc043f4	0.0058674756
14	0x3dad16de	0.08451627
15	0x3c6aced9	0.014331543
16	0x3ca748ca	0.02042045
17	0xbcb9c07b	-0.02267479
18	0x3cd326f5	0.025775412
19	0xbb1c0b2e	-0.0023810375
20	0xbbd21ffe	-0.006412505
21	0xbb15a71c	-0.00228352
22	0xbd1983ea	-0.03747932
23	0xbd4129e3	-0.047159087
24	0x3db27fe5	0.087158
25	0x3b8a6ad6	0.0042241616
26	0xbc1dc9d8	-0.009630643
27	0xbdbaba92	-0.09117617
28	0x3b2729e8	0.0025507156
29	0x3d40c763	0.04706515
30	0xbb89e479	-0.0042081443
31	0x3d1a5cdb	0.03768621
32	0xbc571454	-0.013127405
33	0x3c17c880	0.0092641115
34	0xbb45e47b	-0.0030196
35	0x3d3553e9	0.044269476
36	0xbc35ce89	-0.011096605
37	0xbcf4e127	-0.029892517
38	0xbbbbab48	-0.0057272054
39	0x3d176722	0.03696359
40	0x3cd4ec09	0.025991457
41	0x3d1ac96f	0.03778976
42	0xbd5ad4f3	-0.05342574
43	0xbd7798ea	-0.060448565
44	0x3cb49c01	0.022047045
45	0x3cb4f0dd	0.022087509
46	0x3d2d2741	0.042273764
47	0x3c6fc986	0.014635449
48	0x3ddf1ff6	0.10894768
49	0xbd9f302f	-0.07772862
50	0xbc00c18a	-0.007858643
51	0x3bdac4cb	0.0066762916
52	0x3925eb8f	0.00015823379
53	0xbc994e08	-0.018713966
54	0x3bbbe62d	0.005734226
55	0x3d500aa1	0.050791387
56	0x3d662d6c	0.05619566
57	0xbdf76be1	-0.12081123
58	0x3d00f909	0.0314875
59	0x3d2da8ee	0.042397432
60	0x3d276fae	0.04087799
61	0xbd6c0a69	-0.057627115
62	0xbd6a2eaa	-0.05717341
63	0x3c7f87cd	0.015596342

body.block1.norm.weight f4 [64]
0	0x3f90cee0	1.1313133
1	0x3f90e0f0	1.1318645
2	0x3f818bf0	1.012083
3	0x3f82467c	1.017776
4	0x3f82f60c	1.0231338
5	0x3f87f04d	1.0620209
6	0x3f811e36	1.0087345
7	0x3f796d55	0.9743245
8	0x3f652ec3	0.8952448
9	0x3f887616	1.0661037
10	0x3f7e9fa6	0.99462354
11	0x3f76f14c	0.9646194
12	0x3f6cc2c7	0.92484707
13	0x3f7e25e8	0.9927659
14	0x3f545cb9	0.82953984
15	0x3f69a230	0.91263103
16	0x3f67c94d	0.90541536
17	0x3f8a929a	1.0825989
18	0x3f693697	0.9109892
19	0x3f7591b2	0.9592544
20	0x3f86e95a	1.0539963
21	0x3f7cbd51	0.98726374
22	0x3f7fbc31	0.9989653
23	0x3f81ea09	1.0149547
24	0x3f7b7494	0.9822476
25	0x3f82e9b7	1.0227574
26	0x3f7269ef	0.9469289
27	0x3f75d095	0.96021396
28	0x3f5c3cef	0.8603048
29	0x3f83eb15	1.0306116
30	0x3f4fe680	0.8121109
31	0x3f7ab100	0.9792633
32	0x3f5b44c0	0.8565178
33	0x3f60c7a4	0.8780463
34	0x3f81aa7c	1.0130153
35	0x3f8c95ee	1.0983255
36	0x3f646d98	0.89229727
37	0x3f75fb0e	0.96086204
38	0x3f843796	1.0329463
39	0x3f662612	0.8990184
40	0x3f59fd3a	0.8515202
41	0x3f87521a	1.057193
42	0x3f782a88	0.969399
43	0x3f88ee7b	1.0697778
44	0x3f891bfb	1.0711664
45	0x3f83b639	1.0289985
46	0x3f858cd2	1.04336
47	0x3f87d5f7	1.0612172
48	0x3f5c4281	0.86038977
49	0x3f6eb7b8	0.9324908
50	0x3f73274f	0.94981855
51	0x3f6c99de	0.9242228
52	0x3f789aa5	0.9711097
53	0x3f730ea0	0.9494419
54	0x3f827dc2	1.0194628
55	0x3f6a11e2	0.91433537
56	0x3f7a2d4e	0.9772538
57	0x3f51f66d	0.8201664
58	0x3f65cd0a	0.8976599
59	0x3f72e939	0.9488712
60	0x3f7fa153	0.99855536
61	0x3f6d6327	0.9272942
62	0x3f6860b8	0.9077258
63	0x3f87337c	1.0562587

body.block1.norm.bias f4 [64]
0	0x3db32b9d	0.08748553
1	0x3df1ed89	0.11812884
2	0x3edcc32e	0.4311766
3	0x3e074867	0.13211213
4	0x3d96a41c	0.0735552
5	0x3e339e32	0.17540815
6	0x3ec96150	0.39332056
7	0x3efb7adb	0.4911717
8	0x3eca8f87	0.39562628
9	0x3a9dd537	0.0012041692
10	0x3deeb1d7	0.11655014
11	0x3ee36889	0.44415691
12	0x3eda0866	0.42584532
13	0x3e67dd17	0.22642933
14	0x3ed38acc	0.4131683
15	0x3e4767af	0.19473146
16	0x3ec10f49	0.37706974
17	0x3ec79183	0.38978204
18	0x3eae2378	0.34011436
19	0x3e628e04	0.22124487
20	0x3d6e52bd	0.058184374
21	0x3e593078	0.21209896
22	0x3eb24788	0.348202
23	0x3d31022f	0.043214973
24	0x3dbd95e2	0.092571035
25	0x3ebe6441	0.37185863
26	0x3e15157a	0.14558974
27	0x3e4a1d10	0.19737649
28	0x3e5697eb	0.2095639
29	0x3e87a883	0.26495752
30	0x3eb0ab4b	0.34505686
31	0xbe808e05	-0.25108352
32	0x3e111771	0.14169098
33	0x3f0e718e	0.5564202
34	0x3e6b5073	0.22979908
35	0x3d819177	0.06326573
36	0x3f11064a	0.5665022
37	0x3ef74ad2	0.4829927
38	0x3e26da64	0.16294247
39	0x3e63fe00	0.22264862
40	0x3ef4e350	0.47829676
41	0xbdc047d7	-0.09388702
42	0x3ea3c83a	0.31988698
43	0x3ef732b1	0.48280862
44	0x3d1b8ed4	0.03797801
45	0x3ed87d82	0.42283255
46	0x3e953d89	0.2914851
47	0x3e4b5949	0.19858278
48	0x3e4883e0	0.19581556
49	0x3e5b21a3	0.2139955
50	0x3eaa7a40	0.33296394
51	0x3eb5224b	0.35377726
52	0x3e65c892	0.22439793
53	0x3e9fecf6	0.31235474
54	0x3e0be69c	0.13662189
55	0x3ee7bfcd	0.4526352
56	0x3ead1fc8	0.3381331
57	0x3ee6c841	0.45074657
58	0x3e8b9fb7	0.2727029
59	0x3f1d6c21	0.61493117
60	0x3e47444a	0.19459644
61	0x3e9bb925	0.30414692
62	0x3ed05bec	0.4069513
63	0x3eb3675e	0.350398

body.block1.norm.running_mean f4 [64]
0	0xbfc50798	-1.5392942
1	0xc065eb95	-3.5925038
2	0x3fcdfaa1	1.6092111
3	0xc042abf4	-3.0417452
4	0xbf2b0b43	-0.6681406
5	0x3f5ef69e	0.8709506
6	0xbe88bb0e	-0.2670521
7	0x406b744a	3.6789727
8	0xc019ba2e	-2.4019885
9	0xc004304c	-2.0654478
10	0xc04120fe	-3.0176387
11	0xbf023e5e	-0.50876415
12	0x3f064e03	0.52462786
13	0x3ef4bfc5	0.4780256
14	0xbf1d4cda	-0.6144539
15	0xbf82bf03	-1.0214542
16	0x3f573f67	0.8408112
17	0x3f7a8288	0.97855425
18	0xbfa95297	-1.322833
19	0xc00645bc	-2.0980062
20	0xbf617cbc	-0.88080955
21	0xbe26b9e4	-0.16281849
22	0x40215cdf	2.5212934
23	0xbf83a3d5	-1.0284373
24	0xbea60833	-0.3242813
25	0x3f837910	1.027132
26	0x3f869663	1.0514644
27	0xc005b870	-2.0893822
28	0x3ecca723	0.39971265
29	0x3f1bd207	0.6086735
30	0xbf89371d	-1.0719944
31	0xbfda8432	-1.7071593
32	0xbf8bbdad	-1.091726
33	0xc081d10e	-4.0567694
34	0xbfdd5893	-1.7292656
35	0xc011eb56	-2.2799888
36	0x3f749480	0.95539093
37	0x3fef29bb	1.868461
38	0xc045070e	-3.0785556
39	0x3ee0b1c2	0.43885618
40	0xbfb4ad94	-1.4115472
41	0xbfd3878b	-1.652574
42	0xbfb13846	-1.3845298
43	0xbfc9bb49	-1.576028
44	0x3fd47fb5	1.6601473
45	0xc01358cc	-2.3022947
46	0x3f69ea96	0.91373575
47	0xc088dc37	-4.2768817
48	0xbfb5038d	-1.4141709
49	0x3f2fedc8	0.687222
50	0xbf8a2145	-1.0791403
51	0x3f7cf361	0.98808867
52	0xbfbc6fc8	-1.4721613
53	0xbe8f0f7f	-0.2794151
54	0x3edd82d4	0.43263876
55	0x3ffb8367	1.9649476
56	0x3ffcf87c	1.9763331
57	0x3f5b79c2	0.8573266
58	0xbfca163d	-1.5788037
59	0xbffc3685	-1.9704138
60	0xbf4cd925	-0.80018836
61	0xc019a6ce	-2.400806
62	0xbf0ca4ff	-0.54939264
63	0xbf6fe3a0	-0.93706703

body.block1.norm.running_var f4 [64]
0	0x400bf551	2.186848
1	0x4025fe38	2.5936413
2	0x40106e8c	2.2567472
3	0x3feaf7af	1.8356837
4	0x3fd71641	1.6803666
5	0x3fb8c0d5	1.4433848
6	0x40220686	2.5316482
7	0x408bfb80	4.3744507
8	0x401c5589	2.4427207
9	0x3ff014f2	1.8756392
10	0x3fb7f836	1.4372623
11	0x3fa6809a	1.3007996
12	0x3f9038ad	1.1267296
13	0x3f9c09d5	1.21905
14	0x3f861fd1	1.047846
15	0x3f4f578b	0.80992955
16	0x3fe32da0	1.7748299
17	0x3fe28593	1.7697014
18	0x3f8562b5	1.0420748
19	0x3fc31b3c	1.5242686
20	0x3fab01ac	1.3359885
21	0x40792a74	3.8932161
22	0x400076c5	2.007249
23	0x3f56e5b6	0.8394426
24	0x3f716628	0.94296503
25	0x3fd3a4b8	1.6534643
26	0x3ff9e710	1.952364
27	0x3f8bd079	1.0922996
28	0x3f92ef5f	1.14793
29	0x3fe84052	1.8144629
30	0x3f4654b6	0.7747301
31	0x405c0b5b	3.438193
32	0x3f9e92fd	1.2388607
33	0x3fe4e3bf	1.7882003
34	0x3fcd6958	1.6047773
35	0x3ff06104	1.8779607
36	0x3fc71f10	1.5556355
37	0x4048aa3d	3.1353905
38	0x3f998e8b	1.1996626
39	0x3fba6036	1.4560611
40	0x3f4db3d2	0.8035251
41	0x406b4963	3.6763542
42	0x4013e7cd	2.311023
43	0x3fdcd2a3	1.7251781
44	0x3f4d6ce3	0.8024427
45	0x3fc8e23f	1.5694045
46	0x3fde4318	1.7364225
47	0x4021aebf	2.5262907
48	0x3f71a569	0.9439302
49	0x3ff6db10	1.9285603
50	0x3fc68969	1.5510684
51	0x3fd810ad	1.6880089
52	0x402dd705	2.7162488
53	0x3ff000be	1.8750226
54	0x401388e7	2.3052309
55	0x3fa0c628	1.2560472
56	0x4019cb87	2.4030473
57	0x3f0d73a5	0.55254585
58	0x3fbf1c20	1.4930458
59	0x3fc70a4b	1.5550016
60	0x3fde49fd	1.736633
61	0x3ff5c4f2	1.9200728
62	0x3fdc9222	1.7232096
63	0x3fee1ece	1.8603151

body.block2.conv.weight f4 [64, 64, 3, 3]
0	0xbbde36cf	-0.006781436
1	0x3c348792	0.011018651
2	0xbdcdb66d	-0.100445606
3	0x3d812656	0.0630614
4	0x3da1e187	0.07904344
5	0x372ca489	1.0290308e-05
6	0x3dc39f3e	0.095518574
7	0x3d6a6e9c	0.05723439
8	0xbda7c652	-0.081921235
9	0xbd4bb741	-0.04973531
10	0xbd2866e0	-0.041113734
11	0xbcc1685e	-0.023609336
12	0xbc3d69ba	-0.011560852
13	0x3c0806b0	0.008302376
14	0xbd23265a	-0.039831497
15	0xbc70d472	-0.014699088
16	0x3b9632aa	0.0045836763
17	0x3db9b58e	0.09067832
18	0xbdc6a647	-0.09699684
19	0xbdb0b5f7	-0.08628457
20	0x3bc185a1	0.0059058224
21	0xbd5fed67	-0.054669764
22	0x3c21d0a1	0.009876401
23	0x3d3e96ff	0.04653072
24	0xbd2801e6	-0.041017435
25	0xbd309fdb	-0.0431212
26	0xbc9c4261	-0.01907462
27	0xbd0823ef	-0.033237394
28	0x3d23bb33	0.03997345
29	0x3e5786c5	0.21047504
30	0xbd84f092	-0.06491198
31	0x3d9334d2	0.07187809
32	0x3d632130	0.055451572
33	0x3ce9a736	0.028522115
34	0xbc9b1c4f	-0.018934397
35	0xbc190fc6	-0.00934214
36	0x3cf116c8	0.029429808
37	0xbc41a1a3	-0.011818322
38	0x3de78a6a	0.11305697
39	0x3d1c752f	0.038197692
40	0x3d0b9b33	0.034083556
41	0x3e02ae44	0.1276179
42	0x3cfd2446	0.030901086
43	0x3d442fe8	0.04789725
44	0x3e077ccf	0.13231204
45	0x3e32abc9	0.17448343
46	0x3cadded8	0.021224424
47	0xbd001bbe	-0.031276457
48	0xbd62c26b	-0.055361193
49	0xbc4d4053	-0.012527543
50	0x3d24ee2a	0.040266193
51	0xbd4a1f9e	-0.04934656
52	0x3d271b29	0.040797386
53	0xbd5ad88a	-0.053429164
54	0x3c497286	0.012295371
55	0xbb8ee229	-0.0043604565
56	0x3d43d00c	0.04780583
57	0x3d72f80f	0.0593186
58	0x3c8643c0	0.016389728
59	0x3d1ae799	0.037818525
60	0x3d36d3ec	0.0446357
61	0x3d46bc2b	0.048519295
62	0x3d10e9bb	0.035379153
63	0x3c22778e	0.009916199
64	0xbd17bb91	-0.03704411
65	0xbcfff5cc	-0.031245135
66	0xbd083658	-0.03325495
67	0xbc1edcf1	-0.009696231
68	0x3c6428a2	0.013925703
69	0xbccc1664	-0.02491302
70	0xbd92a226	-0.071598336
71	0xbd6f687c	-0.058449253
72	0xbc86bae7	-0.016446544
73	0xbb165e39	-0.0022944345
74	0x3e249a8e	0.16074583
75	0xbbeb550b	-0.007181769
76	0xbcddc80f	-0.027072934
77	0x3dad03d2	0.08447994
78	0x3d9331a1	0.071872
79	0xbca6d4d9	-0.020365166
80	0xbd0266fe	-0.031836502
81	0xbc8b970c	-0.017039798
82	0x3daf6216	0.0856363
83	0x3e02a9b4	0.12760049
84	0x3cb60c1f	0.022222577
85	0xbb03a3bb	-0.0020086605
86	0x3b627103	0.0034552224
87	0x3e16070c	0.14651126
88	0x3d613d68	0.054990202
89	0x3c64a409	0.013955125
90	0x3e146d79	0.14494886
91	0x3c180b87	0.009280092
92	0x3cf00cfb	0.029303065
93	0xbca6ec42	-0.020376328
94	0xbd90974d	-0.07060108
95	0xbde4edaf	-0.11178147
96	0x3dc7f5d8	0.09763688
97	0xbcaa90b9	-0.020820962
98	0x3befdfd0	0.0073203817
99	0xbd8b4662	-0.06800534
100	0x3dae40fd	0.08508489
101	0xbd229531	-0.03969306
102	0xbd7726a5	-0.06033959
103	0xbc208928	-0.009798326
104	0xbcecf7bd	-0.028926725
105	0x3d35fe2c	0.04443185
106	0xbcb729f3	-0.02235887
107	0xbd090f9a	-0.033462144
108	0x3c671afe	0.0141055565
109	0xbd8b4f94	-0.06802288
110	0xbc9a0396	-0.018800538
111	0xbddb68b1	-0.10713328
112	0x3d83caec	0.06435189
113	0x3e3ff57f	0.18745993
114	0xbddbde92	-0.10735811
115	0xbd9d15b1	-0.07670153
116	0x3dd00c5e	0.10158609
117	0xbc5100fe	-0.012756584
118	0x3de145cc	0.10999641
119	0xbd9842e4	-0.074346334
120	0xbd939660	-0.07206416
121	0x3d0d8d9b	0.034558874
122	0x3d011758	0.031516403
123	0xbde5c867	-0.11219864
124	0x3c363dd6	0.011123141
125	0x3d81c37a	0.06336112
126	0x3c255a03	0.010092261
127	0x3d04979d	0.032371152
128	0xbab79b04	-0.001400799
129	0x3c5a56da	0.013326371
130	0x3da2294c	0.07918033
131	0xbd0e6604	-0.03476526
132	0xbbc696f5	-0.006060476
133	0xbd83a482	-0.06427862
134	0xbd42b5a4	-0.047536507
135	0xbe002943	-0.1251574
136	0xbd518718	-0.051154226
137	0x3d42d9e4	0.047571078
138	0xbb168b46	-0.0022971197
139	0x3bcf2192	0.0063211406
140	0xbdba338d	-0.09091864
141	0x3dccdcd4	0.10003057
142	0x3cd05bfa	0.025434483
143	0xbdb585f7	-0.088634424
144	0xbc724c49	-0.014788696
145	0x3cbd6217	0.023118062
146	0xbc5c956c	-0.013463359
147	0xbcc25a3a	-0.023724664
148	0xbc8e110e	-0.017342117
149	0x3c9cb6a2	0.019130055
150	0xbb060e83	-0.0020455427
151	0x3c952460	0.018205822
152	0x3d320f05	0.043471355
153	0x3c73b963	0.014875743
154	0x3ce85870	0.028362483
155	0x3c197b5f	0.009367793
156	0xbd36b409	-0.04460529
157	0x3c9ad703	0.018901354
158	0x3d90a637	0.07062953
159	0xbe389b08	-0.1802789
160	0xbd2fc2f0	-0.042910516
161	0xbcabdda7	-0.020979716
162	0x3d61da5a	0.055139877
163	0xbb0291bb	-0.0019923288
164	0x3c8d0431	0.017213913
165	0x3e0b66d0	0.13613439
166	0xbb734d78	-0.0037125032
167	0xbc511837	-0.012762121
168	0xbbc17ac6	-0.0059045283
169	0xbd1b955e	-0.037984245
170	0x3c2fd839	0.010732704
171	0xbc9192c7	-0.017770184
172	0xbb324219	-0.0027200042
173	0xbd5179a5	-0.0511414
174	0x3d0cde99	0.034391973
175	0xbc80f171	-0.015740128
176	0xbc251118	-0.010074876
177	0x3b45b8b3	0.0030169904
178	0xbcf2e531	-0.029650303
179	0xbd676629	-0.056493912
180	0x3df322b2	0.11871852
181	0x3cfe6f1d	0.031058842
182	0x3d06aa44	0.03287722
183	0xbb4c453f	-0.0031169204
184	0x3d4ac5f2	0.04950518
185	0x3cc08754	0.02350203
186	0x3e255b7d	0.16148181
187	0x3c873655	0.0165054
188	0x3d23ee21	0.04002202
189	0xbc3eb6bb	-0.011640246
190	0xbd8b2ea3	-0.067960046
191	0x3b1b53c5	0.0023701054
192	0x3ca3645a	0.019945312
193	0x3d3a216d	0.045442034
194	0x3d4efb0f	0.050532397
195	0xbd6cb1ed	-0.05778687
196	0x3c69d651	0.014272288
197	0xbb5d92a6	-0.0033809333
198	0x3d742eb9	0.05961487
199	0xbd3de68c	-0.046362445
200	0xbd7c1c2a	-0.061550297
201	0x3d4d48ec	0.05011837
202	0xbd02d743	-0.03194357
203	0xbd035322	-0.032061704
204	0x3b8fba16	0.004386197
205	0xbd1afafa	-0.037837006
206	0xbd8396b2	-0.06425227
207	0xbd8172d3	-0.06320729
208	0xbcd45628	-0.025919989
209	0xbca1c243	-0.019745952
210	0xbe0b11c4	-0.13580996
211	0xbd7c9490	-0.061665118
212	0xbd289600	-0.041158676
213	0xbd2a73fb	-0.041614514
214	0xbc7c2650	-0.015389994
215	0x3d161e05	0.036649723
216	0xbda26c23	-0.07930782
217	0xbd425ee5	-0.04745378
218	0x3cea4b52	0.028600369
219	0xbdd47d2d	-0.10375438
220	0x3d3236f9	0.043509457
221	0x3d28dca0	0.04122603
222	0xbdd7793e	-0.10521172
223	0xbcc920c8	-0.024551764
224	0x3da61afb	0.08110615
225	0x3d84a3af	0.06476533
226	0x3d637a26	0.05553641
227	0x3d00b3c0	0.031421423
228	0x3d380859	0.044929836
229	0xbc1437a5	-0.00904647
230	0x3cf36263	0.02971
231	0x3d9a94df	0.07547926
232	0x3b18c64f	0.002331156
233	0x3b85e0c8	0.004085634
234	0xbbd57f98	-0.0065154545
235	0x3b6e0591	0.0036319236
236	0xbc015372	-0.00789343
237	0xbd04ff0e	-0.0324698
238	0x3cc92a03	0.024556166
239	0x3d4b58ad	0.049645115
240	0xbb2b7559	-0.0026162474
241	0xbcce4830	-0.025180906
242	0xbdd0b734	-0.10191193
243	0xbd7cb21e	-0.061693303
244	0x3dde15f9	0.10844035
245	0x3d90b1ec	0.07065186
246	0xbdfcf0c3	-0.12350609
247	0xbcb4fb51	-0.022092493
248	0x3a9e44ca	0.0012074944
249	0x3d807f23	0.062742494
250	0x3e2c9a1a	0.1685566
251	0x3e167b15	0.1469539
252	0x3b13973c	0.0022520563
253	0x3cf077a5	0.029353926
254	0x3d172c73	0.036907624
255	0xbc95581e	-0.018230494

body.block2.conv.bias f4 [64]
0	0x3ac1e7fa	0.0014793866
1	0x3d414bf1	0.047191564
2	0x3c9cc9c1	0.019139173
3	0x3d428ef3	0.04749961
4	0x3c3ebcae	0.011641664
5	0xb9b96d07	-0.0003536718
6	0xbc85fb92	-0.01635531
7	0xbcb77811	-0.02239612
8	0xbca1ad10	-0.019735843
9	0xbaee83fa	-0.0018197291
10	0xbd6682c5	-0.056277055
11	0xbd489a3f	-0.048975226
12	0xbdc7585b	-0.09733649
13	0x3cd5d0c7	0.02610053
14	0x3ce1c94e	0.02756181
15	0x3c547d01	0.012969256
16	0xbd009c65	-0.03139915
17	0x3cd20d97	0.025641246
18	0x3d87763d	0.06614349
19	0xbc9a4b7e	-0.018834826
20	0x3d1e609f	0.038666364
21	0x3deb06a5	0.11475877
22	0x3cc30e84	0.023810633
23	0x3d04e4f1	0.032444898
24	0xbc7188b8	-0.014742069
25	0xbdbe3102	-0.09286691
26	0x3dc4e46e	0.09613882
27	0x3b12215d	0.0022297718
28	0x3d057042	0.03257776
29	0x3c516ac5	0.0127818035
30	0x3d09c99e	0.033639543
31	0xbb6a6369	-0.003576482
32	0xbc96529b	-0.018349936
33	0x3b87eb3f	0.0041479166
34	0xbbf33a16	-0.007422696
35	0xbcf1b2d3	-0.029504215
36	0x3d2261c1	0.039644007
37	0x3c4c0481	0.012452246
38	0xbcde3407	-0.027124418
39	0x3cccadd3	0.02498523
40	0x3cfda5b1	0.030962797
41	0xbc280adb	-0.010256494
42	0xbd4da18f	-0.050202902
43	0xbd8911d1	-0.06692851
44	0x3cbb21b2	0.022843216
45	0xbd29ac93	-0.041424345
46	0x3b8f4949	0.00437275
47	0xbd6ef53d	-0.058339346
48	0x3beb58a5	0.007182198
49	0xbc0aec35	-0.008479168
50	0xbd6b77d3	-0.05748732
51	0x3cf7ad33	0.030233955
52	0xbc947481	-0.01812196
53	0x3cdf6243	0.027268535
54	0xbd3a3eda	-0.045470096
55	0xbccb878e	-0.024844911
56	0xbb6f3ca8	-0.003650466
57	0x3d3c72bd	0.04600786
58	0x3bc6c0fc	0.006065486
59	0x3bc058b7	0.0058699506
60	0x3d16b451	0.036793057
61	0x3d22007b	0.03955124
62	0xbc6c1142	-0.014408411
63	0xbc5e1fc1	-0.013557375

body.block2.norm.weight f4 [64]
0	0x3f6d7ac8	0.92765474
1	0x3f77659a	0.96639407
2	0x3f74b796	0.9559263
3	0x3f84ce06	1.0375373
4	0x3f860f84	1.0473485
5	0x3f665a18	0.8998122
6	0x3f898ffa	1.0747063
7	0x3f6f91d6	0.93581903
8	0x3f834a03	1.0256962
9	0x3f6687df	0.9005107
10	0x3f4fd7d8	0.81188726
11	0x3f42cf9c	0.76098037
12	0x3f51c8d8	0.8194709
13	0x3f83d2ed	1.0298744
14	0x3f6ef817	0.93347305
15	0x3f7abc28	0.97943354
16	0x3f811b28	1.0086412
17	0x3f9193b9	1.1373206
18	0x3f7c5d96	0.985803
19	0x3f30d3a6	0.6907295
20	0x3f75df00	0.96043396
21	0x3f7e2504	0.9927523
22	0x3f5d8358	0.8652854
23	0x3f6e8e08	0.9318547
24	0x3f7362da	0.9507271
25	0x3f608e46	0.8771709
26	0x3f63c245	0.88968307
27	0x3f839ced	1.0282265
28	0x3f6bdfb8	0.9213824
29	0x3f7610d5	0.96119434
30	0x3f7d50a0	0.9895115
31	0x3f7a6eb5	0.97825176
32	0x3f793356	0.9734396
33	0x3f6dd62d	0.9290493
34	0x3f6f98c5	0.9359248
35	0x3f6949c9	0.9112821
36	0x3f67a806	0.9049076
37	0x3f8d454a	1.103677
38	0x3f8cbff1	1.0996076
39	0x3f748240	0.95511246
40	0x3f6cb4a5	0.9246314
41	0x3f58ebd5	0.8473485
42	0x3f875aa9	1.0574542
43	0x3f7b6a1e	0.98208797
44	0x3f9257f4	1.1433091
45	0x3f898ef3	1.074675
46	0x3f6d6de9	0.92745835
47	0x3f7a47c5	0.9776576
48	0x3f89c010	1.0761738
49	0x3f5d3602	0.86410534
50	0x3f515ddf	0.8178386
51	0x3f6cd2b2	0.92508996
52	0x3f4b450d	0.7940224
53	0x3f7c3643	0.98520297
54	0x3f6db0a7	0.92847675
55	0x3f77eb76	0.9684366
56	0x3f767c2a	0.9628321
57	0x3f51e0e0	0.81983757
58	0x3f6a8c7a	0.916206
59	0x3f6cde07	0.92526287
60	0x3f64fcb8	0.8944812
61	0x3f771d97	0.96529526
62	0x3f761376	0.96123445
63	0x3f5ea4d7	0.86970276

body.block2.norm.bias f4 [64]
0	0x3eeda2a6	0.46413153
1	0x3e89d99d	0.26923838
2	0x3ea1cf27	0.31603357
3	0x3f032ca6	0.51240003
4	0x3ec18f77	0.37804767
5	0x3ea71f38	0.32641006
6	0x3be0fd8d	0.006866163
7	0x3f3d90e5	0.74049217
8	0x3e872053	0.2639185
9	0x3ee2cb9f	0.44295976
10	0x3f264ace	0.6495789
11	0x3ef17666	0.47160643
12	0x3f1e53dd	0.61846715
13	0x3eb9fccf	0.3632569
14	0x3eb9e6cf	0.36308905
15	0x3e82b44b	0.25528178
16	0x3e169eb8	0.14708984
17	0xbe7731e9	-0.24140133
18	0x3d9c2e2c	0.07625994
19	0x3f0f9e25	0.56100684
20	0x3f0f7006	0.5603031
21	0x3e392c8f	0.18083404
22	0x3f36461a	0.71200716
23	0x3e317b93	0.17332296
24	0x3ea143d4	0.3149706
25	0x3ec3a968	0.38215184
26	0x3eda7338	0.4266603
27	0x3e939788	0.28826547
28	0x3ec5fa32	0.38667446
29	0x3ee30efa	0.44347364
30	0x3e69c08c	0.22827357
31	0x3e8fd623	0.2809306
32	0x3e2d4714	0.16921645
33	0x3eee019f	0.46485612
34	0x3ed7d6e3	0.42156133
35	0x3efe565c	0.49675262
36	0x3ed96da6	0.42466468
37	0x3e3806c1	0.17971326
38	0xbd4e023a	-0.050295092
39	0x3ec8a022	0.39184672
40	0x3f04e315	0.51909
41	0x3f0da53b	0.55330247
42	0x3e8d54b7	0.27603695
43	0x3f1c2ce5	0.61006004
44	0x3d8da808	0.06916815
45	0x3dc9c7d0	0.09852564
46	0xbc94fd79	-0.018187271
47	0x3e760ceb	0.24028365
48	0x3ec06997	0.3758056
49	0x3ee00548	0.4375403
50	0x3f601b8e	0.87542045
51	0x3ef054d3	0.46939716
52	0x3f3087a2	0.6895696
53	0x3e8997c2	0.26873595
54	0x3eaa57d4	0.33270133
55	0x3e71dbfc	0.23619074
56	0x3f0f7b32	0.56047356
57	0x3f2e5ffe	0.6811522
58	0x3f0e18b5	0.5550645
59	0x3ea384ae	0.31937164
60	0x3efe55f1	0.49674943
61	0x3de4dc59	0.111748405
62	0x3ea54a04	0.32283032
63	0x3f1d376b	0.61412686

body.block2.norm.running_mean f4 [64]
0	0x3f89e65a	1.0773423
1	0xbff51f48	-1.9150171
2	0xbfdf2322	-1.7432597
3	0xc02e42f8	-2.7228374
4	0xbeb7b5a9	-0.35880783
5	0x3fea0abb	1.8284525
6	0x3f369b2d	0.7133053
7	0xbf250480	-0.6445999
8	0x3e56767d	0.20943637
9	0xbf4370f4	-0.7634423
10	0xc00da17f	-2.212982
11	0xbfb8eb51	-1.4446813
12	0xc01c96c1	-2.4467013
13	0xbfafbbcd	-1.3729187
14	0xbefdd510	-0.49576616
15	0x3f81c206	1.0137336
16	0xc063b6c9	-3.5580313
17	0x3f272b6c	0.6530063
18	0x3d752418	0.059848875
19	0xbe631c9e	-0.22178885
20	0x4087dbb6	4.24557
21	0x3fb5e8dc	1.4211688
22	0xbef01e81	-0.46898273
23	0xbe7596d9	-0.23983325
24	0xc0556a18	-3.3346004
25	0x3e619f82	0.22033504
26	0x3f20e858	0.6285453
27	0xc0640461	-3.5627673
28	0xbd85fd9f	-0.06542515
29	0xc0131a54	-2.298482
30	0xbfab05ac	-1.3361106
31	0xbfd3cb07	-1.6546334
32	0xbf795e49	-0.9740949
33	0x3ef1960e	0.47184795
34	0xbda8aefb	-0.082365
35	0xc0038c71	-2.0554469
36	0xbf3efba7	-0.7460274
37	0x3e05b296	0.13056406
38	0xc046c042	-3.1054845
39	0x3fb1d9ca	1.3894589
40	0x3efed464	0.49771416
41	0xbfd63531	-1.6734983
42	0xbe0adcb1	-0.1356075
43	0xbfe17b12	-1.7615683
44	0xc08262a2	-4.07454
45	0xbffde70c	-1.9836135
46	0xbe3c0d18	-0.1836437
47	0x3f6e6ee0	0.9313793
48	0xc00fd597	-2.2474115
49	0xbfc5b2ad	-1.5445153
50	0xc0bfd036	-5.9941664
51	0x3f950ab5	1.1643893
52	0x4005fa66	2.093408
53	0x3e0b051b	0.13576166
54	0xbfaa4a5f	-1.3303946
55	0x3ff1f7a6	1.8903701
56	0xc03d597d	-2.958587
57	0x40302b2f	2.7526357
58	0xbff1c927	-1.8889512
59	0xbfddb8a8	-1.7321978
60	0xc00003bf	-2.0002286
61	0x3f4ed8bc	0.8079946
62	0xc01c8ab0	-2.4459648
63	0xbf8d25a6	-1.1027114

body.block2.norm.running_var f4 [64]
0	0x3f412cac	0.7545879
1	0x3f818747	1.0119408
2	0x3f63bbd2	0.88958466
3	0x403edbd3	2.982167
4	0x3fc16dd7	1.5111645
5	0x3f626491	0.884347
6	0x3fd70831	1.6799375
7	0x3fca3316	1.579684
8	0x3f54172b	0.8284785
9	0x3f828996	1.0198238
10	0x3f51a308	0.8188939
11	0x3f0c1930	0.54725933
12	0x3f9a2908	1.2043772
13	0x3f5ed873	0.87049025
14	0x3f96d342	1.1783221
15	0x3feceafa	1.8509209
16	0x3f92138d	1.1412216
17	0x40acc610	5.3991776
18	0x3fa9b491	1.325823
19	0x3f00fd02	0.5038606
20	0x4078cdf2	3.88757
21	0x3f6f26fe	0.9341887
22	0x3f63d4f2	0.88996804
23	0x3f624c0f	0.88397306
24	0x3f799303	0.9748995
25	0x3f87f4f3	1.0621628
26	0x3f28c0ae	0.65919006
27	0x3fcf92e5	1.6216704
28	0x3f5d71d8	0.86501837
29	0x3f290a42	0.6603128
30	0x3f75524e	0.9582871
31	0x3f47440d	0.7783821
32	0x3f3a9215	0.72879153
33	0x3fa1f3ca	1.2652524
34	0x3f8865a9	1.0656024
35	0x3f52f1be	0.8240012
36	0x3fea3444	1.82972
37	0x4046d3aa	3.106669
38	0x3fe8cf93	1.8188347
39	0x40073916	2.1128592
40	0x3f81c8c5	1.0139395
41	0x3f45da9e	0.7728671
42	0x3fb9c89c	1.4514346
43	0x402d58b1	2.7085383
44	0x400425ee	2.064815
45	0x3fff5479	1.9947654
46	0x3f7d0dfa	0.9884945
47	0x3f7900e4	0.97266984
48	0x3fb02d21	1.3763772
49	0x3f470a27	0.77749866
50	0x3f81e647	1.01484
51	0x3f4e7640	0.80649185
52	0x3f4683d5	0.7754491
53	0x3f8dfab9	1.109214
54	0x3f6bae00	0.9206238
55	0x406f4d12	3.739079
56	0x3f919efd	1.1376644
57	0x3fd107c8	1.63305
58	0x3f7c14b5	0.98469096
59	0x3f404768	0.7510896
60	0x3fcc0d23	1.5941509
61	0x3fc986c4	1.5744252
62	0x3fadd70e	1.3581254
63	0x3f872dbb	1.0560831
