TrainedModels/trees3/scale_factor=0.750000,alpha=10/6/netG.pth (torch, 471451 bytes, 26 tensors)

head.conv.weight f4 [64, 3, 3, 3]
00000000: 61eb 553b 67a9 d7bc d732 ba3d ed60 f43d
00000010: d41c fe3c bc2f d6bc 8590 82bd 4525 c73c
00000020: 1b4e b139 15bb 64bd b559 c23b 58a2 ac3c
00000030: d7a4 873d 4a09 553d 575f 2abd 2553 3ebe
00000040: ca43 363c 2ab7 95bd b4a6 9bbb 45c7 1e3b
00000050: 8d62 f13c 1f56 d83d 2845 0d3b 08c1 ddbb
00000060: 54dc 2b39 b929 10bc 7c5f a83c 5342 0b3e
00000070: 0b75 133d 6282 983d a1ce 413d 734a 083d
00000080: 3512 333b f95e ec3c a978 693d 5152 473d
00000090: 3e89 38bd 1652 433d e9df d5bc 6127 96bd
000000a0: a249 cdbc f6de 37bd 493a 2bbe 0131 26bd
000000b0: d8a5 043c 9234 9f3d 7b54 b03d 3f8d 133d
000000c0: 4b86 bc3b 1a23 103c d35e ecbc 16f2 b7bb
000000d0: 78d8 ea3c 89d8 813d b7b5 f13c a65f 8d3d
000000e0: 7bea 08be 6ec1 aa3c 29b6 433d b591 d13c
000000f0: 44b4 6f3d eacc 7a3d 885a 073d 398d c1bd
00000100: 11b6 17bd eeee 9fbd 3e9a 1ebd 0548 433d
00000110: 3aef df3c 8a12 dd3c 7480 a13c 93fe a2b9
00000120: fe2a 4cbd f615 edbd f0a6 90bd be9b 423d
00000130: 6efe bbbc 5b49 523d 8823 a63d 0553 ffbb
00000140: 5e9d 7f3c e875 05be 9bba 0bbd 7d17 003d
00000150: 438b 37bd 60ce 8d3c 7d0a 103d e6c2 c43d
00000160: d92b 483d 3cfe 073d 10f1 adbb 934b 1c3d
00000170: d2ff 603d f02f 0a3c 2341 da3c 9457 b6bd
00000180: ce0f 16bb 00e5 00bc 7543 e2bd 36b4 0abc
00000190: e142 573a 270f 8fbd 3608 173c dd5e 80bc
000001a0: dc23 85bc 4dc1 0fbc 7d9a 313d 8753 a83d
000001b0: 7cae 683d 91e1 ccbd e3f5 a0bd 550b a13d
000001c0: eacf d73b 7c12 0a3d 7f97 9dbd 9564 6b3d
000001d0: 7497 c53c d0cf 56bd 2fed 1ebd b6e8 79bd
000001e0: 4d0e 71bd fa49 57bd 5250 26bd 3fff c2bc
000001f0: 8b67 9dbc 09d5 1bbd 3c27 053e 6581 443d
00000200: 95cc 323c b9c0 2e3d 0f28 05bd b98f 1b3c
00000210: 80e1 9a3d 0189 ca3d c832 283d 2c90 c1bc
00000220: a8cb 0bbd 7f00 25be 9076 d33c 6a42 013d
00000230: a20a 88bd a9bb c43c 556f 8c3c bccb e0bd
00000240: 541b 18bd 85bd 16bd b0cd 8cbd b6da 523d
00000250: a1c5 633d b634 87bc 1ae1 d2bc c7a9 8abc
00000260: 5c04 81bd 241d 60bd 55b5 a6bc ab96 0bbb
00000270: 462e c5bc 2c47 b1bc 2314 273c 6094 47bd
00000280: e5a5 83bd 72e7 7dbd 8ebf 21bc 3042 57bd
00000290: 56af 22bd 5589 5cbc ef97 13bd f041 d7bc
000002a0: 9f43 e23c 3584 443c de0d 9039 ac9d 783d
000002b0: 1973 333c 8ff0 c6bc f8d3 b7bc 563a 0d3b
000002c0: cdbc 3abd 0e4c dd3d 0e77 cb3d 9813 b83d
000002d0: 8dbd 523d d470 9b3d 5967 dc3c 0988 e2bd
000002e0: f0b9 bebd 8e5a 57bd 837a bd3c c088 bb3c
000002f0: 4e07 873d ad5e 1bbd c45e 143d 6d8a 5b3d
00000300: 3e48 843c 65b3 d93c fa54 f33c f573 3dbd
00000310: ba73 24bc ea47 28bd f6b2 2bbc 2cb0 473c
00000320: d6e2 7a3c 831b f8bc 1116 1e3d fb8d 793c
00000330: fe06 22be b0f7 3abe 5fc9 cdbd a856 6e3d
00000340: 56ce 303d 327f d03d 2e82 8c3d d974 fb3c
00000350: b5c2 be3c 218a b7bd 8541 26be fe50 65bd
00000360: 57cd a0bd 17cc 113d 2483 eb3d 1faf 933d
00000370: 10f0 dfbc 3f34 893d 3278 79bd e297 a4bd
00000380: 22bc b4bc a6f1 8abd 89a8 bc3c c476 4bbd
00000390: ded3 863c b201 d03c 7923 9b3c 422c be3c
000003a0: 8418 a2bc 36d4 aa3d 9c88 1bbb 66fe 79bd
000003b0: bd74 cbbd da88 74bb 7024 9dbd e2b0 50bd
000003c0: 43da 003e ff75 5abc 67c9 5c3d 1345 8b3d
000003d0: 872b 32bd aef4 51bc 0790 853b 6ded 3abb
000003e0: 86c9 b83c 9e78 bdbd 7391 f8bc 565e 813d
000003f0: bc2a 8b3d 8cc5 40bd 27ae 233e 9d0b ad3c
0.0032641517 -0.026325895 0.09091728 0.119325496 0.031019606 -0.026145808 -0.06375221 0.024309764
0.00033818264 -0.055842478 0.005931104 0.021073505 0.066232376 0.052010812 -0.04159483 -0.18586405
0.011124561 -0.073103264 -0.004750097 0.002422766 0.029465938 0.10563301 0.0021556113 -0.006767396
0.0001638991 -0.00879901 0.020553343 0.1359952 0.036000293 0.074467435 0.047316197 0.033274125
0.0027324085 0.02885388 0.056999836 0.048662487 -0.04505276 0.047685705 -0.026107745 -0.0733173
-0.025059525 -0.044890366 -0.16721453 -0.040574078 0.008096181 0.07773699 0.08609863 0.036023375
0.0057533137 0.008797431 -0.02885381 -0.0056135757 0.028667673 0.06340129 0.029505594 0.06903009
-0.13370697 0.020844188 0.047781143 0.025582174 0.058521524 0.061230578 0.03304532 -0.09450764
-0.037038866 -0.07809244 -0.038721316 0.047676105 0.027335752 0.02698638 0.019714572 -0.0003108872
-0.049845688 -0.11576454 -0.07063091 0.04751181 -0.02294847 0.05133949 0.08112246 -0.007791879
0.015601484 -0.13033259 -0.034113508 0.0312724 -0.044810545 0.017310321 0.035166252 0.096074864
0.04886994 0.03320144 -0.005308278 0.03815801 0.05493147 0.008434281 0.026642388 -0.08903423
-0.0022897604 -0.007867098 -0.11048023 -0.008465817 0.0008211565 -0.06985312 0.009218266 -0.015670234
-0.01625245 -0.008774114 0.043360222 0.082190566 0.056807026 -0.10003961 -0.07859399 0.078634895
0.0065860646 0.033709034 -0.07694911 0.05746897 0.02412007 -0.05244428 -0.038800415 -0.061012946
-0.05885153 -0.052560784 -0.040603943 -0.023803351 -0.019214412 -0.038044963 0.13003248 0.047974963
0.010913034 0.042664263 -0.032508906 0.009494715 0.07562542 0.09889413 0.041064054 -0.023628317
-0.03412977 -0.1611347 0.025813371 0.031557478 -0.06642653 0.024015265 0.017142931 -0.10976359
-0.037135437 -0.036801834 -0.06875169 0.05147811 0.055608395 -0.016504627 -0.025742102 -0.01692666
-0.062996596 -0.05471529 -0.020350138 -0.0021299522 -0.024069916 -0.021640383 0.010197672 -0.048725486
-0.06428126 -0.0619883 -0.00987233 -0.052553356 -0.039717995 -0.013460477 -0.036033567 -0.026276559
0.027620135 0.011994411 0.00027476152 0.060697243 0.010952734 -0.02428463 -0.022439942 0.0021549664
-0.04559021 0.10805522 0.09934817 0.08988112 0.0514503 0.0758988 0.026904749 -0.11061103
-0.093128085 -0.052576594 0.023129707 0.022892356 0.0659319 -0.037932087 0.036223188 0.05359881
0.016147729 0.0265748 0.029703606 -0.046253163 -0.010037357 -0.041084208 -0.010479679 0.012187999
0.015312871 -0.030286556 0.038595263 0.015231605 -0.1582298 -0.18258548 -0.10048174 0.05818811
0.043165527 0.101805106 0.06860767 0.030695366 0.023286203 -0.08961893 -0.16235931 -0.055985443
-0.078516655 0.035595026 0.114996225 0.07211136 -0.02733615 0.06699418 -0.060905643 -0.08036782
-0.022062365 -0.06784372 0.023029583 -0.04967381 0.016458448 0.025391433 0.018937813 0.023214463
-0.01978708 0.08341257 -0.0023732549 -0.06103363 -0.099343754 -0.0037313015 -0.076729655 -0.05094994
0.1258326 -0.0133337965 0.05390301 0.06800284 -0.043498542 -0.012814684 0.0040760073 -0.0028522864
0.022557031 -0.092515215 -0.030342793 0.06316821 0.0679526 -0.047063395 0.15984403 0.021123702

head.conv.bias f4 [64]
00000000: a709 ddbc 73e7 263e 71b2 5e3e 62c4 3b3e
00000010: 43b2 b9bd 47d1 ab3d 994c 12be 5207 393e
00000020: 0f40 7b3e 2fd2 55bc 8ae5 63bd a374 30bd
00000030: 05f3 1b3e 7a62 18be c553 5fbd 7585 29bd
00000040: e80e 02be 7b0d 21be 3a9b e03d 075d b53d
00000050: b10d 703d c267 013e 9662 d73b f824 1dba
00000060: 352f f3bd 0139 2dbe bcac 53bd 7372 2ebe
00000070: 2373 babb aea9 b93d 63bf 39bd b50a 9b3c
00000080: befe fd3d c779 4b3e bc15 e53d d1e0 893d
00000090: b8c4 52be 69aa 7c3d cfc8 a23d 511e 3c3d
000000a0: 17f6 05bc ee4a e3bd 30ab 1fbd 889d 9d3d
000000b0: 5eed 16bd 0bd7 1d3e f793 01be c249 6abe
000000c0: 8f52 0b3e c46d ac3d 7389 30be fcf0 17be
000000d0: 79ca 00be 017e 193e 39e4 5e3e 4ed1 b4bd
000000e0: 8e5b 55be 9838 c43d dfc6 943d 3189 1ebd
000000f0: ef07 843c 9a93 7d3d a658 103d 0b2a c33d
-0.026982142 0.16299228 0.21747757 0.18336633 -0.09067204 0.08389526 -0.14287032 0.18069199
0.24536155 -0.0130506 -0.055638827 -0.043079983 0.15229423 -0.14881316 -0.05452325 -0.04138704
-0.12700999 -0.15727799 0.10967107 0.08855634 0.058606807 0.12637237 0.0065730317 -0.00059945835
-0.118742384 -0.16916277 -0.051678404 -0.17035846 -0.005689995 0.09065567 -0.045348536 0.018926004
0.12402104 0.19870673 0.11185786 0.067323335 -0.20582855 0.061685953 0.079484574 0.04592735
-0.008176348 -0.11098276 -0.038981616 0.07696062 -0.036847465 0.15414064 -0.126541 -0.22879699
0.13605712 0.08419374 -0.17239933 -0.14838022 -0.12577237 0.14989473 0.21766748 -0.08828984
-0.20835707 0.09581107 0.07264494 -0.038705055 0.016117064 0.061908342 0.03524079 0.095295034

head.norm.weight f4 [64]
00000000: 2dd8 883f c3a5 583f 66ac 8f3f 318f 783f
00000010: e926 873f ff6a 7c3f 75d6 443f 383d 773f
00000020: cd9a 883f 9463 7e3f 6915 803f 6686 6f3f
00000030: aa34 7e3f 9725 8f3f a9af 903f 79ec 883f
00000040: a9e0 4c3f c897 793f 0a25 843f a512 6e3f
00000050: 4762 743f ff65 593f 7710 6d3f 4d78 913f
00000060: 770a 6c3f b48a 7e3f 69be 903f b3a0 8a3f
00000070: 8be6 5e3f 393d 703f f96d 8b3f fa26 6a3f
00000080: fcd3 613f f201 873f 44ea 893f 7fe5 893f
00000090: 78b3 7f3f 7524 8a3f e3f3 8b3f c97a 873f
000000a0: 3197 673f c92c 663f 0c8d 5f3f 94f2 473f
000000b0: 785f 673f ca6b 823f 4a63 803f 2fe5 833f
000000c0: 6480 853f 73fd 403f 860b 9e3f 213a 813f
000000d0: 8a0f 843f 681e 563f 3667 8a3f d16b 723f
000000e0: cc0c 713f 4819 7e3f e430 633f 6b96 503f
000000f0: e464 803f 23f9 873f 8efc 893f d9f5 773f
1.0690972 0.8462793 1.1224487 0.9709349 1.055875 0.98600763 0.76889735 0.9657779
1.0672241 0.99370694 1.0006534 0.9356445 0.9929911 1.1183347 1.1303607 1.0697166
0.80030304 0.97497225 1.0323803 0.929972 0.9546246 0.8492126 0.9260325 1.1364838
0.9220347 0.99430394 1.1308109 1.0830292 0.8707053 0.9384342 1.0892936 0.91465724
0.8821409 1.0547469 1.0774617 1.0773162 0.9988322 1.0792376 1.0933803 1.0584346
0.90465075 0.89912087 0.87324595 0.7810452 0.9038005 1.0189145 1.0030301 1.0304316
1.0429807 0.7538673 1.2347267 1.0095865 1.0317242 0.83640146 1.0812747 0.94695765
0.9416015 0.99257326 0.88746476 0.8147952 1.0030789 1.0622905 1.0780199 0.9685951

head.norm.bias f4 [64]
00000000: 2486 1dbe 8a56 bfbe 13d8 0dbd 5769 56be
00000010: ed2f 0fbe 7531 8abd f1ff d9be 68a6 94be
00000020: 9a95 3ebe 0659 82be dd35 80be fcd6 b4bd
00000030: 794e a1be 82a1 8bbe 77fc c5be 7082 9abd
00000040: f06b 8ebe 97d4 48be 491e c4be 31a0 85be
00000050: 7d79 6ebe 8ffb 9fbe af41 71be 6dda 26be
00000060: 0cf1 4dbe c3d0 1fbd 08d4 3abe 0c36 2bbe
00000070: 131b 6abe 4775 5fbe a84b 10be 68ef 5bbe
00000080: 453a bebe 5078 b7be 0d97 24be 24ad 6dbe
00000090: b534 81bd ecfe 49be ed49 51be 7692 92be
000000a0: a2ba c9be 7480 6cbe 6071 60be 7c2f 91be
000000b0: e379 a4be c690 82be b203 7ebe d9f7 14be
000000c0: 6e3d 45be 3dc6 dabe 7c09 c8be fc9f dcbe
000000d0: 9e6f c2bd 2a20 d7be 782e 61bd 8490 29be
000000e0: b64d 6bbe 39a0 e3bd 706f 03be d27a a0be
000000f0: 0970 d4be 675b 2dbe 5ade 59be c168 1cbe
-0.15383202 -0.37370712 -0.034629893 -0.20938621 -0.13983126 -0.067477144 -0.4257808 -0.29033208
-0.18611756 -0.25458544 -0.25041094 -0.088300675 -0.31505182 -0.27271658 -0.38669178 -0.0754441
-0.27816725 -0.19612347 -0.38304356 -0.2609878 -0.23288532 -0.3124661 -0.23560213 -0.1629426
-0.20111483 -0.03901745 -0.18244946 -0.16719836 -0.2286189 -0.21822082 -0.1409136 -0.21478045
-0.3715383 -0.3583398 -0.16073246 -0.23210579 -0.06308881 -0.19726151 -0.20438357 -0.28627366
-0.39400202 -0.23095876 -0.21918249 -0.2835654 -0.32124242 -0.25501078 -0.24806097 -0.14547671
-0.19261715 -0.4272937 -0.39069736 -0.43090808 -0.094939455 -0.42016727 -0.054975957 -0.16559035
-0.22978863 -0.111145444 -0.12835479 -0.31343704 -0.41491726 -0.16929398 -0.21276227 -0.15274335

head.norm.running_mean f4 [64]
00000000: b24f b5bc 0faa 3d3e 49ef ab3e 12c4 573e
00000010: 19ab 5abe 976f 923e e228 8abe 82e5 a43e
00000020: bb66 9e3e a261 b23d 6504 42bd c13c 883d
00000030: 65b4 193e 7db4 24be b20f 65bd 43bc 3d3e
00000040: 0102 79be fbd6 ebbd 3fed 263c e90c a73d
00000050: b730 563d 9b22 aa3d 3871 893b 126b b53e
00000060: a728 91be 2171 c5bd a02c 0d3d 0ee6 46be
00000070: a42c 7dbc 2323 d93d 13de 183e 7cb3 0bbe
00000080: fc73 efbe b606 573e 9021 a93e d011 523d
00000090: e6be 84be f89b a93d 5bb3 af3c 9e62 543d
000000a0: 9d09 38bf f83a 8fbd 6630 ae3d c685 31be
000000b0: c86e 73bf c112 35be 357c 32bc 66c1 3bbe
000000c0: 79db f13d 5479 1d3d 96c4 4fbe 1007 063e
000000d0: 022c 9bbd 85e1 09be a44a 893e f225 d0bd
000000e0: 7c0c 5ebe 1829 f93d 2206 ae3d a093 abbd
000000f0: 7fae 173e ef4b fa3d 44ac 5abc fe93 b73c
-0.022132728 0.18521903 0.33580998 0.21070889 -0.21354331 0.2860076 -0.26984316 0.3220635
0.30937752 0.08710028 -0.047367472 0.06652213 0.15010221 -0.16084476 -0.05592317 0.18528847
-0.2431717 -0.11515614 0.0101884 0.08156759 0.05229255 0.08307382 0.004194405 0.3543325
-0.28351328 -0.09640718 0.034466386 -0.19423696 -0.015452538 0.10602405 0.14928465 -0.13642687
-0.46768177 0.20998654 0.3303342 0.05128652 -0.25926894 0.08281702 0.021447828 0.05185186
-0.7188967 -0.06993669 0.08505325 -0.17336187 -0.95090914 -0.17682935 -0.010893871 -0.18335494
0.11809439 0.038445786 -0.20289835 0.13088632 -0.07576753 -0.13464935 0.2681476 -0.101634875
-0.2168445 0.12166041 0.084972635 -0.083777666 0.14812659 0.122215144 -0.013346735 0.022409435

head.norm.running_var f4 [64]
00000000: f89e 1a3b 4806 883c 2466 063c cc35 ca3a
00000010: 9e75 b13b b4ea 643d 1b10 f33b 74d4 ce3c
00000020: fdaa 673b 0a0c 8a3b 000a 633b 9e38 f93b
00000030: 48b4 eb3b 2808 253b 471f f03a b7c0 5f3c
00000040: e216 143c 3d01 2f3c 80b2 a73b bbcb 4a3d
00000050: 97fc 133c 6a0d 6d3b 1d56 043b 0b6c 013d
00000060: 5f5c 713c 6be9 2e3c d2a9 233c 758c cd3a
00000070: 19c6 9e3b a3f5 863c 43c6 7c3c 4a5d 013c
00000080: 16ff f93d ebac 393b a486 613c 29b7 d03a
00000090: 48d3 d53b b63d 953b 84b3 a53b 673b 0f3b
000000a0: 3267 1b3e b37a ca3d d2e2 403c ca57 b53d
000000b0: e224 893e c5e6 193d 6860 953b e200 483b
000000c0: ec02 893b f1c5 8d3b fafb 8f3b febf bb3c
000000d0: 80a6 a03b e0f5 213d 1b97 af3b d587 303b
000000e0: 4f2b cb3b c856 f73a e5a3 b93c d1c0 de3b
000000f0: 0ce2 a53c 0a3c 9c3b e1f3 a23b 7af4 ad3b
0.0023593288 0.016604558 0.008203063 0.001542741 0.0054156324 0.055887893 0.0074176914 0.02524779
0.003534972 0.004212861 0.0034643412 0.0076056262 0.007193122 0.0025181863 0.0018319868 0.013656787
0.009038659 0.010681448 0.0051177144 0.0495107 0.00903239 0.0036171325 0.002019293 0.03159718
0.014731496 0.010675768 0.009989219 0.0015682118 0.0048453924 0.01647455 0.015428129 0.007895777
0.12206857 0.0028331827 0.013765011 0.0015923727 0.006525431 0.0045544757 0.0050568003 0.0021855475
0.15176085 0.09886684 0.011772828 0.08854635 0.26785952 0.037573595 0.0045586117 0.0030518104
0.0041812565 0.004326575 0.0043940516 0.022918697 0.004902661 0.039541125 0.0053585893 0.002693643
0.006200231 0.0018870467 0.022661159 0.006797888 0.02024939 0.0047678994 0.0049729203 0.005308685

body.block1.conv.weight f4 [64, 64, 3, 3]
00000000: a132 63bd c5e2 5c3d 26c4 893c 4288 d93c
00000010: eaa6 2d3d df28 f43b 9a1e 38bd 2e79 5e3d
00000020: 91af 283d 80a0 8c3c a80e 803b f635 0c3d
00000030: 1cb9 9e3c 010c 113d aade d93c dd0d d43c
00000040: 6208 153d 74ea 283d 53bf 933d 3068 2c3d
00000050: bcc7 8a3d 60ce 653d dfac b23d 3849 043e
00000060: 39f4 8ebc e769 63bd fa0f 1c3d c556 1e3e
00000070: e4c7 ebbc 6d74 a2bd 9eb8 243d 5456 133b
00000080: 3cf0 0c3d 73e2 e0bc 7620 193c de6f 513d
00000090: 3819 8cbd c521 413c b605 2b3d 5ed0 05be
000000a0: a9b2 923c 7988 5e3d dfee 34bc 251c 15bd
000000b0: 5687 1dbd 6144 763d fa07 8e3d 3c5d 843d
000000c0: 0d30 893d 3f9b 663d 7a3a b33d 9739 613d
000000d0: e89b 143d 9a57 053e d90e f73c 30f6 4a3d
000000e0: 0136 ee3c 514e 7fbc 92c7 083d 6313 8f3c
000000f0: 6982 233d 9fd1 0f3d f688 103d 0733 96bd
00000100: 3201 2ebd fd10 f33d b748 343c ca34 5e3b
00000110: d4c9 9abb 9eb0 243e 5df9 c03d 41cd 573d
00000120: 4c9f 2a3d 7b7d e5bc dfe7 83bc 3c5d 703d
00000130: f3d2 37bd c4a7 4b3d 94c9 2b3d 62be 963d
00000140: 85cf 573d 3e41 393d a39e 203d ab96 133d
00000150: 1c65 debc 904c 913a 94cc 663d 41aa 1aba
00000160: 3d40 103d 68e0 373d f1e7 0d3e b245 673d
00000170: f2e0 d93d 56e3 ef3d c5e2 a93c 826e aabd
00000180: 7f65 d8bc 7236 863d 2326 fcbc 17ec 0dbc
00000190: 60a9 0abd 1b53 5bbd fd13 a53d 5607 8d3b
000001a0: 0312 7c3c 8b76 0b3d bab1 a8bc 4b9d 953c
000001b0: 5813 2b3c fb2d 2d3c 52ef 213c b0d9 7e3d
000001c0: aa83 ac3b f6e3 503d 5b38 d13c 254a 583d
000001d0: ea5e 883d 9fd8 19be 7b02 c53c fbeb bbba
000001e0: bed8 8fbd 6789 853d 4342 ce3b 031f e73c
000001f0: 3a33 853d d6ec 9ebd b2a9 92bd 8d64 8ebd
00000200: fc0d cfbc 5443 a93d 770d a0bc d7ea 0bbe
00000210: 7714 4dbd 2742 9dbc 4c03 56bd 3e68 a83c
00000220: a7ee 803d b5f3 403d a364 493c 0288 753d
00000230: 609b 253d 0300 4f3d 0838 0f3d 28e7 b83d
00000240: bc07 453d 09ea 133d 1225 7a3d 22d0 02bc
00000250: b734 25bd 7769 32bc 3b2b d73c f885 60bd
00000260: 02ff f2bc 074b eb3d bad2 083c 7087 30bc
00000270: 33a6 6d3d 44e1 f53c 6315 a73d 0e17 b13c
00000280: 41bf 833d 3734 423d 58d0 b63d e3d8 033e
00000290: fc8a 083e 8a9a 43bd 7eb2 d3bd 106c acbd
000002a0: c1d5 b2bc 06fd 1dbd efb4 0cbe c61a 0c3c
000002b0: 5479 ecbc 4c40 5c3d 489d da3c 320b 2b3d
000002c0: e76e 0c3d db93 2a3d e0cf fc3c d5e4 bf3d
000002d0: f651 79bd 912c b8bc f861 2e3d 0ffb 00bd
000002e0: 106b 7d3b 5c96 5a3d 7782 85bd 6b4a 8fbd
000002f0: e7de 053d 6f93 26bd 2d1d 89bc b023 90bd
00000300: 8c1a 0fbd 1933 afbb 8fbd 9cbd 04f1 f93b
00000310: b255 b13c a414 b63c 65ac 383d 47ff 2d3c
00000320: b78f b13d 5325 a13c af1d 06bd 9573 bcba
00000330: fde4 ee3c 53b4 ccbd e999 ec3d d618 173e
00000340: ef2e 203e dfce fa3d 4c7b 483c 298d bebb
00000350: e95c 123e 8441 863d d4ee 903d 0ff7 403d
00000360: c2ce b1ba de55 b2b9 e0c2 a83c f4e0 8d3c
00000370: d4b7 693c 92cd 773d 85c6 9abd 4fa2 293c
00000380: 5d07 3a3d 62cf ae3d 0dfa 67bc 3450 e7bc
00000390: f05e 34bd 6a15 773d 804e af3c 86b7 933d
000003a0: f984 dfbc 9698 663d ec03 17bd c4bf d23c
000003b0: 7360 fdbc 5210 cd38 f503 fbbc d9c1 36bd
000003c0: 6d7b 313d 31ac a3bd 9e00 0abd 9956 223d
000003d0: 0e6c 183e 1037 0d3d a79e ac3c 65e7 c3bc
000003e0: 7549 d23c fff6 28bc 7034 5cbe 1cb2 f23c
000003f0: fe4f 113d ff16 0b3c d8a6 043a 96c4 753c
-0.055468205 0.0539272 0.016817164 0.02655423 0.04239551 0.0074511613 -0.04495106 0.054314785
0.04118306 0.017166376 0.003907997 0.03423115 0.019375376 0.03541184 0.026595432 0.025885517
0.036384948 0.041239217 0.072142266 0.04209155 0.067763776 0.056105018 0.08724379 0.12918556
-0.017450439 -0.05552092 0.038101174 0.15462787 -0.028781839 -0.07932363 0.040215127 0.0022481875
0.034408793 -0.02745173 0.009346118 0.051132075 -0.068407476 0.011787836 0.041753493 -0.13067767
0.017907457 0.05432937 -0.011043279 -0.036403794 -0.038459145 0.060123805 0.06935115 0.064630955
0.06698618 0.056300398 0.08751388 0.054986563 0.036281496 0.13021699 0.030158447 0.04955119
0.029078485 -0.015582637 0.03339345 0.017465299 0.03991929 0.03511202 0.035286866 -0.073339514
-0.04248161 0.11868475 0.011003665 0.0033905976 -0.004723767 0.16082999 0.09422562 0.05268598
0.041655824 -0.028013935 -0.016101776 0.058682665 -0.04487891 0.04972054 0.041940287 0.073605314
0.05268814 0.045228235 0.039213788 0.03603236 -0.027147822 0.001108544 0.056347445 -0.00059000036
0.035217512 0.044891745 0.1385801 0.05646295 0.10638608 0.11713283 0.020738015 -0.08321859
-0.026415585 0.06553353 -0.030779904 -0.008662245 -0.033852935 -0.053546052 0.08060453 0.004303853
0.015385154 0.0340486 -0.02059256 0.01826348 0.010441624 0.010570045 0.009883719 0.06221932
0.005264719 0.05099865 0.025539568 0.052805085 0.066587284 -0.1502404 0.024049034 -0.0014337295
-0.07023762 0.06520348 0.00629452 0.02821303 0.06503911 -0.077600166 -0.07161273 -0.06952772
-0.025275223 0.08264795 -0.01953767 -0.13663803 -0.050068345 -0.019196583 -0.052249238 0.020557519
0.06295519 0.047107417 0.01229206 0.05994416 0.04043138 0.05053712 0.034965545 0.090284646
0.04810308 0.036111865 0.06107051 -0.007984193 -0.040333476 -0.010889403 0.026265731 -0.054815263
-0.029662613 0.1148892 0.008351022 -0.010774478 0.058019828 0.030014642 0.08158376 0.021617439
0.06432963 0.047413077 0.08926457 0.12875704 0.13334268 -0.0477548 -0.10336779 -0.08419049
-0.021830441 -0.03857138 -0.13740896 0.008551305 -0.028866448 0.053772256 0.026686326 0.041758724
0.034285452 0.041644912 0.030860841 0.09369818 -0.06086918 -0.022482188 0.0425739 -0.031489428
0.003866855 0.05336605 -0.06519025 -0.06996616 0.03268328 -0.040667947 -0.016737545 -0.07038057
-0.034937426 -0.0053466675 -0.07653343 0.0076276083 0.021647308 0.02222664 0.045086283 0.010619945
0.086699896 0.019671118 -0.032743152 -0.0014377708 0.029161924 -0.099953316 0.115527935 0.14755568
0.15642904 0.12246489 0.0122364275 -0.0058151674 0.14293255 0.06555465 0.07076803 0.047110613
-0.0013565647 -0.00034014782 0.020600736 0.01731918 0.014265019 0.06049878 -0.07557396 0.010353639
0.04541718 0.08535649 -0.014158738 -0.028236486 -0.044035852 0.060323156 0.021399736 0.07212739
-0.027285086 0.05629786 -0.036868975 0.025726207 -0.03092978 9.778202e-05 -0.030641535 -0.04461846
0.0433306 -0.07991827 -0.033691995 0.039633367 0.1488497 0.03447634 0.021071745 -0.023914048
0.025669793 -0.010312795 -0.21504378 0.029625945 0.035476677 0.008489369 0.0005060262 0.015000483

body.block1.conv.bias f4 [64]
00000000: c4f6 13bd ef00 b5bb 7573 e5bc 0c0c 9c3c
00000010: 93ad c23c f8b3 2e3c ce84 533d ffeb d4bc
00000020: 0199 5c3c bf9c e6bc 0a81 e83c 3d8f b4bc
00000030: 8750 1cbd 8f7e 57bc 099e 18bd 7dc3 a1ba
00000040: 70de 153d 724e e73a 6b74 29bb 7a5c 843b
00000050: cfc9 fabc 480a 743c ffb2 51bb 33a1 02bd
00000060: c655 c23c fc98 32bc b01a 73bc fb0b a638
00000070: 48f4 c43c 252b c63c 01a8 b1bb 4bfc d53c
00000080: a3eb 15ba 9407 013c 4837 0a3d b9de 813c
00000090: a6af 3c3b c1f2 c43c 4cd0 0ebc cd75 09bd
000000a0: dcd5 07bd a8b1 f33c 97e1 0dbb bc68 5ebd
000000b0: ad13 04bd 1c3c 713b db66 2d3d 2185 45bd
000000c0: d61b 9cbc 7a51 a9bc 41a4 d5bc 4734 f5bb
000000d0: a979 13bd 3e89 f93c 8204 e83c 0740 5ebc
000000e0: 82f3 c8bc ca83 a5bc 3ff1 0fba fc6a 4c3c
000000f0: 2ed9 aebc c14a 023d 6138 f83c 1512 b7bc
-0.036124006 -0.005523793 -0.028009156 0.019048713 0.023764407 0.010663025 0.051640324 -0.025991438
0.013464213 -0.028150914 0.028381843 -0.022040958 -0.038162734 -0.0131527325 -0.03726009 -0.0012341585
0.036589086 0.001764728 -0.0025856744 0.0040393444 -0.030613808 0.014895029 -0.003199756 -0.031892013
0.02372254 -0.010900732 -0.014837906 7.917728e-05 0.024042264 0.024190495 -0.005421639 0.02612128
-0.00057190115 0.007875342 0.033744127 0.015853273 0.0028791218 0.024041535 -0.008716654 -0.03355961
-0.033162937 0.029747799 -0.0021649355 -0.0542991 -0.032245327 0.003680951 0.04233442 -0.048222665
-0.019056242 -0.020668734 -0.026079299 -0.0074830386 -0.036004696 0.03046095 0.028322462 -0.01356507
-0.024530176 -0.020204443 -0.00054909656 0.012476679 -0.021343794 0.031809572 0.030300321 -0.02234749

body.block1.norm.weight f4 [64]
00000000: f36b 773f 1893 8e3f f5d2 7b3f 2a53 8e3f
00000010: 8791 773f fcfc 6c3f 5cbf 793f c213 803f
00000020: 3dfe 803f 1feb 7a3f 33be 793f 90b3 803f
00000030: 9f5e 733f 7d30 723f 42f3 7b3f 45ea 7c3f
00000040: 94c0 7d3f c33e 843f 67d3 7f3f 2cd8 683f
00000050: ca42 763f ed9c 6e3f 1f5c 753f 09e6 7a3f
00000060: f3f5 833f 15be 543f e218 603f 0d6e 6e3f
00000070: 38ec 803f c66c 6c3f 09fd 813f df6f 813f
00000080: e2c6 683f 4b2d 733f 9fdb 803f 0b56 6f3f
00000090: 6a98 633f 02b3 6b3f d714 733f 2b44 703f
000000a0: 6187 8d3f 6966 773f a9af 533f 06ba 853f
000000b0: 324b 6c3f db23 773f 2d2f 4e3f 071d 7f3f
000000c0: 0ce2 743f 06a2 7f3f c55e 653f 71cb 893f
000000d0: 1d85 7a3f 15f6 743f 1a5a 803f e508 633f
000000e0: c077 803f 6234 803f 1644 763f 07df 773f
000000f0: 00b8 663f be0b 733f ec1a 643f 792c 743f
0.9664909 1.113864 0.9836877 1.111913 0.9670643 0.92573524 0.97557616 1.000603
1.0077587 0.98015016 0.97555846 1.0054798 0.95066255 0.9460524 0.98418057 0.98794967
0.99121976 1.0331653 0.9993195 0.9095485 0.9619566 0.932082 0.9584369 0.98007256
1.0309433 0.8310254 0.8753797 0.93136674 1.0072088 0.92353475 1.0155345 1.0112265
0.9092847 0.94990987 1.0067023 0.93490666 0.8890444 0.9207002 0.94953674 0.93854016
1.1056939 0.9664064 0.8268991 1.0447395 0.9230224 0.96539086 0.80540735 0.9965367
0.9565742 0.99856603 0.8959773 1.076521 0.97859365 0.9568799 1.0027497 0.88685447
1.0036545 1.0015986 0.9619764 0.9682469 0.9012451 0.9493979 0.8910358 0.9538036

body.block1.norm.bias f4 [64]
00000000: 455f 4dbe ebeb a33c de9f 85be b8d3 00be
00000010: 41c6 43be 4555 08bf 79d0 bebd a15f e3be
00000020: ea93 cfbe d216 28be 6058 1fbe f1f1 3dbe
00000030: 153d 44be 2efd 5ebe 485e 54be 0344 bfbe
00000040: 1034 89be a4f8 b6be 7551 a5be c6b0 b8be
00000050: 1b28 bebe 21d2 a9be a76f 37be 879d ffbc
00000060: 14a3 babe 100f 96be 3a17 debe 43ee bbbd
00000070: b51d fbbd 7139 a1be dd57 b6be d2bf 3dbe
00000080: 0c71 0ebe cd8c c8be 54aa f3be d1ff 08bf
00000090: fe59 85be 2699 9cbe 9a3f abbe fdd4 acbe
000000a0: f27a ecbc 379c 50bd c5c4 babe 35c6 bfbd
000000b0: 8441 bdbe c5aa dbbe 8552 e2be 1a3d 8ebe
000000c0: efa2 5bbe 8dc7 c9be c5b2 e3be 6b0a 95bd
000000d0: 9f24 68be 139d d6bd ae30 5bbe 0070 d3be
000000e0: bf2c 28be b19b b0be 8de2 0bbf cab4 0fbe
000000f0: a7f0 eabe e41e 88be 6e7e c0be fc01 67be
-0.20055874 0.020009955 -0.2609853 -0.12580764 -0.19118597 -0.5325511 -0.09317107 -0.44408897
-0.40542537 -0.16414955 -0.15561056 -0.18549325 -0.19163926 -0.21776268 -0.2073909 -0.37356576
-0.26797533 -0.35736573 -0.3228871 -0.36072367 -0.37139973 -0.33168128 -0.17913686 -0.031203045
-0.36452544 -0.29308367 -0.43377095 -0.09176304 -0.122615255 -0.31489137 -0.3561391 -0.18530205
-0.13910311 -0.39169922 -0.47590888 -0.53515345 -0.2604522 -0.30585593 -0.33446962 -0.33756247
-0.028867219 -0.050930228 -0.36478248 -0.09363977 -0.36964047 -0.42903724 -0.44203582 -0.27780992
-0.21448873 -0.39410058 -0.44472328 -0.07277378 -0.2267022 -0.10479178 -0.21405289 -0.41296387
-0.1642332 -0.34493783 -0.54642564 -0.1403381 -0.45886728 -0.26586068 -0.37596458 -0.2255935

body.block1.norm.running_mean f4 [64]
00000000: 504f cd3f e3b9 a6bf 9dea c4be 3591 cabe
00000010: 0530 823f bd21 3a3e 34eb 8abf 8238 edbe
00000020: 19d4 8d3f 005b 8fbf ea9a 5bbf 6bda a5be
00000030: acf1 1c3f 548e 4cbf 29f6 37bf eecf c13f
00000040: 3e04 3cbf a98a 80bf 953e 93be d838 e3bf
00000050: 1e1d 883e 4833 84bf eaa3 a3bf 43a0 12bf
00000060: cc1b 33bf 0edf 4f3f 3e8a 46bf 0cc2 133f
00000070: fe5c 22bf 8703 06bf 295a 32be 0c61 94bf
00000080: efcd 57bf ff24 aabf 9c3d 813f 2685 df3e
00000090: 9e47 503e 8364 db3e 4bd8 7ebe f1ec 59bf
000000a0: 5519 29bf 91b1 cdbd e204 9d3f ed22 adbf
000000b0: 30fc b5be 048d 97bf 8f32 7b3f a03d c9bf
000000c0: a607 7fbf 6be3 e03e 1657 5d3f 4d98 e3be
000000d0: ba12 41bf 1602 4ebf 870f 493f 7f9c d03f
000000e0: 03ea 9fbe 284d 9fbe d90d 2a3f ed22 55bf
000000f0: 51c3 4cbe f52b 0dbf 4659 35bf 8c27 cbbe
1.6039829 -1.3025478 -0.38460246 -0.3956391 1.0170904 0.18176933 -1.0853028 -0.46332175
1.1080352 -1.1199646 -0.85783255 -0.32393202 0.6130626 -0.79904675 -0.71859986 1.514158
-0.73443973 -1.0042316 -0.28758684 -1.7751722 0.26584715 -1.032815 -1.2784398 -0.5727579
-0.6996429 0.8119973 -0.7755469 0.5771797 -0.63423145 -0.5234913 -0.17417206 -1.1592116
-0.84298605 -1.329254 1.0096927 0.43656272 0.2033982 0.42850122 -0.24887197 -0.8512717
-0.6605428 -0.10043634 1.2267115 -1.3526284 -0.35543966 -1.183991 0.9812402 -1.5721931
-0.99621046 0.43923506 0.8646101 -0.44452134 -0.754192 -0.8047193 0.7853932 1.6297759
-0.31233224 -0.31113553 0.6642738 -0.8325642 -0.19996382 -0.551452 -0.70839345 -0.3967861

body.block1.norm.running_var f4 [64]
00000000: c922 d33f 2bfb ed3f 2086 e53f 70eb 4140
00000010: 8192 903f 20b2 213f 1e46 e43f 5da8 623f
00000020: 02b3 a83f 1f53 f63f 058a 963f ba77 893f
00000030: c533 623f 0589 9540 4b2a 9540 76e4 3940
00000040: 452b 473f 4218 803f 4ac6 7e3f d6dd 2840
00000050: 9d5a 7340 0869 2240 896d 0640 49d2 aa3f
00000060: 0929 043f ccc5 d13f 7d0c e83f a208 ab3f
00000070: 9d01 973f 3c98 fe3f 7712 733f a951 893f
00000080: 7f53 693f fec9 0240 3323 8a3f d32a c53f
00000090: 557f 3b3f a663 0440 966f 233f a002 b13f
000000a0: e36a 0640 9521 953f 9000 eb3f d95d 913f
000000b0: 9b0d 343f e0ab 703f e59b dc3f 91c5 1540
000000c0: eeff aa3f 8b2c 833f de30 8a3f 499c 0c40
000000d0: 0c24 3740 5b9e 473f 3f9b 9a3f 8c68 9140
000000e0: f88d 743f 1355 b640 eb31 fe3e 6f5b b03f
000000f0: ad33 703f 48c2 3a3f b063 893f 56d5 033f
1.649499 1.8592275 1.7931557 3.029995 1.129471 0.6316242 1.7833898 0.8853815
1.3179629 1.9244117 1.176087 1.0739663 0.88360244 4.672976 4.6614127 2.9045691
0.778004 1.0007403 0.99521315 2.6385398 3.8024056 2.5376606 2.1004355 1.3345424
0.51625115 1.6388488 1.8128811 1.336201 1.1797367 1.9890208 0.9495005 1.0728046
0.9114303 2.0435786 1.0791992 1.5403694 0.7324117 2.068582 0.6384214 1.3828926
2.1002738 1.1650873 1.8359547 1.1356765 0.7033326 0.9401226 1.7235075 2.3401835
1.3359354 1.0247968 1.0796163 2.197039 2.8615751 0.77976006 1.2078627 4.544012
0.9552913 5.697885 0.4964746 1.3777903 0.9382885 0.729527 1.0733547 0.514974

body.block2.conv.weight f4 [64, 64, 3, 3]
00000000: 050e f4bd 2bc7 6cbc 33dc ecbd 178f 033d
00000010: 27ba b73d 0797 76bd b59d 843a e47f 79bd
00000020: 5b0a a5bd 2675 02be f8d9 cebd 433f 7bbe
00000030: 0101 a1bd 930a c8bc 392b d6bc 7c43 16bd
00000040: 4e87 c5bb dc4d 7cbc b11b 0d3d daa6 a9bd
00000050: 7b73 98bb a4aa dcbb 5e94 b7bd 39c2 d1bc
00000060: e0ed dc3c 8c53 a3bd 5644 87bc 98b9 2cbe
00000070: 7d50 d7bd 368e 81bd 7a65 93bc 901d 973c
00000080: e329 ca3c 1eb3 023e 03ac 053d 5c8c c9bc
00000090: a514 c0ba d2e8 5bbd 256f 81bc 264a c03c
000000a0: 81b5 893c d9bd 87bc a957 e8bc a7d4 9dbc
000000b0: 2ca5 9cbc 6274 1c3d 8b9a a33d f5af babd
000000c0: cf26 b33d 5516 213d 6ccf d7bd d8ac 6e3c
000000d0: d339 4e3d e67c 8e3d ebf5 793d c6be 8b3d
000000e0: f6ec c7bc 5408 333d 810b 883b e3c7 8a3d
000000f0: 5808 ef3d 3ebd 093d a10c 8a3d 5704 f0bc
00000100: 73da 25be feac 31be 7744 1b3c 2717 dabc
00000110: b348 3fbd 1908 d63d ab4c 573c 9f6b d3bb
00000120: 5446 ba3d 737e a33d d6dd 723d b8f0 b83d
00000130: 29f1 793d 016f 663d e559 973d 00dd af3d
00000140: 3bfe d53d 36af 0fbc 37f7 fa3c 2d65 673c
00000150: bc66 413d f586 073b 5903 943d 47b5 343d
00000160: 1b76 493c 825e 2a3d 4213 ef3d 7f7c a13d
00000170: 5b3b ff3d bcaa 863c 3cb7 093b 9a06 053b
00000180: 7d59 3f3d 10e4 0e3d b2f7 813d 60e6 69bd
00000190: ab71 ebba 8b87 97bd 0f28 0ebe bf51 d6bd
000001a0: dd14 e2bb 13e0 ebbd 047a 08bd b96d adbd
000001b0: 7c35 89bd 7f2c c1bd 7a9d e0bc d8f1 0abd
000001c0: a1f7 64bc 0c6e c7bd 21a4 97bd 06c0 6fbd
000001d0: 330a 78bd ebc3 82bc 084d 8cbd 7d10 b5bd
000001e0: 4892 c3bc f4af 433c 23d2 063d a463 8fbd
000001f0: 8eee f4bc 545f b5bd 928a d23c 9165 afbd
00000200: 8d4e ddbd 9cbc 35bc b0b3 43bd 61d4 9abd
00000210: bebe 313d 89f4 ae3c a710 443b 7974 733c
00000220: 9179 883c 2042 47bd 9284 21bd 5208 72bc
00000230: 927b 46bd 3150 dcbd accd 05be 0721 ddbd
00000240: bedb 16bd 5b82 2fbd 6730 96bc 7204 dfbc
00000250: 36b4 68bd ab35 813c 10ba 8a3d 079f b93c
00000260: 1ad7 53bd 9ed6 aa3b c3ab 94bd 27d2 b33b
00000270: 560e 6e3d d914 52bc 8f86 1f3b 52be 293d
00000280: 1561 713d 8ae7 183c a1ed 29bd ef6a b8bc
00000290: 7b61 f93c fc43 0d3a b850 0a3d 768b 153d
000002a0: 9514 1fbd 6c15 673d 739c be3b 0dbd 543d
000002b0: 6749 833d 5203 153e ca28 61bd 7f26 89bd
000002c0: 4223 32bd 359d aebd 4154 f5bd 479f cebd
000002d0: 997d 19bc 0fba eebc a766 9cbd 1136 c5bd
000002e0: 027b 03bd 0f1c 9fbd b4d5 0fbe 1846 7fbd
000002f0: c903 8ebd f7ee 9c3d 47fc 873d 136d 473d
00000300: 2e10 14bc fc9f 62bd ff6f 4bbd b972 aebd
00000310: ebb0 05bd aaf5 95bd a340 da3c fb17 12bd
00000320: a286 783d e789 12bd 9014 d4bd 8a2f 0e3d
00000330: c6fb 863d 2c15 853b be76 bf3d 09e6 c33d
00000340: 0edf 20bd 6a0a ebbd 8c96 7d3d 04cc 363d
00000350: f7d1 00bd 38fa b03d e425 2c3b 0c90 21be
00000360: d938 d63b 9296 2d3b 4b9c b93c 38c5 83bc
00000370: 55e9 213d b24d fe3b fc0e e23d 7117 1e3e
00000380: e330 453d 78d5 77bd efcc 303d 9635 eabc
00000390: 4524 4cbd 29a0 3b3d fbf7 7dbd b8f0 e139
000003a0: 129d 9cbc a703 60bd 7fe3 a43c 00ca 8d3b
000003b0: d3c3 75bd e2be 22bb 1f41 7e3c 498b 203d
000003c0: 3564 d23c 4507 b63b 17b7 373d b2b6 8a3c
000003d0: 5b63 5f3c 675a bd3d aa7d dcbc 07d1 81bd
000003e0: b8de 6fbd 6247 1b3d b41a 83bd c00d b8bb
000003f0: 3a36 8ebc e684 a43d a265 4fbd 71d9 ee3c
-0.119167365 -0.014451782 -0.11565437 0.032118883 0.089710526 -0.060202625 0.0010117801 -0.06091298
-0.08058616 -0.12740001 -0.10100168 -0.24535851 -0.078615196 -0.024419105 -0.026143657 -0.036685452
-0.0060280925 -0.0153994225 0.034450237 -0.082837775 -0.004652438 -0.006734209 -0.08963846 -0.025605308
0.026968896 -0.0797492 -0.016512077 -0.16867673 -0.10513399 -0.06325953 -0.017992724 0.018446714
0.024678176 0.1276364 0.032634746 -0.024603061 -0.001465459 -0.05368883 -0.015800068 0.023472857
0.01681018 -0.016570019 -0.028362112 -0.01926644 -0.019121729 0.03819693 0.07988461 -0.091155924
0.087476365 0.039327938 -0.105376095 0.014567576 0.050348114 0.06957416 0.06102554 0.068234965
-0.024404984 0.043709114 0.004151762 0.067764066 0.11671513 0.03362774 0.0674069 -0.029298944
-0.16196613 -0.17351148 0.0094767725 -0.026622368 -0.04670019 0.10450763 0.013140838 -0.0064520384
0.09095445 0.07983103 0.05929359 0.090302885 0.061021004 0.056258205 0.07390193 0.08587074
0.10448881 -0.008769801 0.03063546 0.014123243 0.047217116 0.0020679806 0.07227201 0.044118192
0.012296225 0.041594036 0.11673595 0.07885074 0.12462493 0.016438834 0.0021013757 0.0020298124
0.046716202 0.034885466 0.06346072 -0.05710447 -0.0017962953 -0.073989 -0.13882469 -0.104648106
-0.0068994598 -0.11517348 -0.03331949 -0.084681936 -0.066996545 -0.09432315 -0.02741884 -0.033922046
-0.013975055 -0.09737787 -0.07404352 -0.058532737 -0.0605566 -0.015962562 -0.0685063 -0.088410355
-0.023873463 0.011943806 0.032915246 -0.07001427 -0.029898908 -0.08856073 0.025700841 -0.08564294
-0.10805998 -0.011092331 -0.047778785 -0.07560039 0.043394797 0.021356838 0.0029917152 0.014859312
0.01665953 -0.048647046 -0.03943307 -0.0147724915 -0.04845769 -0.10757483 -0.13066739 -0.10797315
-0.036830656 -0.042848926 -0.018333627 -0.0272238 -0.056812488 0.015772661 0.0677377 0.022658838
-0.05171881 0.0052135726 -0.072593234 0.0054876986 0.05811914 -0.012822353 0.0024341678 0.04144127
0.058930475 0.009332547 -0.041486386 -0.022511927 0.03044199 0.00053888536 0.033768386 0.036509953
-0.038837988 0.056416914 0.00581699 0.051938105 0.06410485 0.14552048 -0.05497054 -0.06696796
-0.043490656 -0.085260786 -0.11978961 -0.100889735 -0.009368324 -0.029141454 -0.07636767 -0.09629453
-0.03209973 -0.077690236 -0.14046365 -0.062322706 -0.06934316 0.076627664 0.06639915 0.048688006
-0.009037061 -0.055328354 -0.049667355 -0.08517975 -0.032639425 -0.07322247 0.02664215 -0.0356674
0.06067527 -0.035776045 -0.103554845 0.034713306 0.06590991 0.004061362 0.0934882 0.0956536
-0.03927522 -0.11476596 0.06191115 0.04462816 -0.031450238 0.086414754 0.0026267702 -0.15777606
0.0065375385 0.0026487452 0.022657534 -0.016085252 0.039529163 0.007760727 0.11038014 0.1543863
0.048142325 -0.060506314 0.04316419 -0.028590005 -0.049839277 0.045807038 -0.06200407 0.00043094694
-0.019117866 -0.054690983 0.02012801 0.004327059 -0.060001206 -0.0024833013 0.015518456 0.039195333
0.025682548 0.005555066 0.044852342 0.016932819 0.013634528 0.092457585 -0.02691539 -0.06338697
-0.05856201 0.037909873 -0.064015776 -0.0056168735 -0.017359842 0.08033161 -0.050634034 0.029156419

body.block2.conv.bias f4 [64]
00000000: ed30 f4bc 2c76 2d3b 8e49 a93c 6f34 81bc
00000010: 27ce b03b e791 c23c 9f37 d1bc 2fdb de3c
00000020: 52e1 a0bc 734f 5ebc 32df 62bb b6b6 83bc
00000030: c9f8 bfbc edeb e93c 4c33 8d3c 83dd 48bc
00000040: 1fb3 a6bc f6f0 a7bc d02b 84bc 8f9a 1e3c
00000050: d115 03bd b9ba 373c 7d81 0e3d 6cfb 203c
00000060: c365 ef3c c063 4a3c 9ec1 15bd 182f 2c3d
00000070: 15f5 97bc aa9b 3b3d cfb3 133d fae4 78bc
00000080: 3204 2e3d f2e6 d1bc 2f3f 063d b828 aa3c
00000090: a5ca ea3c 2ee4 103d 9c52 82bb 8bb0 c4ba
000000a0: 4ce1 c53c 7198 a63c 00c0 7dbd d04b 8ab9
000000b0: dc46 d9bc 5478 e03c 0b95 b33c 4975 1c3b
000000c0: dd1b 143b a6a8 babc 9bea 053d 2e65 e93c
000000d0: 9707 2dbc aac7 eb3c 7d7a cc3c 4f59 87bc
000000e0: a779 a2bb 6200 23bd d86f abbb a972 10bd
000000f0: b8a7 77bc 76eb 743c e824 cd3c 3fde f6bc
-0.029808486 0.002646814 0.020664956 -0.015772073 0.005395669 0.023751212 -0.025539218 0.027204124
-0.019638691 -0.013568747 -0.0034617898 -0.016078334 -0.02343406 0.028554881 0.017236374 -0.012259844
-0.020349083 -0.020500641 -0.016134173 0.009680404 -0.032003228 0.011213952 0.03479146 0.009825569
0.029223328 0.012352884 -0.0365616 0.0420371 -0.018549481 0.04580275 0.03606015 -0.015191311
0.04248447 -0.025622819 0.0327751 0.02077137 0.028661082 0.03537386 -0.003977133 -0.0015006227
0.024155281 0.020336362 -0.061950684 -0.00026377896 -0.026523046 0.027401127 0.021921655 0.0023873618
0.0022599616 -0.022785496 0.03269444 0.028490629 -0.010560892 0.02878173 0.02496075 -0.016522078
-0.0049583497 -0.039795287 -0.0052318387 -0.0352656 -0.015115671 0.014948716 0.025042012 -0.030135272

body.block2.norm.weight f4 [64]
00000000: 2cee 643f a023 613f fb59 813f 649e 743f
00000010: b15d 783f cfe1 8b3f de86 6f3f 68c0 7d3f
00000020: 9f3d 7a3f d2fa 7c3f 6bd1 743f 3216 6e3f
00000030: 6e36 633f 1dec 7a3f bfb7 823f 4c7e 853f
00000040: 369d 7e3f 8d26 783f 497c 873f 0994 6b3f
00000050: 8e95 783f 2e32 713f 5a9d 903f 8a69 713f
00000060: 80b8 8a3f 3e62 733f 8e97 873f 8a4e 7c3f
00000070: ea79 823f 2136 733f 73b7 673f abd6 843f
00000080: 1ec7 6c3f 4463 803f fcf5 863f 7099 703f
00000090: c95d 733f 1463 8d3f 735a 773f 6ad3 703f
000000a0: fb1e 713f c08d 853f e0f1 7e3f c50c 733f
000000b0: d872 7d3f c659 7f3f 119c 7f3f f1f4 7d3f
000000c0: 65ea 6f3f c741 773f 62ae 833f a175 653f
000000d0: 6ea9 6f3f 0f46 663f 4372 7c3f f265 743f
000000e0: fc64 713f b02a 723f 47fc 723f 66c9 733f
000000f0: c527 6e3f 669f 903f c54d 8f3f 0886 683f
0.8942592 0.87944984 1.0105585 0.95554185 0.9701796 1.0928286 0.93565166 0.99121714
0.97750276 0.9882022 0.95632046 0.9300262 0.8875493 0.9801653 1.0212325 1.0429168
0.99458635 0.96933824 1.0584804 0.9202276 0.971032 0.94217193 1.129802 0.94301665
1.0837555 0.9507178 1.0593126 0.9855734 1.0193455 0.9500447 0.90514296 1.0378011
0.9249133 1.0030293 1.0543818 0.9398413 0.9506498 1.1045861 0.9662239 0.9407259
0.941879 1.0433884 0.9958782 0.9494136 0.9900336 0.9974636 0.99847513 0.99201876
0.9371703 0.96584743 1.0287592 0.8963261 0.93617904 0.8995065 0.9861185 0.95468056
0.94294715 0.94596386 0.94916195 0.95229185 0.93029433 1.1298645 1.1195608 0.90829515

body.block2.norm.bias f4 [64]
00000000: 9bbe e4be 9462 2bbe b503 bcbe 0140 72be
00000010: 6f20 03bf 6c6e d1be 31a5 4ebe 0f04 01bd
00000020: ae09 59be b830 a1be 8e93 b4be d638 86be
00000030: 368c a4be cc7b 3abe ecad d9be a12f 6abe
00000040: 134b 9cbe afb4 82be c4d3 0cbe d081 e9be
00000050: 961b b7be d909 94be 1b39 03bf 90c8 fdbd
00000060: d18e 95be 4956 11be 0227 a1be b2b4 6abe
00000070: f518 a5be e595 17be a0a5 d0be d24c 01be
00000080: bf1c 75be a068 83be 4c3b 9fbe c8e6 90be
00000090: 849a 0abe fdc5 54be cfa2 5fbe 3cb7 e1bd
000000a0: 997a 0abe df97 99be a745 2cbe ad8d 6dbe
000000b0: 927c 3fbe fdc7 9abe ca11 d7be 3de0 8abd
000000c0: ad31 69be e037 25be 74be fbbd c5e1 e7be
000000d0: 796a 43be b422 5dbe e061 a5be b85e 80be
000000e0: d506 c2be 8b0d bfbd 6037 1abf 6ac8 6abe
000000f0: 3e0a 3bbe f6cf bbbe 5985 9fbe 6367 7dbe
-0.4467667 -0.16736823 -0.36721578 -0.23657228 -0.51221365 -0.40904558 -0.20180203 -0.03149801
-0.21195099 -0.31482482 -0.35268825 -0.26215237 -0.32138222 -0.18211287 -0.42515504 -0.22869731
-0.30526027 -0.25528476 -0.13752657 -0.45606852 -0.35763234 -0.28913763 -0.5125901 -0.1239177
-0.29210523 -0.14193071 -0.31475073 -0.22920492 -0.32245603 -0.14803274 -0.40751362 -0.12626961
-0.23936747 -0.2566576 -0.31099927 -0.28301072 -0.13535506 -0.20778652 -0.2183945 -0.11021277
-0.1352333 -0.2999868 -0.16823445 -0.23198576 -0.18699864 -0.30230704 -0.4200576 -0.06781051
-0.22772856 -0.16134596 -0.122921854 -0.45289436 -0.19083585 -0.2159527 -0.32301235 -0.25072265
-0.37895837 -0.09328755 -0.60240746 -0.22928014 -0.18265626 -0.366821 -0.31156424 -0.2474647

body.block2.norm.running_mean f4 [64]
00000000: 3a05 debe 8690 fdbd 6d2b 953f b99d 88be
00000010: 444f d8be 7ca5 8fbf a3af 19be 08ca 47bf
00000020: 7f53 8abe 5e00 9bbf ce9c 1f3f adf3 71bd
00000030: 678c 123c 75c4 8ebf 3d47 b53f c5e8 39bd
00000040: 0c4a 0dbe 2108 0dbe 87c7 94bf 2a9d 983e
00000050: 761b e6bf 4e5d 49bf 7308 74bf 3dac b53d
00000060: 87d9 bfbd ac10 95bd 7c5c 25bf 460f acbd
00000070: 41a2 73bf d1ec 0cbf e745 323f 8a81 42bf
00000080: e5e2 d1be 4d49 8d3e 035b 68bf 2292 abbd
00000090: 501e 903e 95d3 3abf b356 24bf 58b0 61bf
000000a0: 2db4 2cbd 8a67 7ebf 896d d0be d06b 1ebc
000000b0: 0530 50be 7e94 193f 560c 6bbe c13f 5cbf
000000c0: 187b c7be 0a4a 8abf 2d01 53be 2cb0 abbe
000000d0: 9406 dfbc 1cc5 99be 7682 ebbd 2c55 f83e
000000e0: 3dfe 8bbe 0562 ffbe 8364 01bf f950 da3d
000000f0: 5ba9 953c be35 58be f95d 53be df9b 98bf
-0.43363363 -0.12381081 1.1653877 -0.26682833 -0.42247975 -1.1222377 -0.15008406 -0.7804265
-0.27016827 -1.2109487 0.6234864 -0.059070278 0.008944607 -1.1153704 1.4162365 -0.045388002
-0.13797778 -0.13772632 -1.1623391 0.29807407 -1.797713 -0.78657997 -0.9532539 0.088707425
-0.09367662 -0.072785705 -0.64594245 -0.08401351 -0.95169455 -0.55048853 0.6963791 -0.7597891
-0.4099342 0.27594987 -0.9076387 -0.08377482 0.28148127 -0.729791 -0.6419479 -0.88159704
-0.042164017 -0.9937674 -0.4070857 -0.009669259 -0.20330818 0.59992206 -0.22953925 -0.8603478
-0.389611 -1.0803845 -0.20605917 -0.33532846 -0.027224816 -0.30033195 -0.11499493 0.4850248
-0.27342406 -0.4987947 -0.50543994 0.106599756 0.018269232 -0.21114251 -0.20641316 -1.1922568

body.block2.norm.running_var f4 [64]
00000000: 813b 933f 7a7e 8f3f a4e8 0b40 939b 673f
00000010: cd28 1640 3807 f53e de6b 323f 19a5 0040
00000020: 28f6 b23f fbb8 573f 7a58 ae3f ac1f de3f
00000030: e3da 153f e285 5a3f cc87 393f dcd8 783f
00000040: 750e db3f 08a8 ed3e b509 523f 0e26 6d3f
00000050: f081 cc40 7fab 343f ef9f 3e3f d3b0 633f
00000060: 36dd 733f 30b9 193f 35fb 113f 71d8 1b40
00000070: db63 a93f 3cbb 6a3f f264 573f 6162 1f3f
00000080: 9544 953f baea 383f 0b95 283f 9e24 b43f
00000090: fef0 6d3f 0b5d 353f 9ae0 1a3f bd0a 9c3f
000000a0: 290b de3e 8a53 413f 7296 a13f 0d5c 803f
000000b0: 2109 103f b678 2440 9acc 183f e823 933f
000000c0: f7b0 583f ec93 273f 2783 603f 9a35 0d3f
000000d0: a5c4 863f e985 273f 86c4 403f 52d9 423f
000000e0: 991a 5f3f 99e0 493f 4672 bd3f 8f0d fd3e
000000f0: cb03 133f 26b2 283f 9a8f b03e ee17 8d3f
1.1502534 1.1210473 2.1860743 0.9047176 2.3462403 0.4785707 0.6969584 2.0100768
1.3981371 0.8426663 1.3620751 1.7353415 0.5853712 0.8536054 0.72472835 0.972059
1.7113787 0.4641726 0.8204606 0.9263619 6.3908615 0.7057418 0.7446279 0.8894169
0.95259416 0.600482 0.57023937 2.4350855 1.3233598 0.91691947 0.84138405 0.6225949
1.1661555 0.72233164 0.6585242 1.4073675 0.9294585 0.708451 0.60498965 1.2190777
0.4336789 0.75518095 1.2624037 1.0028092 0.5626393 2.5698676 0.596872 1.1495333
0.84645027 0.65460086 0.8770012 0.55159914 1.0528761 0.65438706 0.7529987 0.76112854
0.8714996 0.78858334 1.4800498 0.49424407 0.5742766 0.6589683 0.3448456 1.1022928

body.block3.conv.weight f4 [64, 64, 3, 3]
00000000: 3463 92bc 16b5 f4bd 211f 02be f3a3 913d
00000010: 2a18 943c 7bae 7ebd 79b5 273e 2998 c33d
00000020: e782 a1bc 3686 1abc b470 6fbd 7866 4a3d
00000030: 1870 b2bc 7c2e 21bc b2c9 fd3b d207 31bd
00000040: b5b3 02be 0584 89bc 7f27 b7bd f0ad a1bd
00000050: 4870 41bd f721 1bbd fc6f 4fbd 6022 acbd
00000060: 019b 17bd c9f4 4bbd ac3e b7bd a563 893d
00000070: 1dd2 abbb 7310 483d 1c93 d0bd 58dd b5bc
00000080: 378a 1c3c 0bc0 56bd d88b 17bc b44d 9c3d
00000090: ff2e a3bd b7c1 69bd 538f 60bd 5dc0 f43b
000000a0: 7810 d1bc 6642 48bd cfdb 0a3d a956 f8bc
000000b0: 3fb0 eebc ecbc 5fbd 0cb6 8bbd 0b0e b73d
000000c0: 4685 1f3d 8b6e 8a3d 2239 7c3d 8f33 213d
000000d0: 4ae3 133d ec19 c9bd 37f9 f93d 6c7b dc3c
000000e0: f265 d3bc 4d81 143d 3390 39bc 2d92 a3bc
000000f0: d38f 51bd f696 f9bd 5a92 e8bd 1d9c 41bc
00000100: c2c2 31bd 8c56 6e3c 64cc c1bd 5145 9cbd
00000110: d083 c6bc 4b27 523c d879 24bd 8750 90ba
00000120: f95a dbbc 7dae d5bc 2870 0fbe e486 cbbc
00000130: 598a c2bd 31d7 fdbd 3ca2 48bd c60c 70bd
00000140: 5244 283d 8255 a33d 8053 c13b 840d 88bc
00000150: 5e0c ec3c 491f 863b a5db e23b 05b2 b63b
00000160: 1f95 a0bd 95d7 c7bd c5e1 fabc 0cb0 0d3d
00000170: 96a1 683d 7537 933c 665f 603c 5db1 d3bd
00000180: 09b6 49bd 7075 49bd fc78 35be f35c 84bd
00000190: c86c 81bd 51c7 75bd 0f4f ccbd 494a e9bc
000001a0: 8d0e dc3c 546c 85bd 6709 553d 1daa 653c
000001b0: 1197 663d 3b8d 393d 2bdd b13d 46d9 3c3d
000001c0: 0afa e13d 486f c2bc 7b91 ef3c 3336 5e3d
000001d0: 41c5 4c3c f882 5abc 13b1 c4bd a7b7 50bd
000001e0: bfc5 d9b9 7ef0 74bb 25a0 60bc 2ba0 80bd
000001f0: d48d 12bd 244a f8bc c9a6 acbd 2096 3cbd
00000200: 1e4c 27be ade1 beba 9ebf c3bd acdc d0bd
00000210: 2b29 183d 8dd6 f93b 8e95 8cbd 29ea e63c
00000220: e790 a73c e3dc d23c 3072 c1bd 5a2b ce3c
00000230: 3872 9d3c 8045 07bc 9fda 5b3d 40de 183e
00000240: adda 873d 7f84 a73a de55 12be 7f1d cebc
00000250: 69a2 fbbc 80a0 3abc d358 ba3d 33b6 e53c
00000260: db20 3ebc a30a 9b3c d51c 2e3d 5f28 63bb
00000270: 0ec8 c4bd 4a71 ffbd 88da 16be 2ecc 16bd
00000280: d3b6 bd3c fbb9 933a 4e43 e5bb a947 a0bd
00000290: 1ce0 adbc 033c 3abd 309a 833d f4b1 c8ba
000002a0: 0ee7 33bd 3602 a33c 53d6 c63c 2d5a e33c
000002b0: 9444 b9bd 5def a9bc d51d 84bd faaa a7bd
000002c0: ef57 cebd 3c7a edbd 7b21 c5bd d54c 52bd
000002d0: 5c24 efbb c24d febc e561 7cbc 7639 43bb
000002e0: ed73 ac3d a811 403c 7b67 423a 297f 28bb
000002f0: 1aa7 353d c34c 803d 9de5 193d 9939 5e3d
00000300: afd3 01bd 488d a6bc 6de1 833d b4d5 febd
00000310: edfb c63b e492 47bd 3b61 56be 8ee4 0cbe
00000320: 29a7 c4bd 9778 a0bd a0d0 73bd 385a c7bb
00000330: dd12 ebbc f301 9c3c 09b9 6d3d b3f6 2b3c
00000340: 3ae5 033e 9c96 21bc 04b8 e7bc a684 f0bb
00000350: eb80 34bd 7df5 9cbd ba30 66bd 8919 86bd
00000360: 17c1 1abd 9f39 213c 9e26 8d3d 03cf b2bc
00000370: 2426 57bd c2a2 3abc 6a9f 81bd c19e a6bd
00000380: f5b4 ddbd 3ddc e3bc adbd 8fbc 92a3 dcbd
00000390: 90bb 903c 7b44 a9bc 1425 03bd e829 b83c
000003a0: a668 49bd 4ef7 f2bc a2bc 383d efdb d23d
000003b0: c02b 053c 8cb3 77bc ef1a 5b3d d07d abbd
000003c0: bbc7 87bc 3d2b 7cba f58b 4dbe cda3 5abd
000003d0: 5b43 263c d3a4 4dbc 1ad6 d7bc 815d 75bc
000003e0: 19ba 983c 5b9e 253d fce5 18bc c3f7 a5bc
000003f0: a371 183d 83bc 853b 2693 f53d 0b6a 8a3d
-0.01786957 -0.11948602 -0.12707187 0.07111349 0.018077929 -0.062178116 0.1637782 0.095505066
-0.01971574 -0.009431412 -0.05845709 0.049414128 -0.021781966 -0.009837743 0.007744991 -0.04322035
-0.12763865 -0.016786585 -0.0894308 -0.07894504 -0.04722622 -0.03787419 -0.050643906 -0.08404994
-0.037013058 -0.049793992 -0.089475006 0.06708459 -0.0052435533 0.048843812 -0.10184309 -0.022200271
0.009554437 -0.05242924 -0.00924965 0.07632008 -0.07967948 -0.057069506 -0.054824185 0.0074692206
-0.025520548 -0.048891447 0.033901032 -0.03031476 -0.029136775 -0.05462353 -0.06821832 0.08938225
0.03894546 0.06759366 0.061577924 0.03935581 0.03610543 -0.09819397 0.12205737 0.02691432
-0.025805447 0.036256123 -0.011325884 -0.019967163 -0.051162552 -0.12186997 -0.11356039 -0.011817005
-0.043398626 0.014547002 -0.094628125 -0.076304086 -0.024232775 0.012826751 -0.04015526 -0.0011010327
-0.026776778 -0.026084179 -0.14007628 -0.024844594 -0.09499044 -0.1239456 -0.048982844 -0.05860593
0.04108078 0.07975294 0.0058998466 -0.016608007 0.02881449 0.004093085 0.0069231563 0.005575421
-0.078409426 -0.09757916 -0.030625233 0.03459172 0.056794725 0.01797078 0.01369462 -0.10336564
-0.049245868 -0.049184263 -0.17721933 -0.06463041 -0.063195765 -0.060004536 -0.09976017 -0.028477805
0.026862407 -0.065148026 0.05201092 0.014017609 0.056296412 0.045300703 0.086847626 0.046105646
0.11034019 -0.023734704 0.029244175 0.054250907 0.012498201 -0.013336889 -0.09604087 -0.050956395
-0.00041536798 -0.003737479 -0.013710056 -0.062805496 -0.03577979 -0.03030879 -0.08430249 -0.046041608
-0.1633763 -0.0014563106 -0.095580325 -0.1019834 0.037148636 0.0076244534 -0.06864463 0.028187828
0.020454837 0.025740093 -0.09445608 0.025167156 0.019219503 -0.008256316 0.05367529 0.14928532
0.06633506 0.0012780576 -0.14290568 -0.02516055 -0.030717092 -0.011390805 0.09098973 0.02804098
-0.011604513 0.01892597 0.042507965 -0.0034661514 -0.0960847 -0.1247278 -0.147318 -0.036815815
0.023158466 0.0011270636 -0.0069965487 -0.07826168 -0.021225028 -0.045467388 0.06425893 -0.0015311823
-0.043921523 0.019898515 0.02427212 0.02775296 -0.09046283 -0.02074402 -0.064510025 -0.08186908
-0.10075366 -0.1159558 -0.096255265 -0.051342804 -0.0072980355 -0.031042937 -0.015404199 -0.0029788888
0.084205486 0.01172296 0.00074159325 -0.002571056 0.044348814 0.06264641 0.037572492 0.05425415
-0.031696018 -0.02033104 0.06439481 -0.124431044 0.0060725124 -0.04872407 -0.20935528 -0.13759062
-0.09602196 -0.07835501 -0.059525132 -0.006083753 -0.028695518 0.019043898 0.05803779 0.010495829
0.12880412 -0.009862568 -0.028285988 -0.0073400317 -0.04406826 -0.07664011 -0.056198813 -0.06547839
-0.0377818 0.009840398 0.06892131 -0.021827227 -0.052526608 -0.011391344 -0.06329234 -0.08135749
-0.108255304 -0.027814979 -0.0175465 -0.10773386 0.017667562 -0.020662537 -0.032017782 0.02248092
-0.049172066 -0.02965894 0.04510177 0.10295855 0.008128107 -0.015118491 0.053492483 -0.08373606
-0.016574731 -0.000961948 -0.2007292 -0.05337887 0.010147895 -0.012551504 -0.026347209 -0.014975906
0.018643426 0.040434223 -0.009332176 -0.020259744 0.037217747 0.0040813102 0.11990957 0.06758507

body.block3.conv.bias f4 [64]
00000000: 1706 96bc ac21 923c 58dc 8c3c 96c4 36bc
00000010: cecd 46bc d874 36bd 18c4 83ba fcee 063d
00000020: 6347 f33c daea 463d 44ef 3d3d a327 61bc
00000030: 65c4 80bc 99a3 913c 37e9 1a3d 85ea 9039
00000040: 4043 633c 5aeb e83c 12cc 103d 17bf e4bc
00000050: 91a3 90bc 92f3 3cbc 0abf 9cbc 24f5 033d
00000060: 1055 d7bb 334c d73b 8547 653c db90 d2bc
00000070: 0237 e1bc 2c97 03bc 047a b2bc e601 0fbb
00000080: aeff 7c3c 5c0e 5cbb cdfd e1bb 9ed9 b83c
00000090: 1a2c b2bc 9754 f53c a798 b9bc c8d2 dabc
000000a0: ed50 003d 377c 0d3d 1635 d53c e916 f13c
000000b0: 75db 923c c5cf c7bc d440 093d e79f 54bd
000000c0: d16d 5fbd fbf9 563b 5acb 56bc d07d b63c
000000d0: fb66 53bc a5b4 febc 9401 00bd d7f9 ac3b
000000e0: ece4 a3bc a29e 1abd efb5 e5bc 71dc 443b
000000f0: 7256 64bb 0ae4 c1bc b3ea 3dbd 2354 f4bc
-0.01831345 0.017838322 0.017194912 -0.011155268 -0.012134029 -0.044545025 -0.0010052947 0.032942757
0.029697126 0.048563816 0.04637076 -0.01374236 -0.015718648 0.017778205 0.037820067 0.0002764055
0.013871014 0.028432537 0.035350867 -0.02792315 -0.01765612 -0.011532681 -0.019134063 0.032216206
-0.0065714195 0.006570363 0.013994102 -0.025703838 -0.02749205 -0.008031648 -0.021786697 -0.00218212
0.015441818 -0.0033577895 -0.0068967105 0.022564705 -0.021749545 0.029947562 -0.022655798 -0.026711836
0.031327177 0.03454229 0.02602629 0.02942987 0.01792691 -0.024391064 0.03350909 -0.051910307
-0.05454809 0.0032802809 -0.013110006 0.022276789 -0.01290297 -0.031091997 -0.031251505 0.0052788067
-0.02000662 -0.03774894 -0.028040854 0.003003862 -0.0034841564 -0.023668308 -0.046366405 -0.029825276
