TrainedModels/SMB-1-3/scale_factor=0.750000,alpha=10/5/netD.pth (torch, 465995 bytes, 25 tensors)

head.conv.weight f4 [64, 3, 3, 3]
-0.08156657 -0.06806468 -0.039604887 -0.1043115 -0.028390864 -0.04155232 -0.07607065 -0.063861705
-0.048785873 0.017690724 0.023318868 0.034025796 0.021392869 0.012102301 -0.0099945655 -0.06665469
-0.07722486 -0.008574492 0.018207308 -0.0032210199 -0.0031321503 -0.03351372 -0.036482524 -0.00059043284
-0.06928609 -0.09091563 -0.036225658 0.009050885 -0.16932596 0.006252679 0.034544762 -0.12389495
0.087774634 0.034226324 -0.19120705 0.0547195 0.008412513 -0.008626124 0.04322004 0.02494577
0.011623892 0.06566817 -0.06315221 -0.068432845 0.0006265939 -0.0050291996 0.027891591 -0.010261214
0.006698146 -0.011632692 0.017332064 0.0047789654 0.009968086 0.02805147 0.009192895 -0.018679528
-0.06400166 0.07090334 0.034738135 -0.00815657 0.08813108 0.05094805 0.0122375125 -0.015335457
0.09556202 -0.006633833 0.050542157 0.07318237 -0.058298957 0.15207356 0.14133695 0.11535337
-0.06951941 0.048364848 0.045613274 -0.049585436 0.014229573 0.04488614 -0.035482448 0.043689515
0.04232566 0.07530363 0.024883822 0.06466822 0.009194421 0.011642037 -0.0015303659 -0.11120654
-0.06225284 -0.027411683 0.0011990047 -0.005932091 -0.014422533 -0.022987414 -0.049608637 0.011165896
-0.0075428244 -0.040589143 -0.04181968 -0.11462206 -0.13289687 -0.12228674 -0.056621056 -0.0019225543
-0.010134286 0.06610911 0.018575668 0.001317054 0.021086378 0.018329209 -0.04588958 -0.0125306295
0.04251849 -0.008659439 -0.021109086 -0.011941795 -0.017850284 0.026868546 0.025901163 -0.022981351
-0.0039477344 -0.019145392 -0.030795079 -0.016295154 -0.00074945024 -0.035255115 -0.11253765 -0.07553009
-0.072354116 0.02132032 0.032733217 -0.004802557 0.061308254 0.0783402 0.06248561 -0.026143232
0.049693547 -0.016824877 0.022382133 -0.005386493 0.035996087 -0.06591945 -0.02002767 -0.0005344286
-0.013821753 0.02446009 0.026149487 -3.2083353e-05 0.000608734 0.012486144 -0.030856907 -0.0019042168
0.07433053 0.03480521 0.0048441226 0.08839214 0.070452556 -0.07431561 -0.07047851 0.08237758
-0.054715633 0.13137712 0.07526802 0.09993828 -0.012188708 0.083631255 0.07739744 -0.0039866017
-0.0500732 -0.054216865 -0.12711939 0.05211367 0.038008887 0.10304671 0.024413837 0.01690917
0.009197433 0.02938692 0.03981339 0.046045464 -0.059495877 -0.067431115 0.057637934 -0.021133998
-0.03187786 0.0038492847 -0.0020582515 0.04874499 0.05616939 -0.020242691 0.017953739 0.028867973
0.03656545 0.040561274 0.04652205 0.020984255 0.022077948 0.026310774 0.015566434 0.023101924
0.06780436 6.0949474e-06 -0.007350899 0.008302171 0.025070459 0.071832135 0.033080053 0.107108295
0.04619013 0.04671112 0.071553506 -0.0035875698 0.034594834 0.05475612 0.0651683 0.11752292
-0.008867728 -0.07949498 0.07614121 0.03625825 -0.00798536 0.025337052 0.0025140655 0.028458811
-0.07570373 -0.04000837 -0.044907346 0.03671658 -0.038105216 -0.06278199 -0.015279087 0.077411674
0.071418956 -0.019950343 0.045875825 -0.031224718 -0.034293458 0.06222952 -0.027452426 0.04586456
-0.04796172 -0.09644153 0.04730753 -0.022375543 -0.02747803 0.050791107 0.029990263 0.03527569
0.022061933 -0.045600615 -0.008903708 -0.023966398 0.05006228 0.013478541 -0.06914766 0.023550548
00000000: 600c a7bd 7f65 8bbd bc38 22bd 45a1 d5bd
00000010: f593 e8bc c432 2abd eeca 9bbd edc9 82bd
00000020: b2d3 47bd 23ec 903c 3607 bf3c a25e 0b3d
00000030: 1940 af3c bb48 463c 3fc0 23bc 4182 88bd
00000040: 1128 9ebd 077c 0cbc 7e27 953c bf17 53bb
00000050: c344 4dbb af45 09bd b36e 15bd 47c7 1aba
00000060: dee5 8dbd f931 babd 5b61 14bd 2a4a 143c
00000070: c963 2dbe 46e3 cc3b cf7e 0d3d a3bc fdbd
00000080: 30c3 b33d e730 0c3d c8cb 43be 8e21 603d
00000090: a3d4 093c 9654 0dbc 7f07 313d 125b cc3c
000000a0: 2372 3e3c 097d 863d f255 81bd 8526 8cbd
000000b0: 0142 243a fccb a4bb e87c e43c a71e 28bc
000000c0: 1f7c db3b 0c97 3ebc f9fb 8d3c de98 9c3b
000000d0: 2f51 233c 32cc e53c cc9d 163c cf05 99bc
000000e0: 4d13 83bd c535 913d 9349 0e3d 22a3 05bc
000000f0: 117e b43d e7ae 503d d97f 483c 9241 7bbc
00000100: 05b6 c33d a060 d9bb 4b05 4f3d a3e0 953d
00000110: e3ca 6ebd 2cb9 1b3e a2ba 103e 633e ec3d
00000120: 3160 8ebd 381a 463d fcd4 3a3d 191a 4bbd
00000130: 2823 693c 87da 373d 0b56 11bd c7f3 323d
00000140: ac5d 2d3d ca38 9a3d 28d9 cb3c c670 843d
00000150: 32a4 163c 3ebe 3e3c 8f96 c8ba 41c0 e3bd
00000160: d5fc 7ebd 778e e0bc ec27 9d3a fc61 c2bb
00000170: 7d4c 6cbc 1a50 bcbc 6d32 4bbd 2af1 363c
00000180: cc29 f7bb cd40 26bd 1d4b 2bbd f8be eabd
00000190: 1e16 08be 7871 fabd 7beb 67bd 38fe fbba
000001a0: 470a 26bc 3764 873d 002c 983c 00a1 ac3a
000001b0: 57bd ac3c 2327 963c b6f6 3bbd 454d 4dbc
000001c0: de27 2e3d 52e0 0dbc f6ec acbc 85a7 43bc
000001d0: c23a 92bc 6d1b dc3c ad2e d43c 6343 bcbc
000001e0: ff5b 81bb ccd6 9cbc f645 fcbc 6a7d 85bc
000001f0: c176 44ba ab67 10bd 247a e6bd 85af 9abd
00000200: 652e 94bd f4a7 ae3c 4413 063d c55e 9dbb
00000210: 5d1e 7b3d d470 a03d e9f0 7f3d 552a d6bc
00000220: 768b 4b3d 53d4 89bc bc5a b73c 2e81 b0bb
00000230: a270 133d c700 87bd 1111 a4bc e518 0cba
00000240: a274 62bc 8760 c83c 7337 d63c 3d91 06b8
00000250: 7293 1f3a af92 4c3c a0c7 fcbc ea96 f9ba
00000260: 9b3a 983d e88f 0e3d 72bb 9e3b f006 b53d
00000270: 6e49 903d c832 98bd 0957 90bd 94b5 a83d
00000280: 801d 60bd b987 063e 1f26 9a3d 71ac cc3d
00000290: 26b3 47bc dd46 ab3d 8d82 9e3d 0aa2 82bb
000002a0: 8e19 4dbd 8112 5ebd 962b 02be 2575 553d
000002b0: 35af 1b3d 270a d33d 87ff c73c 1a85 8a3c
000002c0: d4b0 163c d7bc f03c 5d13 233d 2b9a 3c3d
000002d0: f3b1 73bd 5319 8abd c115 6c3d 3521 adbc
000002e0: 5c92 02bd 4844 7c3b bbe3 06bb d4a8 473d
000002f0: e011 663d 00d4 a5bc b813 933c 877c ec3c
00000300: a7c5 153d 9423 263d e88d 3e3d 2ce7 ab3c
00000310: d0dc b43c b189 d73c 5b0a 7f3c 3f40 bd3c
00000320: 03dd 8a3d 3383 cc36 cfdf f0bb d405 083c
00000330: 9060 cd3c ba1c 933d f37e 073d 985b db3d
00000340: dd31 3d3d 2954 3f3d a58a 923d 6f1d 6bbb
00000350: 50b3 0d3d f447 603d f576 853d dbaf f03d
00000360: f249 11bc 44ce a2bd ecef 9b3d 8883 143d
00000370: 07d5 02bc a68f cf3c 05c3 243b 7422 e93c
00000380: 8f0a 9bbd d1df 23bd c4f0 37bd 2064 163d
00000390: 3714 1cbd d893 80bd 2355 7abc 038a 9e3d
000003a0: 1a44 923d e76e a3bc 4ae8 3b3d fbca ffbc
000003b0: 4c77 0cbd 62e4 7e3d e9e3 e0bc 7adc 3b3d
000003c0: 8273 44bd 2383 c5bd 8ac5 413d ea4c b7bc
000003d0: 9b19 e1bc 560a 503d 24ae f53c 3e7d 103d
000003e0: 3abb b43c b6c7 3abd dce0 11bc 2e55 c4bc
000003f0: 1b0e 4d3d 19d5 5c3c 4a9d 8dbd 14ed c03c

head.conv.bias f4 [64]
0.06049063 0.27676913 0.072972454 0.044516943 0.06439292 0.17635773 0.04207345 -0.08572908
-0.038090847 0.15723357 -0.045944713 0.056039892 0.06385541 0.2680255 -0.0872064 -0.07751981
0.044611152 0.12094201 -0.021351587 -0.18774337 0.10124886 0.066794544 0.030601192 -0.21575816
-0.07328177 0.22201543 -0.11064176 -0.06314665 0.0836624 -0.20081258 0.09245957 -0.15933825
-0.017496752 0.078758806 -0.099366754 0.012014619 -0.13631687 -0.044387434 0.24524505 0.10929208
-0.021952823 0.09675207 0.083876245 0.049353536 0.1704093 0.09696158 -0.010679801 0.12916152
0.21176577 -0.1372414 0.024614692 0.21866983 -0.10813124 0.11084141 -0.03688707 0.053711206
-0.14158843 -0.24847965 0.07839597 0.08670015 -0.15536085 0.011844651 -0.12797971 0.032082986
00000000: 06c5 773d afb4 8d3e 9572 953d 6657 363d
00000010: 6fe0 833d 1f97 343e 3655 2c3d ba92 afbd
00000020: 2605 1cbd d601 213e 8630 3cbd 168a 653d
00000030: a0c6 823d a33a 893e 4599 b2bd b5c2 9ebd
00000040: 2fba 363d 72b0 f73d 86e9 aebc cc3f 40be
00000050: 905b cf3d 94cb 883d 5aaf fa3c b5ef 5cbe
00000060: c114 96bd 0358 633e 2698 e2bd 0853 81bd
00000070: 3157 ab3d d0a1 4dbe 715b bd3d 9129 23be
00000080: 5955 8fbc 4c4c a13d cc80 cbbd f7d8 443c
00000090: a696 0bbe 99cf 35bd 8521 7b3e 87d4 df3d
000000a0: 68d6 b3bc f325 c63d 4fc7 ab3d ef26 4a3d
000000b0: c77f 2e3e cb93 c63d 55fa 2ebc eb42 043e
000000c0: 20d9 583e 0289 0cbe c0a4 c93c fcea 5f3e
000000d0: e973 ddbd d200 e33d e516 17bd 4800 5c3d
000000e0: 8ffc 10be 7371 7ebe 118e a03d d98f b13d
000000f0: ea16 1fbe 1110 423c 1d0d 03be 7369 033d

head.norm.weight f4 [64]
0.8707327 0.8532858 0.8927201 0.8578289 0.9760217 0.85100186 1.01392 0.9404245
0.93570864 1.0783678 1.1419857 1.1266941 0.96211874 0.9353215 0.9200841 1.1000745
1.1626396 0.93274176 1.0338358 1.0536972 0.9603523 0.9754103 1.1277624 1.0182241
0.9783705 1.1187441 1.0283381 0.85944206 1.1425626 0.9427081 0.95285636 1.0852526
1.164589 0.97054154 0.98694867 1.0972223 1.0364808 1.0578824 0.90912265 0.9677107
1.1134713 1.0941793 1.0207131 0.8468082 0.933009 0.9069556 0.9494457 0.96583897
0.9650142 0.88035184 1.1006265 0.9558574 1.1415727 0.8284986 1.0017841 1.1606134
1.1479006 0.9745964 1.0752892 0.9411152 1.021833 0.89713085 0.9415307 1.0037076
00000000: 57e8 5e3f f070 5a3f 4e89 643f ad9a 5b3f
00000010: 8fdc 793f 42db 593f 21c8 813f a9bf 703f
00000020: 9a8a 6f3f f507 8a3f 962c 923f 8337 903f
00000030: 6a4d 763f 3b71 6f3f a28a 6b3f 3ecf 8c3f
00000040: 60d1 943f 2ac8 6e3f bb54 843f 8ddf 863f
00000050: a6d9 753f 7db4 793f 855a 903f 2b55 823f
00000060: 7d76 7a3f 0233 8f3f 95a0 833f 6504 5c3f
00000070: 7e3f 923f 5155 713f 65ee 733f 8fe9 8a3f
00000080: 4111 953f 6975 783f aba8 7c3f c871 8c3f
00000090: 67ab 843f b168 873f 43bc 683f e3bb 773f
000000a0: 3a86 8e3f 110e 8c3f baa6 823f 6cc8 583f
000000b0: aed9 6e3f 3e2e 683f e00e 733f 3941 773f
000000c0: 2c0b 773f bd5e 613f 54e1 8c3f 12b3 743f
000000d0: 0e1f 923f 7c18 543f 763a 803f fb8e 943f
000000e0: 68ee 923f 267f 793f 14a3 893f edec 703f
000000f0: 6ccb 823f 5eaa 653f 2808 713f 7e79 803f

head.norm.bias f4 [64]
0.18468654 0.100726895 0.27146778 0.38908753 0.49987373 0.2804487 -0.091314636 0.40679625
0.24706319 0.1304282 0.0074877776 -0.085032724 0.19488738 0.18309748 0.4495593 0.06147667
0.01667633 0.42966568 0.29129657 0.14950319 0.27621424 0.39151675 -0.07195476 -0.09101625
0.14591311 0.09836296 0.23442858 -0.3065947 0.25080904 0.46634445 0.16802698 -0.11896725
-0.017380293 0.40468693 0.050991632 0.1541709 -0.0802882 -0.13466717 0.092290066 0.32564467
0.13776305 0.023071984 0.5210549 -0.39534378 0.45655075 -0.036181968 0.21941657 0.14065215
0.23343465 0.27188754 -0.011403659 0.18083286 0.28985563 0.14938319 0.07193145 0.005969018
0.062264193 0.4420072 -0.014997809 0.21846801 0.19889826 0.3649363 0.1855539 0.51904964
00000000: 781e 3d3e e749 ce3d d3fd 8a3e 7b36 c73e
00000010: 73ef ff3e f996 8f3e 2b03 bbbd 9947 d03e
00000020: 22fe 7c3e f88e 053e 085c f53b a325 aebd
00000030: 8f90 473e e87d 3b3e a32c e63e f6ce 7b3d
00000040: cc9c 883c 24fd db3e d324 953e 5d17 193e
00000050: f46b 8d3e e274 c83e 045d 93bd ba66 babd
00000060: 3f6a 153e 8572 c93d 0c0e 703e fbf9 9cbe
00000070: 0b6a 803e b3c4 ee3e 440f 2c3e 1aa5 f3bd
00000080: 1e61 8ebc 2033 cf3e 9adc 503d fade 1d3e
00000090: 246e a4bd 31e6 09be 9302 bd3d e6ba a63e
000000a0: c211 0d3e 7501 bd3c db63 053f 806a cabe
000000b0: 05c1 e93e 8b33 14bd bdae 603e 1e07 103e
000000c0: 7e09 6f3e d834 8b3e 6ad6 3abc 402c 393e
000000d0: f567 943e e8f7 183e cc50 933d c197 c33b
000000e0: bd08 7f3d c54e e23e 5fb9 75bc 14b6 5f3e
000000f0: fcab 4b3e eed8 ba3e d701 3e3e 70e0 043f

head.norm.running_mean f4 [64]
-0.085648425 0.4456336 0.22936459 -0.41962513 0.046993915 0.46412644 0.06400129 0.5540734
-0.08850485 0.15269493 -0.0396343 0.07225306 0.20700109 0.2105663 -0.5471644 -0.11810823
0.049922403 0.66488826 -0.14783728 -0.18051064 0.664943 -0.6123517 0.072173394 -0.20094961
0.51640964 0.2021148 -0.19644251 0.09857327 0.054510206 0.39457363 0.56759185 -0.1306145
0.016999248 -0.20877562 -0.10662672 -0.015214835 -0.088083856 0.053669102 0.63015836 0.16569623
-0.05539261 0.093462124 0.009606495 0.5962239 -0.74945015 0.3990339 -0.12551971 0.35088035
0.18166491 -0.29004398 0.044440117 0.18059587 -0.19060455 0.079256885 -0.112030946 0.07175829
-0.08898883 -0.061500557 0.07575902 -0.030172577 -0.17802165 -0.15993021 -0.2063253 -0.7176403
00000000: 7168 afbd 162a e43e 8dde 6a3e 1bd9 d6be
00000010: b17c 403d fba1 ed3e 1c13 833d c1d7 0d3f
00000020: 0842 b5bd 0f5c 1c3e 9357 22bd 6af9 933d
00000030: 18f8 533e b19e 573e f712 0cbf bae2 f1bd
00000040: 6f7b 4c3d 1e36 2a3f a862 17be c8d7 38be
00000050: b439 2a3f 15c3 1cbf a5cf 933d bcc5 4dbe
00000060: 6c33 043f 2ff7 4e3e 3a28 49be c8e0 c93d
00000070: 1846 5f3d 8e05 ca3e b34d 113f cfbf 05be
00000080: 0242 8b3c 47c9 55be 1c5f dabd a547 79bc
00000090: 4f65 b4bd 22d4 5b3d 0f52 213f 46ac 293e
000000a0: 5de3 62bd 1269 bf3d 8f64 1d3c 21a2 183f
000000b0: f7db 3fbf 2c4e cc3e 3d88 00be 97a6 b33e
000000c0: 5e06 3a3e a580 94be d706 363d 20ee 383e
000000d0: d72d 43be 6f51 a23d 7b70 e5bd 03f6 923d
000000e0: c73f b6bd 02e8 7bbd 8c27 9b3d 7b2c f7bc
000000f0: 4f4b 36be bfc4 23be f046 53be 46b7 37bf

head.norm.running_var f4 [64]
0.017558431 0.011822955 0.026787343 0.06260292 0.0045624953 0.022369716 0.010431172 0.115949936
0.0019580135 0.0017429035 0.0074457517 0.002569629 0.0062564523 0.014821373 0.057777736 0.003492641
0.0037931183 0.071867146 0.009326967 0.0014618034 0.08053679 0.13054788 0.008003521 0.0015593336
0.10391271 0.0014929464 0.00585079 0.018109122 0.002031141 0.08601244 0.06040514 0.0037531152
0.0037823678 0.024746789 0.0023343018 0.0058304328 0.0040602465 0.03460189 0.04141467 0.0069334316
0.009409295 0.00516971 0.0058917985 0.09258729 0.22724637 0.023383748 0.008854978 0.016406897
0.0047780494 0.017151421 0.0023493744 0.019775037 0.008118082 0.0055816337 0.011459524 0.0069517116
0.004506535 0.016550887 0.003036806 0.025985459 0.004101892 0.016381009 0.0077219345 0.14295419
00000000: b3d6 8f3c 11b5 413c 2171 db3c f635 803d
00000010: fc80 953b b240 b73c 82e7 2a3c 2977 ed3d
00000020: 0452 003b 2372 e43a 7efb f33b 3967 283b
00000030: ed02 cd3b 58d5 723c 59a8 6c3d cbe4 643b
00000040: f795 783b 152f 933d 23d0 183c fc99 bf3a
00000050: 79f0 a43d 58ae 053e 3321 033c 8e62 cc3a
00000060: 30d0 d43d f8ae c33a fcb7 bf3b 9559 943c
00000070: e41c 053b 4a27 b03d 616b 773d d3f6 753b
00000080: 9ae1 773b c7b9 ca3c 16fb 183b 370d bf3b
00000090: d10b 853b b6ba 0d3d 6ea2 293d d731 e33b
000000a0: 7229 1a3c ac66 a93b fd0f c13b 689e bd3d
000000b0: 46b3 683e 468f bf3c 7814 113c c267 863c
000000c0: 2f91 9c3b 2381 8c3c f6f7 193b 42ff a13c
000000d0: b401 053c 23e6 b63b bac0 3b3c 2fcb e33b
000000e0: 8eab 933b ba95 873c 2605 473b 75df d43c
000000f0: 2a69 863b 7731 863c 4808 fd3b 9562 123e

body.block1.conv.weight f4 [64, 64, 3, 3]
-0.08419661 -0.078966014 -0.094438866 -0.004566283 -0.025027072 -0.07416626 0.04366539 0.01857873
0.011731559 -0.062177848 -0.087100506 -0.032690007 -0.045721926 -0.03490169 0.014255046 -0.0050407383
-0.007166909 0.058088653 -0.07261506 -0.0054075746 0.009356898 -0.066189475 -0.021920705 0.028127018
-0.056275178 -0.06552362 -0.03650864 -0.032973725 -0.056001924 -0.05751857 -0.004760387 -0.029091692
-0.010838478 -0.024108533 -0.01040098 0.044527166 -0.101728156 -0.04917446 -0.038553752 -0.021062564
0.0028521314 0.059635222 0.05233701 0.02518672 0.05756363 -0.034570098 -0.04285143 -0.078174874
-0.008742953 -0.028300563 -0.018472515 -0.0027965945 -0.017149713 -0.037098046 -0.0283983 -0.044225145
-0.042302534 -0.03162956 0.022102144 -0.011758067 -0.005363203 0.0017315336 -0.021831984 -0.056020774
-0.09314489 -0.09433212 -0.06466213 -0.061935652 -0.09098085 -0.079229265 -0.064710684 -0.07621111
-0.017619895 -0.06376698 -0.0009704071 0.03791046 -0.07971338 -0.002062929 0.059663985 0.0103483945
0.01888216 -0.055157106 -0.11479671 -0.10671004 0.048376963 0.0460755 0.02861005 0.088859856
0.05598597 0.038811196 -0.0048373854 -0.053765967 0.064955026 0.03201185 0.01441961 0.08378443
0.041513808 0.04101515 0.15197667 -0.08328693 -0.1672274 -0.055743225 0.016470125 -0.0007391854
0.047198273 -0.0010256836 0.038687807 0.072809555 -0.04349703 -0.015289709 -0.03105239 -0.07296387
-0.08387782 -0.026286848 -0.044894088 -0.021479072 -0.0020318143 -0.027877526 -0.09029214 -0.04765355
-0.032122277 -0.041956104 0.00084423093 -0.0303819 0.0011443368 0.03906558 -0.12111428 -0.09013201
-0.12261677 -0.088357784 -0.08649031 -0.046514872 -0.05877149 -0.064093165 -0.05182856 -0.03002828
-0.054827202 -0.08396636 0.021401139 0.027244551 -0.013052824 0.029238675 0.000413374 -0.035083707
0.05305506 -0.00011691113 -0.018661404 0.031983774 0.026563613 -0.025342008 -0.021040156 -0.009363659
0.00744165 -0.0719224 -0.08310301 -0.068200976 -0.04719822 -0.03401092 -0.04905767 -0.050102714
-0.032980643 -0.019568544 -0.024199644 -0.042985026 -0.09388409 0.02364057 0.026884882 -0.03989901
0.10988715 0.05549222 0.016463831 -0.018938528 -0.0025548162 -0.00059675454 0.014249079 0.010469893
-0.005150986 0.044011038 0.14187735 0.09503746 -0.046320233 -0.05614221 -0.03354947 -0.039622985
-0.057367243 -0.009112275 -0.034002416 -0.010780299 0.009287701 -0.25315276 -0.23380329 -0.15342711
-0.18473947 -0.1387521 -0.11755681 -0.10916584 -0.1292164 -0.06294589 -0.038855955 -0.08792391
-0.0033975502 0.05239568 -0.002929469 0.024484145 0.09811552 0.003369036 0.034142327 0.00090015767
-0.013077387 0.030173 -0.0037033767 0.019895224 0.05108418 -0.0125031425 -0.023378512 0.04203046
-0.062996514 -0.03870594 0.0077053495 -0.040046025 -0.05126564 -0.00089168316 -0.034256317 -0.07229364
0.011911699 -0.025087828 0.030387888 -0.039522763 -0.014919931 -0.008201862 -0.03527803 0.11831074
0.039624624 0.01457962 -0.07251863 -0.07527905 -0.10542366 0.029874783 0.0053657335 -0.012438538
0.04513219 0.013974942 0.0061793923 0.013027993 0.008416459 -0.021552214 -0.01249807 0.015932601
-0.03680858 -0.052697193 -0.023811873 -0.02811867 -0.007705506 -0.07914449 -0.012498101 0.012420602
00000000: 466f acbd efb8 a1bd 2a69 c1bd c2a0 95bb
00000010: 9305 cdbc 7be4 97bd 7bda 323d 6c32 983c
00000020: ba35 403c 33ae 7ebd c061 b2bd f5e5 05bd
00000030: ea46 3bbd 13f5 0ebd ff8d 693c c72c a5bb
00000040: 64d8 eabb 5eee 6d3d 34b7 94bd 0632 b1bb
00000050: ad4d 193c 598e 87bd 0d93 b3bc a26a e63c
00000060: cd80 66bd 3f31 86bd 158a 15bd 750f 07bd
00000070: 4662 65bd 9898 6bbd 05fd 9bbb b351 eebc
00000080: df93 31bc 427f c5bc df68 2abc 1e62 363d
00000090: da56 d0bd 296b 49bd 8aea 1dbd 668b acbc
000000a0: d3ea 3a3b 1044 743d 555f 563d 6154 ce3c
000000b0: d7c7 6b3d 6099 0dbd fb84 2fbd 261a a0bd
000000c0: 9a3e 0fbc 95d6 e7bc ac53 97bc 1247 37bb
000000d0: 8e7d 8cbc 1ff4 17bd 8da3 e8bc 6d25 35bd
000000e0: 6c45 2dbd ff8d 01bd 8e0f b53c e8a4 40bc
000000f0: cfbd afbb a0f4 e23a fdd8 b2bc 0a76 65bd
00000100: c0c2 bebd 3331 c1bd 946d 84bd 3db0 7dbd
00000110: 2b54 babd f442 a2bd 0987 84bd 9214 9cbd
00000120: 9957 90bc 4398 82bd eb62 7eba 0048 1b3d
00000130: c540 a3bd 3532 07bb 3962 743d 508c 293c
00000140: c2ae 9a3c 6bec 61bd 8a1a ebbd cb8a dabd
00000150: ec26 463d aab9 3c3d a05f ea3c 28fc b53d
00000160: 8b51 653d 7df8 1e3d ee82 9ebb b439 5cbd
00000170: 2407 853d dc1e 033d 3a40 6c3c 2c97 ab3d
00000180: 620a 2a3d 80ff 273d c69f 1b3e 5792 aabd
00000190: a93d 2bbe 0253 64bd 5bec 863c e4c5 41ba
000001a0: fa52 413d 3b70 86ba 1b77 1e3d 2d1d 953d
000001b0: f129 32bd b081 7abc 9561 febc 156e 95bd
000001c0: 22c8 abbd 8457 d7bc dde2 37bd e1f4 afbc
000001d0: 3028 05bb 695f e4bc 16eb b8bd 5e30 43bd
000001e0: a692 03bd 2ada 2bbd 614f 5d3a 76e3 f8bc
000001f0: 92fd 953a 3b03 203d c30a f8bd 2297 b8bd
00000200: 801e fbbd edf4 b4bd d521 b1bd 6186 3ebd
00000210: 60ba 70bd 4743 83bd 2f4a 54bd defd f5bc
00000220: 7d92 60bd 8ef6 abbd 7151 af3c f72f df3c
00000230: 83db 55bc f285 ef3c 1eba d839 efb3 0fbd
00000240: 4350 593d 2f2e f5b8 cddf 98bc 6b01 033d
00000250: ef9b d93c 0b9a cfbc 685c acbc 086a 19bc
00000260: 16d9 f33b 0d4c 93bd e931 aabd f4ac 8bbd
00000270: ec52 41bd 094f 0bbd b2f0 48bd 8138 4dbd
00000280: b616 07bd 364e a0bc 553e c6bc 1111 30bd
00000290: 4d46 c0bd dea9 c13c af3d dc3c 256d 23bd
000002a0: 840c e13d cf4b 633d 28df 863c f924 9bbc
000002b0: b46e 27bb 856f 1cba f874 693c ea89 2b3c
000002c0: 9ac9 a8bb eb44 343d 4c48 113e 00a3 c23d
000002d0: 49ba 3dbd 60f5 65bd 2b6b 09bd b64b 22bd
000002e0: eaf9 6abd a74b 15bc 1e46 0bbd da9f 30bc
000002f0: 712b 183c 3d9d 81be 216a 6fbe ff1b 1dbe
00000300: 582c 3dbe 0815 0ebe a0c1 f0bd 5792 dfbd
00000310: 4e51 04be c6e9 80bd 6c27 1fbd 7311 b4bd
00000320: 6fa9 5ebb da9c 563d 56fc 3fbb f992 c83c
00000330: caf0 c83d 0bcb 5c3b d3d8 0b3d 8ff8 6b3a
00000340: 8942 56bc 5e2d f73c 5ab4 72bb 4ffb a23c
00000350: a53d 513d fbd9 4cbc 4b84 bfbc 2228 2c3d
00000360: 5104 81bd 1f8a 1ebd 287d fc3b 4d07 24bd
00000370: ebfb 51bd d8bf 69ba 5a50 0cbd b00e 94bd
00000380: 4929 433c fd84 cdbc 05f0 f83c 9fe2 21bd
00000390: ba72 74bc 1a61 06bc b27f 10bd e74c f23d
000003a0: 6e4d 223d 5cdf 6e3c a684 94bd e72b 9abd
000003b0: 5ce8 d7bd f6bb f43c 09d3 af3b 02cb 4bbc
000003c0: 88dc 383d 28f7 643c 807c ca3b 5d73 553c
000003d0: 30e5 093c 458e b0bc b4c4 4cbc 1685 823c
000003e0: 98c4 16bd 03d9 57bd 1e11 c3bc 2059 e6bc
000003f0: 787e fcbb 8216 a2bd d6c4 4cbc c87f 4b3c

body.block1.conv.bias f4 [64]
0.038609866 -0.021296108 -0.020092776 -0.033813704 -0.035660304 0.026720531 0.0712575 0.034442194
-0.00039143767 0.08030027 -0.0051880074 -0.004883303 -0.010427072 -0.06283037 0.0025330312 0.070299
-0.002716789 0.0007052498 -0.012624822 -0.011506098 -0.050811205 -0.032546714 -0.035057805 -0.074968904
-0.056293175 0.018878963 0.1062402 0.0026267194 -0.06999312 -0.05589664 -0.07142532 -0.018747892
-0.060452357 -0.094240546 0.090442024 -0.042906784 0.007885692 -0.0026209708 0.019936966 0.015032205
0.036276475 0.0033652193 0.0054493225 0.069267765 -0.004579143 0.014229545 -0.014414951 -0.013715101
0.033660896 0.020913845 0.047881525 0.04235198 0.02916491 -0.038048226 -0.07776722 0.007190204
-0.065903924 0.060914405 -0.062108397 -0.06096634 -0.114038534 0.014858168 -0.033692807 0.005958538
00000000: 6125 1e3d 2d75 aebc 9b99 a4bc 3d80 0abd
00000010: 8a10 12bd 04e5 da3c 74ef 913d 4213 0d3d
00000020: e039 cdb9 7874 a43d 2900 aabb 1d04 a0bb
00000030: 4fd6 2abc 36ad 80bd 3601 263b ecf8 8f3d
00000040: 280c 32bb 83e0 383a 57d8 4ebc 1384 3cbc
00000050: 691f 50bd b44f 05bd c698 0fbd 4c89 99bd
00000060: ac93 66bd 0ea8 9a3c 7694 d93d 0a25 2c3b
00000070: 8e58 8fbd e0f3 64bd 7047 92bd 2e95 99bc
00000080: e49c 77bd 3001 c1bd ab39 b93d 06bf 2fbd
00000090: fd32 013c 98c4 2bbb d952 a33c a349 763c
000000a0: a496 143d 038b 5c3b 3b90 b23b 42dc 8d3d
000000b0: a30c 96bb 0a23 693c b02c 6cbc 4eb5 60bc
000000c0: 02e0 093d 8353 ab3c 6b1f 443d 4579 2d3d
000000d0: 40eb ee3c 75d8 1bbd 6c44 9fbd ce9b eb3b
000000e0: a3f8 86bd 6281 793d 6065 7ebd d7b7 79bd
000000f0: 098d e9bd ac6f 733c 7801 0abd d73f c33b

body.block1.norm.weight f4 [64]
0.93799657 1.0222466 0.87994796 0.9556156 0.93137497 1.0083567 0.7518602 0.99624985
0.87025344 0.9669373 0.96453494 0.8302571 0.9038526 1.0222529 1.0414771 1.0818135
1.047865 1.0046483 0.9575776 0.963792 1.006398 0.9496566 0.952657 0.9186452
1.0922223 1.0692322 1.0452485 0.9767062 0.9646465 1.0675553 1.0275198 0.811464
0.93779504 0.9415715 1.090312 0.9277244 0.95607466 0.9556617 1.0038296 0.9818076
1.0930749 0.96674275 0.93971777 1.0143688 1.1639652 0.9489689 0.9830627 0.94247675
0.8303153 1.0675768 0.94967806 1.1172156 0.9505138 0.9408694 0.93700135 1.0668453
1.1493485 1.0098763 0.9579642 1.07361 0.98606974 0.87418413 1.0480626 1.0004305
00000000: 8b20 703f fad8 823f 4544 613f 39a3 743f
00000010: 976e 6e3f d511 813f e979 403f 3b0a 7f3f
00000020: eec8 5e3f 3489 773f c3eb 763f bb8b 543f
00000030: e262 673f 2fd9 823f 1f4f 853f dd78 8a3f
00000040: 7120 863f 5198 803f ce23 753f 13bb 763f
00000050: a6d1 803f b21c 733f 54e1 733f 552c 6b3f
00000060: f1cd 8b3f 9adc 883f b4ca 853f 6b09 7a3f
00000070: 13f3 763f a7a5 883f c585 833f 1bbc 4f3f
00000080: 5613 703f d40a 713f 588f 8b3f 597f 6d3f
00000090: 4fc1 743f 3fa6 743f 7d7d 803f be57 7b3f
000000a0: e1e9 8b3f 747c 773f 5891 703f d6d6 813f
000000b0: d0fc 943f a0ef 723f ffa9 7b3f 2846 713f
000000c0: 8b8f 543f 5ba6 883f 1a1e 733f ec00 8f3f
000000d0: df54 733f d1dc 703f 52df 6f3f 638e 883f
000000e0: da1d 933f a043 813f 243d 753f 0d6c 893f
000000f0: 116f 7c3f 88ca 5f3f ea26 863f 1b0e 803f

body.block1.norm.bias f4 [64]
0.32964855 0.19324876 0.17963693 0.45715204 -0.06948817 0.105544254 0.37065947 -0.025644029
0.35941878 0.27491117 0.18963864 0.017071696 -0.08583672 0.21508314 0.0804936 0.19320345
0.13914236 0.20717171 0.2794006 -0.04813211 0.24124905 0.16175762 0.07939838 0.36328614
0.13906756 0.2447573 0.3012287 0.3699308 0.11750749 0.21105464 0.30679825 0.23627704
-0.07040004 0.0063587846 0.3484606 0.21993095 0.2449544 0.369162 0.462167 0.11455693
0.30235022 0.2896383 0.13893808 0.081558414 0.11630191 0.21324101 0.258249 0.25653604
0.2877525 0.36247355 0.030600142 0.37840375 0.11159225 0.24621162 0.23390453 0.13861921
0.27433023 0.44043067 0.22496374 0.09812872 -0.2211175 0.39784965 0.39509842 0.28144333
00000000: b2c7 a83e 01e3 453e bef2 373e d50f ea3e
00000010: d04f 8ebd 9627 d83d 14c7 bd3e 6d13 d2bc
00000020: bd05 b83e 28c1 8c3e a230 423e f1d9 8b3c
00000030: 2acb afbd c13e 5c3e d4d9 a43d 20d7 453e
00000040: 567b 0e3e d224 543e 980d 8f3e 2d26 45bd
00000050: fe09 773e caa3 253e 9e9b a23d a400 ba3e
00000060: ba67 0e3e a8a1 7a3e a63a 9a3e 9267 bd3e
00000070: c4a7 f03d b51e 583e a914 9d3e 9cf2 713e
00000080: e52d 90bd 5a5d d03b 6e69 b23e 9435 613e
00000090: 54d5 7a3e cd02 bd3e 27a1 ec3e d39c ea3d
000000a0: a6cd 9a3e 794b 943e c945 0e3e 1908 a73d
000000b0: b22f ee3d da5b 5a3e 3739 843e b158 833e
000000c0: 4c54 933e 2296 b93e 26ad fa3c 23be c13e
000000d0: 7a8a e43d e61e 7c3e ab84 6f3e 32f2 0d3e
000000e0: 0375 8c3e 2180 e13e e55c 663e b6f7 c83d
000000f0: a06c 62be f3b2 cb3e 574a ca3e 5719 903e

body.block1.norm.running_mean f4 [64]
-4.1234446 -3.0668871 0.45474952 3.307133 0.374626 -0.7558301 2.5434737 -0.83653796
-5.0077395 -4.3344584 5.331312 0.2642128 0.26942158 -4.716519 -2.315734 0.11941156
-2.2190552 -0.9471768 -5.4639783 0.31643727 -5.146271 0.71514547 -2.4350266 -2.6362388
-1.8014673 -2.4420643 -3.3658617 2.5060716 -2.9618936 -1.4372734 -3.243718 -4.109694
1.5954927 0.75556296 1.2759857 -3.5170288 -0.1106553 1.3508929 5.0939674 3.1997528
-0.22566728 -2.572653 -5.1763854 0.49718133 -0.6313251 0.36438414 -4.0991755 -4.2695155
-3.8772535 2.1070087 -1.0796702 -0.90833604 -0.12742968 2.080672 -1.1223499 4.226688
-3.123839 1.027098 1.966696 0.033599496 -1.9933158 0.483378 -3.2554927 -1.5011947
00000000: 42f3 83c0 e147 44c0 eed4 e83e 11a8 5340
00000010: fbce bf3e 157e 41bf 46c8 2240 5a27 56bf
00000020: 673f a0c0 e2b3 8ac0 1c9a aa40 e646 873e
00000030: a0f1 893e b9ed 96c0 fc34 14c0 0c8e f43d
00000040: 0005 0ec0 2e7a 72bf e9d8 aec0 1104 a23e
00000050: 41ae a4c0 c613 373f 7ad7 1bc0 23b8 28c0
00000060: 7b96 e6bf c84a 1cc0 476a 57c0 7a63 2040
00000070: aa8f 3dc0 93f8 b7bf 1399 4fc0 9d82 83c0
00000080: 1b39 cc3f 936c 413f 8053 a33f 0017 61c0
00000090: 3f9f e2bd 0fea ac3f c801 a340 c0c8 4c40
000000a0: 5315 67be 59a6 24c0 f3a4 a5c0 8d8e fe3e
000000b0: 869e 21bf 8f90 ba3e 722c 83c0 df9f 88c0
000000c0: ec24 78c0 3bd9 0640 a232 8abf b688 68bf
000000d0: ed7c 02be bb29 0540 29a9 8fbf 0741 8740
000000e0: faec 47c0 f277 833f b2bc fb3f a09f 093d
000000f0: f924 ffbf 527d f73e fe59 50c0 2627 c0bf

body.block1.norm.running_var f4 [64]
9.447113 2.4896898 3.6775331 4.1177297 3.8064704 1.7694128 6.6406803 5.2639775
4.161554 8.594655 7.7171783 5.480013 4.7441 19.86909 2.2106485 1.4952673
4.7975454 6.9613853 10.770902 0.70328957 3.679302 2.4498048 8.33626 26.327585
3.3155713 2.3785934 12.282861 2.9371405 4.0151296 3.1721463 5.462835 3.400474
7.74443 1.6097256 4.3453536 7.611095 2.4645574 4.4325376 6.202134 6.07876
1.9259794 6.2268114 2.7640884 3.219472 1.3576694 1.0723642 7.060087 19.466476
3.8077455 6.265498 2.4594362 1.7701997 0.572121 3.477554 7.067134 4.4342184
3.658909 5.9908514 2.8216681 12.287359 1.7595 1.5422636 1.6302121 2.384015
00000000: 6027 1741 1457 1f40 b45c 6b40 71c4 8340
00000010: 369d 7340 1e7c e23f 7480 d440 8172 a840
00000020: 732b 8540 b583 0941 20f3 f640 445c af40
00000030: abcf 9740 e5f3 9e41 447b 0d40 eb64 bf3f
00000040: 7e85 9940 abc3 de40 9d55 2c41 c90a 343f
00000050: af79 6b40 9ac9 1c40 5261 0541 e59e d241
00000060: 5232 5440 e03a 1840 9986 4441 1cfa 3b40
00000070: f17b 8040 7204 4b40 8bcf ae40 5ea1 5940
00000080: 5fd2 f740 7d0b ce3f 230d 8b40 178e f340
00000090: 4fbb 1d40 59d7 8d40 e277 c640 3485 c240
000000a0: 7e86 f63f 0a42 c740 d3e6 3040 d40b 4e40
000000b0: 1cc8 ad3f 3b43 893f 3cec e140 58bb 9b41
000000c0: 1ab2 7340 f67e c840 6767 1d40 e795 e23f
000000d0: 8676 123f 3f90 5e40 f625 e240 1ee5 8d40
000000e0: 912b 6a40 0eb5 bf40 3696 3440 0699 4441
000000f0: 4c37 e13f e568 c53f caaa d03f b493 1840

body.block2.conv.weight f4 [64, 64, 3, 3]
0.019253753 -0.008405239 -0.013749212 0.0021953448 -0.0011015001 -0.03141687 0.02259132 -0.017544026
-0.0042670076 0.040357184 0.06987376 0.026035624 -0.029412322 0.040124923 0.021423379 -0.03559433
-0.064061455 -0.024253381 0.041000348 0.038522866 -0.011599735 -0.04646529 -0.00044440516 -0.0029821016
-0.039806448 -0.03495755 -0.045175254 -0.06061584 -0.098118566 -0.0060744844 -0.07155628 -0.049072463
0.010493383 -0.0625686 -0.057508156 0.016778503 -0.03501729 0.0556655 -0.016136024 -0.06525599
-0.03494174 -0.10151237 -0.017971994 0.020969775 -0.03964091 0.12723775 0.06963434 0.009525676
0.06995719 -0.025790622 -0.048863918 0.05528381 -0.0026179994 -0.006079289 0.011981352 -0.018558834
0.0055647865 -0.044709727 -0.002392695 0.01865724 -0.050759394 -0.009423813 -0.013901613 0.083572626
0.037643753 -0.009816035 0.032820407 -0.017461123 -0.051397268 0.06001947 0.00078055327 -0.05058744
-0.0050275917 -0.017243119 -0.016057614 -0.018782066 -0.010209077 0.030568665 -0.056029312 0.012234301
0.01746952 -0.015068623 -0.015468658 0.0056627267 -0.01618639 -0.039603636 0.029272927 -0.06588195
-0.005745675 0.024414843 -0.0136541845 -0.038161516 -0.03078917 -0.00075294886 -0.00999458 -0.0023828973
0.009335431 -0.032993026 0.0082678255 0.01830233 0.06921617 0.005852184 -0.012521455 -0.0017921145
-0.03537471 -0.013040213 0.015256889 0.0061788186 0.0674842 -0.030347763 -0.052688815 0.073383674
0.021372493 0.012334677 0.040002465 -0.00015186143 0.020589557 0.013095822 -0.012226811 0.042162392
0.021443393 -0.0059589287 0.0057400996 -0.00027124034 -0.0090005165 0.060344398 0.026258882 0.034375608
0.018319704 -0.018101728 -0.041399796 -0.0027445625 -0.025452817 -0.058322344 -0.10266032 0.046684496
0.03331253 -0.08567619 0.03226013 0.061013877 -0.06811247 0.112631515 0.05997345 -0.031870686
-0.060557123 0.012746136 -0.0051297517 -0.06745113 -0.012267465 -0.05826457 0.018206926 0.08064113
0.00562586 0.041873373 -0.008124766 0.054886136 -0.010088965 0.022649936 0.03866383 0.02492125
0.0041906647 0.060827333 -0.020713553 -0.011308837 -0.02430456 -0.0072041336 -0.08317767 -0.011773683
-0.053412437 -0.06606757 -0.017163327 0.051618263 -0.14747396 -0.105898365 -0.008905065 -0.06786006
-0.04811776 0.052413993 -0.029470397 0.01956883 0.02723359 0.029381191 0.0050779027 -0.030458778
-0.027228808 -0.028660305 0.07516519 -0.005043588 -0.015248245 0.010176084 -0.09024385 -0.10910076
-0.0032289927 -0.05299599 -0.12542883 0.10689081 0.027778495 -0.054359823 0.007894769 -0.042102706
0.07451154 -0.011312876 -0.046010334 -0.017628545 0.028282177 -0.0040552467 -0.033926602 -0.057939027
-0.044313468 -0.05612975 0.0003559459 0.010843491 0.021036139 0.0025727218 0.017125783 0.0047443477
0.01633972 -0.024762597 -0.003949204 0.03877489 0.027465861 -0.02256534 0.12621886 0.09870221
0.11760411 0.07901966 0.02311323 -0.0133159775 -0.094611675 -0.13946395 -0.10238331 -0.108460605
-0.1181825 -0.15362856 -0.03410951 -0.040463742 0.0047554458 0.041013733 0.002650008 0.010441439
0.077579945 0.036944613 0.09110274 0.037864722 0.012061409 0.029412264 -0.020332003 -0.026522417
-0.023634499 -0.15478514 -0.046502262 -0.04857328 -0.022434447 -0.024203688 -0.108668745 0.032334518
00000000: 0cba 9d3c 21b6 09bc 6044 61bc c6df 0f3b
00000010: 3660 90ba faae 00bd 6f11 b93c 7db8 8fbc
00000020: 41d2 8bbb 934d 253d f919 8f3d a948 d53c
00000030: 1cf2 f0bc 085a 243d 1580 af3c 5ccb 11bd
00000040: a732 83bd 07af c6bc fbef 273d 27ca 1d3d
00000050: d10c 3ebc 6352 3ebd 0dff e8b9 5d6f 43bb
00000060: 160c 23bd a62f 0fbd b009 39bd 5148 78bd
00000070: 63f2 c8bd 780c c7bb 198c 92bd 3500 49bd
00000080: 70ec 2b3c f723 80bd ac8d 6bbd 1273 893c
00000090: 4a6e 0fbd 8201 643d b22f 84bc efa4 85bd
000000a0: 121f 0fbd b8e5 cfbd 013a 93bc cec8 ab3c
000000b0: 825e 22bd 9d4a 023e 739c 8e3d 9511 1c3c
000000c0: b745 8f3d db46 d3bc 8825 48bd 4771 623d
000000d0: be92 2bbb c634 c7bb 6f4d 443c b208 98bc
000000e0: d058 b63b 8c21 37bd c3ce 1cbb 11d7 983c
000000f0: 15e9 4fbd 5666 1abc 97c3 63bc 2028 ab3d
00000100: 5630 1a3d 6fd3 20bc b16e 063d a10a 8fbc
00000110: f185 52bd fad6 753d 0b9e 4c3a c734 4fbd
00000120: 7fbe a4bb 7141 8dbc 428b 83bc d9dc 99bc
00000130: f943 27bc 236b fa3c fe7e 65bd 6172 483c
00000140: 3d1c 8f3c 63e2 76bc 4170 7dbc 658e b93b
00000150: 5299 84bc 6c37 22bd c7cd ef3c 1eed 86bd
00000160: 3746 bcbb a301 c83c cdb5 5fbc 404f 1cbd
00000170: 9239 fcbc 8b61 45ba 4fc0 23bc 622a 1cbb
00000180: a3f3 183c b223 07bd c675 073c c5ee 953c
00000190: 35c1 8d3d adc3 bf3b ca26 4dbc 62e5 eaba
000001a0: 12e5 10bd 9ea6 55bc 08f8 793c b077 ca3b
000001b0: 2835 8a3d df9b f8bc 3ad0 57bd 2e4a 963d
000001c0: 5e15 af3c 6317 4a3c a0d9 233d fe3c 1fb9
000001d0: 6eab a83c dc8f 563c f652 48bc 79b2 2c3d
000001e0: 0eaa af3c 1e43 c3bb 7217 bc3b 4335 8eb9
000001f0: e776 13bc b02b 773d de1c d73c 70cd 0c3d
00000200: 3413 963c 134a 94bc d592 29bd 1ede 33bb
00000210: 6d82 d0bc 69e3 6ebd 933f d2bd 3e38 3f3d
00000220: b872 083d 0077 afbd 3323 043d b0e9 793d
00000230: 8d7e 8bbd 5aab e63d b8a6 753d d68a 02bd
00000240: bf0a 78bd 2bd5 503c 7a17 a8bb d123 8abd
00000250: 7afd 48bc d4a6 6ebd b126 953c 2d27 a53d
00000260: 2259 b83b 6a83 2b3d bd1d 05bc 49d0 603d
00000270: 304c 25bc 5c8c b93c f75d 1e3d a627 cc3c
00000280: d851 893b 1526 793d 78af a9bc b348 39bc
00000290: 5b1a c7bc a710 ecbb 0e59 aabd 68e6 40bc
000002a0: 00c7 5abd 6f4e 87bd 1b9a 8cbc ac6d 533d
000002b0: 6a03 17be 3ee1 d8bd 8de6 11bc 37fa 8abd
000002c0: 2117 45bd 0eb0 563d e76b f1bc d04e a03c
000002d0: fa18 df3c d3b0 f03c 8964 a63b b084 f9bc
000002e0: f30e dfbc 04c9 eabc 35f0 993d af44 a5bb
000002f0: c6d3 79bc 97b9 263c c5d1 b8bd 3870 dfbd
00000300: 829d 53bb 5312 59bd 6a70 00be 92e9 da3d
00000310: ba8f e33c 68a8 5ebd 1059 013c e373 2cbd
00000320: 8299 983d a459 39bc 5575 3cbd bd69 90bc
00000330: 06b0 e73c e0e1 84bb 9ff6 0abd 7951 6dbd
00000340: 0a82 35bd 4fe8 65bd 409e ba39 e6a8 313c
00000350: fb53 ac3c 1c9b 283b 5f4b 8c3c 7976 9b3b
00000360: e0da 853c eeda cabc 5368 81bb 6bd2 1e3d
00000370: 1600 e13c f3da b8bc 843f 013e 6224 ca3d
00000380: 6cda f03d 0fd5 a13d f557 bd3c 422b 5abc
00000390: c4c3 c1bd a3cf 0ebe 57ae d1bd 9820 debd
000003a0: ab09 f2bd ce50 1dbe 6ab6 0bbd 4fbd 25bd
000003b0: 92d3 9b3b 04fe 273d c2ab 2d3b 9212 2b3c
000003c0: 3ce2 9e3d 3c53 173d 1394 ba3d 0a18 1b3d
000003d0: 379d 453c fdf1 f03c 4d8f a6bc 8a45 d9bc
000003e0: 239d c1bc ff7f 1ebe 2879 3ebd c7f4 46bd
000003f0: 72c8 b7bc d046 c6bc b88d debd 3371 043d

body.block2.conv.bias f4 [64]
-0.040052094 -0.06473376 -0.036116485 0.03459526 0.04158674 -0.012075201 -0.023266805 0.0143378815
0.005731262 -0.021142196 0.09068939 0.00056315865 0.05201219 -0.008637452 0.0231295 -0.031180918
0.0037328973 -0.042504095 0.023192761 -0.052519802 0.0010494431 0.04792059 0.024921263 0.024458317
-0.035011232 0.001133639 0.123127915 -0.0019450111 -0.023211451 -0.0023226468 0.047829088 0.0126413
-0.021092497 -0.03582958 0.015577337 0.005331924 0.04136522 0.0075018466 -0.005434317 -0.0037228258
0.031522214 0.031861678 0.004923891 0.012271081 -0.023987986 -0.050173968 0.075624205 0.0137923695
-0.010469312 -0.06254478 0.03503993 -0.0033472928 -0.0024527328 -0.04076426 -0.017434593 -0.068309054
0.028767198 -0.004333252 0.013600474 0.019175189 -0.09053648 -0.039096918 -0.036580686 0.039554246
00000000: aa0d 24bd 2293 84bd e1ee 13bd c2b3 0d3d
00000010: dc56 2a3d 10d7 45bc 079a bebc 6fe9 6a3c
00000020: 4fcd bb3b 6632 adbc 5cbb b93d f0a0 133a
00000030: bc0a 553d 1984 0dbc 147a bd3c 206f ffbc
00000040: a0a3 743b c618 2ebd bffe bd3c 011f 57bd
00000050: 788d 893a 6148 443d ad27 cc3c cf5c c83c
00000060: f067 0fbd 9d96 943a 7d2a fc3d beef feba
00000070: f125 bebc 8c37 18bb 6fe8 433d 751d 4f3c
00000080: 2cca acbc 0ac2 12bd 1638 7f3c 6cb7 ae3b
00000090: 946e 293d 0dd2 f53b 5b12 b2bb a7fa 73bb
000000a0: 701d 013d 6481 023d 9758 a13b a50c 493c
000000b0: 7482 c4bc 3883 4dbd dde0 9a3d 64f9 613c
000000c0: 7a87 2bbc 7a17 80bd 0886 0f3d 415e 5bbb
000000d0: 07be 20bb 6df8 26bd fed2 8ebc 9ee5 8bbd
000000e0: 30a9 eb3c f4fd 8dbb 86d4 5e3c 4915 9d3c
000000f0: 316b b9bd 1724 20bd a1d5 15bd a203 223d

body.block2.norm.weight f4 [64]
1.1871713 0.86021453 0.9700186 0.9508165 1.0103087 1.0657926 0.84540164 1.0951707
1.0275342 1.0019801 0.90165985 0.96974003 1.0170949 0.7432312 0.8952632 0.9227113
0.9995168 0.85002583 0.96049577 1.0711573 0.92822385 0.96580946 1.0645893 0.93556565
1.0647922 1.061219 1.0060691 0.9668854 1.1068462 0.9945347 1.0005023 0.9500992
0.8707097 0.9917431 1.029125 0.9793655 1.0620757 0.9832743 1.0235659 0.9097565
1.0864921 1.0459036 1.001651 1.0945369 1.0474783 0.9235871 0.9065069 0.95807546
0.95562583 0.8689056 0.8369959 1.0512567 0.9466407 1.0034482 0.83446616 0.95952004
1.0476375 1.0311637 1.000957 0.9728158 1.100094 0.9352612 1.1330305 0.8702825
00000000: 3bf5 973f 0537 5c3f 2453 783f b668 733f
00000010: cc51 813f e46b 883f 3e6c 583f 8e2e 8c3f
00000020: 3e86 833f e240 803f 2ed3 663f e240 783f
00000030: 2a30 823f 6644 3e3f f82f 653f cf36 6c3f
00000040: 55e0 7f3f 4b9b 593f 0de3 753f af1b 893f
00000050: 14a0 6d3f 4a3f 773f 7644 883f 3b81 6f3f
00000060: 1c4b 883f 06d6 873f dfc6 803f cd85 773f
00000070: 23ad 8d3f d399 7e3f 7610 803f b339 733f
00000080: d5e6 5e3f e0e2 7d3f 5eba 833f b3b7 7a3f
00000090: 19f2 873f ddb7 7b3f 3504 833f cde5 683f
000000a0: 2c12 8b3f 2be0 853f 1a36 803f c919 8c3f
000000b0: c513 863f 3470 6c3f d610 683f 6f44 753f
000000c0: e5a3 743f 9970 5e3f 5d45 563f 948f 863f
000000d0: 0b57 723f fe70 803f 939f 553f 1ba3 753f
000000e0: fc18 863f 2cfd 833f 5c1f 803f 750a 793f
000000f0: e1cf 8c3f 476d 6f3f 2507 913f d5ca 5e3f

body.block2.norm.bias f4 [64]
0.22714326 0.21790832 0.51270574 0.36635432 0.5472596 -0.14328165 0.52882373 0.15627691
0.44041315 0.19559991 0.03602098 0.13581659 0.15998411 0.5328162 0.07350435 0.34110752
0.34457955 0.2028701 0.082589805 0.06446145 0.3885314 -0.015529656 0.33828282 0.5339374
-0.23311083 0.24251439 0.20286578 0.4301681 0.18296267 0.17056689 0.24895085 0.18589881
0.48839796 -0.04549835 0.18695687 0.066518836 0.046039872 -0.19992465 0.23037738 0.23607206
0.28830218 0.25500917 0.3714294 0.33227846 0.09186448 0.41104865 0.3442638 0.24385576
0.24319862 0.38053095 0.5925715 0.4692817 0.2709649 -0.1798544 0.378732 0.21063894
0.23197389 -0.0070779216 -0.06783326 0.35380328 0.2182306 0.38159397 0.28612852 0.37105665
00000000: 3e98 683e 5c23 5f3e af40 033f cb92 bb3e
00000010: 3519 0c3f 6db8 12be fe60 073f 0e07 203e
00000020: d57d e13e 584b 483e bc8a 133d 8113 0b3e
00000030: e0d2 233e a466 083f 7389 963d a5a5 ae3e
00000040: bb6c b03e 2ebd 4f3e d824 a93d 5d04 843d
00000050: 96ed c63e 1970 7ebc 6833 ad3e 1fb0 083f
00000060: 9bb4 6ebe b155 783e 0cbc 4f3e fe3e dc3e
00000070: 915a 3b3e 16a9 2e3e f9ec 7e3e 425c 3e3e
00000080: 4c0f fa3e 7a5c 3abd 9f71 3f3e 073b 883d
00000090: 4e94 3c3d 0cb9 4cbe 0ce8 6b3e e0bc 713e
000000a0: 589c 933e 9090 823e ff2b be3e 6720 aa3e
000000b0: 7223 bc3d f874 d23e 5843 b03e 53b5 793e
000000c0: 0f09 793e f4d4 c23e c4b2 173f b145 f03e
000000d0: e9bb 8a3e c02b 38be 29e9 c13e bcb1 573e
000000e0: 908a 6d3e e9ed e7bb 2aec 8abd b425 b53e
000000f0: d877 5f3e 4960 c33e 707f 923e 23fb bd3e

body.block2.norm.running_mean f4 [64]
-2.501798 -1.4667299 0.84360826 4.4310684 -5.9205136 -1.5411122 -6.692792 3.15914
-7.3105454 -5.7163296 -2.8831143 3.087023 4.7025046 -4.0465813 -6.7198796 -6.534207
-1.8591435 -5.675124 -2.6308477 -1.5678828 -4.6898365 -1.0166439 -3.8063104 -2.437763
-4.027639 -0.040320825 -7.9986105 -6.8812914 -8.240439 4.1680074 -2.233261 -3.4552324
-7.874058 -2.9656212 -3.3761613 0.6006429 -0.6055704 -1.7207155 -3.7402742 -5.373933
3.043937 -0.20632894 -2.3121047 -0.22050817 -0.8245861 -4.1109185 -5.2884703 3.0869296
0.45136076 -2.817908 -4.248156 -0.16154787 -2.257399 -5.5540886 -3.9417894 -4.688352
-2.1175644 -2.1534886 -2.7403862 -5.701884 0.778579 -3.815577 -0.52236795 -5.358048
00000000: 751d 20c0 cebd bbbf b6f6 573f 50cb 8d40
00000010: d974 bdc0 2a43 c5bf 5a2b d6c0 5a2f 4a40
00000020: fdef e9c0 2cec b6c0 f284 38c0 c991 4540
00000030: eb7a 9640 987d 81c0 4109 d7c0 3918 d1c0
00000040: 6af8 edbf 9e9a b5c0 cf5f 28c0 62b0 c8bf
00000050: 2413 96c0 6321 82bf 979a 73c0 4f04 1cc0
00000060: 6be2 80c0 7327 25bd 9ef4 ffc0 8a33 dcc0
00000070: d7d8 03c1 5160 8540 c0ed 0ec0 8722 5dc0
00000080: 48f8 fbc0 bdcc 3dc0 0713 58c0 bcc3 193f
00000090: a906 1bbf 6840 dcbf a760 6fc0 42f7 abc0
000000a0: ddcf 4240 e547 53be 86f9 13c0 e5cc 61be
000000b0: 1318 53bf a58c 83c0 263b a9c0 4190 4540
000000c0: c218 e73e 9b58 34c0 e5f0 87c0 ce6c 25be
000000d0: 3a79 10c0 18bb b1c0 4746 7cc0 fb06 96c0
000000e0: 2d86 07c0 c2d2 09c0 7d62 2fc0 d575 b6c0
000000f0: f450 473f 6a32 74c0 e8b9 05bf 2175 abc0

body.block2.norm.running_var f4 [64]
1.7468277 2.4647007 6.034414 1.8965745 5.8957376 1.38797 5.554008 2.224949
2.6111355 3.0285802 1.7668099 5.8744764 5.4671397 3.7156298 6.7517424 3.9689932
2.9909961 3.674693 2.4415016 0.5930603 2.9275093 3.1407382 3.320513 2.6789768
1.9302081 5.806279 1.8344196 1.2501332 7.5505986 9.954779 3.7241783 3.6115587
6.454216 2.5220664 6.285001 2.6715522 2.4025493 2.2746987 1.088802 1.1236023
1.4902283 22.454084 13.410058 3.2928271 1.1292166 3.0557404 4.1534534 6.455271
8.049618 8.695564 3.1014178 29.396503 3.5030773 0.6118898 1.4154472 3.2975037
4.3138304 1.5994573 5.697194 7.3842525 5.2097316 12.101283 2.5801775 0.7030901
00000000: 0d98 df3f a8bd 1d40 eb19 c140 f4c2 f23f
00000010: e2a9 bc40 00a9 b13f 6fba b140 9065 0e40
00000020: d81c 2740 42d4 4140 d426 e23f b6fb bb40
00000030: cff2 ae40 e1cc 6d40 460e d840 fc03 7e40
00000040: 7b6c 3f40 2c2e 6b40 9041 1c40 cdd2 173f
00000050: 505c 3b40 db01 4940 4983 5440 5b74 2b40
00000060: 0f11 f73f 0acd b940 43ce ea3f 5d04 a03f
00000070: 819e f140 c646 1f41 f058 6e40 c723 6740
00000080: f088 ce40 8969 2140 ba1e c940 b6fa 2a40
00000090: 5ec3 1940 aa94 1140 dd5d 8b3f 33d2 8f3f
000000a0: cdbf be3f f7a1 b341 998f 5641 aebd 5240
000000b0: 2b8a 903f 4091 4340 17e9 8440 9491 ce40
000000c0: 3ccb 0041 0821 0b41 a17d 4640 0a2c eb41
000000d0: 6b32 6040 cfa4 1c3f 602d b53f 4d0a 5340
000000e0: e60a 8a40 04bb cc3f 6a4f b640 cc4b ec40
000000f0: 1fb6 a640 db9e 4141 a121 2540 b6fd 333f

body.block3.conv.weight f4 [64, 64, 3, 3]
0.09013701 0.14550331 0.090103485 0.13500445 0.0767611 0.100782186 0.08269489 0.0779381
0.1161617 0.07178353 0.07599981 0.046942484 0.01483934 0.007012804 0.012127578 0.045991875
0.003213263 0.025351703 0.010653238 0.007476201 0.0049882033 0.022207003 0.06361601 0.07012
0.03837619 0.011193044 0.079940885 -0.060853895 -0.048178267 -0.018465685 -0.031313904 -0.03250625
-0.030235007 -0.09538534 -0.06402615 -0.03596897 -0.035924606 -0.034958463 -0.047452517 -0.0018160285
-0.033200283 -0.051504627 -0.07293145 -0.05591693 -0.030410066 0.07329269 0.06599957 0.08712167
0.14202966 0.15393962 0.12204558 0.14386232 0.1448186 0.17012316 -0.04508407 -0.020082094
-0.014806122 -0.044875395 -0.036594577 -0.026307683 -0.026802203 -0.05258022 -0.020013714 0.0033290898
-0.038182866 -0.04124457 -0.036973834 -0.043098595 -0.0733242 0.009530593 0.0053448384 -0.020707352
0.030527566 0.029141828 -0.020097649 0.08976252 0.0077523133 0.0158358 0.07037886 0.014577668
0.0048214328 -0.06741895 -0.0362332 -0.027546309 -0.05750271 -0.06883143 -0.011125082 -0.06100841
-0.04502912 -0.009486579 -0.015697058 -0.027082803 -0.005932081 0.008058775 0.030895358 -0.010608101
0.00087748386 -0.026653884 -0.002907854 0.006100653 0.051408403 0.029733839 -0.039113194 -0.024638617
-0.040582612 -0.050055936 -0.03475671 -0.0092512425 -0.10041854 -0.077586 -0.07208249 -0.0670294
-0.046064943 -0.058083452 -0.0763078 -0.043390773 -0.028620176 -0.03970852 -0.016652696 -0.039867774
-0.04512464 -0.061450772 -0.07836462 -0.025527442 -0.03379316 -0.07065865 -0.03674688 0.027188087
0.0001790211 -0.02413019 0.032795347 0.011491211 0.021021524 0.020929733 -0.0046751862 0.00040384635
-0.049600605 -0.077826105 -0.016386649 -0.027130598 -0.017689278 -0.020025473 -0.04646038 -0.03686441
-0.022311242 -0.024497611 -0.050749205 -0.047287006 -0.089216225 -0.0256913 -0.064589106 0.00042996157
-0.067729086 -0.028077124 -0.006406535 0.031758107 -0.02680551 -0.03171481 0.029387591 -0.0281327
-0.013539337 0.022230245 0.04726395 0.01766669 0.005607186 0.029493751 -0.0012133345 0.021066153
-0.010332837 0.015454872 -0.06728643 0.05678013 0.05543704 0.065230824 0.047001887 0.02544641
0.036131036 0.036521986 0.03474521 0.0671662 -0.02148975 -0.016751755 -0.027775548 -0.035558235
-0.00091560715 -0.032605167 -0.019762613 -0.005108864 -0.06622933 -0.043562803 -0.029002514 0.009219151
-0.00062920136 -0.00037958726 -0.010409695 0.015931947 0.042932898 0.040010225 0.019715125 -0.058240555
-0.030366523 -0.028068606 -0.050652623 -0.031832345 -0.06707717 -0.010418802 -0.04487052 -0.10580802
-0.06918875 -0.032096907 -0.0710894 -0.030547194 0.012907722 -0.025502384 -0.016201133 -0.005011833
0.15721157 0.1235734 0.11740443 0.13694099 0.12154152 0.09192231 0.124506585 0.13146886
0.14939809 -0.0022289383 -0.010910185 0.0059656855 -0.02260839 -0.021159464 -0.017230798 -0.03565671
-0.019363316 -0.010712204 0.035776548 0.0025986864 0.027028691 -0.030898076 0.030527238 0.055879336
0.03420299 0.014882865 0.031363692 0.01068175 -0.03755835 -0.017605718 -0.04871037 -0.045359783
-0.06788608 -0.07170366 -0.078360006 -0.06607475 -0.001858091 -0.052442286 -0.033521634 -0.020519167
00000000: c199 b83d d2fe 143e 2d88 b83d 9b3e 0a3e
00000010: ec34 9d3d e466 ce3d f05b a93d 039e 9f3d
00000020: 2fe6 ed3d 3e03 933d caa5 9b3d c346 403d
00000030: b420 733c aacb e53b c0b2 463c fa61 3c3d
00000040: 9b95 523b 60ae cf3c eb8a 2e3c ebfa f43b
00000050: 1574 a33b 76eb b53c 1c49 823d 139b 8f3d
00000060: 5a30 1d3d 0763 373c 0cb8 a33d ef41 79bd
00000070: 9356 45bd 5945 97bc 0243 00bd 4625 05bd
00000080: 68af f7bc 6459 c3bd 2420 83bd 3354 13bd
00000090: ae25 13bd 9b30 0fbd 925d 42bd ce07 eeba
000000a0: 05fd 07bd 84f6 52bd 165d 95bd 2709 65bd
000000b0: 881e f9bc 7a1a 963d c82a 873d d96c b23d
000000c0: 3970 113e 59a2 1d3e 08f3 f93d a550 133e
000000d0: 544b 143e c434 2e3e 13aa 38bd 3483 a4bc
000000e0: 6095 72bc 43cf 37bd 32e4 15bd 3683 d7bc
000000f0: 4b90 dbbc 5b5e 57bd cdf3 a3bc dc2c 5a3b
00000100: a365 1cbd 11f0 28bd e071 17bd 2788 30bd
00000110: 002b 96bd 3426 1c3c c123 af3b 77a2 a9bc
00000120: f214 fa3c d8ba ee3c d3a3 a4bc 69d5 b73d
00000130: 1e07 fe3b 14ba 813c cb22 903d 2cd7 6e3c
00000140: 1cfd 9d3b f212 8abd 4469 14bd cca8 e1bc
00000150: f687 6bbd 7ef7 8cbd fa45 36bc f4e3 79bd
00000160: 7470 38bd 996d 1bbc 1e97 80bc c1dc ddbc
00000170: e761 c2bb f408 043c 4318 fd3c 9acd 2dbc
00000180: f206 663a 3f59 dabc b291 3ebb fde7 c73b
00000190: 9e91 523d 6194 f33c 2835 20bd edd6 c9bc
000001a0: f439 26bd 7407 4dbd 0d5d 0ebd 8692 17bc
000001b0: 3ca8 cdbd 69e5 9ebd fc9f 93bd b646 89bd
000001c0: 98ae 3cbd eae8 6dbd 4447 9cbd 86ba 31bd
000001d0: dc74 eabc 67a5 22bd 3c6b 88bc 644c 23bd
000001e0: 9dd4 38bd ceb3 7bbd a17d a0bd ed1e d1bc
000001f0: b26a 0abd 7bb5 90bd e583 16bd 8db9 de3c
00000200: 9cb7 3b39 adac c5bc 6a54 063d a245 3c3c
00000210: 5535 ac3c d574 ab3c 4e32 99bb 57bb d339
00000220: 012a 4bbd 4b63 9fbd 4b3d 86bc fd40 debc
00000230: 1be9 90bc 760c a4bc 3d4d 3ebd 23ff 16bd
00000240: 11c6 b6bc 37af c8bc 66de 4fbd 05b0 41bd
00000250: ffb6 b6bd 9076 d2bc 4b47 84bd 776c e139
00000260: 8cb5 8abd ff01 e6bc e9ed d1bb ca14 023d
00000270: 3b97 dbbc 63e7 01bd 3fbe f03c 8c76 e6bc
00000280: 18d4 5dbc 341c b63c d897 413d bcb9 903c
00000290: 7cbc b73b e19c f13c c008 9fba ed92 ac3c
000002a0: 0f4b 29bc 6e36 7d3c 78cd 89bd 4892 683d
000002b0: f311 633d bd97 853d 0d85 403d fd74 d03c
000002c0: 23fe 133d 1498 153d fe50 0e3d 6f8e 893d
000002d0: 460b b0bc fa3a 89bc 8c89 e3bc 83a5 11bd
000002e0: 5b05 70ba ff8c 05bd 34e5 a1bc 4268 a7bb
000002f0: 3ea3 87bd e96e 32bd ae96 edbc ec0b 173c
00000300: fdf0 24ba 5703 c7b9 6d8d 2abc b783 823c
00000310: 68da 2f3d c3e1 233d 9d81 a13c a68d 6ebd
00000320: 37c3 f8bc 22f0 e5bc 2079 4fbd a262 02bd
00000330: c15f 89bd 9fb3 2abc 26ca 37bd e0b1 d8bd
00000340: d5b2 8dbd 0c78 03bd 5297 91bd 1c3e fabc
00000350: e97a 533c 60ea d0bc 3db8 84bc 4d3a a4bb
00000360: 12fc 203e 0d14 fd3d bc71 f03d 423a 0c3e
00000370: c3ea f83d c441 bc3d 4ffd fe3d c69f 063e
00000380: d0fb 183e 6113 12bb a2c0 32bc cc7b c33b
00000390: 3b35 b9bc 9d56 adbc 9a27 8dbc c50c 12bd
000003a0: d19f 9ebc 3d82 2fbc 6e8a 123d b94e 2a3b
000003b0: 466b dd3c f61d fdbc 4214 fa3c bbe1 643d
000003c0: 6f18 0c3d 43d7 733c 3777 003d 8202 2f3c
000003d0: c9d6 19bd de39 90bc 8684 47bd 2ecb 39bd
000003e0: db07 8bbd 5ed9 92bd 367b a0bd 3352 87bd
000003f0: 308b f3ba b9cd 56bd fb4d 09bd d017 a8bc

body.block3.conv.bias f4 [64]
0.009632311 -0.02014218 0.04141284 -0.06474974 0.0031405555 0.04474512 0.033287197 0.02141777
0.0568413 0.054805286 -0.053262644 0.015423103 -0.016833408 0.020380111 -0.00034475172 -0.052455034
-0.02705717 -0.0037008845 -0.011057093 0.005106082 0.012728255 -0.053821333 -0.024754645 0.050039064
0.0037754439 -0.0105414875 0.03257124 -0.000105058905 0.02513664 -0.00689668 -0.011216792 0.05071362
-0.029836707 0.014278112 0.021778392 0.12844358 0.049611382 -0.024971724 -0.036563642 -0.04611701
0.11057996 0.052492257 0.006675618 -0.12771489 -0.043347698 -0.042606533 -0.008326603 -0.15597534
-0.045359895 0.0045381747 -0.04777228 -0.004171651 -0.036481325 0.11126287 0.028804947 -0.04596892
-0.10087741 0.061224855 0.03169997 0.038191155 0.024381466 0.05746431 -0.011601473 0.023448227
00000000: d7d0 1d3c 3701 a5bc 83a0 293d 839b 84bd
00000010: c7d1 4d3b a946 373d 2858 083d 5274 af3c
00000020: 6cd2 683d 827b 603d ee29 5abd 2fb1 7c3c
00000030: 37e6 89bc 31f4 a63c cbbf b4b9 17db 56bd
00000040: 00a7 ddbc 8a8a 72bb cf28 35bc ec50 a73b
00000050: 2c8a 503c c273 5cbd 41ca cabc c3f5 4c3d
00000060: 706d 773b 34b6 2cbc 6c69 053d 1253 dcb8
00000070: 5beb cd3c 8cfd e1bb a3c6 37bc 16b9 4f3d
00000080: 1c6c f4bc beee 693c 9968 b23c b786 033e
00000090: 4e35 4b3d 8091 ccbc c2c3 15bd 31e5 3cbd
000000a0: bf77 e23d 1f02 573d 24bf da3b b1c7 02be
000000b0: 5b8d 31bd 3084 2ebd 4e6c 08bc 00b8 1fbe
000000c0: 4ccb 39bd f8b4 943b deac 43bd 58b2 88bb
000000d0: 716d 15bd cadd e33d 5af8 eb3c e849 3cbd
000000e0: d198 cebd eac6 7a3d d4d7 013d 546e 1c3d
000000f0: a4bb c73c b25f 6b3d 1b14 3ebc 7f16 c03c
