TrainedModels/smk1/scale_factor=0.750000,alpha=10/0/netD.pth (torch, 127051 bytes, 25 tensors)

head.conv.weight f4 [32, 3, 3, 3]
000000 4b 2a 03 bd c8 46 a0 3c 15 bf ab 3d 65 7f 53 bc
       -0.032022756 0.019565001 0.083860554 -0.012908791
000010 7d 9a 6e 3c 92 be ec bc 14 ac a3 ba 7c a6 a5 bc
       0.0145632 -0.028899465 -0.0012487196 -0.020220987
000020 13 5e d6 bd 89 fc 29 3d 60 6c 79 b9 a0 ec c3 3c
       -0.10467162 0.041500602 -0.00023786863 0.023916543
000030 16 f3 ed b8 63 25 d7 3a 77 04 2a bc fe ae 00 bb
       -0.00011346319 0.001641434 -0.010377041 -0.0019635553
000040 61 3d 78 3c b1 9c cb bb a6 47 1e bd cb 3e 63 bc
       0.015151353 -0.0062137474 -0.038642548 -0.0138699515
000050 58 0e ea 3c 16 b5 5d 3b 33 cf e0 3c c5 09 85 bb
       0.028571293 0.003382986 0.02744255 -0.0040600025
000060 58 f3 f7 ba e2 0e 9c bc 9f 60 61 bd f5 a2 34 bb
       -0.0018917127 -0.019050065 -0.055023786 -0.002756295
000070 dd 36 93 bc af d6 c1 bc 3e 4f 44 3c eb b6 d8 3b
       -0.017970497 -0.02366194 0.011981783 0.0066136024
000080 23 d1 ab 3b c5 78 71 3c df f4 6c 3c 01 51 86 3c
       0.005243437 0.014738266 0.014462679 0.016396048
000090 2a 87 13 bc e2 e2 3d bc 23 c0 ce bc 8e 08 18 bc
       -0.009004394 -0.011589738 -0.025238102 -0.009279383
0000a0 ad e0 e8 bb 14 f8 b4 bc 38 90 94 3b c8 f7 00 3b
       -0.0071068616 -0.02209095 0.004533794 0.001967894
0000b0 0b 2c 03 bc 5a 96 2a ba e3 28 b9 bb 02 11 8c 3b
       -0.008006106 -0.00065073895 -0.005650626 0.0042744884
0000c0 59 9e 23 3c 0a c7 11 3c 28 55 2a 3c 36 71 17 3c
       0.0099864835 0.008897552 0.010396279 0.0092433
0000d0 8a 2d 33 3c 96 af 77 3c 29 64 3d bd f6 30 18 3c
       0.01093615 0.015117547 -0.0462381 0.009289017
0000e0 b3 73 ce bd 10 0c 47 bd 38 e1 19 bc e4 ef a4 bc
       -0.100806616 -0.048595488 -0.009392075 -0.02013392
0000f0 d3 2a 0e bd 78 8f e7 bc d0 b8 ce 3c 7c f7 02 3d
       -0.03470881 -0.028266653 0.02523461 0.0319743
000100 6d fc 9b 3d d6 79 80 3c e1 38 4d bd 4f 10 59 3b
       0.07616506 0.015683096 -0.050103072 0.0033121293
000110 22 6c 96 3c da eb 9d bd 7f cb 90 38 1a d8 8b 3d
       0.018362109 -0.07711001 6.904359e-05 0.068283275
000120 ee aa f7 bc c3 26 37 bd 32 ac a0 bd ff 78 80 bb
       -0.030232873 -0.0447147 -0.07845344 -0.003920674
000130 d3 10 a1 bc 01 54 74 bd 6d 2d a6 3c d6 ac 89 bc
       -0.019661343 -0.059650425 0.020285333 -0.016806047
000140 e0 9b e8 bb 8b dd af 3d e3 35 58 3d 2f a9 8c 3d
       -0.00709866 0.08587178 0.052785765 0.06868207
000150 64 d0 67 bd 5a 6e 02 bd d9 09 91 bc 3d b5 96 bc
       -0.05659522 -0.03184352 -0.017704891 -0.018396968
000160 cf 4b 9e bc 4d e2 af bb 67 ff 69 3c 4a 27 ce bc
       -0.019323258 -0.0053675533 0.014282084 -0.025165219
000170 ea f3 88 3c da 80 3c bc f6 9e a1 bc 7e 7f 0e 3d
       0.01671787 -0.01150533 -0.019729119 0.034789555
000180 da ae 0f 3d 51 42 85 bc 54 98 0f bc 25 71 13 3b
       0.03507886 -0.016266974 -0.008764345 0.002249786
000190 b3 38 15 3d 99 5a c9 3b b1 8e 07 bd 44 7a 32 ba
       0.036431026 0.0061448333 -0.033095066 -0.000680838
0001a0 62 73 1c bd a6 09 05 bd d4 f7 db bb 98 60 a4 bb
       -0.038195975 -0.032479905 -0.006712893 -0.0050163977
0001b0 a0 68 ef bc e1 9b 85 3d 22 e8 b0 bc a3 1e 5d bd
       -0.029224694 0.06523872 -0.021595065 -0.053984296
0001c0 1d 8b f7 3c 07 12 5a 3c 2f 77 11 bd 4e 9a 9f 3c
       0.030217702 0.013309962 -0.035514053 0.019482758
0001d0 95 c0 4b 3d e0 4c 78 3a 3c 4a 74 3d 68 6d 98 bb
       0.049744207 0.00094719045 0.059641108 -0.004651714
0001e0 7a ef 7a bd a8 b4 29 3d ee 32 49 3d 4c 89 7c bd
       -0.06126354 0.041432053 0.049120836 -0.061654374
0001f0 21 50 71 3b d3 41 1a 3d 5d 14 91 bc 14 23 19 3c
       0.0036821442 0.03766043 -0.017709905 0.009346742
000200 c7 17 c5 bb 92 0d c9 bc a9 29 4e 3c 32 56 04 bd
       -0.0060147974 -0.024542604 0.012583175 -0.032308765
000210 48 2f 94 3c 53 1a 9e bb 21 f2 f5 bb f3 7c b3 3d
       0.018088952 -0.0048249154 -0.0075056707 0.087640665
000220 d7 32 93 3c 6a a3 6e bd 92 6c 59 3c 62 5b 06 3d
       0.017968578 -0.058261313 0.013270514 0.032801993
000230 5b 00 15 3d 9d 37 fe bc d3 aa 5d 3c 25 c9 88 3d
       0.036377292 -0.031032378 0.013529497 0.0667899
000240 0f 8d f1 3c 46 ae bd 3a be a4 56 bc b0 02 34 3d
       0.029486207 0.0014471493 -0.013100801 0.043947875
000250 35 bf 22 3d 2a 4a 93 3d 1d a9 3a bd 0a 0b 0b 3c
       0.03973313 0.0719188 -0.045571435 0.008486519
000260 f5 8e 90 3d a5 31 1b 3d 76 71 8b 3c 46 7b d1 bc
       0.07058517 0.03788914 0.017021876 -0.025571477
000270 6a ac 78 bc f7 4e 10 bd 8a 9c 88 bc ab c8 e0 3c
       -0.0151778255 -0.035231557 -0.016676206 0.027439436
000280 90 62 62 3c 3d 63 95 bb 0a ff 06 bd c0 36 7b bb
       0.013817444 -0.0045589493 -0.032958068 -0.0038332194
000290 e8 33 c1 bc 0c f2 a6 3d 8b 38 28 3d f8 fd 6e 3d
       -0.023584321 0.081516355 0.04106955 0.058347672
0002a0 0e 66 08 3d 07 d9 7a bc 9a 7f be 3d d1 8d 86 bb
       0.033300452 -0.015310532 0.09301682 -0.0041062613
0002b0 02 14 71 3d c2 49 43 3d 3c 62 17 bd 5c 8c 3b 3d
       0.05885697 0.047677763 -0.036958918 0.045788154
0002c0 6f a2 b4 3c d6 cf a5 bc 2a b7 41 bc 85 1c 1a 3d
       0.02205011 -0.020240705 -0.011823455 0.037624855
0002d0 3d 22 ce bc 4a b6 25 bd fa 00 6b bd 7e 49 3f 3d
       -0.02516281 -0.040457048 -0.05737398 0.046700947
0002e0 bd e7 de bb 39 50 0b 3d 72 bf 94 3c 17 97 b1 bc
       -0.0068025277 0.034012053 0.018157694 -0.02167849
0002f0 09 c5 03 3c 0d ce bd bc c0 b0 60 3c ef ee 09 bd
       0.008042582 -0.023169542 0.0137140155 -0.03367513
000300 42 11 08 bd 0b e7 9c 3c 3d d4 24 3d b2 f3 a3 bd
       -0.033219583 0.019153139 0.04024147 -0.080054656
000310 57 c4 80 bd 91 0f 0a bc 0e 6f 26 bd 0c b4 a8 bc
       -0.06287449 -0.008426563 -0.040633254 -0.020593666
000320 51 80 a2 3c 95 eb 66 3c b5 9b 1b bc 19 78 c7 3d
       0.019836577 0.014094253 -0.009497573 0.09739704
000330 4f 8a 44 3d b1 c7 64 bd c6 f8 81 3d d3 a2 75 3c
       0.047983464 -0.055854503 0.06346278 0.014992434
000340 81 a8 4d bb 64 6c c3 bb 8d 05 f4 bc 7d 45 cf 3c
       -0.0031380954 -0.005963849 -0.029787803 0.02530169
000350 c4 15 49 bd 61 c9 8a bd 27 f5 66 3c aa aa 8d bd
       -0.049093023 -0.06776691 0.014096535 -0.06917317
000360 5e e4 b9 3c 2e b0 38 3d 4f 7f 01 be 5b 8b 16 3b
       0.022691902 0.045089893 -0.1264622 0.0022971246
000370 7c 6c fb bc 5b 00 ba bc dd 0b 71 bc 6c 57 86 bc
       -0.030691378 -0.022705248 -0.014712301 -0.016399108
000380 7b 5e d6 3d 83 f3 bb 3c e9 09 ce 3c 85 73 d8 bc
       0.104672395 0.022943264 0.02515121 -0.026422272
000390 ad f8 c6 bb 88 db 2d bd a1 40 01 bd ec c9 15 3d
       -0.006072125 -0.04244569 -0.031555776 0.03656952
0003a0 71 90 b5 3b c2 69 ec bc ca 0d 49 3b df c2 b0 3c
       0.0055409004 -0.028859023 0.0030678385 0.021577297
0003b0 0e 32 2c bd 0e c1 06 bc 03 48 e3 b9 b7 19 81 3c
       -0.042039923 -0.008224739 -0.00043350467 0.015759332
0003c0 4a 14 c1 bc bc 2a ae bc 44 22 51 3d ef 80 54 3d
       -0.023569245 -0.021260612 0.05105807 0.051880773
0003d0 64 e4 2b 3d 71 0f 1e 3b 00 99 b9 bb e3 1b 5b bd
       0.041965857 0.002411809 -0.005663991 -0.05349339
0003e0 3c b1 15 bc a7 c9 5f 3d 39 12 0c 3d 17 f3 7b 3d
       -0.009136494 0.05463567 0.034197066 0.061511125
0003f0 d8 2c 57 3b 8c 33 2d 3d 6f 61 7d 3d d8 a3 6a bc
       0.0032833125 0.042285487 0.061860498 -0.01432129

head.conv.bias f4 [32]
000000 4e bf 5b bd 5d 59 4b bd 41 25 31 3f 05 f3 e7 3d
       -0.05364924 -0.04964577 0.6919747 0.11325649
000010 61 38 14 bd 3b 64 52 3d 09 cf 97 3d be 5b 74 be
       -0.03618658 0.05136512 0.07412536 -0.23863122
000020 07 63 90 bd 73 d7 e3 3c 30 5b b9 be 59 42 d3 3b
       -0.07050138 0.027812695 -0.36202383 0.0064471182
000030 de e3 10 be 7d 58 a7 bd ab 21 6d bd 2e 6c 2c bb
       -0.14149424 -0.08171175 -0.057893436 -0.0026309597
000040 6a a0 0b bf 72 4e 82 3e 30 a0 2f bd 69 3f 2d bf
       -0.5454165 0.25450474 -0.042877376 -0.6767488
000050 c6 dd 5e bc 00 fb fd be a4 4e 0d 3f 7d ef 6d bd
       -0.01360268 -0.4960556 0.5519812 -0.058089722
000060 99 c8 bd 3c a4 19 38 bd 69 6f ec 3c e6 9d 2b 3d
       0.023166941 -0.044946328 0.028861718 0.04189863
000070 3c 5d 3b bf 4f cf f6 3d 6b 43 e9 bd 16 96 2a bd
       -0.7318914 0.1205126 -0.11389812 -0.04164704

head.norm.weight f4 [32]
000000 ac df 68 3f 67 8f 78 3f 92 1b 64 3f 66 42 72 3f
       0.90966296 0.97093815 0.8910457 0.94632566
000010 57 6a 34 3f 70 ba 6b 3f 6b 9b 65 3f e0 21 6c 3f
       0.7047476 0.92081356 0.89690274 0.9223919
000020 52 9e 67 3f 90 67 58 3f b6 5a 23 3f a8 9c 62 3f
       0.9047595 0.84533024 0.6381029 0.8852029
000030 79 88 58 3f ee 54 5c 3f bd 4b 84 3f af fa 66 3f
       0.8458324 0.8606709 1.0335613 0.9022626
000040 4a ab 71 3f a1 0a 7b 3f 82 c5 58 3f 28 d2 77 3f
       0.9440199 0.98063093 0.84676373 0.9680505
000050 48 a9 86 3f 23 0e 62 3f a1 19 58 3f ea d3 72 3f
       1.052041 0.8830282 0.84414107 0.94854605
000060 00 43 71 3f e5 af 21 3f ea d9 7d 3f e6 f9 65 3f
       0.9424286 0.6315902 0.99160635 0.8983444
000070 42 2f 76 3f 6f f6 65 3f 4e 81 83 3f 96 50 72 3f
       0.9616586 0.8982915 1.0273836 0.94654214

head.norm.bias f4 [32]
000000 17 a8 d9 3e a0 84 00 3f 49 81 99 3e c4 bf 9b bd
       0.42511055 0.5020237 0.2998145 -0.07604936
000010 6b 75 53 3f fe 17 e0 3e c2 3f de 3e ff 61 0f 3f
       0.8260104 0.43768305 0.43408018 0.56008905
000020 cb 90 17 3f 65 ee 31 3f 41 26 3c 3f dc 84 5b 3f
       0.5920531 0.69504386 0.7349587 0.857496
000030 68 d5 41 3f a9 72 04 3f 45 1f 12 3f c5 11 12 3f
       0.7571626 0.5173746 0.57078964 0.57058364
000040 2a 98 0c bd 6f 62 f4 3e b9 b7 f4 3e 88 b2 c7 3e
       -0.034324802 0.4773135 0.4779642 0.39003396
000050 f0 da 07 3f a3 01 a1 bd 31 01 d8 3e 4f 87 26 3f
       0.5306845 -0.0786164 0.4218841 0.65050215
000060 da 88 30 3f 69 50 81 3f bb 23 f7 3e 32 bf 22 3f
       0.6895882 1.0102664 0.48269448 0.6357299
000070 6f f5 a2 3c 0b fa 2c 3e 90 fd 11 3e bf bc 17 3f
       0.019892422 0.16892259 0.14256883 0.5927238

head.norm.running_mean f4 [32]
000000 69 22 38 bc 20 d7 97 bd 8a 0d 57 3f 51 3c 08 3e
       -0.011238673 -0.07414079 0.84005034 0.13304259
000010 90 16 e2 bc bf 1a 6d bb 8f 2a 0d 3d fa 19 11 be
       -0.02759865 -0.0036179272 0.034464415 -0.14170066
000020 6d a7 67 bd 2a 17 a2 bc f2 9a a4 be df b5 16 bd
       -0.056556154 -0.019786436 -0.32149464 -0.03679454
000030 3a 79 cd bd d6 f9 75 bd 66 32 3d bb 3c 0b 99 39
       -0.10032888 -0.060052715 -0.002886915 0.00029190804
000040 be 0c 08 bf a0 42 95 3e eb 9d 2d 3c 9c dd 1d bf
       -0.53144443 0.29152393 0.010596733 -0.61666274
000050 5a 1b 18 bc a0 ca d5 be 9b af 15 3f 64 6f ec bd
       -0.009283865 -0.41756153 0.5847108 -0.115446836
000060 33 a1 94 bb 6d 56 05 3c f7 60 6a bc b7 16 03 bd
       -0.004535818 0.008138281 -0.014305345 -0.032004084
000070 69 78 21 bf 84 06 47 3e 60 b9 9d bd b4 a2 ab bd
       -0.63074356 0.1943608 -0.07701373 -0.083806425

head.norm.running_var f4 [32]
000000 41 48 eb 3a 79 7d 16 3a 13 2d bf 3b 78 c5 2e 3b
       0.001795061 0.0005740743 0.0058342307 0.0026667994
000010 15 14 be 3a e2 36 b1 3a 81 17 53 3b 0f 81 84 3b
       0.0014501835 0.0013520385 0.0032210054 0.0040437053
000020 5f 67 b4 3a e4 f1 0b 3b 68 e3 02 3b b1 30 40 3b
       0.0013763717 0.0021353895 0.001997197 0.0029325897
000030 cd f3 24 3b 78 2f c0 3a 8b 60 eb 3a 59 72 76 3a
       0.002516973 0.0014662584 0.0017957849 0.00094011944
000040 5d 72 9f 3b 06 7a 47 3b 27 8f 6b 3a b9 d2 c7 3b
       0.004865928 0.0030437722 0.000898587 0.006098118
000050 45 55 a6 36 52 ea b2 3b ec 1e 32 3b b7 ea 51 3a
       4.957112e-06 0.005460062 0.0027179075 0.00080076925
000060 3f 8a 96 39 70 ba ff 3a 19 3e 95 3a bb 15 47 3b
       0.0002871323 0.0019510519 0.0011386304 0.0030377943
000070 59 f8 ba 3b ca ed 1f 3b 85 41 2b 3a 80 f6 48 3b
       0.005705875 0.0024403208 0.00065328955 0.0030664504

body.block1.conv.weight f4 [32, 32, 3, 3]
000000 ee b6 3c 3d 96 fe c1 3c ee f4 59 3d bc b7 30 bc
       0.046072893 0.023680966 0.0532121 -0.010785993
000010 1d 39 f5 ba 35 65 81 bd 79 d7 f7 3c a1 5f 1d 3d
       -0.0018709038 -0.06318132 0.030254113 0.038421277
000020 b2 fa b7 bd a9 6f 01 bd c8 f1 0e bc b2 4e b8 3c
       -0.08983363 -0.031600628 -0.008724637 0.022498462
000030 df f7 42 bc 4f 61 e7 3c 2c 7d cd 3c 32 42 32 bd
       -0.011899917 0.028244643 0.0250841 -0.04352016
000040 b6 09 1c bd bf 28 0c 3b ca 2a 4c 3c 45 19 97 bc
       -0.0380952 0.0021386591 0.012461374 -0.018444667
000050 70 43 0e bb 8f c7 37 3d 65 ee c8 3c 7f f8 e5 3c
       -0.0021707676 0.04486805 0.024527738 0.028072594
000060 de 97 13 3d 62 54 63 bc f9 3e ad bd bd 1a 43 bc
       0.036033504 -0.013875099 -0.08459277 -0.01190823
000070 56 7a 96 3d 1d f8 ee 3d 82 78 14 bd d4 df 74 3c
       0.073475525 0.116684176 -0.036247738 0.014945943
000080 d6 14 4a bd f7 62 62 bd 6f 5a 92 bc 73 43 66 bc
       -0.049336277 -0.05527016 -0.017865388 -0.014054167
000090 f5 67 2e 3d d1 00 20 bd 03 2a 5b 3c 95 e1 e0 bb
       0.04257961 -0.03906328 0.013376716 -0.006862829
0000a0 70 bc 24 bd b2 72 b2 3c 41 a1 e6 3c 72 c1 b9 3c
       -0.04021877 0.021783207 0.028153064 0.02267525
0000b0 8d 99 43 bd aa 2d 90 bd bd 58 91 bd fa a3 72 3c
       -0.04775386 -0.0703996 -0.070970036 0.014809603
0000c0 e5 87 c3 bc 99 60 4f 3c 5d 2a 8f 3d c5 54 ba 3d
       -0.02386851 0.012657308 0.06990502 0.090982
0000d0 92 3f ff bc 42 73 16 3d 71 b4 12 3d 10 68 2e 3d
       -0.031158242 0.036731012 0.035816614 0.04257971
0000e0 cd 2c de bb cf b4 d9 bc b7 8d a3 bd 18 16 58 bd
       -0.006780243 -0.026575474 -0.07986014 -0.052755445
0000f0 d3 d4 a0 bd 1f 70 73 bd 1d 19 d4 3c 72 6c a6 bb
       -0.07853093 -0.0594331 0.025890881 -0.0050788457
000100 dc c8 49 bc 46 50 32 bd 23 29 7a bc e8 b2 10 bd
       -0.012315955 -0.043533586 -0.015268597 -0.03532687
000110 5f de 26 ba 61 cc 41 bd e2 a9 92 3c 55 3d e1 bc
       -0.00063655333 -0.04731405 0.017903272 -0.027495066
000120 9f 09 86 bc c0 6f 18 bc b9 b9 08 3b 8d cf 23 3c
       -0.01636201 -0.009303987 0.0020862652 0.009998214
000130 e4 ca d8 bc fc aa 96 3d 2d b6 84 bd 45 95 05 3c
       -0.026463933 0.073568314 -0.0648006 0.008153264
000140 35 9d b2 3d 2f ea 57 bd 7a 50 94 bc b2 a6 fa 3c
       0.08721391 -0.05271357 -0.01810478 0.030597065
000150 cb ed 02 3c 8c 70 86 bc 00 a2 48 3d 6e 46 02 bc
       0.007991265 -0.016411088 0.04898262 -0.007951362
000160 47 37 bf bc 7d 95 08 3c bb 09 4a bc d9 bb f1 3c
       -0.023341788 0.008336422 -0.0123314215 0.029508518
000170 36 16 80 3d bb 8f 95 bc 66 04 2f 3c 1a 4f d1 bb
       0.062542364 -0.018257013 0.010682201 -0.0063876035
000180 e4 e5 25 bd 5d c0 64 bb 97 af 4b bb 25 56 88 bc
       -0.040502444 -0.0034904697 -0.0031080001 -0.01664264
000190 fe 40 6e 3d d7 aa cd 3d 58 93 56 3c a6 db 06 bc
       0.05816745 0.10042351 0.013096653 -0.008231079
0001a0 6a 44 da bc 9e 21 97 3c bf ef 7f bb 2d f4 24 bd
       -0.02664395 0.018448647 -0.0039052812 -0.040271927
0001b0 4d 50 e5 bc c5 8f 94 bd 1f 34 11 3c b8 f3 01 bd
       -0.027992392 -0.07253984 0.008862524 -0.03172657
0001c0 07 59 a7 3c 9a e5 16 bb 3b 8d 5f bd c5 4f 35 bc
       0.020428194 -0.0023025037 -0.054578047 -0.011066382
0001d0 ae 5b 8d bd 5a 0d 72 bb 29 84 0d 3d d8 9c 20 3d
       -0.06902252 -0.0036934228 0.034549866 0.039212078
0001e0 8d 89 a2 bc a9 34 32 3d 60 9c 64 3d 24 0e 3f bd
       -0.01984098 0.043507252 0.055813193 -0.046644345
0001f0 71 1a f6 bc af e2 4b 3c b0 c5 78 bc d2 1c c7 3c
       -0.030041905 0.012444182 -0.015183851 0.024305735
000200 28 be 31 bd aa f6 d1 3d 52 46 a0 3b d3 3e 91 bc
       -0.043394238 0.102521256 0.0048911953 -0.017730152
000210 ff 30 44 3c 48 4b e8 3b f5 13 49 bd ed 7a 8d bc
       0.011974572 0.0070890523 -0.049091298 -0.01727053
000220 eb 8d 88 3b 4c 0e 3a 3c 2f 12 00 3d 66 81 9b 3d
       0.0041673086 0.011355948 0.03126734 0.0759304
000230 b2 08 13 3d be 7e 24 3d 37 5d 96 3d fa 79 2b bd
       0.035896964 0.040159933 0.07341998 -0.041864373
000240 38 75 78 3d 4d 55 c0 3d 0b 88 6a 3d 48 91 4b bb
       0.060658664 0.0939127 0.057258647 -0.0031061936
000250 62 a6 17 bd 46 b7 04 bd e8 b7 d5 bc d2 47 18 bd
       -0.03702391 -0.032401346 -0.02608867 -0.03717787
000260 57 35 bf bd 2e f9 27 bc c6 42 22 bd 9c 52 7f bc
       -0.09336346 -0.01025228 -0.03961446 -0.01558366
000270 17 11 43 3c c6 0f b2 3c 13 65 d6 bb 53 f1 45 3d
       0.01190593 0.021736037 -0.0065428107 0.048325848
000280 3e 20 92 3d 81 a9 d9 bb 02 7f ab 3d 62 83 2f 3b
       0.07135056 -0.006642521 0.08373834 0.002678119
000290 6f 4d f5 3c 93 d3 f7 bb 01 29 93 bd a1 f1 0e 3c
       0.02994415 -0.0075630634 -0.07185555 0.008724601
0002a0 15 fe eb bd a9 cb f7 bc 62 79 23 3d 87 8e 15 bc
       -0.11523072 -0.03024848 0.03991068 -0.009128219
0002b0 12 71 9f bc 75 b2 e2 3b 7f f5 8c bc f8 60 62 3d
       -0.019463096 0.0069182464 -0.017206905 0.055268258
0002c0 bc 8c d8 3c a2 75 3b 3d eb 7f d9 3c e1 31 9b bc
       0.026434295 0.04576648 0.026550254 -0.018944683
0002d0 c3 b8 04 bd 18 b2 ab bc ad 12 18 bc 2b 75 f4 bd
       -0.032402765 -0.020958945 -0.009281796 -0.119364105
0002e0 65 fc a7 bd 1d 32 bc bd 5b ea fb bd ae ff ae bd
       -0.08202437 -0.09189246 -0.12300559 -0.08544861
0002f0 96 44 82 bd 18 57 d6 3c 9d 3a ac 3b a3 a5 3c 3d
       -0.06360738 0.026164576 0.0052560107 0.0460564
000300 93 fd b7 bc 7f 1f 0d 3c 36 04 75 3c a9 ea 70 3c
       -0.02245978 0.008613466 0.014954617 0.014704385
000310 a8 d5 af 3b e6 3e af bc d3 f6 ee 3c fa 57 81 3d
       0.005366046 -0.021392297 0.02917043 0.06315608
000320 b0 42 a9 3c f9 ea 82 bb de 71 cf ba 1d f3 eb bb
       0.020661682 -0.003995296 -0.0015826782 -0.007200612
000330 75 08 aa 3c 73 5c 31 3d 0a 64 ac 3c 5b 9d cc bc
       0.020755986 0.043301057 0.021043796 -0.024977377
000340 bb d1 9d bc a7 5f 6f b9 72 60 3b bc 7c 1a ec bb
       -0.019265046 -0.0002282845 -0.011436569 -0.0072053056
000350 a7 8e 4a 3d 32 38 dd bc 4b 93 38 bd ca 1a 8a 3b
       0.04945245 -0.027004335 -0.045062345 0.0042146193
000360 55 de 1a 3c e8 4d 1b bc f3 91 16 bc 78 32 5a 3c
       0.009452422 -0.0094790235 -0.00919007 0.013317697
000370 08 62 0f bd 3d 5b 9f bb 20 f4 34 3d 7d 1f fb 3c
       -0.0350056 -0.0048631714 0.04417813 0.030654663
000380 78 1b cc 3c 7b d8 4c bc 46 ca 4e 3d 8c e2 21 3d
       0.024915442 -0.012502785 0.05048587 0.039522693
000390 ff d4 0f bc 0e a8 50 3d 1c 45 2e 3d 1b ac 03 3c
       -0.00877881 0.05094152 0.042546377 0.008036639
0003a0 55 63 04 bc ae a4 3c bd 73 76 28 3d ad 64 d6 bd
       -0.008080323 -0.04605549 0.041128587 -0.10468421
0003b0 c5 98 87 bd 0a b5 49 bd f4 57 7d bc 0f 45 0a bd
       -0.06620935 -0.049244918 -0.015462864 -0.033757266
0003c0 6e a6 05 bd c9 ae be 3c 7c 10 38 3c 3a fb 74 bc
       -0.032629423 0.023276703 0.011234399 -0.014952475
0003d0 f8 f0 0c bc f1 fa a6 bb dc ff ac 3a 46 cc 24 bc
       -0.008602373 -0.0050958325 0.0013198811 -0.010058468
0003e0 59 68 64 3d 39 7b 84 bc 79 4e 4b 3c 7f 20 ec 3d
       0.055763576 -0.016172038 0.012408846 0.11529636
0003f0 78 07 64 3d 51 30 ec bc f2 c8 90 3c 5d f0 ef 3c
       0.055671185 -0.028831633 0.017673943 0.029289419

body.block1.conv.bias f4 [32]
000000 69 9f 8b bd 0f ef 72 bd ca 2e 40 bd 9f fc 2f bd
       -0.068175144 -0.059310015 -0.04691962 -0.042965528
000010 f3 2a ee bc be b7 fc bc 23 29 4a 3d 2a 29 0d bd
       -0.029073214 -0.030849334 0.049355637 -0.034463085
000020 67 3a fb 3c b8 59 a7 bc af d0 3c bd d7 c8 de bc
       0.030667497 -0.020428523 -0.046097454 -0.027195377
000030 01 f2 15 3d 57 84 14 3d 82 7e a6 3c 59 fe 32 3d
       0.036607746 0.03625902 0.020323996 0.043699596
000040 b3 dd ba bb 01 a0 6e bd 71 b1 bc 3c 46 c9 f4 3b
       -0.005702698 -0.05825806 0.02303383 0.0074702827
000050 43 0b f9 bc af 34 c4 3b fc af 54 bd ec 0f 26 bc
       -0.030400878 0.0059877257 -0.051925644 -0.010135632
000060 18 1c 32 bd 58 35 1b bd bf b4 66 3d 45 51 9b bd
       -0.043483824 -0.03789267 0.056324717 -0.0758386
000070 f6 8d a4 3a bc 25 ab 3c e5 b6 83 bd a4 e7 8f bb
       0.0012554515 0.020892017 -0.06431369 -0.0043916274

body.block1.norm.weight f4 [32]
000000 36 78 6f 3f 69 0a 5c 3f c2 d7 69 3f 9f 77 40 3f
       0.935428 0.85953385 0.91344845 0.7518253
000010 f1 9b 86 3f 96 72 66 3f fe 1a 7a 3f 28 d6 7d 3f
       1.051634 0.90018594 0.97697437 0.991549
000020 6f d9 75 3f c3 e0 78 3f 14 c0 6c 3f 82 f4 61 3f
       0.960349 0.9721796 0.9248059 0.88263714
000030 16 e5 5e 3f b5 02 66 3f 35 f7 7c 3f 28 f3 5f 3f
       0.8706831 0.8984788 0.9881471 0.874804
000040 5f c4 55 3f 4d 80 58 3f 9e 2a 72 3f 5e 8d 85 3f
       0.83502764 0.8457077 0.9459628 1.0433767
000050 97 da 78 3f ae de 70 3f 25 ec 58 3f 09 6c 6f 3f
       0.9720854 0.9408978 0.8473533 0.93524224
000060 e3 b9 65 3f 61 3b 5f 3f 6f 8b 6d 3f 58 3f 64 3f
       0.89736766 0.8719998 0.92790884 0.89159155
000070 e7 c9 4a 3f 7b b5 70 3f 09 af 68 3f 9d 31 5d 3f
       0.7921433 0.9402692 0.9089208 0.8640383

body.block1.norm.bias f4 [32]
000000 4e 29 1b 3f a7 81 0f 3f 1e 37 f2 3c 83 4b 72 3f
       0.606099 0.5605721 0.029567298 0.9464647
000010 83 d6 ef 3e 3f 32 45 3f e2 0c da 3e e4 8e d4 3e
       0.46843347 0.77029794 0.42587954 0.41515267
000020 a4 d4 0c 3f 4e 61 37 3f cd 89 e6 3e 93 d2 02 3f
       0.55011964 0.7163285 0.4502701 0.5110256
000030 ee b1 9d 3e 70 e1 9f 3c 1d 35 ed 3e 81 73 46 3f
       0.30799812 0.019516677 0.46329585 0.77519995
000040 51 3b 0d 3f cf 57 30 3f 0b a1 6f 3e 7e d3 df 3e
       0.55168635 0.68883985 0.23401277 0.43716043
000050 a4 0c c9 3e 16 ca 2c 3f 25 20 29 3f 4a 32 18 3f
       0.39267457 0.6749586 0.66064674 0.59451735
000060 0e 98 29 3f be a9 06 3f 47 f8 4b 3f b7 18 2f 3f
       0.6624764 0.52602756 0.79675716 0.68397087
000070 ab ad 24 3f 43 42 2e 3f e7 51 1f 3f ef 1c 24 3f
       0.64327496 0.6806986 0.6223435 0.6410665

body.block1.norm.running_mean f4 [32]
000000 15 3e 91 be 89 f6 e5 3d a7 f6 45 3f 14 b9 8c bf
       -0.28367677 0.112286635 0.77329487 -1.0993981
000010 89 8f 86 be 23 2d 96 bf 1c 79 8b 3f 1a 84 86 bd
       -0.26281384 -1.1732525 1.0896335 -0.06568165
000020 77 00 e4 be 79 4b 13 bf e3 c7 ec be 71 4c b5 3e
       -0.44531605 -0.5753704 -0.4624625 0.35409883
000030 8f db 30 3f ee 3b aa 3e c8 e9 f0 3e b5 5e 3a 3f
       0.6908502 0.33248848 0.4705336 0.7280076
000040 98 78 bf 3d 72 4c 19 3f 47 76 31 c0 b3 5e b1 3f
       0.09349173 0.5988227 -2.772844 1.3857025
000050 e6 79 3e bf 2a 4b ae 3e c9 84 a7 3d f7 db ad 3e
       -0.7440475 0.3404172 0.08179624 0.33956882
000060 b5 2c f0 bf 23 17 5e be 14 c8 9d bf 1c 0c 26 40
       -1.8763644 -0.21688513 -1.2326684 2.594489
000070 30 bd b6 bf bf 09 f4 bf b9 92 a0 3f 89 36 c5 be
       -1.4276485 -1.9065474 1.2544776 -0.3851817

body.block1.norm.running_var f4 [32]
000000 7f 61 cc 3e 2b 56 10 3f 47 10 31 3f 8e bd ee 3e
       0.39918134 0.5638148 0.6916546 0.46628994
000010 8e 86 0c 3f b5 c9 0d 3f 2e 41 a7 3e 53 3e a5 3e
       0.54892814 0.55385906 0.32666916 0.32274112
000020 42 b6 45 3f 4a 6f 8f 3e 4c f9 92 3e f6 bc cd 3e
       0.7723123 0.28014594 0.28705823 0.40183228
000030 8f 3b 38 3e 3d af 00 3f 67 8f 42 3f d1 41 02 3f
       0.1799147 0.5026739 0.76000065 0.5088168
000040 ab ee 8e 3e 71 fb a4 3e 83 cc 03 3f 15 a7 ac 3e
       0.27916464 0.32223085 0.51483935 0.33721223
000050 b5 02 4a 3f 49 78 eb 3e fc 72 5a 3f 71 f6 9d 3e
       0.7891038 0.45990208 0.853317 0.30852082
000060 d0 14 c1 3e dc d1 22 3f e6 bf be 3e 87 43 4b 3f
       0.3771119 0.6360147 0.37255782 0.79399914
000070 e3 5b d5 3e 27 f8 d2 3e cc 85 14 3f aa d6 0a 3f
       0.41671667 0.4120495 0.5801666 0.542338

body.block2.conv.weight f4 [32, 32, 3, 3]
000000 31 3b c0 bd 96 05 d2 bc 03 9e 4f bd 75 8a f2 bc
       -0.0938629 -0.02563743 -0.0506878 -0.029607037
000010 93 af 0f bd 58 93 ec bc 40 93 1c 3d 21 6f 0e 3c
       -0.03507955 -0.028878853 0.038226366 0.008693487
000020 19 e9 4b 3c b4 d2 c3 3c 8e da 11 3d 56 ce e3 3c
       0.0124457115 0.023904182 0.03560882 0.02780835
000030 81 0a 16 bd 7a 2f 7b b8 dc 1d 18 bd 41 b2 00 bd
       -0.03663111 -5.988728e-05 -0.03713785 -0.031419996
000040 23 f4 53 3b ce ef 33 3d cc 6b 6d 3d aa a2 71 3b
       0.0032341562 0.043929867 0.05796413 0.0036870637
000050 77 51 6a bd 9b db d4 3b fd 8e 55 3c f4 7f 8c bd
       -0.057206597 0.0064959056 0.013034579 -0.068603426
000060 98 3a fc 3c 76 17 61 3c 7c 0f cd bc 23 2d 39 bb
       0.030789658 0.013738504 -0.025031798 -0.0028255663
000070 e0 7d 6e bd 79 59 18 bd 5c 74 36 bb c2 90 8e bc
       -0.058225513 -0.037194703 -0.0027840352 -0.01740301
000080 3c 6d a3 3d a2 0c c2 bc 78 8a ca bc 11 fc 43 3d
       0.07979819 -0.023687664 -0.02472423 0.04784781
000090 29 cf a1 3c 6a e6 9d 3c 49 86 23 bc d1 74 1b b9
       0.019752102 0.019274909 -0.009980747 -0.0001482547
0000a0 ba 90 e5 3b bd 1d 35 bd 11 08 21 bd 78 ac 57 3b
       0.007005778 -0.044217814 -0.039314333 0.0032909196
0000b0 09 98 74 3c 19 43 21 3b 9b e0 81 bd 07 65 53 39
       0.014928826 0.0024606644 -0.06341668 0.00020160164
0000c0 58 5a 3c 3b 23 8f 51 bd 23 dd 63 3d 76 61 30 3c
       0.0028740373 -0.051161896 0.055630814 0.010765424
0000d0 9c 2b 20 bd 54 ce 05 bd 69 6d 23 bc a8 33 37 bd
       -0.03910409 -0.032667473 -0.009974816 -0.044726998
0000e0 17 2e b7 bd 8e fe 49 bd 06 67 54 bd 48 40 65 bd
       -0.08944338 -0.049315028 -0.051856063 -0.055969507
0000f0 61 47 8a bd d3 20 21 3c 2f 6d 47 3b 7c b5 a5 ba
       -0.06751896 0.009834486 0.0030430069 -0.0012642588
000100 c5 ae 86 3c 37 61 26 3d 11 8f 7c bc c7 12 20 bc
       0.016440758 0.040620055 -0.015414969 -0.009770102
000110 59 23 2c bc a8 9d 43 3d 59 69 4c bc 55 78 9b bc
       -0.010506474 0.047757775 -0.012476289 -0.018978277
000120 ef 0c 96 3d 5e d0 d8 3c ab c6 d8 3c 1a 17 7e 3d
       0.07326686 0.026466545 0.02646192 0.06203375
000130 67 66 16 3d 51 3a a3 3c e2 99 29 3d 02 e9 7c 3d
       0.036718752 0.019925268 0.04140652 0.06174565
000140 8d 8f 1e 3d 16 04 95 39 89 83 0d 3d ba 64 f9 bc
       0.03871112 0.0002842254 0.03454927 -0.030443538
000150 af b9 d7 bc b9 5f de bb 36 fd 33 bd 90 4f 8d 3b
       -0.026333658 -0.0067863134 -0.043942653 0.004312463
000160 aa 9f 85 bd ea 56 86 3c 73 a2 18 bc 35 3e 1f bd
       -0.06524594 0.016398866 -0.009316075 -0.038877685
000170 7d ca 7f 3d 5e 5a 2f 3b 8b 09 09 bd af d9 6a 3d
       0.062448967 0.0026756744 -0.033456367 0.057336506
000180 fc c6 45 bd 93 66 55 bd 8f a0 97 3d 6b aa 1e 3c
       -0.04828547 -0.052099776 0.07403671 0.0096841855
000190 10 8b a2 bc 3a a9 ab bc 4f 29 72 3d ba 1e ca 3c
       -0.0198417 -0.020954717 0.059121426 0.024672855
0001a0 e9 14 85 ba 73 f2 fc 3a 55 c5 62 bd 3b 0f ce bc
       -0.0010153326 0.001929833 -0.05536397 -0.025153747
0001b0 19 90 56 bc 9e 7f 46 3c 71 58 21 bb af 6c bf bd
       -0.013095879 0.012115387 -0.0024619366 -0.093469016
0001c0 18 f9 2a bd 10 ad d2 bc 61 6c 14 bd 15 5f 4f 3c
       -0.04174146 -0.025717288 -0.03623617 0.012656947
0001d0 83 31 40 bc be 0b be 3b 0e c9 9a 3d c5 01 4f bb
       -0.0117305545 0.0057997396 0.075578794 -0.0031586748
0001e0 03 33 8e bc 7b 77 73 3b 0e 68 45 3c a2 92 40 ba
       -0.017358309 0.0037150073 0.012048734 -0.0007346069
0001f0 4c 28 3d 3c 2e 56 6a bc 13 64 cb bc 0e f8 64 bd
       0.011545252 -0.014302773 -0.024827993 -0.055900626
000200 d3 db 0c bd 94 74 15 3c 98 04 38 bd f1 06 9a bc
       -0.03438933 0.009122033 -0.044926256 -0.018802138
000210 a3 88 1d 3d b7 e4 72 bc 3f 95 dd bd 40 95 29 3d
       0.038460385 -0.014825038 -0.10819482 0.0414021
000220 c8 75 00 bd b0 3e 03 bd b4 cb 55 3d 1a 53 87 bc
       -0.031362325 -0.032042205 0.05219622 -0.016519118
000230 0b 7a 96 3b 49 23 c3 3c b6 4d 4d bc e4 90 17 3c
       0.0045921854 0.023820536 -0.012530735 0.009250853
000240 a9 a8 78 3c 79 a0 38 3d 83 ea e8 bc 5b 95 ef 3b
       0.01517693 0.045074914 -0.028432136 0.0073115057
000250 b7 80 0c bd 91 24 13 bd 4e 59 68 3c 61 c9 27 3d
       -0.03430244 -0.035923544 0.014181448 0.040963534
000260 71 1c d5 3b c1 00 1e bd b2 0c a9 bc f9 59 a1 bd
       0.0065036346 -0.038574938 -0.020635936 -0.07878489
000270 15 6b 44 3c 80 85 4c 3d a6 fd bd bc e1 24 21 bd
       0.011988421 0.049932003 -0.023192238 -0.03934181
000280 51 d3 eb bb cb 4f 00 bd d8 6b 4b bd 61 0b 72 bc
       -0.0071968217 -0.031326097 -0.049663395 -0.014773221
000290 0f 4f f6 3c d3 2e 08 bc 06 cf 33 3d 3d 41 87 3d
       0.030066995 -0.008311945 0.043898605 0.0660424
0002a0 53 84 63 3c 1c 19 7b 3d b9 e6 cd 3d 50 29 3b bd
       0.013886529 0.061303243 0.100537725 -0.045693696
0002b0 93 f9 63 bc 30 c7 cc 3c 6f b2 cb 3c d7 20 60 3d
       -0.013914484 0.024997324 0.024865357 0.05471882
0002c0 c5 f1 96 3b 95 1d fa 3d a8 4e bc 3d c6 5d ba 3d
       0.004606458 0.122126736 0.0919469 0.09099917
0002d0 ac c7 00 3d 5a 9b e4 bb 7c 62 24 bd 9f 49 68 3c
       0.031440422 -0.006976527 -0.040132985 0.014177709
0002e0 58 4c b6 bd ba dd cd bc 7f c2 56 bc 2e a4 87 bd
       -0.0890128 -0.025130142 -0.013107895 -0.06623112
0002f0 e7 8c 02 3d cc ff 4d bc 7a 2e 38 bc 88 a1 b2 bc
       0.031872656 -0.012573194 -0.01124155 -0.02180554
000300 cf 57 91 3b 13 ef 15 3d 08 3e 8f bc 99 63 08 3d
       0.0044355164 0.036604952 -0.017485633 0.03329811
000310 0d 2b 34 3c 12 ad b6 bd 43 b4 40 3d a0 40 9c 3c
       0.010996592 -0.08919729 0.04704691 0.019073784
000320 53 52 bf bb 4b 72 10 3c 9a ad 65 3c b9 8b e7 3c
       -0.0058386712 0.008816312 0.014018441 0.028264867
000330 7d 88 e2 3c 93 4c 96 bc e1 c2 bb 3c cd 72 66 3d
       0.027652973 -0.01834706 0.022920074 0.056261826
000340 71 a8 c9 3c fb 6e 57 ba 7e 60 16 3d 51 9f 59 3d
       0.024616452 -0.00082181365 0.036713116 0.05313045
000350 c3 6a cc 3c d5 5b 19 3c 59 d7 42 3c 4c 79 a7 bc
       0.024953252 0.009360273 0.011892163 -0.020443581
000360 d9 f8 79 3c 2a 0d b5 bc 72 24 6c bd 18 4d d0 bd
       0.015257084 -0.022101004 -0.057651944 -0.101709545
000370 7a 67 5c bd 05 38 82 bc 02 ae 5a bd 78 64 dc 3b
       -0.05380962 -0.015895853 -0.053388603 0.006725844
000380 47 55 36 3d fe 5a 12 3b 2d 39 ec 3c 01 28 09 3d
       0.04451492 0.0022332068 0.028835857 0.033485416
000390 62 8a 3f 3c 48 a2 a6 3b ce 61 9f 3c 75 85 f4 bc
       0.011690708 0.0050852634 0.019455817 -0.029848794
0003a0 f4 b0 36 bd 9b b8 0e bd 47 59 cd 3b 12 57 8f 3b
       -0.04460235 -0.034844022 0.006266746 0.0043743933
0003b0 85 b1 8e bc 63 ab c2 3b 49 a8 90 bd 1a 46 c3 bc
       -0.017418632 0.005940841 -0.07063348 -0.023837138
0003c0 a2 16 ec ba 40 26 7b bd 96 d6 8e 3d 86 95 78 3d
       -0.0018012116 -0.061315775 0.06974523 0.06068947
0003d0 22 92 f3 3b 86 26 5a 3d 6f 85 6e 3d f6 89 7a 3d
       0.007433192 0.053259395 0.05823272 0.061166726
0003e0 a1 b7 6a 3d cd 7d ae 3c 72 25 db 3c 5d 8f 97 3d
       0.05730403 0.02130022 0.026751254 0.07400391
0003f0 1a f9 78 bd 39 33 e4 3c 26 47 9b 3d 6f 78 99 bd
       -0.060784437 0.027856456 0.0758193 -0.07493674

body.block2.conv.bias f4 [32]
000000 2e 87 0e 3d 29 ed c2 3d f0 52 a0 3d e5 24 53 bc
       0.034796886 0.09517891 0.07828319 -0.012887214
000010 88 d5 78 3c 2f cf 37 3d ad a1 6c 3d 75 47 03 bc
       0.015187629 0.04487532 0.057771374 -0.008012642
000020 2d 69 b4 3c 79 07 6a 3c 5d 51 06 bd 18 b4 49 bb
       0.022022808 0.014284008 -0.032792438 -0.003077751
000030 44 7f 6f 3d 63 94 eb 3c c4 42 08 3d 11 e8 3d 3d
       0.05847098 0.02875728 0.033266798 0.046363894
000040 19 ed c0 3d 24 06 f0 3c 64 e6 91 3d 33 f6 0b bb
       0.09420223 0.029299803 0.07124022 -0.0021356463
000050 c0 de fd 3d 93 16 42 3c 96 14 cf 3c 10 ee 2a 3c
       0.12396002 0.011846202 0.02527837 0.010432735
000060 95 61 df 3c ef b1 8b 3d c5 2c 41 3d fb 25 4d bc
       0.02726821 0.068210475 0.047161836 -0.012521262
000070 d2 ff 55 3d b4 63 89 3d 6a 91 91 bc e7 d2 07 3c
       0.052245922 0.0670847 -0.017769534 0.008290029

body.block2.norm.weight f4 [32]
000000 30 22 75 3f d8 84 64 3f 5e 20 6b 3f 04 f0 6d 3f
       0.9575529 0.89265203 0.91846263 0.9294436
000010 2d ae 5f 3f 1d da 5a 3f cd a9 79 3f 2d 64 5c 3f
       0.87375146 0.85489064 0.9752472 0.86090356
000020 66 68 64 3f 95 cb 61 3f 77 6a 80 3f b9 64 78 3f
       0.892218 0.88201267 1.003249 0.9702869
000030 5b 44 61 3f 92 8f 6c 3f ea de 6c 3f 2d ab 40 3f
       0.8799493 0.9240657 0.9252764 0.75261194
000040 39 02 7a 3f 22 78 7c 3f 8d 84 63 3f c3 e6 55 3f
       0.9765964 0.9862081 0.8887413 0.8355524
000050 d4 0c 5a 3f 5c 3c 7a 3f 3c 24 65 3f 48 7f 77 3f
       0.85175824 0.9774835 0.89508414 0.9667859
000060 1d 10 7a 3f 67 92 80 3f 5a 38 6d 3f a4 f7 75 3f
       0.97680837 1.0044678 0.9266411 0.96080995
000070 f4 2a 4c 3f a1 b8 60 3f 32 03 58 3f 6c da 67 3f
       0.7975304 0.8778172 0.84379876 0.9056766

body.block2.norm.bias f4 [32]
000000 79 b6 e7 3e 9f b0 2e 3f eb dd df 3e 15 93 63 3e
       0.45256403 0.6823825 0.43723997 0.22224076
000010 b3 46 ba 3e 34 73 29 3f a3 de 5f 3e cc 91 0b 3f
       0.36382064 0.6619141 0.21862273 0.54519343
000020 00 f8 1d 3f 52 a8 c7 3e 42 86 9f 3e 2d a7 c3 3e
       0.6170654 0.38995606 0.31157118 0.38213482
000030 07 9d 54 3f ed 09 0e 3f 16 54 c3 3e 7c 5a 7e 3f
       0.83052105 0.55483896 0.3815009 0.9935682
000040 46 66 de 3e 57 7d 0a 3f ac a5 0b 3f ea 20 48 3f
       0.43437403 0.54097503 0.5454967 0.7817522
000050 41 3b 1c 3f 7b de 00 3f af dc 21 3f af a4 0b 3f
       0.61027914 0.5033948 0.6322736 0.5454816
000060 55 98 79 3e ef 93 00 3f 0d 39 ca 3e fb a1 b0 3e
       0.24374516 0.5022573 0.3949665 0.3449858
000070 9c 40 57 3f e3 40 06 3f f1 f6 0b 3f 56 63 06 3f
       0.8408296 0.5244276 0.5467368 0.52495325

body.block2.norm.running_mean f4 [32]
000000 07 a2 18 be ba 8e a3 be f3 a3 36 be 3c d7 8d 3c
       -0.14905559 -0.3194483 -0.17835979 0.017314546
000010 a2 65 b2 3f aa c3 96 3f 21 31 10 3f ab 1f c2 3f
       1.3937266 1.1778462 0.56324965 1.5165914
000020 24 67 d1 bd fb ea 01 3f 77 ed 58 3f f5 62 d7 be
       -0.10224751 0.50749177 0.8473734 -0.42067686
000030 e9 27 69 3f 24 48 56 3d d2 dc cf bd c6 cf 9c 3e
       0.91076523 0.052314892 -0.1014954 0.3062727
000040 64 12 b9 3e e5 a9 85 3f f5 51 0e be ff 08 b7 bd
       0.36146843 1.0442473 -0.13898452 -0.08937263
000050 d0 98 6b 3f ff ca be 3e 26 01 55 3f 55 0f 88 bf
       0.9203005 0.3726425 0.8320488 -1.0629679
000060 5a 22 c3 3e 46 0d ff 3e 97 e7 84 3d 3a 0a 73 3f
       0.38112146 0.49814814 0.06489485 0.9493748
000070 1f d9 85 3f ca f3 19 be 18 b6 9e bd f8 76 52 bf
       1.0456885 -0.15034404 -0.077495754 -0.8221278

body.block2.norm.running_var f4 [32]
000000 23 04 15 3f b0 c9 e5 3e 31 6a 0b 3f 37 c8 94 3e
       0.5820944 0.44880438 0.5445891 0.29059002
000010 47 26 01 3f 04 d2 af 3e 0d 8d 11 3f 7f 83 16 3f
       0.5044903 0.34339917 0.5685585 0.587944
000020 f6 97 00 3f 8e 8b c0 3e 82 52 bf 3e 92 88 14 3f
       0.50231874 0.37606472 0.37367636 0.5802089
000030 5a 6e b5 3e 9e 81 e3 3e 64 1f e6 3e 4b e4 c5 3e
       0.35435754 0.44434828 0.44945824 0.38650736
000040 74 bb 21 3f a2 ec 13 3f 0d 56 8e 3e f9 63 06 3f
       0.63176656 0.5778295 0.27800027 0.52496296
000050 72 26 fb 3e 08 53 01 3f fa 32 23 3f c4 99 2e 3f
       0.4905277 0.5051732 0.6374966 0.6820338
000060 17 24 fc 3e 03 0c d2 3e 60 37 09 3f 77 3e af 3e
       0.49246284 0.4102479 0.5360012 0.34227344
000070 a5 cc 93 3e be 31 07 3f f6 a7 d4 3e f7 d3 c9 3e
       0.2886707 0.52810276 0.41534394 0.3941953

body.block3.conv.weight f4 [32, 32, 3, 3]
000000 39 1a 9d bd 11 31 1a bd b8 70 02 bd d9 3a fa bc
       -0.07671017 -0.03764445 -0.03184578 -0.030545639
000010 2b 91 14 3d f7 df 13 bd cb bc a4 bc 06 20 b5 3c
       0.036271255 -0.03610226 -0.020109555 0.022109997
000020 9b c8 8f bb eb 9a 4d 3d 28 0d ef 3c a1 38 07 bc
       -0.0043879277 0.05019657 0.029181078 -0.0082532475
000030 a6 59 2c bc fe df 0e bd cc df a7 bd 26 34 d8 3a
       -0.010519421 -0.034881584 -0.08196983 0.0016495034
000040 55 8a 78 3c b0 2d e9 3c b2 cb 91 bd 8d 89 cc bd
       0.0151697 0.028464168 -0.0711893 -0.09987173
000050 6a ea bc bd 1d a0 2b bd b8 af 8a bd 03 17 aa bd
       -0.092243984 -0.041900743 -0.06771797 -0.083051704
000060 2b 09 45 bd 54 8e 50 bc eb f7 9c bb 8f ef 90 3c
       -0.048104446 -0.012729246 -0.0047902963 0.017692355
000070 f0 b3 33 bd 9e a8 67 bb 61 83 3c 3d 25 b6 cf bb
       -0.043872774 -0.0035348306 0.04602373 -0.006338852
000080 3a 1d c3 bc 06 17 54 3d 1e e1 cf bc 2f aa ac bc
       -0.023817647 0.05177977 -0.025375899 -0.021077244
000090 1a 2b ad bc a3 35 6c bd 9f 92 d9 bc 17 46 62 3c
       -0.021138716 -0.05766834 -0.026559172 0.013810656
0000a0 31 7f cc 3c 3c 42 89 3d 68 a8 8b 3d ba 2f 17 3d
       0.024962993 0.06702086 0.0681923 0.03691075
0000b0 79 f2 01 3d 71 5b ba 3c 47 2f b2 bb 2b e2 d5 bc
       0.03172538 0.02274868 -0.005437765 -0.026108822
0000c0 97 e5 71 3d 83 4f 09 bc 9e 70 51 3d d1 40 4e 3d
       0.059056845 -0.0083807735 0.05113279 0.050354782
0000d0 98 09 f0 3c 3a a5 d1 bc 1b c9 96 bd 44 57 29 bd
       0.02930145 -0.025591481 -0.073625766 -0.04134299
0000e0 f2 ef 56 bd 58 07 bf bc 23 b7 b6 3c 35 ff 4b 3d
       -0.052474923 -0.023318931 0.022304123 0.04980393
0000f0 2a 3b 5c bd 3b 8f fb 38 31 ee b8 3a dc 2b 53 3c
       -0.05376736 0.000119952914 0.0014109073 0.012888875
000100 37 e9 1e bc c9 14 67 3c fd 92 fa 3b 11 1f 45 3c
       -0.009699157 0.014104077 0.007646917 0.012031333
000110 0a de 6f 3c 7d d4 b8 3a 5c 15 ed 3c 5b e0 df 3c
       0.014640341 0.0014101412 0.028940849 0.02732866
000120 28 fc 39 3d 6f e9 13 3c c5 93 23 3d 84 9d 7f bb
       0.04540649 0.009027823 0.039935846 -0.0039003799
000130 b4 41 e5 bc f9 2f 0c bd 35 2a 80 3d c6 a3 2a 3c
       -0.027985431 -0.034225438 0.0625805 0.010415023
000140 34 86 72 3d fa 27 a7 bc af 86 16 3c 7b 35 b7 bc
       0.059210017 -0.020404804 0.0091873845 -0.022364369
000150 fd 06 00 3c d3 61 67 bd 9c db 2e bd 5c 55 8d bc
       0.007814166 -0.056489777 -0.042689905 -0.017252617
000160 ce cc 52 3a 32 3c 95 bb 12 36 5f bd dc b6 94 bb
       0.00080413825 -0.004554295 -0.054494925 -0.0045384
000170 8d ac ab 3c d2 f7 ac 3c d6 84 1f 3c 40 28 3a 3c
       0.020956302 0.021114264 0.00973626 0.011362135
000180 61 bb 6b bc 33 be 5e 3c 13 d5 86 bd d4 90 47 3d
       -0.014387936 0.013595152 -0.065836094 0.048722103
000190 ed de 86 3d 5b 06 12 3d 08 e1 a4 3d af 65 65 3d
       0.065854885 0.035650592 0.08050734 0.056005176
0001a0 30 b9 91 3d a6 76 e1 bc 1c 88 a6 bc e6 c3 2f bc
       0.071154 -0.027522396 -0.020328574 -0.010727858
0001b0 7c c4 99 3d 51 96 65 bc 54 7e 4c 3d ca 7d d4 bc
       0.075081795 -0.014012889 0.049925163 -0.025938887
0001c0 bf e6 86 3c 7c fb db 3c f6 24 50 3c b8 2e 1d bd
       0.01646745 0.026853316 0.012704125 -0.038374633
0001d0 9b f3 0d 3a 08 d1 cd bc ba 98 0a 3d d1 a9 bf bb
       0.0005415023 -0.025124088 0.033837058 -0.005849101
0001e0 ba 97 cc bc ed 0a e2 3c 5d 27 d4 3b fd 9b 25 bd
       -0.024974693 0.0275931 0.006474419 -0.040431965
0001f0 48 2e 75 3c 75 39 f0 3c 80 26 1c bd 7e 4a 02 bd
       0.014964648 0.029324273 -0.038122654 -0.031809323
000200 19 b0 1f 3a 61 34 60 bc f5 e5 a0 bd 68 90 5f bd
       0.0006091609 -0.013684363 -0.07856361 -0.054581076
000210 e5 df 34 bc fb d4 a7 b8 25 5f d8 3a 30 b7 b1 3d
       -0.011039709 -8.002851e-05 0.0016507847 0.08677518
000220 2a b9 50 3c 1c ba 84 bd 14 46 69 3d 75 33 05 3c
       0.012739459 -0.0648081 0.056951597 0.008129944
000230 b4 8c 53 bd 2a d5 2d 3d 93 da ae 3b 2c 7c e1 bc
       -0.051647857 0.042439617 0.0053361147 -0.02752503
000240 b3 fe 0a 3c 54 52 bc b7 ba bb 4e bd 65 43 d7 3c
       0.008483577 -2.2449683e-05 -0.050472 0.026277253
000250 83 58 26 bd c4 50 28 bd 73 82 11 3e 77 2a 4e 3d
       -0.040611755 -0.04109265 0.14209919 0.050333466
000260 bd cd 1f 3d 5c 84 9c 3c e9 c6 4f ba 89 6c 8b 3d
       0.039014567 0.019106083 -0.0007926063 0.06807811
000270 9d 74 1e bd dc 0f fe b9 ec 74 3e 3d 2e e6 26 3d
       -0.03868543 -0.0004845847 0.046498224 0.04074686
000280 ea 8b 68 3d a8 a9 54 3d d9 9f 74 bd 36 99 83 bd
       0.056774057 0.05191961 -0.059722755 -0.06425707
000290 39 91 51 bd 70 75 8e bc 1c 8a 01 3c 71 c5 7a 3d
       -0.051163886 -0.017389983 0.007906463 0.06122345
0002a0 cd 07 ad bc 39 67 33 3d 63 78 a2 3c c2 7f 05 bc
       -0.021121884 0.043799613 0.019832795 -0.008148136
0002b0 34 16 ab 3d 34 dd cc 3c c9 c5 8a bc e1 cf 58 3c
       0.08353844 0.025007822 -0.016940014 0.013233156
0002c0 e8 70 38 bd d5 a6 4d bd f1 cd 1a 3d 49 d6 91 bc
       -0.04502955 -0.05020793 0.037794057 -0.017802374
0002d0 b9 da a8 bd 43 9d a9 bd 7e cd 10 bd 02 52 b6 bc
       -0.08244843 -0.082819484 -0.035352223 -0.022255901
0002e0 24 23 0b bc 96 56 95 3d d7 5a 99 bd 92 32 56 3d
       -0.008492265 0.072919056 -0.074880295 0.05229432
0002f0 ba 63 20 3e 68 6a 14 3d 52 04 be 3c 9e 72 20 3b
       0.15663043 0.03623429 0.02319542 0.002448238
000300 9d 41 a7 3b 66 82 53 bd f6 54 44 bd 97 2c 1e 3d
       0.0051042573 -0.05163803 -0.047932588 0.038616743
000310 15 b1 97 bd 27 79 a4 bd a7 61 4d bc e8 15 b8 3c
       -0.074068226 -0.080309205 -0.012535489 0.022471383
000320 09 a3 ff 3c 81 45 93 bd a0 8f f7 bb b6 bf fa bb
       0.03120567 -0.07190991 -0.007554963 -0.0076522483
000330 dc c8 87 bd cb fa 0d bd 32 55 b2 bd 8b e8 54 3d
       -0.06630108 -0.034663003 -0.08707656 0.051979583
000340 61 0e 4c bd 19 af 9a bc 42 07 49 bd 00 9a a7 bc
       -0.0498184 -0.018882321 -0.049079187 -0.020459175
000350 be fa 9a bc cb f3 06 3d f0 29 c5 bc 1a 15 d6 bc
       -0.018918391 0.032947343 -0.024067849 -0.026133109
000360 e7 1f a2 3c 06 e0 19 3c d3 6c 15 3d a3 61 af bc
       0.019790603 0.00939179 0.036480736 -0.021408862
000370 7f 4f f0 bb b2 14 4f bc 71 42 0c 3d 84 74 79 bb
       -0.0073336954 -0.0126392115 0.03424305 -0.0038063833
000380 cf 29 ae bc f8 c6 4f 3d c4 78 47 3d 8d 59 95 3c
       -0.02126017 0.05072686 0.048699155 0.018231178
000390 76 54 65 bc b2 0c 06 3d 2b ad dd 3c 16 6c f7 bc
       -0.013997188 0.03272695 0.027060112 -0.030202907
0003a0 3e 02 ac 3d 42 0e be 3d 4e 49 a8 bc 65 6d 11 3d
       0.08398865 0.09280063 -0.020542767 0.035504717
0003b0 99 80 bb bc 9a 57 fe 3b 83 f2 81 3c f7 33 21 3d
       -0.022888469 0.0077619078 0.015862709 0.0393562
0003c0 bf 5d 42 3c 6d 4e 44 3d c7 67 0f bd 78 7d b3 3d
       0.011863171 0.047926355 -0.03501108 0.08764166
0003d0 f9 d8 c8 3d c3 3f 01 3e 4f a0 1c 3d 6c 3b 90 3d
       0.09807009 0.1262198 0.03823882 0.07042584
0003e0 e7 dc 8f 3d a7 e3 63 bc 3d 38 69 bc 63 be a4 ba
       0.07024556 -0.013909257 -0.0142346 -0.0012568947
0003f0 1b 0d 50 3d 28 bf 0f bd ca b6 a8 3c 27 bb 5a 3d
       0.05079375 -0.03509441 0.020594973 0.05340114

body.block3.conv.bias f4 [32]
000000 84 c9 95 bd ae e8 dc bd 93 48 16 bd 57 0a 02 bd
       -0.07313827 -0.10786568 -0.036690306 -0.031748142
000010 1c 5e c5 bd c6 8b 40 3d b6 2d 01 3d 4c 19 a8 bd
       -0.096370906 0.0470083 0.031537734 -0.0820795
000020 cc 7f b2 bd 20 88 00 bd 29 fb 11 bd e5 66 8b 3c
       -0.087157816 -0.03137982 -0.035639916 0.017016837
000030 c2 57 56 3b 58 15 32 3c 79 bf 9c bb e1 d8 b9 bd
       0.0032706116 0.010869347 -0.0047835675 -0.090745695
000040 25 1f 86 bd 32 cf c6 3b 13 9c 1f bc e4 18 be 37
       -0.06548909 0.00606718 -0.009741801 2.2661356e-05
000050 b4 6b 5e bc 71 34 21 bd 79 6c 7e 3c 24 49 93 3d
       -0.013575483 -0.039356653 0.015528792 0.07191685
000060 71 11 6a bd a6 a0 7a 3d 78 44 ca 3c 54 1c 75 bc
       -0.05714554 0.061188363 0.024690852 -0.014960367
000070 4e c1 90 bd d2 97 68 bd fb 99 ad bd aa d1 b3 3b
       -0.0706812 -0.056785412 -0.08476635 0.0054876404

body.block3.norm.weight f4 [32]
000000 5e 7f 8a 3f d0 d7 83 3f 26 07 85 3f 5f 2e 89 3f
       1.0820119 1.0300236 1.0392807 1.0717276
000010 3e 37 85 3f f2 9a 92 3f ef 36 67 3f c2 82 9c 3f
       1.0407484 1.1453536 0.90318197 1.2227404
000020 e8 9c 83 3f 89 e1 84 3f e5 c3 8d 3f 35 3e 8a 3f
       1.0282259 1.0381328 1.1075407 1.0800234
000030 4f ae 8f 3f 8c 3d 89 3f 18 98 88 3f f1 31 88 3f
       1.122507 1.0721908 1.0671415 1.0640241
000040 c6 25 81 3f 17 15 7a 3f 50 81 89 3f 4a 37 81 3f
       1.0089653 0.9768843 1.0742588 1.0094998
000050 8f f6 90 3f dd 75 8d 3f 5b c3 89 3f 02 ab 81 3f
       1.1325244 1.1051594 1.0762743 1.0130312
000060 44 2c 80 3f 5a e4 80 3f d4 fa 84 3f 0a 19 79 3f
       1.0013509 1.0069687 1.0389047 0.9730383
000070 b1 ca 85 3f ed c4 8a 3f 91 12 86 3f 1d 0a 8c 3f
       1.0452482 1.0841347 1.0474416 1.0940586

body.block3.norm.bias f4 [32]
000000 79 89 6e 3f f8 09 85 3f b3 55 8f be 17 d5 67 3f
       0.93178517 1.0393667 -0.2799507 0.90559524
000010 dc dc 27 3f 38 9f 4e 3f 20 0a 44 bf d2 1b 8c 3f
       0.6557138 0.807117 -0.7657795 1.094599
000020 11 f5 03 3f 09 b3 15 3f e1 07 7b 3f 76 0b 2b 3f
       0.51545817 0.5847631 0.980589 0.66814363
000030 94 a4 ac 3f 36 4d ba 3e 5c 53 b6 3e d9 07 fe 3e
       1.3487725 0.36387032 0.35610473 0.49615362
000040 05 73 40 3f d8 1b 06 3f 88 33 32 3f e0 02 7b 3f
       0.75175506 0.52386236 0.6960988 0.9805126
000050 cb 14 8f 3f ee 6a 05 3f 14 8a f9 3e 5b cb 0c bf
       1.117822 0.52116287 0.48738158 -0.54997796
000060 ba 62 22 3f 84 76 a3 be 95 80 27 be a2 41 0e 3f
       0.63431895 -0.31926358 -0.16357644 0.555689
000070 f9 8f 45 3f fd 70 65 3f ee 9a 35 3f 18 9e 86 3f
       0.7717281 0.8962553 0.7093953 1.0516996

body.block3.norm.running_mean f4 [32]
000000 65 cd dd 3e 15 da 18 be 7b 82 2e bf 6a 58 05 3f
       0.43320766 -0.14926942 -0.6816785 0.52088034
000010 57 4e cd 3e 3a 15 73 be 92 6c 40 bf 0c 57 02 3f
       0.4009883 -0.23738566 -0.75165665 0.50914073
000020 ed d3 ba 3d 2f 42 5c bf 7e e4 66 bf 54 2e 35 3f
       0.09122453 -0.8603849 -0.901924 0.70773816
000030 9e 79 ba 3e da bb de 3b 63 b3 7c bf f2 cd 5a 3f
       0.36420912 0.006797296 -0.9871122 0.854705
000040 bc cb 29 bf 45 78 f2 3e 43 4d 81 bf cd 18 d2 3e
       -0.663265 0.47357383 -1.0101703 0.41034546
000050 17 d9 dd 3f 72 66 f3 3c f4 75 4c 3e 18 69 99 bf
       1.7331876 0.029711936 0.1996687 -1.1985197
000060 1c a3 bc be 1e c9 ea 3c 98 66 0b be 30 e3 d4 3d
       -0.36843193 0.028660353 -0.13613355 0.10394895
000070 e6 98 94 3f 2a c3 8f be 8f 81 a4 be b8 4a 71 3f
       1.1609161 -0.28078586 -0.32130095 0.94254637

body.block3.norm.running_var f4 [32]
000000 b4 8b 58 3f d3 dd b9 3e fd e3 25 3f e1 fa 45 3f
       0.8458817 0.3630205 0.6480101 0.77335936
000010 be ef c7 3e 54 f8 83 3f 7c 28 a9 3e 27 53 93 3f
       0.39050096 1.0310159 0.330387 1.1509751
000020 c4 23 18 3f 5d 55 77 3f 16 1f aa 3f 0a d7 75 3f
       0.59429574 0.9661463 1.3290737 0.9603125
000030 91 a8 fa 3e 81 59 c0 3e f3 b2 fc 3e 47 2f 86 3e
       0.4895673 0.37568286 0.49355277 0.26207945
000040 e6 4e 40 3f c6 f8 18 3f 6f 65 a2 3f 7f 1f 03 3f
       0.7512039 0.597546 1.2687205 0.51219934
000050 ce 70 54 3f e9 66 24 3f d1 a1 e1 3e 68 cc 21 3f
       0.82984626 0.6421953 0.4406877 0.63202524
000060 b6 80 e0 3e 3e e3 58 3e 41 0a 7f 3f 3b 0f 9e 3e
       0.438482 0.21180436 0.9962502 0.30870995
000070 18 35 9b 3f d5 6f ae 3e bf 5e d3 3e 16 ac 1f 3f
       1.2125578 0.34069696 0.41283223 0.6237196
