TrainedModels/volcano/scale_factor=0.750000,alpha=10/7/netD.pth (torch, 468997 bytes, 27 tensors)

head.conv.weight f4 [64, 3, 3, 3]
0.032966107 -0.014820427 0.052229863 -0.030480813 -0.014186582 0.059685998 -0.022264013 0.0045139673
0.0028588448 0.19493681 0.028272305 0.16538608 0.18131845 0.17768785 0.1362912 0.13978179
-0.13238491 -0.15055642 0.091879554 0.05978495 0.087468944 -0.038842082 0.08924909 0.021434583
0.027800158 0.00735915 0.026175307 -0.001757887 -0.042669736 0.067328036 0.008166204 -0.023981407
0.012706777 -0.028285805 -0.024773665 -0.034970272 0.29904118 -0.013995328 0.33947963 0.027120885
-0.22321491 0.07646225 0.2618722 0.0027669873 0.15961969 0.09548436 0.046908487 -0.056629293
-0.011739652 -0.06730319 -0.078870595 -0.035204772 -0.06276009 -0.06592273 0.06658965 0.035344943
-0.0027076227 -0.019856744 0.03330893 0.03039896 -0.12280759 -0.018824093 0.04688384 0.061461166
0.01872101 0.021406654 -0.027795447 0.16141866 -0.06299599 -0.24981306 0.030600494 0.17053452
0.11144234 -0.064621806 -0.050504446 0.0065948544 0.10635448 -0.027993854 -0.10029613 0.009651929
0.015072507 -0.10432945 0.06449476 0.059110537 -0.029594354 0.021469958 0.042376164 -0.07301839
0.028745882 0.0076440447 0.1745739 0.06539084 0.08244537 0.03932141 0.011581647 0.1304598
0.23945764 0.058231078 -0.066450655 0.051173203 0.02286107 -0.014132368 0.01509922 -0.04206436
0.093251474 0.13274157 0.03927581 0.051770143 0.07279315 -0.034524597 0.2155192 0.022654383
0.017130623 0.13130759 0.05675527 0.039155953 0.010842821 -0.039470974 0.07004059 0.06242841
-0.073855706 0.023392893 0.01865932 -0.0789371 -0.09346053 -0.082065016 -0.04525791 0.017897168
-0.005851601 -0.01837696 0.006339305 -0.011508868 -0.008435709 -0.010685571 0.004125432 0.11623743
-0.02576256 -0.046662603 0.1412274 -0.12977101 0.007937171 0.32093403 -0.12824543 0.16541256
0.0019063806 -0.0032903254 2.566861e-05 0.0058838194 0.02294411 -0.0027033652 -0.05376077 0.0074488195
0.036011532 -0.016305206 0.0021149477 -0.05117288 0.014698577 0.029034423 -0.08285306 0.06173053
0.016088448 -0.07538521 -0.00503337 -0.029129645 0.014320931 0.049176432 0.009194541 -0.056844506
0.102308646 0.017243577 -0.016207872 -0.009662281 -0.03538305 0.32209066 -0.16366273 -0.15382239
0.09672272 0.023506062 -0.09623218 0.2093411 0.0001301271 0.021868043 -0.021567648 -0.0073695113
0.011266172 0.044143114 0.09167093 0.048073683 0.07653746 -0.09575302 0.012202889 0.0772052
-0.11507461 0.031673603 0.06697145 0.011703246 0.019661017 0.020684164 -0.053749617 -0.05679519
0.11672051 -0.040954944 -0.074866936 -0.06466409 0.16183308 0.15947472 0.027676923 -0.015514574
-0.00065216835 0.040425 -0.026008261 0.017000202 -0.09221563 -0.11254508 0.007045727 -0.052209076
0.0066419244 0.033485737 0.09219867 0.033483796 -0.02939926 0.011837408 -0.043886896 -0.03500653
-0.034976963 -0.10853055 -0.039994746 0.09915421 -0.08349934 -0.02236981 0.09070169 -0.18340863
0.04147266 0.08120985 -0.024748173 0.008200997 0.24332827 -0.06349734 -0.070697874 0.08760246
-0.14945516 -0.052612193 0.06891763 0.04402632 0.059633702 0.044993676 0.022712551 -0.016537754
0.018341575 -0.019486181 0.030794458 -0.028767614 0.020850442 0.11043405 0.3239151 0.046620086
00000000: 7807 073d 60d1 72bc fbee 553d e6b2 f9bc
00000010: d66e 68bc 4e79 743d 0563 b6bc e7e9 933b
00000020: 755b 3b3b 849d 473e 529b e73c f85a 293e
00000030: 8bab 393e cef3 353e ec8f 0b3e f522 0f3e
00000040: e98f 07be 762b 1abe 592b bc3d 10e1 743d
00000050: eb22 b33d e018 1fbd 3ac8 b63d 9497 af3c
00000060: 28bd e33c 0625 f13b 996d d63c e668 e6ba
00000070: 76c6 2ebd 48e3 893d 8bcb 053c a874 c4bc
00000080: 1630 503c a2b7 e7bc 24f2 cabc fd3c 0fbd
00000090: ed1b 993e a94c 65bc 46d0 ad3e 9e2c de3c
000000a0: 7392 64be 3d98 9c3d 1d14 863e 5856 353b
000000b0: 5873 233e 4e8d c33d 1d23 403d 1ef4 67bd
000000c0: ab57 40bc 41d6 89bd e886 a1bd e132 10bd
000000d0: 5d88 80bd 7f02 87bd 2860 883d dcc5 103d
000000e0: 5f72 31bb 9caa a2bc f26e 083d 3d07 f93c
000000f0: 8c82 fbbd fc34 9abc 4509 403d b4be 7b3d
00000100: ce5c 993c 025d af3c 47b3 e3bc ef4a 253e
00000110: 0b04 81bd ffce 7fbe e3ad fa3c 9aa0 2e3e
00000120: e23b e43d 7058 84bd c0dd 4ebd a619 d83b
00000130: 61d0 d93d 5e53 e5bc 0f68 cdbd 2023 1e3c
00000140: adf2 763c aeaa d5bd d415 843d e41d 723d
00000150: dc6f f2bc c4e1 af3c a192 2d3d aa8a 95bd
00000160: 7c7c eb3c e57a fa3b 80c3 323e a2eb 853d
00000170: 1ed9 a83d 7d0f 213d f3c0 3d3c 4197 053e
00000180: 6234 753e b683 6e3d 4817 88bd fe9a 513d
00000190: 2447 bb3c 738b 67bc b862 773c ae4b 2cbd
000001a0: a1fa be3d 68ed 073e acdf 203d ee0c 543d
000001b0: 9314 953d aa69 0dbd 11b1 5c3e af95 b93c
000001c0: 8555 8c3c 7f75 063e 3778 683d fe61 203d
000001d0: 16a6 313c 51ac 21bd 7171 8f3d efb4 7f3d
000001e0: a941 97bd 74a2 bf3c 6edb 983c c6a9 a1bd
000001f0: 3c68 bfbd b411 a8bd 5c60 39bd 159d 923c
00000200: c9be bfbb 478b 96bc f2b9 cf3b b18f 3cbc
00000210: ee35 0abc 8812 2fbc a22e 873b e40d ee3d
00000220: 010c d3bc 4921 3fbd ea9d 103e b1e2 04be
00000230: e80a 023c 7751 a43e c552 03be e961 293e
00000240: 85df f93a 80a2 57bb ec52 d737 0ecd c03b
00000250: 49f5 bb3c f12a 31bb 4134 5cbd 3a15 f43b
00000260: d480 133d 7f92 85bc ef9a 0a3b a79a 51bd
00000270: 4dd2 703c 99d9 ed3c ddae a9bd 27d9 7c3d
00000280: eccb 833c 9063 9abd f8ee a4bb 4ba1 eebc
00000290: 57a2 6a3c 3a6d 493d b3a4 163c c9d5 68bd
000002a0: 3287 d13d 6742 8d3c 5fc6 84bc 8b4e 1ebc
000002b0: d1ed 10bd 11e9 a43e 3497 27be 9e83 1dbe
000002c0: 9016 c63d c98f c03c 6115 c5bd 835d 563e
000002d0: ba72 0839 9c24 b33c a3ae b0bc f17b f1bb
000002e0: c095 383c 69cf 343d f8bd bb3d e9e8 443d
000002f0: acbf 9c3d 291a c4bd a0ee 473c c31d 9e3d
00000300: 3dac ebbd 2ebc 013d 5428 893d f9be 3f3c
00000310: 2410 a13c d671 a93c 8f28 5cbd 13a2 68bd
00000320: 2a0b ef3d 5fc0 27bd d653 99bd 9b6e 84bd
00000330: 92b7 253e 574d 233e b7ba e23c d730 7ebc
00000340: 47f6 2aba af94 253d 470f d5bc 0244 8b3c
00000350: 8cdb bcbd 097e e6bd d8df e63b 2fd9 55bd
00000360: 80a4 d93b 5728 093d a8d2 bc3d 4e26 093d
00000370: b8d6 f0bc b0f1 413c bfc2 33bd 0263 0fbd
00000380: 0144 0fbd 4445 debd 88d1 23bd 5d11 cb3d
00000390: b401 abbd e440 b7bc cfc1 b93d 79cf 3bbe
000003a0: 3cdf 293d 5a51 a63d aebc cabc 795d 063c
000003b0: 0c2b 793e e50a 82bd 0cca 90bd eb68 b33d
000003c0: c60a 19be e27f 57bd b024 8d3d f154 343d
000003d0: 7842 743d 4a4b 383d ac0f ba3c 2f7a 87bc
000003e0: 1241 963c 7ca1 9fbc a944 fc3c 0faa ebbc
000003f0: 8cce aa3c 3f2b e23d 33d8 a53e b4f4 3e3d

head.conv.bias f4 [64]
-0.049403563 -0.067322046 0.0025134517 0.007806543 -0.118104145 0.14112334 -0.16165112 0.04581925
-0.19873793 0.06944424 -0.25277954 0.18148062 -0.1138406 0.2937703 -0.100866064 -0.15852417
0.094254695 -0.38614735 0.009074396 -0.10151033 0.14564969 0.02541083 -0.14283179 0.0732906
-0.21581565 -0.04529217 -0.3430492 -0.08552917 0.13455838 -0.035483394 0.10438019 0.034584973
0.31799278 -0.08240071 0.26714882 -0.3167192 0.056808542 0.35728258 -0.1581431 -0.4290321
0.19548707 0.54498464 -0.24770378 -0.20230131 -0.27329716 -0.18761721 -0.16194996 -0.18169327
-0.49071234 0.048218492 0.16325697 -0.04651323 0.22436954 -0.060726836 0.3328491 0.04889813
-0.22570689 0.032328982 0.13541242 -0.05864653 0.21869326 -0.09127687 0.06747311 -0.0639916
00000000: 645b 4abd 24e0 89bd b9b8 243b 07ce ff3b
00000010: 96e0 f1bd a382 103e df87 25be f7ac 3b3d
00000020: f581 4bbe c838 8e3d 526c 81be 0ed6 393e
00000030: 4325 e9bd 1069 963e de92 cebd 2954 22be
00000040: 9b08 c13d 1bb5 c5be c7ac 143c a6e4 cfbd
00000050: 3125 153e 5f2a d03c 7f42 12be 6219 963d
00000060: c7fe 5cbe 4884 39bd 25a4 afbe eb29 afbd
00000070: acc9 093e 0957 11bd 48c5 d53d f9a8 0d3d
00000080: f3cf a23e b4c1 a8bd bbc7 883e 0529 a2be
00000090: 13b0 683d beed b63e 44f0 21be 18aa dbbe
000000a0: c32d 483e 1d84 0b3f 0fa6 7dbe 1328 4fbe
000000b0: 9bed 8bbe ba1e 40be 36d6 25be cd0d 3abe
000000c0: a63e fbbe c180 453d d62c 273e a884 3ebd
000000d0: 21c1 653e b4bc 78bd 326b aa3e 6849 483d
000000e0: b51f 67be 656b 043d 8ea9 0a3e 5837 70bd
000000f0: 20f1 5f3e 5eef babd 582f 8a3d 070e 83bd

head.norm.weight f4 [64]
0.8624844 0.97540706 1.1086786 0.76104134 0.9401947 0.8587012 0.95646167 0.88103265
0.9290558 0.65109766 1.0304422 1.0850662 0.85950744 0.97344077 0.9043932 1.0918502
0.9855777 0.9200309 0.8332512 0.8611525 1.0617148 0.9389763 0.95671844 0.9398332
0.8976601 1.2099247 0.81019086 0.92206013 0.92918086 1.0421368 1.2116851 1.0009158
0.8797405 0.9888644 0.913605 0.8676264 1.301704 0.990779 0.90009063 1.0323197
0.9894111 0.9391087 0.92914397 1.2111117 0.94404393 1.1796466 0.8183281 0.77078336
0.9026107 0.9969038 0.91079104 0.99395406 0.80584514 0.99420965 1.1043549 0.84156775
0.7267096 0.9757796 0.87315977 0.8612766 0.8964047 0.9340923 0.8732652 0.966577
00000000: c7cb 5c3f 47b4 793f 2ee9 8d3f 9bd3 423f
00000010: 9ab0 703f d8d3 5b3f acda 743f 5b8b 613f
00000020: 9ad6 6d3f 56ae 263f 88e5 833f 73e3 8a3f
00000030: ae08 5c3f 6a33 793f 5086 673f bfc1 8b3f
00000040: d24e 7c3f 2587 6b3f f34f 553f 7e74 5c3f
00000050: 45e6 873f c060 703f 80eb 743f e998 703f
00000060: 0dcd 653f d0de 9a3f ab68 4f3f 220c 6c3f
00000070: ccde 6d3f bd64 853f 7f18 9b3f 021e 803f
00000080: ac36 613f 3826 7d3f 04e2 693f c41c 5e3f
00000090: 3d9e a63f b1a3 7d3f 576c 663f 0d23 843f
000000a0: 0c4a 7d3f 6e69 703f 61dc 6d3f b505 9b3f
000000b0: ddac 713f a9fe 963f f37d 513f 0f52 453f
000000c0: 7f11 673f 1635 7f3f 9a29 693f c673 7e3f
000000d0: de4b 4e3f 8684 7e3f 805b 8d3f fc70 573f
000000e0: a409 3a3f b1cc 793f 6687 5f3f a07c 5c3f
000000f0: c77a 653f ac20 6f3f 4f8e 5f3f 9771 773f

head.norm.bias f4 [64]
-0.05727899 0.07705687 0.21248516 -0.13075005 -0.06880959 -0.03208881 -0.27377245 0.31887263
0.21721579 -0.06425534 -0.03289628 1.1577463 0.5843163 0.105280004 0.12815586 -0.007811405
0.45605823 0.08602849 -0.2055563 -0.12875359 0.12910965 -0.04476265 0.40550566 0.03295493
0.36382905 0.44714722 -0.043322094 0.49443203 -0.28208238 0.11450695 0.22315018 -0.073456526
0.5229172 -0.055280272 0.49005648 0.2121923 0.44189927 0.13691248 0.5456684 -0.018192323
0.2794535 0.5782735 -0.1545656 0.27521357 0.52598965 0.27314335 0.09077856 0.061975937
0.47526988 0.27905506 -0.100285806 0.21798217 0.029456103 0.44026586 0.4126529 0.063828476
0.011707345 -0.10882887 -0.07468682 0.3715263 -0.030305516 -0.017890172 0.04336792 0.37259614
00000000: 609d 6abd fecf 9d3d b695 593e 57e3 05be
00000010: 0bec 8cbd 8e6f 03bd e72b 8cbe 4643 a33e
00000020: d16d 5e3e 4e98 83bd 40be 06bd 0831 943f
00000030: c195 153f 0b9d d73d 4a3b 033e d1f6 ffbb
00000040: 7780 e93e b42f b03d 5a7d 52be fbd7 03be
00000050: 5235 043e 0a59 37bd 709e cf3e c0fb 063d
00000060: cd47 ba3e 7bf0 e43e 8272 31bd 3226 fd3e
00000070: 1a6d 90be 9f82 ea3d 7b81 643e 6070 96bd
00000080: e7dd 053f 916d 62bd afe8 fa3e f048 593e
00000090: 9f40 e23e c932 0c3e edb0 0b3f 1108 95bc
000000a0: 8714 8f3e bb09 143f 7246 1ebe cbe8 8c3e
000000b0: 42a7 063f 72d9 8b3e 1cea b93d 7bda 7d3d
000000c0: 9356 f33e 4ee0 8e3e a562 cdbd b836 5f3e
000000d0: ed4d f13c 876a e13e 3e47 d33e 81b8 823d
000000e0: 2ad0 3f3c ace1 debd 67f5 98bd b238 be3e
000000f0: 4643 f8bc 698e 92bc 8fa2 313d ecc4 be3e

head.norm.running_mean f4 [64]
-0.97091717 -0.5556639 -0.116582915 -0.86938363 -0.12453881 0.041990794 -0.57439953 0.0990651
-0.15430905 -0.76253074 0.65614295 0.48272875 -0.15430817 0.20445424 -0.98295575 0.6075635
0.057121765 -0.6108609 -0.077283226 -0.6060376 -0.66829306 -0.31188083 0.021199673 0.21508773
-0.15690148 -0.1522627 -1.4858902 -0.13627414 -0.8583697 0.9624667 0.029556936 1.8661453
0.3127769 -1.4383645 0.2866226 0.061466802 0.044552702 -1.1511103 -0.10284774 0.73963577
0.25797674 0.52831775 -1.0003606 -0.33102423 -0.24166119 0.19455504 -1.0886493 -0.35810137
-0.496968 -0.91130066 0.35699317 0.08396347 0.110850595 -0.033520136 0.38505995 -0.93289995
-0.6922179 -0.64858204 0.088904865 0.030459143 -0.029192615 -1.3670392 -0.36331776 -0.45343158
00000000: 078e 78bf fd3f 0ebf 06c3 eebd ed8f 5ebf
00000010: 340e ffbd 8afe 2b3d d90b 13bf a5e2 ca3d
00000020: 3103 1ebe 3735 43bf fcf8 273f 3928 f73e
00000030: f602 1ebe 745c 513e fda2 7bbf 4889 1b3f
00000040: 83f8 693d 6161 1cbf ab46 9ebd 4825 1bbf
00000050: 4115 2bbf d8ae 9fbe f0aa ad3c f53f 5c3e
00000060: c8aa 20be c1ea 1bbe a631 bebf 738b 0bbe
00000070: 1ebe 5bbf 3864 763f 6321 f23c d9dd ee3f
00000080: 4b24 a03e 541c b8bf 33c0 923e 9dc4 7b3d
00000090: e57c 363d 9557 93bf d6a1 d2bd c558 3d3f
000000a0: 8715 843e d53f 073f d10b 80bf 027c a9be
000000b0: 0876 77be 7039 473e dc58 8bbf 1059 b7be
000000c0: 9772 febe 004b 69bf cfc7 b63e 0af5 ab3d
000000d0: a305 e33d 694c 09bd 9426 c53e 88d2 6ebf
000000e0: 3135 31bf 7909 26bf c113 b63d 7485 f93c
000000f0: 5a25 efbc 24fb aebf c904 babe 2f28 e8be

head.norm.running_var f4 [64]
0.058370467 0.030984504 0.00807526 0.041874275 0.13524148 0.10501789 0.014419199 0.006342627
0.0035624455 0.08152507 0.02411872 0.0057541984 0.0052170167 0.005672939 0.09657503 0.02721012
0.0060469117 0.005432868 0.03173852 0.025930999 0.03540317 0.01955613 0.01785293 0.021815972
0.0028243475 0.0046443297 0.11516695 0.0033466269 0.064003274 0.031725775 0.18947363 0.07079664
0.007874548 0.12623467 0.004501357 0.027834432 0.003768648 0.04619836 0.0046054837 0.036224175
0.0077813813 0.00097387074 0.024448885 0.29451746 0.003654054 0.008000577 0.03828982 0.004934012
0.0024095427 0.030296195 0.05966234 0.0029789282 0.022527356 0.0024193462 0.002442404 0.11090179
0.04293254 0.028136067 0.012364312 0.0014817205 0.034009233 0.17037374 0.031937223 0.019777184
00000000: df15 6f3d 37d3 fd3c 184e 043c 5c84 2b3d
00000010: be7c 0a3e 9f13 d73d 813e 6c3c d0d5 cf3b
00000020: eb77 693b 9ef6 a63d 9f94 c53c b78d bc3b
00000030: 82f3 aa3b 10e4 b93b 21c9 c53d c2e7 de3c
00000040: 2c25 c63b 3306 b23b 4000 023d 3f6d d43c
00000050: ea02 113d 2d34 a03c 4f40 923c 69b7 b23c
00000060: b018 393b 762f 983b a6dc eb3d 1553 5b3b
00000070: 2614 833d e3f2 013d 6005 423e d4fd 903d
00000080: 4004 013c a943 013e 1f80 933b 0905 e43c
00000090: 6cfb 763b 7e3a 3d3d 99e9 963b cd5f 143d
000000a0: f5fa fe3b 5c4b 7f3a 0749 c83c feca 963e
000000b0: da78 6f3b da14 033c c9d5 1c3d 7ead a13b
000000c0: 6be9 1d3b ba2f f83c 7f60 743d 1f3a 433b
000000d0: 4a8b b83c e58d 1e3b bd10 203b 7a20 e33d
000000e0: 08da 2f3d 9c7d e63c af93 4a3c 4a36 c23a
000000f0: 444d 0b3d 7476 2e3e 9bd0 023d c303 a23c

channel.fc1.weight f4 [4, 64, 1, 1]
0.011249953 -0.042808246 -0.036194656 -0.03508719 -0.02250676 -0.02327564 -0.029897053 -0.046109848
-0.016016988 0.013135369 0.0070447945 -0.016788686 0.019686293 0.021483356 0.006202832 0.010701887
-0.007623845 0.006580836 -0.024448616 0.028948313 0.0028035885 -0.007396103 0.002108603 0.012879333
0.012860768 0.03898857 0.011432458 0.022735793 0.005281451 -0.026496716 -0.019918116 -0.026068278
-0.0019669698 0.029704766 0.0055718985 0.02658629 -0.027142419 -0.024658974 0.031208754 0.017479012
-0.03451909 -0.028161995 -0.020008862 -0.01603086 0.0045899535 0.021304913 -0.027257072 -0.02340939
-0.03448648 -0.007312594 -0.0052429317 0.0016943833 -0.010950093 -0.04977412 0.023657162 -0.005652943
0.022441404 0.012864471 0.0052167824 -0.0074252896 -0.006921537 -0.013001897 -0.018275721 0.033338692
0.008754918 -0.000785518 0.020132251 0.00060143654 -0.0110762995 -0.01917821 0.019290213 -0.017563866
0.006662425 -0.01100849 0.0021177512 -0.0082182 0.017615277 -0.016157275 -0.027918467 0.0145141985
-0.009522126 0.03037941 -0.011789692 0.019615462 -0.0030120318 -0.0015242675 -0.013067776 -0.046866026
0.0042542852 -0.028256578 0.003404445 -0.013381423 -0.0061912485 0.009714049 0.0047617336 0.0017938085
-0.015046894 0.0022447966 -1.2680562e-05 0.027451377 -0.017724492 0.013943564 0.01649137 0.0076882467
-0.04092207 0.015470871 -0.0034011488 -0.014788767 0.02274022 -0.011126253 -0.0013277396 -0.009075108
-0.023741007 -0.030702744 -0.02858367 -0.008453976 -0.0033567154 -0.03335234 0.0013758198 -0.034524746
0.018500928 0.0010620836 0.009209195 -0.00045775567 -0.005254623 -0.0057342886 -0.010232337 -0.015373295
-0.03072888 -0.0307334 -0.017247025 -0.003938339 0.02908955 0.0046460703 -0.01014408 0.04677218
0.0020590222 -0.01359172 0.016589446 -0.04793947 -0.0038991522 0.041349716 0.0037034797 -0.019655343
-0.04677817 -0.001475081 -0.017556665 0.011974433 0.015926275 -0.012453663 -0.015648792 -0.050068438
0.013614848 0.02284763 -0.020090062 0.020854834 0.015040934 0.015177997 -0.016788146 0.0058131088
-0.034863036 0.027089998 -0.01008807 0.0076142596 -0.009340625 -0.02382839 -0.013592616 -0.0013488645
0.0048120175 -0.04772348 0.0013552393 -0.017258244 -0.035333198 0.00043197116 -0.019418336 -0.014325658
-0.016122514 0.03488556 0.024000801 -0.011934606 3.181781e-05 -0.020543551 -0.031577263 0.012859073
-0.013393912 -0.012047289 0.016887931 -0.002350712 -0.023561252 0.017172534 -0.005305638 -0.0045268573
0.12880428 0.009674792 0.033837013 0.04453193 0.024127468 -0.07537473 -0.0119638 -0.026082654
-0.012078997 -0.12682691 0.004082261 -0.0029495347 -0.01851215 -0.032092698 0.14518838 0.03931987
0.002167744 0.0024663 0.1290063 0.09010263 0.118966475 -0.027439822 0.08009241 -0.027491523
0.0032099807 -0.024523279 -0.099806674 -0.0030786458 0.04939322 -0.026303554 0.028940775 -0.030113045
0.043072715 0.106477976 0.01496367 0.03180455 0.005382298 -0.042868912 -0.030027078 -0.013660005
0.0428491 -0.015952136 -0.022795437 0.022033323 0.010976118 0.016328666 -0.049576424 0.012232375
0.014381728 0.007848705 0.17252773 -0.009561357 -0.06354121 0.000110561625 0.005866275 -0.06508254
0.100096084 -0.060745656 -0.00665429 -0.013461628 -0.054442503 -0.09431336 0.01500752 0.0010566283
00000000: b951 383c b357 2fbd d940 14bd 96b7 0fbd
00000010: 1960 b8bc 8eac bebc aaea f4bc aedd 3cbd
00000020: 0f36 83bc bb35 573c 05d8 e63b 6d88 89bc
00000030: 2645 a13c ddfd af3c 2041 cb3b f856 2f3c
00000040: 72d1 f9bb 0ea4 d73b 7748 c8bc 0325 ed3c
00000050: 69bc 373b 025b f2bb 7d30 0a3b d703 533c
00000060: f8b5 523c 7bb2 1f3d 344f 3b3c 6a40 ba3c
00000070: 0610 ad3b a40f d9bc 512b a3bc 248d d5bc
00000080: 47e8 00bb 6957 f33c 7994 b63b 7ecb d93c
00000090: c759 debc 9e01 cabc 80a9 ff3c 2530 8f3c
000000a0: e463 0dbd fcb3 e6bc a0e9 a3bc 2653 83bc
000000b0: 5267 963b a487 ae3c 394a dfbc 0dc5 bfbc
000000c0: b241 0dbd 7c9e efbb e6cc abbb 1216 de3a
000000d0: 0568 33bc f3df 4bbd aacc c13c 533c b9bb
000000e0: 09d7 b73c 81c5 523c 8bf1 aa3b d84f f3bb
000000f0: 10ce e2bb e905 55bc f7b6 95bc 278e 083d
00000100: ca70 0f3c 38eb 4dba 64ec a43c b9a9 1d3a
00000110: 5e79 35bc 9f1b 9dbc 8206 9e3c 19e2 8fbc
00000120: 7950 da3b f45c 34bc f8c9 0a3b a1a5 06bc
00000130: ea4d 903c 435c 84bc 45b5 e4bc f6cc 6d3c
00000140: b102 1cbc 3ede f83c 8d29 41bc 9bb0 a03c
00000150: 8265 45bb eec9 c7ba 3a1a 56bc 97f6 3fbd
00000160: 8867 8b3b 577a e7bc 1c1d 5f3b c23d 5bbc
00000170: f5df cabb ad27 1f3c 5108 9c3b 3a1e eb3a
00000180: 3f87 76bc 701d 133b 99be 54b7 b6e1 e03c
00000190: f432 91bc 8c73 643c e918 873c b0ed fb3b
000001a0: e79d 27bd 8979 7d3c cfe5 5ebb 964c 72bc
000001b0: b349 ba3c e34a 36bc 8c07 aeba c3af 14bc
000001c0: 807c c2bc 5284 fbbc 4d28 eabc 8c82 0abc
000001d0: 57fc 5bbb 779c 08bd da54 b43a d269 0dbd
000001e0: 428f 973c 9d35 8b3a 2ae2 163c edfe efb9
000001f0: f92e acbb b3e6 bbbb 88a5 27bc 46e0 7bbc
00000200: 22bb fbbc 9cc4 fbbc a249 8dbc 2f0d 81bb
00000210: 354d ee3c 103e 983b 5b33 26bc 2f94 3f3d
00000220: a9f0 063b ceaf 5ebc 97e6 873c 2d5c 44bd
00000230: eb88 7fbb 525e 293d 14b6 723b 3e04 a1bc
00000240: 779a 3fbd 8157 c1ba ffd2 8fbc 6a30 443c
00000250: d277 823c 730a 4cbc e531 80bc 9014 4dbd
00000260: d010 5f3c f42a bb3c ea93 a4bc c2d7 aa3c
00000270: 406e 763c 22ad 783c 4b87 89bc e47b be3b
00000280: 8bcc 0ebd d8eb dd3c 6f48 25bc 0a81 f93b
00000290: 6c09 19bc c133 c3bc 90b3 5ebc 62cc b0ba
000002a0: 21ae 9d3b b279 43bd 49a2 b13a 2961 8dbc
000002b0: 8bb9 10bd 307a e239 3413 9fbc 2ab6 6abc
000002c0: 5d13 84bc 29e4 0e3d 549d c43c 5e89 43bc
000002d0: 1d74 0538 f34a a8bc 2957 01bd dcae 523c
000002e0: 2472 5bbc fe61 45bc 8f58 8a3c 670e 1abb
000002f0: 8703 c1bc 6aad 8c3c ebda adbb 0856 94bb
00000300: 45e5 033e 0583 1e3c ae98 0a3d 1d67 363d
00000310: f8a6 c53c 115e 9abd d003 44bc 4aab d5bc
00000320: fce6 45bc eade 01be 7dc4 853b fb4c 41bb
00000330: cba6 97bc a273 03bd 43ac 143e df0d 213d
00000340: b610 0e3b a6a1 213b 3a1a 043e ba87 b83d
00000350: b2a4 f33d 7ac9 e0bc 7d07 a43d e735 e1bc
00000360: 8a5e 523b 0be5 c8bc 7167 ccbd 1bc3 49bb
00000370: 8c50 4a3d 8d7a d7bc 3415 ed3c a2af f6bc
00000380: 046d 303d 2011 da3d 2e2a 753c 7d45 023d
00000390: fd5d b03b 5097 2fbd 59fb f5bc 37ce 5fbc
000003a0: 8a82 2f3d 0eae 82bc 7fbd babc 3a7f b43c
000003b0: 2dd5 333c b2c3 853c a610 4bbd 4d6a 483c
000003c0: 57a1 6b3c db97 003c 1cab 303e 3da7 1cbc
000003d0: e521 82bd 52dd e738 e239 c03b ff49 85bd
000003e0: 2dff cc3d 70d0 78bd 3b0c dabb 298e 5cbc
000003f0: 1aff 5ebd 5d27 c1bd 1ae2 753c 907e 8a3a

channel.fc2.weight f4 [64, 4, 1, 1]
0.00032279245 -0.015426713 0.019819047 -0.0354118 0.011408566 0.025777595 0.022346422 0.040543824
-0.0035627128 -0.012677087 0.010352017 0.09752212 0.002829421 0.006400692 0.00052870467 -0.0750248
0.048325878 -0.032667227 0.008297071 0.019987855 -0.012672856 -0.024221724 -0.008636862 -0.06324511
0.022837153 -0.03677441 -0.0007168199 0.06833585 -0.020217368 -0.024119662 -0.004589368 -0.07742438
-0.04783492 0.008947069 0.0067512193 0.20173053 -0.025253145 0.0035780515 -0.0042085936 -0.10707852
-0.011138556 0.006379147 0.013573213 -0.01794739 0.012321864 -0.010691376 -0.05172822 0.12700768
-0.03697536 -0.00013403935 0.015320174 0.081324205 -0.04033449 0.014252522 0.00405871 0.022434495
0.0051665525 0.0067237555 0.022966282 0.035390384 -0.020656193 -0.019687388 0.0048074936 0.010293663
-0.0059883576 0.040266924 -0.039066393 -0.12724634 -0.020633887 0.0008839237 0.00041522598 0.031105986
-0.005809607 0.021668606 0.008614233 0.043513127 -0.009573035 -0.031001953 -0.0009586175 -0.081619956
0.010495339 0.029308015 0.022367358 0.0074080033 0.024346825 -0.016262705 0.010045594 0.030940248
0.009034576 -0.0026037437 -0.020768 0.016436681 0.0239617 0.04220238 0.015143747 0.035262614
-0.028863138 0.0054693604 -0.018910848 -0.0071651544 -0.010184774 -0.017816892 0.010146405 0.07575671
-0.0011288988 -0.019080255 0.02804871 -0.041005317 -0.0074898135 0.017157115 0.025081638 0.065267704
0.024403378 0.019990329 -0.038532175 -0.007237999 -0.009597516 -0.003216358 0.020263935 -0.023331938
0.01219598 -0.024128329 0.00744612 0.0020491614 -0.012052154 -0.0037896726 -0.020172626 -0.055519305
0.004585021 -0.021210093 -0.029145887 0.1446638 -0.00762181 -0.008502348 0.022463964 0.020504892
0.010468072 0.020649098 0.030781578 -0.03023934 -0.043877434 -0.0133136595 0.018503511 0.0010933583
0.00066077954 0.0066098073 -0.016191997 0.1285643 0.019793177 -0.003307529 -0.019669052 -0.002718183
-0.015361327 0.015173236 -0.011793815 -0.044458896 -0.010584739 0.012887836 0.011095047 0.010747662
-0.0453519 -0.040023122 -0.0037642345 0.006046236 0.016520089 -0.013546327 0.0087046325 0.24801417
-0.024739223 0.034875397 0.007908904 -0.10346467 0.00830649 0.0027829607 -0.019351449 0.02409602
-0.00980082 0.013542918 0.030525014 0.11384765 -0.015590961 0.01788075 0.0015325543 0.06893438
0.026864428 -0.00015487097 0.038190022 -0.076058805 -0.020256376 0.0012752195 -0.015509041 0.032887317
0.025490383 0.0025502574 -0.0008626482 0.027153233 -0.001491283 -0.05017087 -0.004756546 0.025633633
-0.007585673 -0.029331286 0.024263 0.022698883 -0.045874275 -0.011099836 0.011559692 0.097129844
-0.01356521 -0.01922853 -0.008257363 -0.07172188 -0.015141629 -0.0031067755 -0.016671328 0.07422247
-0.0149113 -0.0056919046 -0.013767176 0.3013844 0.02302721 0.0029646235 0.01735267 -0.20708044
-0.022178799 0.027555635 -0.00041910278 -0.08178804 -0.0117726745 0.0028744082 0.00081610505 0.014420227
-0.0070470325 0.004760927 0.025665645 -0.014545022 0.030902121 -0.020882575 0.042663492 0.055742905
-0.031064382 0.004595267 -0.009594561 -0.035138074 -0.0061552245 0.0058743814 0.008492256 -0.050655544
0.024224274 -0.025558036 0.013453435 -0.006499437 -0.02553625 -0.0055508297 -0.0028649569 -0.015477451
00000000: 783c a939 53c0 7cbc 8e5b a23c f70b 11bd
00000010: feea 3a3c 892b d33c d80f b73c 4811 263d
00000020: 677c 69bb 8fb3 4fbc 829b 293c adb9 c73d
00000030: cf6d 393b e5bc d13b c598 0a3a 9aa6 99bd
00000040: 5bf1 453d 12ce 05bd 70f0 073c 92bd a33c
00000050: d0a1 4fbc a36c c6bc a081 0dbc a786 81bd
00000060: fb14 bb3c c4a0 16bd f8e8 3bba abf3 8b3d
00000070: e59e a5bc 9996 c5bc 6962 96bb ac90 9ebd
00000080: 8dee 43bd ba96 123c 5539 dd3b 7392 4e3e
00000090: afdf cebc be7d 6a3b 3ee8 89bb fc4b dbbd
000000a0: 7d7e 36bc 2a08 d13b 2e62 5e3c 6806 93bc
000000b0: a5e1 493c e22a 2fbc f8e0 53bd 4d0e 023e
000000c0: 7a73 17bd ea8c 0cb9 7801 7b3c 4e8d a63d
000000d0: c735 25bd 6983 693c edfe 843b 8cc8 b73c
000000e0: 2f4c a93b f352 dc3b c923 bc3c 82f5 103d
000000f0: 2d37 a9bc 7247 a1bc 2e88 9d3b c0a6 283c
00000100: fc39 c4bb eeee 243d 1504 20bd dd4c 02be
00000110: 6608 a9bc 1eb7 673a b0b2 d939 fbd1 fe3c
00000120: 845e bebb 5c82 b13c b622 0d3c d23a 323d
00000130: 38d8 1cbc cff7 fdbc bb4b 7bba 5d28 a7bd
00000140: a4f4 2b3c 5d17 f03c c03b b73c d6be f23b
00000150: fe72 c73c 5d39 85bc 4696 243c 6776 fd3c
00000160: c205 143c 92a3 2abb a721 aabc 38a6 863c
00000170: 544b c43c 67dc 2c3d 7b1d 783c 886f 103d
00000180: 6372 ecbc 5238 b33b ecea 9abc acc9 eabb
00000190: 0ade 26bc bbf4 91bc 1b3d 263c 5526 9b3d
000001a0: 8ff7 93ba 324e 9cbc 69c6 e53c 31f5 27bd
000001b0: 1c6d f5bb 148d 8c3c 0278 cd3c 13ab 853d
000001c0: 98e9 c73c c2c2 a33c ead3 1dbd bc2c edbb
000001d0: e63e 1dbc 88c9 52bb 8d00 a63c 9f22 bfbc
000001e0: a6d1 473c c6a8 c5bc 95fe f33b 394b 063b
000001f0: 6676 45bc 285c 78bb 1041 a5bc 3668 63bd
00000200: f23d 963b cac0 adbc 5bc3 eebc bf22 143e
00000210: 60c0 f9bb 6f4d 0bbc 5906 b83c e0f9 a73c
00000220: 4782 2b3c 4c28 a93c a629 fc3c 7eb8 f7bc
00000230: d3b8 33bd 8921 5abc ad94 973c 044f 8f3a
00000240: 2a38 2d3a 1597 d83b 14a5 84bc 5ca6 033e
00000250: 4d25 a23c 21c3 58bb fe20 a1bc 8b23 32bb
00000260: 13ae 7bbc 2a99 783c d83a 41bc 881a 36bd
00000270: 9d6b 2dbc 8127 533c 00c8 353c f616 303c
00000280: eac2 39bd 49ef 23bd 60b1 76bb 811f c63b
00000290: 2355 873c 6af1 5dbc e09d 0e3c 6df7 7d3e
000002a0: e9a9 cabc 81d9 0e3d 5994 013c 49e5 d3bd
000002b0: f217 083c 5562 363b ee86 9ebc 0465 c53c
000002c0: 9e93 20bc 1de3 5d3c 980f fa3c f528 e93d
000002d0: 3b71 7fbc a77a 923c fddf c83a 782d 8d3d
000002e0: ca12 dc3c dc64 22b9 246d 1c3d b8c4 9bbd
000002f0: b3f0 a5bc 4425 a73a a219 7ebc dab4 063d
00000300: 35d1 d03c 3822 273b 5723 62ba 7570 de3c
00000310: 2777 c3ba f87f 4dbd cddc 9bbb a0fd d13c
00000320: 3d91 f8bb 2a48 f0bc 33c3 c63c 02f3 b93c
00000330: aae6 3bbd 16dc 35bc dd64 3d3c 03ec c63d
00000340: 9d40 5ebc 2685 9dbc e449 07bc ece2 92bd
00000350: 9814 78bc 0b9b 4bbb 4f92 88bc f301 983d
00000360: 864e 74bc 2883 babb b98f 61bc 0e4f 9a3e
00000370: 8fa3 bc3c 214a 423b 3027 8e3c e50c 54be
00000380: 50b0 b5bc 5bbc e13c 06bb dbb9 7d80 a7bd
00000390: 2de2 40bc 9160 3c3b e2ef 553a d142 6c3c
000003a0: cbea e6bb 8d01 9c3b c240 d23c 3e4e 6ebc
000003b0: 7226 fd3c ef11 abbc eabf 2e3d ac52 643d
000003c0: bb7a febc e593 963b 8132 1dbc f1ec 0fbd
000003d0: c4b1 c9bb e27d c03b 1a23 0b3c 307c 4fbd
000003e0: fc71 c63c 165f d1bc cc6b 5c3c 3bf9 d4bb
000003f0: 6631 d1bc bce3 b5bb 00c2 3bbb 2295 7dbc

body.block1.conv.weight f4 [64, 64, 3, 3]
-0.11421354 -0.06317768 0.002558614 0.026479019 -0.01287482 0.022974757 0.0010703639 0.031680726
-0.0058389325 -0.08864116 -0.061508518 0.021759972 -0.03502146 -0.089587145 0.011787855 0.05074028
0.014355861 0.034651496 0.050761998 -0.08597184 -0.017814819 -0.028464217 -0.054142196 -0.012972536
-0.07088225 -0.014135485 -0.02205268 -0.011594349 0.0019166105 0.009163272 -0.0060279397 -0.028623896
0.020299075 0.11022926 0.03765736 0.073935196 -0.0020911677 -0.07406234 -0.051361434 -0.0664275
-0.06717519 -0.047209363 -0.08523683 -0.04527275 -0.041998982 -0.026745182 -0.05480734 -0.09949483
-0.09384483 -0.034633357 -0.030425219 0.027673284 0.007876735 -0.0060306634 -0.088131405 -0.075730264
0.09030411 -0.04194879 -0.14934698 0.06762703 0.009381827 -0.031881686 0.09883321 0.0021308567
-0.043821767 0.026315743 0.05538759 0.017579384 -0.0035806333 0.040011294 0.066356815 0.082772896
0.03374451 0.133593 0.1321024 -0.100947656 0.048184764 -0.013940771 -0.106637456 0.003660605
0.018739453 0.0063548293 -0.009570008 0.053350996 0.024297958 0.046145417 0.017746642 0.06467749
0.057626743 0.06344823 -0.027660253 -0.05038994 0.048695333 0.03280107 -0.044700846 -0.019432569
0.022021271 -0.044597805 0.037692674 -0.02349487 -0.036534812 -0.03472463 0.01635266 -0.059232984
-0.1704884 -0.08627376 -0.07096895 0.13552536 0.029148042 0.07054787 -0.05011875 0.046120625
0.07739506 0.046644717 0.14469539 0.015514488 0.046187453 0.04316561 -0.022739068 0.0223918
-0.016254123 -0.05753189 -0.05474673 0.014188988 0.049566414 0.020301234 0.03203098 -0.008819164
0.0027182684 0.010322254 0.06693357 0.012049812 0.1389765 0.07777958 0.07895966 -0.024603892
-0.036706544 -0.19877426 -0.02408979 -0.060621895 -0.10065556 -0.041802555 -0.053988345 -0.10005527
0.12878443 0.11071185 0.055278987 0.018647844 -0.0022534512 -0.010639487 -0.010987231 0.01646683
0.14360504 -0.010740866 -0.018677352 -0.03703759 0.009803763 0.0015919564 -0.050759222 0.06461168
0.016049517 -0.023643134 -0.030060641 -0.0069888877 0.013298652 0.03983856 -0.009425352 -0.023191806
0.072210215 0.04909513 0.09849419 0.024753487 -0.005552241 0.004360337 0.00046839437 -0.023176258
-0.022424059 0.1180024 0.076100335 0.029356051 0.10445914 0.066530414 0.0013975592 0.004862445
0.04230312 0.014786105 0.070794 0.09401684 0.031123793 -0.04214884 0.024858762 0.066169366
0.11075474 0.046500098 0.050507795 0.14722227 0.018933646 -0.02431916 0.18383706 0.04366629
0.19137652 0.018560426 -0.053186204 0.026185319 -0.060618684 0.03248613 0.0033702313 0.00706405
0.009939976 -0.022058139 0.045388702 0.045685004 0.012618391 0.05412587 -0.014998527 0.07359796
-0.019082174 0.07194246 0.056925926 0.1004589 0.02944035 0.041522235 0.031995133 -0.034349967
0.03362157 -0.00658206 0.11776964 0.1990746 0.02166581 0.056682937 0.00026148028 -0.14919454
-0.10228635 -0.08700536 -0.026076602 0.019576835 0.014666022 -0.024677167 -0.037592933 -0.0023309588
0.0939216 0.025495237 0.01777308 -0.040405963 0.007738519 -0.080849536 -0.09635382 -0.070860945
0.08854681 -0.091486074 -0.07736859 0.083409786 -0.013749466 -0.06531449 -0.044920675 0.020425625
00000000: cae8 e9bd 4d63 81bd 6bae 273b 87ea d83c
00000010: e9f0 52bc 8f35 bc3c 744b 8c3a a6c3 013d
00000020: 8454 bfbb 7f89 b5bd 5bf0 7bbd f841 b23c
00000030: aa72 0fbd 7779 b7bd d921 413c 0ad5 4f3d
00000040: d834 6b3c baee 0d3d d0eb 4f3d 0112 b0bd
00000050: 62f0 91bc ca2d e9bc 35c4 5dbd c28a 54bc
00000060: b72a 91bd 8598 67bc d2a7 b4bc 39f6 3dbc
00000070: c736 fb3a 8c21 163c 0686 c5bb a97c eabc
00000080: 3f4a a63c e1bf e13d 9b3e 1a3d 566b 973d
00000090: f90b 09bb ffad 97bd 5e60 52bd 240b 88bd
000000a0: 2593 89bd 9b5e 41bd a690 aebd eb6f 39bd
000000b0: 2007 2cbd b618 dbbc a97d 60bd f2c3 cbbd
000000c0: b831 c0bd b5db 0dbd 4f3e f9bc 15b3 e23c
000000d0: 6c0d 013c df9c c5bb 3d7e b4bd 7818 9bbd
000000e0: 5cf1 b83d 7fd2 2bbd 6aee 18be 0a80 8a3d
000000f0: 3cb6 193c 5f96 02bd 1169 ca3d d8a5 0b3b
00000100: 747e 33bd 1d94 d73c 19de 623d a402 903c
00000110: 0fa9 6abb e2e2 233d 15e6 873d d684 a93d
00000120: af37 0a3d 9acc 083e da45 073e a5bd cebd
00000130: 635d 453d d567 64bc bd64 dabd c3e6 6f3b
00000140: 7b83 993c 2c3c d03b 86cb 1cbc 9386 5a3d
00000150: 830c c73c fa02 3d3d 6861 913c a275 843d
00000160: 050a 6c3d 25f1 813d c197 e2bc af65 4ebd
00000170: c274 473d 6a5a 063d 3c18 37bd 0d31 9fbc
00000180: f465 b43c 30ac 36bd a263 1a3d 5078 c0bc
00000190: 87a5 15bd 6a3b 0ebd 03f6 853c 499e 72bd
000001a0: 8394 2ebe 4cb0 b0bd 2b58 91bd 29c7 0a3e
000001b0: e0c7 ee3c 677b 903d 5249 4dbd fbe8 3c3d
000001c0: 4d81 9e3d 880e 3f3d 072b 143e 7b30 7e3c
000001d0: 0e2f 3d3d 6cce 303d 4847 babc 026f b73c
000001e0: 5e27 85bc 8fa6 6bbd 1b3e 60bd ee78 683c
000001f0: 2706 4b3d c64e a63c eb32 033d 417e 10bc
00000200: fa24 323b ac1e 293c 7814 893d 936c 453c
00000210: db4f 0e3e e74a 9f3d 9ab5 a13d 1a8e c9bc
00000220: 9a59 16bd 7b8b 4bbe f457 c5bc aa4e 78bd
00000230: 8124 cebd 2839 2bbd e222 5dbd c7e9 ccbd
00000240: 11e0 033e e5bc e23d 386c 623d 5dc3 983c
00000250: a3ae 13bb 3e51 2ebc c903 34bc 72e5 863c
00000260: 330d 133e 75fa 2fbc 3f01 99bc bab4 17bd
00000270: f69f 203c 31a9 d03a e7e8 4fbd 2153 843d
00000280: 477a 833c 3faf c1bc bc41 f6bc 0a03 e5bb
00000290: 97e2 593c c22d 233d cb6c 1abc befc bdbc
000002a0: f3e2 933d fa17 493d 52b7 c93d d3c7 ca3c
000002b0: 93ef b5bb 28e1 8e3b d492 f539 23dc bdbc
000002c0: a9b2 b7bc 3eab f13d 7eda 9b3d 1a7c f03c
000002d0: acee d53d 1941 883d 4e2e b73a 2555 9f3b
000002e0: 0946 2d3d 6b41 723c 72fc 903d e78b c03d
000002f0: 53f7 fe3c 43a4 2cbd 9aa4 cb3c ce83 873d
00000300: 62d3 e23d e376 3e3d 43e1 4e3d 6fc1 163e
00000310: bc1a 9b3c fa38 c7bc c83f 3c3e 6cdb 323d
00000320: 35f8 433e 090c 983c c7d9 59bd 9882 d63c
00000330: 4c4b 78bd 2d10 053d 19df 5c3b 8c79 e73b
00000340: 48db 223c 45b3 b4bc 81e9 393d 3320 3b3d
00000350: 5ebd 4e3c 17b3 5d3d 62bc 75bc 87ba 963d
00000360: 3852 9cbc 9256 933d 292b 693d 65bd cd3d
00000370: e42c f13c 3813 2a3d 540d 033d 8db2 0cbd
00000380: c5b6 093d 52ae d7bb 3631 f13d 36da 4b3e
00000390: 7f7c b13c 5e2c 683d 4a17 8939 74c6 18be
000003a0: 827b d1bd de2f b2bd 999e d5bc 995f a03c
000003b0: c149 703c c527 cabc 0cfb 19bd 00c3 18bb
000003c0: f859 c03d 63db d03c da98 913c b980 25bd
000003d0: 6793 fd3b 7194 a5bd 2755 c5bd 8b1f 91bd
000003e0: 0858 b53d 0d5d bbbd 6c73 9ebd c0d2 aa3d
000003f0: 7145 61bc 9ac3 85bd befe 37bd a453 a73c

body.block1.conv.bias f4 [64]
0.017144222 -0.034990177 -0.012194496 -0.021243988 0.009618212 -0.022739379 0.029964263 -0.0154103525
0.041860756 0.0016454068 0.002513949 -0.017151548 0.018564934 -0.033197533 0.011389313 -0.032057576
0.030748174 0.015024213 0.022782387 -0.0017808826 -0.02876926 0.014874787 0.02072647 -0.010861227
-0.019452937 -0.04701111 -0.028646547 -0.03050162 -0.02546101 0.024026658 0.018347913 0.03974113
0.009299471 0.037419785 -0.002126395 -0.0047105043 0.03191789 -0.030094514 -0.012535072 0.039758112
0.03691044 -0.0243503 0.0060792537 0.011667042 0.011713168 0.032989975 -0.018276103 0.015695842
-0.0077091274 -0.02485461 0.021533167 0.04509693 -0.037734736 0.017559426 0.0024594273 0.023860887
-0.011359979 -0.0321964 -0.01772968 0.038665574 0.02605906 -0.031405985 0.029706886 0.0022249683
00000000: 0a72 8c3c dc51 0fbd 6ccb 47bc df07 aebc
00000010: b495 1d3c ef47 babc 9d77 f53c b47b 7cbc
00000020: 2f76 2b3d b1aa d73a 11c1 243b 6781 8cbc
00000030: 7d15 983c 23fa 07bd 3e9a 3a3c ce4e 03bd
00000040: 98e3 fb3c 1e28 763c 21a2 ba3c 816c e9ba
00000050: 83ad ebbc 61b5 733c 8fca a93c 4af3 31bc
00000060: c45b 9fbc b98e 40bd 2aac eabc 89de f9bc
00000070: 9c93 d0bc 8ed3 c43c 5d4e 963c 98c7 223d
00000080: cf5c 183c 7d45 193d fd5a 0bbb 935a 9abb
00000090: 55bc 023d c588 f6bc e75f 4dbc 67d9 223d
000000a0: 672f 173d 487a c7bc 7a34 c73b 1f27 3f3c
000000b0: 96e8 3f3c 7f20 073d c4b7 95bc 9194 803c
000000c0: d99c fcbb e59b cbbc 5366 b03c 8fb7 383d
000000d0: bd8f 1abd c9d8 8f3c 582e 213b e877 c33c
000000e0: 351f 3abc 5fe0 03bd d53d 91bc cb5f 1e3d
000000f0: cf79 d53c 90a3 00bd db5b f33c c6d0 113b

body.block1.norm.weight f4 [64]
0.95640403 0.9862297 0.85445184 0.78844464 0.95968413 0.9516809 0.6948692 0.9374677
0.93041056 0.9252425 0.8809331 0.95471483 1.0156374 1.0905188 0.8920746 0.9705137
1.0227978 0.93198407 0.91745317 0.8662089 1.0068635 1.0922394 1.0649037 1.028948
0.8995414 1.2052637 0.9422651 0.84499 1.074747 0.9545835 0.9570395 0.9430636
0.9154978 0.9734602 1.0151184 1.1208634 0.9710052 0.95067716 1.082587 0.8567745
1.1553184 0.8824458 1.0750765 0.7961442 0.9727081 1.0869677 0.98206437 0.9798785
0.9631961 0.99250233 1.0381818 1.1388795 0.8836025 0.914531 0.9683608 0.9559428
1.0520481 1.0125743 0.8096306 0.9113461 0.9916182 1.0088634 1.0365471 0.93780386
00000000: e5d6 743f 8d79 7c3f 5bbd 5a3f 82d7 493f
00000010: dcad 753f 5ca1 733f f3e2 313f e2fd 6f3f
00000020: 632f 6e3f b1dc 6c3f d584 613f 3168 743f
00000030: 6800 823f 1f96 8b3f 005f 643f 9673 783f
00000040: 0aeb 823f 8296 6e3f 36de 6a3f debf 5d3f
00000050: e7e0 803f 80ce 8b3f c44e 883f 91b4 833f
00000060: 5848 663f 1546 9a3f 4938 713f 4451 583f
00000070: 4f91 893f 965f 743f 8a00 753f 9e6c 713f
00000080: 105e 6a3f b034 793f 66ef 813f 7478 8f3f
00000090: cc93 783f 945f 733f 3692 8a3f 9355 5b3f
000000a0: 79e1 933f f8e7 613f 1b9c 893f 1bd0 4b3f
000000b0: 6603 793f c221 8b3f 9268 7b3f 51d9 7a3f
000000c0: 0594 763f a214 7e3f 24e3 843f cec6 913f
000000d0: c633 623f b41e 6a3f 7ee6 773f abb8 743f
000000e0: 83a9 863f 099c 813f f343 4f3f fa4d 693f
000000f0: b1da 7d3f 7022 813f 93ad 843f ea13 703f

body.block1.norm.bias f4 [64]
0.035164624 0.1576143 0.5612965 0.16580759 0.10809205 0.01326446 0.45231673 -0.06771063
-0.052731823 0.30745164 0.37478364 0.22215648 -0.28595698 0.10941883 0.3071777 0.24462144
-0.15678881 0.5292562 0.17754439 0.58249706 0.06537825 0.37834954 0.3935719 -0.099363804
0.08249019 0.17732045 -0.02842042 0.4013538 0.28495103 -0.3287265 0.18526326 0.23357251
0.25157022 0.16167581 -0.21883506 0.009017812 0.112259775 0.07990522 0.49049714 0.35638517
0.50403965 0.09839343 0.02816256 0.5219083 0.11534332 0.29460073 0.16981405 0.060544576
0.2220655 0.08892439 0.15874769 0.14329812 0.69127494 0.3773806 0.37268525 0.49866873
-0.036893904 -0.039660454 0.48306 0.5297011 0.37184438 -0.47067592 0.36104602 0.14060645
00000000: c808 103d a565 213e 21b1 0f3f 77c9 293e
00000010: 5d5f dd3d 2d53 593c 0f96 e73e dfab 8abd
00000020: 53fd 57bd 4d6a 9d3e a4e3 bf3e fd7c 633e
00000030: f468 92be fb16 e03d 6546 9d3e 0b7e 7a3e
00000040: 3f8d 20be 567d 073f 32ce 353e 871e 153f
00000050: 08e5 853d 08b7 c13e 4282 c93e 407f cbbd
00000060: 9ef0 a83d 7e93 353e f1d1 e8bc 3f7e cd3e
00000070: 1ae5 913e d74e a8be a7b5 3d3e a22d 6f3e
00000080: d0cd 803e 588e 253e 4c16 60be 72bf 133c
00000090: 74e8 e53d 59a5 a33d 7122 fb3e 1e78 b63e
000000a0: be08 013f 7f82 c93d 2bb5 e63c c89b 053f
000000b0: 1e39 ec3d e8d5 963e bce3 2d3e 97fd 773d
000000c0: 2365 633e fe1d b63d c18e 223e bebc 123e
000000d0: 65f7 303f 0838 c13e 9ad0 be3e 8251 ff3e
000000e0: 101e 17bd 0073 22bd a453 f73e 7e9a 073f
000000f0: 6362 be3e 6ffc f0be 06db b83e 23fb 0f3e

body.block1.norm.running_mean f4 [64]
0.83699983 1.2972136 1.6154667 1.1197014 0.3694239 0.5426286 1.5463574 0.65285736
-0.420066 -0.20625831 -0.6834367 2.7677052 -0.653594 1.905449 -0.72838557 0.21095161
-0.47702432 0.36872748 1.988461 0.1857118 -0.24980657 0.07588817 1.038009 -0.25298902
-0.3983273 -0.38266823 0.64982563 0.32216808 0.6091041 2.2905746 1.425409 1.0993088
0.25124365 0.32525572 -0.045773637 -3.0735695 -0.9843753 1.5532688 3.1742306 1.7888496
0.16892819 -0.15132551 -0.6151381 1.2220985 0.6798975 1.3898458 0.6032161 -0.8908189
-1.4624691 -0.34781528 -0.36670467 0.061868858 0.07131467 -0.91473293 -2.6260173 -1.0562243
1.1411918 0.44712237 1.0083836 -1.5609344 -0.40317374 3.2092056 -0.8810608 0.63324594
00000000: 9f45 563f 180b a63f 9dc7 ce3f 6052 8f3f
00000010: 2125 bd3e b5e9 0a3f 0aef c53f a921 273f
00000020: e412 d7be 6135 53be b5f5 2ebf 1522 3140
00000030: f051 27bf c1e5 f33f 7a77 3abf b303 583e
00000040: 883c f4be d9c9 bc3e e485 fe3f 3c2b 3e3e
00000050: 4bcd 7fbe 426b 9b3d 7bdd 843f c787 81be
00000060: 8ef1 cbbe 17ed c3be f95a 263f 37f3 a43e
00000070: 3fee 1b3f c698 1240 cd73 b63f 27b6 8c3f
00000080: 02a3 803e eb87 a63e 237d 3bbd 5db5 44c0
00000090: 0500 7cbf 83d1 c63f 9826 4b40 06f9 e43f
000000a0: 83fb 2c3e 13f5 1abe b179 1dbf b96d 9c3f
000000b0: c30d 2e3f 78e6 b13f 5f6c 1a3f b50c 64bf
000000c0: 3032 bbbf d814 b2be b7c0 bbbe 336a 7d3d
000000d0: 6d0d 923d f02b 6abf ab10 28c0 5c32 87bf
000000e0: 9312 923f 39ed e43e b712 813f b3cc c7bf
000000f0: ca6c cebe a063 4d40 338d 61bf 681c 223f

body.block1.norm.running_var f4 [64]
1.0780872 0.4250511 1.1559194 0.32293698 2.8029752 1.0831714 0.9979529 1.0203999
2.0384586 0.78557265 0.4061796 1.2205312 2.6229844 1.1943591 0.898454 0.4202668
1.8923745 1.707949 0.677372 0.6770028 1.2124687 1.6411439 1.3331807 0.40592062
0.883353 0.8004919 3.8949215 0.4472649 0.77524436 1.1883837 0.98104084 1.0131805
2.0801997 1.3901685 1.8487196 3.9972591 0.7096597 2.385065 0.9345391 0.93118346
1.67874 1.8268917 1.2119298 1.2055217 1.2447869 1.9112484 0.6743569 1.6689805
0.43617055 1.2643838 0.60932523 7.1477227 0.47181222 0.7766915 1.2312695 1.044846
1.5943294 0.98971325 1.0452513 1.34244 1.0714605 4.653694 0.9053411 2.0981967
00000000: c3fe 893f 4ca0 d93e 2bf5 933f ff57 a53e
00000010: f263 3340 5ca5 8a3f d779 7f3f 779c 823f
00000020: 1b76 0240 4a1b 493f c6f6 cf3e 5e3a 9c3f
00000030: fade 2740 c2e0 983f 1501 663f 362d d73e
00000040: 5439 f23f 139e da3f 4068 2d3f 0e50 2d3f
00000050: 2d32 9b3f 0111 d23f aaa5 aa3f d4d4 cf3e
00000060: 6c23 623f 0aed 4c3f 6546 7940 e8ff e43e
00000070: 6a76 463f f51c 983f 7e25 7b3f e6af 813f
00000080: fe21 0540 0bf1 b13f d8a2 ec3f 18d3 7f40
00000090: 42ac 353f e8a4 1840 f43d 6f3f 0a62 6e3f
000000a0: f4e0 d63f 96d7 e93f 8420 9b3f 894e 9a3f
000000b0: 2d55 9f3f caa3 f43f a7a2 2c3f 27a1 d53f
000000c0: bf51 df3e 54d7 a13f bdfc 1b3f 25ba e440
000000d0: 5f91 f13e 41d5 463f 3d9a 9d3f 84bd 853f
000000e0: fc12 cc3f d95d 7d3f cbca 853f 13d5 ab3f
000000f0: 9e25 893f 10eb 9440 6fc4 673f db48 0640

body.block2.conv.weight f4 [64, 64, 3, 3]
0.124986626 0.031987254 0.0112980865 0.12713899 -0.013114079 -0.038904093 0.08785486 -0.026421696
-0.121588945 0.0629079 0.023089796 -0.11655677 -0.05709457 -0.006101806 0.013265117 -0.13939804
-0.06855116 -0.016986717 -0.056105442 0.013054976 -0.051856868 -0.032631475 0.016897311 0.030562172
0.022693532 0.021132013 0.014744057 -0.057138547 -0.08550565 -0.13614821 -0.019717662 -0.04766437
-0.13303265 -0.016466776 -0.013576803 -0.09834611 0.07887329 0.13497335 0.08269926 0.08442666
0.08292922 0.14931811 0.080464356 0.0907855 0.06882612 -0.008783825 -0.004755494 -0.06786722
-0.038060356 -0.027751502 -0.11682007 -0.065317124 -0.056450065 -0.04169403 -0.15216525 -0.008004737
-0.062495306 -0.045354377 -0.06306434 -0.015852528 -0.046577107 -0.031762704 -0.0027463841 0.050837405
0.023455665 -0.05513885 0.038291898 0.026287727 0.04106946 -0.034240693 -0.028501073 0.008020458
0.020087793 0.030252663 0.065745026 0.0048609567 0.009733225 0.099082 0.017183887 0.047869775
0.127874 0.041663695 0.081202716 0.1784982 0.11494473 -0.024531024 0.1075926 0.04420783
0.041943613 0.18424885 -0.03813359 -0.031416938 -0.09031102 -0.015895039 -0.019605266 -0.04023284
-0.07493747 -0.067692935 -0.08541433 0.010800506 0.047604434 0.035940073 0.096441075 0.10864706
0.06478827 0.18300237 0.1321801 0.09901366 -0.07630984 -0.06603014 -0.087296404 0.0010403086
-0.025921462 -0.019997774 0.024279296 -0.010770701 0.021686135 -0.016880443 -0.028278703 0.003080362
-0.015781814 -0.040077865 -0.041071627 -0.07484077 0.040484376 -0.044079404 -0.027067902 0.055012245
0.012350548 0.059307743 0.035318915 0.0017120141 -0.0032516443 0.10885825 0.09391188 -0.034131486
-0.095127925 -0.20617984 -0.045581058 -0.055327926 -0.13253047 -0.01540172 0.03876731 -0.016010046
-0.036055345 -0.06629757 -0.07063455 -0.0737739 0.00088542595 -0.0066429256 0.05015504 -0.050467204
-0.007579683 -0.10654156 -0.11134455 -0.05510808 0.013194051 -0.04925856 -0.06762248 -0.02351298
-0.018023128 0.043957848 0.012868934 -0.04997413 0.012444591 -0.021752762 -0.02986064 0.05958715
0.09743041 0.044927914 0.1060671 -0.0058616786 0.06357565 -0.015751291 -0.0051863682 0.032970402
0.023044568 -0.089686625 -0.037142128 -0.045454595 0.058203835 0.01820253 -0.027018065 -0.0019134365
0.023759888 -0.040185265 0.08853156 0.1506565 0.062877804 0.023942724 0.035074864 -0.07999356
0.08220653 -0.0046933196 -0.109075956 0.045373295 -0.0007976232 -0.10281526 -0.026863657 -0.061956782
0.014649836 -0.05071604 -0.016214233 -0.034594484 -0.029032841 -0.033521377 0.0043252725 -0.01378753
-0.06739675 -0.09829792 0.04783064 0.03027396 -0.0018943868 0.13258433 0.13969027 0.069953784
0.067863956 0.090457104 0.01727996 0.074162535 -0.037725914 -0.047873173 0.024515374 -0.02792282
0.0691065 0.038591962 0.022992892 0.12411989 -0.050412983 0.01150025 0.014238066 0.007506039
0.05901784 0.09125065 -0.06504835 -0.029878158 -0.08200448 -0.00010750319 0.0077129863 -0.012226511
0.086995214 0.08536654 0.08225712 -0.025368998 0.04003452 -0.010837419 -0.009575263 -0.036915325
-0.037257705 -0.021629784 -0.04642799 0.062605575 -0.07518655 0.007040083 0.03224817 -0.07503255
00000000: fdf8 ff3d 1105 033d 9c1b 393c b930 023e
00000010: 6fdc 56bc e659 1fbd 40ed b33d 5072 d8bc
00000020: a003 f9bd dbd5 803d d026 bd3c 51b5 eebd
00000030: ffdb 69bd a9f1 c7bb ef55 593c 5cbe 0ebe
00000040: 8d64 8cbd ba27 8bbc d2ce 65bd 8ae4 553c
00000050: de67 54bd 95a8 05bd 3b6c 8a3c 855d fa3c
00000060: c9e7 b93c 0b1d ad3c 0f91 713c 1c0a 6abd
00000070: 961d afbd 706a 0bbe ef86 a1bc b73b 43bd
00000080: b639 08be 55e5 86bc 3d71 5ebc af69 c9bd
00000090: 5288 a13d 7436 0a3e 3b5e a93d e2e7 ac3d
000000a0: cbd6 a93d d9e6 183e 7fca a43d c0ed b93d
000000b0: b5f4 8c3d 08ea 0fbc fad3 9bbb f8fd 8abd
000000c0: 2de5 1bbd 1e57 e3bc 5c3f efbd fcc4 85bd
000000d0: 2f38 67bd 5cc7 2abd 35d1 1bbe 4d26 03bc
000000e0: 14fb 7fbd 83c5 39bd e027 81bd 29dd 81bc
000000f0: a3c7 3ebd 9c19 02bd aefc 33bb e23a 503d
00000100: 1826 c03c 46d9 61bd f7d7 1c3d 5c59 d73c
00000110: 7338 283d f83f 0cbd 157b e9bc 3d68 033c
00000120: 288f a43c 6fd4 f73c 54a5 863d a948 9f3b
00000130: 1b78 1f3c 81eb ca3d 39c5 8c3c 1913 443d
00000140: 67f1 023e 8da7 2a3d 9c4d a63d 3bc8 363e
00000150: 2568 eb3d 49f5 c8bc 8259 dc3d 4513 353d
00000160: 11cd 2b3d bbab 3c3e f831 1cbd 0caf 00bd
00000170: fcf4 b8bd 5036 82bc 399b a0bc 31cb 24bd
00000180: d178 99bd 98a2 8abd b5ed aebd 9bf4 303c
00000190: defc 423d e635 133d e682 c53d 5a82 de3d
000001a0: b6af 843d f964 3b3e 385a 073e acc7 ca3d
000001b0: 5548 9cbd cf3a 87bd 75c8 b2bd f75a 883a
000001c0: 3f59 d4bc 5fd2 a3bc 60e5 c63c 9877 30bc
000001d0: 1fa7 b13c db48 8abc bda8 e7bc e6df 493b
000001e0: dd48 81bc b028 24bd b93a 28bd 1e46 99bd
000001f0: f2d2 253d 9b8c 34bd 81bd ddbc 8554 613d
00000200: f459 4a3c adec 723d 91aa 103d a965 e03a
00000210: 8a19 55bb 13f1 de3d df54 c03d 75cd 0bbd
00000220: 6ed2 c2bd cf20 53be 34b3 3abd 899f 62bd
00000230: 11b6 07be 7f57 7cbc 79ca 1e3d 8027 83bc
00000240: c5ae 13bd 05c7 87bd d9a8 90bd c516 97bd
00000250: ee1b 683a e6ac d9bb 5f6f 4d3d b3b6 4ebd
00000260: fd5e f8bb 7632 dabd 9d08 e4bd 03b9 61bd
00000270: dc2b 583c 58c3 49bd a87d 8abd 4b9e c0bc
00000280: 3da5 93bc 250d 343d 39d8 523c acb1 4cbd
00000290: 66e4 4b3c d932 b2bc 4d9e f4bc a811 743d
000002a0: 9889 c73d 5506 383d b539 d93d 5313 c0bb
000002b0: f333 823d da08 81bc 69f2 a9bb f90b 073d
000002c0: f6c7 bc3c 9fad b7bd 5822 18bd 992e 3abd
000002d0: 2567 6e3d 791d 953c fd54 ddbc 46cc faba
000002e0: 19a4 c23c 4e99 24bd 0950 b53d b345 1a3e
000002f0: 14c6 803d 8823 c43c a9aa 0f3d aad3 a3bd
00000300: e65b a83d 6bca 99bb 3763 dfbd 59d9 393d
00000310: 9617 51ba cf90 d2bd 2c11 dcbc 65c6 7dbd
00000320: de05 703c 9fbb 4fbd b6d3 84bc f2b2 0dbd
00000330: 48d6 edbc b64d 09bd 04bb 8d3b 18e5 61bc
00000340: 4f07 8abd 6b50 c9bd 10ea 433d 1901 f83c
00000350: 134d f8ba 30c4 073e f70a 0f3e ee43 8f3d
00000360: 42fc 8a3d 9341 b93d b48e 8d3c 87e2 973d
00000370: 7d86 1abd a916 44bd 77d4 c83c 66be e4bc
00000380: b587 8d3d 9b12 1e3d 975b bc3c 9232 fe3d
00000390: d87d 4ebd 8b6b 3c3c c746 693c 38f5 f53b
000003a0: b1bc 713d 9fe1 ba3d 1238 85bd 0ac3 f4bc
000003b0: f7f1 a7bd 5673 e1b8 38bd fc3b b451 48bc
000003c0: 8c2a b23d a7d4 ae3d 6c76 a83d a5d2 cfbc
000003d0: 3dfb 233d 6e8f 31bc 90e1 1cbc 8634 17bd
000003e0: 899b 18bd f230 b1bc 472b 3ebd 5a37 803d
000003f0: 68fb 99bd 7fb0 e63b a816 043d aaaa 99bd

body.block2.conv.bias f4 [64]
-0.034925133 -0.039693307 0.03662087 -0.023432558 0.0030476386 -0.012148756 0.022143802 0.027354242
-0.008065136 0.027490586 -0.026848888 -0.018891346 0.040271163 0.030113341 -0.026133796 -0.03825066
-0.031121738 -0.019550515 0.005036241 -0.032846767 0.015958149 -0.026347447 0.0121216085 0.012138835
-0.0130165275 0.022193756 0.0051469677 -0.026691478 0.0017700394 0.023500027 -0.03167371 0.037278384
0.016277095 0.017140655 -0.015850801 0.04123211 0.0014958802 -0.0091405595 -0.030315753 -0.034150984
0.035667215 -0.027749367 0.013047886 -0.0058299047 -0.021390362 -0.04135088 0.007816482 -0.027015828
0.012507437 -0.0150455525 0.038502045 0.010889252 -0.03181958 -0.020221045 -0.012724165 0.007977275
0.009388684 0.020683033 0.027728591 0.032492556 -0.0097146705 0.0045542805 0.029389052 -0.013956956
00000000: a80d 0fbd 7395 22bd c4ff 153d a3f5 bfbc
00000010: e4ba 473b 930b 47bc eb66 b53c 0116 e03c
00000020: a223 04bc f033 e13c 33f2 dbbc 06c2 9abc
00000030: 60f3 243d 41b0 f63c 8b16 d6bc b9ac 1cbd
00000040: 04f3 febc 6728 a0bc 0d07 a53b 558a 06bd
00000050: aaba 823c 9ad6 d7bc b699 463c f7e1 463c
00000060: 4643 55bc aecf b53c e5a7 a83b 16a8 dabc
00000070: ab00 e83a 2183 c03c 4bbc 01bd 38b1 183d
00000080: 8b57 853c 8f6a 8c3c 8ad9 81bc 00e3 283d
00000090: 6911 c43a 49c2 15bc be58 f8bc e7e1 0bbd
000000a0: c917 123d a452 e3bc cdc6 553c c908 bfbb
000000b0: d73a afbc 8a5f 29bd b410 003c 4c50 ddbc
000000c0: feeb 4c3c 9f81 76bc 52b4 1d3d d568 323c
000000d0: 3f55 02bd 9ba6 a5bc 0479 50bc 1eb3 023c
000000e0: ffd2 193c 776f a93c 1227 e33c ea16 053d
000000f0: 482a 1fbc 133c 953b 4fc1 f03c b7ab 64bc

body.block2.norm.weight f4 [64]
0.8732525 1.0758926 0.8579287 1.0919387 0.9858793 0.93015236 0.75008297 1.0069892
0.9502124 1.0024123 0.9627821 1.0011456 0.9322763 0.9989418 0.96381825 0.8954863
0.9868738 1.0582454 0.9009795 0.96269625 1.0601028 0.971323 0.97709525 1.0650353
0.9886232 0.9390121 0.9782475 1.0323062 0.92810774 1.0003917 0.81329983 0.9927865
1.041074 0.9960235 0.9377599 0.8321846 1.0672423 0.82553095 1.0388101 0.94059294
1.1835929 0.89983934 0.9494453 0.8785761 0.96584105 0.8412543 0.9328787 1.0267656
1.0758066 0.91833323 0.9402996 1.0089928 0.9656136 0.9460612 0.84241927 1.0219746
0.88203245 0.9402797 0.9279819 0.93772244 0.9605826 0.94510585 0.979685 1.0021197
00000000: 7a8d 5f3f d9b6 893f 37a1 5b3f a6c4 8b3f
00000010: 9662 7c3f 771e 6e3f 7005 403f 06e5 803f
00000020: 1f41 733f 0c4f 803f e378 763f 8a25 803f
00000030: a9a9 6e3f a6ba 7f3f cbbc 763f 973e 653f
00000040: c3a3 7c3f 9674 873f 98a6 663f 4373 763f
00000050: 73b1 873f a0a8 783f ea22 7a3f 1453 883f
00000060: 6916 7d3f 1963 703f 6e6e 7a3f 9c22 843f
00000070: 7898 6d3f d60c 803f 6b34 503f 4227 7e3f
00000080: ea41 853f 65fb 7e3f 0811 703f 0d0a 553f
00000090: 659b 883f ff55 533f bbf7 843f b3ca 703f
000000a0: f97f 973f df5b 663f d90e 733f 5dea 603f
000000b0: 5c41 773f 715c 573f 23d1 6e3f 0e6d 833f
000000c0: 08b4 893f e317 6b3f 79b7 703f ad26 813f
000000d0: 7432 773f 1131 723f caa8 573f 10d0 823f
000000e0: e1cc 613f 2cb6 703f 3990 6d3f 940e 703f
000000f0: bee8 753f 75f2 713f a3cc 7a3f 7545 803f
