TrainedModels/trees3/scale_factor=0.750000,alpha=10/4/netG.pth (torch, 471451 bytes, 26 tensors)

head.conv.weight f4 [64, 3, 3, 3]
-0.019199084 -0.009745804 0.051420033 0.08080247 0.036560055 -0.026103793 -0.045819607 -0.0054494487
0.005985432 -0.040394053 0.012102167 0.014638626 0.04421585 0.023049712 -0.035339423 -0.11072978
0.011809915 -0.037115544 -0.0072675734 0.0060695633 0.009494064 0.057058252 -0.004112257 -0.008409152
0.021291303 -0.0074255113 0.014617916 0.03907576 -0.006768479 0.01915162 0.032842524 0.036965765
0.027147057 0.0048120217 0.030730363 0.03570117 -0.028905768 0.031429432 -0.030500479 -0.033404756
-0.012679428 -0.03398582 -0.089708135 0.0050095418 0.010906273 0.054178372 0.056082886 -0.0002312089
0.029949538 0.03129051 -0.02797092 0.008012263 0.031167965 0.039684437 0.01083349 0.036145072
-0.0760068 0.009795826 0.020665107 0.021071794 0.028583555 0.050473515 0.013575139 -0.04665471
-0.025621206 -0.05795011 -0.03507989 0.023411212 0.011720477 0.00030802528 0.011731097 -0.0027229618
-0.018331882 -0.06499229 -0.022612633 0.030746434 -0.026335394 0.05086273 0.043772597 -0.013701435
0.0048816367 -0.060542855 -0.026024943 0.01295678 -0.021656621 0.021705953 0.024064109 0.054472566
0.024620563 0.017240157 0.0017276476 0.018002475 0.023500886 -0.0025759528 0.009480664 -0.041389994
-0.015202767 -0.0051530492 -0.04864143 0.0059127756 -0.014963713 -0.05025797 0.01126666 -0.013691221
-0.0045974706 -0.0042276965 0.01408038 0.040399842 0.034489732 -0.07382709 -0.06094092 0.046017565
-0.0118339 0.0095950905 -0.053071816 0.040297747 -0.004101295 -0.043802638 -0.0144445365 -0.03266672
-0.047679618 -0.033104166 -0.022726884 0.0044161035 -0.0071449094 -0.009505928 0.07868028 0.030432476
0.009014039 0.021999156 -0.042689428 0.004594514 0.040187713 0.067137204 0.018582718 -0.02083951
-0.019348223 -0.07784158 0.016209178 0.021209072 -0.035939977 0.027497645 0.03228812 -0.06435721
-0.044312146 -0.01175172 -0.041367657 0.0033212057 0.027858041 -0.031499468 -0.03846665 0.0091631105
-0.0065700323 -0.02482098 -0.0034077074 -0.0041020215 -0.020155298 -0.016091712 0.008726692 -0.029419757
-0.042313907 -0.04799895 0.008556818 -0.024185933 -0.00427941 -0.01945947 -0.033043683 -0.019019263
0.0029723796 0.0033283713 -0.004590703 0.031112276 -0.0019325365 -0.012098992 -0.009767389 0.020848405
-0.025928669 0.052130535 0.056556698 0.03310483 0.0087436335 0.04613656 0.02886663 -0.038568288
-0.03196434 -0.017485073 0.018424595 0.0075369403 0.0018256791 -0.038056016 0.016980298 0.020004764
0.004583973 0.0070731747 0.0052538724 -0.014433177 0.0051666093 -0.01998067 0.0070681446 -0.024108525
0.024919478 -0.042608313 -0.004532461 0.023452355 -0.07060578 -0.10912603 -0.015130735 0.043512218
0.0033521273 0.040164467 0.049622957 0.0138678765 0.00917583 -0.007526969 -0.076525666 -0.010337674
-0.04796828 0.00994835 0.0728747 0.05303614 -0.0072431993 0.03555067 -0.04072352 -0.053778306
-0.00651251 -0.0401748 0.022336181 -0.029340591 0.0029180066 0.022598108 0.01790903 0.02012858
-0.010214949 0.046609532 0.00049257884 -0.04379309 -0.061586186 -0.001497528 -0.043776467 -0.0253733
0.0781166 -0.010788949 0.03698455 0.029220678 -0.033244353 -0.0018862139 0.0033026556 -0.010581961
0.01008604 -0.04574159 -0.001481715 0.03692773 0.052022982 -0.04146404 0.08520204 -0.0008195574
00000000: 6647 9dbc ddac 1fbc d09d 523d c47b a53d
00000010: ffbf 153d 9fd7 d5bc 57ad 3bbd 4a91 b2bb
00000020: 7121 c43b 3c74 25bd 2b48 463c d9d6 6f3c
00000030: ae1b 353d c0d2 bc3c 12c0 10bd 4bc6 e2bd
00000040: 607e 413c 7806 18bd d324 eebb 30e3 c63b
00000050: fe8c 1b3c eab5 693d 1dc0 86bb 8ac6 09bc
00000060: 196b ae3c b451 f3bb fc7f 6f3c e70d 203d
00000070: 1eca ddbb dce3 9c3c e285 063d 6a69 173d
00000080: 8163 de3c 2aae 9d3b 3ebe fb3c 643b 123d
00000090: cacb ecbc 26bc 003d 24dc f9bc 6dd3 08bd
000000a0: 60bd 4fbc b734 0bbd e6b8 b7bd 1527 a43b
000000b0: 39b0 323c 24ea 5d3d 2bb7 653d ab70 72b9
000000c0: bc58 f53c 7a2a 003d 4523 e5bc de45 033c
000000d0: f653 ff3c 268c 223d f37e 313c db0c 143d
000000e0: 74a9 9bbd ac7e 203c df49 a93c c19e ac3c
000000f0: 0f28 ea3c 51bd 4e3d 436a 5e3c 0219 3fbd
00000100: 90e3 d1bc 185d 6dbd eeaf 0fbd dfc8 bf3c
00000110: 3e07 403c 747e a139 c933 403c b873 32bb
00000120: be2c 96bc ae1a 85bd 213e b9bc f2df fb3c
00000130: 53bd d7bc 7055 503d e54a 333d fc7b 60bc
00000140: 23f6 9f3b c9fb 77bd 4332 d5bc ad48 543c
00000150: 3a69 b1bc afd0 b13c 1822 c53c a01e 5f3d
00000160: 10b1 c93c 3b3b 8d3c 3c72 e23a ed79 933c
00000170: ee84 c03c 51d1 28bb c954 1b3c 8e88 29bd
00000180: 0715 79bc e9da a8bb 3c3c 47bd f5bf c13b
00000190: 5c2a 75bc 4ddb 4dbd cc97 383c 2551 60bc
000001a0: 61a6 96bb 7d88 8abb 65b1 663c 4e7a 253d
000001b0: 1b45 0d3d a832 97bd 309d 79bd ea7c 3c3d
000001c0: f9e2 41bc ba34 1d3c d561 59bd 400f 253d
000001d0: 2864 86bb 656a 33bd c7a8 6cbc 8acd 05bd
000001e0: b44b 43bd 3c98 07bd bb2d babc f6b4 903b
000001f0: d81f eabb c0be 1bbc 2023 a13d 874d f93c
00000200: 9faf 133c 9337 b43c 1cdb 2ebd 948d 963b
00000210: df9b 243d 3b7f 893d c93a 983c 9fb7 aabc
00000220: 2a80 9ebc 686b 9fbd 1cc9 843c a6be ad3c
00000230: cc35 13bd be42 e13c 8c40 043d b7cd 83bd
00000240: a780 35bd 498a 40bc 2271 29bd 96a8 593b
00000250: 8c36 e43c 9605 01bd 358f 1dbd df20 163c
00000260: 6d49 d7bb 5e55 cbbc d853 5fbb 406a 86bb
00000270: b91c a5bc c4d2 83bc 66fa 0e3c b401 f1bc
00000280: 5951 2dbd 8c9a 44bd e531 0c3c 9421 c6bc
00000290: 4b3a 8cbb 7769 9fbc d058 07bd 49ce 9bbc
000002a0: 41cc 423b ce20 5a3b 9c6d 96bb 2cdf fe3c
000002b0: 2a4d fdba da3a 46bc 6607 20bc 46ca aa3c
000002c0: 5c68 d4bc d486 553d ffa7 673d ee98 073d
000002d0: 7541 0f3c b1f9 3c3d b679 ec3c c8f9 1dbd
000002e0: 0aed 02bd db3c 8fbc 2def 963c 70f8 f63b
000002f0: a04b ef3a a0e0 1bbd 441a 8b3c 08e1 a33c
00000300: 2735 963b 17c6 e73b ad28 ac3b 2279 6cbc
00000310: a94c a93b 81ae a3bc e59b e73b 3e7f c5bc
00000320: ef23 cc3c 0e86 2ebd 0a85 94bb 271f c03c
00000330: c399 90bd 787d dfbd e7e6 77bc de39 323d
00000340: 5daf 5b3b 7f83 243d 7141 4b3d 1736 633c
00000350: 3856 163c cba4 f6bb 7db9 9cbd 595f 29bc
00000360: 637a 44bd 67fe 223c 553f 953d 6c3c 593d
00000370: 5c58 edbb 949d 113d b5cd 26bd a446 5cbd
00000380: e566 d5bb 558e 24bd 5efa b63c ae5b f0bc
00000390: 073c 3f3b ab1f b93c f5b5 923c b1e4 a43c
000003a0: 9a5c 27bc a3e9 3e3d 6820 013a 6260 33bd
000003b0: cc41 7cbd b448 c4ba f44e 33bd abdb cfbc
000003c0: 99fb 9f3d 22c4 30bc 1d7d 173d 3460 ef3c
000003d0: 3b2b 08bd d63a f7ba 5e71 583b f65f 2dbc
000003e0: eb3f 253c 895b 3bbd 1b36 c2ba 8841 173d
000003f0: 0d16 553d 32d6 29bd 687e ae3d 91d7 56ba

head.conv.bias f4 [64]
-0.053258087 0.10856805 0.17131689 0.16305336 -0.11639382 0.101650186 -0.14340304 0.14622715
0.17461775 0.030339014 -0.047738176 -0.038724806 0.15569238 -0.07091756 -0.067484014 -0.076918416
-0.13894793 -0.14892775 0.1377685 0.07944852 0.06593822 0.16327463 0.02911763 -0.056016285
-0.14617278 -0.17824107 -0.07220911 -0.13368674 0.088245004 0.080376156 0.024855923 0.055403855
0.08523364 0.15054524 0.10680778 0.11175804 -0.1801821 0.120384246 0.057884987 0.0561824
0.02489497 -0.10241782 -0.037857454 0.081362545 -0.053477142 0.15190557 -0.12137182 -0.2359349
0.15559039 0.053581227 -0.17337237 -0.15137184 -0.10518668 0.14964202 0.19922806 -0.037674215
-0.14578955 0.10343044 0.082654774 -0.006652033 0.019877285 0.028266994 0.026333546 0.086024284
00000000: 2725 5abd ed58 de3d b26d 2f3e 76f7 263e
00000010: e25f eebd f92d d03d 3fd8 12be 92bc 153e
00000020: ffce 323e 8689 f83c 1b89 43bd e79d 1ebd
00000030: d36d 1f3e 3a3d 91bd 0f35 8abd 6787 9dbd
00000040: 5e48 0ebe 8480 18be 3013 0d3e e8b5 a23d
00000050: 9e0a 873d 7731 273e 1988 ee3c 5571 65bd
00000060: 51ae 15be d484 36be 5fe2 93bd 2de5 08be
00000070: ccb9 b43d 419c a43d a69e cb3c 27ef 623d
00000080: fa8e ae3d 8828 1a3e 0abe da3d 66e1 e43d
00000090: a881 38be 048c f63d cf18 6d3d 841f 663d
000000a0: 89f0 cb3c 6fc0 d1bd 6b10 1bbd 68a1 a63d
000000b0: d90a 5bbd 228d 1b3e ca91 f8bd eb98 71be
000000c0: 1653 1f3e fd77 5b3d 8788 31be 3801 1bbe
000000d0: 1d6c d7bd c23b 193e 7102 4c3e 4750 1abd
000000e0: db49 15be 57d3 d33d e846 a93d 4cf9 d9bb
000000f0: b0d5 a23c 2f90 e73c 73b9 d73c 802d b03d

head.norm.weight f4 [64]
1.0526832 0.9589264 1.0831819 0.97030526 1.0414112 1.006149 0.86959803 1.0032612
1.0757918 1.0134916 0.99082255 0.97871333 1.058183 1.1252706 1.1507316 1.0320479
0.87792146 0.9774156 0.984789 0.971049 0.97518873 0.91418076 0.93803144 1.0648756
0.9766272 0.985505 1.0676781 1.0578291 0.89291716 0.9947633 1.0741584 0.9294008
0.9114221 1.0660414 1.0223054 1.0397259 1.0105933 1.046222 1.0946444 1.0830384
0.92030114 0.9324022 0.92093533 0.88237935 0.9106393 1.0024805 0.9685801 0.99834216
1.0569606 0.88940287 1.1094322 0.96345234 1.0602274 0.9155742 1.0427488 0.92184585
0.94908464 0.99788684 0.9021353 0.91956276 1.0174692 1.0700597 1.0511539 0.9521012
00000000: 53be 863f 337c 753f b4a5 8a3f ed65 783f
00000010: f64c 853f 7ec9 803f fa9d 5e3f dd6a 803f
00000020: 8cb3 893f 18ba 813f 8ca6 7d3f f58c 7a3f
00000030: 8a72 873f de08 903f 2c4b 933f 251a 843f
00000040: 76bf 603f e937 7a3f 221b 7c3f ab96 783f
00000050: f8a5 793f c007 6a3f d422 703f d84d 883f
00000060: 3d04 7a3f 0e4a 7c3f ada9 883f f266 873f
00000070: 3896 643f cfa8 7e3f 067e 893f 36ed 6d3f
00000080: f552 693f 0b74 883f e7da 823f bd15 853f
00000090: 1f5b 813f 9aea 853f 4f1d 8c3f 01a1 8a3f
000000a0: db98 6b3f e9b1 6e3f 6bc2 6b3f 9de3 613f
000000b0: a81f 693f 4851 803f def4 773f 5a93 7f3f
000000c0: 7c4a 873f e8af 633f e001 8e3f d0a4 763f
000000d0: 88b5 873f 1263 6a3f cb78 853f 17fe 6b3f
000000e0: 36f7 723f 8375 7f3f 57f2 663f 7768 6b3f
000000f0: 6e3c 823f b7f7 883f 368c 863f e7bc 733f

head.norm.bias f4 [64]
-0.019194024 -0.14509165 -0.059645202 -0.087275825 -0.054574814 -0.05563932 -0.15346447 -0.14795984
-0.11421669 -0.1794743 -0.060584627 0.021284934 -0.09197085 -0.1546055 -0.20473716 -0.10203073
-0.2036198 -0.08036194 -0.17160782 -0.13178855 -0.07476025 -0.10267136 -0.10710205 -0.15591101
-0.09311662 -0.08722164 -0.1736247 -0.13874438 -0.11799166 -0.15779488 -0.08196713 -0.13345483
-0.21047388 -0.2215276 -0.12231055 -0.15734462 -0.023911502 -0.043038197 -0.05753191 -0.06260346
-0.21405439 -0.11174732 -0.10524691 -0.085200235 -0.22250593 -0.059298422 -0.14263998 -0.14556652
-0.024698108 -0.17796756 -0.1934475 -0.25212276 0.021027658 -0.17855033 -0.039860655 -0.13189097
-0.19335237 -0.04373817 -0.1253495 -0.147431 -0.15653035 -0.15637864 0.02275984 -0.038234793
00000000: c93c 9dbc e892 14be 874e 74bd abbd b2bd
00000010: d789 5fbd 0ee6 63bd ca25 1dbe c982 17be
00000020: 71ea e9bd 1cc8 37be 9627 78bd be5d ae3c
00000030: 375b bcbd e750 1ebe 9ea6 51be 7df5 d0bd
00000040: b581 50be cd94 a4bd f6b9 2fbe 94f3 06be
00000050: e71b 99bd 5d45 d2bd 5258 dbbd 23a7 1fbe
00000060: edb3 bebd 42a1 b2bd acca 31be 0213 0ebe
00000070: 9da5 f1bd fb94 21be 62de a7bd 62a8 08be
00000080: 7786 57be 22d8 62be f47d fabd f31e 21be
00000090: 0ee2 c3bc d248 30bd 94a6 6bbd 3e36 80bd
000000a0: 1331 5bbe c7db e4bd b18b d7bd 767d aebd
000000b0: 98d8 63be e7e2 72bd 3710 12be 640f 15be
000000c0: b053 cabc 213d 36be 1a17 46be 3c16 81be
000000d0: 3242 ac3c e6d5 36be ed44 23bd 6d0e 07be
000000e0: 2afe 45be cc26 33bd 9f5b 00be 27f8 16be
000000f0: 7e49 20be b921 20be d872 ba3c 169c 1cbd

head.norm.running_mean f4 [64]
-0.0518925 0.06630561 0.23564081 0.19910088 -0.18810551 0.2397273 -0.21702622 0.17855364
0.20011906 0.11140279 -0.044741232 0.015054876 0.17735879 -0.06950861 -0.077758946 0.0508483
-0.25321186 -0.15064323 0.097790115 0.072432525 0.04054562 0.11905715 0.03686634 0.04762054
-0.24846825 -0.13322489 -0.03249704 -0.14731129 0.051700246 0.10080303 0.11053455 -0.060272515
-0.08181367 0.14750355 0.231006 0.099541225 -0.21485618 0.12530595 0.02759339 0.06445173
-0.20713525 -0.083687395 0.010848197 -0.03080598 -0.40547943 0.04362077 -0.064111605 -0.18790601
0.14754216 -0.0006454261 -0.17695867 -0.05631502 -0.10311946 0.025106225 0.21595028 -0.052206237
-0.14353116 0.124827795 0.09695624 -0.07276946 0.02957276 0.06744996 -0.0068951766 0.040650938
00000000: 3b8d 54bd 3ccb 873d d34b 713e 1ae1 4b3e
00000010: bb9e 40be 137b 753e 1f3c 5ebe c4d6 363e
00000020: 03ec 4c3e 2527 e43d 9542 37bd baa8 763c
00000030: 8b9d 353e 885a 8ebd 1540 9fbd 4f46 503d
00000040: fca4 81be 3842 1abe 2f46 c83d 8157 943d
00000050: 2a13 263d 3cd4 f33d 2901 173d c10d 433d
00000060: 766e 7ebe 1b6c 08be 9e1b 05bd c5d8 16be
00000070: a3c3 533d d271 ce3d f05f e23d 50e0 76bd
00000080: ed8d a7bd 2c0b 173e d68c 6c3e 45dc cb3d
00000090: 4203 5cbe 3450 003e 880b e23c 45ff 833d
000000a0: 431b 54be 4c64 abbd a3bc 313c d35c fcbc
000000b0: 009b cfbe b1ab 323d f24c 83bd 6f6a 40be
000000c0: 4b15 173e d031 29ba a734 35be 94aa 66bd
000000d0: 4c30 d3bd 92ab cd3c 1222 5d3e 35d6 55bd
000000e0: d5f9 12be b7a5 ff3d fe90 c63d 2808 95bd
000000f0: 9342 f23c 3423 8a3d eff0 e1bb 9981 263d

head.norm.running_var f4 [64]
0.0005792775 0.005437149 0.0026803636 0.0008072027 0.0032163316 0.019677656 0.0023042073 0.0049852
0.0014206057 0.002851637 0.0012432109 0.002644292 0.0032587862 0.0009006491 0.0005039331 0.0049339836
0.006888802 0.0022362524 0.0012793151 0.013296366 0.003728592 0.0016182475 0.000919896 0.0041582515
0.0056015127 0.004475074 0.0023782752 0.0004401467 0.0043426375 0.0056784083 0.003309013 0.004376263
0.018204222 0.00067101076 0.006900092 0.00047302287 0.0015782237 0.0012676462 0.0018403145 0.0007631424
0.023984538 0.016773662 0.0033779459 0.025009854 0.054875623 0.0066038803 0.0019131426 0.0017666867
0.001286166 0.0019830656 0.0013765676 0.0043384507 0.0011496625 0.010991729 0.0017260464 0.0010058953
0.0023296825 0.0005913385 0.006256791 0.005929551 0.0040567885 0.0013515397 0.0018495014 0.0015807775
00000000: a8da 173a 1d2a b23b 0aa9 2f3b 759a 533a
00000010: 17c9 523b 0933 a13c 2f02 173b e35a a33b
00000020: 9e33 ba3a 88e2 3a3b 3cf3 a23a dc4b 2d3b
00000030: 5c91 553b 8a19 6c3a 611a 043a 41ad a13b
00000040: 76bb e13b 178e 123b b1ae a73a 00d9 593c
00000050: 655b 743b 601b d43a 2d25 713a f141 883b
00000060: e58c b73b a4a3 923b d6dc 1b3b 7dc3 e639
00000070: af4c 8e3b f111 ba3b 07dc 583b c166 8f3b
00000080: 0521 953c c5e6 2f3a 2b1a e23b 0e00 f839
00000090: 66dc ce3a 2627 a63a b536 f13a 9f0d 483a
000000a0: 397b c43c eb68 893c 8760 5d3b 77e1 cc3c
000000b0: 43c5 603d 5d65 d83b 6ac2 fa3a 2b90 e73a
000000c0: 9294 a83a 52f6 013b f26d b43a 9029 8e3b
000000d0: 46b0 963a a716 343c 823c e23a 3fd8 833a
000000e0: 96ad 183b 0e04 1b3a c405 cd3b ae4c c23b
000000f0: cfee 843b 2626 b13a f86a f23a 1732 cf3a

body.block1.conv.weight f4 [64, 64, 3, 3]
-0.0054892837 0.026874494 0.008289011 0.010240838 0.04941311 0.05370433 0.026625047 0.0671469
0.048153456 -0.013509824 -0.0038267684 0.002905548 -0.013237432 -0.014276791 0.017765075 0.02965176
-0.0052341204 -0.01731327 0.077575594 0.009174982 0.047861837 0.07019634 0.040575974 0.050811436
0.008562116 -0.019824097 0.037890848 0.080709636 -0.020750465 -0.00391056 0.053406853 0.008882645
0.03139141 -0.02594743 -0.011392755 0.012607983 0.008814363 0.008604901 -0.022264648 -0.09990281
0.02050162 0.0082514845 -0.0068365894 -0.013429128 0.0023886294 0.03533971 0.04789957 0.008022381
0.044146594 0.020498946 0.028783994 0.013805649 -0.021272857 0.040661376 0.041285247 0.018845523
-0.0074297525 0.0010148115 0.020243479 0.024487097 0.017677959 0.016549736 0.025355667 -0.027452223
-0.039418504 0.06626478 0.02786072 0.044650547 0.0058995057 0.089996085 0.043629803 0.01712618
0.053097393 0.015655681 -0.034776565 -0.0024689594 -0.0004527267 0.021501385 -0.02228268 0.0004427778
0.020193018 0.010012485 0.00030718127 0.039260093 -0.0059678396 0.0013724485 -0.010799144 0.0036724801
0.009657209 0.010341219 0.08701882 0.011229672 0.024821676 0.06395856 -0.008075117 -0.04702216
-0.01930926 0.060711153 0.006267753 0.007382456 0.03087219 -0.0005599651 0.02939558 0.036859483
-0.010217836 0.022437992 -0.0006029227 0.0052126753 -0.00894682 0.009742828 -0.01949755 0.050201453
-0.020681573 -0.019767445 -0.010390539 0.016741825 -0.010255346 -0.09053492 0.008888292 -0.027778033
0.0018696481 0.0027366972 -0.0015135433 0.061450716 0.032804765 -0.00846479 -0.03537219 -0.021470802
-0.03809375 0.022767656 -0.017484399 -0.0431136 -0.052885707 -0.060328007 -0.004758959 -0.020794017
0.023309033 -0.0062640915 -0.014322589 0.029508198 -0.019086877 -0.012562619 -0.02190391 -0.0148602985
0.011639973 0.0039453334 0.0269823 -0.0068053543 -0.008362223 -0.0038090544 0.032521296 -0.0057385196
-0.00042217984 0.043923832 -0.012138475 0.0021631478 0.059170283 0.014451007 0.039564405 0.031199766
0.022253403 0.011270835 0.06711891 0.054415915 0.029822957 0.07103206 -0.013155496 -0.06539344
0.034811355 -0.017399568 -0.038774658 -0.024692345 -0.038748298 0.040210012 -0.0048423577 -0.0038501236
-0.0069911634 -0.015274568 -0.0073735393 0.035400268 -0.006624894 -0.00464292 0.028030347 0.00277762
0.03137053 0.030435264 -0.008546403 -0.04275372 -0.0039037336 -0.014631472 0.026520932 -0.0036385264
-0.00932145 -0.005972419 0.0027545602 0.019958036 0.04030915 -0.0050832047 0.028112262 0.0065406803
-0.00858614 -0.0046479315 -0.04518626 0.01847969 0.019775327 -0.05495527 0.053184077 0.06295474
0.077548906 0.017895909 0.011180899 -0.01646772 0.016402308 -0.011577143 0.032412108 -1.5346364e-05
0.010620062 -0.0300553 -0.00371557 0.004954808 -0.018975317 0.029609507 -0.07071594 -0.01698029
0.03386901 0.05052929 -0.0069136717 0.00308017 -0.013110373 0.0440992 0.051940773 0.055022728
-0.0026502467 0.06429535 0.0069158114 0.032480102 -0.01593676 -0.015136468 -0.0020961084 -0.007154343
-0.017791115 0.0024617543 0.03987325 -0.018668769 0.07115184 -0.013216847 -0.02942424 0.0058619347
-0.0008521714 -0.022060957 -0.08967497 -0.0077366414 -0.012420427 0.024402708 0.01122296 -0.022775877
00000000: 73df b3bb e627 dc3c a2ce 073c 30c9 273c
00000010: 6765 4a3d 12f9 5b3d c51c da3c 5084 893d
00000020: 8f3c 453d 4f58 5dbc 85ca 7abb 026b 3e3b
00000030: d0e1 58bc 34e9 69bc 1088 913c 3fe8 f23c
00000040: fc82 abbb 8fd4 8dbc f4df 9e3d aa52 163c
00000050: c60a 443d 19c3 8f3d fe32 263d a71f 503d
00000060: 1e48 0c3c 2566 a2bc 6f33 1b3d 184b a53d
00000070: e1fc a9bc 2824 80bb 25c1 5a3d 8388 113c
00000080: 4794 003d b48f d4bc aea8 3abc b791 4e3c
00000090: 1e6a 103c 92fb 0c3c 5a64 b6bc d899 ccbd
000000a0: 03f3 a73c 3c31 073c 7805 e0bb d805 5cbc
000000b0: 8d8a 1c3b 5fc0 103d 5732 443d 4e70 033c
000000c0: 0fd3 343d 68ed a73c 69cc eb3c 1731 623c
000000d0: 6a44 aebc 8b8c 263d b81a 293d ed61 9a3c
000000e0: 4875 f3bb 6c03 853a a7d5 a53c 2a99 c83c
000000f0: 5ed1 903c 5093 873c b0b6 cf3c 7ce3 e0bc
00000100: 4c75 21bd d4b5 873d 2a3c e43c 7ee3 363d
00000110: a450 c13b de4f b83d 2ab5 323d 344c 8c3c
00000120: a77c 593d 5840 803c df71 0ebd 44ce 21bb
00000130: f35b edb9 ac23 b03c 2b8a b6bc a124 e839
00000140: d46b a53c 680b 243c 2c0d a139 31cf 203d
00000150: de8d c3bb bbe3 b33a e5ee 30bc fead 703b
00000160: 4539 1e3c 376e 293c ec36 b23d a8fc 373c
00000170: d456 cb3c b5fc 823d 7f4d 04bc 4f9a 40bd
00000180: 742e 9ebc 42ac 783d b961 cd3b 88e8 f13b
00000190: ade7 fc3c 9fca 12ba 00cf f03c f8f9 163d
000001a0: b668 27bc e1cf b73c 750d 1eba 17cf aa3b
000001b0: af95 12bc 62a0 1f3c 53b9 9fbc 0aa0 4d3d
000001c0: 676c a9bc 56ef a1bc 143d 2abc 2726 893c
000001d0: 0a06 28bc 5f6a b9bd 33a0 113c c28e e3bc
000001e0: fb0e f53a 295a 333b 1662 c6ba bfb3 7b3d
000001f0: 4a5e 063d e7af 0abc 6ee2 10bd 89e3 afbc
00000200: 3108 1cbd 3c83 ba3c 713b 8fbc e397 30bd
00000210: af9e 58bd 801a 77bd 0bf1 9bbb 3758 aabc
00000220: 96f2 be3c 0243 cdbb 4ba9 6abc 2dbb f13c
00000230: 155c 9cbc 71d3 4dbc d46f b3bc 9c78 73bc
00000240: 96b5 3e3c db47 813b fc09 dd3c 73ff debb
00000250: b501 09bc 54a1 79bb 0d35 053d 310a bcbb
00000260: 0558 ddb9 7ae9 333d 74e0 46bc 99c3 0d3b
00000270: 8a5c 723d ebc3 6c3c 490e 223d a796 ff3c
00000280: c54c b63c 4fa9 383c a475 893d 39e3 5e3d
00000290: 464f f43c 4279 913d 268a 57bc ffec 85bd
000002a0: 5a96 0e3d 8a89 8ebc 2dd2 1ebd 9a47 cabc
000002b0: 89b6 1ebd 41b3 243d a4ac 9ebb 5b52 7cbb
000002c0: 2116 e5bb 2f42 7abc bb9d f1bb dfff 103d
000002d0: a415 d9bb a323 98bb e69f e53c bb08 363b
000002e0: 637e 003d 6053 f93c 3606 0cbc 861e 2fbd
000002f0: c8d5 7fbb d7b8 6fbc 6d42 d93c 5874 6ebb
00000300: ffb8 18bc 48b4 c3bb da85 343b 097f a33c
00000310: 351b 253d 0391 a6bb b04b e63c 3453 d63b
00000320: e2ac 0cbc ad4d 98bb 3a15 39bd b862 973c
00000330: deff a13c c718 61bd 8cd7 593d 6aee 803d
00000340: f6d1 9e3d 719a 923c 1730 373c 50e7 86bc
00000350: 225e 863c 0fae 3dbc 8fc2 043d 11bc 80b7
00000360: c5ff 2d3c 8836 f6bc ec80 73bb f15b a23b
00000370: 2072 9bbc a38f f23c 85d3 90bd 401a 8bbc
00000380: 3bba 0a3d cdf7 4e3d 158c e2bb addc 493b
00000390: e4cc 56bc 5da1 343d d9bf 543d 835f 613d
000003a0: c3af 2dbb 48ad 833d 089e e23b db09 053d
000003b0: cf8d 82bc f3fe 77bc dd5e 09bb fb6e eabb
000003c0: acbe 91bc 6255 213b 2252 233d 3fef 98bc
000003d0: 0eb8 913d 798b 58bc 1b0b f1bc 7915 c03b
000003e0: 4164 5fba 2eb9 b4bc 83a7 b7bd a783 fdbb
000003f0: 0c7f 4bbc 30e8 c73c 82e0 373c 7a94 babc

body.block1.conv.bias f4 [64]
-0.035796262 0.0010258916 -0.019397004 0.011783834 0.016248949 0.013200269 0.03944661 -0.029438373
0.015729312 -0.02272531 0.01691054 -0.031630483 -0.039777823 -0.011925038 -0.031671908 0.002034791
0.037465695 0.009604371 0.00016766068 0.0072153104 -0.027848884 0.017478863 -0.009603579 -0.031149473
0.023322139 -0.017271955 -0.017098114 0.0046755956 0.024857968 0.02181277 -0.0017499079 0.033849243
-0.005506261 0.007726305 0.042942103 0.03737182 0.0035931 0.025644485 -0.01872884 -0.032298952
-0.03093669 0.031224044 0.0034202074 -0.044022348 -0.027294084 0.005830714 0.035813242 -0.03058752
-0.011512513 -0.030041914 -0.028163346 -0.0043894337 -0.02424788 0.025908943 0.023229333 -0.004537569
-0.021514807 -0.015981503 0.0020965103 0.014777963 -0.026731623 0.023897266 0.027811343 -0.026351122
00000000: 1a9f 12bd 3677 863a 77e6 9ebc fb10 413c
00000010: 841c 853c f145 583c c592 213d be28 f1bc
00000020: c2da 803c 6e2a babc f987 8a3c f78e 01bd
00000030: 12ee 22bd 3c61 43bc 67ba 01bd 215a 053b
00000040: a175 193d a75b 1d3c 12ce 2f39 696e ec3b
00000050: 5823 e4bc d52f 8f3c 5458 1dbc 2e2d ffbc
00000060: 120e bf3c ea7d 8dbc 5811 8cbc bd35 993b
00000070: f0a2 cb3c b2b0 b23c 2a5d e5ba 81a5 0a3d
00000080: dd6d b4bb f22c fd3b 0fe4 2f3d 3213 193d
00000090: 377a 6b3b 6214 d23c 396d 99bc e84b 04bd
000000a0: f16e fdbc 91c9 ff3c 8f25 603b c750 34bd
000000b0: d897 dfbc 930f bf3b e8b0 123d ae92 fabc
000000c0: fb9e 3cbc 761a f6bc d1b6 e6bc 3dd5 8fbb
000000d0: 7da3 c6bc fe3e d43c 714b be3c e3af 94bb
000000e0: d23f b0bc a4eb 82bc 9b65 093b 451f 723c
000000f0: 47fc dabc 33c4 c33c 9dd4 e33c 4fde d7bc

body.block1.norm.weight f4 [64]
0.98435575 1.0633754 0.97414756 1.0707287 0.9886412 0.97165 1.0196168 0.9778232
0.9994738 0.9853606 0.98038197 1.0313513 1.0009439 0.9791988 0.97982836 1.0303627
1.0319227 1.0150096 0.9750197 0.9241127 0.93517864 0.94703466 0.98588336 0.99496007
1.0298495 0.9253858 0.9765373 0.95011866 0.98209536 0.99551064 0.9955674 1.0297289
0.93935865 0.9882805 1.0242586 0.9790648 0.95347446 0.97632277 0.99114215 0.97359943
1.0780438 1.0194197 0.893215 1.0465946 0.9232606 0.9769128 0.9109126 1.0285671
0.9893614 0.9942035 0.96431047 1.0996239 0.9987835 0.98162496 0.9889155 0.94929004
1.0642415 0.9886552 1.0014446 0.9623485 0.9856918 0.9877939 0.9187672 0.98362625
00000000: bdfe 7b3f af1c 883f bc61 793f a30d 893f
00000010: 9717 7d3f 0ebe 783f ce82 823f 9f52 7a3f
00000020: 84dd 7f3f 9840 7c3f 50fa 7a3f 5203 843f
00000030: ee1e 803f c6ac 7a3f 08d6 7a3f ede2 833f
00000040: 0b16 843f d6eb 813f e49a 793f a692 6c3f
00000050: de67 6f3f dd70 723f da62 7c3f b4b5 7e3f
00000060: 1cd2 833f 15e6 6c3f 59fe 793f fa3a 733f
00000070: 9a6a 7b3f c9d9 7e3f 81dd 7e3f 28ce 833f
00000080: cf79 703f f3ff 7c3f e81a 833f fea3 7a3f
00000090: e716 743f 4af0 793f 7ebb 7d3f d03d 793f
000000a0: 57fd 893f 587c 823f bda9 643f d0f6 853f
000000b0: cf5a 6c3f f516 7a3f 9131 693f 16a8 833f
000000c0: ca46 7d3f 1f84 7e3f 0ddd 763f 7ac0 8c3f
000000d0: 47b0 7f3f c64b 7b3f 9129 7d3f ac04 733f
000000e0: 1139 883f 8218 7d3f 562f 803f 795c 763f
000000f0: 4c56 7c3f 10e0 7c3f 5434 6b3f eece 7b3f

body.block1.norm.bias f4 [64]
-0.14784776 0.061735142 -0.16106857 -0.07062622 -0.07571683 -0.3102671 -0.04910185 -0.23047273
-0.21504487 -0.062201645 -0.11053429 -0.11150081 -0.14475302 -0.074237905 -0.13750517 -0.17150602
-0.16856329 -0.24355698 -0.18289796 -0.22370934 -0.16798723 -0.16971514 -0.058796555 0.021880856
-0.17653012 -0.15536016 -0.15527502 -0.056599986 0.008655099 -0.16738851 -0.16996711 -0.14738189
-0.03832125 -0.15839568 -0.22218329 -0.19687578 -0.1441762 -0.10526694 -0.18030849 -0.21091214
0.040033184 -0.027550768 -0.18441632 0.0035734274 -0.21005063 -0.18606701 -0.22221997 -0.11871989
-0.11278675 -0.17319283 -0.17974621 -0.09083755 -0.073990785 -0.029204505 -0.14198379 -0.2188609
-0.1640272 -0.1770784 -0.1982315 -0.08743672 -0.15871027 -0.13415803 -0.15585123 -0.10570455
00000000: 6765 17be fddd 7c3d 29ef 24be 7ba4 90bd
00000010: 6d11 9bbd 54db 9ebe 051f 49bd 0b01 6cbe
00000020: b934 5cbe 27c7 7ebd cd5f e2bd 895a e4bd
00000030: 233a 14be 0b0a 98bd 28ce 0cbe 469f 2fbe
00000040: db9b 2cbe 0067 79be 9a49 3bbe 1014 65be
00000050: d804 2cbe cec9 2dbe a8d4 70bd 7b3f b33c
00000060: 50c4 34be bc16 1fbe 6a00 1fbe 63d5 67bd
00000070: 1ece 0d3c e567 2bbe dc0b 2ebe 47eb 16be
00000080: bef6 1cbd 7a32 22be 0484 63be ce99 49be
00000090: eda2 13be 3296 d7bd caa2 38be 5af9 57be
000000a0: d6f9 233d 26b2 e1bc a2d7 3cbe 2a30 6a3b
000000b0: 8317 57be 5a88 3ebe a28d 63be 6a23 f3bd
000000c0: bdfc e6bd 7659 31be 640f 38be 0a09 babd
000000d0: 7b88 97bd 493e efbc 3364 11be 121d 60be
000000e0: bff6 27be 0a54 35be 33fd 4abe 0612 b3bd
000000f0: f284 22be b960 09be 7797 1fbe a17b d8bd

body.block1.norm.running_mean f4 [64]
0.90565944 -1.2047691 -0.15351799 -0.1858714 0.458257 0.3402444 -1.0799041 0.08034227
0.39617583 -1.0790807 -0.8224212 -0.30936348 0.90533096 -0.650186 0.24837552 0.87952554
-0.32794493 -0.6783247 0.09535141 -0.78751165 0.22224256 -0.35073483 -0.44666654 -0.69948524
-0.23088744 0.8014639 -0.2404862 0.44845313 -0.2538599 -0.18727723 -0.09902665 -0.36923292
-0.36475492 -0.6002958 0.7267395 -0.12062024 -0.026483588 0.3457624 -0.3101291 -0.4041258
-1.1183536 -0.0884236 0.5619402 -0.8608824 -0.006260825 -0.43579146 1.4821042 -0.9103687
-1.2130547 0.6129655 0.9561345 -0.1347831 -0.70608133 -0.70833373 0.31509572 0.7356188
-0.22574922 0.068706155 0.6748307 -0.71435285 0.4274727 -0.25904587 -0.23078254 -0.28196517
00000000: 4cd9 673f e035 9abf d233 1dbe 1355 3ebe
00000010: a9a0 ea3e 8434 ae3e 4c3a 8abf 7d8a a43d
00000020: 8fd7 ca3e 511f 8abf 328a 52bf e464 9ebe
00000030: c5c3 673f 9772 26bf 2756 7e3e 9628 613f
00000040: 66e8 a7be b0a6 2dbf 9a47 c33d 5d9a 49bf
00000050: 8e93 633e 8493 b3be 7ab1 e4be 7711 33bf
00000060: c26d 6cbe bd2c 4d3f 0442 76be a69b e53e
00000070: edf9 81be 9ac5 3fbe 7cce cabd 190c bdbe
00000080: 28c1 babe fcac 19bf 9a0b 3a3f bf07 f7bd
00000090: 1cf4 d8bc c507 b13e 3ec9 9ebe 94e9 cebe
000000a0: 3626 8fbf 6f17 b5bd 50db 0f3f ca62 5cbf
000000b0: 9b27 cdbb 0f20 dfbe 97b5 bd3f ec0d 69bf
000000c0: 6045 9bbf 4feb 1c3f 3bc5 743f 9504 0abe
000000d0: bfc1 34bf 5c55 35bf 3a54 a13e 8451 3c3f
000000e0: ce2a 67be d0b5 8c3d b4c1 2c3f d4df 36bf
000000f0: b4dd da3e a9a1 84be 4252 6cbe bd5d 90be

body.block1.norm.running_var f4 [64]
0.90833485 0.83761424 0.7291098 0.75895464 0.33788133 0.613646 0.73944354 0.3411042
0.50277406 0.66607755 0.4175506 0.5307158 0.7702245 0.6910342 2.210182 0.72824645
0.21013303 0.53331923 0.2940292 0.85340965 0.5999013 0.83632356 0.32509774 0.36904645
0.12989853 0.5618517 0.9057071 0.75163674 0.28335625 0.3357994 0.26986256 0.29290655
0.20480715 0.6676607 0.9963726 0.3835968 0.21192288 1.2487578 0.2095452 0.41022235
1.1662887 0.36052015 0.79147416 0.35663372 0.48312894 0.5565526 0.61912394 0.73876405
0.8627878 0.5316417 0.5115858 0.5759673 0.70580053 0.30918178 0.40561947 1.2317629
0.22954583 2.0462015 0.22488858 1.2008531 0.50111336 0.20969559 0.66210675 0.16137743
00000000: a288 683f e36d 563f f1a6 3a3f da4a 423f
00000010: c8fe ac3e e717 1d3f 2c4c 3d3f 36a5 ae3e
00000020: cdb5 003f 0f84 2a3f 31c9 d53e fedc 073f
00000030: 6f2d 453f 9ee7 303f 9f73 0d40 5c6e 3a3f
00000040: 1d2d 573e 9c87 083f ff8a 963e 0e79 5a3f
00000050: 2293 193f 4d19 563f 3673 a63e a8f3 bc3e
00000060: 1f04 053e 83d5 0f3f 6cdc 673f 446b 403f
00000070: 1214 913e e6ed ab3e 6d2b 8a3e d9f7 953e
00000080: f7b8 513e d0eb 2a3f 4612 7f3f cd66 c43e
00000090: 5002 593e 4cd7 9f3f 0493 563e aa08 d23e
000000a0: f348 953f 1996 b83e 0d9e 4a3f b298 b63e
000000b0: ad5c f73e 3b7a 0e3f e87e 1e3f a41f 3d3f
000000c0: a9df 5c3f ac19 083f 49f7 023f 9872 133f
000000d0: 58af 343f 134d 9e3e 5bad cf3e 68aa 9d3f
000000e0: 100e 6b3e f7f4 0240 3149 663e 8eb5 993f
000000f0: f748 003f 71ba 563e d47f 293f 2040 253e

body.block2.conv.weight f4 [64, 64, 3, 3]
-0.0380981 0.020639399 -0.014858752 0.02038119 -0.0071962187 0.011566889 0.016609259 -0.003538347
0.026688054 -0.059391197 -0.03896935 -0.10378336 -0.024292296 -0.015891999 -0.035345558 -0.011876411
0.019207263 0.001902363 0.049667004 -0.019605689 0.04029907 0.0069860765 0.0007464831 0.03249011
-0.0021245438 -0.029402792 -0.045998815 -0.08969977 -0.10750375 -0.06687134 -0.05952113 -0.024366071
-0.023455443 0.025949998 0.0030143505 -0.040345 -0.03956046 -0.035987683 0.01575532 0.0058356375
0.018902145 0.026181795 0.0041059284 -0.013624293 -0.0029817899 0.008760497 0.027983112 -0.023460563
0.011626681 0.0077784536 0.02428667 -0.018345904 0.008316662 0.01405318 0.008831878 0.019735552
-0.0011730101 0.031926244 -0.039253265 0.008686959 0.060065653 0.039875813 0.025735663 0.008338087
-0.033716954 -0.048208255 -0.0040516127 -0.018721286 -0.01782405 0.0008560048 -0.053032227 -0.011710997
0.009496031 0.015285437 0.0078371065 0.0018181752 0.016405348 0.042711295 0.013726173 0.03274112
0.060605943 -0.034059133 -0.03342136 0.00988559 0.023042336 0.0075286906 0.00012344331 -0.055774778
-0.0066673174 -0.0058737914 0.00019748595 0.05323618 0.08227997 -0.0322271 0.03525107 0.029273292
-0.052775804 0.0066980063 0.012015892 -0.045761436 -0.034951966 -0.08584207 -0.057791937 -0.048741624
-0.015425389 -0.049742755 -0.011015634 -0.068388686 -0.011941628 -0.018599534 0.007570353 -0.024997376
0.0009992204 -0.039705884 0.006412545 -0.0069207917 0.015004566 -0.019097622 -0.052386995 -0.059123576
-0.0067571136 0.01993205 0.01108193 -0.03919657 -0.009108985 -0.07112553 -0.0144813 -0.039407354
-0.040709756 -0.010706551 -0.005717955 -0.03380253 -0.0077421246 -0.00094067736 -0.028099537 -0.027048117
-0.01093983 -0.016595114 -0.020354586 -0.012005636 -0.04005671 -0.0478935 -0.05285584 -0.004517439
-0.027512737 -0.07461709 -0.031535573 -0.014901987 -0.039873954 0.034193788 0.05038477 0.02150079
0.0075438605 0.0038288247 -0.03438977 0.005494641 0.0072083366 0.0020802722 0.015881399 -0.01864185
0.04196753 0.009826971 0.023630166 0.010743333 0.021587452 -0.040390097 0.01816622 0.0402307
-0.034551494 0.0075470502 0.05094924 0.058251444 -0.00012733907 0.02513777 0.020072753 -0.0032983012
0.0104379635 0.009379567 -0.053642184 -0.0017168765 0.01837031 0.0074007073 -0.024697803 -0.020837165
0.037703976 0.010646429 -0.03818281 0.037415177 0.017472498 0.02886336 0.033096943 0.01957638
0.021764461 -0.018440604 -0.0057546743 -0.008668697 0.030314913 -0.026199717 0.057552975 -0.009565776
-0.00081258366 0.016465858 -0.0339701 0.0074860207 0.020826183 -0.00085101987 0.03903945 0.016098415
-0.023217097 -0.100139156 0.03393241 0.014529923 -0.0035038572 0.044650853 0.021828288 -0.038740125
-0.07306208 -0.06316567 -0.01591142 0.02682073 -0.07075196 -0.05626782 0.023141146 0.005194623
-0.015825411 -0.013490165 0.025890673 0.0159969 -0.021731144 0.01276916 -0.02755714 0.006340566
-0.014594812 -0.015213925 0.0007981413 0.023495961 0.009683279 0.036647625 0.03347712 0.039166246
0.017574722 0.024654092 0.008616365 0.0005609368 -0.0015693228 0.02859016 -0.017803676 -0.0035671855
-0.023395346 0.035259627 -0.011328675 -0.0184538 -0.012800727 0.050060503 -6.29028e-05 0.056218594
00000000: c10c 1cbd f513 a93c 1f72 73bc 74f6 a63c
00000010: 42ce ebbb 0c83 3d3c 2410 883c 9de3 67bb
00000020: e8a0 da3c 2f44 73bd 539e 1fbd 5f8c d4bd
00000030: a300 c7bc f02f 82bc 81c6 10bd 4795 42bc
00000040: 8d58 9d3c b658 f93a a16f 4b3d 1c9c a0bc
00000050: a310 253d 75eb e43b a2af 433a 5914 053d
00000060: ee3b 0bbb 20de f0bc 4169 3cbd 83b4 b7bd
00000070: ed2a dcbd d7f3 88bd 6ecc 73bd 5b9b c7bc
00000080: a125 c0bc 1795 d43c 698c 453b cc40 25bd
00000090: 260a 22bd d267 13bd 4d11 813c e038 bf3b
000000a0: acd8 9a3c 347b d63c 068b 863b 6d38 5fbc
000000b0: 226a 43bb 3088 0f3c d73c e53c 5e30 c0bc
000000c0: d67d 3e3c 66e2 fe3b d7f4 c63c 264a 96bc
000000d0: 9c42 083c 4f3f 663c 95b3 103c 74ac a13c
000000e0: b0bf 99ba 18c5 023d 08c8 20bd bf53 0e3c
000000f0: 6707 763d d254 233d 99d3 d23c 799c 083c
00000100: ca1a 0abd 0576 45bd 64c3 84bb 625d 99bc
00000110: be03 92bc 8265 603a 5238 59bd 7bdf 3fbc
00000120: 3e95 1b3c c56f 7a3c 3567 003c d64f ee3a
00000130: 8264 863c 0af2 2e3d bee3 603c 8d1b 063d
00000140: f03d 783d 9781 0bbd d6e4 08bd 2bf7 213c
00000150: 48c3 bc3c 3cb3 f63b 9070 0139 1874 64bd
00000160: 8379 dabb ef78 c0bb 3b14 4f39 2e0e 5a3d
00000170: 6782 a83d 9000 04bd 6d63 103d 8bce ef3c
00000180: 712b 58bd f37a db3b 4ede 443c 5870 3bbd
00000190: cb29 0fbd f8cd afbd 3db7 6cbd 4ca5 47bd
000001a0: c5ba 7cbc 0fbf 4bbd eb7a 34bc 5e0f 8cbd
000001b0: d1a6 43bc 0d5e 98bc b910 f83b 4cc7 ccbc
000001c0: 46f8 823a a3a2 22bd 5420 d23b cfc7 e2bb
000001d0: b6d5 753c 9e72 9cbc bf93 56bd 902b 72bd
000001e0: c76a ddbb 8a48 a33c fc90 353c 958c 20bd
000001f0: da3d 15bc 43aa 91bd f942 6dbc 9b69 21bd
00000200: 46bf 26bd 886a 2fbc af5d bbbb 8674 0abd
00000210: a6b1 fdbb ca97 76ba 0031 e6bc 0394 ddbc
00000220: f93c 33bc 7af2 87bc a9be a6bc 49b3 44bc
00000230: 8112 24bd fa2b 44bd 5e7f 58bd 0607 94bb
00000240: 6462 e1bc d8d0 98bd 722b 01bd 7727 74bc
00000250: df52 23bd c90e 0c3d 4360 4e3d 6d22 b03c
00000260: 7d32 f73b 05ed 7a3b 4adc 0cbd 640c b43b
00000270: e933 ec3b 2d55 083b b519 823c cbb6 98bc
00000280: 25e6 2b3d 4e01 213c 0d94 c13c ce04 303c
00000290: 2bd8 b03c 1670 25bd 53d1 943c f2c8 243d
000002a0: de85 0dbd 3f4d f73b 26b0 503d 1199 6e3d
000002b0: 5286 05b9 baed cd3c 9d6f a43c 5028 58bb
000002c0: fe03 2b3c c1ac 193c e8b7 5bbd d108 e1ba
000002d0: 557d 963c a281 f23b 0c53 cabc b4b2 aabc
000002e0: 7c6f 1a3d 5c6e 2e3c 9465 1cbd a840 193d
000002f0: 7c22 8f3c da72 ec3c a990 073d a55e a03c
00000300: 624b b23c c010 97bc b591 bcbb 2707 0ebc
00000310: fb56 f83c caa0 d6bc abbc 6b3d c6b9 1cbc
00000320: 9103 55ba 68e3 863c 3b24 0bbd 4b4d f53b
00000330: ac9b aa3c fa16 5fba d5e7 1f3d d3e0 833c
00000340: c831 bebc c215 cdbd b6fc 0a3d ea0e 6e3c
00000350: f8a0 65bb d0e3 363d 3dd1 b23c f7ad 1ebd
00000360: 92a1 95bd 015d 81bd ab58 82bc 26b7 db3c
00000370: 67e6 90bd 1679 66bd 8092 bd3c a837 aa3b
00000380: 4ba4 81bc da05 5dbc ad18 d43c ee0b 833c
00000390: 8305 b2bc bd35 513c 83bf e1bc 86c4 cf3b
000003a0: 141f 6fbc d443 79bc 5b3a 513a 9a7a c03c
000003b0: 9ea6 1e3c d21b 163d 4e1f 093d c96c 203d
000003c0: ddf8 8f3c 61f7 c93c a72b 0d3c d50b 133a
000003d0: bcb1 cdba e935 ea3c 04d9 91bc 71c7 69bb
000003e0: 99a7 bfbc 666c 103d e89b 39bc 6c2c 97bc
000003f0: 24ba 51bc 3e0c 4d3d afea 83b8 7845 663d

body.block2.conv.bias f4 [64]
-0.035354402 0.009176103 0.017378302 -0.019949678 -0.0037852884 0.013800612 -0.02044257 0.031490743
-0.015035633 -0.011058262 -0.0011738648 -0.013612826 -0.022159074 0.016035987 0.019180784 -0.0039719795
-0.030801542 -0.020597482 -0.026197677 0.010952491 -0.02701111 0.014368609 0.038273323 0.01640146
0.038230445 0.015170681 -0.03432353 0.0327321 -0.019206379 0.034772 0.03652286 -0.0062711835
0.040227473 -0.022082405 0.04238929 0.016474731 0.022056488 0.042785134 -0.0006536581 0.0016625221
0.030296432 0.02477407 -0.054982577 0.005975739 -0.026712546 0.015616132 0.021766573 0.003294177
0.0057765627 -0.02769382 0.04032096 0.028298132 -0.009776684 0.025684755 0.027362738 -0.016190376
-0.0024673985 -0.03933325 -0.004351702 -0.03633599 -0.02370534 0.008454761 0.025853094 -0.02937577
00000000: c7cf 10bd 5e57 163c f15c 8e3c 826d a3bc
00000010: 9a12 78bb f61b 623c 2d77 a7bc 70fc 003d
00000020: 0458 76bc b62d 35bc 5edc 99ba 5508 5fbc
00000030: f286 b5bc e75d 833c 0521 9d3c 6127 82bb
00000040: 8453 fcbc 0dbc a8bc 839c d6bc 1472 333c
00000050: 6746 ddbc 506a 6b3c 7dc4 1c3d 5b5c 863c
00000060: 8797 1c3d 738e 783c d496 0cbd 1812 063d
00000070: b256 9dbc 166d 0e3d ff98 153d 807e cdbb
00000080: 90c5 243d 29e6 b4bc 64a0 2d3d 04f6 863c
00000090: cfaf b43c 773f 2f3d 415a 2bba fce8 d93a
000000a0: 3930 f83c fef2 ca3c 6935 61bd 22d0 c33b
000000b0: 45d4 dabc ceda 7f3c d04f b23c 1ee3 573b
000000c0: 5249 bd3b 26de e2bc 9727 253d 7cd1 e73c
000000d0: 632e 20bc d668 d23c d227 e03c aea1 84bc
000000e0: 14b4 21bb e71b 21bd b998 8ebb 0cd5 14bd
000000f0: b431 c2bc d685 0a3c dec9 d33c 74a5 f0bc

body.block2.norm.weight f4 [64]
0.9636584 0.9355644 1.011244 1.003028 1.0233207 1.0548433 0.94188493 0.96521527
1.0239326 0.9614305 0.9767797 0.96399236 0.99592304 0.9758369 1.0481942 1.03717
1.0076383 0.9884875 1.0748852 0.9539966 0.97771907 0.97137743 1.0460392 0.9734058
1.0469804 0.9545924 1.05895 0.9916262 1.028193 0.9748671 0.9164466 1.0182145
1.0135648 1.0335728 1.0202639 0.9807345 0.99067074 1.0396167 0.9687651 0.9880928
0.9654304 1.0329823 1.0130868 0.9986941 0.99611133 1.0024973 1.0073869 0.99998635
1.0193743 0.97399324 1.0346669 0.9368425 0.98365855 0.9549109 0.9921325 0.9911267
1.02345 1.018154 0.9929407 0.9990744 0.9637616 1.0638756 1.0928907 0.97870845
00000000: 51b2 763f 2681 6f3f 7270 813f 3963 803f
00000010: 2cfc 823f 1b05 873f 5f1f 713f 5918 773f
00000020: 3910 833f 4f20 763f 3c0e 7a3f 34c8 763f
00000030: d0f4 7e3f 72d0 793f 3a2b 863f fdc1 843f
00000040: 4bfa 803f 840d 7d3f d795 893f 1f39 743f
00000050: cc4b 7a3f 31ac 783f 9de4 853f 1f31 793f
00000060: 7403 863f 2b60 743f ac8b 873f 37db 7d3f
00000070: d49b 833f e490 793f 3f9c 6a3f da54 823f
00000080: 7ebc 813f 1d4c 843f 0298 823f 6b11 7b3f
00000090: 999c 7d3f 2912 853f fd00 783f a6f3 7c3f
000000a0: 7226 773f c438 843f d4ac 813f 6baa 7f3f
000000b0: 2701 7f3f d551 803f 0ef2 803f 1bff 7f3f
000000c0: db7a 823f 9f57 793f f76f 843f e9d4 6f3f
000000d0: 0cd1 7b3f 0a75 743f 65fc 7d3f 7bba 7d3f
000000e0: 6900 833f df52 823f 5d31 7e3f 57c3 7f3f
000000f0: 15b9 763f 132d 883f d8e3 8b3f a38c 7a3f

body.block2.norm.bias f4 [64]
-0.20542513 -0.084152445 -0.18423024 -0.0792635 -0.1974364 -0.17189363 -0.07285798 0.032608185
-0.052832536 -0.13069777 -0.1630517 -0.09480128 -0.05753787 -0.12051652 -0.17514253 -0.045220636
-0.19396403 -0.08563773 -0.0947594 -0.20396362 -0.17306045 -0.15084516 -0.26003 -0.12166059
-0.11714751 -0.06880173 -0.21403523 -0.07176334 -0.102603436 -0.08622626 -0.12117967 -0.098883495
-0.10568564 -0.08661178 -0.16811992 -0.074190654 -0.09553389 -0.11695828 -0.029612856 -0.050393727
-0.10762551 -0.13154384 -0.09821701 -0.07434623 -0.12237376 -0.085926875 -0.17305475 -0.074272364
-0.09184531 -0.17563854 0.028589778 -0.1517102 -0.050731592 -0.14490625 -0.094967976 -0.11196133
-0.16143927 -0.015577551 -0.25182098 -0.10503915 -0.16196868 -0.13792539 -0.16495787 -0.08346084
00000000: f75a 52be 1e58 acbd daa6 3cbe e754 a2bd
00000010: c52c 4abe e204 30be 9136 95bd 2990 053d
00000020: ee66 58bd a3d5 05be 06f7 26be 2c27 c2bd
00000030: d4ac 6bbd 5ed1 f6bd 9058 33be 4639 39bd
00000040: 829e 46be d662 afbd 3711 c2bd d7db 50be
00000050: c236 31be 2777 1abe a722 85be 3029 f9bd
00000060: 09eb efbd ece7 8cbd 0d2c 5bbe a8f8 92bd
00000070: c021 d2bd 6597 b0bd 0c2d f8bd 6e83 cabd
00000080: b671 d8bd 8461 b1bd a127 2cbe 45f1 97bd
00000090: 46a7 c3bd d387 efbd a996 f2bc a769 4ebd
000000a0: c36a dcbd 6eb3 06be 0026 c9bd d642 98bd
000000b0: 189f fabd 6efa afbd 4435 31be 1c1c 98bd
000000c0: 6519 bcbd 97da 33be 1c35 ea3c eb59 1bbe
000000d0: eecb 4fbd 4e62 14be 927e c2bd fb4b e5bd
000000e0: 5650 25be fc38 7fbc aeee 80be c41e d7bd
000000f0: 1edb 25be 503c 0dbe b7ea 28be 84ed aabd

body.block2.norm.running_mean f4 [64]
-0.37947655 0.60814357 0.91107166 -0.22749262 -0.22968733 -0.866701 -0.317788 -0.49771196
0.038824905 -0.5621439 0.4158701 -0.3027643 -0.27476504 -0.31962 0.6727084 0.3558061
0.3625818 -0.32804188 -0.2865979 0.24914776 -0.326415 -0.06079552 -0.12325754 -0.41174495
-0.07441273 0.023319041 -0.49970618 -0.3248243 -0.7875154 -0.43022558 0.26546112 -0.6354763
-0.09422421 0.6151896 -0.7554546 -0.080971904 0.3988216 -0.38092646 -0.84420925 -0.46038985
0.014252189 -0.5491266 -0.5949482 -0.0005318246 -0.1637264 0.7567639 -0.09594316 -0.2770681
-0.38080025 -0.9568058 -0.38516068 -0.21396326 -0.31055012 -0.17830981 -0.44978786 0.026544092
-0.2987651 -0.2131446 0.36937982 -0.10180442 -0.27861825 0.44235393 -0.28251934 -0.6071582
00000000: c04a c2be 4caf 1b3f fe3b 693f d3f3 68be
00000010: 2833 6bbe 1ee0 5dbf 1cb5 a2be 1ad4 febe
00000020: dd06 1f3d aae8 0fbf edec d43e ec03 9bbe
00000030: 01ae 8cbe 3ca5 a3be 9e36 2c3f 382c b63e
00000040: 52a4 b93e 1bf5 a7be f6bc 92be 9720 7f3e
00000050: de1f a7be b904 79bd 736e fcbd 3cd0 d2be
00000060: b465 98bd 9307 bf3c 7dd9 ffbe 5f4f a6be
00000070: 9c9a 49bf 8746 dcbe 85ea 873e 93ae 22bf
00000080: 9ff8 c0bd 117d 1d3f 7965 41bf 99d4 a5bd
00000090: 5832 cc3e cb08 c3be 191e 58bf 38b8 ebbe
000000a0: 0382 693c 9093 0cbf 864e 18bf 256a 0bba
000000b0: e5a7 27be 47bb 413f d97d c4bd dfdb 8dbe
000000c0: 40f8 c2be 3af1 74bf c833 c5be 2f19 5bbe
000000d0: 6d00 9fbe d996 36be 984a e6be ff72 d93c
000000e0: bdf7 98be 9442 5abe 5a1f bd3e d67e d0bd
000000f0: 0da7 8ebe 377c e23e 60a6 90be b86e 1bbf

body.block2.norm.running_var f4 [64]
1.1006078 0.6722181 1.1060108 0.7721866 0.7472766 0.41296268 0.28288817 0.548877
0.8516709 0.4517855 0.6566438 0.5144026 0.41559336 0.46727088 0.2573998 0.42249933
0.3927277 0.2703855 0.30385724 0.32782465 2.6427743 0.46166447 0.5753169 0.27195194
0.3384008 0.22161917 0.19264248 1.232251 0.52106327 0.37544793 0.35076407 0.28020266
0.4915937 0.37640402 0.23832203 0.697464 0.40498155 0.35071385 0.2874107 0.45727098
0.20122786 0.42772397 0.40143406 0.33828604 0.16675031 0.8857126 0.31096917 0.57157516
0.34193406 0.21928367 0.56957996 0.52985114 0.81156737 0.22319214 0.49834228 0.3241606
0.562794 0.42697835 1.0568115 0.19022512 0.24305578 0.57917434 0.11591024 0.83613706
00000000: b7e0 8c3f 7c16 2c3f c391 8d3f 05ae 453f
00000010: 854d 3f3f d86f d33e b8d6 903e 3483 0c3f
00000020: 1b07 5a3f 6e50 e73e cf19 283f e4af 033f
00000030: a7c8 d43e 213e ef3e e8c9 833e d551 d83e
00000040: 9b13 c93e f86f 8a3e 2d93 9b3e a2d8 a73e
00000050: 3723 2940 495f ec3e f847 133f 493d 8b3e
00000060: df42 ad3e 23f0 623e 1244 453e 67ba 9d3f
00000070: 6764 053f b63a c03e 5997 b33e b976 8f3e
00000080: 2bb2 fb3e 07b8 c03e b10a 743e 008d 323f
00000090: be59 cf3e c490 b33e 7f27 933e 6c1f ea3e
000000a0: ad0e 4e3e a3fe da3e c488 cd3e d433 ad3e
000000b0: 98c0 2a3e 10be 623f 5a37 9f3e c052 123f
000000c0: fb11 af3e e68b 603e fecf 113f 53a4 073f
000000d0: e1c2 4f3f 7b8c 643e b826 ff3e 61f8 a53e
000000e0: 4513 103f e89c da3e 9945 873f 60ca 423e
000000f0: 9de3 783e c544 143f 5962 ed3d 140d 563f

body.block3.conv.weight f4 [64, 64, 3, 3]
-0.026572164 -0.062848136 -0.06363652 -0.0025575317 -0.026620472 -0.055284582 0.035408977 0.009288994
-0.02786355 -0.04047818 -0.008242685 -0.0027208694 -0.03205682 -0.010515976 0.006118984 -0.021319814
-0.0216107 -0.005894749 0.014962453 -0.02944741 -0.065571815 -0.0042204116 -0.03590057 -0.019779908
-0.0255822 -0.027194971 -0.022250794 -0.018119644 -0.027170042 -0.014287417 -0.019830644 0.013584629
0.001399948 0.0011674922 -0.009620127 0.0112340255 -0.02605488 -0.018446568 -0.019754063 -0.015343746
-0.036265552 -0.022460923 0.0017125307 0.009455983 -0.02252744 -0.009461021 -0.042215828 -0.01571233
0.014701193 -0.010714793 0.05307099 -0.004361312 -0.00010666094 0.00032343174 0.015600393 0.018600827
-0.022183951 -0.018418323 0.0059709796 -0.009960459 -0.011064382 -0.012267128 0.0031856515 -0.0066369856
0.01826659 0.018581565 -0.04489616 0.0380107 0.006527004 0.03329809 -0.0009467619 -0.013119017
-0.007744539 -0.008075681 -0.027410349 0.011569613 -0.018850883 -0.031593706 -0.013719498 -0.01544156
0.019217452 0.047856774 0.000456539 -0.013332881 0.026483087 0.025876425 -0.019426106 -0.044357184
-0.032170482 -0.042181592 0.004393867 0.011039098 0.083192736 -0.0049928143 0.032276522 0.037660826
-0.022760889 0.031001408 0.0032070433 -0.032116164 -0.007266373 0.02308074 -0.040464014 -0.0150530515
0.027259607 -0.06739212 -0.00091360754 0.018248593 0.01997821 -0.02669649 0.0321058 0.037658595
0.0054641776 -0.041570738 0.008973341 0.021606408 -0.034730174 0.00093165337 -0.007137559 -0.023782318
0.0068761515 0.027978025 0.021530861 -0.019107629 0.037559398 -0.011304156 -0.016745782 -0.0063673826
-0.056697816 0.04273625 -0.002751892 -0.034620486 -0.0020943596 -0.011587173 -0.009482566 0.032211915
0.034239907 0.0034817012 -0.027953293 0.005872007 -0.019867798 -0.017426891 0.0008470054 0.031421132
-0.0050630677 -0.035605904 -0.05544818 -0.023792895 -0.010637461 -0.041172028 -0.027113957 -0.053397104
-0.016991502 -0.014756387 0.027177302 -0.0020894294 -0.021700753 -0.013288378 -0.012865734 0.01070322
-0.017688978 -0.023303458 0.014149329 -0.006548882 0.038602773 0.007882662 0.057895754 0.026058907
-0.0011015091 0.0030341651 0.008856794 0.069048025 -0.007411987 -0.01914525 -0.016037041 -0.010102986
-0.05121414 -0.027426807 0.021421332 -0.0068379045 0.04282681 -0.00970605 -0.016710263 0.011702121
0.059289485 -0.014335568 0.047859933 -0.00054371485 -0.0015687197 0.0032248579 0.005463661 0.01309157
0.015927892 -0.0005228333 -0.018357625 0.011930456 0.025754347 -0.0066113346 -0.033582877 -0.052153833
-0.05897347 0.022567008 -0.04775357 -0.019612603 -0.0362128 -0.004271078 -0.011732939 -0.0044945832
0.040696885 -0.017884003 0.007583629 0.018413993 0.050076112 -0.0034810062 0.009537589 0.02645974
0.008989943 0.008960489 0.025202071 -0.011824229 -0.010371301 0.0029701027 0.004525571 -0.014217104
-0.056478664 -0.015711807 -0.0063772323 -0.024576476 0.032965343 -0.02201813 0.010332041 -0.03185526
-0.03398905 0.00069358095 0.08108275 -0.033638142 0.005812986 -0.017216664 0.013580392 0.012335694
-0.005305384 -0.032757334 -0.03586587 -0.006946581 0.010361008 -0.055144534 -0.022408454 -0.012897363
0.016420463 0.017154304 0.0014438515 0.006847893 0.049979877 0.033690758 0.02713283 0.031863254
00000000: dead d9bc 86b6 80bd dd53 82bd 439c 27bb
00000010: 2d13 dabc 1672 62bd 0109 113d dd30 183c
00000020: 1a42 e4bc 73cc 25bd 540c 07bc 9d50 32bb
00000030: 034e 03bd 334b 2cbc c281 c83b e4a6 aebc
00000040: ec08 b1bc bd28 c1bb 1425 753c b23b f1bc
00000050: 844a 86bd 614b 8abb 7a0c 13bd 7909 a2bc
00000060: c391 d1bc fdc7 debc 4c47 b6bc a66f 94bc
00000070: b593 debc c515 6abc e073 a2bc 1092 5e3c
00000080: 767e b73a 8a06 993a bd9d 1dbc eb0e 383c
00000090: 0b71 d5bc 421d 97bc 46d3 a1bc 5664 7bbc
000000a0: 308b 14bd f8ff b7bc ff76 e03a 44ed 1a3c
000000b0: 778b b8bc 6602 1bbc 81ea 2cbd 25b7 80bc
000000c0: 46dd 703c 198d 2fbc f760 593d 56e9 8ebb
000000d0: 28af dfb8 4692 a939 ca98 7f3c c360 983c
000000e0: 1ebb b5bc 06e2 96bc 35a8 c33b 3131 23bc
000000f0: 6247 35bc 10fc 48bc 5dc6 503b 127b d9bb
00000100: d1a3 953c 5e38 983c 09e5 37bd 1cb1 1b3d
00000110: 7ae0 d53b 9463 083d 1e30 78ba 25f1 56bc
00000120: e7c5 fdbb dc4f 04bc ab8b e0bc 798e 3d3c
00000130: 2b6d 9abc 6768 01bd bfc7 60bc 99fe 7cbc
00000140: eb6d 9d3c 7705 443d a15b ef39 2872 5abc
00000150: 0ff3 d83c ccfa d33c 7f23 9fbc e1af 35bd
00000160: 32c5 03bd 9bc6 2cbd 6efa 8f3b 55dd 343c
00000170: f460 aa3d c39a a3bb 6334 043d 3d42 1a3d
00000180: 0b75 babc aaf6 fd3c 422d 523b 3d8c 03bd
00000190: c11a eebb d213 bd3c 98bd 25bd 13a1 76bc
000001a0: 8a4f df3c e104 8abd 2a7f 6fba 137e 953c
000001b0: 58a9 a33c 99b2 dabc 5f81 033d e63f 1a3d
000001c0: d80c b33b 1446 2abd ec04 133c ecff b03c
000001d0: 3a41 0ebd 333a 743a 2fe2 e9bb 23d3 c2bc
000001e0: 5751 e13b 2c32 e53c 7d61 b03c 9a87 9cbc
000001f0: e2d7 193d 1135 39bc 732e 89bc 7aa5 d0bb
00000200: f83b 68bd 350c 2f3d 1659 34bb 36ce 0dbd
00000210: 8641 09bb 20d8 3dbc c45c 1bbc a4f0 033d
00000220: 253f 0c3d 412d 643b 4efe e4bc f769 c03b
00000230: cbc1 a2bc d7c2 8ebc 9209 5e3a 72b3 003d
00000240: 17e8 a5bb 7fd7 11bd a11d 63bd 51e9 c2bc
00000250: bf48 2ebc 00a4 28bd 171e debc ecb6 5abd
00000260: c331 8bbc c6c4 71bc efa2 de3c cfee 08bb
00000270: c7c5 b1bc 7fb7 59bc cdca 52bc 8f5c 2f3c
00000280: 7ae8 90bc e5e6 bebc 96d2 673c 0198 d6bb
00000290: f11d 1e3d 4826 013c 1924 6d3d 7d79 d53c
000002a0: 8360 90ba d8d8 463b 161c 113c 0d69 8d3d
000002b0: 41e0 f2bb 80d6 9cbc 1d60 83bc ff86 25bc
000002c0: ebc5 51bd 2fae e0bc ca7b af3c 8010 e0bb
000002d0: 2a6b 2f3d 2006 1fbc f6e3 88bc 41ba 3f3c
000002e0: 88d9 723d bbdf 6abc c708 443d 1688 0eba
000002f0: 809d cdba 2358 533b 8308 b33b 067e 563c
00000300: 367b 823c c00e 09ba bb62 96bc f677 433c
00000310: c8fa d23c e5a3 d8bb 338e 09bd 429f 55bd
00000320: 2a8e 71bd 72de b83c 3f99 43bd 9caa a0bc
00000330: df53 14bd 66f4 8bbb 833b 40bc 4c47 93bb
00000340: c7b1 263d 7981 92bc 1780 f83b f1d8 963c
00000350: 9c1c 4d3d 9821 64bb 8c43 1c3c 19c2 d83c
00000360: 8e4a 133c 04cf 123c 9374 ce3c 69ba 41bc
00000370: 64ec 29bc 0ea6 423b 3e4b 943b dbee 68bc
00000380: 2c56 67bd 0cb6 80bc 1af8 d0bb 9b54 c9bc
00000390: ab06 073d 5e5f b4bc b947 293c a97a 02bd
000003a0: 1a38 0bbd 6ed1 353a b60e a63d 26c8 09bd
000003b0: dc7a be3b f609 8dbc 4b80 5e3c a71b 4a3c
000003c0: c9d8 adbb 8e2c 06bd 17e8 12bd 25a0 e3bb
000003d0: 38c1 293c 3cdf 61bd ef91 b7bc 764f 53bc
000003e0: 3584 863c 2f87 8c3c 9e3f bd3a 4a64 e03b
000003f0: b3b7 4c3d 52ff 093d ab45 de3c 0b83 023d
