TrainedModels/SMB-1-1/scale_factor=0.750000,alpha=10/7/netD.pth (torch, 465995 bytes, 25 tensors)

head.conv.weight f4 [64, 3, 3, 3]
00000000: baed 0cbe 0f5d 7bbc 1526 de3d 499d 20be
00000010: d9ba ccbd 02c5 a33d 7486 2f3c c229 f7bc
00000020: 3b55 f63d 364d bcbb b973 bbbb 8e77 ccbc
00000030: b113 213d dab2 1ebc dc6f 7e3c 60b2 85bc
00000040: 4125 62bb ad7d 02bd e947 b73d 2fd7 47bb
00000050: daff 94bd f6f8 2d3e b853 403d b4fa 55bd
00000060: a6fa 6b3d 3dc0 e93c 01af 9dbc 6f3f 573e
00000070: 41be c6ba 86f7 5dbd 2305 b13d 16a0 18bd
00000080: a801 25bc 6df3 c33b 6240 cd3c c7af 1dbe
00000090: 5653 9b3d cb93 adbd fa3e 68bd 735a 953d
000000a0: 2127 cdbc c9c8 863d 1848 55bd 77ba 59bd
000000b0: cf0f 08be edcf 553d e357 29bc 073d 46bd
000000c0: a3b0 cd3d 4ec1 87ba f8d2 313d 715c 883b
000000d0: 0b5d 2cbd 727e 94bd 2e99 ee3d a092 843d
000000e0: f91e 8e3c 1ca6 90bc e2da debc 927d 1f3c
000000f0: 870b e5bd 32fe 7bbd 4908 adba 7297 b63d
00000100: b0b8 833d d990 a43d 97d5 86bd 5508 ff3a
00000110: c64e 37bd ead4 21be 29e0 acbd d420 00be
00000120: fbbc 88bd a47c 72bc f5ee 84bd 5d21 a8bd
00000130: 5576 46bd f061 a1bd 365d 15bd ba99 4b3c
00000140: f4ae 8cbd 9042 b83d 3370 ed3d 9c08 883d
00000150: cf80 5f3e 9f98 613d dd24 3e3e 69ec 833d
00000160: c436 87bc a9e9 233d 312e 0d3d 0082 053d
00000170: 4617 94bc 5da6 e13d e694 563d 34d6 0b3d
00000180: dfb9 cd3d bdd6 a53d c848 373d 8c92 2ebd
00000190: 9c87 9fbc 83af 81bd 6276 efbb f37f 3a3d
000001a0: 3b2e 54bd 73d0 d43d 4e66 bc3d 78d6 9a3b
000001b0: ed96 9c3d eeb9 ea3c 6282 87bd 7184 70bd
000001c0: 7e72 14bd 220f 40bc 0fd3 433d 78ef 523d
000001d0: ad40 113e 95a5 32bd bef9 a5bd 73ba 26be
000001e0: a81e 87bd 871f 89ba e103 15bd 9bba c4b9
000001f0: 95e7 913d d6be ec3d 0f90 20bd c4cd aebc
00000200: 367a a1bd 3805 88bd 55d4 e0bb aee6 17bd
00000210: f6e2 3d3d 1e0c de3d 555d a63d f981 6b3d
00000220: 029a e9bd d1d2 9e3d a459 873d 003c 8cbd
00000230: 0016 a9bc cb71 633e b70c 993c aa39 40bd
00000240: a5f5 a5bd 723d a1bd 364e 493d 2566 2c3d
00000250: 0993 adbc 52f3 d83b 2b57 ae3d e4f6 8b3d
00000260: deb4 063d 0792 dabd 7bd8 31bd 3603 3c3d
00000270: 4291 85bc 67de 3cbd 1ee2 8abb 8619 9c3d
00000280: 5995 ca3d 5f1b 443c 5510 983a 4da7 85bc
00000290: 4a62 34bc 75e0 35bc dbd1 8d3d 07e7 c93c
000002a0: 674f 14bd d608 c3bd b19d a8bd eec7 0fbc
000002b0: 7451 2cbc ee68 16bc 2701 0b3c 3083 6e3d
000002c0: 68b8 123c 5c90 19bc 8d1c bdbd 1c43 e53c
000002d0: f99a e73c 8247 0dbd 6ebd 6cbc 9a99 883c
000002e0: 4e3f 0abd 5bde bb3d b00a 0abd 6111 b2be
000002f0: baf1 983d 3513 8d3d c7e6 2b3d da09 d1bd
00000300: 9fb9 423c 199d ce3c 1ed9 cfbc c637 9cbd
00000310: 85a2 61bd 65b4 e53d b62f 3cbd e62f bb3c
00000320: fd92 173c f177 29bd 4d7e 44bb e910 df3c
00000330: a6e7 993c 292b 8bbd 6d99 9b3d 40c3 d9bc
00000340: 268c 4a3d be95 a23c 4bc4 a5bb 318d 0d3b
00000350: a6c8 41bc dfeb 243e 7535 5bbd b965 0cbe
00000360: fcb7 62bd db7f b4bb 7c4e 673d d422 483d
00000370: fbc8 4f3d 999a 23bd f67e 39bd 8fa1 7cbd
00000380: c10c 9dbd b0a1 7bbd 3660 9fbc cdea 413d
00000390: eae5 523d 4d30 293d 5fd3 fcbc dd8c 40bb
000003a0: fa30 0abc e975 aabc b2e7 39be 5f86 b7bd
000003b0: d95c 9fbb a6d3 233d 0d3b 353d ad3a 51bd
000003c0: 5fab 403d d996 d53d 2e2b 163d 4133 153e
000003d0: d3c9 f5bc 01d6 bb3c 2031 953c 0a7d bbbd
000003e0: 87d2 b13c 6585 b23d cfd9 a13d e726 e0bd
000003f0: d1ca 943e 0613 b03d 1142 fa3d 44a7 b4bc
-0.1376256 -0.015342011 0.10847107 -0.15685 -0.09996576 0.07996561 0.0107132085 -0.030171279
0.12027975 -0.005746509 -0.0057205823 -0.024959352 0.03932542 -0.009686196 0.015529599 -0.016320407
-0.0034507068 -0.031858135 0.08949263 -0.003049325 -0.07275362 0.16989502 0.04695484 -0.052241042
0.057612084 0.02853405 -0.019248487 0.21020292 -0.0015162901 -0.054191135 0.08643558 -0.037262045
-0.010071196 0.0059799463 0.025055114 -0.15399085 0.075842544 -0.08475455 -0.056700684 0.072926424
-0.025043072 0.065812655 -0.052070707 -0.053156342 -0.1328728 0.052200247 -0.010335895 -0.048398044
0.100434564 -0.0010357292 0.043414086 0.0041614105 -0.04208092 -0.0725068 0.116503105 0.06473279
0.017348753 -0.017657332 -0.02720398 0.009734528 -0.11183839 -0.061521716 -0.0013201322 0.08915605
0.06431711 0.0803544 -0.06583708 0.0019457439 -0.04475286 -0.15803877 -0.08441193 -0.12512523
-0.0667667 -0.014800224 -0.0649089 -0.082094885 -0.048452694 -0.07880008 -0.036465846 0.012426788
-0.06869307 0.08997071 0.11593666 0.06642267 0.2182648 0.05507719 0.1856875 0.06441576
-0.016505606 0.040017758 0.03446788 0.03259468 -0.018077504 0.110180594 0.052388094 0.034139827
0.10045218 0.08097599 0.044747144 -0.042620227 -0.019473843 -0.06332304 -0.0073078135 0.045532178
-0.0518019 0.10391321 0.091992006 0.0047252737 0.07645974 0.028653111 -0.066166654 -0.058720056
-0.036242 -0.011722358 0.047808703 0.051497906 0.14184828 -0.043614943 -0.08104275 -0.16282062
-0.06597644 -0.0010461666 -0.036380652 -0.00037523065 0.07124249 0.115598366 -0.039199885 -0.021338351
-0.07884638 -0.066416204 -0.0068612495 -0.037085228 0.046359025 0.10842155 0.081232704 0.057497
-0.11406328 0.07755054 0.066088945 -0.068473816 -0.020640373 0.22211377 0.01868282 -0.046929993
-0.081034936 -0.07873048 0.049146853 0.0420896 -0.021188276 0.006620803 0.0851272 0.068342
0.032887332 -0.10672384 -0.043419342 0.0459015 -0.016304616 -0.046110537 -0.004238381 0.07622056
0.09891767 0.011969416 0.0011601547 -0.016315127 -0.011009762 -0.011100878 0.069247924 0.024646295
-0.036208536 -0.0952317 -0.08233202 -0.008775694 -0.010517467 -0.009180291 0.008484161 0.05823058
0.008955099 -0.009372797 -0.09233961 0.027986102 0.028272139 -0.034492023 -0.01444946 0.016674805
-0.03375178 0.0917327 -0.0337016 -0.34778884 0.07467981 0.06888429 0.041968133 -0.10206957
0.011885076 0.025221394 -0.025372084 -0.076278254 -0.05508663 0.11216048 -0.04594394 0.022849988
0.009251353 -0.04137415 -0.0029982508 0.027229743 0.018787216 -0.067953415 0.07597623 -0.02658236
0.049450062 0.019846793 -0.0050588003 0.002159905 -0.0118276235 0.16105603 -0.053517777 -0.13710679
-0.055351242 -0.0055084056 0.056471333 0.04886134 0.05072878 -0.039942358 -0.045287095 -0.06167751
-0.07668448 -0.061433494 -0.019455057 0.047343064 0.051488794 0.04130583 -0.030862508 -0.0029380836
-0.0084345285 -0.020808177 -0.18154791 -0.08961176 -0.004863363 0.039996766 0.04424577 -0.05108135
0.047038432 0.104291625 0.036662273 0.14570333 -0.030003464 0.022929193 0.018211901 -0.09154709
0.021706833 0.08716849 0.07902872 -0.1094492 0.29060987 0.085973784 0.122196324 -0.022052415

head.conv.bias f4 [64]
00000000: f746 2dbe 7381 e53d 345e 47be d5e5 833e
00000010: ef73 4fbe 7728 27be 9d0b ac3d b57c 5ebe
00000020: 285d e7bd 84e9 d83d 9dba ddbd 5b30 873d
00000030: 0e63 71be 5ee7 b33b 0ba6 31be 7814 ff3d
00000040: d8b5 66bc 6fec 86bd 07f2 c0bd ccdf 853d
00000050: 2197 763e 1984 71be 4360 9dbd 472f c9bc
00000060: 2feb 2b3d e0cb 353d 1cbf adbb 6493 25be
00000070: 5495 093e 0e71 093e 58a4 e5bd 2f55 4fbc
00000080: 6056 173e c203 ad3d 01bc 413e c548 d43d
00000090: a7d9 b6bb 4cd4 f03d 723f 113d 9f96 8e3d
000000a0: 823b b3bd 5a03 ae3d 9c1e 75be bf49 6abe
000000b0: 2c47 1dbd 3532 7b3c b9b2 f8bd 2a19 4e3d
000000c0: 1fb0 22bc d956 943c 90ba f4bd 373a 803b
000000d0: ee53 963d 3fec 6dbe ae0f 9a3d e238 eebc
000000e0: eee2 143d aae2 353d 5778 d33d b6f0 64bd
000000f0: 2ba4 a5be d7c3 16be 6438 913d 9a6a 7f3e
-0.16921602 0.11206331 -0.1946953 0.25761285 -0.20259069 -0.1632403 0.084006526 -0.2172726
-0.11297065 0.105914146 -0.10826609 0.0660102 -0.23572943 0.0054902276 -0.17348497 0.12455076
-0.014081441 -0.06588065 -0.09421163 0.065368265 0.24081089 -0.23585548 -0.07684376 -0.024558676
0.041972335 0.044383883 -0.005302323 -0.16169506 0.1343587 0.13422033 -0.11212987 -0.012654587
0.14779043 0.08447982 0.18919374 0.10365442 -0.0055801454 0.117592424 0.035460897 0.069623224
-0.087515846 0.08496733 -0.23937458 -0.22879694 -0.038397953 0.0153317945 -0.12143464 0.050316967
-0.009929686 0.018107818 -0.119496465 0.0039131898 0.07340227 -0.23234652 0.07522522 -0.029079858
0.03634923 0.044405617 0.103256874 -0.055893622 -0.32351813 -0.14723144 0.07090834 0.24943009

head.norm.weight f4 [64]
00000000: 51f5 6e3f 119e 9c3f f6d8 573f 4b7b 713f
00000010: 7d3a 923f 83d8 893f d323 6f3f 42cf 7f3f
00000020: f257 923f 5d4a 6d3f 70ca 803f 2321 8d3f
00000030: 2152 a93f 63b5 5f3f 51c8 5c3f 4284 803f
00000040: 6ad9 653f 7745 6e3f 11d2 9b3f c1d3 8d3f
00000050: f5cb 703f bb33 a33f ee36 673f 8ff5 713f
00000060: c508 b73f 18d4 5d3f 2bd6 823f 8631 9d3f
00000070: 0b94 683f e048 933f 3024 9c3f df45 a83f
00000080: cf9f 5c3f cb3b 883f ae53 6c3f d6e8 613f
00000090: 9d54 b53f ff27 b43f 8b26 683f 6dcb 853f
000000a0: e4a8 643f 5716 6f3f cbd8 a33f 8935 843f
000000b0: 7a25 8c3f e3d6 773f 95c9 743f a3fb 673f
000000c0: b647 9e3f 0a1d 923f 566e 993f 86f2 9e3f
000000d0: ea39 693f a54c 7a3f 7942 6c3f abb4 673f
000000e0: 6862 663f ea4d 6b3f e845 963f 6602 773f
000000f0: 8701 703f ccb4 703f a9d3 633f 179b 7d3f
0.93343073 1.2235738 0.8431543 0.94328755 1.1424099 1.0769199 0.9341404 0.99925625
1.1433089 0.92691594 1.0061779 1.1025738 1.3228189 0.8738615 0.8624316 1.0040362
0.8978487 0.93074745 1.2173482 1.1080247 0.94061214 1.2750162 0.9031819 0.9451532
1.4299551 0.86651754 1.0221609 1.2280738 0.90850896 1.1506615 1.2198544 1.3146323
0.8618135 1.0643247 0.92315185 0.88245904 1.4166447 1.4074706 0.9068381 1.0452706
0.89320207 0.9339346 1.2800535 1.0328838 1.0948937 0.96812266 0.9562009 0.9061834
1.2365634 1.1415112 1.1986797 1.2417762 0.91103995 0.977732 0.9228893 0.9051005
0.89993906 0.9191576 1.1740084 0.96488035 0.9375233 0.94025874 0.8899484 0.99064773

head.norm.bias f4 [64]
00000000: a36c b63e 7836 ec3d 9ccf e3be 4e3d 9d3c
00000010: 41e4 02be 39c9 e43b 6301 d1be e3b7 03bc
00000020: 174b 503d efb9 b03e 652c f23c 1a25 3e3e
00000030: f0f9 66bd d783 653e a6f1 b33e 3811 113e
00000040: 8488 c9be a2db a73e e108 47be 8306 0b3e
00000050: 68fe 07bd fe1b 32bd 6273 c0be 7ada 1a3e
00000060: d35b c83e ffbd d13e ee0c 233e 3944 973d
00000070: 2851 863e 6bde 1dbd 5236 f4bd 21db 003d
00000080: 5bd1 5a3e c34e 953e 4f47 b6be 8d84 cdbe
00000090: b766 34be 1036 133d 4b8b 2fbe 2ceb 1bbe
000000a0: ce90 5b3d d6d2 40be 050b c7bb d065 1a3e
000000b0: 934f 6b3d eb19 dfbe 4af6 08bd 082a a03d
000000c0: babb 653d 1d33 63bd 9890 0dbd d05d 2c3a
000000d0: a716 ec3c 956f e8bc 9c62 a4be a68d 55be
000000e0: 5168 c4be c8d0 a83e 24bc b0bc fd34 7dbe
000000f0: 9857 7b3d 9bfc d5be c6ae 7c3e f8f5 613e
0.35629758 0.115338266 -0.4449433 0.019194271 -0.12782384 0.0069819954 -0.4082137 -0.0080394475
0.05085286 0.34516856 0.029562185 0.1856884 -0.056390703 0.22413574 0.351453 0.14166725
-0.39361966 0.32784754 -0.19436981 0.13576703 -0.033201605 -0.043483727 -0.3758803 0.15122405
0.39132556 0.40965268 0.15922901 0.07386059 0.26233792 -0.038542192 -0.11924423 0.031458978
0.21368925 0.29161653 -0.3560128 -0.4014019 -0.17617308 0.03594023 -0.1714298 -0.1522643
0.053604893 -0.18830428 -0.0060743117 0.15077901 0.057448935 -0.4357446 -0.033438005 0.07820517
0.056087233 -0.055468667 -0.034561723 0.00065752584 0.028819395 -0.028373519 -0.32106483 -0.20854816
-0.38360837 0.32971787 -0.021574087 -0.24727245 0.061362833 -0.41794285 0.24676046 0.22066486

head.norm.running_mean f4 [64]
00000000: eddc cd3d 62b4 b63d a8c6 30bf d9b7 563e
00000010: 7e12 98be 18be 34be 9141 0ebe 7746 60be
00000020: a616 16be d6a5 853e 5499 06be 7d3a d33d
00000030: 8e93 4fbe 4ed7 273e 7728 f83d 8e70 c13d
00000040: 985c 1dbf b9d7 623e 4f6b 56be 205f 233d
00000050: 4f8d 723e 95df 65be 3e47 2cbe 717f 343e
00000060: 4815 133e bce1 9d3e c404 c03e c3b1 3dbe
00000070: 046f 873e 4fc9 0d3e fe52 b5bd bd0e 11bd
00000080: d25f f33e 3af0 9b3e 8693 ad3e eaa2 18bf
00000090: 4ad3 8a3d 04e7 d53d 3965 0cbe 2a85 0bbe
000000a0: bb02 8b3e 8f7e 37be 71ad 80be e424 85be
000000b0: 7fda 15bd f742 91be e3c3 e9bd 5cb8 bb3e
000000c0: 8101 26bd 27ff f53c 6409 f4bd d73d 4f3b
000000d0: e3e1 ed3e f772 4ebe 7bbc 9cbe a36e 45be
000000e0: 76e4 5fbe 66af 363e 9367 da3d 4b1e 8dbf
000000f0: 2039 eb3d 784b 84be 69bf 8e3e 0d53 0d3f
0.10051904 0.08921124 -0.69053125 0.2096857 -0.29701608 -0.1765064 -0.13892199 -0.2190188
-0.14657077 0.26103085 -0.13144428 0.1031389 -0.20271131 0.16390726 0.12117093 0.09445296
-0.6146941 0.22152604 -0.20939372 0.03988564 0.23686717 -0.22448571 -0.16824052 0.1762674
0.14363587 0.30836284 0.37503636 -0.18524842 0.26451886 0.13846324 -0.0885372 -0.035414446
0.47534043 0.30456716 0.33901614 -0.5962359 0.067785814 0.10444453 -0.13710488 -0.13625017
0.2715052 -0.17919372 -0.25132325 -0.26004708 -0.036585327 -0.28371403 -0.114143156 0.36664093
-0.040528778 0.030028893 -0.119158536 0.0031622553 0.464614 -0.20161043 -0.3061255 -0.19280486
-0.21864495 0.17840347 0.106642865 -1.102487 0.11485505 -0.25838828 0.2788041 0.5520485

head.norm.running_var f4 [64]
00000000: 6f50 613d 3a05 013d 4c3b 3c3e d42d 923d
00000010: 7b35 2f3d eb47 f33c 89b9 6b3d f8f7 743b
00000020: d067 613c 0707 833d 353b 963c 963f 2f3c
00000030: 2a8f 0c3d 0e06 253d c99c 5f3d 3f50 ca3d
00000040: 460c 623e 8d96 873d b136 af3c 4e1a a43c
00000050: 9714 f23c 0421 ed3c 2187 e43c 4d38 f33c
00000060: c605 ec3c a580 8a3d 0bd2 c13d 86f4 e73c
00000070: 9b18 e63c a29e e73b 549a bc3c d536 183d
00000080: 07a9 103e 4dad 8d3d a9a4 183d 1b59 953e
00000090: 4f3c 803d ccdc 2c3d b592 d03c 26a1 793d
000000a0: b156 d13d 92be b53d 273e 453d f4b2 d63c
000000b0: 8a05 e93c 3745 c93d 9c20 da3b bd72 983d
000000c0: 00f7 5e3d 2254 c43c d869 333c f233 3f3c
000000d0: a655 1b3e 401d 823c 37db fe3d e61c 053d
000000e0: 75d7 6e3d 5383 f33c 9dc5 123d e7b8 313f
000000f0: ce78 053e 33c0 c03c 7915 143d bbe5 983d
0.055008348 0.031499125 0.18381995 0.07137647 0.042775612 0.02969738 0.057549987 0.0037379246
0.013757661 0.06397825 0.018338779 0.010696312 0.03431622 0.040288977 0.05459288 0.09878587
0.22074994 0.06620512 0.021388384 0.020032074 0.029550834 0.028946407 0.027896466 0.029689932
0.028811347 0.06762818 0.09463891 0.02831484 0.028087905 0.007068471 0.023022808 0.037161667
0.14126979 0.0691782 0.037266407 0.29169545 0.06261503 0.042202756 0.02546058 0.0609447
0.10221613 0.08874239 0.048154976 0.026208378 0.028445024 0.09827655 0.0066567194 0.074437596
0.054434776 0.023965899 0.010950528 0.0116701 0.15169391 0.015883088 0.12444156 0.032498263
0.058310945 0.029725706 0.03583299 0.69422764 0.13034365 0.023529148 0.03615329 0.074656926

body.block1.conv.weight f4 [64, 64, 3, 3]
00000000: 7d29 bd3d 14d2 a63d 3e34 113d 4dcd 32bc
00000010: 9118 ae3c 5d2f 01bd 52e2 44bd 7c39 e1bc
00000020: 4183 03be fc0e 85bc 6299 12be 3986 ab3d
00000030: 9349 373d 80aa 6cbd 2b46 373e 15fb e63d
00000040: 997e 9e3b 8ea1 c3bd 4072 243d dbb1 1e3b
00000050: 00e4 0dbd 7266 82bd 8b67 acbd 2bcb 3abd
00000060: 3615 773d f675 deb9 a567 793d 2a2d 1cbd
00000070: b1b5 63bc 972d 47bd 7531 16bc d20b 393d
00000080: 6cad 773b ed17 29be 3173 bebd 4812 c73c
00000090: 3e6d 853d cb41 013e 9c80 eb3d 7511 ddbb
000000a0: da52 85bc cc68 b7bd 72ac b9bb 4e6c 263e
000000b0: 7947 2f3e d519 adbd 0d1f f43c 8e26 3d3e
000000c0: 7909 2abd 88ad cdbc f075 4cbd 6928 65be
000000d0: f6e1 7ebd 77e0 fd3c 16cb 8b3d 3cff 81bc
000000e0: 048e 02bc c534 b93c 01d5 703d 9863 94bd
000000f0: c622 20be f6bb 033d ac34 d5bc ce35 f03d
00000100: 97d1 10bd 5c68 2cbd c383 a93d 01e9 1cbd
00000110: 41a9 85bd 9b72 c3bd a3e2 09be 508c 1fbe
00000120: b5e8 513d 89ed e5bd a2aa e0bd 6a7f 29be
00000130: 5581 9abd 631f ebbd 8fcd 553c 580b 923d
00000140: 257c 493d 51df 633d ff82 763c 94d8 c2bb
00000150: 723f ce3c 4cd4 d6bb b078 82bc 70d9 3c3d
00000160: 8c9b 74bc ca2c 183d 8c14 e23c 4a8b d2bd
00000170: 367b ad3c ed5b 51bd 7f03 ffbb c9c9 18bd
00000180: 1fac 1abe 7598 ca3d c242 0dbd a97c 2e3d
00000190: 9a65 c63d d23f 953d 7d12 98bc b350 da3d
000001a0: a099 07bd 80ad 04be 7dc5 bbbc f5cb bb3d
000001b0: b30c eabd 3c4e 003e 2250 463e 4672 d0bd
000001c0: c1af 86bd 0e6b 54bd 7fd6 5bbd d816 febd
000001d0: 601f 073c aefe 9e3c ea9e 853d b7f3 2f3c
000001e0: 9000 c5bd 5d03 d53d 4a06 44bc 2f88 32bd
000001f0: c35b 70bc 84a6 87bd 6e90 603c dc8f 9dbc
00000200: 1b89 223c 50bb 763c 8793 723d 486d fb3b
00000210: 3107 253c 9e5f ab3d 7c06 663c 8e1b 123d
00000220: 0956 f7bd 57ce 7cbd bed5 a4bd bf51 2ebe
00000230: 830c 90bd 9d48 8bbd 8847 08be 6280 adbd
00000240: 6054 3e3c 1902 cc3d 52c8 a23b 73bc 143e
00000250: e6f9 db3c f65b 9a3d 9909 113e a892 4c3d
00000260: a588 023d 1280 903c f991 53bc e236 bdbd
00000270: c148 9339 75e7 4f3b b6a8 aebd 23e8 16bd
00000280: ef64 2ebd 2fe0 a1bd 25e8 3ebe 5366 3dbe
00000290: 4087 91bd 3dca 34be d050 063d 340d 623d
000002a0: d7ce 5ebd 55ee 5e3d 92bd 9abd 6563 d33b
000002b0: e722 fa3c 1d55 f03d fcf5 afbd e3e4 153d
000002c0: 6b75 20bc c7eb ab3d 5ece 013c dca3 89bc
000002d0: 390e 193c fe34 f1bc 9b64 123d 4807 8e3d
000002e0: ab32 5dba 4b4a 453d afaf c23c 4ee1 8cbc
000002f0: 6894 26bd c225 023d 7d00 643b 7d16 983d
00000300: aa50 bb3c ce48 c03d c1de 3dbd 6f61 bdbd
00000310: bf85 9bbc 39d9 69ba 6c49 f8bd 47c4 06be
00000320: 4e15 e0bb db8e edbc 7632 133e c085 ff3d
00000330: bdef e2bc 06bb 99bc 7411 19be b22d 993d
00000340: b47e 3f3d 44f6 13bd 5cc7 653c 1124 573d
00000350: 470b e73c 6454 be3d cd51 fc3c de37 2c3d
00000360: 79b4 a4bd d17b aebd 8672 d1bd 2d0b 2dbd
00000370: 23cb b53d ca8f 993d aab2 a2bd edb2 acbc
00000380: 1b9d 93bd 897f 913c 3386 c93c 7a83 723d
00000390: 438e 8a3d a851 c33b bcc3 533d 6312 97bd
000003a0: bbf6 24bd 31ea 5bbd d2b0 873d 06a3 273c
000003b0: 7d4c 223d bf22 483d 01bc 183c d404 aa3d
000003c0: 98f3 a23d a62f 9bbb 0970 35bd 1477 07bd
000003d0: 5551 fcbc 3ebd 27bd a36e 1d3c a8fb babd
000003e0: a13f 15be 5fde b23d 165b 6a3d b4fe a83d
000003f0: 3241 0fbe 2fb8 0cbd 9709 3a3d 4244 28bd
0.09236429 0.08145538 0.035450213 -0.010913205 0.021251949 -0.03153931 -0.0480674 -0.027493231
-0.12843038 -0.016242497 -0.14316323 0.0837521 0.0447479 -0.05777979 0.1789786 0.11278359
0.004836869 -0.095522985 0.04014802 0.0024214897 -0.034641266 -0.06367196 -0.08418187 -0.045603912
0.060322963 -0.00042431027 0.06088986 -0.03812901 -0.013898299 -0.048627462 -0.009167065 0.04517729
0.0037792576 -0.16513033 -0.09299315 0.02430071 0.06514977 0.12622754 0.1149914 -0.006746466
-0.016274858 -0.08955535 -0.005666309 0.16252252 0.17117108 -0.08452193 0.029799962 0.18471739
-0.04151294 -0.02510716 -0.04991716 -0.22378697 -0.062227212 0.030990822 0.06825845 -0.015868776
-0.0079684295 0.02260817 0.058796886 -0.072455585 -0.15638265 0.032161675 -0.026026092 0.117290124
-0.03535613 -0.042091712 0.08277085 -0.038308147 -0.06526423 -0.09543344 -0.13465361 -0.15580869
0.051247317 -0.11226947 -0.109700456 -0.16552511 -0.075441994 -0.11480596 0.013049497 0.0713107
0.04919066 0.055632893 0.01504588 -0.0059462283 0.025176737 -0.0065560695 -0.015926689 0.046105802
-0.014929663 0.03715209 0.027597688 -0.102804735 0.021176916 -0.051113058 -0.007782399 -0.037301812
-0.15104721 0.0989236 -0.034487493 0.042599354 0.09687348 0.072875634 -0.018563503 0.106599234
-0.033105493 -0.1295681 -0.022921318 0.09169761 -0.114282034 0.12529844 0.19366506 -0.10178046
-0.06576491 -0.051859908 -0.053671356 -0.12406701 0.0082472265 0.01940855 0.06524451 0.0107392585
-0.09619248 0.10401032 -0.01196439 -0.043586906 -0.014670315 -0.06623557 0.01370631 -0.019233637
0.009920384 0.015059307 0.059222724 0.0076729394 0.010072515 0.08367847 0.014039632 0.03567081
-0.12076957 -0.06172022 -0.080485806 -0.17023371 -0.070336364 -0.06800959 -0.13308537 -0.08471753
0.011616796 0.099613376 0.0049677277 0.14525013 0.02685256 0.075370714 0.14163817 0.04994455
0.031868596 0.017639194 -0.012913221 -0.09238984 0.0002809223 0.0031723653 -0.08528273 -0.036842477
-0.042576727 -0.07904088 -0.18643244 -0.18496065 -0.07105875 -0.17655273 0.032791913 0.055188373
-0.054396477 0.05442651 -0.07555689 0.0064510577 0.03053422 0.11734984 -0.0859184 0.036595237
-0.00979362 0.0839458 0.007922737 -0.016801767 0.00934177 -0.029444214 0.035740476 0.069349825
-0.0008438031 0.048166554 0.023765413 -0.017197277 -0.040668875 0.03177429 0.003479033 0.07426164
0.022865612 0.093888864 -0.046355013 -0.092470996 -0.018984674 -0.00089206133 -0.12123379 -0.13160811
-0.006838477 -0.028998783 0.14374718 0.12476683 -0.027702207 -0.018765938 -0.14948064 0.07479419
0.046751693 -0.03612353 0.014024582 0.05252463 0.02820362 0.0929344 0.030800724 0.042045467
-0.08042235 -0.0851971 -0.10226922 -0.042246986 0.08876636 0.07498129 -0.07944234 -0.021081412
-0.072077 0.017761009 0.024600124 0.059207417 0.067654155 0.005960662 0.05170034 -0.07376554
-0.040274363 -0.05369014 0.06625523 0.010231739 0.039623726 0.04886126 0.009322167 0.08301702
0.07956618 -0.0047359047 -0.0442963 -0.033072546 -0.0308005 -0.04095196 0.009608897 -0.09130031
-0.14575054 0.0873382 0.057215773 0.08251706 -0.13989714 -0.03435534 0.0454193 -0.04108072

body.block1.conv.bias f4 [64]
00000000: 8309 803d f140 04bd c75f 293c 4fb8 75bc
00000010: adf8 e83c 771d 983c 712c 4bbd 7714 05bd
00000020: fb34 b63c 1660 863d 8013 bdbd ad4f 3b3d
00000030: 1e18 01bd 77d5 a93d 910d 92bd e3fd 84bd
00000040: a570 4dbd 1ff8 743d 619c 23bd a065 81bd
00000050: 728e 823d 9c67 e03c cc47 0ebd e5b9 6fbd
00000060: db81 b5bc 3a00 eebc 02f9 0dbc d321 2fbe
00000070: 9a48 5f3e 5828 38bc cea1 2abd d75e 50bc
00000080: 4c93 a33c b571 123e 5734 fdbc 3643 4e3d
00000090: 43f3 5f3d 65bd 37bd 54e4 8cbc 25ec 9fbd
000000a0: 372a 383c 2212 a13d 34a5 32bc 7682 0fbd
000000b0: d2f8 663d 900d 9ebc f5db 8d3c f222 a13d
000000c0: a699 8c3d 6bde a83d 159d c53c 22b9 60bd
000000d0: b978 2cbe 12fa ff3d d552 b13c 2c4e eb3c
000000e0: ae0f 623d 8e87 7c3c 869f 18bd a2a4 e7b9
000000f0: c47e 653d f9c0 9fbd 8b6c f5bd 5a0c 963d
0.06251814 -0.032288495 0.0103377765 -0.014997556 0.02843889 0.018568737 -0.04960293 -0.03249022
0.02224206 0.06561296 -0.09232235 0.04573028 -0.03151714 0.08292668 -0.07131494 -0.064937375
-0.050156254 0.05980694 -0.039944056 -0.063182116 0.063748255 0.027393155 -0.03473644 -0.058526892
-0.022156646 -0.029052842 -0.008665325 -0.17102747 0.21805039 -0.011240087 -0.041658215 -0.012717924
0.019967698 0.14301188 -0.030908747 0.050357066 0.05467535 -0.044858355 -0.01719872 -0.07808713
0.011240534 0.07864787 -0.010903645 -0.035036527 0.056389637 -0.019293576 0.017316798 0.078679934
0.068652436 0.08245548 0.024122754 -0.054864056 -0.16842927 0.12498869 0.021645943 0.028723799
0.055190735 0.015413178 -0.03726151 -0.00044182414 0.056029096 -0.078004785 -0.119835936 0.073265746

body.block1.norm.weight f4 [64]
00000000: 720c 853f e579 713f b530 693f 6ae2 793f
00000010: 81b0 8d3f b69b 943f 8c54 673f d516 773f
00000020: df8f 723f 7aec 713f f12d 633f e907 523f
00000030: d22d 893f 1d37 7d3f 62fd 7a3f 6826 6a3f
00000040: dccd 913f 3a6f 7c3f 83b5 853f 769d 6a3f
00000050: 9bdb 4f3f a7eb 8a3f 2c8c 7b3f 2702 823f
00000060: 13d4 723f 36fc 673f 1e56 6e3f 337f 873f
00000070: 72a8 7e3f 948b 8e3f 4e4e 2f3f 12ee 8e3f
00000080: 44bc 3a3f 3e1a 893f 57d5 6e3f 1345 703f
00000090: cdad 7c3f 51d1 7a3f 17f6 973f 76af 823f
000000a0: ac5c 803f 3fa7 7b3f 07bc 723f 7ce7 8c3f
000000b0: 5bf5 843f ca31 4c3f 54f6 823f 4944 6d3f
000000c0: f7bd 7d3f e469 4d3f af88 873f 3508 853f
000000d0: 4214 8a3f eca7 7e3f a548 873f 1ebd 773f
000000e0: 5520 5f3f 0205 4d3f 7c99 7f3f b6a9 6c3f
000000f0: e8f7 933f 0dca 5c3f e490 883f d8f4 763f
1.0394423 0.9432662 0.91089946 0.97611105 1.106949 1.1610019 0.90363383 0.96519214
0.9475078 0.9450146 0.88741976 0.8204332 1.0717108 0.9891222 0.9804288 0.91464853
1.1390948 0.9860722 1.0446018 0.91646516 0.81194466 1.0853165 0.9826076 1.0156907
0.9485485 0.9061922 0.93100154 1.0585693 0.9947578 1.1136346 0.6847886 1.1166403
0.7294352 1.0711133 0.9329428 0.938554 0.987027 0.9797564 1.1871976 1.0209796
1.0028281 0.9830207 0.94818157 1.1008143 1.0387377 0.7976347 1.0231423 0.9268232
0.9911799 0.802397 1.0588588 1.039313 1.0787432 0.9947498 1.0569044 0.96772945
0.8715871 0.80085766 0.99843574 0.9244646 1.156003 0.86245805 1.0669217 0.9646735

body.block1.norm.bias f4 [64]
00000000: ce94 983e a8b0 283f d3ea 513e 1032 583e
00000010: ca9c cc3e eb0e b73e ace5 0e3e 8bd0 2b3e
00000020: 5975 303e 36fb fe3c 9e7d a23e a246 22be
00000030: 7a81 1e3e a6b7 a03d d57e 50bd 1023 4f38
00000040: 4ecb 893e 488b d33e 1db7 c6bd 6db5 c53e
00000050: d8a8 c83e 889b 883e 7803 ba3d 3538 6d3e
00000060: fcfc 0c3f 1939 683e efde 9c3e 824f 693e
00000070: b46e 423d b2b2 063c 8f64 203f e8cd ee3d
00000080: 38c1 013f a756 a23e 5bd9 be3e 6fe1 eb3e
00000090: 3d9e a93d 5607 b23e efe0 b13c 9842 f43e
000000a0: 3b0e 003e 6993 023e 25ed 903e 3eb2 163e
000000b0: a89a db3c d4f6 af3e 399d 02be 1773 7a3e
000000c0: ec5a cdbd 99e8 b43e fdaa 8e3e b077 553e
000000d0: 2ee8 223e 5104 223e 1f82 313e 954a 063e
000000e0: 6105 703e bcd2 b33e 80c3 623e bab2 ed3e
000000f0: e663 513e 03ea e7be 3c78 9c3e c38e 863d
0.2980103 0.65894556 0.20499735 0.21112847 0.3996337 0.3575357 0.139548 0.16778772
0.17232265 0.031125646 0.31736463 -0.15847257 0.15479079 0.07847528 -0.050902206 4.93853e-05
0.26912922 0.413172 -0.09702895 0.3861498 0.39191318 0.2668116 0.09082693 0.23165973
0.55073524 0.22678031 0.30638835 0.22784236 0.047468856 0.008221315 0.6265344 0.11660367
0.50685453 0.31706735 0.37275204 0.4607043 0.08282135 0.34771222 0.021713702 0.47707057
0.12505428 0.12751545 0.28305927 0.14716431 0.026807144 0.34368002 -0.12755288 0.24457966
-0.100271076 0.35333708 0.2786483 0.20846438 0.15908882 0.15821959 0.17334794 0.13114388
0.23439552 0.35121715 0.2214489 0.4642542 0.20448264 -0.45295724 0.30560482 0.065701984

body.block1.norm.running_mean f4 [64]
00000000: 44e2 7abf 3e8f 3fbf 211c a3c0 d8a1 0fc0
00000010: 908f 6bbe 79bf 2a3f 712b 4fc0 121f d5bf
00000020: d4cb 27be 0b93 923f fa26 6ec0 b8c4 18c0
00000030: bddc d8bd ac53 5bc0 028e f5c0 c9f7 09c0
00000040: 01c5 723c ebf7 c4bd be06 cbbf 4861 dbc0
00000050: 31ff 94c0 ee43 8ac0 afa1 3dc0 244b d4bf
00000060: c37c 5abf 9542 82c0 d165 98c0 db66 56c0
00000070: f8a8 0dc0 f538 36c0 e740 a0c0 450d 2ec0
00000080: dcc8 32bf 1199 fc3e 2751 3640 ea9d 3ebf
00000090: db3d 64c0 3fd6 cf3e 6cc6 98bf 4ea5 00c1
000000a0: f4c8 e8bd fe1d 813e 08e2 3e40 baf9 ed3f
000000b0: 5da5 9c40 3fbe 02c1 5bbd 40bf 52b5 90c0
000000c0: c2b7 013f d53b dac0 d593 b5be e082 e43f
000000d0: 6f2f 3ebf d599 9ec0 6f28 d8be 0197 703e
000000e0: 4e4a 9bc0 47be 72be 147a 93c0 a3a1 b2bf
000000f0: d0c6 ffbd 9ad3 e1bf 918f aec0 25c0 15be
-0.98001504 -0.74827945 -5.0971837 -2.2442532 -0.23003983 0.66698414 -3.2370265 -1.6650107
-0.16386348 1.1451124 -3.721129 -2.3870068 -0.105889775 -3.426982 -7.673585 -2.1557486
0.014817477 -0.09617599 -1.5861433 -6.855625 -4.6561513 -4.320792 -2.9629934 -1.6585431
-0.8534662 -4.0706277 -4.7624288 -3.3500278 -2.213438 -2.8472264 -5.0079226 -2.71956
-0.6983774 0.4933553 2.8487031 -0.7445971 -3.5662754 0.40593144 -1.1935554 -8.040358
-0.11366454 0.25218195 2.9825459 1.8591835 4.895186 -8.171447 -0.75288934 -4.522134
0.5067102 -6.8198037 -0.3546435 1.785244 -0.7429113 -4.9562783 -0.42218348 0.23495103
-4.8528204 -0.23705398 -4.608652 -1.3955578 -0.12489092 -1.7642701 -5.455025 -0.14624079

body.block1.norm.running_var f4 [64]
00000000: 0def 0541 1f94 c340 aeee 4640 efce 8840
00000010: ba1c c240 dece 9440 f618 0040 67ed f140
00000020: 7967 8e40 050f a640 9f58 5740 67f7 c03f
00000030: 0593 2241 eb96 6640 472b 5540 107f 7240
00000040: bfc7 5e41 2340 6940 02ed 4040 77f9 c840
00000050: c091 1e41 4787 fd40 fff9 e140 0e7d 0241
00000060: eabc 8940 be0d a340 a9f9 9940 efc4 3f40
00000070: 02d3 7140 ef02 cc3f f87c 2f40 8ef6 1b40
00000080: e67d 5340 7ca7 c740 910e af40 a6b5 9040
00000090: 79cb 4640 c051 c240 a4aa 0540 dc33 b240
000000a0: 9fd3 0f40 1b3d 4a41 35d7 8341 b03e 8a40
000000b0: 0be7 1940 4e47 fd40 b66a d140 1ccc 0541
000000c0: 2d3e 7940 b268 de3f f2f5 8741 8f52 e240
000000d0: 0a6d 8d40 3907 8840 f773 ec40 be94 6740
000000e0: c332 b440 c315 1b41 8503 3f40 1b25 2040
000000f0: d1ab 2540 85a3 563f b55c 2040 0718 aa3f
8.370862 6.111831 3.1083179 4.2752604 6.0660067 4.6502523 2.0015235 7.56023
4.450131 5.1893334 3.364784 1.5075501 10.160893 3.6029613 3.3307664 3.7890053
13.923766 3.6445396 3.0144658 6.2804523 9.9105835 7.9227633 7.061767 8.155531
4.304311 5.0954275 4.811726 2.9963949 3.778504 1.5938395 2.7420025 2.4369235
3.3045592 6.239195 5.470528 4.522174 3.106169 6.0724792 2.08854 5.5688305
2.2472913 12.639918 16.480082 4.3201523 2.4047267 7.914954 6.544276 8.362331
3.89442 1.73757 16.99509 7.072578 4.4195604 4.2508817 7.389156 3.6184535
5.6311965 9.692813 2.9845898 2.5022647 2.5886118 0.8384326 2.5056584 1.3288583

body.block2.conv.weight f4 [64, 64, 3, 3]
00000000: 9e94 6fbd 2bc3 c4bc 80f6 52bd 0c15 adbc
00000010: 739c cebc 8b80 0fbd 7fd2 f2bc 3c4b 6ebd
00000020: a389 a8bc 0659 453c 6d13 7cbc 0321 71bd
00000030: 427a 5cbd a5d9 c3bd 5fa0 9dbd 1fad 203c
00000040: 5297 3dbd 8b49 0bbd 8a24 023e 8087 103e
00000050: e1d8 c33d 3a15 aa3c 1142 c43d 8c13 8e3d
00000060: c131 6a3c e80e f13d cfc5 7d3d 23d6 fb3d
00000070: bef6 083d 1b36 0b3d 753f e03c 9ce5 903d
00000080: a549 b33d abff d23d 2287 913d 3110 b43d
00000090: 3af9 8dbd bad3 cabd b718 b7bd 9513 22bd
000000a0: 0352 70bd f135 a5bd 6aa4 10be 5ab5 12be
000000b0: 1462 30be 0177 e3bd efdf 0cbd ef77 19be
000000c0: 8354 65bd b2df 9f3c b975 15bd a9b3 493c
000000d0: 11c6 0bbd 95b8 e7bb 220e cebd 5e58 cabd
000000e0: 826d a3bd a60e b0bd c4b5 09be 97c3 a9bd
000000f0: 302e b5bd bb5b afbd 0c5e 40bc 94b4 b0bd
00000100: a5d3 ab3c 15f1 ddbc eaba 05bd 6439 9fbd
00000110: e7bd 47bd c247 9bbd 08cd d8bc 8393 31bd
00000120: 4274 a1bc 71ef c7bd 3171 54bd 791c bcbd
00000130: b5b6 1abd adf8 67bd f6f3 5dbd 07ea 84bd
00000140: de3f 4dbc c687 c1bc 819f bebd 584b d2bd
00000150: 38af 133c 525a 7d3c 90f3 41bd fe1c 5cbd
00000160: ebb7 13bd 93b5 91bd 7ea9 9b3d bfdf 3a3d
00000170: d40f 2e3d fadb 55bc fcc0 533d 5c7f 893d
00000180: 84d6 88bd d58a 233d d8ad 603d e939 47bb
00000190: 3f20 c9bd 2475 d1bc 7d88 3d3c fd00 973d
000001a0: 6f1b 3d3c 0d4d febd 0041 9ebd b576 99bd
000001b0: 083c 403d cadd 1b3d 8a03 35bc 7a53 8f3c
000001c0: 3782 8b3c fbe5 b7bc 987b 013d c9cf fbbb
000001d0: 5fef 373b 2d33 363c 66c0 9e3d 9a77 4dbb
000001e0: 9aef 19bd 54b4 f8ba fc6c f83d eeb5 a13d
000001f0: c2ee 233d 8ad3 a33d 45fc 84bd 4370 89bd
00000200: d46c 1bbd 3598 dcbd f772 cbbd 29a7 f1bd
00000210: 72bf 01be 88b7 fbbd e492 97bd babe 86bd
00000220: 4394 cabd a722 93bc 73a8 8d3c a447 663c
00000230: ddc2 d0bc 5d76 d8bd 9a11 47bc 247b 0f3d
00000240: ced4 51bd 2abb 38bd 397b 61bd 4e16 d7bd
00000250: 3953 00be 3771 bebd 166e 113b b071 12bc
00000260: 0543 173d c313 32ba fed3 23bd d1d7 fabc
00000270: 92ab b43d 4bd7 773c 07ec 42bd 673f 0ebd
00000280: 2918 5dbd b51c cfbd 992c a03d f842 3d3c
00000290: 0edf 08bd 3a9f 9b3c a1c1 acbd 2cfe 483d
000002a0: f4ed 303e 04e7 403d 8de4 883d 3dc9 c1bc
000002b0: 90b7 563d 2496 2b3d f9a0 78bd ef58 303d
000002c0: 5d5f 553d 4ed2 69bb af9f 4f3d 6c75 32bd
000002d0: 9d5f 1e3d d9d0 313d 5ef8 123e f6a5 97bd
000002e0: e24b 773b 0b44 523c ff37 6dbc c081 2fbd
000002f0: ba67 f8bc f0b8 92bc fc56 383d abcd 923d
00000300: 7a11 bdbd 2d48 99bd b5a3 72bd b77b 043e
00000310: 2a1b 623d 3028 ef3c c693 fabc f47d 303d
00000320: 44d9 033d 6a31 c0bb 311e 703a 1506 813d
00000330: d226 653d 170b fd3d 68b1 3b3e 0d78 a0bd
00000340: 0f89 143c 076c 123d 1f1e 7f3c d440 2fbc
00000350: abfd 613d 3746 76bd a143 a7bd 97e2 65bd
00000360: 50d2 943c 61f2 d93d 4f12 c93d ccd8 c5bc
00000370: 1bf0 1bbc e880 1dbd 073d 943d d77b 8a3d
00000380: 6807 13bc 8590 5c3d 1a6f adbb c427 a23c
00000390: 8bad 14bc bd5c 743d 6123 8b3d 9c80 e0bc
000003a0: f642 563d 19a6 973c 3957 f5bd 2ccc 8dbd
000003b0: 482f 02bd a3bb 8dbc 04a9 843d 4181 063e
000003c0: 0a37 c33b c909 093d 0296 c23c 0d97 95b9
000003d0: a2d2 813d c11a 313d c631 0c3d ad99 38bd
000003e0: 1406 0f3c 7873 a73c 59a1 ea3b 9e26 d1bc
000003f0: 7df5 403c f36e bb3a 6630 b13c b952 db3a
-0.05849134 -0.024018845 -0.051504612 -0.0211282 -0.025221085 -0.035034698 -0.029641388 -0.058177218
-0.020573443 0.012045151 -0.015385491 -0.058869373 -0.05382753 -0.09562997 -0.07696604 0.0098069
-0.04628689 -0.034005683 0.12709251 0.14114189 0.09562851 0.020762075 0.09582914 0.06937322
0.014294089 0.11770421 0.061956223 0.12296703 0.033438437 0.033987146 0.027374009 0.070750445
0.08754281 0.10302671 0.07105853 0.08792151 -0.06932302 -0.09903665 -0.08940261 -0.039569456
-0.058671962 -0.08066929 -0.14125219 -0.14326993 -0.17224914 -0.111066826 -0.034393247 -0.14987157
-0.0559888 0.019515846 -0.036489222 0.012310901 -0.034124438 -0.0070715644 -0.10061289 -0.09880136
-0.07979871 -0.08596544 -0.13448244 -0.08289259 -0.088467 -0.08562418 -0.0117411725 -0.086281925
0.020974943 -0.027092496 -0.03264896 -0.07774618 -0.04876509 -0.07582046 -0.026464954 -0.04335357
-0.019708756 -0.09762467 -0.05186576 -0.09185118 -0.0377719 -0.05663364 -0.054187737 -0.0648995
-0.012527434 -0.023624312 -0.09307767 -0.10268277 0.009013943 0.015463429 -0.04735142 -0.053738587
-0.03606407 -0.07114711 0.076006874 0.045623537 0.042495564 -0.013052935 0.051697716 0.06713745
-0.066815406 0.039927322 0.05485329 -0.0030399507 -0.098206036 -0.025568552 0.011568186 0.073732354
0.011542185 -0.1241704 -0.077272415 -0.07493345 0.04693225 0.03805331 -0.011048207 0.01749586
0.017029865 -0.02244853 0.03161201 -0.007684682 0.002806626 0.0111206 0.07751541 -0.0031351806
-0.037582017 -0.001897464 0.12130162 0.078960285 0.04002262 0.07999332 -0.06493429 -0.06710865
-0.037945583 -0.10771219 -0.09934037 -0.117994614 -0.12670687 -0.12290865 -0.07401064 -0.06579347
-0.0989156 -0.01796086 0.017292237 0.014055166 -0.025483543 -0.10569451 -0.012150193 0.035029545
-0.051228337 -0.04510037 -0.055049155 -0.10502301 -0.12531747 -0.09298938 0.002219086 -0.008938238
0.03692915 -0.0006793106 -0.039997093 -0.030620487 0.08821787 0.015127013 -0.047588374 -0.034728434
-0.05397812 -0.10112897 0.07821006 0.011551611 -0.033415847 0.018996824 -0.08435369 0.049070522
0.17278272 0.047095314 0.066842176 -0.023655528 0.052421153 0.041891232 -0.06070039 0.043053564
0.0520929 -0.003567833 0.050689396 -0.043569013 0.038665403 0.043412063 0.14352557 -0.074047014
0.0037734439 0.0128336055 -0.014478683 -0.04284835 -0.030322898 -0.01791045 0.04500483 0.07168134
-0.09231849 -0.074844696 -0.059238154 0.12937818 0.055201687 0.029193968 -0.030588042 0.04308887
0.032189623 -0.0058652656 0.00091597723 0.06299988 0.055945225 0.12355631 0.18329394 -0.07835398
0.00906588 0.035747554 0.015571146 -0.010696609 0.055173557 -0.060125556 -0.08167196 -0.056124296
0.018166691 0.10641933 0.09817945 -0.024151228 -0.009517695 -0.038453013 0.072382025 0.06761902
-0.008973934 0.053848762 -0.0052927854 0.019794352 -0.009074579 0.059658755 0.06793857 -0.027405076
0.052309953 0.018511819 -0.11979527 -0.06923708 -0.031783372 -0.017301386 0.0647755 0.13135244
0.005957489 0.033456597 0.02375317 -0.00028532036 0.06339003 0.043238405 0.034227155 -0.04506843
0.0087294765 0.020440802 0.0071603474 -0.02553111 0.011777279 0.0014300033 0.021629523 0.0016733027

body.block2.conv.bias f4 [64]
00000000: a5a4 78bd 5d82 efbd a96e afbc 0230 2f3d
00000010: 1c53 043e 7d61 c8bd 384c 60bd 5adf 2b3d
00000020: 388c 8dbc 2a18 d03c 54a4 07be 97b0 3fbd
00000030: 3133 a23d 15bf 87bb b521 bdbc 42eb d1bd
00000040: deb0 873d 5061 0b3d 210e f53c 1690 fe3d
00000050: 575d be3c 84b2 103d 0d0a bf3d 8f55 6ebc
00000060: 1b1e 32bc c3d7 07bd 1074 13bc 996b bbbc
00000070: 025f b13c b9f2 4d3d 15e2 6bbd d88e 80bd
00000080: 34d2 ea3c 1e29 d13c f2cf f0bc 5e6c 123d
00000090: 148c 983d 4253 0ebd 727d 34bd eacc 983c
000000a0: 328f 513d 8315 6bbd c1dc 1ebc 2664 a83d
000000b0: 9832 2e3d f3f5 5b3d 1ccf a63d 1f70 8e3d
000000c0: ae3a 03bd d669 21bd 9af6 84ba a075 ab3c
000000d0: 63d8 f9bd 97d3 b0bc aeb0 fdbc b615 28bb
000000e0: bfbb 02bd fdb9 1abd d6de 473d d81d 443d
000000f0: 3717 483c 761f e73b b55e 1dbd db31 8c3a
-0.060703892 -0.11694787 -0.021415072 0.042770393 0.12922329 -0.097842194 -0.054760188 0.04196105
-0.017278776 0.025402147 -0.1324628 -0.04679927 0.0791992 -0.004142652 -0.023087362 -0.1024995
0.066255316 0.03402835 0.029913964 0.12429826 0.023237867 0.035326496 0.09328089 -0.014546766
-0.0108714355 -0.03316475 -0.008999839 -0.022878455 0.021651749 0.050280306 -0.057588656 -0.06277245
0.028664686 0.025532302 -0.029396031 0.03574788 0.07448593 -0.03474737 -0.044064946 0.018652398
0.051161952 -0.057393562 -0.0096961865 0.08222227 0.04252872 0.053701352 0.08144972 0.06954979
-0.032038383 -0.039407574 -0.0010144294 0.020930111 -0.121994756 -0.021585269 -0.030968037 -0.0025647706
-0.03191733 -0.03777503 0.048796497 0.047880024 0.012212566 0.007053311 -0.038420398 0.001069601

body.block2.norm.weight f4 [64]
00000000: 3a4d 8b3f 51fb 5e3f a4c1 523f da09 8b3f
00000010: df3a 843f 337a 723f 5035 753f c293 5d3f
00000020: bf6e 7f3f a6dd 543f d341 683f 1e1f 6f3f
00000030: 7a7e 7f3f b54f 9e3f a219 723f 58ee 6c3f
00000040: b21d 8b3f f2ae 453f d9f3 6b3f 723a 763f
00000050: 5a92 623f 2f2c 503f f332 623f a0b7 7b3f
00000060: 2b2a ac3f 4652 6d3f 01c5 6f3f 93e5 603f
00000070: 4e64 773f 2343 6e3f 7fad 653f b079 923f
00000080: e106 4a3f 36fd 743f a3a1 8f3f ea5e 803f
00000090: df8e 6f3f 33ce 963f 682a 9f3f e94b 803f
000000a0: 6d98 703f 8b16 7a3f e508 803f 699b 683f
000000b0: 0058 643f 1589 513f 558d 8e3f 6a2b 783f
000000c0: 6ad8 793f 1a6a 823f f430 933f 0d19 843f
000000d0: 69bd 753f d8ce 623f b0c8 753f c9f0 543f
000000e0: f905 733f 6a79 703f cfd1 6c3f 840d 6b3f
000000f0: 57ba 663f 4f40 793f c891 7f3f 3bda 5b3f
1.0882943 0.8710223 0.8232672 1.0862381 1.0330466 0.9471771 0.95784473 0.86553586
0.9977836 0.8315071 0.9072544 0.93406856 0.9980236 1.2368075 0.9457036 0.92551184
1.0868437 0.7722007 0.92168957 0.9618293 0.88504565 0.8131742 0.8835899 0.98327065
1.3450369 0.92703664 0.9365998 0.878503 0.9663743 0.9307119 0.8971786 1.1443386
0.78916746 0.9569887 1.1221203 1.0028965 0.9357738 1.1781677 1.2434816 1.0023166
0.93982583 0.9769065 1.0002714 0.9086214 0.8919678 0.81849796 1.1136881 0.96941245
0.97595847 1.018863 1.1499314 1.0320145 0.9599214 0.8859687 0.9600935 0.8317991
0.9493099 0.93935263 0.9250764 0.918175 0.9012808 0.9736375 0.9983182 0.8587987

body.block2.norm.bias f4 [64]
00000000: 270a af3e b058 143f d39e 8e3e 9d72 0e3e
00000010: 3b8a 973e 783e d53e a909 cf3e 71f4 963e
00000020: b972 023f fcd4 173e 7424 863e e126 e83e
00000030: 5315 333e 0e11 5f3e 7c65 f4ba 3bab 1c3e
00000040: 2404 143f 3439 af3e 56a3 f13e d053 c03e
00000050: 7857 dc3d 44bc b83e 7a2b 0a3f b652 7d3e
00000060: d918 8d3f 003f 8b3e 7136 bf3e 5371 043f
00000070: fe19 613e bb2a c03e 14db 6b3e 383d 223f
00000080: 47fa 833d 50c3 833e 7477 ee3f a9d7 293e
00000090: 86c3 aa3e f300 653f a871 8c3f b2c2 a63e
000000a0: 4db2 b73e 0461 993e eac8 833e 2932 903e
000000b0: 60d3 533e 050c 7f3e 9494 6d3e 6725 8c3e
000000c0: df45 223e da26 1f3e 3985 823e 19af d03d
000000d0: 9a53 993e 85cc 523e 7386 a23d d436 523e
000000e0: 7bd8 8c3e ef04 173f 7dcd 263e f70c 9abb
000000f0: 30df 023f 5004 113f c1ea 933e 1f5f 7b3e
0.34187433 0.57947826 0.27855548 0.13910909 0.2959765 0.41649222 0.40437058 0.2948337
0.509563 0.14827341 0.26199687 0.45342162 0.17488603 0.2178385 -0.0018645967 0.15299694
0.5781882 0.3422333 0.47194928 0.37563944 0.10758871 0.36081135 0.5397259 0.24738583
1.1023208 0.27196503 0.37346223 0.5173542 0.21982571 0.375326 0.2303279 0.6337466
0.06444221 0.2573495 1.8630204 0.16586174 0.33352298 0.89454573 1.0972185 0.32570416
0.3587822 0.2995683 0.25739223 0.2816327 0.20686102 0.24906929 0.2320121 0.27372286
0.15846966 0.15542164 0.25492266 0.10189647 0.29946595 0.2058583 0.079358004 0.20528728
0.27508911 0.58991903 0.16289325 -0.0047012526 0.5112181 0.56647205 0.2889004 0.24548005

body.block2.norm.running_mean f4 [64]
00000000: dacf f9bf 8ab4 65c0 99ae 72c0 927e 0dc0
00000010: 37da e43f bbca 70be 94f4 8abf 8470 043f
00000020: d1a8 c2bf 446a a4c0 e078 5440 6b8e 3240
00000030: 8611 65c0 e785 19c0 a34a d1c0 b0ef 21bf
00000040: 2ad7 3cc0 7fcc 5cbe fe5a 52c0 d6db a6bc
00000050: 90d3 73c0 43b3 5c40 a7f4 203f 349c 2040
00000060: f0c0 94be 40ce 14c0 fa17 2b40 2000 03bf
00000070: 0249 a5bf a0bf 823f 9d4e 5f3e 0275 e3bf
00000080: 0f6d a6c0 108e bbbf 5f80 31c0 bec8 853f
00000090: 3332 3f40 271f 4fbf 1e38 28c0 b181 41c0
000000a0: 66b0 ddbf 4e87 ffbf aca7 76c0 877f 2ec0
000000b0: 8d30 50c0 a76c f63e 5e27 f33f dafa 4e3f
000000c0: 6928 8a3f 357f 243e 50ba 67bf 8092 43c0
000000d0: 5f7c 133f 7d65 dabf a37d 22be d001 3d40
000000e0: ac97 03c0 253d 2fc0 9d42 0cc0 9e45 9b3e
000000f0: 8228 9ac0 09b2 d7bf 5c15 1840 8fa7 a4bf
-1.9516556 -3.5891442 -3.7919066 -2.2108502 1.7879094 -0.23514836 -1.0855889 0.51734185
-1.5207769 -5.137972 3.3198776 2.7899425 -3.5791945 -2.3987978 -6.540361 -0.6325636
-2.9506326 -0.21562384 -3.2868037 -0.020368498 -3.8097878 3.4484413 0.6287331 2.509534
-0.2905345 -2.3250885 2.6733384 -0.51172066 -1.2912905 1.0214729 0.21807332 -1.7770083
-5.200813 -1.4652729 -2.7734601 1.0451887 2.987439 -0.8090691 -2.6284251 -3.0235407
-1.7319458 -1.9963167 -3.8539839 -2.7265337 -3.2529633 0.4812977 1.8996389 0.8085152
1.0793582 0.1606415 -0.90518665 -3.0558167 0.5761165 -1.7062222 -0.15868239 2.9532356
-2.0561323 -2.738107 -2.1915658 0.3032655 -4.817445 -1.6851207 2.3763037 -1.2863635

body.block2.norm.running_var f4 [64]
00000000: a003 c03f 534f 3440 065e 0a42 2575 9641
00000010: b1d6 2742 95dd e841 23b9 3c41 e150 eb40
00000020: 4f2f 4c42 da40 9641 3d09 e940 55e1 2b41
00000030: a332 6f40 39e6 0840 dd41 5941 1277 fb40
00000040: 59a3 2642 04b7 5441 ab21 0241 58b4 c740
00000050: 775b f841 9267 5041 6501 7142 c665 b740
00000060: 9961 1a41 e21c b040 14c2 fb40 023a aa41
00000070: 7354 ca40 7137 0f42 95f6 8a3f d11d b241
00000080: 35b8 5c40 d67b c140 bceb 4740 5999 5542
00000090: b2b1 b841 dd91 0140 518b d83f 2b78 9840
000000a0: 5b34 2141 43ba 2f42 58f0 2740 017c a441
000000b0: b2a2 0d40 350f 6b40 80f9 e440 17e5 c141
000000c0: 1544 9140 73d3 8f41 d18e 4241 f4b8 a241
000000d0: d4ea 9841 5f37 4940 318e 9940 a64a a641
000000e0: 9947 8e41 9be4 1142 11a7 1b42 b742 9a40
000000f0: f9bf e440 1091 b241 b297 f740 4665 0e41
1.5001106 2.8173416 34.59182 18.8072 41.95966 29.108194 11.795199 7.353623
51.0462 18.781666 7.2823777 10.742513 3.7374656 2.1390517 13.57858 7.858285
41.65952 13.294682 8.13322 6.2407646 31.04466 13.025286 60.25136 5.7311735
9.648828 5.5035257 7.867441 21.278324 6.3228087 35.804142 1.0856501 22.264559
3.448743 6.0463667 3.123763 53.399754 23.086765 2.0245278 1.6917516 4.764669
10.075282 43.931896 2.6240444 20.560549 2.2130551 3.6728032 7.1554565 24.23686
4.539561 17.978247 12.159867 20.34031 19.114662 3.1440046 4.7986073 20.78645
17.78496 36.473248 38.91315 4.820644 7.148434 22.320831 7.7372675 8.899725

body.block3.conv.weight f4 [64, 64, 3, 3]
00000000: 98cb 81bd baaa 9ebd 26be e7bd 5021 eabd
00000010: c1f1 efbd beee bdbd b770 12be 8092 efbd
00000020: a8bf f6bd 55c9 73bc 67a4 e439 15f0 3c3c
00000030: bbf0 acba 59f0 30bd 4706 03bc 6c9d dc3c
00000040: 3130 22bd ebc5 fd3c 644b 00bd 5484 60bd
00000050: aaa4 7bbd 854d 97bc cab3 16bd 17c6 9abd
00000060: 9798 3bbd a71f 27bd abde afbd d5fd 1b3d
00000070: 0898 d93c 2604 063d cc05 463d e03e 113d
00000080: d270 ab3c b1ab 813d a2b2 503d f0b6 b43b
00000090: aee6 20bd 51b0 c9bd 2b1a 8bbd 2a34 a5bd
000000a0: c7c0 59bd 30d7 48bd 9f48 83bd 4530 7bbd
000000b0: 1c89 8dbd 0193 873a bb2c 41bd 6133 38bc
000000c0: 8208 debc b30b 51bd 8f1b 1dbd d754 023c
000000d0: bd9d fabc 6acf 2bbd 5be5 6aba 4466 fc3c
000000e0: 7eee b83c b372 573d 82dd bf3b 05e1 f23c
000000f0: cf73 4a3d 6444 823c d314 8fbc cc68 e13d
00000100: 8713 063d a664 893d 93fd d43d c585 6a3d
00000110: 7e31 843d 5639 b13d dc75 ad3d e791 ee3d
00000120: 791a 69bc 11ef a4bd dc1c d0bc c12c 55bc
00000130: 5c2f 50bd 5754 4cbd 14da a3bc c9e3 8dbd
00000140: 6292 85bd f707 ad3d dd10 dd3d 7861 c13d
00000150: 6fa8 d63d 0f8c 093e b7b4 123e 4c49 c83d
00000160: 9db8 fb3d 58a8 c43d 5dd3 eabc a15e 1cbd
00000170: a8ba a2bc 9f67 293c 1d16 ef3b 4a54 41bc
00000180: 2e7d 2ebd c5b4 50bc e730 d6bc a5c4 b73d
00000190: aa08 6d3d d529 3c3d 251c ca3c a862 6d3d
000001a0: b420 f63b b0de 9bbc 9cbc d23b e2cc 88bb
000001b0: 8a43 f6bd d335 84bd e4cc d7bd ff56 0abd
000001c0: 778a 2fbd 846f 73bd 0a9f bdbd e3d6 afbd
000001d0: 36d4 acbd d1a4 02be 9022 f5bd 23fe 24be
000001e0: 17d1 eabd 0312 09be 31ba e8bd 7b6f 91bd
000001f0: 8599 f8bd f759 90bd 328f be3d 42c7 903d
00000200: c689 903d 609d bd3d 07a5 cd3d 07a8 663d
00000210: 4f54 d23d 72b3 b33d 855e 903d a24c b4bc
00000220: 6f83 79bd fa1f 71bd 7ffc acbd 7594 a7bd
00000230: ea92 90bd cc33 02bd 9f86 65bd cf54 2ebd
00000240: 8c12 2c3e b7f3 003e 3e46 233e 3b65 0a3e
00000250: b8fc f83d 4f62 ee3d a99a fd3d 52b7 e23d
00000260: d3ae 023e 6bc3 7bbd ee06 10be 0382 15be
00000270: a68b 90bd 353e 97bd 571a 05be 7773 ecbb
00000280: 7cb9 7fbd 49fd a5bd 9da0 efbc b2b3 a9bc
00000290: a5e0 1abd 52c4 b9bd afa8 c5bd 77be ebbd
000002a0: c368 60bd eaed edbd 8c29 8fbd 69d4 693b
000002b0: 22a6 213d 42e1 3ebd 8132 91ba ca77 e73c
000002c0: 87ac 933c 1836 15bb a855 e73c b7b1 b83c
000002d0: e4a2 193d 8e46 233d e7e9 3cba 78a3 c43c
000002e0: 8107 343a f130 6f3d d37e 813d 0355 673d
000002f0: a631 2e3c ff39 213d 6066 183d 7e1e 743d
00000300: 47d3 453d ea26 c03d 9e93 ed3d 17be d13d
00000310: b993 ab3d b627 ab3d 4000 62bd 3999 cabd
00000320: 8515 7abd 8186 2abd e570 07bd 6726 57bd
00000330: 7429 4dbd 34fb bbbd 1504 b6bd c673 2fbd
00000340: 4d44 b4bc 5c3d 8ebb 7642 f3bb 8957 073b
00000350: 2590 d6bb e14d 0cb9 8824 14bd 1a39 eabb
00000360: a0fb be3d 4f6d 023e 8278 3a3e 9e78 d4bc
00000370: 2a87 603a 10b9 473d 83a3 c2bc a992 0fbc
00000380: 707e e3bb 3002 46bd d6fb 06bd 2b12 49bd
00000390: 2964 2abd 47eb 2fba e42a 19bc d89e c73c
000003a0: 4329 e2bb 6fc6 35bc 59dd ba3c 7d37 d5bc
000003b0: 0bbc d93c be79 ef3b 6009 04bd 7774 163c
000003c0: 24dd a1bb 1186 e1bc e1a0 83bb 75a8 09be
000003d0: 94f7 11be 411e 23be cd5a 05be a5b0 40be
000003e0: c16f 6cbe 2e08 94bd e2b9 b1bd 694f 18be
000003f0: 7bdc 9b3b 1d2a 183c 761c ffbb 5d99 eebb
-0.063376606 -0.07747407 -0.11315565 -0.11432135 -0.11716033 -0.09274052 -0.1430081 -0.116978645
-0.12048274 -0.014879544 0.00043610038 0.011531849 -0.0013194302 -0.043197963 -0.007997102 0.026930533
-0.03959674 0.030978164 -0.031321898 -0.054813698 -0.061436333 -0.018469581 -0.036792554 -0.07557314
-0.045799818 -0.04080167 -0.085873924 0.03808387 0.026561752 0.0327188 0.048345372 0.035460353
0.02092782 0.06331576 0.050951608 0.005514972 -0.039282493 -0.09848083 -0.067921005 -0.0806659
-0.053162362 -0.049033344 -0.06410336 -0.06132533 -0.06910917 0.0010343493 -0.0471618 -0.011242718
-0.027103666 -0.051036548 -0.03835636 0.007954798 -0.030592794 -0.041945852 -0.0008960568 0.030810483
0.02257466 0.05259962 0.005855263 0.029648313 0.04942685 0.015901752 -0.017465984 0.110063165
0.032733466 0.0670865 0.10399928 0.05725648 0.064547524 0.08653514 0.084697455 0.116489224
-0.014227503 -0.08053411 -0.025404386 -0.013011158 -0.050826415 -0.04988512 -0.020001449 -0.06928212
-0.06522061 0.08448785 0.10794232 0.09442419 0.10481345 0.13432334 0.1432675 0.09779605
0.122910716 0.096024215 -0.028665239 -0.038176183 -0.019864395 0.010339647 0.0072963373 -0.011799881
-0.04259985 -0.012738411 -0.026146365 0.08973054 0.05786959 0.04593833 0.024671623 0.057955414
0.0075112227 -0.019027084 0.0064311754 -0.0041748146 -0.12024601 -0.06455579 -0.10537127 -0.033774372
-0.04285666 -0.05943252 -0.0925885 -0.08585908 -0.084389135 -0.12758185 -0.11969483 -0.1611257
-0.11465662 -0.13385777 -0.11363638 -0.07101341 -0.121386565 -0.070484094 0.09304656 0.070692554
0.07057528 0.092585325 0.10041242 0.056312587 0.10269987 0.08774461 0.07049278 -0.022009198
-0.06091636 -0.058868386 -0.08446597 -0.08182613 -0.07059272 -0.03178768 -0.056036588 -0.04256135
0.1680395 0.1259297 0.15944764 0.13515179 0.12157577 0.116398446 0.12383015 0.11070122
0.12762003 -0.061465662 -0.14065143 -0.14600377 -0.07057886 -0.07384912 -0.12998329 -0.007215913
-0.06243275 -0.08104951 -0.029251391 -0.020715568 -0.037811894 -0.09070648 -0.096513145 -0.11510938
-0.05478741 -0.11617644 -0.06990346 0.0035679585 0.039465077 -0.04660154 -0.0011077673 0.028255362
0.018026603 -0.0022767838 0.028239086 0.022545679 0.03750886 0.039862208 -0.0007206485 0.02400373
0.0006867573 0.058396284 0.06323018 0.056477558 0.010631954 0.03936195 0.037207007 0.059599392
0.048297193 0.09382422 0.11600421 0.10241335 0.08377785 0.08357184 -0.05517602 -0.09892506
-0.06105568 -0.04163218 -0.03306665 -0.052526858 -0.05008836 -0.091787726 -0.08887497 -0.04283502
-0.022005225 -0.0043408107 -0.0074236942 0.002065154 -0.006547945 -0.00013380453 -0.03616765 -0.0071479203
0.093253374 0.1273701 0.18210033 -0.025936421 0.0008565063 0.048760474 -0.02375961 -0.008762994
-0.0069425628 -0.04834193 -0.032955013 -0.049089592 -0.041599426 -0.0006710779 -0.009348605 0.024367735
-0.0069018914 -0.011094674 0.022810625 -0.026027435 0.026578924 0.007308214 -0.032235503 0.009183041
-0.004939692 -0.027529748 -0.004016981 -0.13443168 -0.142546 -0.1592951 -0.13022919 -0.18817385
-0.23089506 -0.07228123 -0.086780325 -0.14874043 0.004756508 0.009287384 -0.007785375 -0.007281466

body.block3.conv.bias f4 [64]
00000000: 2e3c 9abb d77c b93d 9684 b83d 6926 0fbd
00000010: df79 8a3d f9a8 473d 8576 29bd 610f 1a3d
00000020: 0270 ed3d 1d75 dfbc 42bf ecbc d3c6 c8ba
00000030: b458 74bc 0d57 7bba bb51 b9bb 57ed 173e
00000040: 1994 b13d cb41 e13b 1877 b1bc 8336 11be
00000050: ae01 12be ea8a 9fbd 4996 b13d dad9 2c3e
00000060: dbe4 ac3d 883d 9dbc fb54 133d e32c 6fbd
00000070: 03d5 00be dc17 823c a040 d73d 3318 3b3d
00000080: d690 8c3d 2e0d e73d 5605 17bd cd40 1b3c
00000090: 4ad4 34be 94a7 953d 492d d63c 11e1 0abd
000000a0: e3ab c3bc d72c a0ba 8c1b 783d 3e3d 63bd
000000b0: d650 71bd 01af 893d 6987 453d 9a47 383c
000000c0: 4313 eebb 7ea1 7fbc 2ce1 de3d 00c0 82bd
000000d0: 38b9 613d 8559 32be afa5 14bd db83 8c3c
000000e0: eca6 003b 883d b5bd 8698 a4bc 97b4 703d
000000f0: 62f7 4b3d 0d23 473b d8ab b33d 7152 0dbd
-0.004706881 0.090570144 0.09009664 -0.03494874 0.06761526 0.04874513 -0.041372795 0.037612323
0.115936294 -0.027277524 -0.028899793 -0.0015318043 -0.014913727 -0.0009587862 -0.005655495 0.14836632
0.086708255 0.006874298 -0.021663234 -0.14180951 -0.14258453 -0.07790168 0.08671243 0.16879979
0.08442088 -0.01919438 0.035969716 -0.058392417 -0.12581258 0.015880518 0.10510373 0.045677375
0.06863563 0.11281811 -0.036870323 0.009475899 -0.17659107 0.073073536 0.02614464 -0.033906046
-0.023885673 -0.0012220395 0.060573146 -0.055478327 -0.05891498 0.067228325 0.04822484 0.01124754
-0.00726548 -0.015602468 0.10882792 -0.06384277 0.05510828 -0.17416961 -0.03629082 0.017152717
0.0019630743 -0.08849627 -0.02009226 0.058765974 0.04979647 0.0030385882 0.08773011 -0.03450245
