TrainedModels/volcano/scale_factor=0.750000,alpha=10/3/netG.pth (torch, 129419 bytes, 26 tensors)

head.conv.weight f4 [32, 3, 3, 3]
-0.046516735 0.03554095 0.0699585 -0.052388117 0.050883587 0.06349772 -0.14016677 -0.0009574899
0.21040967 -0.04676121 0.005817309 0.08212436 -0.042123728 0.00041885045 0.10779572 -0.067940824
0.089400016 0.26560852 0.08260589 0.055720963 -0.005872115 0.057428263 0.023100706 -0.03932384
-0.044133697 0.056414537 0.058299605 0.115552664 0.114106454 0.13417251 0.020874187 0.06591398
-0.07528229 -0.007977515 -0.026391413 -0.017107075 0.08542407 0.17300667 0.1423019 0.063599356
0.07672692 -0.047432005 0.07805935 0.059511364 0.08218953 0.037322924 0.05879401 0.041080195
0.019809008 0.0663344 -0.12490452 0.048290074 0.015455071 0.010752323 0.01154459 -0.012766374
-0.028922817 0.050275132 0.025451548 -0.004616004 0.03515367 0.042452797 -0.29107127 0.03567273
0.053754814 -0.0033052813 0.019923922 0.08069464 0.01694494 -0.038569283 -0.021629013 -0.3621148
-0.057189338 -0.042909358 -0.0932012 -0.03338406 -0.036965568 -0.059823178 -0.022696719 -0.050171982
-0.27227375 0.0912814 0.05767108 -0.20712335 0.08100482 0.013644997 0.0017195956 0.089615315
0.028194448 -0.04350751 -0.026768703 0.010354042 -0.15097062 -0.031390928 -0.008166889 0.021639712
-0.036006004 0.00761875 0.020916453 -0.08125826 0.013181772 0.029839966 -0.056138095 -0.031362325
0.18469384 -0.028021758 -0.007134272 0.080635644 -0.019626308 -0.071417 -0.07097909 -0.01924635
-0.03939924 -0.06504421 -0.007337954 -0.07012217 0.2202939 0.046248604 0.0019289396 0.014098115
0.024139944 -0.06434863 -0.01678141 0.047969945 0.042003024 0.42816228 0.06052197 0.04490873
0.058852755 0.05267616 0.027543902 0.06463254 0.13615182 0.08686219 0.4342237 -0.0098222345
0.028701266 -0.048466414 0.07571162 0.048040483 -0.007984339 0.10101794 0.05022993 -0.19261065
-0.0027544016 0.062042117 0.059973177 -0.025935167 0.070321545 0.0403631 -0.12379825 -0.027757864
-0.25719312 -0.029583877 -0.006513953 -0.042373996 -0.025837956 0.048715807 0.0092193205 -0.0023341456
-0.026967503 -0.15782386 -0.056366123 -0.018347953 0.12007318 -0.025966667 -0.008536151 0.037306912
-0.18331882 -0.056364723 -0.052899983 -0.06919964 -0.07614258 0.057527456 -0.065990694 -0.08574937
-0.11131861 -0.047482006 0.024651906 -0.045473926 -0.041156203 -0.14460231 -0.028813992 -0.0010051598
-0.057866156 -0.083912246 0.011826564 0.06095827 -0.029089453 0.042194825 -0.005220096 -0.034320276
0.051548824 0.016134206 -0.03213403 -0.010416396 0.17978099 -0.038495366 -0.09594942 -0.027458772
-0.043130368 -0.10519894 -0.033764787 -0.017472604 -0.09787293 0.13391516 -0.024689613 -0.2742087
-0.14355543 -0.06256777 -0.28086933 -0.124126405 -0.08584935 -0.26586837 -0.035792943 -0.123956986
-0.18339984 0.027971253 0.1283214 -0.055134665 0.016731495 0.013009015 -0.07744052 0.027266907
0.026151419 -0.014512047 -0.016901167 0.0771359 0.13385601 -0.04298345 -0.100584365 0.10039986
-0.028632471 -0.12912606 -0.047970913 -0.07823701 -0.010122497 0.031044064 -0.052916106 -0.061235122
0.022032218 -0.012199199 -0.09622466 0.034870394 0.046943497 0.14709173 -0.0055183056 0.05395547
0.021344807 -0.11049437 -0.07400926 -0.09503738 -0.075201705 -0.023075301 0.22601472 -0.15008067
00000000: 5588 3ebd 6393 113d 6746 8f3d ec94 56bd
00000010: 4f6b 503d 180b 823d e187 0fbe 0f00 7bba
00000020: a275 573e af88 3fbd 209f be3b d130 a83d
00000030: ee89 2cbd 2899 db39 01c4 dc3d 8f24 8bbd
00000040: 5b17 b73d d7fd 873e 472d a93d aa3b 643d
00000050: df6a c0bb e639 6b3d b13d bd3c 0912 21bd
00000060: 89c5 34bd ee12 673d 91cb 6e3d e0a6 ec3d
00000070: a5b0 e93d 8564 093e 5800 ab3c e9fd 863d
00000080: 9a2d 9abd 20b4 02bc ce32 d8bc 2324 8cbc
00000090: d1f2 ae3d a928 313e 97b7 113e 6140 823d
000000a0: 0123 9d3d 1048 42bd 95dd 9f3d 30c2 733d
000000b0: fc52 a83d ecdf 183d fdd1 703d b543 283d
000000c0: 8046 a23c 54da 873d f1cd ffbd d0cb 453d
000000d0: 4437 7d3c 832a 303c 8525 3d3c 0e2a 51bc
000000e0: 8bef ecbc 4ced 4d3d c47f d03c d941 97bb
000000f0: 4bfd 0f3d fce2 2d3d 4b07 95be 921d 123d
00000100: 022e 5c3d 6b9d 58bb 7e37 a33c 3b43 a53d
00000110: 1dd0 8a3c d3fa 1dbd 542f b1bc 1c67 b9be
00000120: 5e3f 6abd b9c1 2fbd 45e0 bebd b9bd 08bd
00000130: 3569 17bd 2609 75bd 78ee b9bc 2381 4dbd
00000140: 7767 8bbe bef1 ba3d 8338 6c3d 2518 54be
00000150: dbe5 a53d 448f 5f3c 0e64 e13a 3c88 b73d
00000160: 0bf8 e63c ee34 32bd 0a4a dbbc 00a4 293c
00000170: 0b98 1abe c693 00bd 6ace 05bc c445 b13c
00000180: 087b 13bd b5a6 f93b fb58 ab3c bb6a a6bd
00000190: 5cf8 573c f272 f43c 0ff1 65bd c875 00bd
000001a0: 6220 3d3e e38d e5bc 9cc6 e9bb 4d24 a53d
000001b0: 5ac7 a0bc 1343 92bd 7c5d 91bd 85aa 9dbc
000001c0: 1961 21bd e635 85bd 3873 f0bb 369c 8fbd
000001d0: b994 613e 2d6f 3d3d 79d4 fc3a c8fb 663c
000001e0: 22c1 c53c 37c9 83bd 2b79 89bc 227c 443d
000001f0: 5d0b 2c3d 1638 db3e e3e5 773d 37f2 373d
00000200: 960f 713d f5c2 573d c0a3 e13c 115e 843d
00000210: 626b 0b3e cee4 b13d 9252 de3e 70ed 20bc
00000220: eb1e eb3c b884 46bd b20e 9b3d 19c6 443d
00000230: bfd0 02bc 7ee2 ce3d e6bd 4d3d ba3b 45be
00000240: 3183 34bb e01f 7e3d 6fa6 753d fd75 d4bc
00000250: be04 903d c753 253d f089 fdbd 7664 e3bc
00000260: d1ae 83be e359 f2bc 0073 d5bb 5b90 2dbd
00000270: 1faa d3bc 3a8a 473d a20c 173c 77f8 18bb
00000280: f4ea dcbc 949c 21be 2ae0 66bd 724e 96bc
00000290: ede8 f53d 0cb8 d4bc 36db 0bbc 22cf 183d
000002a0: eeb7 3bbe b2de 66bd a7ad 58bd 8ab8 8dbd
000002b0: a4f0 9bbd e9a1 6b3d 2126 87bd 5e9d afbd
000002c0: 03fb e3bd 7e7c 42bd cbf2 c93c de42 3abd
000002d0: 6893 28bd a112 14be 520b ecbc 91bf 83ba
000002e0: 1005 6dbd 2fda abbd 34c4 413c 61af 793d
000002f0: 014d eebc 7bd4 2c3d 570d abbb 6b93 0cbd
00000300: dc24 533d e22b 843c f99e 03bd 88a9 2abc
00000310: 8218 383e 51ad 1dbd 2181 c4bd 38f1 e0bc
00000320: 78a9 30bd 8b72 d7bd f24c 0abd b522 8fbc
00000330: 9a71 c8bd 0e21 093e df41 cabc 1565 8cbe
00000340: 3200 13be 8823 80bd 1bce 8fbe fc35 febd
00000350: c9d1 afbd e61f 88be 9f9b 12bd 29dd fdbd
00000360: 2bcd 3bbe f823 e53c af66 033e e3d4 61bd
00000370: 7d10 893c c323 553c 2399 9ebd d95e df3c
00000380: 803b d63c f0c3 6dbc 5174 8abc 6df9 9d3d
00000390: 8d11 093e 6a0f 30bd 2dff cdbd 719e cd3d
000003a0: a58e eabc 9f39 04be 267d 44bd ba3a a0bd
000003b0: d4d8 25bc 1f50 fe3c 8fbe 58bd aed1 7abd
000003c0: e97c b43c 26df 47bc 6f11 c5bd 42d4 0e3d
000003d0: d347 403d 379f 163e e7d2 b4bb 6900 5d3d
000003e0: 4edb ae3c df4a e2bd 2b92 97bd f5a2 c2bd
000003f0: 5a03 9abd 6a08 bdbc 6770 673e bfae 19be

head.conv.bias f4 [32]
0.13569127 -0.10630226 -0.0007946216 -0.08080421 -0.16832225 0.05432104 0.030718528 0.12488708
-0.2034631 -0.1829636 0.16013752 -0.055347603 0.08264669 -0.10557372 -0.17960583 -0.13804103
0.12484719 0.014499003 -0.104223944 -0.055427287 -0.11944263 -0.11896854 0.07325059 0.09309327
0.067005716 -0.14429642 -0.1264809 0.20345297 -0.21239255 0.21853353 -0.011103267 0.22321746
00000000: a7f2 0a3e 00b5 d9bd 274e 50ba ad7c a5bd
00000010: ab5c 2cbe bd7f 5e3d 6ca5 fb3c ccc4 ff3d
00000020: a258 50be cf5a 3bbe 17fb 233e 2bb4 62bd
00000030: ab42 a93d 0937 d8bd 97ea 37be a15a 0dbe
00000040: e2af ff3d 3a8d 6d3c 5d73 d5bd b907 63bd
00000050: 569e f4bd c7a5 f3bd 6804 963d afa7 be3d
00000060: 4b3a 893d 71c2 13be 3684 01be fa55 503e
00000070: 6f7d 59be 41c7 5f3e 7aea 35bc 1e93 643e

head.norm.weight f4 [32]
0.82615095 0.6165558 0.9912258 0.95949626 1.2328622 0.92452306 0.9239189 0.91922545
0.92257106 0.96540153 0.88438064 0.8977656 1.0419137 0.9137268 0.821145 1.0687299
0.9709224 0.85136837 0.9954065 1.031742 0.77511775 1.0686694 0.61329573 1.0104363
0.8861004 0.6402293 0.8430921 0.8837425 1.0037174 1.1796222 1.047985 1.0088736
00000000: a17e 533f 9ad6 1d3f f9c0 7d3f 8ca1 753f
00000010: 6ece 9d3f 8bad 6c3f f385 6c3f 5c52 6b3f
00000020: 9e2d 6c3f 8e24 773f c566 623f f7d3 653f
00000030: 6e5d 853f 00ea 693f 8f36 523f 24cc 883f
00000040: 5f8e 783f 47f3 593f f6d2 7e3f 1f10 843f
00000050: 1e6e 463f 29ca 883f f300 1d3f fa55 813f
00000060: 7ad7 623f 11e6 233f e2d4 573f f33c 623f
00000070: d079 803f dcfd 963f 5f24 863f c522 813f

head.norm.bias f4 [32]
-0.21465538 -0.34234455 0.034363963 -0.27748212 -0.07431094 -0.14418103 -0.09102983 -0.033593543
-0.13770524 -0.36186323 -0.19258058 -0.31691936 0.05633754 -0.109990306 -0.28348964 -0.08371681
-0.33523828 0.03365542 0.038722944 -0.23499294 -0.12346698 -0.03990207 -0.35862237 -0.1731107
-0.11396722 -0.36960116 -0.4040046 -0.32011315 -0.26353756 -0.078958474 -0.034781028 -0.032737475
00000000: 9fce 5bbe c947 afbe 3ac1 0c3d 2312 8ebe
00000010: 5630 98bd 31a4 13be d96d babd 6299 09bd
00000020: 9a02 0dbe 2346 b9be d833 45be 4143 a2be
00000030: 31c2 663d 9942 e1bd 8e25 91be b873 abbd
00000040: 5aa4 abbe 44da 093d f39b 1e3d fda1 70be
00000050: 42dc fcbd 5a70 23bd 5a9d b7be ee43 31be
00000060: a567 e9bd 5d3c bdbe b1d9 cebe dfe5 a3be
00000070: 65ee 86be fbb4 a1bd 8d76 0ebd bb17 06bd

head.norm.running_mean f4 [32]
-0.31353924 -0.7382522 0.61600405 -0.05992832 -1.0871904 0.32329598 0.55407864 1.1914011
0.029523555 -0.13352066 0.20797078 0.62657386 0.40243405 0.51299226 -0.19576992 -0.72931856
0.1494992 -0.056278713 0.032198194 -0.7110227 -0.40563074 -0.046640802 -0.55263096 0.9348567
1.0328676 -0.81759953 1.2974079 0.33247924 -0.09331138 0.3374294 0.23989052 0.47302678
00000000: 3788 a0be 19fe 3cbf 71b2 1d3f 6677 75bd
00000010: 0e29 8bbf 0d87 a53e 19d8 0d3f d57f 983f
00000020: 62db f13c a4b9 08be 4bf6 543e 2567 203f
00000030: d60b ce3e 7653 033f e977 48be 9fb4 3abf
00000040: 5116 193e 8284 66bd 41e2 033d 9505 36bf
00000050: d5ae cfbe 6d0a 3fbd 3979 0dbf c552 6f3f
00000060: 0135 843f 344e 51bf 7611 a63f b83a aa3e
00000070: 091a bfbd 8cc3 ac3e dca5 753e 9130 f23e

head.norm.running_var f4 [32]
0.07167208 0.14013632 0.11540492 0.0033881145 0.22974354 0.025507988 0.09139095 0.288133
0.015398006 0.012618511 0.0036633331 0.12299534 0.16775149 0.10435853 0.0021372493 0.12614948
0.014562215 0.029717395 0.009687098 0.13866793 0.02934159 0.006777461 0.098612785 0.20443639
0.23317257 0.12272848 0.5102788 0.0072788238 0.022176264 0.0150321815 0.016342903 0.018395169
00000000: d0c8 923d e57f 0f3e 6a59 ec3d 210b 5e3b
00000010: e441 6b3e 21f6 d03c 2e2b bb3d 2b86 933e
00000020: eb47 7c3c dfbd 4e3c 8814 703b fbe4 fb3d
00000030: 0cc7 2b3e edb9 d53d 1811 0c3b 542d 013e
00000040: 5b96 6e3c e571 f33c a2b6 1e3c f7fe 0d3e
00000050: c65d f03c 7715 de3b 80f5 c93d c657 513e
00000060: cac4 6e3e 1259 fb3d a2a1 023f 3383 ee3b
00000070: ffaa b53c 8a49 763c 8de1 853c 77b1 963c

body.block1.conv.weight f4 [32, 32, 3, 3]
-0.0025287603 0.031467758 0.027111039 -0.053300064 0.0022085174 0.031679023 -0.053228166 -0.0020298748
0.1337566 0.0014478525 0.036335573 0.09669417 0.074741386 0.01688895 0.0970823 0.040630303
0.05332638 0.092220426 -0.13581555 -0.013646411 0.036586132 -0.046258245 0.010766371 0.051678665
-0.013962938 -0.029451303 -0.05890171 -0.03411291 -0.14980042 -0.15554994 -0.115179434 -0.055018093
-0.017946452 -0.12054669 -0.01587242 -0.015480056 -0.0014624469 -0.075337544 -0.04703775 -0.10898266
-0.14241463 -0.0059360885 -0.17639658 -0.114096075 -0.025833126 -0.06417435 -0.040738054 -0.07001046
-0.00096295844 -0.01172156 -0.06236827 0.09660247 0.048435047 -0.09878731 -0.03845222 -0.0108715845
-0.0047133327 0.06112875 -0.012315965 -0.049695406 0.0006080907 -0.1310235 -0.12548475 -0.019707479
0.023148144 0.027788477 0.06983936 -0.004916069 -0.048529036 0.08134177 0.0054440256 0.012849115
-0.013449266 0.023824709 -0.0062174127 -0.0145520335 -0.052053902 -0.029829646 -0.10431249 -0.15437199
-0.13662128 -0.12743747 -0.10508761 -0.005083168 -0.06458584 -0.099983715 -0.11628777 -0.10885562
-0.10436295 -0.20072505 0.22620521 0.13112728 0.14348732 0.017255982 0.023153448 0.01431922
-0.041648455 -0.031925537 -0.028036177 0.057122566 -0.0039102733 -0.060803648 -0.034118883 -0.057419717
-0.041290708 -0.033189353 -0.03634293 0.03154471 0.08669576 0.05380389 0.054360844 -0.038380627
0.05839147 0.077173494 0.020451264 0.016454188 0.13162082 0.014900578 0.01900881 -0.089705445
0.020273466 -0.006764564 0.007144174 0.018635504 0.05332759 0.07972032 -0.036109872 0.0013079465
-0.08395902 0.0052484777 0.04872748 0.036053915 -0.11863443 -0.06584052 -0.016621813 0.045565825
0.0050661005 0.07719309 0.09126265 0.07857052 0.021846369 0.12848482 0.06413925 -0.045424774
-0.04632352 -0.11118254 -0.080936424 -0.1577924 -0.12685904 -0.06216631 -0.22387074 -0.11170284
-0.019725006 0.08692816 0.035300195 0.030866187 0.03868234 -0.020384798 0.039364535 -0.009594573
0.005143215 0.0028989133 0.0017626741 -0.04796868 0.044416614 -0.061505623 -0.011370997 -0.004544186
-0.08812938 -0.09091661 -0.20672435 0.016282262 0.010831105 0.06886394 0.082131244 0.050543316
-0.03447555 0.09317172 0.015572786 -0.018654577 -0.11125743 -0.053711787 -0.01634468 -0.13816981
-0.07847111 -0.029114082 -0.2211711 -0.2136942 -0.26172617 -0.11158404 -0.17182355 -0.15145537
-0.08665798 -0.13025185 -0.021462398 -0.070036136 -0.010797811 -0.00011503431 -0.03168729 -0.08808949
-0.008520958 -0.08954674 -0.081392236 -0.061961543 -0.26578206 -0.14212677 -0.15430953 -0.034823343
-0.08727178 -0.017942639 0.016469194 -0.014914828 -0.046057787 -0.016800808 -0.026918855 0.053523656
0.09575008 0.052780904 0.050440267 -0.03798924 -0.052224483 0.0032769658 0.001094839 0.0046542776
0.028047128 -0.0045474456 0.02448518 0.08160859 0.03370787 0.01714804 -0.027087957 -0.015078035
-0.06326001 -0.111104295 -0.022792136 -0.022676174 -0.002825147 -0.01164085 -0.057222895 -0.10144538
0.038621306 -0.053109862 -0.1412815 -0.07923531 0.025272757 -0.087646626 -0.016016476 -0.021421408
-0.059331425 -0.042213906 -0.04552322 0.056678135 0.025977334 -0.024988431 -0.036869377 0.027825052
00000000: 8fb9 25bb 56e4 003d f817 de3c 2b51 5abd
00000010: c6bc 103b ddc1 013d c705 5abd a607 05bb
00000020: 7df7 083e dec5 bd3a 9cd4 143d 9807 c63d
00000030: 0312 993d b25a 8a3c 16d3 c63d f66b 263d
00000040: c36c 5a3d 10de bc3d 3b13 0bbe 3295 5fbc
00000050: 57db 153d 4979 3dbd 6f65 303c 02ad 533d
00000060: cfc4 64bc dc43 f1bc eb42 71bd fbb9 0bbd
00000070: 4865 19be 7c48 1fbe 32e3 ebbd a75a 61bd
00000080: 7004 93bc 2fe1 f6bd e106 82bc 10a0 7dbc
00000090: 93af bfba 924a 9abd a8aa 40bd 4d32 dfbd
000000a0: 24d5 11be 8583 c2bb 4ea1 34be 34ab e9bd
000000b0: fe9f d3bc d76d 83bd f2dc 26bd a561 8fbd
000000c0: 0c6f 7cba c90b 40bc df75 7fbd 84d7 c53d
000000d0: d463 463d 0051 cabd 1380 1dbd bb1e 32bc
000000e0: 4d72 9abb 2462 7a3d e7c8 49bc 698d 4bbd
000000f0: 4768 1f3a 062b 06be 137f 00be 9471 a1bc
00000100: 2da1 bd3c a9a4 e33c f007 8f3d fa16 a1bb
00000110: 62c6 46bd 8496 a63d cc63 b23b 1885 523c
00000120: 4f5a 5cbc 092c c33c 70bb cbbb a76b 6ebc
00000130: 7936 55bd 4d5d f4bc c9a1 d5bd b113 1ebe
00000140: 73e6 0bbe f87e 02be 2c38 d7bd b490 a6bb
00000150: 9545 84bd 43c4 ccbd 4828 eebd b2ef debd
00000160: 3ebc d5bd de8a 4dbe 57a2 673e 3b46 063e
00000170: 57ee 123e 6b5c 8d3c 4dac bd3c 299b 6a3c
00000180: 9297 2abd 5ac4 02bd 20ac e5bc 5af9 693d
00000190: c021 80bb 3f0d 79bd 3ec0 0bbd f030 6bbd
000001a0: 7220 29bd 8ff1 07bd 53dc 14bd 0735 013d
000001b0: 8c8d b13d 7861 5c3d 7aa9 5e3d 0135 1dbd
000001c0: e52b 6f3d 230d 9e3d 6989 a73c efca 863c
000001d0: 9cc7 063e 8e21 743c 5db8 9b3c 7db7 b7bd
000001e0: 8a14 a63c 47a9 ddbb ad19 ea3b 7ca9 983c
000001f0: 086e 5a3d 6844 a33d f2e7 13bd 676f ab3a
00000200: b5f2 abbd 6cfb ab3b 7796 473d 45ad 133d
00000210: 9cf6 f2bd 65d7 86bd 782a 88bc 3ba3 3a3d
00000220: 8801 a63b 6917 9e3d eae7 ba3d 95e9 a03d
00000230: 28f7 b23c 8691 033e 705b 833d 540f 3abd
00000240: bbbd 3dbd acb3 e3bd ffc1 a5bd 5594 21be
00000250: 56e7 01be 1aa2 7ebd 5f3e 65be 75c4 e4bd
00000260: 5696 a1bc 6407 b23d f096 103d 16db fc3c
00000270: 6071 1e3d 05fe a6bc b53c 213d 8e32 1dbc
00000280: 6a88 a83b b2fb 3d3b 8709 e73a ce7a 44bd
00000290: 32ee 353d 52ed 7bbd 6b4d 3abc 65e7 94bb
000002a0: 2d7d b4bd 7d32 babd 8caf 53be 6162 853c
000002b0: f274 313c 8a08 8d3d 6d34 a83d 8206 4f3d
000002c0: 3c36 0dbd d1d0 be3d 0025 7f3c 7cd1 98bc
000002d0: efda e3bd e400 5cbd 47e5 85bc 637c 0dbe
000002e0: 76b5 a0bd a880 eebc ad7a 62be a7d2 5abe
000002f0: f900 86be 2c86 e4bd 83f2 2fbe 1e17 1bbe
00000300: bd79 b1bd be60 05be e9d1 afbc 1b6f 8fbd
00000310: 4de9 30bc 933e f1b8 88ca 01bd 4368 b4bd
00000320: 7d9b 0bbc 4864 b7bd f9b0 a6bd 63cb 7dbd
00000330: 9614 88be ae89 11be 5103 1ebe eca2 0ebd
00000340: 8cbb b2bd 71fc 92bc 67ea 863c 535d 74bc
00000350: 17a7 3cbd d9a1 89bc ee84 dcbc 9f3b 5b3d
00000360: 9e18 c43d ca30 583d 749a 4e3d 9b9a 1bbd
00000370: 57e9 55bd 5dc2 563b b380 8f3a e982 983b
00000380: 17c3 e53c bd02 95bb 2595 c83c 6822 a73d
00000390: 4311 0a3d 0c7a 8c3c 90e7 ddbc dd09 77bc
000003a0: 778e 81bd a68a e3bd 93b6 babc 62c3 b9bc
000003b0: 1a26 39bb 44b9 3ebc 8e62 6abd 98c2 cfbd
000003c0: 6031 1e3d ba89 59bd 19ac 10be 1f46 a2bd
000003d0: d008 cf3c 1380 b3bd fc34 83bc f37b afbc
000003e0: 8205 73bd 7de8 2cbd 8e76 3abd 5527 683d
000003f0: 6bce d43c 8ab4 ccbc 5804 17bd 5df1 e33c

body.block1.conv.bias f4 [32]
-0.01457195 -0.055886324 0.0152031295 0.08377569 -0.03584887 0.0177655 -0.048417266 -0.0027293507
0.0078869 0.023809817 -0.05067059 0.00030292917 -0.018072955 0.005113718 0.021374797 0.07326833
0.012151133 0.005189771 0.012117077 0.012109995 0.016977292 0.005967988 -0.064687856 -0.0027750477
0.02547093 -0.03995502 0.027033653 -0.06301089 -0.0065374523 -0.007909946 0.04836211 -0.010501747
00000000: 30bf 6ebc 0fe9 64bd 8c16 793c 9792 ab3d
00000010: 44d6 12bd f488 913c 2f51 46bd e8de 32bb
00000020: 0e38 013c ce0c c33c f78b 4fbd 77d2 9e39
00000030: bc0d 94bc fa90 a73b 331a af3c b50d 963d
00000040: 8c15 473c f40e aa3b b486 463c 0069 463c
00000050: f613 8b3c 1d8f c33b 117b 84bd 93dd 35bb
00000060: 69a8 d03c e0a7 23bd ae75 dd3c da0b 81bd
00000070: 2038 d6bb b898 01bc 5917 463d 850f 2cbc

body.block1.norm.weight f4 [32]
1.0208918 0.86874306 1.0020483 0.944465 0.90149873 1.021558 0.90372646 0.96714664
0.8792548 0.88368887 0.8722873 0.947011 0.9569101 0.8997551 0.83233726 1.0726507
0.847975 0.7843971 0.9357224 0.80414814 0.94771916 0.84048885 0.91284317 0.9838649
0.9857427 1.1012211 0.8724865 0.99574554 1.0274209 1.0708716 1.307615 0.82342863
00000000: 95ac 823f f265 5e3f 1e43 803f 75c8 713f
00000010: 9fc8 663f 6ac2 823f 9e5a 673f ec96 773f
00000020: d816 613f 6f39 623f 384e 5f3f 506f 723f
00000030: 0ff8 743f 5a56 663f 0e14 553f 9e4c 893f
00000040: e414 593f 40ce 483f 818b 6f3f a7dc 4d3f
00000050: b99d 723f 472a 573f 17b0 693f 92de 7b3f
00000060: a259 7c3f d0f4 8c3f 465b 5f3f 2ee9 7e3f
00000070: 8782 833f 5212 893f ee5f a73f 38cc 523f

body.block1.norm.bias f4 [32]
-0.22995713 -0.44269347 -0.20919374 -0.35849577 -0.26178905 -0.07594438 -0.30669978 -0.39389077
-0.3122389 -0.3574776 -0.16653253 -0.14497681 -0.071028054 -0.16904575 -0.3111963 -0.045100085
-0.22289246 -0.31951585 -0.15411088 -0.16985327 -0.19250225 -0.25587043 -0.11190848 -0.13678937
-0.21766594 -0.057070963 0.0049177716 -0.35745504 0.04248523 0.013923577 -0.22055987 -0.5024952
00000000: e279 6bbe b8a8 e2be e236 56be c28c b7be
00000010: 3709 86be ba88 9bbd c107 9dbe 0dac c9be
00000020: c7dd 9fbe 4e07 b7be 8187 2abe cd74 14be
00000030: 2877 91bd 541a 2dbe 1f55 9fbe deba 38bd
00000040: ec3d 64be 9597 a3be 3ecf 1dbe 04ee 2dbe
00000050: 4f1f 45be 7301 83be 4630 e5bd 8312 0cbe
00000060: d2e3 5ebe 3ec3 69bd 4225 a13b 5904 b7be
00000070: fe04 2e3d b71f 643c 72da 61be 87a3 00bf

body.block1.norm.running_mean f4 [32]
-0.99586636 0.8511895 -1.5522373 -1.4792494 -0.6737549 -1.5824529 -0.94433236 -0.9264536
-0.73423696 0.27815306 0.22094853 -1.3161495 0.086290956 -0.49662012 -0.9039963 -1.2171246
0.5934527 0.18012607 -0.9369719 -1.0523801 -0.26106212 -0.5515364 -2.193901 -1.5274966
-0.59214526 -0.9126322 -1.3174472 -0.014748868 -0.27268204 -1.8362935 -1.3038378 -0.486429
00000000: 19f1 7ebf 8ee7 593f b6af c6bf 0b58 bdbf
00000010: 337b 2cbf d18d cabf c4bf 71bf 102c 6dbf
00000020: f4f6 3bbf 146a 8e3e 5540 623e 9677 a8bf
00000030: 50b9 b03d fe44 febe 4d6c 67bf bdca 9bbf
00000040: 84ec 173f f872 383e 64dd 6fbf 64b4 86bf
00000050: efa9 85be 7d31 0dbf e068 0cc0 0285 c3bf
00000060: d596 17bf 44a2 69bf 1ca2 a8bf 3ca5 71bc
00000070: fb9c 8bbe aa0b ebbf 28e4 a6bf 390d f9be

body.block1.norm.running_var f4 [32]
2.549128 0.86823034 1.3751577 0.8723547 0.5474001 4.198057 2.3905559 0.36576343
1.1594074 0.61016715 2.6532855 1.2213944 6.3809752 2.6972015 0.8325776 5.882342
2.5250185 1.2999184 3.4510186 9.957929 0.44915307 3.2351658 10.842159 0.5691011
1.0203787 13.416682 1.8873934 0.5809629 4.8285055 3.2683523 1.0740991 0.6665989
00000000: ea24 2340 5844 5e3f 2b05 b03f a352 5f3f
00000010: 6a22 0c3f 7c56 8640 defe 1840 5845 bb3e
00000020: 7667 943f ea33 1c3f 6ecf 2940 a756 9c3f
00000030: f330 cc40 f39e 2c40 ce23 553f 253c bc40
00000040: e799 2140 ba63 a63f 7ddd 5c40 ad53 1f41
00000050: 64f7 e53e f50c 4f40 7c79 2d41 9cb0 113f
00000060: c59b 823f bbaa 5641 1b96 f13f fcb9 143f
00000070: 1e83 9a40 af2c 5140 147c 893f 3aa6 2a3f

body.block2.conv.weight f4 [32, 32, 3, 3]
0.06103307 0.1262691 0.0050947545 0.05319994 0.036963854 0.043802906 0.037239805 -0.032934833
-0.07630007 -0.012046273 0.08148439 0.025055356 0.031818405 0.08094421 0.12680116 0.0021054838
-0.005911968 -0.07669499 0.12829512 0.13150069 0.120823875 -0.012434437 0.049880426 0.042161357
-0.07403777 -0.010061906 -0.010277442 -0.038443014 -0.074431814 -0.06799792 -0.107911386 -0.12459235
-0.1480776 -0.12850465 -0.09803939 -0.030326372 0.08689967 -0.01615669 0.053869687 0.119152956
0.012650822 -0.07409371 0.072964326 -0.028266447 0.08876988 0.0030408183 0.0629227 0.039032195
0.04252054 -0.023382166 -0.043955572 -0.0048422636 -0.1194706 -0.12786373 0.067707255 0.019188875
0.013467917 0.0004773042 0.0025529114 -0.006311683 -0.08566762 -0.047605563 0.028447956 0.107308164
-0.0036556176 0.059328202 0.024437856 0.06667722 0.08658659 -0.049043603 0.052968167 0.07509968
0.13882346 0.0935467 0.1776447 0.08912409 0.06237267 0.06596071 -0.06129069 -0.027490929
0.024191871 0.06230917 0.053255353 -0.05622161 0.18615754 0.03602859 -0.025438951 0.05765379
0.088562116 -0.031677365 -0.0545093 -0.059062134 0.15379888 -0.03032842 -0.05965746 -0.020525012
-0.058350515 -0.030658891 0.014340895 0.014320845 -0.20328555 -0.07426038 0.10617544 0.0005301599
0.0008592969 -0.00041587313 -0.014301029 -0.007274583 -0.07030381 -0.014349508 0.08988643 0.033434182
-0.014847222 0.11760094 -0.021960424 0.03038721 0.045126095 0.039412774 0.11678029 -0.012892855
-0.06697906 -0.0030819655 -0.039610766 -0.028507357 0.061257716 0.019677836 -0.10025361 0.11400271
-0.034886986 -0.0037486225 0.04794229 -0.0251098 0.020242479 -0.07525158 -0.013864712 0.07245503
0.1399812 0.1891701 0.069284536 0.09895506 0.10455449 0.022809591 0.033969246 0.0884326
0.17327046 -0.0025068154 0.004725444 0.096102186 -0.0478173 -0.01624842 0.15044405 0.003902604
0.13339335 0.17371663 0.095331065 0.0804368 0.015021104 0.020228123 0.017742652 -0.019357635
-0.027389472 -0.09656556 -0.09572109 -0.06669332 -0.08839916 -0.12612376 -0.036278956 -0.0146573
-0.011340774 0.086226255 0.08013721 0.02445788 -0.06167391 0.016583476 -0.05476027 3.8974064e-05
-0.017101 -0.14072073 -0.08878262 -0.13079637 0.028908059 0.032282993 0.005259405 -0.08474478
-0.015322897 0.051117226 -0.11061618 0.026427707 0.010041252 -0.094022915 -0.051899403 0.034523424
-0.08067662 -0.007234134 -0.06568896 -0.09073037 -0.053417772 0.06072054 0.024008704 0.045723
0.038458563 -0.009729258 -0.004365185 -0.019838972 -0.14661126 -0.067828536 -0.06574525 0.015637461
0.08337202 0.012577358 -0.010680893 -0.015419808 -0.006566249 -0.069064 0.08480946 0.0716979
0.17351033 0.026886215 -0.00873163 0.121432364 0.041834533 0.0157016 0.035447992 -0.07922883
-0.08543618 -0.0113532655 0.03375383 -0.085999876 0.041438058 -0.0020183958 -0.032533508 -0.008777989
-0.019097727 -0.1299274 0.028928006 0.025144331 0.011431807 -0.0066280756 0.0010647578 0.023308823
-0.028099831 -0.02245605 0.010427275 0.0052504335 -0.042343047 0.012858916 0.02798472 -0.05242085
-0.078031376 0.12716363 0.011637214 0.07579258 0.16046883 0.096446976 -0.09504242 0.1279872
00000000: d0fd 793d b04c 013e e6f1 a63b 2ee8 593d
00000010: 6967 173d ad6a 333d c488 183d ade6 06bd
00000020: 3643 9cbd bb5d 45bc 4ae1 a63d e440 cd3c
00000030: 0454 023d 14c6 a53d 2ad8 013e 28fc 093b
00000040: 2fb9 c1bb 4312 9dbd cc5f 033e 1ea8 063e
00000050: 8272 f73d cfb9 4bbc 6b4f 4c3d 63b1 2c3d
00000060: 1da1 97bd b1da 24bc b762 28bc 6c76 1dbd
00000070: b56f 98bd 7e42 8bbd a500 ddbd 462a ffbd
00000080: a8a1 17be b996 03be e0c8 c8bd 036f f8bc
00000090: 74f8 b13d 095b 84bc 76a6 5c3d 7706 f43d
000000a0: 6545 4f3c 71be 97bd 526e 953d 098f e7bc
000000b0: fccc b53d 7748 473b 9edd 803d 39e0 1f3d
000000c0: 052a 2e3d f58b bfbc c20a 34bd daab 9ebb
000000d0: 00ad f4bd b6ee 02be 1aaa 8a3d fd31 9d3c
000000e0: 8aa8 5c3c af3e fa39 bf4e 273b 3cd2 cebb
000000f0: 8172 afbd 0dfe 42bd b00b e93c 62c4 db3d
00000100: 1693 6fbb 2102 733d e631 c83c 118e 883d
00000110: 4f54 b13d f2e1 48bd 26f5 583d dccd 993d
00000120: bd27 0e3e 6a95 bf3d 7ee8 353e b186 b63d
00000130: 7c7a 7f3d 6916 873d f20b 7bbd a834 e1bc
00000140: 082e c63c e637 7f3d 4922 5a3d a248 66bd
00000150: 15a0 3e3e b792 133d 5965 d0bc 6126 6c3d
00000160: 0e60 b53d 20c0 01bd 2545 5fbd 23eb 71bd
00000170: 747d 1d3e 4f73 f8bc 615b 74bd 1224 a8bc
00000180: f300 6fbd 5b28 fbbc 13f6 6a3c faa1 6a3c
00000190: 162a 50be d315 98bd 8272 d93d 6efa 0a3a
000001a0: 7042 613a 8c09 dab9 dd4e 6abc a05f eebb
000001b0: 72fb 8fbd 331a 6bbc 6016 b83d 48f2 083d
000001c0: c341 73bc c3d8 f03d 59e6 b3bc 99ee f83c
000001d0: 24d6 383d 4a6f 213d 812a ef3d 8e3c 53bc
000001e0: 512c 89bd cdfa 49bb e63e 22bd 4388 e9bc
000001f0: 5fe9 7a3d 6a33 a13c c451 cdbd 417a e93d
00000200: a8e5 0ebd 73ab 75bb 225f 443d 11b3 cdbc
00000210: 8ed3 a53c 801d 9abd d128 63bc 4e63 943d
00000220: 3b57 0f3e cfb5 413e 0de5 8d3d f3a8 ca3d
00000230: aa20 d63d 2edb ba3c 5623 0b3d 271c b53d
00000240: d06d 313e 6249 24bb e6d7 9a3b 39d1 c43d
00000250: 13dc 43bd 681b 85bc 010e 1a3e d5c2 7f3b
00000260: 4498 083e c6e2 313e ef3c c33d 0dbc a43d
00000270: 141b 763c 73b5 a53c 0a59 913c e793 9ebc
00000280: e35f e0bc 2ac4 c5bd 6b09 c4bd 8296 88bd
00000290: 9e0a b5bd 9626 01be 3e99 14bd 2c25 70bc
000002a0: a7ce 39bc 6497 b03d fa1e a43d e45b c83c
000002b0: c89d 7cbd 12da 873c 4e4c 60bd 1578 2338
000002c0: 6517 8cbc 1819 10be aad3 b5bd 7cef 05be
000002d0: 98d0 ec3c 2c3b 043d 1657 ac3b ac8e adbd
000002e0: e30c 7bbc 4c60 513d bc8a e2bd eb7e d83c
000002f0: 1084 243c 168f c0bd 7894 54bd 6f68 0d3d
00000300: c939 a5bd 500c edbb ef87 86bd d8d0 b9bd
00000310: 98cc 5abd 1ab6 783d e7ad c43c 0a48 3b3d
00000320: ba86 1d3d 7767 1fbc d309 8fbb 5785 a2bc
00000330: 4321 16be b0e9 8abd 72a5 86bd 221a 803c
00000340: f3be aa3d 4311 4e3c eafe 2ebc 5da3 7cbc
00000350: b029 d7bb 6d71 8dbd 95b0 ad3d 59d6 923d
00000360: b1ac 313e 7b40 dc3c 1c0f 0fbc 88b1 f83d
00000370: b05a 2b3d a4a0 803c ea31 113d ba42 a2bd
00000380: 2af9 aebd 0c03 3abc 7541 0a3d b420 b0bd
00000390: f4ba 293d 1047 04bb db41 05bd 8ed1 0fbc
000003a0: d672 9cbc b00b 05be 6dfa ec3c 7cfb cd3c
000003b0: 794c 3b3c 5430 d9bb 588f 8b3a 25f2 be3c
000003c0: 9e31 e6bc c0f5 b7bc 29d7 2a3c d40b ac3b
000003d0: e76f 2dbd 34ae 523c 3640 e53c 3fb7 56bd
000003e0: eace 9fbd 2f37 023e 03aa 3e3c 2439 9b3d
000003f0: f151 243e fe85 c53d 9aa5 c2bd 140f 033e

body.block2.conv.bias f4 [32]
0.012345873 0.035523474 -0.032237995 -0.009913411 -0.034827426 -0.06947266 -0.053246677 0.058270525
-0.039434012 0.021331485 -0.05260415 0.038291052 0.024327006 -0.05320307 0.06383897 0.014442461
-0.024895787 -0.02697601 0.033059355 -0.033978704 0.026682725 -0.079835944 -0.014277093 -0.030733218
-0.052010003 -0.09173127 0.0001814273 0.06393609 0.022042615 0.03298051 -0.016058 0.025697963
00000000: 5846 4a3c 1081 113d fd0b 04bd dc6b 22bc
00000010: 34a7 0ebd af47 8ebd 3019 5abd 13ad 6e3d
00000020: 8f85 21bd 5ebf ae3c 7377 57bd 14d7 1c3d
00000030: 6e49 c73c 76eb 59bd 02be 823d 12a0 6c3c
00000040: 40f2 cbbc cbfc dcbc 3f69 073d 412d 0bbd
00000050: bb95 da3c 0781 a3bd 78ea 69bc 3bc4 fbbc
00000060: 7108 55bd 9bdd bbbd 853d 3e39 edf0 823d
00000070: b792 b43c 9216 073d 118c 83bc 8984 d23c

body.block2.norm.weight f4 [32]
0.8222111 1.0706244 1.1012805 1.0260782 1.0969217 1.1123596 1.0277766 0.8654906
1.0086334 0.91800225 0.9048729 0.87967825 1.0379244 1.1012032 0.7616336 0.99037296
1.0032387 0.8899178 1.0059384 0.93773234 0.8024826 0.9861652 1.100387 1.064792
0.95726436 0.82839 0.95112854 1.0257076 0.792114 1.0190595 0.9807507 0.9345129
00000000: 6d7c 523f 380a 893f c2f6 8c3f 8856 833f
00000010: ee67 8c3f cd61 8e3f 2f8e 833f cb90 5d3f
00000020: e61a 813f 3202 6b3f c0a5 673f 9832 613f
00000030: b5da 843f 3af4 8c3f 6bfa 423f 1589 7d3f
00000040: 206a 803f a7d1 633f 97c2 803f 3a0f 703f
00000050: 806f 4d3f 5375 7c3f 7bd9 8c3f 1b4b 883f
00000060: 470f 753f 5e11 543f 297d 733f 634a 833f
00000070: fcc7 4a3f 8b70 823f 7a12 7b3f 3d3c 6f3f

body.block2.norm.bias f4 [32]
-0.18690854 -0.3581361 -0.29668316 -0.117042884 -0.44124892 -0.30886188 -0.24343339 -0.4586758
-0.29048046 -0.19946156 -0.283804 -0.039465047 -0.094811976 -0.25174555 -0.3993686 -0.26526093
0.06926392 -0.16595162 -0.24893613 -0.1770277 -0.43943214 -0.3011058 -0.07775318 -0.12470672
-0.1570217 -0.48661047 -0.46629238 -0.20230915 -0.36353004 -0.13457955 -0.5400146 -0.43532148
00000000: f464 3fbe 9d5d b7be dbe6 97be 2eb4 efbd
00000010: 61eb e1be 2523 9ebe 9a46 79be 8ed7 eabe
00000020: dbb9 94be a73f 4cbe c24e 91be 1aa6 21bd
00000030: c82c c2bd cbe4 80be 0b7a ccbe 48d0 87be
00000040: 3eda 8d3d 39ef 29be 1de9 7ebe c046 35be
00000050: 40fd e0be 8a2a 9abe 0f3d 9fbd 3d66 ffbd
00000060: 4cca 20be 0225 f9be e0bd eebe 212a 4fbe
00000070: 9c20 babe 39cf 09be 663e 0abf 75e2 debe

body.block2.norm.running_mean f4 [32]
0.010185781 -0.51732606 0.25356847 -0.10235784 0.6786012 -0.020861939 0.13436507 -1.0494211
-0.4082143 -0.022876741 -0.24647784 -0.57239306 0.021515675 -0.41005382 -0.5536425 0.06592361
0.27914864 -0.237153 -0.028243382 -1.0380125 0.25139788 -1.0102209 0.2684673 -0.17776635
-0.91764784 -1.3738775 0.17811368 1.0988326 -0.92541265 -0.45069692 -0.5686905 -0.3593997
00000000: 43e2 263c 7b6f 04bf bad3 813e fda0 d1bd
00000010: cfb8 2d3f a8e6 aabc ff96 093e 6e53 86bf
00000020: 7701 d1be 0168 bbbc b064 7cbe 5a88 12bf
00000030: a441 b03c 93f2 d1be 84bb 0dbf f502 873d
00000040: 92ec 8e3e 3cd8 72be aa5e e7bc 98dd 84bf
00000050: 39b7 803e eb4e 81bf 8c74 893e 6208 36be
00000060: f8ea 6abf 38db afbf 6f63 363e 8ca6 8c3f
00000070: d8e7 6cbf bfc1 e6be b395 11bf 3d03 b8be

body.block2.norm.running_var f4 [32]
1.1833867 0.7421529 0.63786685 1.5343665 1.6421528 1.5813233 5.962207 0.54410046
0.67118603 1.5471065 3.9410558 1.2105981 4.1951094 1.9916925 1.4795431 1.201716
6.8365746 6.341817 1.7581708 1.1839068 1.4445131 1.4351358 2.399205 4.1412163
2.3537023 0.51443887 1.3292493 2.0771601 7.0113173 1.161892 0.5553644 1.3449085
00000000: 3779 973f bcfd 3d3f 3e4b 233f 1f66 c43f
00000010: 1032 d23f cd68 ca3f 66ca be40 2b4a 0b3f
00000020: d9d2 2b3f 9607 c63f 423a 7c40 e1f4 9a3f
00000030: 563e 8640 c8ef fe3f ab61 bd3f d4d1 993f
00000040: 38c5 da40 2af0 ca40 be0b e13f 428a 973f
00000050: cee5 b83f 88b2 b73f 938c 1940 d884 8440
00000060: 0fa3 1640 44b2 033f d724 aa3f 31f0 0440
00000070: b65c e040 e1b8 943f 5c2c 0e3f f625 ac3f

body.block3.conv.weight f4 [32, 32, 3, 3]
-0.0049693314 0.044420402 0.035433315 0.09860511 0.08590573 0.12429999 -0.037872743 0.0010543484
0.07343754 -0.12130488 -0.044002213 -0.059910823 -0.03281017 -0.0539729 -0.11776702 -0.07113747
-0.058711145 -0.13556117 0.049879435 -0.022594381 0.10647652 0.11486493 0.0064482274 0.0035157162
0.11041257 0.100650966 0.10180309 0.019702913 0.061375625 0.045709882 -0.063071765 0.11303805
0.07702532 -0.0077501237 0.09521525 0.014920326 0.04869022 -0.052555133 -0.04334903 0.047820445
-0.0015500665 -0.03939285 0.0902589 0.03967759 0.046366576 -0.03156668 -0.12971027 -0.057273146
-0.1212801 -0.064933136 -0.0010249146 -0.18499215 -0.065772824 0.0638949 -0.04473101 -0.046582673
-0.03434349 -0.011042371 0.00011337721 0.0059938123 -0.0005514807 0.025807269 -0.0100579215 0.01028851
0.007743918 0.003204782 0.044190466 -0.043362122 0.00038030135 -0.005159459 -0.0299408 0.028408168
-0.060240082 0.01129627 0.06514555 -0.029462896 0.11310443 0.07979858 -0.037866943 0.036407813
-0.05235985 -0.03488937 -0.017764052 0.0041915905 -0.07000485 0.027971182 0.032345973 0.08193058
0.09107257 0.08592321 0.08062649 -0.009618152 0.023083346 0.047349233 -0.08498214 -0.05972275
0.06850073 0.03771314 -0.032755498 0.0016928702 -0.07939059 0.020220777 -0.06884383 -0.082235575
0.04600482 -0.0853716 -0.11921504 -0.06710532 0.033450454 -0.047598638 -0.04457134 0.028397318
0.0055364985 -0.03306309 0.03734048 0.03183414 -0.0035773148 0.03797095 -0.0020125506 -0.003794151
0.035445616 0.033219907 0.0033551548 0.07286758 0.04352193 -0.0035258452 0.010138751 -0.053139515
-0.11508425 -0.111270845 -0.111315005 -0.12334101 -0.017322987 -0.10061981 -0.08061797 -0.10831506
0.0037328259 0.13808283 -0.04762319 0.10599691 0.07962154 -0.11627838 0.004927703 0.018136574
-0.13113394 -0.054569066 -0.09407479 -0.083455324 0.018203735 0.010690475 -0.055437893 0.009963419
-0.0009538603 0.07158125 0.008891909 -0.12009152 0.08033264 0.019133335 -0.12035505 0.10908021
0.08174661 -0.01803327 0.09660822 0.049218718 0.043920536 0.118101425 0.06324509 0.078305244
0.07807734 0.020810768 -0.06013666 -0.03573064 -0.030809674 -0.13180886 -0.052182037 -0.02971057
-0.12906447 -0.12986921 -0.11762091 -0.08470212 -0.0058345003 -0.07677696 -0.11436506 0.06168894
0.07861613 0.018467309 -0.010186476 -0.060266275 -0.02366998 0.12487535 0.11099375 0.04425524
0.03391685 0.0825403 0.021902192 0.11202276 0.076914035 0.019816771 -0.1803504 -0.057906106
-0.023080746 -0.16990456 -0.06905618 -0.02997251 -0.23786719 -0.10719419 -0.052304484 0.09394226
-0.020816544 0.017483952 -0.09963626 -0.018601902 0.027897142 -0.071802616 -0.03281432 0.04302489
0.095540494 0.053820845 0.15732342 0.0019721873 0.02308544 0.09933762 0.041343376 -0.00054481666
0.069702655 0.07689948 -0.035921216 -0.04903668 0.014493321 0.008796364 -0.041228235 -0.004160397
0.002867177 0.012120813 0.13403119 0.011273821 -0.048677593 0.042340975 0.040121432 -0.04582905
-0.0116777895 -0.036883388 0.02707606 -0.24224293 -0.17022686 -0.042609233 -0.19065337 -0.12893745
-0.022997713 -0.14676087 -0.21695144 -0.082710505 0.12621585 0.11055605 0.11887551 0.11679868
00000000: c6d5 a2bb 2bf2 353d 8622 113d 7af1 c93d
00000010: 58ef af3d fe90 fe3d 7320 1bbd 1032 8a3a
00000020: 6c66 963d b16e f8bd aa3b 34bd 0d65 75bd
00000030: f563 06bd b012 5dbd d62f f1bd 86b0 91bd
00000040: 197b 70bd 8cd0 0abe 614e 4c3d da17 b9bc
00000050: 5d10 da3d 4e3e eb3d a74b d33b ee67 663b
00000060: fc1f e23d 1822 ce3d 237e d03d 0168 a13c
00000070: 0265 7b3d 493a 3b3d c52b 81bd 7e80 e73d
00000080: 73bf 9d3d c0f4 fdbb 3700 c33d 6274 743c
00000090: 656f 473d 0d44 57bd c18e 31bd 5fdf 433d
000000a0: 9a2b cbba 665a 21bd a8d9 b83d f884 223d
000000b0: e1ea 3d3d 104c 01bd c5d2 04be 3f97 6abd
000000c0: b361 f8bd aafb 84bd 6d56 86ba 956e 3dbe
000000d0: e7b3 86bd 54db 823d dd37 37bd 79cd 3ebd
000000e0: c2ab 0cbd 10eb 34bc edc4 ed38 be67 c43b
000000f0: 3e91 10ba c469 d33c fbc9 24bc 2391 283c
00000100: b1c0 fd3b 5207 523b 1001 353d 7b9c 31bd
00000110: 2f63 c739 ae10 a9bb 6946 f5bc 3fb8 e83c
00000120: 4ebe 76bd fe13 393c 086b 853d 2c5c f1bc
00000130: 4ca3 e73d 706d a33d 5e1a 1bbd 5c20 153d
00000140: 4877 56bd 28e8 0ebd eb85 91bc 9c59 893b
00000150: b45e 8fbd d223 e53c 367d 043d 38cb a73d
00000160: 4184 ba3d 82f8 af3d 801f a53d 7495 1dbc
00000170: 4919 bd3c 45f1 413d 1e0b aebd d89f 74bd
00000180: 1c4a 8c3d 1879 1a3d a12a 06bd 4ce3 dd3a
00000190: 8997 a2bd 0ba6 a53c fefd 8cbd 206b a8bd
000001a0: 8d6f 3c3d 4ed7 aebd 0427 f4bd 846e 89bd
000001b0: 5803 093d caf6 42bd 7090 36bd 7ea1 e83c
000001c0: 846b b53b 2a6d 07bd 55f2 183d 8464 023d
000001d0: 6271 6abb 6d87 1b3d ffe4 03bb 4aa7 78bb
000001e0: 6c2f 113d 9911 083d 28e2 5b3b 993b 953d
000001f0: 0d44 323d de11 67bb 011d 263c d2a8 59bd
00000200: 4bb1 ebbd f8e1 e3bd 1ff9 e3bd 369a fcbd
00000210: f0e8 8dbc c211 cebd 091b a5bd 49d4 ddbd
00000220: 6da2 743b 9665 0d3e 8910 43bd e814 d93d
00000230: 9e10 a33d 5c23 eebd 9278 a13b 2793 943c
00000240: fa47 06be d083 5fbd 49aa c0bd a0ea aabd
00000250: 0020 953c 1a27 2f3c d812 63bd 9c3d 233c
00000260: 7b0c 7aba 3199 923d 5faf 113c 8bf2 f5bd
00000270: 7085 a43d 83bd 9c3c b57c f6bd 7265 df3d
00000280: c46a a73d 82ba 93bc 88da c53d 9199 493d
00000290: 05e6 333d 29df f13d a486 813d 805e a03d
000002a0: 03e7 9f3d 587b aa3c dc51 76bd 4b5a 12bd
000002b0: 9264 fcbc e7f8 06be d5bc 55bd 9563 f3bc
000002c0: 7a29 04be 6ffc 04be 3be3 f0bd 4e78 adbd
000002d0: 562f bfbb 3d3d 9dbd 3b38 eabd 8bad 7c3d
000002e0: 7e01 a13d c148 973c 2de5 26bc c5d9 76bd
000002f0: 8ce7 c1bc a6be ff3d b150 e33d fc44 353d
00000300: 65ec 0a3d e40a a93d 3a6c b33c 306c e53d
00000310: 1b85 9d3d c856 a23c c6ad 38be f42e 6dbd
00000320: d513 bdbc 76fb 2dbe 546d 8dbd e988 f5bc
00000330: 7593 73be a188 dbbd 3a3d 56bd cd64 c03d
00000340: 7587 aabc 813a 8f3c 180e ccbd 0463 98bc
00000350: 8c88 e43c 400d 93bd 4f68 06bd de3a 303d
00000360: bcaa c33d 3f73 5c3d 6419 213e d03f 013b
00000370: ad1d bd3c 8671 cb3d ac57 293d 07d2 0eba
00000380: 44c0 8e3d 797d 9d3d 2022 13bd b0da 48bd
00000390: 6575 6d3c a01e 103c f0de 28bd f153 88bb
000003a0: 3fe7 3b3b 6096 463c 793f 093e d5b5 383c
000003b0: 2862 47bd bb6d 2d3d 5f56 243d 3eb7 3bbd
000003c0: 3354 3fbc 0913 17bd 9dce dd3c 880e 78be
000003d0: f34f 2ebe 0587 2ebd a33a 43be 2e08 04be
000003e0: b365 bcbc 7b48 16be 8528 5ebe 2064 a9bd
000003f0: ba3e 013e 366b e23d 0175 f33d 2534 ef3d

body.block3.conv.bias f4 [32]
-0.018472984 -0.030439943 -0.0027724532 0.022093205 0.022011105 0.044574328 0.03155259 -0.016414285
0.0058470718 0.050264396 -0.038641773 0.027675847 0.055104893 0.011856309 0.030045837 -0.04330981
0.036825743 0.041473158 -0.04069202 0.0287009 -0.0847837 -0.016972853 0.026466843 -0.020476747
0.013932256 -0.080731414 -0.053159393 -0.014807678 -0.04075929 -0.042935714 0.0013862917 -0.05800441
00000000: a854 97bc 305d f9bc 0cb2 35bb cffc b43c
00000010: a250 b43c 9293 363d 4a3d 013d 4077 86bc
00000020: cb98 bf3b 0ae2 4d3d d646 1ebd 75b8 e23c
00000030: abb5 613d f740 423c b022 f63c a165 31bd
00000040: 97d6 163d c2df 293d adac 26bd 261e eb3c
00000050: 14a3 adbd a70a 8bbc fed0 d83c dabe a7bc
00000060: 1e44 643c 8356 a5bd aabd 59bd e79b 72bc
00000070: 37f3 26bd 5cdd 2fbd 3bb4 b53a 0896 6dbd

body.block3.norm.weight f4 [32]
0.7147124 0.80494124 0.61131984 0.68230635 0.77318305 0.7314389 0.89225376 0.7305911
0.6841064 0.75708777 0.6887304 0.6455868 0.5299481 0.8318882 0.57192224 0.73434836
0.5791938 0.87077755 0.7265364 0.6311382 0.91899747 0.7233733 0.75962055 0.68617374
0.64961725 0.73542964 0.71548975 0.6742229 0.6790715 0.6984178 0.7728638 0.7275116
00000000: 64f7 363f a110 4e3f 757f 1c3f a1ab 2e3f
00000010: 53ef 453f 943f 3b3f be6a 643f 0508 3b3f
00000020: 9921 2f3f 81d0 413f a350 303f 2d45 253f
00000030: aeaa 073f a0f6 543f 7f69 123f 41fe 3b3f
00000040: 0b46 143f 47eb 5e3f 4afe 393f 4692 213f
00000050: 6b43 6b3f fe2e 393f 7e76 423f 15a9 2f3f
00000060: 514d 263f 1e45 3c3f 562a 373f df99 2c3f
00000070: a1d7 2d3f 82cb 323f 67da 453f 333e 3a3f

body.block3.norm.bias f4 [32]
-0.28294557 -0.07291186 -0.102109484 -0.30796638 -0.32546988 -0.2968696 -0.5402539 0.00917628
-0.35351792 -0.0008209369 -0.4757873 -0.0014630943 0.07491071 -0.058297664 -0.19916853 -0.08127651
-0.20697127 -0.010968056 -0.5325994 -0.11665722 -0.39116034 -0.50798744 -0.47634667 0.061865095
-0.29993832 -0.16181299 -0.1834115 -0.3347367 -0.15913041 -0.23420607 -0.07805615 -0.2699287
00000000: 3ede 90be d052 95bd c71e d1bd c5ad 9dbe
00000010: fda3 a6be 4bff 97be 144e 0abf 1c58 163c
00000020: 4d00 b5be 2534 57ba 659a f3be 4cc5 bfba
00000030: c96a 993d 88c9 6ebd d6f2 4bbe 4d74 a6bd
00000040: 47f0 53be 5cb3 33bc 6f58 08bf fbe9 eebd
00000050: 2b46 c8be 770b 02bf b6e3 f3be 4166 7d3d
00000060: 8491 99be 4eb2 25be 39d0 3bbe 9c62 abbe
00000070: 15f3 22be b7d3 6fbe e7db 9fbd 1834 8abe

body.block3.norm.running_mean f4 [32]
-0.5865677 -1.281499 -0.2548879 -0.77572554 -0.67724466 -0.978352 -1.2495986 0.19825567
-0.92880875 -0.23414923 -1.1243744 -0.19376376 0.441002 -2.023644 -0.54495424 0.05418602
-1.1325163 -0.26003528 -1.2889334 -0.78867275 0.23793565 -0.45776865 -0.63914144 -0.4639513
-0.44804844 -0.11066378 -0.099653214 -0.29729223 -1.1926836 0.511416 -1.134904 -1.5054237
00000000: 4d29 16bf 2908 a4bf ab80 82be f395 46bf
00000010: e85f 2dbf 4775 7abf d9f2 9fbf 8903 4b3e
00000020: 69c6 6dbf d1c4 6fbe 80eb 8fbf 026a 46be
00000030: 04cb e13e 6283 01c0 1f82 0bbf 29f2 5d3d
00000040: 4bf6 90bf 5823 85be c5fb a4bf 75e6 49bf
00000050: 67a5 733e a760 eabe c69e 23bf 068b edbe
00000060: 9b66 e5be b1a3 e2bd fc16 ccbd b036 98be
00000070: dba9 98bf 29ec 023f 8944 91bf b9b1 c0bf

body.block3.norm.running_var f4 [32]
7.0090237 5.5391293 2.6758134 1.1720868 4.2849617 2.4234111 2.2952845 1.5138124
3.8693948 4.2634616 0.35102662 5.914192 0.89841133 2.765378 2.3389828 5.3150654
1.3261067 5.7958097 1.5362031 1.5835404 4.658034 2.1666706 0.47383818 3.3485377
1.1798015 2.3954012 2.719987 5.677804 2.8965037 2.7414744 2.1662772 1.9839625
00000000: ec49 e040 8c40 b140 8740 2b40 f106 963f
00000010: 681e 8940 2b19 1b40 f1e5 1240 9bc4 c13f
00000020: 2aa4 7740 476e 8840 c3b9 b33e 1041 bd40
00000030: 49fe 653f f4fb 3040 e5b1 1540 0415 aa40
00000040: ddbd a93f 4677 b940 4ea2 c43f 74b1 ca3f
00000050: 9d0e 9540 bbaa 0a40 eb9a f23e 714e 5640
00000060: bc03 973f 414e 1940 4414 2e40 92b0 b540
00000070: 5160 3940 5174 2f40 49a4 0a40 7cf2 fd3f

tail.0.weight f4 [3, 32, 3, 3]
-0.03983748 -0.02828069 -0.0162879 0.002090404 0.00021934847 -0.05620822 0.07996023 0.0206207
-0.08761668 -0.07213816 0.036903705 0.00071008236 -0.044407856 0.04632168 0.020540826 -0.07994734
0.0010852732 -0.05549576 -0.04682385 0.008608594 0.02955901 -0.038363863 -0.00061108154 -0.011460978
-0.04407926 -0.013747774 0.027904857 -0.012790413 -0.06954845 -0.08100033 0.017067611 0.0018516677
0.016640283 -0.03399508 0.03008697 0.10664888 -0.029915953 -0.028087428 0.028311118 -0.018169759
0.0011737015 0.024275528 -0.090966366 -0.040847562 -0.059933323 -0.08637863 -0.03365692 -0.1509673
0.027300602 0.022229504 -0.026109999 -0.002704208 0.010014806 -0.0063716504 0.12225322 -0.022715135
0.13899991 0.06222746 0.004474463 -0.06437731 0.012933862 0.015482226 0.06495351 0.0045716483
0.04938592 -0.05647829 0.0052347584 0.027046124 -0.018133141 0.008499858 -0.016328022 -0.045648877
0.09780804 0.0032428904 0.12206926 0.036013234 -0.026008006 0.008977912 0.08841251 0.020087011
0.14664742 0.050576434 0.040659796 0.054680616 0.048246972 0.034134977 0.046434265 -0.06488686
-0.028103454 0.007124301 -0.05624682 -0.075883485 0.1041224 -0.059653893 0.06708563 0.00268183
0.10636228 -0.015058051 -0.14782251 0.031704433 -0.00450058 0.057758987 0.04550491 0.010831215
0.007640397 -0.04172085 -0.009886705 0.017189993 -0.03179709 0.0036993444 0.031763144 0.011811034
0.0071688257 -0.03710154 0.02402174 -0.012574909 -0.004811823 -0.043060053 0.0352246 -0.05460614
0.00025897313 0.031092104 -0.041429516 -0.049253065 -0.015818724 -0.06648677 -0.06222279 -0.0023242075
0.0040162685 -0.05009807 -0.002774505 0.04336564 0.04787675 -0.027554158 -0.022224104 0.01040249
0.010944791 0.010912082 0.034414608 -0.01006047 -0.01499376 0.044824768 0.032130152 0.019512892
0.037449665 0.014480552 -0.03674997 0.040506605 -0.0068790237 -0.0066284155 0.08648889 0.008155954
-0.050895836 -0.009021811 -0.014070295 -0.044443805 -0.03159785 -0.002115997 -0.016505841 -0.07184011
-0.018966733 -0.020431597 -0.020272465 -0.021483352 0.077721246 0.0811229 -0.023855919 -0.016081976
0.05825087 0.04544945 0.15199196 0.068613045 -0.031166136 -0.015694331 0.10088603 0.054123804
-0.12309389 -0.0434573 0.017529435 -0.04115168 0.0069637396 -0.020875381 -0.10035145 -0.030312773
-0.042046025 -0.027618576 -0.11224076 -0.004753493 -0.020451745 -0.041981995 -0.004328 0.066317365
-0.04793634 -0.016003635 -0.022565383 -0.0020687778 -0.039550394 0.025460828 0.02898682 -0.01993013
-0.026018532 0.030416822 -0.032851495 0.03858469 -0.19126134 0.03272637 0.10433331 0.0920142
-0.000881837 -0.0193794 0.062307216 -0.023781018 0.0075658155 -0.057110008 -0.00988076 -0.016884528
0.029658241 0.020395314 -0.012678422 -0.003406288 0.009935812 0.0050781113 0.07619379 -0.00451712
-0.112250485 0.030394271 0.058161672 0.05753651 0.059551977 -0.024634767 0.009293059 0.03267205
0.006900259 3.645753e-05 0.046745382 0.052925017 0.036841355 0.053012133 0.011463135 0.01588357
0.026623456 -0.05348947 -0.04461046 -0.025396844 -0.029873539 -0.041800402 -0.04253914 -0.050682314
-0.061132465 -0.0071491264 -0.045148183 -0.052963473 0.045785964 -0.01950226 -0.107514605 0.017215662
00000000: a02c 23bd e8ac e7bc 346e 85bc 29ff 083b
00000010: e800 6639 973a 66bd 30c2 a33d beec a83c
00000020: 6070 b3bd 2cbd 93bd 5728 173d d224 3a3a
00000030: 03e5 35bd cdbb 3d3d 3c45 a83c 6ebb a3bd
00000040: ba3f 8e3a 864f 63bd 5eca 3fbd 0f0b 0d3c
00000050: bd25 f23c 6d23 1dbd fd30 20ba d3c6 3bbc
00000060: 748c 34bd 583e 61bc ba98 e43c e18e 51bc
00000070: 6b6f 8ebd 80e3 a5bd 60d1 8b3c a8b3 f23a
00000080: 3451 883c 6d3e 0bbd f378 f63c ba6a da3d
00000090: 4d12 f5bc 9b17 e6bc b8ec e73c bfd8 94bc
000000a0: e3d6 993a 79dd c63c 934c babd c64f 27bd
000000b0: a57c 75bd 47e7 b0bd d7db 09bd 2c97 1abe
000000c0: 83a5 df3c a61a b63c a3e4 d5bc 1539 31bb
000000d0: 2415 243c 47c9 d0bb e55f fa3d 1715 babc
000000e0: fe55 0e3e 39e2 7e3d 849e 923b 40d8 83bd
000000f0: 8de8 533c 2aa9 7d3c 5906 853d c4cd 953b
00000100: e448 4a3d c855 67bd 5688 ab3b d58f dd3c
00000110: f48b 94bc fd42 0b3c 58c2 85bc 51fa 3abd
00000120: 954f c83d ac86 543b 73ff f93d 9d82 133d
00000130: be0e d5bc 1818 133c 9e11 b53d 848d a43c
00000140: be2a 163e 3c29 4f3d e38a 263d c8f8 5f3d
00000150: 9e9e 453d 1ed1 0b3d db31 3e3d 67e3 84bd
00000160: 3739 e6bc f872 e93b 1163 66bd cd68 9bbd
00000170: 203e d53d a457 74bd 3164 893d a4c1 2f3b
00000180: 78d4 d93d 0bb6 76bc c95e 17be 82dc 013d
00000190: 9a79 93bb b094 6c3d 5b63 3a3d 6975 313c
000001a0: 4c5c fa3b 7be3 2abd d9fb 21bc 07d2 8c3c
000001b0: aa3d 02bd b370 723b 121a 023d 1183 413c
000001c0: 78e8 ea3b c9f7 17bd 3dc9 c43c fe06 4ebc
000001d0: 7fac 9dbb bd5f 30bd ac47 103d b0aa 5fbd
000001e0: c9c6 8739 deb4 fe3c ffb1 29bd 95bd 49bd
000001f0: 4596 81bc 372a 88bd 53dd 7ebd bb51 18bb
00000200: e79a 833b a233 4dbd 78d4 35bb 2ba0 313d
00000210: 691a 443d 42b9 e1bc 530f b6bc 356f 2a3c
00000220: c851 333c 97c8 323c 55f6 0c3d abd4 24bc
00000230: 63a8 75bc 2d9a 373d e89a 033d 80d9 9f3c
00000240: d264 193d d63f 6d3c 2387 16bd 41ea 253d
00000250: 6f69 e1bb 2e33 d9bb 1621 b13d 8da0 053c
00000260: 2778 50bd 38d0 13bc 1887 66bc b50a 36bd
00000270: bf6c 01bd 8aac 0abb 4237 87bc e820 93bd
00000280: 1f60 9bbc 2a60 a7bc 7112 a6bc dbfd afbc
00000290: 512c 9f3d c323 a63d 7d6d c3bc 59be 83bc
000002a0: 7798 6e3d 3429 3a3d c8a3 1b3e ff84 8c3d
000002b0: 2050 ffbc 6691 80bc 569d ce3d ecb0 5d3d
000002c0: a618 fcbd 4800 32bd e499 8f3c aa8e 28bd
000002d0: 1530 e43b d902 abbc 1085 cdbd 7e52 f8bc
000002e0: 7438 2cbd 5a40 e2bc 7cde e5bd 30c3 9bbb
000002f0: 6b8a a7bc 50f5 2bbd e5d1 8dbb 66d1 873d
00000300: e558 44bd 0e1a 83bc 0adb b8bc 5594 07bb
00000310: 98ff 21bd 3a93 d03c c475 ed3c 8344 a3bc
00000320: d124 d5bc b32c f93c 4a8f 06bd fb0a 1e3d
00000330: 03da 43be 160c 063d b4ac d53d f171 bc3d
00000340: 142b 67ba 8cc1 9ebc da35 7f3d 69d0 c2bc
00000350: a9ea f73b 2fec 69bd e9e2 21bc 6c51 8abc
00000360: d7f5 f23c 1314 a73c 28b9 4fbc 083c 5fbb
00000370: d1c9 223c 4966 a63b 7d0b 9c3d 5904 94bb
00000380: 95e3 e5bd 68fd f83c ef3a 6e3d 67ab 6b3d
00000390: c6ec 733d dace c9bc ea41 183c 21d3 053d
000003a0: 911b e23b fae9 1838 1678 3f3d e7c7 583d
000003b0: f6e6 163d 4023 593d dfcf 3b3c 431e 823c
000003c0: 6f19 da3c c617 5bbd 75b9 36bd 0b0d d0bc
000003d0: 5ab9 f4bc e636 2bbd 853d 2ebd 4298 4fbd
000003e0: 0966 7abd 3843 eabb 4ded 38bd 3af0 58bd
000003f0: 108a 3b3d 34c3 9fbc 9e30 dcbd dc07 8d3c

tail.0.bias f4 [3]
0.008780114 -0.047911596 -0.026134314
00000000: 78da 0f3c f33e 44bd a117 d6bc
