TrainedModels/SMB-1-3/scale_factor=0.750000,alpha=10/2/netD.pth (torch, 128517 bytes, 27 tensors)

head.conv.weight f4 [32, 3, 3, 3]
0	0xbd2e3c87	-0.042538192
1	0xbce8c6a5	-0.028415034
2	0xbcc5136a	-0.024057109
3	0x3c09abff	0.0084028235
4	0x3c38aa00	0.011271
5	0xbc17d676	-0.00926744
6	0xbb9f3a82	-0.0048592696
7	0x3d036572	0.032079168
8	0xbc820128	-0.015869692
9	0xbc8cd881	-0.01719308
10	0xbc351175	-0.011051525
11	0x3c7e568f	0.015523567
12	0x3c9139b0	0.017727703
13	0xbcc44e99	-0.02396326
14	0xbd0e7ae8	-0.03478518
15	0x3d1351e0	0.035966754
16	0xbcd0c55b	-0.025484731
17	0x3d4e9892	0.05043847
18	0x3d2b6913	0.041848253
19	0x3d480c54	0.048839882
20	0x3d4086a2	0.047003396
21	0x3cb7e261	0.022446813
22	0xbd514210	-0.051088393
23	0xbc9530a7	-0.018211676
24	0x3db49d39	0.0881905
25	0xbd9e17f2	-0.07719411
26	0x3de745e0	0.112926245
27	0xbc067c23	-0.008208307
28	0xbc1a95b6	-0.009435108
29	0x3cf263d2	0.029588614
30	0x3c04229f	0.008064895
31	0xbca3df11	-0.020003827
32	0xbd024b7b	-0.031810265
33	0x3c2f9bf8	0.010718338
34	0x3cc62ac6	0.024190318
35	0x3cb9a95b	0.022663763
36	0x3d5fb006	0.05461123
37	0x3b3b6efe	0.0028600092
38	0xbd8a68d9	-0.06758279
39	0x3d3c1d04	0.04592611
40	0xbcbae2c2	-0.022813205
41	0xbd0b6264	-0.03402938
42	0x3d8c6edb	0.068570815
43	0xbc304929	-0.01075963
44	0xbc7ae3c4	-0.015313093
45	0x3d1bba13	0.03801925
46	0xbcda8d15	-0.026678601
47	0xbe1d3224	-0.15351158
48	0x3d77de4e	0.06051474
49	0xbbc7cd29	-0.006097455
50	0xbbe01a80	-0.0068390965
51	0x3df27052	0.1183783
52	0xbc492d3b	-0.01227885
53	0xbc4ca4b6	-0.012490442
54	0x3b03a297	0.0020085925
55	0x3c211f1f	0.00983408
56	0x3c7d8720	0.015474111
57	0xb935e8fc	-0.00017348299
58	0xbcb1d73d	-0.021709079
59	0xbbc2b149	-0.005941544
60	0xbc2e96be	-0.010656057
61	0x3c54d2ef	0.012989744
62	0xbc1c1e82	-0.009528758
63	0x3b0a40f3	0.0021095842
64	0x3cd5f129	0.02611597
65	0x3c0df9dd	0.008665529
66	0xbaef45e9	-0.0018255088
67	0x3c3dc7ca	0.011583278
68	0x3c43edc6	0.011958545
69	0xbd19c836	-0.03754445
70	0xbb940273	-0.0045168935
71	0xbc0e9bff	-0.008704185
72	0xbc76e8f3	-0.015070188
73	0x3d9e40ce	0.07727204
74	0xbc3905db	-0.0112929
75	0x3c75b84a	0.014997551
76	0x3df1f322	0.11813952
77	0x3bcbc7d6	0.0062188907
78	0xba82d931	-0.0009982941
79	0x3ce7dbb4	0.028303005
80	0x3c55df5d	0.013053742
81	0xbc7fa2c8	-0.015602775
82	0x3d0f88b7	0.03504249
83	0xbd21a05b	-0.039459568
84	0x3c8fcf95	0.017555038
85	0x3c2bfaff	0.010496854
86	0x3cefcc35	0.029272178
87	0x3c84f4fb	0.016230097
88	0xba7c6029	-0.0009627366
89	0x3d6a6ed3	0.057234596
90	0x3d5295d3	0.051412415
91	0xbd3ad956	-0.045617424
92	0xbce33c29	-0.027738648
93	0xbc310b28	-0.0108058825
94	0xbc895058	-0.016761944
95	0x3cbbf10e	0.022942092
96	0x3c9735cf	0.018458275
97	0x3c866f6c	0.016410552
98	0xbc885a33	-0.016644573
99	0x3b0e9f66	0.002176249
100	0xbd869940	-0.06572199
101	0x3dd77974	0.10521212
102	0xbcff68e7	-0.031177951
103	0x3b87eb79	0.0041479436
104	0x3d54763c	0.05187057
105	0x3d6a785f	0.0572437
106	0x3e0e0b26	0.1387144
107	0xbdaac508	-0.08338362
108	0xbc3809ee	-0.011232836
109	0xbd3a66b5	-0.045508105
110	0x3c490524	0.012269292
111	0xbc139c88	-0.009009488
112	0xbcb20e38	-0.021735296
113	0x3c57ddcc	0.013175439
114	0xba99313b	-0.0011687645
115	0xbc8cfe60	-0.01721114
116	0xba236045	-0.0006232302
117	0x3c1188ef	0.008882745
118	0xbb394cd7	-0.002827456
119	0xbcb6b0a7	-0.022301031
120	0x3c863d23	0.016386574
121	0x3c1a20fe	0.00940728
122	0x3c3ba9cc	0.011454057
123	0xbd31af43	-0.043380033
124	0xbd41fb23	-0.047358643
125	0xbcc62781	-0.024188759
126	0x3d7f555b	0.06233726
127	0x3d59a99d	0.05314027
128	0x3c919892	0.017772947
129	0x3c1c432a	0.009537498
130	0x3aaeecb5	0.0013345691
131	0x3c43e40a	0.011956224
132	0xbd87e1d4	-0.0663487
133	0xbd8add9d	-0.06780551
134	0xbbb80763	-0.005616115
135	0x3e1829d6	0.14859709
136	0x3daae837	0.08345073
137	0xbd0c29b6	-0.034219466
138	0xbd5eb4b6	-0.054371558
139	0xbd917bf4	-0.0710372
140	0xbddaf146	-0.106905505
141	0x3dac0e12	0.08401121
142	0x3dab9b9f	0.08379292
143	0xbcca1b28	-0.024671152
144	0x3cb481c5	0.022034535
145	0xbd316d15	-0.04331692
146	0xbdccbc98	-0.09996909
147	0x3c1e04a8	0.009644665
148	0xbba43b57	-0.0050119567
149	0xbc917339	-0.017755138
150	0x3dc57b66	0.09642677
151	0x3d2e50ef	0.042557653
152	0x3da5ff20	0.08105302
153	0xbd2033b4	-0.039111808
154	0xbc9c865a	-0.019107033
155	0x3a23226e	0.0006223087
156	0x3c883a49	0.016629355
157	0x3de3808f	0.11108505
158	0x3cfa11d9	0.030526089
159	0xbe2a7fca	-0.1665031
160	0xbd37b2a8	-0.044848114
161	0xbdc2a49a	-0.095040515
162	0xbc13adf2	-0.00901364
163	0xbd15f7b4	-0.03661318
164	0xbbf56371	-0.007488661
165	0x3d505364	0.050860777
166	0x3c1082f5	0.008820285
167	0x3c991be9	0.018690066
168	0x3d5c9780	0.05385542
169	0x3cd2882b	0.025699696
170	0x3d186e9d	0.037214864
171	0x3d192179	0.037385438
172	0xbd3459de	-0.044031017
173	0x3da27b60	0.07933688
174	0x3d679832	0.05654163
175	0x3b923f44	0.0044631083
176	0x3c918630	0.01776418
177	0x3b176375	0.0023100052
178	0x3c94d436	0.018167596
179	0xbbdb01fa	-0.0066835852
180	0x3e044f29	0.12920822
181	0x3c13f074	0.009029496
182	0x3e08120b	0.13288133
183	0x3cc30ec5	0.023810754
184	0x3b892c97	0.0041862237
185	0x3b8541c0	0.004066676
186	0x3d1dc701	0.038519863
187	0x3ce16d4d	0.027517939
188	0x3c0500cf	0.008117869
189	0x3cef15d8	0.02918522
190	0xbd6a5821	-0.057212953
191	0x3b4785c4	0.003044472
192	0xbd3413ca	-0.043964185
193	0xbdd3ab31	-0.103353865
194	0xbd73a955	-0.05948766
195	0x3cb145f4	0.021639802
196	0x3c5241c6	0.012833064
197	0x3bd9bb83	0.0066446676
198	0xbc720bf5	-0.014773359
199	0x3db9d8ef	0.0907458
200	0x3d908887	0.070572905
201	0xbdab312d	-0.08358989
202	0xbcc3a55b	-0.023882559
203	0xbcff73b1	-0.031183096
204	0x3ddd6f3a	0.108122304
205	0x3db9636c	0.09052166
206	0x3d6a1bd7	0.057155456
207	0xbd3473c0	-0.0440557
208	0x3e398794	0.18118125
209	0xbd1dbf8e	-0.03851276
210	0xbd0810a9	-0.033219013
211	0x3e248efb	0.16070168
212	0x3d6c6112	0.05770976
213	0xbd33a9ad	-0.043862987
214	0x3a30cf30	0.00067447405
215	0x3cac7bf1	0.021055194
216	0x3c82a9b7	0.015950067
217	0xbd7be283	-0.061495315
218	0x3c340de5	0.010989641
219	0x3cc7a5fe	0.024371143
220	0xbdf94acc	-0.121724695
221	0x3d4ae021	0.049530152
222	0xbd032c01	-0.032024387
223	0xbddd6b68	-0.10811502
224	0x3e0367c3	0.1283255
225	0xbdb4739b	-0.088111125
226	0xbd52dcc8	-0.051480085
227	0xbd57a281	-0.05264521
228	0xbcf1d17b	-0.029518833
229	0xbbd5dd1c	-0.0065266024
230	0x3c286fd2	0.010280566
231	0xbc932328	-0.0179611
232	0x3d0309a5	0.03199162
233	0xbdaf018f	-0.08545219
234	0xbdb37980	-0.08763409
235	0xbcba7246	-0.022759568
236	0xbcaa9d2e	-0.020826902
237	0xbd39c151	-0.045350377
238	0x3d61adf1	0.055097524
239	0x3d09a0d7	0.033600654
240	0xbd835a06	-0.06413655
241	0x3b8c58fd	0.004283069
242	0xbe187269	-0.14887394
243	0xbac9097d	-0.0015337911
244	0x3c5de8d7	0.013544283
245	0xbbb057d1	-0.0053815623
246	0xbb964607	-0.0045859846
247	0xbd102e23	-0.03520025
248	0xbd48790e	-0.04894357
249	0x3d97d107	0.07412916
250	0x3c93338d	0.017968917
251	0xbd16cab0	-0.03681439
252	0x3c466b79	0.012110584
253	0x3d530a3b	0.05152343
254	0x3db7a03a	0.08966108
255	0xbd263101	-0.040574078

head.conv.bias f4 [32]
0	0x3ca0186d	0.019542897
1	0x3e82f784	0.25579464
2	0xbba1aa4a	-0.00493363
3	0x3d3d175b	0.04616485
4	0xbdbcf864	-0.09227064
5	0xbf8cb763	-1.0993465
6	0x3b9edb60	0.004847929
7	0x3e90e36a	0.28298503
8	0xbf2ceefe	-0.67552173
9	0x3d542411	0.051792208
10	0x3e10a3a8	0.1412493
11	0xbf3548b5	-0.7081407
12	0xbe9aa543	-0.3020421
13	0x3e4c6c38	0.19963157
14	0x3ea1d559	0.31608084
15	0x3ee6994d	0.45038834
16	0xbe2bafd8	-0.16766298
17	0xbaf2ec1b	-0.00185335
18	0x3ecc43a7	0.39895365
19	0x3e85b991	0.26118138
20	0xbf14aad4	-0.58073163
21	0x3ee82b4d	0.45345536
22	0xbdaaeeff	-0.08346366
23	0xbd8d3302	-0.068944946
24	0x3e654398	0.22389066
25	0x3e68f91d	0.22751279
26	0xbf4ab640	-0.7918434
27	0xbf82b19f	-1.0210456
28	0xbd56dcbd	-0.052456606
29	0x3da45b66	0.08025245
30	0xbea594f5	-0.32340208
31	0x3ca0ada7	0.019614054

head.norm.weight f4 [32]
0	0x3f85b037	1.0444402
1	0x3f81d669	1.0143558
2	0x3f7f2d6e	0.99678695
3	0x3f604ab4	0.8761399
4	0x3f644716	0.8917097
5	0x3f6d3444	0.92657876
6	0x3f8906f4	1.0705247
7	0x3f4af042	0.79272854
8	0x3f81bab2	1.01351
9	0x3f7bd8aa	0.9837748
10	0x3f7edd5f	0.99556535
11	0x3f6f4cd5	0.9347661
12	0x3f5a17f7	0.8519282
13	0x3f829593	1.0201896
14	0x3f562804	0.8365481
15	0x3f43feaa	0.7656046
16	0x3f788daf	0.9709119
17	0x3f71d873	0.944709
18	0x3f4a5f3f	0.79051584
19	0x3f6100c5	0.878918
20	0x3f68849a	0.90827334
21	0x3f73f26b	0.95291775
22	0x3f6b47c0	0.91906357
23	0x3f4e441c	0.80572677
24	0x3f55a3be	0.83452976
25	0x3f68c552	0.90926087
26	0x3f563cd5	0.8368657
27	0x3f32acc5	0.69794875
28	0x3f462383	0.77397937
29	0x3f74b1b9	0.95583683
30	0x3f2e37db	0.6805398
31	0x3f85a249	1.044015

head.norm.bias f4 [32]
0	0x3e19cff1	0.1502073
1	0xbc7f1ae3	-0.015570375
2	0xbf0028ba	-0.50062144
3	0x3edcaa16	0.43098515
4	0x3d32beae	0.043638878
5	0x3dc6f009	0.09713752
6	0xbe7dd406	-0.24787912
7	0x3f04f061	0.5192929
8	0xbe9333de	-0.2875051
9	0xbdc029d7	-0.0938298
10	0x3d1d4619	0.03839693
11	0xbd8d9d3b	-0.06914755
12	0x3e405cdf	0.18785428
13	0xbe33e8ce	-0.17569277
14	0x3f2bbf18	0.6708846
15	0x3f41bc62	0.75678074
16	0xbe5b12d7	-0.21393906
17	0x3eebcfad	0.46056882
18	0x3e251246	0.16120252
19	0x3eca3496	0.39493245
20	0x3db67dd2	0.08910717
21	0xbd2c0c37	-0.042003836
22	0x3d417b29	0.047236595
23	0x3e926a95	0.2859694
24	0x3f09e9a1	0.53872114
25	0x3ec5b190	0.38612032
26	0x3f5799a0	0.8421879
27	0x3f703018	0.93823385
28	0x3f07ffcc	0.5312469
29	0xbd5a5686	-0.05330517
30	0x3f817595	1.0114008
31	0xbda66d2f	-0.08126294

head.norm.running_mean f4 [32]
0	0x3e5f9f80	0.21838188
1	0x3e7d61d3	0.24744348
2	0x3e4650d3	0.1936677
3	0x3e311847	0.17294417
4	0xbd866d32	-0.06563796
5	0xbfa45928	-1.2839708
6	0x3ea353d5	0.31899896
7	0x3f13dde3	0.5776045
8	0xbf7067f9	-0.9390865
9	0x3da23832	0.07920875
10	0x3df38aaf	0.11891686
11	0xbf67aff0	-0.90502834
12	0xbea97162	-0.33094317
13	0x3e55c36d	0.2087533
14	0x3f5e1edd	0.86765844
15	0x3f5cfb44	0.863209
16	0xbf26b0c0	-0.6511345
17	0x3de7a3ef	0.11310565
18	0x3e9726c9	0.29521778
19	0xbdef5238	-0.11685604
20	0xbf14caf2	-0.5812217
21	0x3edb0374	0.42776072
22	0xbd912f1b	-0.07089063
23	0xbe369272	-0.17829302
24	0x3ed3aa19	0.41340712
25	0x3ee51a9f	0.44746873
26	0xbfa1fab2	-1.2654631
27	0xbfa28273	-1.269606
28	0x3e2f9972	0.17148378
29	0x3d703322	0.058642514
30	0xbf09a9f8	-0.53774977
31	0x3e2d593c	0.16928571

head.norm.running_var f4 [32]
0	0x3cff9f86	0.031203996
1	0x3ca4b6bc	0.020106666
2	0x3d16414f	0.036683377
3	0x3c847ba3	0.016172236
4	0x3b891db1	0.0041844477
5	0x3d0951d6	0.03352531
6	0x3db6640b	0.089058004
7	0x3dd62899	0.10456962
8	0x3d99677a	0.0749044
9	0x3c6d3a58	0.014479242
10	0x3cdca324	0.02693326
11	0x3d2ccfe4	0.042190447
12	0x3d12d63f	0.035848852
13	0x3c6e6ccc	0.014552306
14	0x3e8ad765	0.27117458
15	0x3e1e7fca	0.15478435
16	0x3e55ae52	0.20867279
17	0x3cec8cc4	0.028875716
18	0x3cbba8d8	0.02290766
19	0x3e037366	0.1283699
20	0x3d129bc1	0.03579307
21	0x3c4971dd	0.0122952135
22	0x3b9baedd	0.00475107
23	0x3c32f83c	0.0109234415
24	0x3d26e84d	0.040748883
25	0x3d79d03d	0.060989607
26	0x3e30686a	0.17227331
27	0x3dca805b	0.09887763
28	0x3d521e42	0.051298387
29	0x3c93d91a	0.018047858
30	0x3d89c45e	0.06726907
31	0x3cbf4b9a	0.02335148

channel.fc1.weight f4 [2, 32, 1, 1]
0	0x3b05f93f	0.0020442752
1	0x3cbb7608	0.02288343
2	0x3d63bbee	0.055599146
3	0x3c99eb6a	0.018789012
4	0x3c3eda06	0.0116486605
5	0x3c55c559	0.01304754
6	0x3cfe6601	0.031054499
7	0x3d6dd2a8	0.058062226
8	0x3d0f2b06	0.03495314
9	0x3c9ccab5	0.019139627
10	0x3cee17fb	0.02906417
11	0x3ca64eef	0.02030131
12	0x3d19b1f2	0.037523217
13	0xbc0ada83	-0.008474949
14	0x3d876494	0.06610981
15	0x3c11dd2f	0.008902832
16	0x3e61b936	0.22043309
17	0x3c503c1b	0.012709643
18	0x3c10b3a4	0.008831892
19	0x3d9f3dc2	0.07775451
20	0x3cb6fcc3	0.022337323
21	0x3c931fd8	0.01795952
22	0xbc5ceb5f	-0.013483851
23	0x3ce1dbc5	0.027570615
24	0x3c9865e2	0.018603269
25	0x3c88c833	0.016697025
26	0x3da17590	0.078837514
27	0x3d444b81	0.04792357
28	0x3cb5b9ea	0.022183377
29	0xbd1715d4	-0.03688605
30	0x3d52f05b	0.051498752
31	0x3ca86f59	0.020560907
32	0x3d28c66c	0.041204855
33	0xbc949cbc	-0.018141143
34	0xbc7ac97b	-0.015306826
35	0x3cc79c89	0.024366634
36	0xbd26cc13	-0.040721964
37	0xbca2c421	-0.019868912
38	0xbb6dd78a	-0.0036291801
39	0x3c9d266d	0.019183362
40	0xbd252276	-0.040316068
41	0x3bff772f	0.00779619
42	0xbcc505a6	-0.024050545
43	0xbaa84640	-0.0012838319
44	0xbb4260bf	-0.0029659716
45	0xbcb54e15	-0.022131959
46	0xbd35814b	-0.044312757
47	0xbc8b60e5	-0.017013976
48	0xbd11cc8c	-0.03559546
49	0xbaefa6de	-0.0018283983
50	0xbbf6df6b	-0.0075339577
51	0xbd34f97b	-0.044183236
52	0xbd3fdb8a	-0.04684023
53	0xbcc33ab2	-0.023831699
54	0xbb956066	-0.0045586107
55	0xbd404460	-0.046940207
56	0xbcd9b32a	-0.02657469
57	0xbc64a0f3	-0.013954389
58	0x3c620627	0.013795412
59	0xbc9341ff	-0.017975805
60	0xbca75143	-0.02042449
61	0xbbc2e911	-0.005948194
62	0xbd152a35	-0.036417205
63	0xbc9233a1	-0.017846884

channel.fc2.weight f4 [32, 2, 1, 1]
0	0x3dc4c59b	0.09608003
1	0x3b863bd3	0.004096487
2	0x3e2efbb5	0.17088206
3	0x3d1a4c11	0.0376702
4	0x3d28ef6a	0.041243948
5	0x3c1769bb	0.009241517
6	0x3dcf3db6	0.10119192
7	0xbceb6e07	-0.028738989
8	0xbe34a206	-0.17639932
9	0xbc9ed8dd	-0.019390518
10	0xbd07b15c	-0.033128127
11	0x3b574560	0.0032847747
12	0xbd823b5a	-0.06358977
13	0x3be84de6	0.0070893643
14	0xbe1224e4	-0.14271885
15	0xbc3be73e	-0.011468707
16	0x3d638b0a	0.05555252
17	0xbbc5a2b9	-0.006031361
18	0xbc129f69	-0.008949139
19	0x3bea46c5	0.0071495497
20	0x3e54320d	0.20722218
21	0x3d4fbbc9	0.050716195
22	0xb8d86c31	-0.00010319835
23	0xbc3e79ea	-0.011625746
24	0xbda13129	-0.07870705
25	0x3c64c018	0.013961814
26	0xbe048e33	-0.1294487
27	0x3c607461	0.013699622
28	0x3db5a771	0.088698275
29	0x3c7c0ea6	0.015384352
30	0x3c57f826	0.013181722
31	0x3c757ca8	0.014983334
32	0x3b941415	0.0045189955
33	0x3b35139e	0.00276301
34	0x3d93202c	0.07183871
35	0x3c5377ac	0.01290695
36	0xbdbf43ae	-0.09339081
37	0xbd0bb8ce	-0.03411179
38	0x3e1ef345	0.15522487
39	0x3ca530d6	0.020164888
40	0x3dd5539d	0.104163386
41	0x3c591c77	0.013251415
42	0xbce41d3d	-0.027845973
43	0x3bfa94dd	0.0076471404
44	0xbe44cd1f	-0.19218872
45	0xbc213182	-0.009838464
46	0xbe0c0b7e	-0.13676259
47	0x3d476dad	0.04868858
48	0xbd844778	-0.06458944
49	0xbce1259d	-0.027483756
50	0xba57db6b	-0.0008234295
51	0x3cb7c482	0.02243257
52	0xbcab6a39	-0.020924674
53	0xbc6b7bf9	-0.014372819
54	0x3c6fd991	0.014639274
55	0x3b88f531	0.0041796197
56	0xbcd17829	-0.025569992
57	0x3c36fde8	0.011168934
58	0xbdf7e4e2	-0.12104203
59	0xbd0a4be9	-0.0337638
60	0xbd5414de	-0.051777713
61	0x3ce74f56	0.028236073
62	0xbdcbda64	-0.09953764
63	0xbd0120b9	-0.031525347

body.block1.conv.weight f4 [32, 32, 3, 3]
0	0x3b910c0c	0.004426485
1	0x3b9481ca	0.0045320736
2	0xbc88f46b	-0.01671811
3	0x3d99d3de	0.075111136
4	0x3d93ffbd	0.072265126
5	0x3cb873dc	0.022516184
6	0x3d88bf25	0.06677083
7	0x3d0fff85	0.03515579
8	0xbb55453a	-0.0032542483
9	0xbc04ecf8	-0.008113138
10	0x3d27e971	0.04099411
11	0x3e18fbc3	0.1493979
12	0x3d1b9c3f	0.037990805
13	0xbc0a86ec	-0.008455019
14	0x3c84aa6b	0.016194543
15	0x3dab89fb	0.08375927
16	0xbbf48e39	-0.0074632433
17	0xbce9c435	-0.028535942
18	0x3d282d3f	0.041058775
19	0x3d18c0ad	0.037293125
20	0xb9d91cf9	-0.00041411052
21	0x3bb37d86	0.00547761
22	0x3d312f26	0.043257855
23	0xbb25c569	-0.0025294668
24	0x3ccca7d5	0.024982372
25	0x3c60a66e	0.013711555
26	0x3ccb04e4	0.024782605
27	0xbda0879f	-0.07838368
28	0xbb93248d	-0.004490441
29	0xbde71f98	-0.11285323
30	0x3b86bfb9	0.0041122106
31	0x3d3378b3	0.04381628
32	0xbcde8ee5	-0.027167747
33	0xbd89841e	-0.067146525
34	0xbc36e5e0	-0.011163205
35	0xbd6bebef	-0.05759805
36	0xbcda4f8f	-0.026649265
37	0x3c9e1959	0.019299196
38	0x3d5ea14e	0.05435305
39	0x3e1b262b	0.15151279
40	0x3db4e2d2	0.08832325
41	0x3d6110ef	0.05494779
42	0x3dc9a460	0.09845805
43	0x3df56a8a	0.11983211
44	0x3cf92937	0.03041516
45	0xbcaef699	-0.021357821
46	0x3cdf0bc6	0.027227294
47	0xbb1d4444	-0.0023996988
48	0xba3543fe	-0.00069147337
49	0x3b0a6013	0.0021114394
50	0x3cb0f087	0.021599067
51	0xbc5f05e9	-0.013612249
52	0x3d8b0d85	0.06789688
53	0x3e042996	0.12906489
54	0x3c0fc479	0.00877487
55	0x3d8ff69e	0.0702946
56	0x3d039c4c	0.03213148
57	0x3d9b8f3d	0.0759568
58	0x3e37a435	0.17933734
59	0x3e0067f3	0.12539653
60	0x3e5f913b	0.21832745
61	0x3e9e893c	0.30964077
62	0x3e5a69f5	0.21329482
63	0xbe148021	-0.14502002
64	0xbe108120	-0.14111757
65	0xbe4d0dfe	-0.20024869
66	0xbdbdbb02	-0.092641845
67	0x3b7e0331	0.0038759226
68	0xbd9fcc6e	-0.07802664
69	0xbd298c17	-0.041393366
70	0x3b5a528f	0.003331337
71	0xba833a57	-0.0010011893
72	0xbd0c6de5	-0.03428449
73	0xbda479cd	-0.08031044
74	0xbdcccfe3	-0.10000589
75	0xbc230471	-0.009949789
76	0xbd092ea6	-0.033491753
77	0xbcfb3f73	-0.030669903
78	0x3c145b68	0.009054996
79	0xbcf01f2a	-0.029311735
80	0x3b27a468	0.0025580171
81	0x39af02ac	0.00033380592
82	0xbd9ab635	-0.075542845
83	0xbd8b8ce7	-0.06813984
84	0xbc2cc1b7	-0.010544232
85	0x3d09d58f	0.03365093
86	0x3c2b989e	0.0104733985
87	0xbd8c2e10	-0.06844723
88	0x3c63ac43	0.013896051
89	0xbd9a5c32	-0.07537116
90	0x3e0ee031	0.1395271
91	0x3d10e533	0.03537483
92	0x3c8c3ed5	0.017119804
93	0x3d49eadc	0.049296245
94	0x3b41bc7c	0.0029561808
95	0x3d740b9d	0.059581388
96	0xbc009584	-0.007848147
97	0x3ce3ba3e	0.027798768
98	0x3d10e0ba	0.035370566
99	0xbd86879c	-0.06568834
100	0xbca0e638	-0.019641027
101	0xbcc5bc98	-0.02413778
102	0xbca66ccf	-0.020315556
103	0xbc983e6f	-0.018584458
104	0xba16aa53	-0.0005747426
105	0xbc4162ae	-0.011803312
106	0xbc0fce4c	-0.008777212
107	0x3a716203	0.00092080253
108	0xbd14eedb	-0.036360603
109	0xbba2b46a	-0.0049653547
110	0x3d65d9dc	0.05611597
111	0xbd7f9c29	-0.062404785
112	0xbd7ea150	-0.06216556
113	0xbc9275b9	-0.0178784
114	0x3cad983e	0.021190759
115	0xbd7165d6	-0.05893501
116	0xbd39cfdf	-0.045364257
117	0xbdb0cfcd	-0.08633385
118	0xbd801feb	-0.06256088
119	0xbc9e5a3a	-0.019330133
120	0x3cdc04ab	0.026857695
121	0x3d1418c3	0.036156427
122	0x3d8ca9da	0.06868334
123	0x3cb52539	0.022112476
124	0x3cf83839	0.030300247
125	0x3d5e5cb8	0.054287642
126	0xbe40a130	-0.18811488
127	0xbdb7fb1b	-0.089834414
128	0xbdf340c7	-0.1187759
129	0xbe03c3b2	-0.1286762
130	0xbcad5ca6	-0.021162342
131	0xbd919659	-0.07108755
132	0xbdf5e6b4	-0.12006894
133	0xbdc1a287	-0.09454828
134	0xbdbdbf99	-0.0926506
135	0xbe898776	-0.2686116
136	0xbe31b19d	-0.1735291
137	0xbe072bcb	-0.132003
138	0xbe30eab8	-0.17277038
139	0xbdf3ccc4	-0.1190429
140	0xbd94f966	-0.072741315
141	0xbe0229d6	-0.12711272
142	0xbe045860	-0.12924337
143	0xbdb079ab	-0.08616956
144	0xbd152c01	-0.03641892
145	0xbc5afb22	-0.013365539
146	0xbd069187	-0.03285363
147	0xbc07feaf	-0.008300467
148	0x3d30100f	0.042984065
149	0x3c15e844	0.009149615
150	0x3b178aa4	0.0023123408
151	0x3d213737	0.039359298
152	0xbc0cc1ce	-0.0085911285
153	0x3da9c506	0.08289532
154	0x3dcffb0c	0.10155305
155	0x3b0e65fa	0.0021728263
156	0x3d63b19a	0.055589296
157	0x3da2cd31	0.079492934
158	0x3cb3f513	0.021967446
159	0xbd6bf306	-0.057604812
160	0xbcbbd8ac	-0.022930466
161	0xbd0d8e7f	-0.034559723
162	0x3c52e48b	0.012871872
163	0xbce916f2	-0.028453324
164	0xbdc93b0a	-0.09825714
165	0x3d2b096e	0.04175704
166	0x3cf84778	0.030307516
167	0xbd67227a	-0.056429364
168	0xbe03bd09	-0.1286508
169	0xbd4251fa	-0.04744146
170	0xbc3dbf82	-0.011581304
171	0xbd93a638	-0.07209438
172	0xbdcaa48f	-0.09894668
173	0xbd71c084	-0.059021488
174	0xbd8ba478	-0.06818479
175	0xbdb75ad0	-0.08952868
176	0xbd930a96	-0.071797535
177	0x3ca7cd10	0.020483524
178	0xbba58bbf	-0.0050520594
179	0x3ba6138a	0.005068247
180	0xbdbd07b3	-0.09229984
181	0x3c42c051	0.011886672
182	0x3d711a4a	0.05886296
183	0xbc4cdbe3	-0.012503597
184	0x3d318d9b	0.043347936
185	0x3dbb7853	0.091538094
186	0x3d3c81bc	0.04602216
187	0x3d8c2d4a	0.06844576
188	0x3d7031c3	0.058641206
189	0xbc80ab95	-0.015706817
190	0x3cec1e3c	0.02882301
191	0x3bf4f8d5	0.007475952
192	0xbd2cb5fa	-0.042165734
193	0xbc567999	-0.013090515
194	0x3c5d427a	0.013504619
195	0xbc8dd537	-0.017313583
196	0xbcb8d14a	-0.022560734
197	0xbcba8f0c	-0.022773288
198	0xbd26a8ce	-0.04068833
199	0xbd32347a	-0.043507077
200	0xbd8e40e2	-0.06945969
201	0xbd291953	-0.041283917
202	0x3d382f08	0.044966727
203	0xbd03bfb9	-0.032165263
204	0x3d8cd516	0.068765804
205	0x3db6a434	0.08918038
206	0xbd1f0abc	-0.038828596
207	0x3c419dee	0.0118174385
208	0x3c886978	0.016651854
209	0xbd3e69b3	-0.04648752
210	0xbd24bc8b	-0.04021887
211	0x3b417652	0.0029519987
212	0xbda6253e	-0.08112572
213	0xbd84afc4	-0.06478837
214	0xbd0abfac	-0.0338742
215	0x3baba7c7	0.0052385065
216	0xbe6a0b27	-0.22855817
217	0xbdadd7e2	-0.08488442
218	0xbe105edc	-0.14098686
219	0xbdef6472	-0.1168908
220	0xbafe612d	-0.0019407623
221	0xbd2559ee	-0.040368967
222	0xbc850698	-0.016238496
223	0x3db0a0d6	0.08624427
224	0xbc75b3bb	-0.014996464
225	0xbdc5b2bf	-0.09653234
226	0xbcc6834e	-0.024232533
227	0xbce1dff5	-0.027572611
228	0xba05853d	-0.00050934014
229	0xbc9660b1	-0.018356653
230	0xbbfeee1f	-0.007779851
231	0xbe11b300	-0.1422844
232	0xbdddec24	-0.10836056
233	0xbdc9e03e	-0.09857224
234	0xbd928616	-0.07154481
235	0xbd6d0696	-0.05786761
236	0xbd4ec048	-0.050476342
237	0xbd5f1647	-0.054464605
238	0xbd68f552	-0.05687458
239	0xbd5a6fde	-0.05332934
240	0xbd28e07d	-0.041229714
241	0xbc04db98	-0.008108996
242	0x3d6a0ca0	0.057140946
243	0xbd930510	-0.071787
244	0xbd49d168	-0.04927197
245	0x3cc80033	0.024414157
246	0xbd005a1e	-0.031335942
247	0x3ad9c8ed	0.0016615667
248	0x3cbc26dc	0.022967748
249	0xbd55fd5a	-0.052243568
250	0x3d1c0256	0.038088165
251	0x3cb147b7	0.021640642
252	0xbdc9e8da	-0.09858866
253	0xbd7ff356	-0.062487923
254	0xbe28fb3f	-0.16502093
255	0xbcd9347b	-0.026514282

body.block1.conv.bias f4 [32]
0	0x3df2eff6	0.11862175
1	0xbe28751f	-0.16450928
2	0x3d5eb04f	0.05436736
3	0x3bdab742	0.006674678
4	0x3df32f39	0.118742414
5	0xbc384fbb	-0.011249478
6	0xbe0b0e43	-0.13579659
7	0xbe3641fa	-0.17798606
8	0x3cc3c329	0.02389677
9	0xbd082cda	-0.0332459
10	0x3e05b0fa	0.13055792
11	0x3df8f04b	0.12155207
12	0x3d11385b	0.035454135
13	0xbdf92ad2	-0.121663705
14	0xbe15a952	-0.14615372
15	0x3d39159c	0.045186624
16	0xbd0e0e43	-0.03468157
17	0x3d928821	0.07154871
18	0xbd05c495	-0.03265818
19	0xbd2ecdfc	-0.04267691
20	0xbd0d5b22	-0.03451074
21	0xbb03e4ff	-0.0020125506
22	0xbd186bc5	-0.037212152
23	0xbcea9b5a	-0.02863853
24	0x3d46c0ab	0.048523586
25	0xbcb59fe6	-0.022170972
26	0xbb463f3e	-0.0030250098
27	0xbc828d48	-0.015936509
28	0xbe1eb936	-0.1550034
29	0xbcb8be21	-0.022551598
30	0x3d1ba3f6	0.037998162
31	0xbd815046	-0.06314139

body.block1.norm.weight f4 [32]
0	0x3f6211b8	0.88308287
1	0x3f6ba3c5	0.9204677
2	0x3f57457b	0.84090394
3	0x3f4bdc0d	0.79632646
4	0x3f8c9522	1.0983012
5	0x3f40af9f	0.75267977
6	0x3f545199	0.8293701
7	0x3f6a4803	0.9151613
8	0x3f5c6deb	0.8610522
9	0x3f6aa46d	0.91657144
10	0x3f7c8c1b	0.98651284
11	0x3f5269bd	0.82192594
12	0x3f51becc	0.8193176
13	0x3f636f97	0.8884215
14	0x3f663eba	0.89939463
15	0x3f5cd7da	0.86266863
16	0x3f89d9e1	1.0769616
17	0x3f7e123c	0.99246573
18	0x3f8ec593	1.1154045
19	0x3f53f525	0.82795936
20	0x3f6f64ec	0.9351337
21	0x3f48ffe3	0.7851545
22	0x3f71aa27	0.94400257
23	0x3f5910fe	0.84791553
24	0x3f8fc627	1.1232346
25	0x3f45d1ea	0.7727343
26	0x3f7dd121	0.9914723
27	0x3f57748d	0.8416222
28	0x3f6ddc71	0.9291449
29	0x3f739912	0.9515544
30	0x3f9259c1	1.1433641
31	0x3f8392a5	1.0279127

body.block1.norm.bias f4 [32]
0	0xbe26ff6d	-0.16308375
1	0x3e3c24e0	0.18373442
2	0x3f122918	0.57093954
3	0x3f824de9	1.0180026
4	0x3cdca50a	0.026934166
5	0x3f842e4b	1.0326627
6	0x3fb8d3d6	1.4439647
7	0x3f2b86ed	0.67002755
8	0x3f1bfebd	0.60935575
9	0xbf091121	-0.5354176
10	0xbdab2aab	-0.08357748
11	0x3eba4fa0	0.36388874
12	0x3f516179	0.81789356
13	0x3f3f3ca9	0.74701935
14	0x3f4b30f4	0.7937157
15	0x3ec17a13	0.37788448
16	0x3e076ae9	0.13224377
17	0x3e943f18	0.28954387
18	0x3f1a85ec	0.603606
19	0x3ed205f5	0.4102017
20	0x3f2e4b0f	0.6808328
21	0x3f0feb92	0.56218827
22	0x3f30dd71	0.6908789
23	0x3f31d665	0.69467765
24	0x3eaef688	0.34172463
25	0x3ea3a7ef	0.3196406
26	0x3d70fc6b	0.058834475
27	0x3f920fdb	1.1411089
28	0x3f191550	0.59798145
29	0x3dea23d5	0.11432616
30	0xbcb9aba9	-0.022664862
31	0x3ede154a	0.43375617

body.block1.norm.running_mean f4 [32]
0	0xbfecd74f	-1.8503207
1	0xbf348652	-0.70517457
2	0xbfe3e843	-1.7805256
3	0x3fa4ba65	1.2869383
4	0xbfd03f8c	-1.6269393
5	0xbf98aee6	-1.1928375
6	0xbfa6a4c8	-1.3019037
7	0x3e13c735	0.1443146
8	0x3ebc9eed	0.3684
9	0x3db5c370	0.08875167
10	0xc0583716	-3.3783622
11	0x3e7efcfe	0.24901196
12	0x403c61c7	2.9434679
13	0xbff4f1cd	-1.9136292
14	0x3f07289c	0.5279634
15	0xc0119b06	-2.2750869
16	0xbf1cd2d7	-0.61259216
17	0x3f43f239	0.7654148
18	0x3e9baa71	0.30403474
19	0xbf2cb5ba	-0.6746479
20	0x3f824d25	1.0179793
21	0xbf549232	-0.83035576
22	0xbff51952	-1.9148352
23	0x3a0936fb	0.0005234328
24	0x3e999298	0.29994655
25	0xbf872f62	-1.0561335
26	0x3e0cf335	0.13764651
27	0x3f93fdee	1.1561868
28	0xbf289d1b	-0.65864724
29	0xbd7b7e73	-0.06139989
30	0xbf50d8f1	-0.81581026
31	0xbe1ca609	-0.15297712

body.block1.norm.running_var f4 [32]
0	0x3dffdf6b	0.124937855
1	0x3e56db9e	0.20982215
2	0x3e66b841	0.22531225
3	0x3f74c478	0.9561229
4	0x3ece06a7	0.4023945
5	0x3dce94cb	0.10086974
6	0x3e8c4c3f	0.2740192
7	0x3e853174	0.26014292
8	0x3f1b38b7	0.60633415
9	0x3f4276a3	0.75962275
10	0x3e0a7632	0.1352165
11	0x3d8f7d55	0.07006327
12	0x3e1da292	0.15394047
13	0x3dfc6398	0.123236835
14	0x3ead1131	0.33802179
15	0x3e8c020a	0.27345306
16	0x3f275ea7	0.65378803
17	0x3ea922bb	0.3303431
18	0x3e8d639d	0.2761506
19	0x3db8716f	0.09006011
20	0x3ea7c604	0.3276826
21	0x3f1621a9	0.5864511
22	0x3e88060b	0.2656711
23	0x3e9b14a2	0.3028918
24	0x3e9a131d	0.30092707
25	0x3e65831d	0.22413297
26	0x3dee476d	0.11634717
27	0x3e9d8a06	0.30769366
28	0x3e4d3e42	0.2004328
29	0x3e10cb08	0.1413995
30	0x3e6a250f	0.22865699
31	0x3f15b0f8	0.5847316

body.block2.conv.weight f4 [32, 32, 3, 3]
0	0x3cb149b1	0.021641584
1	0x3d87e2d9	0.06635065
2	0x3e03a171	0.12854554
3	0xbd03a150	-0.03213626
4	0x3ac9ed89	0.0015405874
5	0x3d09ce31	0.033643905
6	0xbc570c58	-0.013125502
7	0x3cb04a6e	0.021519866
8	0x3c895915	0.01676611
9	0x3d91f805	0.07127384
10	0x3db97ed9	0.090573974
11	0x3d232ef6	0.039839707
12	0x3d41769d	0.04723226
13	0x3da2d551	0.07950843
14	0x3d23f30c	0.04002671
15	0x3cd2656c	0.025683127
16	0x3d825728	0.0636428
17	0xb99aad08	-0.00029502087
18	0x3cb4d7a7	0.022075487
19	0x3d53389f	0.05156767
20	0x3d55c31a	0.052188016
21	0x3ddcfca1	0.10790373
22	0x3deb46ac	0.11488089
23	0x3de16685	0.11005882
24	0x3c8f75b9	0.01751219
25	0x3d451116	0.048111998
26	0x3cbb3a71	0.022855015
27	0xbdf72258	-0.120670974
28	0xbda8df07	-0.08245664
29	0xbda60711	-0.081068166
30	0xbda3c344	-0.07996228
31	0xbd63ae1c	-0.055585966
32	0xbd06d076	-0.032913648
33	0x3c5db65c	0.013532247
34	0x3d3dfd94	0.04638441
35	0x3c72878c	0.014802825
36	0x3d0b7ebd	0.034056414
37	0x3c972ffb	0.018455496
38	0x3d1ad2f5	0.03779884
39	0xbc970ddf	-0.018439231
40	0x3d0c2996	0.034219347
41	0x3c146da5	0.009059344
42	0xbc984bf0	-0.018590897
43	0x3d8b1613	0.0679132
44	0x3d135d1c	0.035977468
45	0x3bced645	0.006312164
46	0x3c837a50	0.016049534
47	0x3c1d1a74	0.009588826
48	0x3c997204	0.018731125
49	0x3cb67ef9	0.022277342
50	0xb871b348	-5.7625846e-05
51	0x3d36a729	0.04459301
52	0x3d845d0c	0.0646306
53	0x3c70912e	0.014683051
54	0x3d103dc9	0.035215173
55	0x3d50dacc	0.05098991
56	0x3c826bd1	0.015920551
57	0xbc8a5fa8	-0.016891316
58	0x3d2fc9c5	0.04291703
59	0xbcb8f0b3	-0.022575712
60	0xbcbcba69	-0.023038106
61	0x3d1c0b2c	0.03809659
62	0x3c86f98c	0.016476415
63	0x3dec1e58	0.11529225
64	0x3dd95c76	0.10613339
65	0x3d8b0908	0.06788832
66	0x3c4fddd7	0.012687168
67	0x3d7adbd2	0.061244793
68	0x3bcc15bf	0.0062281783
69	0x3d648eb7	0.055800166
70	0x3dfb8aef	0.12282359
71	0x3e0c8643	0.13723092
72	0x3d849430	0.06473577
73	0x3cf3e04a	0.029770035
74	0xbd3321a4	-0.043733254
75	0x3cb86c2e	0.022512522
76	0x3b5f5ed1	0.0034083615
77	0xbd935de5	-0.07195643
78	0x3d811cf7	0.06304353
79	0x3c98ad6b	0.01863738
80	0x3b6e880f	0.0036397015
81	0x3d92ba0f	0.07164394
82	0x3d6f9ba2	0.058498032
83	0x3cff32b0	0.0311521
84	0x3cf5c813	0.03000263
85	0x3ca0f479	0.019647824
86	0xbd255542	-0.04036451
87	0xbcf03464	-0.029321857
88	0x3ceba9f5	0.028767565
89	0x3d219673	0.03945012
90	0x3d069389	0.032855544
91	0x3d3703ea	0.044681467
92	0x3cf10f05	0.029426107
93	0xbd13b75f	-0.03606355
94	0x3c85e487	0.016344322
95	0x3ce882ac	0.028382622
96	0xbd0ea424	-0.034824505
97	0xbcd9e164	-0.026596732
98	0x3b01c6ad	0.0019802258
99	0xbd5c3491	-0.05376107
100	0x398dc97a	0.00027043727
101	0x3d85fb9c	0.06542131
102	0x3caedb87	0.021344913
103	0x3d292ca0	0.041302323
104	0x3dd8dad0	0.1058861
105	0x3d35b9d2	0.044366665
106	0x3d9887cf	0.074477784
107	0x3da20826	0.079117104
108	0x3bc04d90	0.005868621
109	0xbc1f2a34	-0.009714652
110	0x3b2535c3	0.0025209046
111	0x3ccf4c04	0.025304802
112	0x3d734b0b	0.05939774
113	0x3dbcd7e7	0.092208676
114	0xbc1ae817	-0.009454749
115	0xbb6578ba	-0.0035014586
116	0x3d251e7d	0.04031228
117	0x3c19ece3	0.009394857
118	0x3c2b8b2a	0.010470191
119	0xbd31e926	-0.04343524
120	0x3d05e018	0.032684416
121	0xbc3eeb64	-0.011652801
122	0xbcabcf22	-0.020972792
123	0xbd425be1	-0.047450904
124	0xbd69996c	-0.05703108
125	0xbd78fc97	-0.060787763
126	0xbe4823f3	-0.19544964
127	0xbd5d402d	-0.05401628
128	0xbd3323ae	-0.0437352
129	0xbcaa7b35	-0.020810703
130	0xbd2510d9	-0.04029927
131	0xbcfbf99f	-0.030758677
132	0x3ddd45eb	0.108043514
133	0x3dab1b25	0.08354787
134	0x3d87cb80	0.066306114
135	0x3dbbd03e	0.091705784
136	0x3b88f883	0.0041800155
137	0xbc262d19	-0.010142588
138	0x3d64e080	0.055878162
139	0xbd7181d8	-0.05896172
140	0xbd017a47	-0.031610753
141	0xbb921c7d	-0.0044589625
142	0xbcd7d875	-0.026348332
143	0xbb1e2a59	-0.0024134128
144	0xbc7cb237	-0.015423349
145	0x3d5cce21	0.053907517
146	0x3c748e7f	0.014926552
147	0xbd45e986	-0.04831841
148	0x3dd1e1db	0.10248157
149	0x3db108d5	0.08644263
150	0xbd08d6ba	-0.033407904
151	0x3cef5f65	0.029220292
152	0x3d3e8503	0.04651357
153	0xbc078740	-0.008271992
154	0x3d414026	0.047180317
155	0x3d00c0e6	0.031433962
156	0xbd716537	-0.058934417
157	0xbc3f91d7	-0.011692486
158	0x3d3faef9	0.046797726
159	0x3d1a7b7e	0.037715428
160	0x3d2ea481	0.042637352
161	0x3dea6649	0.114452906
162	0x3df2138c	0.118201345
163	0x3dac1f1b	0.084043704
164	0x3e1aa27e	0.15101048
165	0xbdc0eba1	-0.09419943
166	0xbd895186	-0.067050025
167	0x3c40be60	0.011764139
168	0x3d3d1ef4	0.046172097
169	0x3c977fae	0.0184935
170	0x3e172ebc	0.14763921
171	0x3cc8efe2	0.024528448
172	0x3db465b0	0.08808458
173	0x3d5074f4	0.050892785
174	0xbd488d8e	-0.048963122
175	0x3c95d3b6	0.018289428
176	0x3cc4cb9a	0.024022866
177	0xbb807c6e	-0.003921083
178	0x3d11282e	0.03543871
179	0x3cd59645	0.02607263
180	0xbada8bd6	-0.0016673754
181	0xbbb13b83	-0.0054087057
182	0x3cb24116	0.021759551
183	0xbdcc93d2	-0.09989132
184	0xbd228dd8	-0.039686054
185	0xbd88cdb0	-0.06679857
186	0xbe2f8307	-0.17139827
187	0xbda2b2d5	-0.07944266
188	0xbdd663c9	-0.10468251
189	0x3da30c5e	0.07961343
190	0x3da57d90	0.0808059
191	0x3d9ad4c4	0.07560113
192	0x3deaa530	0.11457288
193	0x3e087b00	0.13328171
194	0x3de16a89	0.11006648
195	0x3dde78fb	0.10862919
196	0x3e1d210a	0.15344635
197	0x3dd27b2b	0.10277399
198	0xbd9c1dc1	-0.076228626
199	0xbc93b536	-0.018030744
200	0x3c885dc6	0.016646277
201	0x3d38ca75	0.045114953
202	0x3d81b641	0.0633359
203	0x3d9ff807	0.07810979
204	0x3de66cee	0.112512454
205	0x3e02bd19	0.12767448
206	0x3de7c597	0.11316984
207	0xbd745b3b	-0.059657317
208	0xbd3b6ade	-0.045756213
209	0xbcbcbe53	-0.023039972
210	0xbbf23dea	-0.0073926346
211	0x3c0e30af	0.008678599
212	0x3d389240	0.04506135
213	0x3daa0c99	0.08303184
214	0x3d37bf7b	0.044860344
215	0x3d80ef15	0.06295601
216	0x3e14e066	0.14538726
217	0x3dde4a69	0.10854036
218	0x3dcc43af	0.09973847
219	0x3e106269	0.1410004
220	0x3d83fa9a	0.06444283
221	0x3df14b22	0.117819086
222	0x3dfb2c54	0.12264314
223	0x3e1285cc	0.14308852
224	0x3d9a3022	0.07528712
225	0xbce58e4d	-0.028021956
226	0x3d6b50b0	0.057449996
227	0x3d8f5424	0.069984704
228	0xbb16f232	-0.0023032543
229	0x3c04c84e	0.008104397
230	0x3da219a2	0.07915045
231	0x3a1f0ce0	0.0006067287
232	0xbc6f65fc	-0.014611717
233	0x3d0b4025	0.03399672
234	0x3d4cbfe2	0.04998768
235	0xbb9c505b	-0.0047703213
236	0x3ce99083	0.028511291
237	0x3d961d43	0.073298
238	0x3ca7cae3	0.020482486
239	0xbb6e8353	-0.0036394193
240	0x3dc5ef09	0.09664733
241	0xbc5d5221	-0.013508351
242	0xbdfb4f4b	-0.12270983
243	0x3d4d5c37	0.05013677
244	0x3dc6158f	0.09672081
245	0xbd3a9167	-0.045548823
246	0x3d1c6c43	0.038189184
247	0x3c9b844b	0.01898398
248	0xbdc44fe9	-0.09585554
249	0xbcae14f4	-0.021250226
250	0xbbba76a7	-0.005690414
251	0xbd68f01d	-0.056869615
252	0xb9ba85cb	-0.00035576368
253	0x3d54df93	0.05197103
254	0x3d5dd465	0.054157633
255	0x3c931937	0.01795636

body.block2.conv.bias f4 [32]
0	0x3d348f4a	0.044081964
1	0xbd7637b8	-0.06011173
2	0xbd87d862	-0.066330686
3	0x3d2ae2a7	0.04172006
4	0xbce4d33b	-0.027932754
5	0xbd8347ec	-0.064102024
6	0x3d0a2505	0.03372671
7	0xbdd26237	-0.10272639
8	0xbd9e8195	-0.077395596
9	0xbc9c3c1a	-0.019071627
10	0xbda9135f	-0.08255648
11	0xbad0a203	-0.0015917424
12	0xba3aa84f	-0.0007120417
13	0xbcd6d9f7	-0.02622698
14	0x3ca3287f	0.019916771
15	0x3d551d8c	0.05203013
16	0x3d7f5301	0.062335018
17	0xbd9b7ab0	-0.0759176
18	0x3bcd4a96	0.006264995
19	0x3c004974	0.007830013
20	0x3d7067d5	0.058692772
21	0xbd73e433	-0.0595438
22	0x3c266498	0.010155819
23	0xbd7f07a8	-0.06226316
24	0xbc5036ee	-0.012708409
25	0x3c1c12b5	0.0095259445
26	0xbd8dccb3	-0.06923809
27	0xbdbcb17f	-0.09213542
28	0xbd2a7d58	-0.041623443
29	0x3d2c8e80	0.042128086
30	0xbde2dc45	-0.11077169
31	0xbdd21088	-0.10257059

body.block2.norm.weight f4 [32]
0	0x3f7404c2	0.9531976
1	0x3f7c59a2	0.9857427
2	0x3f73cdac	0.95235705
3	0x3f33241f	0.6997699
4	0x3f44e7b5	0.76916057
5	0x3f3b94b2	0.73273766
6	0x3f56e397	0.83941025
7	0x3f586eb3	0.84543914
8	0x3f54f326	0.83183515
9	0x3f8295d5	1.0201975
10	0x3f35ded3	0.7104313
11	0x3f540544	0.82820535
12	0x3f343731	0.70396715
13	0x3f477ac7	0.7792172
14	0x3f83bc26	1.0291793
15	0x3f3efb59	0.74602276
16	0x3f3fdcfe	0.7494658
17	0x3f3985ea	0.7246996
18	0x3f7c21a1	0.98488814
19	0x3f2b9795	0.6702817
20	0x3f5e7364	0.8689482
21	0x3f693828	0.9110131
22	0x3f68efda	0.90990984
23	0x3f5ee5d8	0.87069464
24	0x3f594f7a	0.84886897
25	0x3f67c9b6	0.9054216
26	0x3f5e92ef	0.8694295
27	0x3f84a9c9	1.0364314
28	0x3f5b1283	0.8557512
29	0x3f15f5db	0.5857827
30	0x3f73e067	0.95264286
31	0x3f38d5ea	0.72201407

body.block2.norm.bias f4 [32]
0	0x3e85fe9b	0.2617081
1	0xbe06f443	-0.13179116
2	0x3f199b61	0.60002714
3	0x3f1948c6	0.5987667
4	0x3f58cf26	0.84691083
5	0x3f867d5f	1.050701
6	0x3fa374f8	1.2770071
7	0x3eb695fe	0.3566131
8	0x3f19f42d	0.6013821
9	0x3f1432b5	0.5788987
10	0x3f637b5a	0.88860095
11	0x3f51b0ab	0.819102
12	0x3f863a95	1.0486628
13	0x3fc373d1	1.5269719
14	0x3e2b957a	0.1675624
15	0x3f264a74	0.64957356
16	0x3f2194f3	0.63117903
17	0x3f5b008b	0.85547704
18	0x3e51f482	0.20503429
19	0x3f0ab88f	0.54187864
20	0x3e9e3c57	0.3090541
21	0x3f41a8cc	0.7564819
22	0x3ef7623d	0.48317137
23	0x3e52b450	0.20576596
24	0x3f723ca6	0.9462379
25	0x3f1cae00	0.61203
26	0x3edb288a	0.42804366
27	0x3f1e9619	0.6194778
28	0x3e545a9f	0.20737694
29	0x3fedfaf3	1.8592209
30	0x3f166f70	0.5876379
31	0x3fd74d46	1.6820457

body.block2.norm.running_mean f4 [32]
0	0x407baf49	3.9325736
1	0x3ed18c0a	0.40927154
2	0xc0905ad0	-4.5110855
3	0xbe62c0c1	-0.22143842
4	0x3f477984	0.77919793
5	0xbf98880e	-1.191652
6	0xc02ff67a	-2.7494187
7	0xc08a3f9e	-4.320266
8	0xc0842c34	-4.130396
9	0xc03d9550	-2.9622383
10	0xbf81df1e	-1.0146215
11	0xc063ec08	-3.5612812
12	0xbf93509e	-1.1508977
13	0x3fa8b562	1.3180354
14	0xbf7848b8	-0.9698596
15	0x40051413	2.0793502
16	0x3fe7ae07	1.8099984
17	0xbf60307b	-0.87573975
18	0xbfd22a7f	-1.6419219
19	0x3fa02512	1.2511313
20	0x401c9f37	2.4472177
21	0x3e3c8926	0.18411693
22	0xbfa3ed16	-1.2806728
23	0xc016cacc	-2.3561277
24	0xbf654f5b	-0.8957421
25	0xc0770210	-3.859501
26	0xc01f0290	-2.4845314
27	0xbfa9e18f	-1.327196
28	0x3ed2bb63	0.4115859
29	0xc0a344b8	-5.1021385
30	0xbfaea5b5	-1.364432
31	0xbfe98764	-1.8244443

body.block2.norm.running_var f4 [32]
0	0x3fe20332	1.7657225
1	0x404f5408	3.2395039
2	0x4082b376	4.084407
3	0x400e6ccc	2.2253904
4	0x403ff3d0	2.9992561
5	0x403e221b	2.9708316
6	0x3fba9bb5	1.4578768
7	0x3fd17e1c	1.636661
8	0x3f19e619	0.60116726
9	0x406efe79	3.7342818
10	0x3fcfaa09	1.6223766
11	0x3fa29a53	1.2703346
12	0x409256b7	4.5730853
13	0x3fa334ec	1.2750525
14	0x3ff6d144	1.9282613
15	0x3f29d579	0.6634136
16	0x3f544b0c	0.8292701
17	0x407091ad	3.7588913
18	0x4090807d	4.5156846
19	0x3fe76285	1.8076941
20	0x3f7792f2	0.96708596
21	0x407759d9	3.8648589
22	0x404d30ec	3.206111
23	0x3f963e31	1.1737729
24	0x3fe1d4fc	1.7643123
25	0x405228c0	3.2837372
26	0x3f871e5d	1.0556141
27	0x402670ad	2.6006272
28	0x4002d200	2.0440674
29	0x3fb407fe	1.4064939
30	0x3f525a84	0.82169366
31	0x3fa1f715	1.2653528

body.block3.conv.weight f4 [32, 32, 3, 3]
0	0xbc956b8a	-0.018239755
1	0x3c9980ec	0.018738233
2	0x3d180304	0.03711225
3	0x3d8b6324	0.06806019
4	0x3d74799c	0.05968629
5	0x3def49fc	0.11684033
6	0xbdb41952	-0.08793892
7	0xbd8d04c5	-0.06885675
8	0xbd32e8dc	-0.043679103
9	0xbccda4f3	-0.025103068
10	0xbd970e0f	-0.07375728
11	0xbda84427	-0.08216124
12	0xbd5a9c1f	-0.053371545
13	0xbcea3acb	-0.028592488
14	0xbd1b606d	-0.037933756
15	0xbdec44a3	-0.11536529
16	0xbdba8ced	-0.09108911
17	0xbdade53a	-0.08490987
18	0xbcaf69c2	-0.021412734
19	0xbc817b8d	-0.015805984
20	0xbc85f48f	-0.016351966
21	0x3dd897c3	0.10575821
22	0x3ddb6405	0.107124366
23	0x3db46555	0.0880839
24	0x3e08807b	0.13330261
25	0x3e0e3119	0.13885917
26	0x3dc76493	0.0973598
27	0x3c15a8d9	0.009134495
28	0x3d551d63	0.05202998
29	0x3da6bf36	0.08141939
30	0x3dc22b60	0.094809294
31	0x3dbc3591	0.091899045
32	0x3de68c63	0.112572454
33	0xbb9dce4c	-0.0048158523
34	0x3b8cbc06	0.004294875
35	0xbbd2ff6b	-0.0064391396
36	0xbd1be8ae	-0.038063698
37	0xbd43a127	-0.04776111
38	0x3cc3070b	0.02380707
39	0xba4b9353	-0.00077657885
40	0x3c98fc89	0.018675106
41	0x3d60a661	0.05484617
42	0x3c1e9cb1	0.009680913
43	0x3c454e70	0.012042627
44	0x3cc93eec	0.024566136
45	0x3d838cef	0.06423365
46	0x3de5a853	0.11213746
47	0x3dca4c02	0.098777786
48	0x3d2d1a29	0.042261276
49	0x3bd1cefe	0.006402849
50	0x38cb4fde	9.694671e-05
51	0xbbf9684a	-0.007611309
52	0xbc80bcea	-0.015715081
53	0xbcccbcc6	-0.024992358
54	0xbdbbc5ff	-0.09168624
55	0xbda25fd2	-0.079284325
56	0xbdbb77a5	-0.0915368
57	0xbd388d3d	-0.04505657
58	0xbb0d3d20	-0.0021551326
59	0xbc504dcd	-0.012713862
60	0xbe254cd5	-0.1614259
61	0xbd5b72e0	-0.05357635
62	0xbe01887b	-0.1264972
63	0xbd9f8010	-0.07788098
64	0xbd7bc57f	-0.061467644
65	0xbd5c8c2e	-0.053844623
66	0x3d20ab88	0.039226085
67	0xbbeac4ac	-0.0071645584
68	0xbd2cbdec	-0.04217331
69	0xbcd29e11	-0.025710138
70	0xbd597c99	-0.05309734
71	0xbd5af7a1	-0.053458814
72	0x3d31401b	0.043274026
73	0x3da6180a	0.08110054
74	0x3d5207dd	0.05127703
75	0x3cb2fec5	0.02185
76	0xbc3a2f5a	-0.011363829
77	0x3d0fbbde	0.035091273
78	0xbd0be7e9	-0.034156714
79	0x3c9e58f1	0.01932952
80	0xbcfe06a7	-0.031009031
81	0xbe12fe4f	-0.14354824
82	0xbdace4ef	-0.08442103
83	0xbe020d2d	-0.12700339
84	0xbe325786	-0.174162
85	0xbdf39574	-0.1189374
86	0xbe2caa71	-0.16861893
87	0x3b92cf18	0.004480254
88	0x3d475faa	0.048675217
89	0xbc5a4513	-0.013322133
90	0xbd3e69d9	-0.046487663
91	0xbc46e939	-0.012140566
92	0xbc9ce085	-0.019150028
93	0xbc860413	-0.016359365
94	0xbbe5885f	-0.007004782
95	0xbc881bdf	-0.016614852
96	0x3caf80d6	0.021423738
97	0x3dbfb841	0.093613155
98	0x3d29a02d	0.04141252
99	0x3e1fe1be	0.15613458
100	0x3da6dfdf	0.08148169
101	0x3e185c04	0.14878851
102	0xbd829ada	-0.06377192
103	0xbd2a3a53	-0.04155953
104	0xbd8a0cc4	-0.06740716
105	0xbdc4e213	-0.09613433
106	0xbd082644	-0.033239618
107	0xbda01004	-0.07815555
108	0xbdbb6570	-0.09150207
109	0xbcfad6e5	-0.030620048
110	0xbd9e88b7	-0.0774092
111	0xbd14a21e	-0.03628742
112	0xbcfc69af	-0.030812113
113	0xbdae4d7f	-0.08510875
114	0xbcc29805	-0.02375413
115	0x3b9fd8ac	0.004878124
116	0xbd863fa0	-0.06555104
117	0xbb885327	-0.004160303
118	0x3b45ef1e	0.003020234
119	0x3d9530a0	0.07284665
120	0x3d893413	0.066993855
121	0x3d4d75c9	0.050161157
122	0x3db7fed8	0.089841545
123	0x3de326f8	0.11091417
124	0x3db48472	0.088143244
125	0x3e0387cd	0.12844773
126	0x3de42801	0.11140443
127	0x3db127f2	0.08650197
128	0x3dcf0c4d	0.10109768
129	0xbdaec57e	-0.085337624
130	0xbd77bb81	-0.060481552
131	0xbd91e3d3	-0.07123532
132	0xbdaef5e6	-0.08542995
133	0xbd7370a3	-0.05943359
134	0xbd3dca47	-0.046335485
135	0xbc9c8deb	-0.01911064
136	0xbcb574e0	-0.022150457
137	0xbcbf1490	-0.023325235
138	0x3c6872f7	0.014187566
139	0x3ca3bf3c	0.019988649
140	0xba203f93	-0.0006112989
141	0xbc734cd8	-0.014849864
142	0xbaa5c6d2	-0.0012647754
143	0xbca41505	-0.020029554
144	0xbcdb9913	-0.02680639
145	0xbbdb07cd	-0.0066842795
146	0x3d29ed9b	0.041486364
147	0xbbc39f99	-0.0059699533
148	0xbc2ac19f	-0.010422139
149	0x3d0a141a	0.033710577
150	0x3d0ecaea	0.034861483
151	0x3d033867	0.03203621
152	0x3d9c0362	0.07617833
153	0xbdec4d42	-0.11538173
154	0xbe5f4113	-0.21802168
155	0xbe5b2265	-0.21399839
156	0xbc5a8330	-0.013336942
157	0xbd5cadf3	-0.05387683
158	0xbd59f5e5	-0.05321302
159	0x3c493590	0.012280837
160	0x3d87569e	0.06608318
161	0x3cf6157a	0.030039538
162	0xbd51efe8	-0.051254183
163	0xbd221f10	-0.039580405
164	0xbd8a7345	-0.06760267
165	0xbd49ef60	-0.04930055
166	0xbc0e2adf	-0.008677213
167	0xbbed474f	-0.0072411667
168	0xbce2fd2d	-0.027708614
169	0x3caa616b	0.020798406
170	0x3cddb6c7	0.027064694
171	0x3da493eb	0.080360256
172	0x3d577305	0.052599926
173	0x3d84549c	0.064614505
174	0x3d79fec5	0.061033983
175	0x3d086340	0.033297777
176	0x3dc05c81	0.09392644
177	0x3cdda859	0.027057813
178	0xbc28dff1	-0.010307298
179	0x3c5dfde6	0.013549304
180	0x3e3afab4	0.18259698
181	0x3e104169	0.14087452
182	0x3d94ed6a	0.07271846
183	0x3d89129a	0.06693001
184	0x3d65a44f	0.0560649
185	0x3ceeeec7	0.029166592
186	0x3b532f7c	0.0032224348
187	0x3c9edc8c	0.019392274
188	0xbd5e7e7c	-0.054319844
189	0xbce7c494	-0.028291978
190	0xbd8553d8	-0.065101326
191	0xbd4bca20	-0.04975331
192	0xbc3ea87e	-0.011636851
193	0xbc1c178a	-0.0095270965
194	0xbceb9e29	-0.02876194
195	0xbac23cd5	-0.0014819155
196	0xbc274c32	-0.0102110375
197	0xbcf5ca6f	-0.030003754
198	0xbd69cbd9	-0.05707917
199	0xbd7167a7	-0.05893674
200	0x3bcf39d7	0.0063240337
201	0xbde769f1	-0.112995036
202	0xbda3358c	-0.07969198
203	0xbd5635b6	-0.052297316
204	0xbdd43750	-0.103621125
205	0xbddfc62a	-0.10926469
206	0xbd68d975	-0.05684801
207	0x3d9e51d3	0.077304505
208	0x3d94bb94	0.0726234
209	0x3e237c8e	0.15965483
210	0xbd5df1a8	-0.05418554
211	0xbd638c1a	-0.055553533
212	0x3ca55dba	0.020186294
213	0xbd16cfb1	-0.036819164
214	0xbd57a31f	-0.0526458
215	0xba0fa7e0	-0.00054800324
216	0x3d91f18d	0.0712615
217	0x3d884f17	0.0665571
218	0x3b83096e	0.003998927
219	0xbd21a8c2	-0.03946758
220	0xbd16f63d	-0.036855925
221	0xbddbf728	-0.10740501
222	0xbc3d14cf	-0.011540606
223	0xbc20d35e	-0.009816019
224	0xbd0ebde6	-0.03484907
225	0xbc0ac6bb	-0.008470233
226	0x3c83d110	0.0160909
227	0x3dc56ce1	0.09639908
228	0xbd4af570	-0.049550474
229	0xbd6081a5	-0.05481114
230	0xbbd1766d	-0.0063922913
231	0xbc66e0c9	-0.014091679
232	0x3c36606c	0.011131387
233	0x3caeca4c	0.021336697
234	0x3d1ffe84	0.039061084
235	0xbd5ce3a0	-0.053928018
236	0x3c83b8e2	0.01607937
237	0xbb8f5000	-0.0043735504
238	0xbc1a8c34	-0.009432841
239	0x3da786b1	0.08179987
240	0xbd63f146	-0.05565002
241	0xbd782a2d	-0.060587097
242	0xbc95e4c9	-0.01829757
243	0xbdc4d872	-0.09611596
244	0xbd18aa46	-0.03727176
245	0xbcc1725d	-0.023614103
246	0xbd1220ec	-0.035675928
247	0x3a16aa6f	0.00057474425
248	0x3cc2b6b2	0.023768757
249	0x3dc85275	0.097813524
250	0x3de71720	0.112837076
251	0x3e0b54b9	0.13606538
252	0xbd95b624	-0.07310131
253	0xbdc25780	-0.094893456
254	0xbc995a08	-0.018719688
255	0x3d062964	0.032754317

body.block3.conv.bias f4 [32]
0	0x3d822f1d	0.063566424
1	0x3d277ea9	0.040892277
2	0xbcbeef90	-0.023307592
3	0xbd2c4f3b	-0.042067748
4	0x3cf62fc9	0.030052083
5	0xbc73568e	-0.014852179
6	0xbc990d80	-0.018683195
7	0x3e24dcf2	0.16099909
8	0xbdc8dab3	-0.098073386
9	0xbd0e825d	-0.034792293
10	0x3c0babe5	0.00852487
11	0xbd70ae6a	-0.058760084
12	0xbbcd0b9b	-0.006257487
13	0xbda7dd26	-0.081964776
14	0xbe04589c	-0.12924427
15	0xbccdac19	-0.025106477
16	0xbdd9a130	-0.10626447
17	0x3d7a7436	0.061145984
18	0xbcb5bf0c	-0.022185825
19	0x3da64d5f	0.08120226
20	0xbca87df0	-0.020567864
21	0x3c68122a	0.014164487
22	0xbd186c22	-0.0372125
23	0x3d852412	0.065010205
24	0x3d27a39c	0.040927514
25	0xbcd310ff	-0.02576494
26	0x3d23fd06	0.040036224
27	0x3bfca32a	0.0077098804
28	0x3d116595	0.035497267
29	0x3c6d6c0c	0.014491092
30	0xbd4fd362	-0.0507387
31	0xbcd144a9	-0.025545435

body.block3.norm.weight f4 [32]
0	0x3fa7a2a6	1.3096511
1	0x3f96d906	1.178498
2	0x3f8a6da9	1.0814716
3	0x3f97362c	1.1813407
4	0x3fbfa4ea	1.4972203
5	0x3fa14341	1.2598649
6	0x3f68042d	0.9063137
7	0x3fa68bcc	1.3011413
8	0x3f8a0e36	1.0785587
9	0x3f83c7b4	1.029532
10	0x3f95514e	1.1665437
11	0x3f873f97	1.0566281
12	0x3f8291a4	1.0200696
13	0x3f94935c	1.160747
14	0x3f940fc5	1.1567312
15	0x3f9b73ae	1.2144678
16	0x3f9cc92d	1.2248894
17	0x3f7c571c	0.9857042
18	0x3fad7c38	1.3553534
19	0x3f722774	0.9459145
20	0x3f7f9b38	0.9984622
21	0x3fc3d94b	1.5300688
22	0x3f9a40c3	1.2051014
23	0x3f964d02	1.1742251
24	0x3f856e14	1.0424218
25	0x3fa36519	1.2765228
26	0x3f77936b	0.96709317
27	0x3fcec751	1.6154577
28	0x3f8110e6	1.0083282
29	0x3f9f72a3	1.2456859
30	0x3f8748bf	1.0569075
31	0x3f8c3864	1.0954709

body.block3.norm.bias f4 [32]
0	0x3ee7b839	0.45257738
1	0x3e2f5f68	0.17126238
2	0xbe31224b	-0.17298238
3	0x3eb82c92	0.35971504
4	0x3e89e6c7	0.26933882
5	0x3ef8ab84	0.48568356
6	0x3def28bb	0.116776906
7	0x3e9f84b4	0.31155932
8	0xbea9471b	-0.33062062
9	0xbec2ed8e	-0.38071865
10	0x3f49de11	0.7885447
11	0xbe341027	-0.17584287
12	0x3e74e5dd	0.23915811
13	0xbd369cf4	-0.044583276
14	0xbe322925	-0.17398508
15	0x3ede7121	0.43445686
16	0x3d55ca79	0.052195046
17	0xbed7162c	-0.42009103
18	0x3ed60de7	0.41807482
19	0xbd48246d	-0.048862863
20	0x3eb79a57	0.3585994
21	0xbeb7639a	-0.35818177
22	0x3eae144a	0.33999854
23	0x3ecee717	0.40410683
24	0xbe0b9186	-0.13629732
25	0x3d4eb876	0.050468884
26	0xbe97b209	-0.29628018
27	0x3db1b1dc	0.08676502
28	0x3cffc52f	0.031221954
29	0x3ee081c4	0.43849003
30	0x3d6b06d9	0.057379577
31	0x3f0631f2	0.5241996

body.block3.norm.running_mean f4 [32]
0	0x3f4101cf	0.75393385
1	0x4079d6c1	3.9037325
2	0xbf5f4f98	-0.87230825
3	0x3fc139d9	1.5095779
4	0xc0894a12	-4.290292
5	0x3dbb890c	0.09156999
6	0x40455484	3.0832834
7	0xc0895246	-4.291293
8	0xc098ec41	-4.7788396
9	0xc0850d29	-4.1578565
10	0xbf2fe5ed	-0.68710214
11	0xc092e906	-4.5909452
12	0x3fe504a7	1.7892045
13	0x4062a770	3.5414696
14	0x409e5595	4.947947
15	0x3ffee8ec	1.9914832
16	0xbfba60d8	-1.4560804
17	0x4039cc19	2.9030821
18	0x3eb9095b	0.3613995
19	0xc0070a12	-2.1099896
20	0x408a1bea	4.3159075
21	0xc07fb516	-3.9954276
22	0xc05d91c3	-3.4620216
23	0x406a5c04	3.6618662
24	0x3ed3bdf0	0.41355848
25	0x4023839b	2.5549076
26	0xc0872b18	-4.2240105
27	0x3fccd46d	1.6002327
28	0xc0007dec	-2.0076857
29	0x40077e63	2.117089
30	0x401c9f73	2.447232
31	0x4078b945	3.886308

body.block3.norm.running_var f4 [32]
0	0x3f788bb2	0.9708816
1	0x3fadb63a	1.3571236
2	0x3fca6e83	1.5814976
3	0x4011c141	2.2774203
4	0x3f4b48e7	0.79408115
5	0x3fba10b3	1.4536346
6	0x401641a4	2.3477564
7	0x3f903353	1.1265663
8	0x3ef2d04f	0.47424552
9	0x3ed3783f	0.41302678
10	0x40418400	3.0236816
11	0x3f103598	0.5633178
12	0x406ccef3	3.7001312
13	0x3faf0d8d	1.367601
14	0x4003cdfa	2.0594468
15	0x4091bd2b	4.554342
16	0x3feac540	1.8341446
17	0x3ff08560	1.8790703
18	0x3f911008	1.1333017
19	0x401591d1	2.337025
20	0x3fb1f2fc	1.3902278
21	0x3fb858a3	1.440205
22	0x3fa04dce	1.2523744
23	0x3f7e49f5	0.993316
24	0x4065c2e9	3.5900214
25	0x3fa9d662	1.326855
26	0x3ef7a606	0.48368853
27	0x3fcd0762	1.6017878
28	0x3fc73b40	1.5564957
29	0x40941540	4.627594
30	0x3fe9ea90	1.8274708
31	0x3eede2e1	0.46462157
