TrainedModels/SMB-1-2/scale_factor=0.750000,alpha=10/6/netG.pth (torch, 474370 bytes, 29 tensors)

channel.fc1.weight f4 [4, 64, 1, 1]
0.061213505 -0.0040531103 0.08020076 0.027532617 -0.012187409 -0.029553859 -0.017014667 -0.059052203
0.04873527 0.07984036 0.040869344 0.072200365 -0.003349289 0.049703356 -0.0029430045 -0.020459374
-0.05665753 0.06419746 0.06229374 0.10529189 -0.054239057 -0.02602318 0.0038198722 0.005363835
0.031355333 0.00055528263 0.015439125 0.035092525 0.014506702 0.016418237 0.09671068 0.10683138
0.07139409 -0.038007054 0.05667685 0.06455621 0.050867036 0.13191526 0.08888152 0.023418682
0.068461455 -0.032190584 -0.011534438 0.038270492 0.08389917 -0.052408826 -0.1779226 0.043433014
0.0039619305 0.012042916 -0.0017528263 -0.01029254 -0.031441312 0.049596697 0.15762421 0.03508697
0.04767184 -0.08588186 0.033407982 0.0898638 0.0033823277 0.007948814 0.070871614 0.011818734
0.0134227285 -0.02026591 -0.0071986546 -0.03450902 -0.016250713 -0.005009213 -0.008655726 -0.009533903
-0.009595715 -0.03780579 -0.021943899 0.0033652494 -0.009435091 -0.0058577945 -0.061577115 0.0026601944
-0.026738897 -0.05042703 -0.046338964 -0.02171035 0.049738184 -0.0012136252 -0.033173215 -0.03794505
0.014065383 0.0028216713 -0.0014144499 -0.033778187 0.022566214 -0.054083873 -0.020476585 -0.023721868
-0.05251754 -0.04735787 -0.02099233 0.0028132468 -0.013848781 -0.0033457186 -0.01074585 0.031217648
-0.007460711 -0.046629496 -0.056917313 -0.020274324 0.0069000376 0.004519507 -0.0046903365 -0.019347044
-0.00062415877 -0.026096176 -0.05124501 -0.002120772 -0.02882214 0.011568778 -0.0060138316 0.0053781304
-0.031086097 -0.0046866406 -0.0057725837 -0.043837786 -0.008817502 -0.0076927817 -0.004613347 -0.023598725
-0.0028161856 -0.047253754 0.01849045 0.17052537 0.10139021 0.15580311 0.099939846 0.1811339
0.0064931307 -0.12542807 0.085624374 -0.11951578 0.05755985 -0.051906213 0.18612392 0.07740532
-0.012377176 0.01756068 -0.08395019 0.027269922 -0.031950526 0.03912939 -0.03182532 -0.077112146
-0.18084309 0.10034174 0.0540343 -0.044808995 0.110027835 0.044152983 0.06805229 -0.06903522
0.040626917 0.15300278 0.0041414984 -0.099633016 -0.05488046 -0.29988095 0.018152786 0.00554003
0.00966895 -0.0663185 0.058162972 -0.03711736 0.06361933 0.101004325 -0.1257699 -0.00036638806
0.1300804 -0.09145758 -0.007751235 0.08099539 -0.10577913 -0.045429558 0.055178285 0.1051842
0.07235321 0.023386322 0.041680764 0.057655323 -0.04605352 -0.0034883223 -0.02647345 0.052636117
-0.040128242 -0.040454622 -0.048407447 -0.017871946 -0.0034861467 -0.0047193402 -0.013648419 -0.013935941
0.03683241 -0.04034118 0.034490887 -0.007317446 -0.04797564 -0.029969754 0.023648102 -0.0024206163
0.014596794 -0.032805085 -0.0046668146 0.028693648 -0.0025719877 0.01430364 -0.020349288 0.021662945
0.016704828 -0.004232558 -0.015156033 0.0067958813 -0.012372139 -0.0444859 -0.00647267 -0.03455197
-0.03807465 -0.0014853926 -0.017621199 -0.019725805 0.0012866354 -0.026316693 0.009815522 -0.015720066
0.02597132 -0.022232011 0.008735677 -0.020543672 0.0012006024 -0.013870538 -0.030960599 -0.069631815
-0.039024994 -0.02320344 0.009164335 0.016638387 -0.035522643 -0.021068396 -0.036295965 -0.006019539
0.0027899388 -0.0032149157 -0.024667462 0.008038558 -0.017910019 -0.0076318164 -0.04757153 -0.004709059
00000000: 03bb 7a3d f4cf 84bb 4c40 a43d 158c e13c
00000010: b3ad 47bc ef1a f2bc 5862 8bbc b9e0 71bd
00000020: a29e 473d 5883 a33d 9d66 273d c9dd 933d
00000030: bf7f 5bbb bf95 4b3d 6cdf 40bb 6b9a a7bc
00000040: ba11 68bd f579 833d b927 7f3d 46a3 d73d
00000050: c629 5ebd 902e d5bc d256 7a3b 1cc3 af3b
00000060: 736e 003d 6390 113a 62f4 7c3c 2ebd 0f3d
00000070: 85ad 6d3c 8a7f 863c 4010 c63d 69ca da3d
00000080: 1137 923d 49ad 1bbd fc25 683d 0c36 843d
00000090: f459 503d cb14 073e 8407 b63d 89d8 bf3c
000000a0: 8535 8c3d 46da 03bd f0fa 3cbc 85c1 1c3d
000000b0: 54d3 ab3d a3aa 56bd 5831 36be d1e6 313d
000000c0: 15d3 813b a74f 453c 17bf e5ba 0ba2 28bc
000000d0: 9bc8 00bd e825 4b3d 3e68 213e 5bb7 0f3d
000000e0: 8c43 433d d4e2 afbd cfd6 083d 830a b83d
000000f0: 0baa 5d3b be3b 023c 2325 913d 5da3 413c
00000100: 01eb 5b3c b204 a6bc b1e2 ebbb 5559 0dbd
00000110: 3720 85bc 5324 a4bb bfd0 0dbc 1634 1cbc
00000120: 5937 1dbc 3eda 1abd b1c3 b3bc 848b 5c3b
00000130: a495 1abc bef2 bfbb 4938 7cbd a856 2e3b
00000140: 880b dbbc 938c 4ebd edcd 3dbd e7d9 b1bc
00000150: 44ba 4b3d 8112 9fba a3e0 07bd 456c 1bbd
00000160: 7e72 663c caeb 383b 1065 b9ba ff5a 0abd
00000170: c8dc b83c 0d87 5dbd 83be a7bc 5d54 c2bc
00000180: a21c 57bd 53fa 41bd 1bf8 abbc 735e 383b
00000190: ffe5 62bc d843 5bbb 5d0f 30bc 27bc ff3c
000001a0: fb78 f4bb 92fe 3ebd 2122 69bd 5716 a6bc
000001b0: b619 e23b 5f18 943b 65b1 99bb b17d 9ebc
000001c0: 969e 23ba a6c7 d5bc 4ae6 51bd a6fc 0abb
000001d0: 691c ecbc f98a 3d3c ad0f c5bb 073b b03b
000001e0: 45a8 febc 6492 99bb f127 bdbb 408f 33bd
000001f0: 4977 10bc bb13 fcbb 8f2b 97bb 1d52 c1bc
00000200: c18f 38bb 278d 41bd 4979 973c 349e 2e3e
00000210: aca5 cf3d da8a 1f3e 43ad cc3d 2a7b 393e
00000220: 54c4 d43b 3770 00be d55b af3d b0c4 f4bd
00000230: e1c3 6b3d 9c9b 54bd 4597 3e3e ae86 9e3d
00000240: a4c9 4abc 6adb 8f3c 14ee abbd 2c65 df3c
00000250: 8ede 02bd 2446 203d 445b 02bd f9ec 9dbd
00000260: ee2e 39be f87f cd3d 1253 5d3d a389 37bd
00000270: 4656 e13d c2d9 343d 005f 8b3d 5662 8dbd
00000280: 6968 263d c3ac 1c3e 68b5 873b 650c ccbd
00000290: 55ca 60bd ff89 99be 27b5 943c 2489 b53b
000002a0: 846a 1e3c fed1 87bd 4c3c 6e3d 5f08 18bd
000002b0: da4a 823d 5bdb ce3d d3c9 00be c617 c0b9
000002c0: cc33 053e 1d4e bbbd 12fe fdbb e9e0 a53d
000002d0: baa2 d8bd 5814 3abd a002 623d d06a d73d
000002e0: eb2d 943d ac94 bf3c 73b9 2a3d fd27 6c3d
000002f0: 9ea2 3cbd 569c 64bb d9de d8bc f898 573d
00000300: 835d 24bd bfb3 25bd e346 46bd 3068 92bc
00000310: d677 64bb b2a4 9abb 9e9d 5fbc 9353 64bc
00000320: 95dd 163d cb3c 25bd 5146 0d3d 30c7 efbb
00000330: 1b82 44bd 2183 f5bc aab9 c13c 34a3 1ebb
00000340: 6427 6f3c a05e 06bd 14ec 98bb f10e eb3c
00000350: cb8e 28bb d159 6a3c 8db3 a6bc 7d76 b13c
00000360: 90d8 883c 45b1 8abb 0351 78bc fcaf de3b
00000370: 83b4 4abc d936 36bd b118 d4bb 5e86 0dbd
00000380: 2af4 1bbd 81b1 c2ba 555a 90bc 0398 a1bc
00000390: 52a4 a83a 1b96 d7bc 48d1 203c 5ec7 80bc
000003a0: cec1 d43c e81f b6bc 1620 0f3c 344b a8bc
000003b0: 885d 9d3a 4141 63bc 15a1 fdbc 209b 8ebd
000003c0: acd8 1fbd 2415 bebc 0226 163c 3a4d 883c
000003d0: 3180 11bd a197 acbc 14ab 14bd 8e3f c5bb
000003e0: 68d7 363b 56b1 52bb 6b13 cabc 28b4 033c
000003f0: 08b8 92bc 5114 fabb 5dda 42bd 734e 9abb

channel.fc2.weight f4 [64, 4, 1, 1]
-0.02925187 0.0055689123 -0.002126269 -0.021327283 -0.09775029 0.023149952 0.13408603 0.03878075
-0.013830927 0.0125192 0.039799307 -0.03104608 0.0064753764 -0.028526684 -0.17385602 0.026294159
0.029375238 -0.0027874005 -0.11280417 -0.009034515 -0.067289226 -0.013480456 -0.120986275 -0.018654002
-0.14551528 0.023526564 0.2028599 -0.024093363 0.026746185 -0.015928179 -0.11350979 -0.02318141
-0.04737381 -0.020018231 -0.15795693 -0.02509131 0.017643888 0.0089182565 -0.18931705 -0.006564046
-0.040881164 -0.02966738 0.027489966 -0.021597508 0.032360427 0.037569623 -0.15606831 -0.008354654
-0.09868695 0.020550586 0.29534957 -0.037359677 -0.00933184 -0.017134015 -0.017055385 -0.00044034226
-0.090032846 -0.011124574 -0.018985605 -0.0073010973 -0.005233738 0.0065726484 0.0019340857 0.015376548
0.185977 -0.0015772774 -0.23822448 0.010910627 -0.017160546 0.007106217 0.3181047 -0.017853286
-0.0790146 0.0011321073 0.19217914 0.027808959 -0.0025855778 -0.022851577 0.03631157 -0.019948123
0.0098597305 -0.026240349 -0.19050705 -0.0076628113 0.0148540065 0.0043513146 -0.03366964 0.034218155
0.026912358 0.015076495 0.132355 0.011820732 0.015441344 -0.05521605 0.0009003015 0.027934598
-0.049833644 -0.042502783 -0.28344727 0.02728715 -0.057752583 0.004151613 -0.01865618 0.030071583
-0.038566563 -0.02707311 0.064701125 -0.01384109 0.02078057 0.0038749736 0.06316641 -0.009022341
-0.11971187 -0.018126924 0.24262063 0.015285028 0.3099413 -0.022550127 0.043277964 0.014295177
-0.003268988 0.017620416 -0.06888493 0.0025448315 -0.009729412 0.0337731 -0.0020660218 -0.005885601
-0.021932434 0.0041321525 -0.06836834 -0.012995139 -0.06816695 0.019695997 -0.016424641 0.025241276
-0.07432053 0.041921068 0.02899703 -0.009696674 -0.019442558 -0.0012975956 -0.21158345 0.008975816
-0.052717466 0.028518198 -0.026915528 0.0065608015 0.0046892464 0.002675802 -0.2518551 -0.0044011637
-0.033654984 -0.012532702 -0.030033626 0.024962764 -0.046424326 0.000117334406 -0.15285832 -0.007723636
-0.11570619 0.0052198633 0.034800727 -0.008711998 -0.071940735 0.02163976 0.066114955 -0.04902786
-0.011879657 -0.0007364967 0.013080329 0.0033113668 0.00566023 -0.0057511465 -0.14332724 0.013957093
-0.021907791 -0.007142356 -0.101494655 0.015490344 -0.078738354 0.033645224 -0.10891094 0.007361294
-0.031298567 -0.007330689 -0.09139268 -0.002290812 -0.053857874 -0.014490423 0.051277842 0.010271928
-0.05137026 -0.010544798 0.28840232 0.0073596304 -0.06616913 0.03273321 -0.09513543 -0.015620525
0.015289887 0.014555 -0.12291901 -0.016783172 0.17819126 0.005169735 -0.14413187 -0.0046147224
-0.006983161 -0.02634927 0.039974403 0.0056339423 -0.017506436 -0.022992864 -0.058428325 -0.013138863
-0.09845088 0.00089844473 0.24173835 -0.01327591 -0.016777512 -0.064436086 0.08825886 -0.02351961
0.03137654 -0.022815457 -0.09141444 0.0324808 -0.064540505 0.007063079 0.10282675 -0.00072445825
-0.01593264 -0.0012203383 -0.14434342 -0.00040846725 -0.08311834 -0.01815303 0.118506536 0.014266098
0.026478447 0.026057657 0.053311042 -0.018992754 -0.10159503 0.0002174928 0.008972256 0.012492177
-0.046279296 0.04359112 0.09104414 -0.018336061 0.038016345 -0.039775133 -0.049060322 -0.0041299453
00000000: 9ea1 efbc 6c7b b63b e058 0bbb 8eb6 aebc
00000010: 4e31 c8bd f8a4 bd3c d94d 093e 90d8 1e3d
00000020: 1d9b 62bc 551d 4d3c 9904 233d 5954 febc
00000030: 652f d43b cbb0 e9bc 5007 32be d966 d73c
00000040: 57a4 f03c d2ac 36bb df05 e7bd 8105 14bc
00000050: efce 89bd 21dd 5cbc a7c7 f7bd 47d0 98bc
00000060: f501 15be c8ba c03c 81ba 4f3e 725f c5bc
00000070: d11a db3c d07b 82bc d277 e8bd f1e6 bdbc
00000080: 0a0b 42bd 46fd a3bc 76bf 21be 4a8c cdbc
00000090: ea89 903c e11d 123c 54dc 41be 3517 d7bb
000000a0: 0273 27bd 0109 f3bc a332 e13c 42ed b0bc
000000b0: 5e8c 043d 9be2 193d 5fd0 1fbe f5e1 08bc
000000c0: 621c cabd b459 a83c 0f38 973e 7606 19bd
000000d0: 93e4 18bc a25c 8cbc bcb7 8bbc bddd e6b9
000000e0: 2463 b8bd d843 36bc b387 9bbc 0b3e efbb
000000f0: c77f abbb 5f5f d73b 2681 fd3a ebed 7b3c
00000100: c170 3e3e a6bc ceba 1ef1 73be 7dc2 323c
00000110: 4694 8cbc 45db e83b 9fde a23e 0e41 92bc
00000120: 68d2 a1bd 3863 943a 9cca 443e 9dcf e33c
00000130: cc72 29bb 3b33 bbbc 71bb 143d 3f6a a3bc
00000140: b58a 213c 00f6 d6bc 4814 43be 5218 fbbb
00000150: 385e 733c 7995 8e3b 2de9 09bd 5628 0c3d
00000160: 4e77 dc3c 6703 773c 1288 073e beab 413c
00000170: b1fd 7c3c 3a2a 62bd 3602 6c3a 19d7 e43c
00000180: 5d1e 4cbd 6617 2ebd 0020 91be 4d89 df3c
00000190: f98d 6cbd 410a 883b d8d4 98bc ae58 f63c
000001a0: f9f7 1dbd 6dc8 ddbc 0682 843d bdc5 62bc
000001b0: 043c aa3c 45f3 7d3b 645d 813d 71d2 13bc
000001c0: 7f2b f5bd ea7e 94bc 8b71 783e 0e6e 7a3c
000001d0: a0b0 9e3e 0bbb b8bc 3c44 313d 5136 6a3c
000001e0: 853c 56bb b158 903c 8b13 8dbd 30c7 263b
000001f0: 1d68 1fbc a955 0a3d 1866 07bb 00dc c0bb
00000200: a6ab b3bc 0267 873b b304 8cbd 90e9 54bc
00000210: 1d9b 8bbd 8059 a13c f88c 86bc cbc6 ce3c
00000220: 5d35 98bd 6db5 2b3d 2e8b ed3c ccde 1ebc
00000230: 0046 9fbc 1514 aaba 55a9 58be 4d0f 133c
00000240: 45ee 57bd ff9e e93c f47d dcbc fefb d63b
00000250: 40a8 993b 825c 2f3b 27f3 80be a337 90bb
00000260: cfd9 09bd f655 4dbc 1409 f6bc b67e cc3c
00000270: 6f27 3ebd 6e11 f638 e486 1cbe 8e16 fdbb
00000280: 5ef7 ecbd 630b ab3b 358b 0e3d c5bc 0ebc
00000290: aa55 93bd de45 b13c 4767 873d 70d1 48bd
000002a0: e5a2 42bc 7511 41ba e04e 563c 8403 593b
000002b0: 7379 b93b 1d74 bcbb 60c4 12be 4aac 643c
000002c0: f877 b3bc 6d0a eabb 6edc cfbd 36cb 7d3c
000002d0: 9341 a1bd 93cf 093d b30c dfbd 0237 f13b
000002e0: ed32 00bd 4736 f0bb 162c bbbd 7321 16bb
000002f0: 139a 5cbd 3d69 6dbc b708 523d 974b 283c
00000300: 9f69 52bd 17c4 2cbc 78a9 933e 0e29 f13b
00000310: ae83 87bd 4213 063d 5dd6 c2bd 3bed 7fbc
00000320: 6f82 7a3c 1878 6e3c f6bc fbbd dd7c 89bc
00000330: c577 363e e166 a93b 4e97 13be 1937 97bb
00000340: 00d3 e4bb 6dda d7bc 33bc 233d ef9c b83b
00000350: a869 8fbc 885b bcbc 8a52 6fbd 6344 57bc
00000360: 9da0 c9bd 9b85 6b3a 428a 773e 3483 59bc
00000370: fe70 89bc 11f7 83bd 10c1 b43d 32ac c0bc
00000380: b084 003d 7be7 babc 7e37 bbbd 960a 053d
00000390: d02d 84bd 6771 e73b d596 d23d 92e9 3dba
000003a0: 2b85 82bc c2f3 9fba c3ce 13be 8c27 d6b9
000003b0: f339 aabd aab5 94bc 8eb3 f23d 5abc 693c
000003c0: 54e9 d83c de76 d53c ae5c 5a3d b196 9bbc
000003d0: 0e11 d0bd c70e 6439 5f00 133c fdab 4c3c
000003e0: 5c8f 3dbd 9a8c 323d 5a75 ba3d 8235 96bc
000003f0: 07b7 1b3d 40eb 22bd 7af3 48bd 7e54 87bb

spatial.conv1.weight f4 [1, 2, 7, 7]
-0.22090286 -0.18994522 -0.1884038 -0.15588899 -0.18408483 -0.09717548 -0.050527588 -0.2819095
-0.2580225 -0.2961969 -0.24536838 -0.27322966 -0.1348062 -0.18968643 -0.3524555 -0.30495787
-0.40827236 -0.31106937 -0.3771892 -0.26555797 -0.26286122 -0.37871975 -0.28342798 -0.3755153
-0.29630846 -0.33268592 -0.26018035 -0.22514106 -0.33393234 -0.2338073 -0.25993 -0.2742718
-0.29868257 -0.2014033 -0.16390207 -0.20174193 -0.15833032 -0.2798693 -0.2872126 -0.2338726
-0.16462842 -0.16233446 -0.21496828 -0.21778883 -0.27031156 -0.17443295 -0.21281236 -0.1336142
-0.110219784 -0.038823947 -0.02691035 -0.0012432494 0.007482208 -0.037986383 -0.045906965 -0.046539597
-0.012502204 0.0748514 0.08493746 0.022473773 0.032201402 0.021419942 0.034032367 0.022201616
0.004357885 0.06138609 0.0704766 0.024249239 -0.0003661022 0.0073058195 0.021657875 0.030509558
0.049632605 0.06945791 0.008674094 -0.016908083 0.03941903 0.010088452 0.091003284 0.07791612
0.060775723 0.028252108 -0.055711564 0.025021179 -0.037322763 0.042085424 0.010775169 -0.016435111
-5.330836e-05 -0.016985299 -0.008473843 -0.037911605 0.012058464 0.094537966 -0.010775278 -0.008261641
-0.023164453 -0.011082199
00000000: 5c34 62be 0081 42be edec 40be 5da1 1fbe
00000010: bc80 3cbe f003 c7bd 04f6 4ebd 7156 90be
00000020: 861b 84be 1fa7 97be d941 7bbe c2e4 8bbe
00000030: a30a 0abe 293d 42be 0c75 b4be 7023 9cbe
00000040: 1309 d1be 7c44 9fbe f11e c1be 37f7 87be
00000050: bf95 86be 8ee7 c1be 791d 91be 8b43 c0be
00000060: beb5 97be cf55 aabe 5c36 85be 618b 66be
00000070: 2ef9 aabe 2e6b 6fbe 8c15 85be 5a6d 8cbe
00000080: ecec 98be ab3c 4ebe f2d5 27be 7095 4ebe
00000090: 5821 22be 074b 8fbe 880d 93be 4d7c 6fbe
000000a0: 5a94 28be 013b 26be a520 5cbe 0904 5fbe
000000b0: 4766 8abe 8d9e 32be 7ceb 59be 29d2 08be
000000c0: e9ba e1bd dc05 1fbd 1873 dcbc 87f4 a2ba
000000d0: 4f2d f53b 9c97 1bbd f108 3cbd 4ea0 3ebd
000000e0: 0bd6 4cbc b14b 993d b1f3 ad3d eb1a b83c
000000f0: 9ee5 033d e078 af3c 8665 0b3d 2ae0 b53c
00000100: 97cc 8e3b fb6f 7b3d 0956 903d 57a6 c63c
00000110: 68f1 bfb9 a865 ef3b db6b b13c 2eef f93c
00000120: 8f4b 4b3d f33f 8e3d ca1d 0e3c d282 8abc
00000130: d975 213d 094a 253c ee5f ba3d 7d92 9f3d
00000140: f7ef 783d f770 e73c cf31 64bd 37f9 cc3c
00000150: c1df 18bd c461 2c3d 568a 303c eda2 86bc
00000160: 6a97 5fb8 c124 8bbc e0d5 0abc 3349 1bbd
00000170: dd90 453c 1f9d c13d cb8a 30bc d55b 07bc
00000180: 61c3 bdbc 1d92 35bc

head.conv.weight f4 [64, 3, 3, 3]
0.015708275 -0.09795812 -0.061355382 -0.18823017 -0.17953378 -0.073789254 -0.026129428 0.07355909
0.016671514 0.027854742 0.037645582 -0.007735251 -0.033453025 -0.013552376 0.0112129515 -0.09495991
0.03379572 -0.0032217512 0.036864687 0.028934175 -0.030377941 0.030864727 0.0059910137 0.06751901
0.033252075 0.04705721 0.01903997 0.07072399 0.06596998 0.05857504 0.05544261 0.032624766
-0.018038234 -0.0032945543 -0.008305811 -0.064351745 -0.063278005 -0.04079968 0.036108986 -0.106889114
-0.03031881 0.04033367 -0.062629886 0.035843816 0.08047314 -0.09881385 -0.04565336 -0.008494187
-0.022618452 0.017673375 0.046978146 -0.043024033 0.054903165 0.08010202 0.04575545 0.026037764
-0.0285701 0.05408469 0.036453884 0.076891534 0.013176384 -0.013604182 0.015591877 0.03595749
-0.011392648 -0.13521168 0.042229258 0.014926794 -0.04689256 0.0021640162 -0.014427399 -0.016959172
0.030574897 0.012027974 -0.115183465 0.0655532 0.048921667 -0.11506441 0.06106984 0.031261228
-0.060005676 0.008495047 -0.0243843 -0.07649796 -0.0080316095 0.010630935 -0.012491145 0.019379955
-0.013050086 -0.059641887 0.053332917 -0.0099178385 -0.053136386 0.15947081 0.05519411 0.06352207
0.05878862 0.042103287 0.00855158 0.05146392 0.013401547 -0.023778815 0.14155263 0.0619562
0.017816566 0.046710607 -0.014889545 -0.056712613 0.034796685 0.058189046 0.047455363 0.05421583
0.07916765 -0.026476474 0.064148396 0.033648495 -0.016082691 0.066727616 0.031638145 0.055900306
0.06686876 0.032423783 0.036094703 0.010696077 -0.030610193 -0.022116046 0.04664237 0.07234915
0.0948891 0.08336996 0.059813436 0.122509405 0.005134373 0.045441847 0.05867824 -0.066749066
0.0011310162 0.04258758 0.0050150743 -0.006385993 0.033189256 0.027975906 0.07780071 0.035306606
-0.02268316 0.030913783 0.05742018 0.061087947 -0.030246336 0.033333506 -0.053941518 -0.025098985
-0.018413037 0.047146536 -0.01110364 0.036247954 0.11309728 -0.08360595 -0.101360075 0.039237224
-0.041319568 -0.094513424 -0.09759858 -0.009745612 -0.0281852 -0.03720711 0.04292667 0.026352735
0.08994048 0.0013456398 0.0153257 0.024456635 0.038715605 0.027560147 0.06954607 0.023330642
0.06537048 -0.060377844 -0.09594579 -0.080450036 -0.062334184 0.035939556 -0.052176535 -0.0758676
0.08350483 0.08535708 -0.048422754 0.005600035 0.024915872 -0.010122297 0.09577998 0.07817359
-0.12287438 0.04349113 0.17757569 -0.08229904 0.006556278 -0.010252604 -0.08430638 -0.048356615
-0.011326255 -0.11530479 -0.022485312 0.022724835 0.009467928 0.05583581 0.045505043 -0.04074603
0.023546586 0.031265173 -0.05167119 -0.0071811597 0.073761605 0.035247374 0.020890795 0.009911111
0.030471357 0.024957549 -0.087894976 0.09009015 0.08154453 0.046217583 -0.015096247 -0.11801631
-0.014022486 -0.023974149 -0.015852984 0.074333735 -0.118907124 -0.015887937 0.025461791 -0.0030814856
-0.06154976 0.022172455 0.0687733 0.0048686136 -0.03200862 0.006181734 -0.002495366 -0.07283467
0.07713565 0.07735476 -0.005739561 0.083586216 0.00091304444 -0.027704002 -0.07235247 -0.13359396
-0.16394623 -0.0053965286 0.021991568 0.050448366 0.13300826 0.029093461 -0.027973797 0.019282028
00000000: a4ae 803c 449e c8bd c84f 7bbd 69bf 40be
00000010: b4d7 37be d21e 97bd 620d d6bc 26a6 963d
00000020: b392 883c a12f e43c 4132 1a3d fd77 fdbb
00000030: 0a06 09bd c90a 5ebc 87b6 373c 577a c2bd
00000040: 626d 0a3d 0424 53bb 6dff 163d 5d07 ed3c
00000050: 29db f8bc 06d8 fc3c 4450 c43b 6847 8a3d
00000060: 5433 083d 10bf 403d b6f9 9b3c bdd7 903d
00000070: 451b 873d 62ec 6f3d ca17 633d 8ca1 053d
00000080: ebc4 93bc 73e9 57bb 1915 08bc d9ca 83bd
00000090: e697 81bd 911d 27bd 04e7 133d aee8 dabd
000000a0: 275f f8bc eb34 253d 1944 80bd f7d0 123d
000000b0: 1acf a43d ea5e cabd 05ff 3abd 342b 0bbc
000000c0: 554a b9bc c1c7 903c 286c 403d f839 30bd
000000d0: 24e2 603d 870c a43d 116a 3b3d 264d d53c
000000e0: d80b eabc e887 5d3d ab50 153d 4f79 9d3d
000000f0: c3e1 573c 13e4 5ebc 1275 7f3c 2948 133d
00000100: 3ba8 3abc ee74 0abe 96f8 2c3d 838f 743c
00000110: 6a12 40bd 2bd2 0d3b e660 6cbc f6ed 8abc
00000120: 3578 fa3c fb10 453c 4fe5 ebbd c240 863d
00000130: 1662 483d e4a6 ebbd 5e24 7a3d c60b 003d
00000140: 83c8 75bd cf2e 0b3c 95c1 c7bc f6aa 9cbd
00000150: 0397 03bc 602d 2e3c a9a7 4cbc b6c2 9e3c
00000160: 07d0 55bc 0d4b 74bd 9e73 5a3d 6e7e 22bc
00000170: 8aa5 59bd 514c 233e 3813 623d dc17 823d
00000180: 56cc 703d 7f74 2c3d ed1b 0c3c d5cb 523d
00000190: 2a92 5b3c cacb c2bc 2cf3 103e c9c5 7d3d
000001a0: 0cf4 913c 9f53 3f3d 47f3 73bc 7c4b 68bd
000001b0: f886 0e3d a357 6e3d 8e60 423d 6b11 5e3d
000001c0: a622 a23d 31e5 d8bc 3c60 833d 01d3 093d
000001d0: d9bf 83bc 7da8 883d 0097 013d b8f7 643d
000001e0: 7df2 883d cdce 043d 0ad8 133d 993e 2f3c
000001f0: 3ac2 fabc b62c b5bc 120c 3f3d cb2b 943d
00000200: 3755 c23d dfbd aa3d effe 743d 36e6 fa3d
00000210: 3e3e a83b 3b21 3a3d 9858 703d bcb3 88bd
00000220: 9b3e 943a 5070 2e3d 7e55 a43b 9841 d1bb
00000230: 75f1 073d ba2d e53c fb55 9f3d a99d 103d
00000240: 09d2 b9bc e73e fd3c 6c31 6b3d 5b37 7a3d
00000250: 2ac7 f7bc b788 083d c8f1 5cbd 639c cdbc
00000260: f0d6 96bc ba1c 413d 0bec 35bc bc78 143d
00000270: 8c9f e73d 9939 abbd df95 cfbd 36b7 203d
00000280: b53e 29bd 4190 c1bd c4e1 c7bd 0fac 1fbc
00000290: a6e4 e6bc 7c66 18bd e0d3 2f3d b1e1 d73c
000002a0: b732 b83d 2e60 b03a a518 7b3c 4859 c83c
000002b0: 4194 1e3d d1c5 e13c 2c6e 8e3d e71f bf3c
000002c0: f5e0 853d c24e 77bd 3a7f c4bd fdc2 a4bd
000002d0: 2152 7fbd 5b35 133d 10b7 55bd 7960 9bbd
000002e0: 9504 ab3d b1cf ae3d f056 46bd 8080 b73b
000002f0: 5f1c cc3c fed7 25bc 4b28 c43d 7a19 a03d
00000300: 90a5 fbbd c123 323d 67d6 353e 668c a8bd
00000310: 0cd6 d63b 8afa 27bc d3a8 acbd 9611 46bd
00000320: c291 39bc eb24 ecbd 1e33 b8bc 6f29 ba3c
00000330: 5e1f 1b3c 17b4 643d 7f63 3a3d 4fe5 26bd
00000340: c5e4 c03c e90f 003d 2ba5 53bd ef4f ebbb
00000350: 5310 973d 8d5f 103d 2c23 ab3c 3662 223c
00000360: 119f f93c c673 cc3c 4802 b4bd 2f81 b83d
00000370: d200 a73d a64e 3d3d 4056 77bc 89b2 f1bd
00000380: 92be 65bc 6f65 c4bc 1ede 81bc 493c 983d
00000390: 9485 f3bd 6b27 82bc 3f95 d03c c0f2 49bb
000003a0: 9a1b 7cbd 02a3 b53c 04d9 8c3d e488 9f3b
000003b0: 791b 03bd 2590 ca3b 4b89 23bb 582a 95bd
000003c0: 4cf9 9d3d 2c6c 9e3d ed12 bcbb 402f ab3d
000003d0: 6059 6f3a 81f3 e2bc 882d 94bd dbcc 08be
000003e0: 85e1 27be 5dd5 b0bb a927 b43c f2a2 4e3d
000003f0: 5133 083e 6955 ee3c 4e29 e5bc 58f5 9d3c

head.conv.bias f4 [64]
0.032217182 0.17740092 -0.048584204 0.09676246 -0.15985186 -0.12512039 0.16947477 -0.19629575
-0.15349619 -0.04631466 0.013107504 0.023144992 0.05193332 0.12413956 0.10745014 -0.07894294
0.120798275 0.09851117 -0.062461004 0.123774715 0.0324055 -0.07934441 0.04934991 -0.06723461
-0.14200352 0.041787516 -0.2448014 -0.17587724 0.100280486 -0.060187172 -0.013997876 -0.11368138
0.111670166 -0.021705728 -0.13708784 0.077025585 0.1298143 0.011394988 0.22212966 0.14726102
-0.14144419 0.1016699 -0.23083885 -0.026612971 -0.11482151 0.1913862 -0.31523913 -0.1523952
0.20642512 -0.14219093 -0.048066143 0.063562445 -0.09966677 0.0016792666 0.15326846 -0.12965438
-0.1728318 0.22913682 0.12267371 0.16758135 -0.06822612 0.1253662 -0.1012579 0.100461565
00000000: 2af6 033d 96a8 353e 3b00 47bd 662b c63d
00000010: 35b0 23be 8f1f 00be cb8a 2d3e c101 49be
00000020: 1b2e 1dbe 71b4 3dbd dbc0 563c 919a bd3c
00000030: 08b8 543d e23c fe3d d20e dc3d d6ac a1bd
00000040: 1665 f73d 39c0 c93d 1cd7 7fbd 997d fd3d
00000050: a1bb 043d 527f a2bd 2223 4a3d 4db2 89bd
00000060: 5f69 11be 6329 2b3d 38ad 7abe 2a19 34be
00000070: db5f cd3d d386 76bd 5957 65bc c9d1 e8bd
00000080: 54b3 e43d 36d0 b1bc c160 0cbe 97bf 9d3d
00000090: 0aee 043e 0bb2 3a3c f575 633e 98cb 163e
000000a0: bfd6 10be 4f38 d03d 0561 6cbe 7203 dabc
000000b0: 8a27 ebbd befa 433e 0667 a1be 7d0d 1cbe
000000c0: 1b61 533e 809a 11be 01e1 44bd 072d 823d
000000d0: 171e ccbd d61a dc3a 68f2 1c3e 1ec4 04be
000000e0: d2fa 30be d8a2 6a3e 5b3c fb3d 729a 2b3e
000000f0: 23ba 8bbd ff5f 003e 4d60 cfbd cbbe cd3d

head.norm.weight f4 [64]
1.2265798 0.87506807 1.0260015 0.8974893 0.86087394 0.8577875 1.0613441 0.7949712
0.93550164 1.0383974 0.9711109 0.89845484 1.0466837 1.2102288 0.8398343 1.0775102
1.0539746 1.0203804 0.9690234 0.97518694 1.0589817 1.0627364 1.0362655 0.8614759
1.0402671 0.99589497 1.0269903 1.0160509 0.80297583 1.0057678 0.8451945 1.0580058
0.93888766 1.0309676 1.0294603 1.0400544 1.1129333 0.9089531 1.0857499 1.0017412
0.9822248 1.1171489 1.1112515 0.81116056 0.7391659 0.9191734 1.0139387 0.8421953
0.8625338 1.0086824 0.87233573 1.0154647 0.9888718 0.96297497 0.83092123 1.1287515
0.9429763 1.107718 0.7580003 1.0405501 1.0752851 0.9481276 1.0981364 0.97039324
00000000: 9100 9d3f 7604 603f 0454 833f dcc1 653f
00000010: 3c62 5c3f f697 5b3f 20da 873f 3c83 4b3f
00000020: 097d 6f3f 35ea 843f b99a 783f 2301 663f
00000030: bbf9 853f c7e8 9a3f 61ff 563f dbeb 893f
00000040: a4e8 863f d39b 823f eb11 783f daa5 793f
00000050: b68c 873f bf07 883f 59a4 843f af89 5c3f
00000060: 7927 853f f9f2 7e3f 6b74 833f f50d 823f
00000070: d38f 4d3f 00bd 803f ab5e 583f bc6c 873f
00000080: f15a 703f bff6 833f 5bc5 833f 8120 853f
00000090: 9974 8e3f 26b1 683f daf9 8a3f 0e39 803f
000000a0: 1673 7b3f bcfe 8e3f 7d3d 8e3f 38a8 4f3f
000000b0: fa39 3d3f f34e 6b3f bec8 813f 1c9a 573f
000000c0: 04cf 5c3f 811c 813f 6551 5f3f bffa 813f
000000d0: b426 7d3f 8785 763f 41b7 543f ee7a 903f
000000e0: e566 713f b4c9 8d3f 4f0c 423f bf30 853f
000000f0: f1a2 893f 7eb8 723f bc8f 8c3f b16b 783f

head.norm.bias f4 [64]
0.063740954 -0.223195 -0.20551156 -0.2522843 -0.22476716 -0.29264957 -0.054197412 -0.32310012
-0.3459268 -0.10725879 -0.21402733 -0.3338795 -0.04291692 0.11462205 -0.3591239 -0.081177816
-0.024290785 -0.1948174 -0.1311707 -0.11182763 -0.02412254 -0.32742482 -0.05502993 -0.24780121
-0.12557745 -0.075171106 -0.09820269 -0.097652055 -0.33754992 -0.13887854 -0.27431813 -0.11465886
-0.26608607 -0.15585463 -0.04337582 -0.31776762 -0.14211033 -0.28985572 -0.18118785 -0.27281687
-0.09624686 0.26345876 -0.34077686 -0.29379556 -0.41261345 -0.2927606 -0.3237658 -0.35433203
-0.28748578 0.046087705 -0.53391427 -0.13536604 -0.10978264 -0.2617151 -0.35921383 0.22090349
-0.28124127 0.14609566 -0.40166125 0.041963357 -0.2974895 -0.34418952 -0.2460955 -0.25078616
00000000: 9e8a 823d 3b8d 64be 9f71 52be 682b 81be
00000010: 5d29 66be 2ad6 95be 1bfe 5dbd 616d a5be
00000020: 511d b1be 7faa dbbd fb29 5bbe 41f2 aabe
00000030: a7c9 2fbd f7be ea3d 16df b7be 8e40 a6bd
00000040: 78fd c6bc 367e 47be 9d51 06be e205 e5bd
00000050: a29c c5bc 3aa4 a7be 1067 61bd 9abf 7dbe
00000060: 6097 00be 4ff3 99bd 7e1e c9bd cdfd c7bd
00000070: 58d3 acbe 2d36 0ebe 6d73 8cbe 44d2 eabd
00000080: 6f3c 88be 5b98 1fbe d8aa 31bd 70b2 a2be
00000090: 5f85 11be f867 94be 4f89 39be a7ae 8bbe
000000a0: 131d c5bd 11e4 863e 4e7a aebe 5f6c 96be
000000b0: 1242 d3be b8e4 95be a2c4 a5be 026b b5be
000000c0: 5631 93be 76c6 3c3d 9bae 08bf 659d 0abe
000000d0: b9d5 e0bd 86ff 85be e0ea b7be 8634 623e
000000e0: dbfe 8fbe 1a9a 153e 8ba6 cdbe c5e1 2b3d
000000f0: 8b50 98be 9c39 b0be 7500 7cbe 0b67 80be

head.norm.running_mean f4 [64]
0.31946298 0.11007867 -0.11964534 -0.18667981 -0.990415 -0.20385264 0.16011238 -0.30812523
-0.18949309 0.19432667 -0.05539106 0.12201748 0.7423234 0.22104181 -0.7010554 -0.0885294
1.0466601 0.2686616 0.46676126 0.14724834 0.4456415 -0.15022036 0.29950088 -0.22658575
0.64159423 0.64339346 0.15351388 0.68634135 -0.22888094 0.0077061043 -0.14813477 -0.06497105
0.1120845 0.6003255 0.57023597 0.073729485 0.08918545 0.39590198 0.399685 0.22440721
-0.112071216 0.27707574 -0.3368293 -0.24729212 -0.41678652 0.1982654 -0.35988724 -0.70053244
-0.42928046 0.5311255 -0.16440775 0.22268425 -0.20374286 0.12537889 -0.1687802 0.0045594815
-0.20537339 0.4965687 -0.06133488 0.96085995 -0.09524837 -0.02913539 -0.0956137 0.11895619
00000000: a790 a33e ed70 e13d 9e08 f5bd fe28 3fbe
00000010: d68b 7dbf bfbe 50be 80f4 233e 97c2 9dbe
00000020: 7a0a 42be 92fd 463e bce1 62bd 4de4 f93d
00000030: e808 3e3f c958 623e 5e78 33bf e74e b5bd
00000040: f5f8 853f 038e 893e 55fb ee3e 45c8 163e
00000050: 1f2b e43e 5ed3 19be 2e58 993e 1806 68be
00000060: 853f 243f 6fb5 243f be32 1d3e 11b4 2f3f
00000070: c45f 6abe 7d83 fc3b a4b0 17be 8b0f 85bd
00000080: 8f8c e53d efae 193f fcfa 113f 7cff 963d
00000090: dca6 b63d aab3 ca3e 83a3 cc3e 01cb 653e
000000a0: 9885 e5bd dfdc 8d3e e474 acbe 253a 7dbe
000000b0: 0b65 d5be 1606 4b3e 2443 b8be 1856 33bf
000000c0: a6ca dbbe d7f7 073f 815a 28be 5707 643e
000000d0: f8a1 50be 5363 003e b7d4 2cbe b467 953b
000000e0: 674d 52be 413e fe3e 483a 7bbd ebfa 753f
000000f0: 9411 c3bd 57ad eebc 1ed1 c3bd 4e9f f33d

head.norm.running_var f4 [64]
0.012850043 0.005450776 0.0069661355 0.06699825 0.2103679 0.0025496683 0.0020539032 0.008040328
0.0011860635 0.014005594 0.010076706 0.0026928834 0.17296965 0.0024325794 0.25735158 0.012576094
0.23875748 0.015468744 0.15704045 0.0075486377 0.02004804 0.010289585 0.0116356695 0.010629061
0.19649595 0.12012053 0.015952403 0.23231803 0.06664821 0.0031349675 0.0110906 0.0131033175
0.010978847 0.12663957 0.14172259 0.00285665 0.0020040139 0.018185755 0.008464335 0.0017291061
0.015740542 0.00623003 0.0026079132 0.0071151047 0.01713646 0.008505253 0.0032946845 0.13736434
0.20046827 0.10532605 0.004769725 0.07296893 0.022357158 0.009717345 0.036890015 0.0039511304
0.0072720847 0.012209767 0.005263634 0.13054158 0.003222167 0.006985712 0.004441172 0.006997198
00000000: fd88 523c 6c9c b23b 2e44 e43b 6136 893d
00000010: af6a 573e 5618 273b c79a 063b 94bb 033c
00000020: b075 9b3a b877 653c c518 253c 167b 303b
00000030: f51e 313e e96b 1f3b 96c3 833e f60b 4e3c
00000040: d77c 743e 9d70 7d3c 36cf 203e 905a f73b
00000050: ca3b a43c a695 283c 89a3 3e3c 8325 2e3c
00000060: 3c36 493e c101 f63d 9dae 823c c7e4 6d3e
00000070: db7e 883d 0774 4d3b 59b5 353c 4caf 563c
00000080: 9fe0 333c cead 013e ba1f 113e a236 3b3b
00000090: c655 033b 4bfa 943c ffad 0a3c 2ca3 e23a
000000a0: 4ff2 803c 4825 cc3b 86e9 2a3b d325 e93b
000000b0: c361 8c3c 9e59 0b3c a2eb 573b 3da9 0c3e
000000c0: 8e47 4d3e 2fb5 d73d 5a4b 9c3b bc70 953d
000000d0: 5c26 b73c 8035 1f3c fc19 173d 7c78 813b
000000e0: ab4a ee3b 790b 483c 907a ac3b b1ac 053e
000000f0: fe2a 533b 66e8 e43b 4087 913b c048 e53b

body.block1.conv.weight f4 [64, 64, 3, 3]
0.16435361 0.11084744 0.038866673 0.06126089 -0.022818655 -0.0516911 -0.06456819 0.03640445
0.052307725 -0.044847872 0.021615585 -0.016038515 -0.07483337 0.07133952 0.036624227 -0.10056212
-0.003533387 0.032677054 -0.079402156 -0.096406356 -0.13334593 0.07659526 -0.10496876 -0.012682712
0.027661283 -0.07298399 0.035368416 0.025575666 0.016901143 0.019774836 0.035547383 0.041183718
0.046848007 0.024545671 -0.0015273878 0.024847811 0.0077765645 0.035584975 -0.008818124 0.029010916
0.03417216 0.024730232 0.0018726283 0.020756155 0.011619523 0.09100286 -0.058563083 -0.042014487
0.031341147 -0.0053305984 -0.08553073 -0.010694857 -0.041848533 0.008496987 0.016822163 -0.028987136
0.044588298 -0.088212304 -0.101779565 0.048972804 -0.03217562 0.022499193 -0.021707864 0.025788065
-0.053042933 -0.010086757 -0.036975913 -0.006778032 -0.010289614 -0.027200606 0.039630212 0.054919146
-0.023017932 -0.05609038 -0.06860334 -0.01234124 -0.00065882655 0.042894654 0.026637811 -0.04100511
0.059871502 -0.015375387 0.044385474 0.007781117 -0.028627198 -0.012984226 -0.11135009 0.008939944
-0.043261 -0.09416262 -0.069342636 -0.002088755 -0.039896395 -0.10308386 0.030575357 0.037772916
-0.03877575 -0.040975697 0.0055177556 -0.10274667 -0.11379789 -0.08451679 -0.08626726 -0.07642823
-0.06510431 0.08193956 0.041146845 0.016104989 -0.056360587 -0.07773522 -0.073915035 -0.016026143
0.02489482 0.001251411 0.043012686 0.039790787 -0.014295672 0.023610769 -0.0675939 0.028656105
-0.046428923 -0.057357036 0.1334676 0.00332653 -0.019750956 0.008001407 -0.014163178 0.037355226
0.015916439 0.019019965 0.0068428293 -0.008177277 -0.0074230162 -0.010719244 0.03213156 -0.0037618997
-0.00088305416 0.03744531 -0.040082555 -0.06249713 -0.14297137 0.032842673 0.014227585 -0.050892007
0.03928594 0.035109174 0.053641245 0.044582676 0.07025478 0.042937655 0.10939998 0.09985311
0.033868913 -0.09327994 -0.079931505 -0.15047014 0.020999132 0.008268436 -0.011264754 0.044585645
0.02714183 0.07130893 -0.06805423 -0.045457315 -0.018571233 -0.018840868 -0.013994268 0.034384273
0.032476176 0.007716013 0.051333 0.05465232 0.06080469 -0.008144921 -0.1205273 -0.015067297
0.0069045313 0.094210394 0.15222661 0.029477146 -0.024348997 0.0067175967 -0.08197928 -0.06545693
-0.0036008554 -0.033174634 -0.029743219 -0.09630458 -0.10737935 -0.017411275 -0.022543706 0.043368652
-0.0069751716 0.022140108 0.00032078943 -0.08493384 -0.027828103 -0.01063773 0.06305136 -0.05662851
-0.016398648 0.017327515 -0.068428546 -0.0137440665 0.112010464 0.030887948 0.040702973 0.0026169044
0.025587372 -0.0821287 0.06370268 0.09230568 -0.0015254512 0.056509793 0.18192756 0.10230905
0.02784725 0.076122865 0.013834765 0.015189973 0.0549626 0.0005709288 0.047664452 0.07591313
0.023815311 -0.03820435 -0.0301037 -0.088092 0.056437563 -0.00568244 0.046495378 0.013313065
-0.07576493 -0.01801371 0.06989921 0.09714412 0.012423241 0.13745393 0.0631363 0.027738124
0.13392396 0.017788853 0.008934874 0.011245718 -0.013739346 -0.029342402 0.04920072 0.014125828
-0.0024260983 0.03185344 0.026608473 0.07334545 0.041297898 -0.014867082 0.023124218 0.025196543
00000000: 504c 283e fc03 e33d a932 1f3d b3ec 7a3d
00000010: 30ee babc 0cba 53bd 543c 84bd d51c 153d
00000020: a040 563d 67b2 37bd 2b13 b13c 3463 83bc
00000030: 3d42 99bd 741a 923d 4903 163d 83f3 cdbd
00000040: 6690 67bb 60d8 053d 999d a2bd b270 c5bd
00000050: d68b 08be fadd 9c3d dcf9 d6bd 26cb 4fbc
00000060: ea99 e23c a178 95bd 79de 103d 0f84 d13c
00000070: 4474 8a3c d6fe a13c 229a 113d 42b0 283d
00000080: b2e3 3f3d 0114 c93c a132 c8ba a38d cb3c
00000090: 8dd2 fe3b 8dc1 113d e579 10bc 4da8 ed3c
000000a0: 1bf8 0b3d 0e97 ca3c fb72 f53a d008 aa3c
000000b0: d05f 3e3c b55f ba3d d8df 6fbd 6217 2cbd
000000c0: 935f 003d 4dac aebb bc2a afbd 7b39 2fbc
000000d0: 5e69 2bbd f236 0b3c a2ce 893c 6e76 edbc
000000e0: 38a2 363d a7a8 b4bd ce71 d0bd b597 483d
000000f0: 95ca 03bd 3a50 b83c b1d4 b1bc 7e41 d33c
00000100: 8c43 59bd ed42 25bc 0e74 17bd 411a debb
00000110: c595 28bc ced3 debc 4a53 223d e6f2 603d
00000120: 1a90 bcbc 07bf 65bd e87f 8cbd ea32 4abc
00000130: 1ab5 2cba 4eb2 2f3d 8a37 da3c f9f4 27bd
00000140: d23b 753d 0ce9 7bbc 8bcd 353d bef8 fe3b
00000150: 9683 eabc cbbb 54bc 840b e4bd d878 123c
00000160: 7232 31bd 55d8 c0bd 8303 8ebd 7ee3 08bb
00000170: 676a 23bd a11d d3bd 2c79 fa3c c6b7 1a3d
00000180: 52d3 1ebd 22d6 27bd 4ace b43b d96c d2bd
00000190: de0e e9bd 2417 adbd e4ac b0bd 6786 9cbd
000001a0: 6955 85bd eecf a73d 9889 283d 9cee 833c
000001b0: 5cda 66bd a533 9fbd c460 97bd 4249 83bc
000001c0: 39f0 cb3c 6306 a43a 122e 303d aafb 223d
000001d0: 6538 6abc 5f6b c13c ac6e 8abd 35c0 ea3c
000001e0: 412c 3ebd 36ef 6abd bbab 083e ea01 5a3b
000001f0: c2cc a1bc 5518 033c ad0c 68bc cb01 193d
00000200: 3163 823c c2cf 9b3c d039 e03b fcf9 05bc
00000210: c63c f3bb c59f 2fbc 629c 033d 348a 76bb
00000220: c37c 67ba 4160 193d 9b2d 24bd fefc 7fbd
00000230: 1667 12be 0a86 063d d11a 693c 2374 50bd
00000240: 4bea 203d a3ce 0f3d ecb6 5b3d 539c 363d
00000250: bde1 8f3d 65df 2f3d 190d e03d ca7f cc3d
00000260: 21ba 0a3d 8e09 bfbd 21b3 a3bd d814 1abe
00000270: 5f06 ac3c 5678 073c ce8f 38bc 709f 363d
00000280: 8b58 de3c 6b0a 923d 0460 8bbd 7331 3abd
00000290: b322 98bc 2a58 9abc 3748 65bc 86d6 0c3d
000002a0: bd05 053d 9cd6 fc3b 8d42 523d 1cdb 5f3d
000002b0: 570e 793d 4672 05bc 04d7 f6bd d3dc 76bc
000002c0: 683f e23b 61f1 c03d 4be1 1b3e 0e7a f13c
000002d0: 8c77 c7bc 491f dc3b c1e4 a7bd 480e 86bd
000002e0: 54fc 6bbb 20e2 07bd 0da8 f3bc 563b c5bd
000002f0: b4e9 dbbd 17a2 8ebc 94ad b8bc 54a3 313d
00000300: fb8f e4bb 2c5f b53c a12f a839 cbf1 adbd
00000310: c3f7 e3bc e049 2ebc 1221 813d 4cf3 67bd
00000320: 7556 86bc 6ff2 8d3c 4424 8cbd cb2e 61bc
00000330: be65 e53d b908 fd3c 29b8 263d 5f80 2b3b
00000340: 9c9c d13c 1833 a8bd 8d76 823d c30a bd3d
00000350: a6f1 c7ba d076 673d 384b 3a3e 6887 d13d
00000360: eb1f e43c 4ee6 9b3d 36ab 623c 5ddf 783c
00000370: 7720 613d 62aa 153a cd3b 433d 5878 9b3d
00000380: 5418 c33c 2a7c 1cbd 099c f6bc 9469 b4bd
00000390: 132b 673d c333 babb f071 3e3d 0b1f 5a3c
000003a0: a52a 9bbd 7d91 93bc 5127 8f3d 7ff3 c63d
000003b0: d98a 4b3c b9c0 0c3e 9b4d 813d 103b e33c
000003c0: 5d23 093e eeb9 913c 9463 123c f63f 383c
000003d0: fe1a 61bc 7a5f f0bc b286 493d 0470 673c
000003e0: 2dff 1ebb c178 023d 03fa d93c 2436 963d
000003f0: fc27 293d 1095 73bc 006f bd3c fb68 ce3c

body.block1.conv.bias f4 [64]
-0.015471254 0.025851233 0.041407153 -0.012867454 0.011536478 -0.0076087373 -0.015377257 0.009793651
-0.02769346 -0.019052338 -0.029478353 -0.0063913385 -0.0242452 0.024475155 -0.036766414 0.008477886
0.026579967 0.021161998 0.025617756 -0.031184714 -0.01739036 0.011334254 -0.029969182 -0.044203576
-0.036903404 0.020703034 0.01631349 0.020509059 0.035583112 -0.031515233 -0.04772622 0.0416189
-0.019773303 0.030962685 -0.0059333155 0.01543037 0.03301996 0.0011836621 -0.013501109 0.014729901
-0.02435158 0.0038113375 -0.018004132 0.02489671 0.0138603905 0.021493526 -0.0010791912 -0.012141808
-0.0030305784 -0.009901312 0.008746081 -0.0016000344 0.028751925 0.03110214 0.043546934 0.043274153
0.04032942 -0.004534696 -0.026906865 0.014385255 -0.022418188 0.038125932 -0.008133752 -0.015216116
00000000: 247b 7dbc f7c5 d33c 8c9a 293d 04d2 52bc
00000010: 7f03 3d3c b752 f9bb e4f0 7bbc 8d75 203c
00000020: 65dd e2bc a613 9cbc 967c f1bc 6f6e d1bb
00000030: df9d c6bc 1f80 c83c 6198 16bd d5e6 0a3c
00000040: 3bbe d93c ed5b ad3c 54dc d13c 1677 ffbc
00000050: 3a76 8ebc 4fb3 393c ee81 f5bc cf0e 35bd
00000060: 0628 17bd 6999 a93c dea3 853c 9d02 a83c
00000070: 99bf 113d 1e16 01bd 927c 43bd 9478 2a3d
00000080: 9ffb a1bc 75a5 fd3c 426c c2bb aacf 7c3c
00000090: f03f 073d 1c25 9b3a c133 5dbc af55 713c
000000a0: f77c c7bc a2c7 793b 677d 93bc 2ff4 cb3c
000000b0: b116 633c 3113 b03c a673 8dba 6fee 46bc
000000c0: ab9c 46bb 1d39 22bc b94b 0f3c 3fb8 d1ba
000000d0: 2889 eb3c eac9 fe3c 455e 323d 3d40 313d
000000e0: 7630 253d ca97 94bb c96b dcbc 22b0 6b3c
000000f0: 59a6 b7bc f029 1c3d 6e43 05bc 044d 79bc

body.block1.norm.weight f4 [64]
1.046699 0.8878219 1.0975677 0.92825294 0.9886419 0.9495218 0.95647395 1.0436728
0.8986806 1.0170944 0.9567173 0.93424344 1.0267727 1.0360918 0.98478305 1.0950087
0.8947551 0.7620543 0.93938494 0.92092884 0.9038606 1.0421917 1.0463347 0.89447856
0.9647057 0.8980959 0.918717 1.0174837 1.0193182 0.9917733 1.057405 0.9728455
0.98602974 0.91114295 0.9606077 0.86285454 0.95260626 1.0139223 0.91843665 0.94435245
0.9925831 1.0207119 1.0010003 1.0964495 0.9265507 1.0287076 0.96317023 0.95919603
0.9604428 0.97294265 0.9612767 1.0056156 1.0488619 0.97323674 0.94760424 1.0237257
0.9610911 0.99608076 1.0699704 0.96711797 1.155359 1.0530409 1.0654085 0.9511215
00000000: 3cfa 853f 4c48 633f 197d 8c3f fca1 6d3f
00000010: a317 7d3f dc13 733f 7adb 743f 1297 853f
00000020: ef0f 663f 2630 823f 6deb 743f 942a 6f3f
00000030: 4a6d 833f a89e 843f be1a 7c3f 3f29 8c3f
00000040: ac0e 653f fe15 433f 887b 703f fec1 6b3f
00000050: 6963 673f 8a66 853f 4cee 853f 8cfc 643f
00000060: f4f6 763f 9de9 653f 0a31 6b3f e83c 823f
00000070: 0579 823f dbe4 7d3f 0c59 873f 670c 793f
00000080: 726c 7c3f aa40 693f 63ea 753f 09e4 5c3f
00000090: 01de 733f 35c8 813f aa1e 6b3f 15c1 713f
000000a0: ed19 7e3f b0a6 823f c720 803f 7558 8c3f
000000b0: 6d32 6d3f b1ac 833f 5392 763f df8d 753f
000000c0: 94df 753f c512 793f 3b16 763f 03b8 803f
000000d0: 1b41 863f 0b26 793f 3196 723f 7209 833f
000000e0: 110a 763f 26ff 7e3f caf4 883f 0b95 773f
000000f0: cee2 933f 0bca 863f 4e5f 883f b37c 733f

body.block1.norm.bias f4 [64]
-0.31149393 -0.28851914 -0.06509786 -0.26827335 -0.32499278 -0.2157617 -0.16629638 -0.12587996
-0.5060506 -0.52085936 -0.23634231 -0.26798725 -0.34605837 -0.10088006 -0.1535149 -0.51550436
-0.41653302 -0.55795914 -0.27145037 -0.27221295 -0.21007681 -0.2715247 -0.4497052 -0.58832574
-0.3433352 -0.18243569 -0.2020683 -0.23582284 -0.43746492 -0.36597028 -0.020812754 -0.5547555
-0.27070612 -0.19877546 -0.29241183 -0.33031046 -0.11926811 -0.3337412 -0.31871215 -0.53099066
-0.1774427 -0.19928914 -0.16798963 -0.38858354 -0.12269761 -0.36684874 -0.10430073 -0.18411353
-0.2776715 -0.23825862 -0.16546857 -0.4817236 -0.42313644 -0.3750742 -0.2021025 -0.13318841
-0.33204195 -0.10826668 -0.2727879 -0.48090103 -0.5161957 -0.32656297 -0.17173676 -0.2378671
00000000: 227c 9fbe c8b8 93be 0752 85bd 205b 89be
00000010: 7465 a6be a3f0 5cbe 9949 2abe ade6 00be
00000020: 888c 01bf 0a57 05bf b803 72be a035 89be
00000030: 902e b1be 349a cebd 0333 1dbe 18f8 03bf
00000040: d143 d5be 69d6 0ebf 8bfb 8abe 7f5f 8bbe
00000050: 601e 57be 4905 8bbe c33f e6be 849c 16bf
00000060: a2c9 afbe 6cd0 3abe feea 4ebe 8b7b 71be
00000070: 67fb dfbe 7560 bbbe 827f aabc 7504 0ebf
00000080: fe99 8abe cb8b 4bbe 01b7 95be 741e a9be
00000090: d742 f4bd 20e0 aabe 3d2e a3be 01ef 07bf
000000a0: 8ab3 35be 7412 4cbe 7905 2cbe 6cf4 c6be
000000b0: e248 fbbd 99d3 bbbe 9f9b d5bd 4288 3cbe
000000c0: f52a 8ebe 11fa 73be 9870 29be 7aa4 f6be
000000d0: 57a5 d8be ba09 c0be f5f3 4ebe 8b62 08be
000000e0: 6701 aabe ecba ddbd dbaa 8bbe a938 f6be
000000f0: 6725 04bf 4333 a7be c3db 2fbe 6f93 73be

body.block1.norm.running_mean f4 [64]
0.27461535 0.3269049 -3.856369 1.3626509 -1.2057104 2.9025538 2.1968584 2.6563854
3.3681648 -0.8047134 -1.1231483 0.30787885 0.3038286 -0.87689185 -0.13468839 -0.51479095
-3.253067 -1.9382224 -0.9570944 1.270419 3.3029788 -0.46987164 -0.349704 -0.7076061
-1.3990216 -2.9735208 1.5884767 1.1912112 -1.1681116 0.6229698 -1.6948481 -0.6188064
0.59851927 -2.060897 0.10255827 -3.0057757 2.5183654 -1.046209 -0.7146881 0.028666938
-2.892482 -1.752464 -2.6227624 0.09429129 1.7287841 -1.517468 -2.3008873 -2.4438343
-1.6939081 -0.04208245 3.2333403 -0.4945799 -1.0076731 1.7274741 -0.3494204 -0.47550666
0.38864648 -0.8770996 -2.3198974 -2.2278414 -0.5252538 -0.43626297 -0.7317669 -0.287312
00000000: 629a 8c3e 1460 a73e c0ce 76c0 586b ae3f
00000010: b854 9abf 71c3 3940 5499 0c40 3802 2a40
00000020: 0390 5740 b301 4ebf 53c3 8fbf 4ca2 9d3e
00000030: 6c8f 9b3e fc7b 60bf c1eb 09be 57c9 03bf
00000040: 4032 50c0 ac17 f8bf 2304 75bf 179d a23f
00000050: 0164 5340 0493 f0be 670c b3be ac25 35bf
00000060: 2413 b3bf 2a4e 3ec0 3453 cb3f 9c79 983f
00000070: ae84 95bf f37a 1f3f c8f0 d8bf 196a 1ebf
00000080: 8f38 193f bde5 03c0 120a d23d a15e 40c0
00000090: e62c 2140 2dea 85bf cdf5 36bf edd6 ea3c
000000a0: 6d1e 39c0 be50 e0bf 57db 27c0 cb1b c13d
000000b0: cc48 dd3f 643c c2bf bd41 13c0 c867 1cc0
000000c0: fbd1 d8bf a65e 2cbd 0cef 4e40 9439 fdbe
000000d0: 6ffb 80bf df1d dd3f 3be7 b2be 9c75 f3be
000000e0: acfc c63e 9989 60bf 3379 14c0 f494 0ec0
000000f0: 0877 06bf dc5d dfbe 1355 3bbf 8f1a 93be

body.block1.norm.running_var f4 [64]
1.3868781 7.6709075 1.7276666 2.1428285 1.5132903 3.3047333 2.7485378 4.1089582
1.6491172 0.84131724 0.89036846 0.93085045 1.3466349 9.297577 2.3910105 0.6531726
1.4118246 1.2329851 3.9799502 1.804138 2.2330084 2.783053 0.5507925 0.8520822
1.2306659 1.3476964 3.8671834 3.7483957 1.1544932 1.0765506 4.1120367 1.4346422
1.4205402 2.3162093 0.98665285 1.3500206 4.1427827 1.1722331 1.2922854 0.6932467
1.5072925 3.2746673 3.1112306 0.52291733 6.3828754 1.8682185 3.2609622 5.6444097
1.6433862 1.1153846 1.703198 1.4083269 0.49988317 1.8817855 1.7326858 10.028565
1.3233273 2.7303762 2.1639516 1.2414949 0.7510661 0.7986107 1.0504693 1.5664854
00000000: 3985 b13f 1378 f540 2e24 dd3f 1a24 0940
00000010: 7fb3 c13f c080 5340 0be8 2f40 967c 8340
00000020: 4616 d33f 9160 573f 30ef 633f 374c 6e3f
00000030: 885e ac3f e0c2 1441 5106 1940 5236 273f
00000040: abb6 b43f 75d2 9d3f 81b7 7e40 feed e63f
00000050: 9ce9 0e40 8a1d 3240 bd00 0d3f 0f22 5a3f
00000060: 7686 9d3f 5181 ac3f ef7f 7740 b7e5 6f40
00000070: 6fc6 933f 69cc 893f ce95 8340 5ba2 b73f
00000080: 43d4 b53f c63c 1440 4895 7c3f 7acd ac3f
00000090: ad91 8440 bc0b 963f 9c69 a53f 9e78 313f
000000a0: f6ee c03f 2694 5140 671e 4740 e9dd 053f
000000b0: 8440 cc40 c921 ef3f 9bb3 5040 019f b440
000000c0: 7b5a d23f ecc4 8e3f 6402 da3f 0e44 b43f
000000d0: b0f0 ff3e 59de f03f a6c8 dd3f 0175 2041
000000e0: ca62 a93f 7cbe 2e40 2f7e 0a40 4ee9 9e3f
000000f0: de45 403f c071 4c3f c775 863f 9882 c83f

body.block2.conv.weight f4 [64, 64, 3, 3]
-0.010093591 -0.044683184 0.021542873 -0.0068666986 -0.026821641 0.030150115 0.07484403 -8.6142514e-05
-0.01589867 0.048133947 -0.041658994 0.01079877 -0.007671133 -0.014472046 0.04933345 0.0018332412
0.01839916 -0.027347555 -0.0081423735 -0.07044578 -0.033858344 -0.017964344 -0.019628694 0.008397074
-0.031713568 0.014339766 0.01930795 0.038541008 -0.0154928 -0.06042106 -0.0049818642 0.07929131
-0.08387253 -0.02681866 -0.08086165 -0.091740765 0.0046821153 0.018271524 0.018887227 0.041643236
-0.028308325 -0.1616869 0.011379344 -0.062426064 0.039400164 -0.016035467 -0.033030573 0.018334357
0.02161282 -0.068982184 0.034816284 0.028219836 -0.082821354 0.02901889 0.0038983047 0.021134656
0.01051369 -0.010816489 0.055717025 -0.048967183 -0.007170627 -0.12977621 -0.106085084 0.0125078475
-0.010657476 -0.022625498 -0.0828669 -0.085015774 -0.0578384 -0.07596322 -0.056611788 0.03970434
-0.047262695 -0.075825594 -0.06215183 0.040326096 0.087484695 0.064433314 -0.02594106 0.0018793067
0.029912418 0.03142343 0.059702735 0.112317726 0.06593216 -0.16514656 -0.019918695 -0.13983646
0.022046017 0.047006093 0.032672662 0.07676268 0.044813197 0.012650214 0.08969914 0.056412715
-0.048658267 0.044848207 -0.07998677 0.006883265 -0.05005639 -0.07826625 -0.087539084 -0.071207255
-0.0024525719 0.011851313 0.059066955 0.064783394 0.08327246 -0.002317297 -0.062241767 -0.054384932
0.0065567736 -0.012617693 -0.07699659 -0.04691481 -0.05703036 0.0099600535 -0.029780395 -0.030337054
-0.008613087 0.03210903 0.012797448 -0.023237325 0.01264584 -0.030892259 -0.06315412 0.03027624
-0.12329006 -0.08723082 0.006912029 -0.020651875 -0.010520741 0.08294582 0.0154698985 0.092890434
-0.025363168 -0.0007756383 0.052489173 0.060377542 0.056189667 -0.095153086 -0.039119177 0.02609795
-0.08312354 0.015202518 0.03164062 -0.0027758763 -0.058502402 -0.06539675 -0.04027541 -0.020059142
-0.02247998 -0.06155019 -0.016268216 0.0063875266 -0.049423866 0.05958587 0.033651937 0.044479504
0.061809637 -0.027069995 0.017621169 0.017355202 -0.018539324 0.035260715 0.02976104 -0.04810993
0.01142496 -0.026919667 -0.018016966 0.0151650645 0.06966435 0.05020242 0.019055504 -0.042994566
0.011769797 -0.03100017 0.055174477 0.03297287 -0.03884946 -0.14064324 -0.052690905 -0.026955752
-0.09046606 -0.01696615 -0.035065524 -0.022244414 -0.018607328 -0.09996835 -0.034172263 0.049185514
0.04567707 0.09219815 -0.0844735 0.06433204 -0.07653009 -0.16831096 0.088363215 0.036778256
-0.16374625 0.0034529923 0.055953998 -0.059608825 -0.14698762 -0.18257394 -0.10920465 -0.10051443
-0.035310652 -0.00419214 0.004286007 0.038946502 -0.12347426 -0.015589441 0.0071361423 -0.0647924
-0.023088835 0.039478444 -0.10620052 -0.03736798 0.002436494 -0.053968847 -0.07132547 -0.055898372
-0.039965995 0.05589552 0.02092473 -0.12372201 0.10440075 0.011944569 -0.031093301 0.100840464
0.09802633 -0.046373844 0.017687332 -0.009004454 -0.0072852634 0.0097266855 0.042528544 -0.025455382
0.021299616 0.026398718 0.0015202768 0.021628808 -0.015419295 -0.04298835 -0.06506813 -0.070271075
-0.0058765146 -0.045068 -0.06491373 -0.033604555 -0.02930908 -0.088699535 0.044414613 0.0025338898
00000000: 975f 25bc b705 37bd ae7a b03c 0b02 e1bb
00000010: 0fb9 dbbc 60fd f63c d447 993d 69a7 b4b8
00000020: ed3d 82bc 1a28 453d 9fa2 2abd 53ed 303c
00000030: 215e fbbb 291c 6dbc df11 4a3d 5e49 f03a
00000040: d6b9 963c fb07 e0bc 9767 05bc e145 90bd
00000050: 0caf 0abd f629 93bc 5bcc a0bc e293 093c
00000060: 16e6 01bd 57f1 6a3c b52b 9e3c 2ddd 1d3d
00000070: 83d5 7dbc 137c 77bd e83e a3bb 7b63 a23d
00000080: 5cc5 abbd ceb2 dbbc cb9a a5bd 95e2 bbbd
00000090: 6e6c 993b 2aae 953c 63b9 9a3c 1992 2a3d
000000a0: dce6 e7bc 4091 25be 6e70 3a3c 79b2 7fbd
000000b0: 1162 213d d05c 83bc 114b 07bd ef31 963c
000000c0: 5e0d b13c 8846 8dbd 859b 0e3d 492d e73c
000000d0: 3e9e a9bd 06b9 ed3c b37a 7f3b 9622 ad3c
000000e0: 9d41 2c3c a537 31bc 8937 643d d091 48bd
000000f0: 94f7 eabb 0ee4 04be 2343 d9bd b7ed 4c3c
00000100: b29c 2ebc 1c59 b9bc 1fb6 a9bd c01c aebd
00000110: f5e7 6cbd 9b92 9bbd c3e1 67bd 05a1 223d
00000120: 8796 41bd 734a 9bbd eb92 7ebd fa2c 253d
00000130: 2d2b b33d 9df5 833d 5982 d4bc 1253 f63a
00000140: e30a f53c dbb5 003d db8a 743d d606 e63d
00000150: 7107 873d 2e1c 29be 882c a3bc 4a31 0fbe
00000160: d999 b43c 7689 403d c5d3 053d c135 9d3d
00000170: 0b8e 373d d842 4f3c 2fb4 b73d 0511 673d
00000180: e44d 47bd c1b2 373d 1bd0 a3bd 038d e13b
00000190: ee07 4dbd 0e4a a0bd b147 b3bd 1cd5 91bd
000001a0: 54bb 20bb 022c 423c 31f0 713d 28ad 843d
000001b0: c08a aa3d cbdd 17bb 39f1 7ebd bcc2 5ebd
000001c0: 34da d63b 71ba 4ebc 63b0 9dbd be29 40bd
000001d0: ab98 69bd 7e2f 233c 04f6 f3bc 6a85 f8bc
000001e0: e81d 0dbc c284 033d 63ac 513c 345c bebc
000001f0: 7f30 4f3c c311 fdbc f356 81bd e105 f83c
00000200: 807f fcbd 12a6 b2bd 4d7e e23b 1f2e a9bc
00000210: 305f 2cbc 80df a93d 7575 7d3c 573d be3d
00000220: 6bc6 cfbc 3554 4bba e3fe 563d 714e 773d
00000230: 2327 663d 9fdf c2bd 6e3b 20bd 5ecb d53c
00000240: ad3c aabd fb13 793c 9899 013d 7aeb 35bb
00000250: 37a0 6fbd bbee 85bd d4f7 24bd 1253 a4bc
00000260: ef27 b8bc 0d1c 7cbd ec44 85bc 754e d13b
00000270: ae70 4abd 5010 743d 9dd6 093d 2430 363d
00000280: 1a2c 7d3d e5c1 ddbc 455a 903c 7f2c 8e3c
00000290: c8df 97bc 8a6d 103d 6dcd f33c eb0e 45bd
000002a0: c12f 3b3c a286 dcbc 5198 93bc e476 783c
000002b0: 2fac 8e3d 0ea1 4d3d 4a1a 9c3c 121b 30bd
000002c0: 1bd6 403c 12f4 fdbc a2fe 613d 8f0e 073d
000002d0: 9d20 1fbd c804 10be 6bd2 57bd 4fd2 dcbc
000002e0: 4546 b9bd 98fc 8abc dea0 0fbd eb39 b6bc
000002f0: 656e 98bc 35bc ccbd 37f8 0bbd c076 493d
00000300: e117 3b3d 62d2 bc3d 7100 adbd 84c0 833d
00000310: cfbb 9cbd b559 2cbe c6f7 b43d cca4 163d
00000320: 19ad 27be 994b 623b 0530 653d 6228 74bd
00000330: ec83 16be aaf4 3abe b0a6 dfbd 82da cdbd
00000340: e7a1 10bd 385e 89bb a271 8c3b 5e86 1f3d
00000350: 13e0 fcbd db6a 7fbc 4dd6 e93b e1b1 84bd
00000360: cc24 bdbc 26b4 213d a97f d9bd 2b0f 19bd
00000370: 96ad 1f3b 700e 5dbd 1713 92bd b1f5 64bd
00000380: 62b3 23bd b3f2 643d 576a ab3c f761 fdbd
00000390: 0fd0 d53d 27b3 433c 61b7 febc 7285 ce3d
000003a0: 07c2 c83d 80f2 3dbd 06e5 903c 6b87 13bc
000003b0: 38b9 eebb ad5c 1f3c 6932 2e3d ce87 d0bc
000003c0: 887c ae3c 2042 d83c 0644 c73a e62e b13c
000003d0: 36a1 7cbc 8d14 30bd 7142 85bd 48ea 8fbd
000003e0: c78f c0bb 3999 38bd 7df1 84bd eea4 09bd
000003f0: 9919 f0bc 1aa8 b5bd 19ec 353d 9e0f 263b
