TrainedModels/starry_night/scale_factor=0.750000,alpha=10/4/netD.pth (torch, 468997 bytes, 27 tensors)

head.conv.weight f4 [64, 3, 3, 3]
00000000: 1d3d b7bd 311f 97bc f866 ca3c 2726 fc3b
00000010: 3b19 f23c f08c b63c b31f 543d 78cb 243c
00000020: 4181 833a 7690 1ebd a7a0 49bd b2d0 95b9
00000030: 6f1d 1c3b 4887 18bd 76aa 8abc 8b5a 083d
00000040: bf63 30bc ae4c 63bd 7eda 813d 3b95 793d
00000050: 40c9 8d3b d9e1 24bd e7e8 32bb a948 15bd
00000060: e689 88bb 2a3c 8cbc 43f7 f93c 61c8 073d
00000070: 7c8f ee3c 685c 57bd 4a0e 8b3d ca60 5639
00000080: fb2c e8bc f464 233c 7d0c 103c a3a2 1fbc
00000090: 6be3 743b f980 dc3c fce2 de3b 876b ff3b
000000a0: ec71 113b b577 b0bc d61d 84ba 5bab 28bc
000000b0: 6457 10bd 8d74 19bc fad6 683d 443d 843d
000000c0: 885e d63b 3a65 873c 3f1c 1dbc dbcf 913a
000000d0: 0b7a a9bc fbff 84bd 02e7 483d 21f7 0d3d
000000e0: e9ab eb3b 4686 663c 22ad 853c db3c 793d
000000f0: 8751 c73c 2c40 fcbc 68bd 3f3b 403e c8bc
00000100: ee71 06bc e68b 30bd 4ac3 8ebc 11cd 6ebc
00000110: 7a73 8e3d 5c79 4f3c 6a67 cd3c 91f9 e03c
00000120: 46b8 7cbc 5955 2e3d fc36 beba c0a5 283d
00000130: 542f c73b e403 9d3c a315 893c a0c4 cd3b
00000140: 90e4 983d 2234 c5bc a160 093c d33b 803d
00000150: 6a7e a03d 8f26 af3b 600e a2bc e309 a03c
00000160: cf7d b3bc 03a3 fbbc fe53 1bbd 4a5f c8bc
00000170: b422 dfbb 1988 853d 779e 5dbd 9fbb c7bc
00000180: d456 823b 2488 febc 4793 203d 24e8 303d
00000190: b7fe 8abc a084 45bd 872a 443d e877 113a
000001a0: a85f d6bb 474d fa3c cc77 9cbc 456c ccbc
000001b0: 97f5 8b3c 1c7b 50bc 027e 083d 2d25 113c
000001c0: 0927 123d a640 e3bc 138d 9bbc fcc3 38bd
000001d0: d5e6 6dbc c493 343d e3bf c4bc 7db2 173d
000001e0: 45d9 773c f949 013c 833e a7bc 0805 773c
000001f0: 8736 2e3c 06fa 19bd 02d0 e73c 9728 bebd
00000200: 4aa2 d9bc 505b 18bc 400e f93b ba97 12bc
00000210: 0425 cb3c a875 2d3d 0606 6e3d 87a6 10bd
00000220: 5765 853d 70f8 e83c 736f 82bd 53f0 133d
00000230: 7e84 0c3c e893 5abd ec51 a9bc 04d2 34bd
00000240: f324 57bd 45d9 7f3d bd78 bb3c c429 1dbc
00000250: bcc5 713d 2d19 cc3c 9695 c13b 0ad3 12bd
00000260: da0e dc3b a618 fdbc 97a2 ef3c 0123 383c
00000270: c306 94b9 ca0b b13c a01b bdbc 634f 5e3c
00000280: 3cae 103c be37 2cbd 989c d1bd db29 c7bc
00000290: 78a6 803b 2d10 a33b 1163 0bbd c993 05bc
000002a0: 6404 ce3c b725 05bc d309 a1bc 1217 2f3d
000002b0: 2cb4 42bc f9ac 36ba d102 01bd f8a5 22bb
000002c0: 7a0a 883c 060e d13b f434 2bbc 6720 c73c
000002d0: 598b b9bb 00b6 10bc 2a87 c3bc 82f4 54bb
000002e0: f4de 233d 58bf 983d 00c7 1dbd 64ae 353c
000002f0: 9ccd 163d 625d e83c 6881 f73b 9e9c 193d
00000300: 154e 993d a1a0 9cbc 9725 d53c 3b8e 0b3c
00000310: 44f4 06bc 255a 253c 3b54 c63a 7e82 a9bd
00000320: b221 e83c ec62 b1bd 6a13 7ebd b70c 09bd
00000330: f6ec 34bd 6185 03bd ac14 f9ba 232b d83a
00000340: 9c89 293d db75 843c 985f 1bbc 0b62 f63b
00000350: bfdb ddbb 7fd8 db3c a12d 873c 8814 a93b
00000360: b6cf b0bd 1cd6 c9ba e112 f83c 0632 95bb
00000370: 13a6 36bd fcf1 27bc 4da9 21bc ad51 ccbc
00000380: 61e1 f83c b1cb 5ebc bc7f 9e3b 4d0a ff3c
00000390: eb5e 253d d22c 53bd 077f 15bc 2604 973c
000003a0: 8d4b 41bc bbb6 f03b 12a3 29bd ad7f 1dbc
000003b0: 52ce 07bc 4a84 8a3d b899 95bc f3c1 b43c
000003c0: db72 9e3d 3696 71bc e636 0abc e2c2 44bc
000003d0: 9b44 a53b 45a2 523d c807 e7bc 4d64 7dbd
000003e0: 72b5 90bc 7de5 063d d488 95bc f733 b8bc
000003f0: ee88 13bb 7201 4ebd c412 99bb be95 6d3c
-0.08947203 -0.01844749 0.024707302 0.007694978 0.029553046 0.022284001 0.051788043 0.010058276
0.0010033028 -0.038711987 -0.049225476 -0.00028574985 0.0023821255 -0.03723839 -0.016926985 0.033289474
-0.010765969 -0.05549305 0.06340502 0.060933333 0.0043269694 -0.040254448 -0.0027299465 -0.036446247
-0.0041668294 -0.017118532 0.030513411 0.03315008 0.029121153 -0.05257836 0.06789835 0.00020444687
-0.02834176 0.0099728 0.00879204 -0.009743365 0.0037366997 0.026916968 0.006801961 0.0077948007
0.0022193147 -0.021541456 -0.0010079693 -0.010294761 -0.035239592 -0.009366167 0.056845643 0.06456998
0.0065420307 0.01652776 -0.009589254 0.0011124568 -0.020688077 -0.06494137 0.04904843 0.03465951
0.007192124 0.014070099 0.016317908 0.060849052 0.024330867 -0.030792318 0.0029257182 -0.024443746
-0.008205874 -0.043102168 -0.017427105 -0.014575259 0.06955619 0.012663212 0.025073726 0.027462753
-0.015424794 0.042561863 -0.0014512236 0.041173697 0.00607864 0.019166894 0.01673395 0.006279543
0.0746547 -0.02407271 0.0083848545 0.062614106 0.078366116 0.0053451727 -0.019782245 0.019535964
-0.021910576 -0.030717378 -0.037921898 -0.0244595 -0.006809557 0.06520099 -0.054106202 -0.024381457
0.003977636 -0.031070776 0.039202955 0.043190137 -0.01696716 -0.048222184 0.04789212 0.00055491785
-0.006542165 0.030554427 -0.019100092 -0.02495397 0.01708488 -0.012724664 0.033323295 0.008858961
0.035681758 -0.027740788 -0.018988168 -0.04510878 -0.014520367 0.044086233 -0.02401728 0.037035454
0.015127485 0.007891172 -0.02041555 0.015076883 0.0106331175 -0.037591957 0.028297428 -0.09285086
-0.026566643 -0.009299114 0.0076005757 -0.008947307 0.024797924 0.042348534 0.058111213 -0.035315063
0.0651347 0.028438777 -0.063689135 0.036117863 0.0085765105 -0.05336371 -0.020668946 -0.0441456
-0.052525472 0.062463064 0.022884721 -0.009592477 0.059026465 0.024914348 0.0059077246 -0.035845794
0.0067156376 -0.030895542 0.029252334 0.011238814 -0.00028233798 0.021612067 -0.023084462 0.013568732
0.008830603 -0.042045347 -0.10234946 -0.02431195 0.0039260946 0.0049762935 -0.034030024 -0.0081529105
0.025148578 -0.008126668 -0.019658005 0.04274661 -0.011883777 -0.0006968524 -0.031496827 -0.0024818163
0.016606558 0.0063798456 -0.010449637 0.024307443 -0.0056623635 -0.008832455 -0.023868162 -0.003249437
0.040007547 0.07458371 -0.03851986 0.011088941 0.036817178 0.02836484 0.007553268 0.037502877
0.07485596 -0.019119563 0.0260189 0.008517797 -0.008236948 0.010092293 0.0015131304 -0.082768425
0.02833638 -0.08661446 -0.062030233 -0.03345939 -0.044171296 -0.032109622 -0.0019003353 0.0016492348
0.041391 0.01616948 -0.009483241 0.007519012 -0.0067705805 0.026836632 0.01650125 0.005159918
-0.08633368 -0.0015398893 0.03028244 -0.0045530824 -0.044591974 -0.010250565 -0.009867025 -0.02494129
0.030380907 -0.0135983685 0.0048370045 0.031132841 0.040373724 -0.051556416 -0.009124524 0.018434595
-0.011797798 0.007346002 -0.04141528 -0.00961296 -0.008288937 0.067635134 -0.018261775 0.022065138
0.07736751 -0.014745286 -0.00843594 -0.012009354 0.005043579 0.051424284 -0.028201953 -0.061863232
-0.017664645 0.0329337 -0.018253721 -0.022485716 -0.0022512036 -0.050294347 -0.0046714265 0.014501033

head.conv.bias f4 [64]
00000000: 1985 9c3d 7d85 01be e021 3fbe aeda 673d
00000010: 1efe f53d 727e 063e f748 403e 7d8d e3bd
00000020: 10d9 f43c 3521 293e 6bdf d43d 4354 0a3e
00000030: 885b 33be 6661 573e a1f6 c53d 8683 a93d
00000040: aab8 2dbe c3fb 013e af2d 563e 8742 9e3d
00000050: ec11 30be 2750 eabd 93ac b93d 6028 963d
00000060: 0848 c63d aeb0 03be 24d2 153e b8aa babd
00000070: a086 0abe c7ec 52bd 6375 e53d d3e5 5a3d
00000080: 8284 61be 7154 8cbd 4822 103e e21a 09be
00000090: 2cc8 03be bf27 2f3e f228 bdbd 1429 1fbe
000000a0: 0819 29bd 7351 d73b 9ef6 00be 976e a0bc
000000b0: d6f7 37be 7bbd b3bc a20f 06bd a992 803d
000000c0: 365e 5c3d f9fb d03d 4112 713d fe41 ec3d
000000d0: 0b4b 2e3e 5817 0a3e 9623 c2bc 516f b03a
000000e0: 598d 51bc f000 d2bd 5502 273d 0cce 9f3d
000000f0: 4e48 76bd 1712 ecbd 76dc 0cbd 1154 00be
0.07642574 -0.12648578 -0.18665266 0.056605034 0.1201136 0.13134173 0.18777834 -0.11110971
0.02988866 0.16516574 0.10394176 0.13508706 -0.17515385 0.21033248 0.09666181 0.08277039
-0.16964975 0.12693696 0.20915864 0.07727533 -0.17194337 -0.11441069 0.09066119 0.0733192
0.096817076 -0.12860367 0.14630944 -0.09114593 -0.13527918 -0.05149534 0.1120403 0.053441834
-0.22023204 -0.068520434 0.14075577 -0.13389161 -0.12869328 0.17105006 -0.09236325 -0.15543014
-0.041283637 0.006570989 -0.12594077 -0.019583983 -0.17965636 -0.021940937 -0.032729752 0.06277973
0.053800784 0.1020431 0.0588553 0.115360245 0.17020814 0.13485467 -0.02369861 0.0013460909
-0.012790048 -0.10254085 0.04077371 0.07802972 -0.06012755 -0.11526888 -0.034389935 -0.12532069

head.norm.weight f4 [64]
00000000: 1567 703f 6596 7f3f efba 653f cbab 8b3f
00000010: d307 823f 5fb6 8b3f ddfd 853f dc79 743f
00000020: b393 873f b8a2 793f 4bff 633f 6d1c 813f
00000030: 8c06 733f 1ae9 7f3f 3821 673f bb65 843f
00000040: dbfb 793f 0952 833f 4275 7f3f b782 743f
00000050: 8e3e 7b3f 7ce5 5a3f ce08 933f 47fb 8c3f
00000060: 162d 6f3f 0c94 823f 7bda 7e3f 9987 6a3f
00000070: 35c4 633f d41e 843f 5009 763f 0116 783f
00000080: a2c1 8a3f 0a30 713f 01ca 7b3f f67d 793f
00000090: 6253 613f 7265 7c3f 771a 863f a636 813f
000000a0: 9621 703f 566a 803f 895c 873f 0dbd 813f
000000b0: 45ba 843f a71b 843f c7cc 623f 6e66 863f
000000c0: 366c 6e3f a6c6 6f3f 1402 803f 373d 6d3f
000000d0: 0d73 863f eeea 763f 4df4 773f a3fe 813f
000000e0: 97df 7e3f e94e 753f 627e 713f e4fb 573f
000000f0: ea53 853f 8d3e 873f 7d13 633f 011a 8c3f
0.9390729 0.9983886 0.89738363 1.0911802 1.0158638 1.091503 1.0468098 0.9549844
1.0591949 0.97513914 0.8906142 1.00868 0.94931865 0.9996506 0.9028506 1.0343546
0.97649926 1.025941 0.99788296 0.95511955 0.98142326 0.85506415 1.1487062 1.1014184
0.9342817 1.020143 0.99552125 0.91613156 0.88971263 1.0321908 0.9610796 0.96908575
1.0840342 0.94213927 0.9835511 0.97457826 0.8801786 0.98592293 1.0476826 1.0094802
0.9380125 1.0032451 1.0575114 1.0135819 1.0369345 1.0320939 0.88593715 1.0500009
0.93133867 0.9366249 1.0000634 0.9267153 1.0503861 0.96452224 0.9685715 1.0155834
0.9955992 0.9582353 0.9433347 0.8436873 1.0416234 1.0565964 0.8870161 1.0945436

head.norm.bias f4 [64]
00000000: bd31 453e 4c89 133d 45a7 a7bc 6bcd bc3e
00000010: 8fdc 903e c983 023e 2e2b 993d 540b 513e
00000020: 4003 7f3e 09b7 cb3c 40ce e0bd 6674 cf3d
00000030: 83f9 ef3d 0308 c23d 8f44 35bd 5dca 023b
00000040: 264a ca3d e28d e13d 22fc 693c 53fa 09bc
00000050: 0d45 b03e af92 7dbd 1a8e 7c3e 5d54 b73e
00000060: c617 773d 3558 0d3e 42ac 8f3b 332f df3d
00000070: 4aa4 50bc 3692 e6bc bad9 883e 195f f8b9
00000080: 9c42 803e 1bef 333d 3a28 37bd e6ed f43e
00000090: adea 83bd e26a 403d a40c e53d 6fe0 ef3d
000000a0: 0ee7 6ebd a28e f23c 99d5 3b3b 5cb4 0e3e
000000b0: e903 343d 3ac8 733e d5d3 36bc 019c c13e
000000c0: e6ee c3bd 505c e73d be46 ea3c 2177 67bc
000000d0: 45ce 453e 7550 9a3d 7429 f53d a16c 143d
000000e0: 28be f63d 79af c0b9 28d1 223e 5a12 2dbd
000000f0: 885c 9c3e 7a61 b33e 6cb4 5dbd 108d 433e
0.19257255 0.03601961 -0.020465503 0.3687547 0.28293273 0.12745585 0.07478939 0.20414478
0.24903584 0.024867551 -0.10976839 0.10129623 0.117175125 0.09474184 -0.044254836 0.0019957044
0.09877424 0.1101339 0.014281305 -0.008421498 0.34427682 -0.061907467 0.24663582 0.35806552
0.060325406 0.1380318 0.0043845484 0.108976744 -0.012734482 -0.02814589 0.26728612 -0.000473731
0.2505082 0.0439292 -0.044716097 0.47837752 -0.06441245 0.04697693 0.11184052 0.11712729
-0.05832582 0.029609028 0.002866125 0.13935989 0.04394904 0.23806849 -0.011158903 0.37814334
-0.09567051 0.11296904 0.028598186 -0.014127524 0.19316967 0.07534877 0.11970797 0.03623641
0.12047988 -0.0003675183 0.159001 -0.04225383 0.30539346 0.35035306 -0.05412714 0.1909678

head.norm.running_mean f4 [64]
00000000: 5979 d13d 47db 18be d5ba 98be 5aa8 303d
00000010: 371a e43d cd5a 123e caf6 6f3e c042 d3bd
00000020: f916 873d f5d6 0c3e 7ba3 b63b 1088 043e
00000030: 0ba6 23be 043c 3e3e 91ae 743c d4bd e43d
00000040: e1ee 29be ed36 3e3e b937 523e 3f0c 8d3d
00000050: e672 2fbe 3338 2abe 1a33 c13d 48c8 193d
00000060: 001a d13d 7e3d 3ebe 47cc 783e 9988 afbd
00000070: 456b 5cbe 429e 98bd 7349 1a3e 9b1b 673d
00000080: 1ecb 71be 949e a7bd 557a 1e3e 289c 0fbe
00000090: 8596 60be 79b7 9a3e e078 4bbd 28ed a3bd
000000a0: 3c66 a8bd c5b1 033e 59f2 30bd 50d5 523c
000000b0: 5e3e e6bd 092e 153c f969 cdbd 05e7 863d
000000c0: 35d0 083d 3bf6 903d 6538 c03d db4c 7d3e
000000d0: 405a 253e 4afb ff3d 210e 56bd ce75 4e3c
000000e0: b7a6 013c d79f 12be 358b 023d 01e4 aabd
000000f0: d4f5 5cbd d701 12be bb65 b0bd 7a4d f4bd
0.10228223 -0.14927398 -0.29830042 0.043129303 0.111378126 0.1429245 0.23433986 -0.10315466
0.065961786 0.13753875 0.0055736876 0.12942529 -0.15981309 0.18577582 0.014934198 0.11169019
-0.16595031 0.1857564 0.20529069 0.068871014 -0.17133674 -0.16623001 0.09433575 0.03754452
0.10210037 -0.18578145 0.24296676 -0.08570976 -0.21525295 -0.0745206 0.15067081 0.05642281
-0.2361264 -0.08184543 0.15476353 -0.14024413 -0.21932419 0.30218104 -0.049675822 -0.08004218
-0.08222625 0.12860782 -0.04319987 0.0128682405 -0.11242364 0.009105214 -0.10029978 0.06587032
0.033401687 0.07078215 0.093857564 0.2473635 0.16147709 0.124991015 -0.052259568 0.012601329
0.007913283 -0.14318787 0.03187104 -0.083442695 -0.053945377 -0.14258514 -0.086131535 -0.1192884

head.norm.running_var f4 [64]
00000000: 2382 ba3a 2766 d83a 3877 673c 8f29 6c3a
00000010: fc86 613a 053d c63a 8601 ca3a 176a 993a
00000020: 9230 a43a 63c5 383b 0854 523c 9528 db3a
00000030: a6fa 823a d3f7 a43a eb41 d23b 844c ac3b
00000040: 907b 353b 2f08 a93a 9b50 c83a 990e 103b
00000050: 7d2f 1b3a 147d bf3b d1f8 9e3a 7660 493a
00000060: 891c e73a 7b85 353b ab8f 983b b240 993a
00000070: ff13 113d 1547 f33a 15d8 153a b290 293b
00000080: 6888 fe3a 89e0 213b b833 bc3b ea38 1f3a
00000090: 40dd fc3b 8753 333c 3018 123b fcd2 293b
000000a0: 78ad 5f3c 8bf3 ca3b 0685 9a3b b3d5 f13a
000000b0: 5e8b 3f3b faf5 413a 6c8f b33b 61d6 a73a
000000c0: 96c6 bd3a 7a9f 693a 5802 033b 0a15 363c
000000d0: 2622 be3a d688 e73a 343c 893a d269 853b
000000e0: 60bc fb3a 7f67 c03b 7b88 b23a fe65 cb3c
000000f0: dff5 9a3a 0086 573a 48db ae3b 514a 763a
0.0014229458 0.0016509936 0.014127545 0.0009008878 0.0008603183 0.0015124386 0.0015411831 0.0011704591
0.0012526682 0.0028193824 0.012837417 0.0016720468 0.0009992912 0.0012586064 0.0064165494 0.005258145
0.0027692057 0.0012896116 0.0015282811 0.0021981357 0.0005919857 0.005843768 0.0012128596 0.00076819153
0.0017632406 0.0027697969 0.0046557984 0.0011692254 0.03541946 0.0018560613 0.00057160977 0.0025873599
0.0019419314 0.0024700484 0.00574347 0.00060738495 0.0077168047 0.010945207 0.002229225 0.002591311
0.013652198 0.0061935834 0.0047155647 0.0018450528 0.0029227356 0.0007399019 0.0054797437 0.0012804979
0.0014478739 0.00089120085 0.001999041 0.011113415 0.0014506027 0.0017664682 0.0010470212 0.0040714527
0.001920592 0.0058717127 0.0013620997 0.024828907 0.0011822543 0.00082215667 0.005336199 0.0009395229

channel.fc1.weight f4 [4, 64, 1, 1]
00000000: 2c14 063d cfc3 0fbd ee69 9dbb de16 34bc
00000010: 6a30 bbbc a8da 83bc 6dd1 15bb 205e 983b
00000020: 37fd d1bc 908d 8a3c ebd8 bf3c 6f07 83bc
00000030: 27fc 79bc 38b4 2dbd d70a 54ba b36c d9bc
00000040: ee10 82bc 2fba 373b 7ba1 083d 8415 443a
00000050: dc4c bfbc 3dd9 12bc 222c d63b 01dc 3dbb
00000060: 220e 1dba fd02 f3bb 21d8 45bd 82da a63c
00000070: 077d 88bb feee be3b 3e5c 6ebb a4e1 133b
00000080: 171f 0f3d 7f1c 81bc d645 1d3b 9a1f 97bc
00000090: 5df2 743c 17a5 d4bc 4444 debb 9017 ff3c
000000a0: 9c30 23bc d826 8d3c 3e68 48bc 5241 0e3c
000000b0: 9e29 ceb9 ae32 983b af13 eabc a4a8 40bc
000000c0: eb47 81bc 2f64 98bb c94b 2dbd 7700 23bb
000000d0: 1012 1ebc 04db 29bd f233 873c 3786 103d
000000e0: 108d 583b ef8f 953c d3d9 0e3d 8a5f 2fbc
000000f0: 4255 88ba 091e 0e3d 2982 02bd 844b 253c
00000100: f660 933c 06c3 34bd b9e8 c2bb 6a4d 6c3c
00000110: 355a bcbc 67c3 43ba 2adc c8bc d6f6 03bd
00000120: d733 463c ab82 933c afd2 07bc 89a6 7a3c
00000130: f841 2fbc 808d ec3b 8b94 803c b3d6 8bbc
00000140: f043 a0bc ab4c 7abc 107a 113c d45b 9f3b
00000150: dee9 f63c 3840 7c3c 275b 263c e51c b2ba
00000160: 5ece e9bc 7d81 583c 0b28 33bc 67ee f23a
00000170: bdf3 39bc 802e 263d 8cc9 64bc c498 8f3c
00000180: f204 bdbc 5c0d fbbc 4206 8fbb e6ad 9c3b
00000190: eb76 943a d8d0 94bb c44a abbc 2d78 17ba
000001a0: 9648 afbb 938a 453d ca53 9e3c 1756 a63b
000001b0: 9be8 cbbc ae41 163c 504f 5e3c 6981 42bb
000001c0: 5bf9 8a3c 3fa8 81bc debb bbba bc93 30bc
000001d0: ff08 8dbc 0507 3a3b ee7f ae3b 04f6 c6bc
000001e0: 4a4e 3fbb fde6 7a3b 99ad 39bc b09a 83bb
000001f0: b5cd cabc a8b3 183b c12f a0bc 55c2 f83c
00000200: d0d6 8d3c fe40 2cbc 881f f6ba 920b 103c
00000210: a363 e6bb 0a41 25bb 44f0 4f3c d969 683d
00000220: 75e2 c33a 224c e3bc 092e 1ebc ebbd 45ba
00000230: efe4 c43c 6ec9 053d 638c 543b be85 e1bc
00000240: 2b72 ca3c f76b 933b f94d 123c 35f1 633d
00000250: e36a 95bb f06f 0dbc ad38 9c3b d1fa 09bd
00000260: 2b55 ddba 7c96 09bc 9741 a03c 2b08 05bc
00000270: baa8 b43b 25d3 be3c 30bf 7bbc bec8 24bc
00000280: 2e20 26bd 5c22 4ebc fea6 d43b 037d 1c3c
00000290: f684 0dbd e770 b6bc ec7d 473c ae4d 64bb
000002a0: 42c7 ba3b bc54 71bc 8c44 fdba 0180 04bc
000002b0: ee42 44bb cf15 d43c 2698 e33b 41fe 9dbc
000002c0: 13f9 543b b85d 813a 183c 4a3c b91e 7ebc
000002d0: 9fec e23b 08ad 8f3a 5a78 b0bb ea90 603a
000002e0: 4eca fcbb 2207 2abd 7287 49bc c5c3 863c
000002f0: b9d7 e13c 6f93 0bbd 386a bdbc bcdd b23c
00000300: 07af 68bc 098e 413c 9ddb 0f3d 0090 d93c
00000310: d9d8 01bc 771d 4fbc 78c6 463d 437b 22bd
00000320: 2b3e 9a3a 343c 51bc 90fe 233c 6ee4 33bc
00000330: 0d48 973c 90f1 00bd 806e 0abb e9c6 e5bc
00000340: 1ccb f53c d7f4 08bd e5d7 483c b61d 1e3c
00000350: 5bc2 013c 62ad 04bd 0d01 81bc 2ef0 1dbd
00000360: 4ae1 a5bb bd3d 0abd 1508 d63b 0ab3 5f3d
00000370: 24b3 adbc 01f5 8f3b fbbf 573c 1ea7 713c
00000380: 58a8 14bd 4f9a c53c 3d10 04b9 09f9 0ebd
00000390: b1bb 1bbd 8ed5 4e3c 2237 193d 1921 38bc
000003a0: d4ae 763b 0a40 4cbc 264a 63bc e689 443c
000003b0: 38fc 3ebc 54f2 cbbc c3e5 7fbb 46f4 e6bb
000003c0: 9839 293c bea3 253d 254e d0bc 2516 1dbc
000003d0: 4031 27ba 84ee 3a3c 0320 6dbb 641f 003a
000003e0: 90a6 b73c 83dc f7bc f99b a1bc f461 02bc
000003f0: 94c2 95bb d4f7 85bd d5f3 08bc a519 bcbb
0.03273408 -0.035098847 -0.0048038876 -0.01099178 -0.022850234 -0.016095474 -0.0022860423 0.0046498924
-0.025633438 0.016913205 0.023418864 -0.015994756 -0.015257872 -0.042408198 -0.00080887735 -0.02654109
-0.015877213 0.0028034558 0.033357125 0.0007480013 -0.02335208 -0.008962926 0.0065360228 -0.0028970244
-0.00059911807 -0.0074161277 -0.04830182 0.020367865 -0.004165295 0.00582683 -0.0036370899 0.0022564912
0.03494176 -0.015760658 0.0023997924 -0.018447686 0.014950362 -0.025957627 -0.0067830402 0.031139165
-0.00996032 0.017230436 -0.0122318845 0.008682566 -0.0003932239 0.0046447134 -0.028573839 -0.011758957
-0.015781363 -0.0046506147 -0.042308602 -0.0024872103 -0.009647861 -0.041468635 0.016504262 0.035284247
0.0033043064 0.01825711 0.034875702 -0.010703931 -0.0010401385 0.034696613 -0.03186241 0.010088805
0.01799057 -0.0441313 -0.005948153 0.014422754 -0.022992233 -0.0007467777 -0.024519045 -0.032217823
0.0120973205 0.018006643 -0.008289977 0.015298494 -0.0106968805 0.0072190166 0.01569583 -0.01707015
-0.019563645 -0.015277068 0.0088792 0.0048632417 0.030140813 0.01539617 0.010153568 -0.0013588934
-0.028540786 0.013214466 -0.01093484 0.0018534184 -0.011349616 0.04057169 -0.013964068 0.017528899
-0.023073647 -0.030646019 -0.0043647597 0.0047814725 0.0011326944 -0.0045414977 -0.020909674 -0.00057781005
-0.005349229 0.048227858 0.019327063 0.0050761807 -0.024891188 0.009170933 0.013568714 -0.0029679185
0.016964605 -0.015827296 -0.0014322957 -0.01077741 -0.017216204 0.0028385532 0.005325309 -0.024287231
-0.002919095 0.0038284652 -0.011332893 -0.004016243 -0.024756292 0.0023300443 -0.01955402 0.030366102
0.017314345 -0.010513542 -0.0018777708 0.008791821 -0.0070309206 -0.0025215768 0.012691561 0.05674157
0.0014944809 -0.027746264 -0.00965453 -0.00075432536 0.024034945 0.0326628 0.003243231 -0.027529594
0.024712643 0.0044989544 0.008929723 0.055649955 -0.004559861 -0.008632645 0.0047674985 -0.033686463
-0.0016886344 -0.008397695 0.019562526 -0.008119623 0.005513278 0.023294041 -0.015365407 -0.010057626
-0.040558033 -0.012581434 0.0064896336 0.0095512895 -0.03455063 -0.022270633 0.012176018 -0.003483634
0.005700023 -0.014729675 -0.0019322797 -0.008087159 -0.002994712 0.025889305 0.0069456277 -0.019286277
0.0032497093 0.0009869849 0.012343429 -0.015510255 0.00692518 0.0010961602 -0.005385441 0.0008566516
-0.0077145463 -0.04151071 -0.012300359 0.016450772 0.027568685 -0.03407615 -0.023121938 0.021834247
-0.014201886 0.011813649 0.03512155 0.026557922 -0.007925236 -0.012641302 0.04852912 -0.039668333
0.0011767795 -0.012770701 0.010009423 -0.010979755 0.018466974 -0.031480372 -0.0021122992 -0.02804895
0.030004077 -0.033436622 0.0122585045 0.009650638 0.007919873 -0.032391913 -0.015747571 -0.03855913
-0.005062257 -0.033750284 0.006531725 0.054614104 -0.021203585 0.0043932204 0.01316833 0.0147493165
-0.036293358 0.024121432 -0.0001259455 -0.034905467 -0.038020793 0.012624158 0.037406094 -0.01123836
0.0037640827 -0.01246644 -0.013872659 0.011995768 -0.011656813 -0.024895824 -0.003904686 -0.0070481626
0.010328673 0.04043936 -0.025427887 -0.009587799 -0.0006377883 0.011409406 -0.003618241 0.000488749
0.02241829 -0.030256515 -0.019727694 -0.007957924 -0.0045703147 -0.0654141 -0.008358915 -0.0057403618

channel.fc2.weight f4 [64, 4, 1, 1]
00000000: 1c90 813c b8d4 6fbc 1c2f e3bc 4f92 963c
00000010: 6d80 843d b574 f13c 96cb c3ba 1769 103d
00000020: ec4c e1ba dc16 91bb 990e a5bc 7495 ecbc
00000030: 04fe a63c 6a6f 323a 4cdb 9a3a 6e4f e73c
00000040: 2f8d 073b 7822 6f3c d57f 55bc 978d b83c
00000050: 20ae d1bb 2020 143c 756f 913c fd5c e63c
00000060: 77c4 f4ba aace 45bc 3353 b93c e47d 1fbc
00000070: eb36 ef3a 8953 4b3c 00cc 8abc 20d9 8bbc
00000080: 4edc e53c fcda 79bb cd0b d4bb bb35 023d
00000090: eb90 80bc c452 52bb d212 b63c 2636 bbbc
000000a0: 670f 01bc 27de e8bb 79eb 2aba 5b14 0e3d
000000b0: 7b1e 68bb c012 d03c 772a 04bc e9b3 023d
000000c0: 8db2 c3bc cc07 eabb ebbc 933a ac64 5d3c
000000d0: 2394 8c3a 1bdb 62bd f870 923c c4e1 2ebc
000000e0: 59ea 813c f634 2b3b eb7b 533c 40dd 81bc
000000f0: dd64 f53b e2fb 50bb 7054 46bc 01fd 73bc
00000100: 9dc7 333b d45b 783a b82b aabc e4dd c93b
00000110: 49e7 c53b 1873 d43c 64a7 27bd 9ca5 24bc
00000120: c794 75bc 44a7 a0bc 5362 edbc ae50 a5bc
00000130: 2d8a b5bc e50a 103c 4d14 a8bc 740b a03c
00000140: 991d 8ebc ed6b 29bd 11e3 dab9 05e5 733c
00000150: 4b69 373c f98d 4a3c 5831 cdbc 04e2 dcbb
00000160: 14d5 b5bc 1ed8 233d 6cfc 8f3c b350 373c
00000170: 0229 c83b bece fabb 9f32 ed3c 6dd7 363c
00000180: 50f7 38bc 9a21 1b3c 294f 04bc 8d2c 883c
00000190: ce5b 3d3c f4b5 1dbc 1d32 38ba d65e 1bbd
000001a0: c1b4 4b3c 3d3c 603b 9870 3f3b b8af 833c
000001b0: 7384 b93c 3195 133b 0e1d 423c 221c 89bc
000001c0: fd8f 043d 249a 543b 2eb0 983c b2f1 a7bc
000001d0: 8e25 4bbc 2046 883c 7d63 843b d2c8 84bc
000001e0: 5b00 813c a799 92bb 72e1 57ba 456b d4bc
000001f0: a249 933c 7a3a 1e3d ced3 81ba feb8 533a
00000200: 9ac2 99bc fbfd 873a bedf 15bd b7d5 1fb9
00000210: 59b1 fabb 278a 2c3c 18bc b53b c772 e63b
00000220: b81d c5bc 6a47 273d f7d3 2d3c 200a 30bc
00000230: 503c acbc e7cd 38bc 2e42 7bbc ed2d 8cbb
00000240: 4dc5 80bc ac03 4dbc e5e0 293c b7bd 693b
00000250: 477a c3bc 81b7 eb3c 61b4 88bc bb07 aa3c
00000260: bb36 dc3b 6035 91bc ee4a 8d3b ed8d 84bc
00000270: 1578 333c 73f6 a33c 2a59 a43a 5968 9f3c
00000280: fe27 a13a 607b 393c 47dd ccbb eb4c 7bbc
00000290: 2cbe 603c 70e8 6ebc 58a5 b63c 81c9 d8bc
000002a0: b9cd 1a3d 4277 913c 3ad2 8bbc 1b29 3c3c
000002b0: 6e83 0a3c a4f7 e03c 43f5 f53c 44df 05bc
000002c0: 2bf2 a03c 1697 ab3c 3bf7 be3b 876a 9e3c
000002d0: 4b20 6dbc 7868 c13c 0505 1dbc c999 353c
000002e0: d760 af3b 18e6 de3c 37e8 0abd 734d 17bc
000002f0: 973c 8abc d0b9 d93b f4c8 84bc 30e9 fcbc
00000300: 045a 943c 2443 3c3a f734 893b e5a0 4c3c
00000310: 555b 1dbc 90a6 b5bb 0e04 15bd faa0 073c
00000320: ee4f b33b 01b9 eebc 827e cbbc b40a 0f3c
00000330: a6de d73c dc61 7e3b b27d 813c fb82 193c
00000340: 456c 64ba 0303 993c 71ba b8bb a7fc 08bd
00000350: afa5 ce3c cd01 243a 5dc8 b8bc 809c 073d
00000360: 6771 85bb e683 d6bb ba0b d6ba 6ac7 ebbb
00000370: 39d5 e73c 2d98 8ebc 56d2 5bbc 50f2 5c3b
00000380: a6f2 54bb 1eab 50ba 2810 a4bc 7575 f9bc
00000390: c270 7c3b b230 df3c 2595 42ba 87e4 36bd
000003a0: f817 4a3c d999 febb 7473 0abc 6cc5 963c
000003b0: 808c e8bc 9f60 073b d52d a43c fd08 98bc
000003c0: afbf fc3b 5080 4cba d279 5b3c c425 383d
000003d0: f277 9a38 0119 8d3b 991e 863c 8fbd 013d
000003e0: 63ec 183c d0fa c4bc c223 0abd f7c8 21bd
000003f0: 29be 0e3d 3647 8dbb ac5e 1fbc 98d5 9a3c
0.015815787 -0.014638118 -0.027732424 0.018380312 0.06469808 0.029474596 -0.0014937993 0.03525647
-0.0017189062 -0.004427774 -0.020148562 -0.028879859 0.020384796 0.0006806763 0.0011814623 0.028236117
0.0020683517 0.01459562 -0.013030966 0.022528453 -0.006398931 0.009040862 0.017753342 0.028120512
-0.0018674274 -0.012073198 0.02262268 -0.0097346045 0.001825062 0.012410053 -0.016942978 -0.017071307
0.028059151 -0.003812491 -0.0064711333 0.031789523 -0.015694102 -0.003209279 0.022225771 -0.022852968
-0.007877207 -0.0071065607 -0.00065200735 0.03468738 -0.0035418558 0.025399566 -0.008066765 0.031909857
-0.02388885 -0.0071420427 0.0011271512 0.013512772 0.00107253 -0.055384737 0.017876133 -0.010673944
0.015858816 0.0026124096 0.012907962 -0.01585257 0.0074888305 -0.0031888415 -0.012105092 -0.014891864
0.0027432211 0.00094741327 -0.0207728 0.0061604846 0.006039534 0.025933787 -0.04093112 -0.01004925
-0.014989085 -0.019611008 -0.028977549 -0.020180073 -0.022160614 0.00879166 -0.020517493 0.019536711
-0.017348098 -0.04136269 -0.00041749378 0.0148861455 0.011194537 0.0123629505 -0.025047943 -0.0067408103
-0.02219633 0.040001027 0.017576419 0.011188674 0.006108404 -0.00765404 0.028954802 0.01115976
-0.011289433 0.00946846 -0.008075514 0.016622806 0.0115575325 -0.009625901 -0.00070265104 -0.03793224
0.012433232 0.0034215592 0.0029211398 0.016075 0.022646165 0.0022519345 0.0118477475 -0.016737048
0.03236388 0.0032440508 0.018638697 -0.020500991 -0.01239909 0.016635 0.0040401802 -0.01620904
0.01574724 -0.004473883 -0.0008235193 -0.025930056 0.017979447 0.038629986 -0.0009905042 0.0008076577
-0.018769551 0.0010375375 -0.03659033 -0.00015243037 -0.007650536 0.010530985 0.005546104 0.0070327255
-0.024062023 0.04083959 0.010609618 -0.0107446015 -0.021024853 -0.01127956 -0.015335603 -0.0042779357
-0.01571908 -0.0125130825 0.01036856 0.0035666057 -0.023862017 0.028774025 -0.016687574 0.02075564
0.0067203916 -0.017725646 0.004311911 -0.016180957 0.010953923 0.020014977 0.001253878 0.019458937
0.0012295244 0.011320919 -0.0062519643 -0.015338163 0.0137172155 -0.014581785 0.022295639 -0.026463272
0.03779385 0.017757062 -0.017068017 0.01148441 0.008454187 0.027461834 0.030024176 -0.008170906
0.019646725 0.020946067 0.005827812 0.019337906 -0.014473031 0.023609385 -0.009583716 0.0110840285
0.0053521204 0.027209327 -0.033912864 -0.009234774 -0.016874595 0.006644465 -0.016209103 -0.030872911
0.018109329 0.00071816356 0.004187222 0.012489532 -0.009604295 -0.0055435374 -0.03638082 0.008278126
0.005472175 -0.029140951 -0.024840597 0.008730579 0.026351284 0.0038815653 0.015807007 0.009369607
-0.0008713643 0.018678194 -0.00563746 -0.033444073 0.025225488 0.0006256372 -0.022556478 0.033108234
-0.0040723565 -0.0065464852 -0.0016330399 -0.007195403 0.028299915 -0.017406547 -0.013416847 0.0033713765
-0.0032493263 -0.0007960069 -0.020027235 -0.030451516 0.0038519357 0.0272449 -0.0007422737 -0.044651534
0.012334816 -0.007769805 -0.008450378 0.018404685 -0.028387308 0.0020656956 0.020041386 -0.018558973
0.00771328 -0.00078011025 0.013395743 0.04495789 7.365634e-05 0.004305959 0.016372012 0.031674918
0.009333703 -0.024045378 -0.033725508 -0.039498296 0.03484932 -0.0043114675 -0.009727161 0.018900678

body.block1.conv.weight f4 [64, 64, 3, 3]
00000000: 83b6 a03d c09c 063d 8668 aebc dc8a 103c
00000010: a333 89bc 3d53 78bc 77e1 2a3c 52c7 76bb
00000020: 0fa0 f23c 8866 e03b da97 f1bb a6a6 b83c
00000030: 5ded da3a f9a2 bd3b 0377 de3c c7b9 7abd
00000040: 37e3 533d 22d4 a93b d3aa 863c 8d37 ec3c
00000050: e29d 483d ad6f 793c 6bcc 323d 2af0 70bb
00000060: ce9f 2dbd 329d 91bc 3541 693a dfac 10bd
00000070: 0aa5 e7bd e9e5 e93d f132 f73c 6d22 58bb
00000080: 98d4 003d afb5 2d3d 482c 9ebc c420 0d3d
00000090: c1a1 2fbd 3328 d73c b5ad f13c a205 af3d
000000a0: af3a 82bd deda 7c3d d76d 03bb 8d6d 67bc
000000b0: 6984 d73c a49a bcbd ea96 3bbd 622c 893d
000000c0: 9ec1 163c 10c0 0ebd 560c 763d b614 613b
000000d0: dcc9 94bc 4424 64bc 0e69 82bd 752c 8cbd
000000e0: ff99 a5bc 985a 6bbd d3cd 023b bf10 683c
000000f0: 7a2d 12bc d9ec a2bc 5961 06bd 6aa5 983d
00000100: 560f e73c 6239 8c3d 4635 31bd 3c94 edbc
00000110: 7ebc e0bb 49a3 77bc 2c77 533d 6be8 5b3a
00000120: b0f9 0cbd 68e6 9c3b cac3 37bd e4da 04bd
00000130: 93d9 dbbb 71b7 453c f926 1b3d 2eb9 053d
00000140: 6cf7 9abb 47dd 3b3d 7a19 843d 06ec c33c
00000150: 8093 51bd a790 a33c f80c 8b3c 08e0 9c3c
00000160: b046 3cbc 753a 94bb cecf 7f3c dda8 6b3c
00000170: eb98 88bc 24e9 8a3d a503 db3b 0cb1 f23b
00000180: ff5f c8bc 4234 563b e785 9e3c 8e46 b43c
00000190: f2da 3d3d 5330 41bd 95c7 c3bc 24f9 18bb
000001a0: 0e4f a73c bf15 bc3c 0bb7 283d ba0c 8a3d
000001b0: f7a8 09bc 1916 843c 37a0 00bd 6342 08bc
000001c0: 187d 3fbc 4afe abba 5b41 fb3c ff1d bf3d
000001d0: a748 793b 0112 2a3d 7e70 a33c d4a0 d8bc
000001e0: 81c5 95bc c542 173d ea3d a83c b73c fdbb
000001f0: 02c5 bfbd eec0 c2bc df66 133a f912 ac3c
00000200: 8b32 863c e196 1a3c 4931 763b ad03 85ba
00000210: a425 313d e311 e63c 89f3 103d 254f 84bd
00000220: 43f4 d1bd ef59 cebc b53f 123d dc3f 52bd
00000230: 3e23 a63c 36c3 55bd 69a6 283c af33 1c3d
00000240: d776 c83c f794 ae39 7f43 513d dcbc ddbb
00000250: 5991 403c 6393 243c 95b4 0fbd e1e1 663d
00000260: ec25 f03c cb3c 48bd 8bc8 293b f128 5b3d
00000270: 50a5 1e3d a566 72bb 7a37 81bc 1301 1bbd
00000280: 0be7 f53c b9a9 163d 0c95 18bd 82ca 9e3c
00000290: 7c4a 92bb fe68 08bb c79c 813d 160d 9bbd
000002a0: 9b5b d53b 6506 253d c523 b93b 9155 3b3d
000002b0: 110e 273c c127 333d d00d eebb 45ab 2d3d
000002c0: ee0c 8f3c 3b06 c2bc 1567 163c d14b e23c
000002d0: 9181 dcbc 93bc 3dbc 0ee2 653d 57a9 1ebd
000002e0: eaec 9e3c bee3 11bd 9dc0 863d f3a9 f03c
000002f0: 120f 8bbd 2d80 02bd 42ca 5c3d b140 8ebb
00000300: f2b6 1a3d 37d5 533b 6208 d03a bb49 3a3c
00000310: 54c7 693c cf8f f2ba 79c0 0f3d 9d2d 34bd
00000320: 1e1b a4bc 302e aebc dd37 713c 6c28 eaba
00000330: 7791 a43c 412e 7abd 4364 b6bc 3b72 52bc
00000340: bf91 5cbd 89c9 1d3d 74be b8bb abd4 ddbc
00000350: c162 6bbd a51b df3d 8916 fdbc 6f60 83bd
00000360: 786c 18bd 753b 593d 72a0 04bc 6116 86bc
00000370: e346 90bd bca6 9ebc cf42 833d 65a9 64bc
00000380: 3710 533d 5e63 a63a 028d b53c 078e 833b
00000390: 02ad 38bc e404 b93b c598 f3bb 9e78 7dbb
000003a0: 5368 573b e3e5 c9bb cd12 cdbc ff06 4dbc
000003b0: da6b 65bc 9cb0 b03b fc55 0f3d fa47 713d
000003c0: 2fb7 9f3c 7a4d 8fbc f040 b93b fde2 ffbc
000003d0: 5982 06bd 6639 9ebc abb7 11bc 63bf 003d
000003e0: 3e0d 013d 08c4 523d 297c c53d ce72 aebc
000003f0: c8e9 b33b 866d d8bb c082 853c f88a d73c
0.07847311 0.032864332 -0.021290075 0.008822169 -0.016748255 -0.015156564 0.010429732 -0.0037655425
0.029617338 0.00684816 -0.0073728384 0.022540402 0.001670282 0.00578725 0.027156359 -0.061212327
0.05173036 0.005182759 0.016438877 0.028835082 0.048978694 0.0152243795 0.04365198 -0.0036764243
-0.04238873 -0.017775152 0.0008897961 -0.035321113 -0.113107756 0.11420805 0.030175658 -0.0032979504
0.031452745 0.042409595 -0.019308224 0.034455076 -0.04287887 0.026264286 0.029501775 0.08545996
-0.06358849 0.061732166 -0.0020054483 -0.01412524 0.026308255 -0.09209183 -0.04579822 0.066979185
0.009201435 -0.034851134 0.06007036 0.003434462 -0.01816266 -0.013924662 -0.06367694 -0.06844417
-0.020215033 -0.057459444 0.0019959107 0.014164149 -0.008921975 -0.019888328 -0.03280768 0.07453425
0.028205555 0.068468824 -0.043263696 -0.029001348 -0.0068584075 -0.015114614 0.051627323 0.000838882
-0.034417808 0.0047882088 -0.044864453 -0.032435313 -0.0067092865 0.012067662 0.037878964 0.032647304
-0.004729202 0.045865323 0.06450172 0.023916256 -0.051166058 0.019966437 0.016973957 0.019149795
-0.011491463 -0.00452357 0.015613509 0.014383522 -0.01667448 0.06782749 0.006683784 0.0074063595
-0.024459837 0.0032684957 0.019350959 0.0220063 0.04635138 -0.047165226 -0.023898879 -0.0023341859
0.020423438 0.022959588 0.04119019 0.06740709 -0.008402101 0.016123818 -0.031402793 -0.008316609
-0.0116875395 -0.0013122049 0.030670812 0.09331893 0.003803769 0.041521076 0.019951101 -0.026443876
-0.018282654 0.03692891 0.020537335 -0.007728185 -0.09363748 -0.023773637 0.0005622934 0.02100514
0.016381523 0.009435386 0.0037565997 -0.001014819 0.043248788 0.0280847 0.035388503 -0.06460408
-0.10251667 -0.025189368 0.035705287 -0.051330432 0.020280477 -0.05218812 0.0102935815 0.038135227
0.02447073 0.00033298854 0.05108976 -0.0067668986 0.011753404 0.010044905 -0.035084326 0.05636776
0.029314958 -0.0488861 0.0025906886 0.05350584 0.038731873 -0.003698745 -0.015773524 -0.03784282
0.030017396 0.036782954 -0.037251517 0.019383673 -0.0044644456 -0.0020814533 0.06328731 -0.07570855
0.0065111644 0.0402893 0.005650016 0.0457359 0.010196225 0.043739084 -0.00726483 0.042399663
0.01746222 -0.023684612 0.00917985 0.027624043 -0.02691725 -0.011580604 0.056123786 -0.038735714
0.019400079 -0.035617582 0.06579707 0.029377913 -0.06789984 -0.03186052 0.053903826 -0.004341208
0.037772126 0.003232313 0.0015871639 0.011370118 0.014268715 -0.0018505993 0.035095666 -0.043988813
-0.020032462 -0.021262258 0.0147227915 -0.001786483 0.020088894 -0.061079267 -0.022264605 -0.0128446175
-0.05384993 0.038522277 -0.005637938 -0.027078947 -0.057467226 0.10893945 -0.030894535 -0.064148776
-0.03721282 0.05303522 -0.008094894 -0.016368093 -0.070447706 -0.019366615 0.06409227 -0.013956402
0.051529136 0.0012694409 0.022161964 0.0040147337 -0.011271717 0.005646335 -0.007433983 -0.003867663
0.0032868579 -0.006161438 -0.025033379 -0.012513875 -0.014002765 0.005392147 0.03499411 0.058906533
0.019496528 -0.017492998 0.005653493 -0.031236166 -0.032839153 -0.01931448 -0.0088938875 0.03143252
0.03150677 0.05145648 0.09642822 -0.021294978 0.0054905154 -0.006604853 0.016297698 0.026311383

body.block1.conv.bias f4 [64]
00000000: 66b5 f3bc 8572 cb3c d97e 91ba 7b52 8fbc
00000010: 7492 de3c 99b6 5c3c 4a04 1fbd de1f 403d
00000020: c406 05bd fad5 12bd 0b7d 1fbd 6b83 4f3c
00000030: d5b9 a73c 932f 24bd 43cc 893b 041f 9ebc
00000040: 6f3d 03bd 0e37 ddba b76d d23c 6325 b8bc
00000050: 04ec 5f3c 2ee5 273d 609c 6f3c e3c4 0d3b
00000060: 9e8c e23c e9b2 c83c f1b5 b33b badf f53c
00000070: feb0 a2bc f16f a83b 7c88 5fbc f042 213b
00000080: ff76 ad3b a731 efbc c1b5 153b aed4 ba3a
00000090: 730c 0d3d 104b 063d cf13 ccbc 0c5e d53c
000000a0: e745 9c3a 8a77 10bd 3c9d 163b e68d efbc
000000b0: b837 cbba 7c7e 00bd 83b6 9fbc f682 b23c
000000c0: 0e13 be3c 1b9a dcbc ea73 b73c a987 15bd
000000d0: 00f7 923c 9fd9 d0bc 6bf7 99bc 6f90 edbc
000000e0: d146 ec3b 47fa 533a e193 0d3d 0b41 fcbc
000000f0: a8b6 9b3c ff97 fb3c 3359 babc cbff 6fbc
-0.029749583 0.02483488 -0.0011100426 -0.017495384 0.027169444 0.013471269 -0.03882245 0.04690539
-0.032477155 -0.035848595 -0.03893761 0.01266561 0.020474354 -0.040084433 0.004205258 -0.019301899
-0.03204101 -0.001687737 0.025687082 -0.022478765 0.01366711 0.040990047 0.014624685 0.0021632246
0.027654942 0.024499374 0.0054843356 0.030013908 -0.019859787 0.0051402976 -0.01364338 0.0024606548
0.0052937265 -0.02919848 0.002284393 0.0014254057 0.0344357 0.03278643 -0.02491179 0.026045822
0.0011922688 -0.03527025 0.0022981903 -0.029242467 -0.0015504276 -0.031370625 -0.019496208 0.021790963
0.023202445 -0.026928952 0.02239414 -0.03650633 0.017940044 -0.025494395 -0.018794736 -0.028999535
0.0072105904 0.00080863055 0.034564856 -0.030792734 0.019007996 0.030712126 -0.022747612 -0.014648388

body.block1.norm.weight f4 [64]
00000000: 4ca2 7d3f bdeb 773f fb78 6c3f 1163 7e3f
00000010: 9973 873f b357 813f e99b 813f cd66 713f
00000020: a4ed 823f a299 5f3f 6fdc 793f d5be 813f
00000030: 30c4 753f 0905 873f 8053 6e3f 0d44 863f
00000040: 31a1 7c3f d071 7c3f 119a 803f 34e6 853f
00000050: 97c0 713f 132b 6c3f afbb 763f b654 7f3f
00000060: b5f3 7d3f e422 773f 128a 713f 26ee 753f
00000070: a079 683f 6352 843f 2e42 7f3f 8613 793f
00000080: 0dea 813f e8ba 7e3f d57e 793f a311 763f
00000090: 9da2 793f a99d 773f d4cc 733f 55dc 7e3f
000000a0: 37d1 723f e828 7e3f 1437 773f adf8 6e3f
000000b0: 4224 7f3f 763c 813f efc2 833f 3374 7b3f
000000c0: 685c 803f e4ab 823f d72d 8a3f 8196 7c3f
000000d0: 1d28 7a3f f8f8 6a3f b001 853f 86b4 863f
000000e0: 6439 853f 535b 753f 842a 733f 206e 853f
000000f0: 6a41 853f 0954 783f 7802 7f3f 193a 833f
0.9907577 0.96844083 0.923721 0.99369913 1.0582153 1.0104889 1.0125705 0.94297487
1.0228772 0.873438 0.9760198 1.0136362 0.96002483 1.0548412 0.9309616 1.0489517
0.9868346 0.98611164 1.0047017 1.0460877 0.94434494 0.92253226 0.9638013 0.99738634
0.9919999 0.96537614 0.94351304 0.9606651 0.90810585 1.0337642 0.9971036 0.97295415
1.0149552 0.99503946 0.97459155 0.9612066 0.97513753 0.96724945 0.9523442 0.9955495
0.94850487 0.9928117 0.9656842 0.933482 0.996647 1.0096576 1.0293864 0.9822418
1.00282 1.0208707 1.0795239 0.9866715 0.9771746 0.91786146 1.039114 1.0523841
1.0408139 0.95842475 0.9498675 1.0424232 1.0410588 0.9700323 0.9961314 1.0252105

body.block1.norm.bias f4 [64]
00000000: 9cae 8a3d ddb5 863d fffd 563e 8b7f 533e
00000010: 3412 e93d 856b 033e 0dbf 4e3e ba90 3b3e
00000020: 086e 933d f4ca 873e 9ad3 ce3d 2bdc 553e
00000030: ed78 a73e c867 6c3d db3f f43d 78d9 1c3e
00000040: 6aa8 c13d 3ffd ff3d f882 9c3d 0d05 a33e
00000050: 67af 833d ab89 203e f91c f23d 115d 943d
00000060: a41b f43c 1a8e 203e e7e9 083d f4cc 313d
00000070: 2dc4 8c3e 6648 ae3d ef29 8a3e f9ef 4c3b
00000080: 9137 2e3d 09cd 7a3d d2a4 bd3d 3a6b 823e
00000090: 5660 163e 6130 883e 8c4e e93c bd98 cb3c
000000a0: 2158 663e 0bb3 563e f969 1c3e 5345 983e
000000b0: b198 323d 5c2e 803e 8256 0d3e d422 d23d
000000c0: 9c1c e13d 9163 c93d 08d5 873e 1c6a 343d
000000d0: d063 193e 60ad d13d 97cd 563e aa83 fe3d
000000e0: d740 2d3e d8af 123e 87c1 ba3d 3da6 c63d
000000f0: 1de3 013e a326 1c3e 7571 a33d 7286 3c3e
0.06771585 0.065776564 0.2099533 0.20654123 0.11380425 0.12833984 0.20190068 0.18316928
0.07198721 0.26522028 0.100989535 0.20884769 0.32709447 0.05771616 0.11926242 0.15317333
0.094559506 0.12499475 0.07642168 0.3183979 0.0642994 0.15677516 0.11821932 0.072443135
0.029798336 0.15679207 0.03342619 0.04340835 0.2749342 0.08509903 0.26985118 0.0031270965
0.04253346 0.061230693 0.092599526 0.25472432 0.14685187 0.2659941 0.028479837 0.024853105
0.22494556 0.20966737 0.152748 0.2974039 0.04360265 0.2503537 0.13802531 0.10260549
0.10991785 0.09833444 0.26529717 0.044046506 0.14979482 0.10238147 0.20976864 0.12427457
0.16919266 0.14324892 0.09118944 0.09699676 0.12684293 0.15249114 0.079806246 0.18410662

body.block1.norm.running_mean f4 [64]
00000000: 2e68 b93e 3190 f7be b3b3 06bf f93d d8be
00000010: a843 383f eb41 b2ba 3884 ab3e c886 92be
00000020: 1e50 a4be 4705 f3be 7c0a 01bf 23e4 26be
00000030: b88c 18bf ed68 2b3f 83e4 27be cc64 02bf
00000040: 3fd8 4c3d d763 d7bc c0e1 ebbe 5dce 7e3c
00000050: be4e 35be 24a5 efba 2944 60bc 2a7e f2bd
00000060: 967e 60be 5b28 9fbe 737c 0abf 5c23 123f
00000070: 0415 193f 67eb a3be 5636 37bf a5b8 8ebe
00000080: a04d 63bd 46eb 833c 5ef5 a2be 0707 a43e
00000090: 0842 c4be 417c 463d 3d0a 2fbf d1f8 23bf
000000a0: 4884 b43e 84c0 423d 18e6 fabd 4bef 4cbd
000000b0: a36c 4cbe 5925 363f c4d4 22be d292 a5be
000000c0: 34b5 82be 6e30 b8be afd4 50be 910d 70bf
000000d0: 955e bb3d 9c7b 7dbe 2993 f2be bed4 a1bd
000000e0: 5acf 7a3c 2cd8 babe 8bc4 153f 5179 c43c
000000f0: 410e 0cbf f5bd bbbe 19d8 c8be 2372 40be
0.36212295 -0.48352197 -0.5261795 -0.4223478 0.71978235 -0.0013599967 0.33499312 -0.28618455
-0.32092375 -0.47464964 -0.5040662 -0.16297965 -0.5958972 0.6695698 -0.16395764 -0.50935054
0.050010916 -0.026292725 -0.4607067 0.0155521305 -0.17705819 -0.0018283469 -0.013688126 -0.1184047
-0.21923289 -0.31085476 -0.54096144 0.57085204 0.5979769 -0.32015535 -0.71567285 -0.27875248
-0.05549395 0.016103398 -0.31827825 0.3203661 -0.38331628 0.04845834 -0.68375 -0.6405154
0.35257173 0.04754688 -0.12250918 -0.050032895 -0.19963317 0.7115074 -0.15901476 -0.32338578
-0.25528872 -0.3597445 -0.20393632 -0.937707 0.091488995 -0.24754184 -0.473779 -0.079019055
0.0153082255 -0.3649305 0.58503026 0.02398363 -0.5470925 -0.36668363 -0.3922737 -0.1879354

body.block1.norm.running_var f4 [64]
00000000: a814 123e 9aed d53d 4c0b a03d daeb ac3d
00000010: 0cdb 023e 04e5 c13d ae26 063e 1824 6d3d
00000020: 0a15 983e 237f 3e3d d28d 313e 50a8 bb3d
00000030: 6892 793d 43bd a23e 8260 5e3d f075 c73d
00000040: efc9 9c3d 49e3 b93d fc71 053e e4d9 b63d
00000050: 4a6d bf3d 8eb6 763d 30dd 813d ba74 143e
00000060: 0ac8 b93d c8b5 5e3d df0c a33d 6311 d03d
00000070: 73e2 553d 9253 8d3d 8c43 b13d b60d 2b3e
00000080: 8d44 be3e 140c f63d c3de 913d 61a1 433d
00000090: 64d1 b33d 0f1a 673d fdaf c13d bf84 693e
000000a0: ed53 7e3d c772 543d 20d7 583d bf0a 873d
000000b0: 3f3d 2c3e bfdc ac3d 4241 b23d 96da cd3d
000000c0: c179 4b3d 6b5a 0a3e 2669 b43d 1cc7 9f3e
000000d0: 31ee d53d 8edc ba3d b1a0 b43d 0b4f eb3d
000000e0: 0e66 f03d 0d5f 923d c07f e13d f372 223e
000000f0: 3eff 233e c0fc 863d 2751 db3d 3b22 a03d
0.14265692 0.104457095 0.07814655 0.084434226 0.12778872 0.094675094 0.13100693 0.05789575
0.29703552 0.046507966 0.17339256 0.091629624 0.06093064 0.3178502 0.054291256 0.09739292
0.07655703 0.09076554 0.13031763 0.08928278 0.09347017 0.06023269 0.06341016 0.14497653
0.090713575 0.05437258 0.07961439 0.10159566 0.052217912 0.069007054 0.08655462 0.16704449
0.37161675 0.120140225 0.071225666 0.047761325 0.087801725 0.056421336 0.09457395 0.22804545
0.062091757 0.051867273 0.052939534 0.065938465 0.16820239 0.084405415 0.08703853 0.100514576
0.04967666 0.13511054 0.08809118 0.31206596 0.10445822 0.09124099 0.08819712 0.114896856
0.117382154 0.07147036 0.110106945 0.15864162 0.16015336 0.06591177 0.10708838 0.07819029

body.block2.conv.weight f4 [64, 64, 3, 3]
00000000: deb3 b9bc 18b7 a13c 7f5b 373d b0b4 2a3b
00000010: 3ba5 cf3c af57 b1bc cf61 b3bc 52c1 ad3c
00000020: 853c 37bd b934 133b f098 9f3c 94c3 8a3c
00000030: c65f 3abd c5b0 2dbd 4ad7 9c3c 37be fabc
00000040: 1d40 6d3c 1d4f 6b3d 8605 e6bc 8189 153d
00000050: 4f12 e13c a3db fdbc a71c d1bc 609f 78ba
00000060: 75ab 3dbd 1ba9 3fbc 0de5 183d fcc1 01bd
00000070: 50b4 d53b b10b 4e3d 7a25 6e3c a268 203d
00000080: a083 d6bc 2c6c d5bc 06c0 ccbc 9bc8 103d
00000090: ad3f 36bd d902 873c 710d 4fbc 84a6 6bbd
000000a0: bc10 673c abd8 3c3c 1c5a fa38 2d87 17bd
000000b0: 3e1a d8bc 76c1 183d d156 15bc 43cf 8f3c
000000c0: d1e6 183c c8d2 cfba 775f af3c 54b4 5bbd
000000d0: 0637 b5bd 1d6b 7ebd 9b9a 1f3d be4c 863c
000000e0: 95fd cbbc ea7d 89bd e04f a2bd 66cc 4fbd
000000f0: 5004 39bd 2fdc 453d d5d9 b23c d35d 89bd
00000100: cb9f c13c 8559 27bc 875f 803d ea4c 9fbc
00000110: 753b debc 5a2e 80ba aaaa 133d 3c08 883d
00000120: f5ae 29bd b638 b23c f58c eabc 9b16 e93b
00000130: f929 d4b9 924f 873b e9b3 dd3c 5048 2c3d
00000140: 2007 8a3c 57b1 173d fa93 283c e2f4 04bc
00000150: af27 cdbc b886 f3bc 7c29 08bd 2a4f 76bc
00000160: 7759 d43c ecd9 86bb 317e bbbc 7f18 603d
00000170: 8cc3 1c3c 7d1f aebc a1e0 60bc 1575 1dbd
00000180: 66c0 11bd 91ea 8a3d d785 e73c 8e75 17bc
00000190: 659e 17bc 4368 8bbd ee94 2e3d ee26 013c
000001a0: 9436 183a 2e7e a5bd 2ed5 f43c 57ab e3bc
000001b0: d31c b63d 0bd3 93bc 29e4 6ebd aff3 153d
000001c0: 0038 37bd b273 4ebd f477 ccbc 427a 773c
000001d0: dfd4 f73c 12aa bd3a 8f01 1dbd fff1 ccbc
000001e0: 6ede 4d3c 7568 ebba 980b f2bc 644e 10bd
000001f0: 3ebb 903c 5f0f c6bc f9c6 65bc 2461 cf3c
00000200: b07f bdbc 6a90 8f3c 0081 7cbb b24a ddbc
00000210: 02cd aabc d53a 323c 532c 1d3a 6deb 103c
00000220: a7d4 67bd 20b7 b2bd 2205 7d3c 0226 3f3d
00000230: 008e a9bc 558d c7bc 653b 74bc 3d72 6bbd
00000240: fac4 6c3d 9729 283d 42d9 0bbd 9ce7 5cbc
00000250: bfd5 03bd 5582 e1bc fa19 bd3c 5fa1 ec3c
00000260: ec62 66bd 7bad 20bc c951 a7bc 9705 c9bb
00000270: 9dcd 2abb f9b4 23bc bb14 29bb 6657 a3bd
00000280: 6f71 4bbd 7fcb 17bd 1e18 48bd 5765 9fbc
00000290: beed b1bc 4527 993c 7a08 f0bc d87a dc3c
000002a0: 00c7 663d 9394 043d 0331 c03c 57b2 8bbd
000002b0: cbf9 02bd feba bcbc adb7 083b 8144 533c
000002c0: 3195 aabc e3ac cebd 68e4 bcbc baf0 8c3c
000002d0: d876 313d 11cf b93b 9f9b b63b 80ee 333d
000002e0: 74a0 7b3a fe22 eebc f716 50bd 7489 f73b
000002f0: 9e40 a13c edb0 483d fd9f 80bd 80fa 473d
00000300: d501 9d3c a30e d5bd 0b0d 763a fdfb 443d
00000310: 7925 273d fa85 dcbb 61b9 afbd 3b8c 583d
00000320: 5809 febc 8a39 e23c 6f00 a13c c190 463c
00000330: d590 643d bae6 46bc 29c5 343d 6bb5 423d
00000340: f6e7 32bb 2159 e6bc 3a8e dabc 8c14 773d
00000350: 1275 303c bc59 f53b e2a5 9c3c 74e3 c7bb
00000360: 8e74 2dbc a670 653d 1f86 afbc f86d 3a3d
00000370: 535e cbbc 32a2 2e3d 158a 833c 0acc 89bc
00000380: a3c9 cdbc 5cfd 21bd 4f9e b13c a6c9 6c3d
00000390: 31cd ddbc 197f 92bc ac38 78bb 94c4 07bb
000003a0: 30f3 fe3b 6020 013d e0c0 a83c ec89 09bc
000003b0: ed1e a83d f6b2 aabc 0934 8dbc 6c9a 7bbb
000003c0: 4dec 38bb c2eb 353d 9fb9 1ebd e524 51bc
000003d0: 4107 22bb 055b 3cbd d978 3f3d 6d38 9a3c
000003e0: b840 ad3c 0a23 efbb a08b 6f3b 41d7 13bd
000003f0: b468 023d a365 acbc eae2 5a3d ba77 103d
-0.022668775 0.019740626 0.04476499 0.002604764 0.025347343 -0.021648256 -0.021897225 0.021210346
-0.04473545 0.0022461845 0.019482106 0.016938962 -0.045501493 -0.04240491 0.019145627 -0.03060828
0.014480618 0.057448495 -0.028078806 0.036508087 0.02747455 -0.03098852 -0.025526358 -0.0009484198
-0.046306092 -0.011698033 0.037327815 -0.03167914 0.006521739 0.05030412 0.014535302 0.039162286
-0.02618581 -0.026052557 -0.024993908 0.035347562 -0.04449432 0.01648085 -0.012637482 -0.05753185
0.014103111 0.011526267 0.00011937713 -0.036994148 -0.0263797 0.037293874 -0.009114937 0.017554885
0.009332375 -0.0015855664 0.021407826 -0.05363877 -0.088483855 -0.06211387 0.038965803 0.016394015
-0.02490119 -0.06713469 -0.07925391 -0.05073204 -0.04517013 0.048305687 0.021832386 -0.06707349
0.023635766 -0.010214214 0.062682204 -0.019445855 -0.02712796 -0.0009779439 0.03605143 0.066421956
-0.041426618 0.021755558 -0.028631667 0.0071132905 -0.00040467063 0.0041293586 0.027063327 0.04206115
0.0168491 0.03703436 0.010289187 -0.008115025 -0.025043337 -0.029727325 -0.033242688 -0.015033523
0.025921566 -0.004115334 -0.022887321 0.05471086 0.009568106 -0.02125525 -0.013725431 -0.038441736
-0.035583876 0.06783021 0.028262062 -0.009244336 -0.009254073 -0.06806996 0.0426225 0.007882817
0.00058064726 -0.080807075 0.029886808 -0.027791662 0.088922165 -0.018044969 -0.05832306 0.036609348
-0.04473114 -0.050403304 -0.024959542 0.015104832 0.030252872 0.001447024 -0.038331565 -0.025017736
0.012565238 -0.0017960208 -0.029546544 -0.03523101 0.017667409 -0.024177251 -0.01402449 0.025314875
-0.023132175 0.017524917 -0.0038529038 -0.027013157 -0.020849708 0.010878284 0.00059956795 0.008845192
-0.056599285 -0.087263346 0.015443118 0.046667106 -0.020697594 -0.024359385 -0.014906739 -0.057481993
0.05780504 0.04105529 -0.03414274 -0.013482954 -0.032186266 -0.027527967 0.023083676 0.028885541
-0.056246683 -0.009806986 -0.02042474 -0.0061346996 -0.0026062496 -0.009991878 -0.002579971 -0.07975654
-0.049668726 -0.037059303 -0.048851125 -0.019457502 -0.02171981 0.018695483 -0.029300917 0.026914045
0.056342125 0.032368254 0.02346087 -0.06821125 -0.031976502 -0.023038384 0.0020861432 0.012894751
-0.020823093 -0.10091569 -0.023058131 0.017204631 0.04332623 0.005670436 0.0055727507 0.043928623
0.00095987995 -0.02906942 -0.05080315 0.0075542275 0.019684132 0.048996855 -0.06280515 0.04882288
0.019165913 -0.10403182 0.0009386099 0.048091877 0.04080722 -0.0067298384 -0.0858028 0.05286811
-0.031010315 0.027615327 0.019653527 0.012119473 0.055802185 -0.01213997 0.04413334 0.047536295
-0.0027298904 -0.028118672 -0.026679147 0.06032233 0.010770099 0.007487504 0.019122068 -0.0061001126
-0.010586871 0.056015633 -0.021426259 0.04551503 -0.02482525 0.04263515 0.016057054 -0.016820926
-0.025120562 -0.039548263 0.021681933 0.057809494 -0.027075382 -0.01788287 -0.0037875576 -0.0020716535
0.007780455 0.031525016 0.020599782 -0.0083947 0.082090236 -0.020837288 -0.017236726 -0.0038391603
-0.0028217018 0.04441429 -0.03875124 -0.012765144 -0.0024723562 -0.04598524 0.04674611 0.018825734
0.021149024 -0.007297878 0.003655173 -0.036093954 0.031838134 -0.021044558 0.05343906 0.03527043

body.block2.conv.bias f4 [64]
00000000: 94bf b73b 7011 06bd e386 813c 16c3 ef3c
00000010: ec45 b83c a941 c3bb 9642 e03c cc8e 2fbc
00000020: 72be 8f3c 957b d63b 8c69 0bbd 3dbb f93c
00000030: 8265 813b 4594 04bd 29cd fdbc 8280 883c
00000040: f767 6dbc ea3e ca3c f327 183d 1e79 11bd
00000050: 0e3a 17bd 64be cd3b ce09 15bd 2933 01bd
00000060: aaec f8bc 0e7a babc 6d18 6a3c 5732 50bc
00000070: 902d f6bc b771 ad3c 107c 3bbb 9548 473a
00000080: 0c06 b43c ccf9 17bd 3d37 e6bc 9851 963c
00000090: 94dc 103d 03bc 0b3d c76c b93c 9596 653c
000000a0: 2694 b3bc 529d 12bd 50af 2a3d 726f 9e3b
000000b0: ea63 013d 9c56 01bd 3fee ccbc a399 ecbc
000000c0: 98dc ff3c 0d50 133d e03f 1e3c 004a 0e3d
000000d0: 87e7 e939 60e4 553c 0174 1a3d 793c 153c
000000e0: d816 f33c e018 c63c 30a1 8a3c 8b1c 943c
000000f0: bb84 96bc 0113 103d 0f2a 593b d844 f23b
0.0056075547 -0.032731473 0.01581139 0.029267829 0.022494279 -0.005958755 0.0273755 -0.010715198
0.017546866 0.006545494 -0.034036204 0.03048479 0.0039488683 -0.032367963 -0.030981617 0.01666284
-0.014490119 0.024688203 0.037147474 -0.035515897 -0.0369206 0.0062788 -0.036386304 -0.03154293
-0.030386288 -0.022763278 0.01428805 -0.012707314 -0.030051023 0.021172388 -0.0028607883 0.0007602063
0.02197554 -0.03710346 -0.028102512 0.018349454 0.03536661 0.03411485 0.022634877 0.014012952
-0.021921229 -0.035794564 0.041671097 0.0048350627 0.031589426 -0.031576738 -0.025015948 -0.028881853
0.031233117 0.035965014 0.009658784 0.03473854 0.00044613724 0.013054937 0.037708286 0.009108656
0.029673979 0.024181783 0.016922563 0.018080017 -0.018373838 0.035174374 0.003313664 0.0073934607
