TrainedModels/smk1/scale_factor=0.750000,alpha=10/1/netD.pth (torch, 127051 bytes, 25 tensors)

head.conv.weight f4 [32, 3, 3, 3]
-0.028531197 0.010367283 0.10519934 0.019108197 0.022105234 0.02167787 0.0050673173 -0.045434088
-0.15415893 0.025401765 -0.034957897 -0.0073780213 -0.0028255137 0.020467926 0.023941996 0.020613987
-0.018897917 -0.028223831 -0.0292285 0.034616936 0.053389717 0.0012417347 0.005787091 0.00354214
0.0040834616 -0.0019815932 -0.08012532 0.011158308 0.00356455 -0.00892656 -0.033533104 0.007828962
-0.021955175 -0.005476657 0.07237677 0.05889931 -0.023015395 -0.046377584 -0.04515827 -0.0066001113
-0.034378618 -0.036516145 -0.0048202765 -0.015718235 -0.034545574 0.031810287 0.05128119 0.044158973
0.01559686 -0.000948041 -0.00904314 -0.007633243 0.02772189 0.057960887 -0.0560495 0.037507202
-0.084124476 -0.089891545 -0.019182773 0.044392005 -0.05783635 0.012473355 0.06754986 0.05213554
0.028923282 -0.004561515 -0.04636478 -0.005690189 0.053351738 -0.074476786 0.04045085 0.10178823
-0.048372705 0.0069011915 -0.0806487 -0.1035529 0.00733697 -0.0225088 0.022560397 -0.021286892
-0.013188525 0.104977734 0.046947118 0.05172203 -0.066993095 -0.06154143 -0.018680166 0.03435834
0.011152928 -0.036016792 -0.022150101 0.024715615 0.026951417 -0.03828893 -0.034451716 0.051509637
0.06145431 -0.03152224 0.0037354515 0.004313514 0.035582185 0.02716979 -0.09880387 -0.007277425
-0.019684605 -0.008284971 -0.024485886 -0.01963726 -0.07039258 0.040735833 -0.0059033427 -0.033211846
0.0155398855 0.026298312 -0.1352618 0.009176585 0.019493667 -0.10523351 0.04620063 0.06662408
-0.027788578 0.059608977 0.030694915 -0.07654442 0.008759522 0.042238176 0.010774448 0.0091613
-0.023822136 -0.028103448 0.010186328 -0.026449593 -0.0012964644 -0.014110831 -0.001765154 0.089411266
-0.002419752 -0.07870223 -0.009398128 0.05996699 0.014986893 -0.054135736 0.004763869 0.1351906
0.08045373 0.017972905 -0.015997497 0.022965688 0.03866217 -0.000349332 -0.009908281 -0.03178862
0.103615366 0.009330328 0.008408573 -0.017622486 -0.009378978 -0.017446186 -0.023931677 -0.03233227
0.021462677 0.02712341 0.012803985 0.019847093 0.019486055 0.10774337 0.031886514 0.09220964
0.04454381 -0.025662338 0.1305741 0.0075238873 0.06499292 0.0464074 0.03173329 0.020352595
0.026405443 -0.013372089 0.007009009 0.092815556 -0.01170191 -0.041068785 -0.04014871 0.067502424
0.031729255 0.0341729 0.03138035 -0.0012755682 0.020793593 -0.028968275 0.03681075 -0.014905972
-0.025966454 0.028024286 0.034731947 -0.12005372 -0.07679146 0.035009667 -0.029297817 0.010818277
0.008486768 -0.010933863 -0.0013684268 0.09657161 0.11138321 -0.085862614 0.056867406 0.021336215
-0.040593423 -0.0507998 0.037654944 -0.004456178 -0.0043070964 -0.06683761 0.00015048253 -0.056913417
0.08278932 -0.002479797 -0.16333127 -0.004381569 -0.03226254 0.003416773 -0.057811487 -0.025496494
0.09471166 -0.03746325 0.0031533027 -0.050158277 -0.032488864 -0.023981407 -0.024485415 0.03042669
-0.001756825 -0.015910864 0.049211655 0.018424712 -0.04153373 -0.020693362 0.00041126294 0.022272216
-0.041386697 -0.011438983 0.030013004 0.10077165 0.012703641 -0.033126954 -0.013203921 -0.09918845
-0.020328103 0.070530064 0.012582556 0.066728085 -0.014683206 0.05020162 0.043509126 0.021569543
00000000: 42ba e9bc 89db 293c c072 d73d cb88 9c3c
00000010: 0916 b53c ca95 b13c bd0b a63b 1819 3abd
00000020: d7db 1dbe 5d17 d03c 0330 0fbd 54c3 f1bb
00000030: 412c 39bb 5aac a73c 0122 c43c aade a83c
00000040: cecf 9abc aa35 e7bc 9b70 efbc 7dca 0d3d
00000050: 2daf 5a3d b4c1 a23a a3a1 bd3b 3f23 683b
00000060: 8fce 853b 9edd 01bb be18 a4bd 56d1 363c
00000070: 3a9b 693b b540 12bc 025a 09bd 0c45 003c
00000080: 57db b3bc 8775 b3bb 463a 943d 6740 713d
00000090: c88a bcbc 6cf6 3dbd e1f7 38bd bf45 d8bb
000000a0: 98d0 0cbd f491 15bd 69f3 9dbb 87c3 80bc
000000b0: a97f 0dbd 814b 023d 3a0c 523d 0ae0 343d
000000c0: f989 7f3c f485 78ba ae29 14bc 4920 fabb
000000d0: 0419 e33c 6568 6d3d 2994 65bd 27a1 193d
000000e0: 7449 acbd 0f19 b8bd 3125 9dbc 64d4 353d
000000f0: cfe5 6cbd 0b5d 4c3c 9557 8a3d 138c 553d
00000100: 85f0 ec3c c378 95bb ffe8 3dbd c474 babb
00000110: 5a87 5a3d 4987 98bd caaf 253d 5976 d03d
00000120: 7522 46bd 6423 e23b 252b a5bd 8b13 d4bd
00000130: f76a f03b 6064 b8bc 95d0 b83c d961 aebc
00000140: af14 58bc 91fe d63d 9f4b 403d 7bda 533d
00000150: ad33 89bd de12 7cbd 2607 99bc 55bb 0c3d
00000160: c5ba 363c 5886 13bd 2174 b5bc 6778 ca3c
00000170: 38c9 dc3c dad4 1cbd 3e1d 0dbd c5fb 523d
00000180: 84b7 7b3d 771d 01bd 7ace 743b 6158 8d3b
00000190: a0be 113d 2e93 de3c af59 cabd 7777 eebb
000001a0: 9c41 a1bc b0bd 07bc a096 c8bc 52de a0bc
000001b0: fc29 90bd 9eda 263d d470 c1bb 2509 08bd
000001c0: 019b 7e3c 8f6f d73c 1282 0abe 6359 163c
000001d0: 2fb1 9f3c ab84 d7bd df3c 3d3d 3572 883d
000001e0: dfa4 e3bc 8b28 743d e773 fb3c 52c3 9cbd
000001f0: 1984 0f3c f001 2d3d 4f87 303c 4719 163c
00000200: a426 c3bc 3439 e6bc 8ee4 263c d1ac d8bc
00000210: 20ee a9ba 1d31 67bc bd5c e7ba 411d b73d
00000220: b494 1ebb a22e a1bd 9bfa 19bc f29f 753d
00000230: 968b 753c 6fbd 5dbd 3b1a 9c3b 686f 0a3e
00000240: edc4 a43d ea3b 933c 2f0d 83bc 8a22 bc3c
00000250: 395c 1e3d 8c26 b7b9 5856 22bc c934 02bd
00000260: 4b34 d43d 3bde 183c 1dc4 093c 085d 90bc
00000270: 49aa 19bc 4eeb 8ebc 5d0c c4bc d86e 04bd
00000280: 7fd2 af3c ea31 de3c cec7 513c 5f96 a23c
00000290: 38a1 9f3c 8ea8 dc3d 6f9b 023d 68d8 bc3d
000002a0: 9273 363d d339 d2bc 38b5 053e f18a f63b
000002b0: 021b 853d b015 3e3d c4fa 013d 7cba a63c
000002c0: 3a50 d83c 9b16 5bbc d4ab e53b 1516 be3d
000002d0: 5eb9 3fbc be37 28bd f972 24bd b63e 8a3d
000002e0: 89f6 013d e2f8 0b3d af88 003d f730 a7ba
000002f0: 5357 aa3c e04e edbc dec6 163d 2e38 74bc
00000300: 9ab7 d4bc 3093 e53c 1643 0e3d bade f5bd
00000310: d744 9dbd 4c66 0f3d fa01 f0bc 243f 313c
00000320: 160c 0b3c f223 33bc c95c b3ba 56c7 c53d
00000330: e11c e43d bdd8 afbd cced 683d 49c9 ae3c
00000340: 4a45 26bd 7313 50bd 123c 1a3d 2105 92bb
00000350: 8b22 8dbb 28e2 88bd d9ca 1d39 0b1e 69bd
00000360: 728d a93d 1784 22bb 5040 27be 4493 8fbb
00000370: ba25 04bd f0eb 5f3b bdcb 6cbd 06de d0bc
00000380: 30f8 c13d 1173 19bd a4a7 4e3b c472 4dbd
00000390: 0b13 05bd a874 c4bc a395 c8bc 6541 f93c
000003a0: 4445 e6ba 8057 82bc 2992 493d 6cef 963c
000003b0: 461f 2abd 2085 a9bc c79e d739 3974 b63c
000003c0: 1985 29bd 926a 3bbc d5dd f53c 5e61 ce3d
000003d0: ef22 503c 21b0 07bd 4255 58bc 5023 cbbd
000003e0: 1f87 a6bc 1172 903d 1127 4e3c bca8 883d
000003f0: d491 70bc 37a0 4d3d a036 323d 9cb2 b03c

head.conv.bias f4 [32]
-0.084944844 -0.07208553 0.7873001 0.14991023 -0.06422604 0.04319605 0.10045185 -0.29149702
-0.11063541 0.041469894 -0.32920372 0.016395122 -0.15060514 -0.10968435 -0.057133652 -0.043042336
-0.6793754 0.20672914 -0.028836975 -0.71855325 -0.024513552 -0.619626 0.5760545 -0.09079003
0.023338335 -0.09497135 0.02358833 0.050450027 -0.7655864 0.2011533 -0.14573002 -0.05704256
00000000: 90f7 adbd 94a1 93bd 808c 493f 1182 193e
00000010: f188 83bd 57ee 303d b3b9 cd3d 193f 95be
00000020: d194 e2bd 56dc 293d 648d a8be 104f 863c
00000030: 3c38 1abe 30a2 e0bd fa04 6abd 294d 30bd
00000040: 8ceb 2dbf ceb0 533e 853b ecbc 1bf3 37bf
00000050: a5d0 c8bc cf9f 1ebf 4f78 133f 20f0 b9bd
00000060: 0930 bf3c 5780 c2bd 503c c13c b0a4 4e3d
00000070: 78fd 43bf 21fb 4d3e 403a 15be 76a5 69bd

head.norm.weight f4 [32]
0.991742 1.0370325 0.9196197 0.8537916 0.8232106 0.9114073 0.90974844 0.91899335
1.01288 0.7941515 0.7023761 0.9786492 0.8289732 0.83666104 1.0465316 0.8142942
0.9597839 1.0146706 0.89816093 0.9628583 0.99903065 0.9063868 0.8334439 0.9807063
0.9645159 0.6978894 1.0182102 0.8038151 0.97011316 0.8788909 0.9506056 1.0543268
00000000: cee2 7d3f 7bbd 843f 326c 6b3f 1692 5a3f
00000010: eebd 523f fd51 693f 46e5 683f 2643 6b3f
00000020: 0da6 813f 834d 4b3f ecce 333f c188 7a3f
00000030: 9637 543f 6b2f 563f bff4 853f 9675 503f
00000040: 66b4 753f bae0 813f e0ed 653f e27d 763f
00000050: 79c0 7f3f f708 683f 945c 553f 910f 7b3f
00000060: 84ea 763f e1a8 323f b654 823f d4c6 4d3f
00000070: 5659 783f fefe 603f e35a 733f 2ef4 863f

head.norm.bias f4 [32]
0.35908768 0.53661984 0.10319771 0.25136015 0.5683932 0.6866538 0.51246965 0.42617854
0.48167977 0.9576804 0.2680105 0.5191312 0.7600725 0.6373336 0.53445935 0.74856615
0.32679313 0.3255577 0.425442 0.3736183 0.6003569 -0.034648053 0.5392266 0.85062534
0.64380234 0.6128771 0.44442028 0.7152177 -0.06997079 0.3582394 0.36711517 0.4422503
00000000: 57da b73e eb5f 093f 5259 d33d 47b2 803e
00000010: 3782 113f 8bc8 2f3f 3631 033f 1334 da3e
00000020: bb9e f63e 8b2a 753f ac38 893e c8e5 043f
00000030: 1d94 423f 4b28 233f 54d2 083f 08a2 3f3f
00000040: 6e51 a73e 80af a63e 89d3 d93e e64a bf3e
00000050: fdb0 193f 1eeb 0dbd c10a 0a3f 95c2 593f
00000060: 3bd0 243f 83e5 1c3f 0e8b e33e 8218 373f
00000070: d84c 8fbd 286b b73e 85f6 bb3e a26e e23e

head.norm.running_mean f4 [32]
-0.07286679 -0.15901378 0.912976 0.1835165 -0.015222266 0.009620374 -0.047529265 -0.20813614
-0.078563735 0.031332925 -0.28900844 0.0054488275 -0.1362748 -0.05928718 -0.028629055 -0.043690827
-0.54816127 0.22821793 -0.04467666 -0.654065 -0.0031831139 -0.52969146 0.5790816 -0.20416065
-0.023234352 -0.06313973 -0.016945334 0.00070860743 -0.6833597 0.25602192 -0.1151917 -0.1542534
00000000: 2f3b 95bd 82d4 22be ccb8 693f c0eb 3b3e
00000010: d066 79bc c69e 1d3c 0cae 42bd a421 55be
00000020: 06e6 a0bd f456 003d eaf8 93be 148c b23b
00000030: 9f8b 0bbe 1dd7 72bd 7b87 eabc 27f5 32bd
00000040: 4c54 0cbf f6b1 693e e0fe 36bd ce70 27bf
00000050: ca9b 50bb dc99 07bf b13e 143f 7d0f 51be
00000060: f855 bebc 674f 81bd f1d0 8abc d7c1 393a
00000070: a9f0 2ebf 4e15 833e a0e9 ebbd 9af4 1dbe

head.norm.running_var f4 [32]
0.00545195 0.005955181 0.010925493 0.0033542751 0.0055566113 0.0032482576 0.00958706 0.006644748
0.002826028 0.0034824517 0.0015645039 0.007004975 0.0055989567 0.0034036445 0.0052086543 0.0027066676
0.0118185645 0.0068898695 0.0034459615 0.0077936947 0.00035372988 0.010557535 0.0052547157 0.008427742
0.0017891391 0.004065194 0.0038681568 0.006319759 0.009770914 0.0045794044 0.0029046002 0.009164274
00000000: 45a6 b23b ae23 c33b d700 333c 66d3 5b3b
00000010: 3c14 b63b b8e0 543b 0b13 1d3c 30bc d93b
00000020: e234 393b d839 643b 0a10 cd3a fd89 e53b
00000030: 7477 b73b ae0f 5f3b 5cad aa3b 5962 313b
00000040: a7a2 413c 6ac4 e13b a4d5 613b 4062 ff3b
00000050: d274 b939 83f9 2c3c c02f ac3b 8314 0a3c
00000060: 8c81 ea3a 5235 853b e780 7d3b fb15 cf3b
00000070: 2f16 203c d40e 963b 1b5b 3e3b c025 163c

body.block1.conv.weight f4 [32, 32, 3, 3]
0.02218279 -0.001749193 -0.0002688264 0.027684791 -0.025116568 0.004410601 0.04762329 0.055757422
-0.16205403 -0.04875098 -0.044746097 0.037818678 0.009940156 0.02935395 0.06398881 -0.0690054
-0.08628079 0.05650692 0.0102068735 -0.015367527 -0.021102577 0.050389018 0.02810718 0.04930547
0.07714476 -0.039854266 -0.044782393 -0.0069993143 0.073644124 0.106794484 -0.0018161479 0.008889756
-0.047755487 0.031351082 -0.006767735 -0.04639464 -0.052582216 -0.075250655 0.032375723 -0.071163334
-0.00043596243 -0.05795699 -0.032586783 0.02415383 -0.059733093 -0.037808854 -0.101219796 -0.13043502
-0.080190495 -0.046516363 0.0927412 0.037600175 -0.06863642 0.0748355 0.025692757 0.012189904
-0.021557014 -0.01937568 -0.028032526 -0.03412286 -0.06271023 -0.05425686 0.03290533 -0.04718845
-0.06761313 -0.051731404 0.01158295 -0.018046727 0.017897516 -0.032862585 0.046445806 -0.09609528
0.04237027 -0.018253224 -0.08325146 -0.027819585 -0.060215652 0.0022504963 -0.11901473 -0.027620392
-0.035975207 0.007282366 0.02230492 0.09250796 0.022560902 -0.016018288 0.09441071 -0.11553249
-0.016548455 0.09623976 0.024367234 0.053953893 0.013257438 0.029773155 -0.023605656 -0.0015408697
-0.0007491719 -0.044261135 0.07861155 -0.011285415 -0.020588992 0.01399208 -0.0073745563 -0.037984826
0.03021971 0.018711613 -0.06547161 0.0017683014 -0.06021162 -0.11189988 -0.005714326 -0.040200174
-0.013000325 0.0341772 -0.10736837 0.00461758 0.020972317 0.0025757223 -0.0003742627 0.001914576
-0.023007689 0.0420801 0.06581803 -0.1480258 0.009599504 0.08788403 -0.02813551 0.002889224
-0.050075617 0.115743406 0.03253316 -0.0831412 0.026194043 0.024273474 -0.08318926 0.034116197
0.05521051 -0.007267373 -0.054330576 0.026581747 0.02353451 -0.105365455 0.014643432 -0.019632634
0.08411937 0.069107585 0.072014935 0.003358718 -0.0026468814 -0.027647087 0.019872138 -0.038248777
-0.1866566 -0.049760155 -0.015062592 0.06646121 -0.05383082 0.0026601988 0.078051776 0.023096528
0.06974521 0.008567423 0.05896096 -0.008780663 -0.0063603134 0.025130179 -0.10247921 -0.026575895
-0.05230366 0.02842094 0.064181834 0.02069024 -0.0013831239 0.031400792 -0.02342216 0.011864358
0.05730344 0.032535926 0.045369808 0.039114293 -0.04763982 -0.052057594 0.012289944 -0.0835159
-0.08406699 -0.080455326 -0.062877856 -0.051307674 -0.08514724 0.0138550205 0.025048167 0.06619244
0.014039156 0.00414436 0.047111623 0.024869097 0.02482852 -0.043243326 0.043655172 0.05695341
-0.015237647 -0.012923067 0.035904046 -0.022549003 0.010307072 0.0727811 0.049041364 -0.015692089
0.04000756 0.07795171 0.008403012 -0.0018169563 0.11363477 -0.019872796 -0.074191354 0.016119964
0.0445785 0.013386807 -0.03856472 0.038864713 0.022320539 0.06101824 0.013240747 -0.044221714
0.05523617 -0.06352744 0.028769573 0.0678091 0.0018109547 0.033634715 -0.0019880135 0.056915626
0.024052555 -0.069142364 0.08935179 -0.009916435 -0.011007302 -0.09019002 0.01366836 -0.025267145
0.008693014 0.012386519 0.01912392 0.014345932 -0.09093416 0.028991446 0.021605656 -0.03095176
0.08349826 -0.07579073 -0.038904395 0.11851653 0.036669876 -0.052206192 -0.030217031 0.07560799
00000000: afb8 b53c 2d45 e5ba 45f1 8cb9 37cb e23c
00000010: 43c1 cdbc ce86 903b a410 433d e561 643d
00000020: 7ef1 25be 1caf 47bd af47 37bd c2e7 1a3d
00000030: 09dc 223c b277 f03c 910c 833d b452 8dbd
00000040: fcb3 b0bd cd73 673d bb3a 273c 14c8 7bbc
00000050: 50df acbc b764 4e3d 0741 e63c 88f4 493d
00000060: 12fe 9d3d 3a3e 23bd be6d 37bd 815a e5bb
00000070: bbd2 963d 11b7 da3d d00b eeba 57a6 113c
00000080: 429b 43bd fe69 003d e0c3 ddbb 4e08 3ebd
00000090: 7360 57bd 041d 9abd 689c 043d 15be 91bd
000000a0: e391 e4b9 4f64 6dbd b879 05bd 41de c53c
000000b0: b0aa 74bd 75dd 1abd 534c cfbd c290 05be
000000c0: ea3a a4bd f187 3ebd 19ef bd3d a402 1a3d
000000d0: 4091 8cbd 5b43 993d 9e79 d23c 2ab8 473c
000000e0: 5698 b0bc bfb9 9ebc 78a4 e5bc 69c4 0bbd
000000f0: 396e 80bd 713c 5ebd bdc7 063d ad48 41bd
00000100: c178 8abd 4fe4 53bd 6ac6 3d3c bbd6 93bc
00000110: d09d 923c eb9a 06bd f53d 3e3d 9acd c4bd
00000120: 738c 2d3d c987 95bc be7f aabd e6e5 e3bc
00000130: b0a4 76bd 107d 133b ffbd f3bd 2944 e2bc
00000140: bd5a 13bd eaa0 ee3b cfb8 b63c d074 bd3d
00000150: a4d1 b83c c938 83bc 675a c13d 4c9c ecbd
00000160: a090 87bc 5a19 c53d cb9d c73c c2fe 5c3d
00000170: ba35 593c d5e6 f33c a660 c1bc 02f7 c9ba
00000180: 1364 44ba 2a4b 35bd 18ff a03d 76e6 38bc
00000190: 3faa a8bc 0a3f 653c 43a6 f1bb fa95 1bbd
000001a0: 538f f73c 1949 993c fb15 86bd 59c6 e73a
000001b0: 76a0 76bd c42b e5bd 3e3f bbbb f0a8 24bd
000001c0: 51ff 54bc 64fd 0b3d f3e3 dbbd 124f 973b
000001d0: 23ce ab3c 73cd 283b b038 c4b9 83f2 fa3a
000001e0: 9f7a bcbc 2f5c 2c3d 9acb 863d 1394 17be
000001f0: 3d47 1d3c 8bfc b33d 717c e6bc 2359 3d3b
00000200: 171c 4dbd e10a ed3d 7e41 053d ef45 aabd
00000210: e494 d63c 2ad9 c63c 215f aabd 6dbd 0b3d
00000220: 6a24 623d 2523 eebb bd89 5ebd f7c1 d93c
00000230: 72cb c03c d8c9 d7bd 01eb 6f3c 9ed4 a0bc
00000240: c746 ac3d 4788 8d3d 917c 933d f01d 5c3b
00000250: 4d77 2dbb 257c e2bc e5ca a23c c0aa 1cbd
00000260: e822 3fbe 4ed1 4bbd 17c9 76bc d11c 883d
00000270: b57d 5cbd bb56 2e3b 9cd9 9f3d ee34 bd3c
00000280: 94d6 8e3d 605e 0c3c 0c81 713d c5dc 0fbc
00000290: 2d6a d0bb cedd cd3c 9fe0 d1bd b1b5 d9bc
000002a0: 5d3c 56bd 08d3 e83c c471 833d 947e a93c
000002b0: f049 b5ba 1e9e 003d d4df bfbc b962 423c
000002c0: 03b7 6a3d 6444 053d b1d5 393d 4f36 203d
000002d0: f921 43bd 583a 55bd c35b 493c 620a abbd
000002e0: 502b acbd c3c5 a4bd 1bc6 80bd ff27 52bd
000002f0: ad61 aebd 2b00 633c d031 cd3c e78f 873d
00000300: 7d04 663c 69cd 873b 1ef8 403d 47ba cb3c
00000310: 2e65 cb3c ea1f 31bd c4cf 323d fb47 693d
00000320: 53a7 79bc 46bb 53bc 1f10 133d b0b8 b8bc
00000330: fede 283c 420e 953d 99df 483d b28c 80bc
00000340: f8de 233d 25a5 9f3d c9ac 093c f026 eeba
00000350: 59b9 e83d 46cc a2bc a3f1 97bd 040e 843c
00000360: f297 363d 5754 5b3c 0af6 1dbd 9b30 1f3d
00000370: 90d9 b63c 43ee 793d b8ef 583c d421 35bd
00000380: 523f 623d ad1a 82bd 2bae eb3c 7fdf 8a3d
00000390: 8e5d ed3a 8ec4 093d 5549 02bb 5c20 693d
000003a0: dd09 c53c 839a 8dbd 12fe b63d 8b78 22bc
000003b0: f957 34bc 8cb5 b8bd 42f1 5f3c 0bfd cebc
000003c0: 256d 0e3c d4f0 4a3c c4a9 9c3c 330b 6b3c
000003d0: b03b babd 787f ed3c 58fe b03c 8c8e fdbc
000003e0: 2301 ab3d 2c38 9bbd 375a 1fbd cbb8 f23d
000003f0: 2733 163d 29d6 55bd b589 f7bc 5dd8 9a3d

body.block1.conv.bias f4 [32]
-0.05266808 -0.074804366 -0.05187612 -0.09385315 -0.054121837 -0.031940587 0.044809267 -0.048879255
0.032664094 -0.020568447 -0.055210497 -0.026015483 0.055412743 0.06173361 0.029737536 0.03810284
0.013654706 -0.055601873 -0.0029757437 0.013050107 -0.039478917 0.029295335 -0.04680829 -0.023474904
-0.037481323 -0.04090101 0.009971448 -0.06381444 0.008135681 0.0075815916 -0.07241809 -0.0041630724
00000000: 7cba 57bd 0833 99bd 0e7c 54bd 1536 c0bd
00000010: dcae 5dbd 22d4 02bd ec89 373d 9d35 48bd
00000020: c9ca 053d 297f a8bc 6724 62bd 6c1e d5bc
00000030: 79f8 623d 62dc 7c3d 229c f33c b911 1c3d
00000040: fdb7 5f3c cabe 63bd b204 43bb 1ed0 553c
00000050: a5b4 21bd c5fc ef3c 0dba 3fbd 714e c0bc
00000060: 0486 19bd d187 27bd 495f 233c 25b1 82bd
00000070: 854b 053c 006f f83b f04f 94bd 626a 88bb

body.block1.norm.weight f4 [32]
0.8984934 0.84032106 0.8223842 0.77620935 1.0313983 0.8582696 0.9545075 1.080985
1.0162234 0.84403974 0.98266214 0.87986726 0.7143579 0.8228689 0.9257284 0.87006736
0.84955513 0.8453357 0.8834302 1.0020806 0.91275 0.8836229 0.87461865 0.91733277
0.9542433 0.96624446 0.9280639 0.92237437 0.80454427 0.8990506 0.9245949 0.8281468
00000000: aa03 663f 481f 573f c587 523f a8b5 463f
00000010: dc04 843f 8eb7 5b3f 9b5a 743f b75d 8a3f
00000020: 9c13 823f fd12 583f bf8f 7b3f fb3e 613f
00000030: 29e0 363f 89a7 523f 89fc 6c3f bcbc 5e3f
00000040: 727c 593f ec67 583f 7b28 623f 2d44 803f
00000050: fca9 693f 1c35 623f 02e7 5f3f 52d6 6a3f
00000060: 4a49 743f cc5b 773f 9995 6d3f ba20 6c3f
00000070: 9df6 4d3f 2e28 663f 40b2 6c3f 6e01 543f

body.block1.norm.bias f4 [32]
0.65266514 0.57155585 0.19379234 0.95282406 0.60973525 0.5815607 0.57930183 0.4387337
0.54137444 1.2019002 0.36606738 0.68293047 0.36853543 0.3605334 0.59912556 0.80171895
0.81234527 0.6147241 0.27714923 0.59229285 0.5311219 0.7659672 0.55964994 0.735106
0.5874324 0.421328 0.9420111 0.57890433 0.6405112 0.6089022 0.6961674 0.6975647
00000000: 1015 273f 7c51 123f 8071 463e 47ec 733f
00000010: 9c17 1c3f 29e1 143f 204d 143f b4a1 e03e
00000020: 8497 0a3f ded7 993f 2f6d bb3e 88d4 2e3f
00000030: adb0 bc3e d597 b83e 4b60 193f 743d 4d3f
00000040: dcf5 4f3f 8f5e 1d3f 81e6 8d3e 81a0 173f
00000050: 9bf7 073f 6d16 443f 3845 0f3f e82f 3c3f
00000060: f861 163f 4eb8 d73e a427 713f 1333 143f
00000070: 8bf8 233f 04e1 1b3f 0738 323f 9a93 323f

body.block1.norm.running_mean f4 [32]
-0.27413383 0.9570848 -0.58294123 -0.27560794 -0.12698746 -0.53698146 2.0129395 0.5305795
0.6909184 -0.65063 -0.59504175 0.6056366 1.0665703 0.28040713 0.82054156 0.65095454
-0.14026865 0.8149248 -1.7619641 1.4677937 -1.0366414 0.9054921 -0.21830161 0.38802114
-1.0302343 -0.15974776 0.8195809 2.2292378 0.7304748 -1.0982757 -0.39362466 -0.83004564
00000000: 455b 8cbe 8203 753f a33b 15bf 7c1c 8dbe
00000010: 0009 02be 9e77 09bf 00d4 0040 0fd4 073f
00000020: 07e0 303f b08f 26bf a854 18bf 000b 1b3f
00000030: 6085 883f 8691 8f3e 030f 523f f5a4 263f
00000040: 96a2 0fbe e99e 503f 0a88 e1bf aae0 bb3f
00000050: aab0 84bf 55ce 673f 758a 5fbe b5aa c63e
00000060: b8de 83bf eb94 23be 0ed0 513f d5ab 0e40
00000070: 6600 3b3f 4c94 8cbf 2c89 c9be df7d 54bf

body.block1.norm.running_var f4 [32]
0.45491317 0.7348766 0.19749929 0.4097447 1.0994884 0.35698423 0.956538 0.56891006
0.86097205 0.8618604 0.4861754 0.6305598 0.29209086 0.5028232 0.7358191 0.7080862
0.5515558 0.34967977 0.3502447 1.3281586 0.9450562 0.31445563 0.65074867 0.49735814
0.51493895 0.6699155 0.49424475 1.7700152 0.22643244 0.4071503 0.46684924 0.7002557
00000000: 61ea e83e df20 3c3f 413d 4a3e 0fca d13e
00000010: 09bc 8c3f a3c6 b63e addf 743f 17a4 113f
00000020: aa68 5c3f e2a2 5c3f fbeb f83e 5e6c 213f
00000030: ef8c 953e 05b9 003f a45e 3c3f 2345 353f
00000040: c332 0d3f 3a09 b33e 4653 b33e 1a01 aa3f
00000050: 34ef 713f 5400 a13e 7797 263f baa5 fe3e
00000060: 0ad3 033f 957f 2b3f a60d fd3e dc8f e23f
00000070: e8dd 673e 0176 d03e dd06 ef3e f543 333f

body.block2.conv.weight f4 [32, 32, 3, 3]
-0.15771881 -0.063876264 0.09595261 -0.012791397 -0.050062023 0.06495179 0.03761498 0.015866665
-0.004783011 -0.04524311 0.0827811 0.035223283 -0.070085615 0.08166596 -0.026791243 -0.052288145
0.043829806 0.008823717 0.04127137 -0.018855717 -0.010623794 0.0069009555 0.0069685117 -0.0181174
-0.014684542 -0.036367018 -0.02870272 0.032849655 -0.07960655 -0.07138889 0.03200161 -0.051862888
0.0101906415 -0.119485185 -0.049476065 0.013863655 0.002177922 0.019199971 0.004500005 -0.043569602
-0.029728992 0.0047401013 -0.034172352 -0.006717609 0.07666658 0.0075522047 -0.042276077 0.014322501
0.033355497 -0.0277862 0.0073942444 0.06787892 0.03140865 0.028158206 -0.022396207 -0.07504763
-0.07275617 -0.048857473 -0.05515955 -0.034601096 -0.06733269 0.019888666 0.0072690486 -0.02302485
-0.08204408 0.10853198 0.044038802 0.0031260923 0.02785972 0.070015684 -0.016110895 0.023319438
0.09419138 -0.04298876 -0.03870005 0.111154616 -0.034030918 -0.033993326 0.09684412 0.035803545
0.095523134 0.0025722028 -0.035792027 -0.06045277 0.024879966 -0.013856833 -0.086265124 0.055617776
-0.07821132 0.041550968 0.009855438 0.046230946 0.06321352 0.06252817 -0.029926397 0.012693612
-0.07623706 -0.08100604 0.04340987 0.008253021 -0.019227536 -0.04443623 0.05757184 0.005854247
0.022860054 0.03726687 -0.069878355 -0.020779984 -0.008296607 0.011957192 -0.029383512 -0.094227016
-0.032519147 -0.036249947 0.058595784 0.054826617 -0.036354404 -0.0067755813 0.092185 0.010761551
0.01781681 0.060316313 0.027834548 0.034285035 0.07487641 0.0043728612 -0.03901254 0.032871872
-0.0007072567 0.007968554 -0.046165895 0.014008443 0.008697375 0.003825877 -0.094432905 0.04946178
0.0305735 0.0058181607 0.046360772 -0.014652669 -0.0071886466 0.041321557 -0.01942332 -0.025669003
0.033921793 0.03337347 -0.034613766 0.021697108 0.0026329595 0.040155195 0.02471825 0.0202667
-0.005069315 0.001582848 -0.051502537 -0.09263901 0.01074128 0.06805601 0.010832062 -0.07911014
0.016377594 -0.015891619 -0.07332994 -0.048885737 0.037458446 0.089973964 0.05623631 0.06971849
0.033156075 0.027516792 0.104909405 -0.08520239 -0.11063991 -0.024001827 0.03904418 0.008065603
-0.005536297 0.11465041 0.060533814 0.096288025 0.0059295627 0.028708806 -0.050476864 -0.011374397
-0.107035205 -0.05935834 -0.002860491 -0.05317625 0.043211475 -0.052089702 0.0066373595 -0.007377547
-0.03944704 0.001873085 -0.042595487 0.06040955 0.057539966 -0.15811118 -0.035728175 -0.012844118
-0.030720498 0.02324889 0.03160046 -0.010135969 0.06299849 0.0370711 0.055733494 0.0702321
0.04481191 -0.005290307 0.028854115 0.023505326 0.038705863 -0.017906787 0.017121337 0.010285074
0.0936665 0.011718187 -0.032612327 -0.11469052 -0.06290786 0.059644308 -0.089970455 -0.018645417
0.07053358 0.023998111 0.012100227 0.051819883 0.01011103 -0.0072829593 0.038119588 -0.039496318
-0.050019126 -0.014432786 -0.006307364 0.017590811 -0.01819974 0.039141767 -0.09071869 0.0022236186
0.04072287 -0.05002496 0.1382908 0.09039905 0.011191959 0.054074526 0.08382563 0.064039595
0.05791503 0.01792774 0.026465988 0.083355434 -0.11272107 -0.006454267 0.09774316 -0.06302933
00000000: 0a81 21be 8fd1 82bd cd82 c43d 0293 51bc
00000010: d60d 4dbd 7205 853d 2a12 1a3d cffa 813c
00000020: ceba 9cbb d750 39bd 2389 a93d 4a46 103d
00000030: 0c89 8fbd 7c40 a73d 4f79 dbbc 182c 56bd
00000040: e286 333d 5a91 103c 2b0c 293d 4e77 9abc
00000050: 6c0f 2ebc 6921 e23b 1d58 e43b f16a 94bc
00000060: 6f97 70bc 95f5 14bd f721 ebbc 5c8d 063d
00000070: c208 a3bd 5734 92bd 1f14 033d 2e6e 54bd
00000080: a6f6 263c a6b4 f4bd 6aa7 4abd 6224 633c
00000090: 78bb 0e3b 4249 9d3c c774 933b 0a76 32bd
000000a0: 378a f3bc da52 9b3b 4ff8 0bbd 631f dcbb
000000b0: 5e03 9d3d 7c78 f73b ae29 2dbd eca8 6a3c
000000c0: c69f 083d e39f e3bc 6b4b f23b 1a04 8b3d
000000d0: 5ba6 003d 0aac e63c 4078 b7bc 92b2 99bd
000000e0: 3001 95bd c61e 48bd fbee 61bd e1b9 0dbd
000000f0: b9e5 89bd 8eed a23c 3331 ee3b 9c9e bcbc
00000100: ba06 a8bd 0446 de3d 0862 343d 20df 4c3b
00000110: 113a e43c 6264 8f3d fffa 83bc 6808 bf3c
00000120: 69e7 c03d fb14 30bd f283 1ebd 08a5 e33d
00000130: 0164 0bbd 963c 0bbd 3656 c63d bda6 123d
00000140: a2a1 c33d 6792 283b a99a 12bd 539d 77bd
00000150: 12d1 cb3c c507 63bc c5ab b0bd 77cf 633d
00000160: 422d a0bd 5931 2a3d b478 213c a95c 3d3d
00000170: 1776 813d c50e 803d 3428 f5bc def8 4f3c
00000180: 2d22 9cbd 7fe6 a5bd 8cce 313d ae37 073c
00000190: 1183 9dbc c402 36bd 73d0 6b3d fcd4 bf3b
000001a0: 0245 bb3c 25a5 183d 621c 8fbd c93a aabc
000001b0: 7eee 07bc 19e8 433c b1b5 f0bc 18fa c0bd
000001c0: cc32 05bd d37a 14bd 2202 703d e091 603d
000001d0: 5be8 14bd b205 debb 7dcb bc3d 3751 303c
000001e0: 8ff4 913c 3d0e 773d 4705 e43c 776e 0c3d
000001f0: ce58 993d 384a 8f3b 9dcb 1fbd a8a4 063d
00000200: 3267 39ba 8a8e 023c 7318 3dbd ab83 653c
00000210: 6f7f 0e3c 91bb 7a3b 0a66 c1bd 6f98 4a3d
00000220: 4775 fa3c 45a6 be3b cbe4 3d3d c011 70bc
00000230: bd8e ebbb cb40 293d a81d 9fbc cd47 d2bc
00000240: 94f1 0a3d 9fb2 083d 2ac7 0dbd 22be b13c
00000250: bb8d 2c3b c679 243d ed7d ca3c 5a06 a63c
00000260: 7f1c a6bb 9177 cf3a 53f4 52bd 85b9 bdbd
00000270: 32fc 2f3c f360 8b3d f678 313c 7f04 a2bd
00000280: 4e2a 863c 242f 82bc 022e 96bd 693c 48bd
00000290: 076e 193d 4544 b83d 0c58 663d 91c8 8e3d
000002a0: aace 073d e56a e13c beda d63d 977e aebd
000002b0: 2d97 e2bd 7b9f c4bc caec 1f3d 9725 043c
000002c0: d369 b5bb d6cd ea3d 4ef2 773d a832 c53d
000002d0: c74c c23b bb2e eb3c d4c0 4ebd ae5b 3abc
000002e0: 4635 dbbd bb21 73bd 1377 3bbb 57cf 59bd
000002f0: 84fe 303d 035c 55bd 357e d93b 5abf f1bb
00000300: 3893 21bd 4e82 f53a 9b78 2ebd 0170 773d
00000310: 07af 6b3d e6e7 21be b557 12bd 2370 52bc
00000320: 8ea9 fbbc 7574 be3c 7c6f 013d 5611 26bc
00000330: 5a05 813d ded7 173d ce48 643d d9d5 8f3d
00000340: b18c 373d 505a adbb 775f ec3c 3e8e c03c
00000350: 0a8a 1e3d 41b1 92bc 0c42 8c3c ba82 283c
00000360: 39d4 bf3d a3fd 3f3c 8194 05bd dde2 eabd
00000370: d6d5 80bd 974d 743d 6e42 b8bd 46be 98bc
00000380: e973 903d b097 c43c 0840 463c 1641 543d
00000390: bca8 253c e4a5 eebb 4923 1c3d e4c6 21bd
000003a0: dbe0 4cbd 7e77 6cbc 01ae cebb 9b1a 903c
000003b0: 9f17 95bc 1e53 203d b8ca b9bd 21ba 113b
000003c0: 06cd 263d f9e6 4cbd 1a9c 0d3e 2323 b93d
000003d0: 7a5e 373c 407d 5d3d c6ac ab3d 3127 833d
000003e0: 4f38 6d3d 32dd 923c 33cf d83c 41b6 aa3d
000003f0: 4eda e6bd 517e d3bb 912d c83d 8515 81bd

body.block2.conv.bias f4 [32]
0.033684053 0.094067656 0.058093082 -0.0066097905 0.005013641 0.039164566 0.059178706 -0.021134883
0.046519708 0.019044623 -0.011477957 -0.030163437 0.062105246 0.048689965 0.025162315 0.061675407
0.09488533 0.021688191 0.06888516 0.004515759 0.129682 -0.0057541355 0.02838867 0.013374336
0.0120588085 0.05910362 0.04900209 -0.03877792 0.062314216 0.05221941 -0.024871 -0.008889776
00000000: 4af8 093d 8ba6 c03d 03f3 6d3d f196 d8bb
00000010: 7849 a43b 066b 203d 5f65 723d 1023 adbc
00000020: 738b 3e3d 7803 9c3c 0a0e 3cbc 5019 f7bc
00000030: 1262 7e3d 216f 473d 3321 ce3c 5a9f 7c3d
00000040: 3d53 c23d 6fab b13c aa13 8d3d eff8 933b
00000050: 5ccb 043e 308d bcbb 5b8f e83c 0820 5b3c
00000060: 4f92 453c a316 723d 6ab6 483d 99d5 1ebd
00000070: 313d 7f3d 05e4 553d 44be cbbc 6ca6 11bc

body.block2.norm.weight f4 [32]
0.89793265 0.8204812 0.9381063 0.95022225 0.8187151 0.81205666 0.83824867 0.8667435
0.8307642 0.81716657 1.0068132 0.96354586 0.84497535 0.93393195 0.85481054 0.80063075
0.9674488 0.93815106 0.91161424 0.8210484 0.8477913 0.9108127 0.8118163 0.99658406
1.010521 1.029223 0.92050344 0.9102791 0.8491165 0.91017306 0.8521851 0.9222968
00000000: eade 653f 0e0b 523f bc27 703f c441 733f
00000010: 5097 513f f2e2 4f3f 7797 563f e7e2 5d3f
00000020: f6ac 543f d431 513f 41df 803f f1aa 763f
00000030: 4e50 583f 2a16 6f3f ddd4 5a3f 23f6 4c3f
00000040: b9aa 773f ab2a 703f 8d5f 693f 3a30 523f
00000050: da08 593f 052b 693f 31d3 4f3f 2220 7f3f
00000060: c158 813f 94bd 833f 1da6 6b3f 0d08 693f
00000070: b35f 593f 1a01 693f cd28 5a3f a51b 6c3f

body.block2.norm.bias f4 [32]
0.64612615 0.9185029 0.36198124 0.2229245 0.47408044 0.39967057 0.67958987 0.35722128
0.73191106 0.5077744 0.37582842 0.46554524 0.80763215 0.5752304 0.7541269 0.9400395
0.5146754 0.64071757 0.50157416 0.7206071 0.6890962 0.6952968 0.75397855 0.4296646
0.39667547 0.27168155 0.49658257 0.3532023 0.7407996 0.626936 0.77586126 0.5831949
00000000: 8668 253f 0223 6b3f 9b55 b93e 5246 643e
00000010: acba f23e 9fa1 cc3e 9af9 2d3f b5e5 b63e
00000020: 865e 3b3f 81fd 013f 956c c03e f25b ee3e
00000030: fbc0 4e3f 4d42 133f 760e 413f 6ea6 703f
00000040: c4c1 033f 1106 243f 2a67 003f b579 383f
00000050: 9c68 303f f9fe 313f bd04 413f 00fd db3e
00000060: 0c19 cb3e d819 8b3e 1240 fe3e efd6 b43e
00000070: 0ba5 3d3f e17e 203f d89e 463f 434c 153f

body.block2.norm.running_mean f4 [32]
0.13170421 0.3919314 0.8131378 0.44459495 0.7314036 1.6492158 1.491418 1.9227805
0.30080444 1.277987 0.39854866 0.5927585 0.89714867 -0.14290749 -0.7153136 -0.24047796
-0.029606171 0.95081174 1.045692 0.36182046 0.5814198 1.4461485 1.5867144 -1.1531104
0.5925148 0.058078166 -0.021216506 1.0727423 1.0318103 -0.9631442 0.33511588 -0.8326251
00000000: 78dd 063e 3cab c83e cd29 503f f3a1 e33e
00000010: 443d 3b3f 8119 d33f c9e6 be3f ac1d f63f
00000020: 0a03 9a3e 1495 a33f 920e cc3e 05bf 173f
00000030: 89ab 653f 5756 12be cb1e 37bf db3f 76be
00000040: a488 f2bc 6668 733f 3cd9 853f 8840 b93e
00000050: eed7 143f 651b b93f 7519 cb3f 1f99 93bf
00000060: 0daf 173f 5fe3 6d3d 3dce adbc 9f4f 893f
00000070: 5c12 843f 9e90 76bf 4f94 ab3e eb26 55bf

body.block2.norm.running_var f4 [32]
0.6978988 0.62063324 0.4344208 0.30017838 0.60085887 0.2212037 0.4547946 0.28311524
0.42674348 0.26559263 0.32941878 0.76758134 0.7515489 0.76001453 0.35225794 0.55150133
0.86846393 0.5174945 0.5146194 0.5001829 0.5702974 0.58348566 0.420474 0.5013978
0.5985425 0.61441535 0.48414257 0.55158436 0.4331131 0.6174979 0.57554555 0.44133744
00000000: 7fa9 323f d2e1 1e3f 676c de3e fbb0 993e
00000010: e3d1 193f 3983 623e d6da e83e 7bf4 903e
00000020: 1f7e da3e c2fb 873e 94a9 a83e 3680 443f
00000030: 8265 403f 5090 423f 275b b43e 312f 0d3f
00000040: a753 5e3f 857a 043f 19be 033f fd0b 003f
00000050: 03ff 113f 515f 153f 5e48 d73e 9b5b 003f
00000060: 153a 193f 534a 1d3f 89e1 f73e a234 0d3f
00000070: 00c1 dd3e 5814 1e3f f456 133f fbf6 e13e

body.block3.conv.weight f4 [32, 32, 3, 3]
-0.13121854 -0.085215546 0.025416166 -0.03198649 -0.039007206 0.0151321795 -0.010254054 -0.008585393
0.09015874 -0.00039324307 -0.04717093 0.017479643 -0.08282034 -0.06596938 -0.08273014 -0.026491905
0.0091828285 -0.004997831 0.06926616 0.04028659 -0.041894592 -0.008759437 -0.018467244 -0.04467749
0.021455571 0.00644245 -0.025263807 0.05471567 -0.031373724 0.010294218 0.04758688 0.0951236
-0.009303704 -0.13891928 -0.031943243 -0.051646177 -0.019014644 -0.083642885 -0.0845842 -0.0012055536
0.036889017 0.05406901 0.02219986 0.060796477 0.04866285 0.0072871502 0.020104595 -0.0028553938
0.032945234 0.018084088 0.023605485 0.037190266 0.038194463 -0.116640344 -0.056239497 -0.02317603
-0.03779766 -0.008976575 -0.0074915146 0.054037478 -0.016058633 -0.019766975 0.028360821 -0.016595246
-0.047944333 -0.024684899 0.0023612764 -0.017829 0.010715147 -0.007112939 -0.00019975634 0.024032198
0.050077442 -0.034871865 0.003280212 5.9935657e-05 -0.051456794 -0.0005629528 0.07590418 -0.053029533
0.069699705 0.04734483 0.027892327 0.049345 0.067123726 -0.046821255 0.0047913133 0.063223585
0.046579946 0.065267585 0.03337026 0.036787078 0.06612714 0.026213009 0.016929835 0.0638439
-0.12794368 -0.1358763 -0.024600118 0.061786696 0.01489447 0.06553144 0.09694903 -0.027325083
0.05884841 0.03722398 -0.042667802 -0.037898112 0.12082663 -0.024292514 0.031545766 -0.02589736
0.004740507 0.03456007 0.01047895 -0.020738833 0.0551528 -0.08968886 -0.001336138 -0.031797156
-0.029293653 0.040360607 -0.0039782566 -0.11188369 -0.0074110734 0.012575281 0.06762115 0.06132685
-0.013851509 0.061666124 -0.0349494 -0.0068104314 -0.103181355 -0.04519092 0.08789579 0.11279033
0.042982925 -0.051897433 0.041160263 0.049479358 -0.07876107 0.065457046 0.10669832 -0.07744523
-0.04876638 -0.0027061317 -0.12100497 -0.027631173 -0.045385223 -0.060765248 0.06894954 0.012422683
0.020144343 0.054514244 0.024876758 0.067499004 -0.05526536 0.026069216 0.06431583 0.062085725
0.12581393 0.094910264 -0.06015983 -0.005347651 0.0030907616 -0.0044366317 -0.04016116 -0.0076650335
0.05809935 -0.024006112 -0.0051745586 0.06508661 0.103967026 0.10376537 0.046890587 -0.0070429193
0.04895843 0.07342847 0.035833538 -0.02846735 -0.06728517 -0.0669013 -0.015539247 -0.0316923
-0.006685846 0.06969283 -0.06294442 0.07710874 0.16678232 0.055809665 0.038858492 -0.0935712
0.011803233 -0.0780022 -0.08899976 0.07760376 -0.06966008 -0.031148901 0.038240127 0.040578365
0.021864602 -0.032379225 -0.011156719 -0.044256717 -0.094682 -0.08435051 -0.11143606 -0.0071485797
0.0403557 0.08504769 -0.067632 0.05591083 -0.020888831 -0.04423738 0.075456984 -0.022930104
0.11447486 0.058550894 0.09890499 -0.0017031756 -0.00887868 0.01742159 -0.055216435 -0.095945805
-0.030946184 -0.03794743 0.044916917 -0.024324814 -0.054813214 -0.0053972844 0.0317397 -0.022235733
0.0035432533 0.039919868 -0.037281297 -0.01884257 -0.18233281 -0.0031942278 -0.027953103 -0.031105855
0.018207146 0.010148095 -0.008961806 0.06714592 0.06709294 0.14868954 0.06905468 0.033787485
0.02311237 0.023048649 -0.015316365 -0.04876953 0.07703311 -0.08241653 -0.027034795 0.011848393
00000000: 275e 06be 7d85 aebd 9035 d03c 4404 03bd
00000010: 05c6 1fbd f6ec 773c 9f00 28bc c0a9 0cbc
00000020: 25a5 b83d 312c ceb9 4e36 41bd 7831 8f3c
00000030: b69d a9bd f41a 87bd 6b6e a9bd 8d05 d9bc
00000040: 9373 163c d8c4 a3bb 6bdb 8d3d 8d03 253d
00000050: aa99 2bbd be83 0fbc 9e48 97bc beff 36bd
00000060: 98c3 af3c 301b d33b 0bf6 cebc 8a1d 603d
00000070: bc81 00bd 14a9 283c 76ea 423d 29d0 c23d
00000080: 906e 18bc db40 0ebe ebd6 02bd f18a 53bd
00000090: 99c4 9bbc f64c abbd 7b3a adbd ab03 9eba
000000a0: f018 173d 7777 5d3d 7bdc b53c ba05 793d
000000b0: b252 473d 0cc9 ee3b 64b2 a43c 8f21 3bbb
000000c0: 95f1 063d 1525 943c 4a60 c13c d254 183d
000000d0: cc71 1c3d 22e1 eebd 635b 66bd a8db bdbc
000000e0: b8d1 1abd 7c12 13bc 617b f5bb 6756 5d3d
000000f0: 658d 83bc 5aee a1bc f454 e83c c1f2 87bc
00000100: 4761 44bd fc37 cabc a5bf 1a3b 1f0e 92bc
00000110: 958e 2f3c a813 e9bb af75 51b9 2cdf c43c
00000120: 011e 4d3d cdd5 0ebd d3f8 563b 6c63 7b38
00000130: 5cc4 52bd 1f93 13ba a773 9b3d 7f35 59bd
00000140: b8be 8e3d a7ec 413d 737e e43c fc1d 4a3d
00000150: 2a78 893d a5c7 3fbd 7300 9d3b 5e7b 813d
00000160: 9dca 3e3d 03ab 853d 41af 083d 0cae 163d
00000170: aa6d 873d aabc d63c 70b0 8a3c 97c0 823d
00000180: ab03 03be 2823 0bbe 3086 c9bc 0c14 7d3d
00000190: ef07 743c 5935 863d 378d c63d dad8 dfbc
000001a0: 080b 713d 2c78 183d 6fc4 2ebd 0d3b 1bbd
000001b0: f473 f73d 1801 c7bc 2236 013d b326 d4bc
000001c0: 4156 9b3b dc8e 0d3d e7af 2b3c 7ce4 a9bc
000001d0: e7e7 613d cbae b7bd 5a21 afba bc3d 02bd
000001e0: 3ef9 efbc 2a51 253d 095c 82bb 4723 e5bd
000001f0: 97d8 f2bb 8d08 4e3c f57c 8a3d dd31 7b3d
00000200: 71f1 62bc 9e95 7c3d 1a27 0fbd 0a2a dfbb
00000210: bf50 d3bd 1d1a 39bd b502 b43d 9efe e63d
00000220: dd0e 303d 6792 54bd aa97 283d deaa 4a3d
00000230: 7c4d a1bd 580e 863d a684 da3d 9b9b 9ebd
00000240: 41bf 47bd 5b59 31bb 74d1 f7bd c55a e2bc
00000250: dbe5 39bd fbe4 78bd 6b35 8d3d 8288 4b3c
00000260: c005 a53c 544a 5f3d 58ca cb3c eb3c 8a3d
00000270: ee5d 62bd 1c8f d53c 05b8 833d 9a4d 7e3d
00000280: 5ed5 003e 5060 c23d 276a 76bd 593b afbb
00000290: 608e 4a3b 2a61 91bb 0780 24bd f62a fbbb
000002a0: 96f9 6d3d 77a8 c4bc 588f a9bb 214c 853d
000002b0: aaec d43d f082 d43d 5810 403d 4ac8 e6bb
000002c0: a288 483d aa61 963d 30c6 123d 5c34 e9bc
000002d0: cfcc 89bd 8c03 89bd 5398 7ebc c9cf 01bd
000002e0: f114 dbbb 1dbb 8e3d 01e9 80bd 30eb 9d3d
000002f0: fcc8 2a3e ad98 643d 152a 1f3d 42a2 bfbd
00000300: 5962 413c 9ebf 9fbd 8245 b6bd b8ee 9e3d
00000310: f2a9 8ebd fb2b ffbc aea1 1c3d 8035 263d
00000320: 651d b33c 14a0 04bd acca 36bc 8846 35bd
00000330: a3e8 c1bd f6bf acbd 9738 e4bd a23e eabb
00000340: 054c 253d 7c2d ae3d a582 8abd c102 653d
00000350: 0e1f abbc 4132 35bd 3189 9a3d ead7 bbbc
00000360: cc71 ea3d 10d3 6f3d b38e ca3d 173d dfba
00000370: e277 11bc b9b7 8e3c a12a 62bd 3c7f c4bd
00000380: da82 fdbc c46e 1bbd cdfa 373d d544 c7bc
00000390: d283 60bd b4db b0bb 7d01 023d b627 b6bc
000003a0: ed35 683b 0483 233d 46b4 18bd bc5b 9abc
000003b0: 74b5 3abe 4056 51bb e8fd e4bc b5d1 febc
000003c0: 2727 953c 3244 263c 8ad4 12bc cd83 893d
000003d0: 0668 893d 1242 183e 8a6c 8d3d bf64 0a3d
000003e0: 2756 bd3c 85d0 bc3c 7ef1 7abc 8fc2 47bd
000003f0: 89c3 9d3d ffc9 a8bd 1378 ddbc c31f 423c

body.block3.conv.bias f4 [32]
-0.077647336 -0.12500472 -0.0657151 0.00046320044 -0.102125905 0.04806206 0.06686904 -0.07282985
-0.042539075 -0.027943477 -0.05965228 0.030809373 -0.0033539122 0.0264351 -0.015583709 -0.0856742
-0.05980169 0.032577123 -0.0378323 0.037796747 0.002231146 -0.031406835 0.028508456 0.040586755
0.008844571 0.06446071 0.0021570036 -0.0011977775 -0.10355715 -0.053634193 -0.085897654 -0.005394862
00000000: 9105 9fbd 3d01 00be a395 86bd b6d9 f239
00000010: 6327 d1bd b9dc 443d a3f2 883d d127 95bd
00000020: 743d 2ebd b8e9 e4bc f355 74bd f063 fc3c
00000030: 4fcd 5bbb 6c8e d83c d052 7fbc f475 afbd
00000040: 9ef2 74bd 976f 053d 0bf6 1abd c3d0 1a3d
00000050: 6b38 123b 74a4 00bd 918a e93c 4c3e 263d
00000060: d2e8 103c fa03 843d 845c 0d3b befe 9cba
00000070: c515 d4bd 87af 5bbd 1ceb afbd 62c7 b0bb

body.block3.norm.weight f4 [32]
1.1336776 1.1291018 1.0489719 1.0683159 1.0686548 1.1906375 0.9909828 1.3066677
1.0584397 1.0589435 1.115715 1.1055317 1.209867 1.0956527 1.1639305 1.2213812
1.1237682 1.064073 1.0508547 1.1689311 1.2262787 1.1371493 1.2053515 1.0513266
1.082018 1.0925485 1.0107118 1.0675112 1.0787457 1.15635 1.1105912 1.1032803
00000000: 591c 913f 6886 903f b644 863f 93be 883f
00000010: aec9 883f cf66 983f 0cb1 7d3f e340 a73f
00000020: f47a 873f 768b 873f c0cf 8e3f 1082 8d3f
00000030: ecdc 9a3f 593e 8c3f adfb 943f 3856 9c3f
00000040: a3d7 8f3f 8b33 883f 6882 863f 899f 953f
00000050: b3f6 9c3f 1c8e 913f f548 9a3f df91 863f
00000060: 917f 8a3f a1d8 8b3f 015f 813f 35a4 883f
00000070: 5714 8a3f 4703 943f da27 8e3f 4a38 8d3f

body.block3.norm.bias f4 [32]
0.89201856 0.83604956 -0.16321743 0.811882 0.77526903 0.6721008 -0.5532911 1.1561998
0.560813 0.07520535 0.65004295 0.51071125 0.98325187 0.5120698 0.5652366 0.8133504
0.52050954 0.42193666 0.7227603 0.47151777 0.8205185 0.3513874 0.79778624 -0.36832643
0.690261 -0.39766124 -0.25207198 0.3765213 0.54202205 0.7834561 0.77810884 0.86214817
00000000: 545b 643f 5807 563f 7822 27be 80d7 4f3f
00000010: 0878 463f cc0e 2c3f 7ca4 0dbf 5bfe 933f
00000020: 7191 0f3f 4305 9a3d 3769 263f f9bd 023f
00000030: 65b6 7b3f 0217 033f 59b3 103f bb37 503f
00000040: 1d40 053f 1508 d83e d206 393f c76a f13e
00000050: 800d 523f 0de9 b33e b83b 4c3f 4895 bcbe
00000060: f2b4 303f 419a cbbe 940f 81be 66c7 c03e
00000070: f5c1 0a3f 9490 483f 2432 473f beb5 5c3f

body.block3.norm.running_mean f4 [32]
0.5657171 0.083285585 -0.73372954 0.77205604 0.15300755 0.030715814 -1.0816525 1.0695454
0.35246274 -0.9445052 -2.3100667 0.48756313 0.50090855 0.4193198 -0.057908375 0.2999715
0.09030227 0.19894233 -3.3635957 0.3901333 1.2681769 0.5255594 0.19497113 -0.7126987
0.25638276 -0.8102183 -0.44755217 0.44191518 0.49575305 0.3216635 -0.3813759 1.1798731
00000000: d6d2 103f a291 aa3d b3d5 3bbf 77a5 453f
00000010: 03ae 1c3e bb9f fb3c 9773 8abf dde6 883f
00000020: ff75 b43e 18cb 71bf 22d8 13c0 e0a1 f93e
00000030: 8b3b 003f 16b1 d63e 5531 6dbd dd95 993e
00000040: 66f0 b83d 8ab7 4b3e 2745 57c0 8dbf c73e
00000050: 9f53 a23f 108b 063f 83a6 473e 6c73 36bf
00000060: 9a44 833e 776a 4fbf 8f25 e5be b542 e23e
00000070: 58d3 fd3e 14b1 a43e b443 c3be 1506 973f

body.block3.norm.running_var f4 [32]
0.5441922 0.4149142 0.35657984 0.47933358 0.31327796 0.6362356 0.57144517 1.2847135
0.5546159 0.51279914 1.257316 0.30713224 0.50851536 0.61029106 0.32784262 0.6475307
0.44853485 0.42925006 1.2392514 0.4341794 0.5202708 0.35354707 0.24987191 0.5919396
0.4894729 0.7770961 0.4392553 0.37127495 0.3495558 0.4845584 0.56060946 0.7417436
00000000: 2e50 0b3f a26f d43e a291 b63e 366b f53e
00000010: f865 a03e 56e0 223f 3b4a 123f 7e71 a43f
00000020: 4ffb 0d3f ce46 033f bbef a03f 7040 9d3e
00000030: 102e 023f 093c 1c3f fdda a73e 92c4 253f
00000040: 5ca6 e53e aac6 db3e ca9f 9e3f c34c de3e
00000050: 7830 053f 1f04 b53e 6cde 7f3e 5b89 173f
00000060: 319c fa3e c5ef 463f 12e6 e03e c017 be3e
00000070: faf8 b23e 0a18 f83e 1a84 0f3f e9e2 3d3f

tail.weight f4 [1, 32, 3, 3]
-0.13927007 -0.0030855257 0.1801977 -0.18877307 0.00023002757 0.2505956 -0.21245082 -0.06708625
0.09810519 0.07824674 0.25557524 0.20076047 -0.039294954 0.08507872 -0.0029528432 -0.10593516
-0.028324645 -0.06465613 -0.060962055 -0.083058536 -0.06536149 0.015176175 -0.030928344 -0.031745933
0.04645355 -0.012557119 -0.006084019 -0.08695691 -0.029421672 0.07508603 -0.1487533 -0.07899912
0.09042138 -0.15337054 -0.06605371 0.12629215 0.120107554 -0.13363415 -0.1837016 0.04859489
-0.08352155 -0.13084242 0.2306915 0.060580406 -0.06863074 -0.19793779 -0.2140987 -0.14030065
-0.0035584916 0.0058206115 0.036114484 0.036976393 0.06654253 0.11284298 0.058809992 0.06715163
0.110308655 0.03735817 0.08117484 0.095089205 0.060789917 0.059752226 0.099640846 -0.25768366
-0.26955757 -0.29641333 -0.06551388 -0.04731179 0.03905118 0.070320986 0.23166814 0.32492244
-0.1556875 -0.05776336 0.1540612 -0.10422588 -0.074016266 0.1288869 -0.1546756 -0.051829457
0.12095598 0.013531432 0.042037554 0.11418602 -0.0667331 -0.048965476 -0.05442763 -0.044569444
-0.030408915 -0.09864906 -0.0021110855 0.08701774 0.13327077 -0.058023807 -0.09105331 -0.055159084
-0.12237454 -0.133083 -0.077559575 0.1010466 0.061349545 0.09646178 -0.013846575 0.019538479
0.06691591 -0.14681177 -0.15725197 -0.10451197 -0.14425553 0.15487647 0.30896938 -0.122158155
0.01865192 0.16619074 -0.256986 -0.21469311 -0.0503297 0.23046494 0.1502006 -0.009437182
0.07176047 0.102469675 -0.0577054 0.02766472 -0.024423894 -0.0678646 0.21487446 0.17022046
0.036875978 0.041449066 0.018459244 -0.017271595 -0.16371174 -0.105416775 -0.19964083 0.2218733
0.04335049 -0.18163621 0.23042318 0.06629212 -0.20248032 0.2640943 -0.004502923 -0.26744923
-0.14030008 0.06693132 0.2143344 -0.102333166 -0.015154786 0.06519021 -0.10728209 -0.03250671
-0.029623093 0.11776135 0.058475155 0.013056197 0.027738336 -0.035881735 -0.17495391 0.0272097
-0.065588176 -0.119745836 0.16775791 0.01278829 -0.07126783 0.03615913 -0.04217402 -0.09393134
-0.024446042 -0.094733216 -0.16823187 -0.07409991 0.19966328 0.12945 -0.100552194 0.047446545
-0.0660611 -0.07451637 -0.055574674 -0.16880746 0.12117043 -0.097876556 -0.18645586 0.22172007
-0.03392573 -0.21404895 0.20810881 0.004269416 -0.19684307 0.159581 0.10843734 -0.032573774
0.03857389 -0.020291246 -0.06331973 -0.0870851 -0.072882116 -0.14100516 0.16220976 -0.011113764
-0.198839 0.36407918 0.10879635 -0.18869987 0.25178528 0.026069421 -0.23547876 0.118772864
0.0679516 0.077619314 0.018803399 0.011251112 0.060129266 0.030984435 -0.007870956 -0.005952158
0.16517197 0.2252757 0.18611412 0.108354226 0.121631704 0.12419622 0.019992635 -0.0132089425
0.014928906 0.12761672 0.09923596 0.14382038 0.13482815 0.04265215 0.12647325 0.05805493
0.022566916 0.08002671 -0.052979402 -0.02466133 -0.0037849057 0.083709255 0.013511307 0.0097951805
-0.007434182 -0.042998902 -0.08465446 0.024662592 0.052712705 -0.14938593 0.1199271 0.07318024
-0.01055262 0.11606906 0.09116384 0.02747792 -0.062545985 0.099812396 0.123559885 -0.061520632
00000000: d09c 0ebe 8836 4abb bf85 383e ba4d 41be
00000010: 8e33 7139 114e 803e b58c 59be 8464 89bd
00000020: 60eb c83d d43f a03d c2da 823e 2794 4d3e
00000030: bff3 20bd c03d ae3d 7d84 41bb 88f4 d8bd
00000040: 1609 e8bc 6f6a 84bd 59b3 79bd 981a aabd
00000050: 3fdc 85bd 7ea5 783c 705d fdbc 0608 02bd
00000060: 1446 3e3d 60bc 4dbc 735c c7bb 7716 b2bd
00000070: b805 f1bc b4c6 993d c952 18be 4aca a1bd
00000080: d82e b93d 2b0d 1dbe 2b47 87bd bb52 013e
00000090: f3fa f53d 64d7 08be 461c 3cbe 6f0b 473d
000000a0: 590d abbd 8efb 05be 643a 6c3e 2923 783d
000000b0: 468e 8cbd 34b0 4abe b13c 5bbe f9aa 0fbe
000000c0: 9535 69bb d4ba be3b c8ec 133d 8f74 173d
000000d0: 7347 883d 381a e73d bfe2 703d cb86 893d
000000e0: 81e9 e13d e104 193d ff3e a63d 21be c23d
000000f0: d9fe 783d c0be 743d 8010 cc3d 1def 83be
00000100: 7303 8abe 7dc3 97be 242c 86bd 02ca 41bd
00000110: 21f4 1f3d 7304 903d 6a3a 6d3e 3c5c a63e
00000120: 8b6c 1fbe 4699 6cbd 38c2 1d3e 6174 d5bd
00000130: d795 97bd edfa 033e 4863 1ebe 204b 54bd
00000140: c5b7 f73d f0b2 5d3c 922f 2c3d 5cda e93d
00000150: 5dab 88bd 0690 48bd 82ef 5ebd 738e 36bd
00000160: 1e1c f9bc 8508 cabd 235a 0abb 5b36 b23d
00000170: 2278 083e 5faa 6dbd 287a babd 7eee 61bd
00000180: 819f fabd e946 08be 8ed7 9ebd 85f1 ce3d
00000190: a949 7b3d c18d c53d bfdc 62bc 290f a03c
000001a0: 350b 893d d355 16be a906 21be 5f0a d6bd
000001b0: b9b7 13be f097 1e3e 3c31 9e3e 0e2e fabd
000001c0: e9cb 983c e82d 2a3e ab93 83be 83d8 5bbe
000001d0: 8426 4ebd 00ff 6b3e 30ce 193e 699e 1abc
000001e0: 27f7 923d 9fdb d13d 7f5c 6cbd 1fa1 e23c
000001f0: 9e14 c8bc 98fc 8abd 0d08 5c3e 464e 2e3e
00000200: 440b 173d 7fc6 293d d737 973c 297d 8dbc
00000210: 0da4 27be c0e4 d7bd a56e 4cbe c132 633e
00000220: 4990 313d d8fe 39be 0ef4 6b3e 2ac4 873d
00000230: 0057 4fbe 5e37 873e 428d 93bb 1bef 88be
00000240: d3aa 0fbe 4a13 893d 7a7a 5b3e 0d94 d1bd
00000250: c84b 78bc 7282 853d b6b6 dbbd c225 05bd
00000260: 21ac f2bc dd2c f13d a583 6f3d a9e9 553c
00000270: 823b e33c baf8 12bd 1e27 33be e0e6 de3c
00000280: 1853 86bd 4e3d f5bd bbc8 2b3e fa85 513c
00000290: def4 91bd 991b 143d aabe 2cbd 135f c0bd
000002a0: 1143 c8bc 7d03 c2bd fa44 2cbe b2c1 97bd
000002b0: 8874 4c3e 8a8e 043e 4fee cdbd 4f57 423d
000002c0: 0b4b 87bd 0a9c 98bd 45a2 63bd dddb 2cbe
000002d0: 3428 f83d 8173 c8bd 49ee 3ebe 960a 633e
000002e0: b5f5 0abd a62f 5bbe 7a1a 553e 75e6 8b3b
000002f0: 3b91 49be 3469 233e 6514 de3d 146c 05bd
00000300: a8ff 1d3d d439 a6bc c6ad 81bd ac59 b2bd
00000310: 3843 95bd a863 10be 511a 263e 8116 36bc
00000320: 739c 4bbe 9668 ba3e 9fd0 de3d 8a3a 41be
00000330: 00ea 803e 8a8f d53c 5821 71be 303f f33d
00000340: 352a 8b3d e0f6 9e3d 9609 9a3c 9656 383c
00000350: 1b4a 763d 12d3 fd3c 2ff5 00bc 520a c3bb
00000360: d722 293e acae 663e b394 3e3e d2e8 dd3d
00000370: 0b1a f93d 965a fe3d 98c7 a33c 526a 58bc
00000380: 5f98 743c f5ad 023e 393c cb3d a645 133e
00000390: 6410 0a3e 05b4 2e3d 3482 013e 02cb 6d3d
000003a0: 41de b83c 0be5 a33d ee00 59bd 8f06 cabc
000003b0: 2e0c 78bb c26f ab3d 875e 5d3c f77b 203c
000003c0: 709a f3bb 9e1f 30bd 515f adbd 3409 ca3c
000003d0: 47e9 573d a0f8 18be 579c f53d 86df 953d
000003e0: e5e4 2cbc 9eb5 ed3d 1bb4 ba3d 6019 e13c
000003f0: 1c18 80bd 716a cc3d f70c fd3d 0ffd 7bbd
