TrainedModels/smk1/scale_factor=0.750000,alpha=10/1/netG.pth (torch, 129419 bytes, 26 tensors)

head.conv.weight f4 [32, 3, 3, 3]
00000000: a74c 04bd 954a 51bc 4e2d 183e 41b6 13bd
00000010: 295b 093d b5bf 93bd f89e a2bc b1d4 143d
00000020: c7a6 a2bd 79a9 b83d e688 21bd 07c3 96bd
00000030: 27ad 453c c5cf 833d 75f6 0f3d b87f 93bc
00000040: 5b45 e43c 4716 bcbc bf59 cdbc 5209 bebc
00000050: 2626 9e3d f74e 273d d6bb f3bc cc4c debd
00000060: 8701 173d 73c8 323d 5502 65bc 17c6 25bd
00000070: a048 fb3c e0a5 223d a0bc f33b 2782 ed3c
00000080: ce25 dd3b e0b6 fa3c 0a36 8d3d b26a 67be
00000090: 38b3 40bd cb8f ec3b 9da7 b5bd 738f 9abc
000000a0: 2660 913d b706 293d 0b8f babc e4bb 93bc
000000b0: 2bc0 29be 3a0b ec3c 819f 7e3c bce5 bc3c
000000c0: 11fe 4abb ffe3 83bb 6686 8bbc 87be 3d3d
000000d0: e79f cb3c ffaa 14be 78c6 923b 3fbb 95bc
000000e0: aa42 dabc 7437 41bd 3c8d af3b 17bf a4bc
000000f0: 7b48 dabc 0a7a 933c 64c5 fa3d 7002 323d
00000100: 770c 543d 6c97 163e ac14 833d ebb0 503c
00000110: 20a1 53bc b677 b53d 6498 8c3c 3447 1f3d
00000120: 5004 31bb 93e8 b9bc 2e98 ccbc 672e 96bc
00000130: d339 41bd 6948 ce3c 4e02 8fbc 0d25 243b
00000140: 5ac1 323e 5d2c 0b3c 5f3d c13d bcfd d23d
00000150: 8474 d4bc 58de c53c ba74 7cbb feb4 c53c
00000160: b79d 163d c276 043e d72b 57bc 2e55 e0bc
00000170: 3a9a 073d f0cf 9bbb 4368 81bd d241 7cbd
00000180: d8d5 ef3d bdd8 9a3c 13b0 0e3e af95 9b3c
00000190: ac28 a9bc 5351 98bd e9d4 6dbc e727 52bd
000001a0: f5e8 70bc ffea efbc 9f09 2cbd 6dd3 1d3e
000001b0: b0f6 4abe 20fd d23c 048e 983c 76e6 ed3c
000001c0: 3eb7 073d cba8 fcbb fb96 8abd e66e 5abd
000001d0: 36f6 31bd 0079 9abd 76bc 203d 3df6 09bc
000001e0: 36da 50bc ea66 1bbd 87ac 063d 5ee3 c23d
000001f0: eefc 383d 77b0 9b3c 398c 31be aa6f 31bb
00000200: 5d50 1bbd d9bc be3d ae98 693d 328a 673c
00000210: 6932 13bc 0024 833c 6d63 ea3c 1aa7 503c
00000220: 7c85 65be ccc0 2ebb 6c93 b3bd f677 483c
00000230: 4937 473d 930c 89bd f5e3 293d a5ca 0c3d
00000240: 24d0 5bbc e247 6bbe 1811 94bd d66d ccbc
00000250: bbc9 41bd da34 84bc 8ef1 8a3d 4338 773c
00000260: 8825 483d cca8 953c 2d21 38be 5afd f33c
00000270: 2f65 e7bc 4302 a73c 2c39 6a3b 9d46 80bd
00000280: e346 32bd c8f8 02bd 7e6a e73b ee78 b5bd
00000290: 792d 6abd 67b0 be3d 58a4 a53c e94f 343b
000002a0: 2cd8 11be 8b56 16bd a9c4 42bd c327 673d
000002b0: 5b9b 0b3d 30ad 793d 257e 8e3d 5cdd a93c
000002c0: af10 073d a590 06be 60e6 adbd daa5 cbbd
000002d0: d1b7 123c 0751 44bb c43e c3bc 3edc 803d
000002e0: 2fcc b53c 5f35 833c 64f3 03bd 9d09 ab3c
000002f0: 70e2 ba3c cb2b 73bc cdf6 34bd 1a6d 123e
00000300: 0ae7 9dbc f3f4 e43b 21ac 663c ee09 803c
00000310: adec 163d 4750 9fbc 9dfd 51bb be4b 803c
00000320: f752 d8bc 1313 f43a ae11 5c3d 0620 8ebd
00000330: d5dc 803d 5607 9c3d b045 11be 2ea5 dcbc
00000340: a588 fcbc 411d dd3d d857 66bc 6195 23bd
00000350: 8c3c 00bc a47f 8cbd 2ade 43bd 785f ce3a
00000360: 789d fd3c 673b 39bd 20dc 9e3d e123 363b
00000370: 343a 09be 1fbd b23d d979 933d 4feb 7bbc
00000380: 0cc2 cd3d 8e1d 8e3d 24a7 a43d fa55 9dbd
00000390: 9fef 23bd 16d0 dabd c6b2 123c 0a6f 6a3d
000003a0: 7998 833c 5d46 263d 8bfc 3cbb d3d8 0abd
000003b0: ab6a 84bc 358c 013d 9d01 81bd 9022 ba3c
000003c0: e97d 9c3c e6a1 babc 89db 84bd 2b97 8dbd
000003d0: f253 34be 987a 19bc a45c 8cbd a4b1 f5bb
000003e0: 8896 e13b b9d9 77bd 7176 9ebc 0352 583a
000003f0: 8f39 603d 87cb 1dbe f6d0 d23c 4b25 05bd
-0.032299664 -0.012774129 0.14861032 -0.036062483 0.033534203 -0.072142996 -0.019851193 0.03633565
-0.079419665 0.09016699 -0.039437197 -0.07361417 0.0120652085 0.06436113 0.03514715 -0.018005237
0.027865103 -0.022959841 -0.025067208 -0.023197804 0.0772212 0.04084679 -0.029752653 -0.108544916
0.03686669 0.043648195 -0.013977607 -0.040472116 0.030674279 0.039708972 0.0074382573 0.028992726
0.0067488914 0.03060478 0.06895073 -0.22599295 -0.047045916 0.00721929 -0.0886986 -0.01886723
0.07098417 0.04126617 -0.022773286 -0.01803393 -0.16577213 0.028813947 0.015540958 0.023058765
-0.003097419 -0.004024982 -0.01703186 0.04632428 0.02485652 -0.14518355 0.0044792257 -0.018277762
-0.026643116 -0.047172025 0.0053574126 -0.02011065 -0.02664589 0.018002529 0.122446805 0.043459356
0.0517697 0.147062 0.06400427 0.012737493 -0.012916833 0.08860724 0.01716251 0.038886264
-0.0027010627 -0.022693908 -0.024974909 -0.018332673 -0.047174286 0.025181012 -0.017457154 0.0025046498
0.1745657 0.008494464 0.09435534 0.10302302 -0.025934465 0.024153873 -0.0038521723 0.024134155
0.036771502 0.12935928 -0.013133011 -0.027384367 0.033106066 -0.0047550127 -0.063187145 -0.06158621
0.11710709 0.018902177 0.13934354 0.018992273 -0.020649277 -0.07437386 -0.014516094 -0.051307585
-0.014703979 -0.02928686 -0.042001363 0.15412684 -0.19820666 0.025755465 0.018622406 0.029040556
0.033133738 -0.0077105514 -0.067670785 -0.053328417 -0.043447696 -0.0754261 0.03924223 -0.008420524
-0.012747338 -0.037939943 0.03287938 0.09516023 0.045163088 0.019005043 -0.17338647 -0.0027074614
-0.037918437 0.093133636 0.057030372 0.014132069 -0.008984187 0.016008377 0.028611863 0.012735153
-0.22414201 -0.002666521 -0.08768353 0.012235632 0.04863671 -0.066918515 0.041477162 0.034372944
-0.013416324 -0.2297664 -0.07229823 -0.024954718 -0.047311526 -0.016138483 0.06784354 0.015089097
0.048863918 0.018268965 -0.17981406 0.029783893 -0.02824649 0.02038682 0.0035739643 -0.062634684
-0.043524634 -0.031975538 0.0070622554 -0.08860956 -0.057172272 0.0931099 0.020219967 0.002751345
-0.1424262 -0.036703628 -0.04755083 0.056434404 0.034083705 0.06095618 0.06957654 0.020735435
0.032974895 -0.13141115 -0.08491206 -0.09943743 0.008954958 -0.0029955523 -0.02383364 0.06292008
0.022192089 0.01601666 -0.032214537 0.020878607 0.022813052 -0.014841984 -0.04418068 0.14299431
-0.019275207 0.006987208 0.014079125 0.015629735 0.036846805 -0.019447459 -0.0032042034 0.015661117
-0.026406748 0.0018621407 0.0537278 -0.06939702 0.0629212 0.07618587 -0.1418674 -0.026934233
-0.030826876 0.10796595 -0.0140590295 -0.03993738 -0.0078269355 -0.06860283 -0.047819294 0.0015745005
0.030958876 -0.045222666 0.07756829 0.0027792382 -0.13401109 0.08727478 0.07200975 -0.015375926
0.10046777 0.06939231 0.08039692 -0.07682414 -0.040023442 -0.106842205 0.008953756 0.0572348
0.016063916 0.040594447 -0.002883705 -0.033898186 -0.016164145 0.031627852 -0.06299136 0.022721559
0.019103007 -0.022782277 -0.064871855 -0.069135986 -0.17610148 -0.0093676075 -0.06853607 -0.007497983
0.0068844 -0.06051037 -0.019343587 0.0008251967 0.054742392 -0.15409671 0.025734406 -0.03250627

head.conv.bias f4 [32]
00000000: 41ce de3d 41f5 00be 2751 953d 2587 0c3e
00000010: 412c b83d ab06 0ebe 5b4b 90bd 7199 c7bd
00000020: 3486 c53d 2215 1f3d 27f2 313d 8721 96bd
00000030: fda7 b6bd a7ce 40be 0b8b fa3d 3fa7 243e
00000040: 2e25 303d 2671 eabd c9c5 263e c3b6 27be
00000050: 193c 123d 926a dc3d a07e 953d dd87 30be
00000060: b03a 283d a91e 0a3d a38b c0bd 6133 1ebe
00000070: 0cbd 6fbc 23d3 553a 4eb5 973d 48fe 113e
0.108791836 -0.12593557 0.07290869 0.13723429 0.08992816 -0.13869731 -0.07045623 -0.097460635
0.09644738 0.038838513 0.043443825 -0.073306136 -0.0891876 -0.18828832 0.122335516 0.16079424
0.043004207 -0.114473626 0.16286387 -0.16378312 0.035701845 0.10762514 0.072995424 -0.17239328
0.041071594 0.033720646 -0.094016336 -0.15449287 -0.014632475 0.0008156767 0.07407628 0.14257157

head.norm.weight f4 [32]
00000000: 18ce 743f 429a 833f 19aa 833f dc3c 643f
00000010: 64bb 4c3f 8010 643f 1404 6d3f 0331 653f
00000020: 3078 793f 9c3d 663f f1a7 843f f89b 813f
00000030: e3af 593f b3f8 693f c46a 953f 635d 973f
00000040: 529c 763f 6eec 703f 4c2f 503f fb57 4d3f
00000050: baee 543f d144 893f af14 883f 955d 853f
00000060: b82c 7d3f d8ab 883f 09d7 803f b280 843f
00000070: 244a 753f 400d 7c3f 7411 623f d220 673f
0.95626974 1.0281451 1.0286285 0.89155364 0.79973435 0.89087677 0.9258435 0.8952791
0.97449017 0.8993776 1.0363752 1.0125723 0.85034007 0.9139511 1.1673207 1.1825374
0.96332276 0.94110763 0.8132217 0.8021237 0.8317677 1.0724126 1.0631312 1.0419184
0.9889636 1.0677443 1.0065624 1.0351775 0.95816255 0.9845772 0.8830788 0.90284455

head.norm.bias f4 [32]
00000000: b2aa 45be 68ae e8bd ecea 12bd 6e51 0bbe
00000010: 01a3 9ebd 8ec5 a5bd a4ab c8bd d856 87bc
00000020: 1d42 dbbd 4aea 17bd fbd9 34be 2d95 76bd
00000030: a989 23be 435c 65be 87b4 4abd fde2 893b
00000040: 3c9a 96be 2b90 81be 8227 07be e773 18bd
00000050: 6e30 b1bd 91f8 87bd 795d bbbd f9d5 44bd
00000060: 3782 2ebe 4bb8 9fbd 739c 03be abd4 9dbd
00000070: 6ffc 5ebe dac2 14bd 49c2 4f3d 940e 55bd
-0.19303396 -0.1136139 -0.03586857 -0.13605282 -0.07745934 -0.08094321 -0.09798363 -0.016520903
-0.107059695 -0.03708867 -0.17661278 -0.06020086 -0.15970482 -0.22398476 -0.04948857 0.0042079673
-0.29414546 -0.25305304 -0.13198665 -0.037219908 -0.08651815 -0.06639207 -0.09148688 -0.048055623
-0.1704186 -0.07798823 -0.1285265 -0.07706579 -0.21775983 -0.036318637 0.050722394 -0.052015856

head.norm.running_mean f4 [32]
00000000: f059 dd3d 66f7 c6bd c6f7 cb3c 8ed8 de3d
00000010: 8908 eb3d c221 b8bc 1986 8cbd 2618 94bd
00000020: 1d1b e53d 47fa 723e fdc5 903c 804a 0fbe
00000030: 4fb4 f738 ed11 34be 18cb 023e d086 123d
00000040: 1628 473d bbc5 edbd 5c37 413e 1777 90bd
00000050: 72d3 a13d 5892 2dbb 170a 6f3e cadf a9be
00000060: 741e 3f3d caaf b33c 6f02 a1b9 b9cc 3ebe
00000070: 7c45 3cbd 10d0 513b 051f d83d 9089 8c3e
0.1080817 -0.09715156 0.024898421 0.10881148 0.11476237 -0.022477034 -0.068615146 -0.072311684
0.11186812 0.23728286 0.017672533 -0.13993263 0.00011811463 -0.17584963 0.12772787 0.0357731
0.048622213 -0.1160998 0.18868774 -0.070539646 0.07901658 -0.0026484933 0.23343693 -0.3317855
0.0466599 0.021934409 -0.00030710126 -0.18632783 -0.045964703 0.0032014884 0.105527915 0.27448702

head.norm.running_var f4 [32]
00000000: f9eb 473a 4a61 f03a 7638 503b 4814 183b
00000010: df5b 283b 3c43 2a3c 20a4 c63a c2d6 903a
00000020: da4a 283a 12d7 f33c b9be bf3a 4922 a33b
00000030: 977d ab3b c27b b03a aa2d 4a3a e358 2c3c
00000040: 5ad9 2b3a 0587 ac3a 6824 5f3a 8d24 d13b
00000050: 3d25 823b 2907 f83b c7e1 933c 622a bb3c
00000060: 3370 5b3a 17d5 923a 9ad2 df3b ed8a 5f3b
00000070: b0d4 e63a 812e 843a f56f 0f3b 42d0 293c
0.000762641 0.0018339541 0.0031771935 0.0023205448 0.0025689525 0.0103920065 0.0015155114 0.0011050331
0.0006419845 0.02976564 0.0014628983 0.0049784523 0.0052334773 0.0013464617 0.0007712493 0.010519239
0.000655552 0.0013162798 0.00085122 0.006382531 0.0039717243 0.007569213 0.018051995 0.022847358
0.0008370906 0.0011202422 0.0068305256 0.0034109906 0.0017610993 0.001008466 0.00218868 0.010364594

body.block1.conv.weight f4 [32, 32, 3, 3]
00000000: 180a 7f3c 8642 23bd 3a98 93bd fbf5 3c3d
00000010: 8fdd d6bd d312 f7bd a516 603d 6c92 8bbc
00000020: 78dc 003d 5761 bebc 4d40 e23b 5349 de3b
00000030: 186d a0bd 6b9c d0bd de86 03be 0412 ccbc
00000040: 5517 43bd c5a7 cebd 284f 113d c87e 9cbd
00000050: b741 2fbd a191 753c 6e1f de3d b25e 8bbd
00000060: 061f f1bd 6e1f f9bb 84fe 973c 89a3 213b
00000070: f08a a8bd 557a c03c f102 8abb b9b6 edbc
00000080: 6e1d 55bc 751d 96bd e4b1 c4bc 25f6 883c
00000090: 8275 f13c 2d65 573c b614 2dbd 00ab ce3c
000000a0: bb89 7abd d8f3 e2bc a28d 6a3d 21c3 d2bb
000000b0: 7465 e3bc 9750 c93c 774c ea3c 830f bdbd
000000c0: f48a bb38 88c9 52bd 811f a73c 6c4c 273c
000000d0: 7e16 50bd 25c7 693c a680 26bd bf0f ccbc
000000e0: e7d9 a8bd 27c1 70bd 24a3 2a3c 5b98 60bc
000000f0: 6907 fbbc 48b0 913c 1dd7 3ebd 0dfe 0b3d
00000100: a610 0a3d e8ad 903d a408 b3bd cf7c 1fbd
00000110: 97a9 563d 2ef4 78bc 6b0f 0ebd 7d44 913d
00000120: 535b 813d 0dd9 8fbd 77e3 8dbd d93e 2a3e
00000130: 03a8 873a 9e30 96bd 6c37 a4bc 99a5 a03c
00000140: 2bd0 0dbe b286 b53c ee91 9fbc 38dd 2ebd
00000150: 8c9a 813c c57c 12bd 58c7 8b3c 7d32 e1bc
00000160: 9f7b 0dbd 96ea 1abd bc92 e23c 2d64 0fbd
00000170: 06cc 65bd 86ff d43c 5fc5 d1bb 672d 98bc
00000180: d422 633c 8038 9c3d 1d6d 213d 422b 32bd
00000190: efb5 8bbd 73e6 ecbc 5add bcba 826e 74bd
000001a0: 9942 9cbc 3e06 09bd a33e 063d 734c c6bd
000001b0: 2fdd 373d 6812 ce3c 9147 4d3c f0b1 b63d
000001c0: 16e1 5e3c 9ed0 88bd 4a85 2dba 2d58 d9bd
000001d0: 50df f2bd 8e48 4f3d 0b4b 83bd 3c76 11bd
000001e0: 511a 8e3c 5981 07bc 83a7 44bb 2350 2f3e
000001f0: 48a1 2ebd 2395 e0bb 9258 993d 84bb cfbd
00000200: e8b8 41bd 33e4 953d 0e9f fb3c 2286 f8bc
00000210: 7d75 9b3b 6462 073d f100 353d 33d0 e73c
00000220: 96cb 1d3b 3725 debc b7ac 38bd ac97 28bd
00000230: f3b8 28bd d0e6 31bd 2152 1cbd 6e53 9dbb
00000240: 6e68 68bd 2f0a 26bd eba8 cabd 409e 833d
00000250: 1c6b 123d d7c4 32be ed53 7a3d 7e5b 083d
00000260: 6f9a 30be af68 cfbc ee82 9ebc 27c7 f0bd
00000270: 0da2 083d b253 97bd a043 b2bc c4e7 c63d
00000280: 49a8 813b 7305 8ebd 588c b23a a7b0 1a3d
00000290: 82c1 7ebc a8cc 3a3d 85bb 10bd a977 f7bc
000002a0: ddd0 2dbc 08b8 de3b 9e38 2e3c d28b 873b
000002b0: 0d71 f13c 8b50 24bd 0134 993d 6242 1abd
000002c0: 26af 7bbd b458 073e 0af7 3039 2297 d43b
000002d0: 4e8b f23c 6043 ebbb 2bb4 aabd 178a fcba
000002e0: fa84 503d 7326 91bd 9d25 1a3d 07c5 d83b
000002f0: 4263 be3c 67b5 e03c 9695 833c e991 3a3d
00000300: 59a3 64bd d55b 14bd d50f 86bd c01e a7bd
00000310: 9b14 5c3c 8612 84bc 658e 8cbc bb9e 26bd
00000320: 45fb 9dbd 25a2 26bb aaa3 a23d 8d44 3c3d
00000330: 449c aabc d00b 903c fe46 203c cc2d ca3c
00000340: 661a 883d 038a 87bb 99e3 bdbd 642f 62bd
00000350: 332b 0ebe 201c 50bd a551 e73b 6c33 45bd
00000360: b97d af3c 9ae2 0fbd 7873 71bd e52b 3cbd
00000370: 328c 4dbd a7b2 e9bd da01 123d 3524 d7bb
00000380: 2a9f cf3c d7a0 74bd fc5b 12be fc4a 68bd
00000390: e59b cf3b 1f15 c0bd 1c08 4fbd b09c 463d
000003a0: 50ac f4bc f07f 1fbd c67f 973c 37d3 9abd
000003b0: 2707 9fbd 22b3 663d 3fc5 5cba 9f70 873d
000003c0: f873 a7bd 4186 a33c f80f 66bd a268 afbd
000003d0: c421 c1bc 98b6 34bc 4a0b cfbd 8f2b 8ebb
000003e0: 83df 9bbd 3a7e adbd f2b0 403d 4284 f9bd
000003f0: ed6f a2bb d5c2 11bd bdd7 7cbd f80b 5cbd
0.015566371 -0.039858364 -0.07206769 0.046133023 -0.10491478 -0.12064137 0.054709096 -0.017037593
0.031460255 -0.023239775 0.006904638 0.0067836433 -0.07833308 -0.10186084 -0.12844416 -0.024910934
-0.047629673 -0.10090593 0.03547588 -0.07641369 -0.04278728 0.014988334 0.108458385 -0.06805171
-0.117734954 -0.0076026237 0.01855398 0.0024664125 -0.08229625 0.023495832 -0.0042117764 -0.029017793
-0.013007505 -0.07329837 -0.024010606 0.016718933 0.029474977 0.013146681 -0.04225608 0.025228024
-0.061166506 -0.027704164 0.057263978 -0.0064319526 -0.027758338 0.024574561 0.028600914 -0.09231474
8.942737e-05 -0.051461726 0.020400764 0.0102110915 -0.0508027 0.014268671 -0.040650032 -0.024909852
-0.082446866 -0.058777954 0.010414872 -0.013708199 -0.030643182 0.017784253 -0.046591867 0.03417783
0.033707283 0.0706442 -0.087418824 -0.038937386 0.052407827 -0.015194936 -0.034682672 0.07093141
0.06316247 -0.07023821 -0.06928151 0.16625537 0.0010349754 -0.07333492 -0.020045958 0.019610213
-0.13848941 0.022158954 -0.019478764 -0.04269144 0.015820764 -0.03576352 0.017062828 -0.027489895
-0.034541722 -0.037821375 0.027657859 -0.035007644 -0.056102775 0.02600075 -0.0064017023 -0.018576337
0.013863284 0.07627964 0.0394107 -0.043498285 -0.068218105 -0.02891848 -0.001440923 -0.0596757
-0.019074725 -0.03345322 0.03277458 -0.0968255 0.04488867 0.025155261 0.01252927 0.08920658
0.013603469 -0.066804156 -0.0006619288 -0.10612521 -0.11859 0.050606303 -0.06410798 -0.035513148
0.017346533 -0.008270585 -0.0030007071 0.17120413 -0.04263428 -0.006853716 0.074875966 -0.10143188
-0.04729548 0.07318916 0.030715492 -0.030337397 0.0047442303 0.033052817 0.04419035 0.02829752
0.0024077646 -0.027117355 -0.04508659 -0.04116027 -0.041192006 -0.04343301 -0.03816426 -0.0048012054
-0.056740217 -0.040537056 -0.098955 0.06426668 0.03574668 -0.17457901 0.061115194 0.03329038
-0.17246412 -0.025318472 -0.019349542 -0.11756735 0.03335767 -0.073890105 -0.021760762 0.097121745
0.0039568287 -0.06934633 0.0013622148 0.037766125 -0.015549066 0.04560533 -0.035335083 -0.030208426
-0.010608879 0.0067968406 0.010633616 0.004136541 0.029472852 -0.040115874 0.07480622 -0.037660964
-0.06144633 0.13217431 0.00016876697 0.006487743 0.029607441 -0.0071796626 -0.083351456 -0.0019267228
0.050908066 -0.07087412 0.037633527 0.0066152844 0.02324069 0.02743025 0.01606254 0.045549307
-0.055819843 -0.03622039 -0.065459885 -0.08160162 0.013432647 -0.016122114 -0.017157743 -0.04067872
-0.077139415 -0.0025426236 0.07941373 0.045963813 -0.020826466 0.017583758 0.009782551 0.02468004
0.0664566 -0.0041363253 -0.092719264 -0.055220976 -0.13883667 -0.050808072 0.0070592933 -0.048144743
0.021422254 -0.035128213 -0.05894801 -0.0459403 -0.05018253 -0.11411028 0.035646297 -0.0065655955
0.02534445 -0.0597237 -0.14292902 -0.056712136 0.0063357227 -0.093790285 -0.050544843 0.048489273
-0.029867321 -0.03894037 0.018493544 -0.07559817 -0.07765036 0.056323178 -0.0008421726 0.06613278
-0.08176416 0.019961478 -0.056167573 -0.08564879 -0.023575671 -0.011029862 -0.10109575 -0.0043386887
-0.07610991 -0.084713414 0.04704375 -0.12183429 -0.0049571902 -0.035586197 -0.06172918 -0.05372235

body.block1.conv.bias f4 [32]
00000000: f5bd 7e3d 1a24 393d d141 3d3c c43d 5b3c
00000010: 843e 1bbd 7636 7a3d 134d 1ebc e377 50bc
00000020: 2d32 d73b bfdf 3a3d ce4a 96bd b342 8abd
00000030: b07e 82bc 4387 00bd 3b22 513c 2327 c73c
00000040: 7774 363d f4b2 073d a26b a43c de7d bc3c
00000050: df23 013d c269 6fbc 1bff 1bbd 962e 71bc
00000060: 2f56 ee3c fa2e 843d 5a85 aa3b e7f6 1bbd
00000070: c0a3 453c ca98 6cbc 33ae 7bbd 2e51 7c3d
0.062192876 0.045200445 0.011551336 0.013381425 -0.037901416 0.061087094 -0.009661931 -0.012723896
0.0065672607 0.045623537 -0.073384866 -0.06751003 -0.01592955 -0.031378996 0.012764509 0.024310654
0.044544663 0.033129647 0.020070855 0.023009237 0.03152835 -0.014612617 -0.038085084 -0.01472058
0.02909383 0.064542726 0.005203885 -0.03807726 0.012062967 -0.014440725 -0.061445426 0.061600856

body.block1.norm.weight f4 [32]
00000000: 721e 663f 572f 773f 172f 613f 2d0c 493f
00000010: f164 903f 6203 723f 873f 723f d88c 993f
00000020: e51b 3e3f 45ac 623f 4a8a 523f cd22 7f3f
00000030: 68a8 913f a0d1 833f 7f41 833f 0e7b a13f
00000040: 8857 4f3f 1494 553f f5e5 713f 1af1 573f
00000050: e4fe 633f 5915 863f bb7f 553f dc14 573f
00000060: f8ea 6f3f 981a 8b3f 6eaa 853f 5ad0 573f
00000070: b18f 533f 0eed 523f 540f 5f3f 21a4 573f
0.89890206 0.9655661 0.8796248 0.78534204 1.1280805 0.9453641 0.94628185 1.1996107
0.74261314 0.8854411 0.8224226 0.99662477 1.1379519 1.0298347 1.0254363 1.2615678
0.8099294 0.83429074 0.9449151 0.84352267 0.8906081 1.0475265 0.83398026 0.84016204
0.9371791 1.0867491 1.0442636 0.84302294 0.8264113 0.82392967 0.87132764 0.84234816

body.block1.norm.bias f4 [32]
00000000: adef 1ebe bb86 11be c985 55be 37ca 9bbe
00000010: cdc6 a3bd 795d 47be ada6 a3bd 60bb 68be
00000020: 6af0 7cbe f038 62be 2ab3 09be da0e 10be
00000030: aa40 4dbe 9eef b6bc 4efa 40be 6de7 2bbf
00000040: 507d d3bd 8df0 8abe 0db2 41be c92e 65be
00000050: 2c3f f1be 9dc6 f4bd eb5f 9dbe 10c7 9ebe
00000060: 7995 57be 4ade 86be 6b42 7dbe 290c 14be
00000070: d53f a0be 0797 debe 0d49 64be 857c 9bbe
-0.15521117 -0.14211552 -0.20851816 -0.30427715 -0.079969026 -0.1946925 -0.07990775 -0.22727728
-0.24701086 -0.22092032 -0.13447252 -0.14068165 -0.20044199 -0.022331055 -0.18845484 -0.6715
-0.10326636 -0.2713665 -0.18915577 -0.22381128 -0.4711851 -0.11951945 -0.30737242 -0.31011248
-0.21053113 -0.26341468 -0.24732368 -0.14457764 -0.312987 -0.434746 -0.22293492 -0.30368438

body.block1.norm.running_mean f4 [32]
00000000: 18ae 7abf 5abb 82bf b472 72bf b73d 20bf
00000010: 6455 3bbf a88b 4bbf fc87 60bf 9799 febe
00000020: b3f7 063f 9f46 c63d 1a8e a93f d758 11bf
00000030: 000b 95bf 2c4d a6be 8e0f 9fbf ff14 44bf
00000040: 85e4 b93f b38d 98bd f7b0 97be 2f7f 233d
00000050: ff3c 043f 27df 8fbf f0a2 e03c c33e 3abf
00000060: 581e 62bf 2647 8dbf 52bc babf f2c7 97bf
00000070: 340e 8abe 32f0 803e 41cd f3be d8f9 c5bd
-0.97921896 -1.0213425 -0.94706273 -0.6259417 -0.7317717 -0.79509974 -0.87707496 -0.49726555
0.5272171 0.09681439 1.3246491 -0.56776184 -1.1643982 -0.32480752 -1.2426622 -0.7659454
1.4522864 -0.07448902 -0.296272 0.039916214 0.5165557 -1.1239976 0.027421445 -0.72752017
-0.8832755 -1.1037338 -1.4588721 -1.1857893 -0.2696396 0.25183254 -0.47617534 -0.096667945

body.block1.norm.running_var f4 [32]
00000000: 243c 523f 3477 b43f 5cb8 203f ce7b 5a3f
00000010: d958 6440 4d44 783f 0d54 e53f e30b a93f
00000020: ba68 683f 3777 e83e f36e f93e b3f7 b03f
00000030: cd4c 0e40 a82f 773f 2c69 7240 a8a6 0a40
00000040: fa93 693f 8eca 423f 129a 043f 1d43 dc3e
00000050: cc01 a33e 986f 9b3f a514 023f e502 193f
00000060: 4aad 033f 481b 7f3f 5ac3 433f 2ac0 0d3f
00000070: d969 963e 2d8f f63e e496 3a3f 53da 503f
0.8212302 1.4098878 0.6278131 0.8534516 3.5679228 0.9697922 1.7916275 1.3206753
0.907848 0.45403454 0.4871746 1.3825592 2.2234375 0.9655709 3.7876692 2.166422
0.9124142 0.76090324 0.5179759 0.43019953 0.31837308 1.2143431 0.5081275 0.5977004
0.51436293 0.99651 0.7646996 0.55371344 0.2937763 0.4815611 0.7288649 0.81583136

body.block2.conv.weight f4 [32, 32, 3, 3]
00000000: 1498 bd3c 68be 8c3d 8500 bb3b f8f8 583d
00000010: e753 07bb 9245 77bc b72a 81bd c6ef 58bd
00000020: cfe6 4ebd 8335 73bd 0b3a 223d 6676 b43c
00000030: ab54 a33d be50 693d 4660 fe3d b717 a03d
00000040: 4a81 c63d a06b 093e 4666 1f3d e116 9a3d
00000050: 0357 bc3d 9f9d 853d 292c 153d 91c8 633d
00000060: fc69 143d b82d 033d 2602 903d 310b 14bd
00000070: 7ee1 403d 8ae1 b23d 7eec 1bbd 9c45 3abb
00000080: c3f0 c73d 9a2b 513d f503 f9bb ba18 31bb
00000090: d833 993d e677 a53d c70d 633d e34b 75bd
000000a0: 4b24 15bd 97e3 ea3c 1778 aabd 4a76 a0bd
000000b0: 2c94 b9bb 6e86 663d f220 ff3b 5bfa d13c
000000c0: 47f6 cc3d f383 a63d e387 663d 7ffe a5bc
000000d0: 2e6c 43bd 2651 7f3b bcc4 763c 4107 943d
000000e0: 69b7 623e 09cd dd3b db6b b23c fe70 133e
000000f0: 4b7f 413d 5b2f 123d 83db 283d bc53 623d
00000100: 1a8b ea3c 5907 98bd d7a2 183c 77f8 e23c
00000110: b90f a7ba f1c7 bf3b 88ac b8bc 92f4 263d
00000120: bbc9 67bd ed44 6fbd 9bd4 87bd 7451 2dbd
00000130: d013 b0bd 050d 26bd 9fa6 953c ca05 8cbc
00000140: 9657 57bd be06 c13c 2675 993b 80c8 753c
00000150: a140 f33c 981b 5f3d 27be 8bbc 9240 f53c
00000160: 3873 333d 5a82 463d 2ae0 ca3c ab61 803d
00000170: 8307 2e3d aec8 72bd 4376 a7bc 216e 83bc
00000180: 1f6f 81bd f674 02be f51c 8fbd 4263 c13d
00000190: 0b08 fe3c 0897 c53c 376e ab3d 2048 903d
000001a0: ed91 423d 650b f4bc 956e b83c d4a1 903d
000001b0: edf2 65bd b750 ddbc fe96 ab3c eeaf 0c3c
000001c0: 0d68 6abc 70b7 9e3d 9f7a b13d f3b6 593d
000001d0: 984a 493e f071 093d c539 9d3d 2c0c 4b3c
000001e0: f747 0d3c dc30 743c 5252 97bc 83c7 6ebd
000001f0: 4d4d cabd a74b 63bd f31a 25bd 5772 293d
00000200: dd00 d5bb 619a dcbb ab6d a53b b58c c93c
00000210: d3ba d73c 3844 7d3c 8dbd 3e3d 59e6 1fbd
00000220: c694 eabc 7004 d0bc be85 dbbd 9156 53bd
00000230: c112 b0bd de5f 13bd e67c b8bb a668 e9bc
00000240: 594b 953d 7245 ec3c 2832 bd3d 88b3 34bd
00000250: a993 03bd b405 4fbd abf1 21be fa10 d7bd
00000260: 8784 d5bd be32 53bd bf82 fdbc 5660 3bbc
00000270: 9101 b3bd 88e5 11bd 6356 2d3c 5804 ccbc
00000280: 3890 143c 9aa0 58bd 5e91 0cbd 5ead adbd
00000290: 0c96 2dbd cd3c a03d 35dc 3a3d 521e 86bc
000002a0: ed74 963d a001 cf3d 6487 eb3c 374e cfbd
000002b0: 96b1 d73a a3e5 4dbd af5b 2c3d 1211 ca3d
000002c0: d633 6b3c c609 603d eda6 023d 7b2a 9a3d
000002d0: 6f78 ebbc 6dbd 1e3d b3a8 76bd 730c 053d
000002e0: 56ef 373d 4101 adbc 9ea5 f5bb 8ea6 693d
000002f0: 9c43 40bd f804 3a3b 0610 d43c 52e8 abbc
00000300: edad d03b f2ee 033c 66a8 3f3d 82a7 553c
00000310: e9d1 6ebb d389 473d 5b1a 82bd efdb c13c
00000320: 25bb 7fbc e99a a83c 7b13 a63d 597d e53b
00000330: e913 713d f03d 993c dd6f 92bd 12b0 efbd
00000340: 97be c7bc 1d4b cfbd 28fc a2bc cfa2 1bbd
00000350: 7d13 76bc 4ae8 2ebd 7cef 20bb 4b03 40bd
00000360: 3330 9b3d 6685 64bd 8735 4abd 7c5b db3c
00000370: 6abf edbc 19ec 49ba b905 ab3d 13c5 c4bc
00000380: 1707 eb3c 33dd 8dbd c225 d1bb 2cc3 953d
00000390: d29b 8dbd 003f fcbd 310e 54bc 68f2 ffbc
000003a0: 6a3e 9cbd 9198 e6bb 141d 8f3d 98ce d9bc
000003b0: 6f10 c6bb 33ce 403d 657c 3c3d 159c 4b3d
000003c0: 8834 7dbc 7363 06bd 8554 a63d e240 91bd
000003d0: fa93 89bd 6eee 97bd 586c 333d 1a49 053d
000003e0: e8c6 a93d 357e 84bc 3ebb 493d 506f c63d
000003f0: 6e63 61bd 544b c83a ec19 d43d 8977 02bd
0.023143806 0.068722546 0.005706849 0.05297181 -0.0020649375 -0.01509227 -0.06306975 -0.05296304
-0.050513085 -0.059377205 0.039606135 0.022029113 0.079751335 0.056961767 0.124207065 0.07817023
0.09692629 0.13419962 0.038915895 0.07523895 0.09196284 0.065242045 0.036419068 0.055611197
0.036233887 0.032026023 0.0703166 -0.036143485 0.047090046 0.087344244 -0.038067333 -0.0028422838
0.097627185 0.051066972 -0.0075993487 -0.0027022795 0.074805915 0.080795094 0.05543306 -0.059886824
-0.036411565 0.028672976 -0.083236866 -0.07835062 -0.0056634154 0.056280546 0.00778591 0.025632074
0.10007911 0.08130636 0.056281935 -0.020262955 -0.04771059 0.003895828 0.015061554 0.07227946
0.22140278 0.006768827 0.021779945 0.14398572 0.047240537 0.035689693 0.041224968 0.055255637
0.028630782 -0.074232765 0.009316168 0.027706368 -0.0012745775 0.0058526923 -0.022543207 0.040760584
-0.05658887 -0.058415342 -0.06632348 -0.042314008 -0.08597529 -0.04053976 0.018267928 -0.017092604
-0.052573763 0.023562785 0.0046831546 0.015001416 0.029693903 0.054469675 -0.017058445 0.029938016
0.043811053 0.048464157 0.024765093 0.06268629 0.042487632 -0.059273414 -0.020442134 -0.016043724
-0.06320023 -0.1273993 -0.06987945 0.0944276 0.031009695 0.024119869 0.08370631 0.07045007
0.047502447 -0.02979059 0.022513667 0.07062116 -0.056139875 -0.027016027 0.020946022 0.008586867
-0.014307034 0.07749832 0.08665966 0.05315299 0.19657362 0.033555925 0.07677034 0.012393039
0.008623115 0.014904227 -0.01847187 -0.058295738 -0.09878025 -0.05549207 -0.040308904 0.04136881
-0.006500347 -0.0067322706 0.005048474 0.024603227 0.026334202 0.015458159 0.04656749 -0.039038036
-0.028635394 -0.025392741 -0.10718869 -0.051596228 -0.08597327 -0.035980098 -0.0056301234 -0.028492283
0.07289762 0.028841708 0.09238082 -0.044116527 -0.03212324 -0.05054255 -0.15814845 -0.10501285
-0.10425668 -0.051562063 -0.030946134 -0.0114365425 -0.08740533 -0.03561929 0.010579678 -0.024904415
0.009067588 -0.052887537 -0.03431832 -0.08480333 -0.042379424 0.07824097 0.045620162 -0.01637188
0.073465206 0.10107732 0.028751083 -0.1012234 0.0016456123 -0.050267827 0.042079624 0.09866537
0.01435562 0.05469682 0.031897474 0.07527634 -0.02874395 0.03875487 -0.060219478 0.032482576
0.044905983 -0.021118762 -0.0074965497 0.057043605 -0.046939477 0.002838431 0.025886547 -0.020984802
0.00636839 0.0080525745 0.046791457 0.013040425 -0.0036441034 0.048715424 -0.06352683 0.023664443
-0.015608584 0.02058168 0.08109184 0.007003468 0.05885688 0.018706292 -0.071502425 -0.117035046
-0.024382873 -0.101217486 -0.019895628 -0.037997063 -0.015019295 -0.042701997 -0.0024556806 -0.04687814
0.07577553 -0.05579128 -0.049367454 0.026777022 -0.029021937 -0.0007702723 0.08350701 -0.024019754
0.028689904 -0.06926956 -0.006382675 0.07312617 -0.06914486 -0.12316704 -0.012942837 -0.031243518
-0.07629092 -0.0070372303 0.06987968 -0.02658777 -0.0060444395 0.047071647 0.04601707 0.0497094
-0.015454419 -0.032809686 0.081215896 -0.070924535 -0.067176774 -0.07418524 0.043804497 0.03254042
0.082898915 -0.016173461 0.049250834 0.096892 -0.055026464 0.0015281239 0.10356507 -0.03185228

body.block2.conv.bias f4 [32]
00000000: 142b 9cbc cd9e 863c edc1 403d d1a8 903a
00000010: 0cfe 8ebc 77b1 2a3d f06a ea3c e23b 8a3d
00000020: 3008 4dbd e5c4 463a 079e 1cbd 4947 51bd
00000030: e4d3 c63c a2f3 453d 93a6 b7bc 3c5d 72bd
00000040: a4b9 423d b0c3 94bd b286 303d 004a 1ebd
00000050: ff45 5abd 63af 17bd 4be3 9f3c 90d6 eebc
00000060: 538a ccba ba38 433d ca2a e1bb bd76 6a3a
00000070: 2954 9e3b 1602 f03c 93f9 64b9 f9e4 06bd
-0.01906351 0.016433144 0.047059942 0.0011036639 -0.017455123 0.04167315 0.028615445 0.06749703
-0.050056636 0.000758244 -0.038236644 -0.051093373 0.02427096 0.04832805 -0.022418296 -0.059170946
0.047540322 -0.07263887 0.043097205 -0.03864479 -0.05328941 -0.037032496 0.019517561 -0.029155046
-0.0015605189 0.04766152 -0.006871556 0.0008944085 0.00483181 0.02929787 -0.00021836748 -0.03293321

body.block2.norm.weight f4 [32]
00000000: a809 823f 3f6a 5b3f e097 5b3f d15d 7e3f
00000010: 5e62 413f 59a8 893f db2d 7a3f 8dfa 7d3f
00000020: d87d 8c3f 4b3d 593f ac74 7f3f 1da9 523f
00000030: c8bc 8a3f 3631 7e3f fac5 8e3f 7e08 763f
00000040: 4488 593f a417 5e3f 1ad5 853f 8516 653f
00000050: da27 853f 9c1a 4c3f 515c 893f 0f64 4d3f
00000060: be7e 843f 595f 8a3f 3a18 623f 56b3 693f
00000070: 4818 713f 6b4c 763f 9629 7f3f f5b3 773f
1.0159197 0.85708994 0.8577862 0.993619 0.7554072 1.0754501 0.9772622 0.99210435
1.0975904 0.8485915 0.997874 0.82289296 1.0838861 0.9929384 1.1154168 0.9610671
0.8497355 0.8675482 1.0455658 0.8948749 1.0402787 0.797281 1.0731298 0.802308
1.0351179 1.0810348 0.88318217 0.9128927 0.94177675 0.96210355 0.9967283 0.9675897

body.block2.norm.bias f4 [32]
00000000: b54a 46be 0ba9 70be 6142 eebe c3ca 07be
00000010: 0fb6 68be e51c b6be a756 67be 6c84 f7bd
00000020: 645e 2dbf f1ca 2fbe 7ef8 48be 7a41 98bd
00000030: 063b 64be 2715 29be 9633 4fbe 9998 93be
00000040: 1367 8abe a33e 24be 9df7 e9bd 1333 04bf
00000050: 35b5 09be 880e dfbe 7b64 afbe 4bd6 dcbe
00000060: a755 1ebe 3d5f ddbd 659c ccbe a8b6 e0be
00000070: d4f6 c5be 8a32 4fbe ead5 f4be 3cfb 59be
-0.19364436 -0.23501985 -0.46535018 -0.13260941 -0.227257 -0.3556892 -0.22591649 -0.12085804
-0.67722154 -0.1716726 -0.19626042 -0.07434364 -0.2228814 -0.16511975 -0.20234522 -0.2882736
-0.27031764 -0.16039519 -0.114241816 -0.51640433 -0.13448031 -0.43565774 -0.34256348 -0.43132243
-0.15462361 -0.10809181 -0.3996307 -0.43889356 -0.38664877 -0.20234123 -0.47819453 -0.21287245

body.block2.norm.running_mean f4 [32]
00000000: dddf fd3e b7c0 c83d abe5 1bbf 1933 a03e
00000010: 0577 50bf f270 17bf 29f0 933e 584a a03d
00000020: c60b 59be 2528 08be bf7e 80bd 38fa 06bf
00000030: d6dc 033f d484 a03d d555 c23e c5e1 28bf
00000040: 1833 a0bd 6cd5 57bd cd72 babe f245 86be
00000050: b1d4 523f 5376 45be 505e f33d f537 3abe
00000060: 09c5 543e 5e71 a43e b154 2cbe cf33 43bf
00000070: 9d6e cebe 27e5 1c3d 6878 5abe 5561 bdbe
0.49584857 0.098023824 -0.6089732 0.31288984 -0.8143161 -0.59156716 0.28894165 0.0782668
-0.21195897 -0.13296564 -0.06274175 -0.52725554 0.51508844 0.07837835 0.3795611 -0.65969497
-0.07822245 -0.05269377 -0.3641571 -0.2622524 0.8235579 -0.19283418 0.11883223 -0.18185408
0.20778288 0.32117742 -0.16829182 -0.7625093 -0.40318766 0.038304474 -0.21334994 -0.3698832

body.block2.norm.running_var f4 [32]
00000000: 7d18 b43f afb9 983e 8cf9 973e f098 1c3f
00000010: 5291 c63e 1883 1e3f efbd 6c3f 034d 163f
00000020: aa5f 473f 9499 493f 0063 e83e 909e 273f
00000030: 25d0 9f3f d593 483f ce79 123f fad5 dc3e
00000040: 59a4 e63e 7dfc e43e d65e 813f 7ba6 ed3e
00000050: 8bdd 053f cb9e 983e 3b6b d93e c8c4 c93e
00000060: aad3 663f 516e cd3e 08e8 ab3e eada c03e
00000070: 71e0 e13e 8349 8d3f 6748 d33e 361f b83f
1.4069973 0.29829165 0.29682577 0.61170864 0.38782746 0.61918783 0.92477316 0.5871126
0.77880347 0.78749967 0.4538803 0.6547632 1.2485396 0.78350574 0.5721711 0.43132
0.45047262 0.44723883 1.0107067 0.46416077 0.5229117 0.2980865 0.42464623 0.39407945
0.90166724 0.40123227 0.33575463 0.37667018 0.44116548 1.1038059 0.41266176 1.4384525

body.block3.conv.weight f4 [32, 32, 3, 3]
00000000: d9d5 663d 9f6a d03d d99e c33d d61f 7aba
00000010: 03aa fdbc 19ca d63b 20e5 6bbc 8161 c43b
00000020: b5d2 5e3d 156c 4d3c 6cb6 55bc c2b9 903c
00000030: a58c ef3a 3784 3a3c 78e9 36bd d0e7 7a3d
00000040: d519 143c c2ca c43c 5a56 943c 5422 a13c
00000050: 23dd 2fbd 44e5 57bd 0824 e7bc 305c a2bc
00000060: 4594 b4bd 85df 0cbe f1d1 88bd 9192 133d
00000070: 5091 7bbd 1817 40bd cd25 57bd 8dde f6bc
00000080: 4a79 6b3b c61c 6f3c e904 abbd dab7 443b
00000090: 43d7 a73c 21d6 913b d5e8 943d 82d3 3c3c
000000a0: d302 0a3d cd25 0b3d 7f57 973d 168e fd3c
000000b0: 3c28 0fbe 18ba 0c3e 53c7 11bd 5359 27be
000000c0: 39eb 863c 205c 39bd 7bf1 98bd 02e5 243d
000000d0: f2f6 873d 6b39 f8bc 36d3 003d abb2 d8bc
000000e0: d7ee cdbd f789 363d c9ce 1dbd 81bd 87bd
000000f0: b294 453c 05e9 7dbd 7585 a73a b257 be3c
00000100: e95f 4abc 0aa7 0abc d22d 0d3d b0a9 c3bc
00000110: 7014 0a3b 6b59 623d c2e7 0e3d 72e0 dfbd
00000120: 84b8 063d be6f 6dbd 628a c0bd 5163 ab3c
00000130: ccc2 683d 2b93 9abd d0d1 9e3d 576e 453d
00000140: 50b9 36bd 9b9f d2bc 5c94 d9bd 36c5 633d
00000150: ab45 6ebc 4c9c 11be b330 423c b773 d9bc
00000160: ff0d 5ebe c92b d53b 6ce4 e0bd 5bca 7cbd
00000170: 7b0b f9bd af01 58bd 8a58 c1bc b404 ebbc
00000180: a569 013d 93f2 923c 9f23 17bc a6c2 d63c
00000190: 80b6 37bd 34ce 27bb 2345 50bc 79c6 123b
000001a0: 6fdb 0ebd e33c d0bd 4a09 71bb 8332 a93a
000001b0: 72d6 04bd b00a 47bd eeea acbc 3cfa 2dbc
000001c0: cfc6 3fbb 776d 82bd 09d5 00bd e239 54bc
000001d0: 4f76 98bd d417 873b 1183 653c e963 21bd
000001e0: fb63 fcbb 20e5 e93c 69cf a5bd 3959 8abd
000001f0: 3489 1f3d 3816 d0bd cfca 31be 0bca 423d
00000200: 9faa 223d 6214 b6bd 5958 583b b090 a83c
00000210: dce9 1bbe 60b3 a73c 3f9c 7a3c 855f 433e
00000220: 2774 5b3a e9cf f7bc 27f6 f73d 267c 9abd
00000230: be43 58bd 847e 523e 642a e5bc 4e1d babd
00000240: 68f1 013d 67a0 4abd 61cd 56bc 8a3b 58bd
00000250: 24a1 c7bc 77b6 11bc 0b46 40bb 6a78 d8bc
00000260: 3b6a 8e3d 1289 27bd b5f0 01bc 484c 163c
00000270: efb9 42bd cf7b f4bc 59cf 7dbc 9518 17bd
00000280: 6b19 003d 9f55 9dbd 7f26 f6bb 6d6d 363c
00000290: 261c a3bd 9622 cd3d 6a26 ac3d cd79 9ebd
000002a0: 4729 e33c 9d5f 5c3d 9b04 49bd 13ef b6bd
000002b0: 118f cfba 41c2 a8bd c9f9 0abd ef66 7f3b
000002c0: 3ec9 83bd bc5b 05bd 71a1 fcbc 71a5 91bd
000002d0: f714 323c 6265 3fbd 50bc 42bd 8121 083d
000002e0: 24df 0dbd 3b4a 62bd 0a1c 0e3d 8bbf 79bd
000002f0: e925 34bd d84e a3bd 5b25 64bc b3d2 90bd
00000300: 1812 973d b0db 38bb 4505 a7bd f876 82bc
00000310: 06c2 393c a04a aabd 35d6 f1bd 83bd 533d
00000320: 58e0 bc3d c1de f9bc f0d8 34bd 8cb1 b93c
00000330: 30a7 95bd 50ec e73c 9d0e cdbd 7467 7cbc
00000340: 0039 353a c98d 66bd 81d9 4cbc fc59 afbc
00000350: dc72 8fbc ebe4 0cbc a37a bbbb 06d2 adbc
00000360: 666a 4c3c 925b 6dbd cdb6 e0bb c065 dbbc
00000370: 4320 a0bc 7965 923d 4fce 0dbc 2a69 5ebd
00000380: 4314 bd3d f0d9 cebc a905 8f3d 3b8f d33c
00000390: 5c1c 56bd b943 af3c e136 b63c 18fb 88bd
000003a0: 3929 2cbb c95d 453d 59f0 44bd e1f7 04bd
000003b0: 21f3 9ebd 5bfc 31bd ac06 cd3c fb68 3e3c
000003c0: 284f c4bd f001 a6bd 8a31 8abd 743d 04bd
000003d0: 48a0 72bd d552 15be 1a33 c6bc 52ed 00bd
000003e0: 2f79 c3bd f2c5 27bd 561b 35bc 9f6a b7bc
000003f0: 82f1 543d 9fcd a7bc 00e1 e6bd 210e 98bc
0.056356285 0.10176586 0.09551782 -0.0009541487 -0.030964857 0.0065548536 -0.014397889 0.0059930687
0.054400165 0.012537976 -0.013043981 0.017666701 0.0018276168 0.011384062 -0.044656247 0.06125623
0.009039362 0.024022464 0.018107582 0.01966969 -0.0429355 -0.05270888 -0.028215423 -0.019819349
-0.08817343 -0.13757141 -0.06680668 0.03602845 -0.061417878 -0.046897024 -0.052526284 -0.030135417
0.0035930448 0.0145942625 -0.08350546 0.003001681 0.020488387 0.004450575 0.07270972 0.011525037
0.0336941 0.033971597 0.073897354 0.03095154 -0.13980192 0.13742864 -0.03559048 -0.16342668
0.016469585 -0.045253873 -0.07467934 0.04025746 0.06638898 -0.030300817 0.031451426 -0.026452383
-0.10055321 0.044565167 -0.038527284 -0.06627942 0.0120593775 -0.061989803 0.0012780862 0.023235176
-0.012351968 -0.008462677 0.034467526 -0.023884624 0.002106931 0.055261057 0.03488899 -0.109314814
0.03289081 -0.057967894 -0.094013944 0.020921381 0.056826398 -0.07547601 0.07754862 0.04820093
-0.04461032 -0.025710871 -0.106240004 0.055607997 -0.014542977 -0.14219779 0.011852431 -0.026544435
-0.21685027 0.0065054637 -0.10981068 -0.06171642 -0.12160393 -0.05273598 -0.023601789 -0.028688766
0.03159489 0.017937934 -0.009224801 0.026215862 -0.04485178 -0.0025605084 -0.012711796 0.002239613
-0.034877237 -0.10167863 -0.0036779218 0.001290873 -0.032431073 -0.048594177 -0.021108117 -0.010618743
-0.0029262786 -0.06368535 -0.031453166 -0.012953253 -0.074444406 0.0041227136 0.014008299 -0.039401922
-0.0077023483 0.028551638 -0.08096201 -0.06755299 0.038949206 -0.10160488 -0.17362522 0.047555964
0.0397135 -0.088906065 0.0033011644 0.020576805 -0.15225929 0.020471275 0.015296041 0.19079407
0.0008371495 -0.030250506 0.12107497 -0.07543211 -0.05279898 0.20556074 -0.027974315 -0.09087621
0.031724364 -0.049469378 -0.01311049 -0.052791156 -0.02436883 -0.008893601 -0.0029338624 -0.026424605
0.069538556 -0.040902205 -0.007930924 0.00917346 -0.0475406 -0.029844193 -0.01549133 -0.036888678
0.03127424 -0.076823466 -0.0075119133 0.011134488 -0.07964353 0.10016362 0.084057644 -0.077380754
0.027729644 0.05380212 -0.049076658 -0.089323185 -0.0015835484 -0.08240176 -0.03392962 0.0038971265
-0.06434868 -0.032558188 -0.0308387 -0.071116336 0.010869256 -0.046727546 -0.04754287 0.033235077
-0.03463663 -0.055246573 0.03469471 -0.060973685 -0.043981466 -0.079740226 -0.013924922 -0.07071438
0.07376498 -0.0028207116 -0.08155302 -0.01592587 0.011337763 -0.08315015 -0.11808435 0.051694404
0.09222478 -0.030501725 -0.0441522 0.022667669 -0.07307279 0.028310925 -0.10012553 -0.0154055245
0.0006913096 -0.05628756 -0.012503029 -0.021405213 -0.017510824 -0.0085995 -0.0057214065 -0.021218311
0.012476539 -0.057948656 -0.006857729 -0.026781917 -0.019546634 0.071482606 -0.008655145 -0.05429951
0.0923238 -0.025250405 0.069835015 0.025825134 -0.05227314 0.021394597 0.022242965 -0.06688517
-0.0026269688 0.048185144 -0.048080776 -0.03246296 -0.07761217 -0.043453556 0.025027595 0.011621709
-0.0958541 -0.08105838 -0.0674773 -0.03228517 -0.059234887 -0.14582379 -0.024194289 -0.031476326
-0.09544598 -0.04096026 -0.011053881 -0.022389708 0.051988132 -0.02048379 -0.11273384 -0.018561425

body.block3.conv.bias f4 [32]
00000000: 16ad 213b 822f 053c 9528 10bb 83ed 1bbd
00000010: 347c 843d 36b7 3bbc a6f0 973c e4fe db3c
00000020: 594f f839 09f7 323d 3fc1 4dbd b865 7a3c
00000030: fb44 d9bc 190c 81bc 2c07 89bc c814 9a3d
00000040: 07c4 053d 3be5 9abc 299a 92bc f28a d2bc
00000050: 598a 5ebb 072c 863d 9024 5cbc a945 c93b
00000060: 0fed b9bb 231c 943c 2e82 7a3d b19f 4dbd
00000070: 0cbb 223d d557 83bc 39cc 913d 2ab6 9f3a
0.0024669818 0.0081290025 -0.0021996845 -0.038068306 0.06469002 -0.011457255 0.018547367 0.02685494
0.00047361365 0.043692622 -0.050233122 0.015283041 -0.02652215 -0.015752839 -0.016727053 0.07523495
0.03265765 -0.018908134 -0.017895775 -0.02570102 -0.0033956973 0.06551366 -0.013436452 0.0061423373
-0.0056740115 0.018079823 0.061159305 -0.05020112 0.039729163 -0.016033093 0.071190305 0.0012185026

body.block3.norm.weight f4 [32]
00000000: 95f2 343f 593c 563f 7784 4b3f 056e 3d3f
00000010: 4df2 4e3f f867 473f ab5b 383f 3c42 443f
00000020: 8698 4e3f 5577 5c3f 3d3a 433f 68ce 413f
00000030: 07f1 473f 5730 223f 867b 613f babd 503f
00000040: 5def 2e3f 9d39 4d3f cb9c 2e3f 282a 4e3f
00000050: 5576 2f3f abad 583f 93ee 173f a499 353f
00000060: 1555 413f ba7a 2a3f 244c 633f c427 4d3f
00000070: 4c43 393f edfe 343f 87d5 5e3f d451 233f
0.7068265 0.83685833 0.79499 0.73996 0.8083847 0.7789302 0.72014874 0.76663566
0.8070148 0.86119586 0.7626074 0.75705576 0.78102154 0.6335501 0.88079107 0.815395
0.6833399 0.80166036 0.68208 0.80533075 0.68539935 0.84639996 0.5934841 0.7093756
0.7552045 0.66593516 0.88788056 0.801388 0.7236831 0.70701486 0.87044567 0.63796735

body.block3.norm.bias f4 [32]
00000000: 1ed6 16bf 95e5 7a3c 5202 3cbe 3cfb c6be
00000010: ef89 d7bd cd03 5abd 713e a7be 7814 e8be
00000020: 089a 27be 9937 db3c 4b91 8e3d 8879 30be
00000030: 0fec dabd 67b2 2dbf b340 f6bd fa34 00be
00000040: 985f 12be 30ce b4be 337a 6ebe 22c6 43be
00000050: 600b ccbe 66d2 8ebe c509 08bf 75db b2be
00000060: 7f3a 97be 6d18 59be 3584 4bbf 797a c7be
00000070: 88d2 b0be a88d 2abf 7809 d5be 5024 98be
-0.58920467 0.015313526 -0.1836026 -0.38863552 -0.105243556 -0.05322628 -0.32664827 -0.45328116
-0.16367352 0.02675991 0.06961306 -0.1723386 -0.10689556 -0.67850345 -0.12024059 -0.12520209
-0.14294279 -0.3531356 -0.23288803 -0.1911855 -0.39852428 -0.27894896 -0.5313991 -0.34933057
-0.29536816 -0.21200724 -0.79498607 -0.38960627 -0.34535623 -0.666224 -0.41608787 -0.29715204

body.block3.norm.running_mean f4 [32]
00000000: ac28 29bf be14 c93e c39b 3bbf 64c1 eabe
00000010: f1a9 9cbe f8ef 82bf 38ff 12bf 733d adbe
00000020: 2695 0cbf 191b 46bf e801 debe bffb 87bf
00000030: b55f 67bf aad6 f6be 714f 543f f271 e93d
00000040: 3f65 a2be 91e6 1cbf 100d 4ebf 2e26 f7be
00000050: 71f6 15bf c2c4 26bf 4526 6bbf ccd6 0a3f
00000060: 6dce 21bf 8383 ecbe 65a8 25bf fc90 30bf
00000070: 6ac1 e7be 8b1c 5ebe f9da 86bd a8a5 5bbd
-0.66077685 0.39273638 -0.7328455 -0.4585067 -0.30598405 -1.0229483 -0.5742068 -0.33835945
-0.5491508 -0.773851 -0.4336083 -1.0623702 -0.9038041 -0.4821065 0.8293372 0.113986865
-0.3171787 -0.61289316 -0.8048868 -0.48271316 -0.58579165 -0.6514398 -0.9185527 0.54234004
-0.63205606 -0.46194085 -0.64710075 -0.6897123 -0.4526475 -0.21690576 -0.065847345 -0.05362478

body.block3.norm.running_var f4 [32]
00000000: 88ba ca3e d26f 5d3f b6bc 3c3f 487a 163f
00000010: db2e 733f 05c3 b33f e867 4c3f 8fdf df3e
00000020: 1b97 a93e 4c9f 0040 d4cb 193f e13f 8a3f
00000030: 4ca7 ae3f 57c1 b83e eb9b 523f 3b24 3d3f
00000040: 0958 d63e 2c6d 063f d605 593f 168a ce3e
00000050: d1f8 203f fdc9 ba3e 1cff b23e f30a d03f
00000060: 2fca e73e d38a ec3e f207 183f 0877 403f
00000070: eb4b eb3e 8a9b fd3e dcc8 e83e 5767 e23e
0.39595437 0.8649875 0.7372545 0.58780336 0.9499337 1.404389 0.7984605 0.4372525
0.33123097 2.0097227 0.6007664 1.0800744 1.3644805 0.36085007 0.8226916 0.7388341
0.4186404 0.52510333 0.8477453 0.40339726 0.62879664 0.3648223 0.34960258 1.6253341
0.4527144 0.46199664 0.59387124 0.7518163 0.45956358 0.4953273 0.45465744 0.44219467

tail.0.weight f4 [3, 32, 3, 3]
00000000: 7dd6 4fbe 72d5 bf3d 83ec 873d 9a01 53bd
00000010: 1e10 a83c fcc2 313c 75da f9bd 8d98 193d
00000020: 73e6 953d a360 073b 602d d6bc c633 023d
00000030: 87c7 0f3d 01f2 bb3b 8dc5 6dbd 347a 0d3d
00000040: a38c 2abc 072c 0dbe e10d 15bd 1acf 18bd
00000050: 71b3 babc 7ea3 423b 197b b33c a950 093d
00000060: 1e85 5a3d c95b 443d 87c6 af3c 036e 3b3d
00000070: 9a72 4dbc eed8 953b 1bc1 133d 38ef d73c
00000080: 9f28 bf3b bc28 c8bd f7dc 76bd 4f57 d6bd
00000090: f8d4 903b 772b 263d b014 a0bd 38a8 2c3c
000000a0: ed7f f3bb 1754 21bd 53e6 773d 9a7f 4f3c
000000b0: 3ab0 8bbd 6281 c93c 0fda debc ab9b 3cbd
000000c0: 4037 33bd c12b 9aba ccf3 be3c f8a5 343b
000000d0: 0ddb 673d e1c2 323d a822 763c 1bc7 94bd
000000e0: 611b f9bd 75f6 0dbc 5732 a7bb 63d6 833b
000000f0: 1c23 77bc c7ee 20bd b8db 593d 33e8 a43d
00000100: 780f 55bd 9362 69bd b25f 453c 0961 71bb
00000110: b0e9 d6bc 07b2 6b3d 2318 753c da75 943c
00000120: f9d9 a9bd 0d60 923c 1eea 8d3b 424f 983c
00000130: 29b7 0d3c 4300 f63c 8dc2 283c b967 9bbb
00000140: 4e21 3dbd 10b4 6ebd 0484 27bd 2014 41bd
00000150: ac0b 373c 101a 1d3d a0bd 643d 0804 233d
00000160: 5feb 8c3c 34a6 5abb b0f1 9a3d e622 c6bb
00000170: 12d5 febd 1192 113d 5e5b 173c 7c11 013c
00000180: e6fd f8bc a5c9 573c 0473 bdbc 48cf e13c
00000190: 0431 133d f30a 113c a2a2 ad3a 7c7a 0f3c
000001a0: 8737 d83c f07b a8bd 6fab 99bc b2b3 a6bc
000001b0: 41d3 e33d 42c2 323d 6072 3a3c adb9 803d
000001c0: 5973 e63c 4759 1ebd 3398 1d3d 9c76 73bb
000001d0: ed69 26bd c72c 52bd 5114 bc3c 7108 3ebe
000001e0: 6825 8c3a 6e26 803c 34c1 12bd 0e93 543d
000001f0: ddd0 d23d 5406 0b3e e095 d7bd dacf d8bc
00000200: bad1 a9bc 3eec 8fbd 24c2 313c ae73 053d
00000210: 0b8a 71bd 4d31 5a3d 5bac 223d 0ba5 333c
00000220: 94f4 08bd 28c1 333d bce7 673d 062e 2b3c
00000230: a940 bebc bc67 803c d9a6 6bbd ea81 33bd
00000240: 267f 433b 1a96 4ebc 2dd2 1f3d c7bf 503d
00000250: 1d43 3bbc b6df 83bc c556 913d a3b2 94bc
00000260: c043 6cbd 40a1 363d f8de 8ebc ee2b e5bd
00000270: e1bb 50bc 99f7 c0bb 0804 1e3d e4dc 61bc
00000280: ec46 043d 12e2 2b3d f75d b7bc b596 583c
00000290: 7e80 8d3c 4533 3ebb de68 e7bc 775b 143c
000002a0: 8270 8f3c c9de ee3a aba5 40bd 370d 923d
000002b0: 7ebb 013c a5ac 0cbe 2fdf 103d 468f aebc
000002c0: b1a7 6c3b 5e0f ce3c ef47 5cbc dd75 8f3c
000002d0: 2656 433d 1d35 db3c 627e c93d 60f0 f5ba
000002e0: b231 2ebd 4a09 04bd 9541 67bd 7597 2fbc
000002f0: 7c81 48bd 2d7e b13c ff69 723c 3621 173c
00000300: 3709 b7bc a5a7 d33c 336a 3d3d 74b9 96bd
00000310: e2fe 9cbd e526 f63c 388d a93b 889a e0bc
00000320: c142 7b3d c351 81bc 0cc6 73bd f029 2b3d
00000330: c575 d8bd 575b 12be ab48 bd3c 1049 a2bd
00000340: 0c5a 673a b25b eebc 6875 22bd ecb4 fc3c
00000350: f76a ab3d 81cf 6dbc 776a b43c b620 e3bb
00000360: e1b5 143d 2622 c33c 464d b2bd f807 8a3c
00000370: b46e 263c 6039 423d ed4f bfbd 874a 4a3c
00000380: bdf7 443d 83f8 0fbc d650 12bd 9b76 a1bc
00000390: b9b1 d73c d4c6 923c 0f5b ed3c 9e96 303d
000003a0: f2c5 9a3d ce9d b03c 2c2a abbe 4e8d 0fbe
000003b0: 0cd1 88bd 8432 a2bd 5bc0 77bd a8e2 3abc
000003c0: f364 26bb 9242 a0bc b88d 8b3c ed1a 03bd
000003d0: 4f8c 99bd b11e 2a3d 76f9 083d 7e3d 55ba
000003e0: 6974 b7bc d14e 043e 294e 723c da20 0bbd
000003f0: 4a84 9dbd b525 063d acf4 88bd b393 30bc
-0.20296665 0.09366883 0.06636908 -0.0515152 0.020515498 0.010849711 -0.121998705 0.037499
0.07319345 0.0020656965 -0.026144683 0.031787656 0.035102393 0.005735636 -0.058049727 0.03454037
-0.010409507 -0.13786326 -0.03639019 -0.037306882 -0.022790642 0.00296995 0.021909283 0.03352419
0.053349607 0.047939096 0.02145697 0.045759212 -0.01253953 0.004572979 0.03607283 0.026359186
0.0058337 -0.097733945 -0.060269322 -0.104658715 0.004419919 0.040568795 -0.07816446 0.010538153
-0.0074310214 -0.039386835 0.06052239 0.0126647 -0.06820722 0.024597827 -0.027203588 -0.046046894
-0.043753862 -0.0011762307 0.02330961 0.0027564745 0.056605387 0.043642882 0.015022911 -0.07264539
-0.12163425 -0.008664717 -0.0051024365 0.0040233596 -0.015084054 -0.039290216 0.053188056 0.08052101
-0.052016705 -0.056978773 0.012046741 -0.003683152 -0.026234478 0.057542827 0.014959368 0.018122602
-0.08293528 0.017868066 0.0043308875 0.01859248 0.008649626 0.030029422 0.010300291 -0.0047425893
-0.04617434 -0.05827719 -0.040897384 -0.047138333 0.011172216 0.038354933 0.055844903 0.039798766
0.017202077 -0.0033363225 0.075656295 -0.0060466407 -0.12442984 0.03553969 0.009238092 0.007877704
-0.030394506 0.013170634 -0.023126133 0.02756466 0.035935417 0.008852708 0.0013247321 0.00875723
0.026393665 -0.08226764 -0.018758504 -0.020349357 0.11124278 0.04364229 0.011379808 0.06285415
0.028131174 -0.03865936 0.038475227 -0.0037149554 -0.040628362 -0.051312234 0.022958906 -0.18557908
0.00106923 0.015643325 -0.035828784 0.051898055 0.10293744 0.13576633 -0.10526633 -0.026466299
-0.020729888 -0.070274815 0.010849509 0.032581024 -0.05896954 0.053269673 0.039715152 0.010964642
-0.033436373 0.04388538 0.056617483 0.010447985 -0.023224192 0.015674464 -0.057532165 -0.043825068
0.0029830425 -0.012609029 0.0390188 0.050964143 -0.011429575 -0.016097885 0.07096628 -0.018151587
-0.0576818 0.044587374 -0.017440304 -0.111900195 -0.012740106 -0.005888891 0.038578063 -0.013785575
0.0322942 0.041963644 -0.022383673 0.013219525 0.017273184 -0.0029022258 -0.028248247 0.00905501
0.017509703 0.0018224354 -0.047032993 0.07131427 0.007918237 -0.13737734 0.035369094 -0.021308552
0.0036110694 0.025153812 -0.013444885 0.017512256 0.04768958 0.026758725 0.09838559 -0.0018763654
-0.042527862 -0.03223542 -0.05645903 -0.0107172625 -0.04895161 0.02166661 0.014795779 0.009224227
-0.022343261 0.025836775 0.046243858 -0.07359591 -0.076658025 0.030047843 0.0051743053 -0.027417436
0.06134296 -0.015786057 -0.059515044 0.04178804 -0.10569338 -0.14292656 0.02310594 -0.07924092
0.0008825369 -0.029096458 -0.03966275 0.030847989 0.08370011 -0.014514805 0.022023423 -0.0069313897
0.036306266 0.023819994 -0.08706145 0.016849503 0.01015823 0.047418 -0.093414165 0.01234687
0.048087824 -0.008787277 -0.035721622 -0.019709876 0.026329862 0.017917074 0.028974084 0.04311239
0.07557286 0.021559622 -0.33430612 -0.14018747 -0.066804975 -0.07919791 -0.06048618 -0.011406578
-0.002538976 -0.019562993 0.01703535 -0.0320081 -0.07497465 0.041533176 0.03344103 -0.0008134468
-0.022394376 0.12920691 0.014789143 -0.033966877 -0.07691248 0.032750804 -0.066872925 -0.010777402

tail.0.bias f4 [3]
00000000: df1b e5bd 9268 973d 8875 5cbe
-0.111869566 0.07392992 -0.2152921
