TrainedModels/trees3/scale_factor=0.750000,alpha=10/0/netG.pth (torch, 130203 bytes, 26 tensors)

head.conv.weight f4 [32, 3, 3, 3]
00000000: 7943 643c f4ff 73bc 3520 00bc cbe9 263d
00000010: 029b 313c cc4b b9bd 7e38 a9bd e226 13bc
00000020: 5710 153d 796e cabc 209d 56bc 53dd 64bc
00000030: 5a70 863d a5f9 fc3c 6b79 45bd 0f7a ddbc
00000040: 4cc7 11bd 45a3 843d 455f b7bc 7a99 4b3c
00000050: 4f24 e53b d959 cb3c ac05 cb3a 6ff3 63bd
00000060: 68ac 99bd df44 8cbd 89e4 3f3d 859b fc3d
00000070: eb41 14bc 0270 9abc 5868 09bc f1fd 403c
00000080: 0dc6 16bd 25c0 a2bc fb0d 22bc 6a9c 7dbc
00000090: 9bd5 e63d 819c 673b 5be8 95bb b28b f6bc
000000a0: 614f 5c3c 9261 f73c 0e30 36bd 06c0 343d
000000b0: 80e6 483c dd5a e63d 0f27 0cbd 3a90 2dbc
000000c0: 3568 07bd caa4 bdbc c771 243c 40dd 66bd
000000d0: d056 003c 21fb 6bba af52 993e afbb 033c
000000e0: 87d8 713c 5d48 acbb 6eff 19bd 7b68 863b
000000f0: 1957 b3bb df0a 2e3c ab5c 8dbc c067 a53e
00000100: 7d5d 06bc 0e7f d7bb 52be ae3c 943e 253d
00000110: 2f7b acbc dc51 4cbc de65 2cbd e70c 06bc
00000120: 9560 943e 99f5 6bbb 7715 7dbc 7087 96bc
00000130: 6f01 26bc 48b6 463c 3c7f 133c e44c ec3c
00000140: 4f04 c13c 29b6 553c 33cb b3bc 057f 4fbc
00000150: d0bf 013d d2fd da3b b8a3 adbb bc82 10bd
00000160: fc15 c93d 2ef4 3d3c e1c0 b53c 4aca 03bd
00000170: b040 fbbc a7f4 43bb 0d0e 663b b90b 843c
00000180: 3257 5ebd cd64 9c3d 5615 623d 97e8 f9bb
00000190: dc82 19bd eded cfbc b563 9d3c b682 0f3d
000001a0: 083f 4dbd 6d9b afbd dd88 4d3d 629c ac3d
000001b0: a3e8 93bc e30b b4bb 7d1f 7b3c 5508 d03b
000001c0: e33b fbbb a8ac 02bc bf1e 93be 9837 f8bb
000001d0: 6811 1b3b a957 e53c 96be d53c da68 d23c
000001e0: a2b7 e13a 32f6 383c 3f47 bc3c 7ff0 96be
000001f0: 51d7 313c 16df 02bd 8877 0cbb 18fe 9c3c
00000200: 624e dcbc a83b 6abc a21d 783a f976 9cbb
00000210: 57f7 9cbe 4099 7b3c 8930 fc3c b776 9abd
00000220: 2931 eabc 7a4b 233d a267 0f3c b657 5abd
00000230: 108e 713d a1a8 93bc 0a78 7fbb e36a 59bd
00000240: 0467 66bd 1d33 4bbb 08db 653c fce9 223d
00000250: 4410 43bd 468c 143d fc4e 0b39 2a68 a83c
00000260: b24b fcbc 41fa 77bd 1aca 69bc 0491 573d
00000270: a0fc 9a3c 66cd 73bd 14eb 323d 5aa0 653c
00000280: f4ab fc3c d7b8 11bd a3c9 3abd c5ba 49bc
00000290: 6a26 0f3c a046 a83c c500 1a3d 4a72 923c
000002a0: b4f2 efba 808e 00bd 1d6a 3bbe 94e6 d63b
000002b0: 963a d53a ef36 a33c 9089 7b3c 8235 a83c
000002c0: 84c5 1cbc 7795 5c3c e471 3e3d 171a 61be
000002d0: a8f5 b03c b332 6e3b db1b 973c 4d9e 8abc
000002e0: d873 01bd 1aff 873b 9233 b23c 5e41 983a
000002f0: b9c1 4ebe 9f7e 2a3d 21c0 2bbd 26fb 48bd
00000300: d702 21bd 0b63 063d 0795 30bc 1c89 fc3b
00000310: 19c6 9cbc 528f 3a3d b965 3f3d 4382 c5bc
00000320: 5fe9 cbbc c759 a9bd 72e5 6f3c c9be 53bc
00000330: 05b5 b13c 4b71 53bd f627 ca3c 151a 0b3d
00000340: 2b39 fc3a 4a6d 8cbd 83c3 04bd 6b26 453d
00000350: 3dea 42bd 9376 9c3c 91e5 37bd baee 4d3d
00000360: a871 16bd 0a2c b4bc 6eec 4abd 041b 9dbc
00000370: 0e1e 363c 2acf a83d fd23 743c f46e cb3b
00000380: 75f3 57bd 03cd b3bc 3bdb 8dbb ce56 adbd
00000390: b114 753c 2620 43bb 1c86 b23d cef6 4b3c
000003a0: dc2a fdbb 8b87 59bd 0b3f 02bd 082f eabc
000003b0: 46b9 34bd f800 2ebb a359 c0bc 4861 313d
000003c0: a95b 48bc 63b4 453c 6da5 61bd a12a da3c
000003d0: 69b4 f23c fa58 9c3c 71c0 6d3c f58e 61bc
000003e0: 42cb b73c 40b6 dc39 36cd 043b 16e4 8ebe
000003f0: 3861 1ebc c24a ddbb 644e ee3b c604 42b9
0.013932102 -0.014892567 -0.007820179 0.040750306 0.010840179 -0.0904766 -0.08262728 -0.008981438
0.036392536 -0.02471088 -0.013098985 -0.013968783 0.06564398 0.030880759 -0.048211496 -0.027035741
-0.035590455 0.06476454 -0.022384295 0.012426728 0.0069928537 0.024823116 0.0015489361 -0.05565208
-0.07503587 -0.068490736 0.046848807 0.123343505 -0.009048919 -0.018852238 -0.008386694 0.011779294
-0.03680997 -0.019867012 -0.0098910285 -0.015479187 0.11271211 0.0035341086 -0.004574818 -0.030095909
0.01344666 0.030197892 -0.044479422 0.04412844 0.012261987 0.112477995 -0.034216937 -0.010593468
-0.033058364 -0.023149867 0.010036892 -0.056363344 0.007833198 -0.00090019597 0.29945895 0.008040353
0.014761097 -0.00525765 -0.037597112 0.0041018105 -0.0054730293 0.010622709 -0.017256102 0.32305717
-0.008201 -0.0065764254 0.021330986 0.040342882 -0.021054832 -0.012470689 -0.042089336 -0.008181787
0.28979936 -0.0036004542 -0.015447012 -0.018375129 -0.010132178 0.01212842 0.009002503 0.028845258
0.023561625 0.013043919 -0.021947479 -0.012664561 0.031677067 0.00668309 -0.005299058 -0.035280928
0.09818646 0.0115938615 0.022186698 -0.03217534 -0.030670494 -0.0029900463 0.003510359 0.016118871
-0.054282375 0.07636414 0.05519613 -0.007626604 -0.037478313 -0.025382007 0.019212583 0.035036765
-0.05010894 -0.08574567 0.05017935 0.08428265 -0.018055266 -0.005494581 0.015327332 0.0063486495
-0.007667051 -0.007975735 -0.28734395 -0.0075749867 0.0023661498 0.027995901 0.026091855 0.025684763
0.0017220865 0.011289166 0.022983192 -0.2948036 0.010854558 -0.031951033 -0.002143355 0.01916413
-0.026892845 -0.01429645 0.0009464865 -0.004774925 -0.30657455 0.015356362 0.030784862 -0.07542174
-0.028587895 0.039866902 0.008752735 -0.053306304 0.058973372 -0.018024744 -0.003898146 -0.05308045
-0.056250587 -0.0031005808 0.014029272 0.039773926 -0.047622934 0.036266588 0.00013285497 0.020557482
-0.030797813 -0.060541395 -0.014269376 0.052628532 0.01891929 -0.059522055 0.04368122 0.014015282
0.030843712 -0.035576668 -0.045602452 -0.012312596 0.008737186 0.02054149 0.03759839 0.017876763
-0.0018306584 -0.0313859 -0.18302198 0.006558249 0.001626807 0.019923655 0.015352622 0.020533327
-0.009568576 0.01346337 0.046495333 -0.21982609 0.021601513 0.0036346137 0.0184459 -0.016921187
-0.031604618 0.0041502835 0.021753106 0.0011616161 -0.20191087 0.04162466 -0.041931275 -0.04906764
-0.03930935 0.0328093 -0.010777718 0.0077067744 -0.01913743 0.045546837 0.04672787 -0.024109965
-0.024891553 -0.08269077 0.014642106 -0.012923905 0.021692762 -0.051621716 0.024677258 0.03396042
0.0019243112 -0.06856783 -0.032413017 0.04813234 -0.04758667 0.01909951 -0.044896666 0.050276496
-0.036729485 -0.021993656 -0.049541883 -0.019177921 0.011115564 0.082426384 0.014901158 0.006208295
-0.052722413 -0.021948343 -0.004329113 -0.08463822 0.0149585465 -0.00297738 0.087169856 0.01244898
-0.0077260565 -0.05310778 -0.031798404 -0.02858688 -0.044122003 -0.002655087 -0.023480242 0.043305665
-0.012228885 0.012066933 -0.055089403 0.026631655 0.029627042 0.019085396 0.014511214 -0.013766994
0.022435788 0.00042097457 0.0020263917 -0.2790839 -0.009666733 -0.0067532966 0.0072725285 -0.0001850306

head.conv.bias f4 [32]
00000000: 482e 26be 3c98 003e a5eb 42be ea17 a33d
00000010: 777d 09be 6c38 3dbe bda4 d2bd bada 20bd
00000020: 256c 923d 98ba 30be a24c 24be e1d4 11bd
00000030: 0f96 283d f531 05be 3eb3 3e3e 17db 5c3d
00000040: 328f db3c b5d8 3abe ce7a 02be 51eb 3fbd
00000050: f620 a3bd 3253 e2bb 7023 a9bd 28d8 383d
00000060: 7673 a7bd 857f 313d a85e 803e 2623 77bc
00000070: 520f 99bc c7e5 7b3d 2522 32be f670 25bc
-0.16228592 0.12558073 -0.19035204 0.079635456 -0.13426767 -0.18478554 -0.102853276 -0.039271094
0.07149533 -0.1725868 -0.16044858 -0.035603408 0.041158732 -0.13007338 0.18623063 0.053919878
0.02680168 -0.1824673 -0.12742159 -0.046855275 -0.07965271 -0.0069068903 -0.08258712 0.045128018
-0.08176319 0.043334503 0.25072217 -0.015084064 -0.018684063 0.06149843 -0.17395838 -0.010097733

head.norm.weight f4 [32]
00000000: 2c58 523f df4b 623f a3bb 973f 08d2 4d3f
00000010: 066a a33f 40e5 473f b5c9 7b3f d73b 503f
00000020: 85da 4f3f 032c 943f 9771 6c3f 70a9 473f
00000030: c57b 813f 849a 583f 35b7 7c3f 20c6 963f
00000040: a288 9d3f ad2c 5a3f 5fe3 453f 9b85 603f
00000050: 8490 633f 9569 6e3f d41d 753f 3ae4 903f
00000060: bf7e 563f 9132 6a3f 1870 683f 9694 663f
00000070: 3291 4c3f 14ac 473f 1280 823f 53ee 4d3f
0.8216579 0.8839702 1.1854137 0.8039861 1.2766731 0.7808418 0.98354656 0.8134131
0.8119281 1.1575931 0.92360824 0.77992916 1.0115896 0.8461077 0.9871705 1.1779213
1.2307322 0.8522442 0.77300066 0.87703866 0.8889239 0.93129855 0.9574864 1.1319649
0.8378715 0.9148341 0.9079604 0.90070474 0.7990905 0.77996945 1.0195334 0.8044178

head.norm.bias f4 [32]
00000000: 6bd8 29be 3965 14be 997e 2ebd 6898 e4bd
00000010: a78e 5ebc 225b 2abe 3a64 2dbd ae4c 4fbd
00000020: 0a9f b0bd 645a 7ebc 501d 51bd 7377 6cbe
00000030: 8b20 23bd 188a 9cbd 07da 6ebd d845 2dbd
00000040: 2450 41bc 0563 46be 6bd2 0dbe 96bc ebbd
00000050: 1172 a4bd 11bf cbbd b76c 3fbd 5ee1 d3bc
00000060: 52c6 3abe 0e20 80bd 881a 0abd 2872 39bd
00000070: ef1d 18be fffe e5bd f70d 5fbd 736d b8bd
-0.16586463 -0.14491738 -0.0426012 -0.11161882 -0.013583816 -0.16636327 -0.04233191 -0.050610237
-0.08624084 -0.0155244805 -0.051053345 -0.23092441 -0.039825957 -0.07643527 -0.058313396 -0.042302936
-0.011798892 -0.1937371 -0.138498 -0.11510579 -0.08029569 -0.099485524 -0.046734538 -0.0258643
-0.18239716 -0.06256114 -0.03371671 -0.045274884 -0.14855169 -0.11230277 -0.054456677 -0.09005251

head.norm.running_mean f4 [32]
00000000: 0305 27be d207 013e 81e1 3fbe c1df a33d
00000010: b960 0cbe fccb 3dbe 801f d6bd ca80 23bd
00000020: b679 903d 1b90 33be 628c 24be ee74 11bd
00000030: a698 2e3d e1fc 04be ba25 3d3e dbfb 693d
00000040: 8b26 fc3c ccee 3abe 47af 02be b93f 41bd
00000050: 14b9 a1bd c513 07bc 0ffa adbd a377 423d
00000060: a5b3 a7bd 048d 323d 6a8d 803e 906b 74bc
00000070: bfba 9abc 9db6 7c3d 0051 34be 90af 2fbc
-0.16310506 0.1260064 -0.18738367 0.08001662 -0.13708772 -0.18534845 -0.10455227 -0.039917745
0.070544645 -0.1753544 -0.16069177 -0.035511903 0.042626046 -0.1298709 0.18471423 0.057124954
0.030780097 -0.18255156 -0.12762176 -0.04717991 -0.07896629 -0.0082444595 -0.084949605 0.047477376
-0.08188561 0.043591514 0.2510789 -0.014918223 -0.018887876 0.06169759 -0.17609024 -0.01072301

head.norm.running_var f4 [32]
00000000: 5e24 a93d 26d3 c43d a41d 0c3f c458 a73d
00000010: 8282 053f 58da 9a3d b928 7a3e 0f97 8c3d
00000020: feaa 973d 509a df3e 0ee9 f73d 7960 893d
00000030: 1b50 223e 491a d33d 140f 243e 64d1 023f
00000040: 9d50 493f 4810 a13d 2437 943d 21bf ad3d
00000050: 74ec 053e f28b 0c3e ef7a 8c3e 17e6 b83e
00000060: dcdf ab3d 10d6 123e 7f6e f53d 4192 e83d
00000070: 934b 913d 83f2 b23d d0c3 693e d37e cd3d
0.082588896 0.09610586 0.5473273 0.081712276 0.52152264 0.07561177 0.24429597 0.0686475
0.07405661 0.4367242 0.121049985 0.06707854 0.1585087 0.10307748 0.16021377 0.51100755
0.7863863 0.078644335 0.0723708 0.084837206 0.13078481 0.1372526 0.2743754 0.36113045
0.08392307 0.14339471 0.11983966 0.11356021 0.07094493 0.08737662 0.22828603 0.100339554

body.block1.conv.weight f4 [32, 32, 3, 3]
00000000: 76c8 653c 19d1 213d 154e e4bd 3db5 e1bc
00000010: 2e29 1c3d f82d ea3c e4fd 52bc e7dc 1f3d
00000020: 797f 763c 797b edbd efff a5bb b7f6 84bd
00000030: 5622 43bd 45bd c73c c2ff c0bc a5ea a1bc
00000040: 449c 723d 01b9 9a3d 96b9 e3bd 65d0 35bc
00000050: c73d 89bc 7c68 9ebd 7d54 94bd 125e 61bd
00000060: ed73 a8bc 12cf 3cbd 1cd1 84bb ab62 6bbd
00000070: fe02 2cbc d4bc 34bc dd88 4ebc 6f43 7bbd
00000080: 37f7 213d 849f abbc c616 ed3b 8e53 793d
00000090: 5210 cebc 85f5 62bc 9377 24bd 9e7e 13bd
000000a0: 73f8 b4bc 3277 1c3d 0039 e1bd d00f 313d
000000b0: 379a f93c 5ca6 34bd a68c 61bd 7444 bc3c
000000c0: 27b7 063d f8d3 46bd 2a0c 283d c708 8fbd
000000d0: b8ee a13b a3e2 71bb 2792 93bd e5f9 9638
000000e0: b92d 903c ed84 de3c 1394 26bd f4e3 00bd
000000f0: fafd 9b3c 6b92 293c 1400 963c 053e 87bd
00000100: bec6 b83c aa91 553d ee60 4cbc 901d 1f37
00000110: c104 f1bb 2c92 543c a54f 0abd 5d5e 34bd
00000120: 81f3 80bc d917 833c 91c5 833b 7bad bfbc
00000130: 19d0 953c 4648 0abb 2cc2 4bbd 0be1 febb
00000140: ddb5 ed3c 98de 05bc 421f 0bbd bee6 6cba
00000150: b426 943d 8442 bbbc 993d 07bc 0398 4f3c
00000160: 93bd 7d3c 83a6 333d ce0f d5bc 5778 97bc
00000170: b512 cabd f8ac e1bb 2a7c a2bc f850 613c
00000180: effe 21bc f190 f93c 7258 bc3b 9974 02bc
00000190: 19c3 5abd 8505 253c cbe9 493d 74d3 8a3c
000001a0: 8140 5d3d 2c53 a7bc 7f4e ec3c 095c cebc
000001b0: 47f4 d5bc 51a7 31bd 6cf2 a2bb 2b90 85bd
000001c0: 8f72 663b e060 0ebd 3ff9 e3bc c8d2 b9bc
000001d0: 2b8c 47bc 9ae8 05bd 5e9e b7bd b987 9bbc
000001e0: 6a60 9abd bd3a 283d ecb2 87bc 9544 933c
000001f0: ec56 2b3c eef3 6abc 7d5c a13d a608 063d
00000200: 4c71 a63c 4056 15bd b182 693d 1968 14bc
00000210: a846 5a3c 17f5 ea3b 8de0 dbbc f59b 983b
00000220: 9e0c aa3c f945 d53b f10c b0bd 6405 31bd
00000230: 746f d33c 1434 d23a 3bc4 4dbd 1d06 303d
00000240: 3074 3b3c c646 6abc 395e 1d3c 89d7 11bc
00000250: 8ba9 a9bc c189 1b3d cb4d 06bc ec5b 253d
00000260: 903d 593d 67c8 f4bc 4185 f5bc 15ff b2bd
00000270: 6294 543c 021e 803c be43 abbd cd59 febc
00000280: f97d 29bd 5b49 183d 3a53 d4bd af42 6bbb
00000290: 0029 4a3d b123 27bd db7c e4bc 8277 72bd
000002a0: 4647 b8bc aa91 a2bc 4ff9 dfbc 72e1 6dbd
000002b0: d897 5eba b7c9 52bd f8a3 c0bb fe58 263d
000002c0: 7c26 b5bc 931e cb3b 8730 0abd 4bb2 433d
000002d0: 0f63 0fbd 3e76 02bd b378 09bd 5ce9 3c3c
000002e0: 5600 0dbd 1ebe 1cbc ea2e 83bc 02cd 46bd
000002f0: 0ffb ca3c 5f0a a83d 98f3 a93c 5a71 4a3b
00000300: 7bb1 ecbc cf75 1c3d 2655 82bc 23a6 cfbc
00000310: d101 48bd a0ec 89bd ca8e 24bd c44e 833d
00000320: 13c5 3e3d b114 303c 42bb 283c 65dd d53b
00000330: e6b2 8dbd 9dab 9bbc 6284 783c c996 3d3c
00000340: 4b75 2ebd e224 4f3d 6f22 5fbd fcc7 c8bd
00000350: 0bbd 0f3d 61b3 313c 0925 d73c d62d 79bc
00000360: 372c 94bc 8027 40bd 1405 0bbb a4ee 8ebc
00000370: 9a14 4fbd e4f5 6a3c d9e2 bfbd 3b36 283d
00000380: d1db 8fba 538a bcbc ecee 19bc d928 c0bd
00000390: a32e 0cbc 8960 14bd 9580 063d f55c 1bbd
000003a0: 8483 333d 9185 e63c bb1a 79bd 7c94 473a
000003b0: d125 363b 1289 c6bd 277d 66bd 8a79 80bc
000003c0: ba21 093d a25b 08bd e33b 76bd 8ff7 e0bb
000003d0: 9de0 63bd b122 703c 7fbe 353d a0ca 613d
000003e0: 5c6d dbba 4e37 3f3c d789 debb d956 3f3d
000003f0: a92c a6bd 1fb7 6cbc 5d13 943b 1706 8dbc
0.014024844 0.03950605 -0.111477055 -0.027552241 0.03812521 0.028586373 -0.012877915 0.03902903
0.01504504 -0.11595816 -0.00506591 -0.064923696 -0.047640167 0.024382243 -0.023559455 -0.019765208
0.059231058 0.07554818 -0.11119382 -0.011097048 -0.01675309 -0.077347726 -0.07242677 -0.055021353
-0.02056309 -0.046095915 -0.004053248 -0.057467144 -0.01049876 -0.011031348 -0.012605873 -0.061343607
0.039542403 -0.020950086 0.007235381 0.0608707 -0.025154267 -0.013852482 -0.040153097 -0.036009423
-0.022091126 0.03819961 -0.109972 0.04322797 0.030469043 -0.044103965 -0.055065773 0.02298186
0.03288951 -0.048541993 0.041027226 -0.06984096 0.0049417876 -0.0036908768 -0.07205611 7.199104e-05
0.017599927 0.027162993 -0.04066856 -0.031467393 0.019042004 0.01034985 0.018310584 -0.06603626
0.022555705 0.05214087 -0.012474282 9.484022e-06 -0.007355303 0.012974303 -0.03376736 -0.044035304
-0.015741112 0.016002582 0.0040213545 -0.023398152 0.018287705 -0.0021100207 -0.049745724 -0.007778292
0.029017383 -0.008170746 -0.033965357 -0.0009037069 0.072339445 -0.022858866 -0.008254432 0.01267052
0.015487093 0.04385997 -0.026008513 -0.01849 -0.09866849 -0.0068870746 -0.019834597 0.013752215
-0.009887441 0.030464621 0.005747848 -0.007962369 -0.053408716 0.010072117 0.049295228 0.016946532
0.054016594 -0.020425402 0.028846024 -0.02519037 -0.026117457 -0.043372456 -0.0049727466 -0.065216385
0.0035163497 -0.034760356 -0.02782881 -0.022683516 -0.012179415 -0.03269253 -0.08965753 -0.018985616
-0.07537921 0.041071642 -0.016564809 0.017977038 0.0104577355 -0.014340384 0.07878969 0.03272309
0.020317696 -0.036459208 0.057009403 -0.009058022 0.01332251 0.0071703303 -0.026840473 0.0046572634
0.02075797 0.0065085855 -0.085962184 -0.04321803 0.02580998 0.0016037249 -0.050235968 0.04297458
0.0114412755 -0.0142991 0.009604984 -0.008901485 -0.020710727 0.03797317 -0.008197258 0.040370867
0.053037226 -0.029880716 -0.029970767 -0.08740059 0.01297483 0.015639309 -0.0836253 -0.03104868
-0.041379903 0.037179332 -0.10367437 -0.00358979 0.049355507 -0.040805522 -0.027891567 -0.059196003
-0.022494923 -0.019844849 -0.02734056 -0.05807633 -0.00084912544 -0.0514619 -0.0058789216 0.040612213
-0.022113077 0.006198713 -0.033737686 0.047777455 -0.03500658 -0.031851046 -0.033562373 0.011530247
-0.03442415 -0.009566812 -0.016013581 -0.048535354 0.024777917 0.08205103 0.020746037 0.0030890317
-0.028893223 0.03819829 -0.015909743 -0.025347775 -0.048829857 -0.06734586 -0.040175237 0.06411508
0.046574663 0.010747121 0.010298552 0.0065266364 -0.06918888 -0.01900273 0.015168281 0.0115715945
-0.042592328 0.050572284 -0.054476198 -0.09803769 0.035092395 0.01084599 0.026262777 -0.015208682
-0.01808749 -0.04691267 -0.0021212744 -0.017447777 -0.050556757 0.014340851 -0.0936944 0.041067343
-0.0010975545 -0.023015177 -0.009395342 -0.09382791 -0.008556041 -0.036224876 0.03283747 -0.037930448
0.043826595 0.028139861 -0.060816508 0.00076133735 0.0027793536 -0.09694113 -0.0562717 -0.015682954
0.03347943 -0.033290513 -0.060115706 -0.006865449 -0.05563413 0.014656709 0.044371124 0.05512488
-0.0016740966 0.0116709005 -0.006791334 0.046713684 -0.08113987 -0.014447956 0.00451891 -0.017214818

body.block1.conv.bias f4 [32]
00000000: 0c67 34bd c271 8c3d 8eba b9bb 4855 04bd
00000010: 48e7 9cbd 6700 763d 3087 2e3d 71d6 6a3d
00000020: 147b 903c 4e3e 1f3d 4c06 eabc 4d2a 773d
00000030: f6f0 6dbd 5917 2dbd deeb 803d e349 753d
00000040: 1c7d 2bbd 39da 543c ec75 f33c b5ef 0b3d
00000050: c806 a7ba aa69 223d 000a 52bd c887 783b
00000060: ab95 503b 5d85 723c 02e5 e73b 0681 933c
00000070: 0d9e 9cbd b39a 49bd 768b 1f3d 8dd0 81bd
-0.044043586 0.06857635 -0.005667991 -0.032307893 -0.07661301 0.060058977 0.042609394 0.057333414
0.017636813 0.038877778 -0.028567456 0.060343076 -0.058091126 -0.042258594 0.06294988 0.059884917
-0.04186736 0.012991481 0.029719315 0.03416415 -0.001274311 0.03965155 -0.051279068 0.0037922729
0.003182749 0.014802304 0.0070768604 0.01800586 -0.07647333 -0.0492198 0.03895136 -0.06338606

body.block1.norm.weight f4 [32]
00000000: 7bf3 603f 96c5 693f 1c67 5c3f 3aa7 803f
00000010: 0927 b43f ac87 883f 5b21 613f db59 5e3f
00000020: 46a3 863f 5fe4 683f 1862 4d3f bd07 603f
00000030: ba4f 6e3f ebd7 573f 7ebe 6d3f fd1c 463f
00000040: 18c1 513f 84d0 5a3f 016e a33f d26c 593f
00000050: 580c 683f 7bb1 5d3f 7392 993f 3748 723f
00000060: 9b3e 5f3f 5c0a 8b3f acfc 8a3f fef0 533f
00000070: 469d 593f 72bb 993f c5c0 553f 428c 5d3f
0.8787152 0.9131712 0.8609483 1.0051033 1.4074413 1.0666404 0.8794152 0.8685586
1.0518577 0.90973467 0.80227804 0.8751181 0.93090403 0.8431384 0.92868793 0.7738798
0.8193526 0.8547442 1.2767946 0.8493167 0.90643835 0.8659894 1.1997818 0.9464144
0.87204903 1.0862536 1.0858359 0.827896 0.85005605 1.2010329 0.8349727 0.8654214

body.block1.norm.bias f4 [32]
00000000: 65ca d2bd ea13 aebd 0419 22be f430 89bd
00000010: 08fb fabd a74d d3bd 69fe c5bd e44a 3fbd
00000020: 933a 30be db80 65bd d281 1bbe f660 fdbd
00000030: 48fe 14be 88e4 10be 6c5b 13be e3da 35be
00000040: f759 2bbe 3b04 99bd 7b40 11be ca3b f3bd
00000050: ed25 dabd 5ac2 f8bd 16df f0bd 09a7 c6bd
00000060: c224 17be 3e67 e4bd ea58 dd3c aff0 a6bd
00000070: 663b 45bd 01be 3cbe d899 7fbd 2e42 07be
-0.1029251 -0.08499892 -0.15829855 -0.0669879 -0.12254912 -0.103175454 -0.096676655 -0.04670228
-0.17209844 -0.05603109 -0.15186241 -0.123720095 -0.14550126 -0.14149678 -0.14390343 -0.1775928
-0.16733538 -0.0747151 -0.14184754 -0.11876638 -0.10651765 -0.121464446 -0.117613 -0.09699828
-0.14760116 -0.111525044 0.027019937 -0.081513755 -0.04815235 -0.18431856 -0.062402576 -0.1320884

body.block1.norm.running_mean f4 [32]
00000000: e889 30bf 2b2e a0bf 401b f7be 7b4b 1dbf
00000010: 84b1 5bbf a1cf 84bf 6142 85bf b1de 983d
00000020: 5b3a 30bf 10a7 a4be e890 16bf 0ed6 74bf
00000030: 4842 c3bf b54c 1fbf b2c9 41bf e6b8 bf3e
00000040: 2c9d 80bd 10b9 afbe 30c8 15bf 4449 20be
00000050: 1dc4 ab3f a04c c13c 6913 58bf d8c8 4abf
00000060: 0367 56be b322 04bf f1c4 59bf 345d 3dbf
00000070: 820a 31bf 23fa 3cbf ad7d 833e 4197 3cbf
-0.6896043 -1.2514089 -0.48262978 -0.614433 -0.8581774 -1.0375863 -1.0410882 0.0746435
-0.68839043 -0.3215871 -0.5881486 -0.9563912 -1.5254602 -0.6222642 -0.7569839 0.37445754
-0.06279978 -0.3432088 -0.58508587 -0.15652949 1.3419224 0.023596108 -0.8440462 -0.79212713
-0.20937733 -0.51615447 -0.85066134 -0.7397034 -0.6915666 -0.7381918 0.2568182 -0.73668295

body.block1.norm.running_var f4 [32]
00000000: d7eb 763f 0720 893f ad29 9d3f 36c3 f63e
00000010: 180b fc3e 0de0 4c3f 8f75 973f 91bf 523f
00000020: c75b 293f da41 553f 96f2 7a3f 3f79 ad3f
00000030: d847 873f ee9c 833f 73e9 163f d363 723f
00000040: dc4c 863f 751d 303f b416 043f 8570 823f
00000050: 19fb 993f ecde 953f 2ce2 283f aafe 7a3f
00000060: 56c7 603f a071 073f 4a08 043f a222 c03f
00000070: 2c1a 983f 3653 153f bd2f 513f bf5e 773f
0.96453613 1.0712899 1.2278343 0.4819581 0.49227214 0.80029374 1.1832751 0.8232356
0.66155666 0.83303607 0.98026407 1.3552626 1.05688 1.0282266 0.58949965 0.9468357
1.0492206 0.6879495 0.5159714 1.0190588 1.2029754 1.1708655 0.6597011 0.98044837
0.8780416 0.52907753 0.5157515 1.5010569 1.1882987 0.58330095 0.8171347 0.96628946

body.block2.conv.weight f4 [32, 32, 3, 3]
00000000: 572d 243d 8ee0 bdbc 8072 62bc 90f4 fbbc
00000010: 3717 823d 49d9 d03b 4d10 07bd 0c02 2fbd
00000020: 7123 ee3a f2cd 893d 2ac0 a73d b04e 173d
00000030: c2e2 c03c 9cec 3b3d 403c 92bc 7fdd 13bc
00000040: ba6d 8a3c d87f 56bd 024a 72bd 2ea0 b63b
00000050: 7845 9ebd 477a 9fbd b6f7 3d3c b218 31bd
00000060: 36b3 eebc 58b9 62bd 0f5d b3bc 0079 e7bc
00000070: bded 9f3c f0e6 b23d 172a b23d 6669 f339
00000080: e205 533d e1a9 58bc 9a12 eb3c 853a 8ebb
00000090: 0639 b03c 05bb 463a 81a6 c1bc 3926 13bd
000000a0: 302c d7bc c505 86bd d1d0 08bd 4c2c 8cbd
000000b0: 5619 76bd 9731 103d 390e ab3c ffd0 c43d
000000c0: cd84 163d 242a fe3c 1ade 2f3d 1040 833c
000000d0: e6c6 a33c 0b1b 0ebc d0a7 353d 8cb4 c03c
000000e0: 2a40 f93c 6ebb 893d 8eb6 723d 05f3 40bb
000000f0: 5fc2 2a3d d52f 2abd dcad 7fbd 1740 34bc
00000100: 07d7 1ebd 8a8c 983c 8e53 653c bc8d a83c
00000110: bb0c 753c 26f2 7039 1c5d e23c 4a76 b1bc
00000120: 9ad2 e4bc 1caa b73c 17ce 95bb 415b d6bc
00000130: 2dbe e2bd 145f 84bd f90a d73c 48a1 893d
00000140: fffa 173d 3bef 8f3c 662c 03bd 9705 903d
00000150: 4f85 d9bc aee2 8b3d f014 753d 33e4 9abd
00000160: a0f7 cf3c 4d95 c6bc f3d6 0cbd 9922 a93c
00000170: 1653 5a3c db66 fcbc 04a1 133d b46e b13c
00000180: 25ef c1bc 7544 b03b 6f64 1e3d 5447 5d3d
00000190: 4f8f 7a3d efda efbc 6b28 603d e4ac 0ebd
000001a0: d50d 2dbc d998 003d fba6 81bc c5dd 2cbd
000001b0: 9794 d63d 26bc c83d 87d9 a13d 3d54 ebbb
000001c0: b536 583c 9273 393d 2bd9 febc 34f2 6cbd
000001d0: 552d 1abd bc1e 123d a1b8 0ebc 7e5c 2f3d
000001e0: 03f2 a13c 9d52 ff3c a647 8b3b a052 1b3d
000001f0: 10b1 1d3d d168 3c3d 325d 183d b988 493d
00000200: 904f 33bd 14d6 823c cdd2 9e3c fff2 0f3b
00000210: cab0 80b9 0a26 013d 4836 483c bf23 b4bd
00000220: 2087 c63c 08bb d13c 1a97 cd3b 708e 30bd
00000230: 8886 0fbc 581a b2bc ebbf 0a3d 2a0f 50bd
00000240: 5fed 11bd 1a1e 843c 9d10 6e3c 1321 ba3c
00000250: f79d 003d 1cf5 4c3c b415 90bc 8618 183c
00000260: e8b2 8bbc ae53 363c a2c5 473a dedf 293d
00000270: 8056 cbbc 8198 973c e858 2b3d 23cb 55bd
00000280: fedd 7cbc ab83 edbc 80aa 843a ee5e 833d
00000290: 76c8 3ebc 4728 9cbc 6e71 f23d 8021 2b3d
000002a0: ff93 1a3c de03 a23b 4a77 4fbc adcb 293d
000002b0: 061a 1b3d b33f 3d3d ac48 a1bc de0e debd
000002c0: bcec 1c3c f3a3 87bc efe8 99bd cff8 a4bd
000002d0: e57e 0a3d fd16 813c bcbe 313d 9beb 17bc
000002e0: 32c9 2bbd 329d 3abc d4de 4fbc 8e8f 4ebd
000002f0: 7038 98bc 8a5c 883c 7ac2 2d3c adea 01bc
00000300: d773 2ebd 06d7 8a3c 3c11 423d e167 483d
00000310: 2222 dbbc 5df0 ebbc f892 bebc ea69 42bd
00000320: 35b8 c2ba 4d36 83bd 15c4 89bd 5769 98bd
00000330: 6136 8f3c 253c 933d a7ba 243e 5bc1 143a
00000340: f5ca 883c 8e2d 75bb 7411 3b3d f040 083c
00000350: 20ca 0e3b 7116 783d 88bc ecbb dc0b a2bc
00000360: 2a22 493c 7efb 55bc 333e f13c 8f3d 99bd
00000370: ec3d 50bd 2eb2 0e3d c3c7 c5bc 27c9 1abd
00000380: 9714 c53c 4e55 dcbb 4c5c 17bd 5eab b4ba
00000390: f534 5cbb 3b0b 43bd d3cf 82bd 7e89 09bd
000003a0: e5d6 e73c e78b a93d 1d0e 37bd 600a 313c
000003b0: 6db5 80bc 29e7 b73c 1c7a adbc 80f7 6cbd
000003c0: 6731 30bd 21fe 28bd 39e6 7ebc 7868 92bd
000003d0: 304d ac39 bd4a 01bc 8697 e93b 8fdb 69bd
000003e0: c185 42bd b405 843c 5ab8 b43c b878 97bd
000003f0: 59c1 543d a92a fbbc d80e 843d 1685 61bd
0.040082302 -0.023178365 -0.013821244 -0.030756265 0.06352084 0.0063735587 -0.03297453 -0.04272656
0.0018168521 0.06728734 0.08190949 0.036940277 0.023545627 0.045879945 -0.017850995 -0.009024977
0.016898025 -0.052368015 -0.05915261 0.005573294 -0.07728094 -0.077869944 0.011594703 -0.043236442
-0.029138189 -0.05535254 -0.02189496 -0.02825594 0.019522542 0.08735454 0.08699434 0.000464271
0.051519282 -0.013224096 0.028695393 -0.004340472 0.021511566 0.00075809687 -0.023638966 -0.035925124
-0.026266187 -0.06544069 -0.033402268 -0.068443865 -0.060082756 0.035203543 0.020880805 0.09610175
0.036747742 0.031025954 0.042936422 0.016021758 0.019992303 -0.00867344 0.04434949 0.023523591
0.030426104 0.067252025 0.05925613 -0.0029441726 0.041689273 -0.041549522 -0.062421665 -0.011001608
-0.038779285 0.018621702 0.013996972 0.020575397 0.014956648 0.00022978391 0.027632289 -0.02166285
-0.027932454 0.022419982 -0.004571687 -0.02616656 -0.110714294 -0.06463447 0.02625035 0.06720215
0.037104603 0.017570129 -0.032024764 0.07032316 -0.026552824 0.06830345 0.05983442 -0.07563057
0.025386631 -0.024241114 -0.03438468 0.02064638 0.013325473 -0.030810764 0.03604223 0.021659233
-0.023673603 0.0053792545 0.03867 0.054023102 0.061171826 -0.0292792 0.054726046 -0.03483285
-0.01056238 0.031395767 -0.015826693 -0.042203683 0.1047756 0.098015115 0.07902818 -0.007181673
0.013196637 0.045276232 -0.031109413 -0.05784817 -0.03764089 0.03567384 -0.008711011 0.042812817
0.01976872 0.031167323 0.0042504845 0.037920594 0.038498938 0.0459984 0.037198253 0.049202655
-0.04377705 0.015971221 0.019387627 0.0021964905 -0.0002454578 0.031530418 0.012219973 -0.087958805
0.024234354 0.025601879 0.006274116 -0.04310459 -0.008760102 -0.021741077 0.033874433 -0.05079571
-0.035626765 0.016127635 0.014530328 0.02272085 0.031400647 0.0125096105 -0.017588474 0.009283191
-0.017053083 0.011128349 0.0007620697 0.041473262 -0.02482152 0.018505337 0.041832834 -0.05219568
-0.015433786 -0.028993448 0.0010121614 0.06414591 -0.011644473 -0.019062174 0.11838041 0.041779995
0.009434699 0.0049443087 -0.012662718 0.041454006 0.037866615 0.046203326 -0.019687973 -0.108426794
0.009577926 -0.01655767 -0.07515132 -0.08055269 0.033812422 0.015758032 0.04339479 -0.009272481
-0.04193992 -0.011390017 -0.012687404 -0.050429873 -0.018581599 0.016645689 0.010605449 -0.007929486
-0.042590942 0.016948234 0.047379717 0.04892719 -0.026749674 -0.028801138 -0.02326344 -0.04746429
-0.0014855923 -0.064068414 -0.06726853 -0.07441967 0.017481985 0.07189206 0.16086827 0.0005674564
0.01669834 -0.0037411186 0.04567094 0.008316264 0.0021787956 0.060568277 -0.007224623 -0.019781046
0.012276212 -0.013060449 0.029448604 -0.074824445 -0.050840303 0.034837894 -0.024143105 -0.03778949
0.02405767 -0.0067240363 -0.036953256 -0.0013783982 -0.00336009 -0.047618132 -0.063872956 -0.03357839
0.028300712 0.082786374 -0.044691194 0.010805696 -0.01571151 0.022449093 -0.02117639 -0.057853222
-0.043015864 -0.04125798 -0.015557819 -0.07148832 0.00032863906 -0.007891354 0.0071286587 -0.057094153
-0.04749084 0.016116 0.022060562 -0.07396072 0.051942203 -0.03065999 0.06448144 -0.05505856

body.block2.conv.bias f4 [32]
00000000: 95fe 2cbd 1092 febc 57da 1dbd 801a 883b
00000010: 72b9 39bd 6c9f a73c 733f e0bb 180c a63d
00000020: bbc8 543d fe9b 75bc a96a 153d a5ba 5dbd
00000030: 59be 35bd 183a 843c 17bf 583c e220 98bc
00000040: 737a 80bc 1842 5e3c 74fb 153b c9f4 9d3d
00000050: 5e98 04bd cb6b f33c 3726 ac3c e382 13bc
00000060: a044 9a3d 9a79 23bd c489 ee3b ce7a ab3d
00000070: ad65 863c 1f55 2bbc 9dbf 8d3c 59a0 953b
-0.042234976 -0.031075507 -0.038538303 0.0041535497 -0.04534287 0.02046176 -0.0068435012 0.081077754
0.051949244 -0.014990805 0.036478672 -0.054133076 -0.044370983 0.016140983 0.013229153 -0.018570367
-0.015683388 0.013565563 0.0022885473 0.07712705 -0.03237187 0.029714486 0.021014316 -0.009003374
0.075326204 -0.03991089 0.0072796065 0.083730325 0.016405905 -0.010457306 0.017303282 0.004566234

body.block2.norm.weight f4 [32]
00000000: 2ae8 5d3f 72e4 943f 787f 7f3f 8f0d 8e3f
00000010: 10cb 903f efaf 753f 9296 743f 2707 863f
00000020: b8cf 5a3f e86c 673f c051 7a3f e5c2 8a3f
00000030: 0174 663f dc11 923f f538 833f 5d41 8f3f
00000040: d719 773f b407 753f 4e5e 643f 3575 7c3f
00000050: c009 5e3f ddf9 833f 6c1c 6f3f 8c5a 703f
00000060: e5d2 783f 7e2d 6d3f 5b0d 523f 6b7b 723f
00000070: ddeb 633f 303b 8a3f 6bff 683f 4e7b 883f
0.8668238 1.1632216 0.99803877 1.1097888 1.131197 0.9597158 0.9554225 1.0470933
0.85473204 0.9040055 0.9778099 1.0840727 0.9002076 1.14117 1.0251757 1.1191822
0.96523803 0.9571488 0.892064 0.98616344 0.8673363 1.0310627 0.93402743 0.93888164
0.971968 0.9264754 0.8205163 0.9471957 0.89031774 1.0799313 0.91014737 1.066263

body.block2.norm.bias f4 [32]
00000000: 1452 28be cf58 34be f771 a3bd 678b 1fbe
00000010: 4704 80be 1d4d 9dbd 8e80 e8bd 56c1 c6bd
00000020: c0b4 21be a484 8cbe 6321 c1bd 0588 c5bd
00000030: 0fda b1bd 2d4a 4c3d 2d46 61be ea68 2ebe
00000040: 29ca 8cbd e286 6abe faba e4bd 1aef 1abe
00000050: 139e 37be e27a 63bd 9643 86be b77e e0bd
00000060: ed63 ffbd 5308 1ebe 02c3 22be 93b9 9fbe
00000070: 0ba3 31be 4c38 48be f1d4 06be 4b17 44be
-0.1643756 -0.17612003 -0.079807214 -0.15580522 -0.25003263 -0.07680724 -0.11352645 -0.09704845
-0.15791607 -0.27444947 -0.09430196 -0.09645084 -0.086841695 0.049875427 -0.21999426 -0.17032209
-0.068744965 -0.22903016 -0.111684754 -0.15130273 -0.17931394 -0.055537112 -0.2622344 -0.10961669
-0.12470231 -0.15432863 -0.15894702 -0.3119627 -0.17347352 -0.19552726 -0.13167168 -0.1914951

body.block2.norm.running_mean f4 [32]
00000000: 13dc eabc 6c20 c13e 78b3 c83e 570d 1f3f
00000010: 3088 123f f5a7 2abe cf73 1abf 57d7 023f
00000020: 5470 28bf 98de ccbe 57ab 6ebf cd01 383e
00000030: 2e07 e3bd edc4 993d 8421 173f ae07 133f
00000040: 0f53 6cbf 0a70 a5be 390f b33c 5ef6 933e
00000050: c08b 1e3f f057 063f 4eb9 893e 4483 8ebf
00000060: e680 363e 33a8 e03d 2374 b2be de95 a63e
00000070: d75c 27bf c0ea 493e 94ca 943e 421b 1b3f
-0.028669393 0.37720048 0.39199424 0.6212973 0.57239056 -0.16665633 -0.6033296 0.5110983
-0.657964 -0.40013576 -0.93230194 0.17969437 -0.11085354 0.07508264 0.59035516 0.57433593
-0.9231424 -0.32312042 0.021857845 0.288989 0.6193199 0.5247793 0.2689919 -1.1133809
0.17822608 0.109695815 -0.3485423 0.32536215 -0.6537604 0.19718456 0.29060805 0.6058847

body.block2.norm.running_var f4 [32]
00000000: a8c8 003f b1ce 493f 9262 1c3f 9dc5 f33f
00000010: 5ecf 483f ad20 b53e 04ce 113f d73b 293f
00000020: d061 773f 73d7 193f bb6b 2e40 a882 1e3f
00000030: 1574 d73e d745 4a3f 5f6f d83f c0df 0040
00000040: c92a 0740 03e0 953e d937 1e3f d3e0 573f
00000050: c54d 533f b3c5 ca3f 7fe0 653f ecf8 0740
00000060: ae6a 323f 9355 0c3f 960a b93e 2e2f fb3e
00000070: 43ad 6f3f 461b 033f d8d2 713f 5602 e93f
0.5030618 0.7883101 0.61087906 1.9044682 0.7844142 0.35376492 0.5695498 0.66106933
0.96633625 0.60094374 2.7253253 0.61918116 0.4208075 0.7901282 1.6908988 2.0136566
2.1119864 0.2927247 0.61803967 0.8432743 0.8254054 1.5841583 0.8979568 2.124568
0.6969403 0.54818076 0.3614089 0.49059433 0.9362375 0.5121349 0.9446235 1.8203838

body.block3.conv.weight f4 [32, 32, 3, 3]
00000000: b143 4d3c 0e16 9d3c f94e 7bbb bda4 f13c
00000010: f639 d93c 3109 64bb 2352 133d bd44 023c
00000020: dd36 133d 5862 dcbd 52cb b0bd d954 f8bd
00000030: 30bd b3bb 7dbb 8dbd 8d87 9fbd e58f 38bc
00000040: 6dd2 33bd 5643 933b 2d9e 72bd d8d2 e6bc
00000050: 49d1 80bd 9e02 68bd 6cc0 2dbd 82ff 42bd
00000060: bb2e 87bb f2a2 ce3c d740 a9bb 0807 db3c
00000070: 1abc 7a3c dc56 cc3c 5c5b cc3c f489 e63c
00000080: 6db8 6f3c f684 aabc da50 213d 7c03 c73b
00000090: 432a 6cbd fa57 a6bd 9ad5 90bd 6785 be3c
000000a0: f438 03bd f5e0 32bd 69b7 a5bc a830 59bc
000000b0: d254 f4bb 2cd1 cc3c 6d76 15bc 70a7 583b
000000c0: 1078 33bc 8dda 07bd 2fef 12bd 3427 1f3b
000000d0: 6d0d 0abd c37f 56bc 7ad6 383d f434 6c3c
000000e0: 598c 883d 18cd 4039 c72b 1f3d 8271 c13d
000000f0: bc8c ca3c ece4 9dbb 3ee2 453d 87e6 f6bd
00000100: 6175 f0bd ce88 05be f4ca e0bd d86e d5bd
00000110: 1998 e2bd 83e6 c4bd 7ad0 2abd 563a 32bd
00000120: 831c ccbb f1c1 203d 3d7b 983c 7653 3fbd
00000130: c856 043d 4dcf 12bc e279 d23c 46c4 803c
00000140: 9ce3 c3bc 7928 e63b 89e6 21bd 41e8 5ebd
00000150: 2eba 2e3c bc61 ae3c 7212 d13c a741 5b3d
00000160: 6b45 3b3d ae92 743d 18d9 543d a02a 673d
00000170: bb7e e43c 2113 233d ddd8 ec3c 3e28 1d3d
00000180: 399a 083d e4d7 873d dc26 7b3d eb15 73bd
00000190: 4b98 8cbd e0bd 8dbd f9f8 23bd f1dd 46bd
000001a0: 501d b4bd a23f 49bd caac cabd 89d7 92bd
000001b0: a36d 3abd 0a0a 20bd 5c99 b5bc 250c 9eb9
000001c0: ccbf 18bd d6af 45bd 5884 3bbc 20c6 7a3c
000001d0: 1f68 e8bc b398 e2bd 76af 0bbe 58b1 03be
000001e0: a483 79bd 52c7 e1bd ef68 80bd 59a2 74bd
000001f0: 9839 40bd 63fd efba 455e 943c 99f4 4e3d
00000200: d89a 8f3d 972a 863c 8681 a53c e23d 07bc
00000210: d50d b4bc bbfc 05bc cc5b eab9 35de 7a3d
00000220: cf28 103d f5c7 8e3d cd41 913c 6dd8 1a3d
00000230: 5172 193d d1a0 4f3b 3cc3 123c bdf0 febc
00000240: 6556 08b9 5f72 de3c a734 89ba ca3c 8e3c
00000250: 711b 2e3d ce7f 62bb e852 663d 87a2 103d
00000260: ac83 273c 46b0 28bd 9f17 bfbc b4f7 ba3b
00000270: bdea 92bc 7b45 21bd a21d 35bd 82e1 b1bc
00000280: 70d7 71bc a546 0e3c 0235 a9bb 65b6 2c3d
00000290: 1565 403d 60c5 64bb 2c2c cbba b66d 85bc
000002a0: 5a61 8ebd f4d1 9a3c 7179 02bc 14b4 a5b7
000002b0: 4d77 763c 584c 2c3c 4625 cc3c c07d 04bd
000002c0: ed66 fcbc 3042 1fbd bd65 b8bc 5203 1bbc
000002d0: ff75 4f3d 323e 5b3d 003e 123d e838 d93c
000002e0: 8019 4e3c bf8a 58bd 274b d2bc 8e11 debc
000002f0: e8bd d8bc 83ee 2dbc 6402 88bd 52fb 08bd
00000300: b535 01bb a78f 36bd f6a7 a4bd 0ee1 6c3c
00000310: 3d15 07ba ebd5 b83c 7e89 373d 7a95 133d
00000320: e059 773d 7b58 4ebb 9658 f83c dc24 2d3d
00000330: bb7f 133d ea3b 4c3c e8a1 11bc 251e 823d
00000340: a62b 703d 3556 4f3d ecdd c73c 62f6 c43b
00000350: de0d 8c3c 7039 aa3c b29c 18ba 1361 1cbd
00000360: e6cd 0ebc a46d aebc 8caa adbb 6a0b f2bc
00000370: 158f a53c 2527 10bb ad22 bd3c 6a9b c03c
00000380: ac08 173d 0603 94bc 7d79 99bd 6cd0 07bd
00000390: 0e4e fc3c 222d 5abd 689a 90bc 9f37 0ebd
000003a0: 218e 1bbc 0d75 e3bb a1d0 933d 0ee9 543d
000003b0: 9d60 2f3d 45be c03b b426 603c 3262 3b3d
000003c0: 07ce 693b 4044 febc fd7d 2b3a ee86 383d
000003d0: 8359 733d 98a0 e93c ae40 a93a 1b4a d63c
000003e0: 2af5 083d 41f8 3e3d 285d 3b3d 6121 073c
000003f0: 3fc2 6339 af47 abbc 7762 72bd f1e5 c73c
0.012528346 0.019175556 -0.0038346632 0.029497499 0.026516896 -0.0034795518 0.035967004 0.007950959
0.035940994 -0.10760945 -0.0863253 -0.121255584 -0.0054851994 -0.06920526 -0.07789526 -0.011264776
-0.04390185 0.004494111 -0.05923288 -0.02817671 -0.06289918 -0.05664312 -0.042419836 -0.047606952
-0.0041254438 0.025224183 -0.0051652 0.026736751 0.015303636 0.024943762 0.024945907 0.028141953
0.014631373 -0.020815354 0.039383747 0.0060734134 -0.05765749 -0.08122249 -0.07071991 0.02325697
-0.032036737 -0.043671567 -0.020229058 -0.013256229 -0.0074564004 0.025002085 -0.009122473 0.0033058785
-0.010953918 -0.03316741 -0.035872635 0.0024284841 -0.03370421 -0.013091984 0.045126416 0.014416922
0.06667394 0.0001838695 0.03886011 0.09445478 0.02472531 -0.0048185494 0.048311464 -0.12055688
-0.11741138 -0.13040468 -0.1097621 -0.104215324 -0.110641666 -0.09614279 -0.041702725 -0.043512665
-0.006228985 0.039247457 0.018613452 -0.046710454 0.032309324 -0.008960557 0.025692884 0.01571859
-0.023912244 0.0070238677 -0.039526496 -0.054420713 0.010664506 0.021286838 0.02552149 0.053529408
0.0457205 0.059710197 0.05196485 0.056437135 0.027892461 0.039813165 0.028912002 0.038368456
0.033350203 0.06632975 0.061316356 -0.059347074 -0.06864985 -0.069209814 -0.04003236 -0.048551504
-0.087946534 -0.04913295 -0.09896238 -0.07170016 -0.045514714 -0.039072074 -0.022167854 -0.00030145157
-0.037292287 -0.048263393 -0.011445127 0.015306026 -0.028369961 -0.11064281 -0.13641152 -0.1286062
-0.060916558 -0.110243455 -0.062700145 -0.05972514 -0.046929926 -0.0018309768 0.018111357 0.050526235
0.07011956 0.01637773 0.020203363 -0.0082545 -0.021979252 -0.008177931 -0.00044700352 0.06124707
0.035195168 0.069717325 0.017731572 0.037804056 0.037462536 0.0031681547 0.00895768 -0.031120652
-0.00013002155 0.027154146 -0.0010467962 0.01736297 0.04250664 -0.003456104 0.05623141 0.03531125
0.010224264 -0.041183732 -0.023326693 0.005705798 -0.017934198 -0.039372902 -0.044217713 -0.021713976
-0.014760837 0.008683835 -0.0051637897 0.042166132 0.0469714 -0.0034907684 -0.0015500835 -0.016287666
-0.06952162 0.018898942 -0.007963524 -1.9753388e-05 0.015043092 0.010516249 0.024920117 -0.032346487
-0.030810798 -0.03888148 -0.02250945 -0.009461241 0.05064964 0.05352611 0.03570366 0.026516393
0.012579322 -0.052866694 -0.025670601 -0.02710798 -0.026457742 -0.010615948 -0.06641081 -0.033442803
-0.001971585 -0.04457059 -0.080398485 0.014457954 -0.0005153006 0.022562942 0.044808857 0.036031224
0.060388446 -0.0031485844 0.030315679 0.04227148 0.036010485 0.0124654565 -0.008888699 0.06353406
0.058635376 0.050619323 0.024397813 0.0060108164 0.017096456 0.020779341 -0.0005821689 -0.038178515
-0.008716082 -0.021292515 -0.005299872 -0.029546458 0.020209828 -0.0021995988 0.023087824 0.023511607
0.036873505 -0.018067848 -0.07493875 -0.03315775 0.030798938 -0.0532657 -0.017651752 -0.034721013
-0.009494335 -0.006941444 0.07217527 0.05198007 0.042816747 0.005882057 0.013681103 0.045747943
0.003567578 -0.031038404 0.0006541906 0.045050554 0.059411537 0.02851896 0.0012912953 0.026158383
0.03343693 0.046623472 0.045743138 0.008247704 0.0002172077 -0.020908205 -0.059175935 0.024401637

body.block3.conv.bias f4 [32]
00000000: b262 ecbc 8112 e93d 8b27 bcbb 724a debc
00000010: 527e 68bc c690 78bc 0b57 1fbd c3d2 1c3d
00000020: 3c5f 0fbd 084d 29bc cbc3 703d 6105 6c3c
00000030: 2af8 4e3b a9cd 893c c004 a7bc 96fa 0d3d
00000040: 8961 0fbb 9c13 50bd 20d9 49bd 9d8b e03c
00000050: ac3f ca3a 87ec 29bc a5d3 ff3c 10fd bf3c
00000060: 2d6e 7dbd 3d3c 103d b0e3 2fbc 182e a2bb
00000070: 699b ba3b e3cd 333d cfd0 853c 3876 353d
-0.028855655 0.113804825 -0.0057420186 -0.027135108 -0.014190273 -0.015171235 -0.03890137 0.038286936
-0.035002932 -0.010333307 0.058780473 0.014405579 0.0031581023 0.0168217 -0.020388007 0.034662805
-0.0021878204 -0.05079995 -0.049279332 0.027410323 0.0015430353 -0.010371334 0.03122885 0.0234361
-0.06187265 0.035213698 -0.010735437 -0.0049493425 0.005694796 0.04389752 0.01633492 0.044302195

body.block3.norm.weight f4 [32]
00000000: 0161 5d3f ece7 653f 0d15 6f3f adb0 523f
00000010: 8b6b 473f d35b 623f 50ed 603f c5b5 5d3f
00000020: f577 2e3f 0f36 533f 7793 553f f1a4 5b3f
00000030: 0b92 3c3f 1eed 4f3f aae5 663f 12fc 3a3f
00000040: 2f14 773f 780b 603f fadc 543f 7ada 733f
00000050: 269e 4c3f b5e5 653f f052 3c3f 578b 6f3f
00000060: d2a3 563f e7b2 533f 290d 753f f9ee 5e3f
00000070: f138 553f 9c7d 613f 7364 583f fbf2 643f
0.8647614 0.8980701 0.93391496 0.82300836 0.7789847 0.8842136 0.8786211 0.86605483
0.6815179 0.8250436 0.8342814 0.85798556 0.73660344 0.8122119 0.9019419 0.7304088
0.9651517 0.875175 0.83149683 0.95255244 0.79928815 0.8980363 0.7356405 0.9357199
0.8384372 0.8269486 0.95723206 0.87083393 0.8329001 0.8808229 0.84528273 0.8943326

body.block3.norm.bias f4 [32]
00000000: 595e 0ebe 0c31 30be 9761 b0bd f13e bfbb
00000010: 4f78 d2bc a6d3 9cbe 6f07 b93d d5bf 643d
00000020: 2774 1dbe 1f6c 87bb 16dc a8bc 4bb5 08be
00000030: c036 17be 1f36 5dbe 6fe9 0d3e b4a0 09be
00000040: 2fe8 8bbd 8c49 82be 9dad 643e 3cc4 243d
00000050: 6858 013d 17d3 583d cc02 9fbe bf76 8ebd
00000060: e359 6cbe ae35 d2bc ca22 ab3d e6b0 80be
00000070: 7106 c4bd 9e91 50bd 56b3 6ebd b350 333e
-0.13903178 -0.1720621 -0.08612364 -0.0058363606 -0.025692133 -0.30630225 0.09034621 0.055847008
-0.1537634 -0.004132762 -0.020612758 -0.13350408 -0.14766979 -0.21602677 0.13858579 -0.1344021
-0.06831395 -0.25446737 0.22331853 0.040226206 0.03157845 0.052935686 -0.3105682 -0.06956243
-0.23081164 -0.025660362 0.08356245 -0.25134963 -0.09571541 -0.05092012 -0.058276497 0.17511253

body.block3.norm.running_mean f4 [32]
00000000: f02b e3be 3a01 633e 68af 3ebf 800d 03bf
00000010: 6812 ae3e 150c f53e 4f1e 4fbf 303b 6fbf
00000020: 5a98 05bf 5984 7fbe c492 5abf f903 b9bc
00000030: df7b 5cbd 1492 4cbf 1de6 91bf 6f7c 5fbe
00000040: bf9c 53bf b99f 0b3f 03d5 4cbf aec2 76be
00000050: c142 8ebf aafa 6c3e 3323 23bf ced8 0b3f
00000060: 3d33 02bf cb8e 9cbe 0a02 9abf 70fc 1abf
00000070: 02a0 36bf 02d2 44bf 45c1 b4be 8b96 99bf
-0.4436946 0.22168437 -0.744864 -0.51192474 0.33998418 0.4786078 -0.8090562 -0.9344969
-0.52185595 -0.2495283 -0.85380197 -0.022584902 -0.05382907 -0.799104 -1.139835 -0.21824811
-0.8266105 0.5454059 -0.8001253 -0.24097702 -1.1114122 0.23142496 -0.63725585 0.5462769
-0.50859433 -0.30577692 -1.2031872 -0.6054144 -0.713379 -0.76882946 -0.35303703 -1.1999067

body.block3.norm.running_var f4 [32]
00000000: 4894 7140 8bb8 db3f 2331 6040 b177 4a40
00000010: d82c 9f3f 0d0f 0240 008b 8440 326c 3240
00000020: 86a9 fd3f f592 c53f 45e2 1140 82e7 f03f
00000030: 1637 7c3f 88a5 3340 79b5 1840 31ab ad3f
00000040: 8623 5740 2007 483f 602b 9d40 bb63 5840
00000050: 23e9 0e40 9425 1640 3ca5 2140 962c 8b40
00000060: e0ec e23f 0c9f 8b3f 8aa4 8440 e670 4e40
00000070: d4f1 0940 743b 8040 1ef1 0640 eade 0b40
3.7746754 1.7165693 3.502999 3.1635554 1.243556 2.0321686 4.141968 2.7878537
1.981736 1.5435473 2.2794354 1.882065 0.98521554 2.8069782 2.3860762 1.3567868
3.3615432 0.7813587 4.911545 3.381087 2.2329795 2.3460436 2.52571 4.3491926
1.7728539 1.0907912 4.1450853 3.2256408 2.155385 4.0072575 2.1084666 2.1854806

tail.0.weight f4 [3, 32, 3, 3]
00000000: 97c2 2b3d b4f4 f73c 625d 053d d4af a5bb
00000010: 63b7 ea3b 1469 18bc 4517 d7bc 753f cdbc
00000020: 2d54 31bc 1c25 15bd d4c8 973a b255 723c
00000030: 1ea6 1fbd 481e 24bc 2b87 a5bb 2cc3 91bd
00000040: f1e8 89bc 5841 8c3b e50b 60bd 278c 28bb
00000050: 9fe4 603c 32c9 ecbc d864 693c 5869 81bc
00000060: a86c dbbc 788a 8fbc cdd0 9dbc 7da3 7e3c
00000070: c2ab d2bb 5f85 653c 1560 4cbc 2000 3abc
00000080: f274 693c 8511 e0bb 2565 15bc 1b91 e43c
00000090: 1739 943c d44c 503c 1c4b 153c facf 383b
000000a0: fc3e 7fbb 5980 373b 2e64 c63a 83e5 c4bb
000000b0: 173c 59bd c5b7 aebc 2ef8 043c f689 0c3d
000000c0: 2f6a f9bb dc01 bdba 30e2 953c 2181 a13c
000000d0: a98a 963c 3853 813d 0dd9 853c 7904 a7bb
000000e0: 5e20 053d 0cc9 4a3c edaf 6ebc 00c1 b93c
000000f0: 0efd 7a3d edad 59bc 9093 273d ef90 9c3d
00000100: 9451 06bb 104d 00bd ebf1 5f3d 02f2 d63a
00000110: 902a 7dbc e694 d93a 06fc a2bc 75b3 18bd
00000120: 7f06 e8ba e8d1 89bb f8f7 a13c ee7d 57bc
00000130: bd29 aebc 03fe f93a facd 493c 0231 4639
00000140: 923b 9fbb 426f 24bb 864c 283c cf6a 813c
00000150: ddbb 033d 76b8 37bb 73c1 07bc 5ce7 033d
00000160: 70e8 d7bc 18f0 b53b 99aa d5bb e1b6 0e3a
00000170: a17d ae37 dcb1 d23c 8c85 47bb ec84 97bb
00000180: 70f0 2cbb 0d7b e03b b67c 35bc a41f 2d3c
00000190: a6af 48bc 4987 acba 301a 2f3c 93f6 653b
000001a0: 9407 6c3b dcb9 803d 05c6 e63c b1b6 393d
000001b0: baf7 dfba 3afc 9e3c 419d 56bd 3935 7a3c
000001c0: 5fae 93bb c709 3539 d272 6fbd 2128 13bb
000001d0: 0b79 8e3d 0006 4fbc c567 8cbc 8750 0bbd
000001e0: 543d f63a f557 003d a5a6 69bc de5d 04bc
000001f0: 7466 d33c 67c8 6ebc 50e7 bbbc 5acb 003c
00000200: d6b2 30bc 5091 713b d738 a4bb 146a 81bb
00000210: 3ee6 90b9 17c2 bc3c 4be3 20bb dabe a43c
00000220: 2456 7c3c d35e af3b 62a1 11bc db08 943c
00000230: f69a 3d3c 6bc6 5bbd 2158 ddbc 9345 5c3b
00000240: ebc5 8abd 331c 1a3c a270 063a 84bb 8ebc
00000250: 2bee 87bc 0793 3cbc 07ae a6bc 134f 9cbc
00000260: 06c6 48bc 28ec ec3c 14c7 bd38 ea3d b1bc
00000270: 7c11 973b ae58 22bc 9653 f6bc f188 b9bc
00000280: 8c2d a1bc e93d 4ebd eafb 3d3c b6bd ab3c
00000290: 1547 163d 4938 b33c 2beb a03c dce9 d63c
000002a0: a904 f3bb 876e 33bc 0e7b 383c a00e a2bd
000002b0: 0c5d 133d a6a1 9e3c b60f 91bd f9f7 6c3c
000002c0: 6ac5 a037 fa8a 91bd 9afd 47bc 2f47 41bb
000002d0: 4ab0 02bb f5b3 84bb 361a 0b3c 3abb e3bb
000002e0: 48ed 5c3c e1ab 913c 6abb 34bc b5da 733c
000002f0: 24ad 0fbc d4f4 83bd 01ed 0dbd 1934 32bd
00000300: 6cdb 31bd 761b 18ba 1fbc 363c 82ce 25bd
00000310: 4f02 8d3c 05af 1b3b a382 0ebd 414f 893c
00000320: 1512 f83c 8517 0ebc 1271 883c 6a1b fd3c
00000330: 71fc dcbc 10cf d2bc 0c10 8fbc e41e 253d
00000340: e83f 8f3c ff9a 843d 5db8 ad3c 1ae1 91bc
00000350: 6a35 743d e36d 8b3d 67a2 b73a 392e 553d
00000360: ae71 163c 54ed 0bbc ba67 b4bc c12d 56bc
00000370: 5671 7d39 5454 99bc d890 9d3c 3a65 2bbb
00000380: f0f2 8cbd 003a 563c 01f8 e23b 5c98 293a
00000390: e94d 383c a0c7 e9ba 7a7a 89bc 0ced 80bb
000003a0: 0c75 9f3b 2c5c 0e3d ef5b 77bb 97e4 d4bc
000003b0: 7f34 43bd 1415 093d 1616 a93c 8900 7abd
000003c0: 284d 203c 5140 97bb aadd 60bd 4c79 203d
000003d0: 08ff 303c 825f 0c3c 59d4 503b e0e5 e83b
000003e0: ec78 44bb af60 2c3d 9b27 d43c 26f3 c83c
000003f0: bfe4 3b3d 3474 4e3b bd37 bebc f372 6e3c
0.041933622 0.03026805 0.03255976 -0.0050563607 0.0071629747 -0.009302396 -0.026256213 -0.025054673
-0.010823292 -0.036412343 0.0011580237 0.014790939 -0.03897678 -0.010016985 -0.0050515137 -0.07117304
-0.016834708 0.0042802505 -0.054698844 -0.0025718303 0.0137263825 -0.028904531 0.014245234 -0.015797302
-0.02678521 -0.017522082 -0.019264603 0.015541908 -0.0064291665 0.014008849 -0.01247408 -0.011352569
0.014249073 -0.006838026 -0.009118353 0.027901223 0.018093629 0.01271363 0.009112146 0.0028200136
-0.0038947454 0.0028000085 0.0015136057 -0.0060088052 -0.05303582 -0.021327863 0.008115811 0.034311257
-0.007611535 -0.001442011 0.018296331 0.019714894 0.018376665 0.06314701 0.01633885 -0.0050969687
0.03250157 0.012377035 -0.014568311 0.022675037 0.061276488 -0.013286096 0.04091221 0.076448314
-0.0020495402 -0.031323493 0.05467407 0.0016399028 -0.015452042 0.0016600161 -0.019895565 -0.03728052
-0.0017702131 -0.004205931 0.019771561 -0.013152583 -0.021260137 0.0019072894 0.012317175 0.00018901008
-0.0048593963 -0.002509073 0.010272151 0.015798 0.032161582 -0.0028033531 -0.008285868 0.032203063
-0.026355952 0.005552303 -0.006520581 0.0005444121 2.0800917e-05 0.025719576 -0.003044459 -0.004624
-0.002638843 0.0068506063 -0.011077097 0.010566626 -0.012248909 -0.0013162877 0.010687396 0.0035089597
0.003601526 0.0628545 0.028170595 0.045340244 -0.0017087378 0.01940738 -0.052396063 0.015271478
-0.0045068706 0.00017265147 -0.05845911 -0.0022454339 0.06956681 -0.012635708 -0.017139325 -0.034012344
0.0018786588 0.031333882 -0.014260923 -0.00807902 0.02580569 -0.014574147 -0.022937447 0.007860983
-0.010784825 0.0036860295 -0.0050116586 -0.003949413 -0.00027637364 0.023041768 -0.002454954 0.020110536
0.015401397 0.00535188 -0.008888574 0.018070629 0.01157259 -0.053656023 -0.027019562 0.0033610805
-0.06776031 0.009406137 0.0005128478 -0.017423399 -0.01659306 -0.011509663 -0.020346655 -0.019080674
-0.012254244 0.028921202 9.0493035e-05 -0.021635968 0.0046102386 -0.009908838 -0.030069154 -0.022648307
-0.019675039 -0.05035201 0.0115957055 0.020964485 0.036688883 0.021877425 0.019643387 0.02623456
-0.007416327 -0.010951645 0.011259807 -0.07912946 0.03597741 0.01936419 -0.07083075 0.014463418
1.9165414e-05 -0.07106586 -0.012206459 -0.0029491892 -0.0019941502 -0.004049773 0.008490136 -0.0069498094
0.013484307 0.017782154 -0.011031011 0.014883687 -0.008769307 -0.06443182 -0.034649853 -0.043506715
-0.043422148 -0.0005802432 0.01115325 -0.040480144 0.017213015 0.0023755443 -0.034792554 0.016761424
0.03028206 -0.0086726 0.016655479 0.030896861 -0.026975842 -0.0257335 -0.017463706 0.040312663
0.017486528 0.06474876 0.021206075 -0.017807532 0.059621252 0.068080686 0.0014010192 0.052046034
0.009182377 -0.00854047 -0.022022117 -0.013072432 0.00024170181 -0.018716969 0.019234106 -0.0026152865
-0.06882274 0.013075352 0.006926537 0.00064695417 0.011249044 -0.0017835982 -0.016782034 -0.003934508
0.004866248 0.03475587 -0.0037744006 -0.025987906 -0.047657486 0.033467367 0.020640414 -0.061035667
0.0097840205 -0.0046158214 -0.054898895 0.039178178 0.010802992 0.008567693 0.003186485 0.0071074814
-0.0029979302 0.042084392 0.025897792 0.024530005 0.045872446 0.0031502368 -0.023219937 0.014553773

tail.0.bias f4 [3]
00000000: e6aa b83d 756e ebbd 62f8 2abe
0.09016971 -0.114956774 -0.16696313
