TrainedModels/SMB-1-1/scale_factor=0.750000,alpha=10/5/netD.pth (torch, 468997 bytes, 27 tensors)

head.conv.weight f4 [64, 3, 3, 3]
0.11286116 -0.016923223 -0.09946426 0.062465344 -0.08901759 -0.1087298 -0.0029428736 -0.034675762
0.018805142 -0.025769098 -0.113216996 -0.10085255 0.13124388 0.03405763 -0.006327306 0.09596248
-0.033659432 0.029333863 0.030325687 0.02108087 0.05558392 0.0006738217 -0.052000225 0.026795905
0.055993658 -0.07168282 0.053449903 0.20224929 0.049520425 -0.008228436 -0.018324206 0.035717003
0.005924931 -0.017997213 0.049463656 -0.040682696 0.0037111838 -0.04412063 -0.056332324 -0.05862913
-0.013934308 -0.037815124 -0.005080749 0.08405371 -0.029822707 0.01954988 -0.00015929429 0.10446253
-0.029688679 -0.022719145 0.060206022 -0.07809475 -0.008819478 0.033177037 -0.06567711 -0.106688924
-0.10077738 -0.02668829 0.05006082 -0.038373113 -0.05720988 0.0046806913 0.008144271 -0.05928213
-0.09257757 -0.042971145 0.031999845 0.02028719 -0.018194728 -0.020317791 0.011640745 -0.0137649905
0.024082694 -0.018259274 -0.056038737 0.048013438 0.14718114 0.03401946 0.046352733 0.10738286
0.057270877 0.10427346 -0.056655873 -0.03895479 -0.009527108 0.007964591 0.07331929 0.046660986
-0.012574932 0.04669386 -0.0010981362 -0.040252898 -0.06369423 0.025828386 -0.079240404 0.087220125
-0.009161833 -0.018203456 -0.021683041 -0.039480034 0.0014170778 -0.06451957 0.018224504 -0.021779558
0.11687722 0.003797091 0.0005779618 -0.07834322 0.03519264 0.098629765 0.03266004 -0.08465748
-0.04863624 -0.12955357 -0.01992147 -0.0016814959 0.1450075 -0.031039638 -0.0018650227 -0.04596586
-0.077913925 -0.07575426 -0.07121014 0.039528213 0.040707998 0.03135628 0.0014218624 0.028098954
0.002726575 -0.015137731 -0.00067579513 -0.011749368 0.04079203 0.043875087 -0.07844357 0.07974126
0.05055928 -0.03511044 0.008117958 0.05149243 -0.010402251 0.23006359 0.0015577968 0.11707252
0.033347897 0.03652684 -0.05400953 -0.020629095 0.03018106 -0.02599519 0.11752603 0.023114676
-0.019591665 0.023835182 -0.016192643 -0.039461277 -0.047321904 -0.0072216513 -0.0007592071 0.04007324
-0.0073460615 -0.032654043 0.00850217 -0.035027742 -0.028928192 0.13584335 0.005245727 -0.007705194
-0.011362346 0.07595237 -0.022483567 -0.023594018 -0.024560457 0.021127094 -0.0059065814 0.021722652
0.06513512 -0.09688775 0.08836623 -0.018636016 -0.025526028 0.058427442 -0.022893246 -0.09488219
-0.11601506 -0.07668478 -0.021349285 0.098400764 0.030760413 -0.022949513 -0.13168104 0.0021003964
0.024218922 -0.018466247 -0.0061144354 0.061551075 0.008587073 0.0021044798 0.02620096 -0.055925895
0.0710795 -0.033267714 -0.005713123 0.018579248 0.003239126 -0.030540599 -0.018776525 -0.007689904
-0.034481872 -0.016399823 -0.096975416 0.06883452 0.014393575 -0.03976946 -0.0039141374 -0.1204598
0.0029444997 -0.06894665 -0.046621334 0.0046844603 0.0029997358 -0.014793362 0.12050453 0.038835905
0.018636398 0.04903327 -0.023622857 -0.05420577 -0.009736358 0.012771899 -0.0010121077 0.046085626
-0.025376808 -0.052463915 -0.17168343 -0.033457965 -0.036189012 -0.0759998 0.025811914 0.051733237
0.045226526 0.044776928 0.0029285194 -0.02848151 -0.054451954 -0.049666308 0.056004886 -0.012897371
-0.043443568 -0.07973179 0.053798217 -0.019089442 0.07219051 0.053210247 -0.07666485 0.0082584135
00000000: c023 e73d 92a2 8abc ebb3 cbbd a9db 7f3d
00000010: db4e b6bd bbad debd 3add 40bb 2c08 0ebd
00000020: 3e0d 9a3c b719 d3bc 50de e7bd c88b cebd
00000030: cc64 063e 0380 0b3d 4a55 cfbb fa87 c43d
00000040: 79de 09bd 924d f03c 936d f83c cab1 ac3c
00000050: f7ab 633d 69a3 303a 30fe 54bd 1683 db3c
00000060: 9b59 653d 71ce 92bd 49ee 5a3d 701a 4f3e
00000070: eed5 4a3d 90d0 06bc a51c 96bc fe4b 123d
00000080: ec25 c23b e46e 93bc 679a 4a3d e6a2 26bd
00000090: 5537 733b d5b7 34bd b9bc 66bd 1925 70bd
000000a0: b94c 64bc 08e4 1abd 697c a6bb 5a24 ac3d
000000b0: c04e f4bc 1227 a03c 3c08 27b9 73f0 d53d
000000c0: ac35 f3bc 801d babc 979a 763d 24f0 9fbd
000000d0: 927f 10bc a5e4 073d b881 86bd b97f dabd
000000e0: 5f64 cebd 67a1 dabc 930c 4d3d 202d 1dbd
000000f0: e854 6abd 7c60 993b 8c6f 053c d2d1 72bd
00000100: 4f99 bdbd 8302 30bd 4512 033d 5231 a63c
00000110: 1c0d 95bc 7f71 a6bc d3b8 3e3c 8e86 61bc
00000120: 1249 c53c 7994 95bc e088 65bd bda9 443d
00000130: a7b6 163e fd57 0b3d 5ddc 3d3d 8beb db3d
00000140: de94 6a3d 538d d53d fd0f 68bd 0f8f 1fbd
00000150: 9617 1cbc ea7d 023c 6d28 963d 971f 3f3d
00000160: 1607 4ebc 1042 3f3d 56ef 8fba 39e0 24bd
00000170: 1f72 82bd 0d96 d33c cb48 a2bd 77a0 b23d
00000180: 831b 16bc 6a1f 95bc a2a0 b1bc d1b5 21bd
00000190: 3ebd b93a d622 84bd 8e4b 953c 0b6b b2bc
000001a0: 535d ef3d 9ed8 783b 5c82 173a 6972 a0bd
000001b0: 2826 103d 67fe c93d 89c6 053d e760 adbd
000001c0: cb36 47bd b1a9 04be 5a32 a3bc a465 dcba
000001d0: d97c 143e d746 febc c773 f4ba b346 3cbd
000001e0: 5691 9fbd 0d25 9bbd 9fd6 91bd 56e8 213d
000001f0: 6ebd 263d 716f 003d c95d ba3a c72f e63c
00000200: 56b0 323b 3f04 78bc d827 31ba 6c80 40bc
00000210: 8b15 273d 5db6 333d 06a7 a0bd 634f a33d
00000220: 3f17 4f3d f7cf 0fbd 2f01 053c bae9 523d
00000230: 346e 2abc ca95 6b3e fd2e cc3a b8c3 ef3d
00000240: ce97 083d 2b9d 153d 1939 5dbd 59fe a8bc
00000250: 453e f73c ddf3 d4bc 7db1 f03d fd5a bd3c
00000260: b37e a0bc 0042 c33c 6fa6 84bc 26a2 21bd
00000270: 9dd4 41bd 9aa3 ecbb 8705 47ba d623 243d
00000280: 3bb7 f0bb 3fc0 05bd b04c 0b3c 4079 0fbd
00000290: d1fa ecbc 851a 0b3e 59e4 ab3b da7b fcbb
000002a0: 2229 3abc eb8c 9b3d 752f b8bc 3e48 c1bc
000002b0: 0333 c9bc ba12 ad3c ff8b c1bb b4f3 b13c
000002c0: 9065 853d 166d c6bd 5bf9 b43d 8faa 98bc
000002d0: f61b d1bc 9d51 6f3d 9e8a bbbc 9851 c2bd
000002e0: 4e99 edbd e90c 9dbd b2e4 aebc 5786 c93d
000002f0: 43fd fb3c 9e00 bcbc 65d7 06be cea6 093b
00000300: c366 c63c 8746 97bc 9a5b c8bb fb1c 7c3d
00000310: cbb0 0c3c 50eb 093b 65a3 d63c 8d12 65bd
00000320: 2192 913d ba43 08bd 2635 bbbb 8233 983c
00000330: 8447 543b 4730 fabc 3ad1 99bc 97fb fbbb
00000340: dd3c 0dbd ec58 86bc 0c9b c6bd 1df9 8c3d
00000350: 07d3 6b3c 4de5 22bd 2a42 80bb a1b3 f6bd
00000360: 82f8 403b e733 8dbd 03f6 3ebd 1a80 993b
00000370: 3797 443b db5f 72bc 14cb f63d 6612 1f3d
00000380: 5cab 983c 1cd7 483d b984 c1bc df06 5ebd
00000390: 3f85 1fbc 3a41 513c b3a8 84ba 48c4 3c3d
000003a0: 06e3 cfbc 67e4 56bd c8cd 2fbe 380b 09bd
000003b0: ee3a 14bd c8a5 9bbd 8273 d33c 3be6 533d
000003c0: 733f 393d 0368 373d 67ec 3f3b 0e52 e9bc
000003d0: 0309 5fbd e66e 4bbd 6165 653d 7f4f 53bc
000003e0: e2f1 31bd 6c4a a3bd 855b 5c3d 7661 9cbc
000003f0: 9ed8 933d fdf2 593d 7602 9dbd 4c4e 073c

head.conv.bias f4 [64]
0.05517354 0.15487224 0.16564569 0.19651327 -0.14708136 0.18306968 -0.2383622 0.12316572
0.122406445 0.031898767 0.15649861 -0.1616757 0.21149299 0.024518488 -0.0064425473 0.1291822
0.04515398 0.074124224 -0.10382897 0.054366175 0.08758742 -0.115085796 -0.1558006 -0.06022955
0.1025447 -0.19072562 -0.20443386 -0.02961385 0.1575563 0.22345962 -0.014040291 -0.22630137
0.14643396 0.14713722 0.13586794 0.09033891 -0.19844967 0.004285964 0.098521546 -0.16910769
0.05536109 0.088909134 0.12084077 -0.033435944 0.030382134 0.11108524 -0.1027297 0.20555082
0.12318755 0.0075319777 -0.049676735 -0.1193959 0.1461596 0.13261342 0.14900652 0.06561472
-0.16289382 -0.0050547123 -0.1603842 0.12032731 -0.19688761 -0.08384442 0.042855795 -0.15846382
00000000: a6fd 613d d496 1e3e 069f 293e c63a 493e
00000010: 7f9c 16be 9e76 3b3e 3815 74be 4f3e fc3d
00000020: 3bb0 fa3d 48a8 023d 2c41 203e 518e 25be
00000030: 9e91 583e ffda c83c 011c d3bb 5748 043e
00000040: 61f3 383d 71ce 973d 48a4 d4bd 11af 5e3d
00000050: 0961 b33d 1ab2 ebbd 318a 1fbe 43b3 76bd
00000060: f502 d23d 944d 43be 1c57 51be bf98 f2bc
00000070: 7056 213e 99d2 643e 4009 66bc 8cbb 67be
00000080: c9f2 153e 24ab 163e f720 0b3e 9b03 b93d
00000090: 6436 4bbe 4671 8c3b aac5 c93d 912a 2dbe
000000a0: 4fc2 623d fe15 b63d 5e7b f73d 21f4 08bd
000000b0: f4e3 f83c a980 e33d f363 d2bd ea7b 523e
000000c0: c149 fc3d cfce f63b d579 4bbd d685 f4bd
000000d0: ddaa 153e d0cb 073e 2a95 183e 0361 863d
000000e0: a3cd 26be 00a2 a5bb c13b 24be 2a6e f63d
000000f0: e89c 49be a0b6 abbd 8f89 2f3d 5744 22be

head.norm.weight f4 [64]
1.0546422 1.0256011 1.0813842 0.91229934 1.0590138 0.97132134 1.0016474 0.9789762
0.94220257 0.8729986 1.0236325 1.0824881 0.98028696 0.98883396 1.1052192 1.1051439
0.95979136 0.950031 0.97895557 1.0485648 0.97615623 1.1044661 0.9487834 0.89086086
1.1654633 0.98155046 1.0532413 0.90224946 0.981162 0.8314651 0.8996152 0.89894134
0.93998814 0.8687315 0.9535384 0.9186753 1.0177518 1.0167596 0.99917036 1.1059439
1.0975716 0.99135685 0.97109693 0.9572285 1.0582559 0.931969 1.149027 1.0005655
1.0011683 1.0836395 1.0561246 0.97106975 1.0730745 0.92306405 0.7751085 1.1290768
1.0558093 0.9492289 1.0111246 1.0015821 1.0298237 0.92227054 0.8405975 0.9245156
00000000: 84fe 863f e646 833f cc6a 8a3f 738c 693f
00000010: c48d 873f 84a8 783f fb35 803f 2f9e 7a3f
00000020: 3034 713f d67c 5f3f 6406 833f f88e 8a3f
00000030: 16f4 7a3f 3924 7d3f d377 8d3f 5b75 8d3f
00000040: e3b4 753f 3b35 733f d59c 7a3f 5f37 863f
00000050: 60e5 793f 255f 8d3f 78e3 723f 750f 643f
00000060: e72d 953f e446 7b3f 9cd0 863f d2f9 663f
00000070: 6f2d 7b3f e6da 543f 2f4d 663f 0521 663f
00000080: 10a3 703f 3065 5e3f 181b 743f 4e2e 6b3f
00000090: b145 823f 2e25 823f a1c9 7f3f 928f 8d3f
000000a0: 3a7d 8c3f 90c9 7d3f cf99 783f ed0c 753f
000000b0: ee74 873f 8595 6e3f 5113 933f 8812 803f
000000c0: 4826 803f b3b4 8a3f 172f 873f 0798 783f
000000d0: 815a 893f ed4d 6c3f 836d 463f 9785 903f
000000e0: c224 873f aa00 733f 886c 813f d833 803f
000000f0: 43d1 833f ec19 6c3f 6631 573f 0ead 6c3f

head.norm.bias f4 [64]
0.0645884 0.06726342 0.044233855 -0.13128538 0.2436626 -0.02649611 -0.2674196 -0.04766518
-0.23633267 -0.15720847 0.017160885 0.10777214 -0.16391438 -0.17380938 0.08170939 -0.03060969
-0.01241517 -0.14971904 -0.13189387 -0.05203044 -0.027292542 0.08208259 -0.053534232 -0.059944473
0.13839912 -0.17836073 0.11971193 -0.16112258 -0.113668315 -0.12013599 -0.1836337 -0.22281146
-0.18152033 -0.14954999 -0.069984764 -0.09241388 -0.14609931 -0.1782946 0.0048126956 0.083982036
-0.013537862 -0.19824064 -0.13536675 0.01786434 -0.099878825 -0.028584572 0.13671902 0.17597216
0.03319129 0.13133319 -0.23759767 0.34048116 0.027911747 -0.1057141 -0.29527742 -0.034751546
-0.08943615 0.0037186355 0.0048110946 -0.025983073 0.11949202 -0.003007435 -0.15369189 -0.2121243
00000000: ec46 843d 67c1 893d 8f2e 353d ad6f 06be
00000010: b082 793e 5f0e d9bc 39eb 88be 903c 43bd
00000020: 3101 72be 42fb 20be fc94 8c3c a4b7 dc3d
00000030: 2cd9 27be 16fb 31be 4157 a73d 2cc1 fabc
00000040: ff68 4bbc f34f 19be 300f 07be df1d 55bd
00000050: 9c94 dfbc eb1a a83d b646 5bbd 5688 75bd
00000060: 80b8 0d3e 32a4 36be 872b f53d 51fd 24be
00000070: efca e8bd dc09 f6bd 790a 3cbe b028 64be
00000080: 77e0 39be a223 19be 2c54 8fbd 7d43 bdbd
00000090: 0f9b 15be dc92 36be d1b3 9d3b c6fe ab3d
000000a0: e9cd 5dbc 98ff 4abe 959d 0abe 3d58 923c
000000b0: 458d ccbd 312a eabc 1200 0c3e 0c32 343e
000000c0: 97f3 073d 357c 063e ce4c 73be 8c53 ae3e
000000d0: 2da7 e43c a280 d8bd 9a2e 97be a357 0ebd
000000e0: 4d2a b7bd 5ab4 733b 63a6 9d3b 74da d4bc
000000f0: 3bb8 f43d 6318 45bb 6861 1dbe 1d37 59be

head.norm.running_mean f4 [64]
0.14518543 0.15150152 0.41470468 0.12844571 -0.15934281 0.074134424 -0.34945852 0.0023127985
0.02321032 -0.065747686 0.18098764 0.08881459 0.22212899 -0.05915384 0.05553743 0.13543202
0.23220468 -0.05177269 -0.13295004 0.02795507 -0.018637164 -0.022292363 -0.21545972 -0.17260388
0.17620969 -0.16102941 -0.21264307 -0.26017168 0.16083838 0.1552245 -0.19003457 -0.33113798
0.06590727 0.025699541 0.10453019 0.09599818 -0.35510466 -0.06804727 0.104627304 -0.057764728
0.17102845 0.057291277 0.033921324 -0.13078776 -0.047529444 0.109848194 0.01662435 0.18396774
0.13188305 0.1238149 -0.018685266 -0.15065844 0.04869323 0.09365293 0.052687418 0.049978446
-0.24947585 -0.042333644 -0.21720111 0.10424428 -0.046757013 -0.110923216 -0.15990879 -0.47663322
00000000: 7dab 143e 3723 1b3e 2c54 d43e 4687 033e
00000010: c32a 23be cad3 973d 3aec b2be 5292 173b
00000020: 9223 be3c b9a6 86bd d354 393e 6ce4 b53d
00000030: c875 633e 4c4b 72bd 377b 633d b1ae 0a3e
00000040: 10c7 6d3e 9a0f 54bd 0e24 08be 0802 e53c
00000050: f7ac 98bc 799e b6bc 79a1 5cbe 12bf 30be
00000060: 5070 343e e5e4 24be 1bbf 59be 3935 85be
00000070: d1b2 243e 2cf3 1e3e 6c98 42be eb8a a9be
00000080: 64fa 863d d887 d23c ed13 d63d b29a c43d
00000090: 47d0 b5be 5e5c 8bbd d746 d63d b59a 6cbd
000000a0: 1522 2f3e 42aa 6a3d 16f1 0a3d 3aed 05be
000000b0: 3cae 42bd 17f8 e03d ca2f 883c 0a62 3c3e
000000c0: 5a0c 073e ab92 fd3d d811 99bc 3546 1abe
000000d0: 8d72 473d 1bcd bf3d c3ce 573d 33b6 4c3d
000000e0: 9976 7fbe 0b66 2dbd f869 5ebe 067e d53d
000000f0: 4884 3fbd b62b e3bd 21bf 23be 4509 f4be

head.norm.running_var f4 [64]
0.01897957 0.008428556 0.09874366 0.01209208 0.0067317802 0.027527178 0.021778382 0.028408555
0.021651655 0.03128782 0.007411334 0.086467065 0.008651915 0.01537305 0.020167181 0.0066092885
0.056589875 0.0397477 0.005524645 0.009912371 0.026812663 0.049982205 0.0147454785 0.02166703
0.025938902 0.009952408 0.009397391 0.0860877 0.0059878733 0.01850205 0.052021213 0.02061465
0.015699204 0.029464006 0.011361204 0.007564926 0.042775575 0.014591689 0.008930623 0.01982109
0.026688302 0.0103726825 0.015501287 0.025215775 0.014754088 0.004117864 0.023816483 0.005532791
0.0039809165 0.030829912 0.012287807 0.0106013 0.02317138 0.010425959 0.022294713 0.037703943
0.02879843 0.010186496 0.016250202 0.010983822 0.04593794 0.0060147312 0.06604848 0.14354262
00000000: 0b7b 9b3c ed17 0a3c 1e3a ca3d dc1d 463c
00000010: 4496 dc3b ad80 e13c 9468 b23c 0fb9 e83c
00000020: d05e b13c a827 003d c7da f23b a515 b13d
00000030: c3c0 0d3c 3fdf 7b3c a535 a53c bb92 d83b
00000040: c9ca 673d 7cce 223d 1508 b53b 7f67 223c
00000050: 3ba6 db3c 24ba 4c3d 0597 713c 0e7f b13c
00000060: d27d d43c 6d0f 233c 84f7 193c c04e b03d
00000070: ec35 c43b 9c91 973c 3214 553d 0ee0 a83c
00000080: 9e9b 803c 805e f13c 5824 3a3c 33e3 f73b
00000090: 7135 2f3d fb11 6f3c bf51 123c d75f a23c
000000a0: 6da1 da3c 2ff2 293c 1cf9 7d3c 5091 ce3c
000000b0: 21bb 713c 26ef 863b c91a c33c 6a4c b53b
000000c0: 5972 823b 038f fc3c cc52 493c 13b1 2d3c
000000d0: e8d1 bd3c a4d1 2a3c 67a3 b63c 736f 1a3d
000000e0: afea eb3c 43e5 263c 251f 853c 7df5 333c
000000f0: 6c29 3c3d 3917 c53b 6d44 873d d6fc 123e

channel.fc1.weight f4 [4, 64, 1, 1]
0.020507563 0.000385536 -0.068066984 0.023537226 0.0064000823 0.025706999 0.022188144 0.015430604
0.02882787 0.00430691 0.01253023 0.06248773 0.014779996 0.01654062 0.02257199 0.012946075
0.0611333 0.041843038 -0.006672066 0.0101164775 0.015135997 0.02144992 0.019541254 0.012934214
0.015126258 0.0064516147 0.015447152 0.0622538 0.0022659006 0.033323824 0.035239775 0.023009252
0.01976493 0.027086057 0.006923124 0.00811488 0.051079825 0.012132636 0.013477104 0.022879787
0.02947916 0.022100423 0.024913749 0.03065145 0.0223926 -0.0041631926 0.018727208 -0.012765663
0.0027957833 0.01775343 0.002263979 0.0035405613 0.018905992 0.018641142 0.04525279 0.023272743
0.026578216 0.005621233 0.012501802 0.014753646 0.041757375 0.011117706 0.056766592 0.0930203
-0.02452064 -0.037941135 -0.12834182 -0.006672297 -0.024540965 -0.005312409 -0.03341854 -0.062606715
-0.011817366 -0.0017709802 -0.004350039 0.052560683 0.0040239613 -0.023934461 0.005307405 0.026165782
0.017247904 -0.010734215 -0.00890572 0.020261113 0.032188356 0.022417791 0.0065905866 -0.035645306
-0.027453212 -0.044873614 0.008168744 0.069436036 -0.005284671 -0.00025030592 0.014842911 0.038677424
0.008391376 0.0382252 -0.047881402 0.026384491 0.036038246 -0.000582577 -0.008102114 -0.0012383357
0.024244282 -0.03515006 0.019001903 0.0218781 0.00096681924 -0.012772208 0.009881974 -0.052510407
-0.01835449 0.04796275 0.00906381 -0.032047648 0.0012103241 -0.025187952 0.007219767 0.018648459
-0.01660694 -0.0023547958 -0.039746135 -0.012331444 -0.06618992 0.001792546 0.050957102 0.065759994
-0.014679241 0.010430797 -0.01782818 0.0106221875 -0.029987773 -0.02254782 0.013536287 -0.030597992
-0.011543635 -0.00096845365 0.0060618874 -0.02934872 0.034637034 -0.046896573 0.038657904 -0.00060595287
0.004737135 0.021897621 0.0054539843 0.019657416 0.0059722997 -0.0049433704 0.0059579466 -0.026493322
0.021496495 0.00942335 0.014211208 0.008036977 0.009062995 -0.010038536 -0.02139352 -0.012684671
-0.0055377823 -0.03611449 -0.008853237 0.016430914 0.028557353 -0.018898295 -0.024799932 -0.023504563
-0.016360182 -0.007863178 -0.047624934 -0.012694876 -0.0006243252 -0.033382565 -0.01787784 -0.047972944
0.034879006 -0.046750087 -0.025689863 0.019541506 -0.0007343117 0.0051402114 -0.0068373093 -0.0096415505
0.026752679 -0.005991908 -0.016991582 -0.006958953 -0.033544365 -0.019028708 -0.020353457 0.02497475
-0.01710764 -0.024992548 -0.0012192832 -0.0068711196 -0.018838339 -0.034848407 -0.0018799854 0.0007417779
-0.012308548 -0.00062557403 -0.03134311 0.0048170774 -0.018966865 -0.017194489 -0.0010289357 -0.0009247583
-0.009698996 -0.0036989958 -0.0020617226 0.0076365303 -0.006066126 -0.016493564 -0.018647226 -0.016328577
-0.017943079 -0.018478816 -0.0028013438 -0.009132108 -0.009219109 -0.009823158 0.013936286 -0.007555658
-0.01342871 -0.021241615 -0.031352557 -0.018265178 -0.017422576 -0.003976529 0.011292003 -0.026140533
0.018679481 -0.008904702 -0.011931667 -0.015377425 -0.0043645245 -0.019827064 -0.01949057 -0.014757026
-0.010655232 -0.013170232 -0.016739052 0.000581517 -0.009133212 0.016712442 0.0153885735 0.014373294
0.0034608408 -0.008769869 -0.030305859 -0.005737077 -0.03159674 -0.011100402 -0.017384175 -0.009119726
00000000: 7aff a73c c421 ca39 b466 8bbd 24d1 c03c
00000010: c8b7 d13b 7c97 d23c e9c3 b53c a5d0 7c3c
00000020: 6d28 ec3c fb20 8d3b 984b 4d3c 22f3 7f3d
00000030: cc27 723c 3280 873c e5e8 b83c c61b 543c
00000040: e966 7a3d 9b63 2b3d 59a1 dabb 95bf 253c
00000050: f9fc 773c beb7 af3c fb14 a03c 07ea 533c
00000060: 20d4 773c 1168 d33b 0d16 7d3c d7fd 7e3d
00000070: 817f 143b 907e 083d 9557 103d e67d bc3c
00000080: 10ea a13c 94e3 dd3c 60db e23b 46f4 043c
00000090: 1439 513d f7c7 463c 12cf 5c3c 646e bb3c
000000a0: 487e f13c f20b b53c eb17 cc3c c018 fb3c
000000b0: b070 b73c 646b 88bb cd69 993c 1227 51bc
000000c0: 7639 373b a46f 913c 445f 143b c308 683b
000000d0: bde0 9a3c 4fb5 983c fd5a 393d 7ba6 be3c
000000e0: 8fba d93c 5232 b83b 5cd4 4c3c 47b9 713c
000000f0: c809 2b3d 0a27 363c 1684 683d 6d81 be3d
00000100: 82df c8bc 2a68 1bbd 0a6c 03be 49a3 dabb
00000110: 220a c9bc b713 aebb e1e1 08bd f337 80bd
00000120: a09d 41bc 3c20 e8ba c68a 8ebb df49 573d
00000130: 6fdb 833b 3412 c4bc bde9 ad3b 9f59 d63c
00000140: 7a4b 8d3c 90de 2fbc 4ce9 11bc a2fa a53c
00000150: f0d7 033d 84a5 b73c d9f5 d73b d000 12bd
00000160: 8fe5 e0bc 65cd 37bd 32d6 053c 7b34 8e3d
00000170: 092b adbb 7e3b 83b9 ae2f 733c 386c 1e3d
00000180: fb7b 093c 0792 1c3d 4a1f 44bd 4a24 d83c
00000190: d79c 133d 15b8 18ba bbbe 04bc a74f a2ba
000001a0: f29b c63c 82f9 0fbd e1a9 9b3c b339 b33c
000001b0: 2472 7d3a 8642 51bc 01e8 213c 2715 57bd
000001c0: 285c 96bc 9774 443d 6080 143c 6544 03bd
000001d0: bda3 9e3a f756 cebc cc93 ec3b a7c4 983c
000001e0: 470b 88bc eb52 1abb d8cc 22bd d309 4abc
000001f0: 958e 87bd ddf3 ea3a 65b8 503d 2dad 863d
00000200: 3381 70bc efe5 2a3c 670c 92bc af08 2e3c
00000210: eba8 f5bc 35b6 b8bc 4dc7 5d3c a4a8 fabc
00000220: 8421 3dbc d3df 7dba cca2 c63b ba6c f0bc
00000230: 90df 0d3d 9f16 40bd c057 1e3d cfd8 1eba
00000240: f839 9b3b a462 b33c 56b7 b23b 9708 a13c
00000250: 48b3 c33b fffb a1bb e13a c33b 8608 d9bc
00000260: 6b19 b03c 6564 1a3c 20d6 683c 86ad 033c
00000270: f57c 143c ac78 24bc 7741 afbc 5ed3 4fbc
00000280: 4976 b5bb caec 13bd 2b0d 11bc 209a 863c
00000290: 1cf1 e93c 99d0 9abc 3a29 cbbc a48c c0bc
000002a0: ca05 86bc 8fd4 00bc 5d12 43bd 2bfe 4fbc
000002b0: c1a9 23ba 28bc 08bd 8c74 92bc 477f 44bd
000002c0: 4add 0e3d 057d 3fbd 8c73 d2bc 8215 a03c
000002d0: d37e 40ba 386f a83b 820b e0bb 98f7 1dbc
000002e0: 6f28 db3c c457 c4bb ee31 8bbc ee07 e4bb
000002f0: d165 09bd 18e2 9bbc 4bbc a6bc d997 cc3c
00000300: 5225 8cbc 2cbd ccbc 5bd0 9fba 2127 e1bb
00000310: dc52 9abc 34bd 0ebd d869 f6ba df73 423a
00000320: cba9 49bc 90fd 23ba a261 00bd 93d8 9d3b
00000330: 6660 9bbc 75db 8cbc 5add 86ba 7b6b 72ba
00000340: 8ae8 1ebc da6a 72bb f71d 07bb dc3b fa3b
00000350: 5ac6 c6bb 831d 87bc 11c2 98bc 82c3 85bc
00000360: 5dfd 92bc e360 97bc c096 37bb d69e 15bc
00000370: bf0b 17bc 50f1 20bc 0555 643c 7495 f7bb
00000380: 1804 5cbc e502 aebc 8a6b 00bd dba0 95bc
00000390: cab9 8ebc 8b4d 82bb 1802 393c ac24 d6bc
000003a0: b605 993c 07e5 11bc 0a7d 43bc 98f1 7bbc
000003b0: 4904 8fbb 5e6c a2bc b0aa 9fbc 74c7 71bc
000003c0: 4893 2ebc f5c7 57bc 5620 89bc f270 183a
000003d0: 78a3 15bc 88e8 883c 5b20 7c3c f77d 6b3c
000003e0: 46cf 623b 7faf 0fbc fe43 f8bc 17fe bbbb
000003f0: 956b 01bd 76de 35bc 4269 8ebc e76a 15bc

channel.fc2.weight f4 [64, 4, 1, 1]
-0.010923647 -0.038166575 -0.009499812 -0.003906311 0.03716255 0.015738262 -0.019313192 0.020688623
0.044040598 0.058571614 0.024788417 -0.011449761 -0.02493868 -0.007532792 -0.009144324 0.007983466
0.106647484 0.020262266 -0.0010245538 0.008541353 0.042183857 0.04179405 -0.012919487 0.020373631
0.018778069 0.009940538 -0.013366544 -0.013336747 -0.011902467 0.012315889 -0.029612757 -0.0055760923
0.062062256 0.040063202 -0.027825592 0.03417982 -0.023624003 0.029249717 0.032398324 0.024738211
0.03188935 0.037060272 0.0057074325 -0.0031253246 -0.007143851 0.027095981 -0.02224176 -0.0018832083
-0.020479228 -0.016077 0.02254095 -0.0067553427 0.06591745 0.052137394 0.021924853 -0.01918798
-0.00013988989 -0.018840803 0.005929562 -0.015536973 0.15312643 0.0647635 -0.005990958 -0.0485963
-0.066766925 -0.024746394 0.0042822105 -0.0158148 0.026897794 -0.031470384 0.002496991 0.006821734
0.054672457 0.03901478 0.013307535 0.016092753 -0.066993006 -0.0236134 -0.026826514 -0.01118584
0.045574788 -0.030311598 -0.017632404 -0.024816811 0.018468536 -0.008130878 -0.021028362 0.0041788085
0.052103844 0.00886173 -0.026574586 0.0044409796 -0.013953705 0.04618305 -0.0021833756 0.0012479489
0.038700145 0.006581067 0.00063749735 0.035342887 -0.018541865 0.06480385 -0.0017319829 -0.02374799
0.08031882 0.054275867 -0.022503046 -0.00019117568 0.062817164 0.047942486 -0.016304083 0.009576675
-0.029651223 -0.017188953 -0.009009196 -0.03414374 -0.113425575 -0.07277125 -0.04431475 -0.029880859
0.032800272 0.017221924 -0.0047899215 -0.0014369034 -0.026116135 -0.0832631 0.0046546184 -0.008458082
0.008472467 -0.010421087 -0.015327924 -0.0074286866 -0.04344531 -0.012125262 0.020504477 0.024414215
0.04361799 0.04383818 -0.0010970241 -0.028703716 0.017435417 0.007323433 -0.0006845405 -0.0063586966
0.10171552 0.07340092 0.028928328 0.0257493 -0.0053646527 0.057364773 -0.02598229 -0.058566615
0.07020003 -0.011988975 0.008782448 0.0022962373 0.009991781 -0.021803461 0.013072472 -0.020944798
0.08782306 0.015460141 0.035962537 -0.008542434 0.097355664 0.013697327 -0.026047107 -0.006939718
0.06126668 0.028766267 -0.0050037047 0.012476594 -0.053096216 -0.046497945 0.0017253251 -0.0022510102
0.08780625 -0.0037435216 0.002049304 -0.008987568 -0.030345038 -0.002578993 0.00999991 -0.017704492
0.09316357 0.058065776 -0.0028809814 0.013020512 -0.0079305 0.012305017 -0.037205555 -0.0077797654
-0.010420802 0.002522978 -0.049092174 -0.033254217 0.05900931 0.09314411 -0.01434872 0.021095272
0.08739052 0.11846186 0.025472919 0.024906592 -0.019226493 -0.024967879 0.0065010656 0.054089133
-0.02854202 0.006178748 0.024817728 -0.012944749 -0.047480274 -0.060103785 -0.005659845 0.012404429
-0.18751055 -0.06353407 -0.01358438 -0.013775094 -0.0021976156 -0.036991354 0.05176575 0.015684662
0.007974746 0.012250178 0.015846167 0.029443957 0.006077046 -0.007439115 -0.009995887 -0.03472158
0.047695853 -0.013523746 0.005161332 -0.02973276 0.085968964 0.05468455 -0.036586102 -0.03643734
-0.015827395 0.044964522 -0.046813454 0.012352327 -0.06221871 0.011370316 0.029987724 -0.0030269027
-0.0027171501 0.02239324 0.009322765 -0.00869874 0.043445073 0.017054403 0.0020018076 -0.020255903
00000000: 19f9 32bc 8e54 1cbd 19a5 1bbc 8300 80bb
00000010: c237 183d 87ed 803c b336 9ebc 307b a93c
00000020: ea63 343d cae8 6f3d 1411 cb3c c797 3bbc
00000030: 344c ccbc a4d5 f6bb 13d2 15bc 15cd 023c
00000040: ff69 da3d 0dfd a53c 524a 86ba 08f1 0b3c
00000050: fbc8 2c3d 3d30 2b3d 42ac 53bc 9ae6 a63c
00000060: 77d4 993c a3dd 223c 59ff 5abc 5f82 5abc
00000070: 9102 43bc 95c8 493c 7496 f2bc a7b7 b6bb
00000080: fe34 7e3d 5019 243d 7ff2 e3bc 2400 0c3d
00000090: 2087 c1bc 1a9d ef3c 1bb4 043d caa7 ca3c
000000a0: 689e 023d 83cc 173d 6a05 bb3b 3fd2 4cbb
000000b0: f716 eabb 64f8 dd3c 5a34 b6bc fcd5 f6ba
000000c0: 0ec4 a7bc eab3 83bc cca7 b83c ec5b ddbb
000000d0: baff 863d 058e 553d c09b b33c 1c30 9dbc
000000e0: 68af 12b9 0758 9abc c54c c23b ca8e 7ebc
000000f0: 2dcd 1c3e baa2 843d cc4f c4bb ea0c 47bd
00000100: 19bd 88bd f3b8 cabc c951 8c3b 0a8e 81bc
00000110: c358 dc3c 17e7 00bd 8fa4 233b da88 df3b
00000120: 3af0 5f3d f6cd 1f3d d907 5a3c f3d4 833c
00000130: a133 89bd e470 c1bc 47c3 dbbc d044 37bc
00000140: a1ac 3a3d 0750 f8bc d571 90bc a04c cbbc
00000150: 544b 973c 6037 05bc ac43 acbc 63ee 883b
00000160: d76a 553d ca30 113c f2b2 d9bc a385 913b
00000170: 159e 64bc 702a 3d3d f716 0fbb 3792 a33a
00000180: 0b84 1e3d fea5 d73b b91d 273a b4c3 103d
00000190: 1ce5 97bc e2b7 843d b403 e3ba 258b c2bc
000001a0: 327e a43d 5f50 5e3d 4f58 b8bc 5576 48b9
000001b0: 49a6 803d 575f 443d 2490 85bc 7ce7 1c3c
000001c0: 1fe7 f2bc d9cf 8cbc 4f9b 13bc 4eda 0bbd
000001d0: ab4b e8bd 1809 95bd 6283 35bd b4c8 f4bc
000001e0: 9459 063d fe14 8d3c c6f4 9cbb 7a56 bcba
000001f0: 81f1 d5bc d885 aabd c585 983b c493 0abc
00000200: 1ad0 0a3c 35bd 2abc f921 7bbc 576c f3bb
00000210: b6f3 31bd 09a9 46bc 01f9 a73c 5200 c83c
00000220: c7a8 323d aa8f 333d 05ca 8fba 0e24 ebbc
00000230: b8d4 8e3c 69f9 ef3b bc72 33ba 9d5c d0bb
00000240: 3a50 d03d 3953 963d 1afb ec3c 32f0 d23c
00000250: f8c9 afbb 53f7 6a3d d0d8 d4bc 8ce3 6fbd
00000260: 09c5 8f3d 686d 44bc 42e4 0f3c 787c 163b
00000270: 91b4 233c 2c9d b2bc ec2d 563c 6d94 abbc
00000280: 94dc b33d 884c 7d3c 744d 133d 91f5 0bbc
00000290: 6862 c73d c16a 603c be60 d5bc 9366 e3bb
000002a0: c5f2 7a3d 3ca7 eb3c 1ef6 a3bb a16a 4c3c
000002b0: 6b7b 59bd a174 3ebd 4e24 e23a af85 13bb
000002c0: c3d3 b33d df55 75bb 9e4d 063b 9840 13bc
000002d0: 2896 f8bc 5304 29bb aad6 233c 0309 91bc
000002e0: 8bcc be3d 61d6 6d3d d9ce 3cbb fc53 553c
000002f0: eeee 01bc fb9a 493c da64 18bd 67ed febb
00000300: 03bc 2abc 8c58 253b e014 49bd 9335 08bd
00000310: bfb3 713d 57c2 be3d e516 6bbc fecf ac3c
00000320: cdf9 b23d 229c f23d 95ac d03c e908 cc3c
00000330: e180 9dbc 7089 ccbc e406 d53b 918c 5d3d
00000340: f4d0 e9bc 1877 ca3b 8c4e cb3c 3616 54bc
00000350: ad7a 42bd 632f 76bd 3976 b9bb f23b 4b3c
00000360: c402 40be 271e 82bd 0591 5ebc efb0 61bc
00000370: df05 10bb 3f84 17bd 5308 543d 1f7d 803c
00000380: 82a8 023c f8b4 483c d2cf 813c 7434 f13c
00000390: f521 c73b d2c3 f3bb cac5 23bc 3738 0ebd
000003a0: ba5c 433d b492 5dbc 6420 a93b 1e92 f3bc
000003b0: 7f10 b03d e8fc 5f3d 4fdb 15bd 523f 15bd
000003c0: 74a8 81bc b82c 383d 77bf 3fbd 6a61 4a3c
000003d0: 0cd9 7ebd 904a 3a3c d1a8 f53c 005f 46bb
000003e0: 3712 32bb 0772 b73c 83be 183c 2985 0ebc
000003f0: 76f3 313d adb5 8b3c c230 033b b5ef a5bc

body.block1.conv.weight f4 [64, 64, 3, 3]
0.028616307 -0.014428783 0.115095034 0.03133319 0.027567964 0.08819355 0.016752228 -0.013816276
-0.048754618 0.11089628 0.11413731 0.10752526 -0.024407841 0.021303907 -0.03481719 -0.15539394
0.051705733 0.020040449 -0.008538794 0.023112312 -0.0019045717 -0.026563227 -0.011357381 -0.05863974
-0.0056793992 0.002782464 0.02262253 -0.014403443 0.045790944 -0.014196153 -0.022983273 -0.043316867
-0.050300483 0.055051196 0.0058728596 -0.009881199 0.047529645 0.02268266 -0.1106232 0.055912867
0.047582738 0.036279205 0.095540635 0.0011344607 -0.028358381 0.017058993 0.07575092 0.07006022
-0.0057042027 -0.00160806 0.04821568 0.03597542 0.015429406 0.08222694 0.009341644 -0.02557639
-0.057613507 0.058580823 0.04328307 0.0941854 -0.12105146 -0.081838824 -0.04161355 0.0075908843
0.004505756 0.007292799 0.030261315 0.0074807475 -0.011870456 -0.039306063 -0.0075941826 -0.023932317
0.02964223 -0.011558188 -0.021886056 -0.035700105 -0.08377381 -0.039528735 -0.008182763 -0.033421233
-0.0040682633 0.031705074 0.0503352 0.04125205 -0.039010823 -0.014073903 -0.102737986 -0.09134425
-0.07923291 -0.20161486 -0.012104707 0.013303816 -0.041702095 -0.016062187 -0.026810786 -0.0053422726
0.053593658 0.036157988 -0.0011843155 -0.012144147 0.0286989 0.004385604 -0.05839855 0.01159218
-0.047622208 -0.09206755 -0.03549365 0.016775578 0.062729314 0.122154444 0.0344536 -0.028922824
0.0111297425 -0.020521706 -0.0026514842 -0.1029132 -0.066035815 0.059500795 0.04674088 0.07670647
-0.11608756 -0.020865088 0.06353278 -0.045128267 0.04195537 0.020239266 -0.022873867 -0.09158671
-0.07589665 -0.057766933 -0.0303956 -0.0038315011 -0.017330755 0.030733617 0.058070593 -0.092376925
-0.004465487 -0.0734678 0.028305184 0.037567284 -0.02029163 -0.07583156 -0.041280385 -0.10573126
-0.01922482 -0.0421549 -0.04142824 -0.03621742 -0.03206581 -0.039279547 -0.05827959 -0.06339445
-0.0810062 -0.011289442 0.004564446 0.06854021 -0.043569658 -0.0047530667 -0.031795215 -0.044948578
-0.050411902 -0.031209046 -0.015958939 -0.038224086 0.05716624 -0.014617664 0.042715885 -0.06605959
-0.07552623 0.06993747 -0.03231705 0.038849175 -0.0015279265 -0.065991394 -0.10106703 -0.07296333
-0.038583167 -0.09725977 -0.08231454 -0.05619049 0.035448797 -0.011288366 0.049094718 0.05868563
-0.06418569 0.018120648 0.09393071 -0.055183508 -0.14854126 -0.007960209 0.01011676 -0.014654333
-0.049546573 -0.013576387 -0.043534104 -0.063876085 -0.07634912 -0.08079542 0.041348692 0.016747648
-0.0006957429 0.054026145 0.06550993 0.048196796 -0.06942509 -0.047429204 0.077559575 0.09238119
0.05842876 0.005834092 -0.011906465 0.03231558 0.08523814 0.00041829792 -0.011271294 0.021731978
-0.052342568 -0.049630973 0.035367478 -0.005688208 -0.0919197 -0.021639246 -0.02305808 -0.030835861
-0.07457593 -0.045385797 -0.041374587 0.012754034 -0.011048919 -0.020336395 0.031398244 0.00943164
-0.020357382 0.048845347 -0.08743603 0.029842587 -0.017474143 -0.061492886 -0.014283931 0.0054912637
-0.00022628382 -0.009324297 0.046562467 -0.010736311 0.0027318692 0.03280064 -0.062165085 -0.039570022
-0.023981594 -0.11186683 -0.10682792 -0.09605941 0.035239384 -0.032566346 0.04909922 0.049991466
00000000: bf6c ea3c b466 6cbc f2b6 eb3d 3b57 003d
00000010: 36d6 e13c d29e b43d f83b 893c a95d 62bc
00000020: ecb2 47bd 971d e33d d2c0 e93d 3436 dc3d
00000030: f4f2 c7bc 8885 ae3c 789c 0ebd 971f 1fbe
00000040: 64c9 533d de2b a43c 4ce6 0bbc 0856 bd3c
00000050: d2a2 f9ba 209b d9bc 4f14 3abc 3930 70bd
00000060: 411a babb 005a 363b e252 b93c 6bfc 6bbc
00000070: 498f 3b3d fb96 68bc 6b47 bcbc 076d 31bd
00000080: e107 4ebd 5d7d 613d 1e71 c03b c1e4 21bc
00000090: 72ae 423d fcd0 b93c 6b8e e2bd e404 653d
000000a0: 1ee6 423d 8199 143d cfaa c33d 2fb2 943a
000000b0: d64f e8bc 4dbf 8b3c 4c23 9b3d bc7b 8f3d
000000c0: 52ea babb 8ac5 d2ba ce7d 453d f65a 133d
000000d0: 9fcb 7c3c 9966 a83d b20d 193c 9485 d1bc
000000e0: 24fc 6bbd 72f2 6f3d 9749 313d 46e4 c03d
000000f0: d4e9 f7bd 1d9b a7bd f872 2abd f4bc f83b
00000100: 05a5 933b 6ff8 ee3b 94e6 f73c 0f21 f53b
00000110: 4d7c 42bc 65ff 20bd 9fd8 f8bb b50d c4bc
00000120: 43d4 f23c 8e5e 3dbc 634a b3bc 463a 12bd
00000130: 9a91 abbd e2e8 21bd ff10 06bc b4e4 08bd
00000140: 114f 85bb 2edd 013d 482c 4e3d e9f7 283d
00000150: d0c9 1fbd 3a96 66bc 4b68 d2bd b212 bbbd
00000160: dd44 a2bd 2074 4ebe d252 46bc 40f8 593c
00000170: d1cf 2abd d994 83bc 4ba2 dbbc 3b0e afbb
00000180: 0685 5b3d 661a 143d 093b 9bba 3ff8 46bc
00000190: f519 eb3c 1db5 8f3b 5133 6fbd 20ed 3d3c
000001a0: 810f 43bd e98d bcbd ca61 11bd f06c 893c
000001b0: 3a78 803d 1c2c fa3d 381f 0d3d 8fef ecbc
000001c0: 8659 363c 231d a8bc 86c4 2dbb 28c4 d2bd
000001d0: c93d 87bd 1bb7 733d 5d73 3f3d 4818 9d3d
000001e0: 51bf edbd 43ed aabc 791d 823d 6bd8 38bd
000001f0: 65d9 2b3d d1cc a53c fa61 bbbc d091 bbbd
00000200: b46f 9bbd 059d 6cbd 3100 f9bc ec19 7bbb
00000210: 3af9 8dbc 11c5 fb3c 6edb 6d3d 1d30 bdbd
00000220: 3853 92bb 4976 96bd 46e0 e73c 27e0 193d
00000230: a23a a6bc 944d 9bbd 9f15 29bd a189 d8bd
00000240: 5f7d 9dbc 9eaa 2cbd a8b0 29bd b858 14bd
00000250: 7057 03bd 97e3 20bd 94b6 6ebd f3d4 81bd
00000260: 94e6 a5bd 5af7 38bc 5991 953b cf5e 8c3d
00000270: 1976 32bd 9dbf 9bbb b33b 02bd 001c 38bd
00000280: b67c 4ebd 1daa ffbc 52bc 82bc dc90 1cbd
00000290: 2627 6a3d ed7e 6fbc daf6 2e3d 404a 87bd
000002a0: 7fad 9abd 603b 8f3d e25e 04bd 5020 1f3d
000002b0: b544 c8ba 7f26 87bd 3bfc cebd cc6d 95bd
000002c0: 6209 1ebd 2130 c7bd 8794 a8bd 0028 66bd
000002d0: c232 113d d7f2 38bc 8b17 493d 5860 703d
000002e0: c973 83bd c171 943c be5e c03d 1a08 62bd
000002f0: 331b 18be 896b 02bc c4c0 253c ba18 70bc
00000300: 59f1 4abd 7f6f 5ebc d150 32bd 77d1 82bd
00000310: ed5c 9cbd 1278 a5bd 3f5d 293d 5d32 893c
00000320: 8462 36ba 854a 5d3d 122a 863d 016a 453d
00000330: be2e 8ebd 2045 42bd 8ed7 9e3d 5932 bd3d
00000340: ff52 6f3d e92b bf3b 5513 43bc 575d 043d
00000350: 5591 ae3d ff4e db39 3cab 38bc 4307 b23c
00000360: 2965 56bd d949 4bbd 7ddd 103d 2664 babb
00000370: 6540 bcbd ca44 b1bc 4ce4 bcbc 7d9b fcbc
00000380: 44bb 98bd 75e6 39bd 6678 29bd 4cf6 503c
00000390: 8606 35bc 8398 a6bc 729b 003d 2a87 1a3c
000003a0: 86c4 a6bc 0f12 483d a911 b3bd 7178 f43c
000003b0: ef25 8fbc f7df 7bbd 2607 6abc 0ff0 b33b
000003c0: 9a46 6db9 f0c4 18bc 49b8 3e3d 5ae7 2fbc
000003d0: 2909 333b f759 063d d1a0 7ebd 2d14 22bd
000003e0: 0c75 c4bc 701a e5bd 99c8 dabd ccba c4bd
000003f0: 2c57 103d 4a64 05bd 441c 493d dac3 4c3d

body.block1.conv.bias f4 [64]
-0.034810305 0.049655117 -0.037575237 -0.022330638 -0.011295171 0.014651502 0.07525222 -0.05549701
0.011948369 -0.05236723 -0.06871928 -0.034459125 -0.06459729 0.016014148 0.0495984 -0.00071196293
0.069146246 0.02321658 -0.07371741 0.008615313 0.062643215 -0.00539145 0.0140733365 0.053032205
0.008793936 -0.026700523 0.05327588 0.029952379 -0.034296766 -0.022258682 0.043092605 -0.048008617
0.031023018 -0.022118 0.031827174 -0.013602474 0.022135748 0.0656919 -0.04278766 -0.008801187
0.009285581 0.0732687 0.06614973 0.013183068 -0.062411398 -0.01616213 0.0594372 0.050999083
-0.035101518 -0.061162684 -0.03355093 -0.045904946 0.006573904 -0.06652452 -0.004358519 0.058158666
-0.015540945 0.0042579905 0.04571683 0.058446974 -0.004107947 -0.0374546 -0.07290739 -0.0065549184
00000000: 4095 0ebd 2a63 4b3d 7ee8 19bd beee b6bc
00000010: 620f 39bc da0c 703c d61d 9a3d d550 63bd
00000020: 18c3 433c 057f 56bd b2bc 8cbd 0325 0dbd
00000030: 954b 84bd 1a30 833c b127 4b3d 06a3 3aba
00000040: 8c9c 8d3d b230 be3c 27f9 96bd 3e27 0d3c
00000050: 164b 803d c3aa b0bb da93 663c 4c38 593d
00000060: 7114 103c 0ebb dabc cf37 5a3d b15e f53c
00000070: c47a 0cbd d757 b6bc df81 303d afa4 44bd
00000080: fc23 fe3c cf30 b5bc 365d 023d e9dc 5ebc
00000090: 0756 b53c 7a89 863d 1d42 2fbd db32 10bc
000000a0: 8d22 183c e60d 963d 8279 873d cbfd 573c
000000b0: 18a3 7fbd 7166 84bc 6c74 733d 6ae4 503d
000000c0: 9cc6 0fbd b985 7abd b36c 09bd d306 3cbd
000000d0: e769 d73b 023e 88bd e8d1 8ebb c837 6e3d
000000e0: 739f 7ebc 9d86 8b3b 9241 3b3d 1866 6f3d
000000f0: f59b 86bb ff69 19bd 7850 95bd a4ca d6bb

body.block1.norm.weight f4 [64]
0.9590549 1.1358843 1.0973217 1.0350813 1.034371 1.1857814 0.8943269 0.9311557
0.9951402 1.0593662 0.9494852 0.88025784 1.0070783 1.007098 0.93637383 1.0144525
1.0437399 0.92431265 0.94202876 1.1811646 0.9238637 0.8908725 0.91187006 0.9959778
1.0751886 0.97729236 0.9645985 0.9411627 1.0945095 0.9070411 0.963207 0.98474044
0.7845971 1.0394653 1.0703851 1.0229123 0.96402675 0.9849488 0.9846754 1.0406969
0.83760536 1.0322973 0.84944415 1.1560901 1.137743 0.9081882 0.87448376 1.1526424
1.0934616 0.90505195 0.96416426 1.0698019 0.94932264 0.943649 1.0758582 1.0481274
1.0140811 1.0221586 1.079678 1.0006416 0.99994344 0.9343768 1.1005542 1.0428545
00000000: 9f84 753f a864 913f 0a75 8c3f 8b7d 843f
00000010: 4566 843f afc7 973f 9cf2 643f 3860 6e3f
00000020: 82c1 7e3f 5099 873f 7611 733f 9458 613f
00000030: f1e7 803f 96e8 803f 32b6 6f3f 94d9 813f
00000040: 4599 853f c19f 6c3f cc28 713f 6730 973f
00000050: 5582 6c3f 3810 643f 5170 693f 67f8 7e3f
00000060: c89f 893f d52f 7a3f edef 763f 0af0 703f
00000070: e318 8c3f d833 683f bc94 763f f317 7c3f
00000080: 5bdb 483f 330d 853f 6102 893f caee 823f
00000090: 75ca 763f 9b25 7c3f b013 7c3f 8e35 853f
000000a0: 4e6d 563f 5122 843f 2c75 593f c3fa 933f
000000b0: 90a1 913f 067f 683f 2bde 5f3f c989 933f
000000c0: 8df6 8b3f 7cb1 673f 78d3 763f 45ef 883f
000000d0: cf06 733f fb92 713f b9b5 893f 0a29 863f
000000e0: 69cd 813f 18d6 823f e432 8a3f 0615 803f
000000f0: 4bfc 7f3f 5133 6f3f f6de 8c3f 427c 853f

body.block1.norm.bias f4 [64]
0.10294474 0.3868738 0.12275294 0.012757078 -0.030056158 0.24437432 -0.07337467 0.47828588
0.25968426 0.082384974 -0.019515729 0.35202324 0.20917678 -0.07683343 0.4255088 0.17914271
0.13165703 0.27671757 0.2131313 0.33167303 0.27427065 0.3159074 0.14307745 0.006956945
-0.049211957 0.03990647 0.18949008 -0.004329879 0.17281625 0.21178947 0.2826328 0.07149091
0.08768679 -0.03878179 0.16130836 0.339616 0.32242224 0.027683917 0.26317555 0.09936449
0.42856142 0.517807 0.16495746 -0.01358004 0.07668045 0.1637086 0.47909838 0.07833133
0.08939389 0.23643444 0.008333443 0.03113573 0.04578185 0.06714631 0.10670357 0.18926404
0.03389602 0.20895398 0.28811207 0.0408185 0.23004554 0.117911376 0.22084527 -0.01572843
00000000: b1d4 d23d 5314 c63e e565 fb3d 1003 513c
00000010: 5538 f6bc 433d 7a3e 7645 96bd e3e1 f43e
00000020: 56f5 843e 74b9 a83d 73df 9fbc 643c b43e
00000030: 7032 563e d85a 9dbd 4adc d93e 3071 373e
00000040: 1ad1 063e edad 8d3e 173f 5a3e 0cd1 a93e
00000050: 346d 8c3e 9dbe a13e e582 123e 16f7 e33b
00000060: 7a92 49bd f774 233d b009 423e a8e1 8dbb
00000070: bef6 303e 57df 583e 3fb5 903e d469 923d
00000080: 2295 b33d a7d9 1ebd 052e 253e 26e2 ad3e
00000090: 8714 a53e 62c9 e23c f2be 863e 9c7f cb3d
000000a0: 676c db3e 008f 043f 9cea 283e d17e 5ebc
000000b0: a40a 9d3d 3aa3 273e 624c f53e 2d6c a03d
000000c0: 2514 b73d df1b 723e fe88 083c 5c10 ff3c
000000d0: c085 3b3d 0184 893d 6787 da3d 6fce 413e
000000e0: 8ed6 0a3d 08f8 553e 6d83 933e 4d31 273d
000000f0: 0f91 6b3e 857b f13d 4325 623e e9d8 80bc

body.block1.norm.running_mean f4 [64]
-0.91603804 2.5639591 -2.0412247 1.0578617 -0.017241696 -1.304003 1.0239736 -3.085883
-2.4463377 0.42937273 0.4444529 -2.0728815 -1.10219 0.075307235 -2.729178 -0.58050525
0.083051644 -0.42108253 -2.162637 2.427242 -2.7008436 -1.1620923 -2.4343193 1.0254527
0.441059 -1.2064091 -2.0811148 1.5952042 0.46796906 -2.111262 -1.437189 0.2550096
-2.0693176 -0.13635537 0.0924936 -3.0478282 -2.7908041 0.13958015 -0.7278441 -1.0740217
-0.62092286 -2.9491153 -1.4320195 0.16731068 0.07599977 -0.19868767 -2.0230322 0.53426504
-0.16234435 -2.675455 -0.65274024 1.4837475 -1.1954888 -2.1318226 -1.2641705 -1.4358839
0.4383437 0.2634207 -0.9998633 0.43007588 -1.6524088 -2.6416414 -2.3057225 -0.24644138
00000000: 7881 6abf e817 2440 6da3 02c0 0368 873f
00000010: 753e 8dbc 92e9 a6bf 9111 833f 1b7f 45c0
00000020: cc90 1cc0 bed6 db3e 558f e33e 17aa 04c0
00000030: 9014 8dbf ae3a 9a3d daaa 2ec0 fe9b 14bf
00000040: fb16 aa3d 2198 d7be a568 0ac0 ef57 1b40
00000050: 9fda 2cc0 71bf 94bf e3cb 1bc0 0942 833f
00000060: 7cd2 e13e 9d6b 9abf fc30 05c0 a72f cc3f
00000070: a499 ef3e eb1e 07c0 cff5 b7bf 9e90 823e
00000080: b36f 04c0 bea0 0bbe 496d bd3d 9e0f 43c0
00000090: 899c 32c0 19ee 0e3e fe53 3abf 8b79 89bf
000000a0: cdf4 1ebf 4ebe 3cc0 6a4c b7bf 7e53 2b3e
000000b0: c4a5 9b3d c874 4bbe 5c79 01c0 98c5 083f
000000c0: 993d 26be a83a 2bc0 fc19 27bf 70eb bd3f
000000d0: c705 99bf c86f 08c0 57d0 a1bf 0bcb b7bf
000000e0: 966e e03e 14df 863e 0bf7 7fbf e832 dc3e
000000f0: 2282 d3bf a710 29c0 f590 13c0 215b 7cbe

body.block1.norm.running_var f4 [64]
0.9424131 0.28825828 0.4536856 0.9361763 0.4937919 2.1239777 0.78079736 0.4143476
3.7893116 0.7585855 0.86620945 0.5308169 0.77247256 0.9813915 4.4387527 2.0749404
1.2418407 1.1261489 2.4383504 0.31512633 3.717463 0.45693523 1.0652199 1.0374348
0.3825883 1.4428171 0.8489214 0.50497925 1.4888024 3.3725607 0.8484835 3.8230524
5.626401 0.8555219 0.8807532 0.46179795 0.43200955 1.3018479 1.6804354 0.37342253
1.2174554 0.4036589 0.8648319 0.7644484 0.6478454 2.191847 0.50829405 0.42479202
0.8656993 0.6940934 1.1011566 0.49840885 0.6351417 1.1860173 0.28419822 1.5072362
0.9909583 0.47610983 0.66743755 1.0437522 0.8660568 0.9938531 0.41094497 0.6908479
00000000: fc41 713f 9796 933e 7b49 e83e 40a9 6f3f
00000010: 4bd2 fc3e 40ef 0740 56e2 473f 5e25 d43e
00000020: 1584 7240 a932 423f e7bf 5d3f 9ee3 073f
00000030: c3c0 453f 793c 7b3f 430a 8e40 d3cb 0440
00000040: a3f4 9e3f a625 903f ef0d 1c40 3d58 a13e
00000050: eaea 6d40 6af3 e93e 2059 883f aaca 843f
00000060: 9de2 c33e 3bae b83f ea52 593f 5246 013f
00000070: 1491 be3f 09d8 5740 3736 593f e4ac 7440
00000080: 7a0b b440 7c03 5b3f 0b79 613f c870 ec3e
00000090: 5b30 dd3e f4a2 a63f 8218 d73f 3d31 bf3e
000000a0: 94d5 9b3f 61ac ce3e a065 5d3f e4b2 433f
000000b0: 32d9 253f 3947 0c40 8f1f 023f 577e d93e
000000c0: 789e 5d3f 1bb0 313f b3f2 8c3f 722f ff3e
000000d0: a598 223f 6acf 973f 6e82 913e 1eed c03f
000000e0: 71af 7d3f abc4 f33e 30dd 2a3f ac99 853f
000000f0: e6b5 5d3f 286d 7e3f 6167 d23e 68db 303f

body.block2.conv.weight f4 [64, 64, 3, 3]
0.1558588 0.10105934 0.052866895 0.049604792 0.01365179 0.04229928 0.031389885 0.018510984
-0.005215033 0.035509784 0.027703928 0.009855648 -0.0084620975 0.0052765594 -0.048228633 0.005620504
-0.0351754 -0.08104982 -0.02373644 -0.005588738 -0.0049999105 -0.05024862 -0.02096485 -0.06203359
0.050312918 0.0039432803 -0.016856303 -0.081370264 -0.07070564 -0.035214808 -0.058495052 -0.09740855
-0.03795843 -0.100231 -0.0725431 -0.108143106 -0.051736075 -0.084590904 -0.109288976 -0.017515764
-0.07717766 -0.06478858 -0.06961951 -0.08068093 -0.081854545 -0.12979952 -0.09755016 -0.07553289
-0.035491444 -0.06707078 -0.024168722 -0.101290286 -0.06219934 -0.020441942 -0.046863936 -0.053693693
-0.024383059 -0.03501926 -0.042120215 -0.007935691 -0.061506964 -0.04681395 -0.028418519 0.014322518
-0.028929567 0.047544915 -0.0072709755 0.0090026865 -0.06727726 -0.0037165317 -0.06023271 -0.011628457
0.009380892 0.0084885275 0.03728532 0.039724987 -0.0050981897 0.0057160375 0.049567625 0.029852627
0.02402725 -0.06600356 -0.07619262 -0.04900889 -0.08247257 -0.081373766 -0.08868898 -0.1383094
-0.09565649 -0.06573677 -0.07292797 -0.03967965 -0.019265575 -0.061178952 0.005511167 0.034593113
-0.081753634 -0.04334091 0.01782952 -0.045030158 -0.09420632 -0.04965522 -0.009912554 0.009484165
-0.011566468 0.0004153395 -0.016676197 -0.029186817 0.0036492336 -0.04913935 -0.022425245 -0.027136905
-0.08670142 -0.025424713 -0.112257786 -0.083805785 -0.06411083 0.061532065 -0.009864176 0.0056334645
0.006031773 0.010563403 0.0034205106 -0.03496457 -0.046145603 -0.09000137 0.020902583 0.08077853
0.026020158 0.02846216 0.009861296 0.012274995 -0.009636465 -0.033817552 -0.02460703 -0.05707148
-0.056866385 -0.04301475 -0.08054144 -0.065946005 -0.08002518 -0.14348261 -0.09616112 -0.11214855
-0.11567834 -0.057147264 -0.03377522 -0.1172264 -0.06192632 -0.088109985 -0.1299225 -0.050592955
-0.07255212 -0.026392298 0.013724705 0.046358835 -0.005204821 -0.05379644 0.06417246 0.03540259
0.028712716 0.07445637 -0.010378165 -0.024009706 -0.01834543 0.10504014 0.044274006 -0.007629254
0.033260766 0.0014864695 0.050297476 -0.08883172 -0.05509557 -0.10545851 -0.124182284 -0.088337354
-0.096976824 -0.08395663 -0.12579094 -0.092605256 -0.010688546 -0.029765973 -0.04264828 -0.010352144
-0.031926014 -0.032054547 -0.046220265 0.000272875 -0.056853913 -0.00029763055 0.051618088 -0.0069070794
0.032252036 0.021877382 0.0066807345 0.00059475156 -0.07470471 -0.07988255 0.015375552 -0.055888895
-0.0047302926 -0.05299721 -0.0751049 -0.042599704 -0.042845786 -0.010639621 -0.04486054 -0.028366854
0.017980376 0.009039927 -0.03935352 -0.0014019856 -0.01460682 0.0084871035 0.029454183 0.0050942157
-0.044463873 -0.0054595578 0.034067877 -0.040014364 -0.026796622 -0.012366162 -0.037574705 -0.054504655
-0.098793015 0.04239907 -0.007715927 -0.032353923 -0.0067875274 -0.0103823105 0.0117016835 -0.062704675
0.0078353975 -0.0046479204 0.04613456 -0.014008808 7.700946e-05 0.03739727 0.0010113004 -0.025462855
-0.0009979822 -0.0035775227 -0.014749611 -0.032311082 0.00615643 -0.014131803 -0.06576511 -0.024323838
-0.061771866 -0.04468763 0.0038912 -0.020149056 0.036297772 -0.01449896 0.022468975 -0.07124583
00000000: 7399 1f3e 33f8 ce3d f58a 583d 652e 4b3d
00000010: c2ab 5f3c 0342 2d3d ae92 003d 59a4 973c
00000020: dee2 aabb b572 113d 59f3 e23c 9579 213c
00000030: 9ca4 0abc fde6 ac3b 638b 45bd 342c b83b
00000040: 1514 10bd 73fd a5bd ec72 c2bc bb21 b7bb
00000050: 4ad6 a3bb 7fd1 4dbd 7abe abbc ef16 7ebd
00000060: eb14 4e3d a236 813b 3b16 8abc 74a5 a6bd
00000070: 1ece 90bd 673d 10bd 8298 6fbd 227e c7bd
00000080: 4c7a 1bbd e945 cdbd 7a91 94bd 227a ddbd
00000090: 35e9 53bd ff3d adbd e6d2 dfbd 387d 8fbc
000000a0: 520f 9ebd e0af 84bd ac94 8ebd 0b3c a5bd
000000b0: 5ba3 a7bd 2aea 04be 61c8 c7bd fdb0 9abd
000000c0: 7a5f 11bd 685c 89bd 7cfd c5bc 4871 cfbd
000000d0: bcc4 7ebd dc75 a7bc 66f4 3fbd ebed 5bbd
000000e0: fbbe c7bc 5b70 0fbd 3f86 2cbd b304 02bc
000000f0: baee 7bbd fcbf 3fbd f4cd e8bc ffa8 6a3c
00000100: b3fd ecbc 75be 423d 5d41 eebb 0180 133c
00000110: a9c8 89bd 0e91 73bb 93b6 76bd 4985 3ebc
00000120: 50b2 193c 7713 0b3c 7eb8 183d abb6 223d
00000130: b70e a7bb 994d bb3b 6c07 4b3d 7f8d f43c
00000140: ccd4 c43c e02c 87bd e00a 9cbd 8cbd 48bd
00000150: 61e7 a8bd 4aa7 a6bd 91a2 b5bd fba0 0dbe
00000160: 8de7 c3bd 00a1 86bd 425b 95bd 2187 22bd
00000170: d7d2 9dbc c896 7abd 0597 b43b 82b1 0d3d
00000180: 736e a7bd 3d86 31bd 370f 923c 8b71 38bd
00000190: 3eef c0bd 4663 4bbd 4468 22bc 7963 1b3c
000001a0: 4881 3dbc edc1 d939 859c 88bc 3119 efbc
000001b0: fb27 6f3b 5846 49bd 26b5 b7bc 374e debc
000001c0: 8490 b1bd 7d47 d0bc 69e7 e5bd 5ea2 abbd
000001d0: 8a4c 83bd 0c09 7c3d 5a9d 21bc ed98 b83b
000001e0: 2ea6 c53b 2012 2d3c a52a 603b 0237 0fbd
000001f0: 2c03 3dbd a352 b8bd e53b ab3c 376f a53d
00000200: 3a28 d53c 7a29 e93c 4691 213c 101d 493c
00000210: 44e2 1dbc 4684 0abd af94 c9bc c9c3 69bd
00000220: baec 68bd 3c30 30bd e9f2 a4bd b30e 87bd
00000230: 3ee4 a3bd 1bed 12be 1ff0 c4bd 24ae e5bd
00000240: c4e8 ecbd 4013 6abd e357 0abd 6514 f0bd
00000250: 74a6 7dbd 0273 b4bd 670a 05be 8f3a 4fbd
00000260: 3596 94bd a934 d8bc 96dd 603c c3e2 3d3d
00000270: 348d aabb a859 5cbd da6c 833d 4e02 113d
00000280: ee36 eb3c 957c 983d 2e09 2abc 01b0 c4bc
00000290: 2849 96bc 491f d73d a958 353d d2fe f9bb
000002a0: 713c 083d a4d5 c23a ba04 4e3d 68ed b5bd
000002b0: e4ab 61bd a2fa d7bd 4853 febd 37ea b4bd
000002c0: c99b c6bd 74f1 abbd 57cf 00be d3a7 bdbd
000002d0: 031f 2fbc c5d7 f3bc f6af 2ebd 0a9c 29bc
000002e0: dac4 02bd a14b 03bd 7651 3dbd aa10 8f39
000002f0: a6df 68bd 4c0b 9cb9 7d6d 533d c854 e2bb
00000300: b61a 043d 3238 b33c 10ea da3b 1ae9 1b3a
00000310: c8fe 98bd 7699 a3bd bde9 7b3c c1eb 64bd
00000320: 9200 9bbb 9a13 59bd 99d0 99bd 077d 2ebd
00000330: 107f 2fbd ce51 2ebc b0bf 37bd 9b61 e8bc
00000340: 954b 933c 341c 143c 2831 21bd d5c2 b7ba
00000350: 7251 6fbc 7e0d 0b3c e649 f13c 61ed a63b
00000360: c01f 36bd 17e6 b2bb c28a 0b3d 1ae6 23bd
00000370: 9784 dbbc 719b 4abc efe7 19bd 4640 5fbd
00000380: fe53 cabd a6aa 2d3d e3d5 fcbb 8c85 04bd
00000390: e869 debb 911a 2abc 6bb8 3f3c 4f6b 80bd
000003a0: 0a60 003c 954d 98bb 98f7 3c3d 3385 65bc
000003b0: 2480 a138 e12d 193d 9c8d 843a 7a97 d0bc
000003c0: bace 82ba df74 6abb 5aa8 71bc a058 04bd
000003d0: e1bb c93b 1489 67bc dcaf 86bd c942 c7bc
000003e0: 7f04 7dbd 600a 37bd 8103 7f3b a20f a5bc
000003f0: f9ac 143d 0c8d 6dbc db10 b83c 55e9 91bd

body.block2.conv.bias f4 [64]
-0.026959343 -7.375884e-05 0.04839174 0.009738802 -0.09949973 -0.051536765 0.00977173 -0.0070999367
0.0010797866 -0.032018173 0.022797681 0.012812577 -0.0050483984 -0.027773695 0.042303804 0.006888869
-0.047742147 0.115188085 0.0057437904 0.025472874 -0.023518505 0.05127676 0.012257024 -0.035163414
-0.0016572085 -0.005701559 -0.05310974 0.017084872 0.07631535 -0.03415447 -0.009941402 -0.053657513
-0.011472249 -0.029502643 0.06353093 0.031568788 0.012218411 0.031246034 0.03697825 0.039708637
0.023929594 -0.042843714 -0.02913826 -0.029986596 -0.051596038 0.055868957 0.007835293 -0.026615098
-0.01680783 -0.018199578 -0.06746806 0.08851071 -0.0065476107 -0.025273507 0.0013446772 -0.008623759
0.078630954 -0.01373769 0.004730301 -0.033191092 0.006251704 0.011955294 0.021876179 0.013251245
00000000: d7d9 dcbc faae 9ab8 6b36 463d 7f8f 1f3c
00000010: 84c6 cbbd 3718 53bd 9b19 203c 96a6 e8bb
00000020: a087 8d3a 7d25 03bd 34c2 ba3c d8eb 513c
00000030: 096d a5bb a985 e3bc c146 2d3d 06bc e13b
00000040: 458d 43bd bbe7 eb3d 6836 bc3b 7dac d03c
00000050: e1a9 c0bc 9407 523d afd1 483c 8307 10bd
00000060: b136 d9ba 25d4 babb 9989 59bd 93f5 8b3c
00000070: 394b 9c3d 8fe5 0bbd 43e1 22bc fbc7 5bbd
00000080: 1af6 3bbc 87af f1bc 811c 823d 464e 013d
00000090: bb2f 483c aff7 ff3c 8176 173d 86a5 223d
000000a0: ff07 c43c e47c 2fbd 5cb3 eebc 73a6 f5bc
000000b0: 5e56 53bd d9d6 643d 9a5f 003c e807 dabc
000000c0: 93b0 89bc 4817 95bc b22c 8abd 1a45 b53d
000000d0: 578d d6bb 630a cfbc e13f b03a ab4a 0dbc
000000e0: 4409 a13d 0c14 61bc a400 9b3b 62f3 07bd
000000f0: 18db cc3b 23e0 433c ac35 b33c c01b 593c
