TrainedModels/SMB-1-1/scale_factor=0.750000,alpha=10/5/netG.pth (torch, 470667 bytes, 26 tensors)

head.conv.weight f4 [64, 3, 3, 3]
00000000: 1fa7 b5bd f579 86bd 0ba3 073c 9a11 e1bd
00000010: 324d 89bd 13a0 813c e76c 61bd 0bdc f2bc
00000020: 00a5 6f3b bc5c e43c 2bc6 6abb a168 22bd
00000030: 9074 d4bc ddcf 58bd 968d 6fbc 973b 3abd
00000040: 7b6f 97bd 8dd8 08bd 76b4 97bc 244a c23c
00000050: 4897 b73a bf0f e53b 74cf 823d dc0f 1c3d
00000060: 2d18 35bd 41df e03c 4b68 fe3c 3c02 6bbb
00000070: cfaa 95bc 83b8 51bc 1794 383d 3b89 9a3c
00000080: 408a 063d 1c92 df3b 0a42 9e3b 6f44 083d
00000090: 1d02 423d 3760 d33c 1c9c 313d 6c35 0a3d
000000a0: f45b cd3b 7c8e d23b cca5 e0bc 5eb0 26bd
000000b0: 3d11 ea3c 2e0c a5bc 08c6 adbc 2b5d e0bc
000000c0: 7bb8 43bd d652 0bbc 4dbe b6bc 1810 913c
000000d0: 9f15 293d 1a36 b53d fb04 883c b500 0e3c
000000e0: 9f48 003c 02e1 77bc 8349 ad3d 701c ddbc
000000f0: a4bb 95bd f5fd 843b c06f 7f3d bc19 bdbc
00000100: e684 103d a30a 3d3d 8772 92bd 7129 04bd
00000110: 5d51 0fbd d1a2 473d 703f 463c d194 443d
00000120: 09aa 7f3d e78d b2bc 8da6 2e3d b1cd c6bc
00000130: bde9 e2bc fa74 0fbc 6234 e0bc 0641 70bd
00000140: d6c9 193d 1486 133d 932a 4a3a 75f0 853c
00000150: de6c 95bc 83ff 76bc aec3 20bd a905 abbc
00000160: 72bd ec3c 91e5 e5bc 3afe be3c 410e 893b
00000170: d2c9 873d 8372 773d f941 813c f0d2 f43c
00000180: 1fba 4a3d 0ea9 633d 1b07 033d 40aa acbc
00000190: 929f f8bc a14b 93bc 4bc6 c5bb 3665 4abd
000001a0: f70b b53c 25f1 4bbd 8020 3ebd 9675 bdbd
000001b0: 1fa8 95bd 0ab5 2f3d 824d 843d c879 18bd
000001c0: 9453 8a3b 12c4 9dbc 53d6 a0bb 35c5 73bc
000001d0: 5662 9dbd 763b 64bc 7694 2c3c 2f64 46bd
000001e0: ce19 47bb c69d 89bb 7bdc 7dbc 9dd9 d2bc
000001f0: d53f 1a3d f2a0 05bc 4636 5d3d 144e 9f3a
00000200: 8283 713d 8f92 053c 1584 eabb 7e85 053d
00000210: 1698 a53d a21e 48bd 465f 643c 96bb a73c
00000220: 267b bfbc 27a5 7f3c 9916 0fbc eb5b 943b
00000230: f75d cebc f687 733d 4f7a bf3c b3ef 32bd
00000240: e42c 7e3d 0f4c 833c 5b82 073e 4c8b 13bd
00000250: 64dc 42bd a7af 9f3c 1259 22bd 5508 a8bd
00000260: 2d39 c83b 4f90 9a3c 0475 31bc 42b4 acbc
00000270: 578c 2b3d f80a 413d dc3a 143d 6fde 82bd
00000280: a313 18bc 4312 8d3c a33d 06bc f081 bf3c
00000290: 44fa 413d f8a1 4dbd 8ca4 24bd f4c2 8c3b
000002a0: 717d b63b 516a 43bd e297 913d 7e26 b0bc
000002b0: 9d6a e93a 20c4 adbd 5bfc b43c d279 003d
000002c0: 29b3 ad3c 9305 4cbb 9447 e2bc b500 9fbc
000002d0: a369 ba3c c877 5ebd bd96 47bc 0f1a 9eba
000002e0: f6d1 353d 7c97 ae3d 0c52 2dbd 6ae4 03bd
000002f0: 1bfa 413a e3f0 383d 182b 51bd 45c3 26bd
00000300: 141a 99bd 8cee 5f3d 6e96 9fbb 1c7f e23b
00000310: 26d1 273d 5e96 23bd 6336 e23c b537 9fbd
00000320: 62e7 523d 08c5 47bd 2968 8f3c 4fe7 b23d
00000330: 5541 40bb 8d2a 5339 d63c 41bd fa46 d63d
00000340: c685 51bd a59d 943c 70fc f5bb 703b c8bc
00000350: f5ac 70bc dee0 3d3d 15c0 88bc 9a37 b43c
00000360: 1303 143d 7751 a53d 5a4f e03c 1f3f 1fbd
00000370: 9e11 6fbd 2a55 d3bc 3db5 0cbd a13f 1d3d
00000380: e40a a23c 5828 8fbb 7663 d1bc 7976 0d3d
00000390: cf84 9c3d 6f1b 343d 3b84 363d 4be8 bcbd
000003a0: 3f09 65bd 44c2 40bd 85fb 99bc 08dd 5dbd
000003b0: e0e4 0aba d654 133d d3c0 013d a943 1e3d
000003c0: 6696 0ebd dc84 2bba 3cfc b8bc 4cff a3bc
000003d0: 3472 2abb 6b41 1dbd 27a4 ed3c 5aca a33d
000003e0: a29f 9a3c b3e1 64bd 8d06 e33c 05bd 6abd
000003f0: 4e0f 29bc cbaa 46bd a092 a8bc 2e3f bfbd
-0.088697664 -0.0656623 0.008278619 -0.10989685 -0.06704177 0.0158234 -0.055035498 -0.02964594
0.0036566854 0.02787625 -0.0035823684 -0.039650563 -0.025934488 -0.05293261 -0.014621159 -0.045466986
-0.0739431 -0.033409644 -0.018518668 0.023716994 0.0014006877 0.0069904025 0.06387225 0.038101062
-0.04421251 0.027450206 0.03105559 -0.0035859486 -0.018269924 -0.012800339 0.045063104 0.018864265
0.03284669 0.0068228375 0.00482965 0.03326839 0.047365297 0.025802715 0.043361768 0.033742353
0.006267065 0.006425677 -0.027422808 -0.04069554 0.028572673 -0.02014741 -0.021212593 -0.027388176
-0.047783356 -0.008503636 -0.02230754 0.01770787 0.041280385 0.0884821 0.016603937 0.008667161
0.007829814 -0.01512933 0.08461287 -0.0269911 -0.0731118 0.0040585943 0.062362432 -0.02308356
0.03528299 0.046152722 -0.071507506 -0.032266084 -0.034989703 0.04873926 0.012100086 0.047993485
0.062418018 -0.02179618 0.042639304 -0.024268003 -0.027699346 -0.008755917 -0.027368728 -0.05865576
0.037546 0.03601654 0.00077120325 0.01635001 -0.018240388 -0.015075567 -0.039249115 -0.020876722
0.028898928 -0.028063567 0.023314584 0.0041826074 0.06630291 0.06041194 0.015778529 0.02988574
0.049493905 0.055581145 0.0319892 -0.021077275 -0.030349527 -0.017980399 -0.0060356013 -0.04941293
0.022100432 -0.04979052 -0.046417713 -0.09250943 -0.07307457 0.04289726 0.06460096 -0.037225515
0.004221389 -0.019258533 -0.004908362 -0.014878561 -0.07684772 -0.013930192 0.010533443 -0.048435386
-0.003038037 -0.0041997163 -0.015494461 -0.025738532 0.03765853 -0.008156048 0.054006837 0.0012154006
0.058963306 0.008152618 -0.0071568587 0.03259801 0.08085649 -0.04885734 0.013938731 0.02047519
-0.023374151 0.01560334 -0.008733415 0.004527559 -0.02519129 0.059455834 0.023373751 -0.043685626
0.06205453 0.016027479 0.1323332 -0.036021516 -0.047573462 0.019492937 -0.039635725 -0.08204714
0.0061103315 0.01886764 -0.010831121 -0.021082047 0.041881885 0.0471296 0.036188945 -0.06390082
-0.0092820255 0.017220622 -0.008193406 0.023377389 0.047357813 -0.050203294 -0.040195987 0.004295701
0.005569153 -0.047708813 0.071090475 -0.02150273 0.0017808262 -0.084846735 0.022092989 0.031366177
0.021203594 -0.0031131252 -0.027622022 -0.019409517 0.02275545 -0.05431345 -0.012181935 -0.001206221
0.044389687 0.08524987 -0.042314574 -0.032200254 0.00073996343 0.045151602 -0.051066488 -0.040713567
-0.07475677 0.054670855 -0.0048702275 0.0069121253 0.040970944 -0.039938323 0.027613824 -0.07774297
0.051490195 -0.048771888 0.017505722 0.08735525 -0.0029335816 0.0002013838 -0.04717716 0.104627565
-0.051152967 0.018141577 -0.0075068995 -0.024442405 -0.014689674 0.04635703 -0.016693154 0.02199917
0.036135744 0.08072179 0.027381588 -0.038878556 -0.05836641 -0.025797445 -0.03435253 0.03839076
0.019780584 -0.004368823 -0.025560122 0.034536812 0.07642519 0.043971475 0.0445597 -0.09223994
-0.05591702 -0.047060266 -0.018796692 -0.05416587 -0.0005298387 0.035969578 0.031678032 0.038638745
-0.0348114 -0.000654293 -0.022581212 -0.020019196 -0.0026008012 -0.038392466 0.029008938 0.0799758
0.018874947 -0.055879306 0.027713085 -0.05730917 -0.01031859 -0.048502725 -0.020577729 -0.093382224

head.conv.bias f4 [64]
00000000: b62d 74be b1c6 06be 3d2c 13be 24b3 033e
00000010: ad8c d63c e636 483e 5fa3 823d 9946 a8bd
00000020: 0029 70be 1fc8 843d ba13 12be a6fc 113e
00000030: e3cb 583d 0971 cebd 8cf8 62bd c9af f33d
00000040: 8302 1d3e 80dd 253e 1002 1f3e dd95 c9bd
00000050: 1e68 363e 9479 a93d 9719 e53c 7ba6 18be
00000060: 4d84 8b3d 395c 06be a092 473d 2b29 333e
00000070: fdad da3d e397 df3d a009 3a3e 4d77 03bd
00000080: c388 e1bd 1819 5e3e e2e5 e2bc bdf9 3cbd
00000090: cbcb 17be 0e92 383d 2e0c dfbd 439a 483c
000000a0: 294a 0c3d 14b9 7e3d 51d1 15bb d1af 3dbe
000000b0: 7a63 0b3e 9fae 70bc 0229 e5bd 0844 b1bd
000000c0: 5121 793e 405b 403e 25ae d53d 8b7b 61bc
000000d0: f4ab bfbd 283a efbd 1bad 47bd 351d fdbd
000000e0: e1d3 6cbd 0350 933d e782 09be be47 a33c
000000f0: 5d54 7f3d 890b 993d 1af7 0b3e 0cf6 473e
-0.23845562 -0.13161732 -0.14372344 0.12861305 0.026190126 0.19552192 0.06378817 -0.082165904
-0.2345314 0.064834826 -0.14265338 0.14256534 0.052928817 -0.100801535 -0.055412814 0.11898763
0.1533299 0.16197777 0.1552813 -0.09843037 0.17813155 0.08275142 0.027966304 -0.14907257
0.06812344 -0.13121118 0.048723817 0.17496173 0.10677717 0.10917642 0.18167734 -0.032096196
-0.11012413 0.2168926 -0.027697507 -0.046136606 -0.14823835 0.045061164 -0.10890995 0.01224381
0.034250412 0.062188223 -0.0022860358 -0.185241 0.13612166 -0.01469007 -0.11189462 -0.08655554
0.24329115 0.18784809 0.10433606 -0.013762365 -0.09358969 -0.11681014 -0.04874907 -0.123590864
-0.05781925 0.071929954 -0.13428842 0.01993167 0.062336314 0.07472903 0.1366848 0.19527453

head.norm.weight f4 [64]
00000000: c354 813f 4ce2 8a3f 9f2d 723f f8c6 7d3f
00000010: 3716 7f3f b9b7 813f a2a5 873f 0fe0 7c3f
00000020: 6ffc 7e3f 96de 6d3f 6692 773f c09c 773f
00000030: e8d4 703f e833 823f ff2e 813f aa18 9e3f
00000040: 398d 773f 4c27 8a3f 7924 843f 0e7c 813f
00000050: 6eb2 913f 86d3 943f 36d1 823f 2187 7e3f
00000060: b709 5e3f 2a1a 8f3f f906 5c3f 46c5 803f
00000070: dcdd 7b3f 460a 7b3f 47e1 4a3f 2435 813f
00000080: 4da9 853f dfff 633f f160 733f fc9b 883f
00000090: 1ef1 883f f3ff 8d3f 89cd 763f 0075 5f3f
000000a0: bc41 613f 27cf 773f 4c54 743f b74b 843f
000000b0: d232 823f aeae 803f e423 793f d744 873f
000000c0: 298b 923f aff5 933f b51f 803f 5723 773f
000000d0: 8e73 913f 491b 893f f070 783f 7713 873f
000000e0: d23b 723f 897d 603f 8542 753f b0f2 853f
000000f0: 45c3 7f3f 49cf 853f 4517 7e3f ed6b 893f
1.0103992 1.085031 0.9460086 0.9913173 0.9964327 1.0134193 1.0597422 0.98779386
0.99603933 0.92917764 0.9670776 0.96723557 0.9407487 1.017209 1.0092467 1.2351277
0.96699864 1.0793242 1.032363 1.0115983 1.1382577 1.1627052 1.0220096 0.9942494
0.86733574 1.117986 0.8594814 1.0060203 0.98385406 0.9806255 0.79249996 1.0094342
1.0442291 0.89062303 0.95069796 1.0672603 1.0698583 1.1093735 0.9640737 0.872879
0.8799093 0.96800464 0.95441127 1.0335606 1.0171759 1.0053308 0.9732039 1.0567883
1.1448718 1.1559352 1.0009676 0.965383 1.136339 1.0711452 0.9704733 1.0552815
0.9462253 0.8769155 0.95804626 1.0464687 0.9990733 1.0453883 0.99254256 1.0736061

head.norm.bias f4 [64]
00000000: 899b 08be 1086 0cbe e97e d3bd b002 7bbd
00000010: 94f0 b0bd 04df cfbd 0fb0 f4bd 3cb3 8bbd
00000020: 2eb4 25be 2e1c 2dbe 1e80 dabd 7fdf 21be
00000030: fc93 46be d7a3 a9bd 02e1 82bd 8959 a5be
00000040: c1cc 003e 6879 e1bd bd9c 60be ed7b f6bd
00000050: e945 5fbe 54de 42be 1832 953a a798 86bd
00000060: 2315 75be fe6b 293c c1a2 21be ec52 56bd
00000070: 47ea 89bd bb84 63be 6338 b5be daeb c5bc
00000080: 188b 09be 4404 83be 64c5 50be b323 03bc
00000090: 0109 c5be 4660 3cbe 4559 f9bd dcd5 3dbe
000000a0: 1417 1ebe 4514 bdbd cf65 1bbe f0b3 41be
000000b0: 2e04 24bd 50fe 1cbe 4250 b8bc 062b f8bd
000000c0: 35a9 8cbe 41b0 4cbe 7592 13be ed6d f9bd
000000d0: a086 92be 22be e7bd e495 e0bd 8eab e8bd
000000e0: 86da 1bbe 7763 68be e65e 09be 2f28 66bd
000000f0: d56e 7ebd c57f b8bc 3552 98be 35e8 bbbd
-0.13340582 -0.13723016 -0.103269406 -0.06128186 -0.08639637 -0.10149959 -0.11947643 -0.068212956
-0.16182014 -0.16905281 -0.10668968 -0.15807913 -0.19392389 -0.08283203 -0.06390573 -0.32294872
0.12578107 -0.110094845 -0.21934791 -0.12035356 -0.21804012 -0.19030124 0.0011382727 -0.06572085
-0.23933844 0.010340689 -0.15784742 -0.052325174 -0.06734138 -0.22218601 -0.35394582 -0.024160314
-0.13431966 -0.25589192 -0.20387799 -0.008004117 -0.38483432 -0.183961 -0.1217523 -0.18538612
-0.15438491 -0.09232382 -0.15175556 -0.18916297 -0.04004305 -0.15331388 -0.022499207 -0.12117581
-0.27472845 -0.1998911 -0.14411338 -0.1217917 -0.28618336 -0.11315562 -0.10966089 -0.113608465
-0.15220079 -0.22694193 -0.13415107 -0.056190666 -0.062117416 -0.022521863 -0.2975022 -0.09175149

head.norm.running_mean f4 [64]
00000000: d92e 08be a5b0 0cbe b2b5 29be c305 b83c
00000010: dba5 0b3e 539f 643e 30d7 763d 31d6 02bd
00000020: d6ef 83be 86ab 5a3d 0ce3 0bbe 20d6 213e
00000030: 7375 143d 2d8c 0abe b04b 18bc bdc2 f13d
00000040: 8a28 213e bbd2 2f3e c39d 0f3e d008 8dbd
00000050: cf83 493e f91c a73d a38a ae3d 5078 f8bd
00000060: 4400 86bc f227 b9bd 2faa 003d 3bb8 5e3e
00000070: b595 3f3e 15b7 e73d 5618 283e 7eda 973d
00000080: 8d08 fbbd bd30 f43d 05c8 46bd a26b 49bd
00000090: 4c99 24be 326f 703d 2981 00be 11ad c8bd
000000a0: ec56 cb3c 59bc ca3c c23b 81bd 6b42 43be
000000b0: da3e 3a3e 3690 03bd 407f 52bd e586 62bd
000000c0: 549d 7c3e 7524 373e edfe 2d3e d442 903d
000000d0: 0f3a d4bd c777 d8bd cbf1 03be c837 10be
000000e0: ac45 bcbd bf44 ff3c 60ce 37be 5130 e23c
000000f0: a6fa 5a3e c3b0 443e 423d 133e b18e 563e
-0.13299121 -0.1373926 -0.16573218 0.022463685 0.13637488 0.22326402 0.060263813 -0.03194255
-0.25768918 0.053386234 -0.1366083 0.15804338 0.03624482 -0.13530035 -0.009295389 0.118047215
0.1573812 0.17170231 0.14025025 -0.068864465 0.19679187 0.08159823 0.085225366 -0.12132323
-0.016357549 -0.09040822 0.0314123 0.21749966 0.18709452 0.11314217 0.16415533 0.07414721
-0.1225749 0.119233586 -0.048530597 -0.049174912 -0.16074103 0.058699794 -0.1254927 -0.09798635
0.024821721 0.024748014 -0.06310226 -0.19068305 0.18188038 -0.032119952 -0.051390886 -0.055304427
0.24669391 0.17885001 0.16991778 0.070439965 -0.10362636 -0.10569721 -0.12885205 -0.14083779
-0.09192976 0.03116071 -0.1794982 0.02761093 0.21384677 0.19208054 0.14378837 0.2095287

head.norm.running_var f4 [64]
00000000: 2db2 963c c0d6 cd3a b162 dc3a 07b5 7d3c
00000010: c943 8f3c fcff 4e3b c6b9 903a 5f3d 913b
00000020: 09ec f23a 5d63 1f3b f7fb bf3b 1be0 c43b
00000030: 1c7d e63a 666e 293c 0425 863b ea88 3e3a
00000040: 0fff 243a 06f3 043b 2de6 fe3a c61b f13a
00000050: 0ede 323b 4ad6 933a 6c01 c23c a933 163b
00000060: 2760 b93c 25b0 953b 7a7c 5f3b 441d 783b
00000070: 2728 223c d7f4 c73b 1900 aa3a 66e2 983c
00000080: 8815 b63a a2b0 7b3c 15a0 613b 4cc5 853a
00000090: 69b2 af3a fac3 063b 8d9a 383b 030b 943c
000000a0: 8131 c03a b266 893c 1a34 b63b e2fc 1a3b
000000b0: fe5d 8a3b e747 9d3b 0a89 163c 2340 813b
000000c0: b1eb 333a c95d c63a 49b2 7a3c 779b 723c
000000d0: 38eb 623a 5905 e43a 7c52 6f3c 92eb e43a
000000e0: a973 c43b 8de6 d73b 5c2a bb3b 040a 2c3b
000000f0: f79a 133d 32f8 cb3c 21da 833b edb0 603b
0.018395508 0.0015704259 0.001681408 0.015485055 0.017488377 0.0031585684 0.0011041693 0.004432365
0.0018533479 0.00243207 0.005858894 0.0060081608 0.0017584893 0.010341262 0.004093768 0.00072683266
0.000629411 0.0020286455 0.001944726 0.0018395118 0.0027293 0.0011279073 0.023682319 0.0022918975
0.022628857 0.004568117 0.0034101293 0.003785924 0.009897268 0.006102185 0.001297 0.018662643
0.0013891915 0.015361937 0.0034427692 0.0010205894 0.0013404611 0.0020563588 0.0028168291 0.018071657
0.0014663191 0.016772602 0.00556041 0.0023649265 0.0042226305 0.004799831 0.009187946 0.0039444133
0.0006863429 0.0015134151 0.015301296 0.0148075735 0.0008656266 0.0017396613 0.014607068 0.0017465225
0.005995233 0.006588763 0.0057118367 0.0026251087 0.036036458 0.024898622 0.0040238057 0.0034285143

body.block1.conv.weight f4 [64, 64, 3, 3]
00000000: 39e0 fb3d 9c1f c13c 3ef4 963c 9b66 4a3c
00000010: 831d 96bc 07f9 b93c 5330 12bd 50bc 55bd
00000020: 9edb 293c f640 3c3c fa88 8d3d 5541 38bd
00000030: 39a6 aa3c b42a 0ebd a5a3 52bd 10d6 d9bc
00000040: 9eec f6bc d27b 12bd 456c f73c 2f07 143d
00000050: 4bd1 793d 16ca e83c 0e35 b3bc b48d b9bb
00000060: 1e2b bdba 8847 8e3c 04fc 093c 1e20 87bd
00000070: d16a 82bc 6f82 8d3c 6bfe 7bbd 8c32 6ebc
00000080: 33b9 29bd a8b6 38bd 4723 fabc b58a 46bc
00000090: 6c96 ef3c fd25 8c3c 08aa 003d 33ad 7fbc
000000a0: 4145 87bb b9b5 e73c c767 2fbd 300b 2fbc
000000b0: 30aa b3bb 008b 163c 92d0 373d 19dd 5ebb
000000c0: e80c 4abd 58f5 b9bb 87a8 52bd 40f1 6e3d
000000d0: b848 7c3c a164 f5bc 37e4 303d 26ad f83b
000000e0: a1fd 0ebc 81b6 ea3c d2e7 af3b 1b2a 07bc
000000f0: 48e3 2dbd e1b2 84bd c86c f73c bf57 c1bc
00000100: bcea 14bd cef5 87bd 5f7f 113d 69c1 e93c
00000110: d01f 9ab8 ca1c 363d 7af5 9fbc 33a6 afbc
00000120: 0177 4fbd ed1e 07bb 80a5 223c f7c2 9fbc
00000130: b8a8 b6bc ab85 a23b bb23 543d bdef 853c
00000140: f35c 0f3d a36f 8e3c 3dda eabb f998 033d
00000150: eca4 cd3c 5507 523d 085d 203d dc3b bfbc
00000160: 8b5e 17bd a3e6 113c 34d0 bdbd bcac 24bd
00000170: 5ca4 94bd 78c5 8bbc 184c 31bc 60cf b0bd
00000180: 7e4f 90bb fafc 78bc a364 073d a8de 8cbd
00000190: 39fd 4bbd 8997 5cbc 420c b1bd cff4 d6ba
000001a0: 319c 5ebd 600d 163c 309f 04bd 8d60 26bc
000001b0: 31aa 59bd ba23 16bd 3e75 babb fac3 56bc
000001c0: 58a2 113b dd9c 1bbc 0ccf 833b fcc6 0a3c
000001d0: 32df 843c 24e8 a03c 3a12 4f3b 428e 28bc
000001e0: 8bb3 acbc b3bd fe3a 0aeb cfbc 8abe 2d3d
000001f0: 6a41 f6bc 21b1 ce3b 6ba1 9f3c 656b 803c
00000200: 650c af3d aec7 cfbc ecf6 d53c 2dd1 ba3c
00000210: 3431 08bd 2009 a13d 12d9 053d 96dd 113e
00000220: 0f06 773d 5884 22bc d661 343d 02c0 14bd
00000230: 35ef 133d 49f4 43bc 2425 103c 6deb bfbd
00000240: 69b0 f93b be48 713d 8e04 c73d 3f95 09bd
00000250: c86e 3dbd ec74 a93d bd5b 14bc 948c ac3d
00000260: 3b0b 733d a2bb b53d a57c dc3c 5db2 a73d
00000270: 13e0 2d3d 619f 6a3d f233 4ebc 32db b4bb
00000280: 41d3 debc a93d 81bd 1117 7d3d 4015 1a3d
00000290: 40d9 0cbc 854c 87bc f88c f33b cba5 73bc
000002a0: 8ffa 74bd 32a5 d93c 1607 6cbd 5eb9 e53c
000002b0: 855b 713b a527 fd3c f125 6bbd ebc8 60bd
000002c0: d725 d93b 9a54 82bd 8383 83bd f8cf fdbc
000002d0: b732 923c 99f3 6e3c e05c a93b e70d a8bd
000002e0: af01 09bd 9564 63bd a139 563b e393 33bc
000002f0: b03b 43bd 75bf 97bc 80d1 23bc 44a0 6d3c
00000300: 89b0 4dbc 63ae 21bd 4b28 34bd 4bd1 89bc
00000310: 2411 6fbc 58ca 8dbd afea 2cbd 476c a0bd
00000320: fc9a 99bd 3c29 01bd 7323 2fbc 92ce 313b
00000330: d0a9 f93b 6492 4e3c f076 c23c 3a53 93bb
00000340: 0bda 93bb 2457 3c3c f775 203d f0d7 fb3c
00000350: 633f 66bc 4715 3b3d fa90 673d 77c2 603b
00000360: 3f98 1fbd ef0e d9bb 05cc 01bd 786c 60bc
00000370: e361 5ebb 73f1 e9ba dd99 afbc 657f 21bb
00000380: 6a05 d03c 7206 d3bc cd07 80bb 3911 933d
00000390: 4b3f 71bd 5e92 47bd cc8e 063a 45d1 cc3b
000003a0: 32fa e03d a2e6 c43d eb9e f638 1c90 0c3d
000003b0: 400a 9e3c 7193 e43c f6d6 643d d734 f2bc
000003c0: 6f3c 483c 2cee 0b3d b9f9 f23b 335a 37bb
000003d0: 65cc 17bd ae4c c73c f02e b1bc fc3e 5b3c
000003e0: 8cb8 6bbc f9ea 49bd 2dd5 9db9 61be a0bc
000003f0: d3e8 133d 310a 3b3d 632c e03c 4ca3 14bd
0.122986265 0.023574643 0.01842701 0.012353565 -0.01832462 0.022701753 -0.035690617 -0.052181542
0.010367302 0.011490097 0.06910892 -0.04498418 0.020831214 -0.034708694 -0.051425595 -0.02659133
-0.030142125 -0.035762616 0.030202994 0.036139663 0.060990613 0.028416675 -0.021875884 -0.0056626443
-0.0014432406 0.017368093 0.008421902 -0.06597923 -0.015920075 0.01727411 -0.06152193 -0.0145384185
-0.041436385 -0.04509607 -0.0305344 -0.012118031 0.029246531 0.017107958 0.031412154 -0.015605259
-0.0041281288 0.028284894 -0.04282358 -0.01068382 -0.0054829344 0.009188414 0.044876643 -0.0034006296
-0.049328715 -0.005674999 -0.05143025 0.058335543 0.015398197 -0.02995521 0.043186393 0.0075890003
-0.008727462 0.028651478 0.0053682113 -0.008249785 -0.04245308 -0.06479431 0.030203238 -0.02360141
-0.036356673 -0.066386804 0.03552186 0.028534608 -7.349218e-05 0.04446105 -0.019526232 -0.021441555
-0.0506506 -0.0020617798 0.009927154 -0.019502146 -0.022297248 0.004959782 0.051791888 0.016349668
0.035000753 0.017387217 -0.0071671293 0.032128308 0.025103055 0.051276524 0.03915122 -0.023343973
-0.036955398 0.008905086 -0.09268227 -0.040203795 -0.072579116 -0.017061934 -0.010821365 -0.08633304
-0.0044040075 -0.015197033 0.03305496 -0.06878406 -0.04980204 -0.013463863 -0.08644916 -0.0016399863
-0.054348174 0.009158462 -0.032378376 -0.010154855 -0.053140823 -0.036655165 -0.005690246 -0.013108248
0.0022222009 -0.009497848 0.0040224846 0.008470293 0.016219709 0.019641943 0.0031596557 -0.010287823
-0.021081707 0.0019435197 -0.02538063 0.04241804 -0.030060489 0.0063077365 0.01948615 0.01567621
0.08547286 -0.02536377 0.026118718 0.02280482 -0.03325005 0.078630686 0.032677718 0.14244685
0.060308512 -0.0099192485 0.044038616 -0.036315925 0.036116797 -0.011960098 0.0087979175 -0.09371076
0.0076199067 0.058907263 0.097176656 -0.033589598 -0.046248227 0.08274254 -0.009055075 0.08425251
0.059336882 0.08873679 0.026914904 0.08188317 0.042450022 0.0572809 -0.012585627 -0.005519294
-0.027200343 -0.06310589 0.061789576 0.03761792 -0.008596718 -0.01651598 0.0074325763 -0.014871071
-0.059809264 0.02656803 -0.057623945 0.028042492 0.0036828232 0.030902693 -0.05740923 -0.05487911
0.0066268253 -0.06363793 -0.06421568 -0.030982956 0.017846448 0.014584445 0.0051685423 -0.08205777
-0.03344887 -0.055515844 0.0032688158 -0.010960552 -0.047664344 -0.018523911 -0.009998679 0.014503542
-0.012554296 -0.03947295 -0.04398374 -0.016823431 -0.014591489 -0.0692336 -0.042216 -0.07833152
-0.07500264 -0.031533465 -0.010689604 0.0027131182 0.00761912 0.012608144 0.023738354 -0.0044960054
-0.0045120767 0.011495385 0.039175 0.030742615 -0.0140531985 0.04567459 0.056534745 0.0034295598
-0.038963553 -0.0066240947 -0.03168871 -0.013697736 -0.0033932857 -0.0017848447 -0.021435672 -0.0024642583
0.025393207 -0.02575991 -0.00390718 0.07181019 -0.05889825 -0.04872357 0.0005132973 0.006250533
0.10985221 0.09614302 0.00011759795 0.03431712 0.019291997 0.027902337 0.055869065 -0.029566212
0.01222144 0.034162685 0.007415023 -0.0027977347 -0.03706016 0.024328556 -0.021628827 0.013381716
-0.014387261 -0.049296353 -0.00030104202 -0.01962203 0.03611071 0.045664016 0.027364915 -0.036288545

body.block1.conv.bias f4 [64]
00000000: 31c6 8fba e6bb 10bd 877c 3f3d 476f 0b3d
00000010: 6ab4 21bd afe4 57bd 89b9 b43c cb74 fe3b
00000020: 95fd 11bd fe27 b7bb 2784 b33b 68c0 093c
00000030: e4be 30bd d2c5 253d 3a86 8e3a 3349 8a3b
00000040: 9ccf 3ebb 5454 89bc 587b 18bd 7238 4cbd
00000050: 593e 08bd 487e bdbc d440 023d 1d6c 423c
00000060: 3c8c 9abc 17a3 9fbc d8f1 f43a fac7 543d
00000070: d24f d9b8 1346 b93c 0c5d 383c 2940 b0bc
00000080: ba25 113d bbdf b13c 6f28 9e3c 5afb a73b
00000090: 1e46 5abc 60a9 013d 1ae0 653d e0fa 5d3d
000000a0: fbb2 7a3d b06f 96bc 42e4 243c b837 fb3c
000000b0: 0a0a aa3d efb5 c83c bab1 133d b681 35bd
000000c0: c687 0b3d 0e0c 27bd 2b85 47bc f217 773b
000000d0: 85f8 06bd 91ca 0a3d b8d4 3dba e1a5 1a3d
000000e0: 6c30 e1bc 359b 843c 2966 023c 88e4 193d
000000f0: a905 adbc 58e3 233b d7e9 c3bc 01f9 37bd
-0.00109691 -0.035335444 0.046749618 0.03404167 -0.039478697 -0.052708324 0.022061126 0.0077653877
-0.035642225 -0.0055894842 0.0054784003 0.00840769 -0.043150797 0.04047186 0.0010873743 0.004220152
-0.0029115444 -0.016763844 -0.037227005 -0.049858518 -0.033262584 -0.023131505 0.031800106 0.0118665965
-0.018865697 -0.019486947 0.0018687798 0.051948525 -0.00010362234 0.022616422 0.011252653 -0.021514969
0.03543637 0.021713128 0.01930639 0.005126399 -0.013322381 0.03165567 0.056121923 0.05419433
0.061205845 -0.018363804 0.0100641865 0.030666217 0.08302696 0.024500815 0.036058165 -0.044313155
0.03406503 -0.04078298 -0.012177746 0.0037703482 -0.03295185 0.03388459 -0.00072414754 0.03775585
-0.02748891 0.01618729 0.007958927 0.03757146 -0.021120863 0.0025007334 -0.023915214 -0.044915203

body.block1.norm.weight f4 [64]
00000000: 8af4 7c3f 5641 613f 7dfe 823f b554 5a3f
00000010: e292 8a3f 26ce 8a3f 57d7 803f a30c 843f
00000020: 2a6b 803f 8558 863f 61af 783f 5e9e 763f
00000030: 6cf0 6e3f 8845 753f deb3 693f 105b 7a3f
00000040: 7ba5 783f b94b 6c3f dd27 7e3f e60f 743f
00000050: 9cd8 783f 63a8 7c3f 5167 783f 2e46 843f
00000060: 581b 603f fe39 783f 577f 793f 2620 863f
00000070: b193 833f 18bd 863f b324 823f a1fc 6f3f
00000080: 88eb 7b3f 5e41 803f 8998 813f 4830 8b3f
00000090: 5082 6c3f fe49 733f b94f 813f 69de 823f
000000a0: fd0a 7d3f 7397 6c3f d365 843f 616e 883f
000000b0: 3e3f 813f fece 763f 5cd3 7e3f 4600 793f
000000c0: 561f 6e3f 5bbf 643f 630d 863f f191 803f
000000d0: 1395 6f3f ddef 773f 704a 793f 70dd 833f
000000e0: bd32 863f 47bd 743f c4bf 7d3f dd1d 813f
000000f0: 1d26 733f 5f16 713f fa58 793f ae8d 7c3f
0.98810637 0.8799032 1.0233914 0.852855 1.0826075 1.0844162 1.0065717 1.0316356
1.0032704 1.0495764 0.97142607 0.963354 0.93335605 0.9580922 0.9129008 0.977952
0.97127503 0.92303044 0.99279577 0.9533676 0.9720552 0.9869444 0.9703265 1.0333917
0.87541723 0.9696349 0.9745993 1.0478561 1.0279447 1.0526457 1.016745 0.93744856
0.9840627 1.0019948 1.0124675 1.0874109 0.9238634 0.9503478 1.0102454 1.0224124
0.9884489 0.92418593 1.0343574 1.0658685 1.0097425 0.96409595 0.9954126 0.9726604
0.93016565 0.89354485 1.0472835 1.0044538 0.93586844 0.9685038 0.9737921 1.0301952
1.0484234 0.95601314 0.99120736 1.0087239 0.9498003 0.9417476 0.9740139 0.98653686

body.block1.norm.bias f4 [64]
00000000: 5273 33be 7510 7bbe 3fac 9bbe e9a8 a0be
00000010: 0980 e2bd fd7c 3bbe ce4a 9bbe 5ce9 a8be
00000020: 87c5 20be 3425 bbbd 2467 bfbc 161b 0ebe
00000030: e887 49be ae1f dfbd e820 6ebe 77aa c1be
00000040: c882 9cbe d7f9 c4bd fac1 5ebe f345 88be
00000050: 9a9b b1be c36a d0be dfce 9dbd d136 8fbe
00000060: 33f7 6abe 99e1 edbe d70d 23be bc30 76be
00000070: 56bd 4cbc 4051 dbbe 6095 23be bcd0 a5be
00000080: ef66 46be 85d4 8bbd 279b 4fbe 5829 a7be
00000090: 1c5a 63be e2f8 bbbe bf5e a3be 2d94 a0be
000000a0: d39d 9cbe fe6f 50be 2f0d 90be 2236 2ebe
000000b0: 2410 d5be 6d79 79be 8ec8 d2bc b6a0 7fbe
000000c0: 83b5 96be 7828 cabe 1206 1e3d 4e1f a0bd
000000d0: 905e 81be 5c26 71be d5ef 47bd 7679 7abe
000000e0: 662e 2dbd 6693 f5bd e2a1 55be c1bd c4be
000000f0: 4baf 55be 9b0e 7bbe 9e59 7abe 336c 41be
-0.1752446 -0.24517997 -0.3040485 -0.31378868 -0.11059577 -0.18309398 -0.3033051 -0.3299054
-0.1570035 -0.09137955 -0.023364611 -0.1387752 -0.1968075 -0.10894714 -0.2325474 -0.37825367
-0.30568528 -0.09617966 -0.21753684 -0.26615867 -0.34689027 -0.40706453 -0.07705473 -0.2797151
-0.22945862 -0.4646118 -0.15923248 -0.24042028 -0.012496313 -0.42835426 -0.15974951 -0.32385814
-0.19375204 -0.06827644 -0.2027403 -0.3264873 -0.22202343 -0.3671332 -0.31908223 -0.3136305
-0.3058916 -0.20355222 -0.28135058 -0.17012838 -0.41613877 -0.24362727 -0.025730398 -0.2496365
-0.29435357 -0.39484 0.038580008 -0.07818471 -0.25267458 -0.23549789 -0.048812706 -0.24460396
-0.042280577 -0.11991005 -0.20862535 -0.3842602 -0.2086765 -0.2451729 -0.24448249 -0.18888931

body.block1.norm.running_mean f4 [64]
00000000: f239 22bc fa45 6abf 6f4c 13bf 049b 833f
00000010: 58ea 21c0 dc5d 8cbf 72b0 8e3f 3bbc 803e
00000020: 3458 1a40 de52 2ebf 9a77 5a3f 374f dabe
00000030: ffd8 523f ddb1 b3bf 2d95 08bf 7612 eabe
00000040: e1ac 0ebf 49da b63e 5bb9 d43f 9c03 3bbf
00000050: ff79 f3bf fa46 07bf be70 a9be 1b8f 38bf
00000060: 1702 8f3f afee edbe 94b7 b2bf f52e 4bc0
00000070: dc3b acbf ed12 08bf 00aa 0340 051c 30be
00000080: d750 b53f 5af6 c5bf 3b7b 223e 12d0 ccbf
00000090: 0ab6 cb3f c18d 4f3f e63b a0bc 5c85 c9bf
000000a0: ebc2 2fbf 452d 9e3f dbf7 bbbf fb5d b4be
000000b0: b405 19c0 270d 933f 4d01 3fbf 8b68 53bf
000000c0: ea62 f7be 7679 bf3e c9bb 04bf e5ad debf
000000d0: 97e7 fdbd 03b3 f93f 9762 37bf afeb 853f
000000e0: 7e70 c8bf 3ba5 0c40 9e24 7dbf 24f1 89bf
000000f0: 6dc1 1dbe cbf7 8c3e 5e45 91bf c039 df3d
-0.009901511 -0.91513026 -0.57538503 1.0281682 -2.5299282 -1.0966144 1.1147597 0.25143608
2.4116335 -0.68095195 0.8533875 -0.4263856 0.8236236 -1.4038655 -0.53352624 -0.4571721
-0.5573254 0.35713413 1.6619066 -0.7305238 -1.9021605 -0.52842677 -0.33093828 -0.7209336
1.1172513 -0.46471164 -1.3962274 -3.174741 -1.3455768 -0.5315388 2.057251 -0.17198189
1.4165295 -1.5465806 0.15867321 -1.6000998 1.5914929 0.81075674 -0.019559812 -1.5743823
-0.68656796 1.2357565 -1.4685014 -0.3522795 -2.390973 1.1488389 -0.7461136 -0.82581395
-0.48317653 0.37397355 -0.5184904 -1.7396818 -0.12397688 1.9507755 -0.7163481 1.046255
-1.565933 2.1975849 -0.98884 -1.0776715 -0.15405817 0.275328 -1.1349294 0.10899687

body.block1.norm.running_var f4 [64]
00000000: ece6 4f3f 091d 943f cd5e ca3e e9ab 293f
00000010: 0bd9 383f 3fcb 573f 130d 053f ba4f 113f
00000020: f828 283f cf94 b13f 3fa2 e93f 3d1d 8f3f
00000030: 965c 833f 8227 9a3f ef15 743f c38d a73e
00000040: 5ef0 953e 2b72 553f 040b 443f 94e8 9d3e
00000050: 1ec9 e93e be30 913e 26b2 9a3f 2428 d23e
00000060: 7752 673f 5b46 763e 614d 053f c747 ac3f
00000070: 8542 2840 38dc 953e f9d3 113f b31e bb3e
00000080: 54e4 083f 059b c13f cbe5 003f fbdb ff3e
00000090: 7917 743f 67cb 1b3f 39b3 003f dd51 0c3f
000000a0: 48bb ad3e 794e ac3f 30f6 2c3f 788e 293f
000000b0: 1be5 5a3f 0d7a 853f 0a3f 6f40 e5b6 2b3f
000000c0: 8cc1 7c3e 196f d03e 594e dd3f 2740 083f
000000d0: 1728 d53e fc8e e33e 478a c73f 1e4c e73e
000000e0: 73c1 1440 c7b3 2c3f 4a3a d03e 8294 cf3e
000000f0: abdc e43e 3b77 e93e 3d42 e23e 6c1b d03e
0.81211734 1.1571361 0.39525452 0.6627794 0.7220618 0.84294504 0.51973075 0.5676228
0.65687513 1.3873538 1.8252639 1.1180798 1.026263 1.2043307 0.9534597 0.32725343
0.29284948 0.8337733 0.7657931 0.30841506 0.45661253 0.283575 1.2085617 0.4104625
0.90360206 0.24050276 0.52071196 1.3459405 2.62906 0.29269576 0.5696407 0.3654686
0.534734 1.5125433 0.50350636 0.4997252 0.95348316 0.6085724 0.5027347 0.54812413
0.33931947 1.3461448 0.6756315 0.66233015 0.8550584 1.0427872 3.7382226 0.6707595
0.24683207 0.4070976 1.7289535 0.5322289 0.4163215 0.44445026 1.5589074 0.4517526
2.3243072 0.6746182 0.4066947 0.4054299 0.44699606 0.45598778 0.4419116 0.4064592

body.block2.conv.weight f4 [64, 64, 3, 3]
00000000: 568f b9bd bf8d 31bd 99bb d43d 5236 0d3c
00000010: 5e4f 153d 189b 7fbc 18b5 c7bc 6895 353d
00000020: 7ee2 89bb 81ec c2bd fd1a 13bc c4a5 61bd
00000030: fcb2 b6ba 848b d93c b865 1d3d 0fb9 443d
00000040: e9ca 0a3d acff 8d3d 8350 b93d ecd9 0dbd
00000050: 534f b339 4ca5 1c3c acbb f2bc f251 a53d
00000060: e016 5fba e292 67bd 3c4a 2d3c dc32 a6bb
00000070: 651a 38bd b04f 913c a6e6 c53c a17c c3bb
00000080: ae7e a6bc 5606 353d c5de 43bc 0874 6ebd
00000090: 9c7b 0ebd 3dc5 863d 5223 933d 0bff 073d
000000a0: 9f63 79bd 894b 51bc bc8d 53bd 92bb 183c
000000b0: 3e88 25ba 085c 71bc 54e8 7fbc 3506 103d
000000c0: 44fd b33d bb16 b63d b60f 10bc b85d 353d
000000d0: c715 80bd b0ab a13b f521 7fbd edb8 12bb
000000e0: fc7c 8fbd d56a d7bd 4a74 77bd 2bb6 8abc
000000f0: 9be7 433d bf16 373d bc9f afbd 3354 97bd
00000100: 06a5 f1bc 9eee 9dba 9923 aabc 4910 8dbb
00000110: 5b4e 33bc 1238 33bd d505 073d af5e d83b
00000120: 9617 08bd fb95 b13c 6fd6 1a3c 5c06 8fbc
00000130: b346 aa3a c512 a1bb 56f7 9bbd 17bc afbd
00000140: 4bc1 47bd 71a7 f5bc 820c 75bd 58fc ac3b
00000150: cf26 a23c 0893 7e3a 5277 693b dccd e83c
00000160: b269 05bd 2a5a 67bc 469e 44bd a279 7fbd
00000170: 9d39 90bc bb3c 4abd 1649 5ebb a345 3d3d
00000180: dd48 c33c 3c1b 84bc 3d4e 833c 3da3 2b3d
00000190: 0396 3bbd 2277 74bb c2c7 ff3c 798a 09bc
000001a0: 3959 283b 9bf7 1dbc da17 fabb 099d 91bd
000001b0: 8835 0d3d ba0e c43c 6bbf 333d 0785 33bd
000001c0: 2d07 9fbc 9029 9e3b 5738 5fbd fbdf 33bc
000001d0: 8610 0dbd 8273 003b 1b13 653d 86b9 2c3d
000001e0: 66a6 a63c 214c 4b3d 77ca 643b 62f8 ea3b
000001f0: 13b6 fabc b638 f93c 06b8 2a3c a545 b3bd
00000200: b668 8dbc b631 c43c ed46 50bd 1c7a 6bbd
00000210: 8d6a af3c b5d6 22bc 56cf 55bc 782a d5bc
00000220: 0c96 e9bb a613 723d f3bc 14bd cad9 333d
00000230: 050b 503d be85 b83d 2d38 df3b fc6d 4a3b
00000240: af50 54bd 4a69 43bd 37b8 b73c c53b 8fbd
00000250: d32d 503d 3829 d53c e95b b6bc 3b4f 3abc
00000260: a435 21bd 2a6f 3a3c 3f7b e9bc 92a6 c23c
00000270: bd20 2dbd bb1e 903d d3e6 8f3d a741 823c
00000280: 167a 1d3d 7175 183d c3a3 4d3d 186a a33c
00000290: 723d 0abd acbd 273c 5e38 1c3d 08dd 24bd
000002a0: 850f 20bd bf7a 3b3d 62e5 00bc 997e 27bd
000002b0: 9dc9 803c b1a5 12bd bc1b 2b3c e8a8 1bbc
000002c0: 095d 323d 6bfa 6dbc 52d2 8ebc 02b4 babb
000002d0: afc4 7f3c 8a21 05bb 9b4b d839 533a ddbc
000002e0: 15b7 9a3d 1918 5b3d 479a c7bc aaa4 fb3d
000002f0: 18c2 c03d 3be1 8bbd 7ebc 3ebd ffa2 3e3d
00000300: 041e e8ba e866 c7bb 3f03 59bd 2012 893d
00000310: d342 fc3a bea6 2fbd a314 16bd dbc1 02bd
00000320: 35d3 0abd b2fe 353c 09dd eabc 7a87 2bbd
00000330: 9c47 883d 5472 eabc 6ef7 493c 6be8 fc3c
00000340: 0d22 eb3d fa91 7c3b 7ffe e6bc 94f7 e53d
00000350: d644 28bb 0697 fe3c 7bad 4f3d 82f5 cebb
00000360: aa2e bb3d fa4f bebd c7c4 263d 7ec8 e9bd
00000370: 17ca f1bb 0dd2 603b 112d d03c 0285 8a3d
00000380: 7911 c3bd 6fe8 27bc 5048 303d fe71 a4bc
00000390: 1236 1abc 779c cdbc 7dba 5aba 63f8 66bd
000003a0: 8d01 50bd c0f1 b7bc 3d2c 3b3d 2283 90bb
000003b0: fd2e 14bd f479 bdbc 7aff 443d e17f 933b
000003c0: f5fe abbd fbb5 82bb c844 b7bc cc4e cfbc
000003d0: 34fd a9ba 1a81 963c 2578 023d 2788 0fbd
000003e0: 6eaa a2bc 05d6 a1bc 6aa4 73bc ec13 a9bc
000003f0: 6c36 38bc 22f9 53bd 2d92 94bd 1259 c33c
-0.09060542 -0.04334807 0.10387344 0.008618908 0.036452644 -0.015600942 -0.024378344 0.044331938
-0.004207908 -0.09517766 -0.0089786025 -0.055089727 -0.001393884 0.026555784 0.038427085 0.048028048
0.033884916 0.06933531 0.090485595 -0.034631655 0.00034200642 0.009560894 -0.029630505 0.080722705
-0.00085101835 -0.056536563 0.010576781 -0.005071981 -0.044947047 0.017738193 0.024157833 -0.0059657847
-0.020324077 0.044195496 -0.011954968 -0.058216125 -0.03478585 0.06580589 0.07184471 0.033202212
-0.06088602 -0.012774357 -0.05164884 0.009322064 -0.0006314552 -0.014731415 -0.015619356 0.03516217
0.08788541 0.08891054 -0.008792808 0.04427883 -0.06254154 0.004933797 -0.062288243 -0.0022388056
-0.07006261 -0.105184235 -0.060413636 -0.016932568 0.047828298 0.044699427 -0.08575389 -0.073891066
-0.029497635 -0.0012049263 -0.020768927 -0.00430492 -0.010943974 -0.043754645 0.032964546 0.006603084
-0.03322562 0.021677962 0.009450539 -0.017459087 0.0012991041 -0.0049155676 -0.07615535 -0.08580797
-0.048768323 -0.029987069 -0.05982638 0.005279105 0.019793896 0.00097112404 0.00356241 0.028418474
-0.032571502 -0.014120618 -0.048002504 -0.062371857 -0.017605597 -0.049374323 -0.0033918074 0.04620899
0.023838455 -0.016126268 0.016028518 0.041903723 -0.04579736 -0.0037302454 0.031223182 -0.008394831
0.0025687946 -0.009641553 -0.007632238 -0.0711003 0.03447488 0.023932803 0.043883722 -0.043828037
-0.019412601 0.004826732 -0.05449709 -0.010978694 -0.034439586 0.0019600098 0.055926424 0.042169116
0.020343017 0.04963315 0.0034910718 0.007170723 -0.030604398 0.03042255 0.010419851 -0.08753518
-0.017261844 0.023949485 -0.05084889 -0.0574895 0.021413112 -0.009938885 -0.013049921 -0.026021227
-0.0071284827 0.05910077 -0.03631301 0.04390887 0.05079176 0.09009884 0.0068121166 0.003088831
-0.05183476 -0.047707833 0.022426708 -0.06993822 0.05082495 0.026020631 -0.022260623 -0.011371429
-0.039357796 0.011379043 -0.028501151 0.023761068 -0.04226755 0.07037111 0.07026448 0.015900446
0.03844651 0.037221376 0.050205003 0.01994805 -0.033750005 0.010238092 0.038139693 -0.040249854
-0.0390773 0.045771357 -0.007867189 -0.040892217 0.015721137 -0.035802547 0.010443624 -0.00950072
0.043545756 -0.014525036 -0.017434273 -0.005697728 0.015610858 -0.002031418 0.0004125506 -0.02700535
0.075544514 0.05348978 -0.024365557 0.122872666 0.094120204 -0.06830069 -0.04656648 0.046542164
-0.0017709141 -0.0060852654 -0.05298161 0.0669291 0.0019245989 -0.042883627 -0.036640774 -0.031923156
-0.03389283 0.011108087 -0.02866985 -0.041877247 0.066542834 -0.028618969 0.012327058 0.030872544
0.11481104 0.0038539157 -0.028197525 0.112288624 -0.0025675795 0.031077873 0.050702553 -0.006315888
0.0913976 -0.09292598 0.040715005 -0.11415194 -0.0073788273 0.0034304888 0.025412114 0.067636505
-0.09524817 -0.010248288 0.043037713 -0.020073887 -0.009412305 -0.025099022 -0.0008343829 -0.056389224
-0.05078273 -0.022454143 0.045696486 -0.0044101635 -0.036177624 -0.02312944 0.048095204 0.0045013283
-0.083982386 -0.003988979 -0.022371665 -0.025306128 -0.0012969137 0.018372107 0.03185286 -0.035041954
-0.019856658 -0.019755373 -0.014870742 -0.020639382 -0.011243444 -0.051751263 -0.07254443 0.023846183

body.block2.conv.bias f4 [64]
00000000: 9316 033d a503 b73c ebd3 b3bc 3384 b33c
00000010: b5bf 983c 8444 91ba 96d9 0dbc 6489 17bd
00000020: 960a cb3c 120b 78bd d38b 19bc 85ed 733c
00000030: ce98 8b3b 4487 d03c 5a70 94bc f1da 9ebc
00000040: 2bcd f2bc f171 4fbd 5f3b f13c 9553 fc3c
00000050: 21a7 d93c 79fc f33c 9ae8 b1bc ab4e 243d
00000060: 2e62 2a3d 13b9 d3bc 997e 81bb c9bd 05bd
00000070: 26a4 c93c 1907 30bc 36f8 ae3c c686 90bc
00000080: 483d 8c3c 2870 d33c 8e5a 8dbc 7ea8 a5bc
00000090: e0fb dbbc 0aa7 5fbd c675 093d 69cf 2e3d
000000a0: 6775 023c e4a5 d2bb 8608 033c 2269 a9bc
000000b0: d92c 843d 5b00 5e3b b3a2 6ebb 8122 283d
000000c0: 1fa0 fa3b 2174 093d 268f a83c 4072 9aba
000000d0: 5975 74bc c830 243b 0c0b 9a3c 43db b13c
000000e0: 9b90 043d 1f64 7c3c dede 8cba e6a0 8f3c
000000f0: 58cc 0c3d a494 0d3d b6b7 a4bb 351c 753c
0.03200395 0.022340605 -0.021951636 0.021913623 0.0186461 -0.0011083041 -0.008657834 -0.03699626
0.024785321 -0.060557432 -0.009371716 0.014888172 0.004260159 0.025455125 -0.01811998 -0.019391509
-0.029638847 -0.050645772 0.029447256 0.030801574 0.026568951 0.029783474 -0.021717358 0.040114086
0.041597538 -0.025845086 -0.003951859 -0.032651696 0.024614405 -0.01074388 0.02135859 -0.01764239
0.017119065 0.025810316 -0.017255094 -0.020221945 -0.026853502 -0.05460266 0.033559583 0.04267827
0.007962561 -0.006428467 0.007997638 -0.020680014 0.064538665 0.0033874724 -0.0036412894 0.04104853
0.0076484825 0.033558015 0.020576071 -0.0011783317 -0.014920556 0.002505349 0.018804096 0.021710997
0.03236447 0.01540473 -0.0010747572 0.017532777 0.034374565 0.034565583 -0.005026783 0.014960338

body.block2.norm.weight f4 [64]
00000000: 6b85 7c3f 55fe 6b3f 5840 783f 5ae0 793f
00000010: 1362 5b3f 6609 743f 670f 6b3f fd1a 763f
00000020: 502c 7f3f 821a 893f 1be1 5f3f 0423 743f
00000030: 3b35 733f 6191 6f3f c581 823f 5340 8b3f
00000040: f6d8 6e3f 6486 8a3f f66f 8b3f 404d 6e3f
00000050: 4ad3 713f 8e37 6f3f f60e 813f c3f9 5b3f
00000060: 8089 6f3f 2e97 803f 3880 603f 95a3 6d3f
00000070: 730f 683f a300 663f f9ca 5f3f 7553 7d3f
00000080: 57d3 5f3f c6e2 833f 9bb0 633f b411 733f
00000090: 168a 7b3f 3820 7f3f ecf3 603f 45a7 773f
000000a0: f8ab 783f ae96 743f 730a 753f 5126 6c3f
000000b0: 9a9e 6f3f 4ac0 7f3f 8bf0 713f 20d6 7e3f
000000c0: 471a 7a3f 0fc8 703f 18e0 6d3f d91b 733f
000000d0: 2339 703f bea7 763f 7127 6a3f 5bb5 633f
000000e0: 5987 6c3f 0b57 803f c613 743f a3c5 6c3f
000000f0: 6153 5b3f af0c 773f 55f4 773f 807c 633f
0.9864108 0.92184955 0.9697318 0.9760796 0.85696524 0.9532684 0.9182038 0.9613493
0.9967699 1.0711215 0.8745286 0.9536593 0.950031 0.93581206 1.0195853 1.0879005
0.93299806 1.0822263 1.0893543 0.93086624 0.94463027 0.93444145 1.0082691 0.8592798
0.93569183 1.0046136 0.87695646 0.9282773 0.90648574 0.8984472 0.87419087 0.9895547
0.87431854 1.0303581 0.88941354 0.9494889 0.9825758 0.99658537 0.87872195 0.9673961
0.97137403 0.9554242 0.9571907 0.92245966 0.9360138 0.99902785 0.94507664 0.9954548
0.97696346 0.94055265 0.92920065 0.9496437 0.93837184 0.96349704 0.9146643 0.889486
0.92394024 1.0026563 0.9534267 0.9248907 0.856741 0.9650373 0.96857196 0.88861847

body.block2.norm.bias f4 [64]
00000000: 0d5c 69be 8993 9dbe 41b7 39be bb18 d8be
00000010: 20d6 b6be 117f b6be 206d a8be 449f 9cbe
00000020: 01ea a1bd cd60 c5be 331d 3bbe 4b7e 9abe
00000030: e41a 2dbe 2d48 0cbf c6f7 72be a7a0 0dbf
00000040: eabe b4be 209f 0ebf da53 75be 57ec 9ebe
00000050: a9d5 40be cb99 b4bd e9fb 27be d7c7 c4bd
00000060: f809 f1be 23db 30bc e96d b0be 5786 93be
00000070: a675 5ebe 7bf5 1cbf 5770 89be b258 ccbe
00000080: 3c74 edbe 72fe 18bf 76ff 67be 6686 a7be
00000090: 04fd e7be a1c9 d4be 91ca 44be 5d61 43be
000000a0: d951 92be 6d52 0fbe 6ca7 acbe 6ea3 87be
000000b0: 23b5 2bbf 6a74 5dbe 8e01 30be 3a65 a5be
000000c0: ccef 10bf f4c8 75be 3ee3 63be 505f 87be
000000d0: a9ff 10bf 2b5c 4dbe 8c09 13be f95d 98be
000000e0: 0284 00bf 37a3 45bf 6c07 c5be a348 f3be
000000f0: ea08 86be 6681 c4be 3d77 c7be 6d3d c2bc
-0.22789021 -0.30776623 -0.18136312 -0.42206368 -0.3571024 -0.3564382 -0.32895756 -0.3059026
-0.07905961 -0.38550416 -0.18272857 -0.3017448 -0.16904789 -0.5479763 -0.2372733 -0.5532326
-0.35301906 -0.55711555 -0.23957768 -0.31039688 -0.18831505 -0.08818396 -0.1640469 -0.09608429
-0.47077918 -0.010794434 -0.34458855 -0.2881343 -0.21724567 -0.61312073 -0.2684352 -0.3991142
-0.46377742 -0.5976325 -0.22656044 -0.32719725 -0.45310223 -0.4156008 -0.19217898 -0.1908011
-0.2857807 -0.13996287 -0.33721483 -0.26491874 -0.6707327 -0.2162644 -0.17188093 -0.32303792
-0.566159 -0.24002439 -0.22254655 -0.26439905 -0.56640106 -0.2005469 -0.1435911 -0.29759195
-0.5020143 -0.7720217 -0.38482225 -0.47516355 -0.26178676 -0.38379973 -0.3895816 -0.02371093

body.block2.norm.running_mean f4 [64]
00000000: b89b 3fbf 68e7 97bd 43a0 773e 88da 833f
00000010: 1c57 343e ad73 1ebf 6e99 d0be ef55 33be
00000020: ae0d 34bf 33d5 a4bf d0c8 103e 4104 debe
00000030: 2697 e9be 768d 39bd 3fbb 59be d2c1 93bf
00000040: 2f36 983d 3abb a4bf c79c 94bf da8e a73e
00000050: dd90 1e3d 0f39 67bf b311 b1be bb64 8fbe
00000060: 5ce6 b3be f9a5 83be 81c3 4e3f 12a7 dc3d
00000070: 1d12 ae3e cb47 603e cc8c 4d3d c0cb 54be
00000080: b1b5 bbbd 690a 68bf ef90 933f b499 3fbe
00000090: f98d 0f3d 31cf 23bf 825a 7c3e 4306 963f
000000a0: 7b1f 0abd e39d 03be e066 4c3f b233 fabe
000000b0: 1f25 e93e 7ab5 363f b6b5 1f3f 8d48 e6be
000000c0: cb0c 31be 61d6 1ebe a221 e0be 5b90 063f
000000d0: 7643 bebe 432f ef3c 8660 cb3d 68fb 3cbe
000000e0: 4cd8 1f3e d3b3 15bf 637c 2fbf 6989 3f3e
000000f0: 85ac 5a3f 61b4 933e 3a67 413e 60c9 463e
-0.7484698 -0.07417184 0.24182229 1.0301065 0.17611355 -0.6189526 -0.40742058 -0.1751325
-0.70333374 -1.2877563 0.14139104 -0.4336262 -0.4562313 -0.045300923 -0.21262835 -1.1543524
0.0743221 -1.2869637 -1.1610345 0.32726175 0.03871237 -0.9032144 -0.34583816 -0.2800654
-0.35136688 -0.25712565 0.80767065 0.10774054 0.33998194 0.21902387 0.050183102 -0.2078085
-0.09165514 -0.90640885 1.1528605 -0.18710977 0.035047505 -0.63988024 0.24643901 1.1720661
-0.03372143 -0.12853198 0.79844475 -0.48867565 0.45536134 0.7137066 0.62386644 -0.44977227
-0.17290036 -0.15511467 -0.4377566 0.5256402 -0.37160844 0.02919734 0.0993052 -0.18455279
0.15609854 -0.58477515 -0.68549174 0.18704762 0.85419494 0.28848556 0.18887034 0.19412756

body.block2.norm.running_var f4 [64]
00000000: 4720 1f3f a2de bc3e 6657 453f 5ae5 733e
00000010: 1a54 a43e ec01 303f 4e28 033f 698e e53e
00000020: aa73 d23f e189 9a3f 2747 a63e 102b 833f
00000030: aa32 443f 1758 683e 2cb2 533f f718 1d3f
00000040: 2fa9 723e e806 8d3f 07f4 ac3f a841 913e
00000050: 9e5a 493f 17ea ad3f c4c1 a43f ccdd 6c3f
00000060: 9aa2 c33e c592 f33e a556 bd3e c313 603f
00000070: 1c95 503f 9217 683e ec74 b73e d997 8f3e
00000080: eea1 c33e 19e5 bc3e c712 b23f e411 433f
00000090: f4ef ef3e 49bf ca3e 90e5 be3e a491 353f
000000a0: be99 e03e 1bd1 023f 736c 503f 9ebc 123f
000000b0: 6147 a93e 2e86 533f b6c2 103f 50f5 8e3f
000000c0: 9435 2c3f 71ef 053f c116 953e e915 863e
000000d0: 28de 443f 071b d63e 6970 5f3f cfe0 9e3e
000000e0: a7da 973e 992d df3e b206 fa3e 25ec 703e
000000f0: a091 253f b725 b53e 6e84 373f a83f 3e3f
0.62158626 0.36888605 0.77086484 0.2381796 0.32095414 0.6875293 0.51233375 0.44835213
1.6441548 1.2073327 0.3247616 1.0247517 0.7663981 0.22689854 0.82693744 0.6136622
0.23697351 1.1017733 1.3511971 0.28370404 0.78653896 1.3587064 1.2871633 0.92525935
0.38209993 0.47572914 0.36980167 0.87530154 0.8147752 0.22665241 0.35831392 0.28045538
0.3820948 0.36893538 1.391198 0.76199174 0.46862757 0.39599064 0.37284517 0.70925355
0.43867296 0.5110032 0.8141548 0.57319057 0.3306227 0.82626617 0.56547105 1.1168613
0.67269254 0.52318484 0.29118922 0.2618859 0.76901484 0.41817495 0.872809 0.3103089
0.29659006 0.43589476 0.48833233 0.23527582 0.6467533 0.35380337 0.71686447 0.7431588

body.block3.conv.weight f4 [64, 64, 3, 3]
00000000: f0d4 b33c 66d3 823d 1b1a af3c 8387 83bd
00000010: 820c ddbd f9e8 02bd 5065 2a3c 59b0 9abd
00000020: 173d 0d3a 3aa5 953c b23e 873c 3229 443d
00000030: 182c 9b3c ffad c23c 79fc b73c c299 e43c
00000040: 5e1c 0ebd 631f 0a3d 21a9 653c b166 e83c
00000050: 0c8a 1bbd 9fce 9f3c e29f 123d b8eb b6bc
00000060: 8e8a 50bd 20a2 773d ab67 e53c b5b8 ab3c
00000070: b2e4 abb9 ff4a 5cbd 6344 44bd 2158 77bc
00000080: b74a 6d3d 23f9 953c 2ba9 b1bd 1fd5 bebd
00000090: 6c08 2ebc b412 2fbd 14fa 1bbd a85d 75bd
000000a0: 39cb f9bc d7c7 f9bc 6abd ec3c 4c86 8d3d
000000b0: f16f b0bd e963 e73c f2a2 a63b 54a0 09bd
000000c0: e3e4 853d b6d5 edbc 0b8a 74bc 89d4 4f3d
000000d0: ffb3 5dbc d442 fabb a247 57bc c8fe 973b
000000e0: c96c c8bb 75d2 853d aa23 07bc 8523 a6bb
000000f0: 0ec7 8a3d 61bf 593d 42db 0c3b cfb2 bebc
00000100: a551 763c 6af2 21bd 716f 95bc 8d06 f5bb
00000110: 449e 87bc f0b9 163c e989 fa3c 7914 a7bc
00000120: 426c 95bc b30b 2dbd e8ee 553c 75cd dabc
00000130: f115 81bd 8db1 493c af9a a6bc 9f48 58bd
00000140: 6e57 d53c 185f b13c c0fb 203d 4737 603b
00000150: e7b4 f13b 05ae 0e3d 6d6c fd3c 0590 14bb
00000160: 3267 06bd 3a33 29bd 75d1 4fbc 9caf a039
00000170: 9817 05bd 2ff3 2b3c 0623 5abc 72de 9ebc
00000180: cce5 31bd f846 95bc 7519 cabd 4665 febc
00000190: 0b63 9d3b ed06 1fbd fdcc 97bd c5b0 28bd
000001a0: 54fd 34bd 4b59 d4bc 4d6a 873a 1b1e cfbc
000001b0: 6978 dd3c e5ea 1bbc 10ce e6bc 39d6 57bc
000001c0: d5e4 8bbc d99f 1c3d bba9 57bd 0a4b 8eba
000001d0: cd6a b83c b2a6 22bc 09d4 9f3d f624 f3bc
000001e0: d88d a93c 0b7b 123d d499 0bbc abf6 68bd
000001f0: 98b7 babc e497 d33c e0c3 af3d 8032 f23c
00000200: 7166 a83a 05f5 cabc c0d5 183b fa7f 433d
00000210: f750 323c 39a3 cb3c dbb9 d13c 1894 5d3d
00000220: d28c 883d b15f 153d b0e8 093d 9a41 033d
00000230: a56c 953d c15e 813c e307 463c fdf9 093d
00000240: 5f13 f2bc 84d9 c03c ef6e 34bd 585e 983c
00000250: 9ca6 80bd 43f8 75bd bf9c e63c ced1 553c
00000260: 14c1 c53b 4634 513d a2fe 15bd f10b 803d
00000270: 8a7a fa3c 1c7f 263c d4e3 033c 42cc 67bc
00000280: eb04 ebbc cd22 8cbd 5928 1bbd 4000 bcbc
00000290: 45b2 c13d 7caf 413d 0b67 fbbc 0bdb af3d
000002a0: 1ab2 28bd 089d 6a3c 2d2c aabc cc81 223d
000002b0: 0455 3ebd 802c 803c 8b4b 04bd 7b68 36bd
000002c0: 9b50 b4bc f928 c6bc 0069 83bd 0202 47bc
000002d0: 02a7 dd3c ba2b eebc 1a0d 963b 1e1f 17bd
000002e0: eaed 5abd 1c13 c0bb a013 02bd dfb2 8abc
000002f0: 833a 8ebb f6b4 c6bd 6812 16bd fe00 4c3d
00000300: 7609 d0bd ff8d 83bd 72d4 36bb 3287 ccbc
00000310: f7a8 75bd 65d8 32bd 55cb 263c a266 ab3c
00000320: 0182 f4bb 1a88 473c 462d 683c c6c6 c4bb
00000330: 9d5d 323d fe60 9b3c 5179 f23c 5a2b f73c
00000340: 55fe c4bb 68f7 2dbd ca8b 7a3d d456 8c3b
00000350: c639 02bd f3ae 2dbd d229 86bd a003 81bd
00000360: 1801 0e3d 7eff 37bc 3a15 8e3b abf0 c4bc
00000370: 3c5d 01bc 955d 7cbd 4a95 3ebb 8923 1a3d
00000380: bf0d b5bd 723e 1fbd 6502 afbc 562d 943c
00000390: b5a6 8b3c 746f ec3b 21c5 b23d 8ea9 233c
000003a0: ab34 2e3d 6d19 b23c 5c31 dcbb b7a9 103c
000003b0: 81b1 883d de32 8d3c a000 2abb a853 65bd
000003c0: e99f 5b3c 1f02 38bc ce2a 0abd d93f 393d
000003d0: 2203 423d 8a60 603d 41d9 0f3c c2a1 733d
000003e0: 7de8 3c3d e40d 0abd 0dc3 1cbd 7be7 bbba
000003f0: 5413 c2bc 0aee 60bc de5b e93c 6353 1cbd
0.021952122 0.06387977 0.021374753 -0.06422331 -0.10793401 -0.03196046 0.010400131 -0.07553167
0.0005387826 0.018267263 0.016509388 0.04789085 0.018941924 0.023764608 0.022459256 0.027905349
-0.03469502 0.03372134 0.014017374 0.02836928 -0.03797345 0.019507704 0.035797007 -0.022329196
-0.050913386 0.06045735 0.028003534 0.020962099 -0.00032786053 -0.05378246 -0.04791678 -0.015096695
0.05793258 0.018307274 -0.08674844 -0.093179934 -0.010622125 -0.042742446 -0.03808029 -0.05990377
-0.030492412 -0.030490799 0.028898913 0.06910381 -0.08615101 0.028245883 0.0050853426 -0.033600166
0.06537797 -0.02903257 -0.01492549 0.0507398 -0.013531684 -0.007637361 -0.013139637 0.0046385266
-0.006116484 0.06534282 -0.008248249 -0.005070152 0.06776248 0.05316103 0.0021492993 -0.023278622
0.015034114 -0.039537825 -0.018241616 -0.0074775876 -0.01655496 0.009199604 0.030583339 -0.020395504
-0.018240098 -0.042247485 0.013057448 -0.026709298 -0.06303013 0.012310398 -0.02033743 -0.052803632
0.026042666 0.02165179 0.039302588 0.0034212635 0.0073763016 0.034833927 0.03093549 -0.002266885
-0.03281326 -0.04130862 -0.012684216 0.00030648417 -0.032493204 0.010494991 -0.013314014 -0.01939318
-0.043432042 -0.018222317 -0.09868137 -0.03105415 0.0048030666 -0.038824964 -0.07412145 -0.041184206
-0.044186905 -0.025921484 0.0010331363 -0.02528291 0.027034955 -0.009516452 -0.02817443 -0.013173633
-0.017076889 0.03823838 -0.052652102 -0.0010856104 0.022511864 -0.009927439 0.07804114 -0.02968071
0.02069752 0.035761874 -0.008520562 -0.056875866 -0.022792622 0.025829263 0.08582282 0.029565096
0.0012847913 -0.024775038 0.0023320764 0.04772947 0.010883561 0.024858104 0.025601318 0.05409631
0.06667484 0.03646821 0.033669174 0.032044984 0.07296113 0.015792252 0.012086841 0.033685673
-0.029550252 0.02354122 -0.044051107 0.018599674 -0.06281778 -0.060051214 0.028150914 0.01305051
0.0060349796 0.051075242 -0.03661979 0.06252278 0.03057601 0.010162141 0.008049924 -0.01414782
-0.028688869 -0.06842575 -0.037880275 -0.022949338 0.0945783 0.047286496 -0.030688783 0.08586701
-0.041185476 0.014319666 -0.020773018 0.039674565 -0.046467796 0.01564622 -0.032298606 -0.044533234
-0.022011092 -0.02418946 -0.064165115 -0.012146475 0.027057175 -0.029073585 0.0045791985 -0.03689491
-0.05344955 -0.005861653 -0.031756997 -0.016930996 -0.0043404712 -0.09702484 -0.036638647 0.049805634
-0.101580545 -0.06423568 -0.0027897623 -0.02496681 -0.05997559 -0.0436634 0.010180314 0.020922963
-0.0074617867 0.012178445 0.01417095 -0.006005141 0.043546308 0.018967148 0.029598864 0.030172039
-0.006011764 -0.042472273 0.06116847 0.0042828117 -0.03179338 -0.042403173 -0.06550945 -0.062995195
0.03466901 -0.011230348 0.0043360265 -0.02404054 -0.007895764 -0.061612684 -0.0029080682 0.037631545
-0.088405125 -0.038877912 -0.021363446 0.018088024 0.017047266 0.0072154347 0.087290056 0.009989155
0.042530697 0.02174064 -0.0067197513 0.008829526 0.06674481 0.01723617 -0.0025940314 -0.055987984
0.013404825 -0.011230974 -0.033732228 0.045226905 0.04736627 0.054779567 0.008779825 0.059480436
0.046120156 -0.033704653 -0.038271952 -0.0014335954 -0.023690857 -0.013728628 0.028486189 -0.03816546

body.block3.conv.bias f4 [64]
00000000: ef96 1e3d ad61 15bd 90c0 f5bc 431a e73b
00000010: 469c 66bc 0c6f 1e3d b817 6bbc 589c 863c
00000020: 0101 f53c dd94 553c bb63 1ebd d977 3a3d
00000030: df9a dcbc aece 30bc 8bb0 1fbd 762b 73bc
00000040: 2868 43bd 8510 c83c d909 10bd c3b0 dabc
00000050: d256 d93c 45f9 3e3c 1e61 0b3d c993 b4bc
00000060: 87b8 a8bc 726a 4ebc 4cb7 b03c 13e6 91bc
00000070: 8b8a 00bd 5eb3 d7ba 7ab0 073d c8f9 c2b9
00000080: bb2d 9d3c 3e5e ab3c 0137 3e3d a831 efbc
00000090: bba2 12bd 20a9 8abc ef3a 2b3c 9eb4 f3bc
000000a0: e9f7 c33c 0a63 dfbc 38ae b7bc 6efb 803c
000000b0: 0896 45bc a595 93bc 0e43 db3c 83cd 07bd
000000c0: 5bbd e7bb 9a24 223d 9f4f 8b3c 3761 16bc
000000d0: a478 233b 7436 40bc 3ea9 083c 82ec fa3b
000000e0: ee77 0fbd 2cff cfbc 5f59 b23c 58ea 713b
000000f0: 23fb afbb 56e3 453b 5085 ebbc 0d3d 3c3c
0.03871816 -0.036470104 -0.029999048 0.007052691 -0.014075344 0.03868012 -0.014348917 0.016431972
0.029907705 0.01303598 -0.03866933 0.045524452 -0.026929317 -0.010791464 -0.038986724 -0.014841905
-0.047706753 0.02442194 -0.03516564 -0.026695615 0.026530657 0.01165611 0.034028165 -0.022043126
-0.020595802 -0.012598621 0.021571778 -0.017809903 -0.031382125 -0.0016456654 0.033127286 -0.00037188665
0.019186845 0.020918962 0.046439175 -0.029198483 -0.035799723 -0.016926348 0.010451063 -0.02974921
0.023921924 -0.027268905 -0.022421941 0.015744891 -0.012059696 -0.018015692 0.026765373 -0.033154976
-0.0070721335 0.039585687 0.01700574 -0.009178451 0.0024943734 -0.011731733 0.008341132 0.0076575885
-0.035026483 -0.02539023 0.021771131 0.0036913361 -0.005370514 0.0030195317 -0.028750092 0.011489165
