TrainedModels/smk1_old/scale_factor=0.750000,alpha=10/0/netD.pth (torch, 126603 bytes, 25 tensors)

head.conv.weight f4 [32, 3, 3, 3]
0	0xbc97ad57	-0.018515272
1	0x3d169e60	0.036772132
2	0x3d463d1b	0.04839812
3	0xbc0996c9	-0.008397766
4	0x3d74c641	0.059759382
5	0x3d8d1ac0	0.06889868
6	0x3db83a70	0.08995521
7	0x3d6a11f0	0.057146013
8	0xbccde899	-0.025135325
9	0x3ca651e2	0.020302717
10	0x3c85d28c	0.016335748
11	0x3c31d670	0.010854349
12	0x3d0f6792	0.03501088
13	0x3d8c1cb9	0.06841416
14	0x3d39eff9	0.04539487
15	0x3d332bf0	0.043743074
16	0x3d83d61a	0.06437321
17	0x3c00bdcd	0.007857752
18	0xbd0d73ea	-0.034534372
19	0x3cd313b2	0.025766227
20	0x3cb9168d	0.02259376
21	0xbd1b2280	-0.0378747
22	0xbd0f3ecb	-0.034971993
23	0x3b8ff861	0.0043936227
24	0x3c0022b7	0.007820777
25	0x3b760c59	0.003754398
26	0xbc425e40	-0.011863291
27	0x3d990417	0.07471483
28	0xbc822c36	-0.015890222
29	0x3c313f34	0.010818291
30	0x3c808a82	0.015691046
31	0xbd84df0b	-0.064878546
32	0xbd0a1184	-0.03370811
33	0xbd5c01f7	-0.05371281
34	0xbd8fba71	-0.07017983
35	0xbc22beb8	-0.009933166
36	0x3d01d519	0.031697366
37	0xbc77e334	-0.015129853
38	0xbce1cb54	-0.027562775
39	0x3d920d89	0.07131488
40	0xbd0ecf33	-0.03486557
41	0xbd0d7813	-0.03453834
42	0xbd882ec2	-0.06649543
43	0xbdc011de	-0.09378408
44	0x3d135a1a	0.0359746
45	0x3ca7bb88	0.020475164
46	0x3d2021be	0.03909468
47	0x3d066103	0.03280736
48	0xbd37fed2	-0.04492075
49	0xbcf149d7	-0.029454155
50	0xbcda9c52	-0.026685867
51	0x3b0d5558	0.0021565761
52	0xbc5781ba	-0.013153488
53	0x3c3ec634	0.011643935
54	0x3d2139e2	0.039361842
55	0x3c4a5fd6	0.012351951
56	0x3c2dce2b	0.010608236
57	0xbd07d6e3	-0.033163916
58	0x3ce6cd71	0.028174134
59	0xbb632cd4	-0.003466417
60	0xbd95e41e	-0.073189005
61	0xbcb4c72b	-0.022067627
62	0xbdfc706d	-0.12326131
63	0x3c80ffda	0.015747
64	0xbd4962b3	-0.049166393
65	0xbcce00ce	-0.025146868
66	0x3d646d38	0.05576822
67	0xbd09a837	-0.033607688
68	0x3d821726	0.063520715
69	0x3d90e631	0.070751555
70	0x3d0706ee	0.032965593
71	0x3ab40419	0.0013734131
72	0x3bbd1dfc	0.0057713967
73	0x3d4f0709	0.05054382
74	0x3cd760ca	0.02629127
75	0xbd37a278	-0.044832677
76	0x3c71a0bf	0.0147477975
77	0xbd089cae	-0.033352546
78	0xbdc7114e	-0.097200975
79	0x39b23fbb	0.0003399829
80	0xbd883cf0	-0.06652248
81	0xbcc5609f	-0.024093924
82	0xbd1ab688	-0.03777173
83	0xbccc5c0b	-0.024946233
84	0xbd5f442b	-0.05450837
85	0x3cb2c375	0.021821717
86	0x3cf5e9c7	0.0300187
87	0xbc822b98	-0.015889928
88	0xbd2a56dd	-0.041586746
89	0xbda77f61	-0.081785925
90	0xbce2d096	-0.027687352
91	0xbd2a9186	-0.04164269
92	0x3b693c88	0.0035589058
93	0xbc01fbeb	-0.007933597
94	0x3c912f4a	0.017722744
95	0x3c61d982	0.013784768
96	0xbd06dfb1	-0.032928172
97	0xbd303dab	-0.04302756
98	0xbd6b6dbb	-0.057477694
99	0x3c30eceb	0.010798673
100	0xbc06b43d	-0.008221683
101	0xbc22494a	-0.009905169
102	0xbd07e4a8	-0.033177048
103	0xbc08ffe6	-0.008361792
104	0x3beb3cef	0.0071788947
105	0x3c7397a3	0.014867696
106	0x3c866f5d	0.016410524
107	0xbc131b5e	-0.008978693
108	0xbcdf5393	-0.027261531
109	0xbcc8360d	-0.024439836
110	0xbd39cb70	-0.04536003
111	0x3d810a60	0.06300807
112	0x3d5f0e62	0.054457076
113	0xbc7d35bc	-0.015454706
114	0xbcb9bbb4	-0.022672512
115	0xbd7c82a5	-0.06164803
116	0xbc89bc71	-0.016813489
117	0x3d4fed8d	0.050763655
118	0xbd5619d7	-0.052270737
119	0x3d28ed2d	0.041241813
120	0x3dd332d2	0.103124276
121	0x3d8c9900	0.0686512
122	0x3d4609ea	0.0483493
123	0x3c02a18b	0.007973085
124	0xbd1878e6	-0.037224673
125	0x3d8cffc7	0.06884723
126	0xbd06a837	-0.032875266
127	0xbc760404	-0.015015606
128	0xbd1ee95c	-0.038796768
129	0xbbeafef0	-0.007171504
130	0xbcbb900c	-0.022895835
131	0xbd347f4a	-0.044066705
132	0xbd37ff6e	-0.04492133
133	0xbbe585df	-0.007004484
134	0xbd00502b	-0.031326454
135	0x3c677bec	0.014128666
136	0x3d346d3b	0.044049483
137	0xbd1676f8	-0.03673455
138	0x3d37a641	0.044836286
139	0x3cb56c77	0.022146447
140	0xbd35e10c	-0.044404075
141	0xbafb1233	-0.0019155204
142	0x3d0b3367	0.033984568
143	0x3c77dd46	0.015128439
144	0x3d137095	0.03599604
145	0xbd0d4bae	-0.034496002
146	0xbdaa7ce7	-0.083246045
147	0x3d9ab36d	0.07553754
148	0x3c5a648a	0.013329634
149	0xbd8e7173	-0.069552325
150	0x3d84f8cc	0.06492767
151	0xbc177fcd	-0.009246779
152	0xbcba9835	-0.022777656
153	0xbc7d5a6d	-0.015463454
154	0x3cf11da4	0.029433079
155	0x3d280264	0.041017905
156	0xbca6d73c	-0.020366304
157	0x3b107610	0.0022043027
158	0x3c916f8a	0.017753381
159	0xbd37b950	-0.044854462
160	0x3cf5c096	0.029999059
161	0x3d0c572e	0.03426283
162	0x3d413543	0.047169935
163	0x3c96d613	0.018412625
164	0x3c1b5df4	0.009482849
165	0x3c8afb34	0.016965486
166	0x3ca9ca61	0.020726385
167	0x3c0da3f9	0.008645051
168	0xbc761d70	-0.015021667
169	0xbb98caf5	-0.0046628662
170	0xbca4a4b1	-0.020098062
171	0x3d3a3a71	0.04546589
172	0xbb611e3d	-0.0034350299
173	0xbba28175	-0.00495928
174	0xbb5f79f3	-0.0034099787
175	0x3c4a03e0	0.012330025
176	0x3c92632d	0.017869556
177	0xbd616e34	-0.05503674
178	0x3c60bf5f	0.013717501
179	0xbd58f298	-0.05296573
180	0xbc409efa	-0.011756653
181	0x3b4718a8	0.0030379687
182	0x3b2139ba	0.0024601058
183	0xbbd3446b	-0.006447365
184	0x3bfa1229	0.0076315594
185	0x3b43e1a1	0.0029889124
186	0x3d0fb8be	0.035088293
187	0x38bb4762	8.930151e-05
188	0xbb81cc95	-0.0039611557
189	0xbe005ad9	-0.12534656
190	0xbd122786	-0.035682224
191	0xbce74f48	-0.028236046
192	0x3c678366	0.014130449
193	0x3d200e50	0.03907615
194	0xbc984b2e	-0.018590536
195	0x3c266eac	0.010158222
196	0x3caf0a75	0.021367291
197	0x3caeac01	0.021322252
198	0xbd17c3ac	-0.03705184
199	0xbd17c6e1	-0.0370549
200	0xbac0f728	-0.0014722096
201	0xbd62be94	-0.05535753
202	0xbd6c6c79	-0.057720635
203	0xbc9df8b7	-0.019283636
204	0x3d102617	0.035192575
205	0xbd9222ed	-0.07135568
206	0xbdb8bc30	-0.09020269
207	0xbd0127bb	-0.03153203
208	0x3bf972a9	0.0076125455
209	0x3bf4f3d4	0.0074753556
210	0x3ce88f33	0.028388595
211	0x3d968ac7	0.073506884
212	0x3bdec982	0.006798924
213	0xbb192fd8	-0.0023374464
214	0x3c93ca3d	0.01804077
215	0x3d5e61f4	0.054292634
216	0x3d4830f9	0.04887483
217	0x3d057e79	0.032591317
218	0x3c90078b	0.017581722
219	0xbbc7f063	-0.0061016544
220	0x3c8f989a	0.01752882
221	0x3aed0d91	0.0018085708
222	0xbcf4433b	-0.029817214
223	0xbd84e2fd	-0.06488607
224	0xbd5c486e	-0.05378001
225	0x3d995a00	0.07487869
226	0x3d8001eb	0.06250366
227	0x3cd39b41	0.025830867
228	0xbccde1de	-0.025132116
229	0x3c94df70	0.01817295
230	0x3cb09223	0.021554058
231	0xbd01cf59	-0.031691883
232	0xbd0033e0	-0.03129947
233	0xbd81d5d3	-0.06339612
234	0xbcc8ea69	-0.024525838
235	0xbd1136dd	-0.035452712
236	0xbce06106	-0.027390014
237	0x3a917897	0.0011098561
238	0x3be9a2d5	0.007130007
239	0x3a0e5583	0.00054296124
240	0x3c8dbcce	0.017301943
241	0xbca58d7b	-0.020209065
242	0x3c567ed9	0.013091766
243	0xbd0ca2ee	-0.03433507
244	0xbcc040a3	-0.023468321
245	0xbdd0db72	-0.10198106
246	0x3c218691	0.009858743
247	0x3dd8cb1a	0.105856135
248	0x39482564	0.00019087415
249	0x3cbe7d5f	0.023253141
250	0x3bac3ea6	0.0052564917
251	0xbbb704a5	-0.0055852705
252	0xbc20d145	-0.009815519
253	0xbc904582	-0.017611269
254	0xbd3fb27d	-0.04680108
255	0xbc93590d	-0.017986799

head.conv.bias f4 [32]
0	0x3dea799e	0.11448978
1	0xbe278202	-0.16358188
2	0xbe5bb40e	-0.21455404
3	0x3e3490eb	0.17633407
4	0xbd7de3cc	-0.061984822
5	0x3e02d20a	0.12775436
6	0xbce7b3fc	-0.028284065
7	0x3c37248d	0.011178148
8	0xbe2e7310	-0.1703608
9	0xbdcad8ab	-0.099046074
10	0x3da341c5	0.07971529
11	0x3c1c6ced	0.009547454
12	0x3e03cbda	0.12870732
13	0x3dda1cc3	0.10650017
14	0x3da50b60	0.0805881
15	0xbe3cf834	-0.18454057
16	0x3cf06289	0.02934386
17	0xbe1e2fe1	-0.15447952
18	0x3df755ec	0.12076935
19	0x3d8d2f3c	0.06893775
20	0xbd2d4da2	-0.042310365
21	0x3dfcf8e7	0.12352162
22	0x3df8b1d4	0.12143293
23	0xbd4a9a28	-0.04946342
24	0x3e2afd90	0.16698289
25	0xbd040e2b	-0.032240074
26	0x3dc64ad2	0.096822396
27	0xbd92611e	-0.0714743
28	0x3e10eddf	0.1415324
29	0xbd1fed72	-0.039044805
30	0x3e34eafe	0.17667767
31	0x3e1733f5	0.14765914

head.norm.weight f4 [32]
0	0x3f6c10b1	0.9221297
1	0x3f637665	0.8885253
2	0x3f6f1d98	0.9340453
3	0x3f4bf887	0.796761
4	0x3f673085	0.9030841
5	0x3f621e06	0.8832706
6	0x3f5d4f56	0.8644918
7	0x3f654255	0.8955434
8	0x3f6bebe2	0.92156804
9	0x3f6960bd	0.91163236
10	0x3f3d987b	0.7406079
11	0x3f38109b	0.7190034
12	0x3f553372	0.83281624
13	0x3f498d3b	0.78731126
14	0x3f65da87	0.8978657
15	0x3f88c4c0	1.0685043
16	0x3f5f4e85	0.87229186
17	0x3f811405	1.0084234
18	0x3f749685	0.95542175
19	0x3f1de412	0.6167613
20	0x3f84f5d0	1.0387516
21	0x3f7478c2	0.9549676
22	0x3f6f7492	0.9353725
23	0x3f51b930	0.819232
24	0x3f7d1f17	0.98875564
25	0x3f5dc3d6	0.86626947
26	0x3f871c28	1.0555468
27	0x3f765586	0.9622425
28	0x3f554066	0.8330139
29	0x3f74bf1f	0.9560413
30	0x3f6b1521	0.91829115
31	0x3f66dfc0	0.90185165

head.norm.bias f4 [32]
0	0x3e90798f	0.28217742
1	0x3edf331e	0.43593687
2	0x3f126023	0.57177943
3	0x3ec7d47a	0.39029294
4	0x3ecdae58	0.40172076
5	0x3f6bfb25	0.9218009
6	0x3f29462f	0.66122717
7	0x3f0d83df	0.55279344
8	0x3f090674	0.5352547
9	0x3ef0a2d7	0.46999237
10	0x3f392b6d	0.7233189
11	0x3f4f406f	0.8095769
12	0x3f26be3b	0.6513402
13	0x3f32c825	0.69836646
14	0x3ee3c56e	0.44486564
15	0x3ef14c5b	0.47128567
16	0x3e1fd467	0.15608369
17	0x3db72dc7	0.08944278
18	0x3e9e4963	0.30915365
19	0x3f4b28fa	0.793594
20	0x3f0d0a70	0.5509405
21	0x3e6c86aa	0.23098245
22	0x3e18f80b	0.14938371
23	0x3f47f7c0	0.7811241
24	0x3e8c3d0b	0.27390322
25	0x3c66782e	0.014066739
26	0x3dbd12d1	0.092321046
27	0x3dc8da9c	0.098073214
28	0x3e02df62	0.12780526
29	0x3f20226e	0.62552536
30	0x3eb53ccb	0.35397944
31	0x3f3b2131	0.7309752

head.norm.running_mean f4 [32]
0	0x3d3f7d1d	0.046750177
1	0xbdf04ce9	-0.117334194
2	0xbe068fb6	-0.13140759
3	0x3e7adc3b	0.24498074
4	0x3d0e76fd	0.034781445
5	0x3da2b317	0.07944315
6	0xbd5ff045	-0.0546725
7	0xbc237d46	-0.009978598
8	0xbe0d811f	-0.13818787
9	0xbe0fcf4c	-0.14043921
10	0x3e0f0ba8	0.1396929
11	0xbcf914bf	-0.0304054
12	0x3e2be337	0.16785894
13	0x3e1a9a77	0.15097986
14	0x3e046e00	0.12932587
15	0xbe3a1304	-0.18171316
16	0x3d2fd615	0.042928774
17	0xbe18fbe6	-0.14939842
18	0x3e0c6204	0.13709265
19	0x3e04169d	0.12899251
20	0xbd9538bf	-0.07286214
21	0x3e61a1ee	0.22034428
22	0x3e372901	0.17886735
23	0xbcdcdfde	-0.026962217
24	0x3e64a6ae	0.22329208
25	0x3d39f541	0.045399908
26	0x3dc83e53	0.097775124
27	0xbde225b5	-0.11042348
28	0x3e07556a	0.13216177
29	0xbe00edae	-0.12590668
30	0x3e56612a	0.20935503
31	0x3dfd4031	0.12365759

head.norm.running_var f4 [32]
0	0x3accfa03	0.0015638474
1	0x3b1eb7ad	0.0024218366
2	0x3bc1171d	0.005892648
3	0x3a3b8f3c	0.00071548275
4	0x3b9113ac	0.004427394
5	0x3ae057c1	0.0017115996
6	0x3a1e8263	0.0006046651
7	0x3b75ae29	0.003748784
8	0x3ae21670	0.0017249119
9	0x3b2044a7	0.0024454982
10	0x3b3608c4	0.002777622
11	0x3b4cbd05	0.0031240594
12	0x3b24a3b7	0.0025121996
13	0x3b526d2e	0.0032108533
14	0x3aff5be0	0.0019482337
15	0x368e6f20	4.2448664e-06
16	0x3ab397a8	0.0013701813
17	0x3b025342	0.0019886051
18	0x3b242222	0.0025044759
19	0x3b48ed8a	0.0030659162
20	0x3b4366ef	0.0029815992
21	0x3bb410a5	0.0054951482
22	0x3bb2897b	0.005448518
23	0x3a7d0ef1	0.00096534105
24	0x3b18427b	0.0023232985
25	0x3ab00a21	0.0013430753
26	0x3674ad25	3.6459617e-06
27	0x3b813e72	0.0039442116
28	0x3a9dba74	0.0012033717
29	0x3aee8ac6	0.0018199317
30	0x3b0685dc	0.0020526564
31	0x3a2f46e1	0.0006686282

body.block1.conv.weight f4 [32, 32, 3, 3]
0	0x3dc5fce8	0.09667379
1	0x3c8fb74d	0.01754346
2	0xbd766e3d	-0.060163725
3	0xbb407a4c	-0.002936977
4	0xbc51d059	-0.012806022
5	0xbd714990	-0.058908045
6	0x3bd5745c	0.0065141153
7	0xbd350f74	-0.04420419
8	0xbc373f85	-0.011184578
9	0xbbde6c39	-0.0067878035
10	0xbcf737a6	-0.030177902
11	0xbdad6a07	-0.08467489
12	0xbc094d36	-0.008380225
13	0xbcf86d22	-0.030325476
14	0xbcd5eda5	-0.026114294
15	0xbc0ef594	-0.008725543
16	0x3d35a6b6	0.04434844
17	0x3c568079	0.013092154
18	0xbc4ac184	-0.012375239
19	0xbcf67232	-0.03008375
20	0xbc189499	-0.009312772
21	0xba760eaf	-0.00093863433
22	0xbce18ce4	-0.027533002
23	0x3bbbf3c6	0.005735847
24	0xbcf3e738	-0.02977334
25	0x3d5f3b87	0.05450013
26	0x3d33e54a	0.04391984
27	0x3d3ecbe2	0.046581157
28	0xbcc173d5	-0.023614803
29	0x3bd86df1	0.006604903
30	0x3b5706a5	0.0032810357
31	0x3b2bcb5d	0.0026213743
32	0x3cc6e699	0.02427988
33	0x3ce81914	0.02833227
34	0x3b7ca022	0.0038547595
35	0x3d283180	0.041062832
36	0xbb8faefa	-0.0043848725
37	0xbcc6a314	-0.024247684
38	0xbd1362c2	-0.035982855
39	0xbc811291	-0.015755923
40	0xbd9036c0	-0.07041693
41	0xbd7de5d6	-0.061986767
42	0xbcc56f25	-0.02410085
43	0x3c0ff0d8	0.008785449
44	0x3cae3a2e	0.021267977
45	0xbda01c48	-0.07817894
46	0xbd10ead9	-0.03538022
47	0xbd835033	-0.06411781
48	0xbbd60820	-0.0065317303
49	0x3d258457	0.040409412
50	0x3d30a897	0.04312953
51	0x3c08c2bd	0.0083472105
52	0x3b18fb9e	0.0023343335
53	0x3db937da	0.09043856
54	0xbacf8703	-0.0015833083
55	0xbaa21e63	-0.0012368675
56	0x3cf741f8	0.030182824
57	0x3b9759bf	0.004618853
58	0x3b8f336a	0.0043701427
59	0xbc67b725	-0.014142786
60	0xbd54c803	-0.05194856
61	0x3cd6b394	0.026208676
62	0x3d476567	0.04868069
63	0xbc168577	-0.009187094
64	0xbd8d2580	-0.06891918
65	0xbe09bce9	-0.1345097
66	0xbc0bc273	-0.008530247
67	0xbd3311d7	-0.043718185
68	0xbae0ef0f	-0.0017161089
69	0x3a7eac64	0.0009715019
70	0xbd136083	-0.035980713
71	0x3c44974b	0.011998962
72	0x3ca00e14	0.019537963
73	0xbc915989	-0.017742889
74	0x3db74511	0.0894872
75	0xbd5d2006	-0.053985618
76	0x3a5e654a	0.0008483721
77	0xbb7e530f	-0.003880683
78	0x3c95f04b	0.018303057
79	0x3d5b9a06	0.053613685
80	0x3cfdc427	0.030977322
81	0x3d18c41e	0.037296407
82	0xbd177f69	-0.036986742
83	0xbbd6d7ab	-0.0065564713
84	0x3bc2b5af	0.0059420685
85	0x3c6dba7f	0.014509796
86	0x3d9ad138	0.075594366
87	0xbc3d644c	-0.011559557
88	0xbc3773f7	-0.011197082
89	0x3d8bc5aa	0.06824811
90	0xbd182564	-0.037145033
91	0xbd1de643	-0.038549673
92	0x3d4f1bcd	0.050563622
93	0x3c7e9c76	0.015540233
94	0xbc6df308	-0.014523275
95	0x3b3f856d	0.0029223815
96	0x3ab7c776	0.0014021236
97	0xbd11386a	-0.03545419
98	0x3cd93ca4	0.026518174
99	0x3d984c58	0.074364364
100	0x3d2fd0ee	0.04292386
101	0x3d90eff3	0.07077017
102	0x3d29af9a	0.041427232
103	0x3d0eb5e1	0.034841422
104	0xbc86e664	-0.01646728
105	0xbd4e2b0a	-0.050334014
106	0x3d0213a3	0.03175701
107	0xbb78be2c	-0.0037955148
108	0xbd4b15db	-0.04958139
109	0x3ce2cab2	0.027684543
110	0xbc63e62b	-0.013909857
111	0xbc913bc5	-0.017728696
112	0xbd31c954	-0.043404892
113	0xbbcdbc78	-0.0062785707
114	0xbcceeca1	-0.025259318
115	0xbc324297	-0.010880134
116	0x3d8c86e0	0.06861663
117	0x3d3702e3	0.044680487
118	0xbcc3c2a7	-0.023896528
119	0x3cb574eb	0.022150477
120	0x3cd8692a	0.026417334
121	0xbd39c5b4	-0.04535456
122	0xbd20f7fc	-0.039298996
123	0x3cc210e6	0.023689698
124	0xbaac3c5a	-0.0013140545
125	0xbd231dcb	-0.039823335
126	0xbd56690b	-0.05234627
127	0x3d20464a	0.039129533
128	0x3dad7bd2	0.084708825
129	0xbcbab6c9	-0.022792237
130	0xbc51615c	-0.01277956
131	0xbb13e2bc	-0.0022565564
132	0xbd1807ca	-0.037116803
133	0xbcaf0ab6	-0.021367412
134	0x3c9e2f88	0.019309774
135	0xbce94d31	-0.02847919
136	0xbd4d3ce6	-0.050106905
137	0xbc000c83	-0.007815483
138	0x3d07016a	0.032960333
139	0x3ca13dc1	0.019682767
140	0x3d5b9210	0.053606093
141	0x3d500838	0.050789088
142	0x3d2e74a1	0.042591695
143	0x3da382d5	0.079839386
144	0xbd2247a0	-0.03961909
145	0xbd96da6b	-0.07365879
146	0xbccc816b	-0.024964055
147	0xbcd74bf3	-0.026281333
148	0xbc9d769f	-0.019221602
149	0xbc46bad4	-0.012129504
150	0xbbad6d32	-0.005292558
151	0xbca19832	-0.019725893
152	0x3d0dc37f	0.034610268
153	0x3d0c7d53	0.034299206
154	0x3cd32d40	0.025778413
155	0xbda353c0	-0.079749584
156	0xbd0816f6	-0.033225022
157	0xbc8e3435	-0.017358879
158	0x3cd6df33	0.026229477
159	0xbd7c6234	-0.06161709
160	0xbd2a4fc4	-0.041579977
161	0xbd2e9582	-0.04262305
162	0xbca45cee	-0.020063844
163	0xbd6393bb	-0.05556081
164	0xbd6966d9	-0.05698285
165	0xbc8ed88c	-0.017437242
166	0xbd50bc35	-0.05096074
167	0xbcf4b010	-0.02986911
168	0xbde4e4f0	-0.11176479
169	0xbcdc4826	-0.026889872
170	0x3b01418d	0.001972291
171	0x3d3c69fa	0.045999505
172	0xbc5df0d2	-0.013546186
173	0x3a313669	0.0006760122
174	0x3cb5938c	0.022165082
175	0xbb46f429	-0.0030357933
176	0xbd0c3ab0	-0.034235656
177	0x3d185a06	0.037195228
178	0xbc5a8b46	-0.013338869
179	0xbc485e8c	-0.012229573
180	0xbd299198	-0.041398615
181	0x3c5a10f4	0.013309706
182	0x3d07a7ca	0.033119
183	0xbdbe24aa	-0.09284337
184	0xbd1aa852	-0.03775818
185	0x3d948341	0.07251597
186	0x3d2191e5	0.039445776
187	0xbdafb158	-0.085787475
188	0x3dc1d64c	0.09464702
189	0x3dc16a7a	0.09444137
190	0x3d32a312	0.043612547
191	0x3d83691b	0.06416532
192	0x3d19fa21	0.037592057
193	0x3cbcac9b	0.023031523
194	0xbad52f89	-0.0016264777
195	0x3bf6620a	0.0075190114
196	0xbd056e0e	-0.03257566
197	0xbd34d24c	-0.044145867
198	0x3b433194	0.002978419
199	0xbbc08810	-0.005875595
200	0xbc65bd63	-0.014022204
201	0xbc921bd8	-0.017835543
202	0xbb5ff46a	-0.0034172782
203	0x3c958c6a	0.018255431
204	0xbd0a87c0	-0.033820868
205	0xbd0c6a5f	-0.03428113
206	0x3bf00eb8	0.0073259734
207	0x3da36623	0.079784654
208	0x3c4caff1	0.01249312
209	0x3cafa613	0.021441495
210	0x3b5b30a2	0.0033445735
211	0x3d1dd0b0	0.038529098
212	0xbd098dea	-0.033582605
213	0xbdd00c86	-0.10158639
214	0xbc47e2e6	-0.012200093
215	0xbd1632bc	-0.036669478
216	0x3d9ec9a2	0.07753302
217	0x3c2f46e1	0.010698051
218	0x3d1e7a5b	0.038690906
219	0x3bd55d7b	0.006511388
220	0xbd4b53e9	-0.04964057
221	0xbcfee22d	-0.031113708
222	0x3c08b71b	0.008344437
223	0xbae0e2f1	-0.0017157478
224	0x3d7552ff	0.059893604
225	0x3cea93fc	0.028635018
226	0x3c42267b	0.011849995
227	0x3d5a9f22	0.053374417
228	0x3d3df451	0.046375576
229	0xbc1d4fa9	-0.009601512
230	0x3c15db9e	0.009146599
231	0xbc252096	-0.01007857
232	0xba61bf54	-0.0008611579
233	0x3c971d31	0.018446537
234	0x3db49cc6	0.08818965
235	0x3db4f280	0.08835316
236	0x3de8c40e	0.113655195
237	0x3c363467	0.011120892
238	0x3cedc2c7	0.029023541
239	0x3c849994	0.016186513
240	0xbdf739c1	-0.120715626
241	0xbdd33dc4	-0.10314515
242	0xbdccb9cc	-0.099963754
243	0xbc400ec8	-0.011722274
244	0x3ce2e37d	0.027696365
245	0xbda41cd5	-0.08013312
246	0xbd26d292	-0.04072816
247	0xbc16c819	-0.00920298
248	0x3cb13a80	0.02163434
249	0x3b1b9fe9	0.0023746437
250	0x3c9f5a23	0.01945216
251	0x3cbb69fe	0.02287769
252	0xbc971629	-0.018443184
253	0x3c8fe2da	0.017564226
254	0x3d8d5572	0.06901063
255	0x3bc1241c	0.005894197

body.block1.conv.bias f4 [32]
0	0xbd8cb1b1	-0.068698294
1	0xbcaf9b89	-0.02143647
2	0xbcb5ac54	-0.022176899
3	0x3d448a89	0.04798368
4	0xbd897051	-0.06710876
5	0x3d2561fa	0.04037664
6	0xbd6ca995	-0.057778914
7	0x3ca75ea5	0.020430872
8	0x3dacfd79	0.084467836
9	0xbb873d70	-0.004127197
10	0x3d82ebcf	0.06392633
11	0xbd3b6026	-0.04574599
12	0xbc03b786	-0.008039361
13	0x3d35b2c3	0.044359934
14	0x3d17e680	0.037085056
15	0xbd90fd76	-0.07079594
16	0x3cb31e84	0.021865137
17	0xbddb2698	-0.107007205
18	0x3d1546b4	0.03644438
19	0x3c98fc02	0.018674854
20	0x3d52c9a8	0.051461846
21	0x3d6621be	0.056184523
22	0xbd09255d	-0.033482898
23	0x3d0e014c	0.034669206
24	0xbd53c90a	-0.051705398
25	0xbd301beb	-0.042995375
26	0xbc78c112	-0.01518275
27	0xbca9620b	-0.020676633
28	0xbb781074	-0.0037851604
29	0x3b58de81	0.0033091607
30	0xbd6ba28c	-0.057528064
31	0xbd3f7147	-0.04673889

body.block1.norm.weight f4 [32]
0	0x3f778780	0.9669113
1	0x3f659a06	0.89688146
2	0x3f6a1477	0.91437477
3	0x3f694dad	0.9113415
4	0x3f3e7497	0.7439665
5	0x3f6cbcad	0.92475396
6	0x3f7282a6	0.94730604
7	0x3f6e4274	0.9307015
8	0x3f6f1ceb	0.934035
9	0x3f6054a0	0.8762913
10	0x3f6f545c	0.934881
11	0x3f6a1260	0.9143429
12	0x3f6c307a	0.9226147
13	0x3f6371f4	0.88845754
14	0x3f7e3a87	0.99308056
15	0x3f61368e	0.8797387
16	0x3f5531e2	0.8327924
17	0x3f76cd90	0.96407413
18	0x3f7fc673	0.99912184
19	0x3f759e37	0.9594454
20	0x3f503af6	0.8133997
21	0x3f37e8d8	0.71839666
22	0x3f559c2e	0.83441436
23	0x3f568d17	0.83809036
24	0x3f715cef	0.9428243
25	0x3f6d44d4	0.9268315
26	0x3f5c4a52	0.86050904
27	0x3f813c54	1.0096536
28	0x3f423cd4	0.75874066
29	0x3f5f3dc9	0.8720365
30	0x3f768fc3	0.9631311
31	0x3f72888d	0.9473961

body.block1.norm.bias f4 [32]
0	0x3f1d8d57	0.6154379
1	0x3ee6c9f3	0.4507595
2	0x3f28c325	0.65922767
3	0x3e98b443	0.2982503
4	0x3f7169f8	0.9430232
5	0x3f6520f1	0.8950339
6	0x3f29057d	0.66024
7	0x3f292b49	0.6608167
8	0x3ea5e0b5	0.32398
9	0x3f30077d	0.68761426
10	0x3f1af6b8	0.6053271
11	0x3f243a89	0.6415182
12	0x3eabe916	0.33576268
13	0x3f57fbf3	0.8436882
14	0x3e5beca5	0.21476991
15	0x3f49ec78	0.7887645
16	0x3f17658d	0.5913933
17	0x3ef7ae54	0.4837519
18	0x3ed48e6d	0.41514912
19	0x3f374e6f	0.71604055
20	0x3f6d6cd1	0.92744166
21	0x3f805064	1.0024533
22	0x3f2c9ce9	0.67426926
23	0x3f1e1461	0.61749846
24	0x3d8650fe	0.06558417
25	0x3e78f5b3	0.24312477
26	0x3f1bd715	0.60875064
27	0x3f148bf4	0.5802605
28	0x3f53026b	0.82425565
29	0x3f16fab2	0.5897628
30	0x3ec91755	0.39275613
31	0x3eeb8aa4	0.46004212

body.block1.norm.running_mean f4 [32]
0	0xbe394c56	-0.18095526
1	0x3dc97e32	0.09838523
2	0x3e7d0508	0.2470895
3	0xbe57f5ed	-0.21089907
4	0xbfc708ef	-1.5549601
5	0xbf72fffc	-0.9492185
6	0x3f278686	0.6543964
7	0xbf8f8eee	-1.1215494
8	0x3f7434ca	0.9539305
9	0xbe9b2172	-0.30298954
10	0xbf70f58a	-0.9412466
11	0xbd8018fa	-0.06254764
12	0xbe860e45	-0.26182762
13	0xbfd605d3	-1.6720527
14	0x3dbddfbe	0.09271191
15	0x3f1d2415	0.6138318
16	0xbf60f493	-0.8787319
17	0x3f93fe5d	1.1562
18	0xbf2c4224	-0.6728842
19	0xbec74d21	-0.38926032
20	0xbf924044	-1.1425862
21	0x3f6ea2ca	0.93217146
22	0x3fbf0b7c	1.492538
23	0x3f744420	0.9541645
24	0xbfba0491	-1.4532644
25	0xbede0b10	-0.43367815
26	0x3f631ea4	0.8871863
27	0xbe122d40	-0.14275074
28	0xbe13eb0f	-0.14445136
29	0x3e082aef	0.13297628
30	0x3e87bf15	0.26512972
31	0x3e8b2064	0.2717315

body.block1.norm.running_var f4 [32]
0	0x3ecd1c81	0.4006081
1	0x3e575202	0.21027377
2	0x3ea4b28e	0.32167476
3	0x3e638b48	0.222211
4	0x3f13e6bf	0.57773966
5	0x3f0155f5	0.50521785
6	0x3ecf352a	0.40470248
7	0x3e9576c4	0.29192173
8	0x3ee4f201	0.44715884
9	0x3ec2b8d4	0.38031638
10	0x3ed108e6	0.408271
11	0x3e4818f6	0.19540772
12	0x3ea8b52e	0.3295073
13	0x3f2da58a	0.6783072
14	0x3e992dbb	0.29917702
15	0x3e98ede2	0.2986899
16	0x3e9dc5fe	0.3081512
17	0x3ebe198b	0.37128863
18	0x3ebc2bdc	0.36752212
19	0x3f117e42	0.5683328
20	0x3e4e2907	0.20132838
21	0x3e981772	0.29705387
22	0x3ec40514	0.38285124
23	0x3ef5d976	0.48017472
24	0x3e8ea6d3	0.27861652
25	0x3e811cdc	0.2521733
26	0x3e62249f	0.22084282
27	0x3eafd82c	0.34344614
28	0x3f14f4f1	0.5818625
29	0x3f31a9bb	0.69399613
30	0x3f065df5	0.5248712
31	0x3edabc1d	0.42721644

body.block2.conv.weight f4 [32, 32, 3, 3]
0	0x3d69f2e7	0.057116415
1	0x3d1b1d7c	0.037869915
2	0x3d4da3a1	0.050204877
3	0xbcba86e0	-0.022769392
4	0xbc375e29	-0.011191883
5	0xbc836850	-0.016040951
6	0xbc585243	-0.0132032065
7	0xbd8509d2	-0.06496014
8	0xbd2b2d31	-0.041791145
9	0x3d0fd6e0	0.03511703
10	0x3b852e61	0.0040643667
11	0x3d7cdac9	0.061732087
12	0xbd5f2723	-0.054480683
13	0xbccf95b1	-0.025339933
14	0x3cce1b3c	0.02515947
15	0xbcddcd78	-0.027075514
16	0x3c8944ca	0.016756434
17	0x3d89bf24	0.0672591
18	0x3d1df361	0.038562182
19	0x3d357387	0.04429963
20	0x3dc52c42	0.09627582
21	0x3b999b25	0.004687684
22	0x3aa89395	0.0012861366
23	0x3d1cae06	0.0382519
24	0x3d912a63	0.07088163
25	0x3cba9ee3	0.022780841
26	0x3d9fe232	0.07806815
27	0xbd0d771a	-0.034537412
28	0xbd061571	-0.032735292
29	0x3c118aa0	0.008883148
30	0x3d078fcd	0.033096123
31	0x3cf57086	0.029960882
32	0x3d8171f6	0.063205644
33	0xbcde188d	-0.027111316
34	0x3c21c283	0.009873035
35	0xbc95f414	-0.018304862
36	0x3cfc7890	0.030819207
37	0xbcad6d4c	-0.02117028
38	0x3cefbf33	0.029265976
39	0xbd06417d	-0.0327773
40	0xbd02409d	-0.0317999
41	0x3cbca268	0.02302666
42	0x3c1d4c9c	0.009600785
43	0x3c8dd99d	0.01731568
44	0x3cf49ef5	0.029860953
45	0x3d42da6a	0.047571577
46	0x3d0fdb72	0.03512139
47	0x3d6868e1	0.056740645
48	0x3d8c27c8	0.06843525
49	0x3d452719	0.04813299
50	0x3bc2d081	0.0059452658
51	0x3d455ca6	0.04818406
52	0x3d592c24	0.05302061
53	0xbb4bfb1c	-0.0031125015
54	0xbbe8306e	-0.0070858514
55	0xbd476458	-0.04867968
56	0xbd9190ca	-0.071076944
57	0x3d4316ed	0.047629286
58	0x3d02c3a0	0.031924844
59	0x3c2f5b28	0.010702886
60	0xbd2277fe	-0.039665215
61	0xbd394034	-0.045227244
62	0xbd5bbaf9	-0.053645108
63	0xbd4a5bff	-0.04940414
64	0xbbfdf3a5	-0.007749992
65	0x3d10909d	0.035294164
66	0x3cfec32c	0.031098925
67	0x3aecdf6d	0.0018071957
68	0x3cfd3502	0.030909065
69	0x3d38a6ef	0.045081075
70	0x3c975bee	0.018476453
71	0x3cf58eaf	0.029975263
72	0x3d01da74	0.031702474
73	0x3c1654c9	0.009175488
74	0x3c629c67	0.013831235
75	0xbd8b339b	-0.06796952
76	0xbd9ac9a2	-0.0755799
77	0xbdd9e03f	-0.10638475
78	0x3d382e52	0.04496605
79	0x3cffb7d6	0.03121559
80	0xbd29dab8	-0.041468352
81	0xbcf29fa6	-0.029617142
82	0x3ca41b70	0.020032614
83	0x3cf96f9f	0.030448733
84	0x3b889d01	0.004169107
85	0x3d2ecc22	0.042675145
86	0x3c92f086	0.017936956
87	0xb9c59312	-0.00037684344
88	0x3d3b63c6	0.04574945
89	0x3ccd3765	0.025050828
90	0xbd3c2b1f	-0.04593956
91	0xbc25cc84	-0.010119561
92	0xbd0f2220	-0.034944654
93	0xbc53f4a0	-0.012936741
94	0x3c8e8ce4	0.017401166
95	0xbb05109a	-0.0020304085
96	0xbd8922eb	-0.06696113
97	0xbd17688b	-0.036964934
98	0xbd105ac6	-0.03524282
99	0x3c658244	0.0140081085
100	0xbce382c8	-0.027772322
101	0xbd51a1bc	-0.051179633
102	0xbd0b865e	-0.03406369
103	0xbd29dd0f	-0.041470584
104	0xbd794786	-0.060859226
105	0xbc7c33c5	-0.015393202
106	0xbbd31901	-0.0064421897
107	0xbd2add25	-0.041714806
108	0xbcfe4a95	-0.031041423
109	0xbadbe160	-0.0016775541
110	0x3d01914b	0.031632703
111	0xbd4ac694	-0.049505785
112	0xbc5410be	-0.012943445
113	0x3c84a37c	0.016191237
114	0xbb8c51ef	-0.004282228
115	0x3d8606fb	0.065443
116	0x3daa2659	0.083080955
117	0xbd19e3da	-0.03757081
118	0xbc90359a	-0.017603684
119	0x3c371d1d	0.011176375
120	0xbd1eea6d	-0.038797785
121	0x39ba5f1d	0.0003554755
122	0x3b25be07	0.0025290267
123	0xbd4cdedf	-0.050017234
124	0x3d390642	0.045171984
125	0x3da8e1f0	0.08246219
126	0x3d2c81a5	0.042115826
127	0x3cd3b818	0.025844619
128	0xbc596203	-0.013267997
129	0x3c0a90cb	0.008457373
130	0x3cf947ef	0.030429808
131	0x3cd3c695	0.025851527
132	0xbd3b9955	-0.045800526
133	0xbd06c264	-0.03290023
134	0xbd3467fe	-0.044044487
135	0x3d32b584	0.043630138
136	0x3d993f73	0.07482805
137	0x3c8b2722	0.016986433
138	0xbd116f56	-0.03550657
139	0xbc1b75ba	-0.009488517
140	0xbd6ef4f8	-0.05833909
141	0xbd03557f	-0.032063957
142	0x3c5bd7ff	0.013418197
143	0x3ca2a0aa	0.019852001
144	0xbd0fe786	-0.035132907
145	0xbcb3614d	-0.021896983
146	0x3c57c1da	0.013168776
147	0x3c6e1b6c	0.014532905
148	0xbaa9193d	-0.0012901198
149	0x3ca0e54e	0.019640591
150	0xba87f162	-0.001037162
151	0x3ca29829	0.019847946
152	0xbc9fa899	-0.019489573
153	0xbdb80d90	-0.08986962
154	0xbdaf3873	-0.08555689
155	0xbdbae93b	-0.091265164
156	0xbc37a281	-0.011208178
157	0x3c07bd43	0.00828487
158	0xbbbb3549	-0.005713139
159	0xbdb58e8a	-0.08865078
160	0xbd968a11	-0.07350553
161	0xbd9c75c0	-0.076396465
162	0x3ccfdc7c	0.02537369
163	0x3d33cc54	0.043896034
164	0x3cc21491	0.023691447
165	0x3d59c6f1	0.05316824
166	0x3c95d15a	0.018288303
167	0xbbab82c6	-0.0052340953
168	0x3cd69c63	0.026197618
169	0xbcd31279	-0.025765644
170	0xbd43b354	-0.047778443
171	0xbd081752	-0.033225365
172	0xbd327f86	-0.043578647
173	0x3a64c964	0.00087275193
174	0xbd882862	-0.066483274
175	0x3b86eda0	0.0041176826
176	0xbcc57606	-0.02410413
177	0xbd8619cb	-0.06547888
178	0xbd2d3d63	-0.04229487
179	0xbc808863	-0.015690034
180	0x3b789bc7	0.0037934647
181	0xbc20436d	-0.009781701
182	0xbd555c90	-0.052090228
183	0x3d1fe250	0.039034188
184	0x3b02c7c7	0.0019955502
185	0xbc41a277	-0.01181852
186	0xbb92c09d	-0.0044785277
187	0x3d2eb998	0.042657465
188	0xbc9cd6d8	-0.019145414
189	0x3bb78783	0.005600871
190	0x3d1a5b56	0.03768476
191	0x3d0b24c4	0.03397061
192	0x3d35c521	0.04437745
193	0x3cd7bb00	0.026334286
194	0x3d31b08f	0.04338127
195	0xbb78ae57	-0.0037945712
196	0x3d02bf22	0.03192056
197	0x3d304d08	0.043042213
198	0x3d3bb267	0.045824435
199	0xbc77aad9	-0.015116417
200	0x3c617317	0.01376035
201	0x3b8675af	0.0041033844
202	0x3be7edf8	0.0070779286
203	0xbc8c8e72	-0.017157767
204	0xbbbf3c41	-0.0058360402
205	0x3c8200bc	0.01586949
206	0x3c6f2d71	0.014598236
207	0xbd1c766a	-0.038198866
208	0xbb903f1b	-0.004402054
209	0xbc9736b4	-0.018458702
210	0xbd04016b	-0.032227915
211	0xbc22e365	-0.00994191
212	0xbc950b48	-0.018193856
213	0xba4bcebb	-0.00077746407
214	0xbd0f9c09	-0.035060916
215	0xbdbe6cf9	-0.09298129
216	0x3b9e852e	0.0048376536
217	0x3d0d1ed4	0.034453228
218	0xbc4c490d	-0.012468589
219	0x3cb5c306	0.022187721
220	0x3be2f9b7	0.006926741
221	0xbb4b0d59	-0.0030983298
222	0xbcd5b5a7	-0.026087595
223	0x3c407552	0.011746721
224	0xbda84873	-0.082169436
225	0x3bc43bec	0.0059885886
226	0xbc661f2c	-0.014045518
227	0x3c764b99	0.015032672
228	0x3c4f7c36	0.012663892
229	0xbd48a096	-0.04898127
230	0x3c6bf386	0.014401322
231	0x3c404c51	0.011736945
232	0xbba8b4fe	-0.005148529
233	0x3d38b02b	0.045089882
234	0x3dbc8d25	0.09206609
235	0x3da0452c	0.078256935
236	0x3dab69dc	0.083698004
237	0x3d338de1	0.04383648
238	0x3b3139d5	0.0027042527
239	0xbd0e1d28	-0.034695774
240	0x3c8fb3e4	0.017541833
241	0xbae8e5b2	-0.001776865
242	0x3cedbac7	0.029019726
243	0x3cac23fb	0.02101325
244	0x3cd33ede	0.025786813
245	0x3ce5138d	0.027963424
246	0x3bd01a5f	0.0063508
247	0x3cad329f	0.021142302
248	0x3d8e8d1b	0.069605075
249	0xbccecc4b	-0.025243899
250	0xbcece16a	-0.02891608
251	0xbb106058	-0.0022030082
252	0xba228275	-0.0006199249
253	0x3d4550a2	0.0481726
254	0xbc6097b1	-0.013708041
255	0xbc9c1820	-0.019054472

body.block2.conv.bias f4 [32]
0	0xbc404a7b	-0.0117365075
1	0x3cc099d2	0.023510847
2	0x3ad353cd	0.0016122997
3	0x3d42201d	0.047393907
4	0x3af9737d	0.001903161
5	0x3c870cc8	0.016485587
6	0xbabff3ae	-0.0014644766
7	0x3d95ab5f	0.07308077
8	0xbc81a162	-0.015824024
9	0xbd4a290a	-0.049355544
10	0x3da58ad6	0.080831215
11	0xbddb12f1	-0.10696972
12	0x3d9fa6d0	0.07795489
13	0xbcd47956	-0.025936764
14	0x3d675c6e	0.056484632
15	0xbca348e3	-0.019932216
16	0xbb45a391	-0.0030157308
17	0x38b7fe8e	8.7735345e-05
18	0xbdfb5d7b	-0.12273689
19	0x3ca73d87	0.02041508
20	0x3dab09a2	0.08351447
21	0x3da9df28	0.08294517
22	0x3c8b0fdb	0.016975334
23	0x3ca19d4c	0.019728325
24	0x3d361411	0.04445273
25	0x3d646f41	0.055770162
26	0x3b8b320e	0.0042479103
27	0x3c2132d1	0.009838776
28	0xbd0d862f	-0.034551796
29	0x3cc2bb61	0.02377099
30	0xbc753bc6	-0.014967864
31	0xbb2633e1	-0.0025360512

body.block2.norm.weight f4 [32]
0	0x3f721e88	0.94577837
1	0x3f7e956c	0.9944675
2	0x3f6df896	0.9295744
3	0x3f7d92a3	0.99051875
4	0x3f5e2ea2	0.86789906
5	0x3f6bdab4	0.9213059
6	0x3f3f0af5	0.74626094
7	0x3f6d47b3	0.9268753
8	0x3f6908a0	0.91028786
9	0x3f70d4f7	0.9407496
10	0x3f5b3260	0.8562374
11	0x3f7a04de	0.97663677
12	0x3f5ead9f	0.86983675
13	0x3f3d82a7	0.74027485
14	0x3f4681cc	0.77541804
15	0x3f72181e	0.9456805
16	0x3f7a20f1	0.97706515
17	0x3f46872b	0.7755
18	0x3f6b6e70	0.9196539
19	0x3f6eadac	0.9323375
20	0x3f5e73ef	0.8689565
21	0x3f777ae0	0.9667187
22	0x3f75cf16	0.96019113
23	0x3f552fc8	0.83276033
24	0x3f671211	0.9026194
25	0x3f5489f4	0.83023
26	0x3f5a82e2	0.8535596
27	0x3f8597a8	1.0436907
28	0x3f737baf	0.951106
29	0x3f7a001b	0.9765641
30	0x3f61148c	0.8792198
31	0x3f63c39c	0.8897035

body.block2.norm.bias f4 [32]
0	0x3f11b082	0.56909955
1	0x3eaaade9	0.33335808
2	0x3f1747ab	0.5909373
3	0x3ed67622	0.41887003
4	0x3f1dd192	0.61647904
5	0x3f301820	0.6878681
6	0x3f4e230f	0.80522245
7	0x3ee67e01	0.45018008
8	0x3f37595f	0.71620744
9	0x3f025b33	0.5092041
10	0x3f422a70	0.75846004
11	0x3e8bf8ac	0.2733816
12	0x3f2967cd	0.6617401
13	0x3f20a017	0.6274428
14	0x3f63dc78	0.89008284
15	0x3f26e17c	0.6518781
16	0x3ece4a5c	0.40291107
17	0x3f587c9a	0.84565127
18	0x3ea4f9c4	0.32221806
19	0x3e6e0097	0.23242413
20	0x3f56782a	0.83777106
21	0x3ea7cf8e	0.3277554
22	0x3e8bbaf1	0.27291062
23	0x3f34365b	0.7039544
24	0x3f28374d	0.6570938
25	0x3f6ce298	0.92533255
26	0x3f43d283	0.7649309
27	0xbe146554	-0.14491779
28	0x3e882976	0.26594132
29	0x3ecac3fe	0.39602655
30	0x3f2195dc	0.6311929
31	0x3ee18ce6	0.4405281

body.block2.norm.running_mean f4 [32]
0	0x3ecc0d1c	0.39853752
1	0x3d975b27	0.07390433
2	0xbfa17ab2	-1.2615569
3	0xbf242fbd	-0.6413534
4	0xbd9b98c4	-0.07597497
5	0x3f0fbf31	0.5615111
6	0x3f944e4e	1.1586397
7	0x3f70c50f	0.9405069
8	0xbebd2d44	-0.36948597
9	0xbef6d230	-0.48207235
10	0x3d104bb5	0.03522845
11	0x3ef8f05a	0.48620874
12	0x3e89938b	0.2687038
13	0x3e2b42ea	0.16724744
14	0x3e65f6e8	0.22457469
15	0x3f64e4bc	0.8941152
16	0x3e044338	0.12916267
17	0x3d8cae24	0.06869152
18	0xbe80255f	-0.25028512
19	0xbfc741b4	-1.5566926
20	0xbfc704cc	-1.5548339
21	0x3ecd6949	0.4011939
22	0xbd8d219d	-0.06891177
23	0x3e3a4a08	0.18192303
24	0xbf26c73c	-0.6514776
25	0xbdcdbd9f	-0.10045933
26	0x3f104159	0.5634971
27	0xbbfadc78	-0.0076556765
28	0xbf4500ee	-0.76954544
29	0xbf5a8e07	-0.85372967
30	0xbef1b3f2	-0.472076
31	0x3e551705	0.20809563

body.block2.norm.running_var f4 [32]
0	0x3f2edf3d	0.68309385
1	0x3f358387	0.7090382
2	0x3ee4c5b0	0.44682074
3	0x3ed25a69	0.41084602
4	0x3ee9fe06	0.45701617
5	0x3e95bced	0.292457
6	0x3eaeb83e	0.3412494
7	0x3ed7e0f1	0.42163804
8	0x3f06ce36	0.526584
9	0x3f0ce3d2	0.55035126
10	0x3f3efb43	0.74602145
11	0x3eea481f	0.4575815
12	0x3ee01052	0.4376245
13	0x3e95b0a2	0.29236323
14	0x3ecb5850	0.39715815
15	0x3f09e419	0.53863674
16	0x3efab688	0.48967385
17	0x3f00a423	0.5025045
18	0x3f192198	0.59816885
19	0x3eb01e06	0.34397906
20	0x3f52fd3b	0.8241765
21	0x3f0c1879	0.5472484
22	0x3ebdeab0	0.37093115
23	0x3ed2ebda	0.41195565
24	0x3ed7526e	0.42055076
25	0x3f3003da	0.68755877
26	0x3eaa94bd	0.33316603
27	0x3ef40337	0.47658703
28	0x3e9aed1f	0.30259034
29	0x3f27aa4c	0.6549423
30	0x3ef16003	0.47143564
31	0x3eb1f107	0.34754202

body.block3.conv.weight f4 [32, 32, 3, 3]
0	0xbada1b77	-0.0016640265
1	0x3cea5dc7	0.02860917
2	0x3c1089de	0.008821933
3	0x3c20e65b	0.009820546
4	0xbbe113e1	-0.006868825
5	0xbbf473c0	-0.0074600875
6	0x3da7de3c	0.08196685
7	0x3ca3a8a5	0.019977877
8	0x3db2802b	0.08715852
9	0x3d620800	0.05518341
10	0x3dbce2b1	0.092229255
11	0x3deddc9b	0.11614343
12	0x3afbedd4	0.0019220659
13	0xbbcd4e84	-0.0062654633
14	0xbcfa7a70	-0.03057596
15	0xbd9be304	-0.07611659
16	0xbcb07404	-0.021539696
17	0x3c90bb62	0.017667476
18	0xbd2b1454	-0.041767433
19	0xbca1790d	-0.019711042
20	0xbcf92e09	-0.03041746
21	0xbc81b6ab	-0.015834173
22	0x3b9c1c43	0.0047641112
23	0xbd825cfd	-0.06365392
24	0x3c53f711	0.012937323
25	0xbd462795	-0.048377592
26	0xbd7590ad	-0.059952427
27	0xbde661b7	-0.112491064
28	0xbd8028a8	-0.062577546
29	0xbd89e2fc	-0.06732747
30	0xbd1c5487	-0.03816655
31	0xbccd9f69	-0.025100427
32	0x3d6c56b4	0.057699874
33	0xbc20b5a6	-0.009808933
34	0x3d75195a	0.05983863
35	0x3db83f8e	0.08996497
36	0xbcb7b3ca	-0.022424597
37	0x3d010f29	0.0315086
38	0x3dd04906	0.10170178
39	0xbc80cfa5	-0.015724013
40	0x3d508a31	0.05091304
41	0x3d3da562	0.0463003
42	0x3caf8ebd	0.021430368
43	0x3ce67522	0.028132025
44	0x3d9ed182	0.07754804
45	0xbda20f50	-0.07913077
46	0xbd079a7f	-0.033106323
47	0xbc59474c	-0.013261627
48	0x3cabc7d0	0.020969301
49	0x3cdf4467	0.027254296
50	0x3d9c31b3	0.07626667
51	0x3d2ec5f4	0.04266925
52	0xbd32fc3b	-0.043697577
53	0xbcc4dc8c	-0.024030946
54	0xbc2e9bf1	-0.0106572965
55	0xbd19d819	-0.037559602
56	0x3bec5373	0.0072120964
57	0xbcf27228	-0.02959545
58	0x3c23a79b	0.009988691
59	0x3c583fae	0.013198776
60	0xbdbb4ff4	-0.09146109
61	0xbdff3db4	-0.12462941
62	0xbd02d87a	-0.03194473
63	0xbce59387	-0.028024448
64	0xbc2916ec	-0.010320406
65	0xbd71a6c1	-0.05899692
66	0xbcedb95b	-0.029019048
67	0x3c89a203	0.016800886
68	0xbbbf3fa9	-0.0058364463
69	0x3c46a8b5	0.012125184
70	0x3ce35c4c	0.027753972
71	0x3ceb82c5	0.02874888
72	0x3c493f47	0.012283153
73	0x3d3001b4	0.042970374
74	0x3d62b8ef	0.055352148
75	0xbcd90b83	-0.026494747
76	0x3c899edd	0.016799385
77	0x3ce34e27	0.027747227
78	0x3bb6a4d8	0.00557385
79	0x3d45f974	0.0483336
80	0x3d7613a1	0.060077313
81	0x3dc16ef7	0.09444993
82	0x3aabeb20	0.0013116337
83	0x3b4bc599	0.003109312
84	0xbc20ca25	-0.00981382
85	0xbd7c5395	-0.061603148
86	0xbd194f2e	-0.037429027
87	0x3d25f414	0.040515974
88	0x3cd594ca	0.026071925
89	0x3d9dadc5	0.076991595
90	0x3c9ae978	0.018910155
91	0x3c54dc6f	0.012992009
92	0x3d566fc8	0.052352697
93	0xbca17ea1	-0.019713702
94	0xbcb47bb2	-0.022031639
95	0x3d8a4f8a	0.06753452
96	0xbdc7b02f	-0.09750401
97	0xbdd94d52	-0.10610451
98	0xbd8813a4	-0.06644371
99	0xbd0920cd	-0.033478547
100	0xbc18c514	-0.009324331
101	0x3cdc6522	0.026903693
102	0x3c960c74	0.018316485
103	0xbcaeb45b	-0.021326235
104	0x3bbb999e	0.0057250997
105	0x3bf1a218	0.0073740594
106	0x3d0512a1	0.03248847
107	0x3c3ed751	0.011648015
108	0xbbb611ce	-0.0055563217
109	0x3cef4b40	0.029210687
110	0x3d2cd73a	0.042197444
111	0x3c131522	0.008977206
112	0x3cbdc275	0.023164013
113	0x3d974f38	0.07388157
114	0xbd008083	-0.03137256
115	0x3c8a9557	0.016916914
116	0x3d05f8e3	0.03270806
117	0xbc7b120d	-0.015324128
118	0xbc1d9590	-0.009618178
119	0x3c2192e0	0.009861678
120	0xbcce1881	-0.025158169
121	0x3d558ebf	0.052138086
122	0x3da8d9b9	0.08244652
123	0xbb61c512	-0.0034449738
124	0x3b2ca79d	0.0026345022
125	0x3d988a5b	0.07448264
126	0xbcb62618	-0.022234961
127	0xbc1e42ef	-0.009659513
128	0xbd55a87d	-0.052162636
129	0x3b9d85da	0.004807216
130	0xbd92b06f	-0.07162558
131	0xbda641ff	-0.081180565
132	0x3d7b3c58	0.061336845
133	0x3d1146d2	0.03546793
134	0x3d78aafa	0.06070993
135	0x3db12298	0.08649176
136	0x3d07a2f5	0.033114392
137	0xbd7ad651	-0.061239544
138	0x3d482ad2	0.04886896
139	0x3cb41647	0.021983279
140	0x3c8f1e32	0.017470453
141	0x3c18be38	0.009322695
142	0xbc7784c9	-0.015107342
143	0xbd3f655f	-0.046727534
144	0xbbfd7738	-0.0077351592
145	0xbcd3f9a1	-0.025875868
146	0xbcc3c5ed	-0.02389809
147	0xbc8631d9	-0.016381191
148	0x3baedb0c	0.005336171
149	0xbd2d46b2	-0.04230375
150	0x3c13bb2e	0.009016795
151	0x3d413ab9	0.047175143
152	0x3cd431d7	0.025902672
153	0x3aa20afb	0.0012362892
154	0x3bb204f7	0.0054327208
155	0xbc091bf5	-0.008368482
156	0xbc3a464d	-0.0113693
157	0xbd584024	-0.052795544
158	0xbd4f571f	-0.050620195
159	0xbc45bf0e	-0.012069477
160	0xbd9b30ce	-0.07577668
161	0xbd8a7c30	-0.06761968
162	0xbd63cc3c	-0.055614695
163	0xbd415290	-0.04719788
164	0xbd4c172d	-0.04982679
165	0x3b356d15	0.0027683426
166	0xbc280680	-0.010255456
167	0x3cd27444	0.025690205
168	0x3c60efec	0.013729077
169	0x3c7ab772	0.015302526
170	0x3d8a0013	0.067382954
171	0xbbe7f504	-0.0070787687
172	0x3be50846	0.0069895117
173	0xbd22f512	-0.0397845
174	0xbd481d9e	-0.04885637
175	0x3cbcdf04	0.02305556
176	0x3d228b8a	0.039683856
177	0x3cd9cbaf	0.026586382
178	0x3d6fa63c	0.058508143
179	0x3d3425e6	0.043981455
180	0xbcfb77a9	-0.030696707
181	0xbd3a6552	-0.045506783
182	0xbdf2dc9a	-0.11858483
183	0x3c0123c2	0.0078820605
184	0xbc7c085b	-0.0153828515
185	0xbd49af3f	-0.049239393
186	0x3c399d8d	0.011329067
187	0xbc9a993f	-0.018871902
188	0x3c45f76c	0.012082916
189	0xbd4f040b	-0.050540965
190	0xbd84f35b	-0.06491729
191	0xbd0e7f63	-0.034789454
192	0x3c371ad1	0.011175827
193	0x3bfa9ee6	0.0076483367
194	0x3b10168e	0.00219861
195	0x3d60136f	0.054706033
196	0x3c196806	0.00936318
197	0x3c598228	0.013275661
198	0x3aa7a58f	0.0012790429
199	0x3b94547e	0.004526674
200	0x3d0eafeb	0.034835737
201	0xb9299e99	-0.00016176178
202	0x3cd7f38d	0.026361251
203	0x3d6c2dc9	0.05766085
204	0x3c662bdf	0.014048546
205	0x3cf67b34	0.030088045
206	0x3d45909f	0.048233625
207	0xbd67f356	-0.056628548
208	0xbd83322d	-0.06406055
209	0x3bddd402	0.006769658
210	0xbd503709	-0.050833736
211	0x3a67a248	0.00088361325
212	0xbbf91fc4	-0.0076026637
213	0x3ce2e089	0.027694957
214	0xbc99303d	-0.01869976
215	0xbb1ec0c1	-0.0024223777
216	0xbd393d5c	-0.045224532
217	0xbc418542	-0.011811556
218	0xbd971080	-0.07376194
219	0x3b9d1bc1	0.0047945683
220	0xbc3b79eb	-0.011442642
221	0x3b1f7a32	0.0024334309
222	0x3ca6e9d8	0.020375177
223	0xbc7aaeab	-0.015300433
224	0xbc434722	-0.011918815
225	0xbcdb9e64	-0.026808925
226	0x3d857ff7	0.06518548
227	0x3cd8e0e7	0.02647443
228	0x3c82b2a3	0.015954321
229	0x3ccee423	0.025255268
230	0x3d587c62	0.052852996
231	0xbd24f5ac	-0.040273353
232	0xbc3eb22f	-0.011639162
233	0xbbf779cc	-0.007552361
234	0xbcc56804	-0.02409745
235	0xbcc026c7	-0.02345599
236	0xbdb9342c	-0.09043154
237	0x3d94b1eb	0.07260498
238	0xbc8ccb74	-0.017186858
239	0xbd381ab6	-0.04494735
240	0x3d92d4c1	0.07169486
241	0xbd83f942	-0.064440265
242	0xbd283a64	-0.04107131
243	0x3d9e7cd8	0.07738656
244	0x3dc36688	0.09541041
245	0x3d647915	0.055779535
246	0xbd09bd4b	-0.03362779
247	0x3dd081df	0.10181021
248	0x3d6a59a5	0.057214398
249	0xbd274865	-0.040840525
250	0x3ca6f068	0.020378307
251	0x3d30c1f9	0.043153737
252	0xbc0e1573	-0.008672106
253	0xbc8fb010	-0.017540008
254	0x3c8aecfe	0.01695871
255	0x3cc12c21	0.023580613

body.block3.conv.bias f4 [32]
0	0x3d21951d	0.039448846
1	0x3d34622d	0.04403894
2	0xbaa00a4b	-0.0012210099
3	0x3db18fa9	0.08669979
4	0x3d80aa25	0.062824525
5	0xbc2bf040	-0.010494292
6	0xbccaa7cb	-0.024738213
7	0x3d22a6a6	0.03970971
8	0xbd7937b1	-0.060844127
9	0xbd8c4020	-0.068481684
10	0xbd588918	-0.052865118
11	0xbc6f4a8a	-0.014605174
12	0xbc827ad3	-0.015927708
13	0x3ce8e29f	0.028428374
14	0x3cb4969f	0.022044478
15	0xbc509f49	-0.012733289
16	0xbc31e680	-0.010858178
17	0xbbf02dc9	-0.0073296768
18	0xbbd87535	-0.006605769
19	0x3aa2cdd2	0.0012420958
20	0xbb1c81d7	-0.0023881102
21	0x3d256591	0.040380064
22	0x3c190ca2	0.009341391
23	0xbca7192d	-0.020397747
24	0x3d1f4671	0.038885538
25	0xbd1adb8a	-0.037807025
26	0x3d81ee0c	0.06344232
27	0xbd28bc63	-0.041195285
28	0xbcd7f4e2	-0.026361886
29	0xbd7d4beb	-0.06183998
30	0xbc35137a	-0.011052007
31	0xbd2e5e67	-0.042570498

body.block3.norm.weight f4 [32]
0	0x3f8aa7cc	1.0832458
1	0x3f84350c	1.0328689
2	0x3f8b3a24	1.0877118
3	0x3f89f036	1.0776432
4	0x3f812426	1.0089157
5	0x3f810b74	1.008162
6	0x3f8bde91	1.0927297
7	0x3f927dcf	1.1444644
8	0x3f765423	0.9622213
9	0x3f6892ed	0.9084919
10	0x3f89b158	1.0757246
11	0x3f84cc4b	1.0374845
12	0x3f7cf122	0.9880544
13	0x3f7260dd	0.9467905
14	0x3f849cd8	1.0360365
15	0x3f90d392	1.1314566
16	0x3f86e740	1.0539322
17	0x3f8ef571	1.1168653
18	0x3f9123ae	1.1339014
19	0x3f864d4d	1.049234
20	0x3f826de8	1.0189791
21	0x3f8dccb0	1.1078091
22	0x3f8bde49	1.0927211
23	0x3f82fe69	1.023389
24	0x3f825bd5	1.0184275
25	0x3f8ca613	1.0988182
26	0x3f8ac49e	1.0841253
27	0x3f89ddd7	1.0770825
28	0x3f90a598	1.1300535
29	0x3f9771fb	1.1831659
30	0x3f9a6add	1.2063862
31	0x3f898e55	1.0746561

body.block3.norm.bias f4 [32]
0	0x3f25a534	0.64705205
1	0x3f1c4a08	0.6105046
2	0x3f3c00e8	0.7343888
3	0x3ecd217d	0.40064612
4	0x3f19d646	0.6009258
5	0x3f4d3a18	0.8016677
6	0x3f3accdd	0.72968847
7	0x3f1b6298	0.6069732
8	0xbeb3ea98	-0.35139918
9	0xbf252863	-0.6451475
10	0x3f93d9ac	1.1550803
11	0x3f2d2fae	0.6765088
12	0xbebad45f	-0.3649015
13	0xbed85cbc	-0.4225825
14	0x3fce78ac	1.6130576
15	0x3fa9743c	1.3238597
16	0x3f623274	0.88358235
17	0x3f13d352	0.57744324
18	0x3fb4ea5a	1.4134018
19	0xbd8d500f	-0.069000356
20	0x3f184ff5	0.59497005
21	0x3f5aecb7	0.8551745
22	0x3f859f57	1.0439252
23	0x3e25442b	0.16139285
24	0x3e06b939	0.13156594
25	0x3f19899b	0.59975594
26	0x3f4433a8	0.7664132
27	0x3f04d309	0.51884514
28	0x3f5c8803	0.8614504
29	0x3f80023e	1.0000684
30	0x3fa18b3a	1.2620614
31	0x3f1d9b53	0.6156513

body.block3.norm.running_mean f4 [32]
0	0xbce9d1a9	-0.028542357
1	0x3fa0f31b	1.257419
2	0xbda2215d	-0.0791652
3	0x3ea1c7eb	0.31597838
4	0x3f1ba5c3	0.6079981
5	0x3f96248d	1.1729904
6	0x3c622fbc	0.013805326
7	0x3fd4bef1	1.6620771
8	0xbe0eebac	-0.13957089
9	0xbc7209ce	-0.014772845
10	0xbd8612bc	-0.06546542
11	0x3f97765c	1.1832995
12	0xbe49a630	-0.19692302
13	0x3e00a219	0.12561835
14	0x3f24fe53	0.6445057
15	0xbe630195	-0.22168572
16	0xbdb0e795	-0.08637921
17	0x3f05fd53	0.5233967
18	0x4008cda0	2.1375504
19	0x3fd53a64	1.6658444
20	0x3f111574	0.5667336
21	0x3f92dd7b	1.147384
22	0xbdd671e8	-0.10470945
23	0x3f2dfdca	0.67965376
24	0x3f85fa81	1.0467073
25	0xbe6c1218	-0.23053777
26	0xbeafe0d4	-0.34351218
27	0xbeb2a0ed	-0.34888402
28	0x3fcc132b	1.594335
29	0x3fc74ddc	1.5570636
30	0xbe0ed53d	-0.13948531
31	0x3f09e9f2	0.538726

body.block3.norm.running_var f4 [32]
0	0x3f60b10a	0.8777014
1	0x3f452db8	0.77022886
2	0x3f1f4ed7	0.62229675
3	0x3f2c77fb	0.67370576
4	0x3f4efe9d	0.8085726
5	0x3f31e3a8	0.69488
6	0x3ef367da	0.4754017
7	0x3f0af33e	0.5427741
8	0x3e8a3b95	0.26998582
9	0x3e2e26eb	0.17007034
10	0x3f0b51cd	0.54421693
11	0x3eeab5a6	0.45841712
12	0x3e99dc5e	0.3005094
13	0x3ea8e6a2	0.3298846
14	0x3eaea45d	0.34109774
15	0x3f375646	0.7161602
16	0x3ef53799	0.4789398
17	0x3f68ad35	0.9088929
18	0x3f83418e	1.0254381
19	0x3edc74bf	0.4305782
20	0x3f5617c3	0.8363001
21	0x3f320951	0.69545466
22	0x3f96a088	1.176774
23	0x3e36e636	0.17861256
24	0x3ef3854e	0.4756264
25	0x3f81e789	1.0148784
26	0x3e9607d8	0.2930286
27	0x3ed99ffe	0.42504877
28	0x3f55ac25	0.83465797
29	0x3f386a76	0.72037446
30	0x3f3ace3a	0.72970927
31	0x3f2a90cc	0.6662719
